Trained_Models/BotDetection_v4_MLP___May-10-2024/BotDetection_v4_MLP_epoch68_val_loss_0.477778.pth (torch, 958645 bytes, 45 tensors)

L1.weight f4 [256, 133]
00000000: 6c50 053c c71d 6f3d dd11 b13d 0676 3abe
00000010: 4834 c83c 56b2 3b3d 2d82 483e 961b 27bd
00000020: 6d23 2d3c 0b63 2a3d dca0 9dbd bbaf dd3c
00000030: b316 55bd 770c 57bd ee2c 0abe 1f6f b63d
00000040: 91aa 35bc e69c 31bd c28f c3ba 6813 54bd
00000050: 790c f6bc eba5 2cbc 6f58 4bbd 5833 0dbd
00000060: 6211 883d 37dc debd a4aa fa3c 6450 dabd
00000070: 82d0 ca3c a17c d73d 80ab 9738 3b41 21bd
00000080: 8079 b7bd bc2f afbc f54a 7abd a9cf a43d
00000090: 6e2f d33d a739 9a3d 4a01 9abd 41b8 55bd
000000a0: e23f 563e e9e9 4abc a151 15bd 5c2e 9b3b
000000b0: ba47 82bc e7ab ba3d 3eb2 d53b 92c4 8d3d
000000c0: 320e 0fbd fa5b a23d 7345 423d 0a23 303c
000000d0: b622 853d 37a6 d33d a39f d1bc c5b2 e33b
000000e0: a197 33bd 039a 5c3d dd52 40be e75f ffbc
000000f0: 4be1 35be 3e29 793c b05e 27be b864 53bd
00000100: cde2 0d3e 6d4d 00be 5425 a3bd 29a9 0a3e
00000110: d490 b9bc 7522 57bd 43e4 613d c2c6 dc3d
00000120: 275a d13d 9c85 853d 23c4 4abd 1e2d ddbc
00000130: e036 a2bd 50e3 3d3c cc1c 84bc 7fe4 ad3c
00000140: fb9e a1bb fa3d 18bd 5283 9ebd 2f54 04bd
00000150: 18a6 6c3d a893 4abd c86b 3cbe b353 d5bd
00000160: 0e93 eb3c c52a c3bc e553 0b3c 7c93 233e
00000170: 6582 c2bd 95a6 3b3a 8970 0dbd 1d5a 2f3d
00000180: 0cfc 1f3d 074c b6bd 8ae6 37bd 1291 be3c
00000190: be67 093d d42b e8bd 686a 033e a973 2bbe
000001a0: 3342 77bd bca1 993d f23a 8a3d 0260 43bd
000001b0: fc26 2dbd 47ce 81bd a9bd 3a3d 1af1 d2bd
000001c0: 7936 42bd dd2e a0bc a47c 9d3c 0960 debc
000001d0: 829e a43c daf1 d53d 2840 983d 1537 a93d
000001e0: 74e5 c3bd 7b73 533d e259 2e3c 1370 513e
000001f0: bd8d 00be 9749 27bc d57f 3f3d cc99 a03d
00000200: 6d81 9abd 5429 db3b ff66 953d 5b11 523d
00000210: 884d 71bd 56f6 d83b 452b 263d 10ff 75bc
00000220: a1d3 c83d 9464 15bd 0105 8d3d 7865 8fbd
00000230: 2ddb 10bd cde2 5c3d 1ecb 2fbd d83f f03b
00000240: a194 ddbb 362b 6fbd f632 813d c1fd 8e3d
00000250: 7408 533c 4755 87bd dbbe e5bb 34e3 8fbc
00000260: 9b87 533d 20b6 d7bc 8c82 5c3b fdc5 86bd
00000270: 693f dfbd c875 d1bd 509a 04bd 093f 9fbd
00000280: 5e84 e5bb be03 9fbd f764 413d 91b6 2bbc
00000290: c836 f3bc 0abf 8e3d 0198 873d c78b 7fbd
000002a0: f94b b3bc 22c7 fd3d 6ac7 903d f69a 253e
000002b0: cb04 b23d af1b 833d 9f0a 1abd ab05 953c
000002c0: 3db4 133d a094 1c3e f60b 17bd 52a2 d13c
000002d0: 1941 613d f383 783d a06f e93c 10dc a8bd
000002e0: 8534 95bd 7c18 873d 2637 133e f595 77bd
000002f0: 019c 65bd 9f96 323b b98e 8d3d ef34 b33d
00000300: b84f a0bd 426f a63d 909e 833d 9f15 b33c
00000310: 03e5 debd b28e 953b d227 143d 30a8 5fbd
00000320: c567 8abc f969 88bc 341c d3bc 98a0 9abc
00000330: 80f9 f33d a720 d33c f977 12bd b4a2 55bc
00000340: d21f ec3b d09f a93d e350 32bd 33b3 1ebc
00000350: ee2c d5bc bc60 1abd 1f29 15bc bd42 cdbd
00000360: 0bb6 cdbd 9d4b b03d ca39 17bd 82e2 663d
00000370: 3c5f 58bd e796 893c cf44 32be d56d ee3d
00000380: 5abb 31be 6ea6 4fbd aa0f ecbd 650e 3d3d
00000390: 23b1 21bc efeb d3bc f4e9 71bd 7aff 7bbd
000003a0: 3174 453d 9916 1d3e f0bc 983c 980b 6e3d
000003b0: 965e 7cbc 0cee 1a3d 9a31 c03d 8cfd 4e3d
000003c0: d1fe e4bd b529 033c 55ba b23b cc89 03bd
000003d0: 7529 6abd ed40 3f3d 3024 86bd 4f7d c83c
000003e0: 97dd 983b a27b 4a3d 40da a83d 1295 bb3d
000003f0: 20e4 47bd 7191 1dbe 9c6c a1bd 33aa a0bd
0.00813685 0.058378007 0.08645985 -0.18209085 0.024438992 0.04582437 0.19580908 -0.040797792
0.010567528 0.04159836 -0.07696697 0.027061334 -0.0520236 -0.05250212 -0.13493702 0.089079134
-0.0110880295 -0.04336252 -0.0014920163 -0.05177632 -0.030035244 -0.010537605 -0.049644884 -0.034472793
0.066439405 -0.108818464 0.030598946 -0.106598645 0.024757627 0.10521818 7.2321855e-05 -0.03936885
-0.08958721 -0.021385066 -0.06110664 0.080474205 0.10311781 0.075305276 -0.07519777 -0.05217767
0.20922807 -0.01238487 -0.0364548 0.004735751 -0.015903343 0.09114819 0.0065214923 0.069222584
-0.034925647 0.079276994 0.047429513 0.010750541 0.06500761 0.10334437 -0.025588816 0.006948801
-0.043845776 0.053857815 -0.1878161 -0.03117366 -0.17761724 0.015207587 -0.16344714 -0.051609725
0.13856049 -0.12529536 -0.07966104 0.13541092 -0.022652067 -0.052523095 0.055149328 0.107800975
0.10222273 0.065196246 -0.049503457 -0.026999053 -0.07920623 0.01158984 -0.016127013 0.02122712
-0.004932282 -0.03716848 -0.07739891 -0.032306846 0.057775587 -0.049457222 -0.1840049 -0.10416355
0.028756645 -0.023824105 0.008503889 0.1597423 -0.09497527 0.00071583065 -0.03453115 0.042810548
0.03905873 -0.0890122 -0.044897594 0.023262534 0.033546202 -0.113364846 0.1283356 -0.1674334
-0.060365867 0.075015515 0.06749524 -0.047698982 -0.042273507 -0.063381724 0.04559103 -0.10299893
-0.04741523 -0.019553596 0.019224472 -0.027145403 0.020095114 0.1044652 0.07434112 0.08262459
-0.09565249 0.051623803 0.010641547 0.20452909 -0.12554069 -0.010210416 0.04675277 0.078418344
-0.07544217 0.0066882763 0.072950356 0.051286083 -0.05891183 0.0066211624 0.04056861 -0.015014425
0.0980599 -0.036472872 0.0688572 -0.070017755 -0.035365272 0.05392723 -0.042918317 0.0073318295
-0.0067621027 -0.05839082 0.06308548 0.069819935 0.012880433 -0.06608062 -0.007011277 -0.017564394
0.051642995 -0.026331961 0.0033647148 -0.06580732 -0.109007664 -0.10227543 -0.032373726 -0.07775695
-0.007004305 -0.07764386 0.04721543 -0.010480539 -0.029689208 0.069700316 0.06620789 -0.06238916
-0.021886813 0.12391497 0.07069285 0.16172394 0.086923204 0.064017646 -0.037607785 0.01819118
0.03606056 0.15291071 -0.03687664 0.025590096 0.054993723 0.06067271 0.02849561 -0.082450986
-0.07285408 0.06596467 0.14376506 -0.060445745 -0.05605698 0.0027250422 0.06911988 0.08750331
-0.07827705 0.081266895 0.06426728 0.021860896 -0.10883524 0.0045641297 0.036170788 -0.054603755
-0.016895184 -0.016652094 -0.025770284 -0.018875405 0.11912823 0.025772406 -0.035758946 -0.01303928
0.0072059417 0.08282435 -0.04353417 -0.009686279 -0.0260224 -0.03768991 -0.009104042 -0.10022495
-0.100444876 0.08608172 -0.036920346 0.05636836 -0.052825198 0.016795589 -0.17409061 0.116420425
-0.17356625 -0.05069583 -0.11526425 0.046156306 -0.009868893 -0.025869338 -0.059061006 -0.06152294
0.048206512 0.15340652 0.01864478 0.058116525 -0.01540341 0.037824675 0.09384461 0.05053477
-0.11181415 0.008005549 0.0054543414 -0.032113835 -0.057168443 0.046692777 -0.06549871 0.024473814
0.0046650874 0.04943431 0.08244753 0.09159292 -0.04880154 -0.15387513 -0.07882044 -0.07844963

L1.bias f4 [256]
00000000: f4e3 a6bd cb4a 97bc b50f 7b3d 9b7b 8abc
00000010: e237 b2bc 94e0 79bd 52d7 053d 2dcb 2a3d
00000020: 37c9 56bd c4af 9dbd d079 bdbc e3fb 773d
00000030: 06d8 83bd b7a9 12bd 4541 aebd 8b11 21bc
00000040: 8c60 973c 495f 103d 6341 29bd b8a1 a93d
00000050: ff80 ef3b fb76 7dbd bc9f 8e3c 9da9 023d
00000060: 97d0 643d 47bb 7b3d 8a4d b5bc 9a99 8ebc
00000070: af94 33bd 7de9 103d 697f 87bd 9bf4 bdbc
00000080: d075 65bc 7f56 91bd 4357 093d 199d a13c
00000090: 15fd 963d 139e 5bbd f4d0 9f3d e4b2 153d
000000a0: 2f20 dabc 124e 87bd 36a8 a7bd 7102 023d
000000b0: d8e1 2cbd 822f cdbc c58a 0abd 905d 85bc
000000c0: 32bc f23b 1482 983d a1ac 673d 8bf9 833d
000000d0: 3cce 9c3b f740 dbbc bd29 23bd 73e9 4c3d
000000e0: 07e2 efbb 761e 0b3d cbed 9ebd 5199 313d
000000f0: 9fa6 39bd 85a7 19bc 43ac 8e3d 9158 583d
00000100: 7d7c 4dbd f189 923d 35b9 8fbd 0352 223d
00000110: 9402 633c 6569 a33d 833a 0e3c b89b 99bc
00000120: 7d26 973d 4cbd 51bd 05d1 753d 55b3 05bd
00000130: 93b2 3fbc 7639 19bd 498d 683d 86d1 5ebd
00000140: aedb c8bc a770 c53b 309d 9d3d 17fe 41bc
00000150: a901 18bd cdf0 22bc a559 a03c a293 1cbd
00000160: 0c8d b03d 7fd3 0f3d c104 fcbc aacb 4f3d
00000170: a939 cebc 6696 9b3c 37ac 78bc 3858 8abd
00000180: fc14 94bd a292 9abd 8a6d 45bd c8f7 aebb
00000190: 32f9 383c d442 6b3c 79f7 1f3d bcb5 b33b
000001a0: e8cc ac3d d6ae a6bc e840 953c 7810 923c
000001b0: 24a0 2e3d e0ad 8d3d b811 053d f0cc 303d
000001c0: a344 9d3d 3076 2b3d a23d a13d 8952 343d
000001d0: 4055 2b3d 527c 31bc 0eb0 5cbd ea72 9d3d
000001e0: 4aea 363d 8034 d43c e644 103d 9820 c4bc
000001f0: d7f4 27bc 1ca7 8d3d eb94 ba3c 32bd abbd
00000200: 1698 8f3d f0f1 d23c e1cd 2dbd 19e5 1ebd
00000210: e43a 84bd 20d2 a53d 47ce 26bd b24d 1fbd
00000220: c694 e33c 45f0 0dbd d284 3a3d 1b12 f9bc
00000230: 4e48 a8bc 78b1 dbbc 408f a13b 5f1a 323d
00000240: 5499 5ebc 8062 8b3d 5d7c afbd eec1 87bd
00000250: 81f3 c73c c8b6 d5bb b887 56bc d4b0 cb3c
00000260: 3b24 91bd bbc1 16bc 62b5 7cbd 1418 9e3d
00000270: f8b8 9a3c cb73 533d 40e0 63bd dee2 a9bc
00000280: b86f 3e3d 97f6 953d 2b37 94bd f373 c0bc
00000290: 3726 80bc 9867 a43d 65ef 5bbd 1919 033d
000002a0: 11f4 813d 7448 86bd 0512 a73d 3654 aebd
000002b0: d228 82bd 82b6 cdbc ae58 8d3b 4df3 4b3b
000002c0: 2616 843d 16b2 983d 6680 c0bc 1f8c a43c
000002d0: e4ec f8bc 9f87 ca3c 75a7 ddba d8a7 253d
000002e0: c8f2 bb3a a851 dcbc bbc4 173d 3023 803d
000002f0: ae67 25bd 03e6 bc3c d970 1f39 c4fa ccbc
00000300: 7f4c 173d 5541 4a3d 9d6c 1f3d cbd2 96bd
00000310: ea77 00bd 2cc4 923d 6823 4b3d eab7 473d
00000320: bc76 57bd baae fe3c 80db 32bc 0f72 09bd
00000330: 8d12 533d 6e81 aa3d 4fbb 1e3d b9ce 813d
00000340: cef8 4abd 538a 2e3d 2af0 a3bd 62f7 aabc
00000350: f72f aabc f1e1 91bd da24 debc 2807 863d
00000360: d901 2ebd 9e1b 993d 30ca 303d 28da 0ebd
00000370: a61b 473d 600f a5bd 1989 143d 9d2a 29bd
00000380: e2f8 8bbd dccc ae3d 7403 5cbb b65f 5abd
00000390: f86e af3d 81ef b03c 3390 56bc 45e0 05bd
000003a0: 7378 9f3d 6218 453d 1f2f a03d 375a 013d
000003b0: 9fdb 8b3d 4e74 5dba 0190 9e3c e4ed b23c
000003c0: e2c8 a73d 4106 853d fb80 543d 1601 abbd
000003d0: f8ed 813d 37d8 413d 039f 9dbc bb62 823c
000003e0: 706e aebd c51c 46bd 6106 893d fa94 a3bd
000003f0: ff4a 093a 5be8 7b3c 96d9 83bb 3437 4fbd
-0.08148947 -0.018468281 0.061294276 -0.016904643 -0.021755163 -0.06100519 0.03267605 0.04169767
-0.052437987 -0.0769954 -0.023129374 0.060542952 -0.064376876 -0.035806384 -0.08508543 -0.009830843
0.018478654 0.03524712 -0.041322123 0.082827985 0.0073090787 -0.061881047 0.017410152 0.031900037
0.05586299 0.0614579 -0.0221317 -0.017407227 -0.043842968 0.03537892 -0.066160984 -0.023187926
-0.0140051395 -0.07096576 0.033530485 0.01972823 0.0737249 -0.05361755 0.078035265 0.036547557
-0.026626674 -0.066066876 -0.081863806 0.03174061 -0.04220757 -0.025047068 -0.033823747 -0.016279966
0.0074076885 0.074466854 0.056561116 0.06444081 0.0047853272 -0.026764376 -0.039834727 0.050027322
-0.0073206457 0.033964597 -0.07760199 0.043359105 -0.045324918 -0.009378319 0.0696645 0.05281884
-0.05016755 0.071552165 -0.07017747 0.039628994 0.013855595 0.07979087 0.0086809425 -0.01875101
0.07380388 -0.05120592 0.06001379 -0.032641727 -0.01170029 -0.037408315 0.056775365 -0.054399036
-0.024518814 0.006025392 0.07695997 -0.011840365 -0.03711096 -0.009945107 0.019573996 -0.03822673
0.086206526 0.035113808 -0.030763986 0.05073134 -0.025173979 0.018992614 -0.015177778 -0.06755108
-0.07230565 -0.07547499 -0.048200168 -0.0053395964 0.011289882 0.014359195 0.039054368 0.005484311
0.0843752 -0.02034704 0.018219426 0.017830119 0.04263319 0.0691793 0.0324876 0.043164194
0.07679107 0.04186076 0.07873084 0.044024024 0.041829348 -0.010832863 -0.053878836 0.07687934
0.04465703 0.02590394 0.035221957 -0.023941323 -0.010251245 0.06916639 0.022776088 -0.083856955
0.0701143 0.02575013 -0.04243267 -0.038792703 -0.06456545 0.08096719 -0.040724065 -0.038892455
0.027780902 -0.034652967 0.045536824 -0.030404141 -0.02054229 -0.026818022 0.004930407 0.04348218
-0.013586361 0.06805897 -0.08568642 -0.06628786 0.024408104 -0.0065220334 -0.013093881 0.024864592
-0.070869885 -0.009201462 -0.061696418 0.07719436 0.018887028 0.0516241 -0.055633783 -0.020738062
0.046493262 0.07322424 -0.07237085 -0.023492789 -0.015643222 0.080275714 -0.0536951 0.032006357
0.0634538 -0.06556788 0.08157734 -0.08512156 -0.06355442 -0.02511144 0.00431355 0.003112036
0.06449537 0.07455842 -0.023498725 0.020086346 -0.030386396 0.024722872 -0.0016910868 0.04044327
0.0014339322 -0.026894405 0.03705285 0.062567115 -0.04038208 0.023058897 0.0001520546 -0.025021918
0.036938187 0.04937871 0.03892194 -0.07364424 -0.03136436 0.07166323 0.049594313 0.04875938
-0.05260347 0.031089175 -0.010916591 -0.03355604 0.051531363 0.08325468 0.03875285 0.06338257
-0.049553685 0.042612385 -0.08004792 -0.020869914 -0.020774825 -0.07123173 -0.027117182 0.06544334
-0.04248223 0.07475971 0.04316157 -0.03487602 0.048610352 -0.08059573 0.03626356 -0.041300405
-0.0683458 0.085351676 -0.0033571394 -0.053313933 0.085660875 0.02159858 -0.013095903 -0.032684583
0.07786646 0.048118956 0.07821488 0.031580176 0.06828999 -0.00084478117 0.019355776 0.02184195
0.08192612 0.064953335 0.051880818 -0.083498165 0.06344217 0.04732534 -0.019240862 0.015916219
-0.08517158 -0.04836728 0.0669067 -0.079873994 0.00052373105 0.015375222 -0.004023741 -0.050589755

BN1.weight f4 [256]
00000000: 8286 7e3f 26fc 7f3f 6040 7b3f caaf 773f
00000010: 9bf5 7c3f a480 813f 906e 823f eeb6 7e3f
00000020: f7d8 7f3f cb4a 823f a81c 7c3f b62e 7b3f
00000030: b610 7f3f 9684 813f 2d7e 853f 2a7e 803f
00000040: fb19 823f 4cc4 803f b2a1 7e3f bcd3 803f
00000050: d96b 7c3f 606c 7d3f 3eda 873f 06ef 813f
00000060: 3268 823f ad2d 823f 390c 853f b405 813f
00000070: c0e4 833f c878 843f a322 853f ac02 803f
00000080: 648b 833f 4425 7e3f 8cfb 7d3f f226 823f
00000090: 6be5 853f 76c7 823f d590 7f3f 0321 823f
000000a0: 6892 813f da3a 843f b2aa 813f 3248 853f
000000b0: 7ea3 7f3f a505 823f f820 803f bbdb 7c3f
000000c0: cbd7 863f 8727 803f 37dc 7a3f 7272 7e3f
000000d0: 406c 7c3f 1d51 823f e799 7e3f 8377 7f3f
000000e0: 89c1 803f b1d4 813f 8a4a 803f 114b 863f
000000f0: 054d 7e3f 986b 813f d621 853f 407c 843f
00000100: 7aa8 783f 3dff 803f 812d 7c3f 00e8 823f
00000110: e89f 7f3f 0189 8b3f d73b 7f3f 3e43 793f
00000120: 1e13 843f b7fe 833f f211 813f 4744 803f
00000130: e20e 813f 75e0 843f 46b6 823f b27d 823f
00000140: 5751 823f 72ea 7d3f d741 803f f7f9 7c3f
00000150: 8beb 803f 37b6 803f 6183 813f bf68 843f
00000160: 893e 843f 2c79 803f ca74 823f fbb6 843f
00000170: 43b2 813f 4546 803f de08 833f 9436 833f
00000180: c954 813f c760 823f cb9a 803f a350 843f
00000190: 0f65 7f3f 8f3d 7f3f f529 813f 8a11 833f
000001a0: bbcb 823f 1a1a 843f 6521 803f a082 843f
000001b0: de1b 833f 450f 843f 5ccb 813f d252 843f
000001c0: dbf4 7c3f 11b2 823f 230d 853f fde4 853f
000001d0: 0b4f 863f e491 7c3f 61ac 7e3f e6f0 7e3f
000001e0: 0248 7e3f f100 7b3f 663b 833f 9955 7c3f
000001f0: cb9a 803f 5e81 803f c716 833f b198 833f
00000200: 5fca 7d3f 6e76 803f 53a2 7c3f a8a2 7c3f
00000210: 7191 7f3f 8ccd 813f ef3b 813f 7aed 823f
00000220: 8752 833f b6fe 7a3f 18da 813f aba9 7b3f
00000230: b14a 843f 5d27 813f b9a2 7f3f f17a 803f
00000240: efee 853f 4d77 803f 1830 813f 04d3 823f
00000250: 458c 823f c8c0 813f 9573 843f b078 7d3f
00000260: 4392 813f c9a0 7d3f 019b 833f 6074 7d3f
00000270: 8a81 7f3f c437 823f ec78 7b3f 2a34 813f
00000280: 4525 7d3f 573e 833f 9c65 7c3f c2f2 803f
00000290: 61ba 813f ff52 7f3f 1b82 8a3f f769 7c3f
000002a0: accb 823f 1b66 803f 984f 853f 8b28 7d3f
000002b0: e36e 803f 0589 813f 6359 823f 75a3 813f
000002c0: 8b3e 7c3f 14b5 823f ec3e 7d3f e307 813f
000002d0: a4cb 813f 4921 823f 27ee 813f 089e 7c3f
000002e0: 513e 833f 3e60 823f 614e 7e3f 64ae 7d3f
000002f0: 95c8 813f 250c 803f 5cba 813f 3c24 7f3f
00000300: 3339 803f 17ed 813f d413 813f f74b 833f
00000310: be26 883f 442e 813f d9db 853f a27d 813f
00000320: ad41 803f 979d 823f 6dfb 833f 1bc4 7c3f
00000330: 4930 833f 40f2 7d3f fc10 7b3f 0065 7f3f
00000340: ef1e 7e3f c9bd 823f 3366 853f 8b32 803f
00000350: 53cd 813f 7abd 7f3f 5d4b 843f 471d 803f
00000360: 835a 823f f6fb 823f 1256 823f d1b5 7e3f
00000370: 8e79 833f ec6c 7b3f 07ad 7e3f b522 823f
00000380: ef1e 823f 6a48 7e3f 9d11 813f 35fd 7f3f
00000390: 091b 813f a9ff 863f 4850 7f3f 28cf 833f
000003a0: fab2 873f bb0f 7c3f 5767 813f 9faa 833f
000003b0: ef98 863f b2e1 843f 3941 803f f7a2 783f
000003c0: 1683 7a3f f015 7a3f 917b 813f 5844 863f
000003d0: de02 7f3f 1bd5 7b3f 27c9 7c3f 9ac3 7e3f
000003e0: 48d1 833f d658 813f 8fb4 7f3f 5394 823f
000003f0: a90e 803f 8668 803f 1c45 853f 603b 883f
0.9942399 0.99994123 0.98145103 0.9675261 0.98812264 1.0117383 1.0189991 0.9949788
0.9994044 1.0179075 0.98481226 0.9811815 0.99634874 1.0118587 1.0429131 1.0038502
1.0164179 1.0059905 0.9946548 1.0064616 0.9860206 0.9899349 1.0613477 1.0151069
1.0188048 1.0170189 1.0394355 1.0079865 1.0304184 1.034936 1.0401195 1.0000815
1.0276914 0.9927561 0.99211955 1.0168135 1.0460638 1.0217121 0.9983037 1.0166324
1.0122805 1.033046 1.0130217 1.0412657 0.99858844 1.0157973 1.0010061 0.9877278
1.0534605 1.0012063 0.9799227 0.9939338 0.98602676 1.0181004 0.99453586 0.99791735
1.0059062 1.0143033 1.0022748 1.0491658 0.9933627 1.011096 1.0400951 1.0350418
0.97132075 1.0077893 0.98506933 1.0227051 0.9985337 1.0901185 0.99700683 0.9736823
1.0318334 1.0312108 1.0083601 1.0020837 1.0082667 1.0380999 1.0211875 1.0194609
1.0181073 0.9918586 1.0020093 0.98818916 1.0071882 1.0055608 1.0118219 1.0344466
1.0331584 1.0036979 1.0191891 1.0368341 1.0132526 1.0021445 1.0237081 1.0251031
1.0103999 1.0185784 1.0047239 1.0337108 0.9976358 0.99703306 1.0090929 1.0239727
1.0218424 1.0320466 1.0010191 1.0352364 1.0242879 1.031716 1.0140185 1.0337775
0.9881112 1.0210592 1.0394634 1.0460507 1.0492872 0.9866011 0.9948178 0.9958633
0.99328625 0.9804831 1.0252502 0.9856811 1.0047239 1.003948 1.0241326 1.0280973
0.9913692 1.0036142 0.9868519 0.98685694 0.998313 1.0140853 1.0096415 1.0228722
1.025956 0.9804491 1.0144682 0.9830577 1.0335294 1.0090138 0.9985767 1.0037519
1.0463542 1.0036408 1.0092802 1.0220647 1.0199057 1.0136957 1.0347773 0.9901228
1.012276 0.99073464 1.0281678 0.990057 0.99807036 1.0173268 0.9823139 1.0094044
0.98884994 1.02534 0.98592544 1.0074084 1.0135003 0.99736017 1.0820955 0.9859919
1.0218406 1.003116 1.0414915 0.9888999 1.003384 1.011994 1.0183529 1.0128008
0.98532933 1.0211511 0.98924136 1.0080532 1.0140271 1.0166408 1.0150803 0.98678637
1.0253392 1.0185621 0.99338347 0.99094224 1.0139338 1.0003706 1.0134997 0.99664664
1.0017456 1.0150479 1.0084176 1.0257558 1.0636823 1.0092244 1.0457717 1.0116465
1.0020043 1.0204343 1.0311104 0.98736733 1.024911 0.9919777 0.9807279 0.9976349
0.9926595 1.0214168 1.0421814 1.0015424 1.0140785 0.99898493 1.0335499 1.0008935
1.0183872 1.0233142 1.0182517 0.9949618 1.027147 0.98213077 0.9948277 1.0166842
1.016569 0.99329245 1.00835 0.9999574 1.0086375 1.0546771 0.99731874 1.0297594
1.0601494 0.984615 1.0109662 1.0286444 1.0515422 1.0381377 1.0019904 0.97123665
0.9785627 0.97689724 1.0115834 1.0489607 0.9961375 0.9837205 0.98744434 0.99517214
1.0298243 1.0105236 0.99884886 1.0201515 1.0004474 1.0031898 1.0411716 1.064312

BN1.bias f4 [256]
00000000: 4105 373d 8a50 37bd 545f ffbb f442 bf3d
00000010: 7480 4a3d 2fda 86bd 0443 58bc 878f 26bd
00000020: b88e e9bb 9880 2dbd 5082 043d 3f95 a0bc
00000030: 416f f63c 0704 b2bd d3af bebd 11c2 a0bc
00000040: accf 16bc bbfa b53b ac38 0abd 56dd 87bc
00000050: 1e25 693c 8454 e73c 432d 0dbe 5f2b ddbc
00000060: 1b43 ab3c 9aed 42bd 9ec0 93bc e52a 993b
00000070: 21d6 1bbd 6439 a2bd 5ff2 c1bd 80ba 1abc
00000080: fe94 85bd f49f a13d 432f 98bd c35c c73c
00000090: 2ec7 a9bc eeaf 0cbd 7e89 b9bc 3cdf 88bc
000000a0: 6b34 09bc ca06 f3bd e31c 8fbd bd38 cfbd
000000b0: 2cd8 e53b 69cb eebb a07f dbbd 641e 8cbc
000000c0: a5c4 5cbd 1ba8 23bd ec06 803d 7d1b da3a
000000d0: c5fa 563d e1fa 95bd e773 603d d17b dcbc
000000e0: 94a9 08bd 32c5 73bc 26b3 833c f697 b9bd
000000f0: 8061 9d3c 38ac 4dbd 36f2 18bd 445c 91bd
00000100: e2ef 243c f83d 3fbb fa5e 623c ce0c 40bd
00000110: 4430 c03b dc44 dcbc f14b 763d f8b0 3e3d
00000120: 0c5b f5bc 4cc7 373b b263 89bb e19a f13b
00000130: eee3 32bd 8474 f6bd f504 abbd adf8 2bbd
00000140: 7cb5 edbc 1e1d 593d 2e92 36bd d4f6 6cbd
00000150: 26dc 06bb 7d86 8f3d c1a1 3bbc 4943 97bc
00000160: 55bf 48bd 7963 eebc 3717 4fbb d61c d7bd
00000170: 65b3 2ebd 04dd 95bd 0e89 34bd 7414 30be
00000180: 3ff2 5b3d bfee 70bc 6843 5b3d 7191 51be
00000190: bfd0 abbd fbdd fd3c 27ea 9bbd dfb6 50bd
000001a0: b4ef 34bd d226 52bd 4c87 88bc a422 8dbc
000001b0: afb9 01bd d94d aabd 840f 73bd 3e37 ddbd
000001c0: 3bfd 63bd df45 343c ffa6 0fbd 9fe8 c8bd
000001d0: 5a65 56bc bd99 713b da7a 97bd 48e9 ee3d
000001e0: 85a4 7e3d f95c 79bc 2773 eabd 20b2 433c
000001f0: b1e5 193c 6818 033d a1e3 59bd 5902 cdbd
00000200: 71a5 15bc b4b8 0ebd 38d5 d9ba 46f2 503d
00000210: f0e7 0b3d d2eb 89bd 8273 903b 113b 89bd
00000220: fa6b 69bd d054 f4bc 39a8 a8bd 8621 283d
00000230: b7ce cabd 34d2 9d3c 82be 1ebd 4325 bdbd
00000240: bd5c 86bc 0330 1abd 9aaf cf3a 05b4 86bd
00000250: b52b 8dbd 6f00 d4bc 5d1a 9ebd eaa4 bdbc
00000260: 7f18 bd3b a300 f93c 34e9 bbbd fbd0 90bb
00000270: 623b 34bc 3adc 14bd fe39 f7bc 55aa 80bd
00000280: dd66 29bd 79f2 66bd 594e 2a3d 495b f93c
00000290: 18e2 5ebd 7f8f cebd 38ff e2bd cafe 13bd
000002a0: ddc9 f13c b455 79bd 8489 233d 8d6c 4ebc
000002b0: 4519 fdbc 09ef 62bd ba18 21bd 2049 a93c
000002c0: f9a2 c03c 1269 09be a268 1b3d c406 053d
000002d0: 5104 9abb d0a6 08bd 83f6 bebd c920 9a3d
000002e0: 82ca c8bb 3273 07bd 2c0b b73b 7760 333c
000002f0: 12ac 3bbd 8057 8d3c 8bc7 ea3c c6e7 f4bc
00000300: 32b3 43bd ee6f 8f3c b5e2 1dbb 906e 24bd
00000310: 16c8 cbbd c22e 41be 8489 0cbe 2af9 04bd
00000320: 6cc5 813c 89d3 17be f229 76bd 94c3 8d3c
00000330: 8cd5 9abd 4dec 8ebc 3c3e 403c 6247 c3bc
00000340: 69d4 0fbc 47f3 9b3c 2eaa c5bd c02b c2bc
00000350: fa9b 85bd 7afc 56bd 6ebb e4bd 6543 6abc
00000360: 7961 15bd 26e9 93bd 11f4 cdbd ed8b d23c
00000370: 70e9 4fbd ed0d abbc 52ed 393d f8f6 cfbd
00000380: 3d39 b2bd 8f12 083d 04b2 44bd 8884 8ebc
00000390: 7057 bcbc 4ecb a8bd 0ebf a2bd e6a5 6abd
000003a0: 3dc6 94b9 fedd 663d 7ad4 6ebc 3041 95bd
000003b0: af41 78bc a2fe 42bd 8628 2cbd 9771 983c
000003c0: 7fdb 713d 0e55 383d 378d d9bd 0a8e 86bc
000003d0: 2fb7 18bd 758a 3fbd f455 0bbd 1212 7cbd
000003e0: c7ea edbd 9796 bebd 01bf 933c 11eb 3c3b
000003f0: 55e5 8ebd 0ed7 78bd fb21 99bd 9cdc 3bbd
0.044682745 -0.044754542 -0.0077933464 0.09338942 0.04943891 -0.06584584 -0.0131995715 -0.040664222
-0.007127609 -0.042358965 0.03235084 -0.019602416 0.030082347 -0.086921744 -0.093108796 -0.019623788
-0.009204786 0.005553571 -0.033745453 -0.016585033 0.014230041 0.028238542 -0.13786797 -0.02699822
0.020906022 -0.047589876 -0.018036183 0.004674303 -0.038046006 -0.07921103 -0.09470057 -0.009443879
-0.06522559 0.07891837 -0.074308895 0.024336224 -0.02072486 -0.034347467 -0.02264857 -0.016708009
-0.008374314 -0.11866529 -0.069879316 -0.10118244 0.007014295 -0.007287432 -0.10717702 -0.017104335
-0.053898472 -0.03995524 0.0625132 0.0016640272 0.052485246 -0.07323242 0.054798033 -0.026914509
-0.033364847 -0.014878558 0.016076636 -0.090621874 0.01921153 -0.05021307 -0.037340365 -0.070976764
0.010066958 -0.0029181223 0.0138165895 -0.04688721 0.0058651287 -0.026888303 0.060131017 0.04655549
-0.029950641 0.0028042374 -0.004192793 0.0073731993 -0.043674402 -0.12033942 -0.08350555 -0.041985203
-0.029017203 0.053006284 -0.044573 -0.05785258 -0.0020577996 0.070080735 -0.011452139 -0.018464701
-0.049010593 -0.029100167 -0.003159953 -0.10503547 -0.042651553 -0.07317546 -0.044076018 -0.17195302
0.05369782 -0.014705359 0.05353108 -0.20465638 -0.083894245 0.030989638 -0.076130204 -0.05095565
-0.04417391 -0.051306553 -0.016666077 -0.017228432 -0.031671222 -0.083156295 -0.05934097 -0.10801552
-0.05566142 0.011002987 -0.03507137 -0.09809994 -0.0130856875 0.0036865317 -0.07396479 0.116655886
0.062168617 -0.01521992 -0.11447745 0.011944324 0.009393142 0.032005697 -0.0531956 -0.100102134
-0.009133683 -0.034844115 -0.001661933 0.0510123 0.03415674 -0.06734432 0.004408301 -0.06700719
-0.05698774 -0.029825598 -0.08235211 0.041047595 -0.09902709 0.019265272 -0.0387559 -0.09235623
-0.016401643 -0.037643444 0.001584518 -0.06577305 -0.06893102 -0.025879113 -0.07719872 -0.023149926
0.0057707424 0.030395811 -0.09175339 -0.0044194437 -0.011000486 -0.036342837 -0.03017902 -0.06282488
-0.041357864 -0.056383584 0.041578624 0.030439036 -0.05441484 -0.100859635 -0.11083835 -0.036131658
0.029515201 -0.06087275 0.039926067 -0.012599123 -0.030895839 -0.055403743 -0.03933022 0.020664752
0.023515211 -0.13418987 0.037941583 0.032477155 -0.0047002216 -0.03336221 -0.09324362 0.075257845
-0.0061276564 -0.033068843 0.0055860486 0.010948292 -0.045818396 0.017253637 0.028659603 -0.029895674
-0.047778316 0.017509427 -0.0024091427 -0.040144503 -0.09950273 -0.18865493 -0.13724333 -0.032464184
0.015841208 -0.14826788 -0.060098596 0.017305173 -0.07560262 -0.017446661 0.011733588 -0.023837749
-0.00877867 0.019036902 -0.096516 -0.023702502 -0.06523891 -0.052486874 -0.11168562 -0.014298295
-0.03646991 -0.07222204 -0.100563176 0.025701487 -0.050759733 -0.020880664 0.045392342 -0.101545274
-0.087023236 0.033220824 -0.04802133 -0.01739718 -0.022990912 -0.08241902 -0.07946597 -0.05728712
-0.0002837646 0.056364052 -0.014577026 -0.07287824 -0.015152379 -0.047606118 -0.042030834 0.018608851
0.05904722 0.04500299 -0.10622638 -0.016425151 -0.037284072 -0.046762902 -0.03401752 -0.06154067
-0.11617046 -0.093060665 0.018035414 0.0028826634 -0.06977335 -0.060751967 -0.074771844 -0.045864686

BN1.running_mean f4 [256]
00000000: 04b9 0cc1 7928 8440 a953 b840 7d45 0441
00000010: 366a ccc0 1b2c f440 a6ed c241 972d 5b41
00000020: 8fd8 0b41 55bb 5ac0 6fed 9640 9d82 9d41
00000030: 1634 0841 fe54 98c0 739b 3dc0 4069 753f
00000040: 44d9 7641 083a 40c1 9145 4641 6e1f 5141
00000050: 3378 30c0 e4a1 5d41 5cbf 0340 21a2 9e40
00000060: e4ca 02c0 fb2c 1d3d 51ae 05c1 52df b440
00000070: 57d7 76c0 8e70 6fbf c8d6 c340 43b7 a0c0
00000080: c56b f040 e07c 6abf 6b7e b940 b3b6 05c1
00000090: 86b8 01c1 207b 6240 3701 3c40 c2f7 5ec0
000000a0: 2dfd 5141 cbfb 8141 7adf ae40 807b f33f
000000b0: 6536 efc0 9587 5340 ba03 1e41 2352 a83f
000000c0: 5b18 fec0 87fd acc0 a38c cfc0 03c5 f2c0
000000d0: 5ac3 9540 06d5 5ec1 6928 6940 ce7a 2440
000000e0: 498e a9bf 2580 b040 cb3a 0bc1 5b53 c140
000000f0: 150a e83f e8de 82c1 2ca8 0c40 3e66 90c0
00000100: dfa4 c4bf 3d9d c4bf 3af9 6041 0e9c 9340
00000110: b9a4 24c1 bbcc bf3e 82c4 1fc0 54ca e1c0
00000120: 2150 eebf 3729 3441 1766 56c1 d262 ec40
00000130: f09e 0241 ac54 ebc0 db68 fb40 7213 8ac0
00000140: b117 a33f b8d1 0d3e b8f2 cc40 bdc3 3b41
00000150: 82c4 94c0 885d 11bd 0817 27c1 9b23 4a40
00000160: 9efb 76bf d580 4440 4fca 9540 8819 1b41
00000170: c426 d23f 738e 09c1 51cf 0fbd 4168 8440
00000180: e58f 9940 942a 82bf ad80 3dc1 1178 e9c0
00000190: 4651 bd40 4271 45c0 86df a740 adc4 9540
000001a0: 5534 8141 92c3 7dbf 5ac4 ecc0 c0d7 ddc0
000001b0: 41c4 d1bf bedb fe40 fce5 3cc1 bab9 fdc0
000001c0: b6d5 0b41 289b 64c1 64cc 0440 1400 0841
000001d0: d89d 1dc1 db09 4dc1 49dd b33f c084 1bc1
000001e0: 46c8 0ec1 fba0 79c1 cb7b a440 249a bfc0
000001f0: 9564 83bc 8a77 d9c0 6294 b6c0 8c6a 1abf
00000200: 69eb a5c0 5f23 24c1 38b9 cb3f d107 33c1
00000210: 2b71 15bf bcf1 0bc0 3758 8f3f e416 2c41
00000220: 55c8 35be bd05 6bbf 1ca0 2540 dd7a 6e41
00000230: 931d b0c0 4de7 09c1 0598 c240 064e 1a41
00000240: bf5e da3e 33ee 653e 7432 25c1 570e c33f
00000250: 3fb2 37c0 7bca c2be b19e 88bf d15b 20c0
00000260: 9ce7 ebc0 d9fb f440 4978 ccbf e522 d6c0
00000270: 9b6b 5bc0 de4e 86c1 3592 48c1 a9b4 1241
00000280: 9aab 38c0 ae9c 2ebf 4deb 29c1 f5d5 0e41
00000290: a199 44c1 b522 2bc1 38d7 78bf b6a9 8e41
000002a0: 9cf2 92c1 959b 30c0 b420 953e 7817 3f41
000002b0: 5635 7841 9455 9b3f 4d1b 61bf 7330 7fc0
000002c0: 6741 10c0 37e7 2d41 8a0b db40 7219 77c1
000002d0: c691 03c1 cb9b 70bf ce3d 3841 3f78 6941
000002e0: a593 a03f 6970 22c1 d862 e040 850f 9440
000002f0: 2c42 73be e27f 7940 0037 e540 021b 8ac0
00000300: f9cd 13c1 fc86 8940 4d25 d33f 7830 10c1
00000310: 9594 8b3f 03b7 33c1 7866 8941 7a3e 87c0
00000320: 472f 42c1 bae6 14c1 2ebe b23f 2281 87c0
00000330: 813d 10c1 8369 4f41 df74 6341 c69a 33c1
00000340: 48f0 9540 6529 1cbf 3445 37c1 8d42 6040
00000350: ea3b 9540 7a56 e6c0 be88 a2bf ed2c 933f
00000360: 13f5 3e40 22f1 57c0 2392 333f c660 60c0
00000370: 55b8 c9c0 20d2 5cc1 2163 8bc0 c64b 1e3f
00000380: 8e31 70c0 e58e 463f a933 b7bf 6ff8 26c1
00000390: de61 8140 9949 09c1 f6cf be40 d208 093f
000003a0: 13f2 6640 3ccd 45c1 d133 803f b895 b53e
000003b0: b685 0dc1 4b85 5640 637a 3cc0 3ed7 a541
000003c0: ab5f 18c0 9f32 c440 3e2c 53c0 9e95 c040
000003d0: 52b6 6f40 7eeb 603f 8234 00c1 ca4c a2c0
000003e0: 4312 a6c1 521a 9040 da6a 9141 df27 b2c0
000003f0: af83 05c1 a704 dec0 d7ab cd40 99eb d0c0
-8.79517 4.1299405 5.7602124 8.266965 -6.387965 7.630384 24.36604 13.69863
8.740371 -3.4176838 4.7164836 19.688776 8.512716 -4.760375 -2.9626129 0.95863724
15.428043 -12.014168 12.391984 13.070173 -2.7573364 13.852024 2.0585546 4.957291
-2.0436335 0.038372975 -8.355058 5.652261 -3.8568933 -0.9353112 6.1199684 -5.022371
7.5131555 -0.91596794 5.796682 -8.357104 -8.10755 3.538765 2.9375741 -3.483872
13.1243105 16.247946 5.46478 1.9022064 -7.47539 3.3051503 9.87591 1.3150066
-7.940473 -5.405948 -6.4859176 -7.5865493 4.6800966 -13.927008 3.6430914 2.5699954
-1.3246547 5.5156426 -8.701854 6.041425 1.8128077 -16.35884 2.1977644 -4.5124807
-1.5362815 -1.5360485 14.060846 4.6127996 -10.2902155 0.37460884 -2.496369 -7.0559483
-1.8618203 11.260062 -13.399924 7.387063 8.163803 -7.354086 7.8565497 -4.3148737
1.2741605 0.13849533 6.4046288 11.735288 -4.648988 -0.03548959 -10.443123 3.1584232
-0.9647769 3.0703633 4.680946 9.693733 1.641808 -8.597278 -0.03510982 4.1377263
4.7988153 -1.0169244 -11.843915 -7.2959065 5.916171 -3.0850377 5.2460356 4.6802583
16.150553 -0.9912654 -7.3989687 -6.9325867 -1.6388017 7.964324 -11.806149 -7.9289217
8.7396755 -14.28788 2.074975 8.500019 -9.851036 -12.814906 1.4051906 -9.71991
-8.923895 -15.601802 5.1401114 -5.987566 -0.016039172 -6.795842 -5.705613 -0.6031883
-5.1849866 -10.2586355 1.5915899 -11.189408 -0.58375806 -2.1866293 1.1198796 10.755589
-0.17752202 -0.9180563 2.5878973 14.904996 -5.50361 -8.61897 6.081057 9.644049
0.4265041 0.22454147 -10.324818 1.5238751 -2.8702543 -0.38045105 -1.0673429 -2.505604
-7.3720226 7.655743 -1.5974208 -6.6917596 -3.4284427 -16.78851 -12.535695 9.1691065
-2.8854737 -0.68207824 -10.6199465 8.927236 -12.287507 -10.695973 -0.972034 17.832867
-18.368462 -2.759496 0.29126513 11.94323 15.513021 1.2135491 -0.8793228 -3.987332
-2.2539918 10.868949 6.8451586 -15.443712 -8.223089 -0.9398772 11.515089 14.591857
1.2545058 -10.152444 7.012066 4.6268945 -0.23755711 3.8984303 7.162964 -4.315797
-9.237786 4.2977276 1.6495758 -9.011833 1.0904719 -11.232181 17.175034 -4.2263765
-12.136542 -9.30633 1.3964288 -4.2345133 -9.015016 12.96326 14.216033 -11.2252865
4.685581 -0.61000663 -11.454395 3.504062 4.6635637 -7.198056 -1.269798 1.1498085
2.9837081 -3.3740926 0.7014486 -3.5059066 -6.3037515 -13.8013 -4.3558507 0.6183437
-3.7530246 0.7756179 -1.431264 -10.435653 4.0431967 -8.580468 5.962886 0.53529084
3.608525 -12.362606 1.0015813 0.3546579 -8.845144 3.3518856 -2.94497 20.730099
-2.380839 6.1311793 -3.2995753 6.018264 3.745503 0.8785933 -8.012819 -5.0718737
-20.758917 4.503213 18.177174 -5.567367 -8.344649 -6.938068 6.4272265 -6.5287595

BN1.running_var f4 [256]
00000000: 307f 5c42 550e 3042 00e9 0343 4b42 be42
00000010: f615 1a43 6c90 4943 9a5f 1543 3b3d c642
00000020: faff 0943 8666 fe42 15ee 2443 b493 3943
00000030: 940d b542 16ac b442 82c0 6842 0841 1e43
00000040: 125a df42 150b b142 d6c4 6f42 1251 0d43
00000050: 1644 e542 7b6f 3342 c36a cf41 16fc 8042
00000060: 6847 3b42 2ef3 cb42 a708 6342 255c 9942
00000070: 4bcf 4942 90cf 5143 e5bd 8342 a742 fd42
00000080: 2b0c bb42 a1c1 b642 85e6 d242 40f8 3542
00000090: f1a2 4e42 add0 bb42 3904 0343 7889 4442
000000a0: f31a 8043 9458 6e42 ce1f 8142 406e 9642
000000b0: ee37 8443 ca0d e042 69a6 af42 09e0 1f42
000000c0: bdd1 c342 9bd5 8e42 1240 ea42 50ab b342
000000d0: 0d1b 8642 30f2 e942 d587 7c42 a30e ca42
000000e0: 4d48 9542 b89e c642 4c69 7c42 f369 d441
000000f0: 06ab 3a42 e28a b042 0c5c 8e42 14cf bc42
00000100: 38e4 2043 ed9a 5142 453e 9a42 0335 a542
00000110: fb87 1443 3ff9 8742 f760 ea42 6856 5642
00000120: ee34 8942 6b15 7442 3e4b c442 35b8 2542
00000130: 7538 9f42 eca8 3642 aea4 bc42 c7a8 2042
00000140: c343 1242 e1c7 aa42 e701 8642 7acd 8243
00000150: c8a2 7f42 e843 1c42 3fa1 f542 48e7 4142
00000160: 7282 6942 d246 e642 1ad3 cf42 ae67 5c42
00000170: 9e2d 7142 580a 6a42 0d8b 9742 f96d 8442
00000180: e35a c342 1e69 4042 046e ad42 c4f6 ed42
00000190: bca8 f042 3cdc 0e43 c925 3442 09ab 3b43
000001a0: 43f2 8442 d813 3342 bc8b 4a42 a1f9 9242
000001b0: c5f2 7a42 8a9f b842 2b4d 0843 c65a ab42
000001c0: fb21 7a42 b4a6 9842 daca 8a42 b0f7 3942
000001d0: 1d17 3742 a18f b042 6015 a542 03ea 6942
000001e0: 1194 c742 72bc eb42 2738 ad42 83b6 1143
000001f0: defe 9842 f76f 1f43 3bb9 1142 a58f 6f42
00000200: 0904 fe42 138d 8942 8bde a042 79af da42
00000210: 36b8 5943 02bf 9042 0cf9 1543 0fde 9942
00000220: c30c b642 fbff 7242 ff1e a142 2229 f442
00000230: bbf8 3642 f8ae 8442 0f02 5742 840b 0a43
00000240: c092 8541 f555 cf42 fa62 a242 934f 1343
00000250: a58a 5a42 3f32 8442 e8b5 9142 cb3c 2743
00000260: dc66 2542 d403 1c43 1034 1242 784d 7a42
00000270: 0e04 5b42 dad0 af42 53bb a842 a567 e342
00000280: 6115 de41 d906 f742 f88b be42 091a 1b43
00000290: fbde 9442 4145 e642 8895 2342 8922 9a42
000002a0: 7046 0543 e955 8042 913c fa41 4355 cb42
000002b0: 1d2a 9e42 1a52 b642 edcb 7342 1897 2742
000002c0: c665 9342 4706 5742 c2c6 0f43 10c3 1743
000002d0: fa85 4c42 2623 1f42 8e4f 9c42 6a54 7142
000002e0: 3792 2342 e31a a442 85cf bf42 dbe1 0c42
000002f0: 3d84 3842 6b11 7f42 4f27 9f42 a40c 9442
00000300: c8cb 1643 c82c 8242 7a87 a842 651d 1643
00000310: 7a26 2f42 7fc0 8542 2626 0243 8f44 3a42
00000320: c0f0 a342 9579 2443 adab 3842 bacb a542
00000330: e288 da42 fc89 e542 1784 da42 9305 5a42
00000340: ed8d 9242 2e96 b642 93f6 6742 bef6 b542
00000350: 5229 d842 7e9c 8542 8bd3 3342 a144 9e42
00000360: 554c a642 03f7 df42 f090 3242 1ddf 9242
00000370: c2dd 8242 7e44 c342 9c25 6d43 64e7 3a42
00000380: 58d6 0743 9198 7442 9237 7b42 d2f3 e442
00000390: 6e4c 3543 c946 a142 a158 2943 837f 4c42
000003a0: 9d4f 8042 7f32 8342 3a4b 8342 74d4 8842
000003b0: 3607 c042 20b9 2342 8476 a042 8223 0943
000003c0: 4073 8442 220a 2a43 4638 cb42 c85f 3f42
000003d0: faed fd42 5ca0 ae42 349c de42 cdcc 2e43
000003e0: 11ef 3f43 da24 0e43 ca8b fb42 d99c 3c42
000003f0: 67c8 b442 33f8 c242 6f62 3142 17b4 e542
55.124207 44.013996 131.91016 95.12948 154.08578 201.56415 149.37344 99.11959
137.99991 127.20024 164.93001 185.57697 90.52652 90.336105 58.187996 158.25403
111.67592 88.521645 59.942223 141.31668 114.63298 44.858868 25.92713 64.492355
46.819733 101.97496 56.75845 76.67997 50.452435 209.81079 65.87089 126.63018
93.523766 91.37818 105.45023 45.49243 51.659122 93.90757 131.0165 49.134247
256.21054 59.586502 64.56212 75.21533 264.43695 112.02693 87.82502 39.968784
97.909645 71.4172 117.12514 89.834595 67.05283 116.97302 63.13265 101.02859
74.64121 99.31 63.10283 26.551733 46.667015 88.271255 71.17978 94.40445
160.89148 52.401295 77.12162 82.60354 148.53117 67.98681 117.189384 53.58438
68.60338 61.020916 98.14696 41.42989 79.61027 45.664963 94.32164 40.16482
36.566174 85.39039 67.003716 261.6053 63.908966 39.066315 122.81493 48.47586
58.377388 115.13832 103.91231 55.10125 60.294548 58.5101 75.77158 66.21479
97.67751 48.102654 86.714874 118.981964 120.32956 142.86029 45.0369 187.6681
66.47317 44.76938 50.63646 73.48756 62.73708 92.3116 136.30144 85.67729
62.533184 76.32559 69.396194 46.491882 45.77257 88.280525 82.54175 58.478527
99.78919 117.86806 86.60967 145.71294 76.49779 159.43736 36.43089 59.890278
127.00788 68.775536 80.434654 109.34272 217.71957 72.37306 149.97284 76.93371
91.024925 60.74998 80.56054 122.08034 45.7429 66.341736 53.75201 138.04498
16.696655 103.667885 81.19331 147.31084 54.635395 66.09814 72.855286 167.23747
41.35045 156.01495 36.550842 62.575653 54.75396 87.90791 84.36587 113.70243
27.760439 123.513374 95.27338 155.1017 74.43551 115.13526 40.896027 77.06745
133.27515 64.16779 31.279573 101.66653 79.08225 91.160355 60.949146 41.897552
73.69878 53.75613 143.7764 151.76196 51.130836 39.784325 78.15538 60.332436
40.892788 82.05251 95.90531 35.220562 46.12914 63.76701 79.576775 74.02469
150.79602 65.08746 84.2646 150.11482 43.787575 66.87597 130.14902 46.56695
81.970215 164.47493 46.167652 82.8979 109.26735 114.7695 109.25799 54.505444
73.2772 91.29332 57.990795 90.98192 108.0807 66.80565 44.956585 79.13404
83.149086 111.982445 44.64154 73.43577 65.43312 97.63377 237.14691 46.725967
135.83728 61.14899 62.804268 114.47621 181.29855 80.63825 169.3462 51.124523
64.155495 65.598625 65.64693 68.41495 96.014084 40.930786 80.231476 137.1387
66.2251 170.03958 101.60991 47.843536 126.9648 87.3132 111.305084 174.8
191.93385 142.14395 125.773026 47.15317 90.39141 97.484764 44.346127 114.85174

L2.weight f4 [128, 256]
00000000: c2ed b03c fdcf febc 0d4a 2f3c a8c2 b63b
00000010: 5e5d 96bc 4dc1 403d 113c 8bbb bc0b d03c
00000020: 7be8 21bd 8e93 4ebc 03d6 3bbd 39a7 78bd
00000030: af22 323d 0ef3 513d 0971 c53c a1f6 ae3c
00000040: 3c37 1e3d dad0 7bba c2c4 f63c a697 2b3c
00000050: 3fd1 833c 22a9 febb 3055 653b a031 223d
00000060: c344 893c fea3 52bb 9add 613d 9343 1cbd
00000070: 752f 1fbd 3620 05bd bd42 3abc 264b 983c
00000080: 0f4e 243d 8d06 263d 7bba c0bb 374d 7a3d
00000090: 4b99 463d c197 273c a1a4 923c 64cb 89bc
000000a0: cb97 8c3d d2a8 36ba e4e7 a73b c06c 8e3c
000000b0: 380b 0ebc 3136 923c d902 68bd ad68 473a
000000c0: 7d7f 003d 6550 03bd ef36 a43a dd32 10bd
000000d0: 4f82 78bd fda0 443d 7d78 063d 66fa 903d
000000e0: 2250 203c 96ae 55bc 8cd0 4c3d 6ec1 fe3c
000000f0: ac22 323c 09bc 2abd 49f5 823d 2052 063d
00000100: 8ff0 8d3c 8b49 913d 7b81 163d c799 4c3d
00000110: 02ec 46bd 5e54 b93d 7b9d 20bd 4f45 033d
00000120: efd5 71bd 95d6 28bd 41d1 273b 7746 c4bc
00000130: f48c 8a3d 3ab2 8d3d 2961 77bc d3b0 71bd
00000140: a8a5 3f3d 0a78 e5bc 0da2 4c3d 83fd 4fbc
00000150: 7bae e13b af06 f23c 7986 d5bb 519b 3b3c
00000160: d166 24bc 4607 4c3d 0f85 843c 832d 63bd
00000170: 5a86 c5bc 1b22 64bd 3973 3c3d 6326 b63c
00000180: 9eb8 0e3c 09b1 273c 6db6 0fbd 37da 73bc
00000190: df50 683d 998b 4bbd d4a8 5fbd 3723 843d
000001a0: 2187 c5bb 5517 803d 12a1 0e3c d99e 9d3c
000001b0: 91a3 a93c 234f 65bd e6d4 833d 8ad4 6d3d
000001c0: dfc1 233c 3692 37bd 117a 87bd c10f 83bd
000001d0: 7b32 6e3d dcc3 5ebd 5478 8bbb b114 953c
000001e0: f083 0fbd 8500 42bd 9855 653d cbce fa3c
000001f0: 7538 5cbd c1d7 d53c 9d4a 073d 879c b8bb
00000200: 747a 21bd e08a 0e3d 7017 babb 757c 0dbd
00000210: 1d5a 073c 21ea 86bc af38 e73c b893 c5bc
00000220: f5bb 98bc 61fa a6ba 599c 433d 7a3f 003d
00000230: bc20 7f3b 6f50 28bd e355 d23c ec2a 35bd
00000240: 04ec 5fbd 279d 3e3c 04d7 a1bc 37bb 363d
00000250: dcc9 b23b 8ae5 043b 5175 efba b45a 19bd
00000260: a890 f6bc e0d1 623d e122 6bbc bf11 0dbd
00000270: 9754 403d 0232 f83b 1f9d aebb acdc bd3c
00000280: 20c4 92bb bf67 40bc 8aa0 de3c 64b4 3d3c
00000290: 7852 3f3d 20c2 73bc 54db 123d 1d16 233c
000002a0: c791 13bd ca7d de3c 5282 f83c 0d3e d2ba
000002b0: 43e7 e63c 1c8b 833b f049 52bd 843d 46bd
000002c0: ef4f b53c afbd 163d f626 68bd 177f 5dbd
000002d0: 89ca c43c 416f 0cbd d42c afbc f2c4 8cbc
000002e0: 22d4 823d bb97 bfbb 75ff 5d3d 12e5 b2bc
000002f0: 5610 7fbd c80d 933d f242 62bc 352c 4cbc
00000300: 4fc3 27bd 5313 423d 7cf1 2dbb 8811 903d
00000310: 1b94 e23c 3521 4abd a6a3 abbb 9d34 893d
00000320: 34d4 283c 6a58 4cbc cad6 633a 7006 50bd
00000330: fd5e 083b e815 b8bc 1e8e 0ebc bccf 2abd
00000340: 4257 06bd e645 3ebd 431f d83c d7fe 683d
00000350: c1b0 383c 02e3 4d3d 47b3 9e3c 9847 393d
00000360: 22ff 843d 519d 9bbc 3a80 6b3d cb88 413c
00000370: 4e0e 243d 9814 cdbc bbe6 34bd aa5c 57bc
00000380: bcf6 16bc f3a6 a33c bdcf c93b 8838 123d
00000390: 2921 9a3d a693 3e3d 8df0 debc f2e8 fbbc
000003a0: 1998 d2bb 620d fbbb 65f7 aa3c 7e1a 6c3d
000003b0: 8fc4 fa3b 2e01 04bd 3d34 2abd d52d 6f3d
000003c0: ad51 643d f831 553c 8d32 7fbd 86e3 083d
000003d0: 4868 c1bb bf17 61bd 641e a33c 4853 723c
000003e0: f48e 2d3d b264 8b3c 153e 84bc d251 683d
000003f0: 7b65 86bd 5187 903d 61d5 fdbb d932 4f3d
0.021597747 -0.031105036 0.010698807 0.005577404 -0.018355068 0.047059346 -0.004249104 0.02539622
-0.03952835 -0.012608422 -0.045858394 -0.06070635 0.043490108 0.051257186 0.02410175 0.021357836
0.038626894 -0.00096060114 0.030123118 0.0104731675 0.016090987 -0.007771627 0.0034993403 0.039598107
0.016756421 -0.0032141204 0.055142976 -0.03815038 -0.038863618 -0.032501422 -0.011368451 0.018590521
0.040113505 0.04053359 -0.005881605 0.061108794 0.048486035 0.010229052 0.017900767 -0.016820617
0.0686489 -0.0006967905 0.005124079 0.01738584 -0.008669667 0.017848106 -0.05664334 0.00076068455
0.031371582 -0.032059092 0.0012528579 -0.035204757 -0.060671147 0.048005093 0.03282975 0.0707901
0.00978473 -0.013042113 0.050003573 0.031098094 0.010872524 -0.04168323 0.06394441 0.032793164
0.017326621 0.07094105 0.036744576 0.04995134 -0.04856492 0.09049295 -0.039212685 0.03204852
-0.059041914 -0.041220266 0.0025606903 -0.023959382 0.06765166 0.0691876 -0.015098848 -0.059006523
0.04678884 -0.02801134 0.04995923 -0.012694719 0.006887255 0.029544203 -0.0065162745 0.011450605
-0.010034279 0.049811624 0.016176729 -0.055463325 -0.024111915 -0.055696588 0.046008322 0.022235101
0.008711008 0.01023508 -0.035086084 -0.014883569 0.05671775 -0.049693678 -0.054604366 0.06452029
-0.0060280715 0.0625445 0.008705394 0.019240784 0.020707877 -0.055983674 0.064370915 0.05806402
0.009994953 -0.044817172 -0.06615079 -0.06399489 0.05815361 -0.054386005 -0.0042562876 0.018198343
-0.035037935 -0.047363777 0.05598983 0.030616185 -0.05376478 0.026103856 0.03303014 -0.005633894
-0.03942342 0.03480041 -0.0056790635 -0.03454252 0.008261231 -0.016469063 0.028225271 -0.02411829
-0.018644312 -0.0012739414 0.047756527 0.031310536 0.0038929423 -0.041092332 0.02567572 -0.044230387
-0.05466844 0.011634148 -0.019755848 0.044612136 0.0054561924 0.0020278418 -0.0018269216 -0.037440017
-0.030098274 0.055375934 -0.0143515775 -0.034440752 0.04695567 0.007574321 -0.005328789 0.023176514
-0.0044789463 -0.011743485 0.02717616 0.011578653 0.046709508 -0.014877826 0.0358537 0.009954003
-0.036027696 0.02715959 0.030335579 -0.0016040221 0.028186446 0.004014386 -0.051340044 -0.04839851
0.022132842 0.03680199 -0.05667778 -0.05407628 0.024022358 -0.034285787 -0.02138368 -0.017183755
0.063881174 -0.005846945 0.0541987 -0.021837745 -0.06227144 0.07180363 -0.013809906 -0.012461712
-0.040957745 0.04738171 -0.002654164 0.07034594 0.027658513 -0.049348075 -0.0052380143 0.06699488
0.010304499 -0.012472251 0.0008691369 -0.05078739 0.002080857 -0.022471383 -0.008700876 -0.041702017
-0.03279806 -0.04645338 0.026382094 0.05688366 0.01127261 0.05026532 0.019372595 0.045234293
0.06493975 -0.018995913 0.057495333 0.011812399 0.040052705 -0.025034234 -0.044165354 -0.013144651
-0.0092140995 0.019977069 0.0061587975 0.035698444 0.07525856 0.046527527 -0.027214313 -0.030750725
-0.006426823 -0.0076615075 0.02086992 0.057642452 0.007652826 -0.032227688 -0.041553725 0.05839332
0.055741955 0.013012402 -0.06230407 0.03342011 -0.005902324 -0.054954287 0.019911952 0.014790364
0.04237266 0.017015789 -0.016142884 0.056718655 -0.065623246 0.070570596 -0.007746384 0.0505856

L2.bias f4 [128]
00000000: 9e78 80bb 517f 2abd 4109 e0bb 2af6 0fbd
00000010: c375 c43c b41d 13bd 76a0 17bd 0db1 45bd
00000020: d19f bebc 84bd 65bc f3f8 333c 73af 933c
00000030: e251 c8bc 67ca 49bd 4ec5 6e3d 446e 1d3d
00000040: 8b43 c0bc 9b5e 883b 254b 4cbd f514 4bbd
00000050: ed15 633d 1c4e cd3c 967d 6c3c c9cc 41bd
00000060: 0e25 58bd f240 29bd 5973 17bd 4257 a33c
00000070: f22e b23b a490 f23c 4f65 af3c 7996 26bc
00000080: aba4 a83a 6649 043d 4c13 93bb 577a c93b
00000090: c2e5 c03b 7044 2bbc ca69 a4bc b27f a33c
000000a0: 9201 5b3d d524 4dbd ddae 8ebb 72a4 e2bc
000000b0: 3303 04bc cedd ba3c b3fe 60bd a3b1 ef3c
000000c0: 5bd5 bb3c ab6d fbbc a1dd 14bd 3700 b4bc
000000d0: 9f40 29bb bd18 10bd 1e07 653d b835 86bb
000000e0: 5b78 cdbc 5b16 43bd a928 c53c 2d83 09bd
000000f0: 7c33 aa3c aa37 35bc 89bf e0bc 4636 af3c
00000100: e3a2 7abd 1437 1f3d 1fe9 49bb 2b36 d43b
00000110: 0d54 113d 443b a3bc 1452 cb3c 21f0 fb39
00000120: 0aa3 93bc 31a5 3c3d f612 f73b 9474 293d
00000130: 0ea4 91bc f703 fd3c 433b f03c 16fd 123d
00000140: e28d 053d c562 103d dc83 28ba 5d09 ac3b
00000150: fde9 4bbd 82cd 333d 32bd 913c 81ea 87bc
00000160: c100 4fbd 0ed3 d6bc df96 8fbb 5395 f23c
00000170: 6fe0 4ebb 864c be3c fc21 433c c39d 743d
00000180: 8fbe 683d e38f 293d f3f8 7dbd ffb3 c2bc
00000190: cfa4 d63c 907b 263d 5a49 273d 92ef bbbc
000001a0: 9a44 ff3b 608a 423c af99 dd3c 2c2b 40bd
000001b0: 51b8 6bbd 273b 6a3d e906 313c 357a fd3c
000001c0: 58b9 43bd 50c0 1cbc e45c c83c e032 55bd
000001d0: cdcf 28bd c813 bebb 3d42 9fbc b8d9 663d
000001e0: b464 55bd 4016 44bd 416b a9bc 9a25 90bc
000001f0: 96fc 71bd db75 1ebb e0c8 c539 9bdf 263d
-0.0039206287 -0.041625325 -0.0068370407 -0.03514687 0.023981934 -0.035917 -0.03701826 -0.048264552
-0.023269566 -0.014022235 0.010984647 0.018027997 -0.024453107 -0.04926529 0.058293633 0.038435236
-0.023469707 0.0041616685 -0.04987635 -0.049580533 0.055440832 0.02506166 0.014434239 -0.04731444
-0.052769713 -0.041321702 -0.03697524 0.019939069 0.005437725 0.029609986 0.021410612 -0.010167711
0.0012866458 0.03229656 -0.0044883844 0.0061486172 0.0058867643 -0.0104533285 -0.020069975 0.01995835
0.053468294 -0.050083954 -0.0043543414 -0.027666304 -0.008057403 0.022810843 -0.0549304 0.029259508
0.022928884 -0.030691942 -0.036344174 -0.021972759 -0.002582587 -0.035179842 0.05591499 -0.0040957592
-0.025081804 -0.04762874 0.02406724 -0.033572365 0.020776503 -0.011060635 -0.027435081 0.021388184
-0.061190497 0.038870886 -0.0030809117 0.006476184 0.035480548 -0.019925721 0.024819411 0.0004805336
-0.018022079 0.046055976 0.007540102 0.041370943 -0.017778423 0.03088568 0.029325133 0.035885893
0.032606013 0.035250444 -0.000642834 0.0052501396 -0.049783695 0.04389716 0.01779041 -0.016591312
-0.05053783 -0.026223686 -0.004381999 0.029612219 -0.0031566878 0.023229849 0.011909958 0.059720766
0.056822356 0.041396987 -0.062004995 -0.02376747 0.026201634 0.040645182 0.040841438 -0.022941384
0.0077901604 0.0118738115 0.027050821 -0.046916172 -0.057548825 0.05718532 0.01080487 0.030942062
-0.04778418 -0.009567335 0.024458356 -0.05205047 -0.0412138 -0.005800698 -0.019440765 0.056359977
-0.05209799 -0.04787278 -0.020681025 -0.017596055 -0.059078775 -0.0024179134 0.00037724432 0.04074059

BN2.weight f4 [128]
00000000: 697b 823f 0d55 7e3f 0a4e 803f c93a 823f
00000010: ad92 823f 5017 833f f294 7e3f 6217 873f
00000020: 8420 813f f119 833f e06f 753f 68bb 7f3f
00000030: 49d9 813f ebb6 7b3f 9a84 813f d1da 793f
00000040: 0429 823f 5bad 843f 7aa2 843f 426b 7d3f
00000050: f830 803f 7303 813f 42ea 7d3f 6a32 843f
00000060: f953 7c3f 48f2 823f cc89 813f cf49 823f
00000070: bec8 7f3f 0f4d 853f 1ae9 823f 7e44 893f
00000080: 7d00 773f be41 863f 9046 7c3f 2bfb 823f
00000090: 00c9 803f 6d11 823f 4017 7f3f 4883 7e3f
000000a0: c0bd 813f 9c59 763f fb8b 853f f359 823f
000000b0: 5809 7f3f a61e 803f 5fdc 853f e88e 813f
000000c0: 461b 873f e520 813f fe15 7e3f 37fd 823f
000000d0: ab92 823f 672f 813f 1ec1 793f 3f60 7e3f
000000e0: dc2c 803f 49b8 833f 0d60 8d3f 4f3f 803f
000000f0: 67b3 813f 682f 8b3f 069d 7c3f 51af 7e3f
00000100: 55a8 813f d65c 873f 5dcd 783f 0f5d 803f
00000110: 010c 773f 4402 823f 3dd5 7a3f f3d8 863f
00000120: 4325 833f 7eee 793f 5102 863f 5579 833f
00000130: 83e0 7f3f 930f 863f 99dd 863f be23 813f
00000140: 7728 7e3f 9184 803f a174 873f 91ee 833f
00000150: 9496 7b3f 6e78 883f 9f48 853f a5cd 7d3f
00000160: 56ef 803f 5aad 823f 69ad 843f 8e0c 873f
00000170: 9981 833f a65f 843f 8295 813f b559 7f3f
00000180: 0288 843f 0dd1 7c3f 12bc 873f 7b77 7b3f
00000190: 2407 843f 77c1 803f b429 833f d72e 793f
000001a0: 640b 803f 9568 823f ccc2 7f3f 8a76 803f
000001b0: 429a 7b3f e3ef 803f 7c3c 823f 4604 763f
000001c0: cc68 833f df06 813f 1d7c 803f e167 833f
000001d0: 01be 7d3f c91d 833f 267d 833f ad50 803f
000001e0: 2b47 823f 1f93 7a3f 0b6a 7e3f 202a 7b3f
000001f0: ac13 7d3f d38f 803f abee 823f 9616 813f
1.0193912 0.9934853 1.0023816 1.017419 1.0201012 1.024149 0.9944602 1.0554011
1.0088048 1.0242292 0.9587383 0.99895334 1.0144435 0.98325986 1.0118592 0.9759951
1.0168767 1.0365404 1.0362084 0.9899179 1.0014944 1.0079178 0.99185574 1.0327885
0.9856563 1.0230188 1.0120177 1.0178775 0.99915683 1.0414141 1.0227387 1.0724027
0.9648512 1.0488813 0.9854517 1.02329 1.006134 1.0161568 0.9964485 0.9941907
1.0136032 0.96230483 1.0433344 1.01837 0.9962363 1.0009353 1.0457877 1.0121737
1.0555198 1.0088164 0.9925231 1.0233525 1.020101 1.0092591 0.975603 0.9936561
1.001369 1.0290614 1.1044937 1.001932 1.0132874 1.0873842 0.986771 0.9948626
1.0129496 1.0575206 0.9718836 1.0028399 0.9650269 1.0156941 0.97981626 1.0534958
1.0245746 0.97629535 1.0469457 1.0271403 0.9995195 1.0473503 1.0536376 1.0089033
0.99280494 1.0040456 1.0582467 1.030718 0.9827664 1.0661752 1.0412787 0.99141914
1.007304 1.0209153 1.036542 1.0550706 1.0273925 1.034169 1.0123751 0.9974626
1.0354006 0.98756486 1.060427 0.9822919 1.0314679 1.0059041 1.0247102 0.97337097
1.0003476 1.0188166 0.9990661 1.0036175 0.98282254 1.0073208 1.0174708 0.9610027
1.0266356 1.0080222 1.0037876 1.0266076 0.9911805 1.0243465 1.0272567 1.002462
1.0177969 0.9788074 0.9938056 0.9811115 0.9885814 1.0043892 1.0229086 1.0085018
