Trained_Models/BotDetection_v4_MLP___May-10-2024/BotDetection_v4_MLP_epoch05_val_loss_0.485465.pth (torch, 941008 bytes, 45 tensors)

L1.weight f4 [256, 133]
0.01123988 0.053934354 0.091757126 -0.051685 0.014882848 0.015628096 0.088089034 -0.08396686
0.008096532 -0.06279133 0.059616644 0.043846544 -0.0520236 -0.05221669 -0.11334818 0.058977287
0.060774464 -0.04021171 -0.010485772 -0.060027655 -0.052844055 0.00022173779 -0.074508905 0.0024216801
0.072925724 -0.07867278 -0.012411317 -0.02567102 0.022221252 -0.005453052 -0.055774905 -0.035720117
-0.07513958 -0.011244672 -0.036875572 0.08240324 -0.005615133 0.06521201 -0.06642736 -0.00089936657
0.07229331 0.044465568 0.022403123 -0.028359337 0.046165712 0.08343358 0.0021413218 0.057348844
-0.04950407 0.0508678 0.035042513 0.07450699 0.054467693 0.08446227 -0.0024172764 0.00087122986
-0.006701834 0.00041886923 -0.07868246 -0.035317924 -0.019849133 -0.046231247 -0.080612764 -0.034296624
0.02347026 -0.08593563 0.019693647 0.09570257 -0.021785144 -0.04387816 0.06510462 0.023495756
0.05283664 -0.04857786 -0.0551447 -0.034074336 -0.07119785 -0.016348936 -0.017068267 0.03640321
0.03254324 -0.07213942 -0.0023632527 -0.02629745 0.019508988 0.055870302 -0.06766418 -0.017429078
0.015932644 0.05861868 -0.04123719 0.10436279 -0.07483958 0.08034869 -0.0014558716 0.06867177
0.08027996 -0.03915538 -0.03676945 0.04438579 -0.041914098 0.013557074 0.025653774 -0.05645989
-0.0596032 0.06469946 0.0373287 0.008690582 -0.045782708 -0.07955808 0.039366934 -0.05109255
-0.05798629 -0.0054612844 0.014194308 -0.017228229 -0.0013862405 0.08583151 0.082632855 0.0675561
-0.0049715233 0.06652358 0.01014356 0.08774828 0.020730402 -0.038468484 0.03658059 0.05365886
-0.041164465 -0.02124485 0.0056460644 0.035793953 -0.049490888 -0.015403353 -0.0017580554 0.002455295
0.03814526 -0.021805702 0.0008962175 -0.07253203 -0.02571726 0.0572728 0.004398108 -0.0076495605
0.008050188 -0.05839082 0.02590184 0.037863884 0.010347972 -0.052958727 -0.022337921 -0.02451663
0.061605103 -0.02465837 0.030732756 -0.04811134 -0.023736613 -0.05594279 -0.011194258 -0.085514426
0.049337894 -0.0769645 -0.06633724 0.028209303 -0.030020146 0.062299088 0.059505846 0.009390388
-0.021141334 0.07465294 0.029043088 0.106268495 0.05720426 -0.040724766 -0.074624695 0.024311412
0.023279337 0.085938394 -0.04806147 0.044134866 0.04908614 0.05194431 0.040244576 -0.019659169
0.058137953 0.02145122 0.013209511 0.050327368 0.01271697 0.0053246575 0.002114987 0.0642147
0.0075791995 0.075595945 0.04616173 0.054251626 -0.069318086 0.053499818 0.05864673 0.006762409
0.008086292 -0.0066612107 -0.033968665 -0.039040267 0.087832786 -0.033546105 -0.06232407 -0.019155685
0.018755278 0.071749546 -0.054996572 -0.005328175 -0.025283141 0.024518931 -0.06910678 -0.08324213
-0.076184064 0.07090019 -0.04753625 0.06591607 -0.010128796 0.059435792 -0.07286973 0.026497992
-0.03695037 -0.008786837 -0.046877164 0.017320849 -0.074548416 -0.04727292 0.022205323 -0.033161182
0.029317975 0.07168992 0.07612863 0.09645736 0.05296664 0.028710999 0.07670223 0.07448906
-0.008490297 0.0066243303 0.019425463 -0.033421166 -0.028885055 0.05477448 -0.06738141 0.024343235
-0.06238256 0.047093187 0.08260232 0.08520487 -0.0750122 -0.061538644 -0.053817417 -0.067227975
00000000: 7927 383c 45ea 5c3d 29eb bb3d a7b3 53bd
00000010: 30d7 733c 7e06 803c 0668 b43d d1f6 abbd
00000020: 51a7 043c be98 80bd 9530 743d 6f98 333d
00000030: b316 55bd 2be1 55bd 1723 e8bd 2b92 713d
00000040: a5ee 783d 09b5 24bd 84cc 2bbc 8fdf 75bd
00000050: 0273 58bd 4982 6839 2098 98bd 0db5 1e3b
00000060: 155a 953d 321f a1bd d658 4bbc 084c d2bc
00000070: 5809 b63c 84af b2bb 3a74 64bd 424f 12bd
00000080: c8e2 99bd 933b 38bc d70a 17bd 08c3 a83d
00000090: 26ff b7bb e08d 853d 110b 88bd 78c3 6bba
000000a0: 840e 943d 8721 363d c186 b73c d751 e8bc
000000b0: 4218 3d3d 3adf aa3d 6b55 0c3b 9fe6 6a3d
000000c0: c8c4 4abd c15a 503d bd88 0f3d 1f97 983d
000000d0: 8419 5f3d 8efa ac3d 2b6b 1ebb 3f63 643a
000000e0: 0f9b dbbb ad9b db39 4524 a1bd 87a9 10bd
000000f0: a69a a2bc fa5c 3dbd 4e18 a5bd 9e7a 0cbd
00000100: b444 c03c 05ff afbd 9254 a13c b6ff c33d
00000110: c276 b2bc 96b9 33bd 9255 853d 2c7a c03c
00000120: 3c6b 583d 94f9 46bd 69df 61bd 8891 0bbd
00000130: 2ed0 91bd 34ee 85bc c0d2 8bbc 881b 153d
00000140: 0f4c 053d d5bd 93bd cde0 1abb c06d d7bc
00000150: 50d1 9f3c 42d8 643d 8593 8abd 6dc7 8ebc
00000160: 2d85 823c 241a 703d 54e8 28bd 29bc d53d
00000170: 7e45 99bd db8d a43d f2d2 beba c9a3 8c3d
00000180: d269 a43d 6461 20bd 909b 16bd e0cd 353d
00000190: 1eae 2bbd 7d1e 5e3c dd27 d23c 7c42 67bd
000001a0: 7c22 74bd 2781 843d fbe5 183d f162 0e3c
000001b0: a686 3bbd 59ef a2bd 393f 213d 6c46 51bd
000001c0: 0883 6dbd 93f4 b2bb 3e8f 683c 3722 8dbc
000001d0: 83b2 b5ba 6ec8 af3d 6a3b a93d da5a 8a3d
000001e0: 29e8 a2bb 843d 883d 2d31 263c 5fb5 b33d
000001f0: ced2 a93c 2191 1dbd 87d5 153d 65c9 5b3d
00000200: 129c 28bd ae09 aebc 9f02 b93b ae9c 123d
00000210: f5b6 4abd 585e 7cbc 8d6e e6ba 04e9 203b
00000220: 343e 1c3d dfa1 b2bc 23f0 6a3a ac8b 94bd
00000230: 01ad d2bc e296 6a3d 011e 903b 2aa9 fabb
00000240: f0e4 033c 362b 6fbd 1830 d43c 2917 1b3d
00000250: 8a8a 293c 40eb 58bd 04fe b6bc 1ad7 c8bc
00000260: a255 7c3d 5a00 cabc 43c3 fb3c 6510 45bd
00000270: 4973 c2bc 4424 65bd 1f68 37bc 3022 afbd
00000280: 8816 4a3d 909f 9dbd d2db 87bd 3217 e73c
00000290: cfec f5bc 542d 7f3d 67bc 733d 24da 193c
000002a0: 9730 adbc a4e3 983d c5eb ed3c 4ca3 d93d
000002b0: 044f 6a3d 03cf 26bd d5d4 98bd ba28 c73c
000002c0: 4fb4 be3c 7800 b03d 1bdc 44bd c3c6 343d
000002d0: 8c0e 493d 8fc3 543d 7fd7 243d 440c a1bc
000002e0: 1022 6e3d 78ba af3c b46c 583c 1224 4e3d
000002f0: d75a 503c 777a ae3b 989b 0a3b ff82 833d
00000300: ef5a f83b 0cd2 9a3d 1514 3d3d f436 5e3d
00000310: a4f6 8dbd a022 5b3d 8e37 703d 3397 dd3b
00000320: 5e7c 043c 4946 dabb ba22 0bbd b0e8 1fbd
00000330: ade1 b33d a467 09bd 8647 7fbd 62ec 9cbc
00000340: aba4 993c 6df1 923d 1644 61bd f997 aebb
00000350: 971e cfbc eddb c83c db87 8dbd da7a aabd
00000360: 6406 9cbd 1e34 913d 5fb5 42bd 01ff 863d
00000370: 40f3 25bc f272 733d ba3c 95bd 5112 d93c
00000380: 4559 17bd aaf6 0fbc 4502 40bd 74e4 8d3c
00000390: d7ac 98bd 40a1 41bd f0e7 b53c 05d4 07bd
000003a0: 402c f03c 2ad2 923d 54e9 9b3d 708b c53d
000003b0: 8cf3 583d 5433 eb3c 0f16 9d3d b88d 983d
000003c0: e31a 0bbc e910 d93b 2622 9f3c a2e4 08bd
000003d0: 5aa0 ecbc 355b 603d 44ff 89bd 776b c73c
000003e0: db84 7fbd c9e4 403d 682b a93d e47f ae3d
000003f0: ff9f 99bd f20f 7cbd a76f 5cbd d2ae 89bd

L1.bias f4 [256]
-0.08150003 -0.018498357 0.06128138 -0.016890783 -0.021759318 -0.06105314 0.032674946 0.041693468
-0.05245865 -0.0769926 -0.023180468 0.060576547 -0.06439512 -0.035765976 -0.085093215 -0.0098439725
0.018557211 0.035229117 -0.04137053 0.082829505 0.007308754 -0.061892558 0.01742207 0.031827565
0.05594168 0.061425723 -0.022084821 -0.01739086 -0.043447185 0.0353867 -0.06611844 -0.023174375
-0.013975473 -0.07101596 0.033518016 0.019673442 0.07379419 -0.053691182 0.07801835 0.036511734
-0.02684501 -0.06608412 -0.08184694 0.031713087 -0.042197224 -0.025031779 -0.03372194 -0.016272642
0.007421061 0.07449521 0.056576665 0.06442823 0.004832985 -0.02663825 -0.03986313 0.04993105
-0.0072929724 0.03381792 -0.077606365 0.043604095 -0.045329303 -0.009409525 0.06964966 0.05281488
-0.05017404 0.07157906 -0.07019543 0.039611395 0.014010933 0.079797514 0.008798695 -0.018767655
0.073848695 -0.051460594 0.060022533 -0.032644212 -0.01168182 -0.03748455 0.056714166 -0.05438621
-0.024603253 0.0061500026 0.07698318 -0.011804229 -0.037095457 -0.009875294 0.01956203 -0.038219504
0.08603014 0.03501762 -0.030720001 0.050643317 -0.025230227 0.01898371 -0.0151855 -0.067459814
-0.07232611 -0.07545775 -0.048099753 -0.0053581935 0.01127905 0.014288327 0.038885087 0.005348132
0.08434182 -0.020218465 0.018223185 0.017807705 0.0427007 0.06914178 0.032498274 0.043131962
0.07677317 0.041918002 0.078756474 0.044062782 0.041841414 -0.010825405 -0.053880185 0.07688487
0.044652153 0.02592339 0.035057243 -0.02397432 -0.0102150375 0.069172725 0.022583185 -0.084039606
0.07013062 0.025729284 -0.042449776 -0.03877944 -0.06456546 0.08108983 -0.040830754 -0.038981687
0.027816137 -0.03458984 0.045515984 -0.030416358 -0.020732123 -0.026820881 0.004915408 0.043461643
-0.013563643 0.06810287 -0.08547879 -0.06630881 0.024390418 -0.006514595 -0.0131438775 0.024858857
-0.0707172 -0.00916546 -0.06148563 0.07716683 0.018871991 0.05155057 -0.055631053 -0.020742705
0.046483535 0.07321344 -0.07236954 -0.023461573 -0.015514247 0.08026297 -0.053681623 0.032003645
0.063368216 -0.065570034 0.08157734 -0.085135564 -0.06371476 -0.025101872 0.004319172 0.0030867015
0.06447822 0.07457145 -0.023576813 0.02015509 -0.030422242 0.024532977 -0.0017021033 0.04041302
0.0015150086 -0.026878156 0.03704748 0.06254207 -0.04044635 0.023139527 9.681254e-05 -0.024990913
0.036946148 0.04941019 0.038929354 -0.07379347 -0.03142769 0.071498565 0.049591698 0.04881142
-0.052469403 0.031110782 -0.01090917 -0.033559095 0.051685657 0.08326274 0.038767613 0.06340843
-0.049562104 0.042663913 -0.08005314 -0.020849368 -0.02076648 -0.071294636 -0.027188338 0.065432854
-0.042603407 0.07475683 0.042972647 -0.034955163 0.048787113 -0.08057217 0.03627364 -0.04105337
-0.068459764 0.08529239 -0.0033466648 -0.053314693 0.085629456 0.021725511 -0.013101873 -0.03277224
0.07820417 0.04809768 0.07821814 0.03156059 0.068225116 -0.00085558527 0.01935825 0.021833766
0.081931785 0.064983174 0.051821265 -0.08344398 0.06345615 0.04731934 -0.019233512 0.015915481
-0.085163176 -0.04836664 0.06692125 -0.07986119 0.00047696254 0.015330172 -0.004052444 -0.05057882
00000000: 7de9 a6bd de89 97bc 2f02 7b3d 8a5e 8abc
00000010: 9940 b2bc db12 7abd 2ad6 053d c5c6 2a3d
00000020: e2de 56bd 4cae 9dbd f7e4 bdbc 1d1f 783d
00000030: 97e1 83bd 587f 12bd 5a45 aebd 9d48 21bc
00000040: 4b05 983c 684c 103d 2574 29bd 84a2 a93d
00000050: 467e ef3b 0d83 7dbd bbb8 8e3c 9f5d 023d
00000060: 1a23 653d 8a99 7b3d 3aeb b4bc 4777 8ebc
00000070: adf5 31bd a5f1 103d 1b69 87bd 30d8 bdbc
00000080: 62f9 64bc d170 91bd 304a 093d 332a a13c
00000090: 6921 973d 49eb 5bbd 16c8 9f3d 548d 153d
000000a0: 11ea dbbc 1c57 87bd 5e9f a7bd 95e5 013d
000000b0: ffd6 2cbd 720f cdbc 0420 0abd 344e 85bc
000000c0: 5f2c f33b f290 983d efbc 673d f3f2 833d
000000d0: 045e 9e3b 7638 dabc 8547 23bd 8084 4c3d
000000e0: e3f9 eebb a984 0a3d 16f0 9ebd 359a 323d
000000f0: 38ab 39bd 692a 1abc 7ba4 8e3d 6a54 583d
00000100: 4b83 4dbd 0b98 923d 9fc2 8fbd 8f3f 223d
00000110: 1d8e 653c e16c a33d 6728 103c a0be 99bc
00000120: fc3d 973d 58c8 52bd 30da 753d f0b5 05bd
00000130: 1b65 3fbc 6689 19bd 1d4d 683d 13c4 5ebd
00000140: c38c c9bc f685 c93b 5ca9 9d3d 8666 41bc
00000150: 68f1 17bd fccb 21bc 8d40 a03c 0e8c 1cbd
00000160: 9230 b03d a36e 0f3d 83a8 fbbc 5e6f 4f3d
00000170: 9faf cebc ba83 9b3c 9acc 78bc 5f28 8abd
00000180: b61f 94bd 9889 9abd 3f04 45bd c993 afbb
00000190: c4cb 383c 9619 6a3c f845 1f3d 623f af3b
000001a0: 67bb ac3d 32a1 a5bc ca48 953c 77e1 913c
000001b0: eee6 2e3d 359a 8d3d e91c 053d 24ab 303d
000001c0: 403b 9d3d 36b2 2b3d 134b a13d 2d7b 343d
000001d0: e761 2b3d 0a5d 31bc 78b1 5cbd d175 9d3d
000001e0: 2de5 363d 4a5d d43c 2f98 0f3d cb65 c4bc
000001f0: f95c 27bc 6eaa 8d3d 5f00 b93c f51c acbd
00000200: a4a0 8f3d 38c6 d23c d1df 2dbd 31d7 1ebd
00000210: e53a 84bd 6d12 a63d 263e 27bd 43ab 1fbd
00000220: abde e33c 13ae 0dbd f86e 3a3d ba2b f9bc
00000230: 6ad6 a9bc 77b7 dbbc 6e11 a13b d604 323d
00000240: 0b3a 5ebc 8479 8b3d 810f afbd eacc 87bd
00000250: 6ace c73c 6278 d5bb 6b59 57bc cda4 cb3c
00000260: 2ed4 90bd ba2a 16bc 5bd8 7bbd a509 9e3d
00000270: 6f99 9a3c b126 533d 63dd 63bd 9bec a9bc
00000280: 8565 3e3d eef0 953d 7b36 94bd 7c32 c0bc
00000290: 782f 7ebc e960 a43d 43e1 5bbd 4116 033d
000002a0: 32c7 813d 9549 86bd 0512 a73d 8e5b aebd
000002b0: e27c 82bd 71a2 cdbc d787 8d3b 424a 4a3b
000002c0: 280d 843d ebb8 983d 2924 c1bc 4a1c a53c
000002d0: 1138 f9bc 62f9 c83c 1c19 dfba 1f88 253d
000002e0: 4193 c63a 942f dcbc 19bf 173d 0f16 803d
000002f0: 12ab 25bd 1b8f bd3c d607 cb38 beb9 ccbc
00000300: d854 173d 5762 4a3d 6374 1f3d 0821 97bd
00000310: 52ba 00bd d76d 923d aa20 4b3d 7cee 473d
00000320: 28ea 56bd 0adc fe3c 60bc 32bc 4375 09bd
00000330: 57b4 533d a885 aa3d caca 1e3d 47dc 813d
00000340: a201 4bbd 5bc0 2e3d e7f2 a3bd 4bcc aabc
00000350: 771e aabc ec02 92bd 14ba debc a901 863d
00000360: e980 2ebd 1c1a 993d 1604 303d 252d 0fbd
00000370: ffd4 473d 0603 a5bd ab93 143d 9427 28bd
00000380: a234 8cbd c7ad ae3d b853 5bbb 8260 5abd
00000390: 7f5e af3d b3f9 b13c 3da9 56bc 2f3c 06bd
000003a0: 8229 a03d 1302 453d d530 a03d ad45 013d
000003b0: 9cb9 8b3d 5b49 60ba 3195 9e3c badc b23c
000003c0: dacb a73d e615 853d 8942 543d ade4 aabd
000003d0: 4cf5 813d edd1 413d 998f 9dbc 2f61 823c
000003e0: 086a aebd 191c 46bd 020e 893d 438e a3bd
000003f0: d410 fa39 672b 7b3c 5dca 84bb bd2b 4fbd

BN1.weight f4 [256]
0.9987107 0.98744285 0.9939897 0.9922844 0.9937843 1.0048237 1.0018624 0.99566156
1.0023845 0.98997545 0.9988046 0.9963434 1.0009158 0.98995197 1.0132884 1.0111659
0.99945366 0.997339 0.9951126 1.0005243 0.99820393 0.99566066 1.0046583 1.0122974
1.0130286 1.0091273 0.9984386 0.9964635 1.0071532 1.0034727 1.0062677 1.0011055
1.0081685 0.98369604 0.9894672 0.9976619 1.0009469 1.0176789 1.0023456 0.99925214
1.0104918 0.9936098 1.0051132 1.0070403 1.0002233 1.0044335 1.0073586 0.99805754
1.0081547 0.99436504 0.99062586 0.99499637 0.9824644 1.0031012 0.99737704 1.0045848
0.9974176 1.0019927 1.0012255 1.0060993 0.9996158 1.0029093 1.0012156 1.0085752
0.9957553 0.9919059 1.006089 1.0035278 1.0069804 0.99621445 1.0101988 0.9948755
1.0102296 1.0066819 1.0090548 1.0087328 0.9946612 1.0089033 1.0081706 0.9962582
1.0007616 1.0015283 0.99649155 1.0030396 1.000889 0.99984586 1.006321 0.99420846
1.0117847 1.0030652 1.008576 1.0020474 0.9952262 1.0071883 1.003293 1.008832
0.9998632 0.9976626 1.0077792 0.9977362 0.9958128 0.99498934 0.99984163 1.00751
1.0080626 1.014643 0.9953653 1.0054104 0.9974396 1.0118755 1.0010829 1.0089501
0.99930805 1.0035063 0.992513 1.0066762 1.0049919 1.0126705 0.9952912 0.99558675
1.0052379 0.98865104 1.0072076 1.0024273 1.0024319 0.998813 0.99460435 1.0031015
0.9948703 0.9959428 0.9967947 1.0049567 1.0045644 1.0044274 1.0056599 1.0117466
1.0130336 0.9973806 1.0012461 0.989606 0.999505 0.9903485 1.0071536 1.0039941
1.0053355 1.0086026 0.9973801 1.0143418 0.9980587 1.0051996 1.0068753 0.9972917
0.9947956 0.9934453 1.0047343 0.9935751 1.003426 1.0071532 0.9955183 1.0007836
0.9973952 1.0098498 1.0001458 1.0105692 1.0097617 0.9952199 1.0043359 0.9906264
1.008662 0.9992754 0.9998542 0.99087745 0.99903536 1.0062586 0.9924658 0.99749714
1.0044068 0.9975389 0.99977636 1.0081059 1.0044451 1.001142 1.0030237 0.9991657
0.9958854 1.0087926 0.9987041 0.9961486 1.0078875 1.0146705 0.99280834 1.0067798
1.0023196 1.0102057 0.9942353 1.0127401 1.0078698 1.0056641 0.9984379 1.0043931
1.0075535 0.99468523 0.99946755 0.9956197 1.0090939 0.99202627 1.0038064 0.99402046
0.99498296 1.000144 1.0179366 1.003148 0.9943194 1.0016087 1.0072407 0.9943391
0.9983377 1.0031779 0.9969634 0.992371 1.0124409 0.99577045 1.000631 0.9989678
0.9973981 0.9974299 0.9959397 0.98844326 1.0085757 1.0047141 1.0028793 0.9951068
1.0250386 0.9996384 0.9908828 0.9954668 1.0173837 0.9968656 0.996142 0.98732466
0.9948395 0.9983876 1.0048219 1.0084193 1.0000817 0.99464196 0.9948974 1.0051509
1.0050026 1.0097991 0.99780285 1.0006138 0.99658686 0.99718744 1.0034359 1.0014646
00000000: 81ab 7f3f 0ec9 7c3f 1c76 7e3f 5a06 7e3f
00000010: a668 7e3f 109e 803f 073d 803f ade3 7e3f
00000020: 234e 803f 086f 7d3f a9b1 7f3f 5c10 7f3f
00000030: 021e 803f 7e6d 7d3f 6fb3 813f e26d 813f
00000040: 32dc 7f3f 9c51 7f3f b3bf 7e3f 2e11 803f
00000050: 4b8a 7f3f 9ee3 7e3f a598 803f f692 813f
00000060: ecaa 813f 152b 813f ac99 7f3f 3b18 7f3f
00000070: 65ea 803f cb71 803f 61cd 803f 3a24 803f
00000080: aa0b 813f 81d3 7b3f b94d 7d3f c566 7f3f
00000090: 071f 803f 4d43 823f dc4c 803f fdce 7f3f
000000a0: cc57 813f 365d 7e3f 8da7 803f b2e6 803f
000000b0: 5107 803f 4791 803f 20f1 803f b380 7f3f
000000c0: 370b 813f b58e 7e3f a899 7d3f 15b8 7e3f
000000d0: c982 7b3f 9f65 803f 1a54 7f3f 3c96 803f
000000e0: c356 7f3f 4c41 803f 2828 803f ddc7 803f
000000f0: d2e6 7f3f 555f 803f d527 803f fe18 813f
00000100: d2e9 7e3f 8ced 7d3f 86c7 803f 9973 803f
00000110: bce4 803f e907 7f3f 324e 813f 29b0 7e3f
00000120: 344f 813f f4da 803f b528 813f 281e 813f
00000130: 1ea2 7e3f be23 813f bc0b 813f c70a 7f3f
00000140: f518 803f 1432 803f 121a 7f3f 9a63 803f
00000150: 211d 803f e6f5 7f3f 20cf 803f 7284 7e3f
00000160: 2982 813f 7164 803f 0519 813f 1743 803f
00000170: 25c7 7e3f 8ceb 803f e86b 803f 6821 813f
00000180: 09f7 7f3f d166 7f3f e9fe 803f a46b 7f3f
00000190: 96ed 7e3f 9fb7 7e3f 9ff5 7f3f 16f6 803f
000001a0: 3208 813f d2df 813f 43d0 7e3f 4ab1 803f
000001b0: 3458 7f3f 2385 813f 7c23 803f 4725 813f
000001c0: a7d2 7f3f e572 803f 5515 7e3f c4da 803f
000001d0: 93a3 803f 309f 813f 67cb 7e3f c6de 7e3f
000001e0: a3ab 803f 3c18 7d3f 2eec 803f 8a4f 803f
000001f0: b04f 803f 35b2 7f3f 649e 7e3f a165 803f
00000200: d2af 7e3f 1bf6 7e3f f02d 7f3f 6ca2 803f
00000210: 9195 803f 1491 803f 77b9 803f ea80 813f
00000220: 16ab 813f 5654 7f3f d528 803f d256 7d3f
00000230: 8fdf 7f3f 7b87 7d3f 69ea 803f e182 803f
00000240: d5ae 803f e419 813f 4d54 7f3f f4d5 813f
00000250: c680 7f3f 61aa 803f 4ae1 803f 824e 7f3f
00000260: edaa 7e3f 6e52 7e3f 229b 803f f05a 7e3f
00000270: 4370 803f 65ea 803f 4ada 7e3f ad19 803f
00000280: 4b55 7f3f c242 813f c704 803f 555a 813f
00000290: df3f 813f bbc6 7e3f 148e 803f b199 7d3f
000002a0: d61b 813f 83d0 7f3f 72f6 7f3f 25aa 7d3f
000002b0: c8c0 7f3f 15cd 803f 3d12 7e3f f95b 7f3f
000002c0: 6790 803f b65e 7f3f 58f1 7f3f 9d09 813f
000002d0: a891 803f 6c25 803f 1563 803f 53c9 7f3f
000002e0: 58f2 7e3f 1e20 813f 12ab 7f3f 9803 7f3f
000002f0: 7502 813f b9e0 813f b028 7e3f 29de 803f
00000300: 024c 803f 6c4e 813f 3486 7e3f 78a1 813f
00000310: e101 813f 9ab9 803f a099 7f3f f48f 803f
00000320: 83f7 803f b1a3 7e3f 1bdd 7f3f efe0 7e3f
00000330: fd29 813f 6ff5 7d3f ba7c 803f 2078 7e3f
00000340: 34b7 7e3f b804 803f bf4b 823f 2767 803f
00000350: b78b 7e3f b734 803f 43ed 803f 028d 7e3f
00000360: 0f93 7f3f 2268 803f fe38 7f3f 070c 7e3f
00000370: aa97 813f d0ea 7e3f ad14 803f 5bbc 7f3f
00000380: 7b55 7f3f 9157 7f3f e7f5 7e3f 9e0a 7d3f
00000390: 0219 813f 799a 803f 595e 803f 52bf 7e3f
000003a0: 7734 833f 4de8 7f3f 7faa 7d3f ead6 7e3f
000003b0: a139 823f 9532 7f3f 2a03 7f3f 4fc1 7c3f
000003c0: cdad 7e3f 5496 7f3f 019e 803f e213 813f
000003d0: ad02 803f dba0 7e3f 99b1 7e3f c9a8 803f
000003e0: eda3 803f 1941 813f 0270 7f3f 1d14 803f
000003f0: 5120 7f3f ad47 7f3f 9670 803f fe2f 803f

BN1.bias f4 [256]
0.01676663 0.011061938 0.003017717 0.036879957 0.014874998 -0.008241468 0.008473745 -0.019442318
-0.018757906 0.0073135407 0.007225967 0.012614292 0.014469157 -0.010023221 -0.014776752 -0.012488967
-0.010159349 -0.0053145518 0.014659356 0.0050595547 0.004806623 0.007848535 -0.0043151947 -0.011042154
-0.009393931 -0.018623883 -0.018831538 0.009665717 0.0041308445 -0.008908548 -0.0029902386 -0.0071462477
-0.021379996 0.018894278 0.0060001104 0.0038319267 -0.012797015 -0.022219555 -0.01286346 -0.019140847
-0.027542138 -0.0069157295 -0.0056992657 -0.010246764 0.0057121282 -0.01132337 -0.026281767 -0.0024939931
-0.009698125 0.010554232 0.008215592 0.021204628 0.031271975 -0.010929883 -0.002295375 -0.013189983
0.009199274 0.0037441738 -0.00050978694 0.00013392862 0.0022172015 -0.011579433 0.005615747 -0.014044847
-0.0010453811 0.0071798186 0.011003623 -0.006041273 -0.013559963 0.0029846907 0.006707582 0.022599803
-0.019373542 0.010567191 -0.010832077 -0.0018881293 0.006320957 -0.021262195 -0.015459838 -0.0021969976
-0.0075038183 0.0017862004 -0.0018103113 -0.01695275 -0.015141623 0.014986373 -0.0084996065 0.0042113843
-0.016618403 -0.0054512643 -0.007414917 0.0038900462 0.021685705 -0.009000681 0.012255512 -0.020917373
0.008494382 -0.011280454 -0.012316504 -0.0084769875 0.007637713 0.006979696 -0.0219187 -0.017377513
-0.0107719 -0.01109595 0.0016485426 0.0027786486 -0.0026905674 -0.025030978 -0.005327978 -0.01079676
0.008650094 -0.00897198 0.0015435221 -0.0073341727 -0.0076430817 -0.023310311 -0.008398875 0.0024274844
-0.010347433 0.00043746806 -0.0043032235 0.002227337 -0.021891927 0.023754744 0.010692854 -0.0023021798
0.008445714 0.019483242 0.002283322 -0.0021702442 0.010735782 0.0044950573 -0.0268993 -0.03040577
-0.030344693 -0.008503228 -0.0027111126 0.0051319874 0.012306975 0.014224716 -0.01966528 -0.018678246
0.021393035 -0.026854884 0.0076124915 -0.019183476 -0.013122316 -0.0031362895 0.002698827 -0.00043082837
-0.0048644627 0.01379962 0.0036147279 0.0007475222 -0.004353419 -0.014130174 -0.0114451405 -0.0069577317
-0.004792138 -0.02572793 0.0031711361 -0.016739413 -0.0042491336 0.010807449 -0.014618374 -0.006149222
-0.009505177 -0.004872808 0.013010265 0.0031108623 -0.0059222924 -0.017962683 0.0143778045 0.026470622
-0.002856913 -0.009621641 -0.017795676 -0.012309304 -0.0075314324 0.0142318215 -0.0028477963 0.0073081595
0.003339413 -0.013974431 -0.006149015 0.013606187 -0.022395825 -0.020351961 0.005164508 -0.0014789402
-0.010786689 0.009579347 0.010200755 -0.016374914 -0.013756367 -0.02355658 -0.013299097 -0.012826196
-0.013034229 0.014346426 -0.007935244 -0.0021551687 -0.017173711 0.0034691184 -0.006504749 0.010045528
0.009279665 0.00035959654 -0.03161949 -0.008905745 -0.010467172 -0.018102488 -0.014704127 -0.006228008
0.0015374984 -0.012355474 -0.020593133 0.0057304963 -0.007598525 5.863519e-05 -0.0038581383 -0.014768914
-0.011831037 0.027468888 0.011611835 0.015789194 -0.0056394236 -0.024211178 -0.0065827183 -0.008799428
-0.020713825 -0.02030031 -0.0015009146 -0.003895898 -0.006221708 0.003486352 -0.006661018 -0.005088044
0.0012825734 0.0044202413 -0.015052842 -0.007817727 0.005999489 -0.0047781463 -0.01720694 -0.00049832196
-0.021700706 -0.011045626 0.019357922 0.0010902785 -0.0052643497 -0.0009797745 0.003430403 0.0029927555
00000000: 2c5a 893c 213d 353c e4c4 453b 700f 173d
00000010: 43b6 733c 3907 07bc 76d5 0a3c 7f45 9fbc
00000020: 2eaa 99bc 6da6 ef3b cec7 ec3b 2dac 4e3c
00000030: 0b10 6d3c 7038 24bc 311a 72bc 869e 4cbc
00000040: 6673 26bc b125 aebb cc2d 703c 9fca a53b
00000050: e080 9d3b 2497 003c 7a66 8dbb 27ea 34bc
00000060: 01e9 19bc 1d91 98bc 9944 9abc f55c 1e3c
00000070: 095c 873b 29f5 11bc e1f7 43bb 122b eabb
00000080: 1a25 afbc 2cc8 9a3c 939c c43b 1021 7b3b
00000090: 92aa 51bc c905 b6bc 43c1 52bc 44cd 9cbc
000000a0: 0da0 e1bc 589d e2bb e8c0 babb 0be2 27bc
000000b0: ce2c bb3b a885 39bc dc4c d7bc 4372 23bb
000000c0: e2e4 1ebc a8eb 2c3c b19a 063c 54b5 ad3c
000000d0: 0b17 003d 4113 33bc 016e 16bb cc1a 58bc
000000e0: 8db8 163c d060 753b 39a3 05ba 316f 0c39
000000f0: 784e 113b aab7 3dbc 4d04 b83b 5c1c 66bc
00000100: 2b05 89ba af44 eb3b 8a48 343c dff5 c5bb
00000110: 9b2a 5ebc cd9a 433b 47cb db3b 3923 b93c
00000120: 43b5 9ebc 0322 2d3c 0679 31bc 1b7b f7ba
00000130: 0820 cf3b 0e2e aebc 434b 7dbc 81fb 0fbb
00000140: 97e2 f5bb f11e ea3a f847 edba 7ee0 8abc
00000150: 9214 78bc 6789 753c ef41 0bbc a7ff 893b
00000160: 5123 88bc 85a0 b2bb d5f8 f2bb 25f0 7e3b
00000170: 38a6 b13c 9877 13bc 58cb 483c e95a abbc
00000180: 052c 0b3c a7d1 38bc 29cb 49bc 10e3 0abc
00000190: c845 fa3b efb5 e43b d88e b3bc 495b 8ebc
000001a0: a07c 30bc cacb 35bc e913 d83a fd19 363b
000001b0: 3b54 30bb c40d cdbc 5296 aebb e5e4 30bc
000001c0: 20b9 0d3c 36ff 12bc 0250 ca3a 8053 f0bb
000001d0: d172 fabb 44f5 bebc 6f9b 09bc 6e16 1f3b
000001e0: 4888 29bc f85b e539 0e02 8dbb 84f8 113b
000001f0: b356 b3bc 4f99 c23c 1531 2f3c 2be0 16bb
00000200: e45f 0a3c 529b 9f3c c9a3 153b a83a 0ebb
00000210: 22e5 2f3c 464b 933b ec5b dcbc 8515 f9bc
00000220: 6f95 f8bc 2051 0bbc ecac 31bb 3b2a a83b
00000230: 32a3 493c c90e 693c 1519 a1bc 1f03 99bc
00000240: 7240 af3c c6fe dbbc 3572 f93b aa26 9dbc
00000250: fcfe 56bc 358a 4dbb cede 303b cee0 e1b9
00000260: 1266 9fbb cd17 623c 12e5 6c3b 5ef5 433a
00000270: 20a7 8ebb 3f82 67bc 6684 3bbc affd e3bb
00000280: 5e07 9dbb 61c3 d2bc d6d2 4f3b 1821 89bc
00000290: 513c 8bbb ba11 313c e881 6fbc 6a7f c9bb
000002a0: 9abb 1bbc 13ac 9fbb 0229 553c 9cdf 4b3b
000002b0: ca0f c2bb 7a26 93bc e290 6b3c ebd8 d83c
000002c0: 0c3b 3bbb 16a4 1dbc 3dc8 91bc f7ac 49bc
000002d0: 3cca f6bb 962c 693c 18a2 3abb 4979 ef3b
000002e0: 0eda 5a3b 03f5 64bc ad7d c9bb 7cec 5e3c
000002f0: 7377 b7bc 28b9 a6bc 083b a93b 00d9 c1ba
00000300: a7ba 30bc b2f2 1c3c 1121 273c af24 86bc
00000310: 6362 61bc bbf9 c0bc 75e4 59bc f724 52bc
00000320: 858d 55bc 460d 6b3c d302 02bc bb3d 0dbb
00000330: e2af 8cbc 265a 633b ca25 d5bb 0096 243c
00000340: bc09 183c 3b88 bc39 7083 01bd 67e9 11bc
00000350: 807e 2bbc ab4b 94bc 94e9 70bc 5114 ccbb
00000360: e385 c93a 9d6e 4abc eeb2 a8bc e3c6 bb3b
00000370: 0cfd f8bb 0eef 7538 d2d8 7cbb 51f9 71bc
00000380: f7d6 41bc 6f06 e13c 913f 3e3c 5758 813c
00000390: eaca b8bb 8556 c6bc d8b3 d7bb 7a2b 10bc
000003a0: 0ab0 a9bc d64c a6bc 56ba c4ba 5252 7fbb
000003b0: 78df cbbb 487b 643b ab44 dabb 9bb9 a6bb
000003c0: 061c a83a acd7 903b 32a0 76bc ec15 00bc
000003d0: 5d97 c43b ff91 9cbb 92f5 8cbc d2a1 02ba
000003e0: aec5 b1bc b7f8 34bc 8194 9e3c ade7 8e3a
000003f0: 9180 acbb c76b 80ba 9dd0 603b 1b22 443b

BN1.running_mean f4 [256]
-11.166903 4.550556 6.654646 6.684244 -9.712711 8.692152 24.311644 9.858945
8.756462 -0.6831362 4.2989616 17.715395 8.437636 -4.849473 0.2492695 2.7440765
15.05403 -10.876923 9.556818 11.564648 -3.0864573 10.980307 3.75111 8.052608
-2.2938337 1.2427951 -4.785255 6.9709167 -3.508142 1.8491338 4.7561364 -6.4241333
7.8674626 -0.17514965 11.915561 -13.989785 -9.714632 2.8161795 -0.5781863 -3.6003783
10.784389 14.816766 5.3594847 4.9968276 -6.768916 1.8937632 12.677718 1.253305
-9.489098 -7.238361 -6.870802 -5.7512507 7.1277714 -16.989468 4.007304 3.9877007
-3.2520366 9.842667 -10.005645 7.4965243 3.5607324 -15.05541 1.3735769 -2.0419614
0.21123734 -2.521679 12.491595 6.337535 -12.786226 2.402569 -2.5769198 -10.375185
-3.9952 9.343823 -13.612209 9.558438 8.779883 -4.2062674 8.106911 -3.298538
4.109314 1.2755616 7.028167 5.7759624 -3.5227177 -0.39066055 -11.576132 2.2602289
-3.4142373 4.3965654 3.576367 12.678755 1.8905168 -7.188164 -0.6132141 7.107348
4.5964756 0.63916624 -11.257267 -4.854412 5.484496 0.6007443 3.9315965 2.9542952
15.725497 -0.47095275 -7.0443187 -5.5417447 0.56733954 8.683653 -11.223581 -6.386661
8.706487 -17.246382 4.5504985 8.764262 -9.970036 -12.93729 2.4600024 -12.794008
-7.88795 -15.173544 2.0471008 -4.7935896 4.0317125 -8.28656 -7.216963 3.0357997
-7.275965 -12.561596 -1.0272396 -12.569059 5.6844745 -1.7908865 1.4017221 8.528082
1.251438 0.13965861 7.085825 14.238356 -8.084904 -9.872968 4.7724996 10.021383
0.10740677 2.0143077 -9.1590605 0.055292774 -0.17426777 10.150709 -1.3809707 -3.8929436
-9.785824 10.393218 -1.6051855 -8.876601 -2.921684 -15.156671 -12.334606 11.750117
-2.3595335 0.40391698 -9.39 11.589457 -11.737857 -6.0195727 2.6009846 14.917335
-18.952047 -5.392028 -1.4048015 11.842369 15.033573 1.993897 -0.44596666 -7.620379
-0.60257864 8.271825 1.1941677 -18.23666 -9.3232565 -0.85075074 12.182793 13.688727
5.6791754 -6.913635 11.3262415 6.6335745 2.3985941 2.9817638 6.837338 -7.9036927
-8.678517 1.9098753 2.905957 -8.553162 0.811873 -9.896235 18.376495 -2.8334918
-13.951043 -11.293681 7.305811 -7.01408 -7.874155 15.155764 12.82273 -13.071855
6.416669 1.1059116 -10.563354 4.0283403 3.3823195 -4.6222224 -0.72957474 4.8613973
4.1387095 -2.886987 0.39748093 -2.7407503 -5.9027257 -12.955376 -1.3625762 2.4435596
-5.464685 2.814867 -3.6759753 -11.24458 -0.39916342 -7.995368 6.6667047 3.2988794
3.424896 -14.879517 0.18433934 4.3513327 -7.1828346 4.2385316 -3.1519358 21.1943
-2.1661615 8.107814 -1.3922024 8.711469 5.0074887 0.14355652 -8.908257 -3.6579533
-17.362871 7.606169 15.295776 -6.2637224 -10.016786 -4.1868143 9.53048 -8.982045
00000000: a2ab 32c1 289e 9140 dcf2 d440 54e5 d540
00000010: 4467 1bc1 0e13 0b41 3f7e c241 3dbe 1d41
00000020: 781a 0c41 04e2 2ebf 1891 8940 21b9 8d41
00000030: 8f00 0741 e22e 9bc0 8140 7f3e f39e 2f40
00000040: 4fdd 7041 e007 2ec1 bae8 1841 cc08 3941
00000050: 8488 45c0 56af 2f41 3012 7040 7bd7 0041
00000060: 2cce 12c0 e913 9f3f cf20 99c0 c011 df40
00000070: 6685 60c0 6bb0 ec3f 4532 9840 8092 cdc0
00000080: 41c2 fb40 6e5a 33be 23a6 3e41 29d6 5fc1
00000090: 226f 1bc1 493c 3440 0404 14bf 996c 66c0
000000a0: db8c 2c41 7911 6d41 e680 ab40 03e6 9f40
000000b0: f69a d8c0 d566 f23f efd7 4a41 4c6c a03f
000000c0: 58d3 17c1 a7a0 e7c0 9cdd dbc0 3f0a b8c0
000000d0: b416 e440 6eea 87c1 d63b 8040 7d36 7f40
000000e0: 5e21 50c0 907b 1d41 1f17 20c1 87e3 ef40
000000f0: 0ae3 6340 f6e2 70c1 5ed1 af3f 7faf 02c0
00000100: 9a4e 583e 3063 21c0 93dd 4741 16cd ca40
00000110: 6294 4cc1 b1c3 1940 41ec 24c0 c200 26c1
00000120: 5bb1 7fc0 4d80 1541 9ccb 59c1 5def 1841
00000130: 677a 0c41 be99 86c0 e8b5 0141 3f1b 53c0
00000140: 807f 8340 9a45 a33f bee6 e040 afd4 b840
00000150: 3574 61c0 a904 c8be d637 39c1 97a7 1040
00000160: dd82 5ac0 aab0 8c40 32e3 6440 2edc 4a41
00000170: 74fc f13f 7105 e6c0 99fb 1cbf 656f e340
00000180: 5416 9340 66a0 233f c41d 34c1 5857 9bc0
00000190: fe80 af40 61ca 193f 479f 7b40 2c13 3d40
000001a0: a39b 7b41 b820 f1be 0f6b e1c0 f955 b1c0
000001b0: 2a3d 113f 3ef0 0a41 ca93 33c1 875f ccc0
000001c0: c54d 0b41 97f8 89c1 af9d 9140 6b3a 0c41
000001d0: 4485 1fc1 24ff 4ec1 ae70 1d40 42b4 4cc1
000001e0: 166a fcc0 d6c6 72c1 b303 0340 1665 99c0
000001f0: ca03 8140 c095 04c1 5cf1 e6c0 8b4a 4240
00000200: b5d4 e8c0 4cfc 48c1 967c 83bf de1a 49c1
00000210: 37e7 b540 c53b e5bf a16b b33f 0673 0841
00000220: 1f2f a03f ab02 0f3e 14bf e240 4ed0 6341
00000230: c45b 01c1 adf7 1dc1 51b8 9840 9657 2041
00000240: 15f8 db3d 6bea 0040 838b 12c1 ad7a 623d
00000250: 4073 32be 4e69 2241 a6c3 b0bf fd25 79c0
00000260: bc92 1cc1 9f4a 2641 b876 cdbf 8f06 0ec1
00000270: dffc 3ac0 b981 72c1 8c5a 45c1 7b00 3c41
00000280: 9902 17c0 35ce ce3e 713d 16c1 6a6e 3941
00000290: 43ce 3bc1 57a0 c0c0 8876 2640 67ad 6e41
000002a0: cb9d 97c1 7e8b acc0 89d0 b3bf 587a 3d41
000002b0: 8489 7041 0438 ff3f be55 e4be 25da f3c0
000002c0: 9842 1abf 6559 0441 7dda 983f aee4 91c1
000002d0: 0f2c 15c1 cdca 59bf b8ec 4241 0705 5b41
000002e0: cebb b540 7f3c ddc0 4938 3541 3e46 d440
000002f0: 9182 1940 38d5 3e40 79cb da40 0deb fcc0
00000300: 35db 0ac1 cb76 f43f 33fb 3940 c0d9 08c1
00000310: e9d6 4f3f fb56 1ec1 1003 9341 ee57 35c0
00000320: 7937 5fc1 ebb2 34c1 34c9 e940 5873 e0c0
00000330: 14f9 fbc0 027e 7241 e729 4d41 5126 51c1
00000340: 5a55 cd40 838e 8d3f 7f03 29c1 2ae8 8040
00000350: ec77 5840 3fe9 93c0 69c5 3abf 9190 9b40
00000360: 4f70 8440 65c4 38c0 9f82 cb3e 7468 2fc0
00000370: 21e3 bcc0 3849 4fc1 e668 aebf 4863 1c40
00000380: b3de aec0 c826 3440 2e43 6bc0 cde9 33c1
00000390: 265f ccbe 0eda ffc0 a555 d540 d720 5340
000003a0: 7f31 5b40 8012 6ec1 74c3 3c3e 1e3e 8b40
000003b0: c8d9 e5c0 0da2 8740 51b9 49c0 ed8d a941
000003c0: 64a2 0ac0 9bb9 0141 b033 b2bf 2d62 0b41
000003d0: 593d a040 7b00 133e 3888 0ec1 e81b 6ac0
000003e0: 29e7 8ac1 bd65 f340 80bb 7441 6a70 c8c0
000003f0: c144 20c1 62fa 85c0 d97c 1841 75b6 0fc1

BN1.running_var f4 [256]
65.65932 48.216774 129.95033 85.72376 170.85092 183.35759 140.29533 108.0965
146.08336 139.25049 151.4956 192.82608 76.47531 113.63939 60.224243 144.86682
140.65163 90.09436 62.016182 136.53108 105.39085 40.952877 29.488113 69.85763
53.15404 105.998924 53.398335 57.575626 53.985798 196.07043 64.49525 121.5366
87.038864 105.5049 138.32077 75.68908 64.9729 92.036934 155.72343 38.288
212.18016 73.200134 81.602646 77.42006 249.05006 154.84137 74.92874 38.47402
124.13394 84.118744 129.43452 112.62168 54.318127 144.58698 66.97653 92.23353
70.31698 99.69012 58.56523 24.317312 59.47498 81.785995 57.318565 65.92532
200.68375 51.210766 89.72941 75.26382 123.19812 142.15665 113.494675 81.617226
85.88368 60.009968 107.44759 45.480812 74.737595 50.40108 94.378944 42.83618
36.078274 96.59515 69.57987 257.29468 67.55472 45.90837 136.38232 51.726173
59.68391 100.94035 106.4561 49.518238 49.631134 87.69047 104.6626 59.43882
129.18532 40.175495 81.615326 107.93787 173.69211 143.76636 35.532314 193.44853
82.65559 45.346615 55.090824 85.924706 74.91801 92.8929 145.75745 108.55084
51.908424 103.32953 74.06641 41.54006 54.774105 81.97456 78.82113 53.921066
120.24759 103.37051 99.48866 178.55736 64.61635 141.60641 49.637573 54.00004
130.17644 80.99443 81.61418 120.19092 225.79875 49.506496 133.99379 85.228874
98.61546 64.364204 76.26613 124.74387 40.915443 84.130264 51.864563 121.081085
22.567951 88.933815 70.29634 131.64401 60.670986 96.75956 64.32349 185.43648
50.790188 178.30518 40.506466 60.193268 59.479805 82.10837 87.472916 220.6806
39.564762 124.41937 96.69614 155.75403 62.47202 119.52937 51.54977 75.90601
135.50476 66.220505 58.402954 112.4314 75.531136 86.81937 74.186646 46.755085
72.75083 92.66528 147.81406 181.92949 82.83607 47.267803 64.94759 70.29335
61.950596 74.32806 118.21907 37.713226 47.477386 59.276253 104.63556 58.077255
206.1523 127.17546 104.30252 139.71939 44.86638 64.27344 121.28675 63.18122
84.98199 159.38669 82.24793 94.090355 113.42895 153.63254 113.1567 61.348034
101.376434 71.12498 59.884575 90.80535 141.79657 54.601265 46.66575 84.078354
90.72982 136.94029 33.746452 72.27029 102.941895 84.89411 216.85083 48.195034
134.14893 55.917606 86.96695 116.90022 184.24158 69.086525 204.44278 59.201233
67.55064 83.09047 122.17953 64.18405 68.767105 39.651337 88.33675 141.24706
56.204113 170.76851 102.42708 51.44856 100.08257 79.83442 101.32983 177.86346
219.02039 175.3308 137.49979 71.349884 88.92349 113.037865 42.345543 204.11075
00000000: 9251 8342 fadd 4042 49f3 0143 9172 ab42
00000010: d6d9 2a43 8b5b 3743 9b4b 0c43 6831 d842
00000020: 5715 1243 2040 0b43 e07e 1743 7ad3 4043
00000030: 5cf3 9842 5e47 e342 a0e5 7042 e8dd 1043
00000040: d1a6 0c43 5030 b442 9210 7842 f587 0843
00000050: 1dc8 d242 bfcf 2342 a8e7 eb41 1bb7 8b42
00000060: bd9d 5442 73ff d342 e597 5542 714d 6642
00000070: 75f1 5742 0812 4443 91fd 8042 bd12 f342
00000080: e613 ae42 8202 d342 1e52 0a43 cf60 9742
00000090: 20f2 8142 e912 b842 33b9 1b43 e926 1942
000000a0: 1f2e 5443 7866 9242 8e34 a342 12d7 9a42
000000b0: d10c 7943 64d7 1a43 84db 9542 65e5 1942
000000c0: 9444 f842 cc3c a842 3d6f 0143 4d3e e142
000000d0: c345 5942 4496 1043 fcf3 8542 9177 b842
000000e0: 4ba2 8c42 5761 c742 cc42 6a42 db89 c241
000000f0: 61e6 6d42 6e92 a342 3646 6542 c4d9 8342
00000100: 0aaf 4843 d3d7 4c42 7575 b342 1387 9642
00000110: 7065 f642 1a28 0e43 46fd e242 053c a342
00000120: 72c4 ab42 350a 7042 2be5 d642 5aec 3542
00000130: a679 9542 b59a 4942 05c2 bc42 4058 2b42
00000140: 2750 1042 b830 c142 e528 8b42 b8a5 8043
00000150: 041c 8742 2ca2 3742 e061 0843 9ae7 4e42
00000160: 53bc 6e42 76e1 c942 86e9 d442 ad12 4642
00000170: 4886 4642 8561 af42 4053 d142 5ac1 6d42
00000180: 712f 0143 b5b3 2042 0c3b a342 30e0 d742
00000190: 2eb1 2d43 30c4 0f43 1721 0e42 d372 4143
000001a0: a94f a542 ef62 3542 015d 5c42 73d9 ab42
000001b0: 05d6 9542 2ac9 b942 e8c1 1143 081a d942
000001c0: 3aa2 4f42 b8a8 ce42 0022 9442 0529 2642
000001d0: af18 5b42 faf2 a342 6ba4 9d42 2caf 5742
000001e0: c47e f042 b3bd ce42 32fa c642 af8e 3243
000001f0: 923b 8142 3e9b 0d43 e08c 4642 0a00 5842
00000200: 2b2d 0243 26fd a142 763a a342 c061 f042
00000210: 7bcc 6143 a706 4642 69fe 0543 2f75 aa42
00000220: 1e3b c542 79ba 8042 4288 9842 dd7c f942
00000230: 6aa9 2342 b242 a842 5075 4f42 8429 f242
00000240: 2a8b b441 1dde b142 ba97 8c42 dea4 0343
00000250: 17af 7242 e584 c142 a0a5 8042 bd6f 3943
00000260: 2729 4b42 204e 3243 9f06 2242 e8c5 7042
00000270: 52eb 6d42 7c37 a442 22f2 ae42 3cae 5c43
00000280: 5142 1e42 b8d6 f842 6c64 c142 08c1 1b43
00000290: 59e3 7942 0a0f ef42 f732 4e42 e1cf 9742
000002a0: 3881 0743 e670 8442 a09c 6942 e0dc e042
000002b0: f10f 9742 84a3 ad42 905f 9442 3505 3b42
000002c0: 6d80 9142 a054 b942 66d0 1343 f3ed 3543
000002d0: 11ac a542 3b12 3d42 2be5 8142 3296 8c42
000002e0: 69cd 7742 f7a7 9442 2a70 ec42 58da 1642
000002f0: d8e8 3d42 e21a 6d42 6845 d142 1c4f 6842
00000300: fd26 4e43 d659 fe42 e49a d042 2ab8 0b43
00000310: 2c77 3342 008c 8042 d192 f242 92b9 7c42
00000320: c7f6 a942 fe62 1f43 f17e a442 432e bc42
00000330: 9fdb e242 eea1 1943 3b50 e242 6364 7542
00000340: bcc0 ca42 fd3f 8e42 ce89 6f42 579c b542
00000350: eccb 0d43 b267 5a42 baa9 3a42 1e28 a842
00000360: ab75 b542 b7f0 0843 5efc 0642 638a 9042
00000370: 40e2 cd42 c9c9 a942 d0d9 5843 b7c7 4042
00000380: 2026 0643 a1ab 5f42 14ef ad42 eacc e942
00000390: d83d 3843 4d2c 8a42 5a71 4c43 10ce 6c42
000003a0: ed19 8742 522e a642 eb5b f442 3c5e 8042
000003b0: c288 8942 f89a 1e42 6aac b042 3f3f 0d43
000003c0: 03d1 6042 bdc4 2a43 aada cc42 53cb 4d42
000003d0: 472a c842 39ab 9f42 dfa8 ca42 0cdd 3143
000003e0: 3805 5b43 af54 2f43 f27f 0943 24b3 8e42
000003f0: d4d8 b142 6313 e242 d661 2942 5a1c 4c43

L2.weight f4 [128, 256]
0.029461127 -0.031524867 0.01856256 0.0051064943 -0.026853124 0.0355395 0.0036984212 0.026586365
-0.03916145 -0.008290324 -0.045597944 -0.06068467 0.045517012 0.051802237 0.017370038 0.021573361
0.026563792 -0.0057394532 0.02913671 0.0097603025 0.004538094 -0.020738745 0.026166968 0.03416089
0.01593868 -0.0037700217 0.04585897 -0.031679418 -0.031233389 -0.033455666 -0.0029913022 0.032140475
0.030259095 0.054013487 -0.009592365 0.05277778 0.03277838 0.0030891618 0.016872969 -0.029349556
0.06279534 0.005279959 0.0036602172 0.0004658854 -0.01454824 0.033545267 -0.04781253 0.007900202
0.023558088 -0.03662964 -0.005002533 -0.027237687 -0.04304695 0.050802164 0.03715014 0.06553974
0.0031626634 -0.012801935 0.04343254 0.017621676 0.011933348 -0.045737874 0.056770265 0.03692316
0.016204124 0.06753259 0.044545535 0.039510496 -0.0450487 0.063500024 -0.044872902 0.036543775
-0.04127854 -0.030365614 0.005290867 -0.02187993 0.061884068 0.05662297 -0.018351149 -0.06061112
0.046888765 -0.025073126 0.05541934 -0.0015822217 -0.006375413 0.03134312 -0.010628971 0.010776521
-0.02291815 0.04853578 0.014015933 -0.05015173 -0.025905982 -0.05683632 0.030846924 0.004461133
0.0052906238 -0.00014309936 -0.05060496 -0.010790629 0.046363927 -0.05422529 -0.03925265 0.055227514
-0.009741694 0.05966681 0.0099651525 0.006785183 0.021911528 -0.055785898 0.055306934 0.0542442
0.013785351 -0.037764378 -0.05823381 -0.052558966 0.05097783 -0.04385267 -0.012184578 0.020442666
-0.044188492 -0.035659317 0.060595926 0.033444956 -0.054882053 0.029026473 0.018375723 -0.0047089243
-0.04880471 0.031024652 -0.0062732683 -0.03661519 0.008366875 -0.017113158 0.022213854 -0.021974495
-0.018361969 -0.0076410845 0.04457696 0.03296817 0.011065732 -0.04151525 0.02041562 -0.061136417
-0.04420334 0.020075185 -0.02305583 0.042124894 0.018725427 -0.0027674793 -0.0024779225 -0.033755902
-0.030890401 0.054863535 -0.010219463 -0.039172538 0.05188361 -0.009565781 0.0042558964 0.022147147
-0.0029598076 -0.011752642 0.030705962 0.009077179 0.044715073 -0.008202325 0.051829513 0.011451006
-0.05411264 0.018165011 0.01763464 -0.016334401 0.013440582 0.0010834393 -0.051216338 -0.054090388
0.02262473 0.04050507 -0.06273601 -0.054751042 0.011047364 -0.041801166 -0.029552558 -0.009540714
0.060083136 -0.01076436 0.039162498 -0.01429289 -0.055165563 0.06702605 -0.020095227 0.00069688493
-0.025616605 0.050938934 -0.0023587565 0.065644614 0.020983478 -0.05573329 0.007319796 0.058307253
0.0074338685 -0.016172556 -0.0017659774 -0.048876718 -0.011436656 -0.03035574 -0.009122868 -0.043214362
-0.039579105 -0.040131547 0.030172462 0.057398636 0.0125086205 0.041137077 0.006969283 0.046064757
0.055088017 -0.027076095 0.056269277 0.020513926 0.033862557 -0.03043061 -0.04419873 -0.018116202
-0.010091093 0.023646211 0.00790247 0.041147016 0.062633246 0.018039513 -0.028653653 -0.041967727
-0.016273126 -0.009110059 0.008077367 0.050379764 -0.0069644405 -0.03501104 -0.0441584 0.05222779
0.04754146 0.009478544 -0.056869633 0.025206046 -0.012662466 -0.04720008 0.0065340535 0.006990097
0.03212157 0.016693551 -0.008400763 0.04466269 -0.046274297 0.06304214 -0.0015678016 0.037384983
00000000: 7658 f13c 3820 01bd 8310 983c 6154 a73b
00000010: 15fb dbbc de91 113d 3661 723b a6cb d93c
00000020: c267 20bd 24d4 07bc e9c4 3abd 7d90 78bd
00000030: 0c70 3a3d 952e 543d 9c4b 8e3c 9eba b03c
00000040: 4f9c d93c 0612 bcbb 1cb0 ee3c ade9 1f3c
00000050: 4bb4 943b 4de4 a9bc 1c5c d63c 4aec 0b3d
00000060: d691 823c 7812 77bb 9ed6 3b3d 47c2 01bd
00000070: 2add ffbc cf08 09bd b909 44bb bba5 033d
00000080: ece1 f73c 3f3d 5d3d 4b29 1dbc 832d 583d
00000090: 9f42 063d 8973 4a3b 2e39 8a3c 7b6e f0bc
000000a0: d89a 803d 8203 ad3b 41e0 6f3b 1442 f439
000000b0: be5b 6ebc c366 093d 12d7 43bd d96f 013c
000000c0: e4fc c03c f608 16bd 4aec a3bb 9221 dfbc
000000d0: 0052 30bd ee15 503d bf2a 183d b339 863d
000000e0: b044 4f3b 35bf 51bc 52e6 313d 555b 903c
000000f0: 1784 433c a357 3bbd f087 683d bd3c 173d
00000100: 83be 843c 874e 8a3d 6175 363d c2d5 213d
00000110: fc84 38bd 4d0c 823d a6cc 37bd edae 153d
00000120: b013 29bd 4fc1 f8bc 025f ad3b 8a3d b3bc
00000130: 267a 7d3d 7ded 673d 2655 96bc 5e43 78bd
00000140: 6f0e 403d 2866 cdbc 64ff 623d 8d62 cfba
00000150: d7e8 d0bb a561 003d 2325 2ebc 0190 303c
00000160: d8be bbbc 74cd 463d 15a3 653c e76b 4dbd
00000170: c838 d4bc 33cd 68bd b0b2 fc3c b22e 923b
00000180: f85c ad3b f10c 16b9 2647 4fbd 2ecb 30bc
00000190: 1ae8 3d3d 561b 5ebd 63c7 20bd 3f36 623d
000001a0: a09b 1fbc 2f65 743d e144 233c 3e56 de3b
000001b0: ce7f b33c c17f 64bd 8689 623d 2b2f 5e3d
000001c0: f4db 613c d2ae 1abd 9386 6ebd 1248 57bd
000001d0: 21ce 503d db9e 33bd d3a1 47bc 6177 a73c
000001e0: fefe 34bd 810f 12bd 6f33 783d 94fd 083d
000001f0: 01cc 60bd edc8 ed3c af88 963c 524d 9abb
00000200: 73e7 47bd 6927 fe3c fd8f cdbb cff9 15bd
00000210: 3815 093c e530 8cbc d4f9 b53c db03 b4bc
00000220: d76b 96bc 1062 fabb 5596 363d a209 073d
00000230: 0b4d 353c e50b 2abd a93e a73c 2e6a 7abd
00000240: 900e 35bd b774 a43c 94df bcbc 278b 2c3d
00000250: 1166 993c 995e 35bb a464 22bb a143 0abd
00000260: de0d fdbc 96b8 603d 896f 27bc 6273 20bd
00000270: e983 543d cbb9 1cbc 0c75 8b3b ef6d b53c
00000280: 55f9 41bb 278e 40bc 128b fb3c 73b8 143c
00000290: 2727 373d 0b63 06bc 2f4b 543d 009d 3b3c
000002a0: 37a5 5dbd cace 943c 8576 903c b9cf 85bc
000002b0: e335 5c3c 3102 8e3a 39c8 51bd e28d 5dbd
000002c0: 7f57 b93c a5e8 253d bd7b 80bd a142 60bd
000002d0: 0100 353c b337 2bbd 3518 f2bc a850 1cbc
000002e0: bc19 763d 005d 30bc db68 203d ba2c 6abc
000002f0: 49f5 61bd f444 893d bf9e a4bc 28af 363a
00000300: ead9 d1bc 58a5 503d 5e95 1abb af70 863d
00000310: 8be5 ab3c 9748 64bd e6da ef3b 96d3 6e3d
00000320: cf97 f33b 4f7c 84bc 5e78 e7ba f432 48bd
00000330: d060 3bbc 9aac f8bc 1578 15bc 8b01 31bd
00000340: b31d 22bd fa60 24bd 3d2c f73c d51a 6b3d
00000350: f5f0 4c3c 5a7f 283d 955e e43b 66ae 3c3d
00000360: f9a3 613d b0ce ddbc 9d7a 663d d20c a83c
00000370: 77b3 0a3d 9d49 f9bc ba09 35bd 6e68 94bc
00000380: 1d55 25bc b3b5 c13c 5d79 013c c689 283d
00000390: dc45 803d 9ac7 933c 11bb eabc 5ae6 2bbd
000003a0: 384f 85bc 5b42 15bc ef56 043c 035b 4e3d
000003b0: f635 e4bb bc67 0fbd 70df 34bd cfec 553d
000003c0: d5ba 423d e54b 1b3c 22f0 68bd e97c ce3c
000003d0: 3b76 4fbc df54 41bd 9d1b d63b 2f0d e53b
000003e0: e891 033d eac0 883c 5ba3 09bc 3af0 363d
000003f0: 1e8a 3dbd 3d1c 813d b17e cdba ff20 193d

L2.bias f4 [128]
-0.0033428238 -0.041722476 -0.006927558 -0.03523405 0.02402589 -0.035738356 -0.03713169 -0.047642395
-0.02256621 -0.01386051 0.011027643 0.018242696 -0.023996323 -0.049242865 0.05871424 0.038065266
-0.023895927 0.004833897 -0.049017984 -0.049309853 0.055558562 0.023763154 0.014561804 -0.047407933
-0.05224284 -0.04119701 -0.03638116 0.018396854 0.00688778 0.03144896 0.022196319 -0.0058481917
0.0014876588 0.032365013 -0.004938 0.0058920807 0.005835301 -0.010827583 -0.020135649 0.019993981
0.053559396 -0.050073188 -0.0042883493 -0.028478535 -0.007824952 0.022092698 -0.055123642 0.029254073
0.022934327 -0.030728918 -0.03632289 -0.021507919 -0.004552668 -0.035467513 0.055780653 -0.0039104926
-0.026229596 -0.048050646 0.026112303 -0.033791356 0.020889826 -0.013826046 -0.027296655 0.021512311
-0.06114516 0.03890116 -0.0028893792 0.0068369373 0.03583442 -0.020993287 0.024672974 0.0005228155
-0.017577546 0.0461464 0.009441953 0.041755203 -0.017673664 0.030084183 0.028593814 0.03600212
0.032689616 0.035312023 0.0018746755 0.0054036924 -0.04982792 0.046387434 0.018328829 -0.016187817
-0.051172256 -0.027010523 -0.005300722 0.030547353 -0.002775555 0.024794038 0.012277655 0.060717333
0.057104476 0.041309446 -0.060792062 -0.023632199 0.026140917 0.0405777 0.04199145 -0.023258405
0.007591001 0.0103672985 0.026941583 -0.047181636 -0.057764232 0.05718685 0.010591122 0.031178076
-0.048114464 -0.006655453 0.024462616 -0.05199228 -0.04117135 -0.0054361667 -0.02018552 0.056086536
-0.052162927 -0.047800474 -0.021156823 -0.017642362 -0.0591277 -0.0024105287 0.00035417688 0.040999006
00000000: 4713 5bbb 30e5 2abd 9200 e3bb 9451 10bd
00000010: f1d1 c43c 6262 12bd 6617 18bd ac24 43bd
00000020: c6dc b8bc 3117 63bc 4aad 343c b571 953c
00000030: f093 c4bc e3b2 49bd 587e 703d 53ea 1b3d
00000040: 64c1 c3bc ab65 9e3b 15c7 48bd 21f9 49bd
00000050: 6091 633d f2aa c23c a294 6e3c d22e 42bd
00000060: 97fc 55bd 32be 28bd 6904 15bd 00b5 963c
00000070: e3b2 e13b a0d0 003d 0ed5 b53c 30a2 bfbb
00000080: 8cfd c23a 2d91 043d f2ce a1bb 5b12 c13b
00000090: 0d36 bf3b 2d66 31bc 84f3 a4bc 6bca a33c
000000a0: 1961 5b3d 8b19 4dbd 4885 8cbb d14b e9bc
000000b0: 3a34 00bc bffb b43c 54c9 61bd 3da6 ef3c
000000c0: c5e0 bb3c 36bb fbbc 50c7 14bd 6031 b0bc
000000d0: 8c2e 95bb 6246 11bd 417a 643d 9723 80bb
000000e0: 73df d6bc c1d0 44bd 78e9 d53c ce68 0abd
000000f0: 2421 ab3c a486 62bc 3c9d dfbc 963a b03c
00000100: 5973 7abd d356 1f3d bd5b 3dbb 6308 e03b
00000110: 1dc7 123d 1dfa abbc fa1e ca3c 8e0d 093a
00000120: c9fe 8fbc 0204 3d3d 6cb2 1a3c 8107 2b3d
00000130: 5cc8 90bc 1b73 f63c 933d ea3c f576 133d
00000140: 8ce5 053d 57a3 103d acb7 f53a 7511 b13b
00000150: 5c18 4cbd c000 3e3d 5726 963c 509c 84bc
00000160: 009a 51bd 2c45 ddbc aeb1 adbb 713e fa3c
00000170: 16e6 35bb de1c cb3c 3828 493c bdb2 783d
00000180: 62e6 693d 1834 293d 1901 79bd 5098 c1bc
00000190: 7a25 d63c cd34 263d 3aff 2b3d 6988 bebc
000001a0: efbd f83b 9adb 293c 98b4 dc3c 8841 41bd
000001b0: 309a 6cbd c23c 6a3d 6386 2d3c 2a69 ff3c
000001c0: ac13 45bd fc15 dabb d365 c83c dbf5 54bd
000001d0: 4aa3 28bd df21 b2bb 1b5c a5bc ffba 653d
000001e0: cba8 55bd 6eca 43bd 1351 adbc b786 90bc
000001f0: e32f 72bd f6f9 1dbb d1b0 b939 93ee 273d

BN2.weight f4 [128]
1.0044103 1.0066876 0.9946196 1.0033783 1.00598 1.0034949 0.9927021 1.0111117
1.0056862 0.9908384 0.99829936 1.0101202 1.0077366 0.9923764 0.9959035 0.9951376
1.0078745 1.0060511 1.0069563 0.9967484 1.003273 0.9982673 0.9977762 1.0146047
0.99026203 1.0053453 0.99814534 0.99981517 0.99154526 1.0059788 1.002538 1.0254556
0.99232996 1.0119202 1.0059682 1.0094206 0.9988232 1.0001652 0.999735 0.99665046
0.9980711 0.99329025 0.9994485 1.0010697 0.9966714 1.0018163 1.0085292 1.0026861
1.018179 1.0020553 1.0023422 1.0087708 0.99837255 0.9959582 0.996846 1.0012761
0.9976629 1.0083984 1.0095598 0.99743885 1.0044214 1.0021893 0.99215716 0.9910935
0.9896522 1.0059378 0.9888879 0.99752414 0.9929397 0.9986218 0.990671 1.0117044
0.99385774 0.99399906 1.013221 1.0077235 1.001423 1.0119094 1.0099983 0.99567294
0.99639964 0.99409515 1.0153552 1.0030686 0.98657805 1.0170335 1.003817 0.99940705
0.9933435 1.0065483 0.9979615 1.0181971 0.9996761 1.0112251 1.0081002 1.0017473
1.0174662 0.9949595 1.0179887 0.996731 1.0028615 0.99841946 0.99877506 0.99410534
1.0028065 1.003289 0.9900233 1.0056708 0.992236 0.9962736 0.99276537 0.99162287
1.0037853 0.996375 1.0074742 1.0058105 0.99649924 1.0020944 1.0022607 0.99652565
1.0043427 1.0048999 0.9920222 0.9978546 0.9923954 1.0001391 1.0093082 0.9996276
00000000: 8490 803f 24db 803f 649f 7e3f b36e 803f
00000010: f4c3 803f 8572 803f ba21 7e3f 1c6c 813f
00000020: 53ba 803f 96a7 7d3f 8c90 7f3f 9e4b 813f
00000030: 83fd 803f 610c 7e3f 88f3 7e3f 56c1 7e3f
00000040: 0802 813f 48c6 803f f2e3 803f e72a 7f3f
00000050: 406b 803f 728e 7f3f 436e 7f3f 91de 813f
00000060: d081 7d3f 28af 803f 7486 7f3f e3f3 7f3f
00000070: e9d5 7d3f eac3 803f 2a53 803f 2142 833f
00000080: 5609 7e3f 9a86 813f 91c3 803f b234 813f
00000090: e1b2 7f3f 6a05 803f a2ee 7f3f 7c24 7f3f
000000a0: 9681 7f3f 4548 7e3f dbdb 7f3f 0d23 803f
000000b0: db25 7f3f 843b 803f 7c17 813f 0558 803f
000000c0: b153 823f 5943 803f c04c 803f 671f 813f
000000d0: 5895 7f3f 1ef7 7e3f 4d31 7f3f d129 803f
000000e0: d666 7f3f 3313 813f 4139 813f 2758 7f3f
000000f0: e190 803f bd47 803f 03fe 7d3f 4eb8 7d3f
00000100: d959 7d3f 92c2 803f c227 7d3f be5d 7f3f
00000110: 4c31 7e3f aea5 7f3f 9d9c 7d3f 887f 813f
00000120: 766d 7e3f b976 7e3f 3ab1 813f 15fd 803f
00000130: a12e 803f 3f86 813f a047 813f 6ce4 7e3f
00000140: 0c14 7f3f 057d 7e3f 29f7 813f 8d64 803f
00000150: 6190 7c3f 272e 823f 137d 803f 24d9 7f3f
00000160: c24b 7e3f 93d6 803f 687a 7f3f 4854 823f
00000170: c6ea 7f3f d36f 813f 6d09 813f 4139 803f
00000180: 553c 823f aab5 7e3f 744d 823f c329 7f3f
00000190: c45d 803f 6b98 7f3f b9af 7f3f b07d 7e3f
000001a0: f75b 803f c66b 803f 2b72 7d3f d2b9 803f
000001b0: 2e03 7e3f c90b 7f3f df25 7e3f ffda 7d3f
000001c0: 097c 803f 6f12 7f3f eaf4 803f 66be 803f
000001d0: 931a 7f3f a144 803f 144a 803f 4e1c 7f3f
000001e0: 4d8e 803f 8fa0 803f 2bf5 7d3f 6673 7f3f
000001f0: a00d 7e3f 8f04 803f 0331 813f 98e7 7f3f
