Trained_Models/BotDetection_v4_MLP___May-10-2024/BotDetection_v4_MLP_epoch31_val_loss_0.475296.pth (torch, 948290 bytes, 45 tensors)

L1.weight f4 [256, 133]
000000 a5 a4 0d 3c 9f 6a 6c 3d a4 2a b6 3d 5a b5 05 be
       0.008645211 0.05771887 0.08894852 -0.13057461
000010 c1 8f e2 3c ae 68 12 3d e2 30 23 3e 6d ed 8b bd
       0.027656438 0.03574436 0.15936616 -0.06832395
000020 f2 db 3c 3c 7b 05 6d bc 79 0a 3a bd 99 aa 2b 3d
       0.011527048 -0.014466639 -0.045420144 0.04191074
000030 b3 16 55 bd 3c 58 4e bd 4e 97 15 be 6d a5 82 3d
       -0.0520236 -0.050377116 -0.146085 0.06379209
000040 db 49 0c 3d be ec 24 bd 4c fc b9 bb ab 27 70 bd
       0.03425012 -0.040264837 -0.005675828 -0.05863158
000050 5e 74 2d bd a7 35 11 bc 8b 76 46 bd c0 8a c2 bb
       -0.042347305 -0.008862889 -0.048452895 -0.0059369504
000060 4f 0a 57 3d 48 74 be bd 23 f1 60 3c e4 5d 88 bd
       0.052500065 -0.09299523 0.0137293665 -0.06658533
000070 1f 21 c1 3c 3d 3c 80 3d e2 6b f7 39 c2 9e 2c bd
       0.023575364 0.062614895 0.0004719189 -0.04214359
000080 ac 72 b7 bd f2 70 a4 bc c1 ec 88 bd 33 7b a3 3d
       -0.08957419 -0.020073388 -0.06685782 0.07982483
000090 e6 27 80 3d 09 90 d1 3d 9d cc 2c bd 9b 81 7e 3c
       0.0625761 0.10232551 -0.042187322 0.01553383
0000a0 7d 8b 2c 3e 82 0d d5 3b 70 a7 27 bc cb b6 1a 3d
       0.16850086 0.0065018544 -0.010232791 0.03777198
0000b0 f1 ae cf 3c ad 19 af 3d e9 89 b4 3b 37 1e 87 3d
       0.025351973 0.08549819 0.0055096042 0.0659756
0000c0 81 7d 29 bd 23 68 92 3d 32 6f 34 3d 10 27 89 3c
       -0.041379455 0.07148769 0.044051357 0.01674226
0000d0 d0 39 93 3d 16 5e d3 3d a4 fd fa bc c9 6d 0a 3d
       0.07188761 0.1032068 -0.030638523 0.033796106
0000e0 3c f4 ad bc 03 21 45 3d fb e8 ed bd 7f 9c da bb
       -0.021234624 0.048127186 -0.11616703 -0.006671488
0000f0 af 8d ec bd 34 2a d8 3b 17 96 03 be 96 bf 1a bd
       -0.115504615 0.006596828 -0.12850223 -0.037780367
000100 71 95 95 3d 06 e0 ff bd 32 9c 41 bd 79 b0 f4 3d
       0.07303894 -0.12493901 -0.0472681 0.11947722
000110 8e 99 d4 bc d2 7d 4b bd 58 93 70 3d 08 41 96 3d
       -0.025952127 -0.04968054 0.058734268 0.073366225
000120 32 28 b9 3d 92 a2 ea 3c 2d 3d 43 bd 06 78 ec bc
       0.0904087 0.028641973 -0.047665764 -0.028865825
000130 a7 2a a8 bd 84 6c 14 3d d4 40 a8 bc 50 03 19 3d
       -0.0821126 0.0362363 -0.020538725 0.037356675
000140 ff fa fc 3c 33 2d 45 bd 27 11 33 bd 8e 93 94 bc
       0.030881403 -0.04813881 -0.04371753 -0.018136766
000150 9a ce 28 3d 9b 2a 1b bc a0 8d 0e be bd ca 7a bd
       0.041212656 -0.009470607 -0.13921213 -0.061228503
000160 81 91 8a 3b 1e f6 df b9 e7 ae 3e bc 88 81 00 3e
       0.004228771 -0.00042717246 -0.01163838 0.12549412
000170 97 9d a9 bd 36 74 12 3d 37 5f da bc cb d4 09 3d
       -0.08282011 0.03575536 -0.02665673 0.0336502
000180 5a 7e 7b 3d c5 af 87 bd 5a 95 2c bd 76 ef 3d 3d
       0.061399795 -0.06625322 -0.04213462 0.046370946
000190 75 53 7f 3c 1d d6 7d bd dc 23 d7 3d e3 a6 e1 bd
       0.015583863 -0.061971772 0.105048865 -0.11018159
0001a0 16 73 6f bd 56 e6 8a 3d 12 3d 69 3d 24 52 30 bd
       -0.058459364 0.06782214 0.056943007 -0.043047085
0001b0 6a 2f 30 bd 82 ee 93 bd ae 64 1e 3d 6f c6 a0 bd
       -0.043013968 -0.07223226 0.038670234 -0.07850348
0001c0 71 07 68 bd 4d ee 03 bc 13 10 92 3c af b8 31 bd
       -0.05664772 -0.008052421 0.01782993 -0.04338902
0001d0 5f e6 0b 3c d9 18 c5 3d 8f a7 96 3d 0b 06 ad 3d
       0.0085388115 0.0962388 0.07356178 0.08448418
0001e0 5b d8 9b bd 46 a8 60 3d db 43 9f 3c f0 27 1a 3e
       -0.07609626 0.054847978 0.019441536 0.15054297
0001f0 35 8e af bd 28 1e 46 bc c0 c4 60 3d 73 ff 9a 3d
       -0.08572046 -0.012092151 0.054875135 0.07568254
000200 d3 db 9b bd 49 36 bc bb 5d 1b a4 3d 5f 2a a4 3d
       -0.076102875 -0.005743776 0.08013032 0.08015894
000210 a2 56 d3 bd 7a 10 74 3b cf 74 eb 3c e9 7a d1 bb
       -0.10319258 0.0037241266 0.028742222 -0.006392826
000220 18 cc b7 3d 6a a0 05 bd 05 83 72 3c e3 a0 70 bd
       0.08974475 -0.032623686 0.014801745 -0.058747184
000230 42 86 22 bd de 07 5b 3d 3a 7a cf bc 91 ee bd bc
       -0.03967882 0.0534743 -0.025326837 -0.023185046
000240 82 a7 29 3a 36 2b 6f bd 57 02 18 3d 64 42 0e 3d
       0.0006471799 -0.05839082 0.037111606 0.034731284
000250 40 cb 32 3c 32 da 2c bd 34 c1 f0 bb 32 88 9c bc
       0.010912716 -0.042200275 -0.0073472504 -0.019107912
000260 be 66 67 3d d6 3a d4 bc 61 ea 94 3c 54 d5 8d bd
       0.056494467 -0.025906961 0.018178167 -0.06925455
000270 f7 dd 80 bd 9e 1e aa bd 23 60 b4 bc 42 c2 ac bd
       -0.062923364 -0.08306621 -0.022018498 -0.08435489
000280 bc 46 ea 3c f1 e5 9d bd e3 21 d0 bb ee d2 5e 3c
       0.028598182 -0.077098735 -0.006351696 0.013600094
000290 18 e9 13 bd 4c 94 8a 3d c1 f5 86 3d 8c 74 19 bd
       -0.036110967 0.06766567 0.065898426 -0.037464663
0002a0 72 c5 b5 bc f9 6f db 3d e3 96 8d 3d f8 e3 29 3e
       -0.022188876 0.107147165 0.06913545 0.1659087
0002b0 6f df dd 3d de 73 2b 3d 85 8b 5b bd 87 c8 a4 3c
       0.10833632 0.041858546 -0.053599853 0.02011515
0002c0 46 cf 89 3d cb 26 0f 3e a5 d7 24 bd 0b 33 0e 3d
       0.067289874 0.13979642 -0.040244717 0.034716647
0002d0 6b 4b 5f 3d 17 2b 6b 3d 22 74 f4 3c 56 24 6d bd
       0.054515284 0.05741414 0.029840533 -0.05789598
0002e0 16 68 d0 bc aa 7a 1c 3d d0 26 c4 3d 18 07 f0 bb
       -0.025440257 0.03820292 0.095777154 -0.0073250644
0002f0 30 3b b2 bb a6 20 8f 3b 7f ca 48 3d 23 ac 9d 3d
       -0.0054391846 0.0043679057 0.04902124 0.07698848
000300 75 c3 06 bd 83 ac 91 3d d7 4a a2 3d ba 47 4c 3d
       -0.032901246 0.07112982 0.07924431 0.04987309
000310 69 9d be bd 84 fc 5e 3c c8 bd 4d 3d 86 fc ad bc
       -0.09307367 0.013610009 0.050229818 -0.021238577
000320 26 83 10 bc a5 e0 80 bc 68 73 eb bc d3 4f c4 bc
       -0.008820331 -0.015732119 -0.028741553 -0.023963844
000330 eb ce e3 3d 7c ec 78 3b 01 a4 34 bd ea c7 6c bc
       0.11123451 0.0037982753 -0.04410172 -0.01445196
000340 86 aa 3a 3c 86 75 9e 3d 9c 72 43 bd 46 7d eb bb
       0.011393195 0.077372596 -0.047716722 -0.0071865646
000350 cd cb de bc 64 06 30 3c bc 7a 3b bd 0f 41 bc bd
       -0.02719679 0.010743711 -0.045771345 -0.091920964
000360 f5 32 bf bd bb 06 a2 3d 58 fd 3d bd 60 10 72 3d
       -0.09335891 0.0791144 -0.046384186 0.059097648
000370 9c bd 06 bd 52 fb 0e 3d 70 93 02 be 47 d5 7c 3d
       -0.03289567 0.034907646 -0.12751555 0.061726835
000380 f4 f3 dd bd f5 d1 f9 bc f4 30 81 bd 39 53 e2 3c
       -0.10837546 -0.030495623 -0.06308165 0.027627574
000390 a3 00 93 bd 6c 64 9a bc 6c dc f4 bc bf d4 51 bd
       -0.07177856 -0.018846713 -0.029890262 -0.05122828
0003a0 8a 6a f0 3c 1f 16 ec 3d fd 6a 4f 3d 96 20 c9 3d
       0.029347677 0.11527657 0.05063914 0.098206684
0003b0 a8 06 df 3c 5e 40 28 3d fa 4a b0 3d 4b 4e 6e 3d
       0.027224854 0.04107701 0.08608051 0.058180135
0003c0 a7 c6 73 bd 39 fa 0b 3c b2 44 32 3c 52 6b 0b bd
       -0.05951562 0.008543544 0.010880636 -0.034037896
0003d0 62 f4 3a bd 2f 1a 4d 3d 9e 72 7a bd 54 fb ce 3c
       -0.045643218 0.0500738 -0.061144464 0.025266327
0003e0 46 f4 55 bd ab 3e 44 3d 3a b6 ae 3d 50 bd bc 3d
       -0.05223491 0.047911327 0.08530851 0.09215796
0003f0 fd 5b 72 bd 83 03 e1 bd 1c 6e 88 bd 38 22 94 bd
       -0.059169758 -0.10986998 -0.06661627 -0.07233089

L1.bias f4 [256]
000000 76 ea a6 bd 47 7a 97 bc 82 06 7b 3d 56 61 8a bc
       -0.081501886 -0.018490924 0.061285503 -0.016892117
000010 6d 47 b2 bc fa c9 79 bd b6 eb 05 3d 66 c2 2a 3d
       -0.021762574 -0.060983635 0.032695495 0.0416893
000020 21 ca 56 bd 53 aa 9d bd 91 b9 bd bc 59 14 78 3d
       -0.05243886 -0.076985024 -0.023159774 0.06056628
000030 39 e1 83 bd cb 6a 12 bd 1e 49 ae bd 43 ac 21 bc
       -0.06439442 -0.035746377 -0.0851004 -0.009867731
000040 72 c4 97 3c bd 53 10 3d 68 50 29 bd 16 a4 a9 3d
       0.01852629 0.03523611 -0.041336447 0.0828325
000050 6e 29 ef 3b 11 75 7d bd 99 8b 8e 3c 38 6a 02 3d
       0.00729864 -0.06187922 0.01740055 0.03183958
000060 25 e9 64 3d ae 95 7b 3d 23 15 b5 bc 71 77 8e bc
       0.055886406 0.061422043 -0.022104805 -0.017390938
000070 2f 91 31 bd 3f f2 10 3d 72 7e 87 bd 84 12 be bc
       -0.04335135 0.035387274 -0.066159144 -0.023202188
000080 45 20 66 bc c3 6e 91 bd 6e 4e 09 3d 85 9d a1 3c
       -0.01404578 -0.07101204 0.033522062 0.019728431
000090 8a 17 97 3d 8f d7 5b bd 5a d1 9f 3d 0c 8f 15 3d
       0.073775366 -0.05367237 0.078036025 0.036513373
0000a0 3e 65 db bc 29 3d 87 bd 6c a5 a7 bd 7d c2 01 3d
       -0.026781674 -0.06603462 -0.081858486 0.03167962
0000b0 bf f1 2c bd a6 19 cd bc bf 9e 0a bd 0b 79 85 bc
       -0.042222735 -0.025036644 -0.0338428 -0.01629307
0000c0 34 0d f3 3b a3 8f 98 3d e8 b2 67 3d ac f2 83 3d
       0.0074173454 0.074492715 0.056567103 0.0644277
0000d0 e4 9c 9e 3b db da da bc fb 39 23 bd 50 95 4c 3d
       0.00484048 -0.026715687 -0.039850216 0.049947083
0000e0 88 29 f2 bb bf ee 0a 3d 29 d0 9e bd b0 20 33 3d
       -0.007390205 0.033919092 -0.07754547 0.043732345
0000f0 0b a9 39 bd ec 57 19 bc ea a2 8e 3d 69 78 58 3d
       -0.045327228 -0.009359341 0.06964667 0.052849207
000100 0d 7c 4d bd ce 93 92 3d 9c be 8f bd 31 62 22 3d
       -0.050167132 0.07157098 -0.07018778 0.039644424
000110 34 d0 64 3c bf 69 a3 3d 0f 6d 0e 3c 91 9b 99 bc
       0.013965655 0.07979154 0.008692994 -0.018750938
000120 76 3c 97 3d 26 ba 51 bd 36 d9 75 3d a4 ae 05 bd
       0.07384579 -0.051202916 0.0600216 -0.032637253
000130 e6 a5 3f bc aa 6b 19 bd 00 7b 68 3d 7b be 5e bd
       -0.011697268 -0.037456192 0.056757927 -0.054380875
000140 ac 70 c9 bc f6 f2 c7 3b 15 b0 9d 3d 0c c6 41 bc
       -0.024589859 0.0061019612 0.076996006 -0.011827003
000150 01 18 18 bd 87 3d 22 bc bf 59 a0 3c 8c 91 1c bd
       -0.037132267 -0.009902365 0.019574044 -0.03822474
000160 79 51 b0 3d 69 ae 0f 3d f2 c4 fb bc e7 49 4f 3d
       0.0860929 0.03507844 -0.03073356 0.05060759
000170 f6 f1 cd bc 4c 84 9b 3c 03 b8 78 bc 39 37 8a bd
       -0.02513979 0.018983983 -0.015180591 -0.06748814
000180 5b 12 94 bd 44 8a 9a bd 92 0e 45 bd 43 62 af bb
       -0.072300635 -0.07545903 -0.0481096 -0.00535229
000190 66 b9 38 3c 80 eb 6a 3c 50 32 1f 3d f1 b2 b1 3b
       0.011274671 0.014338374 0.03886634 0.005422943
0001a0 ce c7 ac 3d 1f 00 a6 bc ec 3a 95 3c e6 b5 91 3c
       0.08436547 -0.02026373 0.018216573 0.017786931
0001b0 ca d2 2e 3d 39 cd 8d 3d 6c 18 05 3d 09 b1 30 3d
       0.042681493 0.06923909 0.032493994 0.043137584
0001c0 cd 31 9d 3d e4 ac 2b 3d 4e 41 a1 3d 89 71 34 3d
       0.07675514 0.04191293 0.07873784 0.044053588
0001d0 e3 47 2b 3d fe 5d 31 bc 9a a1 5c bd c7 9b 9d 3d
       0.041816603 -0.010825632 -0.053865053 0.07695728
0001e0 a4 e7 36 3d 98 42 d4 3c da aa 0f 3d 3f 55 c4 bc
       0.044654503 0.02591066 0.035075046 -0.02396643
0001f0 1b f0 27 bc 47 a6 8d 3d 21 c2 b9 3c 94 c9 ab bd
       -0.010250117 0.069164805 0.022675576 -0.08388057
000200 80 99 8f 3d 7c e6 d2 3c 4e d2 2d bd 3c ce 1e bd
       0.070117 0.02574467 -0.04243689 -0.0387709
000210 ea 3d 84 bd ec ef a5 3d 1d d8 26 bd 84 b3 1f bd
       -0.06457122 0.08102402 -0.040733445 -0.03898956
000220 c2 11 e3 3c 43 c2 0d bd 3d 64 3a 3d 01 41 f9 bc
       0.027718429 -0.03460909 0.04550575 -0.030426504
000230 a9 28 aa bc d1 c8 db bc 43 76 a1 3b 80 ee 31 3d
       -0.020771341 -0.026829155 0.004927428 0.043440342
000240 77 96 5e bc 02 77 8b 3d 45 44 af bd a7 cd 87 bd
       -0.013585678 0.06809808 -0.08557943 -0.06631022
000250 f8 f1 c7 3c aa b9 d5 bb c1 f8 56 bc 17 aa cb 3c
       0.024407372 -0.006522377 -0.013120831 0.024861379
000260 4b de 90 bd 9e 6d 16 bc 7c 0c 7c bd a0 11 9e 3d
       -0.07073649 -0.009181408 -0.061535344 0.077182055
000270 a3 b3 9a 3c f5 6b 53 3d a6 d4 63 bd ab d0 a9 bc
       0.018884486 0.051616628 -0.05562272 -0.020729383
000280 3b 64 3e 3d 17 f7 95 3d 67 37 94 bd 46 3a c0 bc
       0.046482306 0.07322519 -0.0723713 -0.023465287
000290 31 38 7e bc eb 69 a4 3d da d6 5b bd db 1c 03 3d
       -0.015516327 0.08028015 -0.053671695 0.03200994
0002a0 a5 cc 81 3d ab 4c 86 bd 4f 12 a7 3d c9 5c ae bd
       0.06337861 -0.06557592 0.08157789 -0.08513791
0002b0 a8 59 82 bd 3e 88 cd bc 47 a2 8d 3b e6 b7 4b 3b
       -0.06364757 -0.02508938 0.0043223235 0.0031084954
0002c0 b9 12 84 3d e2 ae 98 3d f8 df c0 bc 92 07 a5 3c
       0.064488836 0.07455231 -0.023544297 0.020145211
0002d0 c7 16 f9 bc 72 d1 c9 3c 2a ac eb ba 95 93 25 3d
       -0.030406369 0.024636004 -0.0017980386 0.04042395
0002e0 97 e6 c7 3a 99 b9 dc bc e2 bf 17 3d 26 16 80 3d
       0.0015251216 -0.026943969 0.037048228 0.062542245
0002f0 eb 84 25 bd 2f 90 bd 3c 55 a6 0a 39 4d d8 cc bc
       -0.040409964 0.023140041 0.00013222669 -0.025005484
000300 f4 50 17 3d 1f 5a 4a 3d e1 5d 1f 3d 8e fc 96 bd
       0.036942437 0.049402352 0.03890789 -0.0737239
000310 77 d7 00 bd fe a6 92 3d 07 4c 4b 3d 3c db 47 3d
       -0.031455483 0.071607575 0.049633052 0.048793063
000320 9d 16 57 bd 3b ae fe 3c 6d a1 32 bc 7e 6f 09 bd
       -0.0525118 0.031088939 -0.010902745 -0.033553593
000330 7c a3 53 3d ff 86 aa 3d 21 cf 1e 3d 9a d8 81 3d
       0.051669583 0.0832653 0.038771752 0.063401416
000340 13 fc 4a bd 67 cf 2e 3d e6 f7 a3 bd e8 fe aa bc
       -0.049556803 0.042678263 -0.08006267 -0.020873502
000350 a4 1d aa bc 23 fd 91 bd 8a 83 de bc a1 f6 85 3d
       -0.020766087 -0.0712836 -0.027162332 0.06541181
000360 b8 4e 2e bd b5 1f 99 3d 6a 6e 30 3d 7f f2 0e bd
       -0.04255554 0.07476751 0.04307405 -0.03489923
000370 8f 69 47 3d a3 01 a5 bd 27 91 14 3d 6e e7 28 bd
       0.048684653 -0.08056953 0.03627124 -0.041236334
000380 fa 19 8c bd 32 9b ae 3d 72 d5 5b bb 5a 63 5a bd
       -0.06840892 0.08525695 -0.0033543971 -0.053317405
000390 5e 6b af 3d b9 5b b1 3c a4 bf 56 bc d1 46 06 bd
       0.085654005 0.021650182 -0.013107214 -0.03278238
0003a0 3e b2 9f 3d 04 0e 45 3d 2a 30 a0 3d 41 48 01 3d
       0.07797669 0.04810907 0.078216866 0.031563047
0003b0 94 b6 8b 3d 13 5c 62 ba 81 3c 9e 3c 9a e9 b2 3c
       0.068219334 -0.0008634936 0.01931596 0.021839906
0003c0 c5 cc a7 3d 28 0d 85 3d 58 38 54 3d 11 d6 aa bd
       0.081933536 0.0649665 0.051811546 -0.08341611
0003d0 d7 ee 81 3d 52 d0 41 3d 9d 8c 9d bc 13 62 82 3c
       0.06344383 0.04731781 -0.019232089 0.015915906
0003e0 0a 41 ae bd 38 1c 46 bd 85 10 89 3d 49 98 a3 bd
       -0.08508499 -0.048366755 0.06692604 -0.079880305
0003f0 12 8e 09 3a 37 d5 7c 3c 13 b1 83 bb de 2a 4f bd
       0.00052473054 0.015431694 -0.0040189116 -0.05057799

BN1.weight f4 [256]
000000 cf f3 7d 3f 4b a3 7e 3f db ee 7c 3f ed 72 7a 3f
       0.9920015 0.99467915 0.98801965 0.9783161
000010 c5 a2 7d 3f 19 39 81 3f ab 25 82 3f 3f f6 7e 3f
       0.9907649 1.009555 1.0167745 0.9959449
000020 bc 4a 80 3f bc 95 80 3f 06 f1 7c 3f ea b2 7a 3f
       1.0022807 1.0045695 0.9880527 0.9792925
000030 f3 29 7e 3f e2 87 7f 3f 94 7b 82 3f 91 f3 80 3f
       0.9928276 0.99816716 1.0193963 1.007433
000040 20 a6 81 3f 1c 1f 80 3f 6d 1c 7d 3f 50 a4 80 3f
       1.0128822 1.0009494 0.988715 1.0050144
000050 b8 02 7f 3f 17 26 7d 3f 4a be 85 3f b2 3c 82 3f
       0.99613523 0.98886245 1.0448697 1.0174773
000060 0a 85 82 3f 8c b1 81 3f 2c f3 81 3f 90 c2 80 3f
       1.019685 1.0132308 1.0152335 1.0059376
000070 53 c3 83 3f 07 3e 82 3f 57 6a 83 3f 74 0f 80 3f
       1.0293983 1.0175179 1.0266827 1.0004716
000080 0d 7b 83 3f 7b 06 7c 3f f5 24 7b 3f fe ec 80 3f
       1.0271927 0.9844739 0.98103267 1.0072324
000090 03 6e 83 3f cb cb 82 3f d0 03 80 3f 7a b8 80 3f
       1.0267948 1.0218443 1.0001163 1.0056298
0000a0 21 96 81 3f 90 7f 82 3f 76 63 81 3f 76 29 84 3f
       1.0123941 1.0195179 1.0108478 1.0325153
0000b0 59 b3 7f 3f 74 a7 81 3f 14 45 80 3f a1 1a 7d 3f
       0.9988304 1.0129228 1.0021081 0.9886876
0000c0 a6 a4 84 3f c4 c6 7c 3f 42 16 7b 3f 21 e9 7d 3f
       1.0362747 0.9874079 0.9808084 0.9918385
0000d0 ac 45 7a 3f 69 7d 81 3f 18 b2 7f 3f 7f 29 80 3f
       0.9776256 1.0116397 0.99881124 1.0012664
0000e0 a4 69 80 3f 63 ce 81 3f 71 33 80 3f 33 b9 84 3f
       1.0032239 1.0141109 1.0015699 1.0369018
0000f0 69 5c 7e 3f 72 ad 80 3f 80 a8 83 3f b7 03 84 3f
       0.99359757 1.0052931 1.0285797 1.0313634
000100 aa 72 7a 3f 58 3a 7f 3f e6 b6 7c 3f 50 f7 81 3f
       0.97831213 0.996984 0.9871658 1.0153599
000110 74 50 80 3f 8c ae 85 3f c5 80 80 3f 45 c6 7a 3f
       1.0024552 1.0443892 1.0039297 0.97958785
000120 40 49 82 3f 61 22 84 3f 8e ba 80 3f 32 41 7f 3f
       1.0178604 1.0322992 1.0056932 0.99708855
000130 0f 35 80 3f d8 73 83 3f 12 76 82 3f c3 79 80 3f
       1.0016192 1.0269728 1.0192282 1.0037159
000140 0c a7 81 3f 01 4d 7e 3f 10 cb 7f 3f 1d 9d 7e 3f
       1.0129104 0.9933625 0.99919224 0.99458486
000150 ed 83 80 3f f8 7e 80 3f e9 d6 80 3f da 49 82 3f
       1.004026 1.0038748 1.0065585 1.0178788
000160 8b a5 83 3f 05 6c 80 3f 99 f4 81 3f c4 ec 83 3f
       1.0284895 1.0032965 1.015277 1.030663
000170 76 ca 80 3f f0 4b 80 3f af 28 82 3f 6f 38 82 3f
       1.0061786 1.0023174 1.0168666 1.0173472
000180 b9 bd 80 3f 20 fd 80 3f e1 fd 80 3f c4 c1 82 3f
       1.0057899 1.0077248 1.0077478 1.0215383
000190 75 4b 7f 3f 5b e5 7f 3f e7 aa 80 3f 99 d7 82 3f
       0.99724513 0.99959344 1.0052155 1.0222045
0001a0 4d 27 82 3f ce 3a 83 3f a2 7c 7c 3f 3d 78 82 3f
       1.0168244 1.0252321 0.98627675 1.0192944
0001b0 87 dc 81 3f 9c 95 83 3f d9 71 80 3f b4 42 82 3f
       1.0145425 1.0280032 1.0034744 1.0176606
0001c0 2c 9d 7e 3f 85 98 82 3f 08 b4 82 3f ba 8c 84 3f
       0.99458575 1.0202795 1.0211191 1.0355446
0001d0 39 cb 84 3f b4 b3 7f 3f db a2 7e 3f 2f 3a 7e 3f
       1.0374519 0.9988358 0.9946725 0.9930753
0001e0 ee 36 7f 3f 04 bf 79 3f d5 01 83 3f 44 7e 7e 3f
       0.9969319 0.9755709 1.0234934 0.99411416
0001f0 c1 70 80 3f ca ec 7e 3f fb 91 81 3f 05 ea 82 3f
       1.003441 0.9958006 1.0122675 1.0227667
000200 7e 30 7e 3f d5 a8 7f 3f de 76 7c 3f 39 5e 7e 3f
       0.99292743 0.9986699 0.98618877 0.9936252
000210 9b 5a 80 3f 3e 53 81 3f 52 36 81 3f 4f 1f 83 3f
       1.002765 1.0103528 1.0094702 1.024393
000220 df d6 82 3f 91 3b 7c 3f 9f cf 80 3f 6b 1f 7c 3f
       1.0221823 0.9852839 1.0063361 0.9848544
000230 2f 78 83 3f e0 c9 7f 3f ca 7e 80 3f d4 55 80 3f
       1.0271052 0.9991741 1.0038693 1.0026193
000240 b7 51 83 3f 47 e8 80 3f a8 fe 80 3f bb dc 82 3f
       1.0259312 1.0070885 1.0077715 1.0223612
000250 ef b9 81 3f da ea 80 3f 0a 17 83 3f 02 5a 7d 3f
       1.0134867 1.0071671 1.0241406 0.98965466
000260 d8 78 80 3f 49 bd 7c 3f e5 38 82 3f a9 34 7d 3f
       1.0036879 0.98726326 1.0173613 0.9890848
000270 08 04 7f 3f 27 15 82 3f 80 4f 7c 3f da 58 80 3f
       0.99615526 1.0162705 0.9855881 1.0027115
000280 03 7b 7c 3f 38 7a 82 3f bb bb 7c 3f 3e 64 81 3f
       0.986252 1.0193548 0.98723954 1.0108716
000290 a5 62 81 3f 0a 97 7e 3f e5 7c 87 3f b6 c5 7b 3f
       1.0108229 0.9944922 1.058499 0.9834856
0002a0 bd 4a 82 3f 01 b9 7f 3f 87 90 83 3f be af 7c 3f
       1.0179058 0.9989167 1.0278481 0.9870566
0002b0 2e a9 80 3f 8e a2 80 3f d2 4a 80 3f 33 06 80 3f
       1.005163 1.0049608 1.0022833 1.0001892
0002c0 06 12 7d 3f d3 7a 80 3f 45 38 7e 3f b9 97 81 3f
       0.98855627 1.0037483 0.9930461 1.0124427
0002d0 2b 84 81 3f 6d 65 81 3f 61 a6 81 3f 1b 3e 7d 3f
       1.011846 1.0109078 1.01289 0.9892289
0002e0 54 47 81 3f 9e 3a 82 3f ed d3 7f 3f ec d0 7c 3f
       1.0099893 1.0174139 0.9993275 0.9875629
0002f0 8a d5 81 3f d0 c4 80 3f 23 28 80 3f 81 a1 7f 3f
       1.0143292 1.0060062 1.0012249 0.9985581
000300 0f 9b 80 3f 9f e9 80 3f c8 3e 80 3f 15 c7 82 3f
       1.004732 1.0071295 1.0019159 1.0217005
000310 31 f6 85 3f 88 3b 81 3f 4d 23 84 3f f0 c7 80 3f
       1.0465757 1.0096292 1.0323273 1.0061016
000320 5e 68 80 3f e6 93 81 3f ce 8f 81 3f cf 82 7b 3f
       1.003185 1.012326 1.0122011 0.98246473
000330 78 6f 82 3f fb a8 7d 3f f4 70 7d 3f 07 07 7d 3f
       1.0190268 0.9908597 0.9900048 0.9883885
000340 b0 ac 7e 3f a0 d3 81 3f 94 50 84 3f 1b b7 80 3f
       0.9948225 1.0142708 1.033709 1.0055879
000350 dc 40 80 3f 4a 19 80 3f f7 8e 83 3f 55 c9 7e 3f
       1.0019794 1.0007718 1.0278004 0.9952596
000360 94 89 81 3f 59 8b 81 3f 4c bc 81 3f a1 79 7d 3f
       1.012011 1.012065 1.0135589 0.99013716
000370 51 b3 83 3f 96 27 7b 3f a4 0e 7f 3f c7 b2 80 3f
       1.0289098 0.9810728 0.99631715 1.0054559
000380 6a 72 81 3f 13 18 7e 3f c7 a8 7f 3f 70 42 7f 3f
       1.0113041 0.99255484 0.9986691 0.9971075
000390 38 66 81 3f 67 0a 85 3f cb 30 7f 3f ff c4 82 3f
       1.010932 1.03938 0.9968383 1.0216368
0003a0 4d d6 86 3f 0c 29 7d 3f ca 78 7e 3f 19 5a 81 3f
       1.053415 0.9889076 0.9940306 1.0105621
0003b0 7c 91 85 3f 91 b6 83 3f 68 ef 7f 3f fa a5 76 3f
       1.0435023 1.029009 0.9997468 0.9634701
0003c0 52 2d 7b 3f 99 a1 7c 3f d3 44 80 3f c3 96 84 3f
       0.9811603 0.9868408 1.0021003 1.0358509
0003d0 cb 0f 7e 3f 5d f0 7c 3f 85 14 7e 3f 10 8e 7f 3f
       0.9924285 0.98804265 0.9925006 0.99826145
0003e0 4e 6a 82 3f 1d 6e 81 3f 98 c9 7e 3f 03 46 80 3f
       1.0188692 1.0111729 0.9952636 1.0021366
0003f0 5a 70 7f 3f c2 3e 80 3f a8 24 84 3f 5c 3e 85 3f
       0.9978081 1.0019152 1.0323687 1.0409656

BN1.bias f4 [256]
000000 59 f3 01 3d c4 13 20 bd 6b 69 3d bc 11 2d a0 3d
       0.031726215 -0.03908135 -0.011560778 0.07821096
000010 14 e0 33 3d f1 27 52 bd 7e 09 11 bc c2 a8 30 bd
       0.04391487 -0.051307622 -0.008852361 -0.04312969
000020 c5 d7 89 bc 3d aa 25 3c 97 fd fe 3c 64 76 1e 3c
       -0.01682652 0.010111389 0.03112678 0.009671781
000030 16 c6 d0 3c f6 94 78 bd 02 2f 48 bd 41 57 81 bc
       0.02548508 -0.060688935 -0.048872955 -0.015788676
000040 5a 16 11 bc 53 a7 2f bc 7d 95 99 bb 1a c0 24 bc
       -0.008855427 -0.010721046 -0.00468701 -0.010055566
000050 62 bf a4 3c 71 ee ab 3c 36 60 a2 bd f7 c8 e2 bc
       0.02011079 0.020987721 -0.07928507 -0.027683718
000060 42 ff 90 3b 31 36 14 bd d3 cb e6 bc fe 36 17 3c
       0.0044249604 -0.036184493 -0.028173363 0.00922942
000070 5a c0 2a bd e5 20 51 bd fa 8b 89 bd 20 4c 9f bb
       -0.041687347 -0.05105676 -0.067161515 -0.0048613697
000080 94 fe 69 bd 47 45 7a 3d 27 2c 03 bb bc 19 fd 3c
       -0.05712755 0.061101224 -0.002001533 0.03089606
000090 c5 f5 c6 bc ab a9 01 bd b4 f0 a1 bc c4 66 98 bc
       -0.024287114 -0.03165595 -0.019768097 -0.01860369
0000a0 21 14 fe bc 92 c8 7a bd 69 e6 57 bd a2 57 97 bd
       -0.031015458 -0.061226435 -0.05270997 -0.073897615
0000b0 13 16 15 3c 73 dc 0c bc 17 4b ad bd 5e 8b 06 bc
       0.009099501 -0.008597481 -0.08461588 -0.008211939
0000c0 c9 ff 4b bd f2 75 de bc fc b6 09 3d 3d 10 01 3d
       -0.049804483 -0.02715585 0.033621773 0.031509627
0000d0 d5 2b 4e 3d a9 05 6b bd d7 db 92 3c 35 fd d9 bc
       0.05033477 -0.057378445 0.017927093 -0.026609996
0000e0 cd 82 0d bd b6 00 c1 bc f1 3d 74 3c 9a 87 81 bd
       -0.03454857 -0.02355991 0.014907346 -0.06324692
0000f0 2a 2c a7 3c 70 bb f3 bc 0a 5a a6 bc 77 6a 3f bd
       0.020406801 -0.029752463 -0.020306606 -0.046732392
000100 45 f0 5e 3b 51 0e 3c 3c c6 52 e8 3c 33 0a 14 bd
       0.0034017724 0.011478023 0.028359782 -0.03614254
000110 cf 26 1b 3a a7 d8 76 bc b0 b3 34 3d cd 6c 37 3d
       0.00059185637 -0.015066302 0.044116676 0.044781495
000120 d5 51 a2 bc 5f e7 62 b9 ad 61 9a 3b ae 13 13 3c
       -0.019814411 -0.00021639232 0.004711351 0.00897686
000130 73 1c e2 bc 54 7e 9f bd c2 f6 87 bd d8 0b 96 bc
       -0.027601456 -0.07787767 -0.06638862 -0.018316194
000140 18 0a aa bc b3 e3 f3 3c a6 29 00 bd 09 84 4f bd
       -0.020756766 0.029771661 -0.03128972 -0.050663028
000150 c0 43 50 bc 86 1e 62 3d 82 b4 ae 3b c4 ac a5 bb
       -0.012711465 0.05520489 0.005331577 -0.0050559957
000160 0b 19 44 bd b2 ae 8b bc 85 74 ae bc 6e 59 8d bd
       -0.047875445 -0.017051075 -0.021295795 -0.06901823
000170 44 d1 bd bc 1d d5 3b bd c8 4c 27 bc 1a 0e 09 be
       -0.023171075 -0.045857538 -0.010211177 -0.13384286
000180 25 e6 03 3d d3 f5 41 bc 3e 71 0f 3d aa a4 18 be
       0.032201905 -0.011838394 0.035020106 -0.14906564
000190 1d 14 44 bd 42 95 a9 3c e0 2c 9f bd cf 40 43 bd
       -0.047870744 0.020701054 -0.07772231 -0.04766923
0001a0 1c cf 85 bc dd b5 37 bd 87 85 4a bc 7c d0 94 3b
       -0.016334109 -0.044851173 -0.012360937 0.004541455
0001b0 69 42 a3 bc ee 6e 81 bd d1 2b fa bc 55 77 50 bd
       -0.019929128 -0.06319986 -0.030538471 -0.050895054
0001c0 15 e4 ba bc ba 84 9b ba 5e 3e cf bc 0e 73 a1 bd
       -0.022813836 -0.0011865117 -0.025298294 -0.07883273
0001d0 95 06 89 bc 4e 72 44 bc aa 5a 61 bd e7 61 c3 3d
       -0.016726771 -0.011990143 -0.055018105 0.09540158
0001e0 83 e5 ec 3c ac aa 18 bc 3e 38 ab bd db 97 03 3c
       0.028918033 -0.009318035 -0.08360337 0.008031811
0001f0 66 d2 ff bb 46 e9 25 3d 19 4f 08 bd 01 30 a8 bd
       -0.007807064 0.04050567 -0.03327856 -0.08212281
000200 ca 20 d6 3b b6 a1 7f bb 6f d1 2e 3b 6b 04 3a 3d
       0.0065346705 -0.00390063 0.0026675125 0.04541437
000210 f8 2f cc 3c 85 a0 14 bd d3 c2 c3 bb 25 75 92 bd
       0.024925217 -0.036285896 -0.0059741526 -0.0715125
000220 bd 05 7c bd 81 7a 2e bc 14 ab 35 bd d1 8d d6 3c
       -0.06152891 -0.010649324 -0.044352606 0.02619067
000230 b0 b6 9d bd 4a c1 83 3c 27 e2 47 bd 73 27 a1 bd
       -0.077008605 0.016083378 -0.04879966 -0.078688525
000240 fd b4 c3 bb 18 b4 2b bd 48 0b 83 bb 45 56 77 bd
       -0.005972503 -0.041919798 -0.0039991476 -0.060385007
000250 8f f2 21 bd 1f 93 55 ba f1 c4 59 bd 29 4c 63 bc
       -0.039537963 -0.0008147228 -0.053166334 -0.013873138
000260 79 c9 a0 bc 3d e2 2a 3d 66 86 57 bd 8b f2 8a 3b
       -0.01962732 0.041719664 -0.052618407 0.004240339
000270 7d b9 18 bc a2 88 ae bc b2 3b cd bc c9 88 fa bc
       -0.009321568 -0.021305386 -0.025052879 -0.030582802
000280 56 87 31 bb e4 a0 5e bd c2 99 15 3d 83 84 a9 3b
       -0.0027088723 -0.054352656 0.036523588 0.0051732673
000290 f0 6f 3c bd 49 ef 52 bd 6a 43 9f bd 51 96 7d bc
       -0.04600519 -0.05149773 -0.0777653 -0.015477733
0002a0 53 42 18 3c 5d 0d ed bc 4a b1 e0 3c 6d 6c f7 bb
       0.009293157 -0.028937036 0.027428288 -0.007550767
0002b0 7f e2 ee bc b2 6d e7 bc d9 97 b0 3b 29 3b 2e 3d
       -0.029160736 -0.028250549 0.0053891954 0.04253689
0002c0 dc 7b bf 3c be f0 a8 bd a8 49 b0 3a 8b 8e 35 3c
       0.02337449 -0.08249043 0.0013449686 0.011081348
0002d0 84 4c 9c ba 2e a1 c9 bc 92 7a a6 bd b4 ed 89 3d
       -0.0011924659 -0.02461299 -0.08128847 0.067347914
0002e0 31 5f 37 bc 36 b9 0d bd 28 45 89 3b bd 7c 28 bb
       -0.011192129 -0.03460046 0.0041891523 -0.0025709115
0002f0 40 32 29 bd 69 d1 da 3b 02 80 36 3c 6c 25 5c bc
       -0.041307688 0.0066777957 0.011138918 -0.013436656
000300 72 96 06 bd 7c 1d 76 3c a9 8f 2e b8 3f ac fb bc
       -0.03285832 0.015021678 -4.1618627e-05 -0.030721782
000310 50 11 88 bd b2 98 06 be d4 96 ef bd de db ec bc
       -0.06643927 -0.13144186 -0.1169869 -0.028913435
000320 43 df 09 3c 7b e2 99 bd 71 d2 3e bd 98 e5 92 3c
       0.008415046 -0.07513901 -0.04658741 0.017931744
000330 90 84 69 bd 17 51 88 bc 09 fa a2 3c c9 07 5d bc
       -0.057011187 -0.01664023 0.019894617 -0.013490626
000340 34 a7 85 bb f9 d0 2a 3c 1e 83 af bd e3 f3 bf bc
       -0.00407877 0.0104257995 -0.085699305 -0.023431724
000350 cb 23 2a bd 1f 55 29 bd 67 2c a7 bd 32 c2 0d bc
       -0.04153804 -0.041340943 -0.08162766 -0.008652257
000360 58 3d a4 bc 04 5d 2d bd 61 7e 98 bd e4 f9 d4 3c
       -0.020048782 -0.042325035 -0.0744598 0.025998063
000370 76 05 2e bd bd e4 06 bc af 2e d8 3c 4b 70 6a bd
       -0.042485677 -0.008233246 0.026389448 -0.057235997
000380 38 f0 80 bd 93 30 31 3d 71 44 12 bd 7a 3f df bb
       -0.06295818 0.043259215 -0.035709802 -0.006812987
000390 e7 d5 a2 bc 22 71 a8 bd 6b c2 12 bd 41 b0 1a bd
       -0.019877387 -0.08224703 -0.035829943 -0.037765745
0003a0 3f 9b b8 bc c6 ae be 3c 8f 1c 3a 3c 4c f2 43 bd
       -0.022534965 0.023276698 0.011359348 -0.047838494
0003b0 64 86 ce bc 7d f0 3c bd c8 94 c0 bc f6 08 c7 b9
       -0.025210567 -0.046127785 -0.023508444 -0.00037962914
0003c0 4e 66 3a 3d 21 e0 ae 3c 58 b8 3a bd 4e 6f e1 bc
       0.04550772 0.021347107 -0.04558596 -0.027518895
0003d0 e7 a1 94 bc 83 3d 8b bc 14 3c 0b bd 78 46 b3 bc
       -0.018143607 -0.016997105 -0.03399284 -0.021884188
0003e0 70 1a a0 bd 98 ac 81 bd 33 58 d6 3c c8 03 18 bb
       -0.078175426 -0.06331748 0.026165104 -0.0023195613
0003f0 a7 8f 43 bd a8 8c 2b bd 3c b4 41 bd fc e0 0c bd
       -0.04774442 -0.041882187 -0.047291026 -0.03439425

BN1.running_mean f4 [256]
000000 5a ad 2b c1 ae fd 9b 40 e8 58 c7 40 82 71 f0 40
       -10.729822 4.8747168 6.229603 7.513856
000010 a1 76 ff c0 fb b4 08 41 6b e3 c1 41 31 dc 4d 41
       -7.983231 8.544185 24.236044 12.866258
000020 1e da 0d 41 56 69 27 c0 30 f7 9f 40 05 07 99 41
       8.865751 -2.6158042 4.9989243 19.128428
000030 39 6f 0a 41 6c 91 97 c0 2a 57 e7 bf d8 92 e0 3f
       8.652154 -4.7365017 -1.8073475 1.7544813
000040 02 d3 71 41 0e 7a 39 c1 48 9b 3e 41 84 4d 49 41
       15.114016 -11.5922985 11.91291 12.581425
000050 65 f4 21 c0 88 d3 45 41 5a d5 1a 40 9e 3b b3 40
       -2.5305417 12.364143 2.419272 5.6010275
000060 d7 64 db bf d2 c5 60 3e ef fd ea c0 e8 40 c5 40
       -1.7140149 0.21950462 -7.3434978 6.164173
000070 00 c2 8b c0 81 36 81 bf 6c ed aa 40 ec 70 a7 c0
       -4.3674316 -1.0094758 5.341482 -5.2325344
000080 9d 68 eb 40 ef 59 1d bf b2 12 da 40 d4 11 05 c1
       7.35652 -0.6146535 6.814782 -8.316853
000090 f7 69 17 c1 09 e9 66 40 94 3d 18 40 fb 2a 71 c0
       -9.46337 3.6079733 2.3787584 -3.7682483
0000a0 a5 10 4c 41 85 5a 80 41 35 37 b9 40 d3 d9 00 40
       12.754064 16.044199 5.787989 2.013295
0000b0 ff bf ec c0 c2 07 1c 40 ce da 33 41 4d 0f 97 3f
       -7.398437 2.4379735 11.240919 1.1801544
0000c0 e8 61 1d c1 1a 0d d9 c0 7d 3e ea c0 5e 67 e4 c0
       -9.836403 -6.7828493 -7.320128 -7.137618
0000d0 bd f3 b9 40 8d d1 6e c1 aa 14 7f 40 57 02 64 40
       5.811003 -14.92616 3.9856362 3.5626428
0000e0 1f 8f 27 c0 4b a4 d1 40 0a cf 17 c1 3f c1 c9 40
       -2.6181104 6.5513053 -9.488047 6.3048396
0000f0 90 e1 16 40 fe 43 7d c1 bf c3 23 40 dd 14 9b c0
       2.3575172 -15.8291 2.5588224 -4.846297
000100 f7 77 c3 bf ca e6 d0 bf 14 cb 5e 41 4b 61 8c 40
       -1.5270985 -1.6320431 13.92458 4.3868766
000110 93 90 34 c1 a6 92 16 3f 08 1e 0e c0 34 85 f2 c0
       -11.285296 0.5881752 -2.220583 -7.57876
000120 58 33 02 c0 88 79 24 41 d3 57 55 c1 7a 3e 03 41
       -2.0343838 10.279671 -13.333941 8.202753
000130 03 d4 fd 40 f4 da cb c0 2c 3d fb 40 38 50 85 c0
       7.9321303 -6.3704777 7.8512173 -4.1660423
000140 25 af ef 3f f4 85 f9 be 53 c2 c5 40 a0 67 35 41
       1.8725325 -0.4873501 6.179971 11.337799
000150 5f cd 92 c0 4a c0 95 bd b1 92 31 c1 dc e4 42 40
       -4.5875697 -0.07312067 -11.098313 3.0452185
000160 df f2 24 bf d0 1b 86 40 bb eb 84 40 7c 6c 28 41
       -0.6443309 4.190895 4.1537757 10.526485
000170 f7 c7 9a 3f 69 d1 f7 c0 66 50 81 be 1d 79 9a 40
       1.2092274 -7.744313 -0.25256652 4.8272843
000180 6e 81 95 40 52 16 ed be 7d 77 38 c1 43 75 c5 c0
       4.6720495 -0.46306092 -11.529172 -6.170564
000190 89 ae b7 40 89 91 0d c0 07 dc a6 40 82 d6 8f 40
       5.7400556 -2.2120078 5.214359 4.494935
0001a0 f6 42 82 41 6a 78 9e bf 7c dc 05 c1 51 1d df c0
       16.282696 -1.2380497 -8.366329 -6.9723287
0001b0 75 e9 83 bf ea 07 0e 41 13 ef 44 c1 ed 56 db c0
       -1.030562 8.876932 -12.308368 -6.854361
0001c0 00 9b 04 41 32 f0 6d c1 33 09 2e 40 ce 54 02 41
       8.287842 -14.871141 2.7193115 8.145704
0001d0 f8 97 1e c1 37 d0 50 c1 95 43 0e 40 fe 42 1b c1
       -9.912102 -13.050834 2.2228749 -9.7038555
0001e0 7c a7 0e c1 97 3e 76 c1 3c df a9 40 f4 b9 a4 c0
       -8.91589 -15.390281 5.3085003 -5.1476994
0001f0 3c 99 5f 3f 1b 26 de c0 fd 3d b2 c0 8c 6a 56 bf
       0.8734319 -6.9421515 -5.570067 -0.8375633
000200 74 dd a9 c0 d3 e1 32 c1 a0 ff 13 bf 7f 53 31 c1
       -5.308283 -11.180133 -0.5781193 -11.082885
000210 79 5e 1b 3e 1b 3c d9 bf e6 27 1a 3f 96 e7 29 41
       0.15172757 -1.6971468 0.6021713 10.61904
000220 20 6a a2 bd 39 db 68 bf 60 d5 73 40 21 57 76 41
       -0.07930398 -0.9095951 3.8098984 15.396272
000230 17 8d b9 c0 16 57 23 c1 a9 11 a6 40 7c e7 2d 41
       -5.798473 -10.208761 5.189656 10.869015
000240 87 1d 35 3f 69 89 da 3e 9b df 1d c1 36 a2 56 3f
       0.7074818 0.4268296 -9.867091 0.83841264
000250 d5 66 1b c0 3a 99 f0 3f 25 46 bb bf 41 44 41 c0
       -2.4281514 1.8796761 -1.4630781 -3.019791
000260 83 44 01 c1 72 99 1b 41 58 50 bd bf 98 0e f5 c0
       -8.0792265 9.724962 -1.4790144 -7.6580315
000270 ca 3a 4e c0 6b b8 82 c1 d8 55 4a c1 ac 8c 28 41
       -3.2223382 -16.340048 -12.645958 10.534344
000280 df 89 26 c0 7e 07 0b bf 99 bc 2e c1 56 ee 1e 41
       -2.602165 -0.5430831 -10.921044 9.9331875
000290 cc 73 49 c1 44 39 18 c1 33 2c 0c 3b ac b5 88 41
       -12.590771 -9.513981 0.002138865 17.088707
0002a0 83 98 92 c1 05 26 05 c0 85 28 21 be b4 26 4a 41
       -18.324469 -2.0804455 -0.15738113 12.634449
0002b0 68 d4 73 41 a8 92 f7 3f ef f7 69 bf 70 21 9e c0
       15.239357 1.9341631 -0.9139394 -4.9415817
0002c0 a9 ea 8b bf 22 39 19 41 d3 37 ae 40 13 6e 82 c1
       -1.0930988 9.576448 5.4443145 -16.303747
0002d0 f9 b2 15 c1 a3 28 83 bf cc 32 44 41 c7 9c 72 41
       -9.3561945 -1.0246776 12.262402 15.163276
0002e0 41 86 4d 40 0a 4d 13 c1 79 d1 00 41 1d c2 a2 40
       3.2113192 -9.206308 8.051141 5.0861955
0002f0 2d 5a 98 3f 4d b8 4a 40 15 23 db 40 29 43 b6 c0
       1.190252 3.1674988 6.8480325 -5.6956983
000300 73 c4 16 c1 fb e8 5c 40 cc 3b 38 40 ad 07 01 c1
       -9.422961 3.45172 2.8786497 -8.064374
000310 51 b6 85 3f 59 34 2b c1 68 c5 8e 41 b0 70 62 c0
       1.0446264 -10.70028 17.84639 -3.538128
000320 d3 85 4b c1 d3 3f 20 c1 e4 2b 05 40 52 70 bc c0
       -12.720172 -10.015582 2.0808039 -5.888711
000330 82 d8 0f c1 20 ac 57 41 1b 81 58 41 f4 b5 48 c1
       -8.990358 13.479523 13.53152 -12.544422
000340 c2 6c 9e 40 7b 6e 12 bf 23 a4 37 c1 b3 88 45 40
       4.950776 -0.5719983 -11.477572 3.0864685
000350 74 2b 62 40 94 80 db c0 d7 ed 2a bf f7 fc eb 3f
       3.5339022 -6.8594456 -0.66769165 1.8436574
000360 03 a9 37 40 51 58 42 c0 c4 8a b4 3e 5a 5b 69 c0
       2.8696907 -3.0366404 0.3526212 -3.6462007
000370 cc d7 ba c0 c3 5d 60 c1 04 f2 4b c0 c9 c0 13 3f
       -5.8388424 -14.022891 -3.1866465 0.5771604
000380 7c c7 9a c0 1b 57 92 3f d7 6b 39 c0 aa 11 28 c1
       -4.836851 1.1432832 -2.897207 -10.5043125
000390 8f 11 5a 40 c0 c2 08 c1 eb b3 cc 40 9e 82 a6 3f
       3.4073217 -8.547546 6.3969626 1.3008611
0003a0 8c b3 40 40 ed bb 67 c1 e9 55 3f 3f 7a 84 1a 3f
       3.0109587 -14.48338 0.74740463 0.60358393
0003b0 36 5f 01 c1 a4 50 69 40 e6 2b 77 c0 a7 78 a9 41
       -8.085745 3.645547 -3.8620543 21.183912
0003c0 f6 cf 1e c0 a7 ec dd 40 f8 3e 22 c0 1c 07 e0 40
       -2.481443 6.935138 -2.5350933 7.000868
0003d0 a4 61 8b 40 8c f2 89 3f 59 15 04 c1 5e d0 96 c0
       4.355669 1.0777144 -8.255212 -4.7129354
0003e0 fb fe 9d c1 37 f9 ab 40 fc 22 8d 41 cb 43 a0 c0
       -19.749502 5.3741717 17.642082 -5.0082755
0003f0 fd d4 16 c1 01 7a be c0 0d 16 e0 40 c0 c9 f4 c0
       -9.426999 -5.952393 7.0026917 -7.6496277

BN1.running_var f4 [256]
000000 f5 e7 7e 42 d7 6f 30 42 d0 2f 0c 43 ee f4 c4 42
       63.72652 44.10922 140.18677 98.47838
000010 a4 d1 27 43 61 7c 46 43 f6 ea 12 43 39 e0 cd 42
       167.81891 198.48586 146.91782 102.937935
000020 51 4d 0c 43 73 76 08 43 6e 4d 24 43 66 c6 4b 43
       140.30202 136.46269 164.30246 203.775
000030 3b 34 b4 42 db db c8 42 69 44 83 42 56 27 1e 43
       90.10201 100.429405 65.63361 158.15366
000040 96 71 e2 42 69 54 b4 42 98 45 75 42 45 08 0d 43
       113.22185 90.16486 61.317963 141.0323
000050 26 b2 df 42 72 da 29 42 b6 4a d8 41 ef 3a 88 42
       111.847946 42.463326 27.03648 68.115105
000060 3d d9 35 42 32 65 c9 42 fc 35 5c 42 73 b6 84 42
       45.462147 100.69765 55.05272 66.356346
000070 33 4a 51 42 11 bd 52 43 ef 51 7e 42 23 73 f1 42
       52.32246 210.73854 63.580013 120.72488
000080 86 02 b5 42 0a 5a b8 42 37 82 ef 42 b4 87 3f 42
       90.50493 92.17586 119.754326 47.882523
000090 db ec 65 42 28 42 b9 42 a8 ff 05 43 6a cf 3a 42
       57.481304 92.62921 133.99866 46.702553
0000a0 73 3b 77 43 ac 5b 77 42 ea 7c 91 42 bf b1 96 42
       247.23222 61.839523 72.74397 75.34716
0000b0 44 6a 80 43 e3 89 fd 42 27 cb b3 42 48 cf 1e 42
       256.8302 126.76931 89.89678 39.702423
0000c0 16 47 f5 42 cb 01 a5 42 3e 3a 00 43 fc 3d c2 42
       122.63884 82.5035 128.22751 97.12106
0000d0 70 eb 7e 42 01 97 f0 42 0c 51 82 42 d4 02 c7 42
       63.72992 120.29493 65.158295 99.50552
0000e0 9d ff 90 42 9e 3c ca 42 bf a0 7d 42 ae 5f ca 41
       72.499245 101.11839 63.40698 25.296719
0000f0 8f 95 60 42 3b 61 a8 42 33 ec 89 42 f7 61 b5 42
       56.146053 84.1899 68.96133 90.69134
000100 d8 5b 38 43 67 19 59 42 c7 fc a0 42 0d d9 9f 42
       184.35876 54.274807 80.493706 79.92393
000110 31 f6 0d 43 f2 db c8 42 98 16 e3 42 27 71 83 42
       141.96169 100.42958 113.54413 65.721
000120 c3 48 96 42 c3 09 6c 42 2d d7 c2 42 d2 a5 2b 42
       75.14211 59.009533 97.420265 42.911934
000130 9f d0 92 42 ba 87 28 42 d8 89 be 42 42 fe 27 42
       73.40746 42.132545 95.269226 41.9983
000140 45 6c 0a 42 b5 77 ae 42 c8 df 85 42 86 ae 8a 43
       34.605732 87.2338 66.93707 277.36346
000150 72 8c 84 42 73 ec 21 42 ee a6 05 43 f2 d5 37 42
       66.27431 40.480907 133.65207 45.95893
000160 f1 a8 6d 42 52 6f dc 42 ed 95 d6 42 bc f8 4d 42
       59.41498 110.21742 107.29282 51.492905
000170 26 6a 6c 42 8e f2 7e 42 79 1d a9 42 8a 32 81 42
       59.10366 63.73687 84.55756 64.59871
000180 72 ed d2 42 fd 64 2f 42 1a b7 a4 42 c7 04 ef 42
       105.46376 43.84862 82.35762 119.50933
000190 32 29 f9 42 9c 5b 0f 43 60 a9 17 42 42 81 39 43
       124.58046 143.35785 37.915405 185.50491
0001a0 0a 6b 8c 42 4d bd 3d 42 9c ee 75 42 2b f7 9f 42
       70.20906 47.434864 61.483017 79.98275
0001b0 24 71 72 42 64 0b b6 42 4f 02 10 43 f2 75 c0 42
       60.61049 91.02225 144.00902 96.23036
0001c0 2a 87 60 42 b3 92 a5 42 de 6c 8b 42 41 db 33 42
       56.131996 82.78652 69.71263 44.964115
0001d0 a6 d1 37 42 7a 14 a8 42 1f 9e ac 42 65 7f 57 42
       45.954735 84.03999 86.30883 53.87441
0001e0 86 8d da 42 c5 ad e6 42 81 b3 b4 42 d4 fc 1a 43
       109.27641 115.33939 90.35059 154.98761
0001f0 f3 ff 90 42 e6 bf 21 43 18 f1 13 42 a0 52 69 42
       72.4999 161.7496 36.985443 58.33069
000200 f8 a7 04 43 91 3d 94 42 bc 35 bc 42 a7 7d d7 42
       132.65613 74.12025 94.10495 107.745415
000210 d6 89 61 43 ce 2f 85 42 2d 09 12 43 90 e2 92 42
       225.53842 66.59337 146.03584 73.442505
000220 14 0c b4 42 f5 c7 6b 42 34 a2 97 42 b1 2f f3 42
       90.02359 58.94527 75.8168 121.59315
000230 2f c8 1e 42 b5 9e 9b 42 e3 4e 59 42 ea 8b 09 43
       39.69549 77.809975 54.327038 137.54654
000240 05 5b 98 41 0c 75 d0 42 88 bc a1 42 cc 78 0f 43
       19.044443 104.22861 80.868225 143.47186
000250 77 0a 54 42 a3 0a 98 42 db d1 93 42 57 c3 2f 43
       53.01022 76.020775 73.909874 175.76305
000260 0f f2 30 42 0a 6a 21 43 41 67 13 42 02 6e 79 42
       44.236385 161.41422 36.850834 62.35743
000270 0d b2 50 42 ca 8b ae 42 3d dd b0 42 9e d3 14 43
       52.173878 87.273026 88.432106 148.82663
000280 eb a0 01 42 5e 2a f6 42 64 04 ca 42 4c 36 17 43
       32.407146 123.08275 101.008575 151.2121
000290 8a dd 8b 42 16 4d f4 42 05 0d 1e 42 c9 d7 a1 42
       69.93269 122.15056 39.512714 80.921455
0002a0 b3 6a 02 43 b4 da 85 42 90 b2 0c 42 7a 7e d3 42
       130.4168 66.927155 35.174377 105.747025
0002b0 a7 f1 9c 42 59 c8 bd 42 24 04 8c 42 55 4f 1e 42
       78.47198 94.891304 70.00809 39.577473
0002c0 b1 1a a0 42 c9 2d 81 42 a4 4b 15 43 9d 8c 18 43
       80.05213 64.589424 149.29547 152.54927
0002d0 31 45 5f 42 6e 2c 2a 42 97 bc 98 42 02 a2 74 42
       55.81757 42.54339 76.36834 61.15821
0002e0 c1 70 34 42 56 33 a7 42 db 56 cb 42 36 71 0d 42
       45.11011 83.600266 101.66964 35.360558
0002f0 25 d5 2d 42 4b f0 7a 42 aa 25 ab 42 6e 20 89 42
       43.45815 62.73466 85.57356 68.56334
000300 1f c6 22 43 21 05 a3 42 92 ce bc 42 e9 ee 11 43
       162.77391 81.51002 94.40346 145.93324
000310 06 17 30 42 cf 4a 83 42 0e 3a f6 42 0b 7a 55 42
       44.022484 65.64611 123.11339 53.369183
000320 22 65 a3 42 f6 ad 21 43 56 63 4c 42 9b 52 bb 42
       81.697525 161.67953 51.097008 93.66134
000330 30 e8 dc 42 99 2a fa 42 51 db d4 42 d4 78 72 42
       110.45349 125.0832 106.42835 60.617996
000340 89 69 9c 42 dd 0b a9 42 59 d6 6b 42 70 b2 ae 42
       78.20612 84.52317 58.959324 87.34851
000350 fc 28 e3 42 51 20 86 42 d6 ca 35 42 b5 db b2 42
       113.58005 67.06312 45.448082 89.429115
000360 d7 b7 ba 42 a6 c2 eb 42 95 e1 1f 42 c9 1f 8f 42
       93.35906 117.88017 39.970295 71.56208
000370 9d a5 97 42 fa 59 c0 42 5d 89 6c 43 dc 68 39 42
       75.82346 96.175735 236.53658 46.3524
000380 9a 80 04 43 9c 8c 6b 42 0d 4a 8d 42 4e 7e e2 42
       132.50235 58.887314 70.64463 113.24669
000390 76 0f 2e 43 d3 74 9a 42 af 72 3f 43 8b df 46 42
       174.0604 77.22817 191.44798 49.718304
0003a0 52 af 6d 42 e3 15 98 42 e9 ed ab 42 a4 bd 8e 42
       59.42121 76.04275 85.96467 71.37039
0003b0 d0 df aa 42 01 91 18 42 f3 fa ab 42 53 ef 18 43
       85.43713 38.141605 85.990135 152.93486
0003c0 6e f4 7b 42 ca 50 2a 43 bf 84 d1 42 59 dd 38 42
       62.9887 170.31558 104.75927 46.21616
0003d0 f7 c8 f7 42 b3 07 a5 42 a9 09 c5 42 91 b4 31 43
       123.89251 82.51504 98.51887 177.70534
0003e0 94 a9 45 43 de d6 16 43 71 11 07 43 b2 23 76 42
       197.66241 150.83932 135.06813 61.53486
0003f0 ee 49 c8 42 98 22 c5 42 30 6f 2c 42 b3 46 04 43
       100.144394 98.567566 43.10858 132.27617

L2.weight f4 [128, 256]
000000 a3 cd 9c 3c 8c 4a dd bc b8 69 5d 3c fd 46 a2 3b
       0.019141024 -0.027013086 0.013513975 0.00495231
000010 e9 17 c7 bc 53 7a 3d 3d f8 0c 8e ba 2c cc d3 3c
       -0.024303393 0.046259236 -0.0010837605 0.025854193
000020 03 ac 26 bd ee 1d 2a bc 2c 65 3e bd 5e 4c 69 bd
       -0.040691387 -0.010383112 -0.046483204 -0.056957595
000030 40 d8 34 3d 67 34 4e 3d 93 ed af 3c 19 04 97 3c
       0.044151545 0.050342944 0.021475589 0.018434571
000040 3b b9 11 3d 41 81 a5 3a 85 19 f5 3c a6 12 e5 3b
       0.03557704 0.0012627022 0.029919395 0.0069907485
000050 96 4c 5b 3c ee db 2a bc d5 18 06 3c ea e6 36 3d
       0.013384959 -0.010428412 0.008184631 0.04465381
000060 30 7a 6f 3c 1f 07 aa bb 0e 26 56 3d d2 47 0e bd
       0.014616534 -0.005188837 0.052282386 -0.034736462
000070 17 b9 1a bd 01 4f 06 bd 8e 92 e6 bb da f1 a1 3c
       -0.03777417 -0.032790188 -0.0070365136 0.019768644
000080 ef b2 1e 3d 13 2b 2f 3d 4e 64 a1 bb c4 bb 6c 3d
       0.038744863 0.04276569 -0.0049252873 0.057796255
000090 df 47 28 3d 70 7d c7 3b ee 64 9c 3c 72 5f a2 bc
       0.041084167 0.0060879514 0.019091096 -0.019820902
0000a0 a1 bb 8a 3d 84 6a 87 3b d7 22 b7 3b 89 8c 59 3c
       0.067740686 0.0041325707 0.00558887 0.013278135
0000b0 07 7d 46 bc 5f ff 9d 3c 98 39 5e bd dc 8c 4b 3a
       -0.01211477 0.01928681 -0.054254144 0.0007764825
0000c0 2f be eb 3c 27 3d 06 bd de 1f f8 ba 9f 84 09 bd
       0.02877721 -0.032773163 -0.0018930396 -0.033573743
0000d0 20 90 5b bd b8 0c 45 3d 4f ac 08 3d 8c b6 8e 3d
       -0.053604245 0.048107833 0.03336745 0.06968412
0000e0 10 04 1d 3c 2f ee 3c bc 22 79 48 3d c4 87 d1 3c
       0.009583488 -0.011531397 0.048943646 0.025577433
0000f0 47 e9 2d 3c c6 b7 35 bd 18 b0 6b 3d 1b 21 01 3d
       0.0106147 -0.044364713 0.057540983 0.031525712
000100 cc 3b 91 3c 3e aa 8f 3d 83 d4 24 3d e3 7a 43 3d
       0.017728709 0.07014893 0.04024173 0.047724616
000110 ed ae 42 bd 4d dd a1 3d 04 ab 1f bd de ae fb 3c
       -0.047530103 0.07903538 -0.038981453 0.030723032
000120 a8 9e 3f bd 04 37 1e bd da 13 f1 3b 67 8e e0 bc
       -0.046782166 -0.038626686 0.007357103 -0.027411653
000130 aa 8e 89 3d 95 5a 7d 3d 36 68 90 bc d7 d8 64 bd
       0.06716664 0.061853964 -0.017627817 -0.055870857
000140 eb aa 4a 3d 15 05 d9 bc a2 d7 55 3d 41 f2 33 bc
       0.049479406 -0.026491681 0.052207597 -0.010983051
000150 ce 8c 09 3b 13 50 bd 3c 23 36 04 bc 44 fe 2c 3c
       0.0020988467 0.023109471 -0.008069548 0.0105586685
000160 20 cd 4e bc 50 d8 52 3d 8c 41 67 3c a1 06 6f bd
       -0.012622148 0.051475823 0.014114749 -0.05835593
000170 28 f7 be bc 1d ee 72 bd 37 9b 2f 3d 7a d5 8e 3c
       -0.023311213 -0.059309114 0.042872634 0.017435778
000180 4a 26 ce 3b 88 ca 90 3b bc cd 28 bd 1e e9 4f bc
       0.0062911855 0.004418675 -0.04121183 -0.012689857
000190 03 5f 5e 3d f4 cb 56 bd ad 89 5c bd cb d4 82 3d
       0.05428983 -0.0524406 -0.053842235 0.06388243
0001a0 63 c0 a0 bb 35 f1 85 3d 69 15 19 3c 96 c9 6e 3c
       -0.004905747 0.06540147 0.0093434835 0.014574429
0001b0 68 40 ba 3c 6d 9e 63 bd 09 8e 7c 3d 68 f9 65 3d
       0.02273579 -0.05557101 0.061658893 0.056146055
0001c0 22 88 29 3c f8 56 37 bd bc 9f 84 bd b5 07 81 bd
       0.010347398 -0.044760674 -0.064757794 -0.06300298
0001d0 3b 6e 69 3d c8 2d 4f bd 6e 5e f4 bb 03 8d 8d 3c
       0.05698989 -0.05058077 -0.007457546 0.017279154
0001e0 bd 44 19 bd 69 a7 31 bd 6e 89 78 3d eb fe f3 3c
       -0.03741907 -0.043372545 0.06067794 0.02978464
0001f0 3b 78 56 bd cd a5 ca 3c 6e 1d d9 3c 0d d5 35 bb
       -0.052360754 0.024737263 0.026503291 -0.0027745396
000200 ee 3b 2b bd 54 dd 0c 3d 1b 2c b9 bb b6 e1 22 bd
       -0.0418052 0.034390762 -0.0056510097 -0.039766036
000210 12 56 12 3c 53 0a 8b bc ec 9f e0 3c 12 3c a7 bc
       0.008931654 -0.016972696 0.027420007 -0.020414386
000220 71 23 96 bc eb b6 0b bb af 55 45 3d 48 92 04 3d
       -0.018327447 -0.0021318744 0.048177417 0.032366067
000230 ac b1 7d 3b 2c 44 32 bd 7c b3 c6 3c 3e ec 40 bd
       0.0038710637 -0.043522045 0.024255507 -0.047100298
000240 a9 fe 56 bd 34 b6 89 3c 2a f7 b8 bc d2 70 29 3d
       -0.052488957 0.016810514 -0.022578795 0.04136736
000250 c5 b4 41 3c 26 6c 2b 3a 14 56 84 3a 4b 85 1a bd
       0.011822884 0.00065392477 0.0010096454 -0.037724774
000260 51 bc f6 bc c0 35 6d 3d de 0a 8d bc d0 53 0f bd
       -0.030119093 0.057912588 -0.017217096 -0.03499204
000270 40 1a 3d 3d e6 2a 9b 3b d3 fb 2c 3a e4 3b c4 3c
       0.046167612 0.0047353385 0.0006598804 0.02395434
000280 21 00 45 ba b1 df 2b bc c2 86 db 3c 82 91 2f 3c
       -0.0007514973 -0.010490344 0.026797656 0.010715844
000290 ce 19 36 3d 18 3a 5f bc 84 e9 19 3d 6c 02 30 3c
       0.044458203 -0.0136246905 0.037576213 0.010742765
0002a0 a2 07 1e bd fc 07 cc 3c bd d5 e9 3c 89 15 33 bb
       -0.038581498 0.024906151 0.028544301 -0.0027326068
0002b0 3c e0 e8 3c 61 16 be 3b 5e d6 4f bd 96 d4 51 bd
       0.028427236 0.0058010076 -0.050741546 -0.05122813
0002c0 22 37 9e 3c fc 22 12 3d 2b 20 6f bd c4 ad 63 bd
       0.019313399 0.035677895 -0.058380287 -0.055585638
0002d0 5a 15 b4 3c 71 3b 1b bd e9 83 a3 bc fa 6c 51 bc
       0.021982837 -0.037898485 -0.01996036 -0.01278233
0002e0 1f ea 7d 3d 57 fb e0 bb e2 7c 4d 3d 4b 4d 89 bc
       0.061990853 -0.0068658995 0.050167926 -0.016760489
0002f0 78 2b 7d bd 34 f3 8e 3d cc 0c 5b bc 8d b7 4e bc
       -0.061809033 0.06979981 -0.01336975 -0.012617004
000300 14 cc 27 bd 9e 37 48 3d 1b 45 0f ba a7 5f 8d 3d
       -0.04096611 0.048881166 -0.00054653146 0.0690301
000310 a3 34 d7 3c e8 65 52 bd e3 1a 88 ba b9 ec 73 3d
       0.026270216 -0.051366717 -0.001038399 0.05955193
000320 ec fc df 3b dc 37 6f bc 70 13 92 3b 05 4b 57 bd
       0.0068355706 -0.01460072 0.0044578835 -0.05256178
000330 38 e8 11 bb ba 35 cc bc 94 ff 0b bc 09 93 3b bd
       -0.0022263657 -0.024927963 -0.008544821 -0.04579452
000340 e2 fe 06 bd 29 5e 36 bd 27 47 d5 3c 59 27 65 3d
       -0.03295792 -0.044523392 0.026034905 0.055945728
000350 57 97 3c 3c 27 98 3e 3d d3 67 86 3c 4b e4 39 3d
       0.011510692 0.046531823 0.01640693 0.045383733
000360 e8 d0 84 3d 8d 75 9b bc 12 98 75 3d 23 96 52 3c
       0.06485158 -0.018976951 0.05995948 0.012853178
000370 35 ef 1d 3d e9 3f e9 bc 4f cd 32 bd 87 98 84 bc
       0.038558204 -0.028472858 -0.04365283 -0.016186012
000380 35 ea 13 bc 07 99 b6 3c 94 b3 07 3c aa 73 23 3d
       -0.009028007 0.022289766 0.008282561 0.039905228
000390 9a 08 92 3d f5 8a 18 3d f7 47 d8 bc 63 be 0a bd
       0.07130547 0.037241895 -0.026401503 -0.033872973
0003a0 61 73 e7 bb 1a 53 0d bc 31 10 93 3c 52 2b 53 3d
       -0.007063315 -0.00862577 0.017952057 0.051554985
0003b0 4d 13 a1 3b b3 2d 0e bd 31 db 34 bd 78 b4 6f 3d
       0.004915631 -0.03471155 -0.04415435 0.058521718
0003c0 17 62 48 3d a6 69 60 3c 49 21 72 bd a2 d8 fa 3c
       0.04892167 0.013697064 -0.059113774 0.030620877
0003d0 b3 8e 2a bc 8f 35 60 bd 3b 16 78 3c 30 77 63 3c
       -0.010409999 -0.054738577 0.015142019 0.013883397
0003e0 0b 7d 1c 3d 67 fd 92 3c c5 c1 81 bc 51 76 50 3d
       0.038205188 0.017943097 -0.015839467 0.050894085
0003f0 3d 3a 67 bd 56 ea 8c 3d 07 c7 95 bb 6f c2 2e 3d
       -0.056452025 0.068806335 -0.004570845 0.042665895
