Trained_Models/BotDetection_v4_MLP___May-10-2024/BotDetection_v4_MLP_epoch16_val_loss_0.482247.pth (torch, 944175 bytes, 45 tensors)

L1.weight f4 [256, 133]
00000000: 82b5 1e3c ddf6 6c3d 7d68 bc3d 056a bebd
00000010: a9b0 c83c a939 af3c 1035 013e 14e5 a3bd
00000020: e204 403c 688b 51bd 1491 873b b385 353d
00000030: b316 55bd f5fa 5cbd 6332 14be 709e 663d
00000040: 4575 6a3d 584a 12bd 359a c5bb 2cd0 80bd
00000050: 9573 57bd 6358 62bb e0ee 6abd 2c59 9f3b
00000060: c71d 833d 8c97 b1bd fc23 d9ba c672 44bd
00000070: c9a2 b33c 6dea dd3c 054f b1bc e64f 3bbd
00000080: 5bd1 a7bd a030 81bc ad1f 5dbd 5623 a73d
00000090: 4350 ce3c 4a76 bc3d 88fd 12bd 4155 f83c
000000a0: ffae eb3d 405d df3c 39cc d13b fad1 e63c
000000b0: 5da8 393d 74c9 a53d 4ac1 423b fc4f 7e3d
000000c0: cb96 3dbd c3c0 7e3d 7a73 5c3d 396c 533d
000000d0: 44b4 8d3d 048d c83d 5cfd 33bc d9e0 9b3c
000000e0: 35df 7dbc deb7 dd3c 74f0 afbd 030c a4bb
000000f0: 6ef9 5dbd d49b 83bc a2ea c4bd 882e dcbc
00000100: bb73 2a3d 5233 d2bd 62ae 39bc b580 ce3d
00000110: 2a3e c4bc ebcc 42bd ab5c 833d 118b 403d
00000120: ffad 9f3d 7310 6fbc d3d3 45bd 7448 0fbd
00000130: 0870 9cbd 5e6a 403c b23d 9ebc 7b88 283d
00000140: e740 433d 7d82 6fbd b0b6 96bc 46f9 adbc
00000150: 6f96 e03c a60b ef3c a3d3 ccbd 6265 04bd
00000160: 50be bb3a 3054 2f3d fe64 c5bc a68b 063e
00000170: e8b0 93bd 7961 903d 8bbb a6bc f66b 323d
00000180: ea80 a13d 037d 67bd 94cc 2dbd ec32 283d
00000190: f8ac 1dbc 591b 7fbc eeaf 903d d252 8dbd
000001a0: 6aa6 61bd 3849 7c3d 0e2d 303d 9d44 07bc
000001b0: 267a 28bd 7249 a2bd 8629 1b3d 0459 81bd
000001c0: 7c00 7dbd b391 68bb 36de 713c 22b6 25bd
000001d0: 4a01 d9ba 00f7 bb3d a425 a43d cd86 a83d
000001e0: 89a3 15bd 08bf 783d 12d4 b93c 7d78 f03d
000001f0: 57a7 1abd 7b7b bbbc 2be2 893d 18ac 963d
00000200: 00f6 79bd 5457 61bc 85eb 5d3d f0f3 883d
00000210: edac afbd c3b6 8ebb f258 383c 6d79 073b
00000220: 5e85 813d cbef ecbc abfe 553a 098f 72bd
00000230: c816 13bd b2f3 5a3d 0142 04bc 70b7 a8bc
00000240: ad3a df3b 362b 6fbd 494e e53c b556 bb3c
00000250: 1fe6 3c3c 0d6f 21bd 7dbb 3ebc 63ab bebc
00000260: 2b56 743d d330 cdbc ffe3 d43c 7741 77bd
00000270: f486 19bd caea 7dbd 77bf 50bc 2330 b0bd
00000280: 402c 343d 5ca2 9dbd 241a 35bd 130c d13c
00000290: 378c 2fbd c069 843d 5d4a 853d 0d76 65bb
000002a0: 4113 a2bc fd7c c13d 4a12 5a3d cc3f 113e
000002b0: efa2 b83d 27fc b639 bf25 87bd 218c b53c
000002c0: e37c 743d 2c32 e93d 7772 31bd c22f 2b3d
000002d0: 5f71 4e3d fe7a 5a3d a6fd 173d 4fce c6bc
000002e0: f045 d13c 9157 be3c 21e3 503d 3d80 ec3c
000002f0: 7aa4 6f3c e782 113c 2539 d93c c3db 8b3d
00000300: 704f 96b9 a76d 993d 6db0 863d 31c0 823d
00000310: 851c 9ebd f301 0e3d c602 6c3d 9a32 293a
00000320: 17db 33ba c246 39bc 833f f1bc 39eb f3bc
00000330: 72cc ca3d a90c a2bc a69b 7bbd 44a1 8ebc
00000340: 57ec 7d3c 70d9 973d c6cc 4abd d25f dcbb
00000350: bafd d0bc 0115 033d 0765 78bd a7ff acbd
00000360: 0193 acbd 1307 973d d828 5abd 5525 823d
00000370: 0666 abbc ee81 583d 0f87 bebd 7dc9 093d
00000380: 42c4 81bd fbb5 34bc 7cb0 2ebd 9d64 3c3c
00000390: 28d2 b9bd edd2 02bd 3996 0d3b ff65 22bd
000003a0: e441 153d d222 bb3d 1b86 883d afaa e33d
000003b0: 7879 413d dc71 203d 816b a43d 8ce5 873d
000003c0: 86a1 d9bc 3399 de3b 4ade 823c 079b 0abd
000003d0: 35ef 18bd a3bd 563d d3b4 82bd 6364 e13c
000003e0: f424 9dbd c703 403d 33b7 b03d bccb b93d
000003f0: 095c 89bd ef13 a6bd ba6c 75bd 5f03 83bd
0.0096868295 0.057852615 0.09199617 -0.09297565 0.0244983 0.0213898 0.12617898 -0.080026776
0.011719914 -0.05115834 0.0041371677 0.04431696 -0.0520236 -0.05395027 -0.14472346 0.05630344
0.057240743 -0.03571543 -0.006030346 -0.06289706 -0.052600462 -0.0034537546 -0.057356715 0.004862925
0.06402164 -0.086714834 -0.001656651 -0.04796102 0.021928208 0.027089322 -0.021644125 -0.045730494
-0.08194228 -0.015770257 -0.053985287 0.08161037 0.025184756 0.09202249 -0.035886317 0.03031409
0.11507987 0.027266145 0.006402519 0.028176297 0.04532658 0.08095065 0.002971726 0.062087998
-0.046286386 0.06219555 0.053821065 0.05161688 0.069191486 0.097925216 -0.010985699 0.019028114
-0.015495111 0.027065214 -0.08590785 -0.0050063147 -0.054192953 -0.016065516 -0.09615065 -0.026877657
0.041614275 -0.10263695 -0.01133308 0.10083143 -0.023955423 -0.047558706 0.064141594 0.047007624
0.07796859 -0.014591324 -0.048297714 -0.034981206 -0.07638556 0.01174411 -0.019316528 0.041145783
0.047669318 -0.058474053 -0.018397659 -0.021237027 0.027415482 0.02918036 -0.10001304 -0.03232325
0.0014323685 0.042804897 -0.024096008 0.13139209 -0.072114766 0.070498414 -0.0203531 0.04355999
0.078859165 -0.056515705 -0.04243143 0.041064188 -0.0096237585 -0.015570485 0.07064806 -0.06900562
-0.055090345 0.061593264 0.043011717 -0.008256105 -0.041132115 -0.07924165 0.037881397 -0.063158065
-0.06176804 -0.0035487234 0.014762452 -0.0404569 -0.001655617 0.09177971 0.08014992 0.08228836
-0.036532912 0.060729057 0.02268413 0.11741731 -0.037757244 -0.022886029 0.06732591 0.07357043
-0.06102562 -0.013753731 0.054179687 0.066871524 -0.08577905 -0.004355283 0.011251675 0.002067174
0.06324266 -0.028922936 0.00081632537 -0.05921844 -0.035910398 0.053455062 -0.008072377 -0.020595282
0.0068124146 -0.05839082 0.02799143 0.022868494 0.0115294745 -0.039412547 -0.01164138 -0.023275083
0.05965249 -0.025047695 0.025987623 -0.060365167 -0.037482217 -0.06199149 -0.012740961 -0.08602931
0.043987513 -0.07696983 -0.044214383 0.025518453 -0.04285833 0.06465483 0.06508324 -0.003501299
-0.019784572 0.09447668 0.053240098 0.14184493 0.09015452 0.00034901613 -0.06598996 0.022161545
0.059689414 0.11386523 -0.043322053 0.041793592 0.050401088 0.05333995 0.037107132 -0.024268297
0.025546044 0.023235114 0.050997857 0.028869743 0.014626617 0.008881307 0.026516506 0.068290256
-0.00028669415 0.07491618 0.06576619 0.06384314 -0.077202834 0.034669828 0.057619832 0.00064543786
-0.0006860955 -0.011308374 -0.02944923 -0.029775249 0.09902276 -0.019781427 -0.061427735 -0.017410882
0.015498242 0.0741452 -0.049511693 -0.00672529 -0.025511611 0.032002453 -0.060643222 -0.08447199
-0.08426476 0.07374396 -0.053261608 0.06354777 -0.020922672 0.052858286 -0.09303104 0.03363942
-0.06336261 -0.011029716 -0.042648777 0.011498597 -0.09073287 -0.031939436 0.0021604432 -0.039648052
0.03643979 0.09137501 0.066662036 0.1111654 0.047234982 0.039171085 0.08028317 0.066355795
-0.026566278 0.006793165 0.015975136 -0.03383925 -0.0373375 0.052426945 -0.06382146 0.027513688
-0.07673064 0.046878602 0.086286925 0.090720624 -0.067070074 -0.08109271 -0.059918143 -0.06397127

L1.bias f4 [256]
00000000: 07e6 a6bd c78e 97bc 5013 7b3d d158 8abc
00000010: c956 b2bc a7fd 79bd 3cbe 053d 9cc4 2a3d
00000020: 82de 56bd 5dad 9dbd c7ac bdbc 9723 783d
00000030: dce5 83bd 9e75 12bd d54a aebd 5f82 21bc
00000040: fde5 973c 703a 103d d560 29bd 4e99 a93d
00000050: 025c ef3b 9483 7dbd 9c91 8e3c 067f 023d
00000060: 4b1e 653d 9883 7b3d e7e8 b4bc bc65 8ebc
00000070: addd 31bd 3cf4 103d b567 87bd 9ff2 bdbc
00000080: c5f3 64bc 0f6e 91bd f447 093d 5c3c a13c
00000090: ac1e 973d f710 5cbd fdcd 9f3d 1a90 153d
000000a0: ada9 dbbc 5e4d 87bd 6aa5 a7bd 2af5 013d
000000b0: e4f3 2cbd ad09 cdbc 7665 0abd c55f 85bc
000000c0: 395d f33b 1292 983d 48bd 673d 2df0 833d
000000d0: 3848 9e3b b938 dabc e340 23bd b880 4c3d
000000e0: f543 efbb 5d88 0a3d a9e2 9ebd 5a47 323d
000000f0: a9a1 39bd 5fd2 19bc 45a5 8e3d 3750 583d
00000100: 3184 4dbd 5294 923d 14c6 8fbd 4b3f 223d
00000110: e863 653c 3d6e a33d b46b 0f3c 26ad 99bc
00000120: 593c 973d 9177 52bd e9da 753d f6ba 05bd
00000130: 6f89 3fbc cc4d 19bd 0656 683d e0c6 5ebd
00000140: 5e8b c9bc bb42 c83b b9a3 9d3d 4aa3 41bc
00000150: b8eb 17bd bf2e 22bc 7a55 a03c 1c94 1cbd
00000160: 5b36 b03d 8667 0f3d 839e fbbc 466f 4f3d
00000170: c4a0 cebc 4f84 9b3c b6ae 78bc a92b 8abd
00000180: f31e 94bd 3895 9abd bdf5 44bd 7192 afbb
00000190: 09a2 383c 1a48 6a3c a257 1f3d a63b af3b
000001a0: 15c5 ac3d d0e4 a5bc 1334 953c 05e1 913c
000001b0: 8fd9 2e3d faa5 8d3d 7e1a 053d 68ad 303d
000001c0: dd2f 9d3d 29a5 2b3d 7f50 a13d c891 343d
000001d0: 815e 2b3d 8754 31bc 2ab8 5cbd 547d 9d3d
000001e0: b8e3 363d f851 d43c d3b2 0f3d 534e c4bc
000001f0: 4863 27bc 0aa9 8d3d 480a b93c 1603 acbd
00000200: 3e9c 8f3d d9db d23c 8de3 2dbd 01ca 1ebd
00000210: 833c 84bd d21b a63d 1e07 27bd 01e1 1fbd
00000220: 306a e33c 3aa3 0dbd fa6f 3a3d 0234 f9bc
00000230: f486 a9bc e0bd dbbc 0c20 a13b c2ef 313d
00000240: 0f19 5ebc 7168 8b3d 690a afbd 1bc7 87bd
00000250: 51d8 c73c d661 d5bb f63a 57bc 6e90 cb3c
00000260: f5df 90bd fc3e 16bc 64ee 7bbd 860b 9e3d
00000270: d29e 9a3c 0419 533d 870d 64bd d1e6 a9bc
00000280: ea72 3e3d 20f6 953d 8838 94bd 060b c0bc
00000290: 2aae 7ebc 9766 a43d 0ce9 5bbd e112 033d
000002a0: b2d1 813d 5547 86bd e90f a73d 7e5a aebd
000002b0: ed60 82bd dca4 cdbc 107a 8d3b 13b2 4a3b
000002c0: 6410 843d c4bb 983d b00e c1bc d4ee a43c
000002d0: d816 f9bc c914 c93c 1bdb e7ba d97d 253d
000002e0: 2065 c73a 2f51 dcbc aabf 173d 5611 803d
000002f0: 2996 25bd 8479 bd3c bd3b ce38 6ea8 ccbc
00000300: 6352 173d 2162 4a3d 4c60 1f3d 3511 97bd
00000310: 4a9d 00bd cd7a 923d c42d 4b3d 6ede 473d
00000320: 0112 57bd 23bf fe3c 9ac6 32bc 5373 09bd
00000330: ab8b 533d 0983 aa3d 79cf 1e3d f9dc 813d
00000340: a8fe 4abd 7696 2e3d a1f6 a3bd acd2 aabc
00000350: ba1e aabc f1fd 91bd 468b debc ff01 863d
00000360: 7f4f 2ebd 551c 993d f831 303d 6223 0fbd
00000370: 29ca 473d 5e03 a5bd 8296 143d 2466 28bd
00000380: 7e34 8cbd c1a8 ae3d f641 5bbb 1e62 5abd
00000390: 1a65 af3d a2ff b13c f0c2 56bc 352c 06bd
000003a0: 6c10 a03d 7e0a 453d b330 a03d ee42 013d
000003b0: fd9b 8b3d 4312 5cba 4c7e 9e3c 1fd7 b23c
000003c0: 1bda a73d dd11 853d ec3e 543d 64da aabd
000003d0: 05f9 813d 3ad9 413d fe90 9dbc a26d 823c
000003e0: 0761 aebd 0b1a 46bd 700e 893d d687 a3bd
000003f0: 42bc 043a 104c 7c3c 5e88 84bb c827 4fbd
-0.08149343 -0.018500699 0.061297715 -0.016888054 -0.021769898 -0.061032917 0.032652125 0.041691408
-0.052458294 -0.07699082 -0.023153676 0.060580816 -0.064403266 -0.0357567 -0.08510367 -0.009857743
0.018542284 0.03521198 -0.04135211 0.08281194 0.0073046694 -0.06189306 0.017403416 0.03185942
0.055937093 0.061404794 -0.022083713 -0.017382495 -0.043424297 0.03538917 -0.066115774 -0.02318698
-0.013974135 -0.0710107 0.033515885 0.019682102 0.07378897 -0.053727116 0.07802961 0.03651438
-0.026814306 -0.066065535 -0.08185847 0.031727947 -0.04222478 -0.025029028 -0.033788167 -0.016281018
0.0074268845 0.07449736 0.056576997 0.06442294 0.0048303865 -0.026638376 -0.039856803 0.049927443
-0.0073018023 0.033821452 -0.07758076 0.043525077 -0.045320187 -0.009388535 0.069651164 0.052810874
-0.050174896 0.07157196 -0.07020202 0.039611142 0.01400087 0.07980011 0.008753706 -0.018759321
0.07384557 -0.05138356 0.060023222 -0.032649003 -0.011690482 -0.03742771 0.056722663 -0.05438888
-0.024602588 0.0061114705 0.07697243 -0.011818716 -0.037090033 -0.00989884 0.019572008 -0.038227186
0.086041175 0.035010837 -0.030715233 0.050643228 -0.025223143 0.018983988 -0.015178373 -0.06746609
-0.072324656 -0.075479925 -0.048085917 -0.0053580333 0.011269101 0.014299417 0.038901933 0.005347687
0.08436028 -0.020250708 0.018213307 0.017807493 0.04268795 0.06916423 0.032495968 0.043134123
0.07675145 0.041905556 0.078766815 0.04408434 0.041838173 -0.010823376 -0.05388657 0.0768992
0.044650763 0.025917992 0.03508265 -0.02396313 -0.010216542 0.06917007 0.02258791 -0.08399026
0.07012223 0.025739597 -0.042453337 -0.038766865 -0.06456854 0.08110775 -0.04077827 -0.03903294
0.027760595 -0.034579493 0.045516945 -0.030420307 -0.020694233 -0.026823938 0.0049171504 0.04344154
-0.013555779 0.0680703 -0.085469075 -0.06629773 0.02439514 -0.006511907 -0.013136616 0.024849143
-0.070739664 -0.00917029 -0.061506644 0.07717042 0.01887456 0.05153753 -0.055676963 -0.020739945
0.04649631 0.07322335 -0.07237345 -0.023442756 -0.015544454 0.0802738 -0.053689048 0.032000426
0.06338824 -0.06556574 0.081573315 -0.08513354 -0.063661434 -0.025103025 0.0043175295 0.0030928894
0.06448439 0.074576885 -0.023566574 0.020133413 -0.0304064 0.024546044 -0.00176892 0.04040322
0.0015212633 -0.02689418 0.03704802 0.062533066 -0.040426407 0.023129232 9.8339726e-05 -0.024982657
0.036943804 0.04940999 0.038910195 -0.07376329 -0.031400003 0.07152329 0.049604192 0.04879611
-0.052507404 0.031097 -0.010911608 -0.033557247 0.05164687 0.08325774 0.03877208 0.06340975
-0.049559265 0.04262396 -0.08006025 -0.02085241 -0.020766605 -0.071285136 -0.02716602 0.065433495
-0.042556282 0.07476107 0.043016404 -0.034945853 0.04877678 -0.08057283 0.036276348 -0.041113034
-0.068459496 0.08528281 -0.0033456064 -0.053316228 0.085642055 0.02172834 -0.013108 -0.032757003
0.07815632 0.04810571 0.07821789 0.03155797 0.06816862 -0.0008395055 0.019347332 0.021831093
0.08195897 0.06497548 0.05181782 -0.08342436 0.06346325 0.047326304 -0.019234177 0.015921418
-0.085146 -0.04836468 0.06692207 -0.07984893 0.0005063453 0.015398994 -0.0040445765 -0.050575048

BN1.weight f4 [256]
00000000: b504 7e3f 042e 7d3f 15ec 7d3f 5d22 7c3f
00000010: 7431 7e3f b7d5 803f 19ab 813f e705 7f3f
00000020: 477c 803f 5959 7e3f 0529 7e3f 7e09 7d3f
00000030: ebce 7e3f 0905 7e3f cd4b 813f c944 813f
00000040: 67dc 803f 9a82 7e3f e7f7 7d3f 986b 803f
00000050: 4afb 7f3f d6bc 7c3f 5f8b 833f 9c09 823f
00000060: 8c4c 823f 4c23 813f 934c 803f a1b3 7f3f
00000070: 52e2 823f df1a 813f c164 823f a0c7 7f3f
00000080: 9bca 823f be2f 7a3f bf5f 7b3f 071d 803f
00000090: eb24 813f 72a7 823f b432 803f 6fee 7f3f
000000a0: 7286 813f fbc7 803f d73e 813f 7ab0 823f
000000b0: b112 803f 85a5 813f 8f8e 803f 645e 7e3f
000000c0: 50d6 813f 0b3a 7d3f 9ef6 7b3f 6bee 7d3f
000000d0: 6309 7a3f 8bd8 803f fee6 7f3f f05d 803f
000000e0: f08b 803f 0448 813f 50d4 7f3f 78b2 823f
000000f0: 5e68 7f3f 936b 803f 46a8 813f f218 833f
00000100: a15f 7c3f b0f8 7d3f 69ce 7e3f 4ff6 803f
00000110: f3b8 803f a1b4 813f e4bf 803f ba77 7c3f
00000120: f9b3 813f c876 833f 07f7 803f 23f6 7f3f
00000130: f39e 7f3f a72f 823f e0ee 813f cdcf 7e3f
00000140: b00d 813f b9e3 7e3f 4733 7f3f 09b4 7f3f
00000150: 56dc 7f3f 2d73 803f 9b87 803f 382b 803f
00000160: 4089 823f 2e41 803f 06a7 813f a478 823f
00000170: 6c20 803f d8b8 803f 0e4f 813f ec7f 813f
00000180: 6c19 803f 5e1a 803f 0914 813f 953e 813f
00000190: 2600 7f3f cde5 7f3f 3c63 803f 85f8 813f
000001a0: 056c 813f 2b27 823f 9a22 7d3f 7aee 803f
000001b0: 05a3 803f 8c95 823f 6bd3 7f3f 9872 813f
000001c0: dfeb 7e3f 8103 823f 06e2 7f3f acef 823f
000001d0: e3f5 823f dcfe 803f 0077 7e3f 7823 7e3f
000001e0: b1f5 7f3f 31ab 793f b585 823f 5dfd 7f3f
000001f0: 9b53 803f 8a6d 7e3f 669d 7f3f ffc4 813f
00000200: 2804 7f3f 1a92 7f3f c0bc 7d3f 504c 7f3f
00000210: 7a62 803f b0f1 803f 93fd 803f 43a0 823f
00000220: d73e 823f 63cb 7d3f f934 803f 158c 7d3f
00000230: 2fe2 813f 4ede 7e3f 83f2 803f dc5f 803f
00000240: 8fd2 813f 86f2 803f b792 803f fc70 823f
00000250: 05ab 803f e888 803f 79d1 813f 9139 7e3f
00000260: d741 7f3f 18a1 7c3f 6807 813f 8103 7e3f
00000270: 0519 7f3f e79e 813f 5a40 7d3f 0e14 803f
00000280: c107 7e3f 6e15 823f 76ab 7d3f 2270 813f
00000290: 7a29 813f 8137 7e3f 4a78 833f 9e71 7b3f
000002a0: 74a8 813f 504a 7f3f 5629 813f 3501 7d3f
000002b0: c59f 803f 3123 803f a1bc 7e3f b97f 7f3f
000002c0: bed6 7e3f 035c 7f3f 71e6 7e3f 1c7f 813f
000002d0: 4c24 813f eea8 803f 294e 813f 2e12 7e3f
000002e0: 988b 7f3f cddd 813f f317 803f 8d98 7d3f
000002f0: 7aaf 813f e657 813f 6782 7e3f 9e1f 803f
00000300: 0240 803f faa8 803f b017 803f a31c 823f
00000310: 7297 833f 18e8 803f 5ed9 813f ce96 803f
00000320: 7dbf 803f bd5c 803f 336f 803f 6189 7d3f
00000330: b6ba 813f 05c0 7d3f 0c21 7f3f a5e9 7d3f
00000340: 9cac 7e3f 8591 803f d4a3 823f 456f 803f
00000350: ce2b 7f3f 042e 803f 2c75 823f 967e 7e3f
00000360: fecc 803f a49e 803f d477 803f 8efe 7c3f
00000370: ef59 833f 64c3 7c3f dcac 7f3f 4845 7f3f
00000380: e0a9 803f 6b8d 7e3f 6981 7f3f 34c6 7d3f
00000390: 015f 813f d3dc 823f 90e5 7f3f 870e 813f
000003a0: 1429 853f 436c 7e3f 2ff5 7d3f d90c 803f
000003b0: 3a1d 843f 9de4 813f ef2c 7f3f 3832 793f
000003c0: d54c 7c3f 7e47 7e3f 487e 803f c6a2 823f
000003d0: bc64 7e3f d824 7e3f 5775 7e3f 192f 803f
000003e0: 3d36 813f 06bb 813f 5923 7f3f 6db3 7e3f
000003f0: 1c59 7f3f e310 803f 0041 823f 1af5 823f
0.9922593 0.9889834 0.9918836 0.98489934 0.9929421 1.006522 1.013034 0.9961838
1.0037926 0.99355084 0.9928134 0.9884261 0.9953448 0.99226433 1.0101258 1.0099117
1.0067261 0.9941803 0.99206394 1.0032835 0.9999281 0.9872564 1.0276908 1.0159183
1.017961 1.0088897 1.0023369 0.99883467 1.0225317 1.0086325 1.0186998 0.9991398
1.021808 0.977291 0.9819297 1.0008858 1.0089391 1.020735 1.0015473 0.99973196
1.0119154 1.0061029 1.0097302 1.0210106 1.0005704 1.0128638 1.0043505 0.9936278
1.0143528 0.9891669 0.9842318 0.9919192 0.97670573 1.0066084 0.9996184 1.0028667
1.0042706 1.0100102 0.9993334 1.0210714 0.99768627 1.0032829 1.0129478 1.0241988
0.9858342 0.9920759 0.99533707 1.0075167 1.0056442 1.0133249 1.005856 0.9862019
1.0133048 1.0270624 1.0075387 0.9998495 0.9985191 1.0170792 1.0151024 0.9953583
1.0082302 0.9956623 0.9968762 0.99884087 0.9994558 1.0035149 1.0041384 1.0013189
1.0198135 1.0019891 1.0129097 1.0193067 1.0009894 1.005641 1.010225 1.0117164
1.0007758 1.0008047 1.0084239 1.0097224 0.996096 0.99960023 1.0030284 1.0153967
1.011109 1.0168203 0.9888092 1.0072777 1.004975 1.0201888 0.99931973 1.0113096
0.9957866 1.0157319 0.9995426 1.0229392 1.0231289 1.0077777 0.9940033 0.9927287
0.9998427 0.9752684 1.0197054 0.99995977 1.0025514 0.99385893 0.99849546 1.0138243
0.99615717 0.9983231 0.99116135 0.9972582 1.0030053 1.0073757 1.0077385 1.0205158
1.0175427 0.9913847 1.0016166 0.99041873 1.0147151 0.9955796 1.0074009 1.0029254
1.0142382 1.0074012 1.0044774 1.019073 1.0052191 1.004178 1.0142051 0.9930659
0.9970984 0.9868331 1.0080385 0.99224097 0.9964755 1.0126618 0.9892632 1.000612
0.9923058 1.016279 0.99089754 1.0112345 1.0090783 0.9930344 1.0271084 0.9822024
1.0129533 0.99722767 1.009074 0.98829967 1.0048758 1.001074 0.99506575 0.99804264
0.9954642 0.99749774 0.99570376 1.0116916 1.0089202 1.0051553 1.0101978 0.9924649
0.9982238 1.0145813 1.0007309 0.990609 1.0131676 1.010495 0.9941773 1.0009649
1.0019534 1.0051568 1.0007229 1.0164989 1.0280592 1.0070829 1.014446 1.0046022
1.0058438 1.0028301 1.0033935 0.9903775 1.0135105 0.99121124 0.996598 0.9918464
0.9948213 1.0044409 1.0206246 1.0033957 0.99676216 1.0014043 1.0192008 0.99411905
1.0062559 1.0048413 1.0036569 0.9882592 1.026182 0.9873564 0.9987314 0.9971509
1.0051842 0.99434537 0.9980684 0.9913056 1.0107118 1.022364 0.9995966 1.0082558
1.0403161 0.99383944 0.99202245 1.0003921 1.0321419 1.0147892 0.9967794 0.9734225
0.98554736 0.9932784 1.0038538 1.0205925 0.9937246 0.9927497 0.99397796 1.0014373
1.0094677 1.01352 0.9966331 0.9949253 0.99745345 1.0005153 1.0176086 1.0231049

BN1.bias f4 [256]
00000000: a1d1 e13c 21f5 7abc c95f 90bb 15b3 813d
00000010: 9cd3 f33c 3d3c 13bd 778e 3a3b 4bd5 16bd
00000020: 1e64 bebc 2d2c 823c 2028 c83c 93a7 613c
00000030: e487 ba3c 89f0 17bd 5c3b f8bc ca8e 74bc
00000040: 7956 6bbc d701 91bc a1f1 2e3c 5790 87bb
00000050: 363a 2e3c d07e af3c 1110 08bd 8323 abbc
00000060: 12f1 f4bb ef14 9cbc 37cd cfbc 0a0a 163c
00000070: 4df3 d6bc 0658 eebc a2ee 15bd 17c9 45bb
00000080: e17c 10bd 8ea7 213d decb 633c ac69 4d3c
00000090: 89e6 aebc ca6b dcbc dbcc abbc 65b8 d3bc
000000a0: f731 0dbd ba0c 94bc 274e 00bd b3d7 1cbd
000000b0: 61e8 c73b ea89 60bc 0d2f 74bd b21e a8ba
000000c0: e060 fabc 5d44 c6bb 7217 3f3c 4fb2 3f3d
000000d0: 7593 4c3d e957 e4bc 8294 ab3b 4b9c a2bc
000000e0: 7159 b7bc 870c a1bc 4fe7 8a3b 8dcd d1bc
000000f0: 0907 933c de40 68bc c755 17bc aff9 03bd
00000100: de34 7c3b 1c54 203c 400a f03c 0107 d1bc
00000110: 338a e33a e8ae e2ba 02b0 033d a461 153d
00000120: 72e4 57bc a88d 3c3b 58a6 a039 b3eb 9d3b
00000130: 0faa 17bc 4007 21bd 8f7b 38bd c371 93b9
00000140: 3760 5fbc 68ea ad3c 597d 70bc 30aa 15bd
00000150: e0a3 bdbc 537a 173d e99e fd3a 158d 0d3c
00000160: 4882 ebbc 46d8 01ba 8f81 cabc 7792 05bd
00000170: 33da 523a c114 e0bc e983 0f3c 4436 9dbd
00000180: c4b2 713c ed5a b2bc b566 203c b97b abbd
00000190: 68de f1bb 7f0b 503c cf1d 65bd 07be 17bd
000001a0: 1d49 0abc 1c65 c5bc f88b 383b 053c 0b3c
000001b0: f3fb b5bb 4930 fcbc 47e5 72bc c04a c1bc
000001c0: 0ccc cdbb eedd 75bb 57c7 4bbc 86b8 49bd
000001d0: 5646 c6bb a18b a7bc 6c59 efbc 1548 223d
000001e0: 5d86 553c a40a 883b 6532 38bd b373 d93b
000001f0: 3d80 5abc c6c9 1d3d 503e c3bb b730 5ebd
00000200: 5ea9 7b3c bf7f f03b 53bb 75b9 7cac d93c
00000210: 6493 d93c 8a7f 2ebc f7f4 64bc 2098 68bd
00000220: fbd4 4fbd 4074 813a 1790 85bc 3623 363c
00000230: 15ab fbbc 2284 7f3c 47b0 ddbc 4491 5bbd
00000240: 088d 113c 91d7 1cbd 60ee 633b 3a27 40bd
00000250: cbe0 d6bc d55f 243a 1819 babc cb1b 84bb
00000260: 184c d9bc a2fa 0a3d 85cf f0bb 7571 8e3b
00000270: 7d7c 82bb 2a1a 07bc 2971 85bc 44b5 53bc
00000280: 0dd1 f8ba 55b8 2ebd 6e88 e53c 2315 37bc
00000290: 6f62 f5bc 8717 01bc 22cd 05bd 9312 e7bb
000002a0: 2e86 fcbb 0730 92bb cad7 a93c c179 b9b9
000002b0: 224a cebc 1670 b5bc 5f28 783c 04b9 243d
000002c0: e67d 773c 9071 28bd 6e73 8bbc 9012 adbb
000002d0: 4532 6eba d16b 49bb 79cd 40bd 4163 453d
000002e0: a10d 243c 015f f8bc fc69 e8ba b38a f83b
000002f0: 3816 b0bc 606a 19bc 15c4 7b3c a766 073c
00000300: 78ee 69bc e518 523c e586 113c 3357 b4bc
00000310: 6d3e 1ebd 9f60 84bd 0acc 98bd d913 5bbc
00000320: 589c 97bb ea85 81bc c5c9 1bbd e556 833b
00000330: d9f6 08bd 346c 1ebc 1dff 913c 3a92 e5bb
00000340: eecc 113b a39e e73b 2925 72bd cb8f 8fbc
00000350: 208e 83bc cf17 e2bc 5d7a 03bd 4573 2bbc
00000360: 2131 77bc db33 dfbc b96d 26bd a92f ef3c
00000370: bf0a f5bc d31e 6bbb a785 b53b d560 e7bc
00000380: 7498 11bd 309c 053d 7be8 e1bb a2a7 373c
00000390: e7db 7bbc e285 84bd 74bc e9bc bbc0 56bc
000003a0: 4338 e4bc 34e8 9ebb 08bc 1b3c 42aa debc
000003b0: 7f4a cbbc 0e89 cdbc b430 7abc 34e0 02bb
000003c0: dd31 ba3c 1753 f63b 3a59 9dbc 079c 96bc
000003d0: 5506 5a3b 9c95 2bba 837c ffbc 625b 0bbc
000003e0: 6d8b 34bd 3725 fabc c490 f63c 894c 13bc
000003f0: eb34 f3bc 93d6 43bc 0cf3 65bc c21d 45bc
0.02756578 -0.015317232 -0.0044059497 0.06332985 0.02976399 -0.03594612 0.0028466263 -0.036824506
-0.023241099 0.015890205 0.024433196 0.013772863 0.022769876 -0.037094627 -0.030301742 -0.014926622
-0.014363878 -0.017701073 0.010677726 -0.0041370797 0.010633996 0.021422774 -0.033218447 -0.020890957
-0.007475027 -0.01905295 -0.025366409 0.009157667 -0.026239062 -0.029094707 -0.03660453 -0.0030179673
-0.035275344 0.039466433 0.013903586 0.012537401 -0.021350162 -0.026906867 -0.020971706 -0.025844762
-0.03447148 -0.018072475 -0.031324532 -0.038291644 0.0061007 -0.013704756 -0.059615184 -0.0012826531
-0.030563772 -0.00605063 0.011663305 0.046800908 0.049945313 -0.02787395 0.0052362094 -0.019849917
-0.022381516 -0.019659294 0.004239 -0.02561071 0.01794769 -0.014175622 -0.0092367595 -0.03222054
0.003848366 0.009785678 0.029301763 -0.025516035 0.0017359912 -0.0017294558 0.032150276 0.03647007
-0.013177024 0.0028770957 0.00030641514 0.0048193573 -0.009256854 -0.039313555 -0.04503971 -0.00028122784
-0.013633779 0.021229938 -0.014678323 -0.036539257 -0.02314943 0.03698189 0.0019349727 0.008639594
-0.028748646 -0.0004953187 -0.024719981 -0.032610383 0.00080433785 -0.027353646 0.008759477 -0.07676366
0.014752094 -0.021771872 0.009790112 -0.083732076 -0.007381249 0.012698053 -0.05593663 -0.03704646
-0.008440283 -0.024096064 0.00281596 0.0084981965 -0.0055537163 -0.030784743 -0.014825172 -0.023595214
-0.006280428 -0.0037516314 -0.012437663 -0.04924824 -0.006050865 -0.020452322 -0.029217444 0.039619524
0.013032523 0.004151659 -0.044969935 0.006636107 -0.013336238 0.038522504 -0.005958356 -0.054245677
0.0153602045 0.0073394473 -0.00023434804 0.026571505 0.02655954 -0.010650525 -0.01397442 -0.056785703
-0.050740223 0.0009876564 -0.016304059 0.011116793 -0.030721227 0.015595468 -0.027061595 -0.053605333
0.008883722 -0.038291518 0.0034779534 -0.04691241 -0.026230237 0.00062703836 -0.022717044 -0.0040316335
-0.026525542 0.03393043 -0.007348957 0.004347021 -0.0039821253 -0.008245984 -0.01628931 -0.012921635
-0.00189832 -0.04265626 0.028019156 -0.011174473 -0.029954163 -0.0078791445 -0.032666333 -0.0070517748
-0.007706425 -0.0044612917 0.020732779 -0.00035376663 -0.025181834 -0.022148173 0.015146344 0.040215507
0.0151057 -0.041123927 -0.017022815 -0.005281754 -0.000908647 -0.003073443 -0.047070954 0.04819036
0.010013015 -0.030318739 -0.0017731781 0.0075848936 -0.02149497 -0.009363741 0.015366574 0.00826422
-0.014278047 0.012823318 0.008882259 -0.022014236 -0.038633753 -0.064637415 -0.07460792 -0.013371431
-0.004626792 -0.015810926 -0.03803422 0.0040081614 -0.033438537 -0.009669352 0.017821843 -0.007005957
0.0022247392 0.0070684715 -0.05911747 -0.01752462 -0.016058981 -0.027599243 -0.032099117 -0.010464494
-0.015087397 -0.027246406 -0.040631983 0.02919753 -0.02991235 -0.0035876527 0.0055396142 -0.028244415
-0.03554578 0.032619655 -0.006894169 0.0112094 -0.015372253 -0.064708486 -0.028532244 -0.013107474
-0.027858859 -0.004849458 0.009505279 -0.027180795 -0.024815796 -0.025089767 -0.015270401 -0.0019970061
0.022728855 0.0075172293 -0.019207586 -0.018384947 0.0033267934 -0.0006545426 -0.031187302 -0.008505674
-0.04407828 -0.030535324 0.030098327 -0.008990415 -0.02968832 -0.011953014 -0.014034998 -0.012031021

BN1.running_mean f4 [256]
00000000: 9122 37c1 64d5 9b40 09cc bf40 5887 cc40
00000010: ad15 0bc1 b76b 0a41 bec5 c041 b5a3 3741
00000020: d765 0a41 7514 ddbf 48fd 9140 ab95 9041
00000030: 9f42 0641 0a2a 98c0 1035 9dbe 2fc7 1a40
00000040: 35e8 6a41 b8b4 2fc1 defb 2c41 d856 4441
00000050: 454d 23c0 514a 3141 4ef6 2440 2771 ca40
00000060: 4ffe e4bf 8847 883f dec0 bfc0 db0d dc40
00000070: 6c06 8fc0 7bd0 e9bd d482 9140 4777 adc0
00000080: 9ab2 ed40 0162 11bf 9100 1741 be2c 28c1
00000090: d4c5 1dc1 b33f 6940 9b4b 673e bfc0 81c0
000000a0: 7554 3941 6d6f 7941 a9b5 ba40 65de 2c40
000000b0: c864 e2c0 32e1 a33f bd1a 4041 da0c b23f
000000c0: 306a 26c1 a291 bbc0 1610 e6c0 04e2 d9c0
000000d0: 03ad d740 99ad 81c1 83b2 8240 16c3 8440
000000e0: cf01 4dc0 ca35 f640 cd4d 1dc1 5fc8 da40
000000f0: bb07 3640 6fb6 78c1 ed81 0f40 b81e 66c0
00000100: a3c7 6bbd f601 23c0 ac90 5141 dcd5 ab40
00000110: 293d 41c1 df65 d23f 748c eebf 2112 13c1
00000120: 8034 48c0 3671 1841 80b9 52c1 63c4 1241
00000130: 8c45 0241 e60c a6c0 535e f540 37e8 92c0
00000140: 39e1 5540 dc6d d7bd 747f c040 36eb 1441
00000150: f002 79c0 3c2f dcbe b6d4 37c1 ce7a 2640
00000160: e109 babf 1304 9240 92cb 8240 30f3 3641
00000170: 105f 903f 00e9 e2c0 1039 43bf 2a81 be40
00000180: 1ba6 9740 18e7 1e3c faab 3cc1 88d2 bdc0
00000190: 0f83 ca40 0a82 55bf 5ca4 9d40 baf7 8540
000001a0: 989f 8041 140d 80bf 2538 f7c0 8bbe c0c0
000001b0: 4679 4fbf 3cd7 1141 7559 3bc1 754a c9c0
000001c0: afa5 0041 e796 77c1 55f4 7740 7656 0341
000001d0: 12d7 18c1 bd6c 53c1 a38e 1840 4c6a 2ec1
000001e0: b5c0 ffc0 de22 72c1 ca41 8340 6b5f aec0
000001f0: deca 1f40 5ddf eec0 17d1 b6c0 390f 643f
00000200: 02b3 c2c0 fbee 37c1 af26 02c0 f46b 40c1
00000210: d6d6 df3f ffac cfbf c3b7 653f 0e87 1d41
00000220: f127 0cbe 7954 11bf 0525 b040 da34 7241
00000230: f3f5 cec0 40d9 29c1 197a 9640 e3cd 2e41
00000240: 1428 c23e b362 bd3f b3d9 13c1 c7de 533f
00000250: 5e32 a4bf 36cf 9e40 b174 bfbf 5e10 52c0
00000260: bcba 0ac1 877c 2441 b5b8 91bf efc7 07c1
00000270: a6f8 4ac0 b4d0 76c1 5584 49c1 e6ec 3341
00000280: 152e 07c0 63e5 db3d 5208 23c1 abaf 2f41
00000290: bfb4 4bc1 49f2 fec0 0752 f23e 575d 8341
000002a0: 95d7 93c1 15d3 4dc0 686c 86bf 48da 4141
000002b0: da96 7241 674c 2b40 1e4c 28bf e797 bfc0
000002c0: 9dea 75bf b8fc 1541 e1df 4740 2f76 8bc1
000002d0: fd79 1bc1 b99a 9bbf 0273 3d41 1469 6f41
000002e0: 8c03 ad40 971b fdc0 ca36 1841 1d64 bf40
000002f0: d6e2 0040 477e 3f40 314e df40 4998 d2c0
00000300: e73f 05c1 e0f8 1840 9a7d 4a40 56eb 00c1
00000310: 0d10 8c3f 01cc 26c1 0b1e 9741 bdb6 4cc0
00000320: 4516 56c1 9d89 23c1 a891 a240 d4e9 d9c0
00000330: 36b9 07c1 592e 6641 1279 5341 2c4d 52c1
00000340: 0e09 a740 2556 e13e c78d 2cc1 bb0c 4c40
00000350: 55f1 4d40 4369 bac0 1f56 97bf e5a8 4f40
00000360: 7070 6040 4437 22c0 92ea d83e 9053 43c0
00000370: f3b3 aec0 00db 59c1 16be e1bf 46b7 e43f
00000380: 7ac1 b0c0 9972 0340 bcde 86c0 7352 1fc1
00000390: 9743 bc3f 2efd 05c1 64f6 e640 5dcf 1c40
000003a0: 921e 3f40 5ac5 6dc1 636e d93e 466f fb3f
000003b0: a20b f3c0 ceba 7940 6097 71c0 cb03 ad41
000003c0: 4121 15c0 e146 f740 581e 97bf e74b fe40
000003d0: 040c 9640 4897 a23e 5655 0dc1 05a3 88c0
000003e0: a0c9 93c1 8081 de40 8050 8641 932e acc0
000003f0: a8c3 21c1 5277 a3c0 d48b 0941 ecc3 fbc0
-11.445939 4.8697987 5.9936566 6.3915215 -8.692792 8.651298 24.096554 11.477468
8.649863 -1.7271868 4.562168 18.07308 8.391265 -4.7551317 -0.30704546 2.4184072
14.681691 -10.981621 10.811491 12.271202 -2.5515912 11.080644 2.5775332 6.3263125
-1.7890109 1.064683 -5.9922934 6.8766913 -4.469534 -0.114167176 4.54722 -5.42081
7.428052 -0.5679017 9.437638 -10.510923 -9.860798 3.644513 0.22587435 -4.0547786
11.583119 15.589704 5.8346753 2.701074 -7.0748024 1.2803099 12.006528 1.3910172
-10.400925 -5.8615274 -7.1894636 -6.80884 6.7398696 -16.209764 4.084291 4.148814
-3.2032354 7.694066 -9.831494 6.8369594 2.8442218 -15.544539 2.242305 -3.595625
-0.057563435 -2.5469947 13.09782 5.369856 -12.077432 1.6437339 -1.8636613 -9.191926
-3.1282043 9.527639 -13.170288 9.172946 8.141979 -5.1890745 7.667764 -4.5908465
3.3418715 -0.10519001 6.0155582 9.307425 -3.8908043 -0.43004787 -11.489431 2.6012454
-1.4534265 4.5629973 4.08735 11.434372 1.1279011 -7.0909424 -0.76258945 5.953267
4.7390265 0.009698652 -11.791986 -5.9319496 6.3284984 -0.8340155 4.9263134 4.18649
16.077927 -1.0003991 -7.7256036 -6.0232596 -0.81044424 9.115047 -11.70934 -6.290339
8.04045 -15.474341 3.8742878 8.208609 -9.552507 -13.214047 2.3837059 -10.900951
-7.992274 -15.1335125 4.101781 -5.4491477 2.496757 -7.464766 -5.7130237 0.8908573
-6.0843515 -11.495845 -2.033611 -12.026356 1.7487438 -1.6224669 0.89733523 9.845472
-0.13687111 -0.5676952 5.504519 15.137903 -6.467523 -10.61554 4.7024045 10.925265
0.37921202 1.4795746 -9.240649 0.82761806 -1.2827871 4.9627943 -1.4957486 -3.282249
-8.670589 10.280402 -1.1384493 -8.486312 -3.1714263 -15.425953 -12.594808 11.245337
-2.1121876 0.107371114 -10.189531 10.980388 -12.731627 -7.967076 0.47328207 16.420576
-18.480265 -3.2160084 -1.0501833 12.115791 15.161829 2.6765382 -0.65741146 -5.987293
-0.96061116 9.374199 3.1230395 -17.432707 -9.717282 -1.2156593 11.840578 14.963154
5.406683 -7.909618 9.513376 5.980971 2.013845 2.9920824 6.978295 -6.5810895
-8.328101 2.3901901 3.163916 -8.057455 1.0942398 -10.424806 18.88967 -3.1986535
-13.380437 -10.221097 5.0802803 -6.8097935 -8.4827175 14.386315 13.217058 -13.143841
5.2198553 0.44011036 -10.784614 3.188277 3.2178547 -5.8253493 -1.1823157 3.2446835
3.5068626 -2.5346231 0.42366463 -3.0519753 -5.4594665 -13.615967 -1.7636135 1.7868431
-5.5236177 2.0538695 -4.2146893 -9.957629 1.4708127 -8.374311 7.217577 2.4501565
2.9862409 -14.860682 0.4246703 1.9643333 -7.59517 3.9020267 -3.7748642 21.626852
-2.3301547 7.727402 -1.1806135 7.9467654 4.6889668 0.31756043 -8.833334 -4.2699
-18.47345 6.953308 16.789307 -5.3806853 -10.110268 -5.1083155 8.596638 -7.8676662

BN1.running_var f4 [256]
00000000: c87a 8c42 489d 3342 4b3d 0d43 20a5 bd42
00000010: 53de 2743 3b66 4143 abbe 0b43 3482 cf42
00000020: 5ff2 0d43 36b3 0443 09fa 1c43 a749 4843
00000030: 8bd2 ae42 1857 d142 4102 8f42 8da2 1643
00000040: 3e83 f542 fd27 b142 1bcc 7142 af74 0943
00000050: b354 da42 fda0 1e42 9f34 e041 6189 8a42
00000060: fb78 3942 e911 ce42 0267 5842 0dd8 7342
00000070: e46a 5542 e399 5443 955f 7d42 59b6 f042
00000080: 07cc a442 8adf c642 5312 0643 7946 7042
00000090: 71d1 7742 dc0c b442 10c3 1043 fd8d 3542
000000a0: f132 6543 dfbb 8442 568c 9842 7251 9f42
000000b0: 922c 7643 4ed9 0a43 c430 aa42 832a 1842
000000c0: 1401 0743 3cfd a742 d6d2 0a43 e7f3 c642
000000d0: 6ec8 6942 6906 1143 75ff 8442 7ac8 c642
000000e0: 4a16 8c42 8d97 c942 b1cb 7142 fc5e bf41
000000f0: 9590 6642 c044 a642 7746 7d42 ff83 a442
00000100: 2f8a 4643 ee4e 5542 2e21 b342 451b 9742
00000110: eae6 0343 7524 0343 ee4e e242 18a1 a042
00000120: 8ccc 9b42 6db1 6342 ed99 c642 14d9 3542
00000130: cc0f 8c42 ff60 2e42 286d b842 bfb5 2e42
00000140: 9218 0f42 32cc af42 2f3d 8a42 fb50 8943
00000150: b482 8942 acbd 2642 b3a2 0b43 2ecf 4142
00000160: 0244 6742 6104 d742 713a dd42 9bd9 3e42
00000170: e5f2 6242 0cae 9242 5135 b642 fdce 7342
00000180: 20b7 ed42 9f4d 2642 db10 a442 bbbc ef42
00000190: c864 0f43 403d 0943 3e16 0742 ed5b 3d43
000001a0: 6f5e 9b42 adcc 3e42 4e44 6f42 b58b a142
000001b0: a2ec 7842 3b24 b042 4d7a 1543 214f ca42
000001c0: 9325 5642 c6de b142 385a 8a42 d5b6 2842
000001d0: 4443 3c42 ac63 ab42 6670 b142 dc76 5942
000001e0: e7d2 e242 c0a7 db42 088b be42 9b64 2143
000001f0: acb1 8a42 92ec 1a43 6f67 1d42 4058 6d42
00000200: fb2c 0243 db57 9542 c940 cd42 a7e9 e042
00000210: 757d 6643 dfc2 6042 0df4 0f43 ab58 9842
00000220: 63da be42 bfff 7542 6c7d 9a42 7fd6 f642
00000230: 6806 1c42 4ab1 9e42 32bd 5342 ebf9 0343
00000240: 98ba a741 df32 cb42 4318 9542 0c3b 0843
00000250: c346 5942 f66e a742 d6b1 8e42 b37e 3043
00000260: a39c 2842 1d3e 2b43 32a8 1442 e8fe 6a42
00000270: 1ded 6242 3906 a842 cc42 b142 8695 3943
00000280: 6963 1542 8dad ec42 255f cd42 6668 1843
00000290: 6faa 8542 468a f642 c745 2342 b49c a442
000002a0: 9607 0243 347b 8c42 63a0 3342 3b4c dc42
000002b0: 4cdc 9742 6bb1 ba42 ff0a 9042 2e03 1642
000002c0: f670 9542 a7a5 aa42 b6a7 1943 8db0 2a43
000002d0: fb4d 8142 5145 3642 f2eb 8442 e26f 7742
000002e0: 767c 4c42 fd7d a242 0146 cb42 49ff 1442
000002f0: 4cab 2b42 903c 6d42 52e9 b142 d440 7d42
00000300: 0ecb 3b43 7132 e342 d9fe bc42 217a 0e43
00000310: b1e4 3542 eefe 8142 b0af f242 a7c2 5c42
00000320: 50b1 a542 63c3 2143 93a3 8542 fbfe b842
00000330: f6fd dc42 caa5 0f43 103b d742 d5f8 7842
00000340: ca09 b642 9eae a142 3adb 7c42 2d01 b642
00000350: 1e1c 0243 5a7c 6842 6440 3d42 fe69 b042
00000360: ea3e bd42 ac02 0143 12e6 0a42 031f 8842
00000370: b8a0 ac42 17c6 b442 c097 6343 b5b2 4142
00000380: 9094 0243 e8cc 6242 ad6a 9f42 b964 e442
00000390: 4876 2d43 1440 9642 af28 4e43 9d12 5542
000003a0: 1879 6442 fbb4 a242 cb95 c342 d07e 9442
000003b0: 35cf 9842 374b 1142 f282 b342 33af 1643
000003c0: 920e 5e42 f5ab 2c43 8749 d042 5cb1 3e42
000003d0: f023 e242 8fea 9e42 f50b c642 f0fe 3343
000003e0: 2c4e 4943 8b95 1a43 ae75 0943 8208 9442
000003f0: 52c9 c442 1b93 c642 29c9 2642 5f7e 1d43
70.23981 44.903595 141.23943 94.82251 167.86845 193.39934 139.7448 103.7543
141.94676 132.70004 156.9767 200.2877 87.41122 104.670105 71.5044 150.63496
122.75633 88.5781 60.44932 137.4558 109.16543 39.657215 28.025694 69.26832
46.368145 103.03498 54.100594 60.960987 53.354385 212.60112 63.34334 120.35615
82.39849 99.4366 134.07158 60.06882 61.954533 90.025116 144.76196 45.38866
229.19899 66.366936 76.27409 79.65907 246.1741 138.84885 85.095245 38.041515
135.00421 83.9946 138.82358 99.47637 58.445732 145.02504 66.49894 99.391556
70.04353 100.796 60.448917 23.92138 57.641193 83.13428 63.318813 82.257805
198.53978 53.32708 89.564804 75.55326 131.90201 131.14241 113.15416 80.31464
77.899506 56.923267 99.30064 45.46199 70.03085 43.594723 92.213196 43.677486
35.773994 87.89882 69.1195 274.63266 68.75528 41.685226 139.63554 48.452324
57.816414 107.50855 110.61414 47.712505 56.7372 73.339935 91.10413 60.952137
118.857666 41.5758 82.03292 119.868614 143.39368 137.23926 33.77172 189.35909
77.68444 47.69988 59.816704 80.772865 62.231087 88.07076 149.47774 101.15455
53.536694 88.935104 69.17621 42.178547 47.06569 85.69467 88.71953 54.366074
113.41192 109.82764 95.271545 161.39299 69.347015 154.9241 39.35101 59.33618
130.1757 74.67159 102.62653 112.45635 230.49007 56.190304 143.95332 76.17318
95.42654 61.499752 77.244965 123.41894 39.006256 79.34627 52.93476 131.97624
20.96611 101.59936 74.547386 136.23065 54.319103 83.71672 71.347336 176.49492
42.152966 171.24263 37.164253 58.74893 56.731556 84.01215 88.63046 185.58408
37.34708 118.33897 102.68583 152.4078 66.83288 123.270065 40.818142 82.30606
130.02963 70.24063 44.906628 110.14889 75.93027 93.34652 72.02148 37.503105
74.72063 85.32354 153.65512 170.68965 64.652306 45.56769 66.46083 61.85926
51.121544 81.24607 101.63673 37.249302 42.917282 59.309143 88.9557 63.31331
187.79318 113.59852 94.49775 142.47707 45.47333 64.99791 121.34314 55.19009
82.84631 161.76323 66.81948 92.49801 110.49602 143.64761 107.61536 62.243
91.01912 80.84105 63.21409 91.0023 130.10983 58.121437 47.31288 88.207016
94.62288 129.01044 34.724678 68.06057 86.3139 90.386894 227.59277 48.42452
130.58032 56.700104 79.70835 114.196724 173.46204 75.12515 206.15892 53.268177
57.118256 81.35348 97.792564 74.24768 76.4047 36.323452 89.75575 150.68437
55.51423 172.6717 104.14361 47.673203 113.07019 79.45812 99.02335 179.99585
201.30536 154.58415 137.45969 74.01662 98.3932 99.287315 41.696445 157.49364

L2.weight f4 [128, 256]
00000000: 7e4f a93c dac7 eabc ed30 983c 0262 9c3b
00000010: c78e e6bc 7d74 2c3d 1ad5 bb3a 3187 cf3c
00000020: 2fe6 2abd 0ce0 04bc 3d15 3dbd fd4c 69bd
00000030: 936f 333d fe09 503d f2ab 9d3c 4266 893c
00000040: d714 f53c c139 d638 c58e e33c d642 693b
00000050: 8186 033c f1ec 68bc d9c7 6a3c bd1e 313d
00000060: 5bd3 7d3c 261c ecbb ea29 423d c037 fbbc
00000070: cb67 17bd eae5 05bd d807 bfbb 94e7 c33c
00000080: 7870 093d 12bb 3f3d 37ea c7bb 575e 563d
00000090: fd50 133d 9c44 ef3a 4d91 983c d297 e8bc
000000a0: 6cb9 853d de15 cd3b de97 cc3b 4bc4 fb3b
000000b0: 2bc4 73bc eac2 c93c 3401 53bd 7299 543b
000000c0: 9552 d93c 7dca 11bd 2ad9 e1bb f462 07bd
000000d0: ea1a 3cbd a14c 4b3d 4461 093d 409f 8c3d
000000e0: b987 9d3b 8fde 50bc a591 3c3d 4410 bc3c
000000f0: 5726 2d3c 6e50 3dbd baff 643d 76f1 f53c
00000100: 94cd 803c e75d 923d 6f1c 303d 5f65 363d
00000110: dd58 3ebd 7381 943d 2674 32bd 48f6 063d
00000120: cdfc 24bd e98c 0ebd 4a69 103c 9d74 d5bc
00000130: 6987 823d b295 653d 6f27 a3bc b938 75bd
00000140: 0d33 4c3d 9a53 c9bc 2d8a 633d 2057 0bbc
00000150: 4717 6cbb 8e32 ce3c bf02 2dbc a4d2 0f3c
00000160: a8e2 a8bc 19c5 513d d3a9 693c 86ec 71bd
00000170: 3ab0 b4bc 822a 78bd f22c 293d 73d3 273c
00000180: d3d4 ae3b 2984 e338 fd25 47bd 4ebc 4fbc
00000190: 9c6c 4e3d 0c4a 5cbd a319 46bd af41 723d
000001a0: 24fc 99bb 2e7c 7d3d 1cb9 0b3c 372e 193c
000001b0: 2366 c73c 1695 56bd 60b5 6e3d 118c 5c3d
000001c0: f60e 553c e971 36bd c09b 74bd 4e74 73bd
000001d0: aa0f 633d 9f73 3ebd 273c 20bc c7e9 8f3c
000001e0: 165c 2cbd af5d 28bd 2099 833d fadd f33c
000001f0: 07e5 56bd 3cc7 d33c dd01 a73c 11a3 45ba
00000200: da80 3bbd ef76 033d ee81 d1bb b9ec 22bd
00000210: 5a66 013c d62b 97bc c23b c83c 2a36 a1bc
00000220: 953c 9abc 132e 85bb 44dd 3a3d 9434 043d
00000230: 3084 a33b c6d0 32bd 404b b13c 30c9 58bd
00000240: 251c 49bd 2a65 8f3c 7103 d7bc b5e1 153d
00000250: d4c3 623c b19f 10bb 81b9 06b8 9dd1 13bd
00000260: e326 09bd 30c3 633d 3e39 8bbc 1be1 13bd
00000270: 4c5c 3b3d 6891 9b39 d84c 203b f617 b63c
00000280: b49a 3abb 21c9 1fbc 792f d63c db49 0c3c
00000290: 7c80 313d 48e7 4abc f17a 2d3d b757 1d3c
000002a0: b744 3abd 3c3e b23c c600 da3c 1c24 1bbc
000002b0: 3b4f b43c afa9 413b fde6 5abd 6ac9 51bd
000002c0: 08b4 8e3c ac4a 133d 3c3a 79bd 3a29 63bd
000002d0: 51ec 8b3c b139 25bd 2a2d b8bc 734d 18bc
000002e0: ae87 703d 7d2a 20bc e9cb 383d 9116 3ebc
000002f0: 5e11 71bd 9afa 863d 5f38 83bc ccca 15bc
00000300: 7958 20bd df93 4c3d 46a1 0cbb 6254 8a3d
00000310: f2a1 d33c 4717 61bd ae14 833b 52e5 693d
00000320: f530 ca3b 3c82 89bc 1ac2 993a 6839 54bd
00000330: 84b6 dfbb e937 dcbc a025 30bc 265d 3fbd
00000340: 3cd5 12bd c857 2dbd 476f cc3c e2b8 613d
00000350: de92 2f3c d238 2f3d f061 2e3c 1cfb 3e3d
00000360: 8eb9 823d 6b6e bebc 2d9b 663d cde9 703c
00000370: 5b4c 123d b8d2 f1bc c4f6 34bd 60a6 9dbc
00000380: b14c e3bb 8ffb c53c e4d7 183c c706 2d3d
00000390: eeb8 8a3d d839 e73c 93ec debc 13eb 12bd
000003a0: d939 45bc 8730 04bc 9d51 5d3c 3069 3e3d
000003b0: dac8 3d3a 6084 13bd 8973 38bd 9ffe 653d
000003c0: e79e 373d bbd8 393c 5a95 6fbd 35f5 fa3c
000003d0: 04e2 5cbc f363 5cbd 220f 223c cbf3 3a3c
000003e0: 7285 0a3d 768a 8a3c c7d1 76bc d978 413d
000003f0: bd9b 4bbd 4677 853d c4e3 cdb8 8d40 223d
0.020667788 -0.02865975 0.018578017 0.0047724256 -0.028144253 0.04210328 0.0014330477 0.025333019
-0.041723426 -0.008110058 -0.046162833 -0.056958187 0.043807577 0.05079078 0.019247029 0.016772393
0.029917164 0.00010215073 0.027778039 0.0035592816 0.008027674 -0.0142166475 0.014329874 0.043242205
0.015492286 -0.007205504 0.047403254 -0.030666232 -0.03696422 -0.032689966 -0.0058297925 0.023914136
0.033554524 0.046809264 -0.0061009186 0.052336063 0.03596591 0.00182547 0.018623972 -0.028392706
0.06529507 0.0062587103 0.00624369 0.007683312 -0.014878313 0.024629075 -0.05151482 0.0032440093
0.026528636 -0.0355935 -0.006892343 -0.033053353 -0.045924105 0.049633626 0.033540025 0.06866312
0.004807439 -0.012748375 0.046037335 0.022956975 0.010568223 -0.04621928 0.055907942 0.030022364
0.015723027 0.07146817 0.042995866 0.04453027 -0.046471465 0.07251253 -0.0435678 0.032949716
-0.040280152 -0.03480235 0.008814165 -0.026056582 0.06373484 0.056050964 -0.019916264 -0.059868548
0.049853373 -0.024575997 0.055551697 -0.008504659 -0.0036024617 0.02517059 -0.010559737 0.008778248
-0.02061589 0.051213358 0.014261681 -0.059063457 -0.022056688 -0.060587414 0.04130263 0.0102432845
0.005335429 0.0001084882 -0.048620213 -0.012679173 0.050396547 -0.053781554 -0.048364293 0.059144672
-0.004699247 0.061886005 0.00852802 0.009349397 0.024340695 -0.052388273 0.05827844 0.053844515
0.013004055 -0.044542227 -0.059718847 -0.05943709 0.05543486 -0.046496984 -0.009779966 0.017567528
-0.042080007 -0.04110497 0.06425691 0.029768933 -0.05246451 0.025851838 0.02038663 -0.00075392524
-0.04577718 0.032095846 -0.0063936627 -0.039776538 0.007897938 -0.01845352 0.024442557 -0.019679148
-0.018827716 -0.0040643304 0.04562117 0.032276705 0.004990123 -0.043656133 0.021642327 -0.052926242
-0.049099106 0.017504293 -0.026246758 0.036592204 0.013840634 -0.002206784 -3.2120854e-05 -0.036088575
-0.03348435 0.055606067 -0.016995069 -0.03610335 0.045742318 0.0002967224 0.0024459865 0.022228222
-0.0028473558 -0.009752543 0.026145684 0.00856253 0.043335423 -0.012384243 0.042353574 0.009603432
-0.045475688 0.021758191 0.026611697 -0.009469058 0.022010436 0.0029550602 -0.053442944 -0.051217474
0.01741983 0.035959885 -0.060846552 -0.05545924 0.017080458 -0.040338222 -0.022482473 -0.009295809
0.058723144 -0.009775755 0.04511634 -0.01160206 -0.058854453 0.06590767 -0.01601809 -0.009142589
-0.039146874 0.04994571 -0.002145843 0.06754376 0.025834057 -0.05495384 0.004000268 0.057103463
0.006170387 -0.016785733 0.001173082 -0.05181256 -0.0068271775 -0.026882129 -0.010751158 -0.046719693
-0.035847887 -0.042320043 0.024955405 0.05510796 0.010716168 0.042778797 0.010643467 0.046626195
0.06383048 -0.02324601 0.05630033 0.01470418 0.03571735 -0.029519424 -0.044180647 -0.019244373
-0.0069366326 0.024167804 0.009328816 0.04224279 0.06773554 0.028225824 -0.027212417 -0.035868715
-0.012037718 -0.00806821 0.013508228 0.046487033 0.0007239707 -0.036014915 -0.045032058 0.05615103
0.044829275 0.0113431765 -0.058492042 0.030634502 -0.013481621 -0.053806257 0.009891303 0.011410664
0.03381867 0.016911726 -0.015064663 0.04723439 -0.04970907 0.0651689 -9.8175864e-05 0.03961234

L2.bias f4 [128]
00000000: 8c89 5ebb 2010 2bbd e61e e3bb a2b2 0fbd
00000010: 804c c43c d5ce 11bd ed0f 18bd 7c95 43bd
00000020: 53dc babc 7031 62bc fd11 333c 12e0 943c
00000030: 26cc c4bc d998 49bd a044 6f3d bc63 1c3d
00000040: 0dca c4bc a794 9e3b 49c0 47bd 490b 4abd
00000050: 43a2 633d ea77 c13c 88e3 6e3c bfc3 40bd
00000060: 0e9a 56bd 3343 28bd fc0b 15bd d5da 9d3c
00000070: 3fb8 db3b f7c2 fd3c e83b b53c af0e d5bb
00000080: 23ee c13a e25c 053d 6a37 9dbb 2644 c73b
00000090: 7892 b93b 9907 2fbc 05c5 a4bc 0b00 a33c
000000a0: 23fc 5a3d 581f 4dbd 2ac1 8dbb 00e8 e8bc
000000b0: 086c 00bc 0a24 b83c 5486 61bd 3500 ef3c
000000c0: 28e8 ba3c 13c7 fbbc 90a8 14bd 0d4f b0bc
000000d0: 39a0 91bb a9b8 11bd bfa4 643d 0768 80bb
000000e0: 64d2 d3bc 9f81 43bd 2a45 ca3c 7a01 0abd
000000f0: 5449 a93c f043 49bc ae54 e0bc 5869 b03c
00000100: 90bf 7abd f06e 1f3d 390e 42bb 9390 e63b
00000110: 6c3e 123d 64ee abbc dc4f ca3c 16d5 88ba
00000120: 949d 8ebc 06d0 3c3d 9730 093c 548b 2a3d
00000130: 76db 90bc 5c2c f93c 4de6 eb3c 897e 133d
00000140: fcf9 053d 374b 103d a7e0 1d3a 325f af3b
00000150: dc18 4cbd 5ab2 3b3d 489c 963c 0925 84bc
00000160: f2ae 52bd e766 dabc 0731 afbb 8257 fb3c
00000170: 4584 35bb 2db9 c43c abb8 453c 2ddb 773d
00000180: dfe7 693d 19d7 283d 861e 78bd 0be4 c0bc
00000190: 02fa d63c 4e23 273d 5643 2b3d 3190 bdbc
000001a0: f170 f83b 4750 2c3c a8a8 dd3c 2a4e 41bd
000001b0: de85 6dbd bd7b 6a3d cb17 2d3c cdee ff3c
000001c0: 4a1b 44bd 5c90 e7bb edd5 c53c f4f3 54bd
000001d0: 55ba 26bd b68b b3bb 8bd1 a4bc 9309 663d
000001e0: 440b 56bd 5af1 43bd 90ea adbc dad3 8fbc
000001f0: 9414 72bd cd66 1ebb 79b0 b939 e0d7 263d
-0.0033956496 -0.041763425 -0.0069311736 -0.035082467 0.02396226 -0.03559764 -0.037124563 -0.04774998
-0.022810137 -0.013805732 0.010929582 0.018173251 -0.024023127 -0.049218033 0.058415055 0.03818105
-0.024022127 0.004839498 -0.04876736 -0.04932717 0.055574667 0.02361675 0.014580615 -0.047061678
-0.05239301 -0.04107971 -0.036388382 0.019269386 0.0067053135 0.030976756 0.022123292 -0.0065019946
0.0014795702 0.032559283 -0.0047978656 0.006081122 0.0056632124 -0.010682964 -0.020113477 0.019897481
0.053463113 -0.05007872 -0.0043260055 -0.028430939 -0.007838257 0.022478122 -0.055059746 0.029174903
0.022815779 -0.030734574 -0.036293566 -0.02152207 -0.004444149 -0.035576496 0.055821177 -0.003918651
-0.025857158 -0.04773104 0.024691183 -0.033692814 0.020664848 -0.012284264 -0.027384128 0.021534607
-0.061217844 0.038924158 -0.0029610528 0.0070362776 0.03570406 -0.020987697 0.024696283 -0.0010439481
-0.017409123 0.046096824 0.008373401 0.04163678 -0.017682772 0.03041666 0.02879634 0.036009345
0.032709107 0.03522798 0.00060225505 0.0053519243 -0.049828395 0.045824386 0.018385068 -0.016130941
-0.051436372 -0.026660396 -0.0053464207 0.030681375 -0.0027697247 0.02401408 0.012067954 0.060511757
0.057105895 0.041220758 -0.060575984 -0.02354624 0.02624226 0.040805154 0.041812263 -0.023140045
0.007581823 0.0105171865 0.02705796 -0.047193684 -0.057988994 0.057246912 0.010564755 0.031241799
-0.047877587 -0.0070667695 0.02414986 -0.051990464 -0.040705044 -0.0054793013 -0.02011945 0.056161474
-0.052256837 -0.047837593 -0.021230012 -0.017557073 -0.059101656 -0.002417016 0.00035417432 0.04073322

BN2.weight f4 [128]
00000000: 7445 813f a637 803f 5e67 7e3f d18d 803f
00000010: d759 813f 87ce 813f 51ed 7c3f e78b 833f
00000020: a0cc 803f 3bd7 7d3f c83b 7c3f 6628 813f
00000030: 5219 813f e91f 7d3f 662e 803f 931a 7d3f
00000040: a49d 813f 9829 823f 4d3f 823f 5a26 7f3f
00000050: f527 803f e14a 803f 43bf 7e3f 5fff 823f
00000060: 2552 7c3f 8abc 813f a859 7e3f d244 803f
00000070: aae2 7d3f 5d1e 823f 63fc 803f 38c9 853f
00000080: c878 7c3f de6d 833f 2150 803f 4876 813f
00000090: e70d 803f e8b8 803f 7d1d 803f b22e 7f3f
000000a0: e303 803f 4d71 7b3f 379e 803f 90d4 803f
000000b0: 22a8 7f3f 6ebc 803f c8ed 823f b03d 813f
000000c0: 3774 843f b612 7f3f 9dd1 7e3f 1618 823f
000000d0: 76b4 803f ce36 7f3f c918 7e3f 3842 7f3f
000000e0: 3fa4 7e3f b53c 823f 3ea6 843f b5dd 7f3f
000000f0: 3563 813f 1a58 843f 8b7f 7d3f 2b49 7d3f
00000100: 371f 7d3f e25e 833f 0462 7c3f bd00 803f
00000110: 5f38 7c3f 2fde 7f3f 3a62 7c3f 0742 833f
00000120: 7244 803f fed7 7d3f 9bf3 823f 8733 823f
00000130: 12c9 7f3f f5e8 823f 16b3 833f 9771 803f
00000140: 076a 7f3f 3601 803f 4565 833f c05c 813f
00000150: 7223 7c3f 2c22 843f f131 823f 77ed 7e3f
00000160: 9d3f 7f3f 295b 813f 8136 813f 984a 843f
00000170: 5742 803f 42ef 823f 4fd8 813f 25e7 7f3f
00000180: bb32 833f f48b 7d3f a842 843f 880c 7c3f
00000190: 7dd6 813f 0e37 803f d909 813f 2bd8 7b3f
000001a0: 1c59 803f a8a0 803f 2c60 7f3f c150 803f
000001b0: 8d04 7d3f 6524 803f bf6f 7f3f 0ab2 7c3f
000001c0: d788 813f dcb9 803f d73a 803f 5ef8 813f
000001d0: 50a7 7e3f 2ce9 803f 82ec 803f 6f9c 7f3f
000001e0: 3906 813f babd 7e3f af01 7e3f 6ed2 7d3f
000001f0: b87e 7c3f 5d23 7e3f 8a96 813f 7e01 803f
1.009932 1.0016983 0.99376476 1.0043279 1.0105542 1.0141152 0.98799616 1.027707
1.0062447 0.9915654 0.9852872 1.0090454 1.0085852 0.98876816 1.001416 0.98868674
1.0126233 1.0168943 1.0175568 0.99667895 1.0012194 1.0022851 0.9951059 1.0234183
0.9856284 1.0135663 0.99355555 1.0021002 0.99173987 1.0165516 1.0077022 1.0452032
0.986218 1.0267904 1.0024453 1.0114222 1.0004243 1.0056429 1.0008999 0.99680626
1.0001186 0.9821976 1.0048283 1.0064869 0.99865925 1.0057504 1.0228815 1.009695
1.0347966 0.99637926 0.99538594 1.01636 1.0055072 0.99693 0.9925657 0.99710417
0.9946937 1.0174776 1.0363233 0.99947673 1.01084 1.0339386 0.9902274 0.9893977
0.98875755 1.0263331 0.9858706 1.0000225 0.98523515 0.999484 0.9858738 1.0254525
1.0020888 0.991577 1.0230592 1.0171975 0.99916184 1.0227343 1.0289028 1.0034665
0.9977116 1.000037 1.026528 1.010643 0.98491585 1.0322928 1.0171491 0.9958109
0.9970644 1.0105945 1.0094758 1.0335264 1.0020245 1.0229266 1.0144137 0.99962074
1.0249857 0.99041677 1.0332842 0.9845662 1.0143582 1.0016801 1.008113 0.9837672
1.0027194 1.0049028 0.9975612 1.0024644 0.9883507 1.0011107 0.99779886 0.98709166
1.0119885 1.005672 1.0017956 1.0153921 0.9947405 1.0071158 1.0072176 0.99848074
1.0080024 0.9950825 0.9922132 0.99149215 0.9863086 0.9927271 1.0124066 1.0000455
