Trained_Models/BotDetection_v4_MLP___May-10-2024/BotDetection_v4_MLP_epoch24_val_loss_0.480888.pth (torch, 946391 bytes, 45 tensors)

L1.weight f4 [256, 133]
0.009437708 0.05817415 0.09259063 -0.11138246 0.025956266 0.028569303 0.14539936 -0.073520795
0.011727693 -0.03455748 -0.028405355 0.0469863 -0.0520236 -0.049438387 -0.14907783 0.054683845
0.045517076 -0.03847957 -0.0038218934 -0.06043295 -0.04877968 -0.0065066624 -0.05453244 0.0034045507
0.05923809 -0.08779306 0.010506913 -0.054523498 0.023136841 0.04843263 -0.0067913528 -0.040439095
-0.085236624 -0.017155433 -0.060694937 0.080383115 0.04573003 0.1013838 -0.030221194 0.029048253
0.14661866 0.014102302 0.0017418851 0.043436393 0.037330374 0.085024476 0.0058492688 0.064444885
-0.04434846 0.06873741 0.04739593 0.0315049 0.07377021 0.10428804 -0.020793067 0.03293663
-0.014831987 0.04156296 -0.095329955 -0.0011337647 -0.08600563 -0.000549549 -0.11194325 -0.033859316
0.05424932 -0.12357974 -0.033189833 0.11157437 -0.02494109 -0.048169266 0.063269265 0.0627817
0.08465819 0.008750741 -0.04717531 -0.031850386 -0.08080126 0.032927368 -0.01979176 0.033929475
0.04351197 -0.05644081 -0.034101177 -0.023343226 0.033898607 0.0076566716 -0.12151028 -0.048585117
-0.0008924833 0.021573914 -0.016594334 0.12997504 -0.07293715 0.05269212 -0.023988064 0.036226965
0.07064805 -0.059369393 -0.04274515 0.041105937 0.0048592035 -0.04214168 0.09320474 -0.087480485
-0.05692104 0.06618673 0.05088831 -0.028008707 -0.039640065 -0.07461095 0.037417192 -0.07011499
-0.05907695 -0.004619743 0.016883796 -0.043883473 0.0019944643 0.09543512 0.078062944 0.085638404
-0.05713408 0.057437956 0.02273032 0.13589846 -0.06548777 -0.01959229 0.062428728 0.07486542
-0.071163 -0.006176071 0.07247291 0.077598184 -0.09901688 0.0008563151 0.022814121 -0.0028192424
0.078218825 -0.03101858 0.0032957662 -0.056941215 -0.037738424 0.054086346 -0.017337099 -0.025990492
0.004611253 -0.05839082 0.032531146 0.024443433 0.0072123697 -0.03900282 -0.0077901897 -0.022270923
0.057426717 -0.025237996 0.022713277 -0.06733393 -0.0474599 -0.07057886 -0.018336 -0.08334044
0.038513575 -0.07683398 -0.023405332 0.019489199 -0.038236074 0.065766856 0.066554524 -0.021778567
-0.020939423 0.10321315 0.063838795 0.16047643 0.103966504 0.024244977 -0.0611517 0.022010185
0.07036981 0.1307266 -0.04154096 0.03840615 0.051991247 0.05556271 0.033579346 -0.040909298
-0.0012044122 0.028545402 0.07574801 0.010206366 0.0053300345 0.0119381985 0.03997814 0.07765619
-0.015163334 0.071991354 0.074966095 0.05802089 -0.08553505 0.021332752 0.050634895 -0.008819518
-0.0051770243 -0.01501317 -0.027386064 -0.025255691 0.10832097 -0.007962227 -0.054958474 -0.015337838
0.013394988 0.07562477 -0.04325951 -0.0075208037 -0.0306103 0.025373966 -0.05867819 -0.090263255
-0.09010606 0.0728837 -0.047423173 0.06106064 -0.0269203 0.04606951 -0.109382845 0.046188183
-0.086021714 -0.017167397 -0.04894812 0.017583968 -0.08810106 -0.022112515 -0.012967193 -0.04466317
0.03453243 0.10499635 0.05782189 0.10899904 0.0401187 0.04202831 0.083050564 0.061760873
-0.042975225 0.00664386 0.013132926 -0.035553828 -0.03998132 0.05053431 -0.062373437 0.02809554
-0.07019106 0.047533836 0.08703138 0.09270246 -0.0636906 -0.09421902 -0.062959045 -0.06698667
00000000: 9ea0 1a3c 0448 6e3d 28a0 bd3d 7d1c e4bd
00000010: 3ca2 d43c 2c0a ea3c 92e3 143e 1292 96bd
00000020: 8225 403c 258c 0dbd 59b2 e8bc b574 403d
00000030: b316 55bd e87f 4abd dca7 18be 2bfc 5f3d
00000040: 1d70 3a3d c19c 1dbd bb78 7abb 8a88 77bd
00000050: 34cd 47bd d735 d5bb 685d 5fbd e21e 5f3b
00000060: a4a3 723d d9cc b3bd 3025 2c3c 0854 5fbd
00000070: 7989 bd3c 4b61 463d ff89 debb 77a3 25bd
00000080: 8a90 aebd 8d89 8cbc 419b 78bd e79f a43d
00000090: 694f 3b3d 4fa2 cf3d 7092 f7bc 9af6 ed3c
000000a0: 3423 163e 570d 673c f74f e43a 5cea 313d
000000b0: bce7 183d 5021 ae3d 39ab bf3b aefb 833d
000000c0: bba6 35bd 33c6 8c3d 3c22 423d 480b 013d
000000d0: d614 973d f894 d53d 3956 aabc 8fe8 063d
000000e0: dd01 73bc ec3d 2a3d 5a3c c3bd d59a 94ba
000000f0: b823 b0bd 9c0f 10ba 8142 e5bd 11b0 0abd
00000100: 8934 5e3d 6017 fdbd 10f2 07bd 1a81 e43d
00000110: 4251 ccbc 234d 45bd 5193 813d b193 803d
00000120: 4661 ad3d 455f 0f3c e63a 41bd 8d75 02bd
00000130: 227b a5bd d9de 063d 5422 a2bc a2f9 0a3d
00000140: 9c39 323d 7b2e 67bd adad 0bbd 4b3a bfbc
00000150: 44d9 0a3d d1e4 fa3b 62da f8bd 3001 47bd
00000160: 8af5 69ba c7bb b03c d7f0 87bc 2d18 053e
00000170: 1360 95bd b1d3 573d 9e82 c4bc ba62 143d
00000180: edaf 903d 522d 73bd 8a15 2fbd b35e 283d
00000190: f439 9f3b c19c 2cbd 20e2 be3d f828 b3bd
000001a0: 0926 69bd e98c 873d 4370 503d 8472 e5bc
000001b0: 9f5d 22bd a0cd 98bd c542 193d 7398 8fbd
000001c0: acfa 71bd 3761 97bb e34f 8a3c 28bf 33bd
000001d0: 8fb5 023b 7d73 c33d 77df 9f3d 3063 af3d
000001e0: 6d05 6abd 1044 6b3d f034 ba3c f728 0b3e
000001f0: 741e 86bd 0380 a0bc 44b5 7f3d 0b53 993d
00000200: e8bd 91bd a360 cabb ad6c 943d cceb 9e3d
00000210: 5dc9 cabd 557a 603a aee4 ba3c 0ac3 38bb
00000220: 3131 a03d ad1a febc c8fd 573b 313b 69bd
00000230: 9b93 1abd a589 5d3d 8806 8ebc 03ea d4bc
00000240: fe19 973b 362b 6fbd 613f 053d 983d c83c
00000250: be55 ec3b 6cc1 1fbd d944 ffbb 8371 b6bc
00000260: 4738 6b3d eabf cebc 3211 ba3c 5fe6 89bd
00000270: 5065 42bd a68b 90bd 6135 96bc 65ae aabd
00000280: 69c0 1d3d 225b 9dbd 8abc bfbc d0a7 9f3c
00000290: 6e9d 1cbd c6b0 863d bd4d 883d f768 b2bc
000002a0: 2789 abbc 6a61 d33d eabd 823d ef53 243e
000002b0: 64ec d43d 679d c63c 347a 7abd b44e b43c
000002c0: 0c1e 903d 32dd 053e db26 2abd c44f 1d3d
000002d0: c6f4 543d b995 633d 7f8a 093d 8290 27bd
000002e0: 5edd 9dba 0cd8 e93c c621 9b3d 9a38 273c
000002f0: 92a7 ae3b 6f98 433c 1ec0 233d 350a 9f3d
00000300: a26f 78bc 3470 933d d387 993d 50a7 6d3d
00000310: 002d afbd 06c2 ae3c 8966 4f3d bd7f 10bc
00000320: 07a4 a9bb cdf9 75bc bd58 e0bc 06e5 cebc
00000330: 62d7 dd3d 0074 02bc 231c 61bd 8e4b 7bbc
00000340: a776 5b3c 29e1 9a3d e230 31bd 1371 f6bb
00000350: 74c2 fabc 10dd cf3c 8b58 70bd f1db b8bd
00000360: 8789 b8bd 0d44 953d cd3e 42bd b91a 7a3d
00000370: f687 dcbc 62b3 3c3d 1d04 e0bd d22f 3d3d
00000380: 272c b0bd a4a2 8cbc d37d 48bd 410c 903c
00000390: 546e b4bd 4e25 b5bc 5974 54bc baf0 36bd
000003a0: e171 0d3d 5408 d73d a5d6 6c3d e43a df3d
000003b0: 8253 243d e125 2c3d 6a16 aa3d f8f8 7c3d
000003c0: ca06 30bd bdb4 d93b 7c2b 573c e4a0 11bd
000003d0: 74c3 23bd 11fd 4e3d 4a7b 7fbd 9e28 e63c
000003e0: 55c0 8fbd d7b2 423d 823d b23d cada bd3d
000003f0: 3870 82bd e7f5 c0bd acf0 80bd 4f30 89bd

L1.bias f4 [256]
-0.08151103 -0.018486837 0.06130549 -0.016891927 -0.021760253 -0.061012942 0.032622326 0.04168682
-0.052450754 -0.076990455 -0.02318422 0.06057728 -0.06438044 -0.035756603 -0.085101634 -0.009849096
0.018541578 0.035232782 -0.041353945 0.08281477 0.0072962423 -0.06188628 0.017396731 0.03182982
0.055900168 0.061403275 -0.022077354 -0.0173732 -0.043322206 0.03538683 -0.06613754 -0.023198627
-0.014002237 -0.071003556 0.033517268 0.019709924 0.073789015 -0.05374059 0.07803066 0.03652646
-0.026835235 -0.066043235 -0.08186334 0.031720936 -0.04221062 -0.025029784 -0.033827826 -0.016279962
0.007423801 0.07449847 0.056573357 0.06442828 0.0048458623 -0.02666146 -0.03987806 0.04994285
-0.007334923 0.033863142 -0.07757419 0.04369939 -0.045316815 -0.009381198 0.06964226 0.052830044
-0.05016685 0.07156868 -0.07020202 0.03964161 0.0139924195 0.079794854 0.0087231435 -0.018757556
0.07384513 -0.05132058 0.060029656 -0.032651726 -0.011689946 -0.037395652 0.056731064 -0.05439619
-0.02460957 0.0060968176 0.07699863 -0.011830491 -0.037106182 -0.009876333 0.019572482 -0.03821684
0.08608445 0.0350294 -0.030714536 0.05066363 -0.025175052 0.018990297 -0.015181504 -0.06746708
-0.07230859 -0.07549478 -0.048091754 -0.005350951 0.011271282 0.01431062 0.038908374 0.0053611584
0.08435848 -0.020290645 0.018219035 0.0178047 0.04268289 0.06921416 0.032496054 0.043135133
0.07675586 0.04191162 0.07875588 0.04408818 0.041807774 -0.01082316 -0.05386518 0.076953314
0.044652693 0.025920605 0.035055097 -0.023960082 -0.010244763 0.069169804 0.022619797 -0.083978705
0.07011818 0.0257362 -0.042448413 -0.038744286 -0.06456809 0.081082225 -0.040763624 -0.03899517
0.027720528 -0.03459563 0.04552809 -0.030424817 -0.020744892 -0.026816696 0.0049166414 0.043455772
-0.013557389 0.06805927 -0.08554292 -0.06629845 0.024407772 -0.006522476 -0.01314377 0.0248407
-0.070720814 -0.009174324 -0.061515957 0.07717268 0.018875912 0.051576253 -0.05564096 -0.020733941
0.046497203 0.07322627 -0.072379805 -0.023460876 -0.015540874 0.08027697 -0.053667907 0.031999193
0.06339044 -0.065569475 0.081570484 -0.08514165 -0.063636415 -0.025092099 0.00432568 0.0031179378
0.06448067 0.07456353 -0.023569047 0.020132393 -0.030409366 0.024587125 -0.0017956776 0.040437557
0.001521646 -0.026888559 0.03705086 0.06254154 -0.04039853 0.023132827 0.00010916402 -0.024995407
0.0369433 0.049402565 0.038918216 -0.07377088 -0.03140487 0.07160841 0.049600445 0.048798952
-0.052488383 0.031098245 -0.010901237 -0.033554047 0.051602714 0.083262354 0.038760398 0.06340695
-0.049560577 0.042625155 -0.08006337 -0.020854391 -0.020761872 -0.071289584 -0.02716408 0.06542982
-0.04253649 0.07476393 0.04299702 -0.034911986 0.048753586 -0.0805721 0.036275312 -0.041205294
-0.06844166 0.085283 -0.0033496185 -0.053306893 0.085618235 0.021693515 -0.013106573 -0.03274863
0.07810372 0.04810993 0.07821808 0.031559814 0.06814886 -0.0008116827 0.019335521 0.021830881
0.08193748 0.06497262 0.051809624 -0.08338403 0.06344918 0.047326554 -0.019235114 0.015919778
-0.08511523 -0.04836642 0.06693147 -0.07986554 0.0005105631 0.0153812375 -0.0041138795 -0.050571103
00000000: 41ef a6bd b571 97bc 771b 7b3d f060 8abc
00000010: 8f42 b2bc b5e8 79bd fd9e 053d cdbf 2a3d
00000020: 9ad6 56bd 2cad 9dbd d5ec bdbc e21f 783d
00000030: e4d9 83bd 8475 12bd c449 aebd 1a5e 21bc
00000040: 82e4 973c 4050 103d c162 29bd ca9a a93d
00000050: 5115 ef3b 787c 7dbd 9783 8e3c fc5f 023d
00000060: 93f7 643d 0082 7b3d 91db b4bc 3e52 8ebc
00000070: a072 31bd c8f1 103d 1e73 87bd 0c0b bebc
00000080: a369 65bc 506a 91bd 6749 093d b576 a13c
00000090: b21e 973d 181f 5cbd 8ace 9f3d c59c 153d
000000a0: 91d5 dbbc ad41 87bd f8a7 a7bd d0ed 013d
000000b0: 0be5 2cbd 430b cdbc 0c8f 0abd 8e5d 85bc
000000c0: 5b43 f33b a792 983d 77b9 673d f9f2 833d
000000d0: 0aca 9e3b 2269 dabc 2d57 23bd e090 4c3d
000000e0: cb59 f0bb 14b4 0a3d 38df 9ebd 22fe 323d
000000f0: 209e 39bd 99b3 19bc 9aa0 8e3d 5164 583d
00000100: c17b 4dbd 9a92 923d 14c6 8fbd 3e5f 223d
00000110: 7640 653c 7c6b a33d 84eb 0e3c 72a9 99bc
00000120: 1e3c 973d 8735 52bd a8e1 753d d1bd 05bd
00000130: 3087 3fbc 2f2c 19bd d55e 683d 8ace 5ebd
00000140: 029a c9bc d0c7 c73b 75b1 9d3d add4 41bc
00000150: a7fc 17bd 58d0 21bc 7856 a03c 4389 1cbd
00000160: 0b4d b03d fd7a 0f3d 0d9d fbbc ab84 4f3d
00000170: e93b cebc 8a91 9b3c d8bb 78bc 2e2c 8abd
00000180: 8716 94bd 029d 9abd dcfb 44bd 0857 afbb
00000190: 2fab 383c 1777 6a3c 635e 1f3d a8ac af3b
000001a0: 24c4 ac3d 9138 a6bc 1640 953c 2adb 913c
000001b0: 41d4 2e3d 27c0 8d3d 951a 053d 77ae 303d
000001c0: 2d32 9d3d 85ab 2b3d c34a a13d cf95 343d
000001d0: a13e 2b3d a053 31bc bca1 5cbd b399 9d3d
000001e0: bee5 363d 7357 d43c ef95 0f3d ef47 c4bc
000001f0: a7d9 27bc e6a8 8d3d 274d b93c 07fd abbd
00000200: 1f9a 8f3d b9d4 d23c 63de 2dbd 54b2 1ebd
00000210: 463c 84bd 700e a63d c2f7 26bd 66b9 1fbd
00000220: 2916 e33c 26b4 0dbd aa7b 3a3d 773d f9bc
00000230: 31f1 a9bc b0ae dbbc c71b a13b aefe 313d
00000240: d01f 5ebc a962 8b3d 2031 afbd 7bc7 87bd
00000250: cff2 c73c 7fba d5bb f858 57bc b97e cb3c
00000260: 13d6 90bd e74f 16bc 28f8 7bbd b60c 9e3d
00000270: a8a1 9a3c 9f41 533d c6e7 63bd 3ada a9bc
00000280: da73 3e3d a8f7 953d dd3b 94bd 0631 c0bc
00000290: 269f 7ebc 4168 a43d e1d2 5bbd 9611 033d
000002a0: d9d2 813d 4a49 86bd 6d0e a73d bf5e aebd
000002b0: cf53 82bd f28d cdbc 6fbe 8d3b 5156 4c3b
000002c0: 710e 843d c4b4 983d e013 c1bc b0ec a43c
000002d0: 101d f9bc f06a c93c f15c ebba daa1 253d
000002e0: f871 c73a 6545 dcbc a4c2 173d c715 803d
000002f0: ee78 25bd 0e81 bd3c fdee e438 2bc3 ccbc
00000300: dc51 173d 585a 4a3d b568 1f3d 3015 97bd
00000310: 65a2 00bd 6ea7 923d d629 4b3d 69e1 473d
00000320: 0ffe 56bd bfc1 fe3c 1a9b 32bc f86f 09bd
00000330: 5e5d 533d 7485 aa3d 39c3 1e3d 81db 813d
00000340: 0800 4bbd b797 2e3d 44f8 a3bd d4d6 aabc
00000350: cd14 aabc 4600 92bd 3487 debc 1200 863d
00000360: be3a 2ebd d51d 993d a51d 303d dfff 0ebd
00000370: d7b1 473d fc02 a5bd 6c95 143d e2c6 28bd
00000380: 242b 8cbd daa8 ae3d 4685 5bbb 5458 5abd
00000390: 9d58 af3d 99b6 b13c f4bc 56bc 6d23 06bd
000003a0: d8f4 9f3d eb0e 453d cd30 a03d dd44 013d
000003b0: a191 8b3d 1bc7 54ba 8765 9e3c add6 b23c
000003c0: d6ce a73d 5d10 853d 5436 543d 3fc5 aabd
000003d0: a5f1 813d 7dd9 413d f592 9dbc 326a 823c
000003e0: e550 aebd de1b 46bd 5e13 893d 8b90 a3bd
000003f0: 4fd7 053a 9601 7c3c b9cd 86bb a523 4fbd

BN1.weight f4 [256]
0.99321556 0.99282163 0.98957294 0.9820524 0.9910673 1.0081258 1.0148324 0.99623847
1.0036875 0.9981223 0.9901166 0.98289984 0.99311656 0.9939421 1.0148972 1.0091908
1.0112116 0.9987944 0.9897049 1.0038944 0.9971335 0.9864353 1.0391719 1.0173774
1.0201397 1.0108283 1.0089619 1.0032612 1.0271233 1.0121549 1.0224311 1.0004123
1.0256233 0.9805612 0.9803709 1.0039651 1.0172406 1.0230592 1.0005668 1.0016469
1.0120828 1.0127895 1.0099022 1.0285441 0.99940926 1.013287 1.0030795 0.9907912
1.0272703 0.9864457 0.9836688 0.99172825 0.97622085 1.0093254 0.9994748 1.0019798
1.0040076 1.012659 1.001025 1.0297759 0.9959227 1.0043057 1.0203139 1.0287352
0.9808151 0.9933394 0.9910531 1.0114174 1.0047059 1.0277927 1.0054039 0.9823116
1.0151119 1.0317552 1.0056198 0.9975311 0.9994123 1.0234066 1.0182747 0.99839693
1.0100776 0.9943077 0.99803346 0.9963193 1.0012026 1.0030507 1.0053247 1.0117275
1.0257956 1.0022758 1.0154262 1.0249345 1.004181 1.0037527 1.0145211 1.0143558
1.0030061 1.0041137 1.008678 1.0151154 0.9973453 0.9991517 1.0048494 1.0199327
1.0140636 1.0224364 0.9864332 1.0121859 1.0109037 1.0260324 1.0007542 1.0134691
0.99460953 1.0188527 1.0108525 1.0298923 1.0326395 1.0019377 0.9946302 0.992559
0.9984512 0.9731783 1.0221449 0.997084 1.001526 0.99362713 1.0058883 1.0197016
0.9948144 0.99769986 0.99061924 0.9959603 1.0028409 1.0093794 1.0086803 1.0240206
1.0198475 0.9887455 1.0026485 0.98789537 1.0221752 0.99868864 1.005139 1.0037446
1.0198846 1.0077751 1.0056411 1.0219622 1.0097257 1.0053096 1.019617 0.98995227
1.000265 0.9863937 1.0126122 0.9908408 0.9971799 1.014858 0.9864625 1.0008831
0.98862356 1.0174565 0.9884678 1.0114787 1.0104368 0.9949069 1.0452133 0.9813199
1.0155919 0.9992059 1.0202602 0.985397 1.0052487 1.0022901 0.9972914 0.9983919
0.9935218 0.9992724 0.9938889 1.0136056 1.0104239 1.0076073 1.0118718 0.99021125
1.0023358 1.0166161 1.0014757 0.98879594 1.0139624 1.0091362 0.9970689 0.9997361
1.0032352 1.004473 1.0015324 1.0198435 1.0403675 1.0094266 1.0241607 1.0044388
1.0047392 1.0067683 1.0073665 0.9864448 1.0175977 0.990275 0.99240315 0.98825794
0.99436545 1.0108094 1.0277673 1.0062135 0.9978367 1.0019088 1.0244125 0.9949719
1.0101357 1.0083075 1.0106882 0.9895197 1.028525 0.98142576 0.99574417 1.0012826
1.0089957 0.9931451 0.99846905 0.9945974 1.0114262 1.0326968 0.997612 1.0154787
1.0492814 0.98986465 0.9919544 1.00378 1.0391505 1.0229179 0.998598 0.9644655
0.9840195 0.99010664 1.002983 1.0291493 0.9907891 0.98891133 0.99353665 0.99836284
1.0150739 1.0123752 0.9948923 0.9954503 0.99712086 1.0013779 1.026565 1.0332203
00000000: 6043 7e3f 8f29 7e3f a754 7d3f c967 7b3f
00000010: 96b6 7d3f 440a 813f 07e6 813f 7c09 7f3f
00000020: d578 803f f184 7f3f 4878 7d3f 539f 7b3f
00000030: e33c 7e3f fd72 7e3f 27e8 813f 2a2d 813f
00000040: 626f 813f fdb0 7f3f 4d5d 7d3f 9d7f 803f
00000050: 2444 7f3f 0687 7c3f 9603 853f 6c39 823f
00000060: f093 823f d262 813f aa25 813f dd6a 803f
00000070: c778 833f 4b8e 813f 06df 823f 830d 803f
00000080: a047 833f 0f06 7b3f 96f9 7a3f ee81 803f
00000090: f134 823f 9bf3 823f 9312 803f f735 803f
000000a0: ee8b 813f 16a3 813f 7a44 813f 55a7 833f
000000b0: 49d9 7f3f 63b3 813f e964 803f 7ea4 7d3f
000000c0: 987d 833f b587 7c3f b8d1 7b3f e7e1 7d3f
000000d0: 9ce9 793f 9331 813f 95dd 7f3f e040 803f
000000e0: 5283 803f cf9e 813f 9621 803f b2cf 833f
000000f0: caf4 7e3f 178d 803f a599 823f 98ad 833f
00000100: b316 7b3f 7e4b 7e3f a8b5 7d3f 2076 813f
00000110: 349a 803f b68e 833f 13b1 803f c678 7b3f
00000120: 30ef 813f 8e10 843f 26b8 803f 335e 7f3f
00000130: 7cd9 7f3f fdfe 823f d356 823f f196 7f3f
00000140: 394a 813f f38a 7e3f 1f7f 7f3f c80e 7f3f
00000150: 6827 803f f763 803f 7bae 803f 4980 813f
00000160: 454d 833f 934a 803f 7cf9 813f 0e31 833f
00000170: 0189 803f f87a 803f d4db 813f 69d6 813f
00000180: 8162 803f cc86 803f 5c1c 813f 4def 813f
00000190: 0652 7f3f 68c8 7f3f e89e 803f 288d 823f
000001a0: d6cc 813f 32df 823f e386 7c3f 4f8f 813f
000001b0: 4b65 813f 0855 833f b718 803f 5bb9 813f
000001c0: bb9e 7e3f c469 823f 9d63 813f 83d3 833f
000001d0: 882d 843f 7f3f 803f 16a0 7e3f 5918 7e3f
000001e0: 7f9a 7f3f 3722 793f a5d5 823f e640 7f3f
000001f0: 0132 803f 595e 7e3f f3c0 803f 9585 823f
00000200: 28ac 7e3f 4269 7f3f 3999 7d3f 41f7 7e3f
00000210: 175d 803f 5833 813f 701c 813f 1b13 833f
00000220: 5d8a 823f 6d1e 7d3f c956 803f b6e6 7c3f
00000230: a3d6 823f 0faa 7f3f 65a8 803f b47a 803f
00000240: 948b 823f c6fe 803f d9b8 803f a8cf 823f
00000250: b13e 813f fcad 803f cf82 823f 836d 7d3f
00000260: af08 803f 4c84 7c3f 479d 813f bea7 7d3f
00000270: 2f47 7f3f dee6 813f ce88 7c3f f01c 803f
00000280: 6f16 7d3f 043c 823f 3a0c 7d3f 2278 813f
00000290: fe55 813f 38b2 7e3f 8dc9 853f c837 7b3f
000002a0: eafe 813f f5cb 7f3f e397 823f fa42 7c3f
000002b0: fdab 803f 0b4b 803f 7d4e 7f3f 9d96 7f3f
000002c0: 7257 7e3f 51d0 7f3f 816f 7e3f d4bd 813f
000002d0: 9255 813f 47f9 803f 0485 813f 7c7e 7d3f
000002e0: 8a4c 803f 7a20 823f 5b30 803f bb21 7d3f
000002f0: 85c9 813f 602b 813f e83f 7f3f b4ee 7f3f
00000300: 036a 803f 9292 803f 3732 803f 3b8a 823f
00000310: c32a 853f e434 813f b317 833f 7391 803f
00000320: 4b9b 803f c9dd 803f 63f1 803f a587 7c3f
00000330: a440 823f aa82 7d3f 220e 7e3f 79fe 7c3f
00000340: bc8e 7e3f 3462 813f e18d 833f 9bcb 803f
00000350: 3a72 7f3f 8c3e 803f f31f 833f 7ab6 7e3f
00000360: 204c 813f 3810 813f 3b5e 813f 2a51 7d3f
00000370: b5a6 833f b83e 7b3f 17e9 7e3f 072a 803f
00000380: c526 813f c23e 7e3f ab9b 7f3f ef9d 7e3f
00000390: 6a76 813f 692f 843f 8063 7f3f 35fb 813f
000003a0: da4e 863f c567 7d3f b9f0 7d3f dd7b 803f
000003b0: e202 853f f9ee 823f 1ea4 7f3f 36e7 763f
000003c0: b4e8 7b3f a177 7d3f bf61 803f 2abb 833f
000003d0: 5ba4 7d3f 4b29 7d3f 6b58 7e3f b594 7f3f
000003e0: f1ed 813f 8395 813f 43b1 7e3f d5d5 7e3f
000003f0: 5043 7f3f 272d 803f 7b66 833f 9040 843f

BN1.bias f4 [256]
0.026993534 -0.031257357 -0.008226898 0.072107166 0.03854113 -0.047784735 -0.0032676489 -0.043217517
-0.022202114 0.019789664 0.027919155 0.014039613 0.026339862 -0.05116763 -0.038702134 -0.01575684
-0.01339169 -0.016279055 0.004591988 -0.0086564515 0.011858865 0.023646737 -0.059013933 -0.027822914
-0.0015141176 -0.029545737 -0.027832601 0.008962515 -0.035739843 -0.040320653 -0.053732116 -0.004151988
-0.045808926 0.053949222 0.00979366 0.026054973 -0.024478968 -0.030395607 -0.021768535 -0.024023982
-0.03401868 -0.039233144 -0.041551787 -0.05875552 0.007291325 -0.012615583 -0.07422149 -0.004028251
-0.04136936 -0.019334255 0.020216132 0.042606145 0.05299806 -0.04714404 0.011230665 -0.025193907
-0.03288795 -0.023237735 0.00908139 -0.04551239 0.02013275 -0.023490448 -0.014838639 -0.039011497
0.0022761805 0.011894879 0.03207502 -0.032966457 4.8442278e-05 -0.008420866 0.03928556 0.043439526
-0.01811259 0.00063084444 0.0059812404 0.006421716 -0.021446388 -0.061046403 -0.061179753 -0.009026554
-0.016813485 0.021066412 -0.025637068 -0.04763258 -0.018390777 0.051338032 0.0058692386 0.0011860827
-0.04123254 -0.0048285904 -0.02748209 -0.05109445 -0.013439642 -0.03647121 -0.0006669019 -0.1127169
0.019614175 -0.016728502 0.024763336 -0.1218982 -0.027601529 0.017481977 -0.07404436 -0.045444917
-0.011989247 -0.03737924 -0.0063864114 0.0030189229 -0.010760823 -0.04859081 -0.02158089 -0.035563957
-0.01665901 -0.0023810475 -0.020786464 -0.0682387 -0.013323752 -0.01854754 -0.044103637 0.07693513
0.019444058 -0.0054593533 -0.0687941 0.006797614 -0.009553376 0.042282384 -0.022551445 -0.070547104
0.011408646 0.0036939266 -0.00039765483 0.04080575 0.026479261 -0.023038154 -0.010000446 -0.0705369
-0.06056415 -0.00061106007 -0.026968995 0.018532168 -0.05847657 0.012516593 -0.03697633 -0.07036228
-1.3248674e-05 -0.042090707 -0.00078881416 -0.056634124 -0.034330558 0.0057097706 -0.04260003 -0.009398319
-0.027802479 0.04030286 -0.030906918 0.008027253 -0.0059243003 -0.013103563 -0.022724647 -0.02181832
-0.0026032305 -0.048328035 0.034137543 -0.0045876577 -0.040079307 -0.031233642 -0.050729882 -0.010087729
0.00070282444 -0.014968876 0.02201743 -0.0049068118 -0.027997816 -0.022529738 0.010759207 0.042855635
0.021169974 -0.06388912 -0.009703576 0.0027853174 -0.0016990996 -0.01680009 -0.06548475 0.06092456
-0.0022577043 -0.03247459 0.0036727341 0.0009809813 -0.03195879 -0.0007401713 0.010737455 -0.0030465208
-0.024371935 0.012981307 0.0065506683 -0.024720095 -0.05357314 -0.10166367 -0.098960035 -0.023264349
-0.00018835664 -0.046796948 -0.0437573 0.010073861 -0.045374647 -0.018013291 0.019484429 -0.008869041
-0.0011959376 0.008524101 -0.07517163 -0.02413621 -0.03082682 -0.035653487 -0.058225892 -0.0086663505
-0.021117225 -0.035119247 -0.059068356 0.02445225 -0.03987699 -0.00782004 0.014320675 -0.042913113
-0.048465952 0.04122816 -0.026222475 0.0023147105 -0.01724964 -0.07726542 -0.03154754 -0.02732742
-0.029047929 0.010411063 0.012248379 -0.038995877 -0.024676194 -0.03923153 -0.01951758 -0.0018875147
0.035438363 0.014049192 -0.029360393 -0.028582938 -0.007978008 -0.0036259938 -0.034522206 -0.013749797
-0.06448812 -0.049710143 0.028460545 -0.010889734 -0.04054523 -0.027686391 -0.031178955 -0.023835914
00000000: 8b21 dd3c b707 00bd 1cca 06bc ecac 933d
00000010: 4edd 1d3d edb9 43bd 0d26 56bb da04 31bd
00000020: 35e1 b5bc ef1d a23c b6b6 e43c 6806 663c
00000030: b2c6 d73c 2695 51bd 2186 1ebd 7d14 81bc
00000040: d268 5bbc a75b 85bc 6378 963b cad3 0dbc
00000050: af4b 423c cdb6 c13c 98b8 71bd e1ec e3bc
00000060: 5b75 c6ba e709 f2bc 3201 e4bc 83d7 123c
00000070: f163 12bd 4527 25bd 3516 5cbd 660d 88bb
00000080: 24a2 3bbd dcf9 5c3d 9675 203c 3d71 d53c
00000090: 1e88 c8bc 3500 f9bc ed53 b2bc f1cd c4bc
000000a0: 2c57 0bbd efb2 20bd 3532 2abd a1a9 70bd
000000b0: 11ec ee3b 97b1 4ebc 7001 98bd 6bff 83bb
000000c0: eb72 29bd df62 9ebc 4d9c a53c c883 2e3d
000000d0: 7e14 593d 1c1a 41bd d300 383c 7463 cebc
000000e0: 84b5 06bd 105d bebc 1cca 143c 336b 3abd
000000f0: 70ed a43c 0a6f c0bc c31d 73bc 85ca 1fbd
00000100: f92b 153b bde2 423c 1961 033d d607 07bd
00000110: 802e 4b38 acf7 09bc e5e9 203d a5ed 313d
00000120: db60 94bc 415f 253a 48fe c33b 426d d23b
00000130: 56b0 afbc cb0b 7abd 9f97 7abd 1de4 13bc
00000140: 6fbc 89bc 7893 ac3c d404 d2bc 611a 43bd
00000150: 41a8 96bc d447 523d be52 c03b 5576 9b3a
00000160: 74e3 28bd 2739 9ebb 1f22 e1bc 6a48 51bd
00000170: f231 5cbc d662 15bd 07d3 2eba 1ed8 e6bd
00000180: e8ad a03c 360a 89bc 7bdc ca3c c3a5 f9bd
00000190: 9a1c e2bc 5d36 8f3c 92a4 97bd 7324 3abd
000001a0: 8c6e 44bc f91a 19bd 1a45 d1bb 1fd9 453b
000001b0: 2a4e 30bc 2807 47bd 68ca b0bc 83ab 11bd
000001c0: 7a78 88bc 590b 1cbb 6048 aabc bbc0 8bbd
000001d0: de4b 5abc 03f1 97bc 04a6 34bd 2a90 9d3d
000001e0: 2549 9f3c 60e4 b2bb ece3 8cbd 85be de3b
000001f0: c385 1cbc 4b30 2d3d cfbd b8bc 007b 90bd
00000200: 54eb 3a3c ce15 723b 547c d0b9 ee23 273d
00000210: 09eb d83c 83ba bcbc e9d8 23bc a675 90bd
00000220: 1d12 78bd 8c2f 20ba 15ee dcbc c6d0 973c
00000230: 2185 6fbd 6512 4d3c 7e74 17bd 191a 90bd
00000240: 9f46 5eb7 4e67 2cbd 6cc8 4eba 2ff9 67bd
00000250: 339e 0cbd 0719 bb3b 5e7d 2ebd 68fb 19bc
00000260: 06c2 e3bc 9d14 253d 8130 fdbc bd84 033c
00000270: a220 c2bb 54b0 56bc 0a29 babc 55bc b2bc
00000280: f69a 2abb 9ef3 45bd cfd3 0b3d 1054 96bb
00000290: 332a 24bd b2dd ffbc 23ca 4fbd 0147 25bc
000002a0: c03d 383a 0440 75bc e65d b43c 52c9 a0bb
000002b0: ad5b e5bc 4990 b8bc 6347 303c 6489 2f3d
000002c0: a76c ad3c 4dd8 82bd bffb 1ebc df89 363b
000002d0: 52b4 deba 58a0 89bc de1c 86bd 088c 793d
000002e0: fef5 13bb 1304 05bd 41b2 703b 4594 803a
000002f0: 38e7 02bd 0e08 42ba 27ec 2f3c 23a8 47bb
00000300: a7a7 c7bc 8caf 543c fda6 d63b cc81 cabc
00000310: 826f 5bbd 0b35 d0bd 8fab cabd e094 bebc
00000320: 9a81 45b9 28ae 3fbd db3a 33bd d60c 253c
00000330: c4da 39bd 9c90 93bc cf9d 9f3c 744f 11bc
00000340: 02c1 9cba aca8 0b3c 95f3 99bd 4db9 c5bc
00000350: 8788 fcbc 6409 12bd 467e 6ebd 4ffd 0dbc
00000360: 08fe acbc 33d9 0fbd a9f1 71bd 1650 c83c
00000370: 0e56 23bd a01f 00bc 44a1 6a3c a9c5 2fbd
00000380: 3c84 46bd dcde 283d 84d0 d6bc 66b2 173b
00000390: 1e4f 8dbc 553d 9ebd fe37 01bd c1dd dfbc
000003a0: ecf5 edbc 2a93 2a3c 6dad 483c 24ba 1fbd
000003b0: bb25 cabc 3eb1 20bd 55e3 9fbc 7c66 f7ba
000003c0: d127 113d 952e 663c 3585 f0bc c426 eabc
000003d0: 31b6 02bc 15a2 6dbb 2867 0dbd d446 61bc
000003e0: 5912 84bd dd9c 4bbd 1726 e93c db6a 32bc
000003f0: c112 26bd 92ce e2bc 026b ffbc 8943 c3bc

BN1.running_mean f4 [256]
-10.835235 4.8887067 6.2182145 6.8438196 -8.499555 8.608833 24.255472 12.51141
8.923569 -2.211286 4.994814 18.756958 8.586793 -5.0124564 -0.9545191 2.1472008
14.958021 -11.35544 11.564381 12.518263 -2.700792 11.823775 2.510469 5.7606387
-1.69094 0.58253336 -6.725567 6.491925 -4.549788 -1.4014214 5.075361 -5.221377
7.5634174 -0.18429826 7.870927 -9.288064 -9.955926 3.6893651 1.5907542 -4.10582
12.2264 15.830643 5.9983673 1.9280595 -7.31446 2.077752 11.752254 1.2747809
-10.140557 -6.80036 -7.3867145 -7.022256 6.2225943 -15.453693 4.0354023 3.8245096
-2.9513533 7.1675434 -9.677328 6.4736333 2.8823128 -15.812254 2.7545466 -4.4412336
-0.6948882 -2.0814605 13.454675 4.791953 -11.583868 1.0508993 -2.0749512 -8.3050165
-2.4396002 9.902162 -13.555579 8.665046 8.047793 -5.845297 7.8862185 -4.4447327
2.493654 -0.5949365 5.8577485 10.818008 -4.369492 -0.08007508 -11.39139 2.8898299
-0.9016078 4.26516 4.2290587 11.120235 1.158821 -7.3794746 -0.49323285 5.3868165
4.756245 0.042032734 -11.861733 -5.998297 6.2849755 -1.7640234 5.208216 4.357169
16.413586 -1.2551608 -8.290058 -6.7828503 -1.2705836 9.040707 -12.408074 -6.668548
8.373153 -15.136299 3.2390459 8.167808 -9.979714 -13.069176 2.113079 -10.145475
-8.918071 -15.488031 4.9876757 -5.0103 1.4101794 -7.0604553 -5.448447 -0.5865927
-5.6017222 -11.499812 -1.4980807 -11.357334 1.1528977 -1.5924436 0.4389755 10.332569
-0.21909265 -0.8642014 3.9786217 15.4356785 -6.3108253 -10.5141 4.902084 11.084828
0.49912444 0.68387264 -9.600568 0.73385 -2.259845 2.911223 -1.5082946 -3.0473638
-8.309908 10.14446 -1.4191089 -8.296182 -3.3261359 -16.046213 -12.56756 11.152314
-2.265727 -0.45646843 -10.669734 10.498598 -12.797139 -8.840469 0.036574446 16.948286
-18.452036 -2.2010713 -0.74739355 12.786542 15.077002 2.1678314 -0.9166328 -5.17222
-0.8680812 9.36888 4.7575026 -17.073887 -9.746635 -1.332242 12.400332 15.285096
4.119492 -8.723834 8.713275 5.395559 1.4885197 3.0974598 6.736464 -6.029085
-8.76116 3.290919 3.1916728 -8.048782 1.0298244 -10.526583 18.55013 -3.613797
-13.039188 -9.961784 3.0410428 -6.529484 -8.825772 14.034398 13.551783 -13.027748
4.9487906 -0.27258915 -11.29544 3.0715413 2.9558225 -6.4719934 -0.78826916 2.392949
3.1060128 -2.5780566 0.3195981 -3.559818 -5.6042237 -14.1222 -2.4928668 0.7431186
-5.4427633 1.5247439 -3.3245966 -10.411561 2.4188764 -8.498371 6.9557676 1.9943688
2.939301 -14.840029 0.7768508 0.7626294 -7.9855275 3.6425889 -3.9045866 21.760893
-2.6060963 7.1580505 -2.2500196 7.569233 4.668845 0.98783106 -8.546271 -4.2690144
-19.289267 6.258941 17.403048 -5.179802 -9.623252 -5.701142 7.7805023 -7.7153606
00000000: 1f5d 2dc1 4970 9c40 9dfb c640 9200 db40
00000010: 2dfe 07c1 c8bd 0941 350b c241 bc2e 4841
00000020: f0c6 0e41 b685 0dc0 84d5 9f40 400e 9641
00000030: 8163 0941 0b66 a0c0 5d5b 74bf bd6b 0940
00000040: 0e54 6f41 e2af 35c1 b407 3941 ce4a 4841
00000050: c7d9 2cc0 2f2e 3d41 86ab 2040 2757 b840
00000060: b970 d8bf e820 153f d837 d7c0 d9bd cf40
00000070: dd97 91c0 c761 b3bf 5b69 a240 8515 a7c0
00000080: 8407 f240 afb8 3cbe a2de fb40 e99b 14c1
00000090: 794b 1fc1 8f1e 6c40 d59d cb3f e162 83c0
000000a0: 569f 4341 504a 7d41 a0f2 bf40 a7ca f63f
000000b0: 0e10 eac0 e4f9 0440 3b09 3c41 052c a33f
000000c0: b93f 22c1 8d9c d9c0 f75f ecc0 52b6 e0c0
000000d0: 7e1f c740 5442 77c1 0422 8140 c4c4 7440
000000e0: f9e2 3cc0 845c e540 56d6 1ac1 0128 cf40
000000f0: d077 3840 fefe 7cc1 7e4a 3040 961e 8ec0
00000100: 31e4 31bf a636 05c0 5946 5741 ae57 9940
00000110: 8657 39c1 de83 863f 00cc 04c0 59e1 04c1
00000120: 6922 1cc0 416f 1e41 a7e3 58c1 07a4 0a41
00000130: c3c3 0041 ac0c bbc0 e75b fc40 403b 8ec0
00000140: 0798 1f40 c24d 18bf ad72 bb40 9016 2d41
00000150: e1d2 8bc0 67fe a3bd 2243 36c1 f9f2 3840
00000160: c5cf 66bf 317c 8840 7354 8740 7cec 3141
00000170: 3f54 943f a824 ecc0 0489 fcbe cd60 ac40
00000180: 2933 9840 842a 2c3d a9c9 3dc1 0df2 bfc0
00000190: 851e c940 85cb e1bf b5a9 a640 ee6d 8b40
000001a0: 064f 8341 1ca9 a0bf 14a4 04c1 1c0d d9c0
000001b0: 7ca2 a2bf bca6 1041 7987 46c1 bf64 d5c0
000001c0: 6ff8 0541 482e 72c1 874c 4f40 57af 0241
000001d0: e9ac 1fc1 581b 51c1 b03c 0740 de53 22c1
000001e0: 6bb0 0ec1 face 77c1 0a9b 9f40 6154 a0c0
000001f0: c280 b43f 40ef e1c0 ae59 aec0 f02a 16bf
00000200: 4f41 b3c0 3bff 37c1 1cc1 bfbf a4b7 35c1
00000210: 2792 933f 31d5 cbbf 66c1 e03e 3452 2541
00000220: d359 60be 4e3c 5dbf bda1 7e40 8af8 7641
00000230: 48f2 c9c0 c139 28c1 dfdd 9c40 755b 3141
00000240: 3d8d ff3e 4712 2f3f ed9b 19c1 98dd 3b3f
00000250: 4da1 10c0 7a51 3a40 cc0f c1bf 0208 43c0
00000260: 62f5 04c1 b54f 2241 5ca5 b5bf 29bd 04c1
00000270: 69df 54c0 a55e 80c1 ba14 49c1 e16f 3241
00000280: ac01 11c0 3bb6 e9be 3bb7 2ac1 42fa 2741
00000290: 15c1 4cc1 9072 0dc1 16cf 153d 1796 8741
000002a0: c59d 93c1 5ade 0cc0 2f55 3fbf ad95 4c41
000002b0: 663b 7141 c0bd 0a40 72a8 6abf d482 a5c0
000002c0: 923a 5ebf efe6 1541 763d 9840 5297 88c1
000002d0: 38f2 1bc1 e886 aabf c367 4641 c18f 7441
000002e0: e1d2 8340 d394 0bc1 9369 0b41 6ba8 ac40
000002f0: d087 be3f c83c 4640 1d91 d740 44ee c0c0
00000300: b62d 0cc1 6b9e 5240 5e44 4c40 d0c7 00c1
00000310: 49d1 833f e26c 28c1 ab66 9441 7348 67c0
00000320: 84a0 50c1 7863 1fc1 72a0 4240 88f1 d0c0
00000330: 5d36 0dc1 e58c 6041 1ad4 5841 a871 50c1
00000340: 7e5c 9e40 ce90 8bbe 1fba 34c1 2294 4440
00000350: 322c 3d40 921a cfc0 02cc 49bf 1426 1940
00000360: eac8 4640 e1fe 24c0 5da2 a33e 0fd4 63c0
00000370: cd55 b3c0 88f4 61c1 218b 1fc0 053d 3e3f
00000380: 1e2b aec0 cf2a c33f 31c6 54c0 c195 26c1
00000390: dfce 1a40 54f9 07c1 a695 de40 7a47 ff3f
000003a0: 821d 3c40 c270 6dc1 b2df 463f ae3b 433f
000003b0: 7189 ffc0 2d20 6940 bfe4 79c0 4f16 ae41
000003c0: 48ca 26c0 c00e e540 5200 10c0 2837 f240
000003d0: 2e67 9540 7fe2 7c3f 87bd 08c1 c49b 88c0
000003e0: 6b50 9ac1 3f49 c840 7139 8b41 f0c0 a5c0
000003f0: d7f8 19c1 c16f b6c0 e0f9 f840 3ce4 f6c0

BN1.running_var f4 [256]
66.783676 44.548157 141.84596 98.459305 171.43135 198.06102 143.51967 104.27553
140.5147 135.359 162.21184 202.4157 88.265724 105.586685 70.19898 156.61462
117.7287 87.690636 62.337605 139.11742 110.16514 41.466232 26.59988 69.19476
45.89206 103.77579 55.130623 63.226128 53.011086 216.38094 63.270348 119.731415
87.93823 96.23607 129.04938 53.51845 61.571285 89.83261 141.38829 46.173874
238.74579 63.168766 74.24893 76.47365 253.14076 136.6034 89.167435 38.19671
129.35889 84.01765 136.82677 97.76004 59.96376 128.30319 65.941345 101.891685
72.09088 101.45907 61.77011 24.263422 58.72073 83.781746 65.23098 87.409645
195.76553 52.531925 84.1384 77.50898 138.14946 117.33315 113.914085 74.8013
75.491325 57.448917 99.07289 43.339226 73.83306 41.71906 92.30224 43.23206
35.07172 90.38539 68.98004 280.3604 66.13098 40.764065 137.82349 45.53922
58.75964 111.46819 108.37789 50.36559 58.892223 69.04004 86.077934 63.513676
113.16541 41.340984 81.73781 122.232956 133.73517 141.69238 35.756653 186.48872
71.79887 48.222305 63.141945 80.056274 58.274372 89.11398 149.42511 99.0386
55.32257 84.2409 69.92339 43.63577 45.744152 84.56154 87.921 54.491714
114.786575 113.84784 92.603745 159.41754 72.35473 159.49583 36.742023 58.399517
132.20773 75.25621 97.94184 106.044136 230.65555 61.947693 145.84221 73.70479
92.90917 59.37441 72.81066 123.94717 38.921124 77.59872 52.36434 137.2483
20.301239 104.26721 78.4421 139.53165 51.90669 78.62913 72.52807 177.12747
43.327686 166.25957 37.798683 60.52047 53.10687 85.9132 87.84802 168.01016
34.010693 121.01184 104.489136 149.61102 68.305695 123.98021 39.331123 81.012024
130.58488 67.03181 39.924984 105.643234 76.90952 96.131615 70.68312 38.923496
77.7234 74.809235 154.37663 159.73567 57.609013 44.443897 72.00201 61.0616
46.40134 84.267296 101.41855 34.813843 43.965572 61.071705 86.11659 66.778534
173.92459 95.80737 93.75416 146.79266 45.444138 65.74656 121.45395 56.295414
82.053 161.70346 55.81674 93.767494 111.803246 137.05844 107.27789 60.923172
83.53062 83.36919 62.000965 88.418144 118.95516 63.93521 45.30924 87.51396
96.50355 124.453735 37.550266 70.08189 79.314995 96.762825 236.38667 46.929344
130.71214 58.07837 75.01601 112.91834 174.0311 76.07656 200.4076 49.847034
58.642704 77.660255 89.882126 75.44171 82.46679 37.435425 87.738335 148.32559
58.81206 171.03986 109.31827 46.430374 119.924126 80.596214 99.93467 179.26094
199.66339 150.9277 138.70555 69.400024 97.413185 98.46339 41.45942 138.61955
00000000: 3e91 8542 5031 3242 91d8 0d43 2aeb c442
00000010: 6d6e 2b43 9f0f 4643 0985 0f43 128d d042
00000020: c383 0c43 e75b 0743 3b36 2243 6b6a 4a43
00000030: 0d88 b042 622c d342 e165 8c42 589d 1c43
00000040: 1875 eb42 9b61 af42 b559 7942 0f1e 0b43
00000050: 8d54 dc42 6cdd 2542 8ecc d441 b863 8a42
00000060: 7891 3742 348d cf42 c285 5c42 8ee7 7c42
00000070: 5a0b 5442 8561 5843 d614 7d42 7c76 ef42
00000080: 60e0 af42 de78 c042 a40c 0143 e512 5642
00000090: ff48 7642 4caa b342 6763 0d43 0cb2 3842
000000a0: ecbe 6e43 d1ac 7c42 747f 9442 82f2 9842
000000b0: 0924 7d43 789a 0843 ba55 b242 6ec9 1842
000000c0: e05b 0143 0909 a842 a7d3 0843 2485 c342
000000d0: e4da 6f42 9e4d 0043 f8e1 8342 8bc8 cb42
000000e0: 882e 9042 0beb ca42 9814 7742 7d1b c241
000000f0: 07e2 6a42 4190 a742 4376 8242 bdd1 ae42
00000100: fac3 4343 b120 5242 dc46 a842 9904 9b42
00000110: 4326 0a43 93aa ea42 03d4 e342 449a 9542
00000120: 8ffb 9642 b1cb 6542 5225 c642 5e5b 2d42
00000130: 87aa 9342 51e0 2642 bf9a b842 a1ed 2c42
00000140: 7149 0c42 52c5 b442 c8f5 8942 222e 8c43
00000150: 1043 8442 670e 2342 d0d2 0943 2928 3642
00000160: df09 6b42 b7ef de42 7bc1 d842 5d76 4942
00000170: a391 6b42 8014 8a42 e727 ac42 010e 7e42
00000180: b154 e242 2b5d 2542 c279 a342 4677 f442
00000190: 34bc 0543 40b1 0d43 d006 0f42 1d7d 3a43
000001a0: 0599 8f42 a4e3 4042 5a91 7c42 d01c a042
000001b0: f518 6942 5c3a b242 d46c 1543 c313 c642
000001c0: 504a 5d42 577b a842 c7d8 8b42 078b 2e42
000001d0: 03fa 3642 821f a942 8dd7 af42 84f7 5942
000001e0: ba92 e542 18b2 e342 1e35 b942 e46a 1f43
000001f0: 9fb5 9042 ef7e 1f43 d5f7 1242 1b99 6942
00000200: 2e35 0443 2e83 9642 39e2 c342 9916 d442
00000210: d2a7 6643 70ca 7742 9bd7 1143 da68 9342
00000220: 7fd1 b942 657f 6d42 0f9f 9142 f3e4 f742
00000230: 3baf 1b42 8b32 9b42 1675 5142 913f 0943
00000240: f068 a241 d088 d042 5be2 9c42 1a88 0b43
00000250: 73a0 4f42 1d42 9d42 5f0e 9142 a220 3143
00000260: 8d4f 2d42 7342 2643 da31 1742 f614 7242
00000270: 6f6d 5442 8fd3 ab42 30b2 af42 9a02 2843
00000280: f30a 0842 1006 f242 70fa d042 6c9c 1543
00000290: 849c 8842 def5 f742 1253 1d42 2806 a242
000002a0: bb95 0243 4910 8642 2fb3 1f42 5649 d342
000002b0: add1 9942 6343 c042 c25d 8d42 a9b1 1b42
000002c0: 6172 9b42 549e 9542 6b60 1a43 55bc 1f43
000002d0: a16f 6642 8dc6 3142 0701 9042 143f 7442
000002e0: f99a 3942 db88 a842 4cd6 ca42 6041 0b42
000002f0: bfdc 2f42 6d49 7442 b23b ac42 9c8e 8542
00000300: b2ec 2d43 609d bf42 2182 bb42 ecca 1243
00000310: ccc6 3542 3d7e 8342 6ce8 f242 812e 6142
00000320: 231b a442 16b4 2143 5744 5f42 f588 bb42
00000330: 439b df42 f60e 0943 488e d642 54b1 7342
00000340: ad0f a742 06bd a642 fd00 7842 17d6 b042
00000350: 0be9 ed42 a8bd 7f42 a93c 3542 2607 af42
00000360: d101 c142 50e8 f842 7933 1642 ed29 8c42
00000370: 47a1 9e42 9186 c142 fd62 6c43 a6b7 3b42
00000380: 4fb6 0243 4050 6842 3208 9642 31d6 e142
00000390: f607 2e43 3327 9842 5868 4843 5d63 4742
000003a0: 2192 6a42 0d52 9b42 a6c3 b342 28e2 9642
000003b0: ffee a442 e0bd 1542 077a af42 5a53 1443
000003c0: 8d3f 6b42 340a 2b43 f4a2 da42 b4b8 3942
000003d0: 27d9 ef42 4331 a142 8dde c742 cd42 3343
000003e0: d4a9 4743 7eed 1643 9fb4 0a43 d0cc 8a42
000003f0: 8dd3 c242 41ed c442 72d6 2542 9b9e 0a43

L2.weight f4 [128, 256]
0.019058935 -0.027394466 0.015702428 0.0045250356 -0.026213866 0.044893 9.389659e-05 0.025301553
-0.041455433 -0.009521479 -0.046592172 -0.056421716 0.04391609 0.050430167 0.021478124 0.01787708
0.032924496 0.0009630966 0.028846087 0.005599872 0.010844772 -0.011911213 0.010445048 0.044785455
0.014944504 -0.0058692475 0.050613757 -0.032518316 -0.037725132 -0.03214169 -0.0068576606 0.021564597
0.036652412 0.04420363 -0.005066997 0.055116113 0.038929548 0.004659898 0.019490132 -0.022749912
0.066819824 0.0061453665 0.0050491416 0.011302743 -0.013189379 0.020957626 -0.053562045 0.0021093162
0.028228136 -0.033846024 -0.0038275046 -0.03356791 -0.0504598 0.048973665 0.03291533 0.06976529
0.008099975 -0.012043224 0.04854147 0.02407548 0.011034639 -0.04477778 0.055868354 0.030855145
0.017195819 0.070853904 0.041842 0.04618409 -0.047458854 0.07665219 -0.03986574 0.03133511
-0.04271708 -0.03868219 0.009006755 -0.027535545 0.06536978 0.059242595 -0.018632434 -0.05725599
0.050000086 -0.024729967 0.05404362 -0.01052504 -0.0008159043 0.02327362 -0.009028557 0.010431721
-0.015628664 0.052155312 0.013551094 -0.059191074 -0.022281429 -0.06010613 0.042612422 0.014581882
0.00524427 0.0026562118 -0.043873206 -0.01230121 0.052241918 -0.052975938 -0.052057665 0.062429722
-0.0038975035 0.06468812 0.009377858 0.012012611 0.02377362 -0.053959098 0.060852665 0.055096462
0.011292175 -0.04449947 -0.06305894 -0.06216471 0.05714702 -0.04839201 -0.0076620057 0.01724558
-0.03929079 -0.042099416 0.06258555 0.028788947 -0.052273277 0.024944983 0.023914056 -0.002684261
-0.043463238 0.03334212 -0.0053236135 -0.04050035 0.008167223 -0.017927498 0.026413716 -0.01932561
-0.017803462 -0.0030574999 0.04715659 0.03295061 0.003694649 -0.04380344 0.023477979 -0.04942341
-0.05247856 0.017816698 -0.02355876 0.03914149 0.0135942595 -0.00046360618 0.0013620604 -0.036995746
-0.03179609 0.05831484 -0.017826675 -0.03598009 0.046770953 0.0034108136 0.0019480167 0.022813708
-0.0014398595 -0.00981476 0.026520424 0.00996621 0.04460748 -0.013676033 0.038711905 0.0103121605
-0.04063196 0.023836235 0.028171428 -0.0053280885 0.025819385 0.004866293 -0.051529404 -0.051713657
0.017828425 0.03488583 -0.05933545 -0.055683255 0.019244425 -0.039219763 -0.020695068 -0.010602145
0.05996015 -0.007959254 0.047913104 -0.015163012 -0.06103808 0.06813615 -0.013534422 -0.012120742
-0.04118005 0.049384538 -0.0012718012 0.06826341 0.026832579 -0.052788023 0.0006181462 0.057301346
0.0062821726 -0.015686793 0.0035606662 -0.052373644 -0.0035396093 -0.026221145 -0.009791101 -0.04705316
-0.033846565 -0.04377377 0.025378225 0.05500203 0.010960853 0.045441717 0.013802456 0.046690688
0.06491476 -0.020666076 0.05888415 0.013479134 0.037513472 -0.02883914 -0.044248357 -0.01767475
-0.007875563 0.022536894 0.008581757 0.04099027 0.069993645 0.033567727 -0.026721183 -0.03496398
-0.008340733 -0.008160702 0.01665027 0.049062923 0.0042478684 -0.03594706 -0.04424333 0.0576708
0.046502728 0.01247801 -0.058317684 0.030109458 -0.011906668 -0.054750904 0.013580508 0.012885937
0.03642346 0.01701921 -0.01639477 0.04889095 -0.053634185 0.067352526 -0.0030821578 0.04123284
00000000: 7c21 9c3c 5c6a e0bc 61a2 803c c046 943b
00000010: 76be d6bc b9e1 373d 59ea c438 3445 cf3c
00000020: 2ccd 29bd faff 1bbc 6fd7 3ebd 751a 67bd
00000030: 5ce1 333d dd8f 4e3d e4f2 af3c f472 923c
00000040: d6db 063d 5278 7c3a a14e ec3c 227f b73b
00000050: 45ae 313c 4027 43bc b521 2b3c f470 373d
00000060: cbd9 743c d152 c0bb 5f50 4f3d ed31 05bd
00000070: ab85 1abd 01a7 03bd 3ab6 e0bb 3da8 b03c
00000080: d720 163d de0e 353d 0d09 a6bb 6fc1 613d
00000090: 9774 1f3d 0fb2 983b c5a9 9f3c 065e babc
000000a0: d5d8 883d 125f c93b 4573 a53b 242f 393c
000000b0: 4418 58bc 54af ab3c e063 5bbd 743c 0a3b
000000c0: b13e e73c 21a2 0abd dfd6 7abb 817e 09bd
000000d0: efae 4ebd 9c98 483d 3ad2 063d 1be1 8e3d
000000e0: c2b5 043c f150 45bc 6cd3 463d f139 c53c
000000f0: a1ca 343c e868 37bd 37d6 643d eec3 fc3c
00000100: 3fde 8c3c da1b 913d 8462 2b3d 872b 3d3d
00000110: 3764 42bd d3fb 9c3d 424a 23bd 3f59 003d
00000120: 1bf8 2ebd 3771 1ebd 1291 133c 3992 e1bc
00000130: 97e0 853d 5da8 723d 0ca3 98bc 4285 6abd
00000140: e4cc 4c3d 8096 cabc d85c 5d3d 3871 2cbc
00000150: 69e2 55ba 52a8 be3c 83ec 13bc cfe9 2a3c
00000160: af07 80bc cfa0 553d 6805 5e3c 5772 72bd
00000170: 8b87 b6bc d831 76bd 5d8a 2e3d d9e8 6e3c
00000180: 20d8 ab3b d713 2e3b 64b4 33bd 048b 49bc
00000190: 9ffb 553d 4cfd 58bd 6b3a 55bd 4fb6 7f3d
000001a0: 426d 7fbb 347b 843d 96a5 193c 8bd0 443c
000001b0: e5c0 c23c 3704 5dbd a540 793d d4ac 613d
000001c0: d102 393c 1445 36bd 0c25 81bd 6ca0 7ebd
000001d0: fe12 6a3d b336 46bd 9011 fbbb 9a46 8d3c
000001e0: 61ef 20bd 7070 2cbd da2c 803d ccd6 eb3c
000001f0: 811c 56bd 6c59 cc3c 69e7 c33c 6dea 2fbb
00000200: 8206 32bd bf91 083d b571 aebb b2e3 25bd
00000210: d1cf 053c b0dc 92bc 9461 d83c be50 9ebc
00000220: 91d8 91bc 5660 48bb 4527 413d 38f7 063d
00000230: ed21 723b 3c6b 33bd e454 c03c 3470 4abd
00000240: c2f3 56bd 53f4 913c 4dfe c0bc d452 203d
00000250: 75ba 5e3c 2b10 f3b9 2a87 b23a da88 17bd
00000260: 9e3c 02bd 8bdb 6e3d 3f09 92bc dc5f 13bd
00000270: e692 3f3d f587 5f3b 9854 ff3a d0e3 ba3c
00000280: abb9 bcba 16ce 20bc 5c41 d93c 5149 233c
00000290: 55b6 363d 7111 60bc 6090 1e3d 56f4 283c
000002a0: b36d 26bd 3544 c33c c4c7 e63c 3f97 aebb
000002b0: 2d83 d33c 6d75 9f3b 7f10 53bd b3d1 53bd
000002c0: eb0c 923c 72e4 0e3d bb09 73bd 2014 64bd
000002d0: 7ca6 9d3c e7a4 20bd b488 a9bc 9fb4 2dbc
000002e0: c698 753d 8867 02bc 8840 443d 486e 78bc
000002f0: 1103 7abd f78a 8b3d 7bbf 5dbc 1496 46bc
00000300: 69ac 28bd 7147 4a3d 91b2 a6ba b0cd 8b3d
00000310: ffcf db3c 4138 58bd 170b 223a d1b4 6a3d
00000320: afda cd3b 9781 80bc 115a 693b bf85 56bd
00000330: caf8 67bb bacd d6bc db6a 20bc d0ba 40bd
00000340: b2a2 0abd 204c 33bd ffe5 cf3c cf49 613d
00000350: 2695 333c 1821 3a3d b223 623c bc3e 3f3d
00000360: 08f2 843d e74b a9bc 8230 713d 96d7 5c3c
00000370: baa7 193d 0f40 ecbc c43d 35bd a3ca 90bc
00000380: 8108 01bc 4b9f b83c 7f9a 0c3c 6ae5 273d
00000390: d458 8f3d 507e 093d 62e6 dabc 6436 0fbd
000003a0: 92a7 08bc 77b4 05bc 2666 883c 34f6 483d
000003b0: b431 8b3b 393d 13bd 7e38 35bd 3738 6c3d
000003c0: a579 3e3d 9170 4c3c 86de 6ebd 1ca8 f63c
000003d0: 2f14 43bc 7c42 60bd c780 5e3c 891f 533c
000003e0: c430 153d df6b 8b3c 534e 86bc e041 483d
000003f0: 85af 5bbd 1ff0 893d 07fe 49bb c4e3 283d

L2.bias f4 [128]
-0.003528741 -0.041617114 -0.0069871135 -0.03489923 0.023981417 -0.03553516 -0.03698285 -0.047943257
-0.022716135 -0.013522855 0.010967215 0.018200861 -0.024128346 -0.04924778 0.058708996 0.03820409
-0.023977216 0.0046092626 -0.049192067 -0.049490564 0.05556796 0.023603708 0.014527395 -0.04695461
-0.052391402 -0.04083551 -0.036379617 0.019063337 0.0069107143 0.030725338 0.02206572 -0.0075887335
0.0014360334 0.03236154 -0.00486099 0.0058334363 0.0057069804 -0.010627382 -0.020133259 0.019952232
0.05359281 -0.05010417 -0.0043603494 -0.028545786 -0.007856733 0.022562915 -0.055809174 0.029187137
0.0230272 -0.030719403 -0.036468137 -0.021574005 -0.003475295 -0.035675988 0.055800807 -0.0039311154
-0.025726078 -0.04733263 0.025459671 -0.033431306 0.020776616 -0.011280719 -0.027295975 0.021525862
-0.06123131 0.038913347 -0.0029880523 0.007163016 0.035681006 -0.020713897 0.024722 -0.0010674545
-0.01746972 0.046092313 0.0073424126 0.041872595 -0.017654046 0.030040607 0.028587755 0.036015388
0.032694962 0.035201445 0.0010914148 0.005252966 -0.049833067 0.04543327 0.018432388 -0.016387334
-0.051030077 -0.026692457 -0.0051453873 0.030549485 -0.0027940723 0.023772726 0.011999435 0.060367454
0.058013186 0.04132801 -0.061624587 -0.023563195 0.02627986 0.04086608 0.041379593 -0.023149101
0.007718762 0.010019308 0.027119284 -0.047009204 -0.057924867 0.057208493 0.0106433295 0.031084092
-0.047736578 -0.006789096 0.024312342 -0.051934797 -0.040875886 -0.005583846 -0.02030679 0.05598906
-0.051935937 -0.047833756 -0.02112354 -0.017569728 -0.059135016 -0.0024484468 0.0003750027 0.040745173
00000000: 7342 67bb b576 2abd 28f4 e4bb 7ff2 0ebd
00000010: ad74 c43c 518d 11bd 547b 17bd 2660 44bd
00000020: 3017 babc f78e 5dbc d5af 333c f919 953c
00000030: cfa8 c5bc 0ab8 49bd d878 703d e47b 1c3d
00000040: de6b c4bc 4c09 973b 9f7d 49bd 9eb6 4abd
00000050: 3b9b 633d 905c c13c 5004 6e3c 7a53 40bd
00000060: 5e98 56bd 2343 27bd cb02 15bd b72a 9c3c
00000070: 4673 e23b b4b3 fb3c 2bc3 b43c e9aa f8bb
00000080: 4939 bc3a 898d 043d f148 9fbb 6926 bf3b
00000090: 9f01 bb3b 791e 2ebc 81ee a4bc dd72 a33c
000000a0: 2284 5b3d 083a 4dbd 43e1 8ebb dad8 e9bc
000000b0: 87b9 00bc ddd5 b83c 2998 64bd dd19 ef3c
000000c0: 8aa3 bc3c 42a7 fbbc 9d5f 15bd f8bb b0bc
000000d0: c6c1 63bb fc20 12bd 638f 643d 96d0 80bb
000000e0: 7fbf d2bc dcdf 41bd cd90 d03c 44ef 08bd
000000f0: b933 aa3c c4d2 38bc cf9b dfbc 0157 b03c
00000100: afcd 7abd 9a63 1f3d 33d3 43bb bcb7 ea3b
00000110: 3f26 123d 31b0 a9bc cb85 ca3c d4e9 8bba
00000120: a91c 8fbc 4bcb 3c3d 9f98 f03b 9982 2b3d
00000130: 389f 90bc b817 f63c de30 ea3c df84 133d
00000140: 27eb 053d 642f 103d ce0d 8f3a 1321 ac3b
00000150: c21d 4cbd 3d18 3a3d 85ff 963c bb3e 86bc
00000160: ea04 51bd 24aa dabc a39a a8bb ea42 fa3c
00000170: c11c 37bb 05bf c23c 4799 443c dd43 773d
00000180: 3c9f 6d3d 8f47 293d 106a 7cbd 9a07 c1bc
00000190: dc48 d73c 3163 273d a67d 293d 2fa3 bdbc
000001a0: abed fc3b 0628 243c 4329 de3c b98c 40bd
000001b0: a042 6dbd 7453 6a3d 5c61 2e3c 11a4 fe3c
000001c0: 6e87 43bd 1177 debb ad2a c73c 95b9 54bd
000001d0: 796d 27bd b2f8 b6bb 6d5a a6bc c954 653d
000001e0: c7ba 54bd 54ed 43bd 460b adbc 64ee 8fbc
000001f0: 8f37 72bd 1f76 20bb 039c c439 69e4 263d

BN2.weight f4 [128]
1.012359 0.9978732 0.9922404 1.0069135 1.0136353 1.0154762 0.9886624 1.0378345
1.0071739 1.0014474 0.97901934 1.0066968 1.0108714 0.986397 1.0042259 0.9861332
1.0137281 1.0229166 1.0235443 0.99684674 1.0019861 1.0066469 0.99477196 1.0270437
0.9835371 1.0184507 0.99629885 1.0048603 0.994029 1.0256509 1.0112057 1.0559115
0.9818919 1.0330551 0.9996573 1.0139863 1.0024685 1.0095385 1.0007588 0.9972381
1.0018239 0.9766429 1.0071782 1.0099318 0.9987965 1.0058378 1.0289538 1.0126586
1.0412142 0.9993884 0.9949359 1.0189703 1.0108476 1.0004035 0.98945224 0.9950228
0.994612 1.0200045 1.0555089 1.0023922 1.0119768 1.0517039 0.9921118 0.9892947
0.9924477 1.0379224 0.9826913 1.0021932 0.97774124 1.0022192 0.9853595 1.0330558
1.0086313 0.98748624 1.0293279 1.0222766 0.9988536 1.0300676 1.0388713 1.0062894
0.9986623 1.0029778 1.0348071 1.0168885 0.98340166 1.0436857 1.0247761 0.99442774
0.999035 1.0134842 1.0181999 1.0389234 1.0073113 1.0271358 1.019401 0.9994515
1.0288502 0.9869268 1.0409732 0.97962445 1.0225167 1.0031037 1.0128657 0.97952217
1.0038819 1.0073196 0.9978803 1.0031644 0.9856147 1.0020779 1.0056232 0.98147064
1.0162193 1.0080932 0.9981325 1.017439 0.99467725 1.0114708 1.0112827 0.99894387
1.0121903 0.9910614 0.99278206 0.9850282 0.9835683 0.9912236 1.016801 0.9998546
00000000: fb94 813f 9e74 7f3f 7803 7e3f 8be2 803f
00000010: cdbe 813f 20fb 813f fb18 7d3f c3d7 843f
00000020: 13eb 803f 6e2f 803f 03a1 7a3f 71db 803f
00000030: 3c64 813f 8484 7c3f 798a 803f 3a73 7c3f
00000040: d8c1 813f eeee 823f 8003 833f 5931 7f3f
00000050: 1541 803f ced9 803f 60a9 7e3f 2b76 833f
00000060: 16c9 7b3f 985c 823f 710d 7f3f 439f 803f
00000070: af78 7e3f 8748 833f 306f 813f 1c28 873f
00000080: 445d 7b3f 263b 843f 8ae9 7f3f 4eca 813f
00000090: e350 803f 8f38 813f dd18 803f ff4a 7f3f
000000a0: c43b 803f 4505 7a3f 37eb 803f 7245 813f
000000b0: 21b1 7f3f 4bbf 803f c2b4 833f cc9e 813f
000000c0: 8246 853f ebd7 7f3f 1fb4 7e3f 9e6d 823f
000000d0: 7463 813f 390d 803f be4c 7d3f d0b9 7e3f
000000e0: e49e 7e3f 828f 823f ea1a 873f 634e 803f
000000f0: 7588 813f 3c9e 863f 0afb 7d3f 6b42 7d3f
00000100: 0d11 7e3f a4da 843f a891 7b3f de47 803f
00000110: 404d 7a3f b848 803f 8540 7c3f 2c3b 843f
00000120: d51a 813f e6cb 7c3f 04c1 833f f6d9 823f
00000130: dfb4 7f3f 41d9 833f bcf9 843f 17ce 803f
00000140: 55a8 7f3f 9461 803f 8f74 843f 6729 823f
00000150: 36c0 7b3f 7e97 853f dd2b 833f d192 7e3f
00000160: c2c0 7f3f dab9 813f 6054 823f 71fb 843f
00000170: 94ef 803f 3079 833f bb7b 823f 0edc 7f3f
00000180: 5db1 833f 3ca7 7c3f 9c3e 853f abc8 7a3f
00000190: d4e1 823f b465 803f 95a5 813f f7c1 7a3f
000001a0: 347f 803f d9ef 803f 1575 7f3f b167 803f
000001b0: 3f51 7c3f 1744 803f 43b8 803f a941 7b3f
000001c0: 7913 823f 3309 813f 9d85 7f3f 713b 823f
000001d0: 2ba3 7e3f e077 813f b671 813f c9ba 7f3f
000001e0: 748f 813f 33b6 7d3f f726 7e3f cf2a 7c3f
000001f0: 22cb 7b3f d4c0 7d3f 8926 823f 79f6 7f3f
