Trained_Models/BotDetection_v4_MLP___May-10-2024/BotDetection_v4_MLP_epoch53_val_loss_0.472473.pth (torch, 954451 bytes, 45 tensors)

L1.weight f4 [256, 133]
0	0x3c0644e4	0.008195136
1	0x3d6e4d3e	0.058179133
2	0x3db2e5e8	0.087352574
3	0xbe3549d2	-0.17703941
4	0x3cca59e2	0.024701063
5	0x3d3fdf0b	0.04684357
6	0x3e471857	0.19442879
7	0xbd357fa0	-0.044311166
8	0x3c266a5f	0.010157197
9	0x3d10a74e	0.035315804
10	0xbd9a9851	-0.07548583
11	0x3cf0dc24	0.029401846
12	0xbd5516b3	-0.0520236
13	0xbd4e38c5	-0.05034711
14	0xbe0db6a7	-0.13839208
15	0x3dafa85a	0.085770324
16	0xbbe40272	-0.0069582993
17	0xbd31c60a	-0.043401755
18	0xba94640f	-0.0011321324
19	0xbd544c9d	-0.051830877
20	0xbcfdf4e5	-0.031000564
21	0xbc2ca663	-0.010537717
22	0xbd58fc24	-0.052974835
23	0xbd045bc7	-0.03231409
24	0x3d83ba84	0.064320594
25	0xbddfc983	-0.10927107
26	0x3cfcce4a	0.030860085
27	0xbdd2fed4	-0.10302511
28	0x3cc6964c	0.024241589
29	0x3dce860e	0.10084163
30	0x39c489b9	0.00037486645
31	0xbd230dc5	-0.039808054
32	0xbdb753e0	-0.08951545
33	0xbcad8d83	-0.021185642
34	0xbd848c86	-0.06472115
35	0x3da5f3bd	0.0810313
36	0x3dceb82b	0.10093721
37	0x3da277dc	0.079330176
38	0xbd901652	-0.07035507
39	0xbd314f23	-0.04328836
40	0x3e5690c1	0.20953657
41	0xbc4ff5c6	-0.012692874
42	0xbd160064	-0.036621466
43	0x3c44e6a2	0.012017878
44	0xbc550cd6	-0.013003549
45	0x3dbb9ae2	0.09160401
46	0x3bdf47fc	0.006814001
47	0x3d8dfc52	0.06932892
48	0xbd0d5fbf	-0.03451514
49	0x3da2ea8e	0.07954894
50	0x3d42ac31	0.047527496
51	0x3c3d2a3f	0.011545717
52	0x3d882c7a	0.06649108
53	0x3dd2bc07	0.102897696
54	0xbcc33287	-0.023827804
55	0x3c2dc7aa	0.010606686
56	0xbd30f069	-0.043198023
57	0x3d5b6704	0.05356504
58	0xbe385c50	-0.18003964
59	0xbcdc315b	-0.026879003
60	0xbe32be92	-0.1745551
61	0x3c8c974a	0.017161984
62	0xbe22a1e7	-0.15882073
63	0xbd4dc550	-0.050237
64	0x3e090a4a	0.13382831
65	0xbe01f58e	-0.12691328
66	0xbda14a0a	-0.0787545
67	0x3e09e6cd	0.1346695
68	0xbcc14b60	-0.023595512
69	0xbd5135b2	-0.0510766
70	0x3d65e1b7	0.05612346
71	0x3dd9ad7b	0.10628792
72	0x3dd37775	0.10325519
73	0x3d820522	0.06348635
74	0xbd497edf	-0.04919326
75	0xbce2b6d5	-0.027675072
76	0xbda2cdfc	-0.07949445
77	0x3c79410f	0.015213265
78	0xbc8433cc	-0.01613798
79	0x3ca5b9df	0.020230232
80	0xbb28bf6c	-0.0025748862
81	0xbd1c98cb	-0.038231652
82	0xbd9d0093	-0.07666125
83	0xbd04d6ce	-0.032431416
84	0x3d61aadd	0.05509459
85	0xbd3e9105	-0.04652502
86	0xbe39f8ab	-0.18161266
87	0xbdd048bd	-0.10170124
88	0x3cdd2544	0.026995309
89	0xbcb2ee40	-0.021842122
90	0x3b4a0487	0.0030825452
91	0x3e201727	0.15633832
92	0xbdbf4f21	-0.093412645
93	0x3ae8fb2a	0.0017775048
94	0xbd136300	-0.035983086
95	0x3d196ec4	0.03745915
96	0x3d247f4f	0.040160473
97	0xbdb8bcfe	-0.090204224
98	0xbd3d22b5	-0.046175677
99	0x3cd844bc	0.026399963
100	0x3d0ab8d1	0.03386766
101	0xbde05d09	-0.10955245
102	0x3e022cf1	0.12712456
103	0xbe2955ee	-0.16536686
104	0xbd7640d3	-0.060120415
105	0x3d983f31	0.07433928
106	0x3d8ab058	0.06771916
107	0xbd53209b	-0.051544767
108	0xbd2a294b	-0.041543286
109	0xbd835755	-0.06413142
110	0x3d3604f5	0.04443832
111	0xbdd1c9c7	-0.10243564
112	0xbd434114	-0.047669485
113	0xbc9343d2	-0.017976675
114	0x3ca67c07	0.020322813
115	0xbd0550f3	-0.032547902
116	0x3c9be0ab	0.019028028
117	0x3dd864c6	0.10566096
118	0x3d99dab1	0.07512415
119	0x3da65422	0.08121516
120	0xbdc3119c	-0.09524843
121	0x3d53a962	0.051675208
122	0x3c4f4daa	0.012652794
123	0x3e4e77b5	0.20162852
124	0xbdfe28cf	-0.12410127
125	0xbc5e0cff	-0.013552903
126	0x3d453330	0.04814452
127	0x3da23697	0.079205684
128	0xbd9c73fa	-0.07639308
129	0x3b4da726	0.0031380146
130	0x3d9b7ae3	0.07591798
131	0x3d638d5e	0.05555474
132	0xbd7f793e	-0.062371485
133	0x3bf0504a	0.00733379
134	0x3d273cd8	0.04082951
135	0xbc75f476	-0.015011897
136	0x3dcb2ebb	0.099210225
137	0xbd14490e	-0.036202483
138	0x3d83c238	0.06433529
139	0xbd8ac657	-0.067761116
140	0xbd15506f	-0.03645366
141	0x3d5eb59c	0.054372415
142	0xbd2fa219	-0.042879198
143	0x3b7aff94	0.003829931
144	0xbbcfadc8	-0.006337855
145	0xbd6f2b36	-0.05839082
146	0x3d804f29	0.062650986
147	0x3d82a62f	0.06379353
148	0x3c488c91	0.012240545
149	0xbd819126	-0.06326513
150	0xbbcb8b6f	-0.00621169
151	0xbc907878	-0.017635569
152	0x3d5550fc	0.052079186
153	0xbcd2d1c0	-0.025734782
154	0x3bb4e368	0.005520273
155	0xbd8b73b3	-0.06809177
156	0xbddc32b0	-0.107518554
157	0xbdcf9f83	-0.10137846
158	0xbd0187c9	-0.031623635
159	0xbda23dd5	-0.0792195
160	0xbb4af25f	-0.0030967218
161	0xbd9df61e	-0.07712959
162	0x3d2fc2e7	0.042910483
163	0xbc167bbe	-0.009184776
164	0xbd019169	-0.031632815
165	0x3d8eb7d0	0.06968653
166	0x3d87f2d5	0.066381134
167	0xbd84fced	-0.06493554
168	0xbcb4dd42	-0.02207816
169	0x3dff8c62	0.12477948
170	0x3d96889c	0.07350275
171	0x3e2c01a3	0.167975
172	0x3dbd2fd3	0.09237637
173	0x3d89c9f6	0.06727974
174	0xbd1ff4e5	-0.03905191
175	0x3c82b7b2	0.015956733
176	0x3d396d11	0.04527003
177	0x3e1ec850	0.155061
178	0xbd14beb8	-0.036314696
179	0x3cdc8f4c	0.026923798
180	0x3d61dc41	0.05514169
181	0x3d7621ab	0.060090702
182	0x3cee30ef	0.029076068
183	0xbda17962	-0.0788448
184	0xbd961cdb	-0.073297225
185	0x3d840ede	0.06448148
186	0x3e0ff02d	0.14056464
187	0xbd640efd	-0.055678356
188	0xbd51e612	-0.051244803
189	0x3b9e5256	0.0048315926
190	0x3d8b693f	0.068071835
191	0x3db1ec6e	0.086876735
192	0xbd96c87c	-0.07362458
193	0x3da25a55	0.07927386
194	0x3d8ae550	0.06782019
195	0x3ccec12e	0.0252386
196	0xbddfdaf6	-0.10930435
197	0x3b82175e	0.0039700707
198	0x3d10dd4e	0.035367303
199	0xbd5b1a43	-0.053491842
200	0xbc892d4a	-0.016745228
201	0xbc8b8600	-0.01703167
202	0xbccbde94	-0.024886407
203	0xbc95bd4f	-0.018278746
204	0x3df5c013	0.11999526
205	0x3cd58951	0.026066454
206	0xbd0f2a26	-0.034952305
207	0xbc511853	-0.012762147
208	0x3bfe2e85	0.0077570104
209	0x3da94c5f	0.0826652
210	0xbd255a0a	-0.04036907
211	0xbc18bb09	-0.009321936
212	0xbce54828	-0.027988508
213	0xbd0752be	-0.033037893
214	0xbc61f780	-0.013791919
215	0xbdcbacab	-0.09945043
216	0xbdd0c70f	-0.101942174
217	0x3dae2ef4	0.08505049
218	0xbd17d742	-0.03707052
219	0x3d62f14f	0.05540591
220	0xbd54b57d	-0.051930893
221	0x3c98da29	0.018658714
222	0xbe2db6fe	-0.16964337
223	0x3de25348	0.11051041
224	0xbe2eccfa	-0.1707038
225	0xbd47d637	-0.048788276
226	0xbde24029	-0.11047394
227	0x3d338410	0.043827116
228	0xbc9ab0c5	-0.018883118
229	0xbcc86aea	-0.024465043
230	0xbd6eb0d9	-0.058274124
231	0xbd7cebaa	-0.061748184
232	0x3d4bbb17	0.04973897
233	0x3e1bed2f	0.15227197
234	0x3cb5aca3	0.022177046
235	0x3d80f2a4	0.0629628
236	0xbc4931ba	-0.012279922
237	0x3d2123ed	0.039340902
238	0x3dbed975	0.093188204
239	0x3d50cb12	0.050974913
240	0xbddfe8b2	-0.10933055
241	0x3c06db1b	0.00823095
242	0x3bc05641	0.0058696573
243	0xbd04c05b	-0.032410007
244	0xbd6d17d8	-0.057884067
245	0x3d404d74	0.046948865
246	0xbd84018c	-0.064456075
247	0x3cd1a286	0.025590193
248	0xbb26f077	-0.0025472918
249	0x3d4b4bcb	0.04963283
250	0x3dab9247	0.083775096
251	0x3dbdf268	0.09274751
252	0xbd49efac	-0.049300835
253	0xbe1aef0b	-0.1513025
254	0xbd9ddd0e	-0.077081785
255	0xbd9b3b3e	-0.07579659

L1.bias f4 [256]
0	0xbda6e33d	-0.08148811
1	0xbc974b1e	-0.018468436
2	0x3d7b10b4	0.061295226
3	0xbc8a7b24	-0.016904421
4	0xbcb2387d	-0.021755451
5	0xbd79dfd3	-0.06100447
6	0x3d05d8ee	0.032677583
7	0x3d2acc2b	0.041698616
8	0xbd56caa0	-0.052439332
9	0xbd9daf5f	-0.07699465
10	0xbcbd79b3	-0.02312932
11	0x3d77fb44	0.06054236
12	0xbd83d8de	-0.064378485
13	0xbd12ac65	-0.03580894
14	0xbdae3f1a	-0.085081294
15	0xbc210a05	-0.009829049
16	0x3c975c27	0.018476559
17	0x3d104f36	0.03523179
18	0xbd294865	-0.041328806
19	0x3da99fc2	0.082824245
20	0x3befa4d9	0.0073133525
21	0xbd7d7716	-0.061881147
22	0x3c8ea1b4	0.01741109
23	0x3d02a960	0.03189981
24	0x3d64cacf	0.055857476
25	0x3d7bbd09	0.061459575
26	0xbcb5392b	-0.022121986
27	0xbc8e91f5	-0.017403582
28	0xbd3377d4	-0.04381545
29	0x3d10ec8b	0.035381835
30	0xbd877f46	-0.06616072
31	0xbcbdf46a	-0.023187835
32	0xbc65cffa	-0.014026636
33	0xbd915140	-0.07095575
34	0x3d095661	0.033529643
35	0x3ca17a98	0.019711778
36	0x3d96fc23	0.0737231
37	0xbd5ba2ef	-0.053622182
38	0x3d9fd0f0	0.078035235
39	0x3d15ae23	0.036543023
40	0xbcda2fee	-0.026634183
41	0xbd874fd9	-0.066070266
42	0xbda7a84c	-0.08186397
43	0x3d01fc19	0.03173456
44	0xbd2cdc31	-0.04220218
45	0xbccd329b	-0.025048545
46	0xbd0a8ad1	-0.033823792
47	0xbc855e60	-0.016280353
48	0x3bf2c32c	0.00740852
49	0x3d9883e2	0.0744703
50	0x3d67ab4e	0.056559853
51	0x3d83f800	0.064437866
52	0x3b9bc7af	0.0047540287
53	0xbcdb2f0d	-0.026755834
54	0xbd2327ea	-0.039832987
55	0x3d4cf0c7	0.05003431
56	0xbbefe3a9	-0.0073208404
57	0x3d0b254e	0.033971123
58	0xbd9ef54d	-0.07761631
59	0x3d31a34a	0.043368615
60	0xbd39a4e8	-0.045323282
61	0xbc19b6fd	-0.009382007
62	0x3d8ea8bd	0.06965778
63	0x3d585972	0.052819677
64	0xbd4d7d23	-0.050168168
65	0x3d9288a5	0.07154969
66	0xbd8fb85e	-0.07017587
67	0x3d2251f6	0.039628945
68	0x3c63117a	0.013859147
69	0x3da36a1a	0.07979222
70	0x3c0e5107	0.008686311
71	0xbc9997eb	-0.018749198
72	0x3d972476	0.07380001
73	0xbd51bc07	-0.051204707
74	0x3d75d510	0.060017645
75	0xbd05b6a2	-0.032644875
76	0xbc3fb2e9	-0.01170037
77	0xbd194477	-0.03741881
78	0x3d6886cb	0.056769174
79	0xbd5ec4d4	-0.05438693
80	0xbcc8e662	-0.024523918
81	0x3bc56b3b	0.0060247458
82	0x3d9d9ed8	0.07696313
83	0xbc4201d7	-0.011841259
84	0xbd17fda9	-0.037107144
85	0xbc22d40a	-0.009938249
86	0x3ca05bd1	0.019575031
87	0xbd1c9511	-0.0382281
88	0x3db08c64	0.086205274
89	0x3d0fd3bc	0.035114035
90	0xbcfbff11	-0.030761274
91	0x3d4fd3a3	0.050738942
92	0xbcce1d82	-0.025160555
93	0x3c9b8ab4	0.018987037
94	0xbc78a5eb	-0.015176277
95	0xbd8a544f	-0.06754362
96	0xbd94143c	-0.07230422
97	0xbd9a96a0	-0.07548261
98	0xbd457512	-0.04820735
99	0xbbaee066	-0.005336809
100	0x3c38efb9	0.011287623
101	0x3c6b3551	0.014355973
102	0x3d1ff737	0.03905412
103	0x3bb37ff7	0.005477901
104	0x3dacc800	0.084365845
105	0xbca6a807	-0.020343794
106	0x3c953e38	0.018218145
107	0x3c920025	0.017822335
108	0x3d2e9703	0.042624485
109	0x3d8db34b	0.06918963
110	0x3d050f6b	0.032485407
111	0x3d30d277	0.043169465
112	0x3d9d437d	0.07678888
113	0x3d2b726d	0.04185717
114	0x3da13fea	0.07873519
115	0x3d3452e9	0.04402438
116	0x3d2b57c7	0.041831758
117	0xbc31836e	-0.010834558
118	0xbd5cb14b	-0.053880017
119	0x3d9d70a5	0.07687501
120	0x3d36e3a5	0.044650692
121	0x3cd43cfb	0.025907984
122	0x3d103fb7	0.035217013
123	0xbcc422e3	-0.023942417
124	0xbc27fcaf	-0.010253116
125	0x3d8da5a8	0.06916362
126	0x3cbaa818	0.022785231
127	0xbdabc9fb	-0.08388134
128	0x3d8f96b4	0.07011166
129	0x3cd2ed81	0.025748016
130	0xbd2dccc1	-0.042431597
131	0xbd1ee69a	-0.038794138
132	0xbd843b53	-0.06456628
133	0x3da5d65a	0.08097525
134	0xbd26c39c	-0.04071389
135	0xbd1f56af	-0.038901027
136	0x3ce3bc44	0.027799733
137	0xbd0defe6	-0.034652613
138	0x3d3a85a2	0.0455376
139	0xbcf91a42	-0.030408029
140	0xbca83d45	-0.020537028
141	0xbcdbb4af	-0.026819555
142	0x3ba1a03e	0.0049324324
143	0x3d321c9e	0.043484323
144	0xbc5e9684	-0.01358569
145	0x3d8b5e32	0.06805076
146	0xbdaf7b34	-0.08568421
147	0xbd87c37d	-0.06629083
148	0x3cc7f198	0.024407193
149	0xbbd5bd1b	-0.0065227873
150	0xbc56b43e	-0.0131044965
151	0x3ccbb063	0.024864381
152	0xbd912454	-0.07087007
153	0xbc16d1a1	-0.009205253
154	0xbd7cbdc1	-0.0617044
155	0x3d9e1882	0.07719518
156	0x3c9ab810	0.018886596
157	0x3d5367f4	0.05161281
158	0xbd63ded3	-0.055632424
159	0xbca9e7f5	-0.020740489
160	0x3d3e6cf1	0.046490613
161	0x3d95f6a6	0.07322435
162	0xbd9436ee	-0.072370395
163	0xbcc07029	-0.023490982
164	0xbc802a82	-0.01564527
165	0x3da466a2	0.08027388
166	0xbd5bf50b	-0.053700488
167	0x3d0316e7	0.032004263
168	0x3d81f086	0.06344704
169	0xbd8647cf	-0.06556665
170	0x3da70fd8	0.08157319
171	0xbdae552e	-0.085123405
172	0xbd82292e	-0.06355511
173	0xbccdb779	-0.0251119
174	0x3b8d68eb	0.0043154857
175	0x3b4c1ab2	0.0031143841
176	0x3d841735	0.06449739
177	0x3d98b148	0.07455689
178	0xbcc087dd	-0.023502285
179	0x3ca48cd6	0.020086687
180	0xbcf8f10d	-0.03038838
181	0x3cca778f	0.024715213
182	0xbadcc2ff	-0.0016842781
183	0x3d25a864	0.040443793
184	0x3abc1520	0.0014349557
185	0xbcdc4c26	-0.02689178
186	0x3d17c5cb	0.037053864
187	0x3d801fb0	0.06256044
188	0xbd2563ce	-0.040378384
189	0x3cbcdf69	0.023055749
190	0x39206112	0.0001529495
191	0xbccd0490	-0.02502659
192	0x3d174e1c	0.036939725
193	0x3d4a4236	0.04937955
194	0x3d1f6e60	0.03892362
195	0xbd96d238	-0.07364315
196	0xbd008d79	-0.03138492
197	0x3d92beab	0.07165273
198	0x3d4b2e7d	0.04960488
199	0x3d47b571	0.04875702
200	0xbd576e7b	-0.052595597
201	0x3cfea9e8	0.031086877
202	0xbc32c285	-0.010910635
203	0xbd097142	-0.033555277
204	0x3d5313bc	0.051532492
205	0x3daa8436	0.083259985
206	0x3d1ebd96	0.038755022
207	0x3d81d3e7	0.06339245
208	0xbd4afa4e	-0.049555115
209	0x3d2e9013	0.04261787
210	0xbda3effe	-0.08004759
211	0xbcaaf13d	-0.020866985
212	0xbcaa3199	-0.020775603
213	0xbd91e200	-0.07123184
214	0xbcde1270	-0.027108401
215	0x3d86072a	0.06544335
216	0xbd2e065e	-0.04248654
217	0x3d991ca3	0.07476165
218	0x3d30e79e	0.043189637
219	0xbd0edc4c	-0.03487806
220	0x3d471e2f	0.04861277
221	0xbda51013	-0.080597065
222	0x3d14895e	0.036263816
223	0xbd293329	-0.041308556
224	0xbd8bf90a	-0.0683461
225	0x3daecadf	0.08534788
226	0xbb5bfbd9	-0.003356686
227	0xbd5a5f4d	-0.053313542
228	0x3daf6e49	0.08565957
229	0x3cb0e6d6	0.021594446
230	0xbc568d7c	-0.013095256
231	0xbd05dde7	-0.032682326
232	0x3d9f75f6	0.07786171
233	0x3d451915	0.048119623
234	0x3da030d9	0.07821817
235	0x3d015a95	0.031580526
236	0x3d8bdf6b	0.06829723
237	0xba59d1c9	-0.00083091535
238	0x3c9e8da1	0.019354643
239	0x3cb2f54b	0.02184548
240	0x3da7cab6	0.08192961
241	0x3d8506d3	0.06495442
242	0x3d547b71	0.051875535
243	0xbdaafe5e	-0.08349298
244	0x3d81ed8e	0.06344138
245	0x3d41d64d	0.047323514
246	0xbc9d9c50	-0.019239575
247	0x3c826462	0.015917007
248	0xbdae6b20	-0.08516526
249	0xbd461c6b	-0.048366945
250	0x3d8908b4	0.06691113
251	0xbda3952f	-0.07987439
252	0x3a09d6cf	0.0005258144
253	0x3c7bf303	0.015377763
254	0xbb837657	-0.00401191
255	0xbd4f350d	-0.050587703

BN1.weight f4 [256]
0	0x3f7e76d5	0.99400073
1	0x3f7fbef4	0.99900746
2	0x3f7b6154	0.98195386
3	0x3f7808ce	0.96888435
4	0x3f7ce55d	0.9878748
5	0x3f817cd6	1.0116222
6	0x3f827232	1.01911
7	0x3f7e8a08	0.9942937
8	0x3f7ff7dd	0.99987584
9	0x3f82233d	1.0167004
10	0x3f7c25d2	0.9849521
11	0x3f7aca71	0.9796515
12	0x3f7edd4b	0.99556416
13	0x3f814e46	1.0102012
14	0x3f854d39	1.0414191
15	0x3f80aa9c	1.0052066
16	0x3f822312	1.0166953
17	0x3f80b752	1.0055945
18	0x3f7e15bc	0.99251914
19	0x3f80beaa	1.0058186
20	0x3f7cc04f	0.9873094
21	0x3f7cf68c	0.988137
22	0x3f87d7c4	1.0612721
23	0x3f820ebd	1.0160748
24	0x3f82823e	1.0195997
25	0x3f822eb3	1.0170501
26	0x3f84e319	1.0381805
27	0x3f8106c1	1.0080186
28	0x3f83ffc6	1.0312431
29	0x3f842b91	1.0325795
30	0x3f84f040	1.0385818
31	0x3f800b81	1.0003511
32	0x3f83a6e0	1.0285301
33	0x3f7ddb9b	0.99163216
34	0x3f7dbf16	0.991197
35	0x3f81f698	1.015338
36	0x3f85bd13	1.0448326
37	0x3f82dc2c	1.0223441
38	0x3f7f6b8a	0.99773467
39	0x3f81f72c	1.0153556
40	0x3f8192b2	1.0122893
41	0x3f841493	1.0318779
42	0x3f81a56a	1.0128605
43	0x3f85425b	1.0410875
44	0x3f7f9f7c	0.9985273
45	0x3f822328	1.0166979
46	0x3f801e92	1.0009329
47	0x3f7ca911	0.98695475
48	0x3f86e370	1.0538158
49	0x3f7fc50b	0.9991004
50	0x3f7adc0d	0.9799202
51	0x3f7e82b4	0.9941819
52	0x3f7c0d87	0.9845814
53	0x3f82334b	1.0171903
54	0x3f7e9fe8	0.9946275
55	0x3f7f9eaa	0.9985148
56	0x3f80c242	1.0059283
57	0x3f81e738	1.0148687
58	0x3f803ada	1.001796
59	0x3f8645ad	1.0490013
60	0x3f7e3937	0.9930605
61	0x3f81554d	1.0104157
62	0x3f850dd7	1.0394849
63	0x3f8476bf	1.0348738
64	0x3f789617	0.9710402
65	0x3f80e50d	1.0069901
66	0x3f7bf4ac	0.98420215
67	0x3f82dd29	1.0223743
68	0x3f7fbb2f	0.99894994
69	0x3f8b2247	1.0869836
70	0x3f7f806d	0.9980534
71	0x3f797121	0.97438246
72	0x3f83d73d	1.030006
73	0x3f842ad2	1.0325568
74	0x3f81009a	1.0078309
75	0x3f801993	1.0007805
76	0x3f80fe67	1.0077637
77	0x3f84d5c4	1.0377736
78	0x3f82bd29	1.0213977
79	0x3f824637	1.0177678
80	0x3f822c25	1.0169722
81	0x3f7e0e83	0.99240893
82	0x3f802aef	1.0013102
83	0x3f7d0cf2	0.9884788
84	0x3f80edfc	1.0072627
85	0x3f80b7fc	1.0056148
86	0x3f817f2c	1.0116935
87	0x3f847d65	1.0350767
88	0x3f8447c9	1.0334407
89	0x3f80896b	1.0041937
90	0x3f82866b	1.0197271
91	0x3f84b80f	1.036867
92	0x3f81b9ec	1.0134864
93	0x3f803d5a	1.0018723
94	0x3f82d0dd	1.021999
95	0x3f832640	1.0246048
96	0x3f8163ed	1.010862
97	0x3f824853	1.0178322
98	0x3f80b1fa	1.0054314
99	0x3f842c0b	1.0325941
100	0x3f7f9562	0.99837315
101	0x3f7f55e6	0.99740446
102	0x3f813448	1.009408
103	0x3f832156	1.0244548
104	0x3f82aee1	1.0209619
105	0x3f8420e8	1.0322542
106	0x3f7f8eda	0.9982735
107	0x3f846886	1.0344398
108	0x3f831c73	1.0243057
109	0x3f842a70	1.0325451
110	0x3f819a8f	1.0125293
111	0x3f8429bc	1.0325236
112	0x3f7d47eb	0.98937863
113	0x3f82c198	1.021533
114	0x3f84dc79	1.0379783
115	0x3f85dd33	1.045813
116	0x3f864c83	1.04921
117	0x3f7ca4e2	0.9868909
118	0x3f7ed86b	0.9954898
119	0x3f7ec6ac	0.995219
120	0x3f7e281d	0.9927996
121	0x3f7acb33	0.9796631
122	0x3f834a17	1.0256985
123	0x3f7cb15d	0.98708135
124	0x3f8088c7	1.0041741
125	0x3f804f5a	1.0024216
126	0x3f82fe21	1.0233804
127	0x3f839cc1	1.0282212
128	0x3f7dbad8	0.99113226
129	0x3f807232	1.003485
130	0x3f7c9c5b	0.9867608
131	0x3f7cc4fe	0.98738086
132	0x3f7fb92b	0.9989192
133	0x3f81c50e	1.0138261
134	0x3f814768	1.0099916
135	0x3f83036c	1.0235419
136	0x3f835978	1.0261679
137	0x3f7b0a2a	0.98062384
138	0x3f81b123	1.0132183
139	0x3f7b9682	0.9827653
140	0x3f845bc5	1.0340506
141	0x3f812746	1.009011
142	0x3f7fa7d9	0.9986549
143	0x3f8074f3	1.003569
144	0x3f85d404	1.0455327
145	0x3f808e88	1.0043497
146	0x3f8138c9	1.0095454
147	0x3f82ec61	1.0228387
148	0x3f827fc1	1.0195237
149	0x3f81aecf	1.0131472
150	0x3f84636d	1.0342842
151	0x3f7d5ee5	0.9897292
152	0x3f818928	1.0119982
153	0x3f7d8e04	0.99044824
154	0x3f838bc1	1.0277025
155	0x3f7d4efc	0.98948646
156	0x3f7f8e54	0.9982655
157	0x3f824953	1.0178627
158	0x3f7b6add	0.98209935
159	0x3f812da7	1.0092057
160	0x3f7cc732	0.9874145
161	0x3f83380a	1.0251477
162	0x3f7c5715	0.98570377
163	0x3f810618	1.0079985
164	0x3f81b586	1.0133522
165	0x3f7f2265	0.99661857
166	0x3f8a74b5	1.0816866
167	0x3f7c136b	0.9846713
168	0x3f82d23f	1.0220412
169	0x3f80351f	1.0016211
170	0x3f8524c8	1.040185
171	0x3f7d2449	0.9888349
172	0x3f80831c	1.0040011
173	0x3f815a1f	1.0105628
174	0x3f821656	1.0163066
175	0x3f81901b	1.0122102
176	0x3f7c2460	0.98493004
177	0x3f826939	1.0188361
178	0x3f7d7231	0.9900237
179	0x3f812ca1	1.0091745
180	0x3f81b8fd	1.0134579
181	0x3f821550	1.0162754
182	0x3f81fd39	1.0155402
183	0x3f7c8e2b	0.9865443
184	0x3f832051	1.0244237
185	0x3f825ccd	1.018457
186	0x3f7e9953	0.99452704
187	0x3f7dd18b	0.9914786
188	0x3f81e3be	1.0147626
189	0x3f802942	1.0012591
190	0x3f81adf0	1.0131207
191	0x3f7f34f5	0.9969018
192	0x3f805679	1.0026389
193	0x3f81eb74	1.014998
194	0x3f80d27e	1.0064237
195	0x3f8353d3	1.0259956
196	0x3f882431	1.0636045
197	0x3f814836	1.0100162
198	0x3f85d850	1.0456638
199	0x3f8181bd	1.0117718
200	0x3f805af9	1.0027763
201	0x3f829dc3	1.0204395
202	0x3f83e38e	1.0303819
203	0x3f7c57b1	0.98571306
204	0x3f832e25	1.0248457
205	0x3f7dc7da	0.99133074
206	0x3f7b04a8	0.9805398
207	0x3f7ecd91	0.9953242
208	0x3f7e070b	0.99229497
209	0x3f82b11f	1.0210303
210	0x3f8527e5	1.04028
211	0x3f80472f	1.0021724
212	0x3f819b8a	1.0125592
213	0x3f7fe076	0.99951875
214	0x3f846cb5	1.0345675
215	0x3f7fffff	0.99999994
216	0x3f824713	1.017794
217	0x3f82cff5	1.0219713
218	0x3f8251d6	1.0181224
219	0x3f7e8e2e	0.994357
220	0x3f8399c0	1.0281296
221	0x3f7b615e	0.98195446
222	0x3f7e931d	0.9944323
223	0x3f82111c	1.0161471
224	0x3f8235e0	1.0172691
225	0x3f7e485e	0.99329174
226	0x3f810d96	1.0082271
227	0x3f7fc647	0.9991192
228	0x3f812ca0	1.0091743
229	0x3f87064c	1.0548797
230	0x3f7f07fb	0.9962155
231	0x3f83dc47	1.0301598
232	0x3f87c86e	1.0608041
233	0x3f7bb820	0.9832783
234	0x3f8111ee	1.0083597
235	0x3f8387e9	1.0275851
236	0x3f86adcb	1.0521787
237	0x3f84cee0	1.0375633
238	0x3f804a27	1.002263
239	0x3f7852a2	0.9700109
240	0x3f7a6e48	0.97824526
241	0x3f7a5117	0.97779983
242	0x3f814ac1	1.0100938
243	0x3f86473a	1.0490487
244	0x3f7edb9f	0.99553865
245	0x3f7bda61	0.98380095
246	0x3f7cc0e8	0.9873185
247	0x3f7e9a31	0.9945403
248	0x3f83c580	1.0294647
249	0x3f81620c	1.0108047
250	0x3f7f7976	0.9979471
251	0x3f821899	1.0163757
252	0x3f800914	1.000277
253	0x3f806375	1.0030352
254	0x3f853d66	1.0409362
255	0x3f881ecf	1.0634402

BN1.bias f4 [256]
0	0x3d32acdf	0.043621894
1	0xbd3a8aa9	-0.045542393
2	0xbc1382e2	-0.009003373
3	0x3dbce37a	0.09223075
4	0x3d4debdb	0.050273757
5	0xbd840afe	-0.06447409
6	0xbc58845e	-0.013215153
7	0xbd327185	-0.043565292
8	0xbc169a9c	-0.009192135
9	0xbd2005c8	-0.039068013
10	0x3d003380	0.031299114
11	0xbc804b90	-0.015661031
12	0x3cf3bbb3	0.029752588
13	0xbdb182d1	-0.086675294
14	0xbdb30b31	-0.08742369
15	0xbca9c670	-0.020724505
16	0xbc29c048	-0.010360785
17	0x3b2e068c	0.0026554195
18	0xbcfff898	-0.031246468
19	0xbc86f2cd	-0.016473198
20	0x3c787401	0.015164376
21	0x3ce09946	0.027416836
22	0xbe0a4b76	-0.13505349
23	0xbcdc4f7b	-0.026893368
24	0x3ca1f59f	0.019770442
25	0xbd4431ac	-0.047898933
26	0xbca55b93	-0.020185268
27	0x3bb9d05e	0.0056705913
28	0xbd241244	-0.040056482
29	0xbd9decf4	-0.07711211
30	0xbdc2293c	-0.09480521
31	0xbc10e1c1	-0.008842886
32	0xbd87686c	-0.06611714
33	0x3da07a82	0.078358665
34	0xbd8cd649	-0.06876809
35	0x3cd1242b	0.025529942
36	0xbcb3cbfd	-0.021947855
37	0xbd0db135	-0.034592826
38	0xbcb8084b	-0.022464892
39	0xbc87fa59	-0.016598867
40	0xbc270588	-0.01019419
41	0xbde95288	-0.11392695
42	0xbd8d8e23	-0.06911876
43	0xbdcc713b	-0.099825345
44	0x3bf856b7	0.0075786966
45	0xbc027fbc	-0.007965025
46	0xbdda2a96	-0.10652654
47	0xbc840c54	-0.01611916
48	0xbd61f0c4	-0.055161253
49	0xbd1fed8e	-0.03904491
50	0x3d72e359	0.059298847
51	0x3b9e1bd7	0.004825096
52	0x3d563224	0.05229391
53	0xbd91ea3f	-0.07124757
54	0x3d5abbec	0.053401873
55	0xbce24551	-0.027620943
56	0xbd0b877e	-0.034064762
57	0xbc832ea4	-0.01601345
58	0x3c809dbb	0.015700212
59	0xbdb68037	-0.08911174
60	0x3ca84ea7	0.020545317
61	0xbd4deb95	-0.050273497
62	0xbd168ef5	-0.03675743
63	0xbd8dda6e	-0.06926428
64	0x3c022aaf	0.007944747
65	0xbad6418d	-0.001634644
66	0x3c70aa9e	0.014689116
67	0xbd3b9bfd	-0.04580306
68	0x3b9de461	0.0048184847
69	0xbce44d7b	-0.027868977
70	0x3d6e0d36	0.058118068
71	0x3d3f1725	0.04665293
72	0xbce594f1	-0.028025122
73	0x3ae61aa0	0.0017555542
74	0xbb68101d	-0.0035409995
75	0x3ba7ad65	0.005117106
76	0xbd2d1d3d	-0.042264212
77	0xbdf38221	-0.118900545
78	0xbda92ab5	-0.08260099
79	0xbd243a86	-0.040094875
80	0xbce456d0	-0.027873427
81	0x3d57459b	0.052556615
82	0xbd2d154b	-0.042256635
83	0xbd6f5202	-0.058427818
84	0xbb606197	-0.0034237856
85	0x3d8d70ef	0.06906306
86	0xbc12f1ff	-0.008968829
87	0xbc8ec81c	-0.017429404
88	0xbd506c5e	-0.050884597
89	0xbcec14aa	-0.028818447
90	0xbbbd3505	-0.0057741427
91	0xbdd236ba	-0.102643445
92	0xbd2d4396	-0.042300783
93	0xbd9479a1	-0.072497614
94	0xbd2a6d27	-0.041608002
95	0xbe2e8c0c	-0.17045611
96	0x3d4ec3cf	0.050479706
97	0xbc6113c2	-0.013737621
98	0x3d4d66cc	0.050146863
99	0xbe4d9922	-0.20077947
100	0xbdabbccb	-0.08385619
101	0x3cf368b7	0.029713018
102	0xbda1bbbd	-0.07897136
103	0xbd5166c1	-0.051123384
104	0xbd2a5ae6	-0.041590594
105	0xbd550276	-0.0520043
106	0xbc9701e7	-0.018433524
107	0xbc854af1	-0.016271086
108	0xbcfafe95	-0.030638972
109	0xbdad0b66	-0.0844944
110	0xbd6514b3	-0.055927943
111	0xbdd029ff	-0.1016426
112	0xbd5e73f6	-0.054309808
113	0x3c340719	0.01098802
114	0xbd13b9d6	-0.0360659
115	0xbdc967de	-0.09834264
116	0xbc85a916	-0.016315978
117	0x3b0288c9	0.0019917956
118	0xbd95d699	-0.07316322
119	0x3df12b2a	0.11775811
120	0x3d767cdf	0.06017768
121	0xbc8e0982	-0.017338518
122	0xbdeb64ac	-0.11493811
123	0x3c2d69e6	0.01058433
124	0x3bb28cbc	0.0054489058
125	0x3d084fac	0.033279106
126	0xbd5867de	-0.05283343
127	0xbdcd6485	-0.10028938
128	0xbbb818a0	-0.00561817
129	0xbd0388b8	-0.032112807
130	0xbaf0e595	-0.0018378968
131	0x3d50a039	0.05093405
132	0x3d080998	0.033212274
133	0xbd8779f5	-0.06615058
134	0x3b356eaa	0.002768437
135	0xbd8ca384	-0.06867126
136	0xbd72d523	-0.059285294
137	0xbce560f1	-0.028000327
138	0xbda33312	-0.07968725
139	0x3d22219d	0.039582837
140	0xbdc9309c	-0.09823725
141	0x3c976e9c	0.01848536
142	0xbd1fcf25	-0.039015908
143	0xbdbf51c5	-0.09341768
144	0xbc7fefed	-0.015621168
145	0xbd1f7d4a	-0.038937844
146	0xba533bbe	-0.00080579135
147	0xbd87ca65	-0.066304006
148	0xbd894f0f	-0.06704532
149	0xbcc27900	-0.023739338
150	0xbd9d59a3	-0.076831125
151	0xbcbd92da	-0.023141313
152	0x3b23d396	0.0024997941
153	0x3d00d08c	0.031448886
154	0xbdb87bd1	-0.09007991
155	0xbb699a07	-0.0035644786
156	0xbc319f6d	-0.010841233
157	0xbd165988	-0.036706477
158	0xbcfa8d29	-0.030584889
159	0xbd76b755	-0.060233433
160	0xbd1aef58	-0.037825912
161	0xbd6856b6	-0.05672332
162	0x3d26e2ae	0.040743522
163	0x3ce8324a	0.028344292
164	0xbd5fd504	-0.054646507
165	0xbdc6756e	-0.09690367
166	0xbde01754	-0.109419495
167	0xbd0cdfb8	-0.034393042
168	0x3ce728f6	0.028217774
169	0xbd6b2239	-0.057405684
170	0x3d212cd2	0.039349385
171	0xbc608e56	-0.0137058105
172	0xbd005e01	-0.03133965
173	0xbd4e56cb	-0.05037574
174	0xbd12aa9c	-0.035807237
175	0x3cc609db	0.024174621
176	0x3cc2bb08	0.023770824
177	0xbe05a471	-0.1305101
178	0x3cfbf988	0.030758634
179	0x3ced3dfc	0.02896022
180	0xbb256ae4	-0.0025240714
181	0xbd051a0e	-0.03249555
182	0xbdc2805b	-0.09497138
183	0x3d9bce5f	0.076077215
184	0xbbfeeada	-0.0077794613
185	0xbd0a6b2e	-0.03379362
186	0x3bc82fbc	0.006109206
187	0x3c24d4b0	0.010060474
188	0xbd3ffe39	-0.046873305
189	0x3c828ea2	0.015937153
190	0x3cd1e7bc	0.025623195
191	0xbcf61c27	-0.030042721
192	0xbd4805fa	-0.048833825
193	0x3c949ce9	0.018141227
194	0xbb3e84a8	-0.0029070769
195	0xbd257087	-0.040390518
196	0xbdc82591	-0.0977279
197	0xbe3e97d4	-0.18612605
198	0xbe0d36f6	-0.13790497
199	0xbd091af0	-0.033472955
200	0x3c5e9c3e	0.013587056
201	0xbe128a0f	-0.14310478
202	0xbd720984	-0.059091106
203	0x3c8bffe2	0.017089788
204	0xbd9ce7e6	-0.076614186
205	0xbc8d3ffc	-0.017242424
206	0x3c5f9bd1	0.013647989
207	0xbcc0dd18	-0.023542926
208	0xbc076130	-0.008262917
209	0x3c96ad83	0.018393284
210	0xbdc932ea	-0.09824164
211	0xbcc5c8e6	-0.024143647
212	0xbd84b9d0	-0.064807534
213	0xbd593c47	-0.053036
214	0xbde4e7cd	-0.11177025
215	0xbc5a7413	-0.013333338
216	0xbd10b404	-0.035327926
217	0xbd8bfa7b	-0.06834885
218	0xbdcb781e	-0.0993502
219	0x3cd8be6f	0.026457993
220	0xbd50053b	-0.05078624
221	0xbca680cd	-0.020325089
222	0x3d32faed	0.043696333
223	0xbdc6d673	-0.09708872
224	0xbdb54eec	-0.08852944
225	0x3d0ab737	0.033866134
226	0xbd467b75	-0.04845758
227	0xbc8f14b9	-0.017465936
228	0xbcc2c5bf	-0.023775933
229	0xbdae258e	-0.08503257
230	0xbd98574c	-0.074385256
231	0xbd6f1db2	-0.05837793
232	0xbb58d429	-0.0033085442
233	0x3d671d89	0.05642465
234	0xbc34b797	-0.011030099
235	0xbd93f9d1	-0.07225383
236	0xbc8a88f3	-0.016911006
237	0xbd43d820	-0.047813535
238	0xbd289f86	-0.04116776
239	0x3c968dff	0.018378256
240	0x3d6ef9c3	0.05834366
241	0x3d36ab7b	0.04459713
242	0xbdce3dd0	-0.100703835
243	0xbc9fdc9d	-0.019514376
244	0xbd143e68	-0.036192328
245	0xbd39b033	-0.045334052
246	0xbd10ad52	-0.03532154
247	0xbd70b122	-0.058762677
248	0xbde904ae	-0.11377846
249	0xbdbd2b10	-0.09236729
250	0x3c9ea74a	0.019366879
251	0x3b86ebf9	0.0041174856
252	0xbd88f839	-0.0668797
253	0xbd75faa0	-0.060053468
254	0xbd98c9f9	-0.07460398
255	0xbd40fb0a	-0.04711441

BN1.running_mean f4 [256]
0	0xc10d81b0	-8.844162
1	0x408ad1ab	4.338094
2	0x40c00117	6.000133
3	0x410136cc	8.075878
4	0xc0cf11ad	-6.4709077
5	0x40f8bab9	7.7727933
6	0x41c2f3b6	24.369
7	0x415ba121	13.726838
8	0x410abe42	8.67145
9	0xc05c72e3	-3.4445121
10	0x409bb469	4.8657727
11	0x419dc125	19.719309
12	0x410864ad	8.524579
13	0xc098747d	-4.7642198
14	0xc0512aae	-3.26823
15	0x3f7804ca	0.9688231
16	0x41757f76	15.343618
17	0xc1422472	-12.133898
18	0x4148f74f	12.560378
19	0x415095b2	13.036547
20	0xc0412895	-3.018102
21	0x415c96d6	13.786825
22	0x400abd64	2.1678095
23	0x409f80c4	4.9844685
24	0xbff813bf	-1.9381026
25	0x3e217dd6	0.15770659
26	0xc104a173	-8.289416
27	0x40b5bbe2	5.679185
28	0xc07ef71c	-3.9838324
29	0xbf8a583a	-1.0808175
30	0x40bff2b0	5.998375
31	0xc0a16a17	-5.0442004
32	0x40ef294f	7.4737926
33	0xbf593f2d	-0.84862024
34	0x40b39006	5.611331
35	0xc10488d3	-8.283404
36	0xc1032c7a	-8.198359
37	0x405f4b3d	3.4889672
38	0x404471a1	3.0694354
39	0xc05e81b0	-3.4766655
40	0x4150680f	13.025405
41	0x41835846	16.418102
42	0x40acdf63	5.402269
43	0x3fed5840	1.8542557
44	0xc0ea2b3a	-7.3177767
45	0x405c3924	3.4409876
46	0x411fa921	9.978791
47	0x3f9385cb	1.1525205
48	0xc0fb75c2	-7.8581247
49	0xc0af1db0	-5.472374
50	0xc0cbd0bb	-6.36923
51	0xc0f25f3b	-7.574125
52	0x4096a6f2	4.707879
53	0xc15f19f6	-13.943838
54	0x4069557f	3.6458433
55	0x402e8dda	2.727408
56	0xbfb5ea71	-1.4212171
57	0x40b1ae91	5.5525594
58	0xc10c59e9	-8.771951
59	0x40bf675a	5.981366
60	0x3fedc556	1.8575847
61	0xc181a1f4	-16.204079
62	0x40097ad2	2.1481214
63	0xc0912744	-4.536043
64	0xbfdafb55	-1.710795
65	0xbfc88fa6	-1.5668838
66	0x415e72a4	13.902988
67	0x408cd6df	4.4012294
68	0xc125fb67	-10.373878
69	0x3f10a16a	0.564963
70	0xc01ec739	-2.4809096
71	0xc0df5f9c	-6.980421
72	0xbfebdbf4	-1.8426499
73	0x4132c4a9	11.173013
74	0xc1560b70	-13.377792
75	0x40e6bfc4	7.210909
76	0x40fe0b38	7.9388695
77	0xc0e9da85	-7.3079247
78	0x40fb5312	7.8538904
79	0xc0868803	-4.204103
80	0x3f8fb3cf	1.1226748
81	0x3e1d9a8d	0.15390988
82	0x40cba88c	6.3643246
83	0x413e7066	11.902441
84	0xc091c8fd	-4.5557847
85	0xbbf91e9e	-0.007602527
86	0xc1276005	-10.460942
87	0x4050aad8	3.2604275
88	0xbf5aaca9	-0.8541971
89	0x404bdb56	3.1852622
90	0x408e0c0f	4.438972
91	0x411c6e0e	9.776869
92	0x3fcead03	1.6146549
93	0xc1074455	-8.454183
94	0xbd659a3c	-0.056055292
95	0x4083cc5f	4.1186976
96	0x4094e427	4.6528506
97	0xbf6f7983	-0.9354479
98	0xc13eb097	-11.918113
99	0xc0e2530f	-7.072639
100	0x40b97b5a	5.7963076
101	0xc03a080c	-2.9067411
102	0x40a76120	5.230606
103	0x40985053	4.759805
104	0x41808f22	16.06989
105	0xbf8645c6	-1.0490043
106	0xc0eb608c	-7.3555355
107	0xc0def640	-6.96756
108	0xbfc4c99f	-1.537403
109	0x40fe0c91	7.939034
110	0xc13f559f	-11.958404
111	0xc0fd9870	-7.924858
112	0x410aaea4	8.667637
113	0xc163554c	-14.208324
114	0x40050f22	2.0790486
115	0x4107763e	8.466368
116	0xc11ec3ed	-9.922833
117	0xc14cf842	-12.81061
118	0x3fbec9ce	1.4905336
119	0xc11af003	-9.683597
120	0xc10e9930	-8.912399
121	0xc17a0298	-15.625633
122	0x40a4ef98	5.1542473
123	0xc0be8ff7	-5.955074
124	0x3deebd11	0.11657155
125	0xc0d63aef	-6.694694
126	0xc0b4c85d	-5.6494584
127	0xbf2d03c5	-0.67583877
128	0xc0a10fb2	-5.033166
129	0xc125e943	-10.369449
130	0x3f9968d1	1.1985112
131	0xc131221f	-11.07083
132	0xbf4ac66d	-0.79209024
133	0xc00ed1e6	-2.2315612
134	0x3f831dc0	1.0243454
135	0x412c5f24	10.773228
136	0xbe5cc968	-0.21561205
137	0xbf8992d7	-1.0747937
138	0x4031ad7c	2.7762136
139	0x417119d1	15.068803
140	0xc0b12e61	-5.5369115
141	0xc10bd99e	-8.740629
142	0x40bc3a6e	5.8821325
143	0x411d1812	9.818377
144	0x3ee93e90	0.45555544
145	0x3e8f4879	0.2798498
146	0xc124910d	-10.285413
147	0x3fb322f0	1.3995037
148	0xc0369700	-2.8529663
149	0xbe859d1d	-0.2609643
150	0xbf8aa27b	-1.0830835
151	0xc0244edb	-2.567313
152	0xc0f13c9a	-7.5386477
153	0x40f91fab	7.7851157
154	0xbfc63b51	-1.5486852
155	0xc0d8fdaa	-6.780965
156	0xc057504d	-3.3642762
157	0xc1860c0b	-16.75588
158	0xc148fb84	-12.561405
159	0x410fb98e	8.982801
160	0xc0471427	-3.110605
161	0xbf1dae8f	-0.6159448
162	0xc127c3bb	-10.485286
163	0x410d99c5	8.850041
164	0xc1454d8f	-12.331435
165	0xc1286a8b	-10.526011
166	0xbf80c3f0	-1.0059795
167	0x418dde5d	17.733576
168	0xc1923b42	-18.278934
169	0xc02b7f2b	-2.6796367
170	0x3e006413	0.12538175
171	0x41402569	12.009133
172	0x417794fa	15.473871
173	0x3f8ef740	1.1169205
174	0xbf874981	-1.0569307
175	0xc0812196	-4.03535
176	0xc00438cd	-2.0659668
177	0x412c3caf	10.764815
178	0x40d824b8	6.7544823
179	0xc177bf5e	-15.4842205
180	0xc1024812	-8.142595
181	0xbf768dcf	-0.9631013
182	0x41385b1e	11.522245
183	0x4168f00b	14.558604
184	0x3fbe16fe	1.4850767
185	0xc1214eff	-10.081786
186	0x40e1cd3f	7.0563045
187	0x40900fe2	4.501939
188	0xbe4c6331	-0.19959714
189	0x406f6f8e	3.7411838
190	0x40e715ae	7.2213964
191	0xc091673e	-4.543853
192	0xc114a1b8	-9.289482
193	0x40896ab7	4.2942767
194	0x3fc5cfcb	1.5454038
195	0xc10e1837	-8.880912
196	0x3f71b7e7	0.9442124
197	0xc1324331	-11.141404
198	0x418a04b8	17.252304
199	0xc0830723	-4.094621
200	0xc142bc40	-12.170959
201	0xc117d35d	-9.489102
202	0x3fa1323d	1.2593457
203	0xc08a1569	-4.3151135
204	0xc11009d4	-9.002399
205	0x414ff26f	12.996688
206	0x41620431	14.126023
207	0xc1345b2d	-11.27226
208	0x4098ad32	4.771142
209	0xbf2778b1	-0.65418535
210	0xc139aca7	-11.604651
211	0x405c2a4a	3.4400811
212	0x409416d0	4.6277847
213	0xc0e491b6	-7.142787
214	0xbf9ac913	-1.2092613
215	0x3fb1834c	1.3868194
216	0x403aab98	2.9167233
217	0xc0587b4c	-3.3825254
218	0x3f205d96	0.626428
219	0xc063bc29	-3.5583594
220	0xc0c9e3a3	-6.3090377
221	0xc15c96ed	-13.786847
222	0xc08e1f47	-4.441318
223	0x3f1173d9	0.56817394
224	0xc07b2aa9	-3.9244788
225	0x3f495f91	0.7866145
226	0xbfb3d0fc	-1.4048152
227	0xc1275ba7	-10.459876
228	0x408679f4	4.202387
229	0xc1077b7f	-8.46765
230	0x40bc32d6	5.8812056
231	0x3f391bd7	0.72308105
232	0x405e0f81	3.4696963
233	0xc14843a7	-12.516517
234	0x3fa180b4	1.2617402
235	0x3ee4d400	0.44692993
236	0xc10b2de3	-8.698703
237	0x4052d3f7	3.2941873
238	0xc03fe4b5	-2.9983342
239	0x41a6721f	20.805723
240	0xc013680d	-2.3032258
241	0x40c6dbc1	6.2143254
242	0xc04c00a1	-3.1875384
243	0x40bff040	5.9980774
244	0x4078eaf6	3.8893409
245	0x3f3cf53a	0.73811686
246	0xc0fed735	-7.9637704
247	0xc0a1e6ed	-5.059439
248	0xc1a53836	-20.652447
249	0x408e92f7	4.45544
250	0x4191711a	18.180225
251	0xc0ac2290	-5.379219
252	0xc1077555	-8.4661455
253	0xc0dcf7ed	-6.9052644
254	0x40d09edd	6.5193925
255	0xc0ca3301	-6.318726

BN1.running_var f4 [256]
0	0x425f0e3a	55.763893
1	0x422efdd7	43.74789
2	0x43055180	133.31836
3	0x42bdc96d	94.89341
4	0x431c05ea	156.0231
5	0x434771f3	199.44511
6	0x43163e0b	150.24236
7	0x42c9cd18	100.90057
8	0x43096c7e	137.4238
9	0x43022c12	130.17215
10	0x4323b8b5	163.72151
11	0x4339c214	185.75812
12	0x42ba79ae	93.237656
13	0x42b5eb3d	90.95945
14	0x426fba3c	59.93187
15	0x431ed445	158.82918
16	0x42df94a5	111.79032
17	0x42b398d3	89.798485
18	0x4276ce54	61.701492
19	0x430e3400	142.20312
20	0x42e07176	112.2216
21	0x4233e8aa	44.97721
22	0x41d27ca2	26.310856
23	0x42827a68	65.239075
24	0x423a2644	46.53737
25	0x42ca36da	101.10713
26	0x426544a0	57.317017
27	0x4297a04e	75.813095
28	0x4246d15b	49.70445
29	0x4351a54b	209.64568
30	0x4282b53f	65.354
31	0x42f6868b	123.26278
32	0x42b94948	92.64313
33	0x42b96957	92.70574
34	0x42d84a99	108.1457
35	0x4239df7b	46.468243
36	0x4251539c	52.33165
37	0x42babb98	93.366394
38	0x4302c6a5	130.77596
39	0x42465800	49.585938
40	0x437cf75c	252.96625
41	0x42700bc5	60.011494
42	0x42848a5b	66.270226
43	0x429794e9	75.79084
44	0x4383551c	262.66492
45	0x42e0634b	112.19393
46	0x42b1aa8c	88.8331
47	0x421f2943	39.790295
48	0x42c50d54	98.52603
49	0x42926e22	73.2151
50	0x42ef4961	119.64332
51	0x42b32c26	89.58623
52	0x428566c3	66.70071
53	0x42e8c6f9	116.38862
54	0x428012b5	64.03654
55	0x42cb5295	101.66129
56	0x4295c56c	74.88559
57	0x42c812f2	100.037
58	0x4280fa5d	64.48899
59	0x41d867c9	27.050676
60	0x424052d6	48.080894
61	0x42b0f4df	88.478264
62	0x428d6b73	70.70986
63	0x42c02d85	96.088905
64	0x43248319	164.5121
65	0x425246c7	52.56912
66	0x429b84b7	77.75921
67	0x42a32bc9	81.58552
68	0x43153a4f	149.22777
69	0x428d5542	70.66652
70	0x42e5629b	114.69259
71	0x4259b9ae	54.431328
72	0x428c4551	70.13538
73	0x42746671	61.10004
74	0x42c41f9c	98.06174
75	0x4226b81f	41.679806
76	0x429932b7	76.59905
77	0x42340551	45.00519
78	0x42bb1582	93.54201
79	0x421fdb97	39.964443
80	0x42162111	37.53229
81	0x42ac9be5	86.30448
82	0x4285e76f	66.95202
83	0x4385840b	267.0316
84	0x42809b2a	64.303055
85	0x421daf1b	39.421
86	0x42ffa652	127.824844
87	0x423afe32	46.748238
88	0x426c640d	59.097706
89	0x42e6268e	115.0753
90	0x42cef5f9	103.480415
91	0x425c2e37	55.04513
92	0x4274031c	61.003036
93	0x4264e3bc	57.222397
94	0x429ca395	78.319496
95	0x42829f0f	65.31066
96	0x42c50fe5	98.531044
97	0x423cc85c	47.195663
98	0x42ae2760	87.076904
99	0x42eecd1a	119.40059
100	0x42f169f9	120.70698
101	0x430eb31f	142.69969
102	0x42308d4a	44.137978
103	0x433bae9a	187.68204
104	0x428636ac	67.10678
105	0x42343b43	45.057873
106	0x424eeb34	51.72969
107	0x42965aa5	75.17704
108	0x427ee7f5	63.72652
109	0x42ba2348	93.06891
110	0x430b4b56	139.29428
111	0x42adfaec	86.99008
112	0x42748729	61.131992
113	0x429bda99	77.92695
114	0x428abe5b	69.37179
115	0x4239f199	46.485935
116	0x423a7986	46.618675
117	0x42b032fb	88.09957
118	0x42a40b5a	82.02217
119	0x42693c9e	58.309196
120	0x42cabe45	101.37162
121	0x42f071a3	120.22195
122	0x42adb4fd	86.85349
123	0x43123b4a	146.2316
124	0x429abaa8	77.36456
125	0x4320b1be	160.6943
126	0x4211c838	36.445526
127	0x426d1b27	59.276516
128	0x42fd711f	126.72094
129	0x428b4f89	69.65534
130	0x42a4671f	82.20141
131	0x42dae85d	109.453835
132	0x435ae65e	218.89987
133	0x428f5f6a	71.686356
134	0x43145ae1	148.355
135	0x42982112	76.06459
136	0x42b5c973	90.893456
137	0x426eb37c	59.675278
138	0x429fa98a	79.83113
139	0x42f5611f	122.68969
140	0x4232fa28	44.744293
141	0x42860a2e	67.01988
142	0x425b7211	54.861393
143	0x430b13d7	139.0775
144	0x4183e69c	16.487602
145	0x42d0c758	104.38934
146	0x42a41f4c	82.06113
147	0x4312f248	146.94641
148	0x4258912e	54.141777
149	0x4282b1b9	65.347115
150	0x42954272	74.629776
151	0x432716a4	167.08844
152	0x4226bf6f	41.686947
153	0x431b9aaa	155.60416
154	0x4213a158	36.907562
155	0x427b9b38	62.90158
156	0x4255f878	53.492645
157	0x42b26b09	89.20905
158	0x42a9b6fd	84.8574
159	0x42e44774	114.13956
160	0x41e040f7	28.031721
161	0x42f318bc	121.54831
162	0x42bcf5ff	94.48046
163	0x431cc681	156.7754
164	0x4292e999	73.456245
165	0x42e87e1f	116.24633
166	0x4223d399	40.95664
167	0x429a78f1	77.23621
168	0x430589c0	133.53809
169	0x42816309	64.69343
170	0x41ffd0c2	31.976933
171	0x42cd483d	102.64109
172	0x429e80a3	79.25124
173	0x42b50a11	90.51966
174	0x4278a8bc	62.16478
175	0x422e64f5	43.59859
176	0x42967bc5	75.24174
177	0x4257f6a7	53.99087
178	0x430f6ee9	143.43324
179	0x43187edf	152.49559
180	0x424dc444	51.441666
181	0x4223d4ee	40.95794
182	0x429beff7	77.96868
183	0x4272e88c	60.727097
184	0x4222b72a	40.67887
185	0x42a51c08	82.55475
186	0x42c1cb66	96.89726
187	0x420b72da	34.86216
188	0x42339a67	44.900784
189	0x427d7e44	63.373306
190	0x42a1225c	80.56711
191	0x429328c5	73.57963
192	0x4314c963	148.78667
193	0x428238b9	65.11079
194	0x42a66050	83.18811
195	0x43159fac	149.62372
196	0x422f0073	43.75044
197	0x428631f9	67.0976
198	0x4302abf2	130.67166
199	0x423e6d52	47.60676
200	0x42a4aa3f	82.33251
201	0x4325ca8b	165.79118
202	0x4237f802	45.992195
203	0x42a3605d	81.68821
204	0x42daf567	109.4793
205	0x42e60666	115.0125
206	0x42da3ca7	109.11846
207	0x42617617	56.365322
208	0x4291012b	72.50228
209	0x42b62a16	91.0822
210	0x4269889d	58.38341
211	0x42b00a65	88.0203
212	0x42d79009	107.78132
213	0x4284a8cd	66.32969
214	0x42372975	45.790485
215	0x42a07fc8	80.24957
216	0x42ac6e83	86.21584
217	0x42e16a6a	112.70784
218	0x4230875a	44.13218
219	0x42950d8d	74.52647
220	0x4281ec97	64.96209
221	0x42c0a4cd	96.32188
222	0x436ddd1a	237.86368
223	0x4239b954	46.430984
224	0x4308eda5	136.9283
225	0x4274099d	61.009388
226	0x427df119	63.485447
227	0x42e677f9	115.23432
228	0x433439c4	180.22565
229	0x429cecf6	78.462814
230	0x432a8ee4	170.55817
231	0x424bf9f5	50.9941
232	0x42807a7a	64.23921
233	0x42873a04	67.61331
234	0x42855757	66.670586
235	0x42877598	67.729675
236	0x42bb4127	93.62725
237	0x42222c68	40.543365
238	0x42a1bc62	80.867935
239	0x430cd5c6	140.83505
240	0x42849a6e	66.30162
241	0x4327ba20	167.72705
242	0x42cf2c9a	103.58711
243	0x423e2c66	47.543358
244	0x43011460	129.07959
245	0x42ac6772	86.20204
246	0x42df14fc	111.540985
247	0x432eedd9	174.9291
248	0x43427759	194.4662
249	0x430c36c3	140.21391
250	0x4300bd6e	128.73996
251	0x424069e6	48.103416
252	0x42b5aee6	90.8416
253	0x42c3cb60	97.89722
254	0x42360dac	45.51335
255	0x42e66041	115.187996

L2.weight f4 [128, 256]
0	0x3cadd5a1	0.02122003
1	0xbcf57c7f	-0.02996659
2	0x3c380c83	0.011233452
3	0x3baeaff6	0.005331035
4	0xbc956d2c	-0.018240534
5	0x3d421f09	0.04739288
6	0xbb843c4d	-0.0040355087
7	0x3ccf6ad7	0.0253195
8	0xbd238566	-0.03992214
9	0xbc473a72	-0.012159931
10	0xbd3bc6db	-0.04584394
11	0xbd769b1b	-0.060206514
12	0x3d315c68	0.043301016
13	0x3d526581	0.051366333
14	0x3cc3a21e	0.023881014
15	0x3cafad8a	0.021445055
16	0x3d1db025	0.038498063
17	0xba06302c	-0.00051188725
18	0x3cf6a12c	0.03010615
19	0x3c2ef12b	0.010677616
20	0x3c803db2	0.015654419
21	0xbc093d7e	-0.008376477
22	0x3b53bc98	0.0032308456
23	0x3d278c07	0.040905025
24	0x3c881ce9	0.016615348
25	0xbb30df65	-0.0026988622
26	0x3d624377	0.05524012
27	0xbd199fce	-0.037505917
28	0xbd200d53	-0.039075207
29	0xbd0321dc	-0.032014713
30	0xbc2e0c2a	-0.010623017
31	0x3c9a69a6	0.018849205
32	0x3d262d02	0.040570267
33	0x3d28a133	0.041169357
34	0xbbb46618	-0.0055053346
35	0x3d7bfef1	0.061522428
36	0x3d454caa	0.048168816
37	0x3c2f8bec	0.010714512
38	0x3c98c94c	0.018650673
39	0xbc897304	-0.016778477
40	0x3d8caa41	0.06868411
41	0xb90d5db0	-0.00013481709
42	0x3ba17eb9	0.0049284366
43	0x3c8c83de	0.017152723
44	0xbc0e7822	-0.008695634
45	0x3c90e781	0.017688515
46	0xbd67a4fe	-0.056553833
47	0x3a38f715	0.0007055861
48	0x3d013c2e	0.031551532
49	0xbd007a09	-0.03136638
50	0x3acc9f2f	0.0015611405
51	0xbd10028c	-0.03515868
52	0xbd77d2eb	-0.06050388
53	0x3d45f368	0.048327833
54	0x3d05fc40	0.032711267
55	0x3d9112d9	0.07083673
56	0x3c200b12	0.009768264
57	0xbc52a779	-0.012857311
58	0x3d4c9b37	0.049952712
59	0x3cf94c64	0.030431934
60	0x3c393f9d	0.0113066705
61	0xbd29c09a	-0.041443445
62	0x3d82feb4	0.06396237
63	0x3d06fb29	0.03295437
64	0x3c8f2efb	0.017478457
65	0x3d90e157	0.0707423
66	0x3d16c777	0.03681132
67	0x3d4d8f64	0.050185576
68	0xbd47da20	-0.048792005
69	0x3db7e4e6	0.08979206
70	0xbd1ed723	-0.03877939
71	0x3d023602	0.031789787
72	0xbd6e277b	-0.05814312
73	0xbd2a1210	-0.041521132
74	0x3b3a965d	0.002847097
75	0xbcc8ce6b	-0.02451249
76	0x3d8a60d5	0.067567505
77	0x3d8d2218	0.068912685
78	0xbc7ad4ef	-0.015309556
79	0xbd6f054a	-0.058354653
80	0x3d3ea261	0.046541575
81	0xbce5805b	-0.028015306
82	0x3d4de26e	0.05026477
83	0xbc50da76	-0.012747398
84	0x3bcf03da	0.006317598
85	0x3cee578d	0.029094482
86	0xbbc23fe5	-0.005928027
87	0x3c3dd66c	0.011586767
88	0xbc1f2291	-0.009712831
89	0x3d4e9742	0.05043722
90	0x3c80e262	0.015732948
91	0xbd63497c	-0.055490002
92	0xbcc788bf	-0.024357198
93	0xbd637354	-0.055529907
94	0x3d3b4e39	0.045728896
95	0x3cb498c4	0.0220455
96	0x3c051582	0.008122804
97	0x3c23d3c3	0.009999218
98	0xbd10ab7c	-0.03531979
99	0xbc6dccd2	-0.014514165
100	0x3d66dcbe	0.05636286
101	0xbd4bcc7e	-0.049755566
102	0xbd611b1e	-0.0549575
103	0x3d8501d2	0.06494488
104	0xbbc6196b	-0.0060455105
105	0x3d81661c	0.06318304
106	0x3c17c8f6	0.009264221
107	0x3c9baeb4	0.019004203
108	0x3caa1d38	0.020765886
109	0xbd6744ea	-0.056462206
110	0x3d841e77	0.06451123
111	0x3d6e9f34	0.058257297
112	0x3c253978	0.010084502
113	0xbd3645f0	-0.04450029
114	0xbd877c53	-0.0661551
115	0xbd8377f8	-0.064193666
116	0x3d6ef643	0.058340322
117	0xbd5d15de	-0.053975932
118	0xbb7f4655	-0.0038951833
119	0x3c96344e	0.018335488
120	0xbd102720	-0.035193563
121	0xbd3ff1a8	-0.04686132
122	0x3d64ac52	0.0558284
123	0x3cfa2a61	0.030537786
124	0xbd5a813f	-0.053345915
125	0x3cd42150	0.02589479
126	0x3d042af3	0.032267522
127	0xbbbb7b26	-0.0057214675
128	0xbd220d7e	-0.03956365
129	0x3d0e9a2d	0.034815002
130	0xbbb6b1a4	-0.0055753756
131	0xbd0ea7aa	-0.034827866
132	0x3c07f053	0.008297044
133	0xbc87d402	-0.016580585
134	0x3ce8c4d7	0.028414173
135	0xbcc1f3d3	-0.023675835
136	0xbc93cfe3	-0.018043464
137	0xbab2fe50	-0.0013656113
138	0x3d453c2a	0.04815308
139	0x3d0067b2	0.03134889
140	0x3b6183a1	0.0034410732
141	0xbd28fbd6	-0.041255794
142	0x3cd54aa5	0.02603657
143	0xbd35ef6b	-0.04441778
144	0xbd630aa4	-0.05543007
145	0x3c54a85d	0.012979594
146	0xbca2ebe1	-0.019887866
147	0x3d3a16bd	0.04543184
148	0x3bcb68c7	0.006207559
149	0x3b223666	0.0024751662
150	0xba77efae	-0.00094580173
151	0xbd19f0b9	-0.037583087
152	0xbcf5b399	-0.029992865
153	0x3d67d829	0.05660263
154	0xbc672d07	-0.014109856
155	0xbd0cc854	-0.034370735
156	0x3d418974	0.047250226
157	0x3bfa21d5	0.0076334276
158	0xbb9f7496	-0.004866193
159	0x3cbf3119	0.023338841
160	0xbb7327ef	-0.003710266
161	0xbc3b16c7	-0.011419005
162	0x3cdf8be3	0.027288383
163	0x3c42920f	0.011875643
164	0x3d3fa8c5	0.04679181
165	0xbc6c0948	-0.01440651
166	0x3d11de77	0.03561255
167	0x3c29269c	0.010324147
168	0xbd124e30	-0.035719097
169	0x3ce14a5a	0.027501274
170	0x3cf7bcd4	0.030241407
171	0xbab6ba5b	-0.0013941036
172	0x3ce7ab20	0.028279841
173	0x3b9dfbb8	0.004821267
174	0xbd500ce9	-0.050793562
175	0xbd479396	-0.048724733
176	0x3cb48ea5	0.022040674
177	0x3d15b07d	0.036545265
178	0xbd686938	-0.05674097
179	0xbd5f3cc8	-0.054501325
180	0x3cc19b26	0.02363355
181	0xbd0d8bc7	-0.03455713
182	0xbcadb174	-0.02120278
183	0xbc88d688	-0.016703859
184	0x3d834153	0.06408944
185	0xbbb935de	-0.0056521734
186	0x3d5c39dc	0.053766116
187	0xbcad4f9f	-0.02115613
188	0xbd7fb094	-0.062424257
189	0x3d945159	0.07242078
190	0xbc5d8ea4	-0.013522778
191	0xbc4db968	-0.012556411
192	0xbd281b45	-0.04104163
193	0x3d43dbd8	0.04781708
194	0xbb13ec5c	-0.00225713
195	0x3d908276	0.070561334
196	0x3ce701a3	0.028199023
197	0xbd48469e	-0.04889547
198	0xbba46599	-0.005016994
199	0x3d8778d4	0.06614843
200	0x3c29cba3	0.010363492
201	0xbc4dfe9a	-0.012572909
202	0x3ad22f0f	0.0016035753
203	0xbd506b41	-0.050883535
204	0x3b08a2cc	0.0020848988
205	0xbcbb4b61	-0.022863092
206	0xbc0bc23e	-0.008530198
207	0xbd2c8474	-0.042118505
208	0xbd0669f1	-0.032815877
209	0xbd3bfebf	-0.04589724
210	0x3cdcf0f2	0.02697036
211	0x3d67136b	0.056415003
212	0x3c3e02fa	0.011597389
213	0x3d4e0e2c	0.050306484
214	0x3c9d0a7d	0.01917004
215	0x3d3b9e37	0.045805182
216	0x3d858bde	0.06520818
217	0xbc93f69b	-0.018061927
218	0x3d6ee8ed	0.058327604
219	0x3c40c409	0.011765488
220	0x3d23c3f1	0.039981786
221	0xbccce9ba	-0.025013793
222	0xbd350fba	-0.04420445
223	0xbc5586cd	-0.013032627
224	0xbc19a6a9	-0.009378114
225	0x3ca0ae53	0.019614374
226	0x3bd1a286	0.006397548
227	0x3d12d936	0.03585168
228	0x3d9b0bf6	0.07570641
229	0x3d3c1279	0.045916054
230	0xbcde0684	-0.027102716
231	0xbcfc5edd	-0.030806953
232	0xbbbe0285	-0.00579864
233	0xbbf199a8	-0.0073730536
234	0x3cae310d	0.021263624
235	0x3d6b36ba	0.05742524
236	0x3c071b6f	0.008246287
237	0xbd0549cb	-0.032541078
238	0xbd296f71	-0.041366044
239	0x3d6e4be9	0.058177862
240	0x3d62b813	0.055351328
241	0x3c52e91d	0.012872961
242	0xbd7bdbe1	-0.06148899
243	0x3d06eebc	0.03294252
244	0xbbc5e5a9	-0.0060393405
245	0xbd6066f1	-0.054785673
246	0x3ca24840	0.019809842
247	0x3c6e025b	0.014526929
248	0x3d2dc14e	0.042420678
249	0x3c8efef3	0.017455554
250	0xbc8451c3	-0.016152268
251	0x3d651daa	0.055936493
252	0xbd856e2f	-0.065151565
253	0x3d904bc9	0.07045705
254	0xbbf25a6c	-0.007396033
255	0x3d4da88d	0.05020957

L2.bias f4 [128]
0	0xbb81acec	-0.0039573815
1	0xbd2a75c2	-0.04161621
2	0xbbdff201	-0.006834269
3	0xbd103bdb	-0.035213333
4	0x3cc4a308	0.02400352
5	0xbd1336f3	-0.035941076
6	0xbd179f91	-0.03701741
7	0xbd45ab76	-0.04825922
8	0xbcbe41f5	-0.02322481
9	0xbc666258	-0.014061533
10	0x3c33f18e	0.010982884
11	0x3c93a97d	0.018025154
12	0xbcc89be9	-0.024488406
13	0xbd49c3ba	-0.049258925
14	0x3d6ef04b	0.05833463
15	0x3d1d6066	0.03842201
16	0xbcbfd6a8	-0.023417786
17	0x3b86de80	0.0041158795
18	0xbd4be2f7	-0.049776997
19	0xbd4b26b4	-0.049597457
20	0x3d630225	0.055421967
21	0x3cccb348	0.024987832
22	0x3c6d06f3	0.014466989
23	0xbd41d55f	-0.047322627
24	0xbd580344	-0.05273749
25	0xbd297a85	-0.04137661
26	0xbd17540e	-0.036945395
27	0x3ca0f8ef	0.01964995
28	0x3bb65d66	0.005565333
29	0x3cf241c1	0.02957237
30	0x3caf2525	0.021380017
31	0xbc2913fa	-0.010319704
32	0x3aa8ca51	0.0012877678
33	0x3d03df61	0.032195453
34	0xbb92b26c	-0.004476836
35	0x3bc6bb31	0.0060647954
36	0x3bc080ec	0.0058747437
37	0xbc2acc89	-0.010424742
38	0xbca45d4f	-0.020064024
39	0x3ca38a3a	0.019963372
40	0x3d5b361a	0.053518392
41	0xbd4d240f	-0.050083216
42	0xbb8e719b	-0.004347039
43	0xbce28b03	-0.027654177
44	0xbc050bcb	-0.008120487
45	0x3cba394e	0.022732403
46	0xbd61d75b	-0.05513702
47	0x3cefbac4	0.029263861
48	0x3cbb3449	0.02285208
49	0xbcfb907a	-0.03070854
50	0xbd14e595	-0.03635176
51	0xbcb446ef	-0.02200648
52	0xbb29769b	-0.0025858048
53	0xbd1031a9	-0.03520361
54	0x3d6503c2	0.055911787
55	0xbb85fc5a	-0.0040889205
56	0xbccd3763	-0.025050825
57	0xbd43c83b	-0.047798377
58	0x3cc5f8a0	0.024166405
59	0xbd0996d8	-0.03359112
60	0x3caae271	0.020859929
61	0xbc371962	-0.011175485
62	0xbce0d37d	-0.027444595
63	0x3caf04c8	0.021364585
64	0xbd7ab0fc	-0.06120394
65	0x3d1f2d04	0.03886129
66	0xbb4932ed	-0.003070052
67	0x3bd16eab	0.0063913665
68	0x3d115987	0.03548577
69	0xbca291cb	-0.01984491
70	0x3ccb2fc2	0.024803046
71	0x3a011540	0.0004924126
72	0xbc93d71a	-0.018046904
73	0x3d3cb07a	0.04606674
74	0x3bf42b63	0.007451461
75	0x3d29a3c5	0.04141595
76	0xbc91c1ed	-0.017792666
77	0x3cfc6473	0.030809617
78	0x3cf0b12c	0.029381357
79	0x3d13040c	0.03589253
80	0x3d059928	0.032616764
81	0x3d105d81	0.035245422
82	0xba1cc04e	-0.00059795834
83	0x3bab8b31	0.005235099
84	0xbd4bf736	-0.049796306
85	0x3d35661a	0.044286825
86	0x3c93ac5b	0.018026521
87	0xbc87cb30	-0.01657638
88	0xbd4fd847	-0.050743368
89	0xbcd7202b	-0.026260456
90	0xbb8fa4b8	-0.0043836497
91	0x3cf1eb21	0.029531064
92	0xbb4ed99a	-0.0031562806
93	0x3cbe3ab3	0.02322135
94	0x3c435fe4	0.011924718
95	0x3d74cfc1	0.059768442
96	0x3d68d290	0.056841433
97	0x3d29958f	0.041402396
98	0xbd7e0590	-0.062017024
99	0xbcc2a6f4	-0.02376125
100	0x3cd6ce42	0.026221398
101	0x3d265ba7	0.04061475
102	0x3d26e843	0.040748846
103	0xbcbbf951	-0.022946032
104	0x3bff9a5e	0.0078003844
105	0x3c445363	0.011982772
106	0x3cddaa7b	0.02705883
107	0xbd4034d5	-0.046925385
108	0xbd6ba2f2	-0.057528444
109	0x3d6a2fb9	0.057174418
110	0x3c30e027	0.01079563
111	0x3cfda3cd	0.030961895
112	0xbd440f61	-0.04786623
113	0xbc1e3bdc	-0.009657826
114	0x3cc85aba	0.024457324
115	0xbd553afa	-0.052058198
116	0xbd28b804	-0.041191116
117	0xbbbe64f1	-0.005810373
118	0xbc9dfda0	-0.019285977
119	0x3d66ff13	0.0563956
120	0xbd553a27	-0.05205741
121	0xbd440916	-0.047860228
122	0xbca98ab4	-0.020696022
123	0xbc902f61	-0.017600717
124	0xbd7213da	-0.059100963
125	0xbb1d9c0f	-0.0024049317
126	0x39b27c67	0.00034043493
127	0x3d26ea15	0.04075058
