Trained_Models/BotDetection_v4_MLP___May-10-2024/BotDetection_v4_MLP_epoch58_val_loss_0.475249.pth (torch, 955849 bytes, 45 tensors)

L1.weight f4 [256, 133]
00000000: 2c2d 043c 0779 6e3d bfb6 b13d 5ed7 36be
00000010: d5b0 ca3c 638b 3e3d 7592 473e f1e6 31bd
00000020: a515 2b3c 9ea6 193d a490 9bbd afd2 e73c
00000030: b316 55bd 514e 52bd 2b8d 0cbe de5b b13d
00000040: 54d5 0abc 08d3 32bd 1ed3 bbba b8b7 53bd
00000050: cafd fabc 79c1 29bc 8981 52bd eaee 06bd
00000060: 17d9 843d 6f38 dfbd ba1f fc3c 737f d5bd
00000070: 9346 c83c e6d2 d03d c7c4 ed39 b739 23bd
00000080: cbdc b7bd 57a9 b1bc cf45 82bd 8feb a43d
00000090: 243a d03d ab15 a03d 191b 93bd 99ee 3bbd
000000a0: ebc0 563e 5e5f 51bc 2528 16bd 7d44 1f3c
000000b0: 6080 5ebc 61f7 ba3d 8a4d da3b c5a3 8d3d
000000c0: d9c9 0dbd 2200 a33d 7812 433d a959 383c
000000d0: 07b1 873d 6c31 d33d 01de c9bc 92ab 183c
000000e0: 445a 32bd 90d1 5b3d fe17 3bbe e376 e9bc
000000f0: 06f7 33be fda7 863c ecd8 23be 855e 4fbd
00000100: 5bab 0a3e c422 01be 7c77 a2bd a3e4 093e
00000110: 0fa8 c0bc 6952 54bd 702a 643d 66fe da3d
00000120: ce3a d33d 0fe2 823d dd18 4abd f45f dfbc
00000130: 8933 a3bd f94a 643c 19a3 84bc 323a a93c
00000140: bc6a 65bb 1d8c 1abd 2a09 9ebd ad52 04bd
00000150: c621 643d fa86 43bd a7c9 3abe a8f1 d1bd
00000160: 6e44 e23c 4648 b5bc bdd1 963b e116 213e
00000170: 0ef0 c0bd ac24 c93a c5d2 12bd ee08 1f3d
00000180: 2c0d 233d c226 b7bd c250 3bbd d7c9 cf3c
00000190: 02a6 073d 0a0a e3bd 4fc1 023e 6d51 2abe
000001a0: 71b6 77bd 3261 983d eaff 893d c994 4dbd
000001b0: 9cf0 2bbd d8e7 82bd ec7c 363d a2a4 d2bd
000001c0: 6d7c 42bd d476 98bc 0f95 a13c 07ca fdbc
000001d0: 0714 9f3c c0c1 d73d 5c23 993d d9a5 a63d
000001e0: aa80 c3bd 5463 543d f314 453c 1382 4f3e
000001f0: 8f52 ffbd 583a 44bc 5c34 443d 7621 a23d
00000200: 25f0 9bbd 6ab7 873b 0dd9 993d ce75 5e3d
00000210: c1ab 79bd f009 e73b 47c3 263d 00af 78bc
00000220: 690b cb3d 840c 15bd a034 873d 6728 8cbd
00000230: 4051 14bd b32a 5e3d 68a4 2fbd f733 a03b
00000240: 253e d8bb 362b 6fbd a993 803d b001 873d
00000250: 5575 553c 36e2 83bd ff87 d4bb 585f 90bc
00000260: fcc5 543d db8e d4bc 40ab 9d3b e2e5 88bd
00000270: 80fa dcbd 0a81 d0bd a858 02bd e61d a1bd
00000280: 3fd9 8bbb 0438 9ebd 13d2 353d 22b2 1dbc
00000290: b885 febc 03e5 8e3d d99b 873d 4aa5 83bd
000002a0: 7ea6 b5bc 9140 ff3d 1696 943d 88de 293e
000002b0: d2de b93d 6024 883d 2643 1dbd 7cdb 883c
000002c0: 79c7 2d3d d775 1e3e 70a4 15bd 338a d83c
000002d0: 7195 613d cd13 773d d5f6 ec3c b5db a3bd
000002e0: 190e 96bd 4b9b 853d c30f 113e c178 6bbd
000002f0: e5c9 59bd c471 7e3b ed72 8c3d 4e88 b23d
00000300: 46fd 99bd bc0c a33d 8d15 883d b518 c53c
00000310: ffbe dfbd e56f 823b 5fc9 113d b1cd 5dbd
00000320: f2a5 8abc 04de 8bbc 1456 cfbc 91f2 95bc
00000330: 6884 f53d 6250 d63c b181 10bd 498b 54bc
00000340: 9944 f93b 4b6e a93d 087b 2abd 6598 1abc
00000350: 63e2 dcbc e13e 0ebd 9b18 48bc 6982 cabd
00000360: 6c0a d0bd 6b2b b03d b435 19bd a06e 643d
00000370: 0eee 55bd e8b7 943c 6e51 2fbe 58a1 e63d
00000380: 10ea 2fbe 16a9 49bd 967c e5bd 5a88 353d
00000390: 2d30 83bc 3bc5 cabc 7b43 6fbd 9f9c 7dbd
000003a0: 3347 4a3d fffe 1b3e 6f71 ac3c 23a7 7b3d
000003b0: 44e7 5dbc 4cfc 1e3d dc3e bf3d f084 4f3d
000003c0: 9914 e2bd a637 053c 47fb ba3b a721 05bd
000003d0: 9b73 6cbd e301 403d 1cc6 84bd 5268 cd3c
000003e0: 62da 92b9 ecf5 4a3d accb aa3d 6c8a bd3d
000003f0: 1547 49bd 6e0d 1cbe d8e9 9ebd b94d 9dbd
0.00806741 0.05822089 0.08677434 -0.17855594 0.024742523 0.04651965 0.19489463 -0.043433134
0.010442172 0.037512414 -0.075959474 0.028298704 -0.0520236 -0.05134422 -0.13725726 0.086601004
-0.008473713 -0.043658286 -0.0014329886 -0.05168888 -0.030638594 -0.010361069 -0.051393066 -0.03294269
0.06486719 -0.10899436 0.030776847 -0.104247 0.024447715 0.10196476 0.00045350773 -0.039849963
-0.0897766 -0.021687193 -0.06360971 0.08052742 0.101673394 0.07816633 -0.07182903 -0.04588184
0.2097203 -0.012779085 -0.03665938 0.009720919 -0.013580412 0.09129215 0.0066620754 0.06916002
-0.034616325 0.0795901 0.047625035 0.011251845 0.06625562 0.10312161 -0.024641993 0.009318249
-0.043543115 0.05366665 -0.18270871 -0.028499072 -0.175747 0.016437525 -0.16000718 -0.05062725
0.1354193 -0.12610918 -0.07932946 0.13466124 -0.023517637 -0.051836405 0.055704534 0.10693054
0.103139505 0.063907735 -0.049340118 -0.027267434 -0.07968814 0.0139338905 -0.016191052 0.020657632
-0.0035006246 -0.03773128 -0.07716592 -0.03230541 0.05569627 -0.047736146 -0.18240987 -0.102511704
0.02762052 -0.02212919 0.0046026395 0.15731384 -0.09420787 0.0015346012 -0.035845537 0.038826875
0.039807484 -0.08942939 -0.045731314 0.0253648 0.0331173 -0.11085899 0.12769054 -0.16632624
-0.060476724 0.074404135 0.06738265 -0.05019072 -0.04197751 -0.06391877 0.04455273 -0.102853075
-0.047481943 -0.01861135 0.019724397 -0.030980123 0.01941873 0.10535002 0.074774474 0.08137102
-0.09546025 0.05185254 0.01202892 0.20264463 -0.12466919 -0.011976801 0.047901496 0.079165384
-0.07614163 0.0041417377 0.07512102 0.054311566 -0.060954813 0.007050745 0.040713575 -0.015178442
0.09914286 -0.03638889 0.06601834 -0.06843644 -0.0362103 0.05423994 -0.0428814 0.004889007
-0.006599205 -0.05839082 0.06278164 0.06592119 0.013028462 -0.06439631 -0.0064859386 -0.017623588
0.051946625 -0.025947025 0.0048116744 -0.06684472 -0.107899666 -0.10180862 -0.03182283 -0.07867031
-0.004267841 -0.07725528 0.044389796 -0.00962499 -0.031069621 0.06977274 0.066215225 -0.06428011
-0.022174116 0.12463487 0.07255189 0.16588795 0.09075703 0.06647563 -0.038394116 0.01670622
0.04242656 0.1547464 -0.036533773 0.026433086 0.05507416 0.060321618 0.028926292 -0.0800089
-0.07326908 0.065237604 0.14166169 -0.057488207 -0.053171057 0.0038825134 0.06857858 0.08717404
-0.07519011 0.07961413 0.066447355 0.024059633 -0.109251015 0.003980624 0.035592433 -0.05415124
-0.016924832 -0.017073639 -0.0253096 -0.018304141 0.11988145 0.026161376 -0.035279933 -0.012972661
0.0076070544 0.0827299 -0.041621238 -0.009435748 -0.026963418 -0.034727935 -0.012212898 -0.09888155
-0.10158238 0.08602031 -0.03740473 0.055769563 -0.05222898 0.0181541 -0.17120907 0.11261243
-0.17179132 -0.04923352 -0.112054035 0.044319488 -0.016014183 -0.02475225 -0.058413964 -0.061916944
0.049384307 0.15233992 0.021050183 0.06143869 -0.013543908 0.038814828 0.09338161 0.05066389
-0.11039085 0.008130943 0.005706224 -0.032502797 -0.057727437 0.0468768 -0.06483099 0.025074158
-0.00028009998 0.049550936 0.083396286 0.092549175 -0.049140055 -0.15239498 -0.07759446 -0.0768084

L1.bias f4 [256]
00000000: 63e3 a6bd 2e47 97bc 760f 7b3d 037b 8abc
00000010: ce3a b2bc a4dd 79bd c5d6 053d c6cb 2a3d
00000020: c1cc 56bd 5baf 9dbd 1f7c bdbc d1fc 773d
00000030: e9d8 83bd 8ead 12bd bd40 aebd 1d0b 21bc
00000040: 526b 973c 0852 103d 9747 29bd 3ea0 a93d
00000050: eaa7 ef3b b376 7dbd 329e 8e3c 06ad 023d
00000060: 25ce 643d e8be 7b3d 1939 b5bc c296 8ebc
00000070: 587c 33bd daeb 103d bf7c 87bd c9f5 bdbc
00000080: 51b8 65bc 3451 91bd 8a57 093d 2c74 a13c
00000090: 1bfc 963d f1a4 5bbd 95d0 9f3d 4ab0 153d
000000a0: 5533 dabc 6a4f 87bd 27a7 a7bd 84fa 013d
000000b0: 88db 2cbd b030 cdbc e089 0abd e35f 85bc
000000c0: 9dc2 f23b 2784 983d 77ab 673d 42f8 833d
000000d0: 235a 9c3b 732d dbbc e829 23bd 67ec 4c3d
000000e0: c009 f0bb b021 0b3d 02f1 9ebd e59c 313d
000000f0: 28a6 39bd 8fad 19bc 2daa 8e3d d358 583d
00000100: be7c 4dbd 1b89 923d d2b8 8fbd 254d 223d
00000110: 1415 633c c769 a33d a550 0e3c cb98 99bc
00000120: c623 973d c9af 51bd 30d1 753d bdb6 05bd
00000130: 96b4 3fbc 3b37 19bd 1c88 683d 64c7 5ebd
00000140: 55ec c8bc 3c75 c53b bfa0 9d3d c0ff 41bc
00000150: b301 18bd adcc 22bc 695b a03c 9e95 1cbd
00000160: f289 b03d 05cd 0f3d 8cfa fbbc b1c9 4f3d
00000170: cd3f cebc 058f 9b3c b7a4 78bc 6c54 8abd
00000180: ec13 94bd 6298 9abd e270 45bd 05ea aebb
00000190: baf4 383c 6e41 6b3c f9f5 1f3d 5478 b33b
000001a0: 14c8 ac3d 6bac a6bc bb3f 953c b400 923c
000001b0: 739c 2e3d 1fb1 8d3d a60f 053d ffd0 303d
000001c0: 5243 9d3d 1376 2b3d a73e a13d dd4f 343d
000001d0: 1455 2b3d 4583 31bc cdaf 5cbd 6f73 9d3d
000001e0: 4de5 363d 3036 d43c 7f41 103d 3922 c4bc
000001f0: 8cf5 27bc 9ea6 8d3d 7da3 ba3c 0cc3 abbd
00000200: 1397 8f3d 33ee d23c e3cd 2dbd 49e6 1ebd
00000210: 503b 84bd 2dd5 a53d e4c5 26bd 8754 1fbd
00000220: 26b9 e33c 2bf0 0dbd 4887 3a3d 4c14 f9bc
00000230: 235e a8bc 8bb3 dbbc 608c a13b c919 323d
00000240: 2888 5ebc 5c60 8b3d 987c afbd 73c2 87bd
00000250: 77ed c73c 98c4 d5bb c0ae 56bc e5b1 cb3c
00000260: bf25 91bd 01cd 16bc 11b8 7cbd c017 9e3d
00000270: 13b9 9a3c 9c6c 533d 84df 63bd 1ee2 a9bc
00000280: 576b 3e3d 34f6 953d 1336 94bd bf71 c0bc
00000290: 5413 80bc 7767 a43d a4f4 5bbd 5a17 033d
000002a0: e5f1 813d 6c48 86bd bb0f a73d 2455 aebd
000002b0: 9329 82bd d1b8 cdbc 8e6d 8d3b fe0d 4c3b
000002c0: 4817 843d 47b1 983d 2f89 c0bc ce8c a43c
000002d0: 09ec f8bc 437d ca3c a12c dcba eea7 253d
000002e0: 855e bb3a dd52 dcbc 09c5 173d 381f 803d
000002f0: e366 25bd efda bc3c 5a92 2039 d406 cdbc
00000300: ac4d 173d 3b41 4a3d 036e 1f3d b7d3 96bd
00000310: b584 00bd 42c3 923d 0f26 4b3d 11b6 473d
00000320: c770 57bd 3bb1 fe3c 3fbd 32bc 3b71 09bd
00000330: d017 533d fa84 aa3d 4eba 1e3d fad2 813d
00000340: 07f8 4abd c992 2e3d 2cf0 a3bd 57ef aabc
00000350: 0d31 aabc 3fe1 91bd 731c debc 1b07 863d
00000360: 3b05 2ebd 321c 993d 9edb 303d bed9 0ebd
00000370: d217 473d 7f0f a5bd 5488 143d 9137 29bd
00000380: 66f8 8bbd adc9 ae3d 7707 5cbb 5c60 5abd
00000390: e76e af3d 32f0 b03c 9d8f 56bc e1e1 05bd
000003a0: 526f 9f3d 6817 453d d630 a03d b759 013d
000003b0: 3ee2 8b3d 9472 5aba ec90 9e3c 38f1 b23c
000003c0: c3ca a73d 9006 853d c380 543d 4700 abbd
000003d0: 38ed 813d 55d7 413d 4f9c 9dbc 9e64 823c
000003e0: d16d aebd 941c 46bd b307 893d 6394 a3bd
000003f0: 90ec 093a e804 7c3c 0b57 83bb 9335 4fbd
-0.08148839 -0.018466558 0.06129404 -0.01690436 -0.021756556 -0.06100239 0.032675523 0.04169824
-0.052441362 -0.07699462 -0.023130475 0.06054384 -0.06437857 -0.035810046 -0.085084416 -0.00982931
0.018483792 0.03523448 -0.04132804 0.08282517 0.007313718 -0.06188078 0.017409418 0.03190329
0.055860657 0.06146136 -0.022121953 -0.017405871 -0.043819755 0.035381176 -0.0661559 -0.023188489
-0.014020995 -0.070955664 0.03353075 0.019708715 0.07372304 -0.053624097 0.07803456 0.036545075
-0.026635805 -0.06606944 -0.08186179 0.03173305 -0.04220155 -0.02504763 -0.033822894 -0.016281074
0.0074084536 0.07447081 0.056560006 0.06443836 0.0047714873 -0.02675507 -0.039834887 0.05003014
-0.007325381 0.033967674 -0.07760812 0.043362517 -0.045324475 -0.0093797585 0.06966052 0.052819084
-0.05016779 0.07155057 -0.070176736 0.039624352 0.013860006 0.0797916 0.008686219 -0.018749615
0.0737987 -0.051193032 0.06001395 -0.032644976 -0.01170077 -0.037406188 0.05677043 -0.054389372
-0.024526754 0.0060259383 0.076966755 -0.011840761 -0.037110996 -0.009936494 0.019574838 -0.038228624
0.08620061 0.03510763 -0.030759118 0.050729457 -0.025176907 0.018989095 -0.01517599 -0.067543834
-0.07230362 -0.07548596 -0.048203357 -0.005337956 0.011288816 0.014358861 0.039052937 0.0054769907
0.084365994 -0.020345887 0.018218866 0.0178226 0.04262967 0.06918549 0.032485627 0.043168064
0.07678856 0.04186065 0.07873278 0.044021476 0.041829184 -0.01083452 -0.053878594 0.07688033
0.044652272 0.025904745 0.035218712 -0.0239421 -0.010251414 0.06916545 0.022783035 -0.083868116
0.07011237 0.025748348 -0.042432677 -0.038793836 -0.064566255 0.08097301 -0.040716067 -0.03889897
0.027798247 -0.03465287 0.04553917 -0.030405186 -0.0205527 -0.026819011 0.004930064 0.043481622
-0.013582267 0.068054885 -0.08568686 -0.06628885 0.024405224 -0.00652368 -0.013103187 0.0248651
-0.070872776 -0.00920415 -0.061698977 0.07719374 0.018887078 0.05161725 -0.055633083 -0.020737704
0.046489086 0.0732235 -0.07236876 -0.023491738 -0.015634216 0.08027547 -0.053700104 0.03200469
0.06344966 -0.06556782 0.08157297 -0.08512333 -0.06355586 -0.025112541 0.0043160385 0.003113627
0.06449753 0.07455688 -0.023502914 0.020086672 -0.030385988 0.024717933 -0.0016797968 0.040443353
0.0014295137 -0.026894981 0.03705314 0.062559545 -0.040381324 0.023053614 0.00015313309 -0.02502767
0.036939308 0.049378615 0.038923275 -0.073646 -0.03137656 0.07166149 0.049596842 0.048757616
-0.052597787 0.03109037 -0.010909378 -0.03355525 0.05153638 0.083261445 0.038751893 0.06339069
-0.049552944 0.042620454 -0.080047935 -0.02086608 -0.020775342 -0.071230404 -0.027113175 0.06544324
-0.042485457 0.07476081 0.043178193 -0.034875624 0.0486067 -0.08059596 0.036262825 -0.041312758
-0.068344876 0.0853456 -0.0033573785 -0.05331455 0.08566075 0.021598909 -0.0130957635 -0.032686118
0.077849045 0.048118025 0.07821815 0.0315797 0.06830262 -0.00083331135 0.019356214 0.021843538
0.081929706 0.06495392 0.05188061 -0.08349662 0.06344074 0.047324497 -0.019239573 0.015917119
-0.085170396 -0.048367098 0.06690922 -0.07987287 0.0005261386 0.015382029 -0.004008179 -0.0505882

BN1.weight f4 [256]
00000000: 9071 7e3f 34d5 7f3f 2750 7b3f c5ef 773f
00000010: 68ec 7c3f 5c7d 813f 006f 823f 4b9e 7e3f
00000020: 64f0 7f3f b232 823f 321f 7c3f e6e1 7a3f
00000030: bfdf 7e3f a362 813f 6f60 853f 659b 803f
00000040: 3723 823f b0bd 803f 343c 7e3f bcc4 803f
00000050: 2aa8 7c3f ae20 7d3f d9da 873f 1b05 823f
00000060: b577 823f c32d 823f 9ff0 843f d206 813f
00000070: cef5 833f f649 843f c701 853f 5608 803f
00000080: 6d9d 833f d6f3 7d3f a7de 7d3f f106 823f
00000090: f9ca 853f 77d5 823f a76c 7f3f 8402 823f
000000a0: e091 813f 4d26 843f 3ab1 813f d943 853f
000000b0: 909b 7f3f 4b12 823f c31d 803f 68bb 7c3f
000000c0: 0ae3 863f 0efa 7f3f 12db 7a3f c97d 7e3f
000000d0: 952d 7c3f 873b 823f ce9d 7e3f f78d 7f3f
000000e0: 19bf 803f 41e1 813f 3641 803f b648 863f
000000f0: fc4b 7e3f 2162 813f fb15 853f 7b76 843f
00000100: ea9e 783f 82e2 803f 3507 7c3f ede0 823f
00000110: e0af 7f3f 664b 8b3f 976b 7f3f aa4c 793f
00000120: e2ee 833f ac19 843f 5609 813f 9a24 803f
00000130: 65fe 803f cdda 843f d7b9 823f 1f59 823f
00000140: 9d39 823f 2e02 7e3f 2a30 803f 2e01 7d3f
00000150: b5ee 803f efbb 803f dc7e 813f be71 843f
00000160: eb48 843f 7284 803f 2b7d 823f ceb6 843f
00000170: e9b6 813f 2941 803f e2e3 823f 322b 833f
00000180: ac5e 813f 0051 823f eca9 803f 333e 843f
00000190: 7681 7f3f 1e4f 7f3f 7d2f 813f ed1b 833f
000001a0: 1eb8 823f 1321 843f aec6 7f3f 0473 843f
000001b0: de1b 833f 1a20 843f d2ac 813f 6431 843f
000001c0: 8d2f 7d3f 33b8 823f 23f2 843f cee3 853f
000001d0: 3951 863f 9a9e 7c3f a6cd 7e3f 49d3 7e3f
000001e0: 7939 7e3f 48e2 7a3f 6846 833f d38e 7c3f
000001f0: b393 803f 8c5c 803f 5d07 833f a999 833f
00000200: 52c1 7d3f c472 803f 2684 7c3f 8db6 7c3f
00000210: 27b0 7f3f 5cca 813f e242 813f eafc 823f
00000220: d855 833f 9706 7b3f 98be 813f 6faa 7b3f
00000230: 045a 843f ad23 813f daa1 7f3f 1975 803f
00000240: ebe1 853f 3f85 803f d133 813f 8ae6 823f
00000250: 3388 823f a5b8 813f 3a68 843f fd70 7d3f
00000260: ad90 813f 8a8a 7d3f 8791 833f 6e54 7d3f
00000270: e18b 7f3f eb42 823f b46c 7b3f 4b2c 813f
00000280: dadc 7c3f 3133 833f 495d 7c3f 4bff 803f
00000290: dcb6 813f bb2c 7f3f 527c 8a3f d722 7c3f
000002a0: 9ccc 823f b546 803f f732 853f 362d 7d3f
000002b0: 417c 803f d26d 813f b733 823f 598e 813f
000002c0: 1828 7c3f 4284 823f 1a6a 7d3f d31c 813f
000002d0: 34c0 813f 451a 823f faf6 813f 5092 7c3f
000002e0: 2e31 833f 805d 823f d376 7e3f 61cb 7d3f
000002f0: aad8 813f f720 803f 0ebc 813f 9830 7f3f
00000300: 024f 803f 83ef 813f 64ea 803f 1c4f 833f
00000310: be27 883f 5e43 813f 6add 853f ce79 813f
00000320: 9c50 803f cb9a 823f 95e7 833f 6277 7c3f
00000330: eb30 833f 35d7 7d3f 9c08 7b3f a10c 7f3f
00000340: ca1d 7e3f ebba 823f af36 853f b540 803f
00000350: 59b1 813f e3d1 7f3f 445c 843f a503 803f
00000360: c44f 823f ede1 823f 5855 823f 149b 7e3f
00000370: 6391 833f b55c 7b3f 94a1 7e3f 2d1a 823f
00000380: 992e 823f 2249 7e3f 390d 813f b4db 7f3f
00000390: 3728 813f 5102 873f 7523 7f3f b2d8 833f
000003a0: 66c1 873f 3fd1 7b3f b52a 813f 9197 833f
000003b0: 91a7 863f d3d5 843f 3249 803f 1f67 783f
000003c0: 6c77 7a3f ad38 7a3f 1e5e 813f 8240 863f
000003d0: 7cec 7e3f 12d9 7b3f 46c0 7c3f 0fb1 7e3f
000003e0: 00cb 833f c85e 813f 0c82 7f3f 904f 823f
000003f0: 2c0d 803f cc66 803f 6142 853f 8d29 883f
0.9939203 0.999347 0.9816918 0.96850234 0.9879823 1.0116382 1.0190125 0.99460286
0.9997618 1.0171721 0.984851 0.98000944 0.9956016 1.0108227 1.0420054 1.0047423
1.0166997 1.0057888 0.9931061 1.0060039 0.986941 0.9887799 1.0613662 1.0157808
1.0192782 1.0170215 1.0385932 1.0080206 1.0309389 1.0335071 1.0391167 1.0002544
1.0282418 0.9920019 0.99167866 1.0158368 1.0452567 1.0221394 0.99775165 1.0157018
1.0122643 1.0324188 1.013221 1.041133 0.99846745 1.0161833 1.0009083 0.9872346
1.0538037 0.9999093 0.97990525 0.9941068 0.9850705 1.0174416 0.9945954 0.99825996
1.0058318 1.0146867 1.0019901 1.049094 0.9933469 1.0108072 1.0397333 1.0348657
0.97117484 1.0069125 0.984485 1.0224892 0.9987774 1.0882385 0.99773544 0.97382605
1.0307276 1.0320334 1.0080974 1.001117 1.0077635 1.0379273 1.0212964 1.0183448
1.0173832 0.99222076 1.0014699 0.98829925 1.0072848 1.0057353 1.011684 1.0347211
1.0334753 1.0040419 1.0194448 1.0368288 1.0133945 1.0019885 1.0225794 1.0247557
1.0107017 1.0180969 1.0051856 1.0331482 0.99806917 0.997301 1.0092617 1.0242897
1.0212438 1.0322593 0.99912536 1.03476 1.0242879 1.0322297 1.0130866 1.0327573
0.9890068 1.0212463 1.0386394 1.0460145 1.0493537 0.98679507 0.99532545 0.99541146
0.99306446 0.9800153 1.0255861 0.9865543 1.0045074 1.0028243 1.0236622 1.0281268
0.9912311 1.0035024 0.9863914 0.9871605 0.9987816 1.013988 1.0098536 1.0233433
1.0260572 0.9805693 1.013629 0.98306936 1.033997 1.0089012 0.9985634 1.0035735
1.045957 1.0040663 1.0093938 1.0226605 1.0197815 1.0134474 1.0344307 0.9900053
1.0122277 0.9903952 1.0278786 0.98956954 0.99822813 1.0176672 0.9821274 1.0091642
0.9877449 1.0249997 0.9857984 1.0077909 1.0133929 0.9967763 1.081919 0.9849066
1.0218692 1.0021578 1.0406178 0.9889711 1.0037919 1.011164 1.0172032 1.0121566
0.9849868 1.0196612 0.98990023 1.0086921 1.0136781 1.0164267 1.0153496 0.98660755
1.0249383 1.0184784 0.9940006 0.99138457 1.0144246 1.001006 1.0135515 0.99683523
1.0024111 1.0151218 1.007153 1.0258517 1.0637128 1.0098684 1.0458195 1.0115297
1.00246 1.0203489 1.0305048 0.98619664 1.0249304 0.99156505 0.9806001 0.99628645
0.99264205 1.0213293 1.0407313 1.0019747 1.0132247 0.99929637 1.0340657 1.0001112
1.0180593 1.0225197 1.0182295 0.9945538 1.0278744 0.98188335 0.994653 1.0164238
1.017047 0.9933034 1.008216 0.99944615 1.0090398 1.0547582 0.9966348 1.0300505
1.0605896 0.9836616 1.0091158 1.0280629 1.0519887 1.0377754 1.0022337 0.9703235
0.97838473 0.9774273 1.0106847 1.0488436 0.99579597 0.983781 0.98730886 0.9948892
1.0296326 1.010705 0.9980781 1.018053 1.000402 1.0031371 1.0410882 1.063768

BN1.bias f4 [256]
00000000: a14a 333d b0eb 39bd e37c 0bbc fc30 be3d
00000010: 8a8f 4c3d d214 85bd c36e 5abc 6bb2 2ebd
00000020: 3041 09bc a698 25bd b122 013d c8dd 8bbc
00000030: 9e55 f33c 1ad3 b1bd d6f2 b6bd 3439 a7bc
00000040: 8557 26bc 91b5 6f3b b4cc 02bd 2ce7 85bc
00000050: 6bbb 713c d83c e33c 9637 0bbe 54ad dcbc
00000060: 326c a53c 2612 44bd 7c27 a0bc ce13 af3b
00000070: 67e5 20bd dddb 9fbd f740 c2bd 4786 12bc
00000080: f40a 87bd 7258 a03d 67ea 90bd 530b d03c
00000090: b5ec b0bc 4ac2 0dbd 99c4 b7bc e2d6 89bc
000000a0: 71ce 1fbc 32cd ecbd a031 8ebd 424d cdbd
000000b0: a863 f73b 4977 01bc dcc7 dabd 9692 85bc
000000c0: a237 60bd 9ac1 21bd be92 773d 3694 833b
000000d0: abff 553d d126 93bd c133 5d3d 2f4c e0bc
000000e0: 34ee 0abd 1574 7fbc 8530 803c b2ab b7bd
000000f0: c833 a43c b086 4dbd 7418 17bd 47f1 8ebd
00000100: d675 0f3c 56b6 05bb 6fb4 6b3c a5b0 3cbd
00000110: 9ecd a73b e98d e3bc e3ed 703d 540d 3f3d
00000120: 5603 ebbc 5bd7 143b d110 81bb b462 bb3b
00000130: b790 2fbd 064d f4bd 3c0a aabd e916 27bd
00000140: 0d5e e5bc a9ee 573d ec95 30bd ad04 6ebd
00000150: 677d 4dbb cfd0 8d3d 652f 1cbc ff0d 92bc
00000160: 20bf 4dbd 84df ebbc cc78 a7bb 9b38 d4bd
00000170: d576 2dbd 6338 95bd c356 2dbd 357c 2fbe
00000180: c7da 523d 5f71 67bc 4191 513d eefa 4ebe
00000190: 0469 abbd 92b3 f83c ead5 9fbd 0f8f 50bd
000001a0: eb97 2dbd 5e4e 54bd b0a5 94bc 2836 89bc
000001b0: 91d5 febc 965a acbd 50f9 69bd 7264 d4bd
000001c0: 9583 60bd e1e6 2d3c ebeb 12bd 5360 c9bd
000001d0: 6da3 79bc 4bb6 1a3b f9a7 96bd 6167 f03d
000001e0: f8d2 793d bf9c 88bc e802 ebbd 5fbc 303c
000001f0: 7f75 e53b 52cc 063d 141a 59bd 876e cdbd
00000200: db08 e0bb 93f0 06bd 9754 00bb 88e0 503d
00000210: de0d 093d cbca 88bd b4fd 573b a152 8bbd
00000220: 0346 6fbd 5b8e eabc 601e a5bd 60e4 243d
00000230: 617f c9bd 6e4e 9a3c 0f66 1fbd 76e8 bebd
00000240: c32d 81bc 317d 1dbd b744 b5b8 7890 87bd
00000250: 0b33 8bbd 9481 c7bc eea0 9ebd c479 bdbc
00000260: af81 5c3b 20d6 fe3c 4870 b9bd 23a3 7abb
00000270: 79a2 32bc a24c 16bd a3e5 fabc ad7e 7bbd
00000280: f02d 1ebd 630f 6abd 8638 283d baf5 ec3c
00000290: dc8f 5fbd 857f c9bd 8f40 e1bd 76eb 10bd
000002a0: 0e8d eb3c 29a2 70bd 1ba8 213d a457 5dbc
000002b0: 9705 00bd 1e34 56bd 2408 19bd f2d9 bb3c
000002c0: de0d c43c 56e8 06be b817 083d da66 f73c
000002d0: e2ed 53bb 6444 05bd f7b9 c1bd 084d 9b3d
000002e0: 0c1f eabb 9da2 08bd de59 c03b 1652 2f3c
000002f0: 2cbd 3ebd 389f 853c 61be d83c 1507 f5bc
00000300: 0dd7 46bd 73f4 903c 64ff 46bb a6a2 24bd
00000310: a38e c9bd 4d46 3fbe 24ff 0cbe 4d96 07bd
00000320: d79f 6a3c 608f 14be e227 74bd 4bec 8c3c
00000330: 8ab1 9cbd 7265 91bc cce0 553c 4e1b bebc
00000340: f00f 0cbc 4848 963c 155c c8bd 93f7 c5bc
00000350: eb42 85bd 5e22 58bd c693 e4bd 700e 5dbc
00000360: ff13 13bd c6f2 8ebd 1665 ccbd 8e91 d83c
00000370: b40d 50bd fcb9 a7bc 4fef 343d 3fb9 c9bd
00000380: 03ff b3bd 9258 0a3d af9b 45bd 2c96 91bc
00000390: 50b4 bfbc 96a6 acbd ae7d 9bbd 5e58 6dbd
000003a0: 1104 1bbb ddab 653d 873e 45bc 8495 94bd
000003b0: 0ede 86bc 39d1 43bd 04b9 29bd d118 973c
000003c0: 3ead 703d d7a0 363d 8946 d2bd 4922 97bc
000003d0: 0001 15bd ad44 3cbd 1aaf 0dbd fdfe 74bd
000003e0: 25c0 eabd b09c bdbd 7048 9c3c 6628 763b
000003f0: fdcf 8abd d227 77bd 37e4 98bd b0c6 3ebd
0.043772344 -0.045390785 -0.008513662 0.09286687 0.049941577 -0.06498112 -0.013332072 -0.04265062
-0.008377358 -0.04042878 0.031527225 -0.017073527 0.029703911 -0.086828426 -0.08933036 -0.020413019
-0.010152702 0.0036576728 -0.0319335 -0.016345583 0.014754157 0.027738973 -0.13595423 -0.026938118
0.020193193 -0.04786887 -0.019550078 0.005342937 -0.039281275 -0.078056075 -0.09485047 -0.008943147
-0.06593886 0.078293696 -0.07075959 0.025396025 -0.021597246 -0.034609117 -0.022432612 -0.016826097
-0.009753809 -0.115625754 -0.06943059 -0.100245014 0.0075497217 -0.007901975 -0.106826514 -0.01630525
-0.054740556 -0.039491273 0.06044268 0.004015471 0.052245777 -0.07185138 0.054004434 -0.027380077
-0.033918574 -0.015591641 0.015648136 -0.08968295 0.020044222 -0.050177276 -0.036888555 -0.06979614
0.008756122 -0.002040287 0.01438628 -0.0460669 0.005120947 -0.027777629 0.058820616 0.04664357
-0.028688114 0.002271137 -0.0039387722 0.0057185534 -0.04286262 -0.119287536 -0.08302733 -0.040793333
-0.027998948 0.05271784 -0.043111727 -0.058109928 -0.0031355263 0.06924593 -0.009532784 -0.01782894
-0.0502311 -0.028793104 -0.0051108357 -0.10362359 -0.042349655 -0.072861455 -0.04231907 -0.17137225
0.051478174 -0.014126151 0.051163916 -0.2021291 -0.083696395 0.030359063 -0.07804473 -0.05091768
-0.04238121 -0.05183255 -0.018145412 -0.016749457 -0.031107696 -0.084157154 -0.05712253 -0.10370721
-0.054812986 0.010614128 -0.03586952 -0.098328255 -0.015236718 0.002360719 -0.07356257 0.11738468
0.06099221 -0.016676305 -0.11475164 0.010787099 0.007002532 0.0329097 -0.053003386 -0.10030847
-0.006836993 -0.032944273 -0.001958167 0.05099538 0.03346049 -0.06679305 0.0032957615 -0.068028696
-0.058416378 -0.028632334 -0.08062434 0.040256858 -0.09838749 0.018836226 -0.03891569 -0.09321682
-0.015768891 -0.03844947 -8.643552e-05 -0.06619352 -0.06796845 -0.02435378 -0.07745539 -0.023129351
0.0033646633 0.031107962 -0.09054619 -0.003824421 -0.010902994 -0.036694176 -0.030627077 -0.061400104
-0.03861803 -0.05714358 0.04106953 0.028925765 -0.054580554 -0.098387755 -0.10998642 -0.035380803
0.028753784 -0.058748398 0.03946696 -0.013509665 -0.03125533 -0.052295797 -0.03736128 0.022931073
0.023932394 -0.13174567 0.033225745 0.03020041 -0.0032337834 -0.032535926 -0.09459298 0.07583052
-0.0071448144 -0.033358205 0.005870088 0.010700723 -0.046567127 0.016311273 0.026457967 -0.029910604
-0.048544932 0.017694687 -0.0030364627 -0.040194176 -0.09841659 -0.18679161 -0.13769203 -0.033102322
0.014320335 -0.14507818 -0.059608348 0.017202517 -0.076510504 -0.017748568 0.013054084 -0.02320638
-0.008548722 0.018345013 -0.09783188 -0.024165904 -0.06506904 -0.05276715 -0.11160998 -0.013492212
-0.03590774 -0.06979899 -0.09980218 0.026436593 -0.05079432 -0.020474426 0.044173535 -0.09849786
-0.08788874 0.033775873 -0.048244175 -0.017771803 -0.02340141 -0.08430211 -0.07592331 -0.0579456
-0.0023653547 0.056072105 -0.012038833 -0.0725508 -0.016463306 -0.047806952 -0.04143621 0.01844445
0.058758967 0.044586983 -0.1026736 -0.018448966 -0.036377907 -0.04596393 -0.034590818 -0.05981349
-0.1146243 -0.092584014 0.01907751 0.00375607 -0.06777952 -0.06034071 -0.074654035 -0.046576202

BN1.running_mean f4 [256]
00000000: 2a67 0dc1 2d46 8940 6359 be40 a495 0341
00000010: 0bb1 cfc0 df5a f640 4cb4 c241 609d 5b41
00000020: a053 0a41 9232 5ac0 86a2 9b40 cf2a 9d41
00000030: 370a 0741 65d9 96c0 6696 48c0 867d 773f
00000040: a626 7541 a80b 42c1 a9f4 4741 325b 5041
00000050: 838e 3ac0 d5af 5c41 5e92 0640 1a3f a040
00000060: 8cb3 fbbf ab62 0b3e bd34 05c1 dd7f b640
00000070: 67f6 7bc0 3d0c 6cbf c219 c140 659c 9dc0
00000080: 6ded ee40 86a9 5ebf 4132 b440 f68a 04c1
00000090: 54f3 02c1 75a5 6140 45d4 4a40 c591 60c0
000000a0: 5e41 5041 e934 8241 89ad af40 cc12 ed3f
000000b0: 4ccc ebc0 dd9f 5740 03cc 1f41 5378 953f
000000c0: f795 fbc0 401b afc0 0725 cfc0 9d26 f0c0
000000d0: 3340 9640 0bc6 5dc1 d020 6540 e59c 2a40
000000e0: 827c b8bf c4fd b240 d6bf 0cc1 67bc bf40
000000f0: d042 f33f 023f 82c1 4fe5 0b40 6918 92c0
00000100: 2c88 debf f642 c1bf 7c37 5f41 1300 8e40
00000110: 7cf6 24c1 bf3d ec3e 33f3 1dc0 31e1 dec0
00000120: 819f edbf dbb7 3341 065d 56c1 41d9 e840
00000130: b17a ff40 9b44 e9c0 d735 fb40 d327 89c0
00000140: 0732 913f 91de 043e 95bf cd40 5830 3d41
00000150: 984c 94c0 7b14 82bc 6763 27c1 00ff 4b40
00000160: e10b 65bf 9d53 4740 6ea9 9040 f3f9 1b41
00000170: bf1c c93f a686 07c1 16f8 b6bd 5b2e 8440
00000180: 671a 9740 aba3 78bf 941e 3ec1 5a47 e5c0
00000190: 24bc b940 092e 3ec0 035e a740 0776 9940
000001a0: 2276 8041 1528 85bf 3ef2 ecc0 17c9 dec0
000001b0: 2766 cabf 6e8c fc40 74b3 3dc1 96a7 fcc0
000001c0: f99f 0a41 687e 63c1 b088 0340 897a 0741
000001d0: da66 1ec1 fa2e 4cc1 6612 c03f d49b 1ac1
000001e0: 3d62 0fc1 edf1 78c1 c50c a540 db35 bdc0
000001f0: f1af 31bd 6d42 d7c0 83dd b6c0 82f8 1ebf
00000200: 1ee4 a4c0 2a50 25c1 a477 b63f 8089 31c1
00000210: a17c 2fbf 601e 0fc0 8abd 7e3f 31b4 2c41
00000220: 4c3f 88be 693f 87bf 4429 2940 cf2b 7141
00000230: ff24 b1c0 8b98 0ac1 a196 bb40 2a79 1b41
00000240: a683 fa3e 6ab7 7a3e c0e6 24c1 d034 c13f
00000250: c982 32c0 9c31 a4be 2d28 92bf 80e4 1bc0
00000260: 0a5c efc0 f2ad f540 b9fd cbbf 024f d9c0
00000270: 7ffe 55c0 642f 86c1 02f6 48c1 8bcd 1041
00000280: 1a3e 3cc0 df1a 27bf fb81 28c1 2832 0d41
00000290: 2c75 44c1 778a 27c1 96e3 7bbf dd23 8e41
000002a0: 2626 92c1 03b8 2fc0 86a4 583e 1808 3e41
000002b0: 2780 7741 4ddd 943f 0f10 83bf 080c 83c0
000002c0: 9300 0bc0 5a25 2c41 6d3c da40 1124 77c1
000002d0: f5f4 02c1 4d45 80bf 5c40 3841 34c2 6841
000002e0: 6579 b03f ffd3 21c1 03ca e140 4ee9 9240
000002f0: 3999 41be b346 7440 b50e e440 8b98 8cc0
00000300: 99af 12c1 fb2c 8640 efd1 ce3f ecfb 0dc1
00000310: dcdd 813f 8946 32c1 9fd5 8941 7a55 84c0
00000320: f97c 41c1 8168 16c1 c663 a73f 2c79 89c0
00000330: 7a71 0fc1 ce65 4f41 d973 6241 4243 34c1
00000340: 44e1 9940 ea21 2bbf 986d 38c1 e64a 5c40
00000350: 72c0 9240 dc82 e6c0 7daa 9cbf 8660 a13f
00000360: c4d9 3940 2ba6 54c0 cf9f 263f dc7b 63c0
00000370: 05e6 c8c0 e4b5 5bc1 000e 8ac0 9c3b 0f3f
00000380: b700 79c0 9f2e 473f 1704 b6bf 3a78 27c1
00000390: 84e4 8440 1274 08c1 0751 ba40 5908 2a3f
000003a0: 80e0 6140 501e 47c1 0acf 823f 5676 c43e
000003b0: 9d23 0cc1 8e92 5240 82b3 3bc0 00ad a541
000003c0: 24ad 16c0 4600 c340 6bda 4fc0 8eb4 be40
000003d0: 97ec 6c40 4783 4d3f a21a ffc0 beb7 a2c0
000003e0: a45c a5c1 a02a 9040 e37f 9141 33cd afc0
000003f0: ffd4 05c1 0e35 dfc0 22de ce40 b7eb ccc0
-8.837687 4.2898164 5.9484115 8.224033 -6.4903617 7.6985927 24.338036 13.725922
8.645416 -3.4093366 4.8635893 19.645903 8.439994 -4.7140374 -3.1341796 0.9667591
15.321936 -12.127846 12.4972315 13.0222645 -2.9149482 13.792928 2.1026835 5.007703
-1.9664168 0.13611858 -8.325376 5.7031083 -3.9369142 -0.92206174 6.0343943 -4.925341
7.4664826 -0.8697742 5.6311345 -8.283926 -8.184406 3.5257237 3.169206 -3.508897
13.015959 16.275835 5.4899335 1.8521361 -7.3686886 3.3691323 9.987308 1.1677345
-7.8620563 -5.4720764 -6.47327 -7.5047135 4.695337 -13.86085 3.5801277 2.665826
-1.4412997 5.5934772 -8.796835 5.9917483 1.9004765 -16.280766 2.185871 -4.5654798
-1.7385306 -1.509856 13.951046 4.437509 -10.310177 0.4614086 -2.4679687 -6.964989
-1.8564302 11.232387 -13.397711 7.2765203 7.983727 -7.2896247 7.8503222 -4.2861114
1.1343392 0.12975527 6.4296365 11.824303 -4.63435 -0.015878906 -10.461768 3.187439
-0.8947125 3.1144783 4.5206823 9.748523 1.5711898 -8.470373 -0.089340374 4.1306586
4.721973 -0.9712474 -11.882465 -7.16496 5.8042164 -2.9715598 5.230226 4.7956576
16.057682 -1.0402857 -7.4045706 -6.962047 -1.5812424 7.8921423 -11.856312 -7.8954573
8.664056 -14.218361 2.0552177 8.467416 -9.90011 -12.761469 1.5005615 -9.663044
-8.961484 -15.559064 5.157809 -5.912824 -0.04338068 -6.7268586 -5.71454 -0.6209794
-5.1528463 -10.332071 1.4255261 -11.096069 -0.68549544 -2.236229 0.99507964 10.793992
-0.26610792 -1.0566226 2.6431437 15.073195 -5.535766 -8.662242 5.8621373 9.717081
0.48928565 0.2448403 -10.306335 1.5094242 -2.7892325 -0.320691 -1.1418511 -2.4358215
-7.479985 7.6774836 -1.5936805 -6.7908945 -3.3436582 -16.77314 -12.5600605 9.050181
-2.9412904 -0.6527538 -10.5317335 8.824745 -12.278606 -10.471305 -0.98394144 17.767511
-18.268627 -2.7456062 0.2115651 11.876976 15.468787 1.1630036 -1.0239276 -4.0952187
-2.17191 10.759119 6.819876 -15.446305 -8.184804 -1.0021149 11.515713 14.547413
1.3787047 -10.114257 7.0559096 4.5909796 -0.18906106 3.8168151 7.1267953 -4.393621
-9.1678705 4.192991 1.6157817 -8.874004 1.0145831 -11.1422205 17.229307 -4.135434
-12.093011 -9.400514 1.3077323 -4.2960415 -8.965204 12.962355 14.153283 -11.26642
4.8087482 -0.66848624 -11.526756 3.4420714 4.585992 -7.203474 -1.2239529 1.2607582
2.9039164 -3.322642 0.650876 -3.5544348 -6.2780786 -13.731907 -4.314209 0.5595033
-3.8906686 0.77805513 -1.4219998 -10.466852 4.152895 -8.5283375 5.822391 0.6641899
3.5293274 -12.4449005 1.0219433 0.38371533 -8.758695 3.290195 -2.9328313 20.709473
-2.3543177 6.0937834 -3.2477062 5.9595404 3.7019403 0.8027844 -7.972001 -5.0849295
-20.670235 4.5052032 18.187445 -5.4937987 -8.364501 -6.9752264 6.464616 -6.403774

BN1.running_var f4 [256]
00000000: 0c33 5d42 d69e 3042 dfd9 0443 c8f5 be42
00000010: 6a78 1e43 2d0d 4743 c633 1743 c38d cb42
00000020: 6315 0943 c78f 0443 cb56 2343 70c3 3b43
00000030: 8bf8 ba42 38f9 b742 e65c 6d42 8f18 2043
00000040: c500 e342 9a5b b442 3bb0 7442 8cfb 0d43
00000050: 1253 e542 6cbf 3942 d04e d241 ba49 8042
00000060: d5e4 3942 bb58 ca42 99ae 6842 55db 9742
00000070: 1a21 4a42 e23c 5143 378a 8242 4b92 f842
00000080: b44c bd42 9242 ba42 0646 d642 5721 3a42
00000090: 3c40 5542 3e08 bd42 1efd 0243 d6d5 4642
000000a0: 407b 7d43 adc4 7242 0ee1 8542 683a 9842
000000b0: 60e0 8443 b6dc de42 770e b642 08fc 1d42
000000c0: cf4b c942 d745 9342 5789 ee42 bd4a b742
000000d0: bbb1 8642 fa13 e942 af67 7d42 ae9c cd42
000000e0: 36f5 9742 6d1b c742 8084 8542 29aa da41
000000f0: e464 4142 6f3c b242 cf0b 8f42 6d5b c142
00000100: 9c35 2443 a96a 5542 60e4 9c42 6dcd a442
00000110: e416 1643 506d 8f42 a60f e742 6825 5a42
00000120: e183 8a42 66c5 7942 a05f c542 f91a 2942
00000130: 0821 9c42 88b1 3342 218f be42 ffa8 2442
00000140: af49 1742 73ff ae42 0ca6 8542 bfb4 8543
00000150: 5b7b 8142 e044 1f42 1050 fb42 d832 3c42
00000160: 301c 7042 9107 e842 72a1 cf42 6276 6042
00000170: 1701 7c42 96a6 6c42 25f7 9d42 bfef 8442
00000180: cf49 c742 31bd 4042 68b8 ae42 801c f342
00000190: 9c3c f342 f877 0f43 dc2d 3242 90a8 3a43
000001a0: d03b 8642 321f 3542 6abb 4e42 a456 9942
000001b0: f6cb 7d42 0fac b842 934b 0c43 799f ad42
000001c0: 737e 7542 d725 9c42 50e6 8a42 ddfe 3742
000001d0: a714 3d42 6728 b042 1925 a442 8031 6d42
000001e0: 8e26 cc42 a783 ef42 7558 ae42 380d 1443
000001f0: 69ca 9b42 c5fb 1f43 3067 1342 f28a 6d42
00000200: 7ba7 0043 4ad9 8a42 14bb a542 5cd7 de42
00000210: ab76 5b43 40e8 8f42 de02 1443 8f03 9a42
00000220: 92ae b542 fb9c 6e42 5948 a142 13be f442
00000230: 61cc 3642 a8cc 8642 ac7f 5c42 d204 0b43
00000240: f6e0 8441 af87 d042 0285 a642 9d2b 1343
00000250: ae16 5b42 7fe7 8042 0e7f 9642 5b63 2643
00000260: 878c 2842 f679 1c43 0bbc 1342 2fcc 8042
00000270: 58c4 5542 7022 b442 07db aa42 dc53 e842
00000280: 2f82 e241 1ade f442 65c5 bf42 47cb 1b43
00000290: 757b 9442 9f83 ea42 f095 2442 bfc6 9c42
000002a0: 64a5 0643 c3cf 8342 4342 fb41 dc16 d142
000002b0: dccc a142 6318 b542 b980 7842 e390 3842
000002c0: e406 9742 25e8 5c42 e144 1043 8f87 1743
000002d0: 69f4 4d42 9b00 2942 e444 9e42 cf70 7342
000002e0: 26ae 2242 87bb a342 9ccb c342 c119 0e42
000002f0: d84c 3442 1d0f 8042 e5e6 a042 3bff 9442
00000300: d6da 1643 d460 8542 c726 a842 78f3 1543
00000310: b190 3042 867d 8942 baa5 0243 5c67 3e42
00000320: 3ae5 a442 eb57 2743 fbcd 3d42 a955 a642
00000330: ce3e dd42 4213 eb42 ed2c dd42 584b 6342
00000340: 5a44 9242 b21d b542 08e0 6b42 0705 b342
00000350: c33e d642 3310 8742 10c8 3542 b729 a342
00000360: 309a af42 95f4 e042 e75c 3642 5f25 9342
00000370: 3f59 8142 4ae5 c342 9461 7143 1645 3b42
00000380: 9acf 0843 8a00 7642 1f1b 8042 1c24 e542
00000390: e2bb 3343 572b a042 4bf5 2a43 d3ea 4b42
000003a0: ca03 7e42 b273 8942 b239 8642 1775 8842
000003b0: 5609 bf42 f808 2342 6d80 a142 328b 0d43
000003c0: be38 8742 b374 2843 acf4 cd42 bde1 3d42
000003d0: 4094 0243 940d af42 ae67 e242 33dc 2f43
000003e0: 8f2e 4443 e019 0f43 1787 0243 9c23 4142
000003f0: 6d92 b442 c8fd c242 d2ac 3342 67e5 e942
55.29985 44.155113 132.85106 95.48004 158.47037 199.05147 151.20224 101.77688
137.08354 132.56163 163.33904 187.76343 93.485435 91.986755 59.34072 160.09593
113.5015 90.17891 61.1721 141.9826 114.66225 46.436935 26.288483 64.144
46.47347 101.1733 58.170506 75.92838 50.532326 209.23782 65.26995 124.28573
94.64981 93.13002 107.136765 46.53256 53.31273 94.5161 130.98874 49.708824
253.48145 60.692066 66.93956 76.114075 265.75293 111.431076 91.02825 39.496124
100.64806 73.636406 119.26824 91.64597 67.34713 116.53902 63.351254 102.806015
75.97893 99.553566 66.75879 27.333086 48.348526 89.118034 71.52306 96.678566
164.20941 53.35416 78.446045 82.40122 150.08942 71.7135 115.53056 54.53653
69.257576 62.442772 98.68677 42.27634 78.064514 44.92337 95.27955 41.165035
37.821957 87.498924 66.82431 267.41208 64.74093 39.81726 125.65637 47.049652
60.027527 116.01478 103.81532 56.11561 63.001064 59.16268 78.982704 66.468254
99.64416 48.184757 87.36017 121.555664 121.61838 143.46863 44.544785 186.65845
67.11682 45.280464 51.68302 76.66922 63.44918 92.33605 140.29521 86.81147
61.373486 78.073906 69.44983 45.99889 47.27017 88.07891 82.07246 59.29834
102.0753 119.75713 87.17277 148.05164 77.89533 159.98347 36.85077 59.38569
128.65422 69.42439 82.86539 111.42062 219.46355 71.95361 148.0112 77.00695
90.84096 59.6533 80.641304 122.37124 45.69959 67.39972 55.12468 139.01883
16.609844 104.26501 83.25978 147.17036 54.77215 64.45214 75.24815 166.3881
42.137234 156.47641 36.933636 64.398796 53.441742 90.06726 85.42779 116.16379
28.313566 122.43379 95.88554 155.79405 74.24113 117.25707 41.146423 78.388176
134.64606 65.905785 31.407354 104.54465 80.900116 90.54763 62.125706 46.14149
75.51346 55.226704 144.26906 151.52953 51.48868 42.25059 79.13455 60.860165
40.670067 81.866264 97.897675 35.52515 45.075043 64.02952 80.450966 74.4985
150.85483 66.68912 84.07574 149.95105 44.1413 68.74516 130.64737 47.600937
82.44771 167.34343 47.451153 83.167305 110.622665 117.53761 110.587746 56.823578
73.1335 90.558 58.96878 89.50982 107.12258 67.53164 45.445374 81.581474
87.80115 112.4777 45.590725 73.57299 64.67431 97.94783 241.38116 46.817467
136.81094 61.500526 64.05297 114.570526 179.73392 80.08465 170.95818 50.97932
63.5037 68.72597 67.112686 68.22869 95.518234 40.75876 80.75083 141.54373
67.610825 168.45586 102.977875 47.470448 130.5791 87.52652 113.2025 175.86015
196.18187 143.10107 130.5277 48.284775 90.28599 97.49567 44.91877 116.94805

L2.weight f4 [128, 256]
00000000: 6906 af3c 2cdf f7bc 6269 353c 2799 b23b
00000010: 9036 96bc 924a 413d 82db 85bb 70db cf3c
00000020: cc35 23bd eef4 49bc e7a2 3bbd 3d2f 77bd
00000030: 24cd 313d 914c 523d c96c c43c d944 af3c
00000040: 00b1 1d3d e993 39ba 37bc f63c c054 2e3c
00000050: f24b 813c 0cc8 04bc a81f 5f3b 4c59 263d
00000060: 07ba 883c cf53 3fbb 73fb 613d de33 1abd
00000070: 1393 1fbd 2f81 03bd ca8b 33bc 69e2 993c
00000080: 0920 253d 81b3 273d f381 bbbb 591a 7b3d
00000090: a7d0 453d e971 2d3c 1933 973c e713 89bc
000000a0: 317f 8c3d 2d9a aeb9 4e5e a03b 5be5 8c3c
000000b0: e904 0dbc 6d86 913c 543a 68bd de7d 533a
000000c0: a9d3 003d 61db 01bd 6c3c b93a d281 10bd
000000d0: e0cd 77bd 05ce 453d 35d8 053d a43f 913d
000000e0: daf5 1f3c f08b 52bc 1e88 4c3d 11cc fb3c
000000f0: 4455 363c 37ca 29bd c2da 823d 44fc 063d
00000100: 293a 8e3c c507 913d 710e 173d b99d 4d3d
00000110: 1369 47bd d860 b83d 8559 1fbd 1ebc 023d
00000120: dc5f 6fbd f5a6 29bd ebb1 3a3b 17bc c7bc
00000130: fc56 8a3d 4d4d 8d3d 8b95 7bbc ef1e 70bd
00000140: fcef 3e3d 3cb4 e5bc 73b5 4d3d aeea 51bc
00000150: 399b d43b b9a4 ef3c 0654 cabb 4c5a 3d3c
00000160: 5c4c 21bc adb0 4d3d a1da 813c 158f 63bd
00000170: 86a6 c6bc 02a7 63bd 5fb5 3b3d 312c b53c
00000180: 991d 083c 8799 243c a92e 10bd 74b2 70bc
00000190: 090f 673d b6ba 4bbd 63e1 60bd 31ed 843d
000001a0: f337 c6bb 8d0e 813d da56 133c 13c7 9b3c
000001b0: 9899 aa3c b2e4 66bd f229 843d f620 6e3d
000001c0: af2b 253c ce7c 36bd 8182 87bd 5591 83bd
000001d0: 4c97 6e3d a06c 5dbd 95d9 81bb 1a47 953c
000001e0: 9420 10bd 50b5 40bd e06e 653d 9ad4 f93c
000001f0: 4df5 5abd 322e d53c e5b5 043d 8778 b9bb
00000200: ea46 22bd 33b9 0e3d 880f b4bb c160 0ebd
00000210: 265f 063c 2751 88bc bc65 e73c 6219 c3bc
00000220: 7e05 96bc fa8a b2ba b465 443d e29b 003d
00000230: 38fb 633b 229d 28bd 149d d33c 56fa 35bd
00000240: c753 62bd 470b 4c3c 47c6 a2bc 5a10 393d
00000250: fb00 c33b ff42 113b b49e abba 198c 19bd
00000260: 17d0 f6bc dc09 663d 5736 6abc bda1 0cbd
00000270: 405d 413d 1365 fc3b dd9a a4bb e653 be3c
00000280: 516d 80bb d4af 3dbc 5ca9 de3c 57df 3f3c
00000290: cfb2 3f3d dda1 6dbc 3ca9 113d 52d4 263c
000002a0: 91e4 12bd 1e63 e03c 265a f83c 25c9 beba
000002b0: 8b3e e83c 8a98 933b d52f 51bd d528 47bd
000002c0: cee2 b33c ef96 153d 12e8 67bd f573 5ebd
000002d0: b716 c23c 3314 0dbd 6fd7 adbc 457b 8abc
000002e0: be0e 833d 3b39 bebb a7a0 5c3d 31d3 aebc
000002f0: 53b2 7fbd bfef 933d 911b 5fbc c769 4dbc
00000300: cec4 28bd 9311 433d 2f6d 1bbb 8956 903d
00000310: 8e12 e63c 1e95 48bd 88e4 a9bb 85fb 873d
00000320: bca6 293c c0b6 4cbc 0fc1 b93a b80a 50bd
00000330: fce2 0d3b d0d9 babc 8bbf 0dbc 2af1 2bbd
00000340: d525 06bd 162d 3dbd d4b4 da3c c8a3 673d
00000350: 5b7c 3a3c cba1 4d3d 0d69 9d3c 0652 3b3d
00000360: c171 853d 519d 95bc b2a8 6d3d 58ec 3f3c
00000370: e73c 243d bb8d ccbc 6c08 35bd 53e7 56bc
00000380: 3fc5 17bc dd89 a03c 712b cf3b c8c3 123d
00000390: 20f3 9a3d eab8 3c3d 1b29 dfbc 0b9c fbbc
000003a0: 6f9e c5bb e7f0 f1bb 428f ac3c 33b2 6b3d
000003b0: 6f75 053c 26ea 04bd 3995 29bd 3185 6e3d
000003c0: 92d6 623d c646 523c a14d 7dbd 7429 073d
000003d0: 485e c4bb a9d5 60bd 2ba6 a23c a347 703c
000003e0: 57e7 2d3d 9dca 8c3c 36a4 84bc 063e 663d
000003f0: b4c2 85bd fe37 903d a6f3 f6bb 012b 4e3d
0.021365361 -0.030257784 0.0110724885 0.005450386 -0.018336564 0.047190256 -0.0040850053 0.02537319
-0.039846227 -0.012326462 -0.045809653 -0.060347784 0.043408528 0.05134255 0.023977654 0.021395134
0.03849888 -0.000707923 0.030119045 0.010640323 0.015783284 -0.0081043355 0.0034045968 0.040612504
0.016690267 -0.002919424 0.05517144 -0.03764712 -0.03895862 -0.03210562 -0.010958621 0.018784719
0.040313754 0.040942673 -0.0057222783 0.061304424 0.04829469 0.01058624 0.018456982 -0.016733123
0.06860197 -0.00033302736 0.0048940545 0.017199209 -0.008607128 0.017764295 -0.05669625 0.0008067767
0.031451855 -0.031703357 0.0014132387 -0.035280056 -0.060499072 0.04829218 0.032676894 0.070922166
0.009763205 -0.0128507465 0.0499345 0.030736955 0.011128727 -0.041452613 0.06389381 0.032955423
0.017361717 0.0708156 0.036879007 0.050199244 -0.04868419 0.090028465 -0.03890373 0.031917684
-0.058441028 -0.04141899 0.0028487395 -0.02438168 0.06754872 0.068995096 -0.015355478 -0.05862325
0.046615586 -0.028040044 0.05022187 -0.0128123 0.0064882305 0.02925335 -0.006174567 0.011557173
-0.009844866 0.05021732 0.01585132 -0.055556376 -0.024249326 -0.055579193 0.045827266 0.022115799
0.008307838 0.010046369 -0.03520075 -0.014690984 0.056410823 -0.04973861 -0.054902446 0.06490553
-0.00604915 0.063016035 0.008992875 0.019015824 0.020825192 -0.056370445 0.06453313 0.058136903
0.010081216 -0.044552617 -0.066166885 -0.06424204 0.058249757 -0.05405867 -0.0039627054 0.01822238
-0.03518732 -0.047047913 0.05601394 0.030496884 -0.053456593 0.026023004 0.03240003 -0.00566012
-0.03961841 0.03484459 -0.0054950155 -0.03476024 0.008201396 -0.016640259 0.028246753 -0.023815814
-0.018313166 -0.001362174 0.047948554 0.03139866 0.003478719 -0.04116548 0.025831737 -0.044428192
-0.055255678 0.012453861 -0.019869937 0.04518161 0.0059510446 0.0022165177 -0.0013093562 -0.037487123
-0.030128522 0.056161746 -0.014295182 -0.034333933 0.04720807 0.0077024787 -0.005023344 0.023233365
-0.0039192815 -0.011577565 0.027180366 0.011710963 0.046801385 -0.014503923 0.035561785 0.010182457
-0.03586251 0.027391013 0.030316424 -0.0014555795 0.028350135 0.004504268 -0.051071007 -0.048622925
0.021958735 0.036520895 -0.056617804 -0.054309804 0.023692472 -0.03444309 -0.02122089 -0.016904483
0.06399296 -0.0058051622 0.053864148 -0.021340938 -0.062425923 0.07223462 -0.013617412 -0.012537426
-0.041203313 0.047624182 -0.0023716202 0.07047755 0.02808502 -0.048970334 -0.0051847138 0.066397704
0.010354694 -0.012494743 0.0014171916 -0.050791472 0.0021650186 -0.02280894 -0.008651624 -0.04197804
-0.032750923 -0.046185575 0.026697554 0.05655268 0.011382188 0.050203126 0.019215131 0.04573252
0.065158375 -0.01826349 0.05802221 0.011714064 0.040097144 -0.024969926 -0.044197485 -0.013116675
-0.009263336 0.019596988 0.0063223173 0.035831243 0.07565904 0.046074785 -0.02724128 -0.030714056
-0.0060308496 -0.007383454 0.021064404 0.05754299 0.008145674 -0.032449864 -0.041402075 0.05823249
0.05538041 0.0128342565 -0.06184161 0.032998517 -0.0059926845 -0.054891262 0.019854626 0.014665517
0.04245695 0.017186457 -0.016191583 0.056211494 -0.06531277 0.0704193 -0.0075363694 0.05033398

L2.bias f4 [128]
00000000: ade2 81bb 4b8a 2abd ddfc dfbb 2429 10bd
00000010: 56a1 c43c c72e 13bd 29a6 17bd 83a2 45bd
00000020: 1f3d bebc e335 66bc f303 343c bdc3 933c
00000030: 1b68 c8bc d3c3 49bd 35d8 6e3d 015b 1d3d
00000040: 2271 c0bc eb28 863b 2216 4cbd 1a25 4bbd
00000050: 8505 633d 0903 cd3c 14f3 6c3c 62d2 41bd
00000060: 5e11 58bd 0342 29bd f94c 17bd e8b8 a13c
00000070: ff12 b43b 235d f23c 5b21 af3c 2704 29bc
00000080: bb95 a73a 7dd9 033d 89c8 92bb a891 c73b
00000090: 5191 c03b 0dd9 2abc 964f a4bc da85 a33c
000000a0: f528 5b3d 0221 4dbd 9a97 8ebb c007 e3bc
000000b0: cad9 04bc 3248 ba3c d74d 61bd fcc0 ef3c
000000c0: 8bda ba3c b699 fbbc 46e8 14bd 582b b4bc
000000d0: fed6 2dbb 4e54 10bd cf09 653d 7e06 86bb
000000e0: cd64 cdbc f735 43bd da70 c53c af84 09bd
000000f0: 2cbd aa3c a296 38bc 2bcd e0bc b828 af3c
00000100: f8ac 7abd ca3a 1f3d 5195 48bb 1334 d13b
00000110: db55 113d a4c7 a2bc 923a cb3c 80c0 bf39
00000120: a9ee 93bc 05ac 3c3d d7cc f13b e79b 293d
00000130: ddc7 91bc f191 fc3c 263d f03c fa01 133d
00000140: 4a9a 053d aa56 103d dbff 0eba f356 ab3b
00000150: b7f9 4bbd 348c 343d 5bf6 923c 2dd7 87bc
00000160: 53a1 4fbd b91c d7bc 9cae 8fbb dc9a f23c
00000170: fe55 4fbb ec8d bd3c a27a 433c eac0 743d
00000180: f6cf 683d 4599 293d 6a64 7ebd 24a9 c2bc
00000190: eab7 d63c a468 263d 5bc2 263d 65ec bbbc
000001a0: 9bf1 fe3b 93e3 433c 3fa7 dd3c d137 40bd
000001b0: 7ea1 6bbd f431 6a3d 6cc5 303c e697 fd3c
000001c0: eef8 43bd 1a6a 1ebc d95c c83c 053c 55bd
000001d0: 54b7 28bd 9674 bebb bd72 9ebc 8bf2 663d
000001e0: a433 55bd ea0b 44bd 7535 a9bc 2735 90bc
000001f0: f811 72bd f0bd 1dbb b02b b539 0ce7 263d
-0.0039637894 -0.041635793 -0.0068355636 -0.035195485 0.024002712 -0.035933282 -0.037023697 -0.048250686
-0.023222504 -0.0140509335 0.01098727 0.018037671 -0.024463704 -0.04925902 0.05831166 0.038416866
-0.023491446 0.0040942333 -0.049825795 -0.04959593 0.055425186 0.025025861 0.014462251 -0.047319777
-0.052750938 -0.04132272 -0.03693864 0.01974149 0.0054954286 0.029585427 0.02137821 -0.010315931
0.0012785712 0.032189835 -0.004479472 0.0060903616 0.005876698 -0.0104277255 -0.02005748 0.019961286
0.053505857 -0.050080307 -0.0043515684 -0.027713656 -0.008108566 0.022739504 -0.055005874 0.029266827
0.022809288 -0.030712944 -0.036354326 -0.021993324 -0.002652585 -0.03523665 0.055917557 -0.0040901294
-0.02507248 -0.047658887 0.024101663 -0.033573803 0.020842157 -0.011266382 -0.027441582 0.02138172
-0.061200112 0.038874425 -0.0030606578 0.0063843816 0.03548227 -0.019870587 0.024808202 0.00036573783
-0.018058138 0.046062488 0.007379155 0.041408446 -0.017795498 0.030831309 0.029326033 0.035890557
0.032617845 0.0352389 -0.00054549956 0.005228871 -0.049798694 0.04407902 0.017939737 -0.016582096
-0.05069096 -0.026258813 -0.0043848287 0.029614858 -0.0031636949 0.023138963 0.011931093 0.05975429
0.056838952 0.041405935 -0.06210748 -0.023762293 0.026210744 0.040627137 0.040712696 -0.02293987
0.0077802665 0.011956113 0.027057288 -0.04692823 -0.057527058 0.057176545 0.010789257 0.03095622
-0.04784482 -0.009668851 0.024458336 -0.052059192 -0.04119046 -0.005812238 -0.01934182 0.05638365
-0.0520512 -0.047862925 -0.020655373 -0.01760347 -0.059099168 -0.002406951 0.0003455556 0.040747687

BN2.weight f4 [128]
00000000: 7574 823f b27a 7e3f 2123 803f a730 823f
00000010: 2a81 823f 0911 833f f86a 7e3f 0715 873f
00000020: 3c31 813f 26ee 823f fde6 753f d7c3 7f3f
00000030: 85e3 813f aa79 7b3f ab81 813f 29ed 793f
00000040: 7f27 823f c9a0 843f 9c9c 843f 7992 7d3f
00000050: 6b3c 803f 5901 813f 6812 7e3f 0635 843f
00000060: 7b2e 7c3f f6f6 823f e089 813f 8434 823f
00000070: 15bf 7f3f 563f 853f f3f5 823f 9b3c 893f
00000080: 0a26 773f 9928 863f 30b1 7c3f c9fd 823f
00000090: 18d1 803f 8621 823f 804f 7f3f 0a96 7e3f
000000a0: f3b1 813f 104a 763f ed7a 853f e85e 823f
000000b0: a01d 7f3f 5942 803f 53c7 853f 988e 813f
000000c0: 4513 873f 031f 813f 5039 7e3f e4fb 823f
000000d0: 608f 823f c437 813f f101 7a3f 154f 7e3f
000000e0: 7124 803f 7fb4 833f aa2e 8d3f c378 803f
000000f0: a3b7 813f 3b2b 8b3f 0dac 7c3f 44bd 7e3f
00000100: 5388 813f 7751 873f 47ee 783f 2565 803f
00000110: 97fc 763f 8507 823f 52db 7a3f 6aca 863f
00000120: 0a2e 833f c4fd 793f b9f8 853f 7b91 833f
00000130: d79c 7f3f 8a11 863f 9de7 863f 180f 813f
00000140: bd45 7e3f f594 803f 1f72 873f 3ae1 833f
00000150: f98b 7b3f a966 883f 4c3d 853f 9add 7d3f
00000160: f2de 803f 99ae 823f f09d 843f 04f7 863f
00000170: 3f64 833f ae5b 843f d6d2 813f 946c 7f3f
00000180: 5285 843f 70bb 7c3f 98b4 873f 6a4e 7b3f
00000190: fa1d 843f e9bc 803f 1530 833f ad40 793f
000001a0: 991d 803f 755b 823f 1b04 803f 6f81 803f
000001b0: beae 7b3f 58e5 803f 7372 823f a634 763f
000001c0: 6256 833f 6d11 813f 5468 803f b664 833f
000001d0: aad3 7d3f 8602 833f 205f 833f 8343 803f
000001e0: 7742 823f a28e 7a3f 7e57 7e3f 7fef 7a3f
000001f0: d210 7d3f 4f5f 803f 5fce 823f ed1c 813f
1.019179 0.9940597 1.001072 1.0171098 1.0195668 1.0239574 0.9938197 1.0553292
1.009315 1.0228927 0.96055585 0.999082 1.0147558 0.9823252 1.0117697 0.976275
1.0168303 1.0361568 1.0360293 0.99051625 1.0018438 1.0078536 0.99246836 1.0328681
0.98508424 1.0231616 1.0120201 1.0172276 0.99900943 1.0409954 1.0231308 1.072162
0.9654242 1.048114 0.98707867 1.0233699 1.006381 1.016648 0.9973068 0.9944769
1.0132431 0.9620676 1.0428139 1.0185213 0.9965458 1.0020248 1.0451454 1.0121641
1.0552756 1.0087589 0.993062 1.0233121 1.0200005 1.0095143 0.9765921 0.9933942
1.0011121 1.0289458 1.1029866 1.0036854 1.0134166 1.0872568 0.9870003 0.99507546
1.0119728 1.0571736 0.9723858 1.0030867 0.9647917 1.0158545 0.97990906 1.0530522
1.0248425 0.9765284 1.0466529 1.0278772 0.99848694 1.0474102 1.0539433 1.0082731
0.9932516 1.0045458 1.0581702 1.0303109 0.98260456 1.0656329 1.0409331 0.9916626
1.0068038 1.0209533 1.0360699 1.0544133 1.0264968 1.0340478 1.0142467 0.9977505
1.0353186 0.98723507 1.0601988 0.98166525 1.0321648 1.0057651 1.0249048 0.9736431
1.0009032 1.018416 1.0001253 1.00395 0.9831351 1.006999 1.0191177 0.96174085
1.0260737 1.0083443 1.0031838 1.026511 0.991511 1.0235145 1.0263405 1.0020603
1.0176533 0.9787389 0.9935225 0.9802169 0.9885379 1.0029086 1.021923 1.0086952
