Trained_Models/BotDetection_v4_MLP___May-10-2024/BotDetection_v4_MLP_epoch36_val_loss_0.483232.pth (torch, 949685 bytes, 45 tensors)

L1.weight f4 [256, 133]
00000000: c506 1a3c 857f 6b3d 9e74 b73d d370 13be
00000010: bfa8 e33c d0d1 253d 74f4 2a3e 0200 81bd
00000020: e909 4e3c 898a 3bba 894b 69bd be0c 273d
00000030: b316 55bd 5800 4cbd f09a 14be 94f6 943d
00000040: 4bbc ce3c 3cea 24bd a6e3 9ebb 648e 6bbd
00000050: e298 1ebd 25d2 2fbc a2bd 45bd a6f3 5abc
00000060: f060 5e3d f269 c7bd 5c9a 9c3c c4c4 9dbd
00000070: 37ed c03c 327f 903d 98bf 3539 9f3c 2bbd
00000080: 49a6 b6bd fc3e a3bc 701a 8ebd 0917 a63d
00000090: e4db 913d 2ad0 c93d 5d72 43bd 289e 633a
000000a0: 35db 3d3e 63b0 943a 645c 96bc b451 f53c
000000b0: 29ca 8f3c bd55 b33d ed6b bc3b 9f97 883d
000000c0: c257 1ebd aac4 993d 1fc1 383d bba9 583c
000000d0: 0e75 913d 8bc6 d03d e88e ecbc 86a6 da3c
000000e0: b4bb fabc d551 4a3d 30d2 03be 5448 11bc
000000f0: 4a9d 08be a50f 333c 07e0 0abe d192 2bbd
00000100: 6150 b73d cc97 00be d535 5bbd 5629 fe3d
00000110: fcc9 d0bc 31e3 4bbd ac33 683d a03f ab3d
00000120: dfaa c23d 4d2e 203d 84aa 42bd eb09 ecbc
00000130: b032 a6bd a1ed ee3c c142 a0bc 5ef0 133d
00000140: ee30 a83c 2669 31bd 1bc8 54bd b096 96bc
00000150: 1d19 4c3d a77e c1bc c32c 1dbe e6a2 89bd
00000160: 0c04 463c 6d22 fabb 9019 1cbc 5c70 053e
00000170: 626c aebd 38a9 e43c 2d02 02bd 2225 0c3d
00000180: c6c3 5f3d e3dc 92bd 5711 37bd a105 153d
00000190: ede6 a53c 5698 a1bd 855a e03d cd89 fdbd
000001a0: 9bd1 6dbd 0b42 8f3d 2cf9 773d e161 3fbd
000001b0: 4eea 2fbd 306b 90bd e0d5 243d b096 b1bd
000001c0: fe71 60bd 928b 37bc b35e 993c c862 2bbd
000001d0: 27b0 403c f118 cd3d 5fdb 953d d27f a73d
000001e0: f8a1 a7bd 92d8 583d c996 8b3c 2151 283e
000001f0: f2a7 cabd 1a75 39bc 97ce 563d 908b a23d
00000200: 9f05 a5bd ebe1 9cbb 519a a83d 82c0 a03d
00000210: b9da c5bd 0ea2 d13b a6e5 043d 463f 23bc
00000220: d7d2 c03d c48b 0bbd 7905 c13c dcb5 7bbd
00000230: b194 2dbd 14d0 5b3d 3182 f9bc 2c28 92bc
00000240: a224 0cbb 362b 6fbd e604 383d ab63 293d
00000250: 4c8e 5b3c f0b6 40bd 43f4 e0bb 049d 98bc
00000260: b834 603d dcc7 d9bc fac4 7e3c 36d7 8dbd
00000270: aee0 96bd ae77 b1bd 2124 c1bc 03ca adbd
00000280: 0752 a33c 6f5a 9ebd 7093 a53b f131 d03b
00000290: 7eb4 10bd 8cb9 8a3d d10e 873d 5f2f 47bd
000002a0: f6d5 afbc f419 e63d 4d8c 903d ed28 2c3e
000002b0: 7036 de3d 58e8 583d 0fc9 4cbd b4f7 9f3c
000002c0: 71b5 803d 25e8 133e d89c 21bd 8dd2 033d
000002d0: 4144 633d 33f4 723d aae3 f53c 57eb 83bd
000002e0: 11e8 29bd c62a 353d 35fb dc3d 2d3d 9ebc
000002f0: 4c15 5ebc 49cd f13b 0cb6 623d 063d aa3d
00000300: 0467 2cbd 6f26 8f3d c626 a33d 167d 2b3d
00000310: e795 c8bd b60a 3d3c 4b44 3e3d 73ab 00bd
00000320: 8685 32bc 65b5 84bc 55d4 dfbc 1cee 97bc
00000330: 7a05 ee3d 5cbb 3f3c 88ca 25bd 3899 70bc
00000340: 1d45 2a3c a2b4 a23d 4d19 2cbd e305 02bc
00000350: 9dcd e1bc a5d7 14bb c174 1fbd d097 bebd
00000360: be7b c8bd 416a aa3d a681 41bd 50da 633d
00000370: f9e2 0fbd 9441 f23c 5af8 0cbe 458d 973d
00000380: 5468 00be 2e4b 01bd eae2 99bd fdad ee3c
00000390: 07fd 70bd 0ced 96bc 6118 1cbd 837c 60bd
000003a0: 93b4 f63c 7b1a f83d 34bb 333d 0db3 b43d
000003b0: e95e 893c 6af9 263d f608 b43d 93f4 643d
000003c0: ef75 95bd b861 093c a60d 133c 6724 07bd
000003d0: d66c 5cbd 207e 473d ea47 7abd 24da ce3c
000003e0: dd6e 1cbd 2657 433d f297 b03d 90c1 c43d
000003f0: 8f4b 69bd aac3 f5bd 8af8 8bbd 3f99 96bd
0.009401028 0.05749466 0.0895779 -0.14398508 0.027790425 0.040483296 0.16694814 -0.062988296
0.012575605 -0.0007154127 -0.0569568 0.040783636 -0.0520236 -0.049805015 -0.14512229 0.072735935
0.02523627 -0.040262446 -0.004848915 -0.05750884 -0.03872002 -0.010731255 -0.04827655 -0.013363754
0.054291666 -0.09737004 0.019116573 -0.07703546 0.023550613 0.070555106 0.0001733288 -0.04180586
-0.08918435 -0.019927494 -0.06938636 0.08109862 0.07122019 0.09854157 -0.047716487 0.000868293
0.18540652 0.0011344071 -0.018354602 0.029946186 0.017552452 0.08756588 0.0057501704 0.066695444
-0.03865791 0.07508214 0.04510605 0.013224061 0.071024045 0.10194119 -0.028876737 0.026690733
-0.030607082 0.049394447 -0.12873149 -0.008867342 -0.13341251 0.010929023 -0.13562022 -0.041888062
0.08950878 -0.12557906 -0.053518135 0.12410228 -0.025486939 -0.049777213 0.056689903 0.08361745
0.09505247 0.039106656 -0.047525898 -0.028813323 -0.081151366 0.029166045 -0.01956308 0.036117904
0.020531144 -0.043313168 -0.051948648 -0.0183824 0.049828637 -0.023619963 -0.15349106 -0.067205235
0.012085926 -0.0076334984 -0.009527579 0.13031143 -0.08516766 0.027912721 -0.031740356 0.0342151
0.054630063 -0.07171037 -0.04469427 0.03638232 0.020251716 -0.07890384 0.10954765 -0.12379799
-0.058061223 0.069950186 0.060540363 -0.046724204 -0.04294806 -0.070516944 0.04024303 -0.086713195
-0.05479621 -0.01120271 0.018721914 -0.041842252 0.011760748 0.10014523 0.07317232 0.08178677
-0.0818519 0.052940913 0.017039673 0.16437198 -0.09895314 -0.011319423 0.052443113 0.07936776
-0.08057713 -0.0047876737 0.082325585 0.07849218 -0.09660859 0.0063974923 0.032445572 -0.009963816
0.094152145 -0.034068838 0.02356218 -0.06145273 -0.04237813 0.053665236 -0.030457588 -0.017841421
-0.002138414 -0.05839082 0.044926547 0.041354816 0.013400625 -0.047049463 -0.0068650558 -0.018629558
0.054737777 -0.026584558 0.015549893 -0.06925814 -0.07367073 -0.08665405 -0.023576798 -0.08485796
0.019936575 -0.077320926 0.0050529763 0.0063536097 -0.03532838 0.067736715 0.06594623 -0.04862916
-0.02146433 0.11235419 0.0705801 0.16812487 0.10850227 0.052955955 -0.049996432 0.019527294
0.06284607 0.14444025 -0.03945622 0.03218322 0.055485014 0.059314918 0.030015785 -0.06441372
-0.04148108 0.044230245 0.107901014 -0.01931628 -0.013554882 0.007379208 0.055349395 0.083124205
-0.04209043 0.069897525 0.0796638 0.041867338 -0.097942166 0.011538198 0.046451848 -0.031413507
-0.010896092 -0.016199777 -0.027322927 -0.018546157 0.11622138 0.011702385 -0.040476352 -0.014684968
0.010392454 0.07944609 -0.042016316 -0.007935974 -0.027563864 -0.0022711542 -0.038929705 -0.093063
-0.09789227 0.083210476 -0.047242783 0.05562812 -0.035128567 0.029572286 -0.13766614 0.07399992
-0.12539798 -0.031565838 -0.075139835 0.029135698 -0.058835056 -0.01842358 -0.038109187 -0.054806244
0.030115401 0.12114426 0.043879703 0.08823214 0.01676889 0.040765204 0.08790772 0.055897307
-0.07297885 0.008385114 0.008975422 -0.0329937 -0.05381473 0.048704267 -0.06110374 0.025250502
-0.038191665 0.047690533 0.08622731 0.096072316 -0.056956824 -0.120002106 -0.068345144 -0.07353448

L1.bias f4 [256]
00000000: 71e7 a6bd 90a0 97bc 48fd 7a3d 596d 8abc
00000010: 4a4d b2bc 67c7 79bd edbb 053d f1c0 2a3d
00000020: ddca 56bd 0bab 9dbd 0e82 bdbc ab14 783d
00000030: 97ee 83bd 225d 12bd bc46 aebd 6392 21bc
00000040: 82f3 973c 7e43 103d 7759 29bd d39d a93d
00000050: f191 ef3b 437e 7dbd 5e7f 8e3c 20ac 023d
00000060: 5cf1 643d 0497 7b3d 1b40 b5bc 187f 8ebc
00000070: 5032 32bd 3df9 103d 9a9b 87bd 5702 bebc
00000080: 6a70 65bc 6e5b 91bd b252 093d c5a6 a13c
00000090: e716 973d 81bb 5bbd 07d4 9f3d 1eb4 153d
000000a0: 102b dbbc 4e43 87bd f4a2 a7bd 77d9 013d
000000b0: 2d00 2dbd 0825 cdbc 8ea4 0abd 574f 85bc
000000c0: f7ff f23b 3c90 983d 0fb4 673d 5ff5 833d
000000d0: ca2d 9f3b 89e7 dabc f238 23bd 57d0 4c3d
000000e0: fb34 f1bb 7506 0b3d 9ce3 9ebd 15e8 323d
000000f0: 39a4 39bd 4123 19bc 49a8 8e3d c077 583d
00000100: 5f7d 4dbd 7f8b 923d 1bbc 8fbd d654 223d
00000110: c9c2 643c 446a a33d fe96 0e3c 1b9b 99bc
00000120: 693a 973d 8dd9 51bd 2ae1 753d 4cb1 05bd
00000130: 0ee5 3fbc e676 19bd bb9a 683d acc1 5ebd
00000140: cffc c8bc 8636 c73b 5cb2 9d3d 48d1 41bc
00000150: dc24 18bd ab89 22bc ea57 a03c f786 1cbd
00000160: 6581 b03d 11aa 0f3d 63c5 fbbc 336d 4f3d
00000170: d00f cdbc 5467 9b3c 93a8 78bc 8c48 8abd
00000180: e610 94bd 9f81 9abd caf0 44bd c8af afbb
00000190: daf0 383c 52d7 6a3c 7a70 1f3d 2ab6 b13b
000001a0: 55c0 ac3d b3da a5bc f630 953c 9bb0 913c
000001b0: c1c6 2e3d caea 8d3d 8a19 053d 65bf 303d
000001c0: 8037 9d3d a67a 2b3d 7241 a13d 1674 343d
000001d0: 1659 2b3d ea6c 31bc 2d95 5cbd 3287 9d3d
000001e0: 8eea 363d f83b d43c 06e1 0f3d 6c45 c4bc
000001f0: 59e5 27bc 23a2 8d3d 090a ba3c fbc4 abbd
00000200: d396 8f3d 70f2 d23c efd9 2dbd cac8 1ebd
00000210: 4c3f 84bd bb01 a63d 93af 26bd 8ac4 1fbd
00000220: 9b5b e33c 15d9 0dbd 9b6a 3a3d 5938 f9bc
00000230: 53f8 a9bc 16dd dbbc d97d a13b 39f9 313d
00000240: a26c 5ebc b374 8b3d 2f52 afbd 5cd4 87bd
00000250: 3ceb c73c c28c d5bb 74cc 56bc 37c6 cb3c
00000260: e5e7 90bd da85 16bc de6d 7cbd 2b16 9e3d
00000270: 0eb4 9a3c 396d 533d ebd9 63bd 0bd2 a9bc
00000280: b85e 3e3d 7df6 953d 5c37 94bd ca66 c0bc
00000290: 5be0 7ebc ca65 a43d 63f7 5bbd 631a 033d
000002a0: f6d5 813d eb4d 86bd 3909 a73d 4856 aebd
000002b0: 973b 82bd 7689 cdbc aec2 8d3b 99fe 4b3b
000002c0: 1e13 843d cfaa 983d a7c9 c0bc 99f2 a43c
000002d0: d307 f9bc f0e3 c93c 4aef e5ba 3e97 253d
000002e0: ccf8 c63a dad1 dcbc 78c2 173d 3511 803d
000002f0: 0b8b 25bd e756 bd3c 529d 0039 2787 ccbc
00000300: 7552 173d d94e 4a3d 795b 1f3d 1adf 96bd
00000310: b0fc 00bd e7b4 923d d367 4b3d 64cd 473d
00000320: 92f9 56bd f47f fe3c 856f 32bc ff6e 09bd
00000330: 22b9 533d 4c86 aa3d 09d9 1e3d 5ed6 813d
00000340: f3f7 4abd 5ec4 2e3d a5f4 a3bd aa12 abbc
00000350: 4d2e aabc baf2 91bd e48b debc 6800 863d
00000360: d042 2ebd ce22 993d 8f84 303d 39db 0ebd
00000370: ca3b 473d 5206 a5bd 6696 143d a7fc 28bd
00000380: 3813 8cbd d0ba ae3d facd 5bbb e75d 5abd
00000390: 8867 af3d ca60 b13c b8c8 56bc 3615 06bd
000003a0: 8b9a 9f3d 8f10 453d 7430 a03d 2837 013d
000003b0: 84d3 8b3d 6fd6 56ba 034d 9e3c f403 b33c
000003c0: bbc3 a73d 6209 853d 2d4b 543d 13e7 aabd
000003d0: 9eef 813d 4ec5 413d d58c 9dbc 9864 823c
000003e0: b13d aebd 5d18 46bd 3713 893d 919a a3bd
000003f0: f739 0a3a 7466 7c3c e45d 82bb 342e 4fbd
-0.08149613 -0.01850918 0.061276704 -0.016897844 -0.02176537 -0.06098118 0.032649923 0.04168791
-0.05243956 -0.076986395 -0.023133304 0.060566586 -0.06441992 -0.03573335 -0.08509585 -0.0098615615
0.01854873 0.035220616 -0.041345086 0.08282056 0.0073110987 -0.06188799 0.017394718 0.031902432
0.05589424 0.061423317 -0.022125294 -0.017394587 -0.043505013 0.035393942 -0.066214755 -0.023194475
-0.014003852 -0.07097517 0.03352613 0.019732842 0.07377415 -0.053645615 0.07804113 0.036548726
-0.026753932 -0.06604634 -0.08185378 0.03170153 -0.042236496 -0.025042072 -0.033848338 -0.016273184
0.0074157673 0.074493855 0.0565682 0.06443285 0.0048577534 -0.026721733 -0.03984923 0.050003376
-0.007361052 0.033941705 -0.07758257 0.043678362 -0.04532263 -0.009346784 0.069656916 0.052848577
-0.05016839 0.07155513 -0.070183 0.039631687 0.013962456 0.07979253 0.0087029915 -0.018750718
0.07384188 -0.051232863 0.060029186 -0.032639787 -0.011712326 -0.037466906 0.056788187 -0.05438392
-0.024534611 0.0060794977 0.07700035 -0.011829682 -0.037144527 -0.009920518 0.01957317 -0.03821465
0.0861843 0.035074297 -0.03073377 0.05064125 -0.025031954 0.01897017 -0.01517691 -0.067521185
-0.072297856 -0.075442545 -0.048081197 -0.005361531 0.011287892 0.014333563 0.038925625 0.005423327
0.08435122 -0.020245885 0.018211823 0.017784407 0.042670015 0.06929548 0.03249506 0.043151278
0.076766014 0.041865014 0.07873811 0.04405602 0.041833006 -0.01082919 -0.053853203 0.07691802
0.044657283 0.025907502 0.03512671 -0.023958884 -0.010247552 0.06915691 0.022709863 -0.083871804
0.07011189 0.025750369 -0.042444166 -0.038765706 -0.064573854 0.08105799 -0.040694784 -0.039005794
0.027753642 -0.034630854 0.045511823 -0.030422376 -0.020748293 -0.02683882 0.0049283323 0.043450568
-0.013575705 0.06809368 -0.08560597 -0.06632301 0.02440416 -0.006517024 -0.013110269 0.02487479
-0.0707548 -0.009187186 -0.061628215 0.07719072 0.018884685 0.051617835 -0.055627745 -0.02073004
0.04647705 0.073224045 -0.072371215 -0.023486514 -0.01555642 0.08027227 -0.053702723 0.032007586
0.06339638 -0.065578304 0.08156056 -0.085125506 -0.06359022 -0.02508996 0.004326186 0.0031127094
0.06448959 0.07454454 -0.023533655 0.02013521 -0.030399239 0.024644822 -0.0017542627 0.04042744
0.0015180348 -0.026955534 0.037050694 0.06253282 -0.040415805 0.023112727 0.00012265638 -0.02496679
0.03694387 0.0493916 0.038905594 -0.07366772 -0.03149098 0.07163411 0.04965956 0.04877986
-0.052484103 0.031066872 -0.010890846 -0.03355312 0.05169023 0.08326396 0.0387812 0.063397154
-0.04955287 0.04266774 -0.080056466 -0.020882923 -0.020774031 -0.071263745 -0.027166314 0.06543046
-0.042544186 0.074773416 0.043095168 -0.034877036 0.048641004 -0.08057846 0.036276244 -0.041256573
-0.06839603 0.085317254 -0.003353952 -0.05331221 0.08564669 0.021652598 -0.0131093785 -0.032735072
0.077931486 0.048111495 0.07821742 0.03154674 0.06827453 -0.0008195405 0.019323831 0.021852471
0.081916295 0.0649593 0.051829506 -0.08344855 0.063445315 0.047307305 -0.019232193 0.015917107
-0.085078605 -0.04836308 0.06693118 -0.079884656 0.00052729197 0.015405286 -0.003978478 -0.050581172

BN1.weight f4 [256]
00000000: 8820 7e3f bade 7e3f 626d 7c3f d4d1 793f
00000010: ee69 7d3f 7248 813f 4d4e 823f e4de 7e3f
00000020: 0e33 803f 12e8 803f 1499 7c3f cb70 7a3f
00000030: 425e 7e3f 4b11 803f 2802 833f 51f0 803f
00000040: ebd3 813f b154 803f 0843 7d3f 509d 803f
00000050: 794a 7e3f 0d7a 7c3f b269 863f 4445 823f
00000060: ea93 823f e0d0 813f eed7 823f 0fce 803f
00000070: 7cd5 833f b1c9 823f 23c4 833f e914 803f
00000080: cb9d 833f b29b 7c3f 0c87 7b3f 1e2f 813f
00000090: e900 843f 39e7 823f a3ee 7f3f 20e2 803f
000000a0: 7a94 813f 13e1 823f 4769 813f c79b 843f
000000b0: 3a97 7f3f d4d2 813f 7338 803f bcf7 7c3f
000000c0: 4f9c 853f f63d 7d3f 60b4 7a3f 89f2 7d3f
000000d0: 0cf4 7a3f 2dae 813f 996a 7f3f c513 803f
000000e0: ce81 803f fcc4 813f e11c 803f c12d 853f
000000f0: b626 7e3f 9adc 803f 6df2 833f df37 843f
00000100: d3e7 793f effb 7f3f 467f 7c3f a01e 823f
00000110: 9322 803f bb1a 873f 323d 803f b098 7a3f
00000120: 369e 823f 742d 843f 4cca 803f 9e7b 7f3f
00000130: 886e 803f a6d6 833f 1ba7 823f eb09 813f
00000140: eac5 813f 1544 7e3f f31b 803f 7631 7e3f
00000150: 2297 803f db74 803f 9bf7 803f 45ce 823f
00000160: a0d4 833f 6a7c 803f 9d31 823f 752d 843f
00000170: e234 813f 2139 803f 4f59 823f c092 823f
00000180: d303 813f 9062 813f 22e7 803f 2426 833f
00000190: 5e6a 7f3f 85bd 7f3f 55d2 803f f1f1 823f
000001a0: e743 823f 1783 833f ef21 7d3f 4632 833f
000001b0: 737f 823f 65e3 833f a58b 803f b5df 823f
000001c0: 7f6f 7e3f fb99 823f 187a 833f aa02 853f
000001d0: 5b38 853f d518 7f3f 6eef 7e3f dd60 7e3f
000001e0: 8d7b 7e3f 6ddd 793f fa23 833f b121 7e3f
000001f0: 7060 803f 819a 7f3f e104 823f bf30 833f
00000200: 2b16 7e3f 01fd 7f3f bf0b 7d3f a7c7 7d3f
00000210: c93b 803f e16f 813f c639 813f 1c2e 833f
00000220: 9508 833f 7d9e 7b3f 35fd 803f 5ab0 7b3f
00000230: 80c4 833f bf59 803f d234 803f 3c6b 803f
00000240: 1640 843f f7ce 803f e503 813f 0ee2 823f
00000250: 7b0d 823f 5422 813f de69 833f 2a0a 7d3f
00000260: 2ed1 803f 7e49 7d3f 629c 823f bd05 7d3f
00000270: d44b 7f3f 9233 823f 95ff 7b3f 5b94 803f
00000280: 0de5 7b3f 91b6 823f f8a5 7c3f ec46 813f
00000290: 0c76 813f 42a2 7e3f 0d98 883f f2c0 7b3f
000002a0: 2185 823f 762c 7f3f a513 843f 529a 7c3f
000002b0: e490 803f 93de 803f 3dbd 803f 7c2c 803f
000002c0: 8ecb 7c3f 5e18 813f f724 7e3f 147d 813f
000002d0: b87d 813f 37ad 813f 83ce 813f 542a 7d3f
000002e0: 84da 813f 7848 823f f8f6 7f3f 40de 7b3f
000002f0: 16db 813f 6eae 803f e899 803f 5b83 7f3f
00000300: 4c96 803f 992d 813f bd65 803f 60f9 823f
00000310: d3b4 863f 8854 813f e8b7 843f 3f15 813f
00000320: 3a53 803f ade6 813f 3319 823f 91b9 7b3f
00000330: de9e 823f 11c6 7d3f 32e6 7c3f fc3f 7d3f
00000340: 1472 7e3f 1219 823f 5990 843f c192 803f
00000350: a5a6 803f de04 803f 36bd 833f f1e8 7e3f
00000360: 29b8 813f b4da 813f 94f6 813f bdc4 7d3f
00000370: 7ea2 833f 563a 7b3f 85d7 7e3f 5523 813f
00000380: 36a9 813f 1607 7e3f b4f9 7f3f fc72 7f3f
00000390: c773 813f b1d0 853f ee1e 7f3f d42b 833f
000003a0: 7930 873f d58b 7c3f ecb2 7e3f 371c 823f
000003b0: 02f7 853f 340b 843f 651d 803f 9da7 763f
000003c0: 69e5 7a3f e7fb 7b3f f46b 803f 7a3d 853f
000003d0: 7725 7e3f 8f60 7c3f 71cd 7d3f b037 7f3f
000003e0: afd8 823f eb9d 813f 630b 7f3f a1c5 803f
000003f0: 6d78 7f3f 7c42 803f 2287 843f d428 863f
0.9926839 0.99558604 0.98604405 0.975858 0.9898976 1.0100234 1.0180146 0.99558854
1.0015581 1.0070822 0.9867108 0.9782836 0.99362576 1.0005277 1.0235033 1.0073339
1.0142797 1.0025846 0.98930407 1.0048008 0.99332386 0.98623735 1.0501006 1.0177388
1.020139 1.0141869 1.0222147 1.0062884 1.0299525 1.0217801 1.0294231 1.0006381
1.028253 0.9867507 0.9825294 1.0092504 1.0312778 1.0226814 0.99973506 1.0069008
1.0123436 1.0224937 1.0110253 1.036004 0.9984013 1.0142465 1.0017227 0.9881551
1.0438327 0.9892267 0.9793148 0.99198204 0.98028636 1.0131279 0.9977203 1.0006033
1.0039613 1.013824 1.0008813 1.0404588 0.9927782 1.0067322 1.0308357 1.032955
0.9761936 0.99993795 0.98631704 1.0165596 1.0010551 1.0555032 1.0018675 0.9788923
1.0204532 1.0326371 1.0061736 0.99798 1.0033731 1.029988 1.0207247 1.0081152
1.0138524 0.99322635 1.000853 0.9929422 1.0046122 1.0035661 1.0075563 1.0219198
1.0299263 1.0037968 1.0171391 1.0326372 1.0094264 1.0017434 1.0183505 1.0201035
1.0079292 1.0108204 1.0070536 1.0246015 0.9977168 0.9989856 1.0064188 1.0230085
1.0176972 1.027438 0.98879904 1.0249717 1.0195144 1.030377 1.0042616 1.022452
0.9938888 1.0203241 1.0271635 1.0391438 1.0407823 0.99647266 0.9958409 0.9936655
0.99407274 0.97603494 1.0245354 0.9927016 1.002943 0.9984513 1.0157739 1.0249251
0.99252576 0.9999543 0.9884605 0.9913277 1.0018245 1.0112268 1.0095756 1.0248446
1.0236994 0.9828871 1.0077273 0.98315966 1.0294342 1.0027388 1.001612 1.0032725
1.0332057 1.0063161 1.0079314 1.0225236 1.0160364 1.0088601 1.0266683 0.98843634
1.0063837 0.98940265 1.0203974 0.9883688 0.9972508 1.0171988 0.9843686 1.0045274
0.9839638 1.0211965 0.9869075 1.0099769 1.011415 0.99466336 1.0671402 0.98341286
1.0196878 0.99677217 1.0318495 0.98672974 1.0044217 1.0067924 1.0057751 1.0013576
0.987481 1.0085561 0.99275154 1.0116296 1.0116491 1.0130986 1.0141147 0.9889271
1.0144811 1.0178366 0.9998622 0.98386 1.0144985 1.0053232 1.0046968 0.9980981
1.0045867 1.009204 1.0031048 1.0232353 1.0523933 1.0103922 1.0368624 1.0084609
1.0025399 1.0148522 1.016394 0.98330027 1.0204732 0.9913035 0.9878875 0.9892576
0.9939282 1.0163901 1.0356551 1.0044786 1.0050856 1.0001485 1.0292118 0.9957419
1.0134326 1.0144868 1.0153375 0.99128324 1.0283964 0.9813589 0.99547607 1.0088907
1.0129764 0.9922956 0.9999039 0.9978483 1.0113457 1.0454313 0.9965657 1.024775
1.0561668 0.98650867 0.99491763 1.016486 1.0466006 1.0315919 1.000897 0.9634951
0.980063 0.9843125 1.0032945 1.0409386 0.99275917 0.98584837 0.99141604 0.9969435
1.0222377 1.0126318 0.9962675 1.0060312 0.9979313 1.002029 1.0353739 1.048121

BN1.bias f4 [256]
00000000: 9635 133d 172d 2ebd a746 53bc ca7e a73d
00000010: 5cff 403d 8ea6 59bd 809b 2dbc cc5e 35bd
00000020: d8f7 5abc 56fc 9fba 9ade 013d 6adf ad3b
00000030: cb3a dd3c 327d 8bbd 807a 5bbd 65a5 9dbc
00000040: e712 0bbc 6466 ecbb dd55 3bbc f84b 4dbc
00000050: 52bb a43c edd0 b03c 93b4 bdbd 84c4 e2bc
00000060: 738e 093c a8e4 2cbd b2d7 e5bc ff6c 253c
00000070: fb56 25bd 09d1 69bd 5a56 9dbd cff4 b5bb
00000080: 9ad9 77bd fb2e 883d affd 9bbc 2202 103d
00000090: 738e bfbc 0e8e 05bd 2fe6 a2bc 1520 89bc
000000a0: 3451 d8bc 1641 9cbd ea21 6cbd 652b aebd
000000b0: e075 263c db78 d7bb ec3b babd cdbb 58bc
000000c0: 7cd2 59bd df57 08bd 9bf2 2b3d 4769 ca3c
000000d0: fbaa 4a3d 4009 7bbd 2926 e83c 421e e4bc
000000e0: 5599 12bd e061 b5bc fc48 403c 19ff 8fbd
000000f0: 0566 9e3c e7e4 15bd 9ff6 c5bc e3de 5abd
00000100: 2d84 b33b 8804 dd3b b964 c43c c166 23bd
00000110: 3c9f c83a 9a8d 9ebc 3c34 463d 68fe 403d
00000120: 889f a1bc 68ca ce3a e788 933b a052 273c
00000130: 0265 03bd 3623 bebd 40d2 91bd 0a6e bcbc
00000140: 411e bcbc f481 1b3d 0e48 07bd 42de 5bbd
00000150: 2b01 d5bb bfb0 713d 8e7b a43b 8790 13bc
00000160: f9e5 47bd a386 aebc 4835 78bc 9a93 a0bd
00000170: 27ef fabc 63f9 5bbd f122 a7bc f9fe 13be
00000180: 34e8 153d 72ce 5dbc b6c1 1a3d 8d9c 29be
00000190: c9cd 77bd 1d24 ba3c 57d4 a7bd 15c3 46bd
000001a0: b126 c3bc 251b 48bd 5797 54bc 081f c63a
000001b0: 4147 aabc 7268 91bd f907 1abd a947 85bd
000001c0: e6dd febc 98a0 4e3b be6a 04bd 1b33 afbd
000001d0: ad77 adbc fa87 13bc 1015 79bd c20d d03d
000001e0: 12e6 133d 9b89 55bc 2aca bebd 313d 173c
000001f0: 8628 eabb 71f6 1e3d cc9f 20bd bdb4 b9bd
00000200: 9057 e43b ee6f 29bc 6c6b 0a3b e924 4a3d
00000210: a600 d83c 7304 43bd 69d5 a2bb 777b 92bd
00000220: 5af3 7ebd 7ed2 7ebc 6d5c 63bd 8e46 fe3c
00000230: f91e acbd cabd 863c 34f9 44bd 8da0 a8bd
00000240: 33f7 16bc 1e80 2bbd a04e aebb 0d6c 84bd
00000250: 68de 45bd b06e efbb 4638 7bbd d8de 8cbc
00000260: 3317 66bc 5b92 213d 65e7 8bbd 233e 153b
00000270: 9585 1ebc cfb7 e2bc 0330 debc d034 18bd
00000280: 926f cabb 01ea 70bd fa4d 1e3d a28b 3f3c
00000290: 8901 47bd c431 85bd 5b3c b4bd 1104 a6bc
000002a0: 320a 883c d17b 20bd df79 fd3c cd87 3abc
000002b0: 2736 efbc e60c 05bd aefa 80bb cc72 273d
000002c0: 2511 cd3c 0e2e c7bd 9109 ce3b d351 7c3c
000002d0: b077 8cba 09ca debc f630 b4bd 5cdb 8f3d
000002e0: f47e 56bc d34a 0bbd 19ab 9c3b cf69 bd3a
000002f0: 3d1b 32bd 9c24 273c d978 843c bf85 7fbc
00000300: 2fe7 12bd 277c 903c 5b2f fdba 5493 11bd
00000310: d3a2 9cbd 945e 18be 0e04 02be cec7 f4bc
00000320: e800 443c 5af6 c0bd 0bec 3dbd 257d a93c
00000330: f5d8 87bd 6dd3 80bc 0328 a03c 5be2 95bc
00000340: ce7f 98bb 5a7b 543c 7478 b7bd 8286 c0bc
00000350: a745 43bd 801e 45bd cb74 b9bd 1b45 2abc
00000360: 3a95 b9bc 0f33 43bd a3aa a9bd 0c2a da3c
00000370: 3497 38bd fbd3 02bc f1ac 053d 5c03 86bd
00000380: 4c87 97bd bb7f 2b3d 63da 31bd ef92 52bc
00000390: e54f aabc 2620 adbd 48d4 24bd bc5b 44bd
000003a0: 4865 9fbc 740a 0d3d f950 013c f534 57bd
000003b0: a20a afbc cd43 42bd c35a efbc f379 5c3b
000003c0: 4cb9 493d 33c8 e83c 438e 75bd 3373 d3bc
000003d0: c751 c3bc b8e7 c9bc e429 0fbd 552d f8bc
000003e0: 81d7 b5bd ada9 92bd 0333 e73c 3ef5 843b
000003f0: ccc5 57bd 845a 40bd e427 59bd 5b1c 25bd
0.035939775 -0.04252347 -0.012895263 0.0817848 0.04711853 -0.053137355 -0.010596156 -0.04427986
-0.013364755 -0.0012205939 0.03170643 0.005306174 0.027005574 -0.068109885 -0.053583622 -0.019243905
-0.008488393 -0.0072143544 -0.011434046 -0.012530319 0.020108853 0.021583999 -0.092629574 -0.027681597
0.008395779 -0.04221025 -0.028056953 0.0100967875 -0.040366154 -0.057084117 -0.07682486 -0.005552865
-0.060510255 0.06649586 -0.019041864 0.035158284 -0.023383355 -0.032606177 -0.01988515 -0.01673893
-0.026405908 -0.07629602 -0.05764953 -0.085043706 0.0101599395 -0.0065756864 -0.090934604 -0.013228369
-0.05317925 -0.033286925 0.041979413 0.024708403 0.049479466 -0.06128812 0.028338509 -0.02784646
-0.03579076 -0.022141397 0.011736151 -0.07031078 0.019335756 -0.03659525 -0.02416545 -0.053435218
0.005478403 0.006744925 0.02397381 -0.039892916 0.0015306245 -0.01935463 0.04838966 0.04711762
-0.01972939 0.0015776874 0.004502404 0.01021257 -0.03207875 -0.0928406 -0.0712018 -0.02300169
-0.022963645 0.03796573 -0.0330277 -0.05367876 -0.0065003834 0.05900645 0.0050196117 -0.009006626
-0.048803303 -0.021304434 -0.015149422 -0.07840653 -0.030631615 -0.05370463 -0.020402404 -0.14452733
0.0365984 -0.01353799 0.037782393 -0.16563626 -0.060498986 0.022722298 -0.081947975 -0.04852589
-0.02382216 -0.048854012 -0.012975535 0.0015115449 -0.02078593 -0.070999995 -0.03760526 -0.06507809
-0.031111669 0.0031528827 -0.03232836 -0.085546695 -0.02117523 -0.009004587 -0.060811102 0.10158874
0.036108084 -0.013033296 -0.093159035 0.009230898 -0.007145944 0.038809244 -0.039214894 -0.09067676
0.006968446 -0.0103416275 0.0021121157 0.049351607 0.026367497 -0.047611665 -0.004969288 -0.07152455
-0.062243797 -0.015553115 -0.055508066 0.031039502 -0.08404345 0.01644792 -0.04808922 -0.08233748
-0.00921421 -0.04187023 -0.0053194314 -0.064659216 -0.048307806 -0.007306896 -0.061332963 -0.017196104
-0.014043617 0.039446216 -0.068312444 0.0022772632 -0.009675403 -0.027675537 -0.027122503 -0.03715974
-0.006177851 -0.058816914 0.038648583 0.011691006 -0.04858545 -0.06503633 -0.088005744 -0.02026561
0.016606424 -0.03918058 0.030941902 -0.0113849165 -0.029200627 -0.032483004 -0.0039361333 0.040880963
0.02503259 -0.09725581 0.0062877615 0.015400368 -0.0010716822 -0.027195947 -0.08798401 0.07024261
-0.013091791 -0.034006905 0.0047811386 0.0014451089 -0.043483008 0.010201599 0.016170906 -0.015595852
-0.035865005 0.017637325 -0.0019316481 -0.035540894 -0.07648244 -0.14879829 -0.12696859 -0.02988043
0.011963107 -0.09421988 -0.046367686 0.020689556 -0.06633178 -0.015725816 0.01955033 -0.018296411
-0.0046539074 0.012968862 -0.089585215 -0.023501638 -0.047673848 -0.04812479 -0.090554796 -0.010392453
-0.022654165 -0.047656115 -0.082844995 0.026631378 -0.045066074 -0.00798511 0.032635633 -0.065436095
-0.07398853 0.04186986 -0.04342116 -0.0128524145 -0.02079005 -0.084533975 -0.04024151 -0.047939047
-0.019457474 0.034433797 0.007892841 -0.052540738 -0.021367375 -0.04742794 -0.029218083 0.0033642023
0.04924898 0.028415775 -0.059950124 -0.025811767 -0.023842705 -0.024646625 -0.03495206 -0.030295053
-0.08878995 -0.07161269 0.028222566 0.0040575555 -0.05267887 -0.046961322 -0.05301656 -0.040310245

BN1.running_mean f4 [256]
00000000: 778a 22c1 30e2 9940 a2a8 c440 219f f840
00000010: cb45 ebc0 5f5e 0641 9263 c141 8272 5241
00000020: 76b5 0c41 2d01 36c0 1bd9 9f40 6c52 9a41
00000030: 2435 0b41 b64a 94c0 421b 2ac0 aa81 da3f
00000040: a1b6 7241 11e7 3dc1 955d 4341 f54a 4b41
00000050: 760d 33c0 a251 5041 bf05 1040 de8a ae40
00000060: 32cc ecbf 6f30 763e 9a6a f8c0 627c bf40
00000070: 67fe 89c0 5701 86bf 114d ab40 fe0c a2c0
00000080: 47f0 ea40 6cff 3fbf 21bc cd40 02d0 01c1
00000090: 6119 13c1 37ac 6640 a12b 2c40 e5fc 73c0
000000a0: d31d 4e41 ee34 8241 5d30 bb40 a095 fd3f
000000b0: c70b e9c0 7e94 1a40 7a01 2d41 1b1e 993f
000000c0: 18a3 0dc1 babf cfc0 a930 e3c0 9e3a edc0
000000d0: 9da2 b040 abd7 69c1 7386 7a40 ec6a 5c40
000000e0: b99e 08c0 4123 cc40 e60a 18c1 ef10 c440
000000f0: 9769 0d40 9940 7fc1 cd10 2040 932a 98c0
00000100: 1b79 eabf 2ec0 e0bf 5e5d 5e41 dcbf 8b40
00000110: aea6 2dc1 b638 063f 6371 17c0 0b40 f3c0
00000120: 4f10 0cc0 aee8 2841 b392 56c1 e13c f540
00000130: 6ab3 ff40 71a1 d8c0 8eef f940 8425 85c0
00000140: 1ef8 d73f 6832 a1be c413 c440 3559 3841
00000150: 49fa 8fc0 33d8 5f3e 5d36 2ec1 d5f1 3e40
00000160: b062 20bf 8155 7d40 abf1 8040 34ec 2441
00000170: defc b73f 02dd fec0 e662 aabe 3355 9240
00000180: 0260 8d40 c55d babe 0926 3cc1 cbad c5c0
00000190: 33b3 b140 411a 17c0 fb9c a340 054f 9b40
000001a0: f747 8341 2774 a7bf 9cac 00c1 0f4a dbc0
000001b0: 90d1 a7bf 3b58 0a41 1557 44c1 33a1 e2c0
000001c0: 4a67 0641 e183 6bc1 19a6 1f40 b06c 0441
000001d0: 3d49 20c1 fd54 51c1 9581 0840 6f62 19c1
000001e0: fc01 12c1 1c5e 76c1 d8dd a840 6192 aac0
000001f0: c28d 0b3f 94bc ddc0 6342 b6c0 7dff 48bf
00000200: 76e6 9dc0 d3d2 2fc1 7a2f 1bbf af6a 2ec1
00000210: 53cc 8f3c 6d6a f9bf e80c 1a3f 40e6 2a41
00000220: 2bdd 13bd 561a 6fbf c992 5c40 5756 7741
00000230: 5655 b1c0 0202 1dc1 80c9 ac40 44af 2841
00000240: 4a01 093f 3d98 f43e e43c 21c1 39cf 943f
00000250: bd8a 24c0 d344 9c3f c829 9fbf 4fb2 36c0
00000260: 8378 ffc0 b333 1341 8294 babf d648 e0c0
00000270: fe1c 52c0 3f19 83c1 a98f 4ac1 5bb8 2041
00000280: 5e78 4ac0 bf09 2fbf 99b3 2dc1 9732 1841
00000290: 8b2e 47c1 1de6 1bc1 1838 b4bd dec6 8a41
000002a0: e420 92c1 c4f6 01c0 a4de 77bd f71d 4941
000002b0: 63c2 7641 fa12 0040 13b0 69bf 71ed 8cc0
000002c0: eea5 94bf e224 1d41 dbd5 b840 3935 7ec1
000002d0: aebd 0dc1 f451 5fbf 1f4d 4141 6713 7041
000002e0: 7c6c 2340 6501 18c1 17c6 f340 1b9a a140
000002f0: 3f50 8a3f ae6a 5340 0f08 e640 8002 afc0
00000300: 83a5 14c1 76c6 8440 9cab 1a40 a74f 06c1
00000310: d364 8b3f 50d4 2bc1 dd0c 8d41 f5d8 82c0
00000320: 8727 46c1 aa2c 22c1 c4bb da3f f52c b7c0
00000330: 8a9e 10c1 9af4 5641 609d 5941 f3d9 44c1
00000340: bbf3 9c40 de6d 12bf c0d5 35c1 8b73 4f40
00000350: db6b 7e40 6597 e1c0 7dc3 82bf 8576 e33f
00000360: f580 4440 4049 59c0 8e68 ec3e 6c5f 70c0
00000370: 58b9 c0c0 1890 5fc1 e1d0 6dc0 bcd1 e53e
00000380: 0f74 92c0 e97a 6b3f c79c 18c0 21c2 25c1
00000390: e1d9 7a40 dbdb 09c1 e3d8 d440 2691 9b3f
000003a0: bbfa 4b40 ef3d 5fc1 d451 963f 5e51 8d3e
000003b0: f90f 03c1 15f5 5b40 3e9e 69c0 eefe ab41
000003c0: d19d 1ac0 ea34 d840 bd6b 2cc0 2ca5 d240
000003d0: c525 8340 9a4b a23f e569 01c1 3575 9ec0
000003e0: fdda 9fc1 1558 9940 73e0 8d41 c5e4 98c0
000003f0: 3436 12c1 7a9b c9c0 a46d dc40 2ec8 e5c0
-10.158805 4.808861 6.145585 7.769425 -7.3522696 8.39804 24.173618 13.152956
8.794302 -2.8438218 4.995252 19.290245 8.700474 -4.63412 -2.6579137 1.707082
15.169587 -11.868913 12.210347 12.7058 -2.7976966 13.01993 2.2503507 5.4544516
-1.8499815 0.24041913 -7.763013 5.9839334 -4.312305 -1.0469159 5.3531575 -5.064086
7.3418307 -0.7499912 6.429215 -8.113283 -9.193696 3.6042612 2.690163 -3.8123105
12.882281 16.275845 5.8496537 1.9811287 -7.2826877 2.4153132 10.8128605 1.1962312
-8.852318 -6.492154 -7.09969 -7.4134054 5.5198503 -14.615153 3.9144561 3.444026
-2.1346877 6.3793035 -9.502661 6.127067 2.2095697 -15.953271 2.5010254 -4.755197
-1.8318208 -1.7558649 13.897795 4.3671703 -10.853193 0.52430284 -2.3662956 -7.6015677
-2.1884954 10.556807 -13.410815 7.6636815 7.990651 -6.769707 7.8104925 -4.1608295
1.6872594 -0.3148377 6.127413 11.521779 -4.4993024 0.21859817 -10.888272 2.9835103
-0.62650585 3.9583437 4.0295005 10.307667 1.4374044 -7.9644785 -0.3327858 4.5729003
4.4179697 -0.36399665 -11.759286 -6.177465 5.553125 -2.3609774 5.1129127 4.853396
16.41014 -1.3082322 -8.042141 -6.8527904 -1.3110828 8.646541 -12.27126 -7.0821776
8.400217 -14.719697 2.4945128 8.276535 -10.01788 -13.083249 2.132909 -9.586532
-9.125484 -15.397976 5.2770805 -5.3303685 0.5451318 -6.92927 -5.695604 -0.78514844
-4.9343824 -10.988971 -0.6061932 -10.901046 0.017553484 -1.9485604 0.60175943 10.681213
-0.036099594 -0.9339956 3.446459 15.458579 -5.541667 -9.81299 5.399597 10.542789
0.5351759 0.477724 -10.077366 1.1625739 -2.570968 1.2208503 -1.2434626 -2.854633
-7.983461 9.200122 -1.4576571 -7.008891 -3.2830195 -16.387327 -12.660073 10.045009
-3.1635966 -0.68374246 -10.856347 9.512351 -12.448863 -9.74368 -0.087997615 17.347103
-18.26606 -2.0306864 -0.06051506 12.569816 15.422458 2.0011582 -0.9128429 -4.4039845
-1.1613138 9.821505 5.7761054 -15.887994 -8.8588085 -0.87234426 12.081328 15.004737
2.5534964 -9.50034 7.617931 5.0500617 1.0805739 3.3033862 7.1884837 -5.469055
-9.290408 4.149226 2.4167242 -8.394446 1.0890144 -10.739334 17.63128 -4.088984
-12.38465 -10.135904 1.7088552 -5.724238 -9.038706 13.434717 13.600922 -12.30321
4.9047523 -0.57198894 -11.364685 3.2414272 3.975333 -7.049731 -1.0215908 1.7770544
3.070371 -3.3950958 0.4617352 -3.755824 -6.022625 -13.972679 -3.715874 0.44886577
-4.5766673 0.9198442 -2.384569 -10.359895 3.9195483 -8.616176 6.6514754 1.2153671
3.1871784 -13.9526205 1.1743722 0.2760114 -8.1914 3.4368336 -3.6502833 21.499477
-2.4158823 6.756459 -2.6940758 6.5826626 4.0983605 1.2679322 -8.088353 -4.9518075
-19.981928 4.792002 17.734594 -4.777926 -9.138233 -6.300229 6.888384 -7.180686

BN1.running_var f4 [256]
00000000: 856f 7542 7f4a 2d42 7a47 0a43 54a8 c342
00000010: a45f 2443 d317 4543 9b85 1443 2ebf c942
00000020: ff90 0a43 5cb2 0643 c2f9 2243 8f2e 4543
00000030: c34f b342 29d1 c242 5718 8142 8646 1d43
00000040: ab77 df42 094d b242 4038 7942 fb11 0e43
00000050: 6997 dd42 a5b0 2e42 21d2 cd41 61e8 8442
00000060: f82e 3642 43dd c742 d064 6142 f662 8942
00000070: 0df2 4a42 7090 5143 7044 7f42 7603 ee42
00000080: f509 b342 c1ec b342 8ee8 e542 6a1a 3742
00000090: 6fbf 6042 8052 ba42 7d4f fe42 702e 4542
000000a0: 94c4 7543 991f 7542 d92b 8b42 af8c 9742
000000b0: 9041 8143 ecee f542 fdcc b442 37ed 1d42
000000c0: 94b3 dd42 be15 a042 4e68 0043 4b33 bd42
000000d0: 2a2e 8042 d188 e942 a2ac 7f42 c2c5 c742
000000e0: 7d08 9142 3fdc c942 32f2 7842 6dcc c541
000000f0: 8f0c 5242 24db ac42 3f56 8a42 1f47 bb42
00000100: 035b 3043 b412 5342 83b3 9f42 505c a342
00000110: 3878 1143 161a b342 465e e342 b019 8142
00000120: 0edf 9042 3f35 7042 f2f1 c042 d562 2642
00000130: af41 9642 4506 2c42 99d3 b842 8ca6 1e42
00000140: 027b 0942 e73b ae42 4832 8242 2ddd 8843
00000150: 39c9 8142 c794 1a42 9af2 0443 3ba0 3442
00000160: 5573 6e42 b48d e142 bea3 d042 7a88 5342
00000170: 72b0 7042 c0be 6b42 a881 ae42 7e51 8042
00000180: dadf ca42 63ca 3242 d1a8 a442 a145 e842
00000190: e47d f242 d9a2 0f43 d787 1d42 9817 3843
000001a0: 59cb 8b42 c002 3a42 46e8 6442 beb1 9a42
000001b0: 4153 7342 aea7 b642 9360 1043 1e71 b542
000001c0: f3a3 6542 17aa 9e42 f6a0 8942 699a 3642
000001d0: e6b1 3a42 5d5a a842 8f0b a642 ed60 5742
000001e0: 6ca6 d742 5e23 ee42 0b75 b242 1550 1943
000001f0: 2fd7 9242 899c 2043 7554 0f42 74f4 6a42
00000200: 5218 ff42 8a32 9242 7f02 b842 9ec0 d542
00000210: a789 6043 c749 8442 93b1 1143 ea5c 9442
00000220: 7eaa b342 f0c6 6a42 9ee3 9742 c81b f442
00000230: 78f5 1e42 a82a 8f42 c600 5542 b354 0943
00000240: 8617 9041 35b7 d042 87ab a142 adac 0f43
00000250: 76f8 5242 6a0c 9142 6648 9142 0ab5 2943
00000260: 1c85 2b42 0713 1e43 f753 0f42 e6ed 7342
00000270: 12db 4e42 6671 ae42 3c48 ad42 1d0d 0743
00000280: 5ea2 ee41 ffd6 f342 8a3f c642 b9f7 1743
00000290: d423 8d42 22d8 ea42 eefa 1e42 37f5 a142
000002a0: 982e 0143 546e 8042 fd67 0442 1016 ce42
000002b0: 56c2 9b42 964d b942 26a2 8842 aafc 1d42
000002c0: f04d 9f42 3f19 6542 0001 1143 d194 1543
000002d0: 5271 5742 58d6 2342 87cd 9a42 e8c6 7342
000002e0: 7b5a 2c42 044e a642 460b c842 bacd 0c42
000002f0: 767c 2c42 bb72 7642 7148 a742 708a 8842
00000300: 36a7 1d43 59eb 9242 b4ab b042 bd2d 1143
00000310: ccb8 2c42 31bf 7f42 eb11 fb42 3c63 4842
00000320: c47d a142 1cd0 2143 38e1 3e42 1d68 ba42
00000330: 4274 dc42 01d5 ef42 085a d842 9d71 6d42
00000340: 6147 9642 85ba a842 fba4 6842 2d3f b042
00000350: aa24 d842 379c 8242 9f54 3542 c44f ae42
00000360: 6514 b542 757c e842 a75e 2342 e43d 9142
00000370: c845 8f42 3ffb bd42 065f 6c43 ccd1 3642
00000380: 8cc3 0643 a8b0 6c42 0dd9 8642 df85 e142
00000390: 4d98 2d43 6802 9a42 2f18 3443 11ae 4742
000003a0: bfcf 7242 a1f0 8e42 dac6 a042 a4c9 8d42
000003b0: 062f b042 05fd 1842 6118 aa42 fc85 1443
000003c0: 452e 7842 3013 2943 95e5 d042 1257 3a42
000003d0: febe fc42 72ee a842 2b68 c542 6490 3043
000003e0: 94cc 4443 ec14 1143 e5f5 0143 ff16 6242
000003f0: e391 c642 c6ff c242 50fd 2842 d80a 0043
61.358906 43.32275 138.2792 97.828766 164.3736 197.09306 148.5219 100.8734
138.56639 134.69672 162.97562 197.18187 89.655785 97.408516 64.54754 157.27548
111.73373 89.15046 62.30493 142.07024 110.79572 43.672504 25.727602 66.453865
45.545868 99.93215 56.34845 68.69328 50.736378 209.56421 63.816833 119.00676
89.51945 89.96241 114.95421 45.775795 56.186947 93.16113 127.15525 49.29535
245.76788 61.280857 69.58564 75.77477 258.5122 122.966644 90.40037 39.481655
110.85074 80.042465 128.40744 94.60018 64.090164 116.76722 63.918587 99.886246
72.51658 100.93017 62.23652 24.724817 52.512264 86.42801 69.16845 93.63891
176.35551 52.768265 79.85061 81.6803 145.4696 89.55095 113.68413 64.55017
72.43565 60.052 96.47255 41.596516 75.12829 43.006123 92.41328 39.662643
34.370125 87.117 65.098206 273.72794 64.89301 38.64529 132.94766 45.156475
59.61263 112.776764 104.31981 52.883278 60.17231 58.93628 87.253235 64.159164
101.43721 44.697643 82.32972 116.135994 121.24588 143.63612 39.382656 184.09216
69.89716 46.502686 57.22683 77.34715 60.831303 91.3275 144.37724 90.72093
57.410107 79.33221 68.81438 45.65079 46.67373 84.17649 83.022575 53.844654
107.82504 119.06908 89.2286 153.31282 73.42028 160.61147 35.832478 58.738724
127.5475 73.09871 92.004875 106.876205 224.5377 66.1441 145.69365 74.18147
89.83299 58.694275 75.944565 122.05426 39.739716 71.58331 53.250755 137.33086
18.011486 104.35783 80.835014 143.67451 52.742638 72.52425 72.6414 169.70718
42.87999 158.07433 35.831997 60.982323 51.713936 87.22148 86.64108 135.05122
29.82928 121.919914 99.1241 151.96767 70.56998 117.422134 39.74505 80.978935
129.182 64.215485 33.10155 103.04309 77.87956 92.651535 68.316696 39.496742
79.65222 57.274654 145.0039 149.58131 53.860664 40.95932 77.40142 60.944244
43.08836 83.152374 100.02202 35.200905 43.121544 61.61204 83.64149 68.270386
157.65317 73.45966 88.33536 145.17867 43.180466 63.93671 125.534996 50.09691
80.745636 161.81293 47.71994 93.20335 110.227066 119.91602 108.17584 59.36095
75.13941 84.364296 58.161114 88.12339 108.07161 65.30511 45.332638 87.15579
90.53983 116.24308 40.842434 72.62088 71.63629 94.990715 236.37119 45.70488
134.76385 59.172516 67.42393 112.76147 173.59492 77.0047 180.09447 49.919987
60.702877 71.46998 80.38838 70.89383 88.09184 38.24709 85.047615 148.52338
62.045185 169.07495 104.4484 46.58503 126.37303 84.46571 98.70345 176.56403
196.79913 145.08173 129.96053 56.522457 99.284935 97.49956 42.247375 128.04236

L2.weight f4 [128, 256]
00000000: c656 9e3c 08f5 e5bc 78cd 553c 3cb3 b33b
00000010: 60cc b3bc 1c31 3e3d 62ef 02bb 317b d03c
00000020: af8f 26bd c2e4 18bc dee4 3abd fce8 6bbd
00000030: d1fe 313d 6d46 4f3d 89d9 af3c e486 953c
00000040: 51dd 133d 058b 603a e735 f93c a778 f53b
00000050: 3c55 793c 39bc 17bc dea8 e83b d5cc 343d
00000060: 3293 7a3c 4f22 9bbb 1a5e 5a3d 2bc8 0fbd
00000070: 978a 19bd bdd7 05bd cdaa 03bc 21db 9e3c
00000080: 67fc 213d 5230 323d 87d1 b4bb e285 713d
00000090: 9ab0 333d 70ef 0f3c 81c3 a03c 03e7 96bc
000000a0: 36ce 8a3d 0ac4 6f3b f6c6 c53b b9a9 6b3c
000000b0: 4f39 36bc 7cf7 993c db40 63bd f474 6b3a
000000c0: 5a51 f03c 4caa 02bd bfb2 abba 8a44 09bd
000000d0: 453a 63bd 6287 463d da59 073d a98a 8f3d
000000e0: 1166 183c 4ffc 38bc 3b64 483d def9 dd3c
000000f0: 9ae9 303c 6be5 2ebd 6c2a 783d d159 fe3c
00000100: 19eb 903c 059a 8f3d 5ae0 223d fc83 483d
00000110: 6d55 42bd 36c1 a73d bbe6 1fbd e447 fe3c
00000120: fe56 47bd 1937 21bd c2ed c53b 8cb1 dabc
00000130: 114e 893d a038 823d adee 8abc a201 66bd
00000140: 4df8 453d 0ea3 dcbc 2e9f 563d 9066 3cbc
00000150: 764f 463b 8246 ca3c 0b27 dfbb fed6 313c
00000160: 41ff 3ebc 1f7c 503d 107a 703c 8642 6dbd
00000170: a788 bfbc 2d70 6ebd 360f 333d 0a16 9d3c
00000180: 2379 f43b 2d82 d23b 8c01 20bd 824c 53bc
00000190: cab4 633d 3ef6 4fbd c674 5fbd 9abc 843d
000001a0: 72a6 bebb 504d 833d a4b3 133c ea1a 853c
000001b0: ee2b b63c d897 61bd f88b 7e3d d3f1 6b3d
000001c0: 0d18 263c 6f38 37bd 8447 84bd b2c3 81bd
000001d0: ed97 6b3d a8b6 50bd 60db c7bb 2629 933c
000001e0: 759f 19bd b34e 36bd fc58 743d 9fb3 fb3c
000001f0: af2f 58bd 6fb3 ce3c dfee ea3c 8757 82bb
00000200: acfc 28bd 6dce 0c3d e9c7 b2bb 6748 1abd
00000210: 542e 153c 75f4 87bc af65 e33c 8033 afbc
00000220: 9be4 96bc e949 05bb fd2a 463d cbd9 043d
00000230: 5d67 713b 8d11 2fbd 27f8 d13c fba8 3dbd
00000240: c6e6 60bd 4fbc 7c3c ceb8 aebc d826 2d3d
00000250: 1044 293c 219e 823a ddb7 203a 15c6 19bd
00000260: 319d f6bc d51d 6b3d 7f5d 87bc 3c96 10bd
00000270: 9d5e 3e3d dea3 c53b 288b 01ba c761 c13c
00000280: 0b81 d6ba 2eb7 49bc 5ba8 dd3c cb82 303c
00000290: 3971 3a3d 237d 5dbc 829a 153d a9ce 263c
000002a0: 5039 18bd 9cbc d73c 560f f33c 1236 14bb
000002b0: 5a8a ea3c 1895 aa3b 2562 4fbd 7028 51bd
000002c0: 3b50 aa3c 4e16 143d a449 6dbd cc00 61bd
000002d0: caf7 bc3c 3e0a 16bd 3ce2 a3bc a320 5fbc
000002e0: 9931 803d c484 d8bb 8c04 513d b139 93bc
000002f0: 2fb6 7ebd 1413 923d aea9 64bc c1b7 45bc
00000300: defc 24bd 78c4 473d d2d6 32ba a49b 8f3d
00000310: 4055 df3c 5f2f 4ebd 5ee2 0fbb edbe 7e3d
00000320: a5b3 0a3c b7ef 60bc 7f01 333b 03d8 53bd
00000330: ec1b 85ba 7ffc c7bc 7b99 09bc 9086 38bd
00000340: 367d 01bd 5403 37bd 6333 ce3c 23ca 673d
00000350: 48c0 443c eb15 423d df82 9e3c 44d9 383d
00000360: 2e01 853d d9f0 95bc db50 763d 41c7 483c
00000370: edef 1f3d 3298 debc e891 2fbd cc5a 70bc
00000380: d638 16bc 5be3 b03c 62a3 0a3c 3c6c 1c3d
00000390: b67d 953d 0b86 263d f7b6 dabc f08b 04bd
000003a0: 424e d0bb 3914 f9bb de68 993c 7bbf 5a3d
000003b0: 55b5 ce3b 13a0 09bd ad31 31bd 74c2 6d3d
000003c0: 2f85 4d3d fa76 5c3c 548d 76bd 592e 053d
000003d0: 0d9e 12bc 236c 5ebd 928c 863c 856c 713c
000003e0: 5398 203d 4975 943c 4b8d 82bc 3113 593d
000003f0: 7c25 70bd 0349 8e3d b3dd c3bb 087e 383d
0.019328486 -0.028070942 0.013049476 0.005484013 -0.02194804 0.046433553 -0.001997911 0.025449367
-0.04066437 -0.009331884 -0.04562842 -0.057595238 0.043455902 0.050604273 0.021466034 0.018252797
0.036099736 0.00085656374 0.03042121 0.0074911895 0.015218075 -0.009261184 0.0071002087 0.044140656
0.015293883 -0.0047343145 0.0533124 -0.035103004 -0.037485685 -0.032676447 -0.008036328 0.019391598
0.03954735 0.043503113 -0.0055181417 0.05896557 0.043869592 0.008785114 0.019624474 -0.018420702
0.06777613 0.0036585354 0.006035681 0.014383727 -0.011122062 0.018794768 -0.055481773 0.0008981966
0.029335666 -0.03190069 -0.0013099535 -0.03351263 -0.055475492 0.048468955 0.033044674 0.07008869
0.009301678 -0.011290624 0.048923712 0.027096685 0.010797882 -0.04269926 0.06058733 0.031048687
0.017690228 0.07011799 0.03976474 0.048953995 -0.04744475 0.08191149 -0.0390384 0.03104014
-0.048666947 -0.039359186 0.006040306 -0.02669599 0.06704343 0.063584566 -0.016959513 -0.0561539
0.0483325 -0.02693322 0.0523979 -0.011499062 0.0030259765 0.024691824 -0.006810074 0.010854481
-0.011657537 0.05089962 0.0146775395 -0.05792477 -0.02338059 -0.058212448 0.04371568 0.019175548
0.0074607297 0.0064242096 -0.039063975 -0.012896659 0.055592336 -0.050771944 -0.054554723 0.064812854
-0.0058181817 0.064112306 0.009014998 0.016248185 0.022237744 -0.05507645 0.062145203 0.05760367
0.01013757 -0.044731554 -0.06458953 -0.06336154 0.057517935 -0.050955445 -0.0060991496 0.017963957
-0.037505586 -0.044508647 0.059655175 0.030725298 -0.05277985 0.025232045 0.028678356 -0.003977719
-0.04125659 0.03437655 -0.00545596 -0.037666705 0.009105284 -0.016596058 0.027758447 -0.021386862
-0.018419554 -0.0020338243 0.04838084 0.032434266 0.003683529 -0.042741347 0.025631024 -0.04630373
-0.054907583 0.015425756 -0.021328356 0.042273372 0.010331169 0.0009965339 0.00061309134 -0.03754242
-0.030104252 0.057401497 -0.016524075 -0.035299525 0.04647695 0.0060314974 -0.00049416954 0.023606194
-0.0016365362 -0.01231174 0.027057817 0.010773371 0.045518134 -0.013518604 0.036524303 0.010181108
-0.037164032 0.026335053 0.029670399 -0.0022615236 0.028630424 0.0052057616 -0.050630707 -0.051063955
0.02079021 0.036154084 -0.057931557 -0.0549324 0.023067374 -0.03663086 -0.020005338 -0.013618621
0.0625946 -0.006607624 0.051029727 -0.017971845 -0.062185463 0.07132545 -0.01395647 -0.012067736
-0.040280215 0.04877135 -0.0006822172 0.07012108 0.02726233 -0.050338145 -0.0021954994 0.0621938
0.008465682 -0.0137290275 0.0027314124 -0.051719677 -0.0010155416 -0.024412392 -0.008398409 -0.045050204
-0.03161355 -0.04468091 0.025170987 0.056589257 0.012008734 0.047384184 0.019349514 0.045129076
0.06494366 -0.018303322 0.060135704 0.012254537 0.03904717 -0.027172182 -0.042863756 -0.014670085
-0.009168824 0.021592787 0.008461805 0.038189158 0.07299368 0.040655177 -0.026698573 -0.032360017
-0.0063569853 -0.0076012877 0.018726762 0.053405266 0.0063082376 -0.033599924 -0.043260265 0.058046773
0.050175842 0.013456101 -0.060193375 0.032514904 -0.008948815 -0.054302346 0.016424451 0.014735346
0.039207768 0.018122332 -0.015936514 0.052996818 -0.058629498 0.0694752 -0.0059773563 0.045042068

L2.bias f4 [128]
00000000: fd96 6ebb ac2b 2abd dcb1 e0bb c9fd 10bd
00000010: 5276 c53c 33f5 12bd c75d 17bd db23 45bd
00000020: 6ac1 bbbc 2ac7 64bc ec81 343c 1b6b 933c
00000030: 4215 c3bc af56 49bd 3b39 713d 7bde 1c3d
00000040: f95f c1bc ca8c 7c3b 10d5 4abd c7aa 4cbd
00000050: d971 633d a9c0 c43c 9b81 6d3c c307 42bd
00000060: 592a 57bd a238 29bd a24d 16bd 6bee a03c
00000070: 539f d23b 5f41 fb3c d6ba b23c 0544 14bc
00000080: f5f2 af3a fc7a 033d c866 9dbb 0444 bf3b
00000090: 54da b63b 0f65 2dbc be5b a4bc af4e a33c
000000a0: 8c93 5b3d d18a 4dbd 6d12 8ebb 2efb e6bc
000000b0: e858 ffbb 855c ba3c 4b9d 61bd eb24 ef3c
000000c0: 8c2f bc3c 706a fbbc 1462 15bd db6c b2bc
000000d0: 25ae 0dbb 573a 11bd 70c1 643d 9d50 81bb
000000e0: 2ad5 cfbc fd53 41bd 4b34 c43c cb7f 09bd
000000f0: a6de ac3c c840 1fbc 92e3 dfbc 6570 af3c
00000100: 6162 7bbd 4b72 1f3d 9c84 3bbb 4c2e e73b
00000110: f711 123d c66e a5bc c282 ca3c 74c4 3939
00000120: d4b3 91bc 0b9b 3c3d 430e c33b 871b 2a3d
00000130: adc5 90bc e1d0 f73c 6690 e93c 28b4 133d
00000140: 699c 053d 444b 103d 123e 5b3a a431 af3b
00000150: 50d4 4bbd dc14 393d bbce 903c e199 86bc
00000160: bfb7 4fbd 6a7f d9bc 5297 9cbb 92e2 fc3c
00000170: 9ecf 3dbb 0807 bf3c 1577 413c 1d66 773d
00000180: c3a3 6a3d 5d5b 293d 8367 79bd ce49 c1bc
00000190: d627 d73c a86c 273d 8eff 253d e90b bdbc
000001a0: 90e2 fe3b b1e7 323c 9299 dd3c 5a78 40bd
000001b0: 0068 6cbd bf46 6a3d 944f 303c d4a3 fd3c
000001c0: 5653 44bd 5425 f8bb 187b c63c 7e10 55bd
000001d0: 8caa 28bd 512a b9bb 2c8f a1bc 326b 653d
000001e0: faab 56bd d0e8 43bd 6570 acbc 8675 90bc
000001f0: 6913 72bd 2b8a 1fbb 9052 bb39 a38f 263d
-0.0036405914 -0.041545555 -0.00685714 -0.03539828 0.024104271 -0.03587837 -0.036954667 -0.048129898
-0.022919375 -0.0139635 0.011017304 0.017995408 -0.023813847 -0.049154934 0.05889247 0.03829811
-0.023605334 0.0038536065 -0.0495196 -0.049967553 0.055528495 0.024017649 0.014496232 -0.047370683
-0.05253062 -0.041313775 -0.03669513 0.019644937 0.0064276843 0.03067082 0.021817606 -0.00904942
0.0013423847 0.03209971 -0.0048035122 0.0058369655 0.005580226 -0.010583176 -0.020063277 0.01993498
0.05360751 -0.050181214 -0.0043356926 -0.028195944 -0.007792581 0.022749195 -0.055081647 0.029192409
0.02297189 -0.030690402 -0.036470488 -0.021780422 -0.002161869 -0.035456028 0.05584854 -0.0039463774
-0.0253702 -0.047199238 0.023950716 -0.03356914 0.02110226 -0.009720035 -0.027330194 0.021415899
-0.06137312 0.038927358 -0.0028612977 0.0070550796 0.035661664 -0.020194422 0.024720553 0.0001771616
-0.017785944 0.046046298 0.005952628 0.04153016 -0.017672384 0.030250968 0.028511237 0.036060482
0.032619867 0.03522803 0.0008363436 0.005346494 -0.049763024 0.04518591 0.017676702 -0.016430797
-0.050712343 -0.026550014 -0.004778781 0.030869756 -0.002896286 0.023318782 0.0118081765 0.060400117
0.05728508 0.041346896 -0.060889732 -0.023594763 0.026264112 0.040875107 0.04052692 -0.023076968
0.007778473 0.010919497 0.027050767 -0.046989776 -0.05771637 0.057196375 0.01076116 0.030961908
-0.047931038 -0.0075728092 0.024228618 -0.05201768 -0.04117827 -0.0056507965 -0.01972159 0.056010433
-0.052410103 -0.04782945 -0.021049688 -0.017634165 -0.059100542 -0.002434383 0.00035728933 0.040664326

BN2.weight f4 [128]
00000000: 441c 823f b8ef 7e3f a57e 7e3f 309d 813f
00000010: 7013 823f bacd 823f 8f99 7d3f 0a21 863f
00000020: 3f15 813f d01b 813f 858e 783f 5d6b 803f
00000030: 33c0 813f 44be 7b3f d710 813f bf32 7b3f
00000040: 140b 823f bce6 833f 45d6 833f e47b 7e3f
00000050: 9428 803f 6de9 803f 113e 7e3f 1ddf 833f
00000060: bff4 7b3f 03c5 823f ec56 803f c66c 813f
00000070: 251e 7f3f 994a 843f 092f 823f da4a 883f
00000080: a9d5 783f d94b 853f dd1d 7e3f 3a40 823f
00000090: b177 803f 8906 823f 2d07 803f 5be5 7e3f
000000a0: db00 813f 07b2 773f 67a6 823f b30e 823f
000000b0: 2d64 7f3f 8ea3 803f 08da 843f a9c4 813f
000000c0: 672f 863f e3d7 803f 6827 7e3f 38c2 823f
000000d0: 57f2 813f 66a5 803f 25f0 7b3f 26e9 7e3f
000000e0: 195f 7f3f 87f4 823f 2c21 8a3f 7c5b 803f
000000f0: 29b2 813f 2c16 893f 4782 7d3f 5dd7 7d3f
00000100: 5e24 803f 903b 863f 591c 7a3f 1b6d 803f
00000110: 2e63 783f 353a 813f 95e9 7b3f a890 853f
00000120: c807 823f c271 7b3f c0dc 843f 414e 833f
00000130: 847f 7f3f c8ed 843f b64a 863f 20ea 803f
00000140: c8fc 7e3f 3681 803f 57e9 853f 8f22 833f
00000150: 52c0 7b3f 640c 873f fe53 843f 1847 7e3f
00000160: e763 803f ed43 823f bd8d 833f 12e5 853f
00000170: 45f4 813f 1001 843f cf3d 823f 45cb 7f3f
00000180: a439 843f 8176 7c3f 2668 863f 493c 7a3f
00000190: 0853 833f f590 803f 897f 823f b92c 7a3f
000001a0: 2560 803f 7aa0 813f bb1b 803f 856a 803f
000001b0: abf7 7b3f 8dae 803f b9a5 813f d2d6 773f
000001c0: 34d4 823f 0724 813f 9ef7 7f3f e0c9 823f
000001d0: b357 7e3f cd2e 823f 043f 823f d3e0 7f3f
000001e0: 83fc 813f 1663 7c3f f71e 7e3f a935 7b3f
000001f0: 998f 7c3f 4056 7e3f 4cad 823f 599c 803f
1.0164876 0.9958453 0.99411994 1.0126095 1.0162182 1.0219033 0.99062437 1.0478833
1.0084609 1.0086613 0.9709247 1.0032765 1.013678 0.983372 1.0083264 0.9812431
1.0159631 1.030479 1.0299765 0.9940779 1.0012383 1.0071236 0.99313456 1.0302464
0.9842033 1.0216373 1.0026526 1.011132 0.9965537 1.0335265 1.0170604 1.0647843
0.9720102 1.0413772 0.9926432 1.017585 1.0036527 1.0158244 1.000219 0.9956872
1.0078386 0.96756023 1.0207032 1.0160736 0.9976223 1.0049913 1.0379038 1.0138141
1.0483216 1.0065883 0.9927888 1.0215521 1.0152081 1.0050476 0.98413306 0.99574506
0.9975448 1.0230874 1.0791373 1.0027919 1.0132495 1.0709891 0.9902691 0.99156743
1.0011098 1.0486927 0.97699505 1.0033296 0.97026336 1.0095888 0.9840329 1.043477
1.0158625 0.98220456 1.0379868 1.0258256 0.9980395 1.0385065 1.049155 1.0071449
0.99604464 1.0039432 1.0461835 1.0244921 0.9834033 1.0550656 1.0338132 0.9932723
1.0030488 1.0176979 1.027763 1.0460532 1.015267 1.0312824 1.0175112 0.9991954
1.033009 0.9861832 1.0500534 0.9774824 1.0259714 1.0044237 1.0195171 0.9772449
1.0029341 1.0127099 1.0008463 1.0032507 0.98424786 1.0053269 1.01287 0.96812165
1.0221009 1.008912 0.9998721 1.0217857 0.9935257 1.0170532 1.0175481 0.9995243
1.0155185 0.98588693 0.99266 0.98128754 0.9865661 0.9935036 1.0209136 1.0047714
