Trained_Models/BotDetection_v4_MLP___May-10-2024/BotDetection_v4_MLP_epoch41_val_loss_0.478950.pth (torch, 951083 bytes, 45 tensors)

L1.weight f4 [256, 133]
00000000: dcac 1e3c 65c6 713d 28fb b53d 24d9 21be
00000010: b2e7 e83c 2486 313d 7059 363e 52f3 64bd
00000020: 0a14 463c bc82 533c c783 86bd a1e5 133d
00000030: b316 55bd 1b29 4abd 451b 13be 7efa 9e3d
00000040: 494f 5d3c 5305 24bd 91e9 02bb 818d 62bd
00000050: 9a46 15bd 81dc 30bc 9899 44bd d83a a1bc
00000060: 3228 683d ae55 d3bd 93b4 cc3c 7acd adbd
00000070: 6466 c83c 0413 ac3d 8cfd 8c3a 9b6c 2dbd
00000080: c534 b8bd 9510 a4bc 2fba 92bd b2d9 a83d
00000090: 8e8e aa3d 73b3 c13d 4f26 6bbd 6c0f 87bc
000000a0: e75c 473e 6bf4 8dbb d1fc d1bc 4df0 bb3c
000000b0: 008b 023c 0b24 b63d c985 d63b ac33 893d
000000c0: ecef 1ebd eb8b 9b3d 3862 433d c443 4a3c
000000d0: ea14 943d 8b58 cb3d 18c1 d2bc f761 933c
000000e0: a5b5 20bd 320d 543d 3f6c 16be c30a 67bc
000000f0: 1aad 19be dda3 863c 97f7 11be 266c 3cbd
00000100: b74f dc3d b940 f9bd d798 80bd 4c59 053e
00000110: 732c d0bc 1919 51bd 5bf1 583d a056 b73d
00000120: adae c93d c465 493d 6fdf 3ebd faba e8bc
00000130: 7dbe a3bd 0ac3 b93c ca6f a1bc b945 0e3d
00000140: 65e1 2c3c bc03 19bd 7f00 7dbd bc12 acbc
00000150: 7a21 593d 8230 05bd b235 29be 8194 9fbd
00000160: 3934 913c f4ed 72bc 4bb4 98bb 83b6 0b3e
00000170: 8560 b5bd 5235 a43c b97b 03bd e173 183d
00000180: c1ee 453d 2097 9ebd 8230 3cbd 7df0 ec3c
00000190: 4d7a c73c 85d2 b9bd 4ebd ef3d 536e 0ebe
000001a0: 581c 6abd a136 923d fe3b 843d abe3 41bd
000001b0: adc3 28bd ebb6 8abd 2620 2c3d 4f56 b7bd
000001c0: 99ab 55bd 9404 68bc 47eb 993c b13c 1abd
000001d0: 93af 633c f916 ce3d 2710 8f3d ac40 a63d
000001e0: 46a9 b5bd fc1f 563d a799 703c 4e22 343e
000001f0: 069f debd 7202 22bc 944d 523d f685 a23d
00000200: 3746 a1bd df00 a2ba ffbf a33d 78ad 953d
00000210: 4cf8 afbd decb f93b 5066 153d 6acc 3bbc
00000220: 256b c63d dc56 10bd 8239 183d 9bdb 82bd
00000230: 7596 24bd 4309 5a3d 17ff 0dbd ab2f 27bc
00000240: 9b43 76bb 362b 6fbd 00a2 4c3d 5593 503d
00000250: 7e8c 6d3c 3cfe 55bd 0302 d5bb 9aef 94bc
00000260: 3f84 5c3d 2914 d4bc 24a8 443c 1431 8ebd
00000270: 5e1a b1bd 490f bcbd abda ddbc 1596 abbd
00000280: e6f8 543c ebdb 9ebd ae04 a43c c1a7 7c3a
00000290: 10d5 fcbc a758 8a3d 5e99 8a3d 6419 6ebd
000002a0: 5428 b4bc 5cbd f13d 23ff 943d 002c 2c3e
000002b0: 980a d43d ee2e 6f3d 48fc 3ebd f24f 883c
000002c0: cc83 623d 94f5 183e 5f7d 1fbd 5e6e f43c
000002d0: df2d 653d 7d22 763d a760 ec3c 3586 90bd
000002e0: c10f 64bd 40b0 5c3d 96a3 f33d 38cb 04bd
000002f0: 48a7 e3bc cf10 383b 9b7b 763d 5751 ad3d
00000300: 5f4a 5fbd d60e 913d b76f 9e3d 5810 0f3d
00000310: 7f3d d3bd 99bd f43b 1e92 463d 829b 2abd
00000320: edfc 5ebc 2b89 8cbc 6234 dcbc 37f7 98bc
00000330: 04e4 f03d a019 9b3c d1dc 08bd bf5d 61bc
00000340: 5b51 163c a0b8 a23d 83a5 35bd ef26 09bc
00000350: 7b5c bbbc 2153 5dbc 387f bdbc 3b07 c7bd
00000360: 7ba4 c7bd 2ee6 ac3d 2e79 2dbd f627 5f3d
00000370: 941e 22bd 042c cc3c 0038 19be 0654 b53d
00000380: 0aff 15be 0e6c 13bd 43e9 b1bd 5a36 133d
00000390: 2b7d 31bd 84a6 a5bc 9122 30bd f0f0 68bd
000003a0: 871e 093d fe51 013e efcf 173d 2198 a43d
000003b0: b39b 043c 324f 253d 257a b63d 396a 5b3d
000003c0: 9183 aebd 61b9 053c 2329 f93b b1c0 05bd
000003d0: e556 59bd a05d 453d 0d70 7ebd a08e cd3c
000003e0: 1c2b c4bc 2829 483d 400f af3d d2f0 c03d
000003f0: 44a6 60bd 7d4c 07be 497d 92bd a6bc 98bd
0.009684768 0.059027094 0.08885795 -0.15805489 0.028430793 0.043340817 0.17807555 -0.05589611
0.012089739 0.0129095875 -0.06568103 0.036107663 -0.0520236 -0.049355607 -0.14365871 0.07762621
0.013507673 -0.04004414 -0.0019975642 -0.05531073 -0.036444284 -0.01079476 -0.04799804 -0.01968138
0.05667896 -0.103190765 0.024988448 -0.08486457 0.024462886 0.084020644 0.0010756715 -0.042339902
-0.0899444 -0.020027438 -0.07164418 0.08244647 0.083279714 0.09458055 -0.05740958 -0.016486846
0.19469033 -0.0043321154 -0.025633248 0.022941733 0.0079677105 0.088935934 0.00654671 0.06699309
-0.038803026 0.075950466 0.04770109 0.012345258 0.072305515 0.099289976 -0.02572684 0.01799105
-0.03923573 0.051770397 -0.1468973 -0.014101687 -0.1500744 0.016435558 -0.14254604 -0.046001576
0.10757392 -0.12170548 -0.06279152 0.13022345 -0.02541182 -0.051049326 0.05296455 0.08952069
0.0984777 0.049169317 -0.0465998 -0.02840947 -0.07995317 0.02267601 -0.019706625 0.03473446
0.010551785 -0.037357077 -0.06176805 -0.021005027 0.05301044 -0.032516964 -0.1652439 -0.07791997
0.017725097 -0.01482724 -0.0046601645 0.13643841 -0.088563 0.020044956 -0.032100413 0.037219886
0.048323397 -0.077436686 -0.0459447 0.028923267 0.02435031 -0.090733565 0.11706029 -0.13909273
-0.057155937 0.07139326 0.06456755 -0.04733626 -0.041202236 -0.0677317 0.042022847 -0.08952009
-0.0521656 -0.014161248 0.018788947 -0.037655536 0.013896841 0.100629754 0.06985503 0.08117804
-0.08870177 0.052276596 0.014685071 0.17591211 -0.10870175 -0.009888278 0.051343516 0.07935707
-0.078747205 -0.0012359879 0.07995605 0.07308477 -0.08592281 0.00762318 0.036474526 -0.01146231
0.09688405 -0.035239086 0.03716422 -0.06389543 -0.04018255 0.05323149 -0.0346671 -0.010204236
-0.0037576917 -0.05839082 0.049959183 0.050921757 0.014498828 -0.05224441 -0.006500484 -0.018180657
0.053837057 -0.02588852 0.0120029785 -0.06942955 -0.08647607 -0.09182603 -0.027081808 -0.08378235
0.012998795 -0.0775679 0.020021763 0.00096380344 -0.030863315 0.0675519 0.06767534 -0.058129683
-0.021991886 0.118036956 0.07275226 0.1681366 0.10353583 0.058394365 -0.046627313 0.016639683
0.055301473 0.1493743 -0.038937923 0.029837783 0.05595195 0.060091484 0.028854681 -0.07056848
-0.055679087 0.053879023 0.11896436 -0.032420367 -0.027789727 0.002808619 0.060176473 0.0846278
-0.054514285 0.07082908 0.07736152 0.034927696 -0.10314464 0.007468891 0.048479192 -0.04165221
-0.013610107 -0.01715525 -0.026880447 -0.018672569 0.117622405 0.018933117 -0.033413712 -0.013755261
0.00917467 0.07945371 -0.044347297 -0.008371099 -0.022871247 -0.013508589 -0.023131952 -0.09718176
-0.09748169 0.08442341 -0.042351894 0.05448147 -0.039579943 0.024923332 -0.14962769 0.08853917
-0.14648071 -0.03599172 -0.08687069 0.035940506 -0.04333226 -0.020221002 -0.043001715 -0.0568704
0.03347638 0.12628934 0.037063535 0.08036829 0.008093762 0.04035873 0.08910016 0.0535681
-0.08521188 0.008161874 0.007603781 -0.032654468 -0.053061385 0.04818499 -0.06211858 0.025092423
-0.023946337 0.048867375 0.085478306 0.09420933 -0.054846063 -0.13212772 -0.071528025 -0.07457857

L1.bias f4 [256]
00000000: c4e2 a6bd 2349 97bc b60b 7b3d 3668 8abc
00000010: 9f39 b2bc 32ea 79bd 45ba 053d 9ec3 2a3d
00000020: 6bb9 56bd f2a4 9dbd b558 bdbc bb0b 783d
00000030: 64ef 83bd aa7f 12bd 7347 aebd 0390 21bc
00000040: 98f0 973c e844 103d e64f 29bd a79d a93d
00000050: 883f ef3b 207f 7dbd 2a83 8e3c 0aa4 023d
00000060: c9da 643d 4596 7b3d a049 b5bc aa98 8ebc
00000070: 7373 32bd eff5 103d aaa7 87bd 6a09 bebc
00000080: 37e5 64bc ba56 91bd 3c54 093d 44bb a13c
00000090: 860e 973d 139c 5bbd 0ad1 9f3d bea8 153d
000000a0: 61f3 dabc ba49 87bd 1fa6 a7bd 96ba 013d
000000b0: 15e5 2cbd 9422 cdbc ae99 0abd 633c 85bc
000000c0: 1404 f33b 608b 983d ffb2 673d 72f7 833d
000000d0: 0570 9e3b 6804 dbbc 5462 23bd 37e6 4c3d
000000e0: 94bf efbb ae30 0b3d d5e2 9ebd e6c8 323d
000000f0: 8b9f 39bd 3856 19bc 22a9 8e3d 6977 583d
00000100: 807c 4dbd 2e88 923d c3b6 8fbd c965 223d
00000110: 0345 643c 586b a33d d5a1 0e3c 069e 99bc
00000120: 0434 973d 0b90 51bd 24d4 753d 74c1 05bd
00000130: 30d0 3fbc 96b4 19bd 3e99 683d 6ac5 5ebd
00000140: 75da c8bc bcb4 c63b c199 9d3d 63d9 41bc
00000150: 6f47 18bd 45f8 22bc aa52 a03c 9195 1cbd
00000160: 117b b03d 7bcc 0f3d 26c5 fbbc 2153 4f3d
00000170: 13ef cdbc ec6f 9b3c c9a8 78bc 473e 8abd
00000180: 1e10 94bd 407d 9abd e8e2 44bd 5091 afbb
00000190: f605 393c 0d35 6b3c 75b5 1f3d f868 b23b
000001a0: 43c3 ac3d 8a3e a6bc 9540 953c b9c0 913c
000001b0: 9aa8 2e3d 36d2 8d3d 7b1a 053d 09be 303d
000001c0: 8036 9d3d ff64 2b3d f356 a13d 695e 343d
000001d0: 6d5f 2b3d c766 31bc d696 5cbd 3074 9d3d
000001e0: f0df 363d d22e d43c aada 0f3d f034 c4bc
000001f0: 5f22 28bc 70a1 8d3d 0707 ba3c d7f4 abbd
00000200: 1993 8f3d c3d1 d23c 3cd3 2dbd bfe0 1ebd
00000210: e73e 84bd 3df1 a53d 86b5 26bd 07a2 1fbd
00000220: 61db e33c 65e3 0dbd ef78 3a3d 5634 f9bc
00000230: 31e8 a9bc 3ed0 dbbc 8e79 a13b 540a 323d
00000240: dbde 5ebc 7b78 8b3d 6760 afbd 80d7 87bd
00000250: 28e3 c73c c57f d5bb 3193 56bc b599 cb3c
00000260: 0fe3 90bd 899d 16bc e8cc 7cbd 3415 9e3d
00000270: 28ae 9a3c ee6a 533d fed6 63bd 95d9 a9bc
00000280: f968 3e3d 49fa 953d a435 94bd 217e c0bc
00000290: fbe2 7ebc 2e62 a43d 0dec 5bbd 6722 033d
000002a0: 1ce0 813d 274d 86bd 1406 a73d e555 aebd
000002b0: cc3d 82bd e193 cdbc bd8b 8d3b 6b0c 4c3b
000002c0: cf15 843d 0ba5 983d 07af c0bc fcc9 a43c
000002d0: 17eb f8bc 3703 ca3c 45c4 ecba ec9a 253d
000002e0: f12e c53a 5da5 dcbc 5ec2 173d c30d 803d
000002f0: c671 25bd 1530 bd3c b2fa 0e39 1d26 ccbc
00000300: 5f4f 173d 6551 4a3d c05e 1f3d 80d6 96bd
00000310: fc1a 01bd 1ab5 923d 9a29 4b3d ffc1 473d
00000320: 9242 57bd 3088 fe3c 601c 32bc 0a6e 09bd
00000330: e07a 533d b486 aa3d 6ad6 1e3d c9d2 813d
00000340: 96ed 4abd a483 2e3d dbf2 a3bd 860f abbc
00000350: 3d2a aabc fadb 91bd e86f debc a305 863d
00000360: 1049 2ebd 7123 993d 3278 303d a6d3 0ebd
00000370: 2b46 473d ca07 a5bd 4898 143d b1df 28bd
00000380: 6603 8cbd c5c8 ae3d 1a9c 5cbb d15a 5abd
00000390: d462 af3d 4f39 b13c 96b3 56bc 7301 06bd
000003a0: b5b6 9f3d 9609 453d 2d33 a03d ed4b 013d
000003b0: 34d4 8b3d 9f24 5aba 0e48 9e3c a308 b33c
000003c0: d4d8 a73d 2d08 853d 3269 543d e9f8 aabd
000003d0: a5ec 813d 31de 413d d293 9dbc 1d6b 823c
000003e0: de2d aebd df17 46bd ae0d 893d 1f9c a3bd
000003f0: 83e3 0a3a 9158 7c3c 83db 7ebb c429 4fbd
-0.08148721 -0.018467491 0.061290465 -0.016895395 -0.021755992 -0.06101436 0.032648344 0.04169046
-0.052422922 -0.076974764 -0.023113588 0.060558062 -0.064421445 -0.03576628 -0.085097216 -0.009860995
0.018547341 0.035221964 -0.041335963 0.08282023 0.0073012747 -0.061888814 0.017396528 0.03189472
0.055872712 0.061422605 -0.022129834 -0.01740678 -0.043567132 0.03539079 -0.06623776 -0.023197848
-0.013970665 -0.0709662 0.033527598 0.019742616 0.07375817 -0.05361564 0.07803543 0.03653788
-0.02672738 -0.06605859 -0.08185982 0.031672083 -0.042210657 -0.025040902 -0.033837967 -0.016264146
0.0074162576 0.07448459 0.05656719 0.06443681 0.004835131 -0.0267355 -0.039888695 0.050024237
-0.007316539 0.03398197 -0.077581085 0.043648623 -0.045318168 -0.009358935 0.06965853 0.052848253
-0.05016756 0.071548805 -0.07017281 0.03964785 0.013932469 0.079794586 0.008705576 -0.01875211
0.07382968 -0.05116276 0.060016766 -0.032655194 -0.011707351 -0.037525736 0.05678677 -0.054387487
-0.02451823 0.0060640257 0.07695342 -0.011831614 -0.0371775 -0.009946887 0.019570667 -0.038228575
0.08617223 0.035107117 -0.030733656 0.050616387 -0.025138414 0.018974267 -0.01517696 -0.0675016
-0.072296366 -0.07543421 -0.048067957 -0.005357899 0.011292925 0.01435591 0.03899141 0.005444642
0.08435681 -0.020293493 0.018219272 0.017792093 0.04264126 0.0692486 0.032495957 0.04314998
0.07676411 0.041844364 0.07877912 0.04403535 0.041839052 -0.010827727 -0.053854786 0.07688177
0.044647157 0.025901232 0.035120644 -0.023951024 -0.010262101 0.069155574 0.022708429 -0.08396309
0.070104785 0.025734788 -0.042437777 -0.038788553 -0.0645731 0.08102653 -0.040700458 -0.03897288
0.027814569 -0.03464069 0.045525488 -0.030420464 -0.0207406 -0.026832696 0.0049278205 0.04346688
-0.013602938 0.06810089 -0.08563309 -0.066329 0.024400309 -0.0065154755 -0.013096617 0.024853567
-0.07074558 -0.009192833 -0.06171885 0.07718888 0.018881872 0.051615648 -0.055624954 -0.020733634
0.04648683 0.07323129 -0.07236794 -0.023497643 -0.015557046 0.08026539 -0.053691912 0.03201523
0.063415736 -0.065576844 0.08155456 -0.08512477 -0.06359443 -0.025094928 0.0043196366 0.0031135331
0.06449472 0.074533544 -0.02352096 0.020115845 -0.030385537 0.024659736 -0.0018063864 0.04043095
0.0015043897 -0.02693432 0.037050597 0.06252625 -0.040391706 0.023094216 0.00013635567 -0.024920518
0.03694093 0.04939403 0.03890872 -0.073651314 -0.031519875 0.07163449 0.04960022 0.048768993
-0.05255372 0.031070799 -0.010871023 -0.033552207 0.051630855 0.08326474 0.0387787 0.06339032
-0.049542986 0.04260601 -0.080053054 -0.020881426 -0.020772094 -0.07122035 -0.02715297 0.06544044
-0.042550147 0.07477463 0.043083377 -0.034869812 0.0486509 -0.08058126 0.03627804 -0.041228954
-0.06836586 0.085343875 -0.003366238 -0.053309266 0.08563772 0.021633772 -0.01310434 -0.032716226
0.077985205 0.048104845 0.07822261 0.03156655 0.06827584 -0.0008321497 0.019321468 0.021854704
0.081956536 0.064957 0.051858135 -0.08348257 0.063439645 0.04733104 -0.019235525 0.015920216
-0.08504842 -0.04836261 0.06692062 -0.07988762 0.0005298184 0.015401975 -0.0038888163 -0.05057694

BN1.weight f4 [256]
00000000: 1846 7e3f 9b4f 7f3f 6308 7c3f fc3e 793f
00000010: 8e2e 7d3f 0c5d 813f 0258 823f ca8b 7e3f
00000020: 1915 803f 9863 813f 7b88 7c3f e575 7a3f
00000030: 774c 7e3f 7582 803f f5b5 833f 03e3 803f
00000040: 45fe 813f 3674 803f 1d3c 7d3f 6dc0 803f
00000050: 86b7 7d3f 3b99 7c3f f003 873f 6b1c 823f
00000060: 4d87 823f f504 823f b3b1 833f 0bfd 803f
00000070: 15f9 833f 9862 833f 131b 843f c802 803f
00000080: f2ac 833f 8e0a 7d3f 815f 7c3f ec57 813f
00000090: f5a1 843f bdcf 823f 93f7 7f3f 8266 813f
000000a0: 5991 813f 017c 833f e993 813f 8ef5 843f
000000b0: f57a 7f3f 72d0 813f 5f23 803f 9a1a 7d3f
000000c0: 7115 863f d055 7e3f bac9 7a3f fe3b 7e3f
000000d0: 074c 7b3f a0e3 813f 253e 7f3f 0201 803f
000000e0: e876 803f f5d3 813f 3337 803f 519a 853f
000000f0: 930d 7e3f 570f 813f 229a 843f 7045 843f
00000100: bd7a 793f 9d6d 803f a719 7c3f 367d 823f
00000110: 2c0a 803f 85a9 883f 57ef 7f3f a9e8 793f
00000120: 3d28 833f 8a18 843f dfee 803f bed7 7f3f
00000130: bf93 803f b32d 843f d4aa 823f 3579 813f
00000140: e8ea 813f f556 7e3f 74ff 7f3f 7582 7d3f
00000150: 14c5 803f 5f96 803f d302 813f 3274 833f
00000160: c2fe 833f 678e 803f de33 823f 9b69 843f
00000170: 2360 813f a941 803f 374a 823f 0dc1 823f
00000180: 571e 813f 38ab 813f c5d6 803f 618e 833f
00000190: c671 7f3f d1a4 7f3f 9ffc 803f 0706 833f
000001a0: 3068 823f 12c1 833f b95c 7d3f 55f3 833f
000001b0: f6ec 823f bcf0 833f e1bf 803f df46 833f
000001c0: 52f7 7d3f 7e98 823f 5421 843f af53 853f
000001d0: 179b 853f d670 7e3f 70e7 7e3f 2baf 7e3f
000001e0: 7568 7e3f 1f66 7a3f a638 833f a275 7d3f
000001f0: 4f7e 803f 4408 803f ca58 823f 355d 833f
00000200: d8c7 7d3f d623 803f 2c19 7d3f 9f57 7d3f
00000210: e206 803f fa91 813f e938 813f f922 833f
00000220: 4c3b 833f d96f 7b3f c748 813f a2f1 7b3f
00000230: fc0e 843f fd9f 803f b033 803f 5471 803f
00000240: ed11 853f 04cd 803f 1013 813f 1ff0 823f
00000250: 1233 823f b47d 813f d5cf 833f 4a76 7d3f
00000260: e61b 813f f274 7d3f b8fd 823f c5a0 7d3f
00000270: 65fe 7e3f c053 823f 5fe6 7b3f 7acf 803f
00000280: 9488 7c3f 2aed 823f bb95 7c3f e52f 813f
00000290: 8198 813f 3cd3 7e3f 4174 893f 0741 7c3f
000002a0: 53a2 823f 7734 7f3f d959 843f caa1 7c3f
000002b0: 918f 803f 141b 813f a633 813f 318b 803f
000002c0: e963 7c3f 11a1 813f a9f4 7d3f 2063 813f
000002d0: 8695 813f 88d1 813f 42f9 813f 08d1 7c3f
000002e0: 0073 823f 0c56 823f 91af 7f3f e6b5 7c3f
000002f0: b4cb 813f 2b63 803f ac0d 813f 095a 7f3f
00000300: cf41 803f 3381 813f 066a 803f 1e16 833f
00000310: 1357 873f c039 813f 0040 853f cc3d 813f
00000320: 7c45 803f 921a 823f 35eb 823f 0c8e 7b3f
00000330: 5ae5 823f 92b3 7d3f ea21 7c3f 3dd0 7d3f
00000340: de6d 7e3f ac5c 823f cee7 843f 697f 803f
00000350: 6845 813f 48e4 7f3f 22ef 833f aa5b 7f3f
00000360: f3e7 813f 732f 823f 1102 823f 4e09 7e3f
00000370: 739f 833f 9c48 7b3f 84c3 7e3f a190 813f
00000380: 1cde 813f a538 7e3f fb7c 803f 1fa9 7f3f
00000390: bb4d 813f af3b 863f 7136 7f3f 3782 833f
000003a0: 8e65 873f 45cd 7b3f e8cd 7f3f bd9c 823f
000003b0: 023a 863f 075e 843f b52e 803f 0c69 773f
000003c0: 53aa 7a3f a671 7b3f 88b1 803f ff9b 853f
000003d0: 652e 7e3f 405a 7c3f bc8f 7d3f e615 7f3f
000003e0: 5241 833f 2961 813f b30a 7f3f d542 813f
000003f0: 00a1 7f3f 334e 803f 18d6 843f 67e6 863f
0.99325705 0.99730843 0.984503 0.9736173 0.9889916 1.0106521 1.0183108 0.9943205
1.0006438 1.0108519 0.9864575 0.9783614 0.99335426 1.0039812 1.0289904 1.0069278
1.0155722 1.0035465 0.9891985 1.0058724 0.9910816 0.9867131 1.0548077 1.0164922
1.019754 1.0157763 1.0288604 1.0077223 1.0310389 1.0264463 1.0320762 1.0000849
1.0287154 0.9884423 0.9858323 1.0104957 1.0361925 1.0219647 0.99987143 1.0109408
1.0122482 1.0272218 1.0123264 1.0387437 0.9979699 1.0141737 1.0010794 0.98868716
1.0475293 0.9934969 0.9796406 0.9931029 0.98162884 1.0147591 0.997042 1.0000308
1.0036287 1.0142809 1.0016845 1.0437719 0.9923946 1.0082806 1.0359538 1.0333691
0.9745291 1.0033451 0.9847664 1.0194461 1.0003104 1.0676733 0.9997458 0.97620636
1.0246655 1.0319989 1.0072898 0.9993857 1.0045089 1.0326446 1.0208383 1.0115114
1.0149813 0.99351436 0.99999166 0.99027187 1.0060143 1.004589 1.0078987 1.0269835
1.0312121 1.0043458 1.0172079 1.0344728 1.0107464 1.0020038 1.0178899 1.0215164
1.0087384 1.0130377 1.0065542 1.0277826 0.9978298 0.99860865 1.0077094 1.0236214
1.0188046 1.0293295 0.9896961 1.0308634 1.0228565 1.0307841 1.0058557 1.0256003
0.99205506 1.0202787 1.0322671 1.0416163 1.0437955 0.99390924 0.99571896 0.99486035
0.9937814 0.97812074 1.0251663 0.9900762 1.0038546 1.0002522 1.0183346 1.026282
0.9913306 1.0010936 0.98866534 0.98961824 1.00021 1.0122674 1.0095493 1.0245048
1.0252471 0.9821754 1.0100335 0.9841558 1.0317073 1.0048825 1.0015774 1.0034585
1.0396096 1.0062566 1.0083942 1.0229529 1.0171835 1.0116487 1.02978 0.9900862
1.0086639 0.9900657 1.0233679 0.9907344 0.99606925 1.0181808 0.98398393 1.0063317
0.986459 1.0228627 0.9866597 1.0092741 1.0124665 0.9954107 1.0738603 0.98536724
1.0205787 0.9968943 1.0339919 0.9868437 1.0043813 1.0086389 1.0093887 1.0042478
0.9858995 1.0127279 0.99201447 1.0108376 1.0123756 1.0142069 1.0154192 0.98756456
1.0191345 1.018251 0.9987727 0.98715055 1.014029 1.0030264 1.0082297 0.9974676
1.0020083 1.0117553 1.0032356 1.0241125 1.0573448 1.0095749 1.0410156 1.0096984
1.0021205 1.0164359 1.022803 0.9826362 1.0226243 0.9910213 0.9848925 0.9914587
0.99386394 1.0184531 1.0383241 1.0038882 1.0099306 0.99957705 1.0307353 0.99749243
1.014891 1.017073 1.0156881 0.9923295 1.0283035 0.9815767 0.99517083 1.0122262
1.0145907 0.9930518 1.0038141 0.99867433 1.0101846 1.0486964 0.99692446 1.0274113
1.0577867 0.9836009 0.99923563 1.0204083 1.0486453 1.0341195 1.0014254 0.96644664
0.97916144 0.9822029 1.0054178 1.0438231 0.9928954 0.9857521 0.99047446 0.9964279
1.0254309 1.0107776 0.996257 1.009852 0.9985504 1.0023865 1.0377836 1.0539063

BN1.bias f4 [256]
00000000: e2d4 213d fc20 37bd 6ce3 3cbc e313 b03d
00000010: dcb8 4a3d a5aa 6ebd 02d9 31bc 050e 40bd
00000020: c0f9 53bc 7371 92bc be62 fb3c 19e4 8eba
00000030: 8145 e53c e548 9ebd 0e44 88bd 206a a0bc
00000040: fab3 0ebc 84f0 6fbb 6578 90bc 951b 73bc
00000050: a61d a23c 2622 c93c 24f9 debd a205 e1bc
00000060: 042d 3e3c 589e 3abd e27b c6bc dc5b 183c
00000070: a232 2bbd 5be3 8abd df1b aebd 70a9 bcbb
00000080: bbef 84bd 0974 993d 2801 17bd d059 f83c
00000090: 4f75 babc fb6f 05bd 7206 a9bc 5335 7fbc
000000a0: 8a01 9ebc cf21 bcbd 569a 75bd 2609 bcbd
000000b0: e1e9 253c 2963 d3bb e72e c6bd f054 6ebc
000000c0: 9eda 5dbd cc65 11bd 55d3 4c3d b557 8d3c
000000d0: cbee 4a3d f3c0 85bd bd31 163d d1eb ebbc
000000e0: f138 0dbd fdf9 a3bc d7f5 5d3c 0812 a1bd
000000f0: cfa4 963c 38ec 2ebd d99f f8bc 8a3b 77bd
00000100: 2812 f63b 4a9a 943b 7c5e 9e3c ac84 2ebd
00000110: b143 e13a 96ba b8bc d447 563d 020f 413d
00000120: 1bf6 c9bc f5f1 5e3b 9dde 283a 9310 2b3c
00000130: 13da 14bd b8f8 d4bd ea18 96bd 349d efbc
00000140: ba35 c8bc 4954 293d 64d0 11bd a454 63bd
00000150: cc25 9cbb a72a 763d 2b29 db3a 06c2 3fbc
00000160: 48e6 4bbd 3af3 c7bc e8cd 3abc 850a b7bd
00000170: 3fc3 0fbd e14f 79bd 3328 f0bc e3db 1dbe
00000180: fc36 1f3d b1de 50bc 2ae0 2e3d 83b9 39be
00000190: 72f9 8dbd 7602 da3c 7f5a a2bd 7dbe 49bd
000001a0: 30f0 efbc cac1 47bd 5b6a 7fbc f0f9 73bb
000001b0: 2294 d0bc 4cba 9fbd edc2 42bd fc93 a0bd
000001c0: 7d54 26bd d98c c53b e30b 0dbd b98f bcbd
000001d0: 8545 adbc 236d 99bb a78c 89bd 1758 de3d
000001e0: 945f 423d 4b48 73bc 95c3 d0bd d02d 2e3c
000001f0: 3d58 5ebb 95cf 173d 8ec9 36bd f669 c5bd
00000200: d669 d039 f617 8abc a8e1 d63a a94a 4a3d
00000210: caca f63c 32fe 63bd 1101 1e3a 89ce 92bd
00000220: 5533 7abd 9863 a1bc 5005 88bd 229f 0e3d
00000230: 8560 b9bd 75bd 933c dad6 37bd a583 b5bd
00000240: 42a2 34bc f408 2bbd c414 e8ba 3df9 83bd
00000250: fac4 57bd 2adc 86bc 0e54 8ebd 4e8b aabc
00000260: bb0b 8dbb 2506 173d 77ed 9ebd bfed ceba
00000270: 1eb0 1bbc c3b9 09bd 010e eebc 739e 39bd
00000280: 1820 8abc 3522 74bd 0b87 293d ca67 993c
00000290: c176 53bd 4f82 a2bd a1f7 cbbd eb9d e2bc
000002a0: e004 af3c 1bcb 35bd b5fd 113d d8ac 4fbc
000002b0: 30de eabc fca7 1abd 7c6d 8cbc 5153 1a3d
000002c0: 162c d33c 4134 e0bd 65b5 503c 7435 a93c
000002d0: f467 6f3a 8d44 e7bc 68f7 bfbd 68d6 973d
000002e0: e5d9 36bc 0549 0cbd 271e b33b 8c78 cb3b
000002f0: 6573 31bd 9339 493c b5f2 b93c b6ff a0bc
00000300: 9193 26bd 3827 af3c e18c 20bb af3e 19bd
00000310: 141d b2bd e307 29be 311a 07be f3d5 05bd
00000320: 72b3 543c 359f e6bd 9d39 4fbd df7e b63c
00000330: f089 91bd 0816 6fbc d084 9e3c 3667 89bc
00000340: c119 aebb e454 773c 7ef6 bbbd fdeb ccbc
00000350: fc78 67bd 5c9c 49bd c747 cabd 95a0 31bc
00000360: 0f9e d1bc a24c 63bd d869 b7bd fd27 f23c
00000370: 9312 46bd ef7f 53bc 8609 123d f732 9abd
00000380: 6ead a6bd 7099 213d ca2f 3ebd 83ae 88bc
00000390: 5598 b1bc 3a67 acbd a525 5fbd 12ad 54bd
000003a0: 2e3f 47bc a8fd 303d 776b a039 96ae 75bd
000003b0: e04f 9cbc 9daf 44bd bbe5 08bd 89f2 293c
000003c0: a550 5c3d 5b57 0d3d c102 9abd 2315 ccbc
000003d0: ddf8 e0bc f731 efbc 5ad5 0cbd 0814 28bd
000003e0: cf33 c9bd b938 a7bd 9bc4 d73c fcf0 8d3b
000003f0: 2c19 68bd d628 59bd 2c78 76bd 1c1f 30bd
0.03950966 -0.04470919 -0.011528831 0.08597543 0.049492702 -0.058268208 -0.010854961 -0.04688837
-0.012937963 -0.017876362 0.030686732 -0.0010901719 0.027987244 -0.07728747 -0.066536054 -0.019581854
-0.008709902 -0.0036611864 -0.017635534 -0.014838119 0.019789528 0.024552416 -0.108873636 -0.027468506
0.011607412 -0.045561165 -0.024228994 0.009299245 -0.041796334 -0.06781646 -0.0850141 -0.005757503
-0.064910375 0.07492835 -0.036866337 0.030316263 -0.022761015 -0.032577496 -0.020632956 -0.015576678
-0.019287843 -0.09186136 -0.05996164 -0.091814324 0.010126562 -0.00645103 -0.09676915 -0.014546618
-0.054163568 -0.03549747 0.05000623 0.017253736 0.049544137 -0.06530943 0.036668528 -0.02879897
-0.03447813 -0.020016665 0.013547382 -0.07864767 0.018389134 -0.042705745 -0.030349659 -0.060359515
0.0075094886 0.0045349943 0.019332163 -0.042606995 0.0017186311 -0.022549909 0.052314594 0.047133453
-0.024653485 0.003401873 0.00064418634 0.010440963 -0.036340784 -0.10399002 -0.07328971 -0.029249765
-0.024439681 0.041340146 -0.035599127 -0.05550064 -0.004765248 0.06009927 0.0016720643 -0.011703974
-0.04978016 -0.024407972 -0.011401631 -0.08937553 -0.03509831 -0.060867194 -0.029316043 -0.15415911
0.038870797 -0.012748406 0.04269425 -0.18137173 -0.069323435 0.026612502 -0.07927417 -0.04925393
-0.029289335 -0.048768796 -0.015589322 -0.0037227832 -0.02546126 -0.07799205 -0.047549177 -0.07840726
-0.040607918 0.0060287532 -0.034435164 -0.092071004 -0.021151314 -0.0046821996 -0.067162804 0.108566456
0.04745443 -0.014848779 -0.10193554 0.01063104 -0.0033927106 0.0370632 -0.04462581 -0.09639351
0.00039751705 -0.016857129 0.0016394155 0.049387608 0.030125994 -0.05566234 0.00060273806 -0.071683
-0.06108411 -0.01970081 -0.06641638 0.03481973 -0.09051613 0.018034676 -0.044882633 -0.08863
-0.011025013 -0.041756585 -0.0017706384 -0.06444023 -0.052678086 -0.016462404 -0.06949626 -0.020818379
-0.004304377 0.036871094 -0.077601366 -0.0015787407 -0.009502439 -0.03362442 -0.029059412 -0.045317125
-0.016861007 -0.059602935 0.041388553 0.018726248 -0.051626924 -0.07935011 -0.09959341 -0.027663192
0.02136463 -0.04438315 0.035642345 -0.0126754865 -0.0286704 -0.03775786 -0.01714205 0.037677113
0.025777858 -0.10947467 0.01273856 0.020655371 0.00091326167 -0.02823093 -0.09373361 0.074139416
-0.011160349 -0.034249324 0.005466241 0.0062094387 -0.04332294 0.012281793 0.02269874 -0.019653182
-0.040668074 0.021381006 -0.0024498033 -0.037413295 -0.086969525 -0.16506915 -0.13193585 -0.03267474
0.012982236 -0.11260835 -0.050592054 0.022277294 -0.071063876 -0.014592655 0.01935044 -0.016772848
-0.0053131287 0.015095923 -0.09177874 -0.025014872 -0.056511864 -0.04922138 -0.09876972 -0.010841508
-0.025588064 -0.055493005 -0.08955735 0.029560084 -0.048357558 -0.01290892 0.035653614 -0.07529252
-0.08138548 0.03945297 -0.046432294 -0.016684776 -0.021679083 -0.084181264 -0.05447926 -0.051922865
-0.012161059 0.043210655 0.00030597646 -0.05998095 -0.019081056 -0.04801904 -0.033422213 0.010372766
0.053787846 0.034507137 -0.075200565 -0.024912423 -0.027462417 -0.02919863 -0.034383155 -0.04103473
-0.09824335 -0.08165116 0.026338866 0.004331706 -0.05666463 -0.05301746 -0.0601732 -0.04299842

BN1.running_mean f4 [256]
00000000: de57 1ac1 d998 9040 d337 c840 c8cc f940
00000010: a5d6 e0c0 a5b6 0241 8763 c141 6102 5841
00000020: da7d 0b41 ca35 39c0 1753 9c40 fc87 9c41
00000030: ca30 0941 014d 8fc0 1585 47c0 4fe3 b83f
00000040: b11d 7541 a423 40c1 ff37 4441 4f89 4c41
00000050: 1997 37c0 17fe 5341 5206 0d40 ffe6 aa40
00000060: 6f8f f7bf 6d88 bb3e 56da ffc0 b23e b640
00000070: 5abd 86c0 17d6 83bf dff2 b340 09ac a5c0
00000080: 2be8 ea40 a30a 4ebf 5d49 c440 ec2a 04c1
00000090: 4221 0cc1 e802 6740 3a74 3240 a92f 64c0
000000a0: 8500 4f41 51ba 8141 90d1 b840 1f80 f23f
000000b0: 1c80 e7c0 eb38 4140 283f 2741 6fa1 953f
000000c0: d75c 04c1 e7fe c2c0 68bd e1c0 0fa7 f1c0
000000d0: f667 a540 48e5 64c1 47d4 7640 b628 4d40
000000e0: 3e53 01c0 1780 be40 1224 12c1 7894 bf40
000000f0: 5022 ed3f 9013 81c1 1525 1a40 08ae 94c0
00000100: 05df e0bf daee c3bf 9585 6041 16ff 8740
00000110: 155a 29c1 1180 7f3f c97e 21c0 3636 eec0
00000120: 8b2a 08c0 f06a 2c41 4b60 55c1 aa51 f240
00000130: 3663 fb40 a8af e0c0 0997 f740 2fbb 80c0
00000140: 861a db3f ec0e 4ebc ac01 cb40 8592 3b41
00000150: 21a4 91c0 524f 403e 4506 29c1 d387 4940
00000160: a423 3abf 13a1 6840 4bb9 8a40 a611 2041
00000170: ecf4 bf3f 5863 05c1 c367 f83d 1993 8940
00000180: e85e 9140 309d 21bf 5812 3ec1 0eb5 cbc0
00000190: 3958 b640 8127 2ac0 acf6 a440 a5f8 9c40
000001a0: f8e8 8141 0d10 8ebf 1715 00c1 fd59 ddc0
000001b0: db33 c4bf 89ee 0541 8ce6 44c1 d78b e9c0
000001c0: b987 0941 201b 68c1 2339 1540 4bd9 0541
000001d0: f0e4 1ec1 7396 4dc1 57be eb3f 3360 1ac1
000001e0: 61e4 11c1 ad16 79c1 3da2 ac40 99a8 b5c0
000001f0: 162b 833e 3c03 dec0 b8ae b3c0 3e38 6abf
00000200: abfa 99c0 5305 2cc1 ef17 143e 8860 2ec1
00000210: 6232 f3be 29a5 f1bf 2bf9 313f 6b8e 2c41
00000220: 805b 28bb 5a2d 93bf 5ada 4f40 6768 7241
00000230: 32d0 adc0 b717 15c1 839e af40 1ffd 2341
00000240: 49fb 293f c84e 993e f9ec 24c1 96c4 953f
00000250: 6e5d 3ec0 2ec3 e33e 35ef 9cbf b3d2 31c0
00000260: f62c fbc0 577f 0c41 9ae7 c8bf b7bc d8c0
00000270: f2f4 5ec0 90b1 84c1 47e4 48c1 6ddd 1741
00000280: 84e1 46c0 bf81 01bf f6f9 2bc1 b49d 1341
00000290: 6a03 46c1 85b6 21c1 730a c6be 8d62 8a41
000002a0: 9ef2 90c1 8a1f 10c0 e030 203e 6b51 4841
000002b0: cb2c 7341 63da f43f a4ff 4dbf 7f36 86c0
000002c0: 4ed1 d4bf 9552 2141 6857 c840 ab8b 7ac1
000002d0: 2af2 07c1 3a0e 65bf 66b0 3e41 c429 6d41
000002e0: 3571 0540 2e19 1bc1 bf44 ec40 2d9a 9f40
000002f0: 367e 183f f91d 6340 39ab e640 051a a7c0
00000300: 6e06 19c1 a3f0 8e40 4753 0740 91df 0ac1
00000310: cb02 933f e484 2dc1 e1cf 8a41 e45b 7ec0
00000320: c5f9 44c1 f575 1dc1 999d c33f b3c7 a9c0
00000330: 07d1 11c1 60dd 5841 71ce 5b41 aff1 3ec1
00000340: 641a 9c40 f2c6 36bf 30cb 36c1 5d94 4b40
00000350: 3397 8440 bae8 e1c0 3da7 92bf 3502 c93f
00000360: f9e5 3d40 3bdc 64c0 cca0 de3e 0028 69c0
00000370: ab74 c4c0 036b 5cc1 873a 76c0 8de3 103f
00000380: 0474 8bc0 bdac 753f 88ae f0bf 84ff 24c1
00000390: e0b6 8540 ff43 08c1 9fdd c940 3939 683f
000003a0: 017d 5340 4dd3 5bc1 37c4 b63f 4e30 1f3e
000003b0: e7be 06c1 7c60 5540 44f5 5bc0 9935 ac41
000003c0: d2d2 1bc0 9ac6 d240 cfdf 3bc0 b71b ca40
000003d0: 11bb 8540 6746 543f f61e fcc0 f81f a4c0
000003e0: bc43 a2c1 1e18 9240 10c7 8e41 8c4b a2c0
000003f0: 6333 0ec1 7f73 cbc0 34ea d540 2912 dec0
-9.646452 4.518658 6.2568145 7.8062477 -7.0262017 8.169591 24.173597 13.500581
8.7182255 -2.893908 4.885143 19.566399 8.574411 -4.47815 -3.1174977 1.4444369
15.319749 -12.008701 12.263671 12.783523 -2.8685973 13.249534 2.2035108 5.340698
-1.9340647 0.36627522 -7.9954023 5.695153 -4.210614 -1.029971 5.6233974 -5.1772504
7.340841 -0.8048498 6.1339555 -8.260479 -8.75812 3.6095524 2.788344 -3.565409
12.937627 16.215975 5.7755814 1.894535 -7.2343884 3.019099 10.452919 1.1689891
-8.272666 -6.093616 -7.054371 -7.551643 5.1689405 -14.305977 3.8567064 3.2056098
-2.0207057 5.953136 -9.133806 5.9868736 1.8526096 -16.134552 2.4085133 -4.646244
-1.756806 -1.5307267 14.032613 4.2498884 -10.584493 0.9980479 -2.5233634 -7.4441175
-2.1275966 10.776108 -13.336009 7.5724688 7.8558607 -7.0214424 7.737187 -4.0228496
1.7117469 -0.0125768 6.343954 11.723271 -4.5512853 0.18780258 -10.564031 3.148915
-0.72710633 3.6348312 4.335119 10.004309 1.4996619 -8.336754 0.12129166 4.2992063
4.542835 -0.63130474 -11.879478 -6.3658514 5.6982694 -2.6586611 5.1551113 4.905352
16.238754 -1.1098648 -8.005149 -6.917235 -1.5328325 8.370736 -12.306286 -7.2983203
8.595635 -14.506622 2.3316123 8.36555 -9.930893 -12.849231 1.8417462 -9.648486
-9.118257 -15.568036 5.3948045 -5.676831 0.2561881 -6.937895 -5.615078 -0.9149207
-4.811849 -10.7513 0.14462255 -10.898567 -0.47499377 -1.8878528 0.69520825 10.78477
-0.0025689304 -1.1498215 3.2477021 15.150489 -5.4316645 -9.31829 5.4880996 10.249297
0.66399056 0.29942918 -10.307855 1.1700618 -2.9744525 0.44484848 -1.22605 -2.778485
-7.8492384 8.781089 -1.5695679 -6.7730365 -3.4837003 -16.5867 -12.555732 9.491559
-3.1075144 -0.505886 -10.748526 9.226002 -12.3758335 -10.10706 -0.38679847 17.29812
-18.118465 -2.251925 0.15643644 12.519877 15.198436 1.9129146 -0.804682 -4.1941524
-1.6626375 10.082662 6.2606697 -15.659099 -8.496622 -0.89474833 11.918066 14.822697
2.0850346 -9.693647 7.383392 4.9875703 0.5956758 3.5487044 7.208401 -5.221926
-9.56407 4.4668746 2.1144578 -8.679582 1.1485227 -10.844944 17.351503 -3.9743586
-12.310979 -9.841298 1.528247 -5.3056273 -9.113532 13.554047 13.737901 -11.934005
4.8782215 -0.71397316 -11.424606 3.1809304 4.143457 -7.059659 -1.1457287 1.5703799
2.9671614 -3.5759418 0.43482053 -3.6430664 -6.1392417 -13.776126 -3.8473222 0.56597215
-4.357912 0.959667 -1.8803263 -10.312382 4.1785736 -8.516601 6.3083034 0.90712315
3.3045046 -13.739087 1.427863 0.1554577 -8.421607 3.334014 -3.4368448 21.52617
-2.4347425 6.5867434 -2.9355352 6.315883 4.1790853 0.82919925 -7.8787794 -5.1289024
-20.283073 4.565444 17.847198 -5.071722 -8.887546 -6.3578486 6.6848392 -6.939717

BN1.running_var f4 [256]
00000000: a6fd 6b42 6ff8 2a42 14f0 0543 fed5 ba42
00000010: f9b0 1f43 9914 4543 eb1d 1543 ee6f c442
00000020: 091f 0743 6768 0443 7f5c 2343 6baf 4243
00000030: ba61 b542 1645 bc42 fe43 7542 b8fb 1a43
00000040: bb20 df42 38a0 b342 918b 7342 d0f4 0c43
00000050: 72fd dd42 3e60 3242 052a cd41 c735 8342
00000060: 544f 3642 d4f4 c542 ee13 6542 67af 8e42
00000070: 69d0 4942 3be4 5243 8705 8142 c013 f242
00000080: eb06 b742 7171 b642 2dc3 dd42 31ff 3742
00000090: f28a 5842 4216 b842 6334 ff42 c96d 4142
000000a0: 3bc8 7843 2e13 7342 2d85 8742 bfe0 9642
000000b0: 9623 8143 3ca1 f142 504f b242 fe35 1842
000000c0: 90a0 ce42 4b16 9942 7e26 f842 da43 ba42
000000d0: b3f6 8142 f68f ea42 f9cf 7a42 e80d cc42
000000e0: b8f7 9042 a456 c742 f679 7e42 3687 cb41
000000f0: 7ef7 5042 577e ac42 7d87 8842 df77 b942
00000100: bb52 2a43 9805 4d42 91b3 9f42 8ed4 a242
00000110: f92a 1243 ba42 a242 a23f e342 074f 7442
00000120: b326 8e42 4a5e 7142 a48b c142 559c 2642
00000130: 9490 9742 c098 2f42 5ac3 b642 9b30 1b42
00000140: 6ba6 0d42 db98 ab42 153a 8342 771b 8743
00000150: 482b 8042 a0ee 1c42 da46 fe42 4baa 3842
00000160: 8783 6b42 81d0 dd42 2960 d142 f216 5842
00000170: 510d 6d42 641a 6942 4454 a542 fea8 8042
00000180: ac4d c342 1675 3242 2e90 a742 49fe e542
00000190: 1c0e ee42 84c8 0d43 36f3 2342 0755 3843
000001a0: f3a4 8942 b216 3642 71e8 5942 fbe5 9642
000001b0: 7375 7a42 c4ea b842 ee10 1143 f126 b142
000001c0: bc9d 6642 b2af 9d42 0b2f 8842 9be3 3742
000001d0: ca66 3542 8995 ac42 3171 a742 8867 6242
000001e0: ab93 d442 5c55 ec42 8a04 b242 c117 1443
000001f0: f14a 9142 5341 1e43 4de3 0f42 da8f 6742
00000200: dbe6 fe42 867e 8d42 7cbd ae42 3d28 d642
00000210: ff7e 5f43 1b0c 8842 e73e 1243 f4ea 9442
00000220: f91c b042 7ccd 6642 d504 9e42 aa74 f242
00000230: 1520 2742 5caf 8842 4b70 5642 b2d1 0a43
00000240: ab82 8a41 96bf d242 c1d3 a142 13d0 1043
00000250: de9f 5642 fa75 8942 c37c 9142 8a83 2943
00000260: a6f4 2a42 f9c5 1c43 ab1a 1142 de7f 7342
00000270: 3981 5a42 9d59 af42 28d3 a942 dab4 fc42
00000280: 0fa6 e741 b12a f642 40b6 c142 a707 1a43
00000290: b9c0 8e42 b7f1 eb42 6e05 2042 1be1 9a42
000002a0: ef4f 0143 3115 8242 b7dc fc41 a6cf d042
000002b0: caa0 9b42 d4f8 b842 0df3 8642 69af 2442
000002c0: f75f 9842 8a16 6242 4ac6 0d43 59b9 1543
000002d0: abec 5842 365e 2442 532e 9b42 d27e 7342
000002e0: 1620 2642 557c a642 70ef c642 e5db 0b42
000002f0: 86a0 2b42 14a2 7742 580b a642 ee84 8c42
00000300: ada4 1d43 c452 8942 0174 aa42 9863 1043
00000310: afe2 2e42 ffbf 8142 b4cc fe42 44a6 4542
00000320: 0118 a342 d0d7 2143 679c 3942 2811 ac42
00000330: 29dd da42 cc9f ed42 ac3e d642 b763 6942
00000340: ff53 9542 e8c0 ad42 c210 6942 3d12 b142
00000350: 8c53 d842 a64d 8342 15b0 3542 4549 ab42
00000360: 8669 b142 d7ba df42 1e90 2b42 9c9c 9042
00000370: 29d2 8742 0d4b c142 befc 6d43 989b 3342
00000380: 7456 0643 b5d6 6e42 87d3 8742 a9c5 df42
00000390: 0b33 2f43 f5ae 9a42 21cf 3043 db6f 4542
000003a0: 0121 7542 a4db 9142 8eaa 9642 50de 8c42
000003b0: f569 b542 f110 1b42 cf18 a442 f3d2 1143
000003c0: 7bed 8042 2335 2943 67ed ce42 6611 3a42
000003d0: 7adc f842 8308 a842 665c ca42 b6fb 2d43
000003e0: f6f3 4343 70c8 1343 1368 0143 fdf4 4e42
000003f0: b980 c142 ca69 c442 8f9b 2942 8588 f942
58.997704 42.74261 133.9378 93.41795 159.6913 197.08046 149.11687 98.21861
135.12123 132.40782 163.36131 194.68523 90.69087 94.13493 61.3164 154.98328
111.56393 89.81293 60.886295 140.9563 110.99501 44.593987 25.645517 65.605034
45.57747 98.97818 57.269463 71.34258 50.453526 210.89153 64.510796 121.038574
91.51351 91.221565 110.8812 45.99921 54.13569 92.04347 127.60232 48.357212
248.78215 60.76873 67.76011 75.43896 258.278 120.81491 89.15491 38.052727
103.3136 76.54354 124.07518 93.13252 64.981834 117.28117 62.7031 102.02716
72.483826 99.66922 63.619102 25.441021 52.24169 86.24676 68.264626 92.73412
170.32317 51.255463 79.850716 81.415146 146.16786 81.130325 113.62428 61.077175
71.075584 60.34208 96.772736 41.652668 75.78238 43.89917 91.381546 38.797466
35.412518 85.798546 65.61344 270.21457 64.08453 39.233032 127.13838 46.1663
58.878445 110.907234 104.68781 54.022408 59.263004 58.275772 82.66458 64.33006
97.6517 44.61434 83.7816 114.99665 119.02756 141.78326 40.98751 184.33214
68.82217 45.522163 54.476994 75.44918 62.614697 92.45853 145.06613 88.57606
57.654037 78.843155 68.09188 45.97227 45.35038 86.29206 83.72108 56.601105
106.288414 118.16672 89.008865 148.09279 72.64637 158.25517 35.971973 57.89048
127.45089 70.747116 87.37009 107.07859 223.49608 68.02364 146.24571 74.45889
88.05659 57.70067 79.00944 121.22786 41.78133 68.3425 53.60966 138.81912
17.313803 105.37419 80.91358 144.81279 53.65612 68.73042 72.743675 169.51382
42.738914 156.77333 36.276043 60.87487 54.626194 87.675026 84.912415 126.353226
28.956083 123.08338 96.85596 154.02989 71.37641 117.9721 40.005302 77.43966
129.31224 65.04139 31.60777 104.40556 77.81404 92.48599 67.47471 41.1713
76.18743 56.52201 141.77457 149.72401 54.23112 41.092003 77.59048 60.873848
41.531334 83.242836 99.46765 34.96474 42.90676 61.90828 83.022156 70.25963
157.64326 68.66165 85.22657 144.38904 43.72137 64.87499 127.39981 49.41237
81.54688 161.84302 46.402737 86.03351 109.43195 118.8121 107.122406 58.347378
74.664055 86.87677 58.266365 88.53562 108.16318 65.65166 45.421955 85.643105
88.7061 111.86492 42.89074 72.30588 67.91047 96.64658 237.98727 44.901947
134.3377 59.709675 67.91314 111.886055 175.19939 77.34171 176.8091 49.359234
61.28223 72.928986 75.333115 70.434204 90.70695 38.766544 82.048454 145.82402
64.46383 169.20757 103.46368 46.51699 124.43062 84.016624 101.180466 173.98325
195.95297 147.78296 129.40654 51.739246 96.75141 98.20662 42.401913 124.76664

L2.weight f4 [128, 256]
00000000: 1639 a33c 4879 e9bc e059 423c a040 993b
00000010: 1afe a6bc 99a6 403d fc8b 3dbb 6bbe cf3c
00000020: 51a2 25bd 1505 22bc f4ef 3cbd e441 71bd
00000030: 45f7 2f3d 8b16 503d 4d90 b53c 31c7 a03c
00000040: 02de 173d cb1f 6e3a f3a0 f53c 3056 113c
00000050: c7dc 7d3c c6a8 1fbc 1b37 9b3b 0681 2d3d
00000060: d39b 723c 98ec 65bb 8f31 603d b355 16bd
00000070: 96c9 1bbd abdb 05bd 1b4b 09bc 3544 973c
00000080: c0cc 253d 8c4e 2d3d 2b04 a7bb e338 7a3d
00000090: c9e1 3c3d 7a7b 1c3c 34c9 9b3c 8b91 8ebc
000000a0: 0f9c 8b3d ffd2 053b 5ccf b03b aff3 823c
000000b0: ca40 26bc d9ef 933c bb7a 67bd 9117 513a
000000c0: cf2b f63c fc52 00bd 95e3 003a 5a62 0bbd
000000d0: 3e7c 6cbd 16dd 463d 7a13 093d 694c 8f3d
000000e0: 53ba 2b3c 1562 42bc 1490 4e3d 42da e53c
000000f0: 25df 283c aa2a 2ebd f06e 7d3d 4271 023d
00000100: 7674 933c 5091 8f3d 2a5f 1b3d 73f7 4a3d
00000110: 25e6 47bd 86ff ad3d 02a8 21bd 6b7f fd3c
00000120: aa61 58bd b327 25bd fc22 943b 9ce5 d7bc
00000130: 74b3 8a3d 087d 853d b3ec 85bc 820e 66bd
00000140: 2a66 423d 9953 e4bc ee72 503d fb07 4fbc
00000150: 2716 843b 047e db3c d2ce bebb 4ea6 303c
00000160: 0111 2bbc a121 4e3d 7c93 6f3c c14e 6abd
00000170: b8e4 c6bc 54e9 69bd f92e 363d 937b a53c
00000180: a88d d93b f9a0 f13b 7f68 19bd 43f9 50bc
00000190: eddb 633d ebcc 4bbd d328 60bd b46e 843d
000001a0: 35a3 b7bb d57a 823d ea0d 1a3c d8fe 923c
000001b0: a3b6 b23c 979b 65bd 3f4b 813d b1dd 6d3d
000001c0: 5f7b 223c fe72 35bd 905e 85bd 4ca8 80bd
000001d0: 90af 6e3d 3c50 57bd 63cc a9bb 6182 953c
000001e0: 66cc 14bd 9b70 3bbd 0779 6c3d 6c19 f93c
000001f0: c289 55bd ba5f cd3c ea95 fa3c 4270 8fbb
00000200: 2e88 23bd bd4f 0f3d b45d bbbb 0911 16bd
00000210: 8996 113c 1bdb 89bc 8bdb e83c 5731 b8bc
00000220: ec5e 8cbc dda9 d5ba 906f 473d 8db5 003d
00000230: a093 603b c05e 2bbd 1c60 d03c 0071 3bbd
00000240: 0103 5fbd b439 7a3c 21e7 a5bc 6f05 323d
00000250: 618b 0d3c 7be7 213b 6bfb ee39 6f59 1abd
00000260: 7f0c f4bc b09b 6c3d c3e7 81bc 3d3a 0dbd
00000270: 81bd 3d3d 8b0e dd3b 9231 09bb 75a5 c03c
00000280: db6c 09bb 50c3 3fbc e95d de3c fdac 3f3c
00000290: 0aae 3c3d 8fa6 64bc 54c6 143d c313 2b3c
000002a0: 30a9 15bd 92c8 dd3c 7f78 f43c bbd5 baba
000002b0: e668 e83c 6453 b23b dd88 4cbd ff60 4abd
000002c0: 372a ae3c f1ee 123d 396d 6fbd 13b7 62bd
000002d0: 9b32 bf3c b916 13bd 0600 abbc 8dbf 7abc
000002e0: f016 823d 2862 bdbb e7d0 553d 05ab 9fbc
000002f0: 985d 7ebd 7094 923d 3708 65bc 25d6 51bc
00000300: 5ea0 26bd 8bdc 453d 7347 97ba 9307 8f3d
00000310: f018 e53c 7451 4cbd 8d56 3cbb e2f4 823d
00000320: 7285 123c e080 57bc 4527 2b3b 5069 53bd
00000330: a4f7 7cb8 d49b c3bc 014b 0bbc e51f 35bd
00000340: 1f1d 03bd 8a1a 37bd d3a3 db3c 074c 663d
00000350: 567c 443c 02fc 483d def6 963c 0689 383d
00000360: 571e 863d 0405 96bc f59c 703d 814b 483c
00000370: cfee 1f3d 7fa2 d6bc 2d18 34bd 82bc 61bc
00000380: cc91 24bc 115c a93c 762c fa3b dff5 193d
00000390: d4a1 963d ed19 2f3d e0fe dbbc cefd 00bd
000003a0: 73e4 c9bb cf96 f7bb 7d3a a63c 2db0 603d
000003b0: c733 e23b 5523 07bd f84b 2ebd 2787 703d
000003c0: 9d5f 573d 0a66 5d3c cb60 76bd ee20 073d
000003d0: dace febb fcae 60bd ab84 913c de08 713c
000003e0: f304 273d 9786 953c 5693 86bc 437d 5d3d
000003f0: ced8 78bd caac 8f3d b251 d1bb 90c7 3f3d
0.019924682 -0.028500214 0.011862248 0.0046768934 -0.020384837 0.04703388 -0.0028922549 0.025359353
-0.040438 -0.009888907 -0.046127275 -0.05890073 0.042960424 0.05080275 0.022163535 0.019626232
0.037076958 0.0009083717 0.029983973 0.008870646 0.015494532 -0.009744829 0.0047367937 0.042359374
0.014807659 -0.0035083648 0.054734763 -0.036702823 -0.038034044 -0.032680195 -0.008379723 0.01846514
0.040478468 0.042311236 -0.0050969324 0.061089408 0.046113763 0.0095509235 0.01901684 -0.017403385
0.06816875 0.0020419953 0.005395813 0.015985338 -0.010147283 0.018058704 -0.05651353 0.0007976229
0.030050186 -0.03132914 0.0004916725 -0.034029342 -0.057735674 0.048550688 0.03346584 0.06996996
0.010481435 -0.011864205 0.050430372 0.028058175 0.010307108 -0.042521156 0.061873376 0.031846292
0.017999869 0.07010138 0.037932552 0.049552392 -0.048803467 0.08496003 -0.039466865 0.030944547
-0.052827515 -0.040321063 0.004520772 -0.026354603 0.06772509 0.065179884 -0.016348219 -0.05616618
0.047460712 -0.027871894 0.050890855 -0.01263618 0.004030961 0.026793487 -0.0058229947 0.010781838
-0.010441066 0.05032504 0.014622565 -0.05720401 -0.024278983 -0.057107285 0.04447839 0.020200526
0.006639201 0.0073739258 -0.03745317 -0.012754741 0.05562966 -0.049755972 -0.054726433 0.064664274
-0.0056041726 0.063710846 0.009402731 0.017943785 0.021815604 -0.056056585 0.0631318 0.05807275
0.009917109 -0.04429912 -0.06512177 -0.062821 0.0582729 -0.05256675 -0.0051818355 0.018250646
-0.036327742 -0.045761686 0.05773261 0.03040763 -0.05213333 0.02507006 0.030589063 -0.004377396
-0.039924793 0.034988154 -0.0057179574 -0.03663734 0.008885988 -0.01682811 0.028424999 -0.022484465
-0.017135106 -0.0016301234 0.04869038 0.03142314 0.003426768 -0.041838408 0.025436454 -0.045762062
-0.054446224 0.015272547 -0.020251812 0.043462213 0.008639188 0.0024704624 0.00045582218 -0.037682947
-0.029791115 0.057765663 -0.015857583 -0.03447937 0.046323303 0.0067461184 -0.0020934087 0.023516396
-0.0020969424 -0.011704281 0.02714439 0.011698958 0.046064414 -0.013955726 0.036321953 0.010441723
-0.036538303 0.027073178 0.029842613 -0.001425437 0.028370332 0.00544207 -0.04993521 -0.04940891
0.021260364 0.035872404 -0.058453772 -0.055350374 0.02333956 -0.035910342 -0.020874035 -0.015304458
0.06352031 -0.0057795234 0.052201178 -0.019490728 -0.062100977 0.071572185 -0.013979009 -0.012807404
-0.04068028 0.04830603 -0.0011541679 0.069838665 0.027965993 -0.049882367 -0.0028738112 0.06394364
0.008942949 -0.013153285 0.0026115936 -0.051614106 -6.0312115e-05 -0.023878016 -0.008501769 -0.04421987
-0.032010194 -0.044703044 0.026811516 0.05622485 0.011992535 0.04906846 0.018428262 0.04505255
0.065487556 -0.018312939 0.058743436 0.012225033 0.039046105 -0.026200531 -0.04396837 -0.013777854
-0.010044526 0.020673783 0.0076346947 0.037587997 0.07355085 0.042749334 -0.026854932 -0.031492047
-0.0061612665 -0.0075558196 0.020291561 0.054855514 0.006903145 -0.03299268 -0.04255292 0.05872264
0.05258142 0.013513098 -0.060150903 0.03299039 -0.0077761235 -0.054854378 0.017763456 0.014711587
0.040776204 0.018252654 -0.016427677 0.054074537 -0.060753636 0.07015379 -0.0063879127 0.046821177

L2.bias f4 [128]
00000000: 9369 66bb 5b46 2abd bb78 dfbb 475f 10bd
00000010: 9941 c73c f136 12bd e467 17bd 3384 45bd
00000020: 0db1 bcbc 7d30 63bc e7ad 343c 3bf0 933c
00000030: fd4a c4bc 5691 49bd 2f22 703d f938 1d3d
00000040: 303b c0bc cadb 733b d50b 4abd 7df9 4bbd
00000050: e21d 633d 62a6 c73c 858a 6d3c df97 40bd
00000060: 9d3e 57bd a942 2abd 5c73 16bd 7637 9f3c
00000070: 4896 c13b 9a08 f83c 4dbf b03c 6056 18bc
00000080: 8ede ac3a 5735 043d 38a1 9bbb 1972 be3b
00000090: e891 b73b 20d4 2bbc 575c a4bc 00a9 a33c
000000a0: c5ca 5b3d b82c 4dbd a2fc 8cbb 0875 e2bc
000000b0: a6ee 02bc 2571 b93c 6fca 63bd ad5b ef3c
000000c0: 1189 b93c bdd1 fbbc 90fb 14bd e42e b4bc
000000d0: 4c03 35bb 7b8e 10bd 54fb 643d 38bf 80bb
000000e0: c5f1 cdbc ae05 43bd a05d c83c 07a4 09bd
000000f0: 8d1a ab3c 199a 21bc 8422 e0bc 600e af3c
00000100: 5f97 7abd d113 1f3d 4c5c 36bb c2b9 de3b
00000110: b107 123d 0165 a4bc 99a0 ca3c 7fd5 b839
00000120: 779c 93bc 7468 3c3d f7c3 c93b dabd 293d
00000130: 1b3e 91bc 1a90 f63c e4dd ea3c 248b 133d
00000140: 48c5 053d 23e6 0f3d ae1e 763a e1e2 b23b
00000150: f207 4cbd 25f3 343d 0228 933c 284c 87bc
00000160: 4f23 51bd ab1b d9bc 917f 92bb da95 f33c
00000170: 7b92 3ebb e442 bd3c c332 423c c143 763d
00000180: 7c00 6c3d b747 293d 97d6 7abd bb8f c1bc
00000190: 9f7b d73c 60e0 263d f69f 273d 260b bdbc
000001a0: 6efe ff3b 4571 2d3c 60a0 dd3c 9363 40bd
000001b0: ffae 6bbd 96fe 693d d21c 303c 8453 fd3c
000001c0: b3da 44bd 976e 0fbc cf96 c73c be2f 55bd
000001d0: 0189 28bd 8a12 babb 1ca8 9ebc 94fd 653d
000001e0: 3a35 55bd 1e02 44bd 2296 adbc ec17 90bc
000001f0: ab08 72bd 2ef2 1ebb aaa6 9e39 b6b1 263d
-0.0035158142 -0.041571002 -0.006819812 -0.035247114 0.024323272 -0.035696927 -0.036964312 -0.048221778
-0.023033643 -0.013866541 0.01102779 0.018058887 -0.023961538 -0.04921087 0.05862635 0.03838441
-0.023465723 0.0037209862 -0.04932769 -0.049798477 0.05544842 0.02437133 0.014498358 -0.047019836
-0.052549947 -0.04156748 -0.03673111 0.019435626 0.0059078075 0.030277539 0.021575594 -0.009297937
0.0013188885 0.03227743 -0.0047494434 0.0058119413 0.00560211 -0.010487586 -0.020063562 0.019978046
0.053660173 -0.050091475 -0.004302577 -0.027643695 -0.0079914685 0.02263696 -0.055612978 0.02921852
0.022648366 -0.03073966 -0.03637272 -0.021995015 -0.0027620373 -0.03529213 0.055903748 -0.003929045
-0.025139699 -0.04761284 0.024458706 -0.033603694 0.020886684 -0.0098634 -0.027360208 0.02136916
-0.061179515 0.038837258 -0.002782601 0.0067970464 0.035651866 -0.020067694 0.024734782 0.00035254282
-0.018018944 0.04599805 0.006157394 0.041440822 -0.01772981 0.03009801 0.028670259 0.036021367
0.032658845 0.035131585 0.0009388727 0.005459175 -0.049812265 0.044177193 0.017963413 -0.016515806
-0.051059064 -0.02650245 -0.0044707735 0.02973454 -0.0029079008 0.023103185 0.011852923 0.06012321
0.05761765 0.04132816 -0.061239805 -0.023628106 0.026304064 0.040741324 0.040924035 -0.023076605
0.007812313 0.010586088 0.027054012 -0.04696996 -0.057539936 0.057127558 0.010749059 0.030923612
-0.04806013 -0.008754394 0.024363903 -0.052047484 -0.041146282 -0.0056784796 -0.01936727 0.056150034
-0.052052714 -0.04785358 -0.021189753 -0.017589532 -0.059090298 -0.0024253237 0.00030260283 0.040696822

BN2.weight f4 [128]
00000000: cb3e 823f a782 7e3f 364d 7f3f aed1 813f
00000010: b934 823f eb1c 833f 0f0e 7e3f 0993 863f
00000020: f336 813f 3df0 813f 253b 773f fb2c 803f
00000030: adc3 813f dea1 7b3f f641 813f 8fd9 7a3f
00000040: 9e0c 823f 8e25 843f 722e 843f 4b25 7e3f
00000050: 512b 803f 3acf 803f e837 7e3f 1af7 833f
00000060: 1f19 7c3f 99e2 823f 26c3 803f cfb8 813f
00000070: 276f 7f3f 5abe 843f 2f91 823f 13a6 883f
00000080: aa93 783f 369b 853f 2be4 7d3f 646a 823f
00000090: e99f 803f e623 823f 6dbf 7f3f f5b9 7e3f
000000a0: fa3e 813f 2f8a 773f b984 833f 3722 823f
000000b0: ec34 7f3f fe8e 803f 952d 853f 27b4 813f
000000c0: 0d88 863f b9cc 803f d07f 7e3f b7d7 823f
000000d0: 1c20 823f a1de 803f 14dc 7b3f ff5f 7e3f
000000e0: aed2 7f3f 3030 833f 6844 8b3f 5661 803f
000000f0: 39a2 813f 2ae1 893f 1c2a 7d3f 7426 7e3f
00000100: 9cba 803f f1c3 863f dfbc 793f 9179 803f
00000110: 23c8 773f 6e96 813f dc65 7b3f 2012 863f
00000120: 857f 823f b129 7b3f 0d4b 853f 24ad 833f
00000130: 36b0 7f3f df72 853f 5b90 863f e604 813f
00000140: 4ebb 7e3f a99f 803f 7388 863f ea72 833f
00000150: e19d 7b3f 6cb8 873f 31ab 843f 98d0 7d3f
00000160: 58b5 803f b96d 823f dd07 843f 944c 863f
00000170: 1b80 823f fc14 843f b475 823f 3496 7f3f
00000180: 5454 843f 6dc2 7c3f 17f6 863f 82f6 7a3f
00000190: ab87 833f 12af 803f 28cf 823f fa6b 7a3f
000001a0: 9545 803f b4c3 813f e03b 803f ba87 803f
000001b0: 13f8 7b3f 24c2 803f acd2 813f 35dd 763f
000001c0: 59e5 823f b728 813f 7408 803f ff06 833f
000001d0: f719 7e3f 943b 823f a9af 823f 8604 803f
000001e0: 9cee 813f 570a 7c3f 2a30 7e3f 7476 7b3f
000001f0: f204 7d3f fe3e 7f3f 1cca 823f d0b8 803f
1.0175413 0.9941811 0.9972719 1.0142114 1.017234 1.02432 0.992402 1.0513622
1.0094894 1.015144 0.9657462 1.0013727 1.013784 0.98293865 1.0098255 0.9798822
1.01601 1.0323961 1.0326674 0.99275655 1.0013219 1.006324 0.99304056 1.0309784
0.9847583 1.0225402 1.0059555 1.0134524 0.9977898 1.0370591 1.0200557 1.0675682
0.9710032 1.0437992 0.9917628 1.0188718 1.0048801 1.0167205 0.9990147 0.995025
1.0097344 0.96695226 1.0274879 1.0166692 0.9969013 1.0043638 1.0404536 1.0133103
1.0510269 1.0062476 0.99413776 1.0222081 1.0166049 1.0067941 0.9838269 0.9936523
0.99930847 1.0249081 1.0880251 1.0029705 1.0127631 1.077184 0.9889238 0.99277425
1.0056949 1.0528547 0.9755382 1.0037099 0.9678976 1.0124032 0.982023 1.0474281
1.0195166 0.9811049 1.0413529 1.0287213 0.9987825 1.0425681 1.0512804 1.007962
0.99504554 1.0048724 1.0510391 1.0269444 0.9828778 1.0603156 1.0364743 0.99146414
1.0055342 1.0189735 1.03149 1.049212 1.0195345 1.0318904 1.019217 0.99838567
1.0338235 0.9873417 1.0543851 0.9803239 1.0275778 1.0053427 1.0219469 0.9782101
1.0021235 1.0137849 1.0018272 1.004142 0.98425406 1.0059247 1.0142417 0.96431285
1.0226241 1.009055 1.000258 1.023651 0.9925837 1.0174432 1.0209857 1.000138
1.0150943 0.9845328 0.9929224 0.9822762 0.9883567 0.99705493 1.0217929 1.00564
