Trained_Models/BotDetection_v4_MLP___May-10-2024/BotDetection_v4_MLP_epoch78_val_loss_0.486897.pth (torch, 961441 bytes, 45 tensors)

L1.weight f4 [256, 133]
000000 4f 36 05 3c 20 bb 6e 3d d5 35 b0 3d 25 b8 3d be
       0.008130624 0.058283925 0.08604018 -0.18527277
000010 12 91 c7 3c 5f 03 38 3d b0 f2 48 3e c5 21 1b bd
       0.024361167 0.04492509 0.19623828 -0.037874002
000020 a2 39 33 3c 8a 59 3c 3d a3 89 9e bd d9 3c d1 3c
       0.010939034 0.04598383 -0.07741096 0.02554171
000030 b3 16 55 bd c4 43 5d bd 88 c8 08 be 5b 01 bc 3d
       -0.0520236 -0.054019704 -0.13357747 0.09179946
000040 b8 80 6c bc 23 01 33 bd 18 2f e3 ba e9 cf 53 bd
       -0.014434986 -0.043702256 -0.0017332761 -0.05171195
000050 54 2e f2 bc 21 81 34 bc d5 b8 49 bd 7b 3a 13 bd
       -0.029563107 -0.011017115 -0.049248535 -0.035944443
000060 76 10 8c 3d 8a 4d de bd eb 14 fb 3c c7 e1 dd bd
       0.06839077 -0.10854633 0.030649623 -0.10834079
000070 d9 d0 cb 3c 65 15 de 3d c9 23 a7 b8 e0 f0 1f bd
       0.02487986 0.108439244 -7.969846e-05 -0.039048076
000080 ce 03 b7 bd 3b 7b ab bc 13 94 6d bd df 10 a5 3d
       -0.089362726 -0.020932784 -0.058002543 0.080598585
000090 30 ba d6 3d e9 ff 94 3d 4f 63 a1 bd 08 58 6d bd
       0.10484731 0.072753735 -0.0788027 -0.05794528
0000a0 a9 d7 55 3e 75 24 50 bc 6b c4 16 bd 28 d0 fe 39
       0.20883049 -0.0127040045 -0.036808413 0.00048601744
0000b0 10 ef 99 bc 7e cd b9 3d f9 d4 d0 3b d0 a9 8e 3d
       -0.018790752 0.09072398 0.0063730446 0.06965983
0000c0 8a b1 0e bd 1e 68 a2 3d 8e 8d 3f 3d cc 37 24 3c
       -0.034837283 0.07930015 0.046765856 0.010023069
0000d0 75 1f 83 3d 2c 16 d5 3d c8 7b dc bc 78 59 97 3b
       0.06402484 0.104046196 -0.026914492 0.00461882
0000e0 03 e9 35 bd 7b 5e 5b 3d 17 08 46 be be 21 09 bd
       -0.04441167 0.0535569 -0.19339024 -0.033479445
0000f0 0d 5a 37 be cb 1f 69 3c ab 66 2a be 09 4b 56 bd
       -0.17905445 0.014228771 -0.16640727 -0.052317653
000100 a7 ca 10 3e 82 9b ff bd 4b e3 a3 bd 7b cd 0a 3e
       0.14139806 -0.12480833 -0.08002337 0.13554947
000110 94 d5 b6 bc 16 5b 57 bd 07 3c 62 3d 2d 36 df 3d
       -0.022318639 -0.0525771 0.055233028 0.10899005
000120 3c cc ce 3d 48 92 87 3d 7d ef 4b bd 3f 28 db bc
       0.10097548 0.06619698 -0.04978894 -0.02675259
000130 ea 94 a0 bd 51 6e 06 3c 97 5f 85 bc 53 d4 b4 3c
       -0.07840903 0.008205012 -0.016280932 0.0220739
000140 c8 fd d3 bb 64 72 18 bd bd 49 9c bd 13 fd 02 bd
       -0.006469462 -0.037218466 -0.07631252 -0.03197963
000150 8c 3c 77 3d 10 86 51 bd 76 aa 3d be 1c 4c d8 bd
       0.060360476 -0.051153243 -0.18522057 -0.10561392
000160 12 40 ff 3c da 84 d3 bc 36 88 43 3c c0 a2 25 3e
       0.03115848 -0.025820184 0.011934331 0.16175365
000170 c9 59 c5 bd 4e de 07 ba 55 52 0b bd 74 2d 3c 3d
       -0.09636266 -0.0005182967 -0.034014065 0.045941785
000180 fd da 19 3d 4b 82 b3 bd 0c 82 33 bd 3c 5c ac 3c
       0.03756236 -0.08765086 -0.043825194 0.021040075
000190 09 53 04 3d d5 fc ed bd 1d 66 04 3e f7 27 2c be
       0.03230575 -0.116204895 0.12929578 -0.1681212
0001a0 7f 77 79 bd 91 12 9a 3d 6c 6d 89 3d bc cf 39 bd
       -0.060904976 0.075230725 0.06710324 -0.045364127
0001b0 71 01 2f bd b7 0c 81 bd fc e5 3c 3d 58 52 d4 bd
       -0.042725984 -0.06301253 0.046117768 -0.10367268
0001c0 21 84 41 bd 35 22 a4 bc 3b e8 9f 3c 2c 58 c5 bc
       -0.04724515 -0.020035842 0.019519916 -0.024089895
0001d0 a5 fc a8 3c c8 11 d5 3d 20 a8 98 3d 70 7e aa 3d
       0.020628283 0.10403782 0.07453942 0.08324897
0001e0 68 49 c5 bd 8e 66 51 3d 37 a1 20 3c 8b 1a 53 3e
       -0.09633142 0.051123194 0.009804062 0.20615594
0001f0 cb e8 01 be e6 ab 22 bc 3f f0 38 3d f3 d0 9f 3d
       -0.1268646 -0.009928679 0.04515099 0.07803526
000200 ad 9c 98 bd 19 38 16 3c df 5a 8f 3d ba e5 46 3d
       -0.074517585 0.009168648 0.06999754 0.048558928
000210 7a 21 68 bd e9 a7 c8 3b e3 d6 25 3d e9 9e 77 bc
       -0.05667255 0.006123532 0.040488135 -0.015113571
000220 c5 2e c7 3d e7 d3 15 bd 27 32 92 3d cb a4 93 bd
       0.097257175 -0.03657904 0.07138472 -0.07209166
000230 3e 76 0d bd f4 22 5c 3d 6a 70 2e bd 63 42 21 3c
       -0.034536593 0.05374427 -0.042587675 0.009842488
000240 23 cd df bb 36 2b 6f bd 63 91 82 3d ba f9 94 3d
       -0.006829874 -0.05839082 0.063753866 0.07274194
000250 17 5a 4c 3c 86 5a 8c bd 81 24 f2 bb 4e 6a 91 bc
       0.012472651 -0.068532035 -0.0073896055 -0.017750885
000260 7d 9a 52 3d 25 b4 d7 bc d8 e2 0d 3b b8 7d 85 bd
       0.051416863 -0.026331017 0.0021650102 -0.065181196
000270 67 2a e2 bd 19 04 d2 bd ce b6 08 bd 39 33 9c bd
       -0.11043244 -0.10254688 -0.03337746 -0.076269574
000280 5e fe 1e bc 8d 8c 9f bd ac 72 4c 3d 4a 81 3c bc
       -0.009704201 -0.0779048 0.049914047 -0.011505434
000290 73 92 ee bc 42 ad 8e 3d ad 98 86 3d f5 ad 75 bd
       -0.029122567 0.0696664 0.06572089 -0.05998035
0002a0 34 a1 b1 bc 12 56 fc 3d 85 a9 8c 3d 7d 77 21 3e
       -0.021683313 0.12321104 0.06868271 0.15768237
0002b0 40 61 aa 3d 12 75 7b 3d 5a cb 17 bd ba 0c 9d 3c
       0.0831933 0.061390944 -0.037059166 0.019171108
0002c0 0e 9f fa 3c 15 a0 1a 3e 6f 24 18 bd 0f f9 c9 3c
       0.030593421 0.15100129 -0.03714412 0.024654893
0002d0 96 1a 61 3d 8a d9 79 3d 00 1d eb 3c fb c2 ab bd
       0.054956995 0.060998477 0.028700352 -0.08386799
0002e0 38 63 93 bd bd 07 89 3d 97 6e 15 3e 30 a9 81 bd
       -0.07196659 0.06690929 0.14592968 -0.06331098
0002f0 f6 52 71 bd b3 63 53 39 e5 02 8e 3d 53 b2 b2 3d
       -0.05891701 0.00020159669 0.06934146 0.08725419
000300 9c 18 a6 bd d9 01 aa 3d d8 3b 7e 3d 4e 9c a1 3c
       -0.081101626 0.08301134 0.06206879 0.019727852
000310 51 b3 dd bd ff 63 ba 3b a3 a2 11 3d 78 be 63 bd
       -0.108252175 0.00568819 0.035555493 -0.055601567
000320 0c 91 8b bc d3 e7 85 bc 07 f0 d4 bc 8d cd 9c bc
       -0.017036937 -0.016345894 -0.02599336 -0.019140983
000330 0f 5d f3 3d 01 42 d0 3c a7 12 17 bd cd b3 57 bc
       0.11882984 0.025422098 -0.036883023 -0.013165426
000340 b9 49 e3 3b 1d f4 a9 3d e4 33 41 bd 92 c8 20 bc
       0.0069362787 0.08298514 -0.047168627 -0.009813445
000350 c8 c2 d6 bc d9 ac 25 bd 52 7d 05 bc e8 ee cf bd
       -0.026215926 -0.040448043 -0.0081475545 -0.101529896
000360 7a 51 cb bd 2e 05 af 3d 7d 5a 13 bd d1 6b 6b 3d
       -0.0992765 0.0854591 -0.03597497 0.05747587
000370 3b e0 59 bd ee ff 7c 3c f7 03 35 be 6b 94 f4 3d
       -0.05319236 0.015441878 -0.17677294 0.11942371
000380 7d e9 32 be 9a 09 57 bd bc 34 f3 bd 60 b0 41 3d
       -0.17471881 -0.05249939 -0.11875293 0.047287345
000390 05 26 98 bb f1 01 dc bc d4 a4 72 bd 68 87 79 bd
       -0.004643204 -0.026856394 -0.059239224 -0.06092015
0003a0 9c bd 3d 3d 48 da 1c 3e ba 86 85 3c c9 50 60 3d
       0.046323404 0.15317643 0.016299594 0.054764543
0003b0 94 2d 8c bc 0a 9e 17 3d 22 1b c1 3d a5 c6 4d 3d
       -0.017111577 0.037015952 0.09429003 0.05023827
0003c0 d1 33 e8 bd 86 a5 fb 3b be bb a3 3b cc 0f 03 bd
       -0.11338008 0.007679644 0.004996746 -0.031997487
0003d0 6d 8a 68 bd 9b d1 3e 3d e9 89 87 bd b6 d3 c5 3c
       -0.056772638 0.046586614 -0.06618101 0.024148803
0003e0 26 b9 10 3c 40 56 4b 3d 72 60 a7 3d 8f 9c ba 3d
       0.008833205 0.0496428 0.08172692 0.091118924
0003f0 9b 92 47 bd be cd 1f be fa 7c a3 bd a3 54 a2 bd
       -0.0487238 -0.15605828 -0.07982822 -0.079262994

L1.bias f4 [256]
000000 55 e3 a6 bd 8a 4b 97 bc 85 0f 7b 3d 2f 7e 8a bc
       -0.08148829 -0.018468637 0.061294097 -0.016905872
000010 c4 33 b2 bc a3 e0 79 bd 61 cf 05 3d a3 ca 2a 3d
       -0.0217532 -0.061005246 0.032668475 0.041697156
000020 75 cb 56 bd 49 ae 9d bd e9 77 bd bc e2 fd 77 3d
       -0.052440125 -0.07699258 -0.023128467 0.060544856
000030 fb d7 83 bd 60 a8 12 bd 4a 40 ae bd 2a 0f 21 bc
       -0.064376794 -0.035805106 -0.08508356 -0.009830276
000040 fd 5f 97 3c 33 54 10 3d ba 49 29 bd c7 9f a9 3d
       0.018478388 0.03523655 -0.041330077 0.08282428
000050 b5 53 ef 3b 3b 74 7d bd cd a5 8e 3c a3 ad 02 3d
       0.00730368 -0.061878424 0.017413044 0.031903874
000060 c5 c3 64 3d 78 bd 7b 3d 13 3e b5 bc 4a 9c 8e bc
       0.055850763 0.06145999 -0.022124326 -0.017408509
000070 68 89 33 bd 0a e9 10 3d 79 7f 87 bd 40 f5 bd bc
       -0.043832213 0.035378493 -0.0661611 -0.023188233
000080 f3 4a 65 bc f8 59 91 bd af 54 09 3d 91 a3 a1 3c
       -0.01399492 -0.07097238 0.033528026 0.019731315
000090 83 fc 96 3d 29 a1 5b bd eb d0 9f 3d 8e ae 15 3d
       0.073723815 -0.05362049 0.0780352 0.03654342
0000a0 74 17 da bc 31 4c 87 bd 9a a8 a7 bd f3 fa 01 3d
       -0.026622511 -0.06606329 -0.08186455 0.031733464
0000b0 1a e7 2c bd 48 32 cd bc 2b 8c 0a bd 46 59 85 bc
       -0.042212583 -0.02504839 -0.03382508 -0.01627792
0000c0 56 b2 f2 3b 54 83 98 3d 17 ad 67 3d 30 f9 83 3d
       0.007406513 0.07446924 0.056561556 0.06444013
0000d0 82 4c 9c 3b 74 50 db bc dd 29 23 bd f1 ee 4c 3d
       0.0047698626 -0.026771761 -0.039834846 0.05003256
0000e0 6c dc ef bb 37 25 0b 3d 81 e6 9e bd ac 9b 31 3d
       -0.0073199775 0.033971038 -0.07758809 0.04336135
0000f0 1c a9 39 bd da 98 19 bc 19 ae 8e 3d 1d 58 58 3d
       -0.04532729 -0.009374822 0.069668 0.052818406
000100 21 7c 4d bd 9e 89 92 3d 93 b7 8f bd 57 4d 22 3d
       -0.050167207 0.07155155 -0.07017436 0.03962454
000110 c6 f2 62 3c 4b 69 a3 3d 9d 38 0e 3c b5 9b 99 bc
       0.013851827 0.079790674 0.00868049 -0.018751005
000120 37 23 97 3d 52 bd 51 bd 39 c9 75 3d 59 b3 05 bd
       0.073797636 -0.05120594 0.060006354 -0.032641742
000130 5b b8 3f bc 95 1e 19 bd a9 8c 68 3d e1 d0 5e bd
       -0.011701669 -0.03738268 0.05677477 -0.05439842
000140 dd d6 c8 bc 93 74 c5 3b 5c a0 9d 3d bb fd 41 bc
       -0.024516517 0.0060258596 0.07696602 -0.011840279
000150 e8 f8 17 bd 76 01 23 bc 39 56 a0 3c 5d 93 1c bd
       -0.03710261 -0.009949079 0.019572364 -0.038226474
000160 45 91 b0 3d 05 cb 0f 3d 1f 04 fc bc 81 d4 4f 3d
       0.08621458 0.035105724 -0.030763684 0.05073977
000170 68 3c ce bc 8e 9b 9b 3c 79 af 78 bc 01 53 8a bd
       -0.025175288 0.018995073 -0.015178555 -0.06754113
000180 d8 15 94 bd 99 93 9a bd 9f 6b 45 bd 92 e5 ae bb
       -0.07230729 -0.07547683 -0.04819834 -0.0053374255
000190 49 eb 38 3c 54 67 6b 3c 5e 07 20 3d 72 d9 b3 3b
       0.011286565 0.014367897 0.039069526 0.005488568
0001a0 d4 c9 ac 3d 99 a8 a6 bc 51 40 95 3c 5d 00 92 3c
       0.08436933 -0.020344066 0.018219145 0.017822439
0001b0 c7 a5 2e 3d 26 b0 8d 3d dc 12 05 3d 00 d2 30 3d
       0.042638566 0.06918363 0.03248869 0.04316902
0001c0 8c 44 9d 3d 3d 74 2b 3d 17 42 a1 3d 13 4f 34 3d
       0.0767909 0.0418589 0.07873934 0.044020724
0001d0 2d 58 2b 3d 94 78 31 bc 66 b1 5c bd 06 76 9d 3d
       0.041832138 -0.010831971 -0.053880118 0.07688527
0001e0 46 ea 36 3d 9f 31 d4 3c 02 46 10 3d ba 22 c4 bc
       0.044657014 0.025902567 0.035223015 -0.02394234
0001f0 df de 27 bc 54 a7 8d 3d 8a 88 ba 3c 25 bb ab bd
       -0.010246008 0.06916681 0.022770185 -0.08385304
000200 a4 98 8f 3d 2d ec d2 3c 44 ce 2d bd f4 e0 1e bd
       0.07011536 0.025747383 -0.04243304 -0.03878875
000210 1d 3b 84 bd 99 cc a5 3d 96 c9 26 bd 30 52 1f bd
       -0.064565875 0.080956645 -0.04071959 -0.03889674
000220 73 b4 e3 3c c6 f0 0d bd d9 87 3a 3d 59 12 f9 bc
       0.027796006 -0.034653448 0.04553971 -0.030404257
000230 e6 3c a8 bc b2 b1 db bc 92 92 a1 3b 35 15 32 3d
       -0.020536851 -0.02681813 0.0049308026 0.043477256
000240 94 9e 5e bc 5d 5e 8b 3d 9d 7e af bd e9 bf 87 bd
       -0.013587613 0.06805108 -0.085690714 -0.06628401
000250 28 e7 c7 3c b6 ba d5 bb 21 a4 56 bc e0 b6 cb 3c
       0.024402216 -0.006522502 -0.013100655 0.024867475
000260 59 28 91 bd a9 c0 16 bc f3 bd 7c bd 59 17 9e 3d
       -0.07087774 -0.009201207 -0.061704587 0.07719297
000270 17 b5 9a 3c 0f 7b 53 3d 53 e1 63 bd 48 e4 a9 bc
       0.018885178 0.05163103 -0.055634808 -0.020738736
000280 94 6d 3e 3d 3d f6 95 3d f7 36 94 bd a2 79 c0 bc
       0.04649122 0.07322357 -0.07237046 -0.023495499
000290 01 29 80 bc c4 67 a4 3d 74 ef 5b bd 50 1a 03 3d
       -0.015644552 0.08027604 -0.053695157 0.032007515
0002a0 77 f6 81 3d b3 48 86 bd 50 11 a7 3d d8 53 ae bd
       0.063458376 -0.06556835 0.08157599 -0.08512086
0002b0 a2 29 82 bd 63 b4 cd bc e8 59 8d 3b 05 21 4c 3b
       -0.06355597 -0.02511043 0.004313696 0.003114761
0002c0 f9 16 84 3d 5b b1 98 3d 28 7f c0 bc d8 85 a4 3c
       0.06449694 0.07455703 -0.023498133 0.020083353
0002d0 ed e9 f8 bc 61 88 ca 3c 98 e1 dc ba 43 a1 25 3d
       -0.030384982 0.024723234 -0.00168519 0.040436994
0002e0 fb a1 bb 3a 76 56 dc bc 1e c5 17 3d af 25 80 3d
       0.0014315242 -0.026896697 0.03705322 0.062571876
0002f0 ab 5f 25 bd 10 dd bc 3c 98 d3 25 39 c8 f2 cc bc
       -0.04037444 0.02305463 0.00015814451 -0.02501811
000300 ba 4c 17 3d 07 41 4a 3d 5e 6c 1f 3d 77 d3 96 bd
       0.036938407 0.04937842 0.038921706 -0.073645525
000310 e0 70 00 bd 0f c6 92 3d 84 13 4b 3d 24 bb 47 3d
       -0.031357646 0.07166683 0.04957916 0.048762456
000320 59 72 57 bd 86 a2 fe 3c 91 e1 32 bc 7d 70 09 bd
       -0.052599285 0.031083357 -0.010918037 -0.033554543
000330 25 13 53 3d fc 83 aa 3d 1c ba 1e 3d 51 d4 81 3d
       0.05153193 0.08325955 0.038751706 0.06339324
000340 6c f8 4a bd a3 91 2e 3d a6 ef a3 bd 5d ef aa bc
       -0.04955332 0.04261936 -0.08004694 -0.02086609
000350 51 2a aa bc 7a df 91 bd 9a 1f de bc ce 07 86 3d
       -0.020772131 -0.07122703 -0.027114678 0.065444574
000360 d4 15 2e bd 48 1b 99 3d 95 d6 30 3d 0d ec 0e bd
       -0.042501286 0.074759066 0.04317339 -0.034893084
000370 11 19 47 3d 85 10 a5 bd 8c 8b 14 3d d9 3b 29 bd
       0.04860789 -0.080597915 0.036265895 -0.04131684
000380 be f4 8b bd 21 ca ae 3d b5 28 5c bb 00 65 5a bd
       -0.0683379 0.08534647 -0.00335936 -0.053318977
000390 3a 70 af 3d 9d e7 b0 3c e8 8d 56 bc 3c df 05 bd
       0.085663274 0.021594817 -0.0130953565 -0.032683596
0003a0 ee 78 9f 3d 2b 1b 45 3d 2d 2f a0 3d 0d 59 01 3d
       0.077867374 0.048121613 0.07821498 0.031579066
0003b0 bf de 8b 3d 64 13 5d ba 3f 93 9e 3c 91 ec b2 3c
       0.06829595 -0.00084333704 0.019357322 0.02184132
0003c0 46 c9 a7 3d 21 06 85 3d 1e 7e 54 3d c6 00 ab bd
       0.08192687 0.064953096 0.051878087 -0.08349757
0003d0 98 ed 81 3d 28 db 41 3d 41 9f 9d bc 20 60 82 3c
       0.063441455 0.047328144 -0.019240977 0.015914977
0003e0 38 68 ae bd 03 1d 46 bd ae 06 89 3d 0e 96 a3 bd
       -0.08515972 -0.04836751 0.06690727 -0.07987605
0003f0 be 30 09 3a ea d2 7b 3c ef d4 84 bb 9c 35 4f bd
       0.00052333984 0.01537011 -0.004053704 -0.050588235

BN1.weight f4 [256]
000000 64 b1 7e 3f 51 09 80 3f 67 2c 7b 3f 9b 88 77 3f
       0.99489427 1.0002843 0.9811463 0.9669282
000010 63 f9 7c 3f 05 80 81 3f 02 68 82 3f fe bd 7e 3f
       0.98818034 1.0117193 1.0187991 0.99508655
000020 30 c3 7f 3f d1 59 82 3f c7 19 7c 3f 3d 8d 7b 3f
       0.9990721 1.018366 0.98476833 0.9826239
000030 85 4a 7f 3f 6a a2 81 3f 4b 93 85 3f ee 65 80 3f
       0.9972308 1.012769 1.0435575 1.0031106
000040 59 0f 82 3f 6c c4 80 3f a7 f9 7e 3f 10 df 80 3f
       1.0160934 1.0059943 0.9959969 1.0068073
000050 dc 33 7c 3f 29 b4 7d 3f 7b db 87 3f 8d db 81 3f
       0.9851663 0.9910303 1.0613855 1.0145127
000060 a7 5c 82 3f 2e 32 82 3f ad 25 85 3f 79 03 81 3f
       1.0184525 1.0171564 1.0402123 1.0079185
000070 fb d3 83 3f d1 9d 84 3f af 42 85 3f da 00 80 3f
       1.0299066 1.0360662 1.0410975 1.000026
000080 e9 79 83 3f 8b 40 7e 3f 22 13 7e 3f 9e 39 82 3f
       1.0271579 0.99317235 0.99247944 1.0173833
000090 3e f9 85 3f bb c1 82 3f 33 a5 7f 3f da 42 82 3f
       1.0466688 1.0215372 0.9986145 1.0176651
0000a0 50 8d 81 3f ff 4b 84 3f 3a ab 81 3f 08 48 85 3f
       1.012125 1.0335692 1.0130379 1.0412607
0000b0 72 aa 7f 3f be 05 82 3f 42 23 80 3f 13 f8 7c 3f
       0.99869454 1.0158002 1.001076 0.9881603
0000c0 bf ca 86 3f 37 44 80 3f 8b f3 7a 3f eb 69 7e 3f
       1.0530623 1.0020818 0.9802787 0.9938037
0000d0 3a aa 7c 3f 39 5d 82 3f 02 89 7e 3f 06 61 7f 3f
       0.98697245 1.0184699 0.9942781 0.9975742
0000e0 e6 c4 80 3f e4 c6 81 3f 9e 59 80 3f 2b 4c 86 3f
       1.0060089 1.0138822 1.0027349 1.0491995
0000f0 65 50 7e 3f 14 76 81 3f cd 2b 85 3f c1 82 84 3f
       0.9934142 1.011416 1.0403992 1.0352403
000100 e0 a6 78 3f f3 22 81 3f a6 51 7c 3f 8f f0 82 3f
       0.9712963 1.0088791 0.98562086 1.0229663
000110 9d 93 7f 3f a7 cb 8b 3f 6c 28 7f 3f ce 3f 79 3f
       0.99834615 1.0921525 0.99671054 0.97362983
000120 7d 2f 84 3f ef e8 83 3f b8 15 81 3f f2 4d 80 3f
       1.0326992 1.0305461 1.0084753 1.0023787
000130 82 26 81 3f 2c ea 84 3f c1 af 82 3f 7e 95 82 3f
       1.0089877 1.0383964 1.0209886 1.0201871
000140 66 64 82 3f 40 dd 7d 3f 5e 4d 80 3f 3b ec 7c 3f
       1.0186889 0.99165726 1.002361 0.9879796
000150 c7 e7 80 3f ef b6 80 3f d1 85 81 3f a4 67 84 3f
       1.0070733 1.0055827 1.0118963 1.0344129
000160 7b 30 84 3f e5 6d 80 3f 87 6b 82 3f 91 b1 84 3f
       1.0327295 1.0033537 1.0189065 1.0366689
000170 2a b0 81 3f 36 51 80 3f 78 30 83 3f 2b 41 83 3f
       1.0131886 1.0024784 1.0249166 1.0254263
000180 f9 46 81 3f d2 6d 82 3f 17 94 80 3f 0e 5f 84 3f
       1.0099784 1.0189764 1.0045193 1.0341508
000190 57 45 7f 3f 76 31 7f 3f e9 23 81 3f 37 06 83 3f
       0.9971518 0.99684846 1.0089084 1.0236272
0001a0 52 d3 82 3f 73 13 84 3f 95 48 80 3f 87 90 84 3f
       1.022074 1.0318435 1.002215 1.0356606
0001b0 79 16 83 3f 4f fc 83 3f 58 f3 81 3f 01 81 84 3f
       1.0241233 1.0311373 1.0152388 1.0351869
0001c0 c3 d0 7c 3f 4e a9 82 3f 02 18 85 3f 47 e3 85 3f
       0.98756045 1.0207918 1.0397952 1.0459985
0001d0 55 4c 86 3f 8f 85 7c 3f 60 95 7e 3f 7d 13 7f 3f
       1.0492045 0.98641294 0.9944668 0.9963911
0001e0 b1 3f 7e 3f 63 07 7b 3f 08 2c 83 3f 42 21 7c 3f
       0.99315935 0.98058146 1.0247812 0.9848825
0001f0 80 a4 80 3f 67 96 80 3f 78 25 83 3f b4 92 83 3f
       1.0050201 1.0045899 1.024581 1.0279145
000200 87 db 7d 3f 86 7c 80 3f de a2 7c 3f d2 82 7c 3f
       0.991631 1.0038002 0.98686016 0.98637116
000210 95 7d 7f 3f 9f ce 81 3f 65 35 81 3f 27 de 82 3f
       0.99801 1.0141181 1.009442 1.0224046
000220 ec 4e 83 3f ec fb 7a 3f ba ea 81 3f ca b9 7b 3f
       1.025846 0.9804065 1.0149758 0.98330367
000230 77 3a 84 3f 9c 37 81 3f 70 ab 7f 3f 2b 7c 80 3f
       1.0330342 1.0095096 0.9987097 1.0037893
000240 31 fb 85 3f 30 69 80 3f 48 26 81 3f dc c5 82 3f
       1.0467283 1.0032101 1.0089808 1.0216632
000250 54 80 82 3f 7f cd 81 3f fd 79 84 3f 0e 79 7d 3f
       1.0195413 1.0140837 1.0349728 0.9901284
000260 f5 90 81 3f 22 a9 7d 3f ab 99 83 3f f5 8e 7d 3f
       1.0122362 0.990862 1.0281271 0.9904626
000270 57 74 7f 3f ca 2e 82 3f d3 85 7b 3f 80 40 81 3f
       0.99786896 1.0170529 0.98251075 1.0097809
000280 d2 83 7d 3f f8 43 83 3f bf 68 7c 3f 78 e6 80 3f
       0.99029267 1.0255117 0.9859733 1.0070333
000290 26 c6 81 3f db 65 7f 3f 23 82 8a 3f 28 9b 7c 3f
       1.0138595 0.99764794 1.0820965 0.9867425
0002a0 eb cb 82 3f 0e 79 80 3f 2c 62 85 3f 7c 1e 7d 3f
       1.0218481 1.0036943 1.0420585 0.9887464
0002b0 0e 62 80 3f 4e 99 81 3f 99 7b 82 3f 17 bf 81 3f
       1.0029924 1.012491 1.0193969 1.0136441
0002c0 4b 62 7c 3f 0a e4 82 3f df 1d 7d 3f aa f6 80 3f
       0.98587483 1.0225842 0.98873705 1.0075276
0002d0 b5 e0 81 3f 67 27 82 3f 96 e1 81 3f 93 9f 7c 3f
       1.01467 1.0168275 1.0146968 0.9868099
0002e0 af 50 83 3f b2 61 82 3f e8 3e 7e 3f 0a ae 7d 3f
       1.0258998 1.0186064 0.9931474 0.9909369
0002f0 f7 bb 81 3f c2 fe 7f 3f 2b b5 81 3f 7f 20 7f 3f
       1.0135487 0.99998105 1.0133413 0.9965896
000300 38 2a 80 3f ac f3 81 3f 13 30 81 3f c3 4e 83 3f
       1.0012884 1.0152488 1.0092796 1.0258411
000310 74 28 88 3f 14 27 81 3f 10 d5 85 3f 11 83 81 3f
       1.0637345 1.0090051 1.0455647 1.0118123
000320 54 3c 80 3f e0 9d 82 3f ba 0a 84 3f 35 0d 7d 3f
       1.0018411 1.020443 1.0315773 0.9884828
000330 2c 34 83 3f dd 05 7e 3f 74 0f 7b 3f 22 a6 7f 3f
       1.0250297 0.99227697 0.98070455 0.99862874
000340 64 2d 7e 3f 89 b7 82 3f 50 73 85 3f da 34 80 3f
       0.9928801 1.021226 1.0425816 1.0016129
000350 16 e4 81 3f 0c b3 7f 3f 5f 46 84 3f 62 3d 80 3f
       1.0147731 0.9988258 1.0333976 1.0018733
000360 0e 66 82 3f e3 18 83 3f a4 57 82 3f b6 cf 7e 3f
       1.0187395 1.024197 1.0182996 0.9953569
000370 ac 65 83 3f 42 80 7b 3f 8f 9f 7e 3f 24 2c 82 3f
       1.0265403 0.9824258 0.9946222 1.0169721
000380 51 14 82 3f a9 4a 7e 3f e1 1b 81 3f 75 02 80 3f
       1.016245 0.9933267 1.0086633 1.000075
000390 af 10 81 3f e3 04 87 3f d1 6b 7f 3f 90 c5 83 3f
       1.0083216 1.0548366 0.9977389 1.0294666
0003a0 cf a6 87 3f 9d 36 7c 3f 14 a5 81 3f 52 d4 83 3f
       1.0597781 0.98520833 1.0128503 1.029917
0003b0 44 94 86 3f 7d ee 84 3f a2 39 80 3f 9b d5 78 3f
       1.0513997 1.0385281 1.0017588 0.97200936
0003c0 52 8c 7a 3f 18 f5 79 3f b9 95 81 3f f3 3e 86 3f
       0.9787036 0.9763961 1.0123817 1.048796
0003d0 c4 11 7f 3f 17 d8 7b 3f 4d d1 7c 3f d4 db 7e 3f
       0.99636483 0.983766 0.9875687 0.9955418
0003e0 3b db 83 3f 77 5d 81 3f b7 d3 7f 3f 76 c2 82 3f
       1.0301279 1.0106648 0.99932426 1.0215595
0003f0 7b 1a 80 3f 48 69 80 3f bb 40 85 3f 53 51 88 3f
       1.0008081 1.0032129 1.0410379 1.0649818

BN1.bias f4 [256]
000000 e3 af 39 3d 4c 8a 32 bd 5a e7 f1 bb 66 e9 c0 3d
       0.045333754 -0.04358892 -0.0073823156 0.09419517
000010 b7 62 49 3d e8 86 88 bd ff ff 55 bc d5 b9 1e bd
       0.049166407 -0.06666356 -0.0130615225 -0.038751442
000020 bc ce c9 bb 1a a2 32 bd d7 32 06 3d f8 06 b4 bc
       -0.006158678 -0.043611623 0.03276333 -0.02197598
000030 d2 49 fa 3c b2 6d b2 bd 69 9c c5 bd c6 20 9b bc
       0.030552778 -0.08712329 -0.096489735 -0.018936526
000040 a5 e1 0d bc 54 b3 01 3c 3e 1d 11 bd 14 1b 86 bc
       -0.008659755 0.00791629 -0.03542828 -0.016370334
000050 a3 9d 5c 3c 93 90 eb 3c 22 16 0f be 0c 7c dc bc
       0.013465318 0.028755462 -0.13973287 -0.026914619
000060 d2 bc af 3c 70 e1 43 bd 5c 8f 8c bc 3b 32 8c 3b
       0.021452341 -0.047822416 -0.017158203 0.004278449
000070 be 4c 14 bd 4f 35 a4 bd 8e 41 c1 bd f5 14 22 bc
       -0.036206 -0.0801798 -0.09436332 -0.009892692
000080 b5 d6 84 bd 57 fb a2 3d ab c8 9f bd df c4 bf 3c
       -0.064862646 0.079580955 -0.07801946 0.023409305
000090 e1 31 a2 bc 7e 31 0d bd fd 0f be bc f3 5f 8e bc
       -0.019799175 -0.034471028 -0.023200983 -0.017379737
0000a0 7d 75 e6 bb 30 a0 f7 bd 57 51 8f bd 62 f7 d0 bd
       -0.0070330487 -0.120911 -0.06997936 -0.102034345
0000b0 e8 d5 d7 3b 22 34 e1 bb 9d 28 dd bd ed 12 8f bc
       0.006586779 -0.00687267 -0.10798762 -0.01746508
0000c0 38 36 5a bd 4d 25 25 bd 81 72 84 3d 36 fe e2 b9
       -0.053274363 -0.040318776 0.064671524 -0.0004329548
0000d0 e1 a3 58 3d 83 cf 98 bd ed e0 63 3d 40 f7 d9 bc
       0.052890662 -0.07461455 0.055634428 -0.026607156
0000e0 ca 29 07 bd 7d a2 66 bc b8 d0 80 3c 5e e8 ba bd
       -0.032998838 -0.014076826 0.015724525 -0.09126352
0000f0 3b 55 97 3c f1 a8 4e bd d0 a7 1a bd 07 85 93 bd
       0.018473258 -0.050454084 -0.037757695 -0.07203107
000100 3b 25 4a 3c f8 81 84 bb 9b 22 50 3c 05 46 43 bd
       0.012337978 -0.004043814 0.012703563 -0.047674198
000110 9b 6f ca 3b 77 a9 d8 bc 84 92 7b 3d 2e 08 3e 3d
       0.006177855 -0.026447995 0.061419025 0.04639452
000120 92 15 fa bc 74 05 79 3b 2e f4 80 bb 3b 3f 12 3c
       -0.030527864 0.0037997635 -0.0039353585 0.008926208
000130 21 f8 34 bd 78 a7 f8 bd fd 42 ac bd c1 c3 2e bd
       -0.044181947 -0.12141317 -0.084112145 -0.042667154
000140 a6 26 fd bc bc 6f 59 3d 4e 4d 3c bd 58 1b 6e bd
       -0.030902218 0.053085074 -0.04597216 -0.058131546
000150 1f cd c7 ba 88 ac 90 3d a7 fc 5b bc 9d ad 98 bc
       -0.0015243626 0.07064158 -0.013426936 -0.018637473
000160 85 08 44 bd a7 58 ed bc 0b 59 bf ba b8 b9 d9 bd
       -0.047859687 -0.028972937 -0.001459868 -0.10631126
000170 c4 3e 31 bd 4f 3a 97 bd 2e a0 3a bd a9 b5 30 be
       -0.04327275 -0.07384168 -0.045562916 -0.17256798
000180 b6 0d 67 3d 9f b9 78 bc 38 86 62 3d 0f af 53 be
       0.05640956 -0.015180974 0.055303782 -0.20672248
000190 63 cd ac bd 9b 19 03 3d b7 44 99 bd 68 ee 50 bd
       -0.08437612 0.03200684 -0.074838094 -0.051008612
0001a0 68 a4 3e bd f4 a8 4f bd d0 82 7d bc 97 3d 9a bc
       -0.04654351 -0.050698236 -0.015473083 -0.018828196
0001b0 64 bc 02 bd 87 45 a9 bd ac f3 7b bd be a4 e3 bd
       -0.031917945 -0.082652144 -0.06151168 -0.111154065
0001c0 1e 03 6a bd 63 44 33 3c e2 0f 0c bd b9 25 c7 bd
       -0.05713188 0.010941598 -0.034194835 -0.09723992
0001d0 d3 d4 31 bc 5a c7 95 3b d3 2a 97 bd 9d 39 ed 3d
       -0.010853964 0.0045708837 -0.07381215 0.115832545
0001e0 ab d3 81 3d 83 42 5e bc 49 20 ea bd ce 58 60 3c
       0.063392006 -0.013565662 -0.11431939 0.013693048
0001f0 15 7d 3c 3c eb d3 00 3d af a3 5a bd 40 a6 cc bd
       0.011504431 0.0314521 -0.053378757 -0.09992647
000200 75 dc 34 bc f4 32 15 bd df ad cb ba 5a 05 52 3d
       -0.011038889 -0.036425546 -0.0015539489 0.051274635
000210 7f 26 10 3d 6e 41 8a bd fa 28 aa 3b d9 49 88 bd
       0.035192963 -0.06750761 0.005192873 -0.0665471
000220 69 0c 63 bd 3b 0b f9 bc 22 89 aa bd 00 60 2c 3d
       -0.055431757 -0.030400863 -0.08326937 0.04208374
000230 fe 47 cc bd cd 3b a1 3c 63 63 1f bd b3 af bb bd
       -0.09974669 0.019681836 -0.038913142 -0.09164371
000240 2e fb 89 bc c7 59 16 bd fc f6 5a 3b 88 7f 85 bd
       -0.016843405 -0.036706712 0.0033411374 -0.06518465
000250 5f df 8e bd bd d4 df bc b2 1a 9e bd 53 9b bd bc
       -0.069761984 -0.027323121 -0.077199355 -0.023145353
000260 9c 3c 08 3c 75 db f2 3c b3 f8 bc bd 3c ed 9a bb
       0.008315232 0.02964566 -0.09227123 -0.0047279876
000270 ff e0 34 bc ac ce 13 bd fd 74 ee bc 47 a3 83 bd
       -0.011039971 -0.03608577 -0.029108519 -0.06427627
000280 0c 16 33 bd 62 05 66 bd 83 86 2c 3d 75 71 02 3d
       -0.043722197 -0.056157477 0.042120468 0.031846482
000290 74 2e 5e bd 24 7e d3 bd 1c f6 e4 bd 85 d1 16 bd
       -0.05424352 -0.10326794 -0.11179754 -0.036820907
0002a0 6d c0 f8 3c 6b db 7f bd b6 80 24 3d 6e 34 36 bc
       0.030365193 -0.062465113 0.04016181 -0.011120899
0002b0 38 c7 f9 bc 96 1c 6d bd 54 4c 25 bd b5 8f 93 3c
       -0.030490503 -0.05788859 -0.040355995 0.01801286
0002c0 43 a6 bd 3c 2f 69 0b be 0c b7 2c 3d 19 83 0c 3d
       0.023150569 -0.13614343 0.042166755 0.034304712
0002d0 c1 30 c9 bb e7 66 0b bd 9f 8b bc bd ea c6 98 3d
       -0.006139845 -0.034033682 -0.09206318 0.07459815
0002e0 de 6d 9e bb f2 d1 05 bd 04 65 97 3b 80 9c 2a 3c
       -0.0048348745 -0.032670923 0.0046201963 0.010413289
0002f0 2e 10 37 bd 26 2d 91 3c 3c 34 f9 3c 70 41 f7 bc
       -0.044693165 0.017721724 0.030420415 -0.03018257
000300 7f fd 3f bd 1c 0a 92 3c d5 e1 c5 ba cd 1c 24 bd
       -0.046872612 0.017827086 -0.001509721 -0.04006653
000310 5f b5 cd bd dd f3 42 be c0 69 0b be ac 0a 02 bd
       -0.100443594 -0.19038339 -0.13614559 -0.03174846
000320 f0 8d 89 3c 43 fa 1a be b6 2a 78 bd b4 ad 89 3c
       0.016791314 -0.1513453 -0.060587607 0.01680646
000330 cd 96 9a bd b9 98 91 bc 24 ab 27 3c ed ff c5 bc
       -0.07548294 -0.01777302 0.010233674 -0.024169886
000340 0d 93 17 bc 8b ef a5 3c 48 cf c3 bd f6 68 be bc
       -0.009251368 0.020255825 -0.0956102 -0.023243409
000350 5e ba 84 bd 9b df 54 bd d8 70 e4 bd d0 37 7a bc
       -0.06480859 -0.05197106 -0.11154336 -0.015272096
000360 36 9f 15 bd 05 8a 98 bd 08 b3 ce bd 1d 45 d0 3c
       -0.03652879 -0.074482 -0.10092741 0.02542358
000370 c9 05 4f bd 04 6d ae bc 93 42 42 3d 8b ef d5 bd
       -0.050542627 -0.021292217 0.04742677 -0.1044608
000380 d7 90 b0 bd 92 0b 06 3d 16 9c 44 bd 0a f1 89 bc
       -0.08621376 0.032725878 -0.048000418 -0.01683857
000390 cf c1 b8 bc db 9b a5 bd d6 82 a9 bd cb 66 68 bd
       -0.022553353 -0.08086368 -0.08276908 -0.056738656
0003a0 2c 7a ba 3a b3 71 66 3d 46 22 90 bc dd b0 94 bd
       0.0014227084 0.056260776 -0.017594468 -0.072602965
0003b0 df a1 62 bc 6c f8 40 bd 16 a6 2e bd de 27 9a 3c
       -0.013832538 -0.047111914 -0.04263886 0.018817838
0003c0 be aa 73 3d 86 63 39 3d 6c 6e e1 bd fb fc 68 bc
       0.059489004 0.04526093 -0.110073894 -0.0142204715
0003d0 f3 1e 1d bd b9 8f 43 bd 54 4c 0a bd d8 4f 81 bd
       -0.038359594 -0.047744486 -0.0337642 -0.06314057
0003e0 fe 45 f2 bd 09 65 bf bd fb 32 90 3c 10 e1 1a 3b
       -0.11829756 -0.09345443 0.017602434 0.0023632683
0003f0 f7 6c 92 bd 81 4a 79 bd 9d e8 99 bd be eb 36 bd
       -0.0714969 -0.060862068 -0.075150706 -0.044658415

BN1.running_mean f4 [256]
000000 a5 fa 0b c1 4e 01 80 40 d4 43 b8 40 03 f7 05 41
       -8.7486925 4.0001593 5.75828 8.372806
000010 28 f2 c9 c0 06 53 ed 40 c2 92 c2 41 0d 76 5a 41
       -6.31081 7.4163847 24.32166 13.653821
000020 1e 03 0a 41 2f 9b 5a c0 4d 34 99 40 f2 42 9c 41
       8.625761 -3.4157217 4.7876344 19.532688
000030 50 1b 07 41 00 54 96 c0 14 fd 3c c0 61 11 88 3f
       8.444168 -4.697754 -2.9529467 1.0630304
000040 4a f9 74 41 a1 ab 40 c1 f0 94 44 41 b1 9b 4f 41
       15.310862 -12.041902 12.286362 12.975511
000050 fd f7 31 c0 db 31 5d 41 25 5a 06 40 1f b8 9e 40
       -2.780761 13.824672 2.099252 4.9599757
000060 c9 71 03 c0 2d 68 59 3d 96 24 06 c1 b3 35 b8 40
       -2.05382 0.053077865 -8.383932 5.756555
000070 47 a6 76 c0 5c d0 40 bf ac 82 c2 40 b0 79 9b c0
       -3.8538988 -0.7531793 6.078451 -4.8586044
000080 c8 63 ec 40 46 fe 60 bf ce 65 be 40 9e 34 06 c1
       7.3871803 -0.8788799 5.9499273 -8.387846
000090 7d 29 ff c0 75 df 5d 40 9f a3 3b 40 1d c8 5e c0
       -7.9738145 3.4667637 2.9318616 -3.480964
0000a0 66 5c 4f 41 a0 0c 81 41 61 f5 ae 40 b8 e9 01 40
       12.960058 16.131165 5.4674535 2.02989
0000b0 43 20 ed c0 f7 5b 58 40 25 80 1d 41 85 01 b9 3f
       -7.410188 3.380613 9.843785 1.4453589
0000c0 aa a2 fc c0 e7 68 ad c0 79 98 cb c0 8d a1 f3 c0
       -7.8948565 -5.4190555 -6.3623624 -7.6134706
0000d0 28 40 97 40 c1 6c 5c c1 d0 8e 61 40 6e 73 21 40
       4.7265816 -13.776551 3.5243416 2.5226703
0000e0 7b 6d 9b bf 50 fe af 40 5a bc 0a c1 f8 54 c1 40
       -1.2142786 5.499794 -8.670984 6.041622
0000f0 86 03 e9 3f c9 74 82 c1 3b 24 16 40 87 bd 8e c0
       1.82042 -16.307024 2.3459613 -4.4606357
000100 8e 1b d5 bf f8 8d bd bf 61 bb 62 41 d3 7c 95 40
       -1.6649034 -1.480895 14.170747 4.6714873
000110 cf dd 22 c1 b0 08 d1 3e 15 f1 1b c0 5a 45 dd c0
       -10.1791525 0.4082694 -2.4365895 -6.914716
000120 f5 bd e5 bf 5c 76 34 41 e6 a9 55 c1 5e 48 f1 40
       -1.7948595 11.278896 -13.353979 7.540084
000130 ce cd 01 41 6f 6f eb c0 e3 ff f7 40 75 96 8c c0
       8.112745 -7.3573527 7.749986 -4.3933663
000140 4a a2 a4 3f 68 c1 a0 3e 9c 54 d1 40 14 12 39 41
       1.2862027 0.31397557 6.5415783 11.566914
000150 93 e9 93 c0 bb 96 fa 3c c2 60 27 c1 1d 0a 4d 40
       -4.6222625 0.030589452 -10.4611225 3.2037423
000160 55 43 84 bf d8 f1 3e 40 70 b6 92 40 9b 39 1a 41
       -1.0333048 2.983511 4.58477 9.639064
000170 ce 32 cb 3f e6 02 08 c1 cf 72 66 3d 57 72 82 40
       1.5874879 -8.500708 0.056261834 4.0764575
000180 e1 15 9b 40 a1 b8 89 bf ab 89 3b c1 a0 3a ef c0
       4.846421 -1.0759469 -11.72111 -7.4759064
000190 84 13 ba 40 69 84 45 c0 14 61 a5 40 f9 be 94 40
       5.8148823 -3.0862067 5.1681004 4.648312
0001a0 a5 e4 80 41 3d 34 6e bf 87 10 eb c0 e5 81 df c0
       16.111643 -0.9304846 -7.3457675 -6.9846063
0001b0 e1 f9 ce bf d3 ab fc 40 9d ff 39 c1 70 f7 fe c0
       -1.6170007 7.8959746 -11.624906 -7.967705
0001c0 64 98 0c 41 ae d5 64 c1 39 74 09 40 d2 70 07 41
       8.787205 -14.302168 2.1477187 8.465044
0001d0 ad 49 1c c1 95 61 4d c1 3f 93 ba 3f 0f 00 1b c1
       -9.767987 -12.836324 1.4576186 -9.687514
0001e0 7f 2e 0e c1 c6 79 78 c1 a3 3c a2 40 a0 4d c2 c0
       -8.886352 -15.52973 5.069902 -6.0719757
0001f0 e4 44 7c bd 65 f7 d8 c0 53 a6 b7 c0 10 3d 07 bf
       -0.061589137 -6.7801995 -5.7390532 -0.5282755
000200 2d 88 ac c0 b1 3f 22 c1 da 70 e1 3f cf 5e 33 c1
       -5.391623 -10.14055 1.7612565 -11.210647
000210 a9 8c 19 bf d2 17 11 c0 32 db 88 3f 67 7d 2a 41
       -0.59980255 -2.2670789 1.0691893 10.655616
000220 3f ca 65 be e8 0d 74 bf 92 5f 1f 40 1a 76 6d 41
       -0.22440432 -0.9533372 2.4902081 14.841333
000230 30 2f b2 c0 51 68 07 c1 7f 27 c5 40 da 5a 15 41
       -5.56826 -8.462968 6.1610713 9.334681
000240 14 ae b2 3e 5f 49 81 3e 14 ff 25 c1 b3 0f cf 3f
       0.34898436 0.2525129 -10.374775 1.6176666
000250 ec 82 38 c0 89 f7 fe be 81 76 92 bf 2e 7e 19 c0
       -2.8829908 -0.4979823 -1.1442415 -2.3983264
000260 3c da e9 c0 27 67 f2 40 54 c0 d0 bf 08 67 d1 c0
       -7.30789 7.575092 -1.6308694 -6.543827
000270 67 b1 58 c0 aa 61 85 c1 00 3c 49 c1 33 41 12 41
       -3.3858278 -16.672688 -12.577148 9.140918
000280 9e 8b 35 c0 ac d5 29 bf 89 4e 29 c1 94 48 0d 41
       -2.8366466 -0.6634166 -10.581674 8.830219
000290 cd 94 42 c1 a6 7b 2b c1 e1 c7 66 bf 07 35 8e 41
       -12.161328 -10.717688 -0.9014874 17.775892
0002a0 74 76 92 c1 e3 65 2d c0 81 16 8a 3e 33 f3 3b 41
       -18.307838 -2.7093437 0.26970294 11.746875
0002b0 9e 75 77 41 91 84 90 3f 8b bc 51 bf 75 94 80 c0
       15.466215 1.1290456 -0.8192832 -4.018122
0002c0 9b 16 1e c0 cf 9a 2d 41 c6 a3 df 40 01 0d 76 c1
       -2.4701297 10.850295 6.988742 -15.378175
0002d0 52 3b 04 c1 41 fa 78 bf 80 3f 37 41 97 ea 67 41
       -8.2644825 -0.9725686 11.453003 14.494773
0002e0 ed 32 9a 3f 88 9c 23 c1 46 30 de 40 dd 1a 95 40
       1.2046791 -10.225716 6.9433928 4.659529
0002f0 6a 51 a3 be 5c 4a 7c 40 ae f5 e1 40 02 f4 83 c0
       -0.31898052 3.9420385 7.06124 -4.123536
000300 01 9b 14 c1 a6 0c 87 40 4f 66 cb 3f cb 30 10 c1
       -9.287843 4.220294 1.5890597 -9.011912
000310 ad 28 93 3f 77 53 33 c1 ac f9 88 41 aa a1 89 c0
       1.1496788 -11.207877 17.12191 -4.3009844
000320 08 a5 41 c1 9d c7 12 c1 1d 9a ba 3f 05 2f 81 c0
       -12.102791 -9.173734 1.4578282 -4.0369897
000330 08 71 0e c1 bf d2 4c 41 96 50 61 41 fa e1 31 c1
       -8.9025955 12.801452 14.082174 -11.11767
000340 68 15 95 40 e0 be 1c bf 7c 74 36 c1 c6 da 60 40
       4.658863 -0.6122875 -11.403439 3.5133529
000350 58 f9 96 40 d4 35 e6 c0 2f 8a a0 bf 8d 69 9b 3f
       4.7179375 -7.194071 -1.254217 1.2141587
000360 e4 6b 3e 40 95 c7 54 c0 b2 a1 48 3f d4 d7 64 c0
       2.9753351 -3.3246815 0.7837173 -3.575673
000370 28 c6 c9 c0 65 16 5b c1 8b 83 8c c0 0b ef 33 3f
       -6.305439 -13.692967 -4.3910575 0.70286626
000380 47 8d 6b c0 37 f1 3a 3f ec 4b b4 bf bf 2a 28 c1
       -3.680498 0.73024315 -1.408567 -10.510436
000390 2b 33 7f 40 fd 62 07 c1 5e 3c b8 40 89 18 f6 3e
       3.987498 -8.461667 5.757369 0.48065594
0003a0 b0 fe 67 40 6b a8 43 c1 6a 6c 76 3f 83 0d 03 3f
       3.62492 -12.228618 0.96259177 0.5119249
0003b0 bf 30 0c c1 ff 61 57 40 ad eb 2f c0 08 cb a3 41
       -8.761901 3.3653562 -2.7487595 20.474136
0003c0 4a 69 18 c0 c5 cd bf 40 ca f9 54 c0 d4 c3 bf 40
       -2.3814263 5.9938684 -3.327746 5.992655
0003d0 4d 9a 6f 40 aa 76 57 3f c7 aa ff c0 87 12 a7 c0
       3.7437928 0.8416544 -7.989597 -5.2210116
0003e0 b2 49 a5 c1 bc 7d 8c 40 8a f6 90 41 78 a0 b4 c0
       -20.660984 4.3903484 18.12038 -5.6445885
0003f0 ff 73 04 c1 82 ae e0 c0 d4 c2 cd 40 5b 70 ce c0
       -8.278319 -7.021302 6.4300327 -6.4512153

BN1.running_var f4 [256]
000000 0d e0 58 42 56 7f 2f 42 9d c8 02 43 31 94 be 42
       54.2188 43.87435 130.78365 95.28944
000010 84 fc 19 43 dd dc 46 43 22 e6 16 43 74 c5 c6 42
       153.98639 198.86275 150.89896 99.38565
000020 2d 88 08 43 6d 6a ff 42 21 16 23 43 3b a2 38 43
       136.53194 127.70786 163.08644 184.63371
000030 f2 d1 b7 42 89 06 b3 42 c3 1d 64 42 b1 20 1d 43
       91.91005 89.512764 57.029064 157.1277
000040 bb 94 df 42 7e 74 b1 42 a6 87 6f 42 93 66 0c 43
       111.79049 88.72752 59.88247 140.40068
000050 d4 b9 e2 42 66 62 36 42 ae 80 ce 41 60 51 7f 42
       113.362946 45.596092 25.812832 63.829468
000060 c7 e7 39 42 a7 fc c8 42 44 2a 69 42 19 b1 98 42
       46.476345 100.49346 58.291275 76.345894
000070 37 df 46 42 d5 db 4d 43 2d c6 82 42 71 74 fc 42
       49.717983 205.85872 65.38706 126.227425
000080 d6 52 bc 42 3e c8 ba 42 e0 e0 cd 42 6a f5 36 42
       94.16179 93.3911 102.93921 45.739662
000090 9f 9a 4d 42 8a 03 bd 42 8c 26 01 43 61 62 43 42
       51.400997 94.50691 129.15057 48.846073
0000a0 2f a7 7b 43 af f7 6f 42 19 61 81 42 c9 0f 95 42
       251.65306 59.99188 64.689644 74.53083
0000b0 af 2f 84 43 cf cc d8 42 6b 3f b0 42 0f c9 1f 42
       264.37253 108.40002 88.12386 39.946346
0000c0 d9 8e c6 42 15 16 90 42 0f 5a e5 42 14 17 b2 42
       99.279 72.04313 114.675896 89.045074
0000d0 85 ec 86 42 1e 49 e6 42 64 b7 79 42 af 07 c9 42
       67.46195 115.14281 62.429092 100.51501
0000e0 40 4f 96 42 0e 67 c6 42 f9 4b 82 42 88 a4 d8 41
       75.154785 99.20128 65.148384 27.080338
0000f0 ee 6f 39 42 56 72 ae 42 da c0 8a 42 d8 9c bd 42
       46.359306 87.22331 69.37666 94.806335
000100 5d 4c 1f 43 da e6 52 42 73 b3 9b 42 51 19 a5 42
       159.2983 52.72544 77.85049 82.549446
000110 5e 8b 15 43 8d f9 84 42 b8 5b e8 42 a3 40 4f 42
       149.5444 66.487404 116.17914 51.81312
000120 a4 a1 86 42 5c de 77 42 54 21 c5 42 ea 63 28 42
       67.315704 61.967148 98.565094 42.097572
000130 6a 22 9e 42 6f 60 3a 42 53 20 bc 42 9d 74 23 42
       79.067215 46.594173 94.06313 40.86388
000140 d4 39 13 42 e2 1a a8 42 13 13 85 42 c1 f9 82 43
       36.806473 84.052505 66.537254 261.9512
000150 bf 29 7d 42 58 85 1f 42 9f b7 f2 42 28 9f 47 42
       63.290768 39.88022 121.358635 49.905426
000160 97 da 6a 42 c6 71 e5 42 d3 fd ce 42 30 68 60 42
       58.713467 114.72221 103.49575 56.101746
000170 c1 d1 75 42 d8 50 6c 42 0c dc 92 42 fc ed 83 42
       61.454838 59.07895 73.42978 65.96481
000180 12 c8 c7 42 52 53 41 42 29 38 ad 42 e6 02 f1 42
       99.89076 48.331367 86.60969 120.50566
000190 a2 22 f0 42 d2 c4 0f 43 f8 ab 35 42 fb a5 3a 43
       120.06764 143.76883 45.41794 186.64836
0001a0 3f e4 85 42 03 c9 33 42 32 fe 49 42 b9 7a 96 42
       66.94579 44.9463 50.498238 75.23969
0001b0 db 1b 7c 42 59 bb b6 42 65 db 06 43 bb 8e ac 42
       63.027203 91.36591 134.85701 86.27877
0001c0 31 98 7a 42 5c 57 9a 42 9f 00 89 42 be 79 36 42
       62.648624 77.17062 68.50121 45.61889
0001d0 8f cf 38 42 14 88 af 42 32 b5 a3 42 dd 5c 67 42
       46.202694 87.76578 81.8539 57.840687
0001e0 0d 56 c6 42 3a b2 eb 42 0e 12 ab 42 0b d6 11 43
       99.16807 117.8481 85.53526 145.8361
0001f0 ac 11 9c 42 b7 c1 1d 43 45 a2 0f 42 fe 85 6c 42
       78.034515 157.7567 35.908466 59.13085
000200 d1 6f 00 43 a3 68 89 42 18 93 a0 42 e5 21 da 42
       128.43678 68.70437 80.28729 109.0662
000210 a7 e2 55 43 c7 ca 90 42 79 63 14 43 c5 cc 9a 42
       213.88536 72.39605 148.38857 77.39994
000220 ca b6 b7 42 9c 6c 72 42 0b c1 a1 42 42 56 f5 42
       91.85701 60.606064 80.87704 122.66847
000230 4f 36 38 42 fd f4 83 42 c4 7a 58 42 3c 1d 09 43
       46.053036 65.97849 54.11989 137.1142
000240 61 34 84 41 2b 25 cc 42 0b 20 a3 42 65 f8 12 43
       16.525576 102.07259 81.562584 146.97029
000250 c8 d4 59 42 a8 e6 82 42 71 64 93 42 97 fe 25 43
       54.457794 65.4505 73.696175 165.99449
000260 c2 7f 25 42 3e c1 1a 43 81 91 11 42 67 60 7d 42
       41.374763 154.75485 36.392094 63.344143
000270 0d ab 5a 42 24 85 b1 42 00 de a8 42 07 1c e7 42
       54.66704 88.76004 84.43359 115.55474
000280 cb 02 dc 41 9e c4 f7 42 7d 27 bf 42 a8 b6 1b 43
       27.501364 123.88402 95.577126 155.7135
000290 9a ff 93 42 d9 02 e5 42 45 eb 1f 42 b1 c1 99 42
       73.99922 114.50556 39.979755 76.8783
0002a0 8d c2 06 43 b1 09 81 42 8c bf f4 41 d9 15 d0 42
       134.75996 64.51893 30.593529 104.04267
0002b0 2e 9a a0 42 58 d7 b3 42 40 db 71 42 1e fb 31 42
       80.30113 89.92059 60.46411 44.49523
0002c0 e9 8f 91 42 fc 49 58 42 05 1d 11 43 6f cf 16 43
       72.781075 54.07225 145.11336 150.81029
0002d0 62 01 4d 42 d6 13 25 42 2f 74 9d 42 9c ad 71 42
       51.25135 41.26937 78.72692 60.41954
0002e0 6b e1 22 42 27 b3 a1 42 b4 c1 c1 42 6c 28 0d 42
       40.720135 80.84991 96.87833 35.289474
0002f0 f5 fe 36 42 09 79 7e 42 f3 14 9f 42 a0 33 96 42
       45.74898 63.6182 79.54092 75.10083
000300 d0 9b 15 43 a4 98 82 42 f8 73 aa 42 c3 b4 14 43
       149.60864 65.29813 85.2265 148.7061
000310 bf 54 2c 42 c5 c9 88 42 73 53 02 43 c0 e2 39 42
       43.08276 68.39408 130.32597 46.471436
000320 bb af a3 42 17 4d 26 43 6b 69 3b 42 6b f3 a1 42
       81.84322 166.30113 46.852947 80.975426
000330 e9 f9 d9 42 06 83 e3 42 14 ba d6 42 9b 44 59 42
       108.988106 113.755905 107.363434 54.316998
000340 a7 6e 92 42 64 01 b4 42 2d 93 67 42 33 3a b3 42
       73.21612 90.002716 57.893726 89.61367
000350 c2 2e d6 42 c6 c9 87 42 51 4b 33 42 d4 70 9b 42
       107.091324 67.89409 44.82355 77.72037
000360 b2 d9 a8 42 d5 3d dc 42 c1 06 34 42 9c 48 92 42
       84.425186 110.120766 45.006596 73.141815
000370 7f d0 80 42 8e 1e c1 42 1e 82 6d 43 0a a3 37 42
       64.40722 96.55968 237.50827 45.909218
000380 de 0e 07 43 b6 c3 75 42 22 f1 7a 42 55 92 e6 42
       135.05807 61.441124 62.73548 115.285805
000390 00 7f 34 43 94 9b 9c 42 9f 13 27 43 6c 4c 4d 42
       180.4961 78.30386 167.07664 51.32463
0003a0 57 9e 7c 42 f8 67 83 42 bb 95 81 42 8d 60 85 42
       63.15463 65.703064 64.79244 66.688576
0003b0 90 5d bb 42 61 d5 24 42 aa 47 9d 42 a3 a8 09 43
       93.68274 41.208378 78.63997 137.65874
0003c0 eb 69 87 42 54 8c 28 43 2f a8 c6 42 f2 97 40 42
       67.70687 168.54816 99.32848 48.148384
0003d0 16 85 fd 42 aa 96 ae 42 57 bd dc 42 9a 8e 2e 43
       126.75993 87.294266 110.369804 174.55704
0003e0 de 8d 3f 43 07 49 0d 43 28 73 fe 42 b0 6d 3a 42
       191.55417 141.28526 127.224915 46.607117
0003f0 d1 bc b1 42 a6 18 c2 42 6f 66 2f 42 06 7a e3 42
       88.86878 97.04814 43.850033 113.73833

L2.weight f4 [128, 256]
000000 c7 cf b4 3c bf 6b 03 bd ea 2c 28 3c 05 6a ba 3b
       0.022071732 -0.032085177 0.010264615 0.005688908
000010 d6 f7 93 bc a3 4f 3f 3d 94 51 96 bb b6 f2 cd 3c
       -0.018062513 0.046706807 -0.0045873616 0.025140148
000020 03 fa 21 bd da 50 4e bc 7b d0 3b bd f3 f1 7a bd
       -0.03954507 -0.012592519 -0.04585312 -0.061265897
000030 fa df 31 3d 79 60 52 3d 7c 90 c6 3c e3 b8 ad 3c
       0.04342649 0.051361535 0.024238817 0.021206325
000040 15 07 1e 3d 31 9a 87 ba b2 6a f6 3c b1 00 27 3c
       0.038580973 -0.0010345635 0.030080173 0.010193036
000050 46 3a 87 3c 69 fb ff bb 45 56 64 3b 13 bc 1d 3d
       0.01650728 -0.007811953 0.003484146 0.03850944
000060 f6 59 8c 3c 72 ad 6e bb 54 1b 62 3d c8 8a 1e bd
       0.01713274 -0.00364193 0.055201843 -0.03870657
000070 ee 39 1e bd 20 1b 06 bd db 4f 43 bc 0f 84 98 3c
       -0.038629465 -0.032740712 -0.0119208945 0.018617658
000080 05 b1 22 3d 1d 7c 24 3d 59 b5 cb bb dd 57 7a 3d
       0.0397196 0.040157426 -0.0062166867 0.06111895
000090 75 27 48 3d dd f8 23 3c d2 06 8e 3c 9f 0b 88 bc
       0.048865754 0.010008064 0.017337237 -0.016607104
0000a0 9a 20 8c 3d 2e 60 a5 ba f6 22 a9 3b 96 ae 8e 3c
       0.06842156 -0.0012617165 0.0051616384 0.017417233
0000b0 4a 61 0d bc 6a 0d 94 3c f4 f4 68 bd f6 6e 54 3a
       -0.008629153 0.018072803 -0.05687423 0.00081036927
0000c0 55 89 01 3d 62 fd 03 bd ad 6d 73 3a 9a 75 10 bd
       0.03162511 -0.032224067 0.00092860573 -0.035268404
0000d0 f7 47 7a bd c8 bf 44 3d 10 e3 05 3d e6 ce 90 3d
       -0.061103787 0.04803446 0.032687247 0.07070713
0000e0 50 cd 21 3c 57 4e 5c bc e9 d2 4d 3d ef 8e 00 3d
       0.0098756105 -0.013446412 0.050249968 0.031386312
0000f0 90 af 2c 3c 92 47 2a bd 12 e9 82 3d 8f 89 06 3d
       0.010539904 -0.04157216 0.06392111 0.03284603
000100 c2 6f 8c 3c 38 2d 92 3d 3b 8e 15 3d 7c 4f 4b 3d
       0.017143134 0.07137531 0.036512595 0.04963635
000110 9e e9 45 bd 10 47 ba 3d 88 31 21 bd 24 68 04 3d
       -0.048318498 0.09095585 -0.039353877 0.03232588
000120 1f 68 74 bd 1e 48 29 bd 6a 08 29 3b 26 32 c3 bc
       -0.05966961 -0.041328542 0.0025792369 -0.023827624
000130 c3 57 8a 3d 61 74 8e 3d 59 7c 78 bc f7 c6 72 bd
       0.067550205 0.06955791 -0.015166366 -0.05927178
000140 97 67 3f 3d 93 1d e5 bc a3 6c 4b 3d 5c d8 51 bc
       0.04672965 -0.027968204 0.04966415 -0.012807932
000150 9b 55 ea 3b 60 c1 f6 3c 83 00 df bb ff 9e 3b 3c
       0.0071513182 0.030121505 -0.006805481 0.011451482
000160 a9 68 28 bc cc 99 49 3d 63 62 84 3c 63 3b 63 bd
       -0.010278859 0.049218938 0.016160196 -0.055476557
000170 5d 6c c3 bc 66 86 63 bd 04 19 3d 3d d8 4a b6 3c
       -0.023855383 -0.055548094 0.046166435 0.022252485
000180 e3 7f 11 3c e2 9e 28 3c 21 96 0e bd 72 f1 77 bc
       0.008880588 0.010291787 -0.034811143 -0.015133249
000190 58 f8 67 3d 26 23 4b bd d8 9f 5f bd e4 64 83 3d
       0.056633323 -0.049594067 -0.0545958 0.06415728
0001a0 6c 44 cd bb 4e 67 7e 3d 04 12 0c 3c 6e 7e 9f 3c
       -0.00626426 0.062110238 0.008549217 0.019469466
0001b0 26 ef a9 3c dd da 63 bd 56 01 84 3d 93 78 6e 3d
       0.020743918 -0.055628646 0.06445567 0.058220457
0001c0 4e 67 1f 3c 83 58 37 bd 6e 39 87 bd 83 f7 82 bd
       0.00972922 -0.044762146 -0.06602751 -0.06394865
0001d0 35 05 6f 3d 02 27 5f bd a1 b7 95 bb cd d7 95 3c
       0.058354575 -0.05448056 -0.0045690094 0.018291378
0001e0 b8 59 0f bd b1 27 42 bd 63 19 64 3d 2e 2f fb 3c
       -0.03499767 -0.047401134 0.055688273 0.030662145
0001f0 22 65 5d bd eb 3e d7 3c 8c 19 0a 3d 69 22 b4 bb
       -0.054051526 0.026275119 0.03371577 -0.005497266
000200 8e f2 20 bd 09 e4 0e 3d e2 e9 bf bb 35 74 0b bd
       -0.03929382 0.03488544 -0.0058567384 -0.03404637
000210 ca 9e 05 3c a4 71 86 bc 24 92 e5 3c 81 0b c9 bc
       0.008155534 -0.01641161 0.028023787 -0.024541618
000220 bb 81 9b bc b1 45 af ba b9 0c 42 3d 03 3b fe 3c
       -0.018982759 -0.001337221 0.047375415 0.031033998
000230 b2 9b 8d 3b 4b bc 27 bd ce cf d0 3c e5 31 35 bd
       0.004321539 -0.040951055 0.025489714 -0.044237036
000240 f2 4c 5d bd b0 3f 30 3c f3 b2 9f bc d1 b2 34 3d
       -0.05402846 0.010757372 -0.01949451 0.044115845
000250 ee 76 a4 3b b2 40 ec 3a 0a 16 12 bb 42 ef 18 bd
       0.0050190603 0.0018024652 -0.0022290968 -0.03733755
000260 6d e3 f5 bc 94 4d 5f 3d ee bf 65 bc 37 ab 0c bd
       -0.030015672 0.054517344 -0.01402281 -0.03434297
000270 e9 8f 40 3d c6 f2 f9 3b 6e af b1 bb 78 2f bc 3c
       0.047012243 0.007627818 -0.005422524 0.022971854
000280 27 32 ac bb 39 48 42 bc c5 77 de 3c 7e 96 39 3c
       -0.005255002 -0.01185804 0.02715672 0.011327384
000290 1f 2f 40 3d ce ec 76 bc d2 fd 13 3d d9 16 1c 3c
       0.04691994 -0.015071107 0.036130734 0.009526932
0002a0 9c a1 13 bd 87 66 dc 3c d4 44 f7 3c 71 6c 0a bb
       -0.036042795 0.026904358 0.030184187 -0.0021121765
0002b0 69 a2 e3 3c ba 1d 60 3b 75 db 53 bd 38 84 44 bd
       0.027787404 0.0034197406 -0.051722962 -0.047977656
0002c0 09 3c b6 3c 69 25 17 3d 07 64 68 bd 2a cf 5b bd
       0.022245424 0.03690091 -0.05673602 -0.053664364
0002d0 83 fb c7 3c 3e a1 0b bd b9 7f b3 bc fb 81 90 bc
       0.024411922 -0.03408932 -0.021911489 -0.017640105
0002e0 3c 31 82 3d 38 8a c1 bb ff 39 5e 3d 39 e6 b8 bc
       0.06357047 -0.0059063695 0.054254528 -0.022570716
0002f0 de db 7e bd f2 25 92 3d 32 57 68 bc 0f c9 48 bc
       -0.0622214 0.07136144 -0.014180945 -0.012254967
000300 6c e5 26 bd 7d 42 40 3d 3b fe 49 bb 6a 5c 90 3d
       -0.040746137 0.04693841 -0.00308217 0.070488766
000310 4c 4c de 3c 61 53 4a bd af 91 b4 bb 29 55 8a 3d
       0.02713599 -0.049395923 -0.005510531 0.06754524
000320 ee 44 2a 3c 76 18 49 bc e0 a7 52 39 1c 2d 50 bd
       0.010392411 -0.012273898 0.00020089699 -0.05082427
000330 24 3f 0a 3b dc 59 b7 bc 1d b4 13 bc a7 90 28 bd
       0.0021094764 -0.022381715 -0.00901511 -0.041153576
000340 bc 35 07 bd cc 3b 3f bd d2 b7 d7 3c d6 1e 6a 3d
       -0.03301023 -0.046687886 0.02633277 0.057158314
000350 86 b4 34 3c 01 45 4e 3d 5b 8d 9f 3c 60 a6 37 3d
       0.011029368 0.050358776 0.019476583 0.044836402
000360 f0 5d 84 3d 06 c9 a0 bc a7 bc 68 3d c8 4c 44 3c
       0.0646323 -0.019627105 0.056820538 0.011981197
000370 eb b7 24 3d 8b e4 cb bc 53 95 34 bd 6b 35 58 bc
       0.04021446 -0.024889251 -0.04408772 -0.01319633
000380 13 56 12 bc 24 ed a5 3c 03 4c c7 3b e2 05 12 3d
       -0.0089316545 0.020254679 0.0060820593 0.03565014
000390 61 c0 99 3d 20 2c 40 3d d0 dd e0 bc c8 b9 fc bc
       0.075073965 0.04691708 -0.027449518 -0.030850306
0003a0 fd 7b e8 bb 28 fa fc bb f8 fa a9 3c 32 b6 6c 3d
       -0.0070948587 -0.0077202506 0.020749554 0.057790942
0003b0 eb 98 f3 3b 8e 8d 03 bd b7 47 2a bd 79 ab 6e 3d
       0.0074340007 -0.03211742 -0.0415723 0.058268998
0003c0 88 d5 65 3d c0 2d 54 3c 1c 96 80 bd 11 f1 09 3d
       0.056111842 0.012950361 -0.06278631 0.033677164
0003d0 21 15 bf bb c9 24 62 bd 5a 90 a4 3c f3 20 77 3c
       -0.005831376 -0.055210862 0.020088363 0.015083539
0003e0 b7 0b 2e 3d ee 0d 88 3c 57 04 85 bc 4d 51 6a 3d
       0.04249164 0.016608205 -0.016237421 0.05720644
0003f0 d7 f5 86 bd aa 87 90 3d c2 0b 00 bc f9 e8 50 3d
       -0.06589859 0.07057126 -0.007815303 0.05100343
