Trained_Models/BotDetection_v4_MLP___May-10-2024/BotDetection_v4_MLP_epoch93_val_loss_0.482327.pth (torch, 965699 bytes, 45 tensors)

L1.weight f4 [256, 133]
000000 36 c7 01 3c 8c d8 6d 3d c8 57 ae 3d d8 69 43 be
       0.007921031 0.058067843 0.08512837 -0.19083345
000010 dc 5b c8 3c f5 09 2e 3d a9 5b 4a 3e fb 78 0a bd
       0.024457864 0.042489965 0.19761528 -0.033806782
000020 0d 52 38 3c 64 ae 50 3d 23 13 9f bd bc 96 c1 3c
       0.011250031 0.05094756 -0.07767322 0.023631446
000030 b3 16 55 bd 2e 6b 63 bd 26 86 06 be c7 3b c0 3d
       -0.0520236 -0.055522136 -0.13137111 0.093864016
000040 01 3f 9f bc 93 dc 34 bd 3e 98 0b bb cf 83 53 bd
       -0.019439222 -0.04415567 -0.002130046 -0.051639374
000050 56 06 ec bc be 99 41 bc 23 3d 49 bd 1c 70 1d bd
       -0.028811615 -0.01181644 -0.04913057 -0.038436994
000060 e0 e5 91 3d 55 0d e0 bd ff 0f f7 3c af d7 e2 bd
       0.07123923 -0.10940043 0.030158995 -0.11076295
000070 04 6f ca 3c 7e 61 e7 3d 0e 1a 75 b8 07 0f 1c bd
       0.02471114 0.11297892 -5.8436817e-05 -0.03810027
000080 55 8b b6 bd 76 e5 a8 bc f1 84 5d bd 2c 38 a4 3d
       -0.08913294 -0.020617228 -0.05408186 0.080185264
000090 ef ef db 3d 78 39 8d 3d 4c 4f ab bd 9f d0 87 bd
       0.10739123 0.06895727 -0.08364734 -0.06631588
0000a0 48 ce 54 3e a1 20 54 bc e1 71 18 bd 01 55 ab bb
       0.20781815 -0.012947232 -0.03721798 -0.005228639
0000b0 2f 44 bd bc 64 0b b8 3d 19 9f bc 3b f8 a1 8f 3d
       -0.023103802 0.089865476 0.0057562706 0.07013315
0000c0 de 5f 0f bd 88 6a a1 3d 1d a2 3b 3d 55 17 0a 3c
       -0.035003535 0.07881647 0.0458089 0.008428414
0000d0 8b fe 7f 3d a3 26 d5 3d 40 2a ec bc 4c 6f 0e 3a
       0.06249861 0.1040776 -0.02882874 0.00054334546
0000e0 c9 14 36 bd 36 79 57 3d 0c 44 4e be 86 0b 18 bd
       -0.044453416 0.05260583 -0.20143145 -0.037120365
0000f0 6e 33 38 be 51 5b 50 3c 4a 9c 2e be 72 f5 5b bd
       -0.17988369 0.012717084 -0.17051807 -0.05370087
000100 4e ac 14 3e ca 85 fc bd 62 ec a3 bd 13 45 0b 3e
       0.14518854 -0.12330206 -0.08004071 0.13600568
000110 de 4a b4 bc 63 6b 57 bd 48 e9 63 3d eb 51 e3 3d
       -0.022008356 -0.052592646 0.055642396 0.11099609
000120 78 9a ca 3d f9 c7 88 3d 16 fd 4d bd 04 59 db bc
       0.09892744 0.06678767 -0.05029019 -0.026775844
000130 1e 00 9f bd 9f 6b 9f 3b 5f ad 84 bc b8 00 b9 3c
       -0.07763694 0.0048651244 -0.016195951 0.02258335
000140 67 9d 0c bc 03 84 1b bd a8 1d 9a bd e8 c1 04 bd
       -0.0085824495 -0.037967693 -0.07525188 -0.032411486
000150 d0 f2 7e 3d f2 36 5a bd 41 c0 3e be 7e c7 db bd
       0.062243283 -0.053275056 -0.18628027 -0.107314095
000160 fb b5 14 3d ac 67 f7 bc ed 6c 91 3c ad 1a 28 3e
       0.036306363 -0.030200802 0.017752135 0.16416426
000170 b9 46 c8 bd 24 02 48 bb fe a2 09 bd 94 ef 4e 3d
       -0.09779114 -0.0030518854 -0.033602707 0.05052145
000180 ed a4 12 3d f0 fa b1 bd 08 56 2a bd 06 f4 9e 3c
       0.035801817 -0.08690441 -0.041585952 0.019403469
000190 45 73 04 3d 73 ff f5 bd f7 c3 05 3e a9 dc 2d be
       0.032336492 -0.12011614 0.13063036 -0.16978706
0001a0 33 80 7c bd 24 1c 9a 3d c1 e8 88 3d 59 58 2e bd
       -0.061645698 0.07524899 0.06685019 -0.042564724
0001b0 eb d6 31 bd dd 01 81 bd cf 8a 3f 3d fd 84 d7 bd
       -0.043417852 -0.062991835 0.046763238 -0.105234124
0001c0 4d 98 40 bd 53 6d aa bc c6 2e a3 3c e6 b9 9f bc
       -0.047020245 -0.020804083 0.019919764 -0.019497823
0001d0 28 47 b0 3c ce 12 d3 3d a1 3f 99 3d a8 f0 ab 3d
       0.021518305 0.10306321 0.074828394 0.08395511
0001e0 10 5e c7 bd 56 ea 4d 3d 9c 77 0b 3c 9e a4 55 3e
       -0.09734738 0.05027231 0.008512404 0.20863578
0001f0 9e a3 03 be e7 17 22 bc 13 b0 2d 3d c5 36 9e 3d
       -0.12855384 -0.009893394 0.042404246 0.0772529
000200 54 2b 98 bd d2 5d 49 3c 49 5e 84 3d 3b 77 34 3d
       -0.07430139 0.012290435 0.06463296 0.04405902
000210 a9 3a 5b bd 3f a9 ad 3b a9 99 24 3d 78 c4 78 bc
       -0.05352274 0.0052997167 0.040185604 -0.015183561
000220 ec 47 c3 3d d6 a2 17 bd 1c 75 9a 3d dd 74 99 bd
       0.095352024 -0.037020527 0.07541868 -0.07492993
000230 0f 50 0a bd 8b 9c 5b 3d 67 08 2e bd cf 41 55 3c
       -0.033767756 0.053616088 -0.04248848 0.013016178
000240 de d7 d0 bb 36 2b 6f bd c6 f8 84 3d 59 e9 9c 3d
       -0.0063733896 -0.05839082 0.06492762 0.07661695
000250 3f 48 5c 3c f6 dc 92 bd c4 ab 02 bc 15 6c 93 bc
       0.013444959 -0.07171051 -0.007975522 -0.017995873
000260 7f b3 50 3d 8a c4 d9 bc 03 8e b0 39 58 2c 84 bd
       0.05095243 -0.026582975 0.00033675143 -0.064537704
000270 52 d5 e6 bd 93 5c d2 bd 24 03 0f bd 5e c2 98 bd
       -0.11271156 -0.102715634 -0.034915105 -0.074589476
000280 d8 1e 61 bc 75 47 a0 bd 4d 1a 5e 3d ef 30 4a bc
       -0.013740264 -0.07826129 0.0542243 -0.012340768
000290 06 52 e3 bc 6a d5 8e 3d 7b 84 85 3d 3d 5f 66 bd
       -0.027749073 0.06974299 0.06519409 -0.05624317
0002a0 f2 5b b0 bc 9d 1b fa 3d e9 8c 86 3d 1e 69 1c 3e
       -0.021528218 0.12212298 0.06569845 0.15274474
0002b0 33 dd a0 3d d4 8d 6b 3d d7 c6 13 bd 48 e8 a6 3c
       0.078546904 0.057508305 -0.0360783 0.020374432
0002c0 f3 0c bc 3c 3d a7 17 3e 84 e2 19 bd d8 7b be 3c
       0.022955393 0.1480989 -0.037569538 0.023252413
0002d0 b1 c9 5f 3d 2e 6b 7a 3d 72 55 ed 3c d6 a1 ae bd
       0.054635707 0.06113737 0.028971408 -0.085269615
0002e0 07 b1 8f bd 67 41 8b 3d c1 28 18 3e e1 14 8a bd
       -0.07016187 0.06799584 0.14859296 -0.067422636
0002f0 0e 07 80 bd 22 6e 00 bb b1 c8 8c 3d df 1e b2 3d
       -0.062513456 -0.0019596894 0.06874216 0.086972944
000300 f3 1b ae bd 60 bf b1 3d 64 96 71 3d 82 8f 8d 3c
       -0.08501425 0.0867908 0.058981314 0.017280344
000310 b9 57 dc bd b1 09 f6 3b d9 ea 15 3d af 5c 67 bd
       -0.10758919 0.0075084795 0.03660092 -0.056484874
000320 c0 ea 8a bc 58 94 81 bc 66 62 d6 bc ff 6a a2 bc
       -0.01695764 -0.015817806 -0.026169967 -0.01982641
000330 63 6c f1 3d aa 64 cd 3c cf c8 1e bd 3c 42 5f bc
       0.11788251 0.025072414 -0.038765725 -0.013626631
000340 40 7b d7 3b 97 65 aa 3d db 3a 51 bd 68 eb 24 bc
       0.006575972 0.08320158 -0.05108152 -0.010065891
000350 71 72 cc bc 71 d8 32 bd e7 e4 be bb d0 bf d0 bd
       -0.024956914 -0.043663446 -0.005825627 -0.10192835
000360 9b 69 c7 bd 73 5e b0 3d ca 83 0e bd b7 e9 6e 3d
       -0.097369395 0.08611765 -0.034793653 0.058328357
000370 ec 8f 5a bd 12 8a 6e 3c f0 2d 39 be 35 80 fe 3d
       -0.05335991 0.014559286 -0.1808393 0.12426797
000380 7c 1e 34 be 46 4e 5e bd 93 df fc bd 94 2f 48 3d
       -0.17589754 -0.054273866 -0.12347331 0.0488735
000390 11 67 3e 3b ab 55 e9 bc 64 6e 72 bd 72 15 76 bd
       0.0029053132 -0.028483232 -0.059187308 -0.060079046
0003a0 05 88 35 3d 0c cf 1d 3e 8a 11 59 3c a0 e5 4f 3d
       0.04431917 0.15411013 0.013248811 0.050756097
0003b0 aa 8a 9c bc f9 5b 13 3d 63 f6 c1 3d e6 1b 4d 3d
       -0.019109089 0.035976384 0.09470823 0.050075434
0003c0 4d 80 ec bd 50 11 ef 3b ce d2 88 3b af 46 02 bd
       -0.11547909 0.007295765 0.0041755205 -0.03180569
0003d0 4e bf 66 bd ce 71 3d 3d 05 f4 89 bd 69 c5 c4 3c
       -0.056334786 0.04625111 -0.06735996 0.024019914
0003e0 3c a6 6c 3c 7c 5f 4b 3d 1e 0f a5 3d 80 69 b8 3d
       0.01444393 0.049651608 0.08059524 0.090044975
0003f0 d4 27 45 bd cc d8 22 be c9 ca a6 bd ab 7e a4 bd
       -0.048133686 -0.15903014 -0.08144147 -0.080319725

L1.bias f4 [256]
000000 4a e2 a6 bd 2a 58 97 bc 72 13 7b 3d 9d 7e 8a bc
       -0.0814863 -0.018474657 0.06129784 -0.016906077
000010 c0 33 b2 bc 16 e4 79 bd 27 da 05 3d ca cc 2a 3d
       -0.021753192 -0.061008535 0.03267875 0.04169921
000020 c3 cc 56 bd 34 af 9d bd 7b 74 bd bc 52 03 78 3d
       -0.05244137 -0.07699433 -0.023126831 0.06055004
000030 91 db 83 bd d8 9b 12 bd 69 3f ae bd d2 09 21 bc
       -0.06438363 -0.035793155 -0.08508188 -0.0098290015
000040 d2 3d 97 3c 40 44 10 3d 29 3f 29 bd b1 9f a9 3d
       0.018462095 0.03522134 -0.04132 0.08282412
000050 6e 5f ef 3b 53 70 7d bd 99 ab 8e 3c 7b af 02 3d
       0.0073050773 -0.0618747 0.017415809 0.031905632
000060 77 c3 64 3d 88 bf 7b 3d 72 3b b5 bc b9 8b 8e bc
       0.055850472 0.061461955 -0.022123072 -0.01740061
000070 2c 7e 33 bd ce e8 10 3d d8 84 87 bd 1f f4 bd bc
       -0.0438215 0.03537827 -0.06617135 -0.023187695
000080 82 54 65 bc ad 5b 91 bd cd 55 09 3d d8 8b a1 3c
       -0.013997199 -0.07097564 0.03352909 0.019720003
000090 28 fa 96 3d ac ba 5b bd 0a d0 9f 3d e6 a9 15 3d
       0.07371932 -0.05364482 0.07803352 0.03653898
0000a0 51 26 da bc 2a 4e 87 bd 71 aa a7 bd d5 f3 01 3d
       -0.026629599 -0.066067055 -0.08186806 0.031726677
0000b0 32 f0 2c bd 3a 33 cd bc e8 8d 0a bd 54 4d 85 bc
       -0.042221256 -0.02504884 -0.03382674 -0.016272224
0000c0 60 b7 f2 3b 47 84 98 3d e4 ad 67 3d 2f fa 83 3d
       0.007407114 0.07447105 0.05656232 0.06444203
0000d0 7f 0d 9c 3b 72 50 db bc 9b 27 23 bd 02 f3 4c 3d
       0.004762351 -0.026771758 -0.039832693 0.050036438
0000e0 b9 01 f0 bb 12 2b 0b 3d c0 e2 9e bd 2c 8c 31 3d
       -0.007324424 0.033976622 -0.07758093 0.04334657
0000f0 2a a6 39 bd b1 8b 19 bc 7d b0 8e 3d 23 4d 58 3d
       -0.045324482 -0.009371684 0.06967256 0.05280794
000100 1e 7c 4d bd 34 89 92 3d 73 b9 8f bd 88 3a 22 3d
       -0.050167195 0.07155076 -0.070177935 0.0396066
000110 b5 f8 62 3c c9 6a a3 3d 09 3a 0e 3c 72 9e 99 bc
       0.013853242 0.07979352 0.008680829 -0.01875231
000120 b4 23 97 3d f9 a3 51 bd 35 cd 75 3d 84 b1 05 bd
       0.07379857 -0.051181767 0.060010154 -0.032639995
000130 91 b5 3f bc 7d 21 19 bd c0 8e 68 3d 49 da 5e bd
       -0.011701004 -0.037385453 0.056776762 -0.05440739
000140 db c8 c8 bc 3c 9f c5 3b 85 a1 9d 3d 60 ff 41 bc
       -0.024509838 0.006030945 0.07696823 -0.011840671
000150 05 02 18 bd d0 de 22 bc 3a 56 a0 3c e8 90 1c bd
       -0.0371113 -0.009940818 0.019572366 -0.03822413
000160 85 96 b0 3d e9 c0 0f 3d db 07 fc bc ab d1 4f 3d
       0.08622459 0.035096083 -0.030765465 0.050737064
000170 26 03 ce bc 7b 8e 9b 3c 44 bc 78 bc e8 56 8a bd
       -0.025147986 0.018988838 -0.015181605 -0.06754857
000180 17 1b 94 bd 7f 9c 9a bd ff 6c 45 bd 10 98 ae bb
       -0.072317295 -0.075493805 -0.04819965 -0.005328186
000190 21 e7 38 3c 35 8d 6b 3c 47 19 20 3d 72 bf b3 3b
       0.011285574 0.014376928 0.039086606 0.0054854685
0001a0 33 cf ac 3d 0a 9f a6 bc 2e 43 95 3c 74 23 92 3c
       0.084379576 -0.020339508 0.01822051 0.017839171
0001b0 d8 b1 2e 3d 0a b4 8d 3d 9c 12 05 3d e3 cc 30 3d
       0.042650074 0.06919105 0.03248845 0.043164145
0001c0 a3 43 9d 3d f1 52 2b 3d e9 44 a1 3d 6b 36 34 3d
       0.07678916 0.041827146 0.07874472 0.04399721
0001d0 9f 59 2b 3d dd 7f 31 bc 57 b6 5c bd 4f 7a 9d 3d
       0.041833516 -0.010833708 -0.05388483 0.07689344
0001e0 3b ea 36 3d a3 3a d4 3c 4c 55 10 3d 4d 23 c4 bc
       0.044656973 0.025906866 0.035237595 -0.023942614
0001f0 4c f4 27 bc 78 aa 8d 3d 24 76 ba 3c ae b5 ab bd
       -0.010251116 0.0691728 0.022761412 -0.08384262
000200 f2 98 8f 3d 48 ec d2 3c 0b d1 2d bd fa ce 1e bd
       0.07011594 0.025747433 -0.042435687 -0.038771607
000210 6a 3a 84 bd 53 d2 a5 3d 14 c5 26 bd 2c 50 1f bd
       -0.06456454 0.08096757 -0.040715292 -0.038894817
000220 e6 9c e3 3c d8 f0 0d bd f2 83 3a 3d 6f 12 f9 bc
       0.027784776 -0.034653515 0.04553599 -0.030404298
000230 54 2a a8 bc 2e b4 db bc cf a6 a1 3b 67 15 32 3d
       -0.020527996 -0.026819315 0.004933215 0.043477442
000240 0d 9a 5e bc c4 62 8b 3d 84 81 af bd af bf 87 bd
       -0.013586533 0.068059474 -0.08569625 -0.066283576
000250 4c e7 c7 3c 8a a5 d5 bb a6 7f 56 bc f5 b8 cb 3c
       0.024402283 -0.006519978 -0.013091957 0.024868468
000260 b0 2a 91 bd a4 c3 16 bc b1 c9 7c bd 3e 17 9e 3d
       -0.0708822 -0.009201918 -0.061715785 0.07719277
000270 cc b3 9a 3c a3 99 53 3d 87 df 63 bd c0 e6 a9 bc
       0.018884562 0.05166019 -0.055633094 -0.020739913
000280 08 70 3e 3d 2f f3 95 3d bf 37 94 bd 8d 70 c0 bc
       0.04649356 0.07321774 -0.07237195 -0.023491168
000290 ff 2f 80 bc dc 64 a4 3d ab 02 5c bd 09 1e 03 3d
       -0.015647886 0.0802705 -0.053713482 0.032011066
0002a0 63 f8 81 3d df 49 86 bd d6 10 a7 3d 50 52 ae bd
       0.06346204 -0.065570585 0.08157508 -0.085117936
0002b0 2a 27 82 bd b0 aa cd bc 1e 45 8d 3b b7 e1 4b 3b
       -0.06355126 -0.025105804 0.004311218 0.0031109878
0002c0 71 17 84 3d 2a af 98 3d 7d 7f c0 bc 12 87 a4 3c
       0.064497836 0.07455285 -0.023498291 0.020083938
0002d0 0b e9 f8 bc 1d 72 ca 3c 71 68 dd ba e1 a4 25 3d
       -0.030384561 0.024712617 -0.0016892088 0.040440444
0002e0 69 3e bc 3a c6 5a dc bc cf c3 17 3d be 25 80 3d
       0.0014361861 -0.026898753 0.037051972 0.06257199
0002f0 a9 65 25 bd 4d ec bc 3c 3e 2b 1f 39 3f ea cc bc
       -0.040380154 0.023061896 0.0001517953 -0.025014041
000300 c8 4d 17 3d d6 3e 4a 3d c1 6d 1f 3d fd ca 96 bd
       0.036939412 0.04937633 0.03892303 -0.07362936
000310 f0 6a 00 bd 18 c3 92 3d b9 1b 4b 3d 3f bc 47 3d
       -0.031351984 0.071661174 0.049586985 0.04876351
000320 7b 74 57 bd 17 91 fe 3c 9a 08 33 bc 59 70 09 bd
       -0.05260132 0.031075044 -0.010927344 -0.03355441
000330 3b 07 53 3d b1 88 aa 3d 13 bf 1e 3d d4 d7 81 3d
       0.051520567 0.08326853 0.03875644 0.06339994
000340 c9 f9 4a bd aa 84 2e 3d 33 ef a3 bd 10 fa aa bc
       -0.04955462 0.042606987 -0.08004608 -0.020871192
000350 68 1e aa bc 35 dc 91 bd 43 1b de bc 60 09 86 3d
       -0.020766452 -0.07122079 -0.027112609 0.06544757
000360 f1 1f 2e bd 7a 1a 99 3d b1 dc 30 3d 80 e4 0e bd
       -0.04251093 0.07475753 0.043179218 -0.034885883
000370 87 1b 47 3d 47 11 a5 bd 1d 8c 14 3d a3 34 29 bd
       0.048610236 -0.08059936 0.036266435 -0.041309964
000380 05 f2 8b bd 13 c6 ae 3d 95 33 5c bb 73 65 5a bd
       -0.06833271 0.085338734 -0.0033600081 -0.053319406
000390 08 70 af 3d 18 e9 b0 3c 19 9e 56 bc ec e9 05 bd
       0.0856629 0.021595523 -0.013099217 -0.03269379
0003a0 fa 7a 9f 3d 17 1c 45 3d cf 30 a0 3d a8 56 01 3d
       0.07787128 0.04812249 0.078218095 0.031576782
0003b0 d1 e0 8b 3d 84 ba 62 ba ad 8f 9e 3c 1c e8 b2 3c
       0.0682999 -0.0008649009 0.01935562 0.021839194
0003c0 ab c5 a7 3d 83 05 85 3d 96 80 54 3d 26 01 ab bd
       0.08191999 0.06495192 0.05188044 -0.083498284
0003d0 13 ee 81 3d ff d5 41 3d 8f 9d 9d bc 76 5f 82 3c
       0.06344237 0.047323223 -0.019240169 0.01591466
0003e0 be 63 ae bd 0a 1c 46 bd 27 05 89 3d d2 93 a3 bd
       -0.08515118 -0.048366584 0.06690436 -0.07987179
0003f0 99 08 0a 3a d1 b8 7b 3c 5c 03 85 bb 87 37 4f bd
       0.00052655634 0.015363888 -0.0040592384 -0.050590064

BN1.weight f4 [256]
000000 02 eb 7e 3f 71 0c 80 3f 39 20 7b 3f f2 4a 77 3f
       0.99577343 1.0003797 0.9809604 0.9659873
000010 a1 02 7d 3f 3d 84 81 3f 8b 55 82 3f 69 bc 7e 3f
       0.98832136 1.0118481 1.0182356 0.9950624
000020 9b af 7f 3f 3d 7e 82 3f cd 15 7c 3f 5e fa 7b 3f
       0.9987733 1.0194775 0.98470765 0.98428905
000030 e5 83 7f 3f 94 cc 81 3f d0 ba 85 3f 43 3d 80 3f
       0.9981063 1.0140557 1.0447636 1.0018696
000040 73 04 82 3f 2d c2 80 3f 84 71 7f 3f c5 e6 80 3f
       1.0157608 1.0059258 0.99782586 1.0070425
000050 fd e7 7b 3f 1a 3e 7e 3f 97 c8 87 3f d8 bf 81 3f
       0.9840086 0.9931351 1.060809 1.0136671
000060 d6 48 82 3f f0 36 82 3f 53 4a 85 3f 28 fc 80 3f
       1.0178478 1.0173016 1.0413307 1.0076952
000070 9d bb 83 3f 47 ca 84 3f 97 63 85 3f cb fe 7f 3f
       1.029163 1.037423 1.0421017 0.9999816
000080 82 6a 83 3f 8f 5a 7e 3f c4 23 7e 3f 4e 5a 82 3f
       1.0266879 0.9935693 0.99273324 1.0183809
000090 d2 01 86 3f f7 bd 82 3f a6 bf 7f 3f af 6c 82 3f
       1.0469306 1.0214223 0.9990181 1.0189418
0000a0 68 8b 81 3f 87 63 84 3f 3a 9c 81 3f ae 44 85 3f
       1.0120668 1.0342873 1.0125802 1.0411584
0000b0 26 b5 7f 3f 64 05 82 3f 48 27 80 3f 99 1e 7d 3f
       0.99885786 1.0157895 1.0011988 0.98874813
0000c0 5d b8 86 3f f4 6a 80 3f c0 02 7b 3f e4 51 7e 3f
       1.0525013 1.003264 0.9805107 0.99343705
0000d0 c4 ee 7c 3f 43 73 82 3f 0e 8e 7e 3f 5a 48 7f 3f
       0.9880183 1.0191425 0.9943551 0.99719775
0000e0 b0 c0 80 3f 39 b3 81 3f c7 66 80 3f b3 50 86 3f
       1.0058804 1.013282 1.0031365 1.0493377
0000f0 b0 55 7e 3f 1e 85 81 3f 03 35 85 3f 7c 8c 84 3f
       0.993495 1.0118749 1.0406803 1.0355372
000100 aa 92 78 3f 0b 5d 81 3f 85 80 7c 3f 39 fa 82 3f
       0.9709879 1.010652 0.98633605 1.0232612
000110 9f 83 7f 3f f3 30 8c 3f 7a 05 7f 3f 75 39 79 3f
       0.9981021 1.0952438 0.9961773 0.973533
000120 d6 56 84 3f 22 c8 83 3f 17 1e 81 3f a8 64 80 3f
       1.0339 1.0295451 1.0087308 1.0030718
000130 be 3e 81 3f 61 f2 84 3f 48 ad 82 3f 01 b5 82 3f
       1.0097272 1.0386468 1.0209131 1.0211488
000140 6d 87 82 3f a9 d1 7d 3f 2d 5e 80 3f 63 fa 7c 3f
       1.0197579 0.9914804 1.002874 0.9881956
000150 8f e2 80 3f 73 ac 80 3f f8 8f 81 3f e2 7a 84 3f
       1.006914 1.0052627 1.0122061 1.0350001
000160 3a 23 84 3f e7 65 80 3f 92 66 82 3f 02 a0 84 3f
       1.032325 1.0031098 1.0187552 1.036133
000170 30 ad 81 3f 75 5c 80 3f 5f 76 83 3f a1 52 83 3f
       1.0130978 1.0028216 1.0270499 1.0259591
000180 16 33 81 3f 77 86 82 3f 61 84 80 3f 28 72 84 3f
       1.0093715 1.0197285 1.0040399 1.0347338
000190 ec 27 7f 3f 4f 1f 7f 3f ea 21 81 3f ef f8 82 3f
       0.9967029 0.9965715 1.0088475 1.0232219
0001a0 fb e6 82 3f ed 09 84 3f 92 76 80 3f 62 9d 84 3f
       1.022674 1.0315529 1.0036185 1.036053
0001b0 0c 07 83 3f 9e de 83 3f 04 22 82 3f b8 bc 84 3f
       1.0236526 1.0302312 1.0166631 1.0370092
0001c0 5b 9e 7c 3f d5 a3 82 3f cb 1f 85 3f 23 e0 85 3f
       0.9867913 1.0206248 1.0400327 1.0459026
0001d0 5a 3d 86 3f 7f 89 7c 3f 69 7a 7e 3f fd 43 7f 3f
       1.0487473 0.986473 0.99405533 0.99713117
0001e0 3f 24 7e 3f d8 1d 7b 3f 97 17 83 3f 50 ce 7b 3f
       0.9927406 0.9809241 1.0241574 0.9836168
0001f0 56 a9 80 3f 6e b4 80 3f b8 3f 83 3f 1e 89 83 3f
       1.0051677 1.0055063 1.025382 1.027622
000200 61 fc 7d 3f 1a 7f 80 3f 33 c0 7c 3f 4e 6a 7c 3f
       0.99213225 1.0038788 0.9873077 0.9859971
000210 88 65 7f 3f 99 cb 81 3f 11 2d 81 3f 85 c8 82 3f
       0.997643 1.0140258 1.0091878 1.0217444
000220 c2 47 83 3f 75 df 7a 3f 79 f2 81 3f 60 ce 7b 3f
       1.0256274 0.9799722 1.0152122 0.9836178
000230 e3 20 84 3f 95 41 81 3f 6f ba 7f 3f 30 85 80 3f
       1.0322536 1.0098139 0.9989385 1.0040646
000240 ea 12 86 3f b6 5d 80 3f b3 1b 81 3f 86 b7 82 3f
       1.0474522 1.0028598 1.0086578 1.0212257
000250 cf 76 82 3f 6a db 81 3f e5 7c 84 3f 4f 85 7d 3f
       1.0192508 1.0145085 1.0350615 0.9903154
000260 e7 88 81 3f 11 bd 7d 3f a2 99 83 3f bf ba 7d 3f
       1.0119904 0.9911662 1.028126 0.99113077
000270 05 68 7f 3f 65 1b 82 3f f0 81 7b 3f 5e 4d 81 3f
       0.99768096 1.016461 0.98245144 1.0101736
000280 e8 fb 7d 3f 3c 4e 83 3f 11 78 7c 3f b8 da 80 3f
       0.99212503 1.025825 0.98620707 1.0066748
000290 ab d1 81 3f c2 9c 7f 3f 1f 75 8a 3f fe d5 7c 3f
       1.014211 0.9984857 1.0816993 0.98764026
0002a0 c8 c9 82 3f d0 8c 80 3f 77 75 85 3f df 16 7d 3f
       1.0217829 1.0042973 1.0426472 0.98863024
0002b0 65 48 80 3f 4c b6 81 3f 7b a5 82 3f 60 f7 81 3f
       1.0022093 1.0133758 1.0206751 1.0153618
0002c0 50 9c 7c 3f 26 19 83 3f 2d e4 7c 3f 5f da 80 3f
       0.98676014 1.024205 0.9878567 1.0066642
0002d0 d4 f9 81 3f 7f 26 82 3f f1 cf 81 3f 23 b4 7c 3f
       1.0154366 1.0167998 1.0141584 0.98712367
0002e0 24 61 83 3f cd 66 82 3f 0b 35 7e 3f 6d ca 7d 3f
       1.026402 1.0187622 0.9929969 0.99137
0002f0 4a ad 81 3f 3d de 7f 3f 1b b2 81 3f 31 1a 7f 3f
       1.0131009 0.99948484 1.0132478 0.9964934
000300 d5 0d 80 3f ed f9 81 3f 58 4d 81 3f 41 4e 83 3f
       1.0004221 1.0154396 1.0101728 1.0258256
000310 5e 28 88 3f f8 19 81 3f e0 c5 85 3f de 7b 81 3f
       1.0637319 1.008605 1.0451012 1.0115926
000320 b4 34 80 3f 55 a1 82 3f 55 23 84 3f e2 6e 7d 3f
       1.0016084 1.0205485 1.0323282 0.9899732
000330 f2 33 83 3f b7 28 7e 3f 43 23 7b 3f 23 ec 7f 3f
       1.0250227 0.99280876 0.9810068 0.9996969
000340 14 4b 7e 3f 9e af 82 3f f2 8c 85 3f 1d 38 80 3f
       0.9933331 1.0209844 1.0433638 1.0017124
000350 26 f3 81 3f 2f 98 7f 3f 9e 3f 84 3f e8 7a 80 3f
       1.0152328 0.9984159 1.0331914 1.0037508
000360 db 6c 82 3f 86 3f 83 3f 61 57 82 3f 60 fe 7e 3f
       1.018947 1.0253761 1.0182916 0.99606895
000370 d6 4d 83 3f 78 9b 7b 3f 1f a0 7e 3f c0 3d 82 3f
       1.0258129 0.982841 0.99463075 1.0175095
000380 07 04 82 3f 69 57 7e 3f 04 24 81 3f fd 05 80 3f
       1.0157479 0.9935213 1.0089116 1.0001827
000390 44 07 81 3f a0 0d 87 3f 45 88 7f 3f 3c bb 83 3f
       1.0080342 1.0551033 0.99817306 1.0291514
0003a0 1c 9c 87 3f 63 7e 7c 3f 88 02 82 3f cb ff 83 3f
       1.0594516 0.9863035 1.0157022 1.0312437
0003b0 d1 89 86 3f 92 f5 84 3f bf 38 80 3f cf 21 79 3f
       1.0510808 1.0387442 1.0017318 0.9731721
0003c0 be 9d 7a 3f 20 d1 79 3f ec b4 81 3f cd 35 86 3f
       0.97896945 0.97584724 1.0133338 1.0485169
0003d0 a5 30 7f 3f d5 c3 7b 3f 73 fa 7c 3f 65 17 7f 3f
       0.996836 0.9834569 0.98819655 0.9964507
0003e0 3b e3 83 3f 7d 5c 81 3f 80 f7 7f 3f 43 f0 82 3f
       1.030372 1.010635 0.9998703 1.0229572
0003f0 71 30 80 3f fe 65 80 3f 15 33 85 3f cb 5e 88 3f
       1.0014783 1.0031126 1.0406214 1.0653929

BN1.bias f4 [256]
000000 98 40 39 3d 71 cb 2c bd 91 c1 d7 bb 07 ea c2 3d
       0.045227617 -0.042186204 -0.006584354 0.095172934
000010 88 b3 45 3d fa b6 8a bd 7f 52 4f bc 8b e3 14 bd
       0.048266917 -0.06773181 -0.012653946 -0.036349814
000020 5d 64 ae bb ca 37 3a bd 9b ee 09 3d 59 27 d2 bc
       -0.005322023 -0.04546336 0.033674818 -0.025653528
000030 86 f1 fd 3c c2 37 b3 bd 66 5d d0 bd 5f 22 91 bc
       0.030998956 -0.08750869 -0.10174064 -0.017716585
000040 b7 0e f3 bb 1e f5 30 3c 59 b7 1d bd 94 c5 85 bc
       -0.0074175256 0.010800628 -0.038504932 -0.016329564
000050 55 19 51 3c 8d 52 eb 3c 08 87 11 be cb d1 dd bc
       0.012762387 0.028725887 -0.14211667 -0.027077576
000060 e3 c5 b2 3c e1 d0 42 bd fe 89 7b bc d0 c6 5c 3b
       0.021822875 -0.047562484 -0.015352724 0.0033687837
000070 7a dd 07 bd ef 90 a7 bd 9a 8d bf bd 01 dd 29 bc
       -0.0331702 -0.08181941 -0.0935318 -0.010367633
000080 5e 79 83 bd 14 d6 a5 3d 00 ea a8 bd 5e 12 b4 3c
       -0.06419633 0.08097473 -0.08247757 0.021981414
000090 d7 8e 98 bc 2d 1f 0e bd 35 15 c7 bc fb 09 9b bc
       -0.018622799 -0.0346977 -0.024302104 -0.018925657
0000a0 a8 b6 a6 bb 2b 85 fe bd 8b 3e 90 bd 90 cf d3 bd
       -0.0050876923 -0.124277435 -0.07043179 -0.10342324
0000b0 fe c6 d9 3b bf d8 db bb 52 43 de bd d9 1a 94 bc
       0.006646036 -0.0067091878 -0.10852684 -0.018079208
0000c0 38 2e 5a bd 09 4c 2a bd 70 47 8a 3d 6f f6 23 bb
       -0.053266734 -0.04157642 0.06751907 -0.0025018712
0000d0 b4 32 5a 3d ee fe 9b bd 3c d4 65 3d fc be d6 bc
       0.05327101 -0.07616983 0.056110606 -0.026214115
0000e0 4a 6b 03 bd e7 3d 53 bc 42 13 80 3c d7 ac bc bd
       -0.03208474 -0.012893177 0.015634183 -0.09212654
0000f0 af b5 92 3c ff b0 51 bd 59 3c 20 bd 57 75 96 bd
       0.0179089 -0.051194187 -0.039120052 -0.073465995
000100 ea d4 85 3c b9 84 a7 bb f0 0c 34 3c 65 56 46 bd
       0.016336877 -0.0051122573 0.010989413 -0.048422236
000110 6a fa d9 3b 25 e4 cf bc 35 db 81 3d 0a b1 41 3d
       0.006652166 -0.025377342 0.063406385 0.04728798
000120 5b 8d 00 bd 11 6c 91 3b 1a 53 5c bb 87 09 37 3c
       -0.031384807 0.0044379313 -0.0033618868 0.011171705
000130 dc f4 37 bd 44 ae fb bd aa 5f ad bd f4 44 33 bd
       -0.04491125 -0.12289098 -0.08465512 -0.04376693
000140 e2 8b 0a bd 5f 00 56 3d f0 c7 45 bd 72 ea 72 bd
       -0.03382481 0.052246448 -0.04828638 -0.059305616
000150 84 be 22 ba db 98 93 3d 34 d7 86 bc 05 9d 9c bc
       -0.00062081986 0.07206889 -0.016460039 -0.019117841
000160 9a 05 40 bd bc 1d ec bc 89 9f 76 3a 85 63 dc bd
       -0.046880342 -0.028822772 0.0009407928 -0.10761169
000170 28 72 35 bd de 64 98 bd 09 0e 43 bd 14 7e 31 be
       -0.04429832 -0.07441114 -0.047620807 -0.17333251
000180 09 67 74 3d 56 47 7e bc 28 98 6c 3d 38 2f 56 be
       0.059668574 -0.0155199375 0.057762295 -0.2091645
000190 1d b4 ae bd 6a b2 07 3d d5 d3 95 bd d2 ae 51 bd
       -0.08530448 0.033129133 -0.073157944 -0.051192112
0001a0 a4 72 4a bd 45 89 49 bd 89 9b 52 bc f3 5e ae bc
       -0.049425736 -0.049203176 -0.012854465 -0.02128551
0001b0 49 28 04 bd cc d9 a6 bd 43 94 83 bd 59 0f ed bd
       -0.03226498 -0.0814701 -0.06424763 -0.11575193
0001c0 2d 2f 73 bd f2 54 3c 3c c2 3d 05 bd 60 3f c5 bd
       -0.059371162 0.011494862 -0.0325296 -0.096312284
0001d0 ca 67 ea bb 77 e7 da 3b 70 e9 96 bd 20 ca e9 3d
       -0.007153486 0.006680425 -0.073687434 0.114155054
0001e0 10 23 86 3d 44 ec 31 bc fe 73 e8 bd 20 98 86 3c
       0.065496564 -0.010859553 -0.11350249 0.01642996
0001f0 93 dd 6f 3c 1d 81 f9 3c 0e 88 5c bd 5b d6 ca bd
       0.01464023 0.030457074 -0.05384069 -0.09904166
000200 74 9a 60 bc 64 8d 1d bd 8a c8 b9 ba 04 e7 53 3d
       -0.0137086995 -0.03846492 -0.0014174145 0.051733986
000210 dc b3 18 3d 2a ca 89 bd 05 57 d1 3b a5 c5 85 bd
       0.037280902 -0.06728013 0.0063885474 -0.06531838
000220 55 73 5b bd ac f0 00 bd 56 74 ad bd e7 e2 30 3d
       -0.053576786 -0.031479523 -0.08469455 0.04318514
000230 f3 23 cc bd a5 95 aa 3c 43 c0 1f bd 41 91 b9 bd
       -0.09967794 0.02082331 -0.039001714 -0.09060908
000240 1c 52 95 bc a5 64 12 bd cf 98 c4 3b b3 ee 83 bd
       -0.01822763 -0.035740513 0.0059996615 -0.06442013
000250 1c ad 8f bd ba 55 ef bc 78 13 9e bd 4b bf bb bc
       -0.0701544 -0.029215682 -0.07718557 -0.022918364
000260 e4 56 45 3c 96 96 ea 3c fe 3b bd bd 52 2f a0 bb
       0.012044642 0.028636258 -0.09239958 -0.0048884535
000270 e6 a5 38 bc f0 19 12 bd 69 39 dc bc ca 6b 87 bd
       -0.011270022 -0.035669267 -0.026882844 -0.06612356
000280 8c e1 40 bd 92 35 62 bd 41 73 31 3d 31 3f 09 3d
       -0.0470901 -0.05522687 0.043322805 0.03350753
000290 8c 2e 5d bd 68 59 da bd bb 36 e6 bd a0 83 1a bd
       -0.05399947 -0.10661584 -0.11240908 -0.037723184
0002a0 eb 7d 01 3d 65 7f 83 bd d1 aa 25 3d 94 f3 0c bc
       0.031614225 -0.06420783 0.040446106 -0.008602995
0002b0 35 d4 f3 bc d3 b4 7a bd 9c 3b 22 bd f7 3e 60 3c
       -0.029764274 -0.061207604 -0.03960763 0.013686887
0002c0 7c 29 b2 3c f1 2c 0e be 45 e1 45 3d cb 82 16 3d
       0.021748297 -0.13884331 0.048310537 0.036745828
0002d0 4f 70 00 bc e2 1c 0e bd 89 20 b8 bd c5 7b 97 3d
       -0.007839276 -0.034695514 -0.089905806 0.07396654
0002e0 00 b8 44 bb 76 d9 05 bd d0 3f ec 3a 51 43 21 3c
       -0.00300169 -0.03267809 0.0018024389 0.00984271
0002f0 90 7d 33 bd 61 95 93 3c e7 40 05 3d 82 00 fb bc
       -0.043820918 0.018015565 0.0325326 -0.03063989
000300 1b 58 3a bd b8 7d 92 3c 6f 14 1e ba 45 b5 23 bd
       -0.04549418 0.017882213 -0.00060302665 -0.039967794
000310 f7 1c d1 bd 59 9c 44 be 68 d8 09 be b2 40 fb bc
       -0.10210603 -0.19200267 -0.13461459 -0.030670498
000320 4f 1b 95 3c c6 01 1f be 4e 7a 7b bd bd a1 7e 3c
       0.018201498 -0.1552802 -0.061395936 0.015541491
000330 61 71 99 bd e2 cd 94 bc a5 ec 05 3c 71 9a cb bc
       -0.074923284 -0.018164579 0.008174096 -0.024853917
000340 b8 36 29 bc 6f 82 b4 3c 1c e7 c0 bd 69 53 bd bc
       -0.010327987 0.022034852 -0.094190806 -0.023111062
000350 53 c0 83 bd e5 b1 54 bd bf 70 e4 bd b5 22 90 bc
       -0.06433167 -0.051927466 -0.11154317 -0.017594675
000360 fb db 1b bd 63 ed 9e bd 1d b2 cf bd 9d 7a c1 3c
       -0.038051587 -0.07760122 -0.10141394 0.023618037
000370 93 96 4e bd 0c 86 ac bc 7f d2 4c 3d a6 01 df bd
       -0.050436568 -0.021060012 0.050005432 -0.10888986
000380 58 d1 ad bd 1c 18 07 3d 7b 51 44 bd e8 9b 7d bc
       -0.08487195 0.032981977 -0.04792927 -0.0154790655
000390 fb ab b3 bc 64 93 a1 bd f1 e3 b2 bd 21 b3 65 bd
       -0.021932593 -0.07889441 -0.087348826 -0.056079034
0003a0 e5 2d 92 3b 9e b7 63 3d ac a4 ab bc c6 34 93 bd
       0.0044610375 0.055595033 -0.020952545 -0.071878
0003b0 e5 6b 4a bc 03 5a 3f bd ea df 34 bd ea 11 99 3c
       -0.012354826 -0.0467167 -0.044158854 0.0186853
0003c0 9b c8 74 3d 37 86 3d 3d 90 ec eb bd 0a b5 40 bc
       0.059761625 0.046270575 -0.1151973 -0.011761913
0003d0 3b 29 24 bd 30 b2 46 bd 6b 55 0e bd ad 1f 86 bd
       -0.040078383 -0.048509777 -0.03474943 -0.065490104
0003e0 d2 de f6 bd 59 8a bf bd 5c 35 89 3c cd df b9 3a
       -0.12054218 -0.093525596 0.016749077 0.0014181078
0003f0 10 0c 97 bd 2e 01 79 bd 32 a5 9a bd 3f f8 31 bd
       -0.073753476 -0.06079214 -0.0755104 -0.043449637

BN1.running_mean f4 [256]
000000 b7 41 0d c1 78 18 6f 40 d4 e7 b5 40 0d 85 08 41
       -8.828544 3.7358685 5.6845493 8.532483
000010 38 9d c6 c0 bf 45 eb 40 34 36 c2 41 01 93 58 41
       -6.2066917 7.352264 24.276466 13.53589
000020 ee 97 08 41 06 71 54 c0 fd cf 96 40 d9 6c 9c 41
       8.537092 -3.3193984 4.712889 19.553148
000030 ce f4 04 41 78 45 97 c0 42 87 36 c0 3c c3 80 3f
       8.309767 -4.72723 -2.8520055 1.0059581
000040 a2 bb 75 41 11 d5 3f c1 f0 48 43 41 11 34 4d 41
       15.358309 -11.989518 12.205307 12.825212
000050 76 09 2a c0 be e4 5c 41 3c 3c 07 40 2b 2a 9f 40
       -2.6568274 13.805845 2.1130514 4.9738975
000060 f8 06 07 c0 f5 d4 73 bc 04 e3 04 c1 14 24 ba 40
       -2.1098003 -0.014882316 -8.305424 5.816904
000070 fa 13 73 c0 b1 99 16 bf 07 bb c3 40 6d 2b 9d c0
       -3.7980943 -0.58828264 6.1165805 -4.911551
000080 75 ee ef 40 21 d7 6e bf 8e 86 c7 40 a5 0b 08 c1
       7.4978585 -0.9329701 6.235175 -8.502843
000090 79 35 fd c0 2b e0 57 40 0a b4 2f 40 4a 1f 60 c0
       -7.9127774 3.3730571 2.7453637 -3.5019097
0000a0 8a 92 4f 41 10 67 7f 41 0d ff b1 40 e9 6c 05 40
       12.973276 15.962662 5.562384 2.0847723
0000b0 64 87 f4 c0 15 ad 57 40 73 39 1e 41 e0 3a c6 3f
       -7.641527 3.369939 9.889026 1.5486717
0000c0 0d 63 fa c0 cb 55 ac c0 b8 57 c9 c0 c5 3e f5 c0
       -7.824591 -5.385473 -6.291958 -7.6639123
0000d0 f4 e1 95 40 05 03 5d c1 0f 9e 5e 40 a1 4c 17 40
       4.683832 -13.813237 3.4783971 2.364052
0000e0 fb 2e 8d bf 99 e4 ae 40 40 58 08 c1 4b 6f c1 40
       -1.1029962 5.465405 -8.521545 6.0448356
0000f0 58 fa da 3f eb e5 82 c1 de 05 20 40 a1 91 8e c0
       1.7107649 -16.362265 2.500358 -4.455277
000100 80 7a cf bf 27 56 be bf 58 62 62 41 cc 58 98 40
       -1.6209259 -1.4870042 14.14901 4.7608395
000110 5e 07 23 c1 07 36 ec 3e 91 eb 1d c0 95 7b e1 c0
       -10.189299 0.4613497 -2.4675028 -7.0463357
000120 be 0e de bf 82 1b 36 41 64 1e 56 c1 f9 24 f7 40
       -1.7348249 11.381716 -13.38242 7.7232633
000130 7c 0d 04 41 5c 6e ee c0 fd 5f f6 40 32 84 8d c0
       8.253292 -7.4509716 7.6992173 -4.422387
000140 a4 b8 a6 3f 2f 5b 0a 3f 8e e4 d2 40 ff a1 35 41
       1.3025098 0.54045385 6.5903997 11.35205
000150 67 35 95 c0 b8 d2 46 3b 44 12 29 c1 85 45 46 40
       -4.662769 0.0030338 -10.566959 3.0979931
000160 f6 70 8e bf 7c 91 35 40 c1 26 91 40 31 c0 18 41
       -1.1128223 2.8370047 4.5359807 9.546922
000170 16 17 ca 3f 84 3c 09 c1 42 84 58 3e b0 83 82 40
       1.5788295 -8.577274 0.21144202 4.078575
000180 88 75 9a 40 3f bc 96 bf 64 35 3c c1 c2 8b f2 c0
       4.826847 -1.1776198 -11.763035 -7.5795603
000190 57 68 b8 40 08 4a 49 c0 e4 b2 a1 40 18 5c 91 40
       5.762737 -3.1451435 5.053087 4.542492
0001a0 82 8b 81 41 1b d2 72 bf 89 cd e9 c0 85 5d da c0
       16.19312 -0.94851846 -7.3063397 -6.823916
0001b0 3d d3 d4 bf 9c 64 fc 40 1f ea 3a c1 cd 67 fd c0
       -1.6626965 7.8872814 -11.682158 -7.918921
0001c0 0f 98 0c 41 49 5f 67 c1 3b 78 0a 40 f7 e3 07 41
       8.787124 -14.460763 2.1635883 8.4931555
0001d0 95 37 1b c1 f7 78 4f c1 a8 e0 bb 3f 55 ab 1b c1
       -9.70107 -12.967032 1.4677935 -9.729329
0001e0 cd 57 0c c1 a5 d0 78 c1 ce 9a 9d 40 c0 4c c2 c0
       -8.771436 -15.550939 4.925147 -6.071869
0001f0 67 14 e1 bd 21 d9 df c0 c2 55 b8 c0 e2 06 d9 be
       -0.109902196 -6.995255 -5.7604685 -0.42388064
000200 b6 75 ac c0 05 64 21 c1 33 16 ea 3f 48 91 35 c1
       -5.389369 -10.086919 1.8288025 -11.347969
000210 90 82 bb be 84 37 10 c0 4f 17 99 3f f6 06 29 41
       -0.3662305 -2.2533884 1.1960238 10.564199
000220 9f 1f 62 be fb ec 6e bf 37 77 1e 40 ee c9 6a 41
       -0.22082375 -0.93330353 2.4760263 14.674299
000230 ee 5f b1 c0 71 ae 05 c1 a8 4a c9 40 4b a5 12 41
       -5.54296 -8.355088 6.2903633 9.165355
000240 c1 8d 52 3e 02 12 83 3e 57 f9 27 c1 19 f3 cf 3f
       0.20561887 0.25599676 -10.498374 1.6246063
000250 25 e2 3b c0 db 1f eb be 45 60 83 bf 52 71 1e c0
       -2.9356778 -0.4592274 -1.0263754 -2.4756665
000260 6e e8 e5 c0 4f d1 ea 40 32 0d d2 bf c9 00 cc c0
       -7.184623 7.3380504 -1.6410277 -6.375096
000270 20 66 5e c0 ac 1b 85 c1 65 4e 49 c1 43 0d 14 41
       -3.4749832 -16.638512 -12.581639 9.253238
000280 cf 14 32 c0 92 fc 19 bf aa 98 27 c1 17 2b 0d 41
       -2.78252 -0.60151017 -10.4747715 8.82302
000290 f2 9b 42 c1 f2 8a 2e c1 48 65 4d bf 2a 0d 8e 41
       -12.163073 -10.908922 -0.8023267 17.756428
0002a0 4f cf 91 c1 3c 6c 2c c0 e0 2f 8f 3e 11 0e 3b 41
       -18.226225 -2.694106 0.27966213 11.690934
0002b0 0f 84 78 41 b0 12 8c 3f a2 fc 4e bf 63 21 80 c0
       15.532241 1.0943203 -0.8085424 -4.0040755
0002c0 50 86 26 c0 e4 d2 2e 41 3a 11 e0 40 ac 56 77 c1
       -2.6019478 10.926487 7.002103 -15.45866
0002d0 69 f5 03 c1 23 8f 86 bf d6 7b 36 41 35 96 67 41
       -8.247415 -1.0512432 11.405233 14.474172
0002e0 92 fd 8b 3f 7b 99 22 c1 f8 06 de 40 a6 f7 91 40
       1.0936759 -10.162471 6.9383507 4.5614805
0002f0 5b ed be be 2f be 80 40 90 5d e1 40 7d 85 7f c0
       -0.37290463 4.023216 7.042671 -3.9925225
000300 d5 0c 14 c1 d3 08 89 40 96 7e c0 3f 05 ae 11 c1
       -9.253133 4.282327 1.5038631 -9.104985
000310 51 c7 99 3f 40 be 32 c1 85 3f 89 41 40 16 91 c0
       1.2013952 -11.171448 17.156015 -4.533966
000320 ad 19 42 c1 c8 fb 12 c1 d7 d2 c6 3f 46 0b 7d c0
       -12.1312685 -9.18647 1.5533093 -3.953813
000330 89 9d 0e c1 49 7e 4e 41 ee 0d 61 41 69 b9 2f c1
       -8.913461 12.905831 14.065901 -10.982766
000340 3f 11 90 40 36 1e 1b bf 78 27 36 c1 94 d0 64 40
       4.502105 -0.60592973 -11.384636 3.5752306
000350 e9 98 9e 40 23 cf e4 c0 fd d4 a3 bf 75 7b 98 3f
       4.956166 -7.1502852 -1.2799374 1.1912676
000360 47 7d 3f 40 44 d3 56 c0 7e a7 5e 3f 67 b9 65 c0
       2.9920213 -3.3566446 0.8697432 -3.589441
000370 28 e4 ca c0 1d d1 5c c1 3c 52 8d c0 d5 70 60 3f
       -6.340351 -13.801053 -4.4162884 0.8767217
000380 50 74 6b c0 6e 24 36 3f 92 b7 ac bf b1 61 2a c1
       -3.6789742 0.7114934 -1.3493521 -10.64885
000390 c5 37 7a 40 a5 dc 06 c1 9f 6c bc 40 e0 57 fc 3e
       3.909654 -8.428868 5.8882594 0.49285793
0003a0 4c b9 6d 40 45 19 41 c1 5a f0 6c 3f cf c4 0a 3f
       3.7144346 -12.068669 0.9255425 0.54206556
0003b0 b3 cb 0c c1 4a 13 59 40 ad 5e 27 c0 fc bc a2 41
       -8.799731 3.3918023 -2.6151536 20.342278
0003c0 af 80 14 c0 2c 78 be 40 d7 9b 54 c0 66 1a c1 40
       -2.3203542 5.9521694 -3.3220117 6.0344725
0003d0 47 8a 6b 40 e9 7d 56 3f 5a 58 01 c1 ff 3e ab c0
       3.6803148 0.83785874 -8.08407 -5.35144
0003e0 14 93 a5 c1 e9 d5 8f 40 42 a5 90 41 16 a9 ba c0
       -20.696815 4.494862 18.080692 -5.8331404
0003f0 38 ac 03 c1 73 74 df c0 5d 83 ce 40 8d 2e cf c0
       -8.229546 -6.982965 6.4535356 -6.4744325

BN1.running_var f4 [256]
000000 5d da 57 42 72 4c 2f 42 be 94 03 43 e7 f5 c1 42
       53.963245 43.824654 131.58102 96.98028
000010 1a 38 1c 43 71 87 48 43 2e e1 16 43 db 52 c2 42
       156.21915 200.52907 150.87961 97.16183
000020 e7 20 0a 43 29 8d f8 42 0f 01 24 43 98 68 39 43
       138.12852 124.2757 164.00414 185.40857
000030 19 6c b9 42 b2 e8 af 42 29 b4 62 42 3f 41 1f 43
       92.71113 87.95448 56.675938 159.25487
000040 04 f3 df 42 62 42 b2 42 45 b6 6d 42 fa d2 0d 43
       111.97464 89.129654 59.427998 141.82413
000050 a1 17 e5 42 fc 88 34 42 57 6f c9 41 3f 4d 81 42
       114.54615 45.133774 25.179365 64.65087
000060 3a 9e 38 42 ae 33 cb 42 b6 5a 67 42 8b ff 99 42
       46.15452 101.60094 57.838585 76.99911
000070 d7 77 47 42 1d f9 4b 43 57 2e 85 42 b2 2b 01 43
       49.86703 203.9731 66.59051 129.17068
000080 3d c9 bf 42 8b de b9 42 76 d1 cb 42 31 c6 38 42
       95.89304 92.934654 101.9091 46.193546
000090 f3 2e 4c 42 b8 1c bf 42 4d f9 02 43 ba 34 43 42
       51.04585 95.55609 130.97383 48.80149
0000a0 31 a8 7c 43 1c 71 6f 42 94 d4 80 42 44 ca 96 42
       252.657 59.86046 64.41519 75.39505
0000b0 5b 9e 84 43 32 d5 d6 42 31 22 b1 42 b7 ec 1f 42
       265.23715 107.4164 88.56678 39.981167
0000c0 a3 a9 c5 42 3a 5f 8f 42 dc fb e3 42 11 aa b1 42
       98.83132 71.68599 113.99191 88.83216
0000d0 c0 53 89 42 6d 7a e3 42 9b 0c 7f 42 04 c5 cb 42
       68.663574 113.73911 63.76231 101.884796
0000e0 e0 95 98 42 5f 6b c7 42 b6 1d 80 42 97 17 d4 41
       76.292725 99.70971 64.05803 26.511518
0000f0 36 aa 35 42 6d 27 b1 42 44 3a 89 42 cb a1 bf 42
       45.41622 88.577 68.6138 95.816
000100 78 e5 1e 43 94 e2 52 42 18 36 99 42 46 d2 a5 42
       158.89636 52.721268 76.60565 82.91069
000110 10 d3 16 43 ab 77 80 42 88 c9 ea 42 23 d6 48 42
       150.82446 64.23373 117.393616 50.209118
000120 32 c3 86 42 4f 7b 7b 42 93 c8 c7 42 b4 13 2a 42
       67.38124 62.87042 99.89175 42.51924
000130 0c c9 9f 42 db 36 3b 42 66 1a bc 42 38 2e 22 42
       79.89267 46.80357 94.05156 40.545135
000140 cc 9b 14 42 e5 d7 a7 42 64 e0 86 42 1d cc 81 43
       37.152145 83.92167 67.43826 259.59464
000150 5f 1d 81 42 ef 5a 1c 42 cf a6 f4 42 8e 3e 4e 42
       64.557365 39.088802 122.3258 51.56109
000160 97 ea 6a 42 dc c2 e9 42 43 d2 cd 42 e5 89 61 42
       58.72909 116.880585 102.91067 56.384663
000170 6d dd 79 42 16 1c 6c 42 24 60 90 42 f8 0e 85 42
       62.466236 59.027428 72.187775 66.529236
000180 f7 c9 c7 42 e6 74 48 42 be 72 ae 42 a2 ac f0 42
       99.89446 50.11416 87.224106 120.33717
000190 62 25 f2 42 9a 8a 10 43 69 c5 38 42 82 4c 3b 43
       121.07301 144.54141 46.192783 187.29886
0001a0 42 3d 87 42 0f 8c 32 42 c4 88 50 42 41 a8 95 42
       67.619644 44.636776 52.13356 74.82862
0001b0 90 d9 7f 42 e2 49 b9 42 3d f6 05 43 2a 93 aa 42
       63.962463 92.6443 133.96187 85.28743
0001c0 f5 9d 7b 42 b3 33 97 42 cc 29 8a 42 49 43 34 42
       62.904255 75.600975 69.081635 45.06571
0001d0 85 b4 37 42 bb a9 b2 42 64 4f a4 42 fe 5a 68 42
       45.92629 89.331505 82.15506 58.08886
0001e0 1e 00 c5 42 8c 29 ec 42 08 a0 ab 42 e6 49 14 43
       98.50023 118.08115 85.81256 148.28867
0001f0 60 e9 9f 42 14 a4 1d 43 0d 71 0f 42 10 bc 6e 42
       79.95581 157.64093 35.8604 59.683655
000200 dd 09 00 43 07 33 89 42 c3 40 9d 42 30 82 da 42
       128.03853 68.59966 78.62649 109.25427
000210 d0 f0 55 43 5f 74 92 42 7b 91 14 43 88 20 9d 42
       213.94067 73.22729 148.56828 78.56354
000220 2e e8 b8 42 7c d0 77 42 ce 86 a2 42 64 1e f6 42
       92.453476 61.953598 81.26329 123.05936
000230 d4 eb 3b 42 d1 26 85 42 3a bc 5b 42 7e 26 09 43
       46.9803 66.57581 54.933815 137.15036
000240 e1 09 86 41 72 50 cc 42 9f 05 a6 42 a7 7f 15 43
       16.754824 102.15712 83.01098 149.49864
000250 02 85 57 42 05 88 81 42 e4 1b 93 42 47 a4 26 43
       53.87989 64.76566 73.554474 166.64171
000260 1d 7a 24 42 c6 02 1c 43 dd a1 0f 42 7d 69 7b 42
       41.11925 156.01083 35.90807 62.853016
000270 eb 72 5c 42 f4 09 b2 42 f1 0d aa 42 87 57 e4 42
       55.112225 89.01944 85.02723 114.17095
000280 d4 0d dc 41 b2 69 f8 42 b1 93 bf 42 b7 3e 1e 43
       27.506752 124.206436 95.78846 158.24498
000290 29 f1 96 42 28 9a e1 42 5e b4 21 42 99 63 99 42
       75.471016 112.80109 40.42614 76.69453
0002a0 53 df 05 43 8c 19 82 42 b6 ea f1 41 45 d8 d0 42
       133.87236 65.0499 30.239605 104.4224
0002b0 6f d0 a3 42 f7 98 b4 42 ec d0 71 42 b6 66 31 42
       81.9071 90.29876 60.454025 44.350304
0002c0 b0 f4 90 42 2d dc 54 42 2b e0 10 43 29 a4 18 43
       72.477905 53.215015 144.87566 152.64125
0002d0 29 25 4f 42 93 74 25 42 3d 6e a0 42 1f be 71 42
       51.78629 41.363842 80.21531 60.435665
0002e0 ba 9a 28 42 09 19 a0 42 62 5d c3 42 5a 65 0f 42
       42.1511 80.0489 97.68239 35.848976
0002f0 ba e0 38 42 d2 25 82 42 1b a8 9e 42 6d 22 99 42
       46.21946 65.07387 79.32833 76.56724
000300 5f 3e 16 43 d1 0c 82 42 7d b4 ac 42 2d 26 17 43
       150.24364 65.02503 86.352516 151.14912
000310 36 bb 2b 42 f5 a2 89 42 aa 5a 03 43 3c 0b 40 42
       42.932823 68.818275 131.35416 48.01097
000320 aa 71 a5 42 04 de 26 43 38 8f 3c 42 1c d9 a2 42
       82.722 166.86725 47.139862 81.42404
000330 32 40 da 42 d5 60 e4 42 04 c4 d6 42 e4 95 55 42
       109.12538 114.189125 107.38284 53.396378
000340 a9 ec 92 42 26 c1 b5 42 72 6d 6c 42 b0 2b b7 42
       73.46223 90.87724 59.10688 91.58533
000350 2b 81 d4 42 c0 f5 87 42 db 32 35 42 ce d2 99 42
       106.25228 67.97998 45.299664 76.91173
000360 98 2a a6 42 d2 aa dd 42 1e 43 35 42 6b bf 95 42
       83.08319 110.83363 45.315544 74.87386
000370 1d 0c 81 42 e3 27 c2 42 a6 5e 6d 43 19 7b 3a 42
       64.52366 97.0779 237.36972 46.620213
000380 10 d6 06 43 d5 7e 77 42 44 4e 7d 42 7b 0c e7 42
       134.83618 61.87386 63.32643 115.524376
000390 15 44 36 43 39 8c 9d 42 34 62 25 43 bf 8c 4c 42
       182.26595 78.77387 165.3836 51.137447
0003a0 f3 76 80 42 c1 66 82 42 76 41 81 42 2a d3 85 42
       64.23232 65.20069 64.62785 66.91243
0003b0 0a 04 bd 42 6d 72 26 42 0c 0d 9e 42 e4 97 0a 43
       94.50789 41.611744 79.02548 138.59332
0003c0 53 5f 87 42 28 95 29 43 45 a1 c4 42 15 dd 40 42
       67.68618 169.58264 98.31498 48.2159
0003d0 0d 5c 00 43 54 07 af 42 a4 5d de 42 9a a0 2f 43
       128.35957 87.51431 111.18289 175.62735
0003e0 3b 32 3e 43 77 90 0e 43 48 7b fa 42 af c7 37 42
       190.19621 142.56432 125.24078 45.945004
0003f0 b7 e7 b1 42 69 15 c2 42 eb f4 31 42 df 09 e3 42
       88.95257 97.04182 44.489178 113.51928

L2.weight f4 [128, 256]
000000 43 c0 b8 3c 25 2b 09 bd d2 f3 1e 3c 01 65 ba 3b
       0.022552615 -0.03348841 0.009701686 0.00568831
000010 ce 26 92 bc 76 f1 3d 3d 18 b6 9b bb cd 84 cc 3c
       -0.01784077 0.046372853 -0.004751932 0.024965668
000020 da e4 20 bd 6b 6e 53 bc 57 b1 3c bd cc 89 7d bd
       -0.03928075 -0.012904744 -0.046067562 -0.06189899
000030 d2 1a 33 3d 16 15 52 3d e1 58 c6 3c 7b e2 ae 3c
       0.04372675 0.05128964 0.024212303 0.021348229
000040 83 39 1e 3d 03 87 b0 ba 00 27 f6 3c 01 e4 25 3c
       0.038629066 -0.0013467971 0.030047894 0.010125161
000050 92 2a 87 3c a6 60 fc bb f9 8d 7b 3b 9d da 16 3d
       0.016499791 -0.007701951 0.0038384183 0.03682958
000060 a5 1d 8e 3c 81 3a 83 bb a7 be 61 3d e3 df 20 bd
       0.01734812 -0.004004777 0.05511346 -0.039276015
000070 0b 3c 1f bd de e1 07 bd d9 be 4a bc 57 33 98 3c
       -0.03887562 -0.033174388 -0.012374603 0.018579168
000080 f8 38 21 3d 0c 8c 22 3d 90 2f d3 bb 46 e2 78 3d
       0.03936097 0.03968434 -0.006444879 0.060762666
000090 0f c0 49 3d 15 a6 1b 3c 16 f6 84 3c 40 9c 89 bc
       0.049255427 0.009500046 0.016230624 -0.016798139
0000a0 2a 03 8c 3d e2 b8 ea ba a8 0f ac 3b 01 a8 91 3c
       0.06836541 -0.0017907883 0.00525089 0.017780306
0000b0 c0 65 0d bc b0 61 95 3c 34 f1 68 bd 6f 2c 34 3a
       -0.008630216 0.018235058 -0.056870654 0.0006873076
0000c0 95 33 02 3d 05 c1 04 bd 38 96 0d 3a 20 73 10 bd
       0.031787474 -0.03241064 0.00054011075 -0.03526604
0000d0 f5 fd 7a bd b0 84 43 3d e7 a7 06 3d cd 2c 90 3d
       -0.06127735 0.047733963 0.032874968 0.07039795
0000e0 80 8b 23 3c 91 7b 67 bc 34 fa 4e 3d 65 16 02 3d
       0.00998199 -0.014128582 0.05053158 0.03175964
0000f0 40 56 23 3c 7e eb 2a bd 4e 69 83 3d b5 4c 06 3d
       0.009969294 -0.04172849 0.0641657 0.032787997
000100 c6 38 8b 3c 82 1f 93 3d 8b 7f 14 3d eb f4 48 3d
       0.016994845 0.07183744 0.036254447 0.049061697
000110 3b 98 45 bd c5 61 bc 3d 10 78 23 bd 33 9b 05 3d
       -0.04824088 0.091983356 -0.039909422 0.032618713
000120 3a 2a 79 bd a0 b9 28 bd 8d 06 0c 3b c8 97 bd bc
       -0.060831286 -0.04119265 0.002136621 -0.023143664
000130 10 7f 8a 3d c9 c5 8e 3d bf c3 74 bc db e3 74 bd
       0.067625165 0.06971318 -0.014939248 -0.059787612
000140 9a 96 40 3d 75 dc e1 bc 87 c1 49 3d 99 22 51 bc
       0.047018625 -0.027570942 0.049256828 -0.012764596
000150 a3 1b 00 3c 83 9d fc 3c 9c 9c f1 bb fe 72 39 3c
       0.007819089 0.030836826 -0.0073734056 0.01131892
000160 79 70 2d bc 8e 23 48 3d 30 d0 86 3c ad 26 62 bd
       -0.010585898 0.048862033 0.016456693 -0.055212665
000170 0a 3c c1 bc ae dd 63 bd 18 0d 3e 3d 2a c0 b4 3c
       -0.0235882 -0.055631332 0.046399206 0.022064287
000180 0d c7 16 3c 52 63 2c 3c 39 43 0e bd 7b 2b 7e bc
       0.009202731 0.010521727 -0.034732077 -0.015513296
000190 1d 67 68 3d c2 d4 4a bd d1 b0 5d bd 22 fa 81 3d
       0.05673896 -0.049519308 -0.054123703 0.06346537
0001a0 7f 5c cf bb ef db 7b 3d 33 0c 0a 3c 78 cf 9e 3c
       -0.006328165 0.061489042 0.00842576 0.019386038
0001b0 95 ee a8 3c 2e 83 61 bd 33 c3 83 3d e7 d8 6d 3d
       0.020621577 -0.055056743 0.06433716 0.058068182
0001c0 4e 5c 1b 3c bb 4a 38 bd e2 d9 86 bd 7c 4a 82 bd
       0.009482456 -0.044993144 -0.065845266 -0.06361863
0001d0 ff a5 6f 3d 8a 0f 61 bd 55 79 9f bb af a0 96 3c
       0.058507916 -0.05494646 -0.004866759 0.018387167
0001e0 7f 15 0f bd ca 76 43 bd 9e 1b 63 3d 6e 4f fa 3c
       -0.03493261 -0.047720708 0.05544626 0.030555453
0001f0 d7 ac 5e bd 27 66 d8 3c 54 a2 0d 3d af f8 ad bb
       -0.05436405 0.026415898 0.034578636 -0.0053091864
000200 9e 9c 1f bd 85 01 0f 3d 5f cd cf bb e1 9a 09 bd
       -0.03896772 0.03491356 -0.006341621 -0.03359497
000210 af f6 02 3c 8b af 84 bc d2 94 e4 3c 10 19 cd bc
       0.007993384 -0.016196987 0.027902994 -0.025036365
000220 72 3b 9e bc aa cc a9 ba 8f 24 40 3d 71 09 fc 3c
       -0.019315455 -0.0012954671 0.046909865 0.03076622
000230 50 e4 a3 3b 3c f5 26 bd 74 0b ce 3c 38 6c 34 bd
       0.005001582 -0.040761217 0.025151946 -0.044048518
000240 df c4 58 bd d9 a3 1f 3c 08 e7 9d bc b2 b7 32 3d
       -0.052922126 0.009743654 -0.019275203 0.043632217
000250 bb 14 86 3b e4 1f ce 3a 76 7d 31 bb 38 ed 18 bd
       0.0040918267 0.0015726057 -0.0027082837 -0.037335604
000260 c3 c0 f4 bc ae 3f 5b 3d 7c 50 5f bc 5b a9 0c bd
       -0.029877072 0.053527527 -0.013630029 -0.034341197
000270 8a 7d 3f 3d 17 26 f1 3b 8a f0 c1 bb 7d 03 bb 3c
       0.046750583 0.007359277 -0.005918567 0.022828812
000280 c0 cf d7 bb 1f fe 42 bc 7f bc de 3c 25 8f 37 3c
       -0.006586045 -0.0119014075 0.027189491 0.011203562
000290 05 f5 3f 3d 9b d4 80 bc e7 a0 17 3d b2 8f 15 3c
       0.04686453 -0.015726378 0.037018683 0.009128498
0002a0 4c b2 14 bd 0b cf d9 3c f4 b9 f5 3c 67 2d 22 bb
       -0.03630285 0.026587984 0.029995896 -0.00247463
0002b0 ca 42 df 3c 7d 4d 23 3b 35 0a 55 bd 95 8d 42 bd
       0.027253527 0.0024918013 -0.052011687 -0.047498304
0002c0 23 28 b7 3c 68 f2 18 3d b7 16 69 bd 4d 28 5b bd
       0.022358006 0.03734055 -0.05690643 -0.05350523
0002d0 f4 26 cb 3c d7 23 0b bd bf 71 b7 bc 7a 46 92 bc
       0.024798848 -0.033969726 -0.022393106 -0.017855871
0002e0 e4 e4 81 3d cb 2c c6 bb d4 b2 5f 3d ea d6 be bc
       0.063424855 -0.00604782 0.054613903 -0.023295838
0002f0 4f d4 7c bd a1 bb 90 3d 87 be 6d bc 75 7b 48 bc
       -0.06172591 0.070670374 -0.014510757 -0.012236466
000300 bb 93 25 bd f6 f4 3e 3d 4f 00 77 bb c7 cc 8f 3d
       -0.04042409 0.04662033 -0.0037689393 0.0702148
000310 04 8c d8 3c e4 2a 4c bd 83 72 b4 bb 56 fa 8b 3d
       0.026433952 -0.04984559 -0.005506815 0.06834857
000320 48 a4 27 3c 82 46 48 bc 2f 45 7e ba f1 57 50 bd
       0.010232039 -0.012223842 -0.000969964 -0.050865117
000330 71 76 04 3b 76 e7 b4 bc 0e 47 17 bc 98 d4 26 bd
       0.0020212198 -0.022083025 -0.009233249 -0.04073009
000340 2e f7 08 bd 03 9b 3f bd 65 94 d6 3c 2c 01 6b 3d
       -0.033438854 -0.04677869 0.026193807 0.057374164
000350 35 cb 32 3c 99 7d 4e 3d 8c c0 9d 3c 55 a9 35 3d
       0.010912706 0.050412748 0.019256853 0.04435094
000360 11 34 84 3d 48 07 ac bc a0 0f 65 3d d7 ad 48 3c
       0.064552434 -0.020999566 0.055923104 0.012248478
000370 c0 d9 23 3d c4 e0 cb bc e2 bd 35 bd 08 93 56 bc
       0.040002584 -0.02488745 -0.04437054 -0.013096578
000380 4d ad 0f bc 3d 29 ab 3c 7d 02 be 3b e0 f7 11 3d
       -0.0087693455 0.020893687 0.0057986365 0.035636783
000390 7b f3 98 3d e4 45 42 3d 0b a8 e1 bc 76 af fc bc
       0.07468315 0.047429934 -0.02754595 -0.030845385
0003a0 02 ba fe bb 8b 5a 05 bc 17 7b a8 3c 4a 4e 6d 3d
       -0.0077736387 -0.008139263 0.020566506 0.05793599
0003b0 ec 26 e3 3b 07 99 02 bd 88 74 2a bd 97 44 6f 3d
       0.00693213 -0.03188422 -0.04161504 0.05841502
0003c0 11 33 68 3d ef 6b 55 3c fa 76 81 bd f3 3d 0c 3d
       0.056689326 0.013026222 -0.06321521 0.034238767
0003d0 b9 5b ae bb 13 38 63 bd 13 57 a5 3c a3 fa 74 3c
       -0.005320993 -0.0554734 0.020183122 0.014952335
0003e0 ff 11 2e 3d 1a 69 85 3c 26 c1 84 bc 16 0b 6d 3d
       0.04249763 0.016285468 -0.016205382 0.0578719
0003f0 9f 68 88 bd 12 bc 90 3d cb c6 f9 bb 77 c1 53 3d
       -0.0666058 0.070671216 -0.007622575 0.051698174
