Trained_Models/BotDetection_v4_MLP___May-10-2024/BotDetection_v4_MLP_epoch52_val_loss_0.473008.pth (torch, 954197 bytes, 45 tensors)

L1.weight f4 [256, 133]
000000 77 76 07 3c 47 39 6e 3d 85 32 b3 3d 48 e9 34 be
       0.00826799 0.058160093 0.0874987 -0.17667115
000010 d6 dc cb 3c 38 c9 3f 3d d3 dd 46 3e 5d 30 36 bd
       0.024885576 0.046822757 0.19420557 -0.044479717
000020 4d 30 23 3c e1 d4 0e 3d 42 95 9a bd 27 58 f1 3c
       0.009960246 0.034870986 -0.07548 0.02946098
000030 b3 16 55 bd 3b 1d 4e bd db c7 0d be e5 1f af 3d
       -0.0520236 -0.050320845 -0.1384577 0.08551005
000040 50 f8 dc bb 81 e3 31 bd e4 94 a4 ba 3d dc 53 bd
       -0.0067434683 -0.043429855 -0.001255658 -0.051723707
000050 76 67 fe bc 8e 7b 2d bc 26 4f 5a bd 6f 70 03 bd
       -0.031055193 -0.01058854 -0.053298138 -0.032089647
000060 bc 92 83 3d f5 47 e0 bd be 98 fc 3c a4 65 d2 bd
       0.06424472 -0.10951225 0.030834552 -0.10273293
000070 fd 38 c5 3c 68 17 ce 3d c5 a4 ca 39 96 43 23 bd
       0.024075026 0.10063058 0.00038651205 -0.039859377
000080 c5 26 b7 bd f4 53 ad bc af ef 84 bd 8f 00 a6 3d
       -0.089429416 -0.021158196 -0.064910285 0.08105575
000090 8c 0e ce 3d 96 fe a2 3d 8e 76 8f bd 7b 5a 2f bd
       0.10061368 0.07958715 -0.070050344 -0.0428109
0000a0 43 83 56 3e 92 e2 52 bc 8c 66 16 bd fb f2 49 3c
       0.2094851 -0.012871401 -0.03671889 0.012325997
0000b0 70 e5 53 bc 47 8f bb 3d 2f 24 e2 3b f4 74 8e 3d
       -0.01293312 0.09158187 0.006901286 0.06955901
0000c0 a8 dc 0c bd ed 3c a3 3d db 5a 42 3d d8 05 3f 3c
       -0.03439012 0.07970605 0.047449928 0.011659108
0000d0 b1 02 88 3d c1 71 d2 3d c2 93 c1 bc 7b 00 30 3c
       0.06641138 0.10275603 -0.023630027 0.010742302
0000e0 59 65 30 bd c9 49 5b 3d 7f d6 37 be 1e 9b d9 bc
       -0.043065403 0.053537164 -0.17952918 -0.026563223
0000f0 30 8b 32 be 73 5e 8b 3c 6f 5c 22 be 9d 37 4e bd
       -0.17435908 0.01701281 -0.15855573 -0.050346006
000100 5a d3 08 3e a9 3e 02 be 4e 50 a1 bd be c2 09 3e
       0.13361874 -0.12719215 -0.07876645 0.13453194
000110 9d bc c1 bc 3b 1c 50 bd b1 be 66 3d 18 48 d9 3d
       -0.023649508 -0.050808173 0.0563342 0.10609454
000120 d3 83 d3 3d 90 ab 81 3d d9 0f 49 bd ac fa e4 bc
       0.10327878 0.06331551 -0.04908738 -0.02795156
000130 11 df a2 bd f2 83 7d 3c 04 7f 84 bc 00 04 a4 3c
       -0.07952703 0.015473353 -0.016173847 0.020021439
000140 68 ca 23 bb 2d 73 1d bd 19 47 9d bd 1b 04 05 bd
       -0.002499247 -0.03843992 -0.076795764 -0.03247462
000150 5f 51 60 3d f8 6b 3d bd 04 c4 39 be 93 b4 cf bd
       0.0547651 -0.046245545 -0.1814118 -0.10141864
000160 37 62 db 3c ea 9f b2 bc d6 f1 34 3b 5a f5 1f 3e
       0.02678023 -0.021804769 0.0027609966 0.15620938
000170 3e 41 bf bd 5c 46 db 3a d7 bc 13 bd 16 1d 18 3d
       -0.09338616 0.0016729343 -0.036068764 0.037137114
000180 69 67 25 3d 47 5c b9 bd 34 4a 3d bd f1 a5 d5 3c
       0.040381823 -0.09050804 -0.046213344 0.026080104
000190 16 49 0b 3d c7 06 e0 bd d1 e6 01 3e 50 11 29 be
       0.034005247 -0.10938793 0.12685706 -0.1651051
0001a0 34 64 76 bd d8 12 98 3d 1d 9e 8a 3d d8 56 54 bd
       -0.060154155 0.07425469 0.06768439 -0.051840633
0001b0 b8 96 2a bd ed 4a 83 bd 0a da 35 3d 74 a6 d1 bd
       -0.041647643 -0.06410775 0.04439739 -0.102368265
0001c0 ab d1 42 bd eb e9 90 bc 7b 67 a8 3c 39 17 07 bd
       -0.047563236 -0.017689666 0.020557156 -0.03298113
0001d0 ae 5c 9b 3c 17 bc d8 3d a0 4b 9a 3d 6e 39 a6 3d
       0.018965092 0.1058275 0.075339556 0.081164226
0001e0 78 0a c3 bd dd 78 53 3d be 4f 52 3c f2 33 4e 3e
       -0.09523481 0.051628936 0.012836395 0.20137003
0001f0 f0 00 fe bd 7b 1e 64 bc b6 cb 45 3d 72 7b a2 3d
       -0.124025226 -0.013923283 0.048289977 0.079337016
000200 69 fb 9c bd f6 61 4d 3b 36 a5 9b 3d 13 a8 64 3d
       -0.0766514 0.0031338907 0.07599871 0.05582435
000210 20 80 80 bd d1 fb f2 3b eb e0 26 3d 90 e9 75 bc
       -0.06274438 0.0074152728 0.040741842 -0.015009299
000220 67 b4 cb 3d ed ab 13 bd 2d e5 82 3d 14 5f 8a bd
       0.099465184 -0.036052633 0.06391368 -0.06756416
000230 7f 2a 15 bd 53 8d 5e 3d 8a e4 2e bd 41 13 62 3b
       -0.03641748 0.054333996 -0.04269842 0.003449634
000240 65 e3 d2 bb 36 2b 6f bd 35 dd 7f 3d 42 f5 81 3d
       -0.006435799 -0.05839082 0.06246682 0.06345607
000250 e7 77 47 3c bb 9f 81 bd d1 b2 c8 bb f2 ca 90 bc
       0.012174583 -0.06329294 -0.006124832 -0.017674897
000260 a7 b2 55 3d 0d a9 d1 bc b0 0b b9 3b 59 39 8c bd
       0.05217233 -0.025593305 0.005647145 -0.06846876
000270 42 d9 db bd 0f 5d cf bd 28 0b 01 bd 6e 10 a2 bd
       -0.10734798 -0.101251714 -0.03150478 -0.0791329
000280 a6 ef 38 bb a9 f7 9d bd 39 d4 2e 3d b7 5e 13 bc
       -0.0028219013 -0.07713253 0.04268286 -0.00899475
000290 15 31 02 bd 7f 93 8e 3d 20 ab 87 3d 1c 01 85 bd
       -0.03178509 0.069617264 0.066244364 -0.06494352
0002a0 69 82 b5 bc 21 0c ff 3d 26 95 96 3d 5b 50 2c 3e
       -0.022156911 0.12453485 0.073526666 0.16827528
0002b0 e2 23 be 3d 95 77 89 3d 3b 33 21 bd 37 20 7f 3c
       0.09284188 0.067122616 -0.039355498 0.015571645
0002c0 f2 8f 3b 3d 3a 8e 1e 3e 1d 9a 14 bd 89 42 dd 3c
       0.045791574 0.15483943 -0.036279786 0.027009265
0002d0 98 f9 61 3d 76 1e 76 3d 06 58 ef 3c c9 3f a1 bd
       0.05516967 0.060087644 0.029216778 -0.07873494
0002e0 4a 29 96 bd 46 71 83 3d 5f 9c 0f 3e d1 ae 62 bd
       -0.07332094 0.064180896 0.14024495 -0.0553425
0002f0 cd 50 51 bd fd e2 9f 3b a4 52 8b 3d f0 cc b1 3d
       -0.05110245 0.004879354 0.06802872 0.08681667
000300 07 2f 96 bd 9b d5 a1 3d 3e 84 8a 3d 79 48 cf 3c
       -0.073331885 0.0790207 0.067635044 0.025303112
000310 0a 2d e0 bd b7 84 86 3b f4 a4 10 3d 4f 26 5b bd
       -0.109460905 0.0041051763 0.03531356 -0.05350333
000320 05 7d 8a bc a3 78 8d bc a7 5e cb bc 45 94 94 bc
       -0.016905317 -0.017269438 -0.024825407 -0.018137107
000330 74 1a f6 3d 26 58 d5 3c ad 79 0f bd fe 65 50 bc
       0.12016764 0.026043009 -0.03502815 -0.012719629
000340 cd ba ff 3b 24 06 a9 3d e2 3a 25 bd 55 58 18 bc
       0.007804251 0.08253124 -0.04033936 -0.009298404
000350 37 2a e7 bc 55 a4 05 bd 44 ec 67 bc 5b 99 cb bd
       -0.028218372 -0.032627422 -0.014155451 -0.099413596
000360 43 5d d1 bd 12 fd ad 3d a6 18 17 bd 1f c3 62 3d
       -0.102228664 0.08495535 -0.03688874 0.055361863
000370 71 f8 53 bd 10 d8 9a 3c 9d 5e 2d be 93 7c e1 3d
       -0.051750604 0.018901855 -0.16930623 0.11010089
000380 5d 82 2e be 18 14 48 bd 33 24 e2 bd c9 11 32 3d
       -0.17041917 -0.048847288 -0.11042061 0.043473992
000390 3d 7f a0 bc b0 af c7 bc dd f1 6e bd b5 fe 7c bd
       -0.019591922 -0.024375767 -0.058336128 -0.061766345
0003a0 a4 0f 4b 3d 72 bd 1b 3e 50 42 b6 3c 8a aa 81 3d
       0.049575463 0.15208986 0.022248417 0.06331356
0003b0 cc 0d 46 bc 83 93 21 3d 06 ca be 3d 43 4b 50 3d
       -0.01208825 0.03944732 0.09315877 0.050853025
0003c0 a4 d8 df bd e0 77 06 3c 8e f1 bf 3b 6d 74 05 bd
       -0.10929993 0.008207291 0.005857653 -0.032581735
0003d0 c1 37 6d bd fe 9d 40 3d 69 ca 83 bd d8 51 d2 3c
       -0.0579145 0.047025673 -0.06435091 0.025673792
0003e0 4c 35 54 bb 09 c6 4b 3d f2 ca ab 3d 90 55 be 3d
       -0.00323804 0.049749408 0.08388318 0.092936635
0003f0 1e 14 4a bd ca d4 1a be a3 94 9d bd cf ed 9a bd
       -0.04933559 -0.15120235 -0.07694366 -0.0756489

L1.bias f4 [256]
000000 20 e3 a6 bd 1f 4b 97 bc a1 10 7b 3d f4 7a 8a bc
       -0.081487894 -0.018468438 0.061295155 -0.016904332
000010 08 3a b2 bc 47 e0 79 bd 3f da 05 3d f1 cb 2a 3d
       -0.021756187 -0.061004903 0.03267884 0.0416984
000020 15 ca 56 bd 83 af 9d bd 01 79 bd bc aa fb 77 3d
       -0.052438814 -0.07699492 -0.023128988 0.06054274
000030 fe d8 83 bd 18 ad 12 bd 58 3f ae bd a1 09 21 bc
       -0.06437872 -0.035809606 -0.085081756 -0.009828956
000040 06 5c 97 3c 42 4f 10 3d 7c 49 29 bd ec 9f a9 3d
       0.018476497 0.035231836 -0.041329846 0.08282456
000050 83 a2 ef 3b b7 76 7d bd 49 a2 8e 3c b3 a9 02 3d
       0.007313074 -0.061880793 0.017411368 0.03190012
000060 5b cb 64 3d 51 bb 7b 3d 06 3a b5 bc 08 91 8e bc
       0.055857997 0.061457936 -0.022122394 -0.01740314
000070 f4 74 33 bd 92 ec 10 3d e9 7e 87 bd 91 f3 bd bc
       -0.043812707 0.03538186 -0.06616003 -0.02318743
000080 8e d5 65 bc f2 50 91 bd a3 56 09 3d 7e 7b a1 3c
       -0.014027966 -0.07095517 0.03352989 0.019712206
000090 3a fc 96 3d 0c a2 5b bd 14 d1 9f 3d be ad 15 3d
       0.07372327 -0.053621337 0.0780355 0.036542647
0000a0 3f 2e da bc 57 4f 87 bd 90 a8 a7 bd 83 fb 01 3d
       -0.02663338 -0.0660693 -0.081864476 0.031734
0000b0 68 db 2c bd a9 32 cd bc ec 89 0a bd 17 5e 85 bc
       -0.04220143 -0.02504857 -0.03382294 -0.016280217
0000c0 97 c1 f2 3b 2e 84 98 3d 08 ab 67 3d cf f7 83 3d
       0.0074083316 0.07447086 0.056559592 0.0644375
0000d0 b5 dc 9b 3b 77 32 db bc ce 27 23 bd ce f0 4c 3d
       0.004756535 -0.026757462 -0.039832883 0.050034337
0000e0 5c d7 ef bb 24 26 0b 3d 9e f4 9e bd 53 9f 31 3d
       -0.007319374 0.03397192 -0.07761501 0.043364834
0000f0 ea a4 39 bd 91 b4 19 bc d9 a8 8e 3d 45 59 58 3d
       -0.04532329 -0.009381429 0.06965799 0.05281951
000100 0e 7d 4d bd d3 88 92 3d 5b b8 8f bd 28 50 22 3d
       -0.05016809 0.071550034 -0.07017585 0.039627224
000110 9a 10 63 3c 1f 6a a3 3d 73 53 0e 3c 18 98 99 bc
       0.013858939 0.07979225 0.008686888 -0.018749282
000120 46 24 97 3d d6 c2 51 bd d7 d6 75 3d 5b b6 05 bd
       0.073799655 -0.0512112 0.06001934 -0.03264461
000130 ee b2 3f bc c6 46 19 bd 8a 84 68 3d b1 c2 5e bd
       -0.011700375 -0.03742101 0.056767024 -0.05438489
000140 f6 e9 c8 bc bb 68 c5 3b 75 9e 9d 3d 1a 01 42 bc
       -0.024525624 0.0060244477 0.07696239 -0.011841083
000150 53 ff 17 bd 33 cc 22 bc ef 5b a0 3c cf 94 1c bd
       -0.03710873 -0.00993638 0.019575087 -0.038227852
000160 06 8d b0 3d 1e d4 0f 3d a1 fd fb bc 9b d1 4f 3d
       0.08620648 0.0351144 -0.030760588 0.050737005
000170 6e 1f ce bc f2 8b 9b 3c 66 a5 78 bc 5c 53 8a bd
       -0.025161471 0.01898763 -0.015176153 -0.06754181
000180 69 13 94 bd 9e 96 9a bd 1c 76 45 bd df da ae bb
       -0.07230265 -0.07548259 -0.04820834 -0.00533615
000190 3b ed 38 3c 68 36 6b 3c b7 f8 1f 3d b3 7c b3 3b
       0.011287029 0.014356233 0.039055552 0.005477512
0001a0 09 c8 ac 3d 80 ab a6 bc 7f 3e 95 3c 4f 00 92 3c
       0.08436591 -0.02034545 0.018218277 0.017822413
0001b0 7d 98 2e 3d 2a b3 8d 3d 7f 0f 05 3d 01 d2 30 3d
       0.042625893 0.069189385 0.03248548 0.043169025
0001c0 39 43 9d 3d c7 75 2b 3d b6 3f a1 3d cd 53 34 3d
       0.07678837 0.041860368 0.0787348 0.04402523
0001d0 0b 59 2b 3d 22 82 31 bc 28 b1 5c bd 89 6f 9d 3d
       0.041832965 -0.010834249 -0.053879887 0.07687289
0001e0 a6 e4 36 3d 2f 3d d4 3c af 3e 10 3d 7d 23 c4 bc
       0.04465165 0.02590808 0.03521603 -0.023942703
0001f0 61 fc 27 bc 94 a5 8d 3d d6 a8 ba 3c 91 ca ab bd
       -0.010253043 0.06916347 0.022785585 -0.08388246
000200 7c 96 8f 3d 2a ec d2 3c 89 cc 2d bd 72 e6 1e bd
       0.070111245 0.025747377 -0.042431388 -0.03879399
000210 3c 3b 84 bd 44 d5 a5 3d dd c4 26 bd 04 53 1f bd
       -0.064566106 0.08097318 -0.040715087 -0.03889753
000220 8c c3 e3 3c d3 ee 0d bd 07 86 3a 3d 1c 1a f9 bc
       0.027803205 -0.03465159 0.045537975 -0.030407958
000230 bf 39 a8 bc ea b4 db bc 6e 9f a1 3b 73 1c 32 3d
       -0.020535348 -0.026819665 0.0049323356 0.043484163
000240 79 8f 5e bc d5 5c 8b 3d ba 7a af bd 6b c3 87 bd
       -0.013584011 0.06804816 -0.0856833 -0.0662907
000250 62 f1 c7 3c dd c0 d5 bb c2 bb 56 bc f1 af cb 3c
       0.024407092 -0.0065232352 -0.013106288 0.024864169
000260 60 22 91 bd 5f d1 16 bc d3 b7 7c bd 56 18 9e 3d
       -0.07086635 -0.009205191 -0.061698746 0.077194855
000270 d0 b7 9a 3c 1f 64 53 3d 12 df 63 bd 67 e7 a9 bc
       0.018886477 0.051609155 -0.05563266 -0.020740224
000280 c6 6c 3e 3d c3 f6 95 3d 25 37 94 bd 6e 6e c0 bc
       0.046490453 0.07322457 -0.072370805 -0.023490157
000290 1d 2c 80 bc 86 66 a4 3d 5f f4 5b bd e6 16 03 3d
       -0.015646035 0.08027367 -0.053699847 0.03200426
0002a0 28 ef 81 3d b1 47 86 bd bd 0f a7 3d 24 55 ae bd
       0.063444436 -0.06556643 0.08157299 -0.08512333
0002b0 7a 28 82 bd e7 b6 cd bc 3d 68 8d 3b e9 18 4c 3b
       -0.063553765 -0.025111629 0.0043154047 0.0031142777
0002c0 2b 17 84 3d ff b0 98 3d 4e 87 c0 bc 82 8d a4 3c
       0.064497314 0.07455634 -0.023502018 0.020087007
0002d0 d4 f1 f8 bc 5a 7a ca 3c f0 d0 dc ba 20 a8 25 3d
       -0.03038875 0.024716545 -0.0016846936 0.04044354
0002e0 71 f8 bb 3a 77 49 dc bc ce c5 17 3d 02 20 80 3d
       0.0014341009 -0.0268905 0.037053876 0.06256105
0002f0 f6 63 25 bd f0 e0 bc 3c 6a ac 20 39 82 08 cd bc
       -0.040378533 0.023056477 0.00015323018 -0.02502847
000300 1f 4e 17 3d 44 43 4a 3d 25 6e 1f 3d 48 d1 96 bd
       0.036939736 0.049380556 0.0389234 -0.07364136
000310 cd 8b 00 bd 03 bf 92 3d b1 2d 4b 3d 14 b6 47 3d
       -0.031383324 0.07165339 0.04960412 0.048757628
000320 e4 6e 57 bd 19 aa fe 3c 9c c2 32 bc 48 71 09 bd
       -0.052595988 0.031086968 -0.010910656 -0.0335553
000330 0b 15 53 3d 26 85 aa 3d f8 bd 1e 3d e8 d3 81 3d
       0.05153374 0.08326177 0.038755387 0.06339246
000340 19 fa 4a bd 8e 90 2e 3d df ef a3 bd 2c ef aa bc
       -0.049554918 0.042618327 -0.08004736 -0.020866
000350 12 32 aa bc bb e2 91 bd 89 10 de bc 17 07 86 3d
       -0.020775829 -0.071233235 -0.027107494 0.06544321
000360 85 08 2e bd 90 1c 99 3d aa ea 30 3d 6f dd 0e bd
       -0.042488594 0.07476151 0.043192543 -0.034879144
000370 00 1f 47 3d 3d 10 a5 bd af 89 14 3d 47 35 29 bd
       0.04861355 -0.08059738 0.036264118 -0.041310575
000380 62 f8 8b bd a4 cb ae 3d 63 f9 5b bb 11 5f 5a bd
       -0.06834485 0.08534935 -0.0033565394 -0.05331332
000390 d5 6d af 3d 6a e8 b0 3c 4b 8c 56 bc 59 d9 05 bd
       0.08565871 0.021595199 -0.013094972 -0.032677982
0003a0 1d 74 9f 3d fd 18 45 3d d1 30 a0 3d 82 5a 01 3d
       0.07785819 0.048119534 0.07821811 0.031580456
0003b0 62 df 8b 3d 54 89 58 ba f2 8c 9e 3c b3 f4 b2 3c
       0.06829716 -0.00082602096 0.019354317 0.021845197
0003c0 36 cb a7 3d b3 06 85 3d 09 7b 54 3d 25 00 ab bd
       0.08193056 0.064954184 0.051875148 -0.08349637
0003d0 7a ed 81 3d 87 d6 41 3d 1d 9c 9d bc 8a 64 82 3c
       0.06344123 0.04732373 -0.01923948 0.015917081
0003e0 da 6a ae bd 65 1c 46 bd 7d 08 89 3d 4f 95 a3 bd
       -0.08516474 -0.048366923 0.06691072 -0.07987463
0003f0 23 e5 09 3a 83 ef 7b 3c f8 c5 83 bb a0 34 4f bd
       0.0005260279 0.015376928 -0.0040214024 -0.050587296

BN1.weight f4 [256]
000000 86 72 7e 3f d1 bf 7f 3f 31 65 7b 3f 70 14 78 3f
       0.993935 0.99902064 0.9820128 0.96906185
000010 d1 e1 7c 3f 64 7d 81 3f a6 72 82 3f 46 87 7e 3f
       0.9878207 1.0116391 1.0191238 0.9942516
000020 a2 f5 7f 3f bd 21 82 3f 5a 29 7c 3f d0 d0 7a 3f
       0.9998418 1.0166546 0.985006 0.9797487
000030 cb d9 7e 3f 8c 49 81 3f 94 4c 85 3f 06 ad 80 3f
       0.99551076 1.010057 1.0413995 1.0052803
000040 b3 22 82 3f ef b5 80 3f 19 0c 7e 3f 05 bd 80 3f
       1.0166839 1.0055522 0.9923721 1.0057684
000050 6d c7 7c 3f 93 e8 7c 3f e5 d6 87 3f e0 0e 82 3f
       0.987418 0.9879238 1.0612456 1.016079
000060 e2 84 82 3f 2f 2e 82 3f 35 da 84 3f 14 07 81 3f
       1.0196803 1.0170344 1.0379092 1.0080285
000070 ce 02 84 3f 23 25 84 3f f1 ec 84 3f 22 10 80 3f
       1.0313356 1.0323833 1.0384809 1.0004923
000080 87 a6 83 3f bd d8 7d 3f e7 b7 7d 3f c3 f1 81 3f
       1.0285195 0.9915884 0.9910874 1.0151905
000090 12 bc 85 3f 1e de 82 3f f3 6b 7f 3f e1 f6 81 3f
       1.044802 1.0224035 0.9977409 1.0153466
0000a0 02 93 81 3f b8 12 84 3f 5e a4 81 3f bf 44 85 3f
       1.0122988 1.0318213 1.0128286 1.0411605
0000b0 7c 9c 7f 3f 53 27 82 3f a6 1f 80 3f 84 aa 7c 3f
       0.9984815 1.0168251 1.0009658 0.98697686
0000c0 39 e5 86 3f f4 c0 7f 3f 0f df 7a 3f f0 82 7e 3f
       1.0538703 0.999038 0.9799661 0.99418545
0000d0 1f fd 7b 3f 71 2f 82 3f b9 99 7e 3f 80 a5 7f 3f
       0.9843311 1.0170728 0.9945331 0.9986191
0000e0 17 c3 80 3f 6d ea 81 3f 6c 39 80 3f a0 47 86 3f
       1.0059537 1.0149666 1.0017524 1.0490608
0000f0 7b 30 7e 3f 69 52 81 3f 5c 0c 85 3f 49 73 84 3f
       0.99292725 1.0103275 1.0394397 1.0347682
000100 2e 91 78 3f 13 e6 80 3f 2b f4 7b 3f b3 dd 82 3f
       0.97096527 1.0070213 0.98419446 1.0223907
000110 fc bf 7f 3f 0c 1b 8b 3f c3 87 7f 3f f6 77 79 3f
       0.9990232 1.0867629 0.9981653 0.9744867
000120 52 d1 83 3f 4d 2a 84 3f b1 00 81 3f d1 14 80 3f
       1.0298254 1.0325409 1.0078336 1.0006353
000130 84 fe 80 3f 02 d9 84 3f d3 bc 82 3f 28 47 82 3f
       1.0077672 1.0378726 1.0213875 1.0177965
000140 94 2c 82 3f 0b 11 7e 3f a3 2a 80 3f 01 11 7d 3f
       1.0169854 0.99244756 1.0013012 0.9885407
000150 70 ef 80 3f 05 b6 80 3f 0f 7f 81 3f 0a 85 84 3f
       1.007307 1.0055548 1.01169 1.03531
000160 00 47 84 3f 6c 89 80 3f d7 86 82 3f 81 b5 84 3f
       1.0334167 1.0041938 1.01974 1.0367891
000170 87 b9 81 3f 34 3d 80 3f 0a cd 82 3f 1e 22 83 3f
       1.0134743 1.0018678 1.0218823 1.0244787
000180 7d 67 81 3f 20 45 82 3f e3 b6 80 3f 23 2e 84 3f
       1.0109707 1.0177345 1.0055813 1.032658
000190 b2 96 7f 3f 01 5b 7f 3f d3 35 81 3f 9d 20 83 3f
       0.9983932 0.99748236 1.0094551 1.0244328
0001a0 21 ab 82 3f d5 22 84 3f 63 7f 7f 3f be 66 84 3f
       1.0208474 1.032313 0.9980375 1.0343854
0001b0 0e 1b 83 3f e0 2c 84 3f 5d 98 81 3f e8 24 84 3f
       1.0242631 1.0326195 1.0124623 1.0323763
0001c0 6d 54 7d 3f b4 c1 82 3f 75 dd 84 3f 01 e0 85 3f
       0.9895695 1.0215364 1.0380083 1.0458986
0001d0 42 4c 86 3f 5b a1 7c 3f 18 da 7e 3f 0f c6 7e 3f
       1.0492022 0.9868371 0.99551535 0.99520963
0001e0 12 2b 7e 3f b3 bf 7a 3f 1a 4b 83 3f a2 ba 7c 3f
       0.9928447 0.9794876 1.0257294 0.9872228
0001f0 bd 87 80 3f a0 4c 80 3f 51 fd 82 3f 93 98 83 3f
       1.0041424 1.0023384 1.0233556 1.0280937
000200 56 b7 7d 3f 7e 74 80 3f 6c 96 7c 3f ef bf 7c 3f
       0.99107873 1.003555 0.98667026 0.9873037
000210 8c c1 7f 3f c0 c3 81 3f 48 49 81 3f 34 04 83 3f
       0.99904704 1.0137863 1.0100489 1.0235658
000220 6d 59 83 3f 72 11 7b 3f 73 b0 81 3f a4 91 7b 3f
       1.0261666 0.98073494 1.0131973 0.98269105
000230 b1 5b 84 3f 56 2a 81 3f 87 a9 7f 3f d1 74 80 3f
       1.0340482 1.0091045 0.99868053 1.003565
000240 72 d1 85 3f ec 8f 80 3f b2 38 81 3f ca ee 82 3f
       1.0454543 1.0043921 1.0095427 1.0229123
000250 c7 7e 82 3f 32 ae 81 3f 8a 63 84 3f 85 5b 7d 3f
       1.0194939 1.0131285 1.0342877 0.9896777
000260 b2 86 81 3f 78 8d 7d 3f ef 82 83 3f a9 4a 7d 3f
       1.0119231 0.9904399 1.0274333 0.9894205
000270 df 8f 7f 3f a8 4a 82 3f b3 6a 7b 3f 5c 2d 81 3f
       0.99828905 1.0179033 0.98209685 1.0091968
000280 06 cc 7c 3f db 32 83 3f 13 4f 7c 3f 0d 08 81 3f
       0.98748815 1.0249895 0.9855816 1.0080582
000290 c3 b5 81 3f 56 1d 7f 3f 39 6e 8a 3f 79 10 7c 3f
       1.0133594 0.9965414 1.0814887 0.98462635
0002a0 39 d3 82 3f f4 2d 80 3f 63 20 85 3f fb 2e 7d 3f
       1.022071 1.0014024 1.0400509 0.9889981
0002b0 1b 83 80 3f 98 52 81 3f b6 0d 82 3f 30 8b 81 3f
       1.004001 1.0103331 1.0160434 1.0120602
0002c0 82 25 7c 3f 9c 66 82 3f d5 7a 7d 3f 67 2f 81 3f
       0.9849473 1.0187564 0.9901555 1.0092591
0002d0 5b b8 81 3f 3e 14 82 3f d5 02 82 3f 97 8a 7c 3f
       1.0134386 1.0162427 1.0157114 0.9864897
0002e0 d2 1b 83 3f 97 5c 82 3f 04 96 7e 3f 45 c8 7d 3f
       1.0242865 1.0184506 0.99447656 0.9913371
0002f0 17 e4 81 3f e9 2b 80 3f 6a a9 81 3f 53 38 7f 3f
       1.0147732 1.00134 1.0129826 0.9969532
000300 8d 53 80 3f d0 ed 81 3f 42 cf 80 3f 61 55 83 3f
       1.0025498 1.01507 1.006325 1.026043
000310 7c 22 88 3f 66 49 81 3f 16 d8 85 3f f4 83 81 3f
       1.0635524 1.0100524 1.0456569 1.0118394
000320 eb 5c 80 3f 0f 9b 82 3f 36 e0 83 3f 5c 4c 7c 3f
       1.0028356 1.020357 1.0302799 0.98554015
000330 8e 2e 83 3f 83 c0 7d 3f 23 00 7b 3f 7b b3 7e 3f
       1.0248582 0.99121875 0.98047084 0.99492615
000340 d7 05 7e 3f d9 af 82 3f 88 24 85 3f a3 44 80 3f
       0.9922766 1.0209914 1.0401773 1.0020946
000350 5f 99 81 3f ae e1 7f 3f 2d 72 84 3f a2 03 80 3f
       1.012493 0.99953735 1.0347344 1.0001109
000360 f2 4a 82 3f 37 cc 82 3f 68 4f 82 3f db 86 7e 3f
       1.0179121 1.0218571 1.0180483 0.99424523
000370 5f 97 83 3f a0 61 7b 3f d2 8d 7e 3f f4 0b 82 3f
       1.028057 0.9819584 0.9943515 1.0159898
000380 c1 37 82 3f 7b 48 7e 3f a0 0d 81 3f 44 bf 7f 3f
       1.0173265 0.99329346 1.0082283 0.99901223
000390 4f 2d 81 3f 79 03 87 3f 7d 02 7f 3f 6d dd 83 3f
       1.0091952 1.0547935 0.9961317 1.0301949
0003a0 23 c6 87 3f 5e ae 7b 3f 44 0a 81 3f 6e 85 83 3f
       1.0607342 0.9831294 1.0081258 1.0275095
0003b0 db af 86 3f ce cc 84 3f 4b 4d 80 3f 24 47 78 3f
       1.0522417 1.0375001 1.0023588 0.9698355
0003c0 59 70 7a 3f 3b 5e 7a 3f 67 46 81 3f ec 44 86 3f
       0.9782768 0.97800034 1.009961 1.0489783
0003d0 49 e3 7e 3f 94 d9 7b 3f b5 bd 7c 3f e1 97 7e 3f
       0.9956556 0.9837887 0.9872697 0.994505
0003e0 72 c4 83 3f d9 65 81 3f 61 77 7f 3f bf 08 82 3f
       1.0294325 1.0109206 0.9979153 1.0158919
0003f0 fa 08 80 3f 37 63 80 3f 5b 3a 85 3f 6a 1a 88 3f
       1.000274 1.0030278 1.0408434 1.0633061

BN1.bias f4 [256]
000000 e8 38 32 3d 08 65 3a bd 32 d6 14 bc 91 2b bd 3d
       0.0435113 -0.045506507 -0.009084271 0.09236825
000010 13 63 4e 3d 1f f6 83 bd 85 74 57 bc 6a 08 33 bd
       0.050387453 -0.06443428 -0.013150339 -0.043709196
000020 c8 1a 19 bc c7 cb 1e bd d5 2a 00 3d ba d9 77 bc
       -0.009344764 -0.038768556 0.031290848 -0.015127594
000030 44 39 f4 3c 3d 5e b1 bd c2 36 b2 bd c7 e7 a9 bc
       0.029812463 -0.08660553 -0.087018505 -0.020740403
000040 45 de 2b bc 65 d5 21 3b c6 7c fe bc da 10 86 bc
       -0.010490005 0.0024693843 -0.031065356 -0.016365457
000050 a0 ff 79 3c ce 94 e0 3c 36 f8 09 be e0 a8 dc bc
       0.0152587 0.027414706 -0.13473591 -0.026935995
000060 e8 7e a1 3c 7d 3f 44 bd f7 37 a6 bc 96 b0 bc 3b
       0.019713834 -0.04791211 -0.020290358 0.0057583554
000070 09 6b 24 bd 6f 92 9d bd 43 46 c2 bd da 7b 10 bc
       -0.04014114 -0.076939456 -0.094860576 -0.008818591
000080 3f b8 87 bd db b9 a0 3d 07 eb 8b bd 01 8a d2 3c
       -0.06626939 0.07847949 -0.06831937 0.025700571
000090 41 3b b4 bc 83 d8 0d bd 40 d6 b7 bc cb 25 88 bc
       -0.02200091 -0.03463031 -0.02244103 -0.016619584
0000a0 5c 2a 29 bc 0c 9b e8 bd 81 46 8d bd 03 13 cc bd
       -0.010325041 -0.11357698 -0.06898213 -0.09964564
0000b0 67 c2 f8 3b dc f7 03 bc 2b 38 da bd 06 19 85 bc
       0.007591534 -0.0080547 -0.106552444 -0.016247284
0000c0 b3 1e 62 bd ff 2c 1f bd 17 ce 71 3d c2 58 a1 3b
       -0.05520506 -0.03886127 0.059034433 0.004923911
0000d0 aa ea 55 3d 8d 83 91 bd a1 6e 5a 3d 92 d5 e2 bc
       0.052225746 -0.071051694 0.05332816 -0.027689729
0000e0 2f bb 0a bd 64 56 83 bc d2 66 7f 3c 62 62 b6 bd
       -0.03386992 -0.016032405 0.015588479 -0.08905484
0000f0 42 60 a8 3c 2f d8 4d bd d8 88 16 bd 7c 82 8d bd
       0.020553712 -0.050254997 -0.036751598 -0.069096535
000100 89 21 01 3c 2f 43 bd ba 97 e9 71 3c 75 5b 3b bd
       0.007881531 -0.0014439578 0.014765165 -0.045741517
000110 90 b8 9b 3b ba 16 e4 bc 05 db 6d 3d d0 f4 3e 3d
       0.004752226 -0.027842868 0.0580702 0.04662019
000120 5e 19 e4 bc d6 13 e5 3a 5f a3 68 bb 3b 56 a5 3b
       -0.027844127 0.0017477225 -0.0035497767 0.00504568
000130 72 c0 2c bd f1 56 f3 bd 4e e7 a8 bd 09 4c 23 bd
       -0.042175718 -0.11881817 -0.08247243 -0.039867435
000140 19 bd e3 bc d1 a8 57 3d b8 e2 2c bd 84 51 6f bd
       -0.02780013 0.05265123 -0.042208403 -0.05842735
000150 e1 46 63 bb 12 b0 8d 3d 9c 50 10 bc 1e 53 8e bc
       -0.0034679698 0.06918348 -0.008808281 -0.017373618
000160 7a d6 50 bd 03 1f ec bc cd cc c0 bb 79 b5 d1 bd
       -0.05098579 -0.028823381 -0.005883789 -0.10239691
000170 1a fd 2c bd 7c 80 94 bd 1b f5 29 bd 95 63 2e be
       -0.042233564 -0.07251069 -0.041493516 -0.17030175
000180 d5 54 4e 3d 67 a3 5f bc c6 8e 4c 3d be 38 4d be
       0.05037387 -0.013649798 0.049940847 -0.20041177
000190 ab cd ab bd 61 e3 f2 3c f1 e9 a1 bd 0d a6 51 bd
       -0.083888374 0.029649438 -0.07905949 -0.05118375
0001a0 51 24 2a bd 07 84 55 bd 6c a1 97 bc 7c 97 86 bc
       -0.04153854 -0.052127864 -0.01850959 -0.016429655
0001b0 09 52 fb bc 9b 1d ad bd f3 bc 63 bd ce 5d cf bd
       -0.030678766 -0.084529124 -0.055600118 -0.10125314
0001c0 be 64 5d bd 8c a5 36 3c 7a c3 13 bd 22 67 c9 bd
       -0.054051153 0.011147868 -0.036075093 -0.09834124
0001d0 a7 2f 88 bc 4e fb f7 3a 10 9f 95 bd 00 7a f1 3d
       -0.016624285 0.0018919499 -0.073057294 0.11790848
0001e0 a4 a1 76 3d 95 c9 8f bc 3b 5f eb bd 54 45 2c 3c
       0.060212746 -0.017552176 -0.11492773 0.010514576
0001f0 fb 77 ab 3b 05 ad 08 3d 66 2b 58 bd ec 4e cd bd
       0.0052328086 0.03336813 -0.052775763 -0.10024819
000200 fc 68 af bb 1b 24 02 bd e5 f2 d8 ba 45 70 50 3d
       -0.0053530913 -0.031772714 -0.001655188 0.05088832
000210 a3 15 08 3d 15 4d 87 bd b7 7d 2c 3b c5 ea 8c bd
       0.03322376 -0.06606499 0.002632005 -0.06880716
000220 dc 66 73 bd 21 2e e4 bc 85 ba a2 bd 86 3a 22 3d
       -0.059424266 -0.027854027 -0.07945732 0.039606594
000230 b2 de c8 bd 08 39 98 3c bf e1 1f bd 26 6e bf bd
       -0.09808101 0.018581882 -0.039033648 -0.09347181
000240 13 1c 80 bc 34 3b 1f bd f9 63 6c ba a8 e2 87 bd
       -0.015638387 -0.03887482 -0.00090175826 -0.06635028
000250 66 0b 89 bd c6 b7 c2 bc e0 ec 9c bd 7f fa bc bc
       -0.06691627 -0.02376927 -0.07662368 -0.023068665
000260 bc ed 19 3b 4f fb 00 3d 26 31 b8 bd 4d 45 68 bb
       0.0023487648 0.031489667 -0.08993749 -0.0035441697
000270 56 7f 31 bc 85 c9 15 bd 7c b9 fa bc 9f 44 76 bd
       -0.010833582 -0.036569137 -0.030606024 -0.060124036
000280 68 a3 19 bd cc 87 68 bd da 17 26 3d df 87 e6 3c
       -0.037509352 -0.05677013 0.04055009 0.02814096
000290 b0 ee 5f bd 2a 07 c6 bd 0e 15 e0 bd 5c c5 0a bd
       -0.05467099 -0.09669335 -0.10941516 -0.033879623
0002a0 a8 7e e5 3c 09 09 6a bd aa b9 20 3d 1d 3b 5e bc
       0.028014496 -0.057137523 0.039239563 -0.013563898
0002b0 cc 22 00 bd 3a df 4c bd f7 aa 11 bd 41 46 c8 3c
       -0.031283185 -0.050017573 -0.035563435 0.024447562
0002c0 2d 40 c2 3c 6d 48 05 be d9 e4 f8 3c 64 2f ec 3c
       0.023712242 -0.1301591 0.03038256 0.028831191
0002d0 c5 ec 1b bb 5a 3c 05 bd bf 5a c2 bd 04 ca 9b 3d
       -0.0023792249 -0.03252826 -0.09489965 0.07606891
0002e0 01 f2 fc bb 9d c9 0a bd db 85 c9 3b c8 81 23 3c
       -0.007719279 -0.03388368 0.00614999 0.009979673
0002f0 98 cf 3f bd c3 5e 81 3c 3d 19 d0 3c 5b f6 f5 bc
       -0.046828836 0.015792256 0.02540266 -0.030024698
000300 46 d5 48 bd b5 80 94 3c ec 1e 34 bb b3 5f 25 bd
       -0.04903152 0.018127779 -0.0027484251 -0.04037447
000310 12 e5 c7 bd c5 5e 3e be ea 24 0d be c0 5b 09 bd
       -0.097604886 -0.18590839 -0.13783613 -0.033534765
000320 ab 37 5d 3c 33 32 12 be d9 1b 71 bd b6 77 8c 3c
       0.013502042 -0.14276962 -0.05886445 0.017146926
000330 97 30 9d bd 94 98 8e bc 3e e8 5e 3c f0 0f c1 bc
       -0.076752834 -0.01740674 0.013605176 -0.02356717
000340 68 d9 06 bc f0 3f 97 3c 02 40 c9 bd c5 4a c8 bc
       -0.008230545 0.018463105 -0.09826662 -0.024449715
000350 87 c5 84 bd ab 5d 59 bd c1 e5 e4 bd 7c 34 58 bc
       -0.06482988 -0.053067844 -0.111766346 -0.013196107
000360 45 ea 10 bd 5b ac 8b bd 7c 7a cb bd 9a 25 d9 3c
       -0.035379667 -0.068199836 -0.099354714 0.026507188
000370 09 f6 4f bd e0 91 a5 bc 36 de 32 3d 3f 6e c6 bd
       -0.050771747 -0.02021116 0.043668948 -0.096889965
000380 fa 59 b5 bd ce 0c 0b 3d 5b 44 46 bd a8 c5 8f bc
       -0.08855052 0.03394776 -0.048405033 -0.017550305
000390 9a 81 c3 bc a6 62 ae bd a1 4b 97 bd ce aa 6f bd
       -0.02386551 -0.085149094 -0.07387472 -0.0585125
0003a0 46 bc 72 bb 9d cd 66 3d 50 6f 33 bc 20 d3 93 bd
       -0.003703849 0.05634843 -0.010951832 -0.07218003
0003b0 73 a0 8a bc e7 95 43 bd 63 7b 28 bd 39 46 97 3c
       -0.016922211 -0.04775038 -0.041133296 0.018466102
0003c0 bf b8 6e 3d 12 b5 36 3d 0f 99 cd bd 4f e5 a0 bc
       0.058281656 0.044606276 -0.10038959 -0.019640593
0003d0 2f f0 13 bd e1 ee 38 bd fb ed 11 bd 73 2b 6f bd
       -0.03611773 -0.045149688 -0.035627346 -0.058391046
0003e0 80 bc e8 bd 9e 31 bd bd 3f 74 9f 3c cf ef 8a 3b
       -0.113640785 -0.09237979 0.01946461 0.004240013
0003f0 1e a5 88 bd 24 ff 74 bd ab 98 98 bd d0 84 41 bd
       -0.066721186 -0.059813634 -0.07450994 -0.0472458

BN1.running_mean f4 [256]
000000 ef 1c 0d c1 d1 4a 8b 40 8b fc c0 40 ba 02 00 41
       -8.819564 4.352883 6.030828 8.000666
000010 94 ac cf c0 79 b6 f6 40 d2 b3 c2 41 eb 9c 5b 41
       -6.4898167 7.7097745 24.337803 13.72581
000020 0b d0 0a 41 0c f3 5f c0 70 ce 9c 40 14 a7 9d 41
       8.675792 -3.4992094 4.9002 19.706581
000030 52 fa 07 41 1d 13 98 c0 9e a7 51 c0 6e 4f 79 3f
       8.498613 -4.752333 -3.2758555 0.97386825
000040 f5 71 74 41 03 86 42 c1 62 4e 48 41 f4 32 50 41
       15.277822 -12.157718 12.519136 13.01244
000050 4b 35 3e c0 30 3b 5c 41 0b af 0a 40 32 05 9e 40
       -2.9720027 13.76445 2.1669338 4.938134
000060 16 dd f8 bf 1b 59 15 3e 0e f3 04 c1 cb 65 b6 40
       -1.944247 0.14584772 -8.30934 5.699926
000070 cf e7 7d c0 54 ee 8c bf 56 d5 be 40 f6 dd 9f c0
       -3.9672735 -1.1010232 5.963542 -4.995845
000080 5b e0 ec 40 ae 57 51 bf 85 f2 b0 40 34 db 04 c1
       7.402387 -0.81774414 5.5296044 -8.303516
000090 55 eb 02 c1 78 b6 60 40 54 dd 44 40 a6 7d 60 c0
       -8.182454 3.511137 3.0760088 -3.507669
0000a0 95 80 4f 41 f4 1f 83 41 17 39 ac 40 53 56 eb 3f
       12.968892 16.390602 5.381969 1.8385719
0000b0 c5 08 e9 c0 99 b1 62 40 55 a5 1f 41 04 6c 95 3f
       -7.2823205 3.5420897 9.977864 1.1673589
0000c0 3e cf fb c0 97 90 af c0 17 c2 c9 c0 7a 3a f2 c0
       -7.869048 -5.4864 -6.3049426 -7.5696383
0000d0 ff 09 96 40 6e 1d 5f c1 13 65 69 40 5d f2 2f 40
       4.68872 -13.944685 3.646794 2.7491677
0000e0 59 76 b9 bf 1e a5 b2 40 f6 e2 0c c1 b5 32 bf 40
       -1.4489242 5.582656 -8.80541 5.97494
0000f0 25 b1 f2 3f 76 7a 81 c1 8d 1a 06 40 7e 3a 90 c0
       1.896031 -16.184795 2.0953705 -4.50714
000100 8d e7 df bf 3d ba d0 bf f1 b9 5e 41 90 cd 8c 40
       -1.7492539 -1.6306835 13.920396 4.400093
000110 85 bb 24 c1 09 c5 0d 3f 13 22 1f c0 8e 98 dd c0
       -10.295781 0.55378777 -2.4864547 -6.9248724
000120 53 38 eb bf 6a fe 32 41 25 07 55 c1 e1 6b e6 40
       -1.8376564 11.187113 -13.314244 7.200669
000130 b6 98 fc 40 94 b5 e9 c0 5a f7 fb 40 75 94 86 c0
       7.8936415 -7.3034153 7.8739443 -4.205622
000140 c9 c4 8f 3f cf d8 1d 3e ca d4 cb 40 6f 30 3e 41
       1.1231929 0.15414737 6.369725 11.886825
000150 e5 0d 92 c0 9c 54 52 3d 78 86 26 c1 16 50 55 40
       -4.564196 0.05135022 -10.407829 3.333013
000160 a2 53 60 bf fa 48 4c 40 71 e4 8d 40 92 7f 1c 41
       -0.87627614 3.1919541 4.434136 9.781145
000170 82 26 d0 3f ca bb 06 c1 e4 dd b5 bc c1 7f 83 40
       1.6261752 -8.420847 -0.022200532 4.109345
000180 e8 c7 93 40 6d 34 71 bf f9 b5 3e c1 c5 bc e1 c0
       4.6181526 -0.9422062 -11.919427 -7.054293
000190 78 34 b8 40 99 53 39 c0 24 19 a8 40 44 6b 97 40
       5.756405 -2.8957274 5.253069 4.731844
0001a0 14 73 80 41 b4 16 8c bf 09 1d eb c0 1c 6b df c0
       16.05619 -1.0944428 -7.3472943 -6.981825
0001b0 cd 86 c4 bf 41 40 fd 40 d4 41 3f c1 0f e9 fd c0
       -1.5353638 7.9140935 -11.953571 -7.9346995
0001c0 b9 40 0a 41 00 15 63 c1 6b 0c 06 40 0a 3b 07 41
       8.640801 -14.192627 2.094508 8.451914
0001d0 97 ea 1e c1 e3 d2 4b c1 72 ca be 3f b3 ca 1a c1
       -9.932273 -12.738986 1.4905531 -9.674487
0001e0 80 0d 0f c1 89 8f 79 c1 06 4a a6 40 f2 ba bd c0
       -8.940796 -15.597543 5.196536 -5.9290705
0001f0 c3 e7 d9 3d c8 36 d3 c0 7e a4 b5 c0 ed d3 2e bf
       0.10639908 -6.600437 -5.6763296 -0.68292123
000200 17 15 a2 c0 ba 55 25 c1 2e 68 8e 3f e5 2d 31 c1
       -5.0650744 -10.333429 1.1125543 -11.073705
000210 e1 af 43 bf 21 41 11 c0 5d dc 7b 3f 77 26 2c 41
       -0.76440245 -2.2696002 0.9838312 10.759391
000220 a4 37 82 be 24 c3 89 bf 30 be 2f 40 9e bd 70 41
       -0.25433075 -1.0762677 2.7459831 15.046293
000230 87 de b1 c0 55 3b 0b c1 c3 bf bc 40 5c 51 1c 41
       -5.558414 -8.701985 5.8984084 9.769863
000240 81 15 d9 3e 48 77 87 3e 38 f1 23 c1 bd 70 b5 3f
       0.4239922 0.26458192 -10.246391 1.417503
000250 bb 85 36 c0 d8 3e 7c be 03 42 8b bf 52 ca 1d c0
       -2.8519123 -0.24633348 -1.087952 -2.4654737
000260 35 a5 f1 c0 0e 99 f9 40 d8 7a cb bf bd 58 d9 c0
       -7.551417 7.7999334 -1.5896864 -6.7920823
000270 c1 b4 58 c0 07 b6 85 c1 e1 fc 47 c1 48 ea 0f 41
       -3.3860323 -16.71388 -12.499238 8.994698
000280 72 15 49 c0 b6 06 2c bf bf 5c 27 c1 bc 2d 0c 41
       -3.141934 -0.6719774 -10.460143 8.761166
000290 9a 7a 44 c1 6e 3f 27 c1 98 1e 7d bf ed 78 8d 41
       -12.279932 -10.452986 -0.9887481 17.684046
0002a0 ef 28 92 c1 ee 2a 29 c0 61 7d de 3d 0c f3 3f 41
       -18.269987 -2.6432452 0.10863758 11.996838
0002b0 d7 af 76 41 8b 6e 84 3f 58 d7 84 bf c1 bc 80 c0
       15.41793 1.0346235 -1.0378218 -4.0230412
0002c0 30 ec 01 c0 5a 22 2b 41 ad d7 d8 40 44 b2 76 c1
       -2.0300407 10.695887 6.7763276 -15.418522
0002d0 f6 72 02 c1 fc 55 7c bf df 55 38 41 33 6b 68 41
       -8.153067 -0.985687 11.520965 14.526172
0002e0 5f 7b bc 3f e5 38 21 c1 5e 7a e1 40 a6 10 8f 40
       1.472515 -10.07639 7.0461874 4.4707823
0002f0 a4 23 43 be 02 5e 70 40 e4 40 e5 40 59 88 90 c0
       -0.19056565 3.7557378 7.164171 -4.516644
000300 71 fe 13 c1 4d dc 89 40 bf 35 c0 3f 46 f9 0d c1
       -9.2496195 4.308142 1.5016402 -8.873358
000310 fa f4 71 3f 8e 04 32 c1 48 bd 89 41 04 3d 83 c0
       0.9451443 -11.126112 17.217422 -4.101198
000320 bd c8 41 c1 8d 1f 17 c1 a9 e3 a4 3f 97 07 89 c0
       -12.111508 -9.445203 1.2881976 -4.2821765
000330 6a 27 0f c1 59 a6 4f 41 50 3e 61 41 3f 0c 34 c1
       -8.947123 12.978112 14.077713 -11.25299
000340 a1 a8 98 40 06 97 32 bf 61 c8 39 c1 d2 3b 5e 40
       4.7705846 -0.69761693 -11.611421 3.4724011
000350 b2 0e 92 40 43 a9 e5 c0 db 5a 97 bf 20 6c b2 3f
       4.564294 -7.176912 -1.1824602 1.3939247
000360 ef 3a 3a 40 eb c0 56 c0 20 ae 1b 3f 01 32 63 c0
       2.909847 -3.3555248 0.6081257 -3.549927
000370 08 85 c9 c0 fa f0 5b c1 89 0a 8c c0 05 0e 0d 3f
       -6.297489 -13.746332 -4.376286 0.5509952
000380 e0 df 7c c0 84 ec 47 3f 3c 69 ad bf 33 2e 27 c1
       -3.9511642 0.7809527 -1.354774 -10.448779
000390 d7 38 86 40 ed f5 06 c1 a2 b0 b9 40 05 bc 43 3f
       4.1944385 -8.43504 5.8028116 0.7645877
0003a0 6a c2 5f 40 6e 2d 48 c1 a7 f0 a3 3f 79 74 f8 3e
       3.496241 -12.511091 1.2807816 0.48526362
0003b0 71 8b 0b c1 8f 99 52 40 12 5c 3f c0 7c fc a5 41
       -8.721543 3.2906225 -2.9899945 20.748283
0003c0 70 bd 15 c0 c9 1c c7 40 de 9c 4d c0 42 68 bf 40
       -2.3396873 6.222264 -3.2126994 5.981477
0003d0 29 06 7b 40 d4 35 3e 3f 8f 20 fe c0 4b bb 9e c0
       3.922251 0.74300885 -7.9414744 -4.960363
0003e0 95 0c a5 c1 c5 92 8d 40 0f 49 91 41 41 27 ab c0
       -20.631144 4.424166 18.160673 -5.3485417
0003f0 8f b7 06 c1 bd 6e dd c0 0d 27 d0 40 79 a4 c8 c0
       -8.419814 -6.919768 6.504767 -6.270077

BN1.running_var f4 [256]
000000 23 00 5e 42 92 c4 30 42 bc f1 02 43 80 64 bb 42
       55.500134 44.191963 130.94427 93.69629
000010 f4 4f 1d 43 40 db 45 43 12 03 18 43 ae a0 cd 42
       157.31232 197.85645 152.012 102.81383
000020 7b ee 07 43 4d ad 04 43 24 55 23 43 39 75 3a 43
       135.93156 132.67696 163.33258 186.4579
000030 7f 63 b8 42 41 95 b5 42 31 d9 6e 42 99 19 1d 43
       92.19433 90.79151 59.7121 157.09999
000040 0f d3 e1 42 71 89 b4 42 73 ff 78 42 91 40 0e 43
       112.912224 90.26844 62.249462 142.25221
000050 05 5b e2 42 35 ef 36 42 9c bd d0 41 87 8c 80 42
       113.17777 45.7336 26.092583 64.27447
000060 e8 8c 39 42 49 bc c9 42 ad c2 69 42 57 2b 96 42
       46.387604 100.867744 58.440113 75.08465
000070 0a 04 48 42 fc ae 51 43 48 b7 82 42 a4 d2 f5 42
       50.003944 209.68353 65.35797 122.91141
000080 8b 18 bb 42 21 ca bc 42 f2 01 d8 42 d0 40 38 42
       93.547935 94.39478 108.0038 46.063293
000090 18 00 53 42 04 a6 bb 42 a9 10 03 43 dc 61 45 42
       52.75009 93.82425 131.06508 49.345566
0000a0 34 16 7c 43 78 b8 72 42 6e 7e 83 42 5f 0a 98 42
       252.08673 60.680145 65.74693 76.020256
0000b0 8f 4b 82 43 ef 58 df 42 37 c4 b1 42 67 ff 1e 42
       260.5903 111.6737 88.88323 39.749416
0000c0 f4 c7 c6 42 aa a8 91 42 ff fb ec 42 1a da b4 42
       99.39053 72.82942 118.49218 90.42598
0000d0 44 b0 87 42 3c d2 ea 42 33 ef 79 42 0e 8d c9 42
       67.84427 117.410614 62.483593 100.7755
0000e0 3d 8a 94 42 ae 3e c8 42 66 4f 84 42 a8 a9 d7 41
       74.27 100.12242 66.155075 26.95784
0000f0 6c 37 41 42 66 23 b2 42 9f a3 8d 42 cf 75 bb 42
       48.304123 89.06914 70.81957 93.730095
000100 06 c0 22 43 26 f5 54 42 78 18 9e 42 ca 74 a2 42
       162.75009 53.239403 79.04779 81.2281
000110 83 b6 15 43 2d b4 8f 42 55 46 e7 42 43 17 5a 42
       149.71294 71.851906 115.63737 54.522717
000120 07 0d 8d 42 2e 1c 75 42 67 6f c4 42 18 b3 2a 42
       70.525444 61.27752 98.21758 42.674896
000130 ce 7f 99 42 77 e1 39 42 71 95 ba 42 7a 7c 22 42
       76.74962 46.47018 93.29188 40.62156
000140 d9 7a 15 42 b7 76 ab 42 48 05 85 42 64 46 85 43
       37.36997 85.731865 66.510315 266.54993
000150 9e 2b 81 42 90 b0 1a 42 d4 bd fd 42 c6 3f 3a 42
       64.58519 38.672424 126.87076 46.56228
000160 bc 3b 6e 42 5a 34 e3 42 da 21 d0 42 28 89 60 42
       59.558334 113.60225 104.06612 56.13394
000170 08 d5 72 42 06 4f 6c 42 24 fe 9b 42 50 89 82 42
       60.70804 59.07717 77.99637 65.26819
000180 2c b7 c6 42 13 60 3d 42 13 15 af 42 42 99 f1 42
       99.35776 47.343822 87.54116 120.79933
000190 89 32 f1 42 9f 54 0f 43 e8 7a 31 42 58 20 3b 43
       120.5987 143.33055 44.370026 187.12634
0001a0 64 d3 86 42 bf 68 38 42 1c b5 4f 42 b2 26 97 42
       67.41287 46.10229 51.926865 75.57558
0001b0 2c 3a 80 42 ca 87 b8 42 9d 52 0a 43 d0 30 b0 42
       64.11362 92.26521 138.32271 88.09534
0001c0 3a b7 76 42 13 1a 9b 42 34 80 8a 42 c6 0c 3b 42
       61.678932 77.55093 69.2504 46.762474
0001d0 90 bf 3b 42 2d a5 b0 42 c7 ac a1 42 b2 83 6b 42
       46.937073 88.32261 80.837456 58.87861
0001e0 6c c8 cc 42 44 f1 f1 42 48 57 b0 42 e7 5c 13 43
       102.39145 120.97122 88.17047 147.3629
0001f0 d7 2e 99 42 3a 1e 1d 43 25 04 12 42 51 64 6d 42
       76.591484 157.11807 36.504047 59.347965
000200 e2 25 00 43 a3 02 8b 42 0e 72 a6 42 47 22 dd 42
       128.14798 69.50515 83.22276 110.56695
000210 8c fe 5b 43 91 7d 8f 42 2d cd 13 43 43 ce 99 42
       219.99432 71.74525 147.80147 76.902855
000220 6e aa b6 42 9d 65 70 42 1d ef 9e 42 fb b3 f5 42
       91.33287 60.09923 79.46702 122.851524
000230 ef c8 33 42 ae c0 85 42 da 0b 58 42 39 b3 0b 43
       44.946224 66.87633 54.011574 139.70009
000240 2c 8c 83 41 93 79 d0 42 ea b8 a2 42 77 cb 12 43
       16.443443 104.23745 81.36116 146.79478
000250 14 a5 5a 42 41 2c 81 42 f6 1c 95 42 96 f4 25 43
       54.66121 64.58643 74.556564 165.95541
000260 c9 a2 28 42 81 75 1b 43 91 cc 15 42 8a e0 7c 42
       42.15897 155.459 37.44977 63.219276
000270 da 45 57 42 f9 6f b3 42 35 8e a9 42 1b f6 e4 42
       53.818214 89.7187 84.77775 114.480675
000280 67 9d e1 41 ef 6e f5 42 91 2f bf 42 04 e6 1b 43
       28.201857 122.71667 95.5929 155.8985
000290 8c 65 93 42 30 dd eb 42 81 f3 23 42 61 cc 99 42
       73.69833 117.93201 40.987797 76.89918
0002a0 c0 b7 06 43 d1 3a 81 42 c3 c1 fb 41 8b 75 cf 42
       134.71777 64.614876 31.46961 103.729576
0002b0 9e cc 9f 42 c2 56 b5 42 6d df 75 42 e1 db 35 42
       79.89964 90.66945 61.46819 45.464725
0002c0 81 a0 98 42 ab d9 5a 42 42 a3 11 43 93 7c 19 43
       76.313484 54.712566 145.63773 153.48662
0002d0 63 b2 4c 42 0b 2e 25 42 d6 b8 9f 42 67 a8 74 42
       51.174206 41.294964 79.86101 61.164455
0002e0 88 6d 24 42 ec f0 a4 42 5f 2c c3 42 f8 af 0b 42
       41.106964 82.47055 97.58666 34.921844
0002f0 7e c1 33 42 58 04 80 42 d4 d4 9f 42 7a ae 92 42
       44.938957 64.008484 79.91568 73.340775
000300 2f 8d 16 43 36 af 82 42 87 64 a6 42 93 fd 12 43
       150.5515 65.34221 83.19634 146.99052
000310 4d d2 2f 42 8b a2 86 42 17 f2 02 43 fc d9 3e 42
       43.95537 67.31747 130.94566 47.712875
000320 23 01 a5 42 b6 da 24 43 0f 7d 3d 42 82 40 a2 42
       82.50222 164.85434 47.372128 81.12599
000330 1a 7c da 42 21 c8 e8 42 bb 57 db 42 4f 45 62 42
       109.242386 116.39088 109.67135 56.567684
000340 3b cf 91 42 e1 4c b7 42 3c 5c 69 42 28 4b b2 42
       72.90475 91.650154 58.340073 89.14679
000350 ee 17 d8 42 43 b2 86 42 58 62 35 42 9d 00 a1 42
       108.04674 67.34817 45.34604 80.5012
000360 23 70 ad 42 bb 80 e4 42 47 ca 31 42 3c df 93 42
       86.71902 114.25143 44.447536 73.936005
000370 5c 1f 83 42 96 55 c3 42 3e 94 70 43 50 52 3a 42
       65.56125 97.66716 240.57907 46.580383
000380 2f 20 08 43 2e 81 75 42 65 99 7c 42 ae ad e6 42
       136.12572 61.376152 63.1498 115.33922
000390 c6 27 34 43 fb 4f a0 42 ad 11 2b 43 13 cd 48 42
       180.15536 80.15621 171.06905 50.200268
0003a0 29 58 7d 42 b1 ee 87 42 5a 36 86 42 65 87 85 42
       63.336094 67.966194 67.106155 66.76444
0003b0 20 aa bd 42 24 c5 21 42 21 4a a1 42 53 91 0c 43
       94.832275 40.44252 80.64478 140.56767
0003c0 10 a7 85 42 d2 16 27 43 63 8f cf 42 c4 16 40 42
       66.826294 167.08914 103.78005 48.022232
0003d0 8a 90 ff 42 e5 e2 ac 42 17 5f dc 42 10 90 2e 43
       127.7823 86.44315 110.18572 174.56274
0003e0 e0 4f 43 43 00 3d 0c 43 99 ae 02 43 70 f5 41 42
       195.31201 140.23828 130.68202 48.489685
0003f0 31 9f b6 42 9d 3a c4 42 13 34 32 42 96 60 e4 42
       91.31092 98.11448 44.550854 114.188644

L2.weight f4 [128, 256]
000000 ff 5f ae 3c 67 7a f5 bc ab ad 38 3c 2d 4e ad 3b
       0.021286009 -0.029965593 0.011271874 0.0052888603
000010 5d 8b 94 bc 23 28 42 3d d7 37 83 bb 36 42 cf 3c
       -0.01813286 0.04740156 -0.0040044594 0.025300127
000020 e1 c2 23 bd bd c7 48 bc a3 b3 3b bd 5c d7 76 bd
       -0.039980773 -0.012254653 -0.04582561 -0.060263976
000030 08 ce 31 3d 44 9e 52 3d da 67 c3 3c 5e 45 b0 3c
       0.043409377 0.051420465 0.023853231 0.021517452
000040 92 7b 1d 3d df 74 ff b9 33 81 f6 3c a5 b4 2e 3c
       0.038447924 -0.00048724466 0.030090904 0.010663186
000050 0f 93 7e 3c 47 5a 0a bc b0 63 59 3b 7c 97 27 3d
       0.015537991 -0.008444375 0.003317099 0.04091595
000060 f7 5a 88 3c bc 5b 2a bb cc 0f 62 3d d9 70 19 bd
       0.016644938 -0.002599462 0.055190846 -0.037461136
000070 53 6d 20 bd b9 ce 02 bd 35 89 2d bc 84 4b 9b 3c
       -0.03916676 -0.031935427 -0.010591795 0.018956907
000080 a8 03 26 3d ec d3 28 3d 5c a2 b4 bb 0e 44 7c 3d
       0.04053083 0.04121773 -0.005512519 0.06158834
000090 c0 b0 45 3d 66 c2 2f 3c 93 1c 99 3c 39 00 89 bc
       0.048264265 0.010727501 0.018690383 -0.016723739
0000a0 d8 a3 8c 3d 8e 0b 18 b9 66 ff 9d 3b f5 3a 8d 3c
       0.06867188 -0.00014500154 0.0048217056 0.017240027
0000b0 6b 03 0d bc 42 47 91 3c ae 94 67 bd 2f b9 3c 3a
       -0.008606772 0.017734174 -0.056538276 0.00071992254
0000c0 8c 80 01 3d 29 1a 00 bd 5c a5 d0 3a 8b ff 0f bd
       0.031616732 -0.03127495 0.0015918422 -0.035155814
0000d0 ad 58 77 bd 24 2e 46 3d 4b cb 05 3d 2b 2d 91 3d
       -0.060387302 0.048383847 0.03266458 0.07088693
0000e0 15 a7 1f 3c a9 55 54 bc 97 8f 4c 3d 94 0c f8 3c
       0.009744425 -0.012959876 0.049941625 0.030279435
0000f0 72 f1 39 3c d7 6e 29 bd 7f 29 83 3d 87 9c 07 3d
       0.011349069 -0.04136547 0.06404399 0.03310826
000100 54 ce 8e 3c 95 fa 90 3d 8e c4 16 3d b2 77 4d 3d
       0.01743237 0.07079045 0.036808543 0.05016298
000110 c7 d7 47 bd 1a c4 b7 3d 5d 7c 1e bd 79 71 02 3d
       -0.048789766 0.0897295 -0.03869282 0.031846497
000120 2d eb 6d bd 66 fb 29 bd 0a 2d 3a 3b a2 34 c8 bc
       -0.05808561 -0.041499518 0.0028408193 -0.02443916
000130 cf 4c 8a 3d 23 3a 8d 3d c4 d4 7a bc f4 3e 6f bd
       0.06752931 0.06895854 -0.015309516 -0.058409646
000140 9d d6 3e 3d e5 1d e5 bc f7 0c 4e 3d 7b 42 50 bc
       0.04659139 -0.027968356 0.050305333 -0.012711163
000150 97 0a d0 3b eb 89 ee 3c 76 2f c2 bb 3c f5 3e 3c
       0.0063489187 0.029118499 -0.005926068 0.011655148
000160 76 3d 1f bc be be 4e 3d 0b 4f 80 3c 5f 18 63 bd
       -0.009719243 0.050474875 0.01566269 -0.055443164
000170 df 81 c7 bc 62 2d 63 bd cd 7a 3b 3d 03 67 b3 3c
       -0.02435392 -0.055463202 0.04577141 0.021899706
000180 1c 12 05 3c 6d 83 23 3c 61 72 10 bd 40 1c 6f bc
       0.008121993 0.009980065 -0.03526533 -0.014594138
000190 bb 82 66 3d 78 d3 4b bd c8 31 61 bd 67 e7 84 3d
       0.056277018 -0.04976222 -0.054979116 0.06489449
0001a0 3b b6 c8 bb f3 af 81 3d 86 8e 1a 3c 09 32 9b 3c
       -0.006125239 0.06332388 0.009433394 0.018944757
0001b0 75 32 aa 3c 2a 3f 67 bd 24 4f 84 3d 7d 71 6e 3d
       0.020776013 -0.056456722 0.064604074 0.0582137
0001c0 30 a6 25 3c 74 ff 35 bd 9a 55 87 bd 45 9f 83 bd
       0.010110423 -0.044433072 -0.06608124 -0.064268626
0001d0 8f 3d 6f 3d e9 fc 5c bd 6b 7c 7f bb 44 8d 96 3c
       0.058408316 -0.05395213 -0.003898407 0.018377908
0001e0 4b 37 10 bd cd 51 3f bd c5 88 64 3d ec d5 f9 3c
       -0.03520898 -0.04670887 0.055794496 0.030497514
0001f0 3c 5a 5a bd c4 5c d4 3c 58 fd 03 3d be 1e ba bb
       -0.05330871 0.02592314 0.03222403 -0.0056799343
000200 68 00 22 bd 37 80 0e 3d fe 7e b6 bb e6 40 0e bd
       -0.03955117 0.034790244 -0.005569338 -0.03472986
000210 8e 95 06 3c b0 ed 87 bc 30 14 e9 3c ef 8c c2 bc
       0.008214368 -0.01659283 0.028452009 -0.023748843
000220 dd 69 93 bc 59 2a c1 ba 25 28 45 3d 8a 5a 00 3d
       -0.017994815 -0.0014737352 0.048133988 0.031336345
000230 71 7a 5e 3b ce a5 28 bd 8d b7 d5 3c 02 21 36 bd
       0.0033947492 -0.04117375 0.0260885 -0.044465072
000240 29 32 63 bd 3a a1 56 3c d5 d4 a2 bc bd 7a 3a 3d
       -0.05546776 0.013099963 -0.019876877 0.04552721
000250 52 c6 cb 3b c0 8f 22 3b db 2a 65 ba 3c f4 19 bd
       0.00621871 0.002480492 -0.00087420427 -0.037586436
000260 bf 43 f5 bc 17 2c 68 3d 91 35 63 bc 38 b9 0c bd
       -0.02993953 0.056682672 -0.013867752 -0.034356326
000270 78 a4 41 3d 79 fe fa 3b 88 50 a1 bb 82 1e bf 3c
       0.04727599 0.00765973 -0.00492293 0.023329977
000280 e0 6a 76 bb ed e3 3a bc 93 d2 df 3c 54 b3 43 3c
       -0.0037600324 -0.011406881 0.02732209 0.011944611
000290 ce d0 3f 3d 79 e8 6a bc a2 35 12 3d dc 19 29 3c
       0.04682999 -0.014337652 0.03569568 0.010321107
0002a0 8f 4f 12 bd c3 59 e1 3c dc 9d f6 3c 01 65 bd ba
       -0.035720404 0.027508622 0.03010457 -0.0014449657
0002b0 58 01 e7 3c 4d 76 9e 3b 71 09 50 bd 13 be 47 bd
       0.028198883 0.00483588 -0.050790254 -0.048765253
0002c0 db 1c b4 3c 86 6a 15 3d 12 2a 68 bd 12 49 5f bd
       0.021986416 0.03647854 -0.056680746 -0.054513045
0002d0 8d 81 c1 3c 84 77 0d bd 65 38 ad bc e8 d6 88 bc
       0.023621345 -0.034537807 -0.021145055 -0.016704038
0002e0 47 59 83 3d 72 f1 b9 bb c8 87 5c 3d 9d 86 ac bc
       0.06413513 -0.0056745345 0.05384043 -0.021060282
0002f0 25 b6 7f bd 11 69 94 3d e8 74 5e bc de 0c 4d bc
       -0.062429566 0.07246602 -0.013577677 -0.012515275
000300 7d dc 27 bd 67 d7 43 3d 03 84 19 bb 41 91 90 3d
       -0.04098176 0.047812846 -0.0023424632 0.07058955
000310 af 1c e7 3c 27 51 48 bd 0a d7 a4 bb 6c 72 87 3d
       0.02821192 -0.048905518 -0.0050305175 0.06613621
000320 26 7a 2a 3c 60 e0 4c bc 46 5b cf 3a 9f 23 50 bd
       0.010405099 -0.012504667 0.0015820048 -0.05081522
000330 47 7a 0b 3b f4 75 bc bc 95 bc 0c bc 59 c2 2c bd
       0.00212826 -0.023005463 -0.008589883 -0.042177532
000340 70 c8 06 bd 4d aa 3b bd b9 79 dd 3c 93 72 66 3d
       -0.032905996 -0.04581671 0.027035581 0.05626161
000350 0e 12 3e 3c 45 fc 4d 3d 9c 37 9d 3c 39 29 3c 3d
       0.011600984 0.05028941 0.019191556 0.04593775
000360 eb 5c 85 3d 14 8c 93 bc 41 04 6f 3d c4 a0 40 3c
       0.06511863 -0.01801113 0.058353666 0.0117570795
000370 26 6c 23 3d 87 77 cc bc 92 19 35 bd e1 41 56 bc
       0.03989806 -0.024959339 -0.04421384 -0.01307723
000380 87 ed 18 bc 41 70 a0 3c cf 79 cf 3b 8d 02 13 3d
       -0.009333975 0.019584777 0.0063316594 0.035891104
000390 61 1c 9b 3d 12 fd 3b 3d 89 61 de bc 06 5c fc bc
       0.07573772 0.045895644 -0.027146118 -0.030805599
0003a0 ab 62 be bb e8 35 f2 bb 79 10 ae 3c 48 88 6b 3d
       -0.005810102 -0.00739168 0.02124809 0.057503015
0003b0 a6 c3 08 3c 45 4e 05 bd 3d dd 28 bd 23 f4 6d 3d
       0.0083474275 -0.032545347 -0.041226614 0.058094155
0003c0 c9 ce 62 3d e6 37 52 3c 48 77 7b bd 46 af 06 3d
       0.055372987 0.01283071 -0.061393052 0.032881998
0003d0 c7 94 c1 bb 76 93 60 bd 92 24 a3 3c e0 1d 6e 3c
       -0.005907628 -0.05482813 0.019914899 0.01453349
0003e0 cb e0 2d 3d b0 a5 8e 3c ef d4 83 bc 83 34 65 3d
       0.042450707 0.01741299 -0.016092746 0.055958282
0003f0 39 99 85 bd cb 37 90 3d 61 4f f1 bb 86 14 4e 3d
       -0.065233655 0.07041892 -0.007364199 0.05031254
