Trained_Models/BotDetection_v4_MLP___May-10-2024/BotDetection_v4_MLP_epoch02_val_loss_0.496199.pth (torch, 940121 bytes, 45 tensors)

L1.weight f4 [256, 133]
0.0143913785 0.054971576 0.08490387 -0.04131625 0.011427124 0.019115897 0.07871161 -0.08644868
0.008470406 -0.06591268 0.069903426 0.0391277 -0.0520236 -0.057300147 -0.09975683 0.06266758
0.057349052 -0.040217828 -0.011023496 -0.058768723 -0.05213038 0.00076340296 -0.07524593 0.005772514
0.064154245 -0.077170596 -0.01689522 -0.009839959 0.021981621 -0.010221766 -0.06379852 -0.031940993
-0.07997757 -0.011620904 -0.03303447 0.08223139 -0.0031836098 0.057650767 -0.0749111 -0.010656122
0.06621967 0.04717451 0.024078662 -0.04215709 0.045311015 0.083740085 0.0001205404 0.053749703
-0.05263951 0.043751903 0.020201994 0.07258411 0.049783155 0.081169486 -0.008894623 0.0025343015
-0.004408405 -0.005194647 -0.07318333 -0.04838638 -0.021074357 -0.053392973 -0.07894143 -0.034855835
0.014996991 -0.086336 0.021436226 0.09249579 -0.023528567 -0.044053465 0.064730704 0.012794914
0.04469338 -0.05690795 -0.057794888 -0.03391892 -0.070965946 -0.020082355 -0.016862478 0.0348307
0.02715304 -0.07308456 0.0051899487 -0.028643982 0.024054686 0.060632635 -0.056668144 -0.0154628595
0.015861036 0.056139413 -0.042393696 0.08954192 -0.076859474 0.07733582 0.004557772 0.06972561
0.08338765 -0.03593959 -0.04038301 0.04842374 -0.05056678 0.008789585 0.018912125 -0.058891222
-0.06023993 0.0658691 0.033035822 0.007676536 -0.04743086 -0.08080837 0.038639195 -0.05264549
-0.05690343 -0.008735712 0.014306887 -0.011317421 0.00022363842 0.081927314 0.0816082 0.06523932
-0.00078148296 0.06784946 0.0032684978 0.07652457 0.03381359 -0.038677145 0.020750504 0.044625364
-0.04264413 -0.020088129 -0.009212921 0.027452767 -0.03926126 -0.018360445 -0.004011431 0.0008226274
0.026800929 -0.020968167 0.0092333155 -0.079298764 -0.022472015 0.060661852 0.0075562526 -0.004985595
0.0006620383 -0.05839082 0.018300667 0.050044023 0.014625963 -0.061937097 -0.02613195 -0.02724925
0.06170159 -0.025436765 0.029256204 -0.041354105 -0.013454278 -0.064717695 -0.012280213 -0.08148827
0.048679538 -0.07710338 -0.0727581 0.026703341 -0.020243587 0.060176972 0.05567003 0.011840013
-0.021730566 0.068066426 0.021290967 0.091446474 0.04251418 -0.056509048 -0.07499693 0.028455812
0.00537465 0.08002743 -0.049996544 0.043411303 0.050970007 0.05607902 0.036856752 -0.031487487
0.068668954 0.02056607 0.0002834634 0.057157487 0.0067627197 2.0602742e-05 -0.0041606543 0.05967438
0.000502694 0.074367896 0.03658574 0.049605343 -0.066357344 0.054324955 0.061786335 0.0074677244
0.009680233 -0.00621671 -0.035960846 -0.039314613 0.08183007 -0.040714644 -0.06456433 -0.02021166
0.019606713 0.07084994 -0.060477268 -0.004528257 -0.0195708 0.017792579 -0.0660636 -0.07959946
-0.06918386 0.074998334 -0.043472614 0.06669159 -0.0081887 0.06193608 -0.064750515 0.027345747
-0.031254448 -0.015085875 -0.049155407 0.02518241 -0.06299203 -0.052987106 0.02680182 -0.03344928
0.023586677 0.061509397 0.07984267 0.08929348 0.054684233 0.022754097 0.07732103 0.0760202
-0.0016318795 0.0014798455 0.020771632 -0.033027396 -0.022122579 0.055017926 -0.06676262 0.023173604
-0.05101441 0.047989838 0.08199778 0.084125996 -0.076653965 -0.054863166 -0.054166656 -0.07403145
00000000: d1c9 6b3c e029 613d 15e2 ad3d 3a3b 29bd
00000010: d538 3b3c f198 9c3c 8d33 a13d 010c b1bd
00000020: 75c7 0a3c 3afd 86bd 8729 8f3d 5e44 203d
00000030: b316 55bd 8fb3 6abd 4f4d ccbd dc57 803d
00000040: d7e6 6a3d 73bb 24bd e59b 34bc 79b7 70bd
00000050: aa86 55bd 1b1f 483a 8a1a 9abd 5b27 bd3b
00000060: 4d63 833d 9e0b 9ebd d867 8abc c837 21bc
00000070: cd12 b43c 3279 27bc cca8 82bd 8fd4 02bd
00000080: 48cb a3bd 9b65 3ebc 274f 07bd ee68 a83d
00000090: 1ca4 50bb 3623 6c3d fe6a 99bd 0497 2ebc
000000a0: 2e9e 873d 0f3a 413d 9d40 c53c eaac 2cbd
000000b0: 0b98 393d ec7f ab3d a2ca fc38 a628 5c3d
000000c0: 879c 57bd 3235 333d a77e a53c faa6 943d
000000d0: 6ce9 4b3d 303c a63d c1ba 11bc 8616 263b
000000e0: 6274 90bb db37 aabb 24e1 95bd cc30 46bd
000000f0: 21a4 acbc 97b2 5abd 0bac a1bd fec4 0ebd
00000100: f0b5 753c eed0 b0bd 069b af3c 6f6e bd3d
00000110: fbbe c0bc 6871 34bd 8891 843d c2a1 513c
00000120: 6810 373d 5018 69bd 55ba 6cbd 91ee 0abd
00000130: 9856 91bd c083 a4bc 2e23 8abc a3aa 0e3d
00000140: 0d70 de3c 5cad 95bd 7210 aa3b c9a6 eabc
00000150: 550e c53c ed59 783d db1c 68bd ef57 7dbc
00000160: 01ef 813c 71f2 653d 03a5 2dbd c161 b73d
00000170: 8068 9dbd 3e62 9e3d 5d59 953b 4dcc 8e3d
00000180: 25c7 aa3d 6435 13bd a868 25bd f957 463d
00000190: 1d1f 4fbd 3102 103c 9aed 9a3c ec37 71bd
000001a0: 25be 76bd 61e6 863d 9250 073d 748b fb3b
000001b0: dd46 42bd dc7e a5bd 2244 1e3d cca2 57bd
000001c0: 9213 69bd 3b20 0fbc 6f67 6a3c b46c 39bc
000001d0: 7b80 6a39 82c9 a73d 3322 a73d 319c 853d
000001e0: 6fdc 4cba a8f4 8a3d 4b34 563b eab8 9c3d
000001f0: 1e80 0a3d ed6b 1ebd f6fc a93c 16c9 363d
00000200: 9cab 2ebd dc8f a4bc cbf1 16bc a0e4 e03c
00000210: 6ad0 20bd a568 96bc 5272 83bb 97a5 573a
00000220: 9f8d db3c 6fc5 abbc 5547 173c 6467 a2bd
00000230: 3b17 b8bc 9078 783d 719a f73b 345e a3bb
00000240: a38c 2d3a 362b 6fbd 48eb 953c f6fa 4c3d
00000250: bca1 6f3c c1b1 7dbd ac12 d6bc d239 dfbc
00000260: ceba 7c3d c360 d0bc b5aa ef3c ec62 29bd
00000270: 556f 5cbc b68a 84bd f232 49bc 52e3 a6bd
00000280: 3264 473d 60e8 9dbd 3302 95bd f7c0 da3c
00000290: e1d5 a5bc 217c 763d 4206 643d 9dfc 413c
000002a0: 4d04 b2bc 6966 8b3d 656a ae3c 4a48 bb3d
000002b0: 5923 2e3d 0876 67bd fe97 99bd 2a1c e93c
000002c0: d51d b03b 6ce5 a33d 2dc9 4cbd 0dd0 313d
000002d0: edc5 503d 1db3 653d 1bf7 163d 06f9 00bd
000002e0: 4fa2 8c3d 2d7a a83c d09d 9439 f81d 6a3d
000002f0: ce99 dd3b 0dd4 ac37 1956 88bb 1f6d 743d
00000300: 39c7 033a 324e 983d eeda 153d f92e 4b3d
00000310: 5ce6 87bd d883 5e3d ab13 7d3d d0b3 f43b
00000320: d799 1e3c 8bb5 cbbb ae4b 13bd 5c08 21bd
00000330: 8696 a73d 66c4 26bd 4e3a 84bd ec92 a5bc
00000340: 429e a03c c619 913d 03b7 77bd c661 94bb
00000350: f152 a0bc bec1 913c 5a4c 87bd 0b05 a3bd
00000360: 45b0 8dbd ba98 993d 5710 32bd 9a95 883d
00000370: e629 06bc b0b0 7d3d eb9b 84bd 3004 e03c
00000380: aa04 00bd bf2a 77bc 2e57 49bd 574b ce3c
00000390: f701 81bd 0209 59bd 7e8f db3c 1d02 09bd
000003a0: d938 c13c 47f1 7b3d 8e84 a33d 80df b63d
000003b0: 93fc 5f3d cd66 ba3c 7d5a 9e3d 7bb0 9b3d
000003c0: cae4 d5ba 60f7 c13a 4529 aa3c bc47 07bd
000003d0: 693a b5bc 7a5a 613d d7ba 88bd 92d6 bd3c
000003e0: 7cf4 50bd fe90 443d 74ee a73d 404a ac3d
000003f0: c1fc 9cbd 33b8 60bd dbdd 5dbd cd9d 97bd

L1.bias f4 [256]
-0.081497796 -0.018500999 0.061281074 -0.01689028 -0.021760654 -0.06104968 0.03268125 0.04169221
-0.052460343 -0.07699285 -0.023187159 0.060578953 -0.06438948 -0.035766814 -0.08509468 -0.009845947
0.018551864 0.035230555 -0.041367307 0.08282554 0.007309685 -0.061888468 0.017413635 0.031816743
0.055957384 0.061425768 -0.02208626 -0.017393973 -0.0434328 0.035387926 -0.06611982 -0.023181897
-0.013987243 -0.071011946 0.033517502 0.019674612 0.07379332 -0.053694814 0.078022785 0.036521256
-0.026861815 -0.06608313 -0.08183361 0.03171149 -0.042197563 -0.025033176 -0.03371371 -0.016255852
0.0074215466 0.07449252 0.056575738 0.064427584 0.004827949 -0.02664182 -0.039862663 0.0499313
-0.0072966893 0.033804193 -0.077621825 0.043604724 -0.04532709 -0.009414996 0.069653064 0.052812446
-0.050172586 0.071574144 -0.07019602 0.03960997 0.014013085 0.079796925 0.0087981885 -0.01876708
0.073845915 -0.051475126 0.060021047 -0.032646127 -0.011673774 -0.03749346 0.05670854 -0.054391406
-0.024604324 0.006148404 0.07698335 -0.011811018 -0.03709814 -0.009874832 0.019566193 -0.038224254
0.08602434 0.035027295 -0.030721752 0.050646268 -0.0252452 0.0189887 -0.015183069 -0.06746559
-0.07232916 -0.07545054 -0.048099123 -0.005355354 0.01127764 0.014286623 0.038883395 0.005351865
0.084343575 -0.020239018 0.018220859 0.017809885 0.042698793 0.06914803 0.032500524 0.043127745
0.07676649 0.041919705 0.07875995 0.04405991 0.041843366 -0.010822436 -0.053883888 0.07687896
0.04465075 0.025925344 0.03505351 -0.023975143 -0.010219907 0.069172025 0.022585947 -0.08404726
0.07013256 0.025722887 -0.042446293 -0.038777176 -0.06456783 0.0810923 -0.040838808 -0.03898403
0.027819712 -0.034589484 0.045518372 -0.030414792 -0.020731688 -0.026827771 0.004911859 0.043461043
-0.013557927 0.068054914 -0.08547945 -0.06631142 0.024389403 -0.006513613 -0.013146811 0.024856154
-0.070724696 -0.009166 -0.061488617 0.077166334 0.01887835 0.051543977 -0.055616774 -0.02074115
0.046481274 0.073209405 -0.07236468 -0.0234551 -0.015513945 0.08026349 -0.05368064 0.032003157
0.0633635 -0.06557232 0.08157931 -0.08513323 -0.06369828 -0.0251043 0.0043226136 0.0030868852
0.064476356 0.074573435 -0.02357528 0.020155968 -0.030420851 0.024544975 -0.0017104801 0.040416732
0.0015171982 -0.026900023 0.03704643 0.06254024 -0.04043591 0.023151567 9.603708e-05 -0.024994899
0.036945608 0.04940819 0.038930655 -0.073792525 -0.031423837 0.071495324 0.049587138 0.04881154
-0.052453488 0.031118529 -0.010909118 -0.033557795 0.051682476 0.08326825 0.03875969 0.0634097
-0.049558077 0.042663015 -0.08006088 -0.020851757 -0.020765116 -0.07131412 -0.0271798 0.06543874
-0.04260829 0.07475659 0.042986702 -0.034960415 0.048782248 -0.080563344 0.036273543 -0.04105216
-0.06845749 0.085290894 -0.00334479 -0.053318176 0.085625894 0.021723602 -0.01310108 -0.032774396
0.078200445 0.048106078 0.07821863 0.03156657 0.068209074 -0.0008538669 0.019361125 0.02183408
0.081940815 0.064984925 0.051818527 -0.08345021 0.06345013 0.04731858 -0.019241186 0.015913557
-0.085164405 -0.048365645 0.066916145 -0.07986074 0.00048299326 0.015325053 -0.0040547964 -0.05058044
00000000: 51e8 a6bd 688f 97bc dd01 7b3d 7c5d 8abc
00000010: 6643 b2bc 3b0f 7abd c6dc 053d 73c5 2a3d
00000020: a8e0 56bd 6dae 9dbd fff2 bdbc a321 783d
00000030: a2de 83bd 3980 12bd 1f46 aebd e550 21bc
00000040: 14fa 973c ea4d 103d c470 29bd 70a0 a93d
00000050: 1586 ef3b c37e 7dbd 0aa7 8e3c 4652 023d
00000060: 9233 653d 9699 7b3d 3fee b4bc ce7d 8ebc
00000070: 97e6 31bd eef2 103d d469 87bd f6e7 bdbc
00000080: c02a 65bc b66e 91bd a649 093d a72c a13c
00000090: f420 973d 18ef 5bbd 69ca 9f3d 5097 153d
000000a0: 4f0d dcbc 9856 87bd 6198 a7bd e8e3 013d
000000b0: 5ad7 2cbd 6012 cdbc 6317 0abd fe2a 85bc
000000c0: 7230 f33b 898f 983d f6bb 673d 9cf2 833d
000000d0: c633 9e3b f23f dabc 0847 23bd c384 4c3d
000000e0: 1119 efbb 4476 0a3d 31f8 9ebd de9a 323d
000000f0: e6a8 39bd 5b41 1abc 44a6 8e3d dd51 583d
00000100: c581 4dbd 7795 923d eec2 8fbd 103e 223d
00000110: 2397 653c 926c a33d 4726 103c 6bbd 99bc
00000120: 873c 973d 95d7 52bd a1d8 753d f2b7 05bd
00000130: 5b43 3fbc be92 19bd 3747 683d 86c9 5ebd
00000140: 028f c9bc 8d78 c93b 72a9 9d3d 0083 41bc
00000150: 38f4 17bd 0cca 21bc 4849 a03c 0991 1cbd
00000160: 872d b03d c878 0f3d 2fac fbbc 7672 4f3d
00000170: 06cf cebc 318e 9b3c 68c2 78bc 662b 8abd
00000180: 5021 94bd d085 9abd 9603 45bd f77b afbb
00000190: dac5 383c 7112 6a3c 3244 1f3d b35e af3b
000001a0: 53bc ac3d 4ccc a5bc e943 953c 09e6 913c
000001b0: eee4 2e3d 7b9d 8d3d 451f 053d b8a6 303d
000001c0: c037 9d3d ffb3 2b3d e64c a13d 2a78 343d
000001d0: f363 2b3d 9650 31bc 5ab5 5cbd b772 9d3d
000001e0: b4e3 363d 6361 d43c 4594 0f3d 8567 c4bc
000001f0: 6671 27bc 10aa 8d3d 2a06 b93c f820 acbd
00000200: a9a1 8f3d ceb8 d23c 2adc 2dbd d1d4 1ebd
00000210: 233c 84bd b813 a63d 9846 27bd b8ad 1fbd
00000220: 2ae6 e33c b4ad 0dbd 7971 3a3d 7128 f9bc
00000230: 80d5 a9bc eac5 dbbc a9f3 a03b 3504 323d
00000240: 1122 5ebc 6060 8b3d da0f afbd 48ce 87bd
00000250: 49cc c73c 2570 d5bb b965 57bc 229f cb3c
00000260: 1cd8 90bd fe2c 16bc 7ddb 7bbd 6209 9e3d
00000270: c5a6 9a3c c71f 533d 6ace 63bd 58e9 a9bc
00000280: 2663 3e3d d0ee 953d ef33 94bd e924 c0bc
00000290: 342e 7ebc 2f61 a43d 3be0 5bbd be15 033d
000002a0: b9c4 813d c84a 86bd 0e13 a73d 555a aebd
000002b0: 3e74 82bd 88a7 cdbc b6a4 8d3b 574d 4a3b
000002c0: 2e0c 843d f5b9 983d f220 c1bc 211e a53c
000002d0: 2635 f9bc 8b12 c93c 3032 e0ba 048c 253d
000002e0: b9dc c63a 705d dcbc ffbd 173d 1915 803d
000002f0: 20a0 25bd 5ba8 bd3c 8467 c938 1ac2 ccbc
00000300: 4754 173d 3e60 4a3d c075 1f3d 8920 97bd
00000310: 48b6 00bd 246c 923d e21b 4b3d 9cee 473d
00000320: 78d9 56bd 49ec fe3c 28bc 32bc e673 09bd
00000330: 01b1 533d 8b88 aa3d 7bc2 1e3d f2dc 813d
00000340: 69fd 4abd 6abf 2e3d f5f6 a3bd 4ed1 aabc
00000350: 9b1b aabc 230d 92bd 2ca8 debc bf04 863d
00000360: 0886 2ebd fc19 993d d312 303d a732 0fbd
00000370: e5cf 473d 65fe a4bd 9193 143d 4f26 28bd
00000380: 7133 8cbd feac ae3d 4434 5bbb 2964 5abd
00000390: a15c af3d b2f5 b13c eaa5 56bc 723e 06bd
000003a0: 8e27 a03d e10a 453d 1731 a03d f34b 013d
000003b0: 33b1 8b3d 0ad6 5fba 399b 9e3c 62dd b23c
000003c0: 96d0 a73d d116 853d aa3f 543d f2e7 aabd
000003d0: 24f2 813d 21d1 413d b19f 9dbc 265d 823c
000003e0: ad6a aebd 0e1b 46bd 550b 893d 078e a3bd
000003f0: 423a fd39 ee15 7b3c 19de 84bb 6f2d 4fbd

BN1.weight f4 [256]
1.0026795 0.9903642 0.99420667 0.99597657 0.9945037 1.0044231 0.9984428 0.99583864
1.0006504 0.99373055 1.0012151 0.99920046 1.0028678 0.99452126 1.0112171 1.008633
0.99779826 0.9997076 0.99864537 0.9999746 0.99850005 1.0023761 1.0008745 1.0089697
1.0097225 1.0085235 0.99778515 0.9993801 0.99948 1.0026037 1.0043888 1.0020443
1.0002394 0.9884968 0.99165964 1.0002545 0.9969223 1.0092955 0.9995009 0.99756396
1.0079287 0.9935366 1.0025384 1.0023507 0.9999415 1.0042635 1.0071433 0.9974397
1.0091664 0.99655265 0.9936972 0.99495345 0.9876174 1.0025111 0.99524504 1.0050617
0.9960243 0.99749374 1.0032141 1.0038851 1.000173 1.0037245 0.9983548 1.0037782
1.0001323 0.993566 1.0069084 1.0032675 1.0020353 0.9977856 1.0092323 0.99989325
1.0085578 0.9969223 1.0065418 1.00664 0.9955933 1.0044506 1.0070475 0.9968815
0.9971103 1.0044322 0.99600315 1.0030692 1.0036818 0.99907315 1.0058976 0.993914
1.00819 1.0020268 1.0066766 1.0004513 0.99417144 1.0058829 1.0023953 1.0069306
0.9996291 0.9961223 1.00369 0.9965503 0.995448 0.99452823 1.0008687 1.0021363
1.0069689 1.0110471 0.99626255 1.0054653 0.99649733 1.0078093 1.0005001 1.007807
0.9989842 1.0012822 0.9942312 1.003064 1.0038354 1.010941 0.99548274 0.99620694
1.0044613 0.9913496 0.99906456 1.0025408 1.0011247 0.999731 0.99450195 1.0001069
0.9940184 0.99620354 1.0003586 1.0058903 1.0049384 1.0035746 1.0028808 1.0059248
1.0109605 0.99913275 1.0010704 0.9912257 1.0002332 0.9905281 1.0062973 1.0052241
1.0034842 1.0070086 0.9966591 1.0081676 0.9956721 1.0057344 1.003053 0.9992669
0.99472153 0.99605805 1.0058025 0.99323463 1.0049593 1.0041645 0.99531037 0.99990493
0.99662215 1.006678 1.0040106 1.009896 1.0087298 0.9983343 1.0006225 0.9935168
1.0065225 0.9978095 1.0014354 0.99209094 0.99646497 1.0062494 0.9925887 0.9990901
1.0038335 0.9968231 0.9991994 1.0063794 1.0034719 1.0024506 0.9989948 1.0044515
0.9988627 1.0067501 1.0007663 0.9977877 1.0038662 1.0092348 0.99291205 1.0077827
1.003924 1.0096908 0.99435127 1.0102074 1.0006894 1.0047677 0.9958823 1.0040295
1.0067275 0.9958269 0.99649495 0.9970396 1.0071945 0.99195236 1.0062708 0.9946767
0.99958277 1.0012953 1.0134047 1.0027773 0.9977468 1.0008401 0.99928796 0.99358356
0.9963301 1.0040349 0.9964051 0.99447507 1.0102944 0.99911714 0.99850196 0.9986986
0.99514526 0.99731606 0.9963427 0.9890003 1.0066603 0.9972267 1.0046444 0.99515206
1.0162275 1.0013763 0.99163175 0.99836636 1.0110124 0.99822456 0.9956236 0.99084526
0.9977395 0.99997425 1.005188 1.0056529 1.0012579 0.99577 0.99433005 1.0043715
1.00474 1.0074276 0.99861294 1.0019284 0.99466044 0.99563384 1.0028236 0.99713916
00000000: cd57 803f 8288 7d3f 5484 7e3f 52f8 7e3f
00000010: cb97 7e3f f090 803f f399 7f3f 48ef 7e3f
00000020: 5015 803f 2065 7e3f d127 803f 9acb 7f3f
00000030: f95d 803f f298 7e3f 906f 813f e31a 813f
00000040: b56f 7f3f d6ec 7f3f 39a7 7f3f 56fe 7f3f
00000050: b39d 7f3f dc4d 803f a81c 803f eb25 813f
00000060: 963e 813f 4c17 813f d96e 7f3f 60d7 7f3f
00000070: ecdd 7f3f 5155 803f d08f 803f fd42 803f
00000080: d807 803f 200e 7d3f 68dd 7d3f 5708 803f
00000090: 4d36 7f3f 9830 813f 4adf 7f3f 5a60 7f3f
000000a0: cf03 813f 6a58 7e3f 2e53 803f 074d 803f
000000b0: 2bfc 7f3f b58b 803f 12ea 803f 3558 7f3f
000000c0: 5d2c 813f 131e 7f3f f162 7e3f 45b5 7e3f
000000d0: 7ed4 7c3f 4952 803f 61c8 7e3f dda5 803f
000000e0: 73fb 7e3f c05b 7f3f 5269 803f 4f7f 803f
000000f0: ab05 803f 0b7a 803f 2e94 7f3f ce7b 803f
00000100: 5604 803f 575a 7e3f 60e2 803f 126b 803f
00000110: b142 803f e16e 7f3f 862e 813f 01f9 7f3f
00000120: 6c18 813f 4d36 7f3f 5dd6 803f 94d9 803f
00000130: 34df 7e3f d691 803f efe6 803f a033 7f3f
00000140: 9f42 7f3f 3c91 803f 10fa 7e3f 9264 803f
00000150: a578 803f 42c3 7f3f 41c1 803f 2671 7e3f
00000160: 5f0c 813f 6a42 803f c7da 803f ca0e 803f
00000170: 0582 7e3f c5c0 803f 7d4e 803f 1ae3 803f
00000180: b1e7 7f3f df01 7f3f ea78 803f ec1d 7f3f
00000190: aed5 7e3f 6799 7e3f 771c 803f 0146 803f
000001a0: 5be4 803f fe69 813f 100b 7f3f 16b3 803f
000001b0: 731a 7f3f e5ff 803f 6310 803f d2ff 803f
000001c0: 6ebd 7f3f 042a 803f f085 7e3f 6764 803f
000001d0: ae7d 803f 8466 813f f5d7 7e3f 6b07 7f3f
000001e0: 3092 803f 16c9 7d3f b2c2 7f3f 4253 803f
000001f0: db24 803f 5fee 7f3f ae97 7e3f 8103 803f
00000200: fd77 7e3f 3207 7f3f c00b 803f 03c1 803f
00000210: d2a1 803f 2275 803f 665e 803f 25c2 803f
00000220: 2767 813f 2ac7 7f3f 1323 803f f8c0 7d3f
00000230: a407 803f 4093 7d3f 5ace 803f 2fab 803f
00000240: 2c72 803f a8e5 803f 0d25 7f3f a30b 813f
00000250: 5ee4 7e3f e8bb 803f 0a64 803f f5cf 7f3f
00000260: 12a6 7e3f a9fd 7e3f 23be 803f a044 7e3f
00000270: 82a2 803f 7688 803f a9cc 7e3f c5f9 7f3f
00000280: a122 7f3f d3da 803f 6b83 803f 4644 813f
00000290: 0f1e 813f d692 7f3f 6614 803f 1e57 7e3f
000002a0: bbd5 803f 7270 7f3f 092f 803f acf9 7d3f
000002b0: 5418 7f3f c8cc 803f 4b1a 7e3f 5ec4 7f3f
000002c0: 9e7d 803f cc2f 7f3f 88cb 7f3f 0ad1 803f
000002d0: c471 803f 4d50 803f 20be 7f3f de91 803f
000002e0: 77b5 7f3f 30dd 803f 1c19 803f 046f 7f3f
000002f0: b07e 803f 9b2e 813f 7c2f 7e3f 06ff 803f
00000300: 9580 803f 8c3d 813f ce8d 7e3f 7a4e 813f
00000310: 9716 803f 3a9c 803f 24f2 7e3f 0a84 803f
00000320: 72dc 803f 83ee 7e3f 4b1a 7f3f fd3d 7f3f
00000330: c0eb 803f 97f0 7d3f 7bcd 803f 22a3 7e3f
00000340: a8e4 7f3f 722a 803f 3fb7 813f 025b 803f
00000350: 566c 7f3f 871b 803f 56d1 7f3f 7e5b 7e3f
00000360: 7d0f 7f3f 3784 803f 6814 7f3f eb95 7e3f
00000370: 5451 813f 24c6 7f3f d39d 7f3f b6aa 7f3f
00000380: d7c1 7e3f 1b50 7f3f 5110 7f3f 202f 7d3f
00000390: 3fda 803f 404a 7f3f 3098 803f 49c2 7e3f
000003a0: be13 823f 192d 803f 94db 7d3f f094 7f3f
000003b0: db68 813f a58b 7f3f 30e1 7e3f 09a8 7d3f
000003c0: db6b 7f3f 50fe 7f3f 00aa 803f 3cb9 803f
000003d0: 3829 803f c8ea 7e3f 6a8c 7e3f 3f8f 803f
000003e0: 529b 803f 63f3 803f 19a5 7f3f 313f 803f
000003f0: 11a2 7e3f dce1 7e3f 865c 803f 8344 7f3f

BN1.bias f4 [256]
0.012071705 0.013788791 0.0068403194 0.021732919 0.012057931 -0.00079055247 0.0075892056 -0.012734682
-0.012549954 0.0027688541 0.0022141235 0.010402562 0.008817977 -0.0048413225 -0.010954844 -0.008602485
-0.009987554 -0.0077680293 0.011840175 0.0064577153 0.004098324 0.0048721815 -0.0006021587 -0.009735108
-0.005828236 -0.014915772 -0.011598167 0.007574272 0.0058173263 -0.0023053514 0.00688589 -0.0075931554
-0.012335657 0.0138149625 0.0052600643 -0.0021591024 -0.0070476905 -0.01439145 -0.006802544 -0.009329645
-0.018588876 -0.0064559453 -0.0014375586 -0.0051911874 0.0063470937 -0.0068333517 -0.014164895 0.0022158155
-0.005489259 0.009618474 0.006915385 0.0039762496 0.017922483 -0.0059159948 0.0012325442 -0.009927596
0.01353687 0.008748798 -0.002824952 0.004960417 0.00025683665 -0.0109359445 0.0078028236 -0.002475312
-0.0026924366 0.0030224947 0.008732301 -0.0033224039 -0.0077785715 0.0030423945 -0.0019166408 0.016298944
-0.0139864525 0.011512435 -0.009948864 -0.0035521071 0.0077690138 -0.015683763 -0.007217961 -0.0030166516
-0.007546142 -0.0005767222 -0.0015228366 -0.010421633 -0.005214002 0.008334561 -0.009209937 0.0025083513
-0.0120790545 -0.012443332 0.0011479604 0.010415401 0.011337893 -0.0027113748 0.009962065 -0.0059444834
0.00872764 -0.0018432124 -0.011831215 -0.0020523616 0.009737683 0.0043076575 -0.009129636 -0.008764268
-0.00985506 -0.009948317 0.003435264 0.0019268619 -0.00035334958 -0.014205292 -0.005333569 -0.005125945
0.009852737 -0.008694329 0.00570214 0.004683318 -0.00756321 -0.0139786815 -0.001243904 -0.0038496074
-0.013499158 0.0007954726 0.007258592 0.004692176 -0.016440216 0.014587538 0.010510585 0.009926261
-0.00044422012 0.014838826 0.0017086803 -0.0018484447 0.006028893 -0.0030720423 -0.021453692 -0.01831031
-0.019110339 -0.01060315 -0.005273844 0.0070509356 0.01230362 0.0082345605 -0.013714908 -0.01132237
0.014923526 -0.017089328 0.007956566 -0.0069964575 -0.004758633 -0.0054499884 0.0020798724 0.0017139092
-0.0041906605 0.010129321 0.002859485 -0.0013357396 -0.005791114 -0.013460469 -0.0028146328 0.00083001924
-0.0026946233 -0.014648299 -0.006323221 -0.011224732 0.0037098115 0.008713818 -0.0063543683 -0.0055822004
-0.008216475 -0.0032277214 0.010306247 -0.0007376277 -0.0010075405 -0.012297807 0.010801919 0.0171001
-0.0066470862 -0.003388905 -0.011995136 -0.0054741744 -0.0074740513 0.01183438 0.0046646926 0.0017206019
-0.0015879206 -0.00784669 -0.0065469653 0.011419374 -0.016346725 -0.012976028 0.0054071145 -0.009129085
-0.0111876065 0.0087525835 0.005997063 -0.011271182 -0.004155667 -0.014805866 -0.0037198171 -0.009423094
-0.010269193 0.015247075 -4.9251168e-05 -0.0024849023 -0.014818579 0.0054529873 -0.0069819223 0.009878471
0.009430598 -0.0005597122 -0.019656299 -0.005573675 -0.006490386 -0.0141432835 -0.004518988 -0.0039506964
0.010726734 -0.008462127 -0.013142836 -0.0027387773 0.0004014171 0.00070093904 -0.004771736 -0.010530841
-0.0058804466 0.017852068 0.011411835 0.012339853 -0.002037622 -0.0025458534 0.0012449179 -0.008270657
-0.012288825 -0.017539028 -0.0011708386 -0.0007018915 -0.0010804274 0.010965596 -0.0038814994 -0.005017414
-0.0016034619 -0.0016818461 -0.01238109 0.00084350567 0.0029604367 -0.0015422963 -0.010691906 -6.776848e-05
-0.013763921 -0.00752561 0.013499349 0.0010164484 0.002912846 -0.0012849661 0.009163361 0.0027090125
00000000: 67c8 453c 62ea 613c c224 e03b 3c09 b23c
00000010: a18e 453c 143d 4fba dfae f83b 21a5 50bc
00000020: 529e 4dbc aa75 353b d41a 113b 826f 2a3c
00000030: 4779 103c f5a3 9ebb f27b 33bc 70f1 0cbc
00000040: d6a2 23bc f48a febb 4bfd 413c 3e9b d33b
00000050: 3c4b 863b d2a6 9f3b 30da 1dba 0180 1fbc
00000060: cafa bebb 4861 74bc 3d06 3ebc 9931 f83b
00000070: 459f be3b 6115 17bb 08a3 e13b 01d0 f8bb
00000080: 7f1b 4abc 2758 623c 9e5c ac3b ba7f 0dbb
00000090: 50f0 e6bb 1eca 6bbc e0e7 debb 5edb 18bc
000000a0: b347 98bc 658c d3bb 766c bcba d61a aabb
000000b0: 48fb cf3b 4fea dfbb e013 68bc 3737 113b
000000c0: 3edf b3bb ce96 1d3c 749a e23b 334b 823b
000000d0: 2cd2 923c f6da c1bb 528d a13a 5ba7 22bc
000000e0: bfc9 5d3c 1e57 0f3c d422 39bb fe8a a23b
000000f0: 08a8 8639 ad2c 33bc d4ae ff3b d838 22bb
00000100: 9773 30bb 0c15 463b ed11 0f3c b0bc 59bb
00000110: 63e3 febb e962 473b cb37 fbba 5d85 853c
00000120: 6f27 65bc a79e 3c3c 8f00 23bc 78ca 68bb
00000130: 3693 fe3b 3c7b 80bc a584 ecbb 04b3 45bb
00000140: a145 f7bb 2c2f 17ba eb99 c7ba 7fbf 2abc
00000150: 38da aabb af8d 083c 47e5 16bc 2763 243b
00000160: 3ae7 45bc 1edf 4bbc 2977 963a 5ca5 2a3c
00000170: 92c2 393c 52b1 31bb ee37 233c f1c9 c2bb
00000180: 60fe 0e3c f297 f1ba b6d7 41bc ea80 06bb
00000190: ce8a 1f3c 4027 8d3b 7894 15bc 0198 0fbc
000001a0: 1e77 21bc 44fe 22bc 2b22 613b c28e fc3a
000001b0: c741 b9b9 50bd 68bc 38c5 aebb 8bf7 a7bb
000001c0: 606d 213c a972 0ebc 04d9 ba3b 8576 993b
000001d0: ced4 f7bb d706 65bc 7e0a a3ba b249 7cbb
000001e0: 932b 5dbc 4387 503a 7cd9 ed3b d3c0 993b
000001f0: a2ad 86bc 9200 6f3c 9734 2c3c c2a1 223c
00000200: 37e6 e8b9 8c1e 733c ccf5 df3a 8347 f2ba
00000210: 058e c53b 5154 49bb a7bf afbc 81ff 95bc
00000220: 498d 9cbc d6b8 2dbc 36d0 acbb 890b e73b
00000230: 1f95 493c 40ea 063c 7eb4 60bc 7681 39bc
00000240: ce81 743c ebfe 8bbc 425c 023c 8a42 e5bb
00000250: 4fee 9bbb d195 b2bb 784e 083b 40a5 e03a
00000260: cf51 89bb 74f5 253c 3366 3b3b fc13 afba
00000270: 63c3 bdbb 4d89 5cbc b475 38bb a695 593a
00000280: 4798 30bb 6bff 6fbc 0633 cfbb f0e7 37bc
00000290: 4f20 733b 67c4 0e3c 4e38 d0bb e4ea b6bb
000002a0: 659e 06bc 2e88 53bb 88db 283c 5b5d 41ba
000002b0: 730f 84ba be7c 49bc 88fa 303c 8215 8c3c
000002c0: cdcf d9bb 6418 5ebb 3f87 44bc b460 b3bb
000002d0: e3e8 f4bb fde4 413c 47da 983b d285 e13a
000002e0: c621 d0ba 678f 00bc ed87 d6bb 5318 3b3c
000002f0: 91e9 85bc 6899 54bc 2a2e b13b 2892 15bc
00000300: 394c 37bc ff66 0f3c 0383 c43b c4aa 38bc
00000310: 432c 88bb 4e94 72bc 2dc8 73bb 5263 1abc
00000320: 1e40 28bc dece 793c 0a93 4eb8 bed9 22bb
00000330: a0c9 72bc f9ae b23b 9cc8 e4bb 4fd9 213c
00000340: cb82 1a3c a6b9 12ba 3f06 a1bc 60a3 b6bb
00000350: 4ead d4bb 3bb9 67bc 0514 94bb d874 81bb
00000360: 2fbf 2f3c bca4 0abc 0d55 57bc 0f7d 33bb
00000370: 4b75 d239 39bf 373a 395c 9cbb 8c89 2cbc
00000380: c3b0 c0bb 803e 923c b5f8 3a3c 182d 4a3c
00000390: a089 05bb 55d8 26bb 832c a33a a681 07bc
000003a0: 1157 49bc 02ae 8fbc d376 99ba 24ff 37ba
000003b0: 219d 8dba 0ba9 333c c160 7ebb 1f69 a4bb
000003c0: 412b d2ba 6471 dcba 0eda 4abc b51e 5d3a
000003d0: e303 423b e026 caba 1b2d 2fbc ed1e 8eb8
000003e0: 1282 61bc 6499 f6bb 602c 5d3c 593a 853a
000003f0: 72e5 3e3b 4f6c a8ba ec21 163c b089 313b

BN1.running_mean f4 [256]
-11.412809 4.306786 6.7986865 6.5489893 -9.84334 8.741363 24.183529 9.60131
8.569785 0.06355678 4.137556 17.204119 8.753112 -4.45634 0.52251005 2.3703103
15.069759 -10.822137 9.042821 11.364935 -3.119019 11.157564 3.9851034 8.821768
-2.3344378 1.1464766 -4.5903344 6.8753786 -2.6393926 2.1759732 5.3056054 -6.849151
8.161265 -0.12014309 12.217625 -14.300893 -9.330843 2.2576427 -0.42078424 -3.5672107
10.65885 14.691339 5.272601 5.663105 -6.9725943 1.9994822 12.854315 1.4013011
-8.74641 -7.7039495 -6.638375 -5.853752 6.778581 -17.11266 4.0126333 3.7916563
-2.480768 10.36946 -10.373235 7.87349 2.885454 -14.945372 1.6933191 -1.537508
-0.28802025 -2.2959206 12.637499 6.134311 -12.969787 2.3818183 -2.800641 -10.770585
-4.152776 9.546492 -13.678869 10.141802 8.908618 -4.256759 8.338197 -2.788499
4.314766 1.4696676 7.206657 4.866832 -3.0357468 0.27789423 -11.7368355 2.3298223
-3.7296462 4.0181503 3.110531 13.036728 2.6018963 -7.818982 -0.45395738 7.655118
4.250721 0.45963725 -10.889147 -4.0975723 4.5040793 1.5452763 3.4417424 2.307847
15.757157 -0.14966947 -7.488314 -5.6336937 0.5923257 9.274612 -11.16205 -6.4765034
9.019293 -17.562737 5.0856957 8.822116 -9.796374 -12.957742 1.776483 -13.076053
-7.131369 -15.499323 1.7092184 -4.589497 4.2772613 -8.570141 -7.470243 3.5572639
-7.2369137 -13.13955 -1.0375674 -12.24597 6.5089493 -1.9166843 1.1350765 8.115502
1.3431293 0.047792956 7.418545 13.986213 -8.39421 -9.24029 5.0522966 10.054774
1.4718435 2.0473948 -8.875413 -0.3862512 -0.5130249 11.519979 -0.0013110549 -3.9542773
-10.308914 10.693406 -1.9194003 -9.421837 -2.7926583 -15.144692 -12.393702 11.628021
-2.4049032 0.4148547 -8.907535 12.089902 -11.669089 -5.8642917 2.396212 14.823129
-19.465624 -5.7764883 -1.9255396 11.870374 14.926612 1.4343786 -0.4233725 -7.825008
-0.5028454 7.9376097 0.7451988 -18.565615 -8.842482 -1.0879816 12.694012 13.37354
5.541266 -6.8411546 11.648181 6.4786296 2.3727098 3.471101 6.6040325 -8.465387
-8.896287 0.972008 3.0286522 -8.603735 0.8144964 -9.801178 17.475145 -2.5326898
-14.140785 -11.960624 7.3419423 -7.036729 -7.804008 15.616233 13.018597 -13.201703
6.6905756 1.2534217 -10.464507 4.354903 3.2350204 -4.3059254 -1.2958692 5.208506
4.678849 -3.1307695 -0.4055914 -2.8373206 -6.0964417 -12.659468 -1.300422 2.6223452
-5.3931346 2.7140932 -3.3124437 -11.5259285 -0.84883446 -8.149738 6.6118045 4.173681
3.9795625 -14.71122 -0.6025826 4.8405905 -7.361553 4.277375 -2.7681987 21.306438
-2.1196914 8.061816 -1.285504 8.773087 4.8830013 0.3482523 -9.117106 -3.568538
-17.237135 7.830013 14.795516 -6.566838 -9.774996 -4.0936117 9.598668 -9.992752
00000000: de9a 36c1 31d1 8940 d78e d940 5291 d140
00000010: 527e 1dc1 9fdc 0b41 de77 c141 f79e 1941
00000020: d71d 0941 0f2a 823d dc66 8440 09a2 8941
00000030: bf0c 0c41 569a 8ec0 38c3 053f 2ab3 1740
00000040: bc1d 7141 7927 2dc1 65af 1041 c6d6 3541
00000050: 029e 47c0 6285 3241 ef0b 7f40 f625 0d41
00000060: 6e67 15c0 bfbf 923f 05e4 92c0 1a03 dc40
00000070: cfeb 28c0 2543 0b40 85c7 a940 3f2c dbc0
00000080: 8b94 0241 950d f6bd 647b 4341 75d0 64c1
00000090: 224b 15c1 387d 1040 0871 d7be 2e4d 64c0
000000a0: a68a 2a41 b90f 6b41 26b9 a840 2838 b540
000000b0: 7e1f dfc0 08ef ff3f 46ab 4d41 d65d b33f
000000c0: 4cf1 0bc1 c186 f6c0 916d d4c0 f051 bbc0
000000d0: 23ea d840 bae6 88c1 7e67 8040 7faa 7240
000000e0: e7c4 1ec0 4fe9 2541 c5f8 25c1 a1f3 fb40
000000f0: 47ab 3840 3e20 6fc1 aebe d83f 10cd c4bf
00000100: 6477 93be 5df0 12c0 3233 4a41 474c c440
00000110: 3f84 4fc1 b66f 1840 b43d 33c0 5154 2cc1
00000120: 8ae3 84c0 6ebe 1841 a6dc 5ac1 d244 2241
00000130: b389 0e41 5f37 88c0 4169 0541 c576 32c0
00000140: 9012 8a40 111e bc3f ef9c e640 16bd 9b40
00000150: ad49 42c0 2748 8e3e 14ca 3bc1 cf1b 1540
00000160: 86b2 6ec0 b094 8040 f112 4740 7096 5041
00000170: 7885 2640 1a35 fac0 1a6d e8be baf6 f440
00000180: e805 8840 9355 eb3e f239 2ec1 501f 83c0
00000190: 6b21 9040 9dcb c53f 8245 5c40 c4b3 1340
000001a0: 511d 7c41 f442 19be 45a0 efc0 3847 b4c0
000001b0: a8a2 173f d064 1441 c297 32c1 843f cfc0
000001c0: 064f 1041 7c80 8cc1 05be a240 6327 0d41
000001d0: f3bd 1cc1 e952 4fc1 cc63 e33f 8337 51c1
000001e0: 2d34 e4c0 3afd 77c1 abc7 da3f 29dd 92c0
000001f0: 53df 8840 4c1f 09c1 3b0c efc0 36aa 6340
00000200: cc94 e7c0 993b 52c1 02cf 84bf 7eef 43c1
00000210: 5049 d040 e955 f5bf 304a 913f 19d9 0141
00000220: a9eb ab3f 8cc2 433d b864 ed40 87c7 5f41
00000230: af4e 06c1 3ad8 13c1 6aac a140 5be0 2041
00000240: 5e65 bc3f 8408 0340 b101 0ec1 b8c2 c5be
00000250: 9a55 03bf d551 3841 b4d7 abba e112 7dc0
00000260: 50f1 24c1 3118 2b41 e9ae f5bf d8bf 16c1
00000270: eaba 32c0 a950 72c1 9a4c 46c1 600c 3a41
00000280: efe9 19c0 d667 d43e 4385 0ec1 3d70 4141
00000290: 97b4 3ac1 47a8 bbc0 8a5b 1940 892b 6d41
000002a0: 99b9 9bc1 fed8 b8c0 1578 f6bf 0ded 3d41
000002b0: 67d3 6e41 b899 b73f 48c4 d8be 7766 fac0
000002c0: 7aba 00bf e600 fe40 59c5 3e3f 6186 94c1
000002d0: ce7a 0dc1 fb42 8bbf ac1a 4b41 05fa 5541
000002e0: 0d52 b140 bdea dac0 f35e 3a41 ef50 cf40
000002f0: 7ada 1740 8526 5e40 3c54 d340 3a72 07c1
00000300: 3157 0ec1 84d5 783f 70d5 4140 e6a8 09c1
00000310: d682 503f a0d1 1cc1 19cd 8b41 9717 22c0
00000320: a840 62c1 b75e 3fc1 31f1 ea40 e22c e1c0
00000330: 6fba f9c0 17dc 7941 2c4c 5041 2d3a 53c1
00000340: 3219 d640 1f70 a03f 9f6e 27c1 5e5b 8b40
00000350: 930a 4f40 24ca 89c0 0bdf a5bf 15ac a640
00000360: 22b9 9540 875e 48c0 ada9 cfbe a996 35c0
00000370: 0d16 c3c0 2e8d 4ac1 3a74 a6bf 81d4 2740
00000380: 8f94 acc0 b4b3 2d40 14ff 53c0 346a 38c1
00000390: 374d 59bf 5465 02c1 e793 d340 cb8e 8540
000003a0: 27b1 7e40 2861 6bc1 da42 1abf 1ee6 9a40
000003b0: d891 ebc0 42e0 8840 2b2a 31c0 9673 aa41
000003c0: 06a9 07c0 33fd 0041 658b a4bf 905e 0c41
000003d0: 8c41 9c40 204e b23e abdf 11c1 ed62 64c0
000003e0: a7e5 89c1 778f fa40 6fba 6c41 8923 d2c0
000003f0: 6266 1cc1 defe 82c0 2594 1941 50e2 1fc1

BN1.running_var f4 [256]
63.772778 48.886703 129.57196 83.66297 170.48032 187.2945 139.97533 107.66549
151.07948 134.0804 154.71379 187.51909 75.45113 120.50658 58.475845 150.3237
147.10408 96.18832 61.67248 143.18565 106.34413 42.29509 28.726633 72.86968
53.836384 108.97916 55.658764 56.87924 56.751446 182.28056 65.273544 120.761765
96.72616 104.490776 145.34363 80.80457 61.171387 99.94779 156.83795 36.9173
208.86383 76.80476 83.12101 78.163666 267.9359 149.03093 77.18067 39.24882
120.37329 85.33721 126.17124 125.543365 55.349976 144.7544 71.10157 86.464226
69.56269 105.83781 59.99133 24.992376 59.893803 81.31895 55.9813 63.116333
196.15393 48.866055 89.171745 76.999245 120.116234 141.30086 116.632164 73.49407
85.50049 66.67562 112.12716 49.50368 77.504524 54.655544 99.55169 43.043034
36.43376 104.28983 69.52115 258.9123 63.101936 47.65234 141.98712 54.522884
60.45844 108.492615 104.363976 50.531128 50.770103 89.71802 109.074875 61.59398
129.02388 39.242397 81.70765 100.9403 173.46388 144.62798 35.774776 199.36174
84.44698 44.326138 60.41453 85.049095 78.504364 95.21541 145.64035 113.81215
52.45221 111.68094 74.56792 40.75697 57.755554 78.24606 84.68421 54.778904
122.433105 98.28766 98.21652 191.12003 66.729675 134.41782 52.35051 53.491013
128.73248 87.74432 72.79062 119.37181 222.54044 47.925007 131.4676 91.95637
102.73459 63.53044 77.51664 127.13126 38.296066 78.82971 52.141388 118.697
27.011038 84.39772 71.70978 137.93933 60.87989 101.83445 60.36516 188.14053
52.756447 179.01097 39.352497 62.122807 57.632603 83.87963 83.471245 224.6186
39.94765 124.85624 92.11095 156.76024 59.082157 117.7264 53.99547 78.13123
137.67868 67.76145 60.68942 111.42188 81.13383 84.760994 79.69732 50.22605
74.236404 90.81521 145.41664 170.79352 85.92114 51.52636 70.07674 74.43044
68.421135 74.00209 128.57658 39.508385 49.9801 61.977726 103.9993 63.46544
207.48485 140.32999 107.28002 141.28581 43.424904 65.63371 122.99468 68.19726
85.164734 159.04713 91.28387 92.85285 115.17734 159.02882 118.85216 61.002228
99.87997 69.978905 60.167763 93.08592 142.80057 57.891468 47.41159 83.24126
87.90804 142.16576 33.742558 75.64164 106.96814 79.77506 213.41731 48.08917
137.7622 55.659313 91.801186 116.96452 189.07256 71.265656 199.6251 57.18125
70.29261 82.93743 130.28375 62.426933 68.2822 40.480534 79.38492 141.54028
57.397724 175.6549 104.50202 53.17917 101.55916 79.8147 100.313965 182.74863
232.11879 193.76576 137.20433 72.28023 87.98009 116.48998 42.042423 209.92412
00000000: 5317 7f42 fc8b 4342 6c92 0143 7153 a742
00000010: f67a 2a43 644b 3b43 aff9 0b43 bb54 d742
00000020: 5914 1743 9514 0643 bbb6 1a43 e384 3b43
00000030: fbe6 9642 5e03 f142 44e7 6942 de52 1643
00000040: a51a 1343 6b60 c042 9fb0 7642 872f 0f43
00000050: 32b0 d442 2c2e 2942 25d0 e541 47bd 9142
00000060: 7558 5742 54f5 d942 93a2 5e42 5784 6342
00000070: 7b01 6342 d347 3643 0e8c 8242 0686 f142
00000080: cb73 c142 47fb d042 f857 1143 f19b a142
00000090: 80af 7442 45e5 c742 84d6 1c43 51ab 1342
000000a0: 24dd 5043 0a9c 9942 f53d a642 cc53 9c42
000000b0: ccf7 8543 eb07 1543 815c 9a42 cbfe 1c42
000000c0: 20bf f042 a7ac aa42 ad57 fc42 3416 fb42
000000d0: 6066 5d42 20c1 1043 0134 8e42 afed ac42
000000e0: 1920 8b42 f5ac d342 1ff7 6f42 63f0 c741
000000f0: 4193 6f42 4da3 a242 daec 5f42 2077 7c42
00000100: 6827 4443 d776 4342 ef57 b242 9dff 9942
00000110: 833b f042 054d 0d43 ab43 e942 f7fc 9242
00000120: 4000 ab42 eb59 8542 1b41 e042 c503 4642
00000130: 5102 9b42 479f 5a42 771a c742 112c 2c42
00000140: 2cbc 1142 6594 d042 d40a 8b42 c674 8143
00000150: 6268 7c42 ff9b 3e42 b4fc 0d43 6f17 5a42
00000160: 71d5 7142 38fc d842 5bba d042 e01f 4a42
00000170: 9614 4b42 a06f b342 5626 da42 3c60 7642
00000180: 1d06 0143 37f8 1c42 516a a342 6fe1 c942
00000190: c176 2d43 c3a0 1043 5f19 0f42 9b5c 4743
000001a0: dbe4 a842 f74d 3142 7ba8 7142 2319 aa42
000001b0: 3c02 9d42 4a6e be42 eea3 1143 d29f e342
000001c0: 10cf 5142 a45c df42 c622 9542 2307 2342
000001d0: b005 6742 fc7d 9c42 515e a942 991d 5b42
000001e0: c0dd f442 4893 c442 dc6e c442 ba1e 3f43
000001f0: 9875 8542 f66a 0643 ec66 5142 ccf6 5542
00000200: 84bb 0043 187d af42 cc94 9142 5ebe ee42
00000210: 5a8a 5e43 35b3 3f42 b577 0343 a9e9 b742
00000220: 1c78 cd42 2c1f 7e42 8508 9b42 3543 fe42
00000230: 2c2f 1942 d0a8 9d42 c890 5042 dd64 ed42
00000240: 9b16 d841 a2cb a842 686b 8f42 78f0 0943
00000250: 0285 7342 3dab cb42 ed75 7142 fa23 3c43
00000260: 9a06 5342 cf02 3343 f568 1d42 c17d 7842
00000270: c987 6642 5fc2 a742 47f1 a642 5d9e 6043
00000280: 65ca 1f42 65b6 f942 ce38 b842 9fc2 1c43
00000290: 2154 6c42 eb73 eb42 5cfb 5742 3143 9c42
000002a0: bead 0943 dd85 8742 f7c1 7242 01d8 de42
000002b0: 8544 a242 a185 a942 0765 9f42 7ae7 4842
000002c0: 0a79 9442 63a1 b542 a96a 1143 24cb 2a43
000002d0: a0d7 ab42 fe1a 4e42 4a27 8c42 63dc 9442
000002e0: 9fd7 8842 1201 9442 9b93 0043 9608 1e42
000002f0: 9feb 4742 31e9 7742 a4ff cf42 9cdc 7d42
00000300: 1f7c 4f43 7a54 0c43 5f8f d642 2b49 0d43
00000310: 1ab3 2d42 7644 8342 47fd f542 ff64 8842
00000320: 5854 aa42 110c 1f43 5791 b642 a9b4 b942
00000330: cc5a e642 6107 1f43 4eb4 ed42 4802 7442
00000340: 8bc2 c742 33f5 8b42 caab 7042 fe2b ba42
00000350: f2cc 0e43 dd90 6742 78a5 3d42 867b a642
00000360: ebd0 af42 6f2a 0e43 61f8 0642 8548 9742
00000370: b0ef d542 d58c 9f42 d56a 5543 4f5b 4042
00000380: 20c3 0943 23a3 5e42 359a b742 d6ed e942
00000390: 9312 3d43 0488 8e42 07a0 4743 9ab9 6442
000003a0: d195 8c42 f7df a542 a448 0243 2eb5 7942
000003b0: 7d90 8842 11ec 2142 14c5 9e42 508a 0d43
000003c0: 4597 6542 a8a7 2f43 0901 d142 78b7 5442
000003d0: 4a1e cb42 20a1 9f42 c0a0 c842 a6bf 3643
000003e0: 691e 6843 09c4 4143 4f34 0943 7a8f 9042
000003f0: cef5 af42 dffa e842 712b 2842 93ec 5143

L2.weight f4 [128, 256]
0.029613772 -0.032558303 0.017909331 0.0046283687 -0.026577441 0.034704298 0.004545671 0.026212506
-0.039004132 -0.0049088094 -0.045462027 -0.062395878 0.045100804 0.05133077 0.016806848 0.021806827
0.025569577 -0.0060591493 0.029491734 0.010507687 0.0040663397 -0.021655323 0.028759416 0.032547146
0.016877364 -0.0022856751 0.0458237 -0.032517333 -0.0284012 -0.034975067 -0.00282876 0.03230384
0.029831907 0.054705005 -0.009670581 0.05291547 0.032437585 0.0028217966 0.016935386 -0.02892268
0.061580975 0.008676057 0.004747578 -0.00062097394 -0.013805853 0.034233894 -0.047179192 0.0068491185
0.023287492 -0.03624012 -0.0052924445 -0.025206326 -0.04378714 0.05095062 0.037352446 0.06522885
0.0035555551 -0.011205408 0.043168448 0.016961979 0.011796465 -0.044096094 0.05786817 0.03664583
0.016736742 0.06541281 0.045177057 0.03977447 -0.04676116 0.060822435 -0.04597654 0.03498801
-0.038112275 -0.029104136 0.004692922 -0.022999136 0.060285427 0.05530405 -0.019239761 -0.05907589
0.04495244 -0.026374957 0.05517076 -0.001194433 -0.0059797373 0.031988636 -0.010317219 0.009567228
-0.02273283 0.047925167 0.012539309 -0.0498522 -0.026868712 -0.056905914 0.027029334 0.004156314
0.0051233345 0.0010649312 -0.05107732 -0.009975165 0.045576118 -0.05310442 -0.03896949 0.05279364
-0.011346026 0.057037484 0.009281868 0.0076207398 0.02077177 -0.05662849 0.053369157 0.055389278
0.013476392 -0.034748193 -0.05804519 -0.0501527 0.050274514 -0.042205825 -0.011842562 0.022427056
-0.045258947 -0.035542555 0.05828809 0.034230344 -0.055046927 0.028462384 0.019133305 -0.007207834
-0.04950434 0.029723372 -0.004733469 -0.03554332 0.008274906 -0.014429243 0.021697635 -0.023978436
-0.016673777 -0.0060096425 0.044869654 0.03299062 0.013828552 -0.041039888 0.020961422 -0.061903957
-0.04273807 0.020642083 -0.023142884 0.039925598 0.020523245 -0.00198295 -0.0029952978 -0.033175364
-0.028341413 0.05598145 -0.007959937 -0.040442754 0.054688882 -0.011648965 0.0051392405 0.021816289
-0.002734711 -0.012088678 0.032500308 0.009525933 0.044840347 -0.008722008 0.05313109 0.012487977
-0.05494693 0.018887421 0.01464546 -0.015511606 0.014443557 0.0022624508 -0.051418703 -0.056718808
0.022073168 0.042014748 -0.0637281 -0.054923795 0.010221047 -0.043913677 -0.031621765 -0.009179722
0.06224781 -0.010247148 0.03871739 -0.0154369585 -0.05492231 0.0660932 -0.022281349 0.0010892277
-0.026176907 0.051837094 -0.0015503832 0.06329203 0.019254643 -0.05468112 0.009188125 0.05981686
0.0066244905 -0.016988775 -0.0019946406 -0.048573885 -0.012180194 -0.030961515 -0.008828699 -0.042947076
-0.03881395 -0.039580893 0.03066813 0.057431016 0.014581257 0.04122318 0.0069859936 0.045603473
0.052843977 -0.028583698 0.056533057 0.018375883 0.031888727 -0.029844364 -0.044845715 -0.015803788
-0.01195741 0.024460465 0.006107719 0.039425466 0.06193838 0.01597705 -0.0287383 -0.04351579
-0.017673824 -0.0088439435 0.008156951 0.05013351 -0.0086601805 -0.036998056 -0.044040076 0.051482446
0.047984175 0.009283961 -0.05637868 0.026299639 -0.012896533 -0.047114205 0.005294777 0.006682284
0.032259688 0.01657284 -0.009056674 0.045414913 -0.046312936 0.06436078 -0.0040087476 0.03503295
00000000: 9598 f23c db5b 05bd 97b6 923c 92a9 973b
00000010: efb8 d9bc 1826 0e3d daf3 943b 9cbb d63c
00000020: ccc2 1fbd 14da a0bb 6436 3abd d292 7fbd
00000030: 9fbb 383d 3740 523d 84ae 893c 3ba4 b23c
00000040: 4a77 d13c d48b c6bb a698 f13c 6f28 2c3c
00000050: ee3e 853b 8166 b1bc de98 eb3c 2850 053d
00000060: 6642 8a3c 44cb 15bb a2b1 3b3d e530 05bd
00000070: a2a9 e8bc 0442 0fbd b862 39bb 0851 043d
00000080: 0b62 f43c 5b12 603d 5b71 1ebc e4bd 583d
00000090: 46dd 043d e4ed 383b 14bc 8a3c 42ef ecbc
000000a0: 553c 7c3d 0526 0e3c 9291 9b3b dbc8 22ba
000000b0: f231 62bc d738 0c3d f83e 41bd 926e e03b
000000c0: 69c5 be3c 8570 14bd 3e6c adbb 7f7d cebc
000000d0: 255a 33bd 99b1 503d e1fe 183d b496 853d
000000e0: 5104 693b e396 37bc 66d1 303d d9f3 8a3c
000000f0: f645 413c 1b9e 34bd 2d07 6d3d f019 163d
00000100: 7e1b 893c 27f7 853d 940b 393d 8eea 223d
00000110: a188 3fbd f220 793d e551 3cbd 964f 0f3d
00000120: 9e1b 1cbd cc6b eebc 15c7 993b af68 bcbc
00000130: daed 763d 8086 623d b49c 9dbc 8ff9 71bd
00000140: 0d20 383d 4b10 d8bc bcfa 613d 858e 9cba
00000150: acf1 c3bb 8406 033d 8e09 29bc ddbf 1c3c
00000160: 333a babc 2e4d 443d ad71 4d3c d231 4cbd
00000170: c61b dcbc 2d16 69bd 9f6c dd3c b031 883b
00000180: a5e1 a73b 2995 8b3a 7436 51bd e06e 23bc
00000190: 06ae 3a3d 0584 59bd 799e 1fbd 253e 583d
000001a0: afe4 39bc 23a0 693d fa12 183c 66b7 f93b
000001b0: 8f29 aa3c 47f3 67bd 9e99 5a3d dedf 623d
000001c0: 16cc 5c3c 1f54 0ebd cbc0 6dbd eb6c 4dbd
000001d0: a6ec 4d3d 04e0 2cbd 4e07 42bc f2b8 b73c
000001e0: 7261 39bd 1295 11bd 7ebf 6e3d 1e35 0c3d
000001f0: e378 61bd f229 e93c 73bd 9c3c b22f ecbb
00000200: 10c5 4abd 6e7e f33c 371b 9bbb df95 11bd
00000210: 7993 073c a268 6cbc 3dbf b13c 6d6e c4bc
00000220: 7297 88bc 89ec c4bb 3ec9 373d 2c21 073d
00000230: 2791 623c 7119 28bd 4ab7 ab3c 018f 7dbd
00000240: 1d0e 2fbd 9619 a93c 2596 bdbc 0689 233d
00000250: 5d20 a83c 61f4 01bb c24c 44bb e4e2 07bd
00000260: 402c e8bc ce4c 653d 656a 02bc 4da7 25bd
00000270: 7301 603d 4ddb 3ebc 1367 a83b 13b8 b23c
00000280: d638 33bb 970f 46bc 0b1f 053d a912 1c3c
00000290: 83aa 373d c1e6 0ebc fc9f 593d 5f9a 4c3c
000002a0: 0810 61bd cbb9 9a3c 83f3 6f3c 6424 7ebc
000002b0: aba4 6c3c a045 143b 6b9c 52bd fb51 68bd
000002c0: cad2 b43c a817 2c3d e183 82bd c6f7 60bd
000002d0: 2e76 273c d4de 33bd d385 01bd 8b66 16bc
000002e0: 8ff7 7e3d a7e3 27bc 2096 1e3d 4ceb 7cbc
000002f0: 37f6 60bd df5b 873d 6087 b6bc 6bc4 8e3a
00000300: f470 d6bc 2253 543d 3a36 cbba 409f 813d
00000310: eabb 9d3c 4ff9 5fbd ca89 163c 8602 753d
00000320: 4112 d93b 0b2c 8bbc 84b8 02bb 69f5 46bd
00000330: 708f 47bc 01a3 fdbc 3fa6 10bc 46e9 2fbd
00000340: 60fb 1ebd 931f 22bd bb3b fb3c c93c 6b3d
00000350: 39e6 6e3c a3d9 283d c3ea e43b b5ca 3a3d
00000360: ed72 583d 5c28 eabc 358f 673d 0589 963c
00000370: c19d 023d 2b7c f4bc 24b0 37bd f276 81bc
00000380: 03e9 43bc 5061 c83c 4323 c83b 997c 213d
00000390: 19b3 7d3d 4de2 823c 956c ebbc 9d3d 32bd
000003a0: b2c8 90bc 30e6 10bc bba4 053c cc58 4d3d
000003b0: 6ee3 0dbc 468b 17bd 5e63 34bd 42df 523d
000003c0: 0e8b 443d c11b 183c 55ed 66bd 5772 d73c
000003d0: fb4b 53bc d3fa 40bd cf7f ad3b 10f7 da3b
000003e0: bc22 043d c4c3 873c 7262 14bc fd04 3a3d
000003f0: a2b2 3dbd 96cf 833d d05b 83bb b67e 0f3d

L2.bias f4 [128]
-0.0033357933 -0.04172532 -0.006927778 -0.03524284 0.023956688 -0.03580231 -0.03711873 -0.047682643
-0.022580165 -0.013928328 0.011003717 0.018201642 -0.023906179 -0.04924991 0.058799542 0.03804844
-0.023853634 0.004871698 -0.048909727 -0.04936737 0.055588413 0.023700079 0.014530151 -0.047179542
-0.052255932 -0.04126876 -0.036387794 0.01829954 0.0068524736 0.031483434 0.022206185 -0.006079559
0.0013665633 0.03246706 -0.0049223714 0.0059573012 0.0058382307 -0.010831368 -0.020142298 0.019901391
0.053556327 -0.050079837 -0.004274721 -0.028425736 -0.007818551 0.022083623 -0.054921158 0.029258423
0.022920111 -0.030763024 -0.036323227 -0.021492096 -0.004328858 -0.0354621 0.055772275 -0.0038941957
-0.026283644 -0.048094153 0.026294295 -0.033543415 0.020937128 -0.013767714 -0.02726951 0.021518826
-0.061166257 0.03891965 -0.0028540182 0.006882476 0.035861615 -0.020968756 0.024666702 0.0004911845
-0.01754598 0.04615788 0.009526292 0.0417502 -0.017663144 0.030048909 0.02858382 0.03600019
0.03258258 0.03528343 0.0017750566 0.005385042 -0.049832918 0.046304822 0.01832205 -0.016347101
-0.05131049 -0.02705268 -0.005321242 0.030534174 -0.0028104568 0.024804967 0.012277082 0.060755495
0.057355538 0.041332044 -0.06067678 -0.02360849 0.026116474 0.04059629 0.042040017 -0.02322328
0.007561761 0.010256941 0.026940353 -0.047213946 -0.05778535 0.057146214 0.010598745 0.031181445
-0.04814981 -0.0065464764 0.02452259 -0.052017767 -0.041211747 -0.005448976 -0.020066155 0.056128126
-0.052098077 -0.04777601 -0.021161577 -0.017630057 -0.05909376 -0.002390159 0.00036816482 0.040855337
00000000: 539d 5abb 2be8 2abd 6a02 e3bb cc5a 10bd
00000010: d140 c43c 71a5 12bd cf09 18bd e04e 43bd
00000020: 0afa b8bc a433 64bc ef48 343c 9c1b 953c
00000030: e4d6 c3bc 46ba 49bd cad7 703d aed8 1b3d
00000040: b268 c3bc c4a2 9f3b 9155 48bd 7035 4abd
00000050: adb0 633d ab26 c23c df0f 6e3c 563f 41bd
00000060: 510a 56bd 6e09 29bd 5e0b 15bd ebe8 953c
00000070: b78a e03b c6f4 003d bfe9 b53c 0a37 c7bb
00000080: 411e b33a 2efc 043d d84b a1bb 7735 c33b
00000090: a14e bf3b 0d76 31bc 7601 a5bc 3e08 a33c
000000a0: e15d 5b3d 8420 4dbd f512 8cbb 17dd e8bc
000000b0: 6119 00bc b7e8 b43c 02f5 60bd 5caf ef3c
000000c0: f5c2 bb3c bd02 fcbc aac7 14bd 3110 b0bc
000000d0: 18d9 8dbb b540 11bd 7871 643d c335 7fbb
000000e0: cc50 d7bc 60fe 44bd 2267 d73c d264 09bd
000000f0: 5784 ab3c fa91 61bc 4f64 dfbc 4048 b03c
00000100: 7889 7abd 366a 1f3d 7b0a 3bbb 6586 e13b
00000110: a1e3 123d abc6 abbc d311 ca3c d5c2 003a
00000120: 96bc 8fbc 0c10 3d3d 2a14 1c3c 4202 2b3d
00000130: 4cb2 90bc 2129 f63c 9e28 ea3c ef74 133d
00000140: 5075 053d 5c85 103d 04a9 e83a 0275 b03b
00000150: 9a1d 4cbd 20aa 3d3d 2018 963c 5bea 85bc
00000160: f32a 52bd 959d ddbc d05d aebb ce22 fa3c
00000170: a42f 38bb c933 cb3c d025 493c c1da 783d
00000180: a4ed 6a3d ca4b 293d 3788 78bd 9866 c1bc
00000190: 37f2 d53c 4c48 263d 2732 2c3d c03e bebc
000001a0: a6c8 f73b bb0c 283c 04b2 dc3c 6963 41bd
000001b0: 55b0 6cbd 2612 6a3d 5ca6 2d3c 3b70 ff3c
000001c0: bc38 45bd d383 d6bb 99e3 c83c 9510 55bd
000001d0: a6cd 28bd 538d b2bb c761 a4bc 9be6 653d
000001e0: cb64 55bd c7b0 43bd 0b5b adbc e96c 90bc
000001f0: 4c0c 72bd 37a4 1cbb 3f06 c139 ed57 273d

BN2.weight f4 [128]
0.9993995 1.0055324 0.99471104 1.0033033 1.0042357 0.9972656 0.9959153 1.0057943
1.0050647 0.9935496 0.99818623 1.0112641 1.0067499 0.99363 0.9964711 0.99781686
1.0072019 1.0024464 1.0047573 0.9965517 1.0044247 0.9974604 0.9971598 1.0097165
0.9913959 1.00393 0.9969348 0.99994314 0.9928505 1.0046078 1.002228 1.0155741
0.993136 1.0077095 1.0042362 1.0038555 0.9998779 1.0009093 0.99737895 0.997719
1.0002519 0.9943645 0.9979823 0.9987356 0.996076 0.99921083 1.0026397 1.0021818
1.01143 1.0032933 1.002727 1.0055591 0.9976004 0.99627936 0.9969009 1.0030074
0.9994869 1.0058879 1.0026281 0.9990804 1.0018752 0.99848866 0.9940741 0.9918725
0.9918529 0.99944806 0.992972 0.99805224 0.9969468 0.9988432 0.9922941 1.0070208
0.9931025 0.9944253 1.0084469 1.0028863 0.9992229 1.0075734 1.0039834 0.9957161
0.9962034 0.9928041 1.0107428 1.0022067 0.99120206 1.0102857 0.99997735 1.0009543
0.9938982 1.0053424 0.9963468 1.0127126 0.9985727 1.0078273 1.0068196 1.0003779
1.011729 0.99621636 1.0132784 0.99980724 1.0007039 0.99870193 0.9979099 0.997502
1.0020094 1.0025089 0.9907965 1.0059469 0.99335074 0.99713326 0.992011 0.9920269
1.002282 0.9939742 1.0066495 1.0030165 0.99798846 0.99904084 1.001122 0.9961301
1.0038359 1.0078593 0.9924804 1.0003756 0.9943741 1.0029275 1.0076644 1.001031
00000000: a5d8 7f3f 49b5 803f 62a5 7e3f 3e6c 803f
00000010: cc8a 803f cc4c 7f3f 4ef4 7e3f debd 803f
00000020: f6a5 803f 4459 7e3f 2289 7f3f 1a71 813f
00000030: 2edd 803f 895e 7e3f bb18 7f3f ed70 7f3f
00000040: feeb 803f 2a50 803f e39b 803f 031e 7f3f
00000050: fd90 803f 9159 7f3f dd45 7f3f 643e 813f
00000060: 1fcc 7d3f c780 803f 1e37 7f3f 46fc 7f3f
00000070: 732b 7e3f fd96 803f 0249 803f 55fe 813f
00000080: 293e 7e3f a0fc 803f d08a 803f 567e 803f
00000090: 00f8 7f3f cc1d 803f 3a54 7f3f 836a 7f3f
000000a0: 4108 803f ac8e 7e3f c57b 7f3f 23ad 7f3f
000000b0: d6fe 7e3f 48cc 7f3f 7f56 803f 7e47 803f
000000c0: 8a76 813f ea6b 803f 5c59 803f 29b6 803f
000000d0: bd62 7f3f 2a0c 7f3f e634 7f3f 8c62 803f
000000e0: 60de 7f3f efc0 803f 1e56 803f bcc3 7f3f
000000f0: 723d 803f f49c 7f3f a47b 7e3f 5beb 7d3f
00000100: 12ea 7d3f d4db 7f3f 6a33 7e3f 5a80 7f3f
00000110: e837 7f3f 30b4 7f3f fc06 7e3f 0fe6 803f
00000120: f73b 7e3f a892 7e3f ca14 813f 945e 803f
00000130: 12cd 7f3f 2af8 803f 8782 803f 40e7 7e3f
00000140: 3007 7f3f 6928 7e3f 0560 813f 4f48 803f
00000150: 6bbf 7d3f 0b51 813f 84fe 7f3f 451f 803f
00000160: 1d70 7e3f 0faf 803f 9510 7f3f 91a0 813f
00000170: 76a2 7f3f 7c00 813f 77df 803f 620c 803f
00000180: 5680 813f 0908 7f3f 1bb3 813f 5ef3 7f3f
00000190: 1117 803f eeaa 7f3f 0677 7f3f 4b5c 7f3f
000001a0: d841 803f 3652 803f d7a4 7d3f dec2 803f
000001b0: 3c4c 7e3f 2044 7f3f 6ff4 7d3f 7af5 7d3f
000001c0: c74a 803f 1875 7e3f e4d9 803f d862 803f
000001d0: 2c7c 7f3f 24c1 7f3f c424 803f 6202 7f3f
000001e0: b27d 803f 8901 813f 3213 7e3f 4f0c 803f
000001f0: 4d8f 7e3f ee5f 803f 26fb 803f c921 803f
