Trained_Models/BotDetection_v4_MLP___May-10-2024/BotDetection_v4_MLP_epoch99_val_loss_0.482666.pth (torch, 967351 bytes, 45 tensors)

L1.weight f4 [256, 133]
0	0x3c02f9fa	0.007994169
1	0x3d6e1161	0.058122043
2	0x3dadb3be	0.08481549
3	0xbe45cc21	-0.1931615
4	0x3cca09db	0.024662903
5	0x3d29aee9	0.041426573
6	0x3e4a7e64	0.19774777
7	0xbd04287d	-0.032265175
8	0x3c378a91	0.01120247
9	0x3d57c4a3	0.05267776
10	0xbd9e7fe3	-0.07739236
11	0x3cb91c2c	0.022596441
12	0xbd5516b3	-0.0520236
13	0xbd66f37a	-0.05638454
14	0xbe059e16	-0.13048586
15	0x3dc1f153	0.09469857
16	0xbcb03b0f	-0.021512536
17	0xbd357222	-0.0442983
18	0xbb0f4aef	-0.0021864732
19	0xbd535393	-0.051593374
20	0xbcea7baa	-0.02862342
21	0xbc455e62	-0.012046428
22	0xbd480aec	-0.04883854
23	0xbd242a72	-0.04007954
24	0x3d9469c9	0.072467394
25	0xbde04951	-0.10951484
26	0x3cf5a742	0.029986981
27	0xbde3d670	-0.11124885
28	0x3cc91f0e	0.02455094
29	0x3dea9407	0.11454015
30	0x3832feed	4.2675925e-05
31	0xbd1d7cac	-0.038448974
32	0xbdb67202	-0.08908464
33	0xbca9c344	-0.020722993
34	0xbd583780	-0.052787304
35	0x3da3f54e	0.080057725
36	0x3ddd342d	0.10800967
37	0x3d8ade58	0.0678069
38	0xbdafedea	-0.085903004
39	0xbd8e8a8f	-0.06960022
40	0x3e541edc	0.20714897
41	0xbc56c99f	-0.013109594
42	0xbd194b33	-0.03742523
43	0xbbf638a6	-0.0075140772
44	0xbccdda53	-0.02512852
45	0x3db72aad	0.08943687
46	0x3bb1f7fc	0.0054311734
47	0x3d901d75	0.070368685
48	0xbd0f99c7	-0.035058763
49	0x3da083b6	0.07837622
50	0x3d38a8d7	0.045082893
51	0x3c03758e	0.008023633
52	0x3d7d624e	0.06186133
53	0x3dd50191	0.104006894
54	0xbcf381fd	-0.02972507
55	0xba51327c	-0.000798024
56	0xbd35d805	-0.044395465
57	0x3d578465	0.052616496
58	0xbe51869b	-0.20461504
59	0xbd1c9e7d	-0.038237084
60	0xbe38c6b6	-0.18044552
61	0x3c4e57e6	0.012594199
62	0xbe303279	-0.17206754
63	0xbd5e71a0	-0.05430758
64	0x3e15f853	0.1464551
65	0xbdfadd4f	-0.122492425
66	0xbda3afbc	-0.07992503
67	0x3e0b4a28	0.13602507
68	0xbcb18859	-0.021671461
69	0xbd5750f4	-0.052567437
70	0x3d639c22	0.05556882
71	0x3de3dd51	0.11126197
72	0x3dc85cfa	0.09783359
73	0x3d879222	0.066196695
74	0xbd4e0974	-0.050301984
75	0xbcdd4ca9	-0.027014093
76	0xbd9e8b02	-0.077413574
77	0x3b7b5c24	0.003835448
78	0xbc853dfe	-0.016264912
79	0x3cb96155	0.02262942
80	0xbc18c0c7	-0.009323305
81	0xbd1c17c2	-0.038108595
82	0xbd9af14f	-0.07565557
83	0xbd053043	-0.03251673
84	0x3d80130b	0.06253632
85	0xbd5ebd5f	-0.054379817
86	0xbe3ec45f	-0.18629597
87	0xbddd6ffe	-0.108123764
88	0x3d1c5f28	0.038176686
89	0xbd031f82	-0.03201247
90	0x3c9dfb13	0.01928476
91	0x3e29c526	0.16579112
92	0xbdc99c0e	-0.09844218
93	0xbb8999f2	-0.00419926
94	0xbd09be1b	-0.033628564
95	0x3d56265c	0.052282676
96	0x3d101d4a	0.035184182
97	0xbdb08f90	-0.086211324
98	0xbd27ddc9	-0.040982995
99	0x3c9d1fa9	0.019180136
100	0x3d02cd38	0.031933993
101	0xbdf9fda5	-0.12206582
102	0x3e063828	0.1310736
103	0xbe2ea686	-0.17055711
104	0xbd7da916	-0.06192883
105	0x3d99ded5	0.07513205
106	0x3d8889f2	0.06666936
107	0xbd29e726	-0.041480206
108	0xbd329f8e	-0.043609194
109	0xbd810516	-0.06299798
110	0x3d416d84	0.047223583
111	0xbdd905e2	-0.10596825
112	0xbd40208f	-0.04690605
113	0xbcad077f	-0.021121738
114	0x3ca4f04c	0.020134114
115	0xbc91d2b3	-0.017800665
116	0x3cb21813	0.021739995
117	0x3dd2a1af	0.10284745
118	0x3d9909f4	0.074726015
119	0x3dac2d0c	0.084070295
120	0xbdc78a40	-0.09743166
121	0x3d4cd4a3	0.050007474
122	0x3bfeb84f	0.007773436
123	0x3e5647e0	0.20925856
124	0xbe044afb	-0.12919228
125	0xbc1df5eb	-0.009641151
126	0x3d289534	0.041157916
127	0x3d9cda66	0.07658844
128	0xbd96e26e	-0.07367407
129	0x3c55b85e	0.013044445
130	0x3d7e3932	0.062066264
131	0x3d2b299c	0.04178773
132	0xbd55cbbc	-0.05219625
133	0x3babce29	0.005243082
134	0x3d24f9a2	0.04027713
135	0xbc7c7186	-0.0154079255
136	0x3dc17e6a	0.0944794
137	0xbd17f654	-0.03710015
138	0x3d9d4375	0.07678882
139	0xbd9c249e	-0.07624172
140	0xbd096800	-0.033546448
141	0x3d5aaea7	0.053389218
142	0xbd2e5ab4	-0.04256697
143	0x3c6e3078	0.014537923
144	0xbbce1cae	-0.00629004
145	0xbd6f2b36	-0.05839082
146	0x3d85a8f6	0.06526367
147	0x3d9fe1ab	0.078067146
148	0x3c63b90c	0.013899099
149	0xbd954dca	-0.07290228
150	0xbc09c94f	-0.008409812
151	0xbc94f366	-0.018182468
152	0x3d4fafd9	0.05070481
153	0xbcda98c1	-0.026684167
154	0xb9d23bda	-0.00040098914
155	0xbd83ad5c	-0.0642955
156	0xbde90b00	-0.11379051
157	0xbdd23d43	-0.10265591
158	0xbd104342	-0.035220392
159	0xbd973fe4	-0.07385233
160	0xbc73fe0b	-0.0148921115
161	0xbda0c484	-0.078499824
162	0x3d63a850	0.055580437
163	0xbc4d512a	-0.012531558
164	0xbce04c60	-0.027380168
165	0x3d8ebe46	0.069698855
166	0x3d85191b	0.06498929
167	0xbd5f7726	-0.05455699
168	0xbcb03860	-0.021511257
169	0x3df8a83e	0.12141465
170	0x3d84b404	0.06479648
171	0x3e1a8775	0.15090735
172	0x3d9cad52	0.07650246
173	0x3d658038	0.056030482
174	0xbd118897	-0.035530653
175	0x3cab9187	0.020943416
176	0x3ca4957d	0.020090813
177	0x3e165365	0.1468025
178	0xbd19e5dc	-0.037572727
179	0x3cbc4706	0.022983085
180	0x3d60973f	0.05483174
181	0x3d7af84d	0.061271954
182	0x3cec607c	0.028854601
183	0xbdaf90c8	-0.08572537
184	0xbd8da2de	-0.0691583
185	0x3d8bd679	0.06828017
186	0x3e19690a	0.14981475
187	0xbd8d412e	-0.06897198
188	0xbd830d7d	-0.06399057
189	0xbb3d1ac8	-0.0028855074
190	0x3d8ca0b8	0.06866592
191	0x3db21801	0.08695985
192	0xbdb111d2	-0.08645977
193	0x3db402b2	0.087895766
194	0x3d6d561c	0.05794345
195	0x3c85c528	0.016329363
196	0xbddb9e22	-0.10723521
197	0x3c09c6dc	0.008409228
198	0x3d182a6e	0.03714984
199	0xbd670d51	-0.056409184
200	0xbc8a8d21	-0.016912999
201	0xbc801ed0	-0.015639693
202	0xbcd75f49	-0.026290553
203	0xbca3c383	-0.019990688
204	0x3df0e781	0.11762906
205	0x3ccc1884	0.024914034
206	0xbd22ac9a	-0.039715387
207	0xbc6058fd	-0.013693091
208	0x3bcdd499	0.006281447
209	0x3daa8ae9	0.08327276
210	0xbd588a28	-0.05286613
211	0xbc26b409	-0.01017476
212	0xbcc8e40c	-0.024522804
213	0xbd37fe31	-0.04492015
214	0xbba2dffe	-0.0049705496
215	0xbdd13110	-0.10214436
216	0xbdc60041	-0.09668017
217	0x3db0293a	0.08601613
218	0xbd0d733f	-0.034533735
219	0x3d70dc92	0.058804102
220	0xbd5aabf9	-0.053386662
221	0x3c6a43d7	0.014298401
222	0xbe3abcd6	-0.18236098
223	0x3e00a698	0.1256355
224	0xbe346b12	-0.17618969
225	0xbd60454b	-0.054753583
226	0xbe003b97	-0.12522732
227	0x3d4b682f	0.049659904
228	0x3bbf1287	0.005831066
229	0xbceed47d	-0.029154057
230	0xbd7252f5	-0.059161145
231	0xbd75cfff	-0.060012814
232	0x3d33d66b	0.043905657
233	0x3e1d33f2	0.15351847
234	0x3c4372d3	0.011929232
235	0x3d49203f	0.049103018
236	0xbca2b4bd	-0.019861573
237	0x3d1113cf	0.03541928
238	0x3dc28afa	0.09499164
239	0x3d4cbe4d	0.049986172
240	0xbdee03aa	-0.116217926
241	0x3be6c938	0.00704303
242	0x3b8a9275	0.004228885
243	0xbd0233db	-0.031787734
244	0xbd65ff54	-0.056151703
245	0x3d3ca422	0.046054967
246	0xbd8a5503	-0.06754496
247	0x3cc43a4d	0.023953581
248	0x3c88bd1a	0.016691733
249	0x3d4b43b1	0.049625102
250	0x3da47e97	0.080319576
251	0x3db7d109	0.08975417
252	0xbd44a424	-0.0480081
253	0xbe23e757	-0.16006218
254	0xbda82f7c	-0.08212182
255	0xbda57c19	-0.080803104

L1.bias f4 [256]
0	0xbda6e21c	-0.08148596
1	0xbc9756e1	-0.018474044
2	0x3d7b1513	0.061299395
3	0xbc8a7c5b	-0.016905
4	0xbcb23388	-0.021753088
5	0xbd79db36	-0.06100007
6	0x3d05d390	0.032672465
7	0x3d2acd0d	0.041699458
8	0xbd56c1f4	-0.052431062
9	0xbd9dafbf	-0.076995365
10	0xbcbd7794	-0.023128308
11	0x3d78020f	0.06054884
12	0xbd83dde4	-0.06438807
13	0xbd129eb3	-0.03579588
14	0xbdae3e28	-0.08507949
15	0xbc210559	-0.009827935
16	0x3c974c8f	0.018469123
17	0x3d104d04	0.035229698
18	0xbd293c8e	-0.041317515
19	0x3da99d5b	0.08281966
20	0x3bef685a	0.007306141
21	0xbd7d726f	-0.06187671
22	0x3c8ea6c2	0.0174135
23	0x3d02b24c	0.03190832
24	0x3d64c1e1	0.05584896
25	0x3d7bbdbf	0.061460253
26	0xbcb5306a	-0.022117812
27	0xbc8e8ee8	-0.017402127
28	0xbd337e82	-0.04382182
29	0x3d10e95d	0.035378803
30	0xbd87836c	-0.066168636
31	0xbcbdf442	-0.02318776
32	0xbc6544f8	-0.013993494
33	0xbd915602	-0.07096483
34	0x3d095635	0.03352948
35	0x3ca1a2e3	0.01973099
36	0x3d96ff95	0.07372967
37	0xbd5bc385	-0.05365326
38	0x3d9fcfbb	0.07803293
39	0x3d15a9c9	0.036538873
40	0xbcda28d9	-0.026630806
41	0xbd874ea0	-0.066067934
42	0xbda7ab0e	-0.08186923
43	0x3d01fb3e	0.031733744
44	0xbd2ceff5	-0.04222103
45	0xbccd3383	-0.025048977
46	0xbd0a8ed6	-0.033827625
47	0xbc854984	-0.016270407
48	0x3bf2c411	0.007408627
49	0x3d988202	0.07446672
50	0x3d67aeb0	0.05656308
51	0x3d83f8bf	0.06443929
52	0x3b9c3ef1	0.0047682454
53	0xbcdb3e9b	-0.026763251
54	0xbd232682	-0.039831646
55	0x3d4cf253	0.050035786
56	0xbbf014ac	-0.007326683
57	0x3d0b2c63	0.033977877
58	0xbd9ee4fa	-0.077585176
59	0x3d318f4f	0.04334956
60	0xbd39a3f9	-0.045322392
61	0xbc19850b	-0.009370099
62	0x3d8eb0d7	0.06967323
63	0x3d58528d	0.0528131
64	0xbd4d7c82	-0.050167568
65	0x3d928a41	0.07155276
66	0xbd8fbc4d	-0.070183374
67	0x3d223c52	0.039608307
68	0x3c630072	0.013855087
69	0x3da36b36	0.07979433
70	0x3c0e3d53	0.008681613
71	0xbc99a10d	-0.018753553
72	0x3d9721aa	0.07379468
73	0xbd519c9d	-0.05117475
74	0x3d75c91f	0.060006257
75	0xbd05acc1	-0.032635454
76	0xbc3fb3ea	-0.01170061
77	0xbd19272e	-0.03739088
78	0x3d688c10	0.0567742
79	0xbd5ed870	-0.05440563
80	0xbcc8b8ad	-0.024502123
81	0x3bc5781b	0.0060262806
82	0x3d9da2ff	0.07697105
83	0xbc41fbcf	-0.011839821
84	0xbd17f51e	-0.037098996
85	0xbc22f8b1	-0.009946988
86	0x3ca05492	0.019571576
87	0xbd1c9166	-0.0382246
88	0x3db090f5	0.08621398
89	0x3d0fc23f	0.035097357
90	0xbcfbfffb	-0.03076171
91	0x3d4fd1ed	0.05073731
92	0xbccdfc82	-0.02514482
93	0x3c9b8771	0.018985482
94	0xbc78c03b	-0.01518255
95	0xbd8a512c	-0.067537636
96	0xbd941fbf	-0.072326176
97	0xbd9a9524	-0.075479776
98	0xbd4562ca	-0.048189916
99	0xbbaeee1d	-0.005338444
100	0x3c38d742	0.01128179
101	0x3c6b8093	0.014373916
102	0x3d2021d9	0.03909478
103	0x3bb3aabd	0.005483
104	0x3dacce51	0.08437789
105	0xbca6a9d9	-0.020344662
106	0x3c95425d	0.018220121
107	0x3c9221ff	0.017838476
108	0x3d2eb60c	0.042654082
109	0x3d8db218	0.06918734
110	0x3d051323	0.032488953
111	0x3d30cb1f	0.04316246
112	0x3d9d41d8	0.07678574
113	0x3d2b4ba8	0.0418202
114	0x3da143b8	0.078742445
115	0x3d3434ac	0.043995544
116	0x3d2b5972	0.04183335
117	0xbc318b80	-0.010836482
118	0xbd5cb890	-0.05388695
119	0x3d9d7af9	0.07689471
120	0x3d36e991	0.04465634
121	0x3cd44548	0.025911942
122	0x3d1048e5	0.035225768
123	0xbcc42301	-0.023942472
124	0xbc27e5b7	-0.010247639
125	0x3d8daa3e	0.06917237
126	0x3cba6bcb	0.022756478
127	0xbdabb1a5	-0.083834924
128	0x3d8f98f6	0.07011597
129	0x3cd2f208	0.025750175
130	0xbd2dd1de	-0.042436473
131	0xbd1ed24f	-0.038774785
132	0xbd843a41	-0.064564236
133	0x3da5ce22	0.08095957
134	0xbd26be6c	-0.040708944
135	0xbd1f4946	-0.03888824
136	0x3ce39153	0.027779257
137	0xbd0df210	-0.034654677
138	0x3d3a850b	0.045537036
139	0xbcf9152b	-0.030405601
140	0xbca7ff51	-0.020507487
141	0xbcdbb018	-0.026817366
142	0x3ba179e1	0.004927859
143	0x3d32178d	0.04347949
144	0xbc5e91cb	-0.013584564
145	0x3d8b5e0d	0.06805048
146	0xbdaf7ea0	-0.08569074
147	0xbd87c1f6	-0.06628792
148	0x3cc7e2d8	0.02440016
149	0xbbd5ac4d	-0.006520784
150	0xbc56911b	-0.013096119
151	0x3ccbba77	0.024869187
152	0xbd911f6d	-0.07086072
153	0xbc16c697	-0.009202621
154	0xbd7cbda2	-0.061704285
155	0x3d9e1815	0.07719437
156	0x3c9ab2a7	0.018884016
157	0x3d539a24	0.05166067
158	0xbd63dec6	-0.055632375
159	0xbca9e550	-0.020739228
160	0x3d3e710b	0.046494525
161	0x3d95f195	0.07321469
162	0xbd943873	-0.07237329
163	0xbcc0711d	-0.023491437
164	0xbc803fcc	-0.01565542
165	0x3da46640	0.08027315
166	0xbd5bff56	-0.053710304
167	0x3d031e8c	0.032011554
168	0x3d81fec7	0.06347423
169	0xbd864aa4	-0.06557205
170	0x3da7113f	0.08157586
171	0xbdae5105	-0.08511547
172	0xbd822580	-0.06354809
173	0xbccdacba	-0.025106777
174	0x3b8d5ce7	0.0043140533
175	0x3b4bf7ba	0.0031122998
176	0x3d8417c1	0.06449843
177	0x3d98af0a	0.07455261
178	0xbcc07e7b	-0.02349781
179	0x3ca48a0f	0.020085363
180	0xbcf8ec1c	-0.030386023
181	0x3cca7b27	0.024716927
182	0xbaddacee	-0.0016912499
183	0x3d25aa10	0.040445387
184	0x3abca96b	0.0014393752
185	0xbcdc61af	-0.026902048
186	0x3d17c2af	0.0370509
187	0x3d8024d1	0.06257022
188	0xbd256498	-0.040379137
189	0x3cbced2a	0.023062307
190	0x391a0acd	0.00014690608
191	0xbcccde1c	-0.025008254
192	0x3d174d56	0.036938988
193	0x3d4a3f4c	0.04937677
194	0x3d1f6a86	0.038919948
195	0xbd96cbda	-0.073631
196	0xbd0070b7	-0.031357493
197	0x3d92c6e6	0.07166843
198	0x3d4b1c10	0.04958731
199	0x3d47bb55	0.048762638
200	0xbd57729c	-0.052599534
201	0x3cfe8fab	0.031074366
202	0xbc330f38	-0.010928921
203	0xbd09708b	-0.033554595
204	0x3d52fb13	0.051508974
205	0x3daa8a8c	0.08327207
206	0x3d1ec24a	0.038759507
207	0x3d81d4d6	0.06339423
208	0xbd4af85b	-0.049553256
209	0x3d2e887b	0.042610627
210	0xbda3ef36	-0.0800461
211	0xbcaafaa5	-0.02087147
212	0xbcaa1e55	-0.020766417
213	0xbd91db41	-0.071218975
214	0xbcde2834	-0.02711878
215	0x3d8609e7	0.065448575
216	0xbd2e1b33	-0.042506408
217	0x3d9919b1	0.07475603
218	0x3d30d5e5	0.043172736
219	0xbd0ee1c4	-0.034883276
220	0x3d472586	0.04861977
221	0xbda51098	-0.08059806
222	0x3d148ab7	0.0362651
223	0xbd293241	-0.04130769
224	0xbd8bf395	-0.06833569
225	0x3daec413	0.08533492
226	0xbb5c2bf0	-0.0033595525
227	0xbd5a5c85	-0.05331089
228	0x3daf70d4	0.08566442
229	0x3cb0e7c8	0.021594897
230	0xbc56a0ac	-0.013099831
231	0xbd05eea7	-0.0326983
232	0x3d9f8070	0.077881694
233	0x3d451a29	0.04812065
234	0x3da02fd3	0.07821622
235	0x3d015602	0.031576164
236	0x3d8be2b7	0.06830352
237	0xba639fd7	-0.0008683181
238	0x3c9e9130	0.01935634
239	0x3cb2e2b5	0.021836618
240	0x3da7c66a	0.08192141
241	0x3d8504c2	0.06495048
242	0x3d548a34	0.051889613
243	0xbdab016b	-0.0834988
244	0x3d81eec1	0.06344367
245	0x3d41d431	0.047321502
246	0xbc9d9f07	-0.01924087
247	0x3c825ec8	0.015914336
248	0xbdae5d51	-0.085138924
249	0xbd461b20	-0.048365712
250	0x3d8907ae	0.06690918
251	0xbda39561	-0.07987476
252	0x3a09892d	0.0005246576
253	0x3c7bb8de	0.0153639
254	0xbb868a51	-0.004105844
255	0xbd4f3820	-0.050590634

BN1.weight f4 [256]
0	0x3f7f14f8	0.9964137
1	0x3f800f6d	1.0004708
2	0x3f7b1854	0.98083997
3	0x3f77335a	0.9656273
4	0x3f7d0930	0.98842144
5	0x3f8185ea	1.0118992
6	0x3f82538b	1.0181745
7	0x3f7ec2e8	0.99516153
8	0x3f7faaf7	0.99870247
9	0x3f8282d7	1.0196179
10	0x3f7c148f	0.9846887
11	0x3f7c214a	0.98488295
12	0x3f7f9ee4	0.9985182
13	0x3f81db65	1.0145079
14	0x3f85c9fe	1.0452268
15	0x3f8030d1	1.0014898
16	0x3f81fe74	1.0155778
17	0x3f80be59	1.005809
18	0x3f7fac11	0.9987193
19	0x3f80eb08	1.0071726
20	0x3f7bc33f	0.98344797
21	0x3f7e8542	0.99422085
22	0x3f87bfba	1.0605385
23	0x3f81b741	1.013405
24	0x3f82447c	1.017715
25	0x3f8236f7	1.0173024
26	0x3f854c3b	1.0413889
27	0x3f80f9f9	1.0076286
28	0x3f83b1b0	1.0288601
29	0x3f84dd69	1.0380069
30	0x3f857181	1.0425264
31	0x3f7ffa9b	0.9999177
32	0x3f836065	1.0263792
33	0x3f7e77e2	0.99401677
34	0x3f7e1ff8	0.9926753
35	0x3f8263b9	1.0186683
36	0x3f86019e	1.0469244
37	0x3f82b8ec	1.0212684
38	0x3f7fd90e	0.99940574
39	0x3f828066	1.0195434
40	0x3f818c28	1.0120897
41	0x3f846ca6	1.0345657
42	0x3f819d03	1.0126041
43	0x3f85463b	1.0412058
44	0x3f7fbb9a	0.9989563
45	0x3f8209f2	1.0159285
46	0x3f802439	1.0011054
47	0x3f7d2e5e	0.98898876
48	0x3f86acfc	1.0521541
49	0x3f807f9d	1.0038944
50	0x3f7b1d17	0.9809126
51	0x3f7e55ac	0.99349475
52	0x3f7d02fe	0.9883269
53	0x3f827b61	1.0193902
54	0x3f7e8df3	0.9943535
55	0x3f7f3e40	0.9970436
56	0x3f80c43e	1.0059888
57	0x3f81ae42	1.0131304
58	0x3f80692d	1.0032097
59	0x3f865276	1.0493915
60	0x3f7e69c4	0.99380136
61	0x3f818ed5	1.0121714
62	0x3f853ef7	1.040984
63	0x3f8491e7	1.0357026
64	0x3f7881af	0.9707288
65	0x3f8172e3	1.0113186
66	0x3f7c90ba	0.98658335
67	0x3f82fae5	1.0232817
68	0x3f7f7eda	0.99802935
69	0x3f8c5a77	1.0965108
70	0x3f7ef440	0.99591446
71	0x3f793425	0.9734519
72	0x3f845e73	1.0341324
73	0x3f83b842	1.0290606
74	0x3f811ff2	1.0087874
75	0x3f806026	1.0029342
76	0x3f814d4a	1.0101712
77	0x3f84ef85	1.0385596
78	0x3f82a8c5	1.0207754
79	0x3f82c072	1.021498
80	0x3f8293d7	1.0201367
81	0x3f7dd4c3	0.99152774
82	0x3f806576	1.0030963
83	0x3f7cf5ae	0.9881238
84	0x3f80dfbd	1.006828
85	0x3f80ac28	1.0052538
86	0x3f819407	1.0123299
87	0x3f847a64	1.0349851
88	0x3f841710	1.0319538
89	0x3f805f3d	1.0029064
90	0x3f826253	1.0186256
91	0x3f849d97	1.0360593
92	0x3f81a95a	1.0129807
93	0x3f805f50	1.0029087
94	0x3f838ac8	1.0276728
95	0x3f835961	1.0261651
96	0x3f81249b	1.0089296
97	0x3f8287d9	1.0197707
98	0x3f807d47	1.0038232
99	0x3f84797e	1.0349576
100	0x3f7f1dcf	0.9965486
101	0x3f7f1acc	0.99650264
102	0x3f8122dc	1.0088763
103	0x3f82f4fe	1.0231016
104	0x3f82f1ac	1.0230002
105	0x3f8402c6	1.0313346
106	0x3f808ae6	1.0042388
107	0x3f84a504	1.0362859
108	0x3f830066	1.0234497
109	0x3f83d666	1.0299804
110	0x3f823709	1.0173045
111	0x3f84cace	1.0374391
112	0x3f7c7f03	0.98631305
113	0x3f82a128	1.0205431
114	0x3f852363	1.0401424
115	0x3f85dc68	1.0457888
116	0x3f863a17	1.0486478
117	0x3f7c87b0	0.9864454
118	0x3f7e6825	0.9937766
119	0x3f7f606e	0.99756515
120	0x3f7e1aea	0.9925982
121	0x3f7b24ad	0.9810284
122	0x3f8313b4	1.0240388
123	0x3f7ba6dd	0.9830149
124	0x3f80ad87	1.0052956
125	0x3f80c112	1.005892
126	0x3f834607	1.0255746
127	0x3f8381e3	1.0274013
128	0x3f7dfb8e	0.99211967
129	0x3f808343	1.0040058
130	0x3f7cce00	0.9875183
131	0x3f7c66af	0.9859418
132	0x3f7f524e	0.9973496
133	0x3f81ca7e	1.0139921
134	0x3f812bbd	1.0091473
135	0x3f82c1c4	1.0215383
136	0x3f834511	1.0255452
137	0x3f7acd61	0.97969633
138	0x3f81f585	1.0153052
139	0x3f7bde00	0.9838562
140	0x3f8416ee	1.0319498
141	0x3f814eff	1.0102233
142	0x3f7fb773	0.99889296
143	0x3f80869e	1.0041082
144	0x3f86241d	1.0479771
145	0x3f805968	1.0027285
146	0x3f811861	1.0085565
147	0x3f82b1a3	1.021046
148	0x3f8272fc	1.019134
149	0x3f81deb0	1.0146084
150	0x3f847d04	1.0350652
151	0x3f7d87c0	0.99035263
152	0x3f8184e7	1.0118684
153	0x3f7dbf39	0.9911991
154	0x3f839640	1.0280228
155	0x3f7dd23f	0.99148935
156	0x3f7f64d4	0.99763227
157	0x3f82174c	1.016336
158	0x3f7b7f6a	0.98241293
159	0x3f8150fe	1.0102842
160	0x3f7e2652	0.9927722
161	0x3f835016	1.0258815
162	0x3f7c8691	0.9864283
163	0x3f80d807	1.0065926
164	0x3f81d644	1.0143514
165	0x3f7fb67d	0.9988783
166	0x3f8a7567	1.0817078
167	0x3f7cf287	0.9880757
168	0x3f82c80a	1.0217297
169	0x3f80935f	1.0044974
170	0x3f857d73	1.0428909
171	0x3f7d1b0b	0.9886939
172	0x3f80419e	1.0020025
173	0x3f81c162	1.0137141
174	0x3f82bdf5	1.021422
175	0x3f8218ea	1.0163853
176	0x3f7cb91a	0.9871994
177	0x3f8337b0	1.025137
178	0x3f7cd4dd	0.98762304
179	0x3f80d09f	1.0063666
180	0x3f81fe4c	1.015573
181	0x3f82224f	1.016672
182	0x3f81c914	1.0139489
183	0x3f7cb718	0.9871688
184	0x3f836310	1.0264606
185	0x3f8266b6	1.0187595
186	0x3f7e2608	0.9927678
187	0x3f7dcacd	0.99137574
188	0x3f81a750	1.0129185
189	0x3f7fcd20	0.9992237
190	0x3f81adc8	1.0131159
191	0x3f7f09a5	0.9962409
192	0x3f7ff35e	0.99980724
193	0x3f82016d	1.0156685
194	0x3f815abf	1.0105819
195	0x3f834e68	1.0258303
196	0x3f88295e	1.0637624
197	0x3f811418	1.0084257
198	0x3f85c1ab	1.0449728
199	0x3f81842c	1.0118461
200	0x3f803102	1.0014956
201	0x3f82a4fb	1.0206598
202	0x3f842e3d	1.0326611
203	0x3f7d9e3b	0.99069566
204	0x3f83342c	1.0250297
205	0x3f7e33b2	0.9929763
206	0x3f7b25c6	0.9810451
207	0x3f7ff962	0.999899
208	0x3f7e5649	0.9935041
209	0x3f82aa5d	1.0208241
210	0x3f859a72	1.0437758
211	0x3f803d99	1.0018798
212	0x3f81f445	1.015267
213	0x3f7f98dc	0.9984262
214	0x3f8439e5	1.0330168
215	0x3f809937	1.0046757
216	0x3f826df6	1.0189807
217	0x3f835531	1.0260373
218	0x3f82564c	1.0182586
219	0x3f7f1761	0.9964505
220	0x3f8347af	1.0256251
221	0x3f7baa84	0.9830706
222	0x3f7ea606	0.9947208
223	0x3f8241a0	1.0176277
224	0x3f81ffbf	1.0156173
225	0x3f7e57d4	0.99352765
226	0x3f812811	1.0090352
227	0x3f800912	1.0002768
228	0x3f810480	1.0079498
229	0x3f8711d3	1.0552315
230	0x3f7f9540	0.9983711
231	0x3f83ba0c	1.0291152
232	0x3f87985a	1.0593369
233	0x3f7ca2f9	0.98686177
234	0x3f822846	1.016854
235	0x3f840bb5	1.0316073
236	0x3f868592	1.0509512
237	0x3f84fb50	1.0389194
238	0x3f8037c3	1.0017017
239	0x3f793d9a	0.9735962
240	0x3f7aa050	0.9790087
241	0x3f79baf8	0.97550917
242	0x3f81be3a	1.0136178
243	0x3f86333a	1.0484383
244	0x3f7f48dd	0.99720556
245	0x3f7bc37c	0.9834516
246	0x3f7d0a41	0.9884377
247	0x3f7f4055	0.9970754
248	0x3f83e3ae	1.0303857
249	0x3f815b55	1.0105997
250	0x3f800932	1.0002806
251	0x3f82fc3c	1.0233226
252	0x3f803db8	1.0018835
253	0x3f80616d	1.0029732
254	0x3f853130	1.0405636
255	0x3f88628d	1.0655075

BN1.bias f4 [256]
0	0x3d3989fd	0.04529761
1	0xbd29438e	-0.04132419
2	0xbbd148dc	-0.0063868593
3	0x3dc37115	0.09543053
4	0x3d43b380	0.047778606
5	0xbd8c150c	-0.06839952
6	0xbc4cb797	-0.012494943
7	0xbd121805	-0.035667438
8	0xbb9e3e56	-0.0048292084
9	0xbd3dd5da	-0.046346523
10	0x3d0c6bb8	0.034282416
11	0xbcde4ba4	-0.027135678
12	0x3cffc436	0.03122149
13	0xbdb3b7e3	-0.08775308
14	0xbdd41560	-0.103556395
15	0xbc8d0789	-0.017215507
16	0xbbeec488	-0.007286612
17	0x3c469843	0.012121263
18	0xbd226722	-0.039649136
19	0xbc8623b4	-0.016374446
20	0x3c51d1f3	0.012806403
21	0x3ceaa9b1	0.028645368
22	0xbe125cd8	-0.1429323
23	0xbcdd25f8	-0.026995644
24	0x3cb2f9db	0.021847656
25	0xbd42a258	-0.047518104
26	0xbc6977cd	-0.014249754
27	0x3b48b5f8	0.003062604
28	0xbd03e76f	-0.032203134
29	0xbda7ec08	-0.08199316
30	0xbdbe9f8b	-0.09307774
31	0xbc2e900b	-0.01065446
32	0xbd837b4a	-0.0642
33	0x3da6c473	0.081429385
34	0xbdac75ac	-0.08420882
35	0x3cae8b69	0.02130671
36	0xbc92f8f5	-0.017940978
37	0xbd0e6a56	-0.03476938
38	0xbcc7c76c	-0.024387084
39	0xbca1cd42	-0.019751195
40	0xbb8b5c59	-0.004252952
41	0xbe0074b5	-0.1254452
42	0xbd912172	-0.07086457
43	0xbdd49c99	-0.10381431
44	0x3bd53775	0.006506855
45	0xbbda6ca1	-0.0066657816
46	0xbdde68bc	-0.1085982
47	0xbc99b282	-0.018761877
48	0xbd5816c9	-0.052756105
49	0xbd2ca46d	-0.042148996
50	0x3d8c4fdd	0.0685117
51	0xbb6b0c9b	-0.0035865668
52	0x3d5accbb	0.053417902
53	0xbd9cbea8	-0.07653552
54	0x3d669939	0.05629847
55	0xbcd56ce9	-0.026052909
56	0xbd021af2	-0.03176398
57	0xbc4ea725	-0.012613093
58	0x3c7dba64	0.0154863335
59	0xbdbd4ba8	-0.09242946
60	0x3c90a2f6	0.01765583
61	0xbd527e49	-0.051389966
62	0xbd22e1f9	-0.039766286
63	0xbd97880c	-0.07398996
64	0x3c92579c	0.017864041
65	0xbbc45659	-0.0059917388
66	0x3c2a9a8a	0.010412822
67	0xbd47bb9e	-0.04876291
68	0x3be4cabf	0.006982177
69	0xbcce7baf	-0.025205461
70	0x3d832a9b	0.06404611
71	0x3d423be1	0.047420386
72	0xbd01667a	-0.03159187
73	0x3b9669e9	0.004590262
74	0xbb366f32	-0.0027837274
75	0x3c4677f2	0.012113558
76	0xbd38ac58	-0.045086235
77	0xbdfd5681	-0.12370015
78	0xbdadf639	-0.08494229
79	0xbd35c2af	-0.044375118
80	0xbd0fda6a	-0.035120405
81	0x3d55135d	0.05202042
82	0xbd492bee	-0.04911416
83	0xbd7528d5	-0.059853394
84	0xb9a60e33	-0.00031672567
85	0x3d94bdc5	0.07262758
86	0xbc8f065b	-0.017459085
87	0xbca024c9	-0.01954879
88	0xbd3f9c06	-0.046779655
89	0xbce8db4b	-0.02842488
90	0x3acabb09	0.0015467118
91	0xbddd43e9	-0.108039685
92	0xbd356d5b	-0.044293743
93	0xbd98d06b	-0.074616276
94	0xbd44a1bd	-0.04800581
95	0xbe316e7f	-0.17327307
96	0x3d7a8137	0.061158385
97	0xbc7cb66c	-0.015424352
98	0x3d70149d	0.05861341
99	0xbe573deb	-0.21019714
100	0xbdaf1655	-0.08549181
101	0x3d0a17c5	0.033714075
102	0xbd94ccfc	-0.0726566
103	0xbd52047a	-0.0512738
104	0xbd4e36d0	-0.050345242
105	0xbd46fe26	-0.04858222
106	0xbc44a014	-0.012001056
107	0xbcb718ea	-0.022350747
108	0xbd05f4cc	-0.03270416
109	0xbda55098	-0.08072013
110	0xbd857f44	-0.065184146
111	0xbdf12093	-0.11773791
112	0xbd766229	-0.060152207
113	0x3c3f2664	0.011666868
114	0xbd0290eb	-0.031876486
115	0xbdc46f72	-0.09591569
116	0xbbbb8276	-0.0057223393
117	0x3c050325	0.0081184255
118	0xbd9762c3	-0.07391884
119	0x3de8af1a	0.11361523
120	0x3d86e1cd	0.06586037
121	0xbc24c8f0	-0.010057673
122	0xbde6df65	-0.11273078
123	0x3c8f99a9	0.017529326
124	0x3c83c638	0.016085729
125	0x3cf86daa	0.03032573
126	0xbd5e2179	-0.05423114
127	0xbdca6790	-0.09883034
128	0xbc6f92d0	-0.014622405
129	0xbd211414	-0.03932579
130	0xbac2a5ef	-0.0014850477
131	0x3d55c85b	0.052193027
132	0x3d1c606b	0.03817789
133	0xbd89508b	-0.067048155
134	0x3bdeabfa	0.0067954035
135	0xbd84c2c0	-0.06482458
136	0xbd57b359	-0.052661274
137	0xbd0291f8	-0.031877488
138	0xbdae43ba	-0.085090116
139	0x3d32579e	0.04354059
140	0xbdcc3552	-0.099711075
141	0x3cb1ac74	0.021688677
142	0xbd20aec5	-0.039229173
143	0xbdb91617	-0.090374164
144	0xbc9c4721	-0.019076886
145	0xbd10d1a0	-0.035356164
146	0x3be6b7fc	0.0070409756
147	0xbd8342a5	-0.06409196
148	0xbd8ff4b3	-0.070290945
149	0xbcf76a95	-0.03020219
150	0xbd9e146c	-0.07718739
151	0xbcba3e19	-0.022734689
152	0x3c5c53b3	0.01344769
153	0x3ce52d4b	0.027975699
154	0xbdbd7b20	-0.09252
155	0xbba7958c	-0.005114263
156	0xbc3b24e0	-0.011422366
157	0xbd10e4ee	-0.035374574
158	0xbcd3631e	-0.025804099
159	0xbd88fdf6	-0.06689064
160	0xbd4597af	-0.04824036
161	0xbd60a9b8	-0.054849356
162	0x3d32636a	0.04355184
163	0x3d0c50c1	0.0342567
164	0xbd5c5b5f	-0.053798076
165	0xbddcb1fc	-0.10776135
166	0xbde6f40d	-0.11277018
167	0xbd1c921a	-0.03822527
168	0x3d037331	0.032092277
169	0xbd8431ff	-0.064548485
170	0x3d25c494	0.040470675
171	0xbbfe733f	-0.0077652032
172	0xbcf42eac	-0.029807411
173	0xbd7f53ee	-0.0623359
174	0xbd24087b	-0.04004715
175	0x3c4218c6	0.011846727
176	0x3caa7639	0.020808326
177	0xbe0ed04f	-0.13946651
178	0x3d4fdefe	0.05074977
179	0x3d1b3f21	0.037902
180	0xbc0e4e73	-0.008685696
181	0xbd0f41f4	-0.034975007
182	0xbdb6d71e	-0.08927749
183	0x3d973d8a	0.073847845
184	0xbb1b5cf3	-0.0023706525
185	0xbd06dbad	-0.032924343
186	0x3a84cf54	0.0010132589
187	0x3c1beab4	0.009516407
188	0xbd31d96f	-0.04342025
189	0x3c93756f	0.018000333
190	0x3d096f6c	0.033553526
191	0xbcfe622d	-0.031052673
192	0xbd37d6f3	-0.044882726
193	0x3c927814	0.017879523
194	0xb97d2428	-0.0002414143
195	0xbd225043	-0.039627325
196	0xbdd2d3fe	-0.102943406
197	0xbe45441d	-0.19264264
198	0xbe090f50	-0.13384748
199	0xbcf65128	-0.030067995
200	0x3c99ef73	0.018790936
201	0xbe20909d	-0.15680166
202	0xbd7c7ca1	-0.061642293
203	0x3c73b056	0.014873585
204	0xbd98d662	-0.07462765
205	0xbc9551d1	-0.01822749
206	0x3beb8d18	0.0071884505
207	0xbccd1adb	-0.02503722
208	0xbc39119b	-0.011295701
209	0x3cb810f1	0.022469016
210	0xbdc04d63	-0.0938976
211	0xbcb999b8	-0.022656307
212	0xbd82a335	-0.063787855
213	0xbd55aed8	-0.052168697
214	0xbde3b866	-0.111191556
215	0xbc994282	-0.018708471
216	0xbd1e4034	-0.038635448
217	0xbda16291	-0.07880128
218	0xbdd002e8	-0.10156804
219	0x3cbba4e2	0.02290577
220	0xbd4f3568	-0.05058804
221	0xbcac9c80	-0.021070719
222	0x3d5171d6	0.051133953
223	0xbde21a12	-0.11040129
224	0xbdace418	-0.08441943
225	0x3d06f393	0.032947134
226	0xbd43cbcc	-0.047801778
227	0xbc7c53f5	-0.015400876
228	0xbcb2a4e3	-0.02180714
229	0xbda03198	-0.07821959
230	0xbdb760e9	-0.08954031
231	0xbd64a453	-0.055820774
232	0x3bb2e9db	0.0054600067
233	0x3d61b064	0.05509986
234	0xbcb91124	-0.022591181
235	0xbd9290a6	-0.07156496
236	0xbc3e098b	-0.011598955
237	0xbd3e5322	-0.046466
238	0xbd37a1a2	-0.04483188
239	0x3c9c2952	0.019062672
240	0x3d7551cd	0.059892464
241	0x3d3f8c8e	0.046764903
242	0xbdf0a620	-0.11750436
243	0xbc301946	-0.010748213
244	0xbd27bcc4	-0.040951505
245	0xbd460b19	-0.048350427
246	0xbd10bdfb	-0.03533743
247	0xbd86fe61	-0.06591488
248	0xbdf8d2be	-0.12149571
249	0xbdbfd927	-0.093675904
250	0x3c873326	0.016503882
251	0x3a159507	0.0005706106
252	0xbd993979	-0.07481665
253	0xbd78172c	-0.060568973
254	0xbd9aae06	-0.075527236
255	0xbd2f84f6	-0.04285141

BN1.running_mean f4 [256]
0	0xc10e02e3	-8.875705
1	0x406ae2a2	3.6700826
2	0x40b22a02	5.567628
3	0x4109b76d	8.607282
4	0xc0c55e00	-6.1677246
5	0x40e7aab0	7.239586
6	0x41c2a41f	24.330137
7	0x415a26ad	13.634442
8	0x4109bf0b	8.609141
9	0xc05ac4f6	-3.4182715
10	0x40972c91	4.72419
11	0x419c73e7	19.556593
12	0x410563fb	8.336909
13	0xc0987f97	-4.765575
14	0xc036b397	-2.8547113
15	0x3f8aa1fc	1.0830684
16	0x4176f93b	15.435847
17	0xc140b46b	-12.044047
18	0x414356d8	12.208702
19	0x414e4354	12.891438
20	0xc02d45fd	-2.7073967
21	0x415d5998	13.834373
22	0x4005eb82	2.0924993
23	0x409e4564	4.9459705
24	0xc00b3b4d	-2.1754944
25	0x3ca8afd3	0.020591652
26	0xc1056413	-8.336932
27	0x40bc683a	5.887723
28	0xc075dab5	-3.8414738
29	0xbf2359bf	-0.63808817
30	0x40c519a7	6.1593814
31	0xc09d8f12	-4.9237146
32	0x40f2208f	7.5664744
33	0xbf5b9282	-0.8577043
34	0x40c95112	6.2911463
35	0xc108a6b4	-8.540699
36	0xc0fdec54	-7.9350986
37	0x40596c35	3.3972294
38	0x401f16b7	2.4857614
39	0xc06090e2	-3.508843
40	0x414f8074	12.968861
41	0x417e3fa2	15.890535
42	0x40b0dcdb	5.52696
43	0x400428c0	2.0649872
44	0xc0f4b952	-7.647622
45	0x40571b97	3.361059
46	0x411d3894	9.826313
47	0x3fd66950	1.6750889
48	0xc0fce0c4	-7.902437
49	0xc0acf5c5	-5.405001
50	0xc0c59a7d	-6.1751084
51	0xc0f514f0	-7.658806
52	0x409821c6	4.7541227
53	0xc15c8748	-13.783028
54	0x406220f7	3.533262
55	0x4012f279	2.2960494
56	0xbf7e1732	-0.99254143
57	0x40b1c736	5.5555677
58	0xc107e729	-8.493936
59	0x40c0b0ad	6.021567
60	0x3fd490d7	1.6606702
61	0xc18389ba	-16.44225
62	0x40226f25	2.5380337
63	0xc08d14c1	-4.4087834
64	0xbfc953b9	-1.5728675
65	0xbfc9d724	-1.5768781
66	0x4163722a	14.215372
67	0x4098f377	4.77972
68	0xc123a9d0	-10.228958
69	0x3eed4d82	0.46348196
70	0xc0218767	-2.5238893
71	0xc0e12ce6	-7.036731
72	0xbfe27429	-1.7691699
73	0x4136689b	11.400538
74	0xc157adf5	-13.47997
75	0x40fb2617	7.8483996
76	0x41056d61	8.339204
77	0xc0ed4551	-7.4147115
78	0x40f60192	7.6876917
79	0xc08f1958	-4.4718437
80	0x3fa6d200	1.3032837
81	0x3f1a72d0	0.6033144
82	0x40d350d5	6.603617
83	0x4134b578	11.294304
84	0xc0950524	-4.6568775
85	0x3bb3f2a9	0.005491574
86	0xc12997cb	-10.599559
87	0x40465a07	3.0992448
88	0xbf907e5e	-1.1288564
89	0x4035133c	2.829299
90	0x409363ce	4.605933
91	0x4118f138	9.558891
92	0x3fc3dea5	1.5302321
93	0xc1097c3a	-8.592829
94	0x3e504b92	0.20341328
95	0x40817f2e	4.046775
96	0x409ca2a8	4.8948555
97	0xbf9475b8	-1.1598425
98	0xc13c05fb	-11.75146
99	0xc0f41918	-7.628063
100	0x40b81c84	5.753481
101	0xc04bb12a	-3.1826882
102	0x40a1bef0	5.054558
103	0x40927805	4.577151
104	0x41815923	16.168524
105	0xbf78d3a8	-0.9719796
106	0xc0e8d06f	-7.2754436
107	0xc0da0823	-6.8134933
108	0xbfdf0064	-1.7421994
109	0x40f9a324	7.8011646
110	0xc13b3daa	-11.702555
111	0xc0fe0e4e	-7.939246
112	0x410d8a72	8.8463
113	0xc167b02d	-14.480512
114	0x400639af	2.0972707
115	0x410921a8	8.570717
116	0xc11b752c	-9.716106
117	0xc150a07c	-13.039181
118	0x3fc04d40	1.5023575
119	0xc11bec09	-9.745126
120	0xc10b4387	-8.703986
121	0xc178da27	-15.55326
122	0x409c18ac	4.8780117
123	0xc0c0ca2c	-6.024679
124	0xbe23a15d	-0.15979524
125	0xc0df0b9f	-6.9701686
126	0xc0b84175	-5.7579904
127	0xbeffaa0d	-0.49934426
128	0xc0ae54d7	-5.4478564
129	0xc1204420	-10.016632
130	0x3ff7f1f7	1.9370717
131	0xc1366f27	-11.402137
132	0xbe85a1c2	-0.26099974
133	0xc00e030f	-2.2189367
134	0x3f94a210	1.1611958
135	0x4128275e	10.509611
136	0xbe862128	-0.2619717
137	0xbf730f32	-0.9494506
138	0x40225882	2.536652
139	0x416b8de1	14.722138
140	0xc0b20c89	-5.56403
141	0xc1052aea	-8.322977
142	0x40c94b75	6.290461
143	0x41109318	9.035912
144	0x3e3a8950	0.18216443
145	0x3e802009	0.2502444
146	0xc128396c	-10.514019
147	0x3fe17abb	1.7615579
148	0xc03a88b0	-2.9145927
149	0xbf05fcaf	-0.5233869
150	0xbf8af151	-1.0854894
151	0xc020eec3	-2.5145729
152	0xc0e2a600	-7.0827637
153	0x40e9acb4	7.302332
154	0xbfd5ae63	-1.6693844
155	0xc0cc9c8c	-6.3941097
156	0xc05b3de3	-3.4256523
157	0xc1852cba	-16.64684
158	0xc14aa3a2	-12.664949
159	0x4114f6d6	9.310263
160	0xc030f13a	-2.7647233
161	0xbf2f5a10	-0.684968
162	0xc1273f58	-10.452965
163	0x410d21c3	8.820743
164	0xc143250a	-12.196543
165	0xc12ed62e	-10.92729
166	0xbf2d5eb9	-0.6772266
167	0x418ec9ac	17.848473
168	0xc19253d6	-18.290936
169	0xc02a6336	-2.6623054
170	0x3e8f094b	0.27936777
171	0x413b1c51	11.694413
172	0x41793190	15.5746
173	0x3f863a94	1.0486627
174	0xbf2667c2	-0.6500207
175	0xc0807e92	-4.0154505
176	0xc0252d8b	-2.5809047
177	0x413005e2	11.001436
178	0x40dff8c4	6.999117
179	0xc177c37a	-15.485224
180	0xc1038023	-8.218783
181	0xbf8575c6	-1.0426567
182	0x4136ca0b	11.424327
183	0x4167102b	14.441447
184	0x3f948237	1.1602238
185	0xc122c296	-10.172506
186	0x40dda846	6.926791
187	0x40907515	4.5142922
188	0xbeb12dcc	-0.34605253
189	0x408383cc	4.1098385
190	0x40e1daf5	7.057978
191	0xc0784020	-3.8789139
192	0xc114a4df	-9.290252
193	0x408b5382	4.353944
194	0x3fc2ac93	1.5208915
195	0xc1141d8d	-9.257215
196	0x3fa0cd07	1.2562569
197	0xc132e884	-11.1817665
198	0x4189c43a	17.220814
199	0xc0920044	-4.5625324
200	0xc1429afb	-12.162837
201	0xc1123399	-9.137597
202	0x3fc519f5	1.5398546
203	0xc0730744	-3.7973185
204	0xc10e6932	-8.900682
205	0x414e2478	12.8839035
206	0x41621d62	14.132174
207	0xc12f5402	-10.95801
208	0x40900615	4.5007424
209	0xbf248d92	-0.6427852
210	0xc1360fd1	-11.378861
211	0x4063fe0c	3.5623808
212	0x40a21408	5.064945
213	0xc0e4d0f7	-7.1505084
214	0xbfa3518b	-1.275926
215	0x3f953255	1.1655985
216	0x4041d89c	3.0288458
217	0xc0593720	-3.3939896
218	0x3f5f7384	0.8728564
219	0xc0638e57	-3.5555627
220	0xc0cc12eb	-6.3773093
221	0xc15c9514	-13.786396
222	0xc08ebdaa	-4.4606524
223	0x3f72bcdf	0.94819444
224	0xc069d43e	-3.6535792
225	0x3f28f8ca	0.6600462
226	0xbfac9c96	-1.3485286
227	0xc12a8b40	-10.658997
228	0x40782a9e	3.8776011
229	0xc106b24b	-8.418529
230	0x40be8d4d	5.9547486
231	0x3ee79798	0.45232844
232	0x4072e03f	3.794937
233	0xc1421b15	-12.131612
234	0x3f506a3b	0.81412095
235	0x3f23fe99	0.6406036
236	0xc10d7ec6	-8.843451
237	0x40595ee7	3.3964174
238	0xc027156b	-2.6106822
239	0x41a2a353	20.329748
240	0xc01097ff	-2.259277
241	0x40bb84f5	5.85998
242	0xc0548bb6	-3.3210273
243	0x40c0aed3	6.021341
244	0x406d6eae	3.7098804
245	0x3f74d98c	0.9564445
246	0xc103c306	-8.235113
247	0xc0afd9af	-5.4953227
248	0xc1a548e9	-20.6606
249	0x40903e29	4.507588
250	0x41911a54	18.137856
251	0xc0bb4c8c	-5.853094
252	0xc102f19c	-8.183987
253	0xc0e12e51	-7.036904
254	0x40cd8b15	6.423228
255	0xc0d1ed36	-6.5602064

BN1.running_var f4 [256]
0	0x425a50bc	54.578842
1	0x42323e30	44.56073
2	0x43039e86	131.61923
3	0x42c37194	97.72183
4	0x431c0d0a	156.05093
5	0x4349c10b	201.75407
6	0x43172294	151.13507
7	0x42c21fe7	97.06231
8	0x4309a056	137.62631
9	0x42f7c74e	123.88927
10	0x4324cd0f	164.80101
11	0x43380c79	184.04872
12	0x42b86908	92.20514
13	0x42b052c7	88.161674
14	0x426232d7	56.54965
15	0x431ed1df	158.81981
16	0x42e0cab7	112.39593
17	0x42b104a6	88.50908
18	0x426dfd01	59.497074
19	0x430e3cbe	142.23727
20	0x42e7f056	115.969406
21	0x4234fefd	45.249012
22	0x41cea821	25.832094
23	0x42809dff	64.308586
24	0x4238e0b5	46.21944
25	0x42cae1f3	101.44131
26	0x4269f0c3	58.48512
27	0x429be6fe	77.95116
28	0x42458b84	49.386246
29	0x434c018e	204.00607
30	0x42861480	67.04004
31	0x4302555f	130.33348
32	0x42c09a70	96.301636
33	0x42b94d76	92.65129
34	0x42cd1890	102.54797
35	0x423a95e2	46.64637
36	0x424de1f8	51.470673
37	0x42c00327	96.00616
38	0x4301a734	129.65314
39	0x424346d3	48.819164
40	0x437f33da	255.20255
41	0x426d59c4	59.33766
42	0x4280b6ae	64.3568
43	0x429792fe	75.787094
44	0x438633dd	268.40518
45	0x42d48275	106.2548
46	0x42b27f01	89.248055
47	0x422083e9	40.12882
48	0x42c79789	99.79597
49	0x42913397	72.60076
50	0x42e164c1	112.696785
51	0x42b2bfbd	89.37449
52	0x4286305d	67.09446
53	0x42e3cd7c	113.90134
54	0x427d70df	63.360226
55	0x42cc8bdb	102.273155
56	0x4299220b	76.56649
57	0x42c94742	100.639175
58	0x42817ea6	64.74736
59	0x41d8cdaf	27.100431
60	0x42323585	44.552265
61	0x42b23354	89.10025
62	0x4289d7bb	68.92135
63	0x42c19569	96.79182
64	0x431f6e5b	159.43108
65	0x42551601	53.27149
66	0x4299bfc0	76.87451
67	0x42a62f4b	83.09237
68	0x43170290	151.01001
69	0x42813c84	64.618195
70	0x42ea5f26	117.18584
71	0x42453aa2	49.30726
72	0x4286b0ca	67.34529
73	0x427bb9a7	62.9313
74	0x42c822a4	100.06766
75	0x4226d5b8	41.70871
76	0x42a1a9a8	80.83136
77	0x423a0ad9	46.510593
78	0x42c043b0	96.1322
79	0x4223a9f2	40.915962
80	0x4214fc75	37.24654
81	0x42a991a3	84.78445
82	0x4287d246	67.91069
83	0x438276ae	260.9272
84	0x42803890	64.11047
85	0x42206f80	40.108887
86	0x42f30f14	121.52945
87	0x42527616	52.61532
88	0x426a79f1	58.619083
89	0x42ec5109	118.15827
90	0x42cd8aa7	102.770805
91	0x42631a4d	56.775684
92	0x427c824b	63.12724
93	0x42691307	58.26858
94	0x42901a98	72.05194
95	0x42878f09	67.779366
96	0x42c653e7	99.16387
97	0x424960fa	50.344704
98	0x42b07baf	88.24157
99	0x42f26e16	121.21501
100	0x42f11b73	120.55361
101	0x43112bc0	145.1709
102	0x423986f2	46.381783
103	0x433dd778	189.84167
104	0x4286dd06	67.43169
105	0x4232a93e	44.665276
106	0x424b3fd4	50.812332
107	0x42956e8c	74.71591
108	0x42815c90	64.680786
109	0x42b98f4d	92.779884
110	0x430741d5	135.25716
111	0x42a9f438	84.97699
112	0x427b531b	62.831158
113	0x4299989a	76.79805
114	0x4289d299	68.91132
115	0x42343023	45.04701
116	0x423908bf	46.25854
117	0x42b2aee3	89.341576
118	0x42a51abc	82.552216
119	0x42678d93	57.888256
120	0x42c5112d	98.53355
121	0x42ec277a	118.0771
122	0x42aa73f6	85.22649
123	0x43144bcc	148.29608
124	0x42a2a23c	81.316864
125	0x431df59b	157.9594
126	0x420ebc55	35.683918
127	0x426e14ea	59.520424
128	0x4300f369	128.95082
129	0x428803b5	68.00724
130	0x429eb560	79.35425
131	0x42db879d	109.76487
132	0x4357dc24	215.85992
133	0x42937f56	73.7487
134	0x43167a66	150.47812
135	0x429d62b7	78.6928
136	0x42ba0a51	93.02015
137	0x4277ad38	61.91916
138	0x42a40a5a	82.02022
139	0x42f62ee7	123.091606
140	0x423d1c8d	47.27788
141	0x428403e1	66.007576
142	0x42590ec3	54.264416
143	0x4307d1c4	135.8194
144	0x41863a64	16.778511
145	0x42cd349b	102.602745
146	0x42a54f00	82.6543
147	0x4315fa37	149.9774
148	0x4254b5fe	53.177727
149	0x42828574	65.26065
150	0x42938768	73.764465
151	0x432839a8	168.22522
152	0x4220ece5	40.231342
153	0x431c7064	156.43903
154	0x42106d4a	36.106728
155	0x4280532e	64.16246
156	0x425f70f0	55.86029
157	0x42b1e5a1	88.948494
158	0x42a83a97	84.11443
159	0x42e99ec6	116.810104
160	0x41dbf94c	27.496727
161	0x42f7d546	123.91655
162	0x42bf85aa	95.76106
163	0x431dc37a	157.76358
164	0x4296b6e5	75.357216
165	0x42e1bb12	112.86537
166	0x421f06f4	39.75679
167	0x429a6c31	77.21131
168	0x43073ee4	135.24567
169	0x42814df1	64.65223
170	0x41f3472a	30.409748
171	0x42d22f04	105.09183
172	0x42a3c957	81.89324
173	0x42b4a4c2	90.32179
174	0x42733132	60.798042
175	0x42324643	44.568615
176	0x4290a34d	72.31895
177	0x4257c26c	53.939865
178	0x4311fc8d	145.98653
179	0x4317f4ae	151.95578
180	0x42501ce0	52.0282
181	0x4226b70a	41.67875
182	0x429ece3e	79.40282
183	0x4271cf11	60.452213
184	0x422401e6	41.001854
185	0x42a14763	80.63943
186	0x42c353d0	97.6637
187	0x420dd712	35.46003
188	0x42374602	45.818367
189	0x42833788	65.60846
190	0x429ea40a	79.32039
191	0x4299ccbf	76.899895
192	0x4316cac0	150.79199
193	0x4282447d	65.133766
194	0x42adcfb5	86.90568
195	0x431711db	151.06975
196	0x422bd2ad	42.955738
197	0x428ae810	69.45325
198	0x4303a158	131.63025
199	0x423eeba6	47.730125
200	0x42a534db	82.60323
201	0x4327da89	167.85365
202	0x423dc497	47.441982
203	0x42a0cfaf	80.40563
204	0x42da9a8e	109.301865
205	0x42e54e67	114.65313
206	0x42d8c5f3	108.38662
207	0x4256ec8d	53.731007
208	0x42949666	74.29375
209	0x42b63c34	91.117584
210	0x426b031d	58.75304
211	0x42b607dd	91.01536
212	0x42d3f066	105.96953
213	0x4289f1cf	68.97228
214	0x4236a53f	45.661373
215	0x4297fd77	75.99505
216	0x42a8b835	84.35978
217	0x42dd8fbb	110.78072
218	0x423725ca	45.786903
219	0x4294ee7c	74.46579
220	0x427f4201	63.814457
221	0x42c2545e	97.16478
222	0x436f80f2	239.5037
223	0x42393803	46.3047
224	0x430722e6	135.13632
225	0x42788227	62.1271
226	0x427c5ceb	63.09074
227	0x42e78115	115.75211
228	0x4337112a	183.06705
229	0x429d7a9e	78.73949
230	0x4325e606	165.89853
231	0x424d366d	51.30315
232	0x4280b0ac	64.34506
233	0x42813ed1	64.62269
234	0x428053e5	64.16386
235	0x42853aa3	66.614525
236	0x42be7fce	95.24962
237	0x4227cdd5	41.951008
238	0x429d1f2e	78.5609
239	0x430b1d99	139.11562
240	0x4289518b	68.65926
241	0x432b4680	171.27539
242	0x42c3e1a2	97.94069
243	0x4240852e	48.13006
244	0x4300750a	128.45718
245	0x42af9695	87.794106
246	0x42e08c75	112.27433
247	0x43312717	177.1527
248	0x433dcd9f	189.8032
249	0x43108e94	144.55695
250	0x42fda47e	126.82127
251	0x42372c5d	45.793324
252	0x42ae0ce2	87.02516
253	0x42c28e33	97.27773
254	0x4232f990	44.743713
255	0x42e7b662	115.85622

L2.weight f4 [128, 256]
0	0x3cb9d312	0.022683654
1	0xbd0b39cc	-0.033990666
2	0x3c1d1cdd	0.009589401
3	0x3bbba083	0.0057259216
4	0xbc913cf9	-0.01772927
5	0x3d3d17a2	0.046165116
6	0xbb9f1f0c	-0.004855996
7	0x3ccb820d	0.024842286
8	0xbd20b6ee	-0.039236955
9	0xbc53b1b7	-0.0129207885
10	0xbd3ce458	-0.046116203
11	0xbd7e8793	-0.062141012
12	0x3d338f2b	0.043837707
13	0x3d52278b	0.051307242
14	0x3cc80298	0.0244153
15	0x3cafdd86	0.021467935
16	0x3d1dd397	0.038531866
17	0xbac6cdd5	-0.0015167544
18	0x3cf5fee6	0.030028772
19	0x3c271aa9	0.010199227
20	0x3c875a6e	0.016522612
21	0xbbfda00f	-0.0077400277
22	0x3b892464	0.0041852463
23	0x3d14d312	0.036334105
24	0x3c9016d4	0.01758901
25	0xbb8a8d43	-0.0042282655
26	0x3d617d56	0.05505117
27	0xbd219c84	-0.039455906
28	0xbd1f0365	-0.038821597
29	0xbd0813f8	-0.03322217
30	0xbc50c791	-0.012742893
31	0x3c98e7a2	0.018665139
32	0x3d1ffb6e	0.03905814
33	0x3d211f6d	0.03933661
34	0xbbd649b8	-0.0065395497
35	0x3d789ffe	0.060699455
36	0x3d4a5635	0.04939862
37	0x3c189f6e	0.009315355
38	0x3c82a717	0.015948815
39	0xbc89604c	-0.01676955
40	0x3d8be0f7	0.06830018
41	0xbb007d3b	-0.0019605893
42	0x3bafe384	0.005367698
43	0x3c9397ee	0.018016782
44	0xbc0b4ac8	-0.008501716
45	0x3c96faa5	0.018430064
46	0xbd68ecbd	-0.056866396
47	0x3a4e4cca	0.0007869719
48	0x3d02f610	0.031972945
49	0xbd057c47	-0.032589223
50	0x39a9d9b8	0.00032396405
51	0xbd1096ad	-0.035299946
52	0xbd7af3d2	-0.06126768
53	0x3d43445f	0.047672626
54	0x3d06ab5e	0.032878272
55	0x3d903552	0.0704142
56	0x3c23fc60	0.010008901
57	0xbc6b0ebe	-0.0143467765
58	0x3d4f0e5c	0.050550804
59	0x3d03553d	0.03206371
60	0x3c1f770f	0.009732976
61	0xbd2b0049	-0.04174832
62	0x3d83295f	0.06404375
63	0x3d06c64e	0.03290396
64	0x3c8a103f	0.01685345
65	0x3d93d9bb	0.07219263
66	0x3d146361	0.036227588
67	0x3d488e0e	0.0489636
68	0xbd458ba7	-0.048228886
69	0x3dbd1d7b	0.092341386
70	0xbd23d65f	-0.039999362
71	0x3d0630dc	0.03276144
72	0xbd7a3027	-0.061081078
73	0xbd2882b6	-0.04114028
74	0x3b07c222	0.0020715077
75	0xbcbbcf74	-0.02292607
76	0x3d8a5f7a	0.06756492
77	0x3d8e9646	0.06962256
78	0xbc73b90f	-0.014875664
79	0xbd75fa94	-0.060053423
80	0x3d40c2f1	0.04706091
81	0xbcdf02c4	-0.027222998
82	0x3d49649b	0.04916821
83	0xbc5229a1	-0.012827308
84	0x3c03e619	0.008050465
85	0x3cffa6c1	0.031207444
86	0xbbfa0825	-0.0076303654
87	0x3c3a4bd3	0.011370617
88	0xbc3074d4	-0.0107700415
89	0x3d478ec9	0.048720155
90	0x3c87173f	0.016490577
91	0xbd61c25f	-0.055117007
92	0xbcbfd2a8	-0.023415878
93	0xbd6407e8	-0.055671602
94	0x3d3edcd1	0.046597306
95	0x3cb49261	0.022042455
96	0x3c16d86a	0.009206871
97	0x3c2bf118	0.010494493
98	0xbd0de50f	-0.034642275
99	0xbc809ac7	-0.015698804
100	0x3d67e5bc	0.056615576
101	0xbd4a299f	-0.0493561
102	0xbd5d15c4	-0.053975835
103	0x3d81b770	0.06333816
104	0xbbcf055c	-0.0063177776
105	0x3d7a70db	0.061142784
106	0x3c08d872	0.008352386
107	0x3c9d8b01	0.019231321
108	0x3caa7909	0.020809667
109	0xbd608193	-0.05481107
110	0x3d83f035	0.064423
111	0x3d6d1222	0.05787862
112	0x3c1935cc	0.009351205
113	0xbd386abb	-0.04502366
114	0xbd869557	-0.06571453
115	0xbd820c7a	-0.06350036
116	0x3d6fd43e	0.05855202
117	0xbd61a67e	-0.05509042
118	0xbba177b5	-0.0049276003
119	0x3c95d743	0.018291121
120	0xbd0f1018	-0.034927458
121	0xbd442887	-0.047890212
122	0x3d62d68d	0.055380393
123	0x3cf90158	0.030396149
124	0xbd5f63bf	-0.054538485
125	0x3cd9bc6b	0.026579103
126	0x3d0eddbe	0.03487944
127	0xbbad1ef3	-0.0052832305
128	0xbd1f64e3	-0.038914572
129	0x3d0f4cc4	0.03498532
130	0xbbd17205	-0.006391766
131	0xbd08ad93	-0.03336866
132	0x3c005f32	0.007835196
133	0xbc84b706	-0.016200554
134	0x3ce3d198	0.027809903
135	0xbccde02e	-0.025131311
136	0xbc9f629a	-0.019456197
137	0xbaae0d00	-0.0013279021
138	0x3d3f21e2	0.046663173
139	0x3cfba364	0.03071756
140	0x3baa2bab	0.005193194
141	0xbd265741	-0.040610556
142	0x3ccd3b44	0.025052674
143	0xbd347b07	-0.04406264
144	0xbd572b4a	-0.052531518
145	0x3c191f6e	0.009345872
146	0xbc9d4171	-0.019196244
147	0x3d32229f	0.04349005
148	0x3b7a652f	0.0038207283
149	0x3ac08b95	0.0014690036
150	0xbb400596	-0.0029300204
151	0xbd18a950	-0.037270844
152	0xbcf4e09d	-0.02989226
153	0x3d5a3a0f	0.053278025
154	0xbc5bb254	-0.013409216
155	0xbd0cb4de	-0.034352176
156	0x3d3fc865	0.04682197
157	0x3bf0b26a	0.0073454874
158	0xbbc86bcb	-0.0061163655
159	0x3cb9eb68	0.022695258
160	0xbbec7e92	-0.007217237
161	0xbc42dfca	-0.011894176
162	0x3cddb736	0.0270649
163	0x3c36077a	0.011110181
164	0x3d4048f6	0.04694458
165	0xbc8325b2	-0.016009185
166	0x3d1891ea	0.03724853
167	0x3c12ec8f	0.008967533
168	0xbd158c01	-0.03651047
169	0x3cd6f6ed	0.02624079
170	0x3cf4bfe2	0.029876653
171	0xbb2fe34d	-0.0026838363
172	0x3cdd09dd	0.026982242
173	0x3b0b3bfa	0.0021245466
174	0xbd55a2c2	-0.05215717
175	0xbd4215cb	-0.047384065
176	0x3cb6c77f	0.022311924
177	0x3d193bf3	0.037410688
178	0xbd68f519	-0.05687437
179	0xbd5aa480	-0.053379536
180	0x3ccb7bbe	0.024839278
181	0xbd0a6f9f	-0.033797856
182	0xbcb9ec2a	-0.02269562
183	0xbc934af8	-0.017980084
184	0x3d8163d3	0.06317868
185	0xbbcbcaca	-0.0062192427
186	0x3d604932	0.054757304
187	0xbcc1457d	-0.023592705
188	0xbd7c793c	-0.061639056
189	0x3d902677	0.070385866
190	0xbc6efddf	-0.014586895
191	0xbc4a3a3e	-0.012342988
192	0xbd2527e0	-0.04032123
193	0x3d3d885c	0.04627262
194	0xbb8677f8	-0.004103657
195	0x3d8fccf3	0.07021513
196	0x3cd5b741	0.026088359
197	0xbd4ca078	-0.049957722
198	0xbbb647b7	-0.0055627483
199	0x3d8ca83c	0.06868026
200	0x3c25ba47	0.010115213
201	0xbc47eb9e	-0.012202172
202	0xbab2a6c8	-0.0013630027
203	0xbd503c02	-0.050838478
204	0x3b086418	0.0020811614
205	0xbcb48599	-0.02203636
206	0xbc197cb7	-0.009368113
207	0xbd268aa9	-0.04065958
208	0xbd0960ce	-0.033539586
209	0xbd3fce41	-0.04682756
210	0x3cd666ba	0.02617203
211	0x3d6bb462	0.057545073
212	0x3c3170b3	0.010830092
213	0x3d4eb608	0.050466567
214	0x3c9b2c6c	0.01894208
215	0x3d358aef	0.04432195
216	0x3d844811	0.06459058
217	0xbcaf9b6e	-0.02143642
218	0x3d63c2d9	0.055605743
219	0x3c4a2d2c	0.012339871
220	0x3d24183b	0.04006217
221	0xbccb8e48	-0.024848118
222	0xbd367f94	-0.04455526
223	0xbc58080c	-0.013185512
224	0xbc0efd44	-0.008727375
225	0x3cac8861	0.021061124
226	0x3bb99fa2	0.0056647817
227	0x3d11d9ad	0.035607982
228	0x3d98efc9	0.074676104
229	0x3d42c441	0.047550444
230	0xbce28191	-0.027649673
231	0xbcfc8f91	-0.030830177
232	0xbc03bc06	-0.008040434
233	0xbc089050	-0.008335188
234	0x3ca755af	0.0204266
235	0x3d6dd572	0.058064885
236	0x3bdecd78	0.006799396
237	0xbd02be18	-0.03191957
238	0xbd2a4584	-0.0415702
239	0x3d6f5cef	0.058438238
240	0x3d68bec0	0.05682254
241	0x3c55fad8	0.013060294
242	0xbd81e79b	-0.06343003
243	0x3d0cfe0c	0.034421965
244	0xbba4eb57	-0.0050329375
245	0xbd63bd9c	-0.055600747
246	0x3ca6bc94	0.020353593
247	0x3c763ba1	0.015028865
248	0x3d2e1f3f	0.042510267
249	0x3c836f60	0.016044319
250	0xbc84af15	-0.016196767
251	0x3d6dfa1f	0.058099862
252	0xbd890353	-0.06690087
253	0x3d90a1e8	0.07062131
254	0xbbf841e6	-0.007576215
255	0x3d553218	0.052049726

L2.bias f4 [128]
0	0xbb85e314	-0.0040859077
1	0xbd2a71fa	-0.041612603
2	0xbbdfcd30	-0.00682988
3	0xbd102ab6	-0.035196982
4	0x3cc473ba	0.023980964
5	0xbd132860	-0.035927176
6	0xbd17c33b	-0.03705142
7	0xbd469ec6	-0.048491262
8	0xbcbf8f9a	-0.023383904
9	0xbc64ae71	-0.013957606
10	0x3c34266b	0.010995488
11	0x3c938982	0.018009905
12	0xbcc6ccec	-0.024267636
13	0xbd49a366	-0.049228095
14	0x3d6f38ac	0.058403656
15	0x3d1dca91	0.03852326
16	0xbcc179fe	-0.02361774
17	0x3b8bc812	0.0042657936
18	0xbd4cad66	-0.049970053
19	0xbd4af510	-0.049550116
20	0x3d631b2e	0.055445842
21	0x3cce9539	0.02521764
22	0x3c6c83c7	0.014435715
23	0xbd4180da	-0.047242023
24	0xbd58168d	-0.05275588
25	0xbd28db2c	-0.041224644
26	0xbd178e72	-0.03700108
27	0x3ca50311	0.020143064
28	0x3bb394a6	0.0054803668
29	0x3cf187bb	0.029483667
30	0x3cafd678	0.021464571
31	0xbc267ec7	-0.010162062
32	0x3aab254b	0.0013057379
33	0x3d033a3d	0.032037962
34	0xbb928f7f	-0.0044726725
35	0x3bce1520	0.0062891394
36	0x3bbf14b1	0.005831324
37	0xbc2afd3c	-0.010436352
38	0xbca4914a	-0.02008881
39	0x3ca3cd5f	0.01999539
40	0x3d5b5eec	0.05355732
41	0xbd4d23ad	-0.05008285
42	0xbb8e4e8d	-0.00434286
43	0xbce14085	-0.027496586
44	0xbc045578	-0.008077018
45	0x3cbbb60e	0.022913959
46	0xbd5ea1a3	-0.054353368
47	0x3cef8e28	0.02924259
48	0x3cbd9ce5	0.023146102
49	0xbcfbad71	-0.030722352
50	0xbd149f56	-0.036284767
51	0xbcb44c3f	-0.022009013
52	0xbb2f9528	-0.0026791785
53	0xbd0ff27d	-0.035143364
54	0x3d651736	0.05593034
55	0xbb839dae	-0.0040165996
56	0xbccdd801	-0.025127413
57	0xbd43e428	-0.04782501
58	0x3ccc839a	0.024965096
59	0xbd099191	-0.03358609
60	0x3caa76cc	0.0208086
61	0xbc34a5a8	-0.011025824
62	0xbce0f814	-0.027462043
63	0x3caf0f56	0.021369617
64	0xbd7aa8ed	-0.061196256
65	0x3d1fb27e	0.038988583
66	0xbb471a58	-0.0030380692
67	0x3bd53f68	0.0065078028
68	0x3d113886	0.035454296
69	0xbca43f80	-0.02004981
70	0x3ccba755	0.024860064
71	0x3a5e49c7	0.00084796216
72	0xbc93b366	-0.01802988
73	0x3d3caa1e	0.046060674
74	0x3bfae564	0.00765674
75	0x3d296416	0.041355215
76	0xbc91f3c0	-0.017816424
77	0x3cfc1324	0.030770846
78	0x3cf02eed	0.029319251
79	0x3d130490	0.035893023
80	0x3d05a6cd	0.032629777
81	0x3d105802	0.03524018
82	0xb980d645	-0.00024573706
83	0x3bacf101	0.0052777533
84	0xbd4bf2d2	-0.04979212
85	0x3d32a837	0.043617453
86	0x3c919e06	0.017775547
87	0xbc87f5d0	-0.016596705
88	0xbd4ec0ab	-0.05047671
89	0xbcd74552	-0.026278172
90	0xbb8b0caf	-0.0042434554
91	0x3cf33454	0.029688038
92	0xbb42f0d4	-0.0029745596
93	0x3cbc3963	0.022976583
94	0x3c434684	0.011918668
95	0x3d7440f8	0.05963227
96	0x3d69a21c	0.057039365
97	0x3d29becb	0.04144172
98	0xbd7f0143	-0.062257063
99	0xbcc2f096	-0.023796361
100	0x3cd6b280	0.026208162
101	0x3d26b1f1	0.040697042
102	0x3d2683c0	0.04065299
103	0xbcbc0836	-0.022953134
104	0x3bfcdbd6	0.007716636
105	0x3c439ac2	0.011938753
106	0x3cdd8eb5	0.027045587
107	0xbd3ff225	-0.046861786
108	0xbd6bc049	-0.057556424
109	0x3d6a3300	0.057177544
110	0x3c3162c6	0.010826772
111	0x3cfd94d5	0.030954758
112	0xbd42c0c5	-0.04754712
113	0xbc1ab2f7	-0.009442083
114	0x3cc97ff7	0.024597151
115	0xbd553044	-0.052047983
116	0xbd28e9aa	-0.041238464
117	0xbbbaa881	-0.0056963568
118	0xbc9f43e4	-0.019441552
119	0x3d66c6d4	0.05634196
120	0xbd55ec59	-0.05222735
121	0xbd442750	-0.047889054
122	0xbca92caf	-0.02065119
123	0xbc90481f	-0.017612515
124	0xbd71eeb2	-0.05906553
125	0xbb1fd9dd	-0.0024391331
126	0x39c78c74	0.00038060884
127	0x3d26c265	0.040712733
