Trained_Models/BotDetection_v4_MLP___May-10-2024/BotDetection_v4_MLP_epoch97_val_loss_0.486796.pth (torch, 966779 bytes, 45 tensors)

L1.weight f4 [256, 133]
000000 ee 73 02 3c 34 05 6e 3d c5 d1 ad 3d 06 f4 44 be
       0.00796221 0.05811043 0.08487276 -0.19233713
000010 d9 e7 c8 3c 2d 1f 2c 3d 95 49 4a 3e b1 25 06 bd
       0.024524616 0.04202192 0.19754632 -0.03275079
000020 da 69 36 3c 08 e0 54 3d f3 fb 9e bd 1e df bb 3c
       0.011133635 0.051971465 -0.07762899 0.022933539
000030 b3 16 55 bd 5e 1a 65 bd c8 e8 05 be 73 56 c1 3d
       -0.0520236 -0.05593335 -0.1307708 0.09440317
000040 d9 67 aa bc 5b 2f 35 bd 95 66 11 bb d0 6f 53 bd
       -0.020801472 -0.044234615 -0.0022186388 -0.051620305
000050 83 8b ea bc 5e 9b 43 bc 91 0c 48 bd 47 fd 21 bd
       -0.028630977 -0.011938898 -0.04884011 -0.039548185
000060 3f d5 93 3d bc 1e e0 bd 5d 3f f6 3c db 64 e3 bd
       0.07218408 -0.10943362 0.03005951 -0.11103221
000070 b2 1c c9 3c 6c a3 e9 3d 5f 33 a0 38 00 80 1d bd
       0.024549816 0.114081234 7.638963e-05 -0.03845215
000080 c0 98 b6 bd 7c 84 a9 bc 70 74 5a bd 2b fa a3 3d
       -0.089158535 -0.020693056 -0.0533337 0.080067
000090 53 43 dc 3d 7a c6 8b 3d c4 2a ae bd 23 4e 8c bd
       0.107550286 0.06824966 -0.08504251 -0.06850841
0000a0 fe 6f 54 3e 2c b7 54 bc 47 03 19 bd f4 af d8 bb
       0.20745847 -0.012983125 -0.03735664 -0.006612772
0000b0 35 53 c8 bc a9 8f b7 3d bc f6 b6 3b 51 20 90 3d
       -0.024453739 0.08962948 0.0055836122 0.07037414
0000c0 93 1d 0f bd e1 fe a0 3d ec e6 39 3d c7 ce 03 3c
       -0.034940314 0.07861114 0.04538624 0.008044905
0000d0 d3 39 7e 3d f8 d7 d4 3d 4f 04 f1 bc e5 87 03 ba
       0.062066864 0.10392755 -0.029421 -0.0005017503
0000e0 4f 67 36 bd 9d 51 58 3d 4e 67 50 be d9 6d 1b bd
       -0.044532117 0.052812207 -0.20351908 -0.037946556
0000f0 f0 a8 38 be 5c af 4e 3c 5a 9f 2f be 2f d0 5d bd
       -0.18033195 0.012615051 -0.17150632 -0.054153617
000100 7b b9 15 3e 28 29 fb bd 22 d9 a3 bd c5 32 0b 3e
       0.14621536 -0.12263709 -0.08000399 0.13593586
000110 de d7 b2 bc f0 13 57 bd bc e1 63 3d a8 ae e3 3d
       -0.02183145 -0.05250925 0.0556352 0.111172974
000120 ee cc c8 3d 94 cb 87 3d 5b 2f 4e bd ed 20 dd bc
       0.09804712 0.06630626 -0.05033813 -0.02699324
000130 2f c7 9e bd c1 80 86 3b fe 62 84 bc 36 0a bb 3c
       -0.07752835 0.004104704 -0.016160484 0.022832017
000140 30 c9 14 bc ed d8 19 bd 13 62 9b bd a8 59 04 bd
       -0.00908117 -0.037560392 -0.075870655 -0.032312065
000150 15 ca 7f 3d fe e9 5c bd 97 c2 3e be e6 d5 dc bd
       0.06244858 -0.05393409 -0.18628918 -0.107829854
000160 64 a4 1a 3d 0c 7c 01 bd d6 6b 9c 3c 64 55 29 3e
       0.03775443 -0.03161244 0.019094389 0.1653648
000170 2b bb c8 bd 58 35 7b bb d5 5e 09 bd d7 34 54 3d
       -0.098013245 -0.0038331356 -0.033537704 0.051808205
000180 83 49 11 3d 3d bd b0 bd d2 7d 29 bd ed 5d a0 3c
       0.035470497 -0.08629844 -0.041379757 0.019576037
000190 ad 11 02 3d bd 9f f8 bd 98 f9 05 3e ba 4c 2e be
       0.03175514 -0.12139843 0.13083494 -0.17021456
0001a0 c3 2f 7d bd bd 15 9a 3d 8b 5c 88 3d 83 14 2b bd
       -0.061813127 0.075236775 0.06658276 -0.04176761
0001b0 a7 89 32 bd e8 f4 80 bd 54 90 40 3d f1 4b d8 bd
       -0.043588307 -0.06296712 0.047012642 -0.1056136
0001c0 90 4b 40 bd 7e 97 ab bc 80 cc a4 3c 78 fc 95 bc
       -0.046947062 -0.02094626 0.020117044 -0.018308863
0001d0 93 df b1 3c 8c 07 d3 3d a9 38 99 3d e7 04 ac 3d
       0.021713054 0.10304174 0.0748151 0.083993725
0001e0 52 8e c7 bd db 57 4d 3d 0d 93 04 3c f9 08 56 3e
       -0.09743942 0.050132614 0.0080917 0.2090186
0001f0 b3 18 04 be 0c 0d 1e bc 08 9b 2a 3d 89 20 9d 3d
       -0.12900047 -0.009646665 0.041651756 0.07672221
000200 5e d3 96 bd 74 53 52 3c 9b cf 80 3d b1 c6 2d 3d
       -0.07364534 0.01283728 0.062895976 0.042425815
000210 4c 7d 58 bd dc 1b a8 3b 03 88 24 3d 8c 83 7d bc
       -0.052853867 0.005130274 0.040168773 -0.015473258
000220 1e 38 c2 3d 39 21 18 bd 27 bb 9c 3d d6 6d 9b bd
       0.0948336 -0.03714106 0.07652884 -0.07589309
000230 d0 82 09 bd cc 09 5b 3d 6d a6 2e bd 6c 3f 65 3c
       -0.03357202 0.05347614 -0.042639185 0.013992172
000240 6b 37 d0 bb 36 2b 6f bd e4 68 85 3d 11 0a 9f 3d
       -0.0063542626 -0.05839082 0.06514147 0.07765592
000250 db e7 68 3c a3 80 94 bd 1f 85 07 bc b0 b2 94 bc
       0.014215435 -0.07251098 -0.008271485 -0.018151611
000260 2e 27 50 3d 4c c2 d9 bc 03 5e 04 b9 1c e5 83 bd
       0.050818615 -0.026581906 -0.00012623523 -0.064401835
000270 69 84 e8 bd ca 14 d2 bd 95 9f 0f bd 20 00 98 bd
       -0.1135338 -0.102578714 -0.0350643 -0.07421899
000280 0b 75 6c bc d0 b5 a0 bd 2a 3e 62 3d 8d 19 4b bc
       -0.014432202 -0.07847178 0.055235066 -0.0123962285
000290 1e f5 e1 bc e5 94 8e 3d 3f ff 84 3d 86 f3 61 bd
       -0.027582701 0.06961993 0.06493997 -0.055163883
0002a0 30 14 b1 bc a2 31 f9 3d b6 60 85 3d c6 36 1b 3e
       -0.021616071 0.1216767 0.06512587 0.15157613
0002b0 e3 57 9e 3d 40 d8 67 3d c6 47 12 bd 6e 00 aa 3c
       0.07731607 0.056602716 -0.03571298 0.020752158
0002c0 21 12 ad 3c 89 9d 16 3e a2 02 1a bd 5f 60 bc 3c
       0.021126809 0.14708532 -0.037600167 0.022995172
0002d0 33 0d 60 3d 74 5d 7a 3d 9f ce eb 3c 14 84 af bd
       0.054700088 0.06112428 0.028785048 -0.08570114
0002e0 43 4e 8e bd 4e c4 8b 3d 89 f3 18 3e cc 54 8c bd
       -0.06948521 0.068245515 0.14936651 -0.06852111
0002f0 6c 0d 82 bd 95 fa 34 bb ae 9f 8c 3d 5d 03 b2 3d
       -0.06350216 -0.002761518 0.06866394 0.08692048
000300 50 62 b0 bd 2d 21 b3 3d 9d a7 6e 3d 0d 3b 89 3c
       -0.086125016 0.08746562 0.058265317 0.01675179
000310 ba 02 dc bd cb 87 04 3c c7 75 16 3d 2f 79 67 bd
       -0.107427076 0.008089016 0.036733415 -0.056512054
000320 4f e7 8b bc f6 8a 81 bc d8 e4 d7 bc 94 4e a4 bc
       -0.01707807 -0.015813332 -0.026354238 -0.020057
000330 0a d4 f0 3d a3 4e cb 3c 67 f2 21 bd 14 35 62 bc
       0.11759193 0.02481777 -0.039537814 -0.0138066
000340 46 ed d0 3b f6 45 aa 3d 99 e1 56 bd 49 ef 24 bc
       0.0063759414 0.08314125 -0.05246124 -0.010066816
000350 d8 d1 ca bc 09 84 36 bd 4d 7c b4 bb 41 65 d0 bd
       -0.024758264 -0.044559512 -0.005507982 -0.10175563
000360 46 a4 c6 bd b9 86 b0 3d 5d db 0d bd 16 7e 70 3d
       -0.096993014 0.08619446 -0.03463303 0.058713995
000370 ff e1 5a bd 81 f7 67 3c 13 4e 3a be 85 4a 00 3e
       -0.053438183 0.014158131 -0.18193845 0.12528427
000380 83 37 34 be 26 40 5e bd 59 65 ff bd 48 4c 4a 3d
       -0.17599301 -0.054260395 -0.124705024 0.049389154
000390 d0 01 9c 3b 49 a7 ec bc 2b 1d 72 bd d6 91 76 bd
       0.0047609583 -0.028888362 -0.059109848 -0.060197674
0003a0 ec 8a 35 3d 0d 64 1d 3e 1c 66 4a 3c 7c 58 4b 3d
       0.04432194 0.15370198 0.012353446 0.049644932
0003b0 e9 e6 a0 bc a7 ca 11 3d 7e 48 c2 3d 17 30 4c 3d
       -0.019641357 0.035593655 0.09486483 0.04985055
0003c0 03 51 ed bd 3b 51 e8 3b 87 de 87 3b c3 bf 02 bd
       -0.115877174 0.0070897616 0.0041464004 -0.03192116
0003d0 2f f4 65 bd ed 0d 3d 3d 7b 59 8a bd b3 5b c3 3c
       -0.056141075 0.04615586 -0.06755348 0.023847437
0003e0 17 bc 81 3c 53 8d 4b 3d a1 8b a4 3d 83 c8 b7 3d
       0.015836759 0.049695324 0.080344446 0.089737915
0003f0 84 4a 45 bd 45 93 23 be 9d 9d a7 bd d3 7a a5 bd
       -0.048166767 -0.15974148 -0.08184359 -0.080800675

L1.bias f4 [256]
000000 51 e2 a6 bd 7d 56 97 bc b5 13 7b 3d a1 7d 8a bc
       -0.08148635 -0.018473858 0.06129809 -0.016905608
000010 79 35 b2 bc 6f df 79 bd d3 d9 05 3d 11 cd 2a 3d
       -0.021754013 -0.0610041 0.032678436 0.041699473
000020 67 c4 56 bd f2 af 9d bd 20 72 bd bc 6c 02 78 3d
       -0.052433398 -0.076995745 -0.023125708 0.060549185
000030 cb dd 83 bd ba 9d 12 bd 8c 3e ae bd fd 06 21 bc
       -0.06438788 -0.03579495 -0.085080236 -0.009828326
000040 8b 46 97 3c 0f 4a 10 3d 4b 3d 29 bd 69 9e a9 3d
       0.018466255 0.035226878 -0.04131822 0.082821675
000050 73 64 ef 3b ab 71 7d bd 03 ab 8e 3c 40 ae 02 3d
       0.0073056757 -0.06187598 0.01741553 0.03190446
000060 2d c2 64 3d 4d bf 7b 3d 0c 32 b5 bc 02 92 8e bc
       0.055849243 0.061461736 -0.02211859 -0.017403606
000070 9d 75 33 bd e3 e8 10 3d 71 83 87 bd 32 f7 bd bc
       -0.043813337 0.035378348 -0.06616867 -0.023189161
000080 5a 4a 65 bc f0 57 91 bd 6b 55 09 3d 89 8f a1 3c
       -0.013994778 -0.07096851 0.033528727 0.019721763
000090 8e fd 96 3d bb c4 5b bd c9 cf 9f 3d a9 a8 15 3d
       0.073725805 -0.053654414 0.07803304 0.0365378
0000a0 52 2a da bc ad 4e 87 bd fa aa a7 bd 1c 02 02 3d
       -0.026631508 -0.06606803 -0.08186908 0.031740293
0000b0 2f f3 2c bd ac 32 cd bc e6 90 0a bd b9 49 85 bc
       -0.042224105 -0.025048576 -0.033829592 -0.016270505
0000c0 04 bd f2 3b 4f 84 98 3d a2 ae 67 3d 2d f9 83 3d
       0.0074077863 0.07447111 0.056563027 0.06444011
0000d0 de f8 9b 3b 54 46 db bc c4 22 23 bd 9a f1 4c 3d
       0.004759892 -0.026766934 -0.039828077 0.050035097
0000e0 cb ff ef bb 53 2e 0b 3d 62 e5 9e bd b3 82 31 3d
       -0.007324194 0.033979725 -0.07758595 0.043337535
0000f0 3a a5 39 bd f5 8b 19 bc f9 b0 8e 3d 18 53 58 3d
       -0.045323588 -0.009371747 0.069673486 0.05281362
000100 6e 7c 4d bd 0d 8a 92 3d 9c bb 8f bd bb 3b 22 3d
       -0.050167494 0.07155237 -0.070182055 0.039607745
000110 cf fe 62 3c 7f 6a a3 3d 35 33 0e 3c f3 a0 99 bc
       0.013854696 0.07979297 0.008679201 -0.018753504
000120 51 22 97 3d 23 9c 51 bd 8e c9 75 3d 4d af 05 bd
       0.07379592 -0.051174294 0.06000667 -0.032637883
000130 26 b4 3f bc 63 2e 19 bd 80 8d 68 3d 11 dd 5e bd
       -0.011700666 -0.037397753 0.05677557 -0.054410044
000140 c9 ba c8 bc 0c 88 c5 3b 9b a1 9d 3d cc fc 41 bc
       -0.024503129 0.006028181 0.076968394 -0.011840057
000150 f9 f8 17 bd fd e6 22 bc 56 55 a0 3c db 92 1c bd
       -0.037102673 -0.009942767 0.019571941 -0.03822599
000160 30 93 b0 3d 02 c2 0f 3d 8c 07 fc bc 0e cf 4f 3d
       0.08621824 0.03509713 -0.030765317 0.050734572
000170 cf 09 ce bc b3 84 9b 3c f0 c0 78 bc 44 54 8a bd
       -0.025151161 0.018984174 -0.015182719 -0.06754354
000180 f9 1d 94 bd 77 9a 9a bd 43 66 45 bd 92 d9 ae bb
       -0.07232279 -0.07548993 -0.048193227 -0.005335995
000190 dc e1 38 3c f4 89 6b 3c f6 22 20 3d 1b 8b b3 3b
       0.011284318 0.014376152 0.03909584 0.005479229
0001a0 ae cd ac 3d 00 a0 a6 bc 56 42 95 3c 10 1d 92 3c
       0.08437668 -0.020339966 0.018220108 0.017836124
0001b0 47 b6 2e 3d 37 b2 8d 3d 4b 12 05 3d 25 cd 30 3d
       0.042654302 0.069187574 0.03248815 0.04316439
0001c0 40 42 9d 3d f6 4d 2b 3d fa 44 a1 3d f2 32 34 3d
       0.07678652 0.041822396 0.07874484 0.043993898
0001d0 04 57 2b 3d 8f 8c 31 bc 42 b8 5c bd 6d 7b 9d 3d
       0.04183103 -0.010836734 -0.05388666 0.07689557
0001e0 59 e9 36 3d f0 3c d4 3c e0 49 10 3d 93 22 c4 bc
       0.04465613 0.025907964 0.035226703 -0.023942268
0001f0 3c e4 27 bc 21 aa 8d 3d 69 75 ba 3c 3b b2 ab bd
       -0.010247286 0.06917215 0.022761064 -0.08383604
000200 25 99 8f 3d 32 eb d2 3c 90 d1 2d bd b3 d0 1e bd
       0.07011632 0.025746915 -0.042436182 -0.03877325
000210 16 3a 84 bd 28 ce a5 3d ab c2 26 bd 6d 4e 1f bd
       -0.064563915 0.08095962 -0.040712994 -0.038893152
000220 c1 96 e3 3c ab f1 0d bd 8c 88 3a 3d fd 13 f9 bc
       0.027781846 -0.0346543 0.045540377 -0.030405039
000230 ff 11 a8 bc 26 b3 db bc bf a1 a1 3b 8c 17 32 3d
       -0.020516394 -0.026818823 0.0049326117 0.043479487
000240 06 8f 5e bc 57 5f 8b 3d a4 80 af bd 24 c2 87 bd
       -0.013583904 0.06805294 -0.08569458 -0.06628826
000250 78 e7 c7 3c 1f a1 d5 bb d3 8f 56 bc d9 ba cb 3c
       0.024402365 -0.0065194513 -0.013095814 0.02486937
000260 da 24 91 bd 51 c4 16 bc 52 cc 7c bd b7 17 9e 3d
       -0.07087107 -0.009202079 -0.061718293 0.07719367
000270 1d b3 9a 3c 47 9b 53 3d 01 df 63 bd e5 e5 a9 bc
       0.018884236 0.051661756 -0.055632595 -0.020739505
000280 b2 6e 3e 3d 3c f2 95 3d 0d 38 94 bd 00 6f c0 bc
       0.046492286 0.07321593 -0.07237253 -0.023490429
000290 1d 38 80 bc 71 65 a4 3d b7 02 5c bd dc 1e 03 3d
       -0.015651757 0.08027161 -0.053713527 0.03201185
0002a0 a1 fc 81 3d ad 4a 86 bd 03 11 a7 3d 47 51 ae bd
       0.06347013 -0.06557212 0.081575416 -0.08511596
0002b0 f2 25 82 bd e2 ac cd bc e5 65 8d 3b 10 eb 4b 3b
       -0.06354894 -0.025106851 0.0043151253 0.003111545
0002c0 bc 17 84 3d ef ae 98 3d 00 80 c0 bc 1e 8d a4 3c
       0.064498395 0.07455241 -0.023498535 0.020086821
0002d0 56 eb f8 bc 53 7a ca 3c cf 46 dd ba bd a7 25 3d
       -0.030385654 0.024716532 -0.0016882065 0.04044317
0002e0 45 2a bc 3a b9 5a dc bc 2d c3 17 3d ba 25 80 3d
       0.0014355859 -0.026898729 0.03705137 0.06257196
0002f0 a4 68 25 bd 94 f0 bc 3c 87 b8 1d 39 41 db cc bc
       -0.040382996 0.023063935 0.00015041429 -0.025006892
000300 5c 4d 17 3d 42 3e 4a 3d d4 69 1f 3d d8 c8 96 bd
       0.03693901 0.04937578 0.038919285 -0.07362527
000310 fe 61 00 bd 11 c8 92 3d 5b 1d 4b 3d 38 bb 47 3d
       -0.031343453 0.07167066 0.049588542 0.04876253
000320 95 74 57 bd 1f 93 fe 3c 39 0c 33 bc 96 70 09 bd
       -0.052601416 0.031076012 -0.010928207 -0.033554636
000330 a9 02 53 3d f0 89 aa 3d f5 c1 1e 3d 23 d4 81 3d
       0.05151621 0.08327091 0.03875919 0.0633929
000340 40 f8 4a bd cc 88 2e 3d 03 ef a3 bd 52 fd aa bc
       -0.049553156 0.04261093 -0.08004572 -0.020872746
000350 67 22 aa bc d9 db 91 bd b2 23 de bc e0 09 86 3d
       -0.020768357 -0.07122011 -0.02711663 0.06544852
000360 16 15 2e bd c3 19 99 3d 1a d8 30 3d 34 e2 0e bd
       -0.042500578 0.07475617 0.04317484 -0.034883693
000370 99 21 47 3d 3d 10 a5 bd cc 8b 14 3d 08 38 29 bd
       0.048616026 -0.08059738 0.036266133 -0.0413132
000380 92 f1 8b bd da c4 ae 3d 37 33 5c bb c7 5d 5a bd
       -0.06833185 0.0853364 -0.0033599862 -0.05331209
000390 79 70 af 3d 30 e9 b0 3c 69 9c 56 bc 78 f3 05 bd
       0.08566374 0.021595567 -0.0130988145 -0.032702893
0003a0 c6 7e 9f 3d 89 1a 45 3d ad 2f a0 3d 04 56 01 3d
       0.07787852 0.04812101 0.078215934 0.03157617
0003b0 d5 df 8b 3d e2 70 62 ba 44 8f 9e 3c 8c e7 b2 3c
       0.06829802 -0.00086380367 0.019355424 0.021838926
0003c0 75 c6 a7 3d f4 04 85 3d 1c 85 54 3d e2 00 ab bd
       0.081921495 0.06495085 0.051884755 -0.08349778
0003d0 66 ee 81 3d 82 d4 41 3d 24 9d 9d bc d9 5e 82 3c
       0.06344299 0.047321804 -0.01923997 0.015914368
0003e0 53 62 ae bd 5c 1b 46 bd ca 05 89 3d c9 94 a3 bd
       -0.085148476 -0.048365936 0.06690557 -0.07987363
0003f0 c2 d6 09 3a 8a b5 7b 3c 66 2f 86 bb 03 37 4f bd
       0.00052581367 0.0153631065 -0.004095006 -0.050589573

BN1.weight f4 [256]
000000 70 05 7f 3f 6b 11 80 3f 83 18 7b 3f fd 35 77 3f
       0.9961767 1.0005316 0.98084277 0.96566755
000010 d0 06 7d 3f 02 86 81 3f 5b 55 82 3f 6a c6 7e 3f
       0.9883852 1.0119021 1.0182298 0.99521506
000020 83 ab 7f 3f 8e 7f 82 3f 52 11 7c 3f ce 0e 7c 3f
       0.9987108 1.0195177 0.9846393 0.9846009
000030 81 8d 7f 3f 3a d5 81 3f 1c c9 85 3f a7 34 80 3f
       0.9982529 1.0143197 1.0451999 1.0016068
000040 7c 02 82 3f 52 bc 80 3f 17 95 7f 3f 6f ec 80 3f
       1.0157008 1.0057471 0.9983687 1.0072154
000050 c8 c9 7b 3f 2b 6d 7e 3f 88 c1 87 3f 37 ba 81 3f
       0.9835477 0.9938533 1.0605936 1.0134953
000060 19 47 82 3f f8 34 82 3f 04 4a 85 3f 62 fd 80 3f
       1.0177947 1.0172415 1.0413213 1.0077326
000070 41 b3 83 3f 3e d8 84 3f 5d 6e 85 3f c9 fd 7f 3f
       1.0289079 1.0378492 1.0424305 0.9999662
000080 54 65 83 3f 0e 6e 7e 3f e6 22 7e 3f 55 61 82 3f
       1.0265298 0.9938668 0.99272 1.0185953
000090 66 00 86 3f e6 b9 82 3f a7 cb 7f 3f cd 79 82 3f
       1.0468872 1.0212982 0.99920124 1.0193421
0000a0 79 8a 81 3f 60 68 84 3f 5b 9b 81 3f d2 46 85 3f
       1.0120384 1.0344353 1.0125536 1.0412238
0000b0 a3 ba 7f 3f cc 05 82 3f ef 25 80 3f 97 27 7d 3f
       0.9989416 1.0158019 1.0011576 0.98888534
0000c0 b8 b2 86 3f 0a 79 80 3f a5 19 7b 3f 57 57 7e 3f
       1.0523291 1.0036938 0.98086005 0.9935202
0000d0 ca fd 7c 3f d9 77 82 3f fe 8b 7e 3f 07 3f 7f 3f
       0.9882475 1.0192825 0.9943236 0.9970555
0000e0 ca c5 80 3f af b1 81 3f 78 6a 80 3f e7 51 86 3f
       1.006036 1.013235 1.0032492 1.0493745
0000f0 9e 5c 7e 3f 4e 8d 81 3f 11 3f 85 3f c0 90 84 3f
       0.9936007 1.0121248 1.0409871 1.0356674
000100 a4 7f 78 3f 68 66 81 3f 9e 89 7c 3f e6 fa 82 3f
       0.97069764 1.0109377 0.9864749 1.0232818
000110 ce 87 7f 3f 74 4e 8c 3f 02 fc 7e 3f 7d 31 79 3f
       0.99816597 1.0961442 0.99603283 0.9734114
000120 af 5b 84 3f ba bd 83 3f 34 1d 81 3f d0 60 80 3f
       1.034048 1.0292275 1.0087037 1.0029545
000130 a5 49 81 3f 13 f1 84 3f e3 aa 82 3f c1 b9 82 3f
       1.01006 1.038607 1.02084 1.0212938
000140 40 8f 82 3f ba d4 7d 3f 80 63 80 3f 67 f7 7c 3f
       1.0199966 0.9915272 1.0030365 0.98815006
000150 92 df 80 3f 82 a9 80 3f 6e 94 81 3f fa 77 84 3f
       1.0068228 1.005173 1.0123422 1.0349114
000160 41 1d 84 3f 05 5f 80 3f b6 64 82 3f 20 a0 84 3f
       1.0321428 1.0028998 1.0186985 1.0361366
000170 69 aa 81 3f 0f 60 80 3f 47 88 83 3f a7 57 83 3f
       1.013013 1.0029315 1.0275964 1.0261124
000180 73 2c 81 3f df 83 82 3f 69 81 80 3f 06 7a 84 3f
       1.009169 1.0196494 1.0039493 1.0349739
000190 77 23 7f 3f b3 20 7f 3f dc 21 81 3f c0 f3 82 3f
       0.9966349 0.9965927 1.0088458 1.0230637
0001a0 25 ec 82 3f 87 06 84 3f b3 86 80 3f 85 a2 84 3f
       1.0228316 1.0314492 1.0041107 1.0362097
0001b0 d5 01 83 3f 12 da 83 3f d1 30 82 3f a0 cb 84 3f
       1.0234934 1.0300925 1.0171148 1.0374641
0001c0 60 89 7c 3f 9c a2 82 3f 4f 24 85 3f 74 e0 85 3f
       0.9864712 1.0205874 1.0401706 1.0459123
0001d0 a3 3e 86 3f 87 86 7c 3f 29 70 7e 3f 5d 55 7f 3f
       1.0487865 0.9864277 0.9938989 0.9973963
0001e0 9f 2b 7e 3f 2b 21 7b 3f 93 14 83 3f 9e bd 7b 3f
       0.9928531 0.98097485 1.0240654 0.9833621
0001f0 04 ab 80 3f 0c c0 80 3f b2 45 83 3f c5 82 83 3f
       1.005219 1.0058608 1.0255644 1.0274283
000200 12 fc 7d 3f 77 81 80 3f 73 ca 7c 3f 37 65 7c 3f
       0.99212754 1.003951 0.98746413 0.9859194
000210 1d 51 7f 3f b0 ca 81 3f 88 2b 81 3f c0 c5 82 3f
       0.99733144 1.013998 1.009141 1.0216599
000220 be 44 83 3f de d4 7a 3f be f6 81 3f 61 de 7b 3f
       1.0255353 0.9798106 1.0153425 0.983862
000230 a5 18 84 3f 78 4c 81 3f 91 b1 7f 3f 63 88 80 3f
       1.0320021 1.0101461 0.9988032 1.0041622
000240 4d 1b 86 3f 7c 59 80 3f 2e 19 81 3f fa af 82 3f
       1.0477082 1.0027308 1.0085809 1.0209954
000250 f1 72 82 3f 66 dd 81 3f b3 7b 84 3f fb 84 7d 3f
       1.0191327 1.014569 1.035025 0.9903104
000260 68 82 81 3f 60 b4 7d 3f ef 95 83 3f 4f cd 7d 3f
       1.0117922 0.99103355 1.0280131 0.991414
000270 7b 69 7f 3f bc 17 82 3f 94 82 7b 3f ad 4c 81 3f
       0.99770325 1.0163493 0.9824612 1.0101525
000280 65 1a 7e 3f c0 4f 83 3f 4f 84 7c 3f 87 d8 80 3f
       0.99259025 1.0258713 0.98639387 1.0066079
000290 ad d6 81 3f b6 a7 7f 3f 95 75 8a 3f 86 e8 7c 3f
       1.0143639 0.9986528 1.0817133 0.987923
0002a0 78 c7 82 3f 72 91 80 3f 02 7a 85 3f 79 20 7d 3f
       1.0217123 1.0044386 1.0427859 0.98877674
0002b0 01 45 80 3f 4f ba 81 3f 12 b9 82 3f cc 08 82 3f
       1.0021058 1.0134982 1.0212729 1.0158935
0002c0 04 b4 7c 3f 10 2b 83 3f f6 df 7c 3f 16 d6 80 3f
       0.9871218 1.0247517 0.9877924 1.0065334
0002d0 d8 00 82 3f 5a 27 82 3f 46 cd 81 3f 9e b4 7c 3f
       1.0156507 1.0168259 1.014077 0.987131
0002e0 d9 5e 83 3f bc 65 82 3f b5 26 7e 3f c1 cc 7d 3f
       1.026332 1.0187297 0.9927781 0.99140555
0002f0 55 a6 81 3f c9 d0 7f 3f d1 af 81 3f 02 14 7f 3f
       1.0128886 0.99927956 1.013178 0.99639904
000300 e4 01 80 3f d8 fe 81 3f 91 54 81 3f 2f 53 83 3f
       1.0000577 1.0155897 1.0103933 1.0259761
000310 67 27 88 3f 4b 16 81 3f d6 c5 85 3f b3 84 81 3f
       1.0637025 1.0084928 1.0451 1.0118622
000320 be 33 80 3f 86 a3 82 3f bf 28 84 3f 52 8d 7d 3f
       1.001579 1.0206153 1.0324935 0.9904376
000330 2b 31 83 3f d3 33 7e 3f 23 26 7b 3f 18 fa 7f 3f
       1.024938 0.9929783 0.98105067 0.9999099
000340 5d 5a 7e 3f 2d ad 82 3f c8 94 85 3f 0c 39 80 3f
       0.99356633 1.0209099 1.043603 1.0017409
000350 c2 f7 81 3f bd 97 7f 3f 35 3d 84 3f 4f 8e 80 3f
       1.0153735 0.9984091 1.0331179 1.0043429
000360 e1 71 82 3f eb 49 83 3f 6d 58 82 3f 16 0b 7f 3f
       1.0191003 1.0256933 1.0183235 0.9962629
000370 4d 4a 83 3f 3b a3 7b 3f f8 9a 7e 3f c8 3e 82 3f
       1.025705 0.98295945 0.99455214 1.0175409
000380 ab 04 82 3f 44 52 7e 3f 23 29 81 3f 74 07 80 3f
       1.0157675 0.9934428 1.0090679 1.0002275
000390 ac 04 81 3f 1f 0f 87 3f e3 93 7f 3f f0 b7 83 3f
       1.0079551 1.055149 0.9983503 1.0290508
0003a0 80 96 87 3f fe 96 7c 3f b1 18 82 3f b1 06 84 3f
       1.0592804 0.98667896 1.0163785 1.0314542
0003b0 7f 86 86 3f 47 f8 84 3f 2e 37 80 3f 8c 30 79 3f
       1.0509795 1.0388268 1.001684 0.973397
0003c0 1e 9e 7a 3f 4a be 79 3f 6c bd 81 3f 70 34 86 3f
       0.9789752 0.97555983 1.0135932 1.0484753
0003d0 ae 42 7f 3f 4d c7 7b 3f 18 0b 7d 3f b0 2d 7f 3f
       0.9971112 0.98350984 0.9884505 0.9967909
0003e0 08 e4 83 3f 94 58 81 3f 73 05 80 3f 97 f8 82 3f
       1.0303965 1.0105157 1.0001663 1.0232114
0003f0 10 3a 80 3f 40 61 80 3f 5b 30 85 3f da 5f 88 3f
       1.0017719 1.0029678 1.0405382 1.0654252

BN1.bias f4 [256]
000000 c8 d0 38 3d 0c 7d 2a bd 4b 51 d4 bb 39 9c c3 3d
       0.045120984 -0.04162316 -0.0064794174 0.095512815
000010 59 a9 44 3d 41 d6 8b bd 1a 9c 4d bc 50 dd 12 bd
       0.048013065 -0.06827975 -0.012549425 -0.03585559
000020 6e ac a9 bb 33 50 3c bd d8 87 0b 3d c5 a7 da bc
       -0.005178026 -0.04597492 0.034065098 -0.026691327
000030 55 14 00 3d 4a 67 b3 bd 83 b9 d2 bd 7a 2a 8e bc
       0.03126939 -0.08759935 -0.1028929 -0.017354239
000040 f6 d0 f0 bb d3 be 3e 3c e7 ea 20 bd a0 96 85 bc
       -0.007349129 0.011642176 -0.03928652 -0.016307175
000050 2e cf 50 3c db ef eb 3c 1c 26 12 be f8 92 dd bc
       0.012744708 0.028800895 -0.1427235 -0.02704762
000060 59 c5 b2 3c 95 b4 42 bd 09 94 6c bc 97 45 4e 3b
       0.021822618 -0.047535498 -0.014439591 0.0031474584
000070 fc 66 05 bd a3 07 a8 bd 43 f3 be bd f1 c2 2d bc
       -0.032568917 -0.082045816 -0.09323742 -0.01060556
000080 32 50 83 bd 24 64 a6 3d a5 2c ab bd 79 4e b0 3c
       -0.064117804 0.08124569 -0.08358125 0.021521794
000090 c9 26 95 bc ad 17 0e bd f6 e6 c6 bc 64 32 9f bc
       -0.01820697 -0.034690548 -0.024280053 -0.019433208
0000a0 45 d9 95 bb 5b e0 ff bd b8 00 91 bd 56 89 d4 bd
       -0.0045730197 -0.12493964 -0.07080215 -0.10377757
0000b0 b3 95 d8 3b 78 c9 db bb 64 78 de bd cc a1 98 bc
       0.0066096424 -0.0067073666 -0.108628064 -0.018631838
0000c0 31 56 58 bd c7 b6 2b bd 0a df 8b 3d b4 cd 50 bb
       -0.052816574 -0.041922357 0.06829651 -0.003186089
0000d0 48 a2 5a 3d 8c 7f 9c bd b3 a1 65 3d 7a ee d5 bc
       0.05337742 -0.07641515 0.05606241 -0.026114691
0000e0 89 32 02 bd 41 7d 51 bc 28 6b 7c 3c 25 0a bd bd
       -0.031786475 -0.0127862105 0.015406407 -0.092304505
0000f0 4e 95 91 3c 95 b8 51 bd 28 18 22 bd 21 03 97 bd
       0.01777139 -0.05120142 -0.03957382 -0.07373644
000100 2c 1f 8e 3c 2e e3 b5 bb 5f 0b 2e 3c c3 65 47 bd
       0.017348848 -0.0055507636 0.010622828 -0.048681032
000110 51 e6 e3 3b 58 12 ce bc da 3c 83 3d 33 9f 42 3d
       0.006954946 -0.025155231 0.06408091 0.047515105
000120 a5 72 01 bd fa db 94 3b 07 c2 48 bb 93 b4 3f 3c
       -0.031603474 0.004542825 -0.0030633227 0.011700767
000130 f9 1a 38 bd a8 c9 fc bd 22 f4 ad bd 44 97 34 bd
       -0.044947598 -0.123431504 -0.0849383 -0.04408957
000140 ec 48 0e bd b8 fc 54 3d 77 bf 47 bd 42 c6 74 bd
       -0.034737512 0.051998824 -0.04876658 -0.059759386
000150 ab 2b f9 b9 89 df 94 3d 75 51 8b bc b1 1e 9f bc
       -0.00047525516 0.072691984 -0.017006615 -0.019423814
000160 f5 93 3f bd 70 a1 e9 bc f0 d5 b0 3a 45 eb dc bd
       -0.046771962 -0.028519362 0.0013491493 -0.107870616
000170 28 08 35 bd 36 b2 98 bd ad 7c 43 bd 30 87 31 be
       -0.04419723 -0.07455866 -0.047726322 -0.17336726
000180 59 67 78 3d a1 e9 7c bc 3a ea 6e 3d 3a e7 56 be
       0.060645435 -0.015436561 0.058328845 -0.20986643
000190 aa 0a af bd ce b9 09 3d 64 3f 95 bd de d9 51 bd
       -0.08546956 0.033624463 -0.072874814 -0.051233165
0001a0 bf 30 4d bd 88 95 47 bd 78 97 48 bc 79 bc b3 bc
       -0.050095316 -0.04872659 -0.012243144 -0.021940457
0001b0 c1 36 05 bd 93 af a5 bd 02 b2 84 bd bb 7e ef bd
       -0.03252292 -0.08090129 -0.06479265 -0.11694094
0001c0 55 9c 75 bd 9d ff 3d 3c e8 a1 03 bd 8b 7b c4 bd
       -0.059963543 0.0115965875 -0.032136828 -0.095938765
0001d0 25 01 ca bb 48 01 f8 3b 58 fb 96 bd b5 2c e9 3d
       -0.006164687 0.007568512 -0.07372159 0.1138548
0001e0 ad 3d 86 3d 8c 8d 2a bc eb 70 e7 bd 9e 54 8d 3c
       0.065547325 -0.010409724 -0.11300834 0.017252263
0001f0 3f f2 7e 3c 84 10 fa 3c de 8b 5d bd 0f 98 ca bd
       0.015560686 0.030525453 -0.054088466 -0.09892284
000200 09 96 69 bc 92 b1 1f bd 34 c2 c9 ba 81 55 55 3d
       -0.014256963 -0.038987704 -0.001539296 0.052083496
000210 99 2a 1b 3d 27 63 89 bd 1c 13 dc 3b 1b 23 85 bd
       0.03788242 -0.06708365 0.006716145 -0.065008365
000220 7e da 58 bd ed 7c 01 bd d5 da ad bd 82 a2 31 3d
       -0.052942745 -0.03161328 -0.084890045 0.04336787
000230 61 25 cc bd 08 47 ae 3c 44 78 20 bd a3 24 b9 bd
       -0.09968067 0.021274105 -0.039177194 -0.09040191
000240 e1 06 9a bc b1 6c 11 bd 87 2b db 3b fa 91 83 bd
       -0.018802108 -0.035504047 0.0066885385 -0.06424327
000250 02 da 8f bd ac f8 f4 bc fd 51 9e bd 31 f6 b9 bc
       -0.070240036 -0.029903732 -0.07730482 -0.022700401
000260 7c 3a 53 3c 26 96 e6 3c f5 b9 bd bd f0 fb a7 bb
       0.012892362 0.028147768 -0.09263984 -0.005126469
000270 f9 d8 39 bc 94 ac 10 bd 7d 5b d6 bc 78 71 88 bd
       -0.011343234 -0.035320833 -0.026166672 -0.066622674
000280 4c 6d 43 bd a2 38 61 bd 1b bb 32 3d 26 67 0b 3d
       -0.047711655 -0.05498565 0.04363547 0.034033917
000290 be cc 5c bd 2c fd db bd cb b1 e6 bd 1c 0e 1c bd
       -0.053906195 -0.10741648 -0.1126438 -0.038099393
0002a0 75 31 02 3d 9e 2a 84 bd ad cf 25 3d 22 d2 02 bc
       0.031785447 -0.06453441 0.04048126 -0.00798467
0002b0 65 8d f3 bc f0 5a 7e bd 24 21 24 bd 2c e2 4b 3c
       -0.029730508 -0.062098444 -0.040070668 0.01244406
0002c0 2d 9c ad 3c 63 ae 0e be 41 0a 4d 3d 01 97 19 3d
       0.021192634 -0.13933711 0.050058607 0.037497524
0002d0 43 9f 08 bc 75 30 0f bd 81 22 b7 bd bd 71 97 3d
       -0.008338752 -0.03495832 -0.08942128 0.07394741
0002e0 64 2f 20 bb 5d af 06 bd 9e 1c a8 3a 2c a9 1d 3c
       -0.002444231 -0.032882083 0.0012825911 0.009622853
0002f0 99 66 32 bd 0c 99 93 3c 0f b1 07 3d 13 f5 fc bc
       -0.043554876 0.018017314 0.03312784 -0.03087858
000300 4f 79 38 bd 39 af 93 3c 64 97 c9 b9 21 a8 22 bd
       -0.045037564 0.018027889 -0.00038450502 -0.03971112
000310 41 4e d2 bd 11 ed 44 be 3e 4a 09 be 30 00 f7 bc
       -0.10268832 -0.19231059 -0.13407227 -0.030151457
000320 99 f1 97 3c 4c 1c 20 be 6a 67 7c bd b3 73 79 3c
       0.01854782 -0.15635794 -0.06162206 0.015225339
000330 a8 29 99 bd 80 ae 94 bc cd d1 f3 3b fd a2 cc bc
       -0.074786484 -0.018149614 0.0074407817 -0.024980063
000340 4a ea 31 bc e7 df b6 3c 5a 23 c0 bd 43 24 bc bc
       -0.0108590815 0.022323562 -0.09381743 -0.02296651
000350 6a ed 82 bd 86 0c 55 bd 8c 14 e4 bd 94 ba 95 bc
       -0.063929394 -0.052013896 -0.111367315 -0.018277444
000360 bc 2c 1d bd 4b 9a a0 bd 85 c0 cf bd 77 e2 bd 3c
       -0.03837274 -0.07841929 -0.10144142 0.023179276
000370 27 96 4e bd 8a 9c ac bc db a9 4f 3d db 19 e1 bd
       -0.050436165 -0.021070737 0.050699096 -0.1099126
000380 db 4d ad bd 5e fa 06 3d af ed 43 bd 84 86 7c bc
       -0.084621154 0.032953613 -0.047834095 -0.01541293
000390 e5 82 b3 bc 1c 96 a0 bd 8c 4b b6 bd 11 97 64 bd
       -0.021913001 -0.07841131 -0.08901128 -0.05580813
0003a0 bd b2 a7 3b cc 9a 61 3d 4c e2 b6 bc 4a b4 92 bd
       0.005117743 0.055079266 -0.022324704 -0.07163294
0003b0 9d df 41 bc 33 1d 3f bd a4 b4 36 bd 6f 00 9b 3c
       -0.011833099 -0.046658706 -0.044605866 0.018921105
0003c0 32 ab 74 3d 1e ca 3e 3d a0 cb ee bd 78 51 35 bc
       0.059733577 0.046579473 -0.11659932 -0.011066787
0003d0 04 61 26 bd 57 a4 46 bd fa 51 10 bd d6 cd 86 bd
       -0.040619865 -0.04849657 -0.03523443 -0.06582229
0003e0 58 6b f8 bd bc 94 bf bd 72 eb 87 3c 29 ed 3a 3a
       -0.12129849 -0.09354541 0.016591761 0.00071306765
0003f0 b2 58 98 bd 1a bf 77 bd 7d d0 9a bd 56 a2 30 bd
       -0.07438792 -0.060484983 -0.07559297 -0.043123566

BN1.running_mean f4 [256]
000000 a6 3b 0d c1 b3 eb 6c 40 f7 84 b1 40 d3 fe 09 41
       -8.827063 3.701886 5.547481 8.624713
000010 12 04 c7 c0 e3 c7 e8 40 bc b4 c2 41 00 1e 5b 41
       -6.219247 7.2744 24.33825 13.694824
000020 c5 02 0a 41 e7 e0 5d c0 14 76 97 40 1a db 9c 41
       8.625676 -3.466852 4.733164 19.606983
000030 ca e4 05 41 05 f1 97 c0 75 fb 35 c0 32 ac 86 3f
       8.368357 -4.7481713 -2.8434727 1.05213
000040 7d ba 77 41 78 b8 40 c1 31 c2 43 41 71 64 4e 41
       15.483029 -12.045036 12.23491 12.899522
000050 d8 f5 2a c0 2c ab 5d 41 20 3d 07 40 54 38 9e 40
       -2.671255 13.85429 2.1131058 4.944376
000060 3f d4 0a c0 04 5c 9c bc d8 24 06 c1 45 9f bb 40
       -2.1692045 -0.019086845 -8.383995 5.863192
000070 ec 03 75 c0 4a 10 19 bf be 3b c4 40 a0 d1 9c c0
       -3.8283644 -0.5979048 6.1322927 -4.900589
000080 da f6 f0 40 02 a9 63 bf 6f 53 c7 40 3a 66 08 c1
       7.5301332 -0.8892976 6.228935 -8.524958
000090 c9 14 ff c0 30 b9 58 40 ce 1b 24 40 a5 72 61 c0
       -7.9712873 3.386303 2.564197 -3.5226223
0000a0 1c cb 4f 41 d6 75 7e 41 0a 7d af 40 81 5b 05 40
       12.987087 15.903769 5.4840136 2.08371
0000b0 70 40 f5 c0 5a 1e 59 40 d5 e2 1d 41 68 d2 d1 3f
       -7.664116 3.3924775 9.867879 1.6392336
0000c0 ce 57 fd c0 37 f8 ae c0 2c fe c7 c0 bd 92 f5 c0
       -7.9169683 -5.4677997 -6.249777 -7.6741624
0000d0 d9 b1 99 40 85 be 5c c1 44 43 63 40 c8 bf 12 40
       4.80296 -13.796514 3.5509806 2.2929554
0000e0 4a b6 80 bf 03 65 b1 40 37 4d 08 c1 d5 fe c0 40
       -1.005563 5.5435805 -8.518851 6.0311074
0000f0 86 78 d2 3f 02 a6 83 c1 f6 b9 1d 40 40 4e 8c c0
       1.6443031 -16.456059 2.4644752 -4.384552
000100 83 4f cf bf 36 24 c9 bf c2 cb 63 41 90 b0 97 40
       -1.619614 -1.5714176 14.237246 4.740303
000110 14 d8 22 c1 0a 5e c8 3e 51 a1 1e c0 47 23 e0 c0
       -10.177753 0.39134246 -2.478596 -7.0043063
000120 fe 5b e2 bf ee 8e 36 41 4f ae 57 c1 1b 49 fa 40
       -1.7684324 11.409895 -13.480056 7.821424
000130 f4 8a 05 41 8f 02 ed c0 41 81 f7 40 7e 7b 8f c0
       8.346424 -7.4065623 7.734528 -4.4838247
000140 a6 de a6 3f 7b b9 13 3f bb 23 d3 40 72 9e 36 41
       1.3036697 0.57704896 6.5981116 11.413683
000150 8f 73 94 c0 51 90 bb bc 29 d6 2a c1 a6 f3 49 40
       -4.6391063 -0.022895964 -10.677285 3.1554961
000160 6b e0 8c bf a2 31 31 40 98 9c 94 40 07 9e 19 41
       -1.1005987 2.7686543 4.6441154 9.601081
000170 a6 85 c4 3f f6 d8 09 c1 7c 86 2b 3e 4b 2c 82 40
       1.5353286 -8.615469 0.1675052 4.067907
000180 0f 59 9d 40 49 82 99 bf de 7b 3b c1 d6 6a f5 c0
       4.9171214 -1.1992885 -11.717741 -7.6692915
000190 19 d5 b8 40 5c 88 4e c0 5d 9f a3 40 96 6a 91 40
       5.776013 -3.2270727 5.1132035 4.544261
0001a0 53 34 81 41 1e 64 72 bf ee ab e8 c0 65 f8 da c0
       16.150549 -0.94684017 -7.2709875 -6.8428216
0001b0 e1 70 de bf df 77 fa 40 d9 56 3b c1 1d ad ff c0
       -1.7378198 7.8271327 -11.708703 -7.989882
0001c0 33 06 0e 41 9c 77 67 c1 a6 e1 07 40 57 bd 08 41
       8.8765135 -14.4667015 2.1231475 8.546226
0001d0 92 92 1b c1 1d 65 50 c1 1f a9 b8 3f b7 f6 1c c1
       -9.723284 -13.024686 1.4426612 -9.810233
0001e0 1c c2 0b c1 4b 33 78 c1 82 d8 9d 40 f8 8d bf c0
       -8.73489 -15.512523 4.932679 -5.98608
0001f0 eb 3a 3a be 86 2e df c0 99 3f b8 c0 b1 29 eb be
       -0.18186538 -6.974429 -5.7577634 -0.45930246
000200 65 b8 ae c0 1b d7 20 c1 1b d3 f9 3f b4 3f 36 c1
       -5.460009 -10.052516 1.9517549 -11.3905525
000210 1a ea 9b be ce e8 10 c0 70 51 92 3f 56 89 29 41
       -0.30452043 -2.2642093 1.1431103 10.596029
000220 a0 4b 98 be 53 1d 7a bf 51 d8 1f 40 9b f3 6a 41
       -0.29745197 -0.97700995 2.497578 14.684474
000230 3d a4 b2 c0 87 11 05 c1 be 08 c9 40 d4 70 11 41
       -5.5825486 -8.316779 6.282317 9.090046
000240 8f 35 57 3e af 96 60 3e 11 19 28 c1 15 75 e0 3f
       0.21016525 0.21932481 -10.50612 1.7535731
000250 98 0e 3b c0 af ce 08 bf 70 3a 90 bf 87 f7 1f c0
       -2.9227657 -0.53440374 -1.1267834 -2.4994829
000260 ba 78 e3 c0 fa ba e8 40 02 59 d4 bf 48 9f cd c0
       -7.108487 7.2728243 -1.6589663 -6.4256935
000270 fb 3a 5b c0 eb 79 85 c1 ff 99 4a c1 98 0b 15 41
       -3.425475 -16.68453 -12.662597 9.3153305
000280 b7 bf 31 c0 11 1a 2c bf 0f ee 28 c1 cc 54 0d 41
       -2.7773263 -0.67227274 -10.55812 8.833202
000290 13 68 43 c1 75 ec 2d c1 a0 af 2f bf 2e f8 8e 41
       -12.212909 -10.870229 -0.6862736 17.871181
0002a0 c0 e9 92 c1 5f 67 2f c0 72 05 80 3e 98 55 3b 41
       -18.364136 -2.7406843 0.25004154 11.708397
0002b0 79 10 79 41 ad af 87 3f 25 86 34 bf e2 33 80 c0
       15.566522 1.0600487 -0.7051719 -4.0063334
0002c0 c9 a4 23 c0 be f6 2f 41 26 8a e2 40 79 ad 76 c1
       -2.5569327 10.99774 7.079364 -15.417352
0002d0 27 42 03 c1 85 07 82 bf 94 84 37 41 ba 1c 67 41
       -8.20365 -1.0158545 11.469868 14.444513
0002e0 b4 b4 91 3f 4b 6c 23 c1 71 aa df 40 40 cb 90 40
       1.1383271 -10.213939 6.989556 4.524811
0002f0 1a a2 ba be ad 18 83 40 dd f5 e2 40 f5 55 79 c0
       -0.364518 4.096762 7.0925126 -3.8958714
000300 99 26 14 c1 d1 64 89 40 a9 e5 c5 3f aa 48 13 c1
       -9.259423 4.2935567 1.5460712 -9.20524
000310 85 04 9b 3f e8 8c 33 c1 fa 72 89 41 31 bf 91 c0
       1.2110754 -11.221901 17.18114 -4.554589
000320 e2 6b 42 c1 c1 76 11 c1 5b 3f c5 3f 16 68 73 c0
       -12.151339 -9.091493 1.540996 -3.803228
000330 e4 eb 0e c1 14 ec 4d 41 70 1f 62 41 c8 7f 2f c1
       -8.9325905 12.870136 14.132675 -10.968697
000340 f0 fc 8f 40 f3 d1 2f bf 2b 58 36 c1 4f 73 65 40
       4.499626 -0.6867973 -11.396525 3.5851629
000350 f3 dd 9f 40 6a be e5 c0 81 ff a3 bf 90 de 93 3f
       4.9958434 -7.179494 -1.2812349 1.1552296
000360 ad 71 3d 40 ed fe 56 c0 ca 7a 5a 3f a7 00 63 c0
       2.9600632 -3.3593094 0.8534361 -3.5469148
000370 3d ca cb c0 59 03 5d c1 77 d3 8c c0 08 95 63 3f
       -6.3684373 -13.813317 -4.4008136 0.8889928
000380 ea 88 66 c0 80 12 32 3f 77 69 ad bf 33 d7 29 c1
       -3.6021066 0.6955948 -1.354781 -10.615039
000390 0c 72 75 40 a0 9e 07 c1 02 7c bd 40 b2 fa d9 3e
       3.8350859 -8.476227 5.9213877 0.42574078
0003a0 7b 6a 70 40 3b ea 42 c1 bf b3 54 3f b7 40 1d 3f
       3.756499 -12.182185 0.8308677 0.6142687
0003b0 76 40 0e c1 b1 b0 59 40 72 59 27 c0 9e 03 a3 41
       -8.890738 3.4014094 -2.6148343 20.376766
0003c0 ab b5 11 c0 51 32 bd 40 bf 4c 56 c0 96 ed bf 40
       -2.2767131 5.912392 -3.3484342 5.997752
0003d0 96 e8 6d 40 3e 86 79 3f 8a 21 03 c1 af c6 ac c0
       3.717321 0.9747046 -8.195688 -5.3992534
0003e0 61 a6 a5 c1 fa 7d 90 40 76 ce 91 41 1a 8b ba c0
       -20.70624 4.515378 18.225811 -5.82948
0003f0 8f c4 02 c1 8c 0a e2 c0 14 bb cd 40 69 7d d2 c0
       -8.172988 -7.0637875 6.4290867 -6.577809

BN1.running_var f4 [256]
000000 f1 2e 5c 42 2e 49 33 42 1e e5 02 43 49 67 c1 42
       55.04584 44.821465 130.89499 96.70173
000010 ad 3e 1b 43 35 94 48 43 a3 fe 17 43 44 b1 c4 42
       155.24483 200.57893 151.99467 98.34622
000020 38 57 08 43 b8 42 fc 42 82 de 22 43 63 11 3a 43
       136.3407 126.13031 162.86917 186.06792
000030 ea 35 b7 42 2f 70 b0 42 35 fe 5e 42 e7 b5 1f 43
       91.6053 88.21911 55.74825 159.71056
000040 35 05 e6 42 92 91 b2 42 e8 c5 6e 42 a6 f7 0c 43
       115.01017 89.28432 59.693268 140.96738
000050 37 6f e6 42 ab 78 36 42 02 38 d0 41 79 6e 7d 42
       115.21722 45.61784 26.027348 63.357883
000060 a1 9e 3a 42 39 7e cd 42 28 5a 6c 42 0b e2 9b 42
       46.65491 102.74653 59.088043 77.94149
000070 ea 83 44 42 0e 4d 4b 43 16 ff 84 42 7e a1 02 43
       49.128822 203.301 66.498215 130.63083
000080 f8 3a c2 42 18 bb ba 42 7e dd cc 42 08 5d 39 42
       97.11517 93.36542 102.4326 46.34085
000090 c7 e1 50 42 c5 47 be 42 b5 37 01 43 6c 11 41 42
       52.220486 95.140175 129.2176 48.267014
0000a0 d9 16 7d 43 52 48 6e 42 4c ed 80 42 86 14 97 42
       253.08925 59.570625 64.46347 75.540085
0000b0 8a 0a 87 43 af 61 d5 42 c3 c9 b3 42 9b 75 20 42
       270.08234 106.69079 89.894066 40.11485
0000c0 41 88 c8 42 a1 f8 93 42 fa 48 e5 42 f0 5b b4 42
       100.26612 73.9856 114.64253 90.179565
0000d0 53 72 86 42 d7 3e e2 42 f1 4e 7a 42 f2 70 cc 42
       67.22329 113.122734 62.57709 102.2206
0000e0 2d d3 95 42 9e 05 c9 42 5e 68 83 42 e4 d5 dc 41
       74.91245 100.51097 65.70384 27.604439
0000f0 ee b7 31 42 2c 2e b2 42 96 b9 88 42 53 0a c0 42
       44.42962 89.09018 68.36247 96.020164
000100 3c 57 1f 43 df 23 53 42 de b1 9b 42 7b 4e a6 42
       159.34076 52.78503 77.8474 83.15328
000110 c3 e6 17 43 6f b9 82 42 59 57 ea 42 04 30 48 42
       151.90141 65.362175 117.1706 50.04689
000120 08 c5 85 42 b6 4b 79 42 bf 91 c8 42 a4 f0 28 42
       66.88483 62.323936 100.28466 42.235
000130 bd bc a1 42 43 6b 3a 42 36 af bf 42 9a 93 26 42
       80.86863 46.604748 95.84221 41.644142
000140 30 74 15 42 99 23 ab 42 a6 94 87 42 50 5e 84 43
       37.363464 85.56953 67.79033 264.73682
000150 81 2d 7c 42 49 45 24 42 78 ac f6 42 0d fa 4e 42
       63.044437 41.06766 123.33685 51.74419
000160 ca 54 6c 42 1d f9 ee 42 98 f5 cc 42 53 45 65 42
       59.0828 119.48655 102.479675 57.3177
000170 ca c8 7e 42 03 3f 6f 42 d4 e3 90 42 32 05 87 42
       63.696083 59.811535 72.44498 67.51015
000180 c1 51 c7 42 50 d7 4b 42 4f 1e b0 42 f4 7d f5 42
       99.659676 50.960266 88.0592 122.746
000190 f5 78 f2 42 02 85 11 43 5f b6 3a 42 8b 47 3d 43
       121.236244 145.51956 46.678097 189.27946
0001a0 bc e7 85 42 0a 48 33 42 34 3f 4c 42 b8 36 98 42
       66.95261 44.82035 51.06172 76.10687
0001b0 0c 1a 81 42 e9 e8 b8 42 75 8c 07 43 e6 90 ab 42
       64.55087 92.4549 135.54866 85.783005
0001c0 6d b9 7d 42 13 66 98 42 b4 22 8a 42 42 6e 34 42
       63.43108 76.19936 69.06778 45.107674
0001d0 71 c3 39 42 dd 67 b1 42 4e 68 a6 42 40 be 6d 42
       46.44086 88.70286 83.20372 59.43579
0001e0 ac 1e c5 42 ac 5a eb 42 62 cb aa 42 b1 44 14 43
       98.559906 117.67709 85.39723 148.26833
0001f0 3d b7 a2 42 b1 b3 1e 43 95 39 10 42 11 5d 6f 42
       81.35789 158.70192 36.056232 59.840885
000200 b5 ee 00 43 3e 32 8a 42 10 a3 9f 42 4f 54 da 42
       128.93245 69.09813 79.81848 109.164665
000210 50 46 56 43 da b5 93 42 45 31 16 43 23 cd 9f 42
       214.27466 73.85518 150.19246 79.90066
000220 01 e6 b9 42 3c a0 76 42 a0 81 a4 42 e1 b4 f6 42
       92.94923 61.65648 82.253174 123.35328
000230 e1 46 3c 42 b7 51 82 42 79 af 57 42 92 9a 08 43
       47.069218 65.1596 53.92136 136.60379
000240 67 75 87 41 26 4e cd 42 91 6d a5 42 fb f8 14 43
       16.932325 102.65263 82.714 148.97258
000250 29 3e 55 42 6d 3b 82 42 44 79 94 42 3e fb 28 43
       53.310703 65.116066 74.23685 168.98141
000260 8c 1a 23 42 44 4b 1d 43 2c 5f 11 42 d7 ef 7e 42
       40.775925 157.294 36.34294 63.73422
000270 7b 83 5d 42 0f 0d b3 42 2a 54 a9 42 af fa e8 42
       55.3784 89.525505 84.66438 116.48962
000280 69 a6 da 41 fa 3e fa 42 ce fa c1 42 64 ef 1d 43
       27.331255 125.123 96.98985 157.93512
000290 2c 4d 96 42 0b 16 e3 42 8a dd 1d 42 2d 97 9a 42
       75.15073 113.54305 39.466347 77.295265
0002a0 e5 b8 07 43 15 84 82 42 b4 72 f5 41 82 b3 d2 42
       135.72224 65.25797 30.681007 105.3506
0002b0 b5 77 a3 42 b6 5b b5 42 81 9c 74 42 48 f9 35 42
       81.7338 90.67912 61.152836 45.49344
0002c0 6e 55 91 42 e6 8a 58 42 15 98 13 43 71 2d 19 43
       72.666855 54.135643 147.59407 153.1775
0002d0 57 54 4f 42 1c 39 25 42 fb 2f 9f 42 1f c6 6f 42
       51.832363 41.30577 79.59371 59.943478
0002e0 1d 79 25 42 46 d9 a0 42 1c 23 c4 42 f5 0f 10 42
       41.368275 80.42436 98.06857 36.015583
0002f0 57 69 35 42 78 1d 82 42 dd bc 9f 42 a0 0a 98 42
       45.35287 65.057556 79.86887 76.02075
000300 66 d7 16 43 cf 55 85 42 44 76 af 42 4e b0 16 43
       150.8414 66.667595 87.73099 150.68869
000310 88 77 30 42 06 ee 8b 42 81 e6 03 43 c7 a4 3d 42
       44.11673 69.96489 131.9004 47.410915
000320 88 1c a5 42 35 c9 26 43 a4 42 40 42 1b ea 9f 42
       82.555725 166.78596 48.06508 79.95724
000330 d3 c4 dd 42 7a d1 e7 42 d5 8d d9 42 92 71 57 42
       110.88442 115.909134 108.777016 53.86091
000340 cc ea 93 42 30 c1 b7 42 b3 61 6a 42 8f 30 b7 42
       73.95859 91.87732 58.59541 91.59484
000350 7e 2a d6 42 61 c0 8a 42 d4 0d 35 42 cd 57 9a 42
       107.08299 69.37574 45.263504 77.171486
000360 38 0f ac 42 e7 ce dd 42 76 35 38 42 74 7e 93 42
       86.029724 110.904106 46.052208 73.74698
000370 22 a2 80 42 fc b3 c4 42 76 75 6f 43 ec e8 39 42
       64.316666 98.35153 239.45883 46.477463
000380 01 a2 07 43 9d d6 7a 42 40 59 7d 42 30 31 e6 42
       135.63283 62.709583 63.33716 115.09607
000390 21 00 36 43 29 ee a0 42 d2 68 26 43 cd 1e 4d 42
       182.0005 80.46516 166.40945 51.28008
0003a0 bf 70 80 42 a9 90 84 42 6c 35 81 42 03 60 85 42
       64.22021 66.28254 64.60434 66.68752
0003b0 55 aa c0 42 f8 7c 28 42 c9 da 9d 42 5d 3a 09 43
       96.33268 42.12204 78.927315 137.22798
0003c0 e8 a8 88 42 0b 1a 2c 43 88 46 c4 42 a8 2e 40 42
       68.329895 172.10173 98.13776 48.045563
0003d0 9d a5 ff 42 e7 1d b0 42 92 21 e0 42 76 3e 2f 43
       127.82346 88.0584 112.06557 175.24399
0003e0 a4 a0 3f 43 5c 8c 10 43 80 96 01 43 eb 10 39 42
       191.6275 144.54828 129.58789 46.26652
0003f0 43 16 af 42 60 77 c4 42 26 7a 32 42 8f a5 eb 42
       87.54348 98.233154 44.619286 117.82336

L2.weight f4 [128, 256]
000000 a8 07 ba 3c c4 e8 0a bd bd 41 1e 3c bb 1f bd 3b
       0.022708729 -0.03391339 0.009659228 0.005771605
000010 b0 61 91 bc 52 6b 3d 3d 25 dc 9f bb e1 b3 cb 3c
       -0.017746776 0.046244927 -0.004878538 0.024866046
000020 2a 1d 21 bd cc a4 51 bc eb af 3c bd 5b 36 7e bd
       -0.039334454 -0.012795638 -0.046066206 -0.062063556
000030 53 6e 33 3d 40 4c 52 3d 31 81 c6 3c 3c a1 ae 3c
       0.043806385 0.05134225 0.024231525 0.021317117
000040 3b 1f 1e 3d f0 9b b4 ba b0 0b f6 3c b9 7d 24 3c
       0.038604002 -0.0013779383 0.03003487 0.01003974
000050 3b fc 87 3c 91 fe fe bb 05 0c 86 3b 08 93 15 3d
       0.016599765 -0.0077818115 0.0040907883 0.036517173
000060 9b 2c 90 3c 97 54 8a bb ed 97 61 3d b0 86 21 bd
       0.017599395 -0.0042215097 0.05507653 -0.03943509
000070 db f0 1e bd 42 e9 07 bd f0 67 4f bc 8b 82 98 3c
       -0.038803916 -0.033181436 -0.012659058 0.018616935
000080 1d 7c 20 3d f0 c1 21 3d a9 73 d6 bb ac be 78 3d
       0.039180864 0.039491594 -0.0065445495 0.060728714
000090 44 36 4a 3d e2 7f 19 3c ee b0 83 3c 31 20 89 bc
       0.049368158 0.009368869 0.016075578 -0.016738983
0000a0 44 d7 8b 3d 45 7a fa ba 67 ad b0 3b 39 3e 93 3c
       0.06828168 -0.0019109925 0.005391765 0.017974006
0000b0 78 38 0c bc 62 8b 96 3c 2d fd 68 bd f5 d4 35 3a
       -0.008558385 0.01837701 -0.056882072 0.0006936335
0000c0 db f7 02 3d 22 0d 05 bd f2 64 90 39 bd 8f 10 bd
       0.031974655 -0.032483228 0.0002754103 -0.03529333
0000d0 5d 20 7b bd bc 83 43 3d 4a 49 06 3d 58 11 90 3d
       -0.06131016 0.047733054 0.032784738 0.07034558
0000e0 ab 50 22 3c ef b8 6a bc ce 5e 4f 3d 54 e2 02 3d
       0.009906928 -0.014326318 0.050627522 0.031954125
0000f0 66 14 21 3c 97 b9 2a bd 4b 52 83 3d 80 44 06 3d
       0.0098315235 -0.0416809 0.064121805 0.03278017
000100 07 2a 8a 3c 86 b2 93 3d 80 3e 14 3d eb cb 48 3d
       0.016865743 0.07211785 0.036192417 0.049022596
000110 fa 16 45 bd 8e cd bc 3d a0 b1 23 bd ea 0a 06 3d
       -0.048117615 0.09218894 -0.03996432 0.032725252
000120 fa c1 79 bd 54 aa 28 bd 80 ff 0d 3b ba 18 bd bc
       -0.060976006 -0.041178063 0.0021667182 -0.02308308
000130 8d 51 8a 3d 6e bd 8e 3d f1 18 75 bc 74 3c 75 bd
       0.06753836 0.069697246 -0.01495956 -0.059872106
000140 21 79 40 3d 47 69 e0 bc c0 87 49 3d 8a 49 51 bc
       0.046990518 -0.02739395 0.049201727 -0.012773881
000150 85 da 01 3c 25 e9 fe 3c b4 f1 f8 bb a1 70 3a 3c
       0.007925634 0.031117031 -0.0075971726 0.011379392
000160 b9 83 2e bc 43 4a 47 3d 3b c2 86 3c 55 34 62 bd
       -0.010651522 0.048654806 0.016450038 -0.05522569
000170 3e 97 c0 bc 99 ed 63 bd d0 8c 3e 3d d4 56 b4 3c
       -0.023509618 -0.055646513 0.046521008 0.02201406
000180 5d a5 17 3c f1 75 2a 3c 88 d5 0d bd b7 4a 80 bc
       0.009255734 0.010404096 -0.034627467 -0.015660627
000190 33 39 68 3d 33 87 4a bd 8a 98 5d bd 37 a8 81 3d
       0.056695174 -0.049445342 -0.05410055 0.063309126
0001a0 99 15 d1 bb 2c 5f 7b 3d 32 89 0a 3c 9e 74 9e 3c
       -0.0063807485 0.06137006 0.0084555615 0.019342717
0001b0 c9 5f aa 3c 23 b6 60 bd 78 e5 83 3d a5 d9 6d 3d
       0.020797627 -0.0548612 0.06440252 0.05806889
0001c0 8a e0 19 3c 0e 45 38 bd e5 75 86 bd 5e 3f 82 bd
       0.009391913 -0.04498773 -0.06565455 -0.063597426
0001d0 32 27 70 3d 71 3c 61 bd 0c b8 a0 bb 46 ba 96 3c
       0.05863113 -0.054989282 -0.0049047526 0.018399369
0001e0 d7 28 0f bd 21 a5 43 bd d6 f8 62 3d 6d 7b fa 3c
       -0.034951057 -0.0477649 0.05541309 0.030576432
0001f0 eb 39 5f bd 9a e3 d8 3c 4f b2 0e 3d ab 42 aa bb
       -0.054498594 0.026475716 0.034838017 -0.0051959357
000200 e4 7a 1f bd 2e 0a 0f 3d ae 16 d3 bb d7 c1 08 bd
       -0.038935557 0.034921817 -0.0064419126 -0.033387985
000210 be fc 00 3c ae d2 84 bc 02 28 e4 3c 84 c4 cd bc
       0.007872758 -0.016213741 0.027851108 -0.02511812
000220 fb c6 9e bc 68 aa b3 ba 25 5c 3f 3d 27 0c fb 3c
       -0.01938199 -0.0013707401 0.046718735 0.030645443
000230 e2 1b aa 3b c3 70 26 bd 63 ea cd 3c 20 3d 34 bd
       0.005191312 -0.04063488 0.025136178 -0.044003606
000240 2a 25 57 bd 5d 6f 1a 3c a1 b9 9d bc 10 de 31 3d
       -0.052525677 0.009425965 -0.019253554 0.043424666
000250 c0 d3 7d 3b 5c 61 c6 3a 6a 94 39 bb 49 c8 18 bd
       0.003873095 0.0015135217 -0.0028317221 -0.03730038
000260 54 24 f4 bc fe 4a 5a 3d 80 79 5b bc 68 9b 0c bd
       -0.029802479 0.053294174 -0.013395667 -0.034327894
000270 b4 ad 3f 3d ea e5 f0 3b 20 df c3 bb db 8c ba 3c
       0.046796516 0.0073516266 -0.0059775263 0.022772243
000280 d9 be e5 bb 15 7a 42 bc 19 c4 dd 3c 2a 67 36 3c
       -0.007011276 -0.011869927 0.027071046 0.011132995
000290 e3 49 40 3d da 03 82 bc 96 59 18 3d fd 46 13 3c
       0.046945464 -0.015870977 0.03719481 0.008989093
0002a0 da 0f 15 bd e5 1e d8 3c 7b d8 f4 3c a8 e1 2b bb
       -0.03639207 0.02638192 0.029888382 -0.002622703
0002b0 34 c5 dd 3c 81 2b 14 3b 3a c5 55 bd 04 3b 42 bd
       0.027071573 0.0022608938 -0.052190043 -0.047419563
0002c0 05 1b b7 3c 46 1d 19 3d 12 cd 68 bd af 90 5a bd
       0.022351751 0.037381433 -0.056836195 -0.053360637
0002d0 f0 27 cc 3c 5d f5 0a bd 9d ce b8 bc 65 48 93 bc
       0.024921387 -0.033925403 -0.022559458 -0.017978856
0002e0 f9 7e 81 3d 4f 37 c9 bb ea 16 60 3d 88 6b c0 bc
       0.06323046 -0.0061406265 0.054709353 -0.023488775
0002f0 45 e3 7c bd 56 3f 90 3d 39 55 6f bc 1c ff 48 bc
       -0.06174018 0.0704333 -0.014607721 -0.012267854
000300 65 4d 25 bd a9 f9 3d 3d 94 b5 83 bb 6e 0f 90 3d
       -0.040357012 0.046380673 -0.0040194485 0.07034193
000310 bc eb d5 3c ce 44 4c bd 9f 52 b7 bb 18 7a 8c 3d
       0.026113383 -0.049870305 -0.005594566 0.06859225
000320 81 6b 27 3c d2 07 48 bc 21 86 a5 ba 35 3f 50 bd
       0.010218502 -0.012208896 -0.0012628475 -0.05084153
000330 eb 94 02 3b 77 59 b4 bc 58 67 19 bc 88 54 26 bd
       0.0019925188 -0.022015316 -0.009363018 -0.04060796
000340 24 3f 09 bd 1f c0 3f bd a4 be d6 3c a8 5a 6b 3d
       -0.03350748 -0.04681408 0.026213951 0.057459503
000350 33 8a 31 3c 31 ae 4e 3d f9 3e 9d 3c 69 5c 35 3d
       0.010836172 0.05045909 0.019195067 0.044277582
000360 53 fa 83 3d 8f e7 ad bc 35 28 64 3d e3 f4 48 3c
       0.0644423 -0.02122858 0.055702407 0.012265417
000370 82 f0 23 3d da 74 cb bc 12 c6 35 bd 6f bd 57 bc
       0.040024288 -0.024835993 -0.044378348 -0.013167723
000380 12 9c 0d bc e5 0d ad 3c 8d be bc 3b 28 ea 11 3d
       -0.008643167 0.02112479 0.00576002 0.0356237
000390 b9 0a 99 3d 32 8e 42 3d ec 6c e2 bc 94 f1 fc bc
       0.07472748 0.04749889 -0.027639829 -0.030876912
0003a0 5a b9 04 bc a9 d0 06 bc 2c 25 a8 3c c8 85 6d 3d
       -0.008100832 -0.008228459 0.020525537 0.057988912
0003b0 47 97 e1 3b 73 c7 02 bd c3 40 2a bd 22 04 6f 3d
       0.0068844887 -0.03192849 -0.041565668 0.05835355
0003c0 34 9a 68 3d 14 c5 55 3c 91 ca 81 bd 48 f2 0c 3d
       0.056787685 0.013047475 -0.063374646 0.034410745
0003d0 df b9 a8 bb 5d d6 63 bd 82 24 a6 3c b3 2a 77 3c
       -0.0051491107 -0.055624355 0.02028108 0.015085864
0003e0 6a 30 2e 3d d6 1e 84 3c 74 dd 84 bc 5e b5 6d 3d
       0.04252664 0.016127985 -0.016218878 0.058034293
0003f0 57 c2 88 bd 07 b2 90 3d 90 3d f7 bb 55 d7 54 3d
       -0.066776924 0.07065206 -0.0075451806 0.05196317
