Trained_Models/BotDetection_v4_MLP___May-10-2024/BotDetection_v4_MLP_epoch22_val_loss_0.483901.pth (torch, 945821 bytes, 45 tensors)

L1.weight f4 [256, 133]
00000000: cb7a 113c 9341 6c3d 4860 bc3d 5256 ddbd
00000010: d6d6 ca3c 438e d63c ed37 103e 5e90 9abd
00000020: b71b 373c 2c16 1ebd d38e b2bc 3b5d 3c3d
00000030: b316 55bd 94ef 4cbd 1e4d 18be 89ea 663d
00000040: dca7 413d 7a8e 1ebd e7ba a3bb 01b0 77bd
00000050: b586 4bbd 2d71 bfbb 3c1d 60bd 57e8 873b
00000060: 0495 763d 73f3 b2bd f20f 073c d96d 59bd
00000070: f7a9 bb3c 4562 333d f067 1abc 3db1 29bd
00000080: 32b0 adbd ee9c 8fbc 4049 77bd cb46 a63d
00000090: f07e 213d 7a55 ce3d e191 f1bc 4889 003d
000000a0: 979d 0f3e 06e1 883c 6096 653b 13d9 253d
000000b0: 622a 2a3d 540e ab3d 2b4f 993b 8ca3 833d
000000c0: b3f9 32bd 6db0 893d c76b 463d 9373 0d3d
000000d0: 7e65 943d f648 d23d 4660 9abc 9ef8 f63c
000000e0: 2e3a 8cbc 4714 1e3d b51c c1bd 86a3 12bb
000000f0: dd84 9dbd 8f6b 1fbb 8d7f e0bd c9c8 00bd
00000100: f231 503d 1dc1 f3bd 94ce f5bc a4f8 e03d
00000110: 23a8 c1bc 5fc5 41bd cdd6 833d 6069 743d
00000120: a700 ac3d 67ff 8b3b e34b 45bd 2d06 03bd
00000130: 9128 a2bd 6f5e da3c 27ab a2bc 89d4 163d
00000140: 839b 333d 2aa2 64bd a95c f0bc 688f bbbc
00000150: 2e35 143d 18f2 493c 75d6 efbd 6445 3dbd
00000160: e370 93b9 6490 e43c 20d9 95bc b491 063e
00000170: 678c 96bd f67e 663d d144 b9bc f61f 213d
00000180: 6fc3 973d 4abf 74bd 97f2 31bd 2339 1f3d
00000190: 6509 2f3b 2395 18bd c473 b33d 54ef a8bd
000001a0: dbb7 6abd 3f51 843d b74e 4b3d e91e cabc
000001b0: 84bd 26bd 8fc4 9bbd aaf7 1e3d d600 8cbd
000001c0: 294d 72bd c22f 84bb 2c83 8c3c 480f 2dbd
000001d0: eddc 923a e5eb c33d e356 a23d 83b7 b43d
000001e0: a292 50bd 76fa 6d3d f42f bf3c 8b91 073e
000001f0: b994 75bd fd50 a3bc 8cda 813d 9588 9a3d
00000200: 3232 8fbd 0253 f7bb cb54 8a3d 1653 963d
00000210: 90d6 c4bd 7de3 b8ba e922 a03c 9118 9cba
00000220: e36e 993d 9630 f9bc 743a 7a39 ea86 62bd
00000230: 047d 15bd ce06 5e3d 50ad 70bc 0912 d2bc
00000240: 5c01 9d3b 362b 6fbd 729a 013d 1bf9 b83c
00000250: c2ef 103c 07d2 22bd 153f 0bbc 0612 b5bc
00000260: 7199 6d3d 4618 d0bc f6d8 ba3c 5e04 87bd
00000270: 90a9 35bd 6688 8dbd 320a 94bc fa60 abbd
00000280: a651 243d 6919 9dbd d942 eabc 4184 b63c
00000290: 3314 26bd 0a63 863d ccbf 873d 2f7e 99bc
000002a0: ce04 a6bc dbc7 cf3d 9877 7d3d cb8b 203e
000002b0: 503e ce3d f590 993c 3a63 81bd f295 b83c
000002c0: 0616 8d3d 225f 023e af27 2dbd 28c2 1e3d
000002d0: c818 533d 2060 613d 637d 083d f19f 1bbd
000002e0: a517 993b 5390 e33c 703e 903d 191f 6f3c
000002f0: 194b 0b3c 7374 363c 0759 183d fdb5 963d
00000300: 3699 33bc 42fe 973d 202c 973d c44a 773d
00000310: 90d7 a8bd 21de c93c 537d 4f3d 5c18 e4bb
00000320: ffea 51bb 2c1e 62bc 0552 e0bc 728b d6bc
00000330: 69c9 d83d da09 3dbc 0cb4 67bd 37ad 81bc
00000340: 8932 673c 1aa0 9a3d 907d 36bd 8aac f5bb
00000350: ea7c f7bc c0f3 e03c 85a7 78bd e435 b6bd
00000360: 98e7 b6bd 6ce1 963d e597 42bd bd2d 7b3d
00000370: 9340 debc 864f 443d 2101 d8bd 9c33 2e3d
00000380: 5f84 a4bd ccbb 7dbc 26b8 40bd 4651 893c
00000390: 75e7 b4bd 6076 c4bc 89db 25bc ea32 32bd
000003a0: d52a 0a3d eb92 ce3d e189 793d 853d e43d
000003b0: 46d7 2f3d ceb4 2a3d 820c a83d 4214 823d
000003c0: 08a5 20bd 7560 e13b 5edd 5d3c bb29 0dbd
000003d0: 9233 1abd df0e 513d 886d 80bd 41bb e83c
000003e0: f728 93bd a068 413d e85f b13d 8f11 bd3d
000003f0: d275 81bd 4db9 b8bd f5cb 80bd 84a7 89bd
0.008879374 0.057679724 0.09198052 -0.1080748 0.024760645 0.026190883 0.14083834 -0.07547067
0.011176041 -0.038595363 -0.02179662 0.04598735 -0.0520236 -0.050033167 -0.14873168 0.056376014
0.047279224 -0.038710095 -0.0049966457 -0.060470585 -0.049689014 -0.005842349 -0.05471538 0.00414757
0.060200706 -0.087378405 0.008243548 -0.053083275 0.022908194 0.04379489 -0.009424195 -0.041428793
-0.08480872 -0.017530885 -0.06037259 0.081189714 0.039427698 0.10074897 -0.029488506 0.03138092
0.1402496 0.016708862 0.0035032257 0.04049022 0.041544326 0.08352342 0.004678627 0.064276785
-0.043695163 0.06723104 0.04844263 0.03453405 0.072459206 0.102678224 -0.018844735 0.030147847
-0.017117586 0.038593557 -0.094293036 -0.00223753 -0.07691357 -0.0024325585 -0.109618284 -0.031441484
0.05082888 -0.11902068 -0.03000573 0.109849244 -0.023639744 -0.04730737 0.064374544 0.059670806
0.08398562 0.0042723897 -0.048168074 -0.03198831 -0.07917894 0.026656358 -0.019857002 0.036823783
0.04384948 -0.055818714 -0.029341059 -0.02289553 0.03618353 0.012325786 -0.11710826 -0.046208754
-0.00028122132 0.027900882 -0.01829201 0.13141519 -0.07350998 0.056273423 -0.022615822 0.03933712
0.07410323 -0.05975274 -0.043444242 0.03887285 0.002670848 -0.037251603 0.08762315 -0.08248773
-0.057304244 0.06460809 0.049635615 -0.024672942 -0.04070808 -0.0760585 0.03881041 -0.06836097
-0.059155617 -0.0040340135 0.017152391 -0.0422509 0.0011204757 0.09566478 0.079267286 0.088240646
-0.05092109 0.058100186 0.023338296 0.13239114 -0.059956286 -0.01993608 0.06340513 0.07545582
-0.06991996 -0.007547737 0.06754454 0.07340066 -0.09611237 -0.0014105883 0.019547896 -0.0011909177
0.07491853 -0.030418675 0.00023863633 -0.055304445 -0.036496177 0.05420571 -0.014689758 -0.025643365
0.004791422 -0.05839082 0.03164143 0.02257972 0.008846225 -0.03975108 -0.008498927 -0.02210332
0.05800766 -0.0254022 0.022808533 -0.0659263 -0.04435116 -0.069107816 -0.018071268 -0.08368106
0.04011693 -0.07670862 -0.028596329 0.02227986 -0.040546607 0.06561859 0.06628379 -0.018736927
-0.020265963 0.10145541 0.06188163 0.15678327 0.10070479 0.018745879 -0.06317754 0.022532437
0.06888966 0.12731603 -0.042274173 0.03875938 0.051537305 0.055023313 0.033322703 -0.03799433
0.004672008 0.02777878 0.07043159 0.014594817 0.008501791 0.011136162 0.037194278 0.0735893
-0.010961821 0.07421543 0.07381463 0.060374036 -0.0824424 0.024642052 0.050656628 -0.0069609117
-0.0032030938 -0.013801139 -0.02738286 -0.02618954 0.10585291 -0.011537993 -0.05656819 -0.015829666
0.01411117 0.07550068 -0.04455334 -0.007497375 -0.03021093 0.027459979 -0.060706634 -0.088969976
-0.08930892 0.073672146 -0.04750814 0.061322916 -0.0271304 0.047927402 -0.1054709 0.042529687
-0.0803306 -0.015486669 -0.047050618 0.016762387 -0.088332094 -0.023982227 -0.010123142 -0.043505587
0.033732254 0.10086616 0.060922507 0.111445464 0.04292991 0.041676335 0.08205511 0.0635152
-0.039219886 0.0068779537 0.013541548 -0.034463625 -0.037646838 0.051039573 -0.062708914 0.028409602
-0.07185548 0.04721892 0.08660871 0.09231865 -0.063213006 -0.09019718 -0.06288902 -0.06721404

L1.bias f4 [256]
00000000: 27eb a6bd c16c 97bc 6b1f 7b3d 345e 8abc
00000010: ea4c b2bc 30ef 79bd 029e 053d 8dc2 2a3d
00000020: 4ad4 56bd 75ac 9dbd a4ea bdbc c620 783d
00000030: 52da 83bd 6a75 12bd 2449 aebd c46f 21bc
00000040: d6bc 973c 7147 103d bc67 29bd a29a a93d
00000050: 9106 ef3b 1b80 7dbd f9a1 8e3c 055c 023d
00000060: 8600 653d f380 7b3d 62d9 b4bc 9f5f 8ebc
00000070: ac89 31bd c0f3 103d 9373 87bd f90c bebc
00000080: 24f2 64bc f76d 91bd ea46 093d 536b a13c
00000090: 301e 973d 7421 5cbd 53cf 9f3d 669c 153d
000000a0: f6d0 dbbc d746 87bd 9da6 a7bd e6e2 013d
000000b0: f8e6 2cbd 7108 cdbc de78 0abd 965f 85bc
000000c0: 844e f33b b691 983d 6cb9 673d d8f3 833d
000000d0: f0e2 9e3b 7555 dabc 7e48 23bd 287f 4c3d
000000e0: 6ed4 efbb f7a6 0a3d 7de5 9ebd 77e1 323d
000000f0: 17a1 39bd 40a9 19bc 50a5 8e3d 4e69 583d
00000100: 3a7d 4dbd 1c93 923d 38c3 8fbd 0144 223d
00000110: 0274 653c 736d a33d f7e0 0e3c 1bb2 99bc
00000120: 863b 973d 623d 52bd 29e0 753d 3cbc 05bd
00000130: e76e 3fbc 7142 19bd 555b 683d 13d3 5ebd
00000140: 45a0 c9bc c40e c83b 56a8 9d3d 72df 41bc
00000150: 6af5 17bd 98cd 21bc e756 a03c 9c8e 1cbd
00000160: 4531 b03d 7f5d 0f3d 26ac fbbc da84 4f3d
00000170: d245 cebc 4087 9b3c d1c1 78bc d322 8abd
00000180: d516 94bd dda1 9abd b513 45bd 7851 afbb
00000190: 29b9 383c 769e 6a3c c64f 1f3d c6a4 af3b
000001a0: 79c8 ac3d c226 a6bc af42 953c 07ed 913c
000001b0: 4fd3 2e3d 8db1 8d3d bf1a 053d c4b2 303d
000001c0: 9e31 9d3d 87b4 2b3d 624b a13d 9fa1 343d
000001d0: a846 2b3d 9544 31bc ccac 5cbd 718f 9d3d
000001e0: 96e4 363d 6452 d43c 7ca0 0f3d b24f c4bc
000001f0: 83ac 27bc e3a9 8d3d 6a37 b93c 0103 acbd
00000200: af9a 8f3d c2d4 d23c 9be1 2dbd 29b2 1ebd
00000210: dc3a 84bd c612 a63d cc01 27bd 0ed4 1fbd
00000220: 5932 e33c d4b1 0dbd 1e7d 3a3d 003d f9bc
00000230: f316 aabc be9e dbbc dd1f a13b 0e03 323d
00000240: c937 5ebc aa54 8b3d b828 afbd ddcc 87bd
00000250: 88f1 c73c ddcf d5bb 0f6b 57bc df7e cb3c
00000260: 52dc 90bd 8036 16bc f600 7cbd 460c 9e3d
00000270: 92a2 9a3c 6a4b 533d 1aef 63bd 9ce1 a9bc
00000280: f774 3e3d 4cf6 953d 633e 94bd f628 c0bc
00000290: 1997 7ebc af67 a43d b8d3 5bbd b70e 033d
000002a0: 4cd4 813d ad46 86bd 090e a73d 0b5d aebd
000002b0: 2d59 82bd c393 cdbc a9ae 8d3b 3652 4c3b
000002c0: 650e 843d cdb6 983d 6e11 c1bc 06f1 a43c
000002d0: 5520 f9bc fe44 c93c a150 eaba b389 253d
000002e0: e718 c83a a65a dcbc bac1 173d 0213 803d
000002f0: ed74 25bd b661 bd3c 7854 d538 32b4 ccbc
00000300: 1b52 173d 1e60 4a3d ab6a 1f3d 6e1a 97bd
00000310: dc77 00bd d6a0 923d 062b 4b3d dce3 473d
00000320: 7efb 56bd 12ca fe3c f38a 32bc 1470 09bd
00000330: 346f 533d b784 aa3d aabe 1e3d c0dc 813d
00000340: 3807 4bbd e79b 2e3d 09f8 a3bd 69d7 aabc
00000350: 2b17 aabc e4fd 91bd e773 debc f302 863d
00000360: 6044 2ebd b61d 993d 5e24 303d 3800 0fbd
00000370: 47be 473d 9e02 a5bd c996 143d 399e 28bd
00000380: 952c 8cbd 88a5 ae3d e921 5bbb 4657 5abd
00000390: 605d af3d 9fc8 b13c 21c5 56bc 6626 06bd
000003a0: ab01 a03d 130c 453d 8c2f a03d a948 013d
000003b0: f58c 8b3d 7251 5bba 5d5d 9e3c 41d3 b23c
000003c0: 48cf a73d 1510 853d c235 543d 78ca aabd
000003d0: 1cf1 813d cedd 413d b195 9dbc 676c 823c
000003e0: 6554 aebd a21c 46bd 7312 893d f58e a3bd
000003f0: 9e1f 083a 03c0 7b3c 6c4f 86bb b428 4fbd
-0.081503205 -0.018484475 0.06130926 -0.016890623 -0.021765191 -0.061019123 0.03262139 0.041689444
-0.05244855 -0.07698909 -0.023183174 0.06057813 -0.06438126 -0.035756506 -0.08510044 -0.009853307
0.018522661 0.03522438 -0.041358694 0.08281447 0.007294484 -0.06188975 0.017411219 0.031826038
0.055908702 0.061402272 -0.022076312 -0.01737958 -0.043344185 0.035388708 -0.06613841 -0.023199545
-0.013973746 -0.07101052 0.033514895 0.019704496 0.07378805 -0.05374284 0.07803216 0.036526106
-0.026833039 -0.066053085 -0.08186076 0.031710528 -0.042212456 -0.02502844 -0.033806674 -0.01628093
0.0074251313 0.07449667 0.056573316 0.06442994 0.0048488304 -0.026652077 -0.039864056 0.049925953
-0.0073190248 0.033850636 -0.07758615 0.04367205 -0.045319643 -0.009378731 0.069651246 0.0528348
-0.050168253 0.07156965 -0.07019657 0.039615635 0.014004709 0.0797986 0.008720628 -0.018761685
0.073844 -0.05132807 0.06002823 -0.032650217 -0.011684156 -0.03741688 0.056727726 -0.054400515
-0.024612555 0.006105276 0.07698123 -0.011833059 -0.03709928 -0.0098756775 0.019572688 -0.03822194
0.086031474 0.035001274 -0.030721735 0.050663806 -0.025179777 0.01898539 -0.015182928 -0.067449234
-0.07230917 -0.07550404 -0.048114497 -0.005350288 0.011274614 0.014320007 0.038894437 0.0053602187
0.084366746 -0.020282153 0.018220274 0.017813219 0.04268199 0.06918631 0.03249621 0.043139234
0.07675479 0.04192021 0.07875706 0.044099446 0.04181543 -0.010819574 -0.05387573 0.07693375
0.04465159 0.025918193 0.03506516 -0.023963783 -0.010234001 0.06917169 0.022609431 -0.083990104
0.070119254 0.025736216 -0.042451482 -0.038744126 -0.06456539 0.081090495 -0.040773198 -0.03902059
0.027733969 -0.03459342 0.045529477 -0.030424595 -0.020762896 -0.026809093 0.0049171285 0.043459944
-0.013563105 0.06803258 -0.08552688 -0.066308714 0.024407163 -0.0065250234 -0.013148083 0.02484077
-0.07073273 -0.009168267 -0.061524354 0.07717185 0.018876348 0.051585592 -0.055647947 -0.020737462
0.046498265 0.07322368 -0.07238462 -0.023457032 -0.015538954 0.080275886 -0.053668708 0.031996455
0.063393205 -0.06556449 0.08156974 -0.0851384 -0.06364665 -0.025094872 0.0043237996 0.0031176931
0.06448058 0.074567415 -0.023567881 0.02013446 -0.030410925 0.02456903 -0.0017876812 0.040414523
0.001526621 -0.026898693 0.037049986 0.062536255 -0.040394712 0.023117881 0.00010172365 -0.024988268
0.036943536 0.04940807 0.038920086 -0.07378088 -0.031364307 0.07159583 0.049601577 0.048801288
-0.052485935 0.031102214 -0.010897386 -0.03355415 0.051619723 0.083260946 0.03875605 0.06340933
-0.04956743 0.04262915 -0.08006293 -0.020854669 -0.020763 -0.07128504 -0.027154876 0.06543531
-0.042545676 0.0747637 0.043003432 -0.034912318 0.048765447 -0.0805714 0.036276612 -0.041166518
-0.06844441 0.08527666 -0.003343696 -0.053305887 0.08562732 0.021702109 -0.013108523 -0.032751463
0.07812818 0.048107218 0.07821569 0.031563435 0.06813995 -0.00083663233 0.019331628 0.02182925
0.08193833 0.06497208 0.05180908 -0.08339399 0.06344816 0.04733067 -0.019236417 0.01592083
-0.08512191 -0.04836715 0.06692972 -0.07986251 0.00051926996 0.015365603 -0.0040988233 -0.050575927

BN1.weight f4 [256]
00000000: 2998 7e3f 7ce7 7d3f d281 7d3f 59bb 7b3f
00000010: b1d2 7d3f 6307 813f 72c6 813f b91c 7f3f
00000020: 3671 803f d763 7f3f 7898 7d3f 1e21 7c3f
00000030: b32c 7e3f 7320 7e3f 83c2 813f e340 813f
00000040: c04c 813f 3e88 7f3f 7967 7d3f 8364 803f
00000050: da94 7f3f 8082 7c3f 3b9a 843f 2d2a 823f
00000060: 6a7d 823f ec59 813f 3fe8 803f 9645 803f
00000070: d07b 833f 4c90 813f c4a8 823f b0ed 7f3f
00000080: 912c 833f 6cd1 7a3f 02ca 7a3f 8d53 803f
00000090: 94e0 813f add5 823f 723e 803f 353a 803f
000000a0: 4e8d 813f 574a 813f ce4d 813f be7e 833f
000000b0: 99d8 7f3f ffb2 813f 8669 803f 57a5 7d3f
000000c0: 2af8 823f c8ca 7c3f 932d 7c3f 24f0 7d3f
000000d0: fdb7 793f a029 813f 7905 803f b854 803f
000000e0: 877e 803f 1297 813f 0431 803f 1a8d 833f
000000f0: ed07 7f3f f867 803f 3156 823f cea1 833f
00000100: 2b70 7b3f 210e 7e3f 050d 7e3f 745a 813f
00000110: f1a5 803f 0d18 833f 7aa9 803f cea3 7b3f
00000120: 6cf5 813f 7ae3 833f b6be 803f f257 7f3f
00000130: 80da 7f3f 01c6 823f 713e 823f 8638 7f3f
00000140: 3148 813f 6e7d 7e3f 7e8e 7f3f e829 7f3f
00000150: 211a 803f 125f 803f 41a9 803f 7950 813f
00000160: 4602 833f 1d39 803f 0bda 813f 53f6 823f
00000170: 0a91 803f 7492 803f 8eb6 813f 17b5 813f
00000180: 664d 803f db5a 803f b210 813f 8bc4 813f
00000190: 5a4d 7f3f 25db 7f3f 2194 803f 0971 823f
000001a0: 3fb6 813f f3bb 823f b7ba 7c3f bf7d 813f
000001b0: f94c 813f 492d 833f ab0d 803f ac8f 813f
000001c0: 069f 7e3f 5557 823f 971a 813f 0681 833f
000001d0: e601 843f cf71 803f ce9f 7e3f faeb 7d3f
000001e0: 8b11 803f d324 793f d3c2 823f 764b 7f3f
000001f0: 2250 803f 3172 7e3f f083 803f fd57 823f
00000200: 75d6 7e3f b379 7f3f 59bf 7d3f 3f08 7f3f
00000210: c35d 803f e01c 813f 491e 813f 11ee 823f
00000220: d77e 823f ca47 7d3f 604f 803f fc00 7d3f
00000230: 2ca8 823f d9a0 7f3f a4bd 803f bb61 803f
00000240: cf5a 823f ebfd 803f 2eb9 803f 89d3 823f
00000250: fc30 813f 4695 803f 128b 823f 0a90 7d3f
00000260: d0e3 7f3f 70a0 7c3f 407a 813f 2ec4 7d3f
00000270: 510c 7f3f dde8 813f 6eac 7c3f 0015 803f
00000280: 1c39 7d3f 5126 823f 842e 7d3f 7c73 813f
00000290: 5240 813f 9193 7e3f ac2b 853f 9a3e 7b3f
000002a0: f7d6 813f 37e9 7f3f 6a4c 823f 4e68 7c3f
000002b0: 78a8 803f 8a27 803f e537 7f3f 3f70 7f3f
000002c0: 6d44 7e3f 589e 7f3f 276c 7e3f aeae 813f
000002d0: cb61 813f 5ed2 803f f787 813f 979c 7d3f
000002e0: 7637 803f e821 823f 6806 803f 8504 7d3f
000002f0: 0fd6 813f 3c31 813f 05de 7e3f 760a 803f
00000300: f260 803f 4a8f 803f b715 803f 3b5e 823f
00000310: 58e4 843f 231d 813f 9dc1 823f 5cb3 803f
00000320: 79a2 803f a9b5 803f 61e0 803f 31ba 7c3f
00000330: 8a25 823f 747e 7d3f ef21 7e3f a478 7c3f
00000340: d2a1 7e3f 9040 813f 057d 833f 3eba 803f
00000350: 287e 7f3f ee41 803f 8dee 823f 76a8 7e3f
00000360: 9c21 813f dfff 803f f107 813f 8c2a 7d3f
00000370: 7a9d 833f e8ad 7b3f 0253 7f3f 411a 803f
00000380: 2c18 813f b762 7e3f 1356 7f3f cc7b 7e3f
00000390: 4578 813f 45e0 833f 9f64 7f3f e0e4 813f
000003a0: 2d05 863f cf8c 7d3f 74ca 7d3f 3d4d 803f
000003b0: f7ba 843f 50b6 823f 9a93 7f3f 666a 773f
000003c0: b214 7c3f 7cc0 7d3f 2e68 803f 5783 833f
000003d0: efd7 7d3f eb75 7d3f c25f 7e3f 5691 7f3f
000003e0: 1bd6 813f 6097 813f cee4 7e3f 8261 7e3f
000003f0: f32b 7f3f 7027 803f da08 833f 9522 843f
0.9945093 0.9918134 0.99026215 0.98332745 0.99149615 1.0080379 1.0138686 0.996532
1.0034549 0.9976172 0.99060774 0.9848803 0.99286956 0.99268264 1.0137485 1.0097927
1.0101547 0.99817264 0.9898601 1.0030674 0.99836504 0.9863663 1.0359567 1.0169121
1.0194523 1.0105567 1.0070876 1.0021236 1.027216 1.0122161 1.0207753 0.9997206
1.0247976 0.979758 0.9796449 1.0025498 1.0146661 1.0221459 1.0019057 1.0017763
1.0121248 1.0100812 1.0101869 1.0273054 0.99939877 1.013275 1.0032203 0.99080414
1.0231984 0.9874692 0.9850704 0.9919455 0.9754637 1.0090828 1.000167 1.0025854
1.0038613 1.0124228 1.0014958 1.0277436 0.9962147 1.0031729 1.0182554 1.0283754
0.9821803 0.9924031 0.99238616 1.0105729 1.0050641 1.0241715 1.005172 0.9829682
1.0153022 1.0303795 1.00582 0.9974357 0.9994278 1.0216676 1.0175306 0.9969562
1.0100156 0.9941014 0.998268 0.9967332 1.0007974 1.0029013 1.0051652 1.0102683
1.0235069 1.001743 1.0144666 1.0231422 1.0044262 1.0044694 1.0133836 1.0133389
1.002362 1.0027727 1.008322 1.0138105 0.99727404 0.99943763 1.0045205 1.0190746
1.0133742 1.0213608 0.98722404 1.01165 1.0101615 1.0248195 1.0004171 1.012197
0.994614 1.0182902 1.008624 1.027375 1.0313079 1.0034732 0.9946259 0.99188197
1.0005354 0.97321814 1.0215706 0.9972452 1.0024455 0.9939299 1.0040264 1.0183102
0.99545985 0.99795073 0.991201 0.9962196 1.0028614 1.0086937 1.0087367 1.0228902
1.0194958 0.98937666 1.0024223 0.9882963 1.0207572 0.9985481 1.0057874 1.0029825
1.0183963 1.007749 1.0056512 1.0220805 1.0093074 1.0045555 1.0198691 0.9904791
0.9995699 0.9868231 1.0115433 0.9912747 0.9962817 1.0149189 0.98700607 1.0006409
0.98915267 1.0167943 0.988991 1.0113368 1.0097754 0.9944392 1.0403953 0.981424
1.0143727 0.9996523 1.017957 0.98596656 1.0051413 1.0012066 0.99694663 0.9978065
0.9932316 0.9985099 0.9938378 1.0131433 1.0107969 1.0064199 1.0119618 0.9906706
1.0016925 1.0166597 1.0001955 0.9883502 1.014345 1.009315 0.99557525 1.0003192
1.0029585 1.0043728 1.0006627 1.0185007 1.0382185 1.0087017 1.0215336 1.0054736
1.0049583 1.0055438 1.0068475 0.98721606 1.0167706 0.9902108 0.9927053 0.98621583
0.9946567 1.0097828 1.0272528 1.0056837 0.99801874 1.002012 1.022905 0.994758
1.0088382 1.0078086 1.0080549 0.98893046 1.0282433 0.98312235 0.99736035 1.0008012
1.0085502 0.99369377 0.99740714 0.9940765 1.0114828 1.0302817 0.9976291 1.0147972
1.047033 0.9904298 0.99137044 1.0023571 1.0369557 1.0211887 0.998346 0.96646726
0.9846908 0.9912183 1.0031793 1.0274457 0.99157614 0.99008054 0.99364865 0.9983114
1.0143465 1.0124321 0.9956788 0.99367535 0.99676436 1.0012035 1.0237076 1.0323054

BN1.bias f4 [256]
00000000: 9c36 d33c cced debc 499a febb d2bd 8f3d
00000010: 194f 153d 44b1 34bd 654a b8b9 0518 27bd
00000020: c7a1 b5bc c127 a23c 195c e03c f538 713c
00000030: cfe8 d03c 7b3a 46bd 5cc8 18bd 722d 77bc
00000040: 1a94 6cbc dd0d 8cbc 828a da3b 18cf e5bb
00000050: ef8f 4d3c 9369 cf3c abc6 57bd ad3d dbbc
00000060: 5959 45bb 3e1f d5bc 9664 edbc d07c 153c
00000070: b3fe 08bd 38b7 15bd d155 52bd b307 78bb
00000080: 4755 30bd 2565 4f3d 159b 393c 6f31 c53c
00000090: a397 bfbc b5cf f1bc e3b4 afbc 37bd cbbc
000000a0: 4c3c 0fbd 15fd 0abd 0a39 1dbd 059a 5bbd
000000b0: de64 f63b 9457 60bc e9f9 91bd 537a 68bb
000000c0: 9223 20bd 1046 7ebc f17e 923c 5ed8 353d
000000d0: 0fe7 543d b871 30bd 33de 183c 7d10 c6bc
000000e0: f9b3 f8bc d336 b4bc 5a6f f83b 7439 29bd
000000f0: f4a7 b23c f200 b3bc 2b3b 7abc eb8a 14bd
00000100: 055f 783b 9527 283c 98ca 083d acc2 fdbc
00000110: b4b5 7e3a 19d6 e4bb 30e7 183d e3e9 293d
00000120: ea6c 82bc 7cbf cd37 c42e ea3b c87b ba3b
00000130: 6f51 9dbc 4957 67bd f6df 70bd 9710 8cbb
00000140: fa42 8abc 1a27 ad3c 667e c8bc 6412 3cbd
00000150: 1566 b6bc e7c8 443d a49e 923b bf42 5c3b
00000160: 1192 16bd d31e 80bb 0308 dfbc d1ff 41bd
00000170: 510a 31bc 6942 0fbd 38fa a83a 3ce5 dabd
00000180: c35f aa3c 2adf 89bc 42a7 a23c 622b e5bd
00000190: ee53 afbc 4b5c 853c b81b 93bd b935 32bd
000001a0: 1264 36bc dd63 0cbd 1de5 34bb ff96 903b
000001b0: b5d8 23bc ad84 39bd 2f8c 9dbc 0cd8 03bd
000001c0: ea8f 74bc 876f 8aba 9e20 8fbc 22b5 82bd
000001d0: 7a6b 45bc dd9a 97bc 97e6 25bd 22e8 893d
000001e0: 5bfa 903c 6521 f8ba a896 83bd 4f9a 813b
000001f0: 75d6 25bc cc6d 293d 1d1e a2bc ede5 89bd
00000200: 0628 573c cfc6 ac3b 5feb 17ba 8943 1b3d
00000210: 048e f03c ef9c 91bc a9a4 30bc 8f1b 8abd
00000220: fb0d 67bd bdba 7b3a 5b88 bdbc 4b34 873c
00000230: 0f79 4bbd 8e96 5c3c 4094 08bd 91b9 88bd
00000240: be86 af3a b3a9 2abd 707f 2139 e275 5ebd
00000250: 9aa5 03bd e8df 9c3b 9d73 1fbd 1204 e3bb
00000260: 7cb8 ddbc 0e36 173d a14a cabc 3836 da3b
00000270: 2df3 adbb 0075 38bc bf23 aebc 6db0 a8bc
00000280: ea79 31bb 0d9d 40bd 7873 073d 8d0b babb
00000290: b058 1ebd edb0 d2bc 3738 42bd dea5 0bbc
000002a0: e562 65ba b1c9 59bc d71f a83c e6d0 97bb
000002b0: 79ad debc 60fc a5bc 8336 473c 4072 313d
000002c0: 5fd9 a13c a365 6bbd cda1 4ebc e118 f139
000002d0: 8a3e 9bba 7077 72bc f9b4 7bbd 8fdf 6d3d
000002e0: 29b3 2d3b e0d0 07bd 8d16 403b a463 203b
000002f0: 3e46 e8bc e38a 55bb 4fcc 2d3c 3581 2539
00000300: b902 b5bc 1f18 3e3c edf8 a93b 2c5b cabc
00000310: 8908 4dbd c269 bdbd 3136 c5bd 4eb9 9dbc
00000320: 08b9 a9ba ca09 1fbd 1d5d 34bd a6ce 043c
00000330: 7540 28bd bca8 75bc 5a1b 9e3c d864 e7bb
00000340: fcb6 6439 8e23 0d3c 1279 95bd a824 bbbc
00000350: c1d9 d9bc f7fb 09bd 5acb 56bd 79dd 19bc
00000360: d93e 9dbc 834c 04bd 8e13 60bd 39f4 d13c
00000370: d7d4 1fbd 74a0 09bc 1dd1 473c 67c6 24bd
00000380: 1aa4 38bd f242 1e3d ebdf b7bc 6435 9e3b
00000390: d7e6 8cbc 4f9c 96bd a24d febc a6d0 c3bc
000003a0: d50b e7bc 250e fc3b 0c2a 383c 10e7 12bd
000003b0: 1340 c7bc 3f29 14bd 9847 8fbc 2584 0bbb
000003c0: 1910 053d 0a0f 4e3c 2695 d9bc 98d7 dbbc
000003d0: b2e3 b1bb 7d65 69bb 68ae 0cbd 1c21 4bbc
000003e0: 75b1 73bd b131 3ebd 5a6f f03c d447 2ebc
000003f0: 8959 1bbd ef33 aebc 275c ecbc 3ebc a3bc
0.025782876 -0.027213 -0.007769857 0.07018627 0.036452387 -0.044114366 -0.00035150643 -0.04079439
-0.022171868 0.019794347 0.027387666 0.014723052 0.025501637 -0.048395615 -0.037300453 -0.015086519
-0.014439607 -0.017096454 0.0066693434 -0.007013213 0.0125465235 0.025318896 -0.0526797 -0.026762808
-0.003011307 -0.026015874 -0.028978627 0.009123996 -0.033446025 -0.036551684 -0.051351372 -0.0037846386
-0.043050077 0.05063357 0.011328478 0.024071423 -0.023387736 -0.029517988 -0.021448558 -0.024870498
-0.034969613 -0.033932764 -0.038384475 -0.05361368 0.0075193485 -0.013692755 -0.07127745 -0.0035473302
-0.039096422 -0.015519634 0.017882796 0.044395797 0.051978167 -0.0430772 0.00933032 -0.024177784
-0.030359255 -0.021998798 0.0075816335 -0.041314557 0.021808602 -0.021851037 -0.015272896 -0.036265295
0.0037898433 0.010263343 0.033396333 -0.030976616 0.0009716407 -0.0069835302 0.037329853 0.041482817
-0.015921075 2.4527071e-05 0.007146688 0.0056910254 -0.01920387 -0.056479726 -0.058807336 -0.0042744386
-0.01687764 0.02113681 -0.024474334 -0.045915976 -0.022265473 0.048043158 0.004474478 0.003360912
-0.036760394 -0.0039099245 -0.0272255 -0.047363106 -0.010805682 -0.034975443 0.0012891954 -0.10688254
0.020797616 -0.016830046 0.019855145 -0.11189915 -0.021402325 0.01627936 -0.07183021 -0.043508265
-0.011132257 -0.034274925 -0.0027602382 0.0044125314 -0.010000397 -0.045292545 -0.019231884 -0.03218846
-0.01492689 -0.0010561802 -0.017471608 -0.063822046 -0.01204955 -0.018506462 -0.04050311 0.06733729
0.017697504 -0.0018930851 -0.0642522 0.0039551626 -0.010121931 0.041364476 -0.01978975 -0.06733308
0.013132101 0.0052727233 -0.0005795266 0.037906203 0.029364593 -0.017775027 -0.010781446 -0.06743538
-0.056409817 0.00096027163 -0.023136308 0.016504427 -0.049675997 0.013463629 -0.033344507 -0.06676019
0.0013391597 -0.041665744 0.0001540163 -0.05431164 -0.03214035 0.004787434 -0.038928617 -0.0069279755
-0.027065508 0.036916785 -0.024693789 0.0066592954 -0.00530853 -0.011258364 -0.02125728 -0.020591939
-0.0027080723 -0.047024775 0.033069104 -0.0056776465 -0.038658798 -0.02571913 -0.047416892 -0.008523433
-0.0008750393 -0.013292716 0.020522995 -0.004633057 -0.027182328 -0.020261943 0.012158993 0.043321848
0.01975697 -0.057469975 -0.0126118185 0.00045985638 -0.00118442 -0.014798984 -0.061451886 0.05807453
0.0026504493 -0.033158183 0.0029310316 0.0024473453 -0.028353807 -0.0032584004 0.010607793 0.0001578376
-0.022096025 0.011602431 0.005187145 -0.024701677 -0.050056968 -0.09248687 -0.09629477 -0.0192534
-0.001294882 -0.038827695 -0.044034112 0.008105909 -0.041077096 -0.014993843 0.019300152 -0.007061582
0.00021811941 0.008614434 -0.07298483 -0.022844627 -0.026593091 -0.033687558 -0.052440025 -0.009391182
-0.019195007 -0.03229953 -0.05470615 0.02562915 -0.03902134 -0.008400071 0.012195853 -0.040228274
-0.045078374 0.038638063 -0.02244564 0.004828142 -0.017199917 -0.07354032 -0.031042878 -0.023903202
-0.028203884 0.007692116 0.0112404935 -0.03586489 -0.024322545 -0.036172148 -0.017490193 -0.002128848
0.032486055 0.012576828 -0.026560377 -0.026836202 -0.0054287547 -0.003561347 -0.034346014 -0.012398031
-0.059495408 -0.04643411 0.029349972 -0.010637242 -0.037927184 -0.021264998 -0.028852535 -0.019987222

BN1.running_mean f4 [256]
00000000: cf66 30c1 c69a 9c40 2576 c640 8933 d340
00000010: a0d1 07c1 5c1e 0a41 70ee c141 3a97 4441
00000020: a3cb 0c41 67f9 0bc0 8b8c 9f40 b448 9541
00000030: 5966 0941 37e6 9fc0 06f9 6ebf 3ad5 0940
00000040: 1dde 6d41 f12b 34c1 bb39 3641 b8cd 4741
00000050: 1b16 29c0 8ae5 3a41 7521 2d40 25de bd40
00000060: 79b6 dbbf f942 113f 5b94 cec0 1961 d140
00000070: 64b2 8fc0 7eff a4bf 3b98 9c40 063a a6c0
00000080: daa5 f240 df02 40be 7c4c fd40 0cef 1ac1
00000090: ad5e 1dc1 cf3d 6f40 63e1 9c3f 372b 86c0
000000a0: 83e6 4041 1610 7d41 8536 bf40 94e2 0640
000000b0: 905e e7c0 f574 e73f 6476 3d41 91b1 b33f
000000c0: cd7c 23c1 a2fe cec0 ae02 e6c0 5f48 e3c0
000000d0: 6fae c940 3633 7ac1 537e 7c40 78bb 7e40
000000e0: ad70 41c0 31c8 e840 45ab 1bc1 0646 d140
000000f0: 7048 4540 4e1f 7bc1 9d56 2e40 016f 8dc0
00000100: 2ffd 38bf 3642 13c0 76f4 5941 5a75 9c40
00000110: 69bd 3ac1 f8bb 9f3f e33a 06c0 3a8c 08c1
00000120: 5b19 23c0 ae69 1c41 6ed3 57c1 a69b 0b41
00000130: 33cb 0041 6fb1 b5c0 66c2 f940 873b 95c0
00000140: ae94 2240 ab29 04bf aff1 bd40 5fe6 2741
00000150: 879f 8cc0 1e84 bfbd d514 37c1 cbfd 4340
00000160: 1505 80bf a3a2 8c40 e60f 8340 a5ee 3341
00000170: e4b6 933f 0ca5 e9c0 a4e4 05bf e3b3 af40
00000180: 2f25 9640 b0c7 df3b 3f5b 3ec1 04b6 bfc0
00000190: 8234 c540 bc46 c7bf 7869 a740 0838 8d40
000001a0: 6b1f 8341 8478 9bbf c918 02c1 a6ec d8c0
000001b0: e464 9bbf 8c25 1041 e139 45c1 cdb7 d0c0
000001c0: 3a04 0641 6220 75c1 6270 5940 188c 0241
000001d0: a010 1fc1 95eb 50c1 e64b 0a40 650d 26c1
000001e0: e0a2 09c1 1e53 79c1 8189 9a40 27bf a4c0
000001f0: 7e79 d23f c3fa e1c0 f4d4 afc0 2a01 82be
00000200: 87ff bac0 08ef 37c1 2232 e5bf 1f74 39c1
00000210: 2ae7 6c3f 6536 cdbf a0d2 e23e 1998 2341
00000220: 95ae a6be 8a1a 67bf c4ca 8b40 a736 7641
00000230: 6775 ccc0 f8e2 2ac1 2e2b 9c40 eecb 3141
00000240: 223a 453f 45a0 683f 7508 19c1 268c 323f
00000250: 5f2a f1bf f082 5640 0c19 b2bf 2d1b 44c0
00000260: 2d23 07c1 1b01 2641 3f57 aebf ec25 06c1
00000270: 5178 56c0 9f01 7ec1 6d91 47c1 392e 3341
00000280: de39 0ec0 5066 86be b57a 28c1 6cf6 2941
00000290: 1f58 4bc1 1f24 0ac1 1d78 383d ed0c 8741
000002a0: e631 94c1 793d 18c0 05e6 90bf c641 4b41
000002b0: 328a 7141 a3ba 0a40 e10f 11bf 660c aac0
000002c0: 188e 5fbf 1d10 1741 d517 8d40 207e 88c1
000002d0: b09f 1dc1 b6a9 b1bf 7bbb 4541 5c6f 7341
000002e0: 346a 9440 c3c5 09c1 cc7d 0f41 e75b ac40
000002f0: 71ae d33f 8eb1 4040 1b47 dc40 d980 c3c0
00000300: 3fa6 0dc1 2706 4b40 67fc 4c40 f47c ffc0
00000310: 2682 8b3f 70fa 27c1 b990 9441 0cbf 64c0
00000320: a9d0 51c1 f127 1ec1 f797 5e40 e27b d7c0
00000330: 00ad 0ac1 d353 6441 24f7 5741 c24b 4fc1
00000340: 1215 a040 69f4 9fbd 21d0 34c1 b592 4f40
00000350: 6bce 4540 d80c cac0 19fb 45bf c8ff 2740
00000360: e934 4c40 9796 1ac0 77df 403e 406f 5ec0
00000370: aa42 b1c0 bdeb 61c1 c739 17c0 9342 823f
00000380: de33 adc0 e0c8 d43f 79e1 53c0 616c 25c1
00000390: a5f0 1140 6d81 06c1 f4aa e440 ea56 0b40
000003a0: b624 3f40 7c93 6ec1 7768 4a3f 3066 923f
000003b0: 1f9e fdc0 4a75 6c40 a3db 77c0 bd68 ad41
000003c0: 342d 22c0 57de eb40 7b3c 02c0 7f75 f240
000003d0: 3573 9c40 9e08 813f 3b6f 09c1 ec22 86c0
000003e0: b659 98c1 9bce d040 2b6a 8a41 27d8 a6c0
000003f0: d472 1cc1 26e1 b4c0 9c56 fd40 3678 ffc0
-11.0251 4.8938932 6.201922 6.600041 -8.488678 8.632412 24.241425 12.286921
8.799716 -2.1870973 4.985906 18.6605 8.587487 -4.9968524 -0.9334873 2.1536393
14.866727 -11.260728 11.389094 12.487724 -2.6419742 11.68104 2.705167 5.9333673
-1.7165061 0.5674282 -6.45561 6.5431027 -4.490526 -1.289047 4.893583 -5.194583
7.5827456 -0.18751095 7.9155865 -9.683361 -9.835614 3.7381475 1.2256283 -4.1927752
12.056277 15.816427 5.975405 2.1075792 -7.2302933 1.8082567 11.841404 1.4038564
-10.217969 -6.468583 -7.187827 -7.1025844 6.302543 -15.637503 3.9452102 3.9801922
-3.0225022 7.2744374 -9.729314 6.539798 3.0825462 -15.695143 2.7240365 -4.4198003
-0.7226133 -2.3009162 13.622183 4.889325 -11.671243 1.2479239 -2.0973442 -8.534235
-2.5484226 9.775801 -13.489119 8.7255 8.049609 -5.6779094 7.8049803 -4.6635165
2.5403247 -0.5162608 5.9357524 10.493743 -4.3944736 -0.09351371 -11.442586 3.0623653
-1.0001551 4.394853 4.0956907 11.245763 1.1540189 -7.3013973 -0.52302 5.490709
4.692039 0.0068292245 -11.897277 -5.9909687 6.1626596 -1.5568461 5.2316246 4.4130898
16.39034 -1.2146153 -8.131051 -6.7788877 -1.2140164 9.009167 -12.326631 -6.5224366
8.376032 -15.320406 3.3974843 8.159203 -9.941559 -13.057515 2.1608825 -10.37827
-8.602264 -15.582792 4.829285 -5.148334 1.6443326 -7.0618606 -5.4947453 -0.25391513
-5.8436923 -11.495857 -1.7905924 -11.59085 0.9254023 -1.6032225 0.4430132 10.224633
-0.3255507 -0.9027487 4.3685017 15.388343 -6.3893313 -10.680412 4.880271 11.1122875
0.7704183 0.9086955 -9.564565 0.697451 -1.8841056 3.3517418 -1.3913894 -3.0641587
-8.446088 10.37527 -1.3620375 -8.384258 -3.3510935 -15.875396 -12.473004 11.198785
-2.222282 -0.26249933 -10.529958 10.622662 -12.709014 -8.633819 0.045036424 16.881311
-18.524364 -2.378752 -1.1320196 12.703558 15.096239 2.1676414 -0.56664854 -5.3140135
-0.8732619 9.441434 4.409159 -17.061584 -9.851486 -1.3879917 12.358272 15.214687
4.6379642 -8.610782 8.968212 5.3862185 1.653761 3.010837 6.88368 -6.1094785
-8.853087 3.1722505 3.2029054 -7.984003 1.0899093 -10.498642 18.570665 -3.5741606
-13.113442 -9.884751 3.4780252 -6.7338724 -8.667236 14.270465 13.497837 -12.955996
5.002572 -0.078102894 -11.300813 3.2433293 3.0907238 -6.314068 -0.7733627 2.6249866
3.1907294 -2.4154413 0.18835245 -3.4755402 -5.5393877 -14.120053 -2.3629014 1.0176567
-5.4125814 1.6623802 -3.3106368 -10.33896 2.2803128 -8.406598 7.1458683 2.1771798
2.9866157 -14.911007 0.7906565 1.1437435 -7.925552 3.6946588 -3.8727806 21.676142
-2.534009 7.370891 -2.0349414 7.576843 4.8890634 1.0080755 -8.589656 -4.191763
-19.043804 6.5252204 17.30184 -5.213886 -9.778034 -5.652484 7.9168224 -7.983424

BN1.running_var f4 [256]
00000000: 1b0f 8742 8658 3342 3a15 0c43 a7e6 bc42
00000010: fc5f 2843 8bca 4143 a40c 0f43 ee22 d342
00000020: 4a3d 0a43 4cf8 0243 d8f7 1c43 7c9d 4743
00000030: 624b ab42 0112 d142 1740 8a42 a12e 1843
00000040: e0db ea42 1de9 ae42 e3a1 7542 f64b 0b43
00000050: cc3a d942 1086 2442 051a d641 51d5 8842
00000060: e6ab 3742 1332 cd42 ed1f 6042 77b8 7842
00000070: f971 5242 7b1c 5643 32e0 7742 ded4 ee42
00000080: 8bdf ab42 9ab8 c042 1902 0043 7714 5c42
00000090: 6f59 7042 ca76 b642 3452 0d43 a988 3542
000000a0: d40b 6a43 5a33 8142 bad8 9342 b254 9d42
000000b0: c693 7843 8001 0b43 2f43 ad42 571e 1742
000000c0: b4a9 0443 48c5 a342 91f8 0443 f3a6 c442
000000d0: 63cd 7242 5558 0043 0a0b 8142 dcc1 c642
000000e0: 49ab 8c42 63ac ca42 5ed2 7342 4031 bf41
000000f0: 9228 6342 cf94 a542 39a1 7f42 97ca a842
00000100: 993a 4243 49da 5142 7fc2 ab42 7f3d 9842
00000110: 897c 0843 d8de ed42 76c7 e042 8a79 9842
00000120: 6228 9842 d7ad 5f42 319a c542 3d71 2f42
00000130: 8492 9042 112f 2742 7b02 b742 25bc 3242
00000140: 4255 0b42 4053 ac42 2087 8842 aa89 8a43
00000150: 00b1 8442 f5bf 1d42 ed47 0943 ba4a 3342
00000160: a304 6a42 7b76 d842 7ff2 da42 1294 4542
00000170: ef54 6342 d2f0 8b42 7f6b a842 e927 7c42
00000180: ddef e442 dcf5 2342 a22e a342 70e3 f342
00000190: 75e9 0543 36de 0943 d99d 0f42 8743 3c43
000001a0: 4477 9242 3dcb 4142 d706 8042 7142 9e42
000001b0: 476c 6e42 e8b6 b142 9f2c 1343 be9b c642
000001c0: 2251 5d42 9f2b aa42 be99 8d42 8024 2e42
000001d0: 8ef2 3642 8a13 a842 94c5 af42 bf3c 5942
000001e0: e357 e542 a40f e342 016d bc42 7a8e 1d43
000001f0: 1936 8c42 3855 1d43 5558 1142 5959 6942
00000200: 829d 0243 5211 9442 79eb c442 fbd3 d542
00000210: 4ecb 6743 ca9c 7142 b838 1043 e6f0 9142
00000220: 2443 bb42 9813 6b42 39f8 9342 9a5a f742
00000230: 027c 1b42 12b6 9c42 8b86 5342 a10f 0843
00000240: 3c3e a141 4eab ce42 fb6f 9842 4bae 0c43
00000250: 8694 5042 fbde a142 04af 8d42 3b26 2d43
00000260: 1bfe 2a42 f210 2543 4f93 1542 c2ee 6f42
00000270: 6d66 5942 8057 a742 63fc b042 5bf1 2943
00000280: 051e 0c42 269a f342 0417 cf42 9e2e 1643
00000290: fb3b 8742 2a8a f542 394e 2142 659e a042
000002a0: 02de 0443 2a9a 8742 c6ab 2642 dc23 d342
000002b0: 4e2e 9942 daf3 bd42 9c1b 8e42 ffdc 1742
000002c0: 3201 9a42 0fd1 9a42 22b9 1843 f77e 2143
000002d0: d00b 6d42 2d5c 2f42 a5fb 8c42 d579 7142
000002e0: 7268 3b42 5d10 a542 4195 ce42 d8d6 0b42
000002f0: c11f 2d42 ac9e 7542 1e67 ae42 b874 8242
00000300: 49ec 3143 8c54 c142 ed3e b942 c98a 0e43
00000310: c2ed 2f42 460d 8342 a77a f542 d20c 5842
00000320: 89ea a442 603f 2043 1fd3 6542 d82c bd42
00000330: cbf6 dd42 b1d4 0943 3b7c d642 3807 7342
00000340: 1f14 a742 de91 a442 e019 7742 5ebe b042
00000350: 456b f642 1e0a 7942 cd8a 3542 14e4 af42
00000360: 8403 ba42 2a66 f442 30f9 1342 9ad0 8942
00000370: b553 a142 5a38 be42 b9e8 6643 2228 3842
00000380: 6b1a 0443 c4da 6442 fe85 9942 af11 df42
00000390: 7d77 2d43 0bfb 9442 745f 4943 4187 4742
000003a0: 0d3b 6742 714d 9c42 734f b642 b7a2 9342
000003b0: 9e4a a242 7ecc 1342 f6ab b042 59bf 1343
000003c0: 1b75 6942 7951 2c43 4f03 d442 5f54 3c42
000003d0: 8e19 e742 29cf 9e42 3488 c342 ea8b 3243
000003e0: b212 4643 0c12 1743 ddf7 0743 2a57 8c42
000003f0: cee1 c642 dde9 c242 237b 2242 a42f 0e43
67.5295 44.83645 140.08292 94.45049 168.37494 193.79118 143.04938 105.56822
138.23941 130.96991 156.96814 199.61517 85.64723 104.535164 69.125175 152.18214
117.42944 87.4553 61.408092 139.29672 108.61484 41.13092 26.762705 68.41663
45.91787 102.5978 56.031178 62.18014 52.6113 214.11125 61.96894 119.41576
85.93661 96.36055 128.0082 55.019985 60.087337 91.23201 141.3211 45.383457
234.0462 64.600296 73.923294 78.66542 248.57724 139.00586 86.63122 37.77963
132.6629 81.885315 132.97096 98.32607 60.700573 128.34505 64.52156 99.37863
70.33454 101.33669 60.955437 23.899048 56.78962 82.79064 63.907444 84.39568
194.2289 52.46317 85.879875 76.12011 136.48647 118.93524 112.38957 76.23738
76.07887 55.919765 98.801155 43.860584 72.28616 41.795963 91.504845 44.683735
34.83326 86.1626 68.263916 277.0755 66.3457 39.437458 137.28096 44.822975
58.504528 108.23141 109.473625 49.3946 56.832943 69.97035 84.20995 63.038975
114.46848 40.990097 81.59108 121.944214 133.91194 137.86801 35.90415 188.26378
73.23294 48.448475 64.01336 79.12977 59.60574 88.85724 147.1743 99.304184
55.32923 85.0852 70.80028 43.535645 45.73687 84.03816 87.885895 54.309322
114.67165 113.53055 94.2129 157.55655 70.10566 157.33289 36.33626 58.337254
130.61526 74.03383 98.45991 106.914024 231.79416 60.403114 144.22156 72.970505
93.631134 58.769135 73.98481 123.676956 38.8711 78.355606 52.88139 136.06105
20.155388 103.33458 76.21871 140.68083 52.145042 80.93551 70.84183 173.14934
42.74815 165.0662 37.393856 59.983162 54.350025 83.6709 88.49294 169.9428
35.029316 121.80107 103.54495 150.1821 67.61715 122.76985 40.32639 80.309364
132.86722 67.8011 41.667747 105.57004 76.59044 94.97627 71.053925 37.965816
77.002335 77.40832 152.72318 161.49596 59.261536 43.840015 70.49149 60.368977
46.851997 82.53196 103.29151 34.95981 43.28101 61.404953 87.2014 65.22797
177.92299 96.66513 92.6229 142.54213 43.982185 65.525925 122.739555 54.01252
82.45808 160.24756 57.456173 94.587585 110.98202 137.83083 107.24264 60.75705
83.5393 82.2849 61.77527 88.37181 123.20951 62.25988 45.385548 87.945465
93.00687 122.19954 36.993347 68.907425 80.66349 95.11006 230.90907 46.039192
132.1032 57.21364 76.7617 111.53454 173.46675 74.49032 201.37286 49.882084
57.807667 78.15125 91.155174 73.8178 81.14574 36.9497 88.33586 147.74745
58.36436 172.31825 106.00646 47.082394 115.54991 79.40461 97.76602 178.54654
198.07303 151.0705 135.96822 70.17024 99.441025 97.456764 40.62025 142.1861

L2.weight f4 [128, 256]
00000000: e57e a03c 61f2 dcbc d82e 843c ea22 8f3b
00000010: c1bc dbbc 6cee 363d 07e6 9f3a 31ff d33c
00000020: e5e1 29bd ff4c 18bc ea97 3dbd 9bdd 67bd
00000030: 11ff 333d 480e 503d fe65 a73c 659d 943c
00000040: 43b7 043d a890 873a b862 ed3c 7c47 c33b
00000050: 5639 223c 0c01 3fbc a2fa 323c d033 343d
00000060: 98cb 673c b8c2 bfbb c33d 4b3d d1c1 04bd
00000070: 671a 1ebd 8eb8 03bd 37a8 b9bb ed65 b03c
00000080: 1cba 143d 5101 373d 5773 aebb f06a 603d
00000090: 52e9 1c3d 3db5 5f3b 3339 9f3c e221 c5bc
000000a0: 408f 883d 06cd ba3b 6438 aa3b 8dba 323c
000000b0: 8166 62bc e42d b43c 07e1 58bd 8a2e 0a3b
000000c0: a04b e33c c75e 0dbd 9bf2 83bb 9de4 09bd
000000d0: c643 48bd 6784 483d b557 093d 274e 8e3d
000000e0: bf38 f93b 1e4d 40bc 4422 453d 3eb5 bf3c
000000f0: f4ce 353c 72be 3cbd 3ba7 663d b642 fd3c
00000100: 7b47 8a3c bc92 913d 3bb5 2c3d 22cc 393d
00000110: b94c 40bd a855 9a3d bb07 28bd 7b8f 023d
00000120: 423a 2ebd 670d 18bd dac9 0c3c 4db5 dbbc
00000130: 49d8 863d 727b 703d 514e 98bc c903 6dbd
00000140: dce8 4e3d ca5b cebc a1ff 5e3d e651 21bc
00000150: 0599 c7ba 46b2 bd3c d02b 19bc 7a08 233c
00000160: 063f 86bc eb33 533d b094 5f3c 7811 6fbd
00000170: 18ff b4bc 7462 75bd c2ef 2d3d 30ec 583c
00000180: c1f4 b83b b862 0e3b f8cb 38bd eb3a 4bbc
00000190: 557e 563d ab96 5bbd d0ba 4fbd 9511 7c3d
000001a0: 6189 82bb 08a4 843d 7832 153c e425 3f3c
000001b0: 183c c23c 3d48 5cbd ec93 753d 03ff 5e3d
000001c0: f090 443c 3b8f 36bd c9db 7ebd 0499 79bd
000001d0: 592f 673d 8726 45bd 9a98 05bc fb60 933c
000001e0: 7894 22bd ea69 2bbd f588 813d 59ac ea3c
000001f0: b86c 55bd 2fc6 cd3c 92da bd3c 1903 d2ba
00000200: 52f0 34bd 6c2b 083d c178 c1bb 6635 26bd
00000210: eaee 073c ad43 94bc e216 d73c 3d71 9bbc
00000220: af7a 94bc e480 52bb b9f4 403d 3b6d 073d
00000230: e4b5 6a3b ed3d 32bd 8f82 ba3c 5f5c 4ebd
00000240: 4050 51bd 7eb2 923c 513e c8bc f102 233d
00000250: a554 623c 509e 30ba 4174 173a 2930 17bd
00000260: 1194 05bd 9737 6e3d 97a7 95bc 8f24 12bd
00000270: 2b6f 3a3d 4fa5 2d3b ccac 353b c56c bd3c
00000280: 194b c1ba 5af2 1cbc 59cc d73c fb76 213c
00000290: d434 353d 082a 57bc 19e6 243d 9c40 2b3c
000002a0: d4a9 2bbd 39b0 c13c ab2b e63c fbf0 c7bb
000002b0: 85ca cc3c bbb5 923b 7305 53bd 5bf6 51bd
000002c0: 8a34 913c c56b 0e3d 2242 74bd 0e21 64bd
000002d0: 37a9 993c 28cf 22bd d3f5 a9bc 101b 2bbc
000002e0: e100 753d e96b 00bc a4d2 433d fd12 6abc
000002f0: 78e3 75bd 8c87 8b3d e0a0 63bc e17e 2fbc
00000300: e4ba 24bd b195 4a3d 3995 80ba 81eb 8a3d
00000310: 3a1d e43c be22 5bbd f0f9 b73a 52ec 6a3d
00000320: 182a d03b 30d7 7fbc 08be 6a3b baca 56bd
00000330: 914f 9bbb a554 d6bc 1017 26bc edae 41bd
00000340: 92ef 0bbd 8168 34bd b2d8 cf3c a4c9 5e3d
00000350: 3538 323c d477 373d 1799 5a3c 3ddf 3c3d
00000360: 21e5 833d d7ce adbc b181 6d3d 16e2 643c
00000370: a3a7 173d e385 efbc b8cc 33bd 4dc9 8abc
00000380: f74a f4bb 4bee b83c cdbd 123c 984d 2c3d
00000390: 0bb3 8d3d 1d4b 053d f0fe dabc 997f 0cbd
000003a0: b46e 09bc 4884 04bc b41c 823c 4fd1 473d
000003b0: e056 233b 89c5 10bd db59 36bd 9ad3 6c3d
000003c0: eab8 3d3d 5c57 4d3c 3bc7 6dbd 9374 f63c
000003d0: 3a14 46bc 2e71 60bd bf47 523c 848b 513c
000003e0: fe36 123d b912 8f3c fc7d 7fbc 39f7 453d
000003f0: 8dda 55bd 6ade 893d ffed 0cbb 1f0e 263d
0.019591758 -0.026971044 0.016135618 0.0043681758 -0.026823403 0.04466097 0.0012199291 0.02587852
-0.041475195 -0.009295701 -0.046287455 -0.056607824 0.043944422 0.05079487 0.020434376 0.018141458
0.032401334 0.0010342794 0.028977737 0.0059594493 0.009901365 -0.011657964 0.010924013 0.043994725
0.014147662 -0.0058520697 0.049619447 -0.0324114 -0.038599398 -0.032158427 -0.0056658047 0.021532977
0.0363103 0.04467899 -0.005323808 0.054789484 0.03830845 0.0034135126 0.019436454 -0.024064008
0.06667948 0.00570071 0.0051947106 0.010908735 -0.013818384 0.021994539 -0.052948978 0.0021084868
0.027746022 -0.034514215 -0.0040267236 -0.03366529 -0.04889276 0.048954394 0.03353091 0.069485
0.0076056416 -0.011737136 0.04812838 0.023401853 0.011096705 -0.04608006 0.056311827 0.0309156
0.016879788 0.071080655 0.042165022 0.04536069 -0.04694817 0.07535869 -0.041022997 0.031875115
-0.042536028 -0.037122156 0.008593047 -0.02681985 0.06584222 0.058711477 -0.018592032 -0.057864938
0.05051504 -0.025190253 0.054443005 -0.009846186 -0.0015228098 0.023156296 -0.009348825 0.009950751
-0.016387474 0.051563185 0.01364629 -0.05836627 -0.022094294 -0.059908345 0.04246498 0.013239905
0.0056444113 0.0021726321 -0.045116395 -0.012404184 0.052366573 -0.053610485 -0.050715268 0.061540205
-0.003983662 0.06476599 0.009106271 0.011666749 0.023710296 -0.05377983 0.059955522 0.054442417
0.011997446 -0.04457019 -0.062221322 -0.060936943 0.05644164 -0.048132446 -0.008154059 0.01799058
-0.039692372 -0.041849054 0.063249506 0.028646635 -0.052105635 0.025118915 0.023175512 -0.0016022652
-0.0441745 0.033244535 -0.0059042876 -0.04057827 0.008296708 -0.018098677 0.026256029 -0.018974895
-0.018124906 -0.0032120282 0.047108386 0.033063155 0.0035813982 -0.04351609 0.022767333 -0.05038106
-0.051101923 0.017907377 -0.024443777 0.039797727 0.013814126 -0.00067374576 0.0005777516 -0.036911163
-0.03261191 0.058158483 -0.01826839 -0.035679396 0.045516174 0.0026496237 0.0027721403 0.023123154
-0.0014747112 -0.0095792655 0.026342558 0.009855027 0.044239834 -0.01313258 0.0402585 0.010452416
-0.041910008 0.0236436 0.028096994 -0.006101725 0.024998913 0.0044772304 -0.05151887 -0.051260334
0.017725248 0.034770746 -0.05963338 -0.055695586 0.018757446 -0.03974834 -0.020747101 -0.010443464
0.05981529 -0.007838228 0.047808304 -0.014286754 -0.060031384 0.06812963 -0.013893336 -0.010711403
-0.040217295 0.049459163 -0.0009810097 0.067832 0.027845968 -0.05349993 0.0014036279 0.05735428
0.006352674 -0.01561527 0.0035818834 -0.05243943 -0.0047397097 -0.026163409 -0.0101373345 -0.047285963
-0.03416402 -0.044044975 0.025371883 0.05439152 0.010877659 0.04479201 0.0133421635 0.046111334
0.06440187 -0.021216793 0.05798501 0.013969919 0.037025105 -0.029238647 -0.043896407 -0.01694169
-0.0074552256 0.022574564 0.008956385 0.042066187 0.06918915 0.032542337 -0.026732892 -0.034301374
-0.00838821 -0.008088179 0.015882827 0.048783597 0.0024923608 -0.035344634 -0.044519287 0.057818986
0.046318926 0.012533035 -0.05805133 0.030084884 -0.012089783 -0.054795437 0.012834488 0.012789611
0.035696976 0.017464982 -0.015594002 0.048331473 -0.05221038 0.06731875 -0.0021504161 0.04054081

L2.bias f4 [128]
00000000: e7f7 5fbb e098 2abd 27e2 e4bb f515 0fbd
00000010: 035d c33c 028e 11bd 6891 17bd f9f1 43bd
00000020: ad82 babc c911 5ebc 97c1 323c 354a 953c
00000030: 4a5e c5bc d0cd 49bd f475 703d 6477 1c3d
00000040: 3854 c3bc 13bf 9a3b 3fae 49bd eca3 4abd
00000050: f2bc 633d 7d2d c23c 1f1d 6e3c 7ea5 40bd
00000060: a168 56bd 1f1d 27bd 70e6 14bd f0f2 9d3c
00000070: e475 e03b 1c42 fc3c 664b b53c f4e4 fabb
00000080: 2835 be3a 7153 043d 41be 9fbb 1b23 c13b
00000090: 2f11 bf3b dc41 2ebc 581a a5bc 57e6 a23c
000000a0: f765 5b3d 5b2a 4dbd 441f 8ebb abc0 e9bc
000000b0: 8e5f 01bc 1d6e b83c 506c 64bd 544a ef3c
000000c0: f56d bb3c fd9f fbbc a549 15bd 3279 b0bc
000000d0: 5ed8 81bb edeb 11bd 2e89 643d 2382 80bb
000000e0: 046d d3bc cff0 41bd 93dd cd3c 9047 09bd
000000f0: 169b a93c 71fc 35bc 3be3 dfbc 5f3c b03c
00000100: 1cb6 7abd 866e 1f3d 3835 40bb 74c1 ed3b
00000110: f021 123d 721b aabc dd8d ca3c 7872 a0ba
00000120: 44bb 8ebc 3fbf 3c3d 07cc 023c 7c08 2b3d
00000130: 7ab2 90bc 2518 f73c c3c5 ea3c 32a2 133d
00000140: b802 063d cf3b 103d 681c 773a 5e42 ac3b
00000150: f305 4cbd 70ec 3b3d 0fd3 973c eb30 85bc
00000160: 588b 51bd 8c5a dbbc 9a1f a9bb 5a15 fc3c
00000170: 4e99 35bb 0b9c c13c 8d92 453c 5aa0 773d
00000180: 1208 6e3d 3740 293d 8d24 7cbd c012 c1bc
00000190: 840c d73c 70fd 263d 4b23 2a3d 8ac9 bdbc
000001a0: eeef f73b bfbe 263c 34b9 dd3c 4d8a 40bd
000001b0: 8c24 6dbd d13b 6a3d 720f 2e3c 05c6 fe3c
000001c0: d8c5 43bd 513e debb 461e c73c 1faf 54bd
000001d0: 24a2 27bd 617c b6bb 8549 a6bc b36d 653d
000001e0: 4e6c 55bd 7ad5 43bd 6901 adbc 42da 8fbc
000001f0: bb30 72bd 9810 20bb 4987 c539 5b85 263d
-0.003417486 -0.0416497 -0.0069849673 -0.03493305 0.023848062 -0.03553582 -0.037003905 -0.047838185
-0.02276739 -0.013554045 0.010910413 0.018223861 -0.024092812 -0.049268544 0.05870624 0.038199797
-0.02384387 0.004722485 -0.04923844 -0.049472734 0.055600114 0.023703331 0.01453331 -0.047032826
-0.052345876 -0.040799256 -0.036352575 0.01928088 0.006849991 0.030793242 0.02213068 -0.007656688
0.0014511691 0.03230614 -0.004874975 0.0058940775 0.005830906 -0.010635819 -0.020154163 0.019885225
0.053564038 -0.05008922 -0.0043372232 -0.028534254 -0.007896317 0.022513444 -0.055767357 0.029210247
0.02287958 -0.030715937 -0.036447186 -0.021542165 -0.0039625606 -0.035625387 0.055794887 -0.0039217635
-0.025808819 -0.047348794 0.025130069 -0.033515513 0.020703834 -0.01110755 -0.027330032 0.021513162
-0.06120883 0.038923763 -0.0029328596 0.0072557274 0.035676897 -0.02076504 0.024725849 -0.0012241146
-0.01742328 0.046080824 0.007983214 0.04175614 -0.01766323 0.03016288 0.028658753 0.036043353
0.032717437 0.035213288 0.0009426535 0.005256935 -0.04981036 0.04587978 0.018533258 -0.016258677
-0.05115828 -0.026776575 -0.005161238 0.0307719 -0.0027709785 0.023633977 0.012058866 0.060455658
0.058113165 0.041321006 -0.061558295 -0.023568511 0.026251085 0.04076904 0.041537564 -0.02316739
0.0075664436 0.010177313 0.02706585 -0.047006894 -0.057896182 0.05718595 0.0106238 0.031100282
-0.0477961 -0.006782331 0.024306428 -0.05192482 -0.040926114 -0.0055690263 -0.020298729 0.05601282
-0.05210524 -0.04781101 -0.021118836 -0.017560128 -0.059128504 -0.0024423953 0.00037675563 0.04065452

BN2.weight f4 [128]
00000000: 308b 813f 8a96 7f3f ca55 7e3f 63d5 803f
00000010: 75be 813f 6007 823f da0e 7d3f b59f 843f
00000020: cad4 803f 1bbd 7f3f 061c 7b3f 1bdd 803f
00000030: 8f4f 813f d2a2 7c3f 626a 803f cdac 7c3f
00000040: 6dbc 813f 23b6 823f 8ed4 823f 1247 7f3f
00000050: 491f 803f 1bb3 803f 3fcb 7e3f c154 833f
00000060: 4bcf 7b3f f833 823f d8ca 7e3f ad81 803f
00000070: 7f27 7e3f 3a0d 833f 185b 813f 96e4 863f
00000080: 8553 7c3f b11e 843f 15de 7f3f baae 813f
00000090: e656 803f de25 813f 1e44 803f 3576 7f3f
000000a0: ac36 803f 142a 7a3f b8e5 803f fd3a 813f
000000b0: e0d7 7f3f c4d4 803f 218c 833f 699c 813f
000000c0: 9214 853f e2d3 7f3f f1df 7e3f bb5a 823f
000000d0: e23f 813f 4400 803f 3cbb 7d3f e444 7f3f
000000e0: e6bc 7e3f 4e5f 823f 3782 863f 5b29 803f
000000f0: 6179 813f e7ff 853f d3f7 7d3f b92e 7d3f
00000100: 5cce 7d3f 47a9 843f 337a 7b3f a71e 803f
00000110: e1de 7a3f d03a 803f d19b 7c3f 05f1 833f
00000120: 4702 813f 7e25 7d3f be89 833f 0ea1 823f
00000130: af89 7f3f 1f9b 833f c7d4 843f 11be 803f
00000140: 4e6b 7f3f 8c50 803f de23 843f f900 823f
00000150: 1bfb 7b3f 1940 853f 4c04 833f d1cf 7e3f
00000160: c387 7f3f 989f 813f 9b06 823f 3abe 843f
00000170: e6c2 803f 2652 833f bb81 823f b9fe 7f3f
00000180: 4b87 833f 9ac3 7c3f 0314 853f a7f2 7a3f
00000190: 27b8 823f 0c4b 803f 99a0 813f a7e9 7a3f
000001a0: 4885 803f 35c3 803f cab1 7f3f 977e 803f
000001b0: 6980 7c3f 2833 803f 03b3 803f c94b 7b3f
000001c0: 94ea 813f 180d 813f 24b3 7f3f 1a03 823f
000001d0: bd77 7e3f bf56 813f f03b 813f 9eb1 7f3f
000001e0: 5958 813f 3582 7d3f a512 7e3f cc7b 7c3f
000001f0: abf1 7b3f 2cf1 7d3f f812 823f 8ff0 7f3f
1.0120602 0.9983908 0.99349654 1.006512 1.0136248 1.0158501 0.98850787 1.0361239
1.0064938 0.9989793 0.98089635 1.0067476 1.0102404 0.98685944 1.0032465 0.98701173
1.0135628 1.0211834 1.0221117 0.9971782 1.0009547 1.0054659 0.9952888 1.026024
0.9836318 1.017211 0.99528265 1.0039574 0.99279016 1.0238411 1.0105925 1.0538509
0.9856494 1.0321866 0.99948245 1.0131447 1.0026519 1.0089681 1.0020788 0.99789745
1.0016685 0.97720456 1.0070105 1.0096127 0.99938774 1.0064931 1.0277139 1.0125858
1.0396903 0.9993268 0.9956046 1.0183939 1.009762 1.0000081 0.9911382 0.99714494
0.99506986 1.0185335 1.0508488 1.0012621 1.0115167 1.046872 0.99206275 0.9889942
0.99143004 1.0364159 0.98233336 1.0009354 0.97996336 1.0017948 0.98675257 1.0307928
1.007882 0.98885334 1.027641 1.02054 0.99819463 1.0281714 1.0377434 1.0058004
0.9977311 1.0024581 1.0323446 1.0156547 0.9843003 1.0410186 1.0235686 0.9953585
0.9981653 1.0126829 1.0158266 1.0370553 1.0059478 1.0259445 1.0195841 0.9999805
1.0275663 0.98735964 1.0396732 0.9802651 1.0212449 1.0022902 1.0127136 0.98012775
1.0040674 1.0059572 0.9988066 1.0038632 0.9863344 1.0015612 1.005463 0.98162514
1.0149713 1.0082121 0.9988272 1.0157197 0.99401456 1.0104598 1.0096416 0.998804
1.0105087 0.99026805 0.992472 0.986264 0.9841563 0.99196124 1.0162039 0.9997644
