Trained_Models/BotDetection_v4_MLP___May-10-2024/BotDetection_v4_MLP_epoch21_val_loss_0.492389.pth (torch, 945504 bytes, 45 tensors)

L1.weight f4 [256, 133]
000000 32 5f 1c 3c 55 b9 6e 3d 1f 67 bc 3d 0e d1 d8 bd
       0.009544181 0.058282215 0.09199356 -0.10586749
000010 76 0c c6 3c 69 a4 d5 3c cb 30 0e 3e 0c df 9b bd
       0.024175864 0.026079373 0.138858 -0.07610902
000020 d4 b4 33 3c b7 c3 27 bd bb 6c 94 bc 1d 7c 3a 3d
       0.010968406 -0.040958133 -0.018118253 0.04552852
000030 b3 16 55 bd 50 8e 50 bd 5e 5b 17 be f1 73 67 3d
       -0.0520236 -0.05091697 -0.14780948 0.056507055
000040 47 65 4a 3d f1 83 1d bd b9 5e 9f bb 63 6f 7b bd
       0.04941299 -0.038455907 -0.0048635867 -0.061385524
000050 da 24 4c bd 31 d3 a3 bb b2 3e 61 bd 1b bf 7f 3b
       -0.049839832 -0.004999541 -0.05499143 0.003902382
000060 0a cb 74 3d 3e ed b1 bd e4 7b d2 3b bc 62 5b bd
       0.059763946 -0.086878285 0.0064234603 -0.053560957
000070 64 a7 bd 3c f9 62 2a 3d ee fc 30 bc 2f fa 2c bd
       0.023151107 0.041598294 -0.010802491 -0.04223078
000080 c5 55 ab bd f6 f2 8f bc e0 15 73 bd bf b8 a4 3d
       -0.083659686 -0.017571907 -0.059347034 0.0804305
000090 87 68 16 3d a5 59 ca 3d 43 e8 f4 bc 6f 3f f5 3c
       0.03672078 0.098803796 -0.029895907 0.029937474
0000a0 96 b2 0c 3e 43 d2 97 3c e9 4f 80 3b 70 d1 23 3d
       0.1374 0.018532878 0.003915776 0.039994657
0000b0 76 82 29 3d 42 7d a9 3d dd 68 8b 3b c2 5b 83 3d
       0.041384183 0.08275844 0.004254444 0.06413986
0000c0 3a 76 31 bd c9 2b 8a 3d 95 60 46 3d 7a 10 17 3d
       -0.04332564 0.067466326 0.04843195 0.036880948
0000d0 54 be 92 3d ac b0 d1 3d 1a 01 99 bc 21 00 e8 3c
       0.071652085 0.102387756 -0.018677283 0.028320374
0000e0 53 07 83 bc ce 05 1a 3d b2 37 bc bd ae d3 2b bb
       -0.015994703 0.037603192 -0.091903105 -0.00262187
0000f0 7b ab 98 bd 2f b4 b3 bb ac 81 dd bd 4b c0 fa bc
       -0.07454582 -0.005484126 -0.108157486 -0.03060927
000100 ef 5f 48 3d 8d 07 ed bd 0d 51 f0 bc a1 1c dc 3d
       0.048919614 -0.11573706 -0.029335523 0.10747648
000110 2e 8e c5 bc 5a e6 44 bd ed ac 84 3d f3 af 70 3d
       -0.024115648 -0.048071243 0.064782955 0.05876155
000120 a7 f9 aa 3d 1a 87 ec 3a 2b 97 44 bd db 51 06 bd
       0.08348399 0.0018045634 -0.047995728 -0.032792907
000130 51 b2 a1 bd ee cc d6 3c 3e 76 a3 bc 28 42 1f 3d
       -0.07895339 0.026220765 -0.019953843 0.03888145
000140 db 1c 3c 3d 94 61 5d bd 92 84 df bc 51 42 b6 bc
       0.045925956 -0.054048136 -0.027284894 -0.022248419
000150 be 66 11 3d ea a4 83 3c 03 77 e9 bd 9b fb 37 bd
       0.035498373 0.016069848 -0.11399653 -0.044917684
000160 73 09 ef b9 d1 7f 01 3d 84 39 94 bc 9c 78 05 3e
       -0.00045592673 0.031616036 -0.018093832 0.1303429
000170 7e b1 95 bd 99 27 6b 3d 33 d7 ba bc e8 e0 22 3d
       -0.073092446 0.05741081 -0.022807693 0.03976527
000180 53 c2 99 3d 72 f4 72 bd 71 19 35 bd d7 3b 24 3d
       0.075077675 -0.059315152 -0.044213716 0.04009613
000190 d4 1f 8a 3a cb 7a 0e bd cb 94 af 3d c2 59 a4 bd
       0.001053805 -0.034785073 0.08573302 -0.080249324
0001a0 8e 67 6a bd 93 cf 82 3d 28 54 42 3d f0 d8 bb bc
       -0.057227664 0.06387248 0.04744354 -0.022930592
0001b0 69 c4 25 bd 3c 0e 9d bd 5d d1 1b 3d 2c c8 8b bd
       -0.040470514 -0.076687306 0.03804146 -0.06825289
0001c0 1f 43 76 bd 42 19 7e bb c1 e6 84 3c 0a 0d 2c bd
       -0.060122605 -0.003877238 0.016223313 -0.042004623
0001d0 1d e8 89 3a 9c 75 c3 3d 2a 2e a3 3d d7 57 b1 3d
       0.0010521446 0.095439166 0.079677895 0.08659332
0001e0 ab ed 49 bd 10 1d 71 3d 6c 84 ca 3c be 73 06 3e
       -0.049298923 0.058865607 0.024721347 0.1313009
0001f0 f2 b2 68 bd 68 76 a5 bc 21 d7 82 3d b6 24 99 3d
       -0.05681128 -0.020198062 0.06388689 0.07477705
000200 0f 20 8d bd e4 17 14 bc d1 66 87 3d 79 db 95 3d
       -0.0689088 -0.009038899 0.066114075 0.07317252
000210 3a e0 c2 bd 01 14 df ba a2 36 93 3c 5c 92 65 ba
       -0.09515424 -0.0017019511 0.017970387 -0.0008757466
000220 91 0c 97 3d e7 3d f6 bc 73 cd 40 3b e0 45 6a bd
       0.07375444 -0.030058814 0.0029419332 -0.057195544
000230 fe 97 14 bd 96 d4 5f 3d eb b0 65 bc 28 2b cb bc
       -0.036277764 0.054646097 -0.014019231 -0.024800852
000240 8c 72 9d 3b 36 2b 6f bd f4 71 f7 3c e2 e1 bc 3c
       0.004804915 -0.05839082 0.030205704 0.023056928
000250 65 49 27 3c eb 69 23 bd 2e 10 0a bc 3a 8d b0 bc
       0.01021037 -0.039895933 -0.008426709 -0.021551717
000260 40 25 6d 3d c4 98 d0 bc 27 73 c1 3c 42 ab 83 bd
       0.057896852 -0.02546347 0.02361448 -0.06429149
000270 4b f7 2e bd 24 7d 8d bd a1 fe 88 bc e8 9a ad bd
       -0.042716306 -0.06908634 -0.016722979 -0.08476812
000280 7e 4f 25 3d d9 26 9d bd 65 bf fb bc 92 49 b9 3c
       0.040359013 -0.07673425 -0.030730912 0.022618089
000290 c9 db 28 bd c8 1f 87 3d 26 f5 86 3d 78 76 83 bc
       -0.04122523 0.06597859 0.06589727 -0.016047701
0002a0 0d 5f a9 bc d7 25 ce 3d d7 14 76 3d 68 18 1e 3e
       -0.020675207 0.10065811 0.06007847 0.15438998
0002b0 f7 ea c7 3d 66 ab 82 3c 47 f4 82 bd 7d 35 b2 3c
       0.09761613 0.01595087 -0.063942485 0.02175402
0002c0 65 43 8b 3d 30 68 fe 3d 0a a4 2e bd fc cb 1f 3d
       0.06799964 0.12422216 -0.04263691 0.039012894
0002d0 16 bb 51 3d 23 90 60 3d bf 7f 0c 3d fe 9a 10 bd
       0.05120381 0.05482496 0.034301516 -0.035304062
0002e0 5c 54 01 3c 97 b3 d4 3c c6 df 8a 3d f1 2d 7e 3c
       0.007893648 0.025964541 0.06780963 0.015513883
0002f0 ae d2 32 3c 19 e4 1c 3c de 5b 13 3d 66 1d 96 3d
       0.010914488 0.009575867 0.035976283 0.07329826
000300 d8 5a 2c bc 23 6f 98 3d 3b 3d 93 3d 09 ff 7a 3d
       -0.010519706 0.07443073 0.07189413 0.061278377
000310 1f ba a8 bd 5c 9d d1 3c e8 33 58 3d e6 cd d3 bb
       -0.08238625 0.02558773 0.052783877 -0.006463754
000320 c6 df 75 bb d5 1c 6d bc ae 5c ec bc ee 97 d9 bc
       -0.0037517413 -0.014472206 -0.028852787 -0.026561704
000330 b1 97 d8 3d c2 53 43 bc 94 02 67 bd 3c 50 84 bc
       0.10575808 -0.011921825 -0.056398943 -0.01615154
000340 2d dd 68 3c 81 44 9a 3d 20 52 3f bd da 1a f3 bb
       0.014212889 0.07532597 -0.04670918 -0.0074189724
000350 fd 24 e6 bc 56 a7 ef 3c b9 bc 6f bd ee 8c b5 bd
       -0.02809381 0.029254597 -0.05852959 -0.08864771
000360 11 6f b2 bd 82 9d 97 3d 91 0a 43 bd d7 b7 7b 3d
       -0.087125905 0.07403089 -0.0476175 0.06145462
000370 f4 17 d7 bc a7 e3 44 3d 31 54 d2 bd 86 69 2b 3d
       -0.026256539 0.04806867 -0.102699645 0.041848682
000380 39 a5 9e bd 9d e5 67 bc a0 ae 3e bd 4d 3c 76 3c
       -0.077463575 -0.014153865 -0.046553254 0.015029025
000390 26 5b b7 bd 18 95 d3 bc d4 91 e6 bb bd 3e 31 bd
       -0.08952932 -0.02582793 -0.007036427 -0.043272723
0003a0 87 e1 04 3d 48 16 cb 3d 3c 1f 7e 3d a5 bd e4 3d
       0.032441642 0.09916359 0.062041506 0.11168984
0003b0 17 41 36 3d 3d 98 2a 3d 0c 53 a7 3d 5f 07 81 3d
       0.04449567 0.041649092 0.08170137 0.06300234
0003c0 65 3a 18 bd f5 fd f7 3b e0 2d 5e 3c 1b b9 10 bd
       -0.037165064 0.007568116 0.013560742 -0.03533278
0003d0 66 ee 1a bd 9c 7c 50 3d 08 61 81 bd cc 9e de 3c
       -0.03782501 0.050900087 -0.06317335 0.02717533
0003e0 fd f0 95 bd 0b fa 40 3d 1d 43 b1 3d 14 6b bc 3d
       -0.073213555 0.04711346 0.08655379 0.09200111
0003f0 5e b3 83 bd 1e d5 b6 bd ae 36 7f bd 13 d1 86 bd
       -0.06430696 -0.08927368 -0.062308006 -0.065828465

L1.bias f4 [256]
000000 53 e9 a6 bd 18 74 97 bc da 22 7b 3d 8b 5f 8a bc
       -0.08149972 -0.018487975 0.061312534 -0.016891262
000010 4f 4d b2 bc c9 f4 79 bd a7 ab 05 3d 37 c3 2a 3d
       -0.02176538 -0.06102446 0.032634404 0.041690078
000020 d9 cd 56 bd bc ac 9d bd 87 dc bd bc 18 20 78 3d
       -0.052442405 -0.07698962 -0.023176445 0.060577482
000030 40 e1 83 bd ad 76 12 bd f3 48 ae bd ef 90 21 bc
       -0.064394474 -0.03575771 -0.08510008 -0.009861215
000040 7a cd 97 3c 3d 48 10 3d 02 69 29 bd a9 99 a9 3d
       0.018530596 0.03522514 -0.04135991 0.082812615
000050 55 19 ef 3b 79 80 7d bd 77 9d 8e 3c 93 67 02 3d
       0.007296721 -0.0618901 0.01740907 0.031837057
000060 bc 02 65 3d b3 7e 7b 3d 3c d8 b4 bc bb 56 8e bc
       0.05591081 0.061400127 -0.022075765 -0.01737534
000070 5d 96 31 bd eb f3 10 3d 63 72 87 bd c2 07 be bc
       -0.04335629 0.03538887 -0.066136144 -0.023197059
000080 7c d3 64 bc 6a 6e 91 bd e2 46 09 3d d9 5b a1 3c
       -0.013966437 -0.07101138 0.033514865 0.019697117
000090 31 1f 97 3d db 22 5c bd b5 ce 9f 3d d0 9c 15 3d
       0.07378996 -0.05374418 0.07803098 0.0365265
0000a0 5d c2 db bc 68 48 87 bd 8a a5 a7 bd 30 ee 01 3d
       -0.026826078 -0.06605607 -0.08185871 0.031721294
0000b0 1e ea 2c bd 28 08 cd bc ef 72 0a bd 94 60 85 bc
       -0.04221546 -0.025028303 -0.033801015 -0.016281404
0000c0 3d 54 f3 3b 83 91 98 3d b5 ba 67 3d 2c f2 83 3d
       0.0074258135 0.07449629 0.056574542 0.06442675
0000d0 13 d5 9e 3b 72 59 da bc 66 43 23 bd 4a 7a 4c 3d
       0.004847178 -0.026653979 -0.039859198 0.04992131
0000e0 d4 1b ef bb 32 9e 0a 3d b7 e2 9e bd 78 dc 32 3d
       -0.0072970185 0.033842273 -0.07758086 0.043667287
0000f0 31 a4 39 bd 9a bf 19 bc 62 a5 8e 3d a5 64 58 3d
       -0.0453226 -0.00938406 0.06965138 0.052830357
000100 7f 7e 4d bd 58 93 92 3d 45 c3 8f bd 73 43 22 3d
       -0.050169464 0.0715701 -0.070196666 0.039615106
000110 fb 63 65 3c f8 6d a3 3d 0e 1f 0f 3c 5c b3 99 bc
       0.014000888 0.07979959 0.008735431 -0.018762283
000120 d4 39 97 3d a4 4f 52 bd 94 dc 75 3d 9f b8 05 bd
       0.07384077 -0.051345482 0.060024813 -0.03264677
000130 23 6f 3f bc 97 42 19 bd 8b 61 68 3d a6 d4 5e bd
       -0.011684212 -0.03741702 0.05673365 -0.054402016
000140 4b 8a c9 bc 74 43 c8 3b a8 a2 9d 3d 6a d4 41 bc
       -0.024602076 0.0061115567 0.0769704 -0.011830429
000150 7b fa 17 bd 46 86 21 bc ce 52 a0 3c a3 91 1c bd
       -0.03710411 -0.009858673 0.019570734 -0.038224827
000160 dd 2f b0 3d fd 6e 0f 3d a6 af fb bc 97 89 4f 3d
       0.08602879 0.035017956 -0.030723404 0.050668325
000170 80 56 ce bc b7 7f 9b 3c d2 ba 78 bc c5 27 8a bd
       -0.02518773 0.018981798 -0.01518126 -0.06745867
000180 35 17 94 bd c1 9f 9a bd e7 14 45 bd a2 4a af bb
       -0.07230989 -0.07550002 -0.048115637 -0.005349473
000190 bd b8 38 3c 66 95 6a 3c 29 5a 1f 3d 98 fb af 3b
       0.011274514 0.014317846 0.038904343 0.0053705685
0001a0 ff c8 ac 3d e0 e8 a5 bc a2 3e 95 3c 0e e7 91 3c
       0.084367745 -0.020252645 0.018218342 0.01781037
0001b0 f4 d5 2e 3d 93 af 8d 3d 70 1b 05 3d a2 b4 30 3d
       0.04268451 0.06918254 0.03249687 0.043141015
0001c0 22 31 9d 3d 4a a8 2b 3d d9 4f a1 3d 6e 9d 34 3d
       0.07675387 0.04190854 0.07876558 0.04409545
0001d0 ac 49 2b 3d 61 44 31 bc 1a b0 5c bd 58 8c 9d 3d
       0.041818306 -0.010819525 -0.05387888 0.07692784
0001e0 2e e2 36 3d cd 4e d4 3c 5c a6 0f 3d c6 4f c4 bc
       0.044649296 0.025916481 0.035070762 -0.02396382
0001f0 40 8f 27 bc 60 a9 8d 3d dd 24 b9 3c e2 06 ac bd
       -0.010227025 0.06917071 0.022600586 -0.0839975
000200 99 9a 8f 3d 5a d6 d2 3c 6e e1 2d bd e1 b9 1e bd
       0.07011909 0.025736976 -0.042451315 -0.038751487
000210 a5 3b 84 bd 4a 16 a6 3d 61 05 27 bd e3 e1 1f bd
       -0.06456689 0.0810972 -0.040776614 -0.03903378
000220 af 36 e3 3c 7d ad 0d bd 92 79 3a 3d 49 3d f9 bc
       0.027736036 -0.03458928 0.045526095 -0.03042473
000230 bc 21 aa bc 03 a4 db bc 7a 1e a1 3b ab 02 32 3d
       -0.020768039 -0.026811605 0.004916963 0.043459576
000240 e3 15 5e bc f9 4e 8b 3d df 24 af bd fd ca 87 bd
       -0.013555023 0.06802172 -0.085519545 -0.06630514
000250 42 ea c7 3c af bf d5 bb 30 5f 57 bc 03 7b cb 3c
       0.024403695 -0.0065230946 -0.013145253 0.02483893
000260 ec dd 90 bd d5 32 16 bc 49 f6 7b bd f9 0c 9e 3d
       -0.07073578 -0.009167393 -0.061514173 0.07717318
000270 2f a8 9a 3c 7b 51 53 3d 0a f5 63 bd 3b e2 a9 bc
       0.018879024 0.051591378 -0.05565361 -0.020737758
000280 07 74 3e 3d 07 f7 95 3d e8 3e 94 bd bb 16 c0 bc
       0.04649737 0.07322507 -0.07238561 -0.023448339
000290 a9 40 7e bc 3a 67 a4 3d 2a d3 5b bd 03 11 03 3d
       -0.015518346 0.080275014 -0.05366818 0.031998646
0002a0 88 cf 81 3d 47 46 86 bd 92 0d a7 3d f6 5c ae bd
       0.063384116 -0.06556373 0.08156885 -0.08513825
0002b0 d7 54 82 bd da 91 cd bc df a3 8d 3b 5d 19 4c 3b
       -0.06363838 -0.025093962 0.0043225135 0.0031143047
0002c0 d6 0e 84 3d ac b7 98 3d 06 0e c1 bc fe f7 a4 3c
       0.06448142 0.07456908 -0.023566257 0.020137783
0002d0 2f 23 f9 bc 19 53 c9 3c 03 c4 e8 ba 66 8a 25 3d
       -0.030412285 0.024575757 -0.0017758611 0.04041519
0002e0 92 69 c7 3a 57 58 dc bc 6b c2 17 3d d1 11 80 3d
       0.0015213958 -0.026897592 0.037050646 0.06253398
0002f0 d1 6f 25 bd d1 59 bd 3c 4a f3 d4 38 81 99 cc bc
       -0.04038984 0.023114117 0.00010154264 -0.02497554
000300 2b 53 17 3d d8 5e 4a 3d 0b 69 1f 3d 76 17 97 bd
       0.03694455 0.049406856 0.038918536 -0.07377522
000310 95 6f 00 bd 38 9c 92 3d 78 2d 4b 3d 7f e1 47 3d
       -0.031356413 0.071587026 0.04960391 0.048799034
000320 f0 f6 56 bd 52 c1 fe 3c 9e 92 32 bc 0e 70 09 bd
       -0.05248159 0.031098042 -0.010899214 -0.03355413
000330 4a 81 53 3d e0 85 aa 3d 73 c0 1e 3d 2b dc 81 3d
       0.05163697 0.08326316 0.038757753 0.06340822
000340 48 0a 4b bd 6f 98 2e 3d 99 f8 a3 bd 99 dc aa bc
       -0.04957035 0.04262584 -0.080064006 -0.020857142
000350 10 1a aa bc 16 00 92 bd 41 72 de bc d2 03 86 3d
       -0.02076438 -0.07128923 -0.02715409 0.065436974
000360 21 4d 2e bd 4f 1d 99 3d d1 1e 30 3d a8 02 0f bd
       -0.042554025 0.07476293 0.04299814 -0.034914643
000370 4e be 47 3d 95 01 a5 bd 30 99 14 3d bf 7c 28 bd
       0.048765473 -0.080569424 0.036278903 -0.041134592
000380 bc 2d 8c bd c1 a4 ae 3d db 35 5b bb 5b 58 5a bd
       -0.06844661 0.08527518 -0.0033448848 -0.05330692
000390 91 5d af 3d b2 cd b1 3c e1 bc 56 bc 24 16 06 bd
       0.08562768 0.021704528 -0.013106556 -0.03273596
0003a0 a8 07 a0 3d e4 09 45 3d 90 2f a0 3d 81 46 01 3d
       0.0781396 0.048105136 0.07821572 0.03156138
0003b0 5d 8f 8b 3d ad 2e 5e ba 1a 64 9e 3c 52 d6 b2 3c
       0.06814454 -0.0008475583 0.019334842 0.021830712
0003c0 86 d2 a7 3d 1a 11 85 3d 05 35 54 3d 88 cf aa bd
       0.08194451 0.064974025 0.051808376 -0.08340365
0003d0 3d f1 81 3d 95 de 41 3d 29 97 9d bc b1 6a 82 3c
       0.06344841 0.04733141 -0.019237118 0.015920015
0003e0 cd 55 ae bd f5 1b 46 bd f7 12 89 3d 3b 8d a3 bd
       -0.08512459 -0.048366506 0.066930704 -0.07985922
0003f0 3c 6d 06 3a 85 db 7b 3c 4f 95 86 bb 61 29 4f bd
       0.00051279715 0.015372162 -0.0041071544 -0.05057657

BN1.weight f4 [256]
000000 76 93 7e 3f 44 f3 7d 3f d5 67 7d 3f 25 d1 7b 3f
       0.9944376 0.9919932 0.9898656 0.98366004
000010 ec f9 7d 3f 75 0c 81 3f 94 c6 81 3f bf 10 7f 3f
       0.99209476 1.0081927 1.0138726 0.9963493
000020 96 78 80 3f fd 4f 7f 3f a1 c3 7d 3f 61 33 7c 3f
       1.00368 0.9973143 0.9912663 0.985159
000030 cb 25 7e 3f 69 34 7e 3f 7c a9 81 3f c2 47 81 3f
       0.9927642 0.9929872 1.0129848 1.0100024
000040 a2 46 81 3f 7e 77 7f 3f 83 79 7d 3f c8 66 80 3f
       1.009968 0.99791706 0.9901354 1.0031366
000050 f7 aa 7f 3f 2c 6d 7c 3f f6 3d 84 3f 8e 24 82 3f
       0.99870247 0.98604083 1.0331409 1.0167406
000060 c9 68 82 3f ac 4b 81 3f 06 bf 80 3f ac 3f 80 3f
       1.0188228 1.0101218 1.0058296 1.0019431
000070 fc 6a 83 3f 4b 89 81 3f 9c af 82 3f 95 df 7f 3f
       1.0267024 1.0120023 1.0209842 0.99950534
000080 16 20 83 3f a0 c5 7a 3f ac db 7a 3f 6d 5a 80 3f
       1.0244167 0.979578 0.9799144 1.0027596
000090 eb c7 81 3f 3a d2 82 3f 6e 34 80 3f e0 2b 80 3f
       1.0139135 1.0220406 1.0016 1.001339
0000a0 3a 97 81 3f 93 33 81 3f af 4e 81 3f b8 6e 83 3f
       1.0124276 1.0093864 1.0102137 1.0268164
0000b0 39 ff 7f 3f 5a 94 81 3f cc 7a 80 3f f2 b4 7d 3f
       0.99998814 1.0123398 1.0037475 0.99104226
0000c0 6a ef 82 3f 6d c6 7c 3f 30 42 7c 3f 89 cd 7d 3f
       1.0229313 0.98740274 0.98538494 0.99141747
0000d0 6c c0 79 3f 96 31 81 3f f1 17 80 3f be 47 80 3f
       0.9755924 1.0093257 1.0007306 1.0021894
0000e0 57 77 80 3f 2e 88 81 3f 1c 33 80 3f 5d 63 83 3f
       1.003642 1.0119684 1.0015597 1.0264698
0000f0 d5 23 7f 3f d2 5d 80 3f 1f 45 82 3f 74 84 83 3f
       0.9966405 1.0028632 1.0177344 1.0274796
000100 92 9d 7b 3f 9a 05 7e 3f e2 1a 7e 3f e0 47 81 3f
       0.9828731 0.992273 0.9925977 1.010006
000110 f0 90 80 3f 05 e6 82 3f 73 ad 80 3f 66 ff 7b 3f
       1.0044231 1.0226446 1.0052933 0.9843658
000120 d7 f3 81 3f 2d e0 83 3f 45 fb 80 3f 72 ba 7f 3f
       1.0152539 1.0302788 1.0076681 0.9989387
000130 b3 e4 7f 3f 42 b4 82 3f d3 35 82 3f b0 18 7f 3f
       0.9995834 1.021126 1.0172676 0.99647045
000140 4b 6c 81 3f 13 90 7e 3f 68 77 7f 3f fd 36 7f 3f
       1.0111173 0.9943859 0.99791574 0.9969328
000150 60 11 80 3f d3 75 80 3f f4 9a 80 3f aa 18 81 3f
       1.0005302 1.0035957 1.0047288 1.0085652
000160 cf fb 82 3f 0f 4b 80 3f ff bc 81 3f 3a e8 82 3f
       1.0233096 1.0022906 1.0135802 1.022712
000170 3c 70 80 3f bc 8d 80 3f 46 ac 81 3f 44 b2 81 3f
       1.0034251 1.0043254 1.0130699 1.0132527
000180 32 34 80 3f 31 47 80 3f ad f9 80 3f a8 ae 81 3f
       1.0015929 1.0021726 1.0076195 1.0131426
000190 43 2c 7f 3f 87 fb 7f 3f cb 89 80 3f 9d 59 82 3f
       0.99676913 0.99993175 1.0042051 1.0183598
0001a0 02 ab 81 3f 90 9a 82 3f 7e f3 7c 3f 5a 60 81 3f
       1.0130312 1.0203419 0.9880904 1.0107529
0001b0 fd 10 81 3f 1c 13 83 3f 2c e7 7f 3f b9 7a 81 3f
       1.008331 1.0240207 0.99962115 1.0115577
0001c0 16 7a 7e 3f bd 69 82 3f 7e da 80 3f 5a 78 83 3f
       0.9940504 1.0188519 1.0066679 1.0271103
0001d0 7b d3 83 3f 35 92 80 3f bc 88 7e 3f 3c 11 7e 3f
       1.0298914 1.0044619 0.9942739 0.9924505
0001e0 01 11 80 3f 5b 57 79 3f eb 90 82 3f 70 5b 7f 3f
       1.0005189 0.9739892 1.0200475 0.997489
0001f0 21 5a 80 3f 47 75 7e 3f 50 7a 80 3f 1a 4a 82 3f
       1.0027505 0.993977 1.0037327 1.0178864
000200 04 c1 7e 3f f1 95 7f 3f 64 43 7d 3f d1 70 7f 3f
       0.9951327 0.9983817 0.98930955 0.9978152
000210 8e 60 80 3f 16 16 81 3f e3 27 81 3f 27 d9 82 3f
       1.0029466 1.0084865 1.0090297 1.022252
000220 0d 74 82 3f 1d 66 7d 3f 19 65 80 3f e6 09 7d 3f
       1.0191666 0.9898394 1.0030853 0.9884323
000230 50 87 82 3f 38 9d 7f 3f 3d b9 80 3f f1 61 80 3f
       1.0197544 0.9984927 1.005653 1.0029889
000240 ef 4d 82 3f aa 03 81 3f 54 b0 80 3f d9 c8 82 3f
       1.0180033 1.0079243 1.0053811 1.0217544
000250 bd 18 81 3f bb 9a 80 3f 67 64 82 3f 34 fc 7d 3f
       1.0085675 1.004722 1.018689 0.99212956
000260 96 b2 7f 3f 43 8e 7c 3f c8 52 81 3f 78 ca 7d 3f
       0.99881876 0.98654574 1.0103388 0.9913707
000270 0d ff 7e 3f 0e bb 81 3f 53 b7 7c 3f d2 0f 80 3f
       0.99607927 1.013521 0.9871723 1.0004828
000280 aa 3e 7d 3f b3 18 82 3f 99 3b 7d 3f a4 89 81 3f
       0.9892374 1.0163788 0.98919064 1.012013
000290 36 34 81 3f 6a 9d 7e 3f 85 e7 84 3f d4 ec 7a 3f
       1.0094059 0.99458945 1.0383154 0.9801762
0002a0 a2 bc 81 3f 37 a7 7f 3f 03 19 82 3f cd 9c 7c 3f
       1.0135691 0.99864525 1.0163883 0.9867676
0002b0 ea 9f 80 3f b5 37 80 3f 39 48 7f 3f 5f 59 7f 3f
       1.0048802 1.0017 0.9971958 0.99745744
0002c0 64 45 7e 3f 45 2d 7f 3f 79 6a 7e 3f 72 78 81 3f
       0.9932463 0.9967845 0.99381214 1.0114882
0002d0 95 4f 81 3f fa d1 80 3f f3 6b 81 3f 76 d7 7d 3f
       1.0102412 1.006408 1.0111068 0.9915689
0002e0 f4 51 80 3f 7e 1e 82 3f 03 0b 80 3f ee f2 7c 3f
       1.002501 1.0165555 1.000336 0.9880818
0002f0 8f d3 81 3f b1 3d 81 3f 2d 0c 7f 3f 27 ec 7f 3f
       1.0142688 1.0096952 0.99627954 0.99969715
000300 d8 5b 80 3f 8c 6b 80 3f 30 10 80 3f 29 4f 82 3f
       1.0028028 1.0032821 1.000494 1.0180408
000310 99 a4 84 3f 55 10 81 3f 63 97 82 3f d8 98 80 3f
       1.0362731 1.0083109 1.020245 1.0046644
000320 07 86 80 3f 58 c4 80 3f 08 d5 80 3f ca b8 7c 3f
       1.0040902 1.0059919 1.0065012 0.98719466
000330 72 06 82 3f 99 3f 7d 3f 34 57 7e 3f df cd 7c 3f
       1.0158217 0.9892517 0.9935181 0.98751634
000340 ff c8 7e 3f 68 35 81 3f b9 63 83 3f b4 9e 80 3f
       0.99525446 1.0094423 1.0264808 1.0048432
000350 09 bd 7f 3f 3e 44 80 3f d2 cf 82 3f 3b 9f 7e 3f
       0.9989782 1.0020826 1.0219672 0.99461716
000360 c5 08 81 3f 59 1c 81 3f a6 e4 80 3f 45 66 7d 3f
       1.0080801 1.0086776 1.0069778 0.98984176
000370 87 9a 83 3f 05 0b 7c 3f 07 6b 7f 3f 6e f0 7f 3f
       1.0281533 0.98454314 0.99772686 0.9997624
000380 8c fa 80 3f 0a 64 7e 3f 8c 3b 7f 3f 88 56 7e 3f
       1.0076461 0.993714 0.99700236 0.99350786
000390 8e 71 81 3f 74 a7 83 3f c8 8a 7f 3f 10 ae 81 3f
       1.0112779 1.0285478 0.9982114 1.0131245
0003a0 2c f3 85 3f 37 c5 7d 3f 3e ca 7d 3f bd 33 80 3f
       1.0464835 0.9912905 0.9913672 1.0015789
0003b0 29 9d 84 3f 60 8b 82 3f 10 4a 7f 3f f7 ec 77 3f
       1.0360461 1.0198784 0.99722385 0.96845955
0003c0 16 3f 7c 3f 49 de 7d 3f a6 68 80 3f d4 4a 83 3f
       0.9853376 0.99167305 1.0031936 1.0257211
0003d0 12 fb 7d 3f 28 81 7d 3f 45 80 7e 3f 2a 96 7f 3f
       0.9921123 0.990252 0.99414474 0.9983851
0003e0 0e af 81 3f 77 a5 81 3f 09 f6 7e 3f 98 39 7e 3f
       1.0131547 1.0128621 0.9959417 0.9930663
0003f0 50 0d 7f 3f b7 22 80 3f 70 e0 82 3f 1a e3 83 3f
       0.9962969 1.0010594 1.0224743 1.0303681

BN1.bias f4 [256]
000000 15 8e cf 3c ee a1 d3 bc d6 35 fe bb 56 31 8f 3d
       0.025336305 -0.02583405 -0.0077578826 0.06991832
000010 87 c6 0e 3d fc c5 2f bd 19 15 44 ba e7 34 23 bd
       0.0348573 -0.042913422 -0.00074799504 -0.039845373
000020 2d 01 b8 bc df c6 a0 3c de 46 e1 3c 8f 70 68 3c
       -0.022461498 0.01962608 0.027499612 0.014186992
000030 a0 32 d0 3c 44 5a 3b bd b7 e3 15 bd 85 9f 73 bc
       0.025414765 -0.04574038 -0.03659412 -0.014869575
000040 bb 71 4d bc 1e 79 87 bc 3a 7d ec 3b e6 7f f3 bb
       -0.0125393225 -0.016537245 0.0072170766 -0.007431018
000050 d5 cb 48 3c de 5c cf 3c c9 1e 47 bd a4 85 d2 bc
       0.012255629 0.025312837 -0.048613343 -0.02569849
000060 c2 75 89 bb dc c7 c9 bc c1 76 e0 bc 0a f1 25 3c
       -0.004194946 -0.024631433 -0.027400376 0.010128269
000070 ee 9c 01 bd 92 b5 0f bd e6 73 4a bd 17 2a 7b bb
       -0.0316438 -0.03508527 -0.049426936 -0.0038324648
000080 d9 2f 2a bd dc f2 4c 3d 0b db 32 3c c4 e6 bb 3c
       -0.041549537 0.050036296 0.010916482 0.022937186
000090 4f d1 bd bc 32 80 f0 bc 55 3d ae bc 5e c3 cf bc
       -0.023171095 -0.029358003 -0.02126948 -0.025361713
0000a0 9d 5e 0d bd 72 44 03 bd 9f 55 1c bd cf ff 51 bd
       -0.03451406 -0.032047696 -0.038167592 -0.05126935
0000b0 2e 4c ec 3b fa a7 63 bc ad 84 8d bd 51 66 3b bb
       0.0072112298 -0.013895029 -0.069100715 -0.002859492
0000c0 12 7b 1a bd b6 7c 69 bc 11 91 88 3c bc e5 36 3d
       -0.037715025 -0.014250925 0.016670736 0.044652686
0000d0 85 62 54 3d 41 32 25 bd e2 48 1d 3c b7 cc c0 bc
       0.051851768 -0.04033113 0.009599896 -0.023535116
0000e0 d0 b3 f0 bc 03 16 b5 bc 6e 90 f0 3b 5b 38 1f bd
       -0.029382616 -0.022105223 0.007341436 -0.038872104
0000f0 48 35 b8 3c 46 27 ab bc 3e c5 72 bc 38 55 15 bd
       0.022486344 -0.02089275 -0.014817534 -0.036458224
000100 10 4c 87 3b bc bf 25 3c de 75 07 3d f9 8b fa bc
       0.0041289404 0.010116514 0.03307139 -0.030584322
000110 03 7d 95 3a 50 2c d7 bb 43 b8 15 3d fb 19 27 3d
       0.0011405054 -0.0065665618 0.03655268 0.04079626
000120 a3 ff 82 bc be bd e4 b9 c3 25 f3 3b 14 06 e0 3b
       -0.015991038 -0.00043628918 0.007420273 0.006836662
000130 57 4e 92 bc 7d 2d 5b bd 10 db 66 bd cd 15 91 bb
       -0.017859621 -0.053510178 -0.056361258 -0.0044276477
000140 65 95 80 bc 24 19 ae 3c 6c fe c5 bc 0e 57 35 bd
       -0.015696237 0.021252222 -0.02416917 -0.044272475
000150 78 5e ad bc 17 49 3e 3d 7e d1 8e 3b f2 7b ab 3b
       -0.02116321 0.046456423 0.0043584695 0.0052332813
000160 9b 71 0e bd e6 e3 48 bb 50 12 d2 bc f4 81 37 bd
       -0.03477631 -0.0030653416 -0.025643498 -0.044801667
000170 c9 84 18 bc 8e e9 09 bd ca e9 c7 3a 69 f8 d0 bd
       -0.009309002 -0.03367 0.001525217 -0.102036305
000180 53 c4 a2 3c 12 f7 88 bc 79 78 a7 3c 01 c3 de bd
       0.019869005 -0.016719375 0.020443188 -0.10877038
000190 90 7d 95 bc 13 2f 83 3c 79 bf 8c bd 29 63 30 bd
       -0.01824835 0.016013658 -0.06872458 -0.043063316
0001a0 5b 79 1e bc 6f f7 00 bd c5 c4 bb b9 dd 7a b5 3b
       -0.009672488 -0.03148597 -0.00035814024 0.005538328
0001b0 92 5e 19 bc fd b5 2c bd 01 b8 93 bc 01 c2 f4 bc
       -0.009360926 -0.042165745 -0.018032076 -0.029877665
0001c0 b8 ac 55 bc 5c 74 21 bb 90 28 8c bc 53 d1 7d bd
       -0.013041668 -0.0024636006 -0.017109185 -0.061967205
0001d0 75 e4 33 bc ca 21 94 bc ab cc 23 bd a6 82 80 3d
       -0.010979761 -0.018082518 -0.03999011 0.06274919
0001e0 52 e4 8b 3c d0 b8 13 39 b3 03 79 bd 1c 5b 60 3b
       0.017076645 0.0001408786 -0.060794543 0.0034233993
0001f0 3f 51 28 bc 04 6c 26 3d 66 7e 96 bc ef 00 85 bd
       -0.010273277 0.040630355 -0.018370818 -0.06494319
000200 1e 60 5f 3c 4b 34 a7 3b 4b 5a f0 b9 1b 8e 15 3d
       0.013633756 0.0051026694 -0.0004584364 0.036512475
000210 04 18 f4 3c 57 7f 82 bc 17 bf 42 bc cd ae 84 bd
       0.029796608 -0.015929861 -0.01188638 -0.06478653
000220 8d eb 60 bd 3b 2d cc 3a 6f 5d b0 bc a2 b9 80 3c
       -0.05491214 0.0015577445 -0.021528928 0.015713517
000230 ef a1 42 bd 4d fe 61 3c 7f a7 08 bd 25 16 83 bd
       -0.047517713 0.01379354 -0.03336286 -0.06400708
000240 a0 77 e8 3a 19 0c 29 bd b7 1b 25 39 d3 86 5a bd
       0.0017735846 -0.041271303 0.00015745951 -0.053351235
000250 c9 27 00 bd 51 a9 6a 3b 74 aa 1a bd 6e 5b ab bb
       -0.031287942 0.0035806487 -0.037760213 -0.005229405
000260 58 0c e4 bc 4d 8d 1b 3d 65 9f b6 bc 69 34 d8 3b
       -0.027837917 0.03797655 -0.022292802 0.0065980447
000270 d4 e5 a4 bb b9 ee 2f bc 4c 97 a3 bc 9c e3 ab bc
       -0.0050322805 -0.010738068 -0.019969605 -0.020982556
000280 a3 0f 23 bb b1 9a 42 bd d3 a6 04 3d 70 65 9f bb
       -0.0024881146 -0.047510806 0.03238566 -0.004864387
000290 99 a5 18 bd 75 90 b8 bc dc a1 33 bd d4 27 03 bc
       -0.0372673 -0.02252982 -0.043855533 -0.008005101
0002a0 c1 70 c6 ba 64 0b 52 bc 14 ba a4 3c 88 f8 21 bb
       -0.0015139804 -0.012820099 0.02010826 -0.0024714787
0002b0 3f 12 d9 bc 07 1c ab bc ac 3f 56 3c 2b 4a 2f 3d
       -0.026497958 -0.020887388 0.013076704 0.04279534
0002c0 0a b8 99 3c 37 d5 63 bd 0b 74 4c bc af 2c 83 b9
       0.018764514 -0.05562326 -0.012478839 -0.0002501956
0002d0 04 83 8f ba 85 35 60 bc 50 1b 72 bd 5c b1 6c 3d
       -0.001094908 -0.013684635 -0.05910808 0.05778633
0002e0 60 d2 ef 3b 79 3a 08 bd a0 eb 39 3b 25 4c 31 3b
       0.00731878 -0.03325889 0.0028369203 0.0027053442
0002f0 ed 71 d0 bc a8 3a 90 bb c8 7d 4c 3c 1b 04 02 3b
       -0.025444949 -0.0044015236 0.01248116 0.0019838873
000300 61 73 a6 bc 8e 2f 5b 3c ee 1c ca 3b d1 bf c3 bc
       -0.020318689 0.013378037 0.0061679995 -0.023895176
000310 e5 e6 43 bd 2b de b0 bd 6a 39 bf bd 33 d5 94 bc
       -0.04782762 -0.08636125 -0.09337123 -0.018168068
000320 7b b5 28 bb 4a 28 11 bd 85 86 32 bd 4c 3a d9 3b
       -0.0025742936 -0.035438813 -0.04358532 0.006629264
000330 e0 e4 20 bd c6 17 4a bc 4b 63 a4 3c 5f 8a ce bb
       -0.039280772 -0.01233477 0.020066878 -0.006303116
000340 0c a2 87 39 81 83 d5 3b 77 c5 8e bd be b0 ae bc
       0.0002586994 0.0065159206 -0.06971257 -0.021324512
000350 62 5c c6 bc 2d ca 04 bd 07 4b 46 bd e7 11 1d bc
       -0.024213973 -0.032419372 -0.048411395 -0.009586788
000360 b5 03 9e bc f5 c7 01 bd 5c a7 52 bd ef 35 e2 3c
       -0.019288877 -0.031684835 -0.051429138 0.027613608
000370 db a0 19 bd ce be 00 bc 77 e1 41 3c 0c f8 1b bd
       -0.03750692 -0.007857991 0.01183354 -0.038078353
000380 11 d0 31 bd 16 52 1a 3d 5a 8d 95 bc cc ca b3 3b
       -0.04341132 0.03767594 -0.018255878 0.0054868218
000390 30 fd 89 bc 99 39 93 bd 2b 52 fe bc b5 06 ae bc
       -0.016844362 -0.0718872 -0.03104504 -0.021243433
0003a0 2c 53 e5 bc 8a 71 af 3b 85 5e 3d 3c 03 20 0e bd
       -0.027993761 0.005354111 0.01155818 -0.034698498
0003b0 39 02 c0 bc 9e c6 0f bd 34 0f 90 bc 41 9c 8f ba
       -0.02343856 -0.035101525 -0.017585374 -0.0010956601
0003c0 84 db 01 3d 7e 8e 37 3c 75 55 cc bc c2 31 c0 bc
       0.031703487 0.011203406 -0.024943093 -0.023461226
0003d0 67 97 92 bb 53 5c fd ba e4 47 09 bd 19 be 3a bc
       -0.004473615 -0.0019329883 -0.033515826 -0.011397862
0003e0 ec 25 6b bd c0 12 35 bd b6 db f5 3c ee d9 1e bc
       -0.057409212 -0.044207335 0.030011993 -0.009695513
0003f0 96 8a 16 bd 1d 42 a3 bc e5 3b dd bc ad b6 9c bc
       -0.03675326 -0.019928986 -0.027006099 -0.019130075

BN1.running_mean f4 [256]
000000 80 2c 31 c1 e7 55 9b 40 34 64 c0 40 33 a7 d3 40
       -11.073364 4.854236 6.012232 6.61416
000010 1a 37 0a c1 e9 18 0b 41 d8 9d c1 41 31 06 44 41
       -8.638453 8.693582 24.202072 12.251512
000020 90 65 0d 41 b9 a5 04 c0 94 f6 98 40 be f5 94 41
       8.837296 -2.072615 4.7801 18.619991
000030 0c 84 08 41 04 7f a3 c0 d9 f2 4a bf aa 89 10 40
       8.532238 -5.109255 -0.79276806 2.2584023
000040 c7 a8 6d 41 4b 2c 31 c1 b6 24 35 41 f4 7f 46 41
       14.853705 -11.073314 11.321463 12.406239
000050 dc bb 25 c0 20 01 3a 41 93 29 26 40 84 86 c1 40
       -2.589591 11.625275 2.5962875 6.0476704
000060 0a 33 e1 bf 9c 3f 2e 3f 47 36 d3 c0 6c 26 d0 40
       -1.7593701 0.6806581 -6.6003757 6.50469
000070 8c c6 8e c0 c0 f3 75 bf 6f 06 9e 40 64 d4 ad c0
       -4.4617367 -0.9607506 4.9382854 -5.4321766
000080 61 b6 f1 40 00 1f c5 be 20 9e 08 41 6e 7e 1c c1
       7.553513 -0.38500214 8.538605 -9.780867
000090 dd 65 21 c1 a2 12 69 40 fc 7d 76 3f 7f 70 83 c0
       -10.087369 3.6417623 0.96285987 -4.1074824
0000a0 90 cf 40 41 d5 80 7c 41 d8 81 bd 40 c6 93 0c 40
       12.050674 15.781453 5.9221 2.1965194
0000b0 31 03 eb c0 d6 b4 88 3f 8a e2 3d 41 79 03 a9 3f
       -7.3441396 1.0680187 11.867807 1.3204185
0000c0 5d e9 24 c1 cd ca c3 c0 3d 59 e5 c0 ea 28 e0 c0
       -10.306973 -6.118506 -7.1671433 -7.0049944
0000d0 1b 2a d0 40 68 37 7c c1 df 5c 7e 40 00 c6 77 40
       6.50514 -15.763527 3.9744184 3.87146
0000e0 99 ed 42 c0 11 76 ea 40 41 2a 1b c1 f7 dc d1 40
       -3.0457518 7.3269124 -9.697816 6.5582232
0000f0 f2 f1 38 40 08 78 7b c1 e3 5f 2f 40 4c f5 87 c0
       2.8897672 -15.7168045 2.7402275 -4.2486935
000100 a6 13 b1 be ab ff 28 c0 0d ef 57 41 fa b4 9d 40
       -0.34585303 -2.6406047 13.495862 4.928342
000110 ad 64 3b c1 5b 90 bd 3f e4 1c 02 c0 c4 c4 0c c1
       -11.712079 1.4809679 -2.0330133 -8.7980385
000120 3a 29 2c c0 2b 63 1b 41 71 6b 56 c1 44 43 10 41
       -2.6900163 9.711711 -13.401231 9.016422
000130 a3 a7 01 41 be 44 b4 c0 f5 92 f8 40 26 5d 91 c0
       8.103427 -5.6333914 7.767939 -4.5426207
000140 ce 51 2c 40 05 45 98 be c8 0c ba 40 3a 70 25 41
       2.692493 -0.29740158 5.81406 10.339899
000150 46 87 8c c0 46 0c 81 be 97 42 36 c1 d9 6e 27 40
       -4.391513 -0.25204676 -11.391257 2.6161406
000160 18 fc 82 bf 34 c5 8f 40 7f 07 83 40 cf c3 34 41
       -1.0233183 4.4928226 4.094665 11.297805
000170 a6 f0 8b 3f 44 85 ef c0 eb 32 20 bf 4e da b1 40
       1.0932815 -7.485018 -0.62577695 5.5578985
000180 4a 30 9b 40 b7 c7 ec bb ae 14 3f c1 0e b5 bf c0
       4.8496447 -0.0072259563 -11.942549 -5.9908514
000190 75 d8 c5 40 8e a7 cb bf cd 1c a6 40 92 0a 8b 40
       6.182673 -1.5910509 5.1910157 4.3450403
0001a0 dc 95 82 41 33 ea 97 bf 20 2e 04 c1 5d 6e d0 c0
       16.323174 -1.1868347 -8.261261 -6.513472
0001b0 13 8c 93 bf b5 32 10 41 49 cc 43 c1 a3 f7 ce c0
       -1.1527122 9.01238 -12.237374 -6.467729
0001c0 cc 3f 06 41 33 ca 74 c1 a1 dc 64 40 cd c3 00 41
       8.390575 -15.299365 3.5759661 8.047803
0001d0 01 69 1d c1 e2 56 53 c1 d4 43 12 40 d2 16 28 c1
       -9.838136 -13.208712 2.28539 -10.505571
0001e0 29 b8 02 c1 7e 74 78 c1 3f f7 98 40 53 18 a7 c0
       -8.169961 -15.52844 4.7801814 -5.2217193
0001f0 73 ce f3 3f 1a 43 eb c0 ea 42 b4 c0 e9 cf aa bd
       1.9047378 -7.351941 -5.633168 -0.08340437
000200 8e 6e b9 c0 c3 cc 37 c1 f4 94 fc bf 68 d8 3b c1
       -5.7947454 -11.487491 -1.9732957 -11.740334
000210 84 cf 70 3f f3 90 bf bf 50 2c 28 3f 2f c3 22 41
       0.94066644 -1.496611 0.65692616 10.172652
000220 eb 2c a1 be 9c c2 49 bf 5b 4d 95 40 f4 1c 76 41
       -0.31479582 -0.78812575 4.665693 15.382069
000230 5e 85 cc c0 49 ac 2a c1 f4 78 9f 40 63 de 32 41
       -6.39128 -10.667062 4.983515 11.179294
000240 80 42 1e 3f b0 d9 81 3f b0 b9 19 c1 c9 ad 44 3f
       0.6182022 1.0144558 -9.607834 0.76827675
000250 75 68 f0 bf c5 83 78 40 1e 97 c7 bf 8b 77 49 c0
       -1.8781878 3.8830426 -1.5592992 -3.1479213
000260 bd b4 06 c1 eb 83 24 41 e5 ba a8 bf ba 3f 06 c1
       -8.419126 10.282207 -1.3182036 -8.390558
000270 2a 7b 5e c0 87 54 7c c1 54 8a 47 c1 83 49 35 41
       -3.4762673 -15.770637 -12.4712715 11.330447
000280 47 c0 11 c0 48 68 98 3d a9 9f 28 c1 db 9a 2c 41
       -2.2773607 0.07441765 -10.53898 10.7878065
000290 1d 01 4d c1 8e 47 0a c1 7c 39 24 3d 1d 21 86 41
       -12.812772 -8.642469 0.040093884 16.766169
0002a0 3f 7b 94 c1 98 ad 2a c0 fc 32 89 bf 74 d0 49 41
       -18.560179 -2.6668453 -1.0718684 12.613392
0002b0 83 3f 72 41 94 8b 1b 40 b4 9f 02 bf dc 17 ac c0
       15.140506 2.4303942 -0.5102494 -5.3779125
0002c0 43 ee 48 bf 41 35 16 41 f9 b8 86 40 8d b4 89 c1
       -0.7848856 9.388001 4.2100797 -17.21316
0002d0 e9 3e 19 c1 6c d9 a8 bf 0a 3c 44 41 eb 41 73 41
       -9.577859 -1.3191352 12.264658 15.203593
0002e0 01 8a 96 40 67 7d 08 c1 57 2a 14 41 78 dd b3 40
       4.704346 -8.530616 9.260337 5.6207848
0002f0 48 69 d8 3f a8 6f 41 40 c1 2e e3 40 87 a1 c5 c0
       1.6907129 3.02244 7.0994573 -6.1759677
000300 a1 7c 08 c1 51 99 3b 40 59 57 5f 40 00 75 ff c0
       -8.530427 2.9312327 3.4897063 -7.983032
000310 2a 18 90 3f e9 37 27 c1 f9 a6 94 41 de 66 71 c0
       1.1257374 -10.45115 18.58153 -3.7719035
000320 70 cd 53 c1 4b 0c 1f c1 7b 37 7b 40 9c b8 db c0
       -13.237656 -9.940501 3.9252613 -6.8662853
000330 3f 8d 0b c1 34 b2 63 41 20 88 58 41 27 23 52 c1
       -8.721984 14.231007 13.533234 -13.133582
000340 3a 04 a0 40 47 1c 6a 3e ef 26 33 c1 64 bc 42 40
       5.000516 0.2286235 -11.197005 3.0427485
000350 74 b3 63 40 50 6c c7 c0 20 9c 82 bf 23 13 23 40
       3.557828 -6.2319717 -1.0203896 2.548043
000360 3c 03 4c 40 a5 05 27 c0 f4 e3 b6 3e 1d e2 59 c0
       3.1876974 -2.6097195 0.3572079 -3.4044259
000370 99 1d b0 c0 9b 81 61 c1 f4 25 16 c0 38 44 99 3f
       -5.503613 -14.094142 -2.3460665 1.1973944
000380 b9 99 ad c0 11 b7 e1 3f bb 5c 64 c0 09 d9 23 c1
       -5.425015 1.7633992 -3.5681598 -10.240487
000390 e2 84 01 40 dd 35 08 c1 64 5d ed 40 af b5 02 40
       2.0237355 -8.51315 7.41765 2.042339
0003a0 7d 25 3d 40 e7 ec 6e c1 72 94 21 3f 2d 7d 9b 3f
       2.955413 -14.9328375 0.63117135 1.2147576
0003b0 67 20 fd c0 51 04 75 40 7c 49 7d c0 97 4f ae 41
       -7.9102054 3.8283885 -3.9576101 21.788862
0003c0 63 3c 26 c0 ff b0 f0 40 10 6c ee bf 25 c3 f1 40
       -2.5974357 7.521606 -1.8626728 7.5550714
0003d0 59 2c 96 40 15 cb 4e 3f fa 3b 0c c1 a5 e1 8d c0
       4.6929135 0.8077863 -8.764643 -4.4337945
0003e0 46 4b 98 c1 d6 91 d3 40 b1 cf 89 41 0d 03 ab c0
       -19.036755 6.6115522 17.226412 -5.3441224
0003f0 c7 84 1b c1 23 38 af c0 4a 09 00 41 f9 e6 00 c1
       -9.719916 -5.4756026 8.002268 -8.05639

BN1.running_var f4 [256]
000000 5d 15 87 42 c5 b5 30 42 b6 39 0d 43 37 f3 be 42
       67.541725 44.17751 141.22543 95.47503
000010 82 f0 26 43 63 d7 44 43 a7 0b 0e 43 6e 94 cf 42
       166.93948 196.84135 142.04552 103.7899
000020 f3 96 0c 43 d8 c0 02 43 6d 72 1f 43 7c 29 48 43
       140.58965 130.7533 159.44698 200.16205
000030 65 42 ab 42 a8 f2 d4 42 1c 11 8d 42 e6 90 17 43
       85.62968 106.47394 70.53342 151.56601
000040 f5 3a ee 42 7a 2a ae 42 db b4 74 42 e3 2c 0b 43
       119.11515 87.08296 61.176617 139.17534
000050 31 b4 da 42 ee a6 21 42 b0 e7 d8 41 f7 63 8b 42
       109.35194 40.413017 27.113129 69.695244
000060 4d c8 39 42 a8 69 cd 42 2b 29 61 42 13 50 7b 42
       46.445606 102.70636 56.290203 62.828197
000070 0f da 53 42 93 be 58 43 e1 08 7d 42 d8 57 f2 42
       52.962948 216.74443 63.25867 121.17157
000080 9c 81 ab 42 ea 4f c1 42 f8 bd 00 43 13 fe 62 42
       85.75314 96.65608 128.74207 56.74812
000090 58 19 73 42 1d 01 b6 42 88 22 0f 43 06 06 34 42
       60.77475 91.002174 143.13489 45.005882
0000a0 7b 86 6b 43 c2 0b 80 42 bb 70 93 42 1d cc 9d 42
       235.52531 64.022964 73.72018 78.89866
0000b0 65 92 79 43 21 e7 0d 43 f8 5b ac 42 a0 7f 1b 42
       249.57185 141.90285 86.17963 38.874634
0000c0 5a cc 05 43 97 e1 a4 42 cd b4 04 43 b7 02 c6 42
       133.79825 82.440605 132.70625 99.0053
0000d0 fc 42 70 42 38 5c 05 43 08 95 84 42 32 61 c9 42
       60.065414 133.36023 66.29108 100.689835
0000e0 37 f7 8c 42 61 1c cd 42 7f f3 71 42 1a 09 c0 41
       70.48284 102.55543 60.48779 24.004444
0000f0 2a df 68 42 2c bd a4 42 3b d3 7e 42 8b ac a6 42
       58.217934 82.36948 63.70628 83.337
000100 8f 6c 45 43 01 a4 58 42 df 89 ae 42 5f c0 99 42
       197.42406 54.16016 87.26928 76.875725
000110 93 23 07 43 39 2e ee 42 bb 09 e3 42 98 b3 9a 42
       135.13896 119.09028 113.519005 77.35077
000120 65 d3 99 42 63 1d 5f 42 67 aa c5 42 a9 8f 30 42
       76.91288 55.778698 98.83282 44.140293
000130 5a cc 91 42 73 d9 2a 42 d4 2e b8 42 e9 54 2e 42
       72.899124 42.712353 92.09146 43.58292
000140 1d ae 0d 42 32 ad ac 42 fd b4 8b 42 ac 2b 8b 43
       35.420033 86.33827 69.85349 278.3412
000150 32 a5 87 42 58 50 22 42 00 d1 08 43 0e 55 3b 42
       67.82265 40.57846 136.8164 46.83306
000160 22 01 68 42 9d bf d5 42 6d 31 dc 42 d6 1a 43 42
       58.001106 106.874245 110.096535 48.776207
000170 eb eb 5f 42 4d 08 8f 42 f1 98 a9 42 c8 1a 7f 42
       55.98039 71.51621 84.79871 63.776154
000180 4c 0d e6 42 7f c0 26 42 70 b5 a2 42 ba a6 f2 42
       115.02597 41.687984 81.35437 121.32564
000190 b2 00 08 43 11 e3 0b 43 cd 8f 0e 42 4b 25 3d 43
       136.00272 139.88698 35.64043 189.14568
0001a0 cf 05 94 42 ff 4a 42 42 02 f0 80 42 56 3d 9e 42
       74.011345 48.57324 64.468765 79.1198
0001b0 57 b2 74 42 2a 06 b2 42 aa 36 13 43 3a 9c c4 42
       61.17416 89.01204 147.21353 98.30513
0001c0 5e 74 5c 42 b7 66 ab 42 43 b8 8c 42 68 86 2f 42
       55.11364 85.700615 70.359886 43.881256
0001d0 a2 d5 34 42 21 20 a8 42 fe b1 b1 42 8d fb 5c 42
       45.208626 84.06275 88.84764 55.245655
0001e0 b1 cc e6 42 a3 06 e0 42 fb 61 bc 42 ab cb 1d 43
       115.39979 112.01296 94.19137 157.79558
0001f0 d6 b0 8b 42 7b 71 1e 43 69 e8 14 42 c8 da 68 42
       69.84538 158.44328 37.226963 58.213654
000200 a6 5d 04 43 fc 68 93 42 c7 c2 c9 42 65 0b db 42
       132.36581 73.70505 100.880424 109.522255
000210 91 71 68 43 77 cf 70 42 0c e3 11 43 e6 30 93 42
       232.44362 60.202602 145.8869 73.595505
000220 2a 83 bc 42 1e f8 70 42 4b b4 97 42 a5 08 fa 42
       94.25618 60.242302 75.852135 125.016884
000230 5e d4 1a 42 ad dc 9b 42 cd 2a 51 42 1b 75 08 43
       38.70739 77.93101 52.291798 136.45744
000240 98 da a2 41 20 f3 cb 42 58 2d 97 42 ea c9 0b 43
       20.356735 101.97485 75.58856 139.78873
000250 14 dc 54 42 4d 68 a5 42 ac b3 8c 42 79 0f 31 43
       53.21492 82.70371 70.35092 177.06044
000260 05 8c 2b 42 19 37 25 43 58 ec 13 42 bb bf 6b 42
       42.886738 165.21523 36.980804 58.937237
000270 74 72 5f 42 be 7d a7 42 64 61 b0 42 b9 c9 2e 43
       55.86177 83.74559 88.190216 174.78798
000280 89 f4 0e 42 66 b6 f3 42 63 42 d0 42 d8 4a 16 43
       35.738804 121.85625 104.12966 150.29236
000290 18 16 88 42 ea e7 f8 42 37 92 22 42 46 43 9f 42
       68.04315 124.45296 40.642788 79.63139
0002a0 cb f9 02 43 33 2f 89 42 1e 76 27 42 10 30 d5 42
       130.97575 68.592186 41.86535 106.59387
0002b0 1e a1 97 42 fb 3f bf 42 5e 33 90 42 56 53 15 42
       75.81468 95.62496 72.10033 37.331383
0002c0 c3 90 9c 42 db 76 9c 42 10 ad 19 43 81 c8 22 43
       78.28274 78.23214 153.67603 162.78322
0002d0 76 bb 6c 42 87 9f 32 42 58 94 8a 42 49 46 73 42
       59.183067 44.65579 69.289734 60.818638
0002e0 9e e3 3e 42 d1 ca a6 42 5c 0c d0 42 b1 b5 0b 42
       47.722282 83.396126 104.02414 34.927433
0002f0 8c 2b 2f 42 c0 4a 75 42 f1 68 b3 42 d8 3e 83 42
       43.792526 61.322998 89.70496 65.62274
000300 9e 96 34 43 49 57 c9 42 d8 a7 bc 42 ce dd 0e 43
       180.58835 100.67048 94.32782 142.86642
000310 29 87 33 42 e8 df 81 42 e7 91 f2 42 8c 80 5f 42
       44.881992 64.93732 121.284966 55.875534
000320 69 4c a5 42 bf 76 1e 43 66 33 6d 42 9a bf bf 42
       82.64924 158.46385 59.300194 95.87422
000330 cd a0 de 42 02 c5 0a 43 96 8f d7 42 ee b5 71 42
       111.314064 138.76956 107.78044 60.427666
000340 c2 c3 ac 42 77 24 a2 42 5f 5e 79 42 48 03 b3 42
       86.38234 81.07122 62.34216 89.50641
000350 8a ca fc 42 3e 52 79 42 d5 1d 37 42 c5 a9 b0 42
       126.395584 62.330315 45.779133 88.33158
000360 6b 36 bc 42 88 02 f8 42 40 de 10 42 a4 f1 89 42
       94.106285 124.004944 36.21704 68.971954
000370 f5 dd a4 42 22 5d be 42 2e 1b 66 43 b2 a7 3a 42
       82.43351 95.1819 230.10617 46.663765
000380 ec 31 02 43 7c 44 65 42 f8 0c 9a 42 23 ae de 42
       130.195 57.31688 77.02533 111.34011
000390 5a 63 2e 43 93 0d 97 42 02 5e 4b 43 8c c7 4b 42
       174.38809 75.52651 203.36722 50.94487
0003a0 ed 1a 68 42 e7 72 9e 42 94 0d b9 42 ae dd 95 42
       58.026295 79.22442 92.52652 74.93297
0003b0 c0 4e a2 42 b0 99 12 42 5d 00 b5 42 8a 99 14 43
       81.15381 36.650085 90.50071 148.59976
0003c0 c7 68 6a 42 93 c9 2c 43 64 ce d3 42 12 02 3e 42
       58.60232 172.7874 105.90311 47.50202
0003d0 bb ba e5 42 eb 56 a0 42 e8 3d c2 42 51 2c 31 43
       114.86471 80.16976 97.12091 177.17311
0003e0 7d c8 45 43 6d 23 19 43 b8 73 07 43 6c 49 8c 42
       197.78316 153.13838 135.45203 70.1434
0003f0 a6 db c5 42 7c d9 c6 42 64 95 25 42 e3 bf 13 43
       98.929 99.424774 41.39589 147.74956

L2.weight f4 [128, 256]
000000 1e dc 9e 3c 92 2a e2 bc d1 bb 7f 3c fa 16 88 3b
       0.01939207 -0.02760819 0.015608744 0.0041531296
000010 6f 3a e4 bc ed 22 37 3d 24 79 a5 3a 85 a4 d2 3c
       -0.027859895 0.044711042 0.0012624604 0.025713215
000020 8b f5 26 bd c0 10 27 bc bf bb 3f bd a4 cd 64 bd
       -0.04076151 -0.010196865 -0.046809908 -0.055860177
000030 80 7f 35 3d 59 d1 4c 3d 03 12 a9 3c 25 3c 8e 3c
       0.044311047 0.050004337 0.020638471 0.017362664
000040 b9 2e 05 3d 86 2f 9a 3a f3 f2 ea 3c 83 d7 ad 3b
       0.03251526 0.0011763431 0.0286803 0.005305232
000050 0c b3 29 3c 2a 4d 49 bc 80 3a 38 3c a7 e9 30 3d
       0.0103576295 -0.012286464 0.011244416 0.04319158
000060 e0 49 5f 3c ed 89 db bb 10 6d 49 3d 9f 21 06 bd
       0.013628453 -0.0066997916 0.049176276 -0.032746907
000070 af d5 1a bd 94 50 06 bd 1e aa b2 bb ad 53 ae 3c
       -0.03780144 -0.03279169 -0.0054524085 0.021280134
000080 1e b3 13 3d 51 7c 36 3d 13 d9 a2 bb ff 97 5b 3d
       0.03605949 0.04455215 -0.004969725 0.05361175
000090 97 28 19 3d 7c 0c 4c 3b b8 85 99 3c 65 f5 cc bc
       0.037392225 0.003113537 0.01874052 -0.025019357
0000a0 23 13 89 3d c6 a1 c7 3b f9 7b b5 3b e9 bd 2d 3c
       0.06693103 0.006092283 0.0055384603 0.01060436
0000b0 42 7e 75 bc 66 f3 b3 3c 42 43 57 bd c0 a0 00 3b
       -0.0149837155 0.021966647 -0.052554376 0.0019627064
0000c0 f1 d5 de 3c 5a 69 0d bd 0d 6c 9e bb 93 a1 07 bd
       0.027201625 -0.0345243 -0.004834658 -0.033113074
0000d0 f6 c3 45 bd 70 76 45 3d 33 77 0a 3d d6 cd 8c 3d
       -0.048282586 0.048208654 0.033805083 0.068751976
0000e0 b7 fc f0 3b e9 35 44 bc 14 81 43 3d fc 59 be 3c
       0.0073543447 -0.011975744 0.04773052 0.023236267
0000f0 4c f2 2f 3c 72 1e 3e bd ad 13 63 3d 2c b3 fb 3c
       0.01073892 -0.046415754 0.055438686 0.030725084
000100 e0 b7 8e 3c a5 06 91 3d 46 c8 2c 3d 2c 91 37 3d
       0.017421663 0.070813455 0.042183183 0.04481618
000110 ab f4 40 bd 10 dc 99 3d f9 52 28 bd 8b b8 00 3d
       -0.047108334 0.07512677 -0.041094754 0.031425994
000120 01 b8 29 bd cf 2a 16 bd cf ec 0d 3c 41 2c d6 bc
       -0.041435245 -0.03666192 0.008662417 -0.026144149
000130 4b 6a 87 3d a4 77 6d 3d 68 4c 95 bc 03 57 6c bd
       0.06612071 0.057975426 -0.01822491 -0.05770017
000140 65 64 52 3d 4f 31 c5 bc e0 86 5c 3d 0c 78 12 bc
       0.051365275 -0.024071364 0.053839564 -0.008939754
000150 2b 98 ca ba a5 c0 b9 3c d9 1f 20 bc 8b b5 18 3c
       -0.0015456727 0.022674868 -0.009773218 0.009320627
000160 cd bf 87 bc 8b 43 55 3d 17 bb 67 3c 56 5e 6f bd
       -0.01657095 0.052066367 0.014143727 -0.058439575
000170 c8 f4 b0 bc ec 58 77 bd 49 86 2d 3d 0e 25 57 3c
       -0.021601096 -0.060387537 0.042364392 0.013131393
000180 f4 5a bd 3b e9 19 0e 3b a0 33 3d bd 46 d6 4a bc
       0.0057786647 0.0021682924 -0.04619181 -0.012380188
000190 5a 74 58 3d 43 12 61 bd 3f 50 4c bd a5 00 77 3d
       0.052845336 -0.054949056 -0.049881216 0.06030335
0001a0 ef 79 61 bb cb ea 82 3d e8 98 11 3c 6f 51 3b 3c
       -0.0034404953 0.063924395 0.008886553 0.0114329895
0001b0 0f bf bd 3c 9f f3 58 bd f4 3d 72 3d 82 02 5e 3d
       0.023162393 -0.05296671 0.059141114 0.05420161
0001c0 12 68 41 3c 89 e0 39 bd 1b 36 7e bd 4d 0a 7a bd
       0.011804597 -0.04538015 -0.062063318 -0.06104498
0001d0 63 7b 66 3d 5b 10 45 bd 04 0e 1a bc b2 22 8f 3c
       0.056270014 -0.0481113 -0.009402756 0.017472599
0001e0 7a de 21 bd 27 0a 2e bd 3c 47 82 3d 33 e2 eb 3c
       -0.03951881 -0.04249015 0.06361243 0.028794384
0001f0 ea 57 53 bd ce f5 cc 3c 43 0d bd 3c 6d c8 b7 ba
       -0.051597513 0.025019553 0.023077613 -0.0014021524
000200 f1 f7 33 bd c2 44 05 3d 0c 66 d5 bb 3f 23 2a bd
       -0.043937627 0.032536276 -0.006512409 -0.04153752
000210 c6 ad 0e 3c e6 83 91 bc cd 87 d8 3c cb 11 98 bc
       0.008708423 -0.01776309 0.026431942 -0.018563172
000220 95 1c 98 bc 3e eb 4b bb f3 96 40 3d 62 06 06 3d
       -0.018568316 -0.0031115557 0.047018956 0.03272093
000230 b3 3b 81 3b 35 37 34 bd fb 26 bf 3c 92 5c 4d bd
       0.0039438843 -0.043997962 0.023334017 -0.05013711
000240 a9 86 50 bd 0c 8c 93 3c 4a fc c4 bc 3d c0 1c 3d
       -0.050909672 0.018011115 -0.024046082 0.03826927
000250 05 71 6d 3c 31 e1 76 ba 70 ea b2 3a 97 c9 18 bd
       0.014492278 -0.00094177114 0.001365019 -0.037301626
000260 35 24 05 bd 64 d7 6b 3d f1 90 93 bc 1c c1 13 bd
       -0.032505233 0.05757846 -0.01801345 -0.036072835
000270 e0 9d 38 3d 82 e3 df 3a c7 9b 48 3b af 6f bf 3c
       0.045072436 0.0017081352 0.0030610429 0.023368685
000280 41 cf a5 ba 6d 06 1c bc 5c cb d7 3c 7e dd 26 3c
       -0.0012650267 -0.009523016 0.026342086 0.010184644
000290 9f 1d 33 3d 43 7c 5c bc f5 70 26 3d 6d 48 25 3c
       0.04372942 -0.013457361 0.040635068 0.010088068
0002a0 24 c2 2e bd e0 bf be 3c fb b8 e5 3c e2 89 cd bb
       -0.042665616 0.023284853 0.028042307 -0.0062725404
0002b0 64 66 c9 3c 78 9f 8f 3b 52 ea 50 bd 80 d4 54 bd
       0.024584956 0.004383024 -0.051004715 -0.05196047
0002c0 20 92 92 3c 48 b9 10 3d 9c db 75 bd 8e 0c 66 bd
       0.017891943 0.035332948 -0.06002389 -0.056164317
0002d0 8c c3 96 3c 1c 38 27 bd 68 52 a8 bc 10 1a 1c bc
       0.01840379 -0.040824994 -0.020547107 -0.009527698
0002e0 a9 09 75 3d cd c1 05 bc 56 47 43 3d 39 4d 69 bc
       0.059823666 -0.0081638815 0.047675453 -0.014239603
0002f0 b3 fa 74 bd fc c8 8a 3d ab d4 5c bc 64 33 37 bc
       -0.059809398 0.06776616 -0.013478438 -0.011181686
000300 bb 83 20 bd 42 85 4c 3d ab 2d 34 ba 10 e5 89 3d
       -0.039188128 0.049931772 -0.000687326 0.06733143
000310 a6 00 e0 3c 73 e0 5e bd b0 7e d2 3a a8 bb 66 3d
       0.02734406 -0.05441327 0.0016059484 0.056331307
000320 89 bf bb 3b 67 e6 82 bc 05 4b 84 3b 34 10 59 bd
       0.00572962 -0.015979005 0.0040372633 -0.052993968
000330 9a f7 b8 bb 32 83 d4 bc 70 98 21 bc 7f d3 42 bd
       -0.005644751 -0.025941465 -0.009863004 -0.04756498
000340 ea 44 10 bd eb c4 32 bd 55 f4 cb 3c b2 f1 60 3d
       -0.03522197 -0.043644827 0.02489678 0.054918
000350 29 58 35 3c f7 97 36 3d 11 1c 53 3c 00 64 3b 3d
       0.011068382 0.04457852 0.0128851095 0.045749664
000360 74 9d 83 3d 37 f9 b2 bc d8 6e 6d 3d eb 9e 70 3c
       0.06426516 -0.02184735 0.057967037 0.0146863265
000370 20 fb 16 3d 7f 66 f7 bc d1 1f 33 bd 3a d0 91 bc
       0.036860585 -0.030200241 -0.043731514 -0.017799485
000380 c5 68 e6 bb 41 28 bf 3c e9 a7 0b 3c 7b b5 2c 3d
       -0.0070315325 0.023334624 0.00852392 0.04216526
000390 72 8a 8b 3d 06 94 01 3d e0 d8 d7 bc e5 1b 10 bd
       0.06813516 0.031635307 -0.026348531 -0.035182852
0003a0 8a 13 09 bc df 1c 09 bc c2 39 83 3c 95 87 44 3d
       -0.008366475 -0.0083687 0.016018752 0.047980864
0003b0 75 b7 f4 3a 37 ea 0c bd fa c7 39 bd 68 16 6e 3d
       0.0018670397 -0.034403052 -0.045356728 0.058126837
0003c0 ab 1b 3b 3d a5 2c 58 3c b3 6e 6d bd cb ef f9 3c
       0.045680683 0.013194238 -0.0579669 0.03050985
0003d0 ef 91 4e bc e5 74 5e bd 3e fe 44 3c e8 ec 58 3c
       -0.0126080355 -0.054310698 0.012023507 0.013240077
0003e0 56 d7 0c 3d ba 01 90 3c 37 02 7d bc 9d 48 44 3d
       0.034385048 0.017578948 -0.015442423 0.047920812
0003f0 57 01 56 bd 87 d4 89 3d 2a ba 09 bb 46 9b 23 3d
       -0.05224737 0.067299895 -0.0021015503 0.039943002
