Trained_Models/BotDetection_v4_MLP___May-10-2024/BotDetection_v4_MLP_epoch64_val_loss_0.480182.pth (torch, 957565 bytes, 45 tensors)

L1.weight f4 [256, 133]
00000000: 0d1d 053c 39ab 6e3d a25b b13d 7701 39be
00000010: a73e c93c 9ac9 3c3d 8bf0 473e 97dd 2bbd
00000020: e109 2c3c 9e2d 243d 9b0d 9dbd 6eba e13c
00000030: b316 55bd 0e75 55bd da2b 0bbe 5536 b43d
00000040: 1de0 22bc 9e71 32bd f43b bdba 7dd9 53bd
00000050: 7ab4 f8bc 785f 2bbc 6dbd 4dbd f79d 0abd
00000060: 428c 863d 7ca4 debd f912 fc3c 749d d8bd
00000070: cf13 ca3c d6bd d43d 89dd 0e39 b9e6 22bd
00000080: 4d97 b7bd 493f b0bc f57e 7ebd 6a28 a53d
00000090: 20f7 d13d ef6d 9c3d 40c5 96bd 3050 4abd
000000a0: 3297 563e 02cf 49bc 0acd 14bd c30d d73b
000000b0: 20e7 71bc d5e4 ba3d cb50 db3b 4a00 8e3d
000000c0: b086 0ebd b975 a23d 6ef0 423d 5b25 2d3c
000000d0: 3f1c 863d 106e d33d 4b96 cebc 744c 013c
000000e0: e7ea 31bd d25f 5c3d e32f 3ebe a200 f6bc
000000f0: 0918 35be 8240 833c bdef 25be 057a 51bd
00000100: 3986 0c3e f9b5 00be e764 a2bd cf6d 0a3e
00000110: e396 bcbc b39f 56bd ca7e 623d 4fba db3d
00000120: 5def d13d 1528 843d a491 4abd af61 ddbc
00000130: 534d a2bd 9b8e 543c 1605 85bc 2c6b ac3c
00000140: ca01 95bb 1791 18bd 1963 9ebd 71c7 04bd
00000150: 48ed 683d 7dfb 47bd 2cdd 3bbe c1a2 d4bd
00000160: d7a8 e73c 171c bebc c6e3 d43b c6c7 223e
00000170: 651b c2bd 93b6 973a e413 0fbd 1853 2a3d
00000180: d588 213d 0bf0 b5bd d430 39bd 99de c23c
00000190: 3dda 073d 6541 e6bd cbfc 023e b226 2bbe
000001a0: f1c7 77bd 595d 993d 3227 8a3d 8502 47bd
000001b0: 8c9b 2cbd fdfa 81bd 1809 393d 7f77 d2bd
000001c0: 8933 42bd 5f43 9cbc 49d8 9d3c 2c20 eabc
000001d0: 65b3 a13c b2d4 d63d f15c 983d a034 a83d
000001e0: abb6 c3bd 52d9 533d 4fec 343c fe96 503e
000001f0: 8e1c 00be 6370 31bc d3b7 413d 4040 a13d
00000200: c3c8 9abd f2b9 b93b 8317 973d 42cd 553d
00000210: f884 74bd cd08 e03b 812c 263d 0396 76bc
00000220: 42ae c93d 7518 15bd 4fd6 8a3d 9525 8ebd
00000230: 41c1 12bd 8066 5d3d ed38 2fbd e9b2 c93b
00000240: 2529 ddbb 362b 6fbd 7b90 803d b8e0 8b3d
00000250: 0cc7 513c a7f9 85bd 9667 e5bb fa59 90bc
00000260: bc0f 543d c0d3 d6bc 3747 823b 09a3 87bd
00000270: be9a debd cd34 d1bd 3abc 03bd 92fa 9fbd
00000280: fc46 c1bb 34ad 9ebd bd50 3c3d 908d 27bc
00000290: f248 f7bc dad3 8e3d 66d3 873d 2798 81bd
000002a0: cc32 b4bc 6462 fe3d b065 923d fd4e 273e
000002b0: 48a6 b53d af77 853d 371c 1abd d42a 913c
000002c0: b0da 1d3d 4a85 1d3e 8f6b 16bd 99ca d43c
000002d0: deef 613d 5727 783d 148b ea3c b0fd a6bd
000002e0: 4a23 96bd 5c51 863d 0f69 123e 4a8f 72bd
000002f0: fd76 61bd 9449 553b 7e26 8d3d efbd b23d
00000300: 27b6 9dbd 211c a53d 3ea2 853d 63ad ba3c
00000310: 7927 dfbd c506 8b3b c876 153d 6e7f 5ebd
00000320: a9c5 8abc 88c3 89bc 2e84 d1bc 0b28 98bc
00000330: 2dbb f43d d8f4 d33c fd1e 12bd 0725 55bc
00000340: 590c f23b ab8d a93d 8e9b 2ebd 9075 1dbc
00000350: 64d1 d6bc 8351 16bd 3dc5 22bc 0f8a ccbd
00000360: 736f cebd a782 af3d 76b8 18bd 347c 653d
00000370: 3a5c 58bd c023 8d3c 1c0a 31be 7703 eb3d
00000380: a515 31be 6c93 4cbd e57a e9bd 6d27 3a3d
00000390: c386 45bc 6fc5 cfbc ab83 70bd a988 7cbd
000003a0: a0fd 453d b04b 1c3e 5f5e a03c a0e3 723d
000003b0: 384c 72bc a5b7 1b3d 12e1 bf3d a111 4f3d
000003c0: 46c0 e3bd e72e 033c 2c7b b93b a928 04bd
000003d0: 31d5 6abd c29c 3f3d a668 85bd 9fc4 ca3c
000003e0: de3a 2b3b 807d 4a3d ccbf a93d 8572 bc3d
000003f0: c508 48bd 8ff2 1cbe e05c a0bd ba70 9fbd
0.008124602 0.05826876 0.08660056 -0.18066965 0.024566008 0.0460907 0.19525354 -0.04195937
0.010500402 0.040082566 -0.07668611 0.027554717 -0.0520236 -0.052113585 -0.13590947 0.087994255
-0.009941128 -0.043565385 -0.0014437423 -0.051721085 -0.030359495 -0.010459773 -0.05022948 -0.033842053
0.06569721 -0.10871217 0.030770766 -0.10576907 0.024667649 0.10387771 0.00013624704 -0.039770816
-0.08964405 -0.021514552 -0.062132794 0.08064349 0.102522135 0.07638156 -0.07361841 -0.04939288
0.20956114 -0.012317421 -0.036328353 0.00656292 -0.014764577 0.091256775 0.006692981 0.06933649
-0.034796417 0.0793261 0.047592573 0.010567988 0.06548356 0.10323727 -0.02521815 0.007891763
-0.04343691 0.05380232 -0.18572955 -0.030029599 -0.1768495 0.01602197 -0.16204734 -0.051141758
0.13723077 -0.12569417 -0.07929402 0.13518451 -0.023021167 -0.052398395 0.055296697 0.10728895
0.10250733 0.064529575 -0.0494553 -0.027024118 -0.07924905 0.012973453 -0.016237777 0.021047197
-0.0045473324 -0.037247743 -0.07733745 -0.032416765 0.056866914 -0.048823822 -0.18346089 -0.10382605
0.028278751 -0.023206754 0.0064968793 0.1589652 -0.09477881 0.0011574797 -0.03493108 0.04158315
0.039437134 -0.08883675 -0.04521258 0.023787783 0.033167113 -0.11242942 0.12791745 -0.1671398
-0.060493413 0.07488508 0.06745757 -0.048586387 -0.04214053 -0.063467 0.045174688 -0.10276698
-0.04741243 -0.019075094 0.019268172 -0.028579794 0.019738862 0.10489787 0.07439602 0.082131624
-0.095563255 0.051720925 0.0110426685 0.20370099 -0.12510893 -0.010830018 0.04729445 0.07873583
-0.075578235 0.0056679184 0.073775314 0.052197702 -0.05969712 0.0068369866 0.040569786 -0.015050414
0.0984769 -0.036400277 0.06779157 -0.06940762 -0.035828833 0.05405283 -0.042778898 0.006155361
-0.0067492896 -0.05839082 0.062775575 0.06829971 0.012803804 -0.06541758 -0.007000874 -0.01762103
0.051772818 -0.026224017 0.0039757746 -0.06622893 -0.108693585 -0.10215149 -0.03216193 -0.07811464
-0.0058983546 -0.077478796 0.045975436 -0.010226622 -0.03018615 0.06974001 0.06632118 -0.06327849
-0.021996878 0.1242111 0.071483016 0.16338725 0.08869606 0.065169685 -0.037624564 0.017720617
0.038538635 0.15382877 -0.03672367 0.025975512 0.055160396 0.060584392 0.02863077 -0.08153856
-0.073309496 0.06558487 0.14297889 -0.059218682 -0.055045117 0.0032545077 0.068921074 0.08727633
-0.077007584 0.08062006 0.06525086 0.022787755 -0.10896201 0.0042427504 0.03649023 -0.054320745
-0.016939955 -0.01681687 -0.025575723 -0.018573781 0.119497634 0.025873587 -0.035674084 -0.013009316
0.007386726 0.08278974 -0.042628817 -0.009610549 -0.026222892 -0.03669883 -0.009934721 -0.0998727
-0.10079851 0.08569842 -0.03728529 0.056026652 -0.05282233 0.017228961 -0.17289013 0.1147527
-0.17293413 -0.04994528 -0.114003934 0.045447756 -0.0120560555 -0.025362698 -0.05871932 -0.061653767
0.04833758 0.15263247 0.01957625 0.05929911 -0.01478868 0.038016934 0.09369101 0.05055392
-0.111206576 0.008006788 0.005660435 -0.03226534 -0.05733222 0.046780355 -0.06514101 0.02475196
0.0026127617 0.049436092 0.082885355 0.0920153 -0.04883649 -0.15326904 -0.078302145 -0.07785173

L1.bias f4 [256]
00000000: 45e4 a6bd b94b 97bc 750e 7b3d 3b7e 8abc
00000010: 4337 b2bc 6ce1 79bd 30db 053d 9fca 2a3d
00000020: b0c9 56bd 38af 9dbd 597a bdbc 8dfb 773d
00000030: 9fd9 83bd 4eb0 12bd d440 aebd 7b0c 21bc
00000040: ca58 973c 9c56 103d 1247 29bd a2a1 a93d
00000050: 8097 ef3b e176 7dbd 4b9e 8e3c 51a9 023d
00000060: f2cf 643d 8ebc 7b3d 5e40 b5bc 2498 8ebc
00000070: 138f 33bd 35ea 103d b77f 87bd 78f3 bdbc
00000080: d189 65bc 8852 91bd ac57 093d 6592 a13c
00000090: 5ffd 963d c09d 5bbd dfd0 9f3d 62b4 153d
000000a0: a233 dabc 534e 87bd d2a7 a7bd 45f6 013d
000000b0: 74df 2cbd cc30 cdbc 8988 0abd 1b5c 85bc
000000c0: d7c0 f23b ac83 983d 28ac 673d 9cf8 833d
000000d0: 0ba9 9c3b 4a38 dbbc 092b 23bd 76ed 4c3d
000000e0: 7a03 f0bb 931f 0b3d 2aec 9ebd 859d 313d
000000f0: 6ca5 39bd c7a5 19bc ebab 8e3d 1757 583d
00000100: 617c 4dbd bb88 923d f3b8 8fbd 334f 223d
00000110: 910f 633c 4869 a33d 7f2e 0e3c 6d99 99bc
00000120: b026 973d 74ae 51bd efd3 753d bcb4 05bd
00000130: dfb5 3fbc dc3b 19bd 358b 683d e1c9 5ebd
00000140: 44de c8bc d35f c53b e09d 9d3d 34fe 41bc
00000150: 5800 18bd 38d5 22bc dd59 a03c 3f95 1cbd
00000160: 328a b03d b1d2 0f3d 4905 fcbc 80ce 4f3d
00000170: 2644 cebc 7b90 9b3c 96ab 78bc 2455 8abd
00000180: 9915 94bd 4093 9abd 156c 45bd dfeb aebb
00000190: 95ef 383c bf46 6b3c d4f4 1f3d b3a6 b33b
000001a0: 4acb ac3d 86a0 a6bc a83f 953c b90d 923c
000001b0: e09e 2e3d 18b0 8d3d ef10 053d 63d0 303d
000001c0: dc43 9d3d fe70 2b3d 253d a13d a151 343d
000001d0: cf53 2b3d 917d 31bc e9af 5cbd 4778 9d3d
000001e0: 27e8 363d c33d d43c ae45 103d da20 c4bc
000001f0: c5f5 27bc 0aa7 8d3d d69a ba3c 7cbe abbd
00000200: 5a97 8f3d 8eef d23c 3fce 2dbd 7ce3 1ebd
00000210: 3a3b 84bd 65d2 a53d bdc9 26bd d651 1fbd
00000220: eb9a e33c 4cf1 0dbd 5b85 3a3d 6815 f9bc
00000230: 4a5b a8bc a1b1 dbbc b388 a13b 0a1a 323d
00000240: 3391 5ebc e45f 8b3d 557f afbd 2cc2 87bd
00000250: a2f3 c73c 0bb2 d5bb a48c 56bc d3b2 cb3c
00000260: 0e25 91bd d1c5 16bc 07b6 7cbd 2e18 9e3d
00000270: 1dba 9a3c b172 533d 29e0 63bd 82e1 a9bc
00000280: 936b 3e3d 36f7 953d 6f36 94bd 5d72 c0bc
00000290: 862f 80bc fc66 a43d 5af3 5bbd 2818 033d
000002a0: 54f4 813d 1548 86bd 4411 a73d 5e54 aebd
000002b0: 8928 82bd a7b9 cdbc b560 8d3b 7716 4c3b
000002c0: 9616 843d 6ab2 983d 358b c0bc 5180 a43c
000002d0: 77ed f8bc bf82 ca3c a625 ddba dcaa 253d
000002e0: 3cd7 bb3a e958 dcbc 78c5 173d 8720 803d
000002f0: db6a 25bd 83da bc3c f547 2139 8103 cdbc
00000300: a54c 173d e040 4a3d fd6b 1f3d ded4 96bd
00000310: c676 00bd 8dc6 923d ec24 4b3d f2b6 473d
00000320: 7e75 57bd 3cae fe3c 8ebc 32bc 3572 09bd
00000330: eb14 533d 1784 aa3d 6ab8 1e3d 34cf 813d
00000340: 2df9 4abd 738d 2e3d 0bf0 a3bd 2ef4 aabc
00000350: 1e32 aabc 7ce1 91bd d721 debc 2407 863d
00000360: 5f04 2ebd dd1b 993d 92cc 303d 3adc 0ebd
00000370: 261d 473d 200f a5bd a487 143d db2b 29bd
00000380: e2f7 8bbd 7acb ae3d fffd 5bbb c25d 5abd
00000390: e46f af3d acf5 b03c 848e 56bc eae3 05bd
000003a0: b777 9f3d 1618 453d 692f a03d 965a 013d
000003b0: 6ddb 8b3d 550e 5bba 808c 9e3c 55eb b23c
000003c0: dac9 a73d a906 853d d580 543d e4ff aabd
000003d0: 38ee 813d 8dd7 413d 5c9d 9dbc 2c64 823c
000003e0: 5c6c aebd c81c 46bd 2606 893d ee94 a3bd
000003f0: 64b5 093a 54f5 7b3c 904f 83bb 5737 4fbd
-0.08149008 -0.018468725 0.061293084 -0.016905895 -0.021754866 -0.061005995 0.032679737 0.04169714
-0.052438438 -0.07699436 -0.023129629 0.060542632 -0.06437992 -0.03581267 -0.08508459 -0.009829636
0.018474955 0.035238847 -0.041327544 0.08282782 0.0073117614 -0.06188095 0.017409464 0.031899754
0.055862375 0.061459117 -0.02212542 -0.01740653 -0.043837618 0.035379607 -0.066161565 -0.023187384
-0.014009909 -0.0709582 0.033530876 0.019723127 0.073725455 -0.05361724 0.07803511 0.03654898
-0.026635949 -0.06606736 -0.08186306 0.031729 -0.04220529 -0.025047682 -0.033821616 -0.01627927
0.007408242 0.074469894 0.056560665 0.06443903 0.0047808937 -0.02676024 -0.039835963 0.050031148
-0.007324633 0.03396566 -0.077598885 0.043363113 -0.045323774 -0.009377903 0.069663845 0.05281743
-0.050167445 0.071549855 -0.07017698 0.03962631 0.013858692 0.07979065 0.008678078 -0.018749917
0.07380426 -0.051191762 0.06001657 -0.032643065 -0.011701076 -0.037410602 0.056773383 -0.054391745
-0.024520047 0.006023386 0.07696128 -0.011840392 -0.037109703 -0.009938531 0.0195741 -0.03822827
0.08620109 0.03511304 -0.030764239 0.050734043 -0.02517898 0.018989792 -0.015177628 -0.067545205
-0.07230682 -0.07547617 -0.04819878 -0.0053381766 0.01128759 0.014360129 0.039051846 0.0054825186
0.08437212 -0.020340215 0.01821883 0.01782881 0.042631984 0.06918353 0.032486852 0.043167483
0.07678959 0.041855805 0.078729905 0.04402316 0.041827973 -0.01083316 -0.0538787 0.07688957
0.04465499 0.025908357 0.0352227 -0.023941446 -0.010251467 0.06916626 0.02277891 -0.083859414
0.0701129 0.025748994 -0.04243302 -0.038791165 -0.06456609 0.0809677 -0.040719736 -0.038896404
0.027783832 -0.034653947 0.045537334 -0.030405715 -0.020551343 -0.026818099 0.004929626 0.043481864
-0.013584423 0.06805399 -0.085692085 -0.06628832 0.024408165 -0.0065214685 -0.013095055 0.024865543
-0.07087146 -0.009202437 -0.061697032 0.07719456 0.018887574 0.05162305 -0.055633698 -0.020737413
0.04648931 0.07322542 -0.07236945 -0.023492033 -0.015647661 0.08027455 -0.053698875 0.03200546
0.0634543 -0.06556717 0.0815759 -0.085121855 -0.06355388 -0.02511294 0.004314507 0.003114132
0.064496204 0.07455905 -0.02350388 0.020080717 -0.03038667 0.024720548 -0.0016872182 0.040446147
0.0014331113 -0.026897864 0.037053555 0.06256204 -0.04038511 0.023053413 0.00015380963 -0.025026085
0.03693833 0.049378276 0.038921345 -0.0736482 -0.03136327 0.07166777 0.04959576 0.048758455
-0.052602284 0.03108894 -0.010909213 -0.033556182 0.05153362 0.083259754 0.03875009 0.06338349
-0.04955404 0.042615365 -0.08004769 -0.020868387 -0.02077585 -0.07123086 -0.027115745 0.06544331
-0.042484637 0.074760176 0.043163843 -0.034877993 0.048611782 -0.080595255 0.03626217 -0.04130159
-0.06834389 0.08534904 -0.0033568142 -0.05331207 0.08566263 0.02160152 -0.013095502 -0.03268806
0.07786506 0.048118673 0.07821543 0.03158053 0.068289615 -0.00083563227 0.019354105 0.02184073
0.08192797 0.06495411 0.051880676 -0.083495885 0.06344265 0.047324706 -0.019240074 0.015916906
-0.08516762 -0.04836729 0.06690626 -0.079873905 0.00052531646 0.015378315 -0.0040072873 -0.050589886

BN1.weight f4 [256]
00000000: 117c 7e3f 0fed 7f3f 9046 7b3f 43cb 773f
00000010: 0def 7c3f ca7e 813f a46e 823f c4b2 7e3f
00000020: d5e0 7f3f e541 823f 071d 7c3f a901 7b3f
00000030: b6fd 7e3f e376 813f 0e71 853f 0b8b 803f
00000040: 7e1c 823f 6cc5 803f f773 7e3f 11cd 803f
00000050: 4f8a 7c3f ea44 7d3f 90dc 873f d1f9 813f
00000060: 8b70 823f 932c 823f e202 853f eb04 813f
00000070: a3ea 833f b364 843f ae16 853f 1806 803f
00000080: a98f 833f ef11 7e3f 31f3 7d3f 701b 823f
00000090: 02dc 853f 3dcb 823f 547d 7f3f 1a12 823f
000000a0: 6090 813f c135 843f 28af 813f f445 853f
000000b0: 919d 7f3f a10c 823f 031f 803f 34d0 7c3f
000000c0: 9add 863f fb1a 803f d1dc 7a3f e977 7e3f
000000d0: 5f52 7c3f fd46 823f ce99 7e3f 047f 7f3f
000000e0: 5dbe 803f bfda 813f b743 803f 0f49 863f
000000f0: 3052 7e3f ed68 813f 6e1e 853f 7878 843f
00000100: 47aa 783f 59f3 803f c81a 7c3f 66e5 823f
00000110: 07a4 7f3f fc6e 8b3f 8551 7f3f 743f 793f
00000120: 3d04 843f 440a 843f f70d 813f 3f35 803f
00000130: 0204 813f 88dd 843f 74b6 823f 246f 823f
00000140: ac44 823f b5fa 7d3f 6a3b 803f 04fd 7c3f
00000150: b4ec 803f 0fba 803f b17f 813f e868 843f
00000160: 9941 843f b77d 803f f275 823f e0b8 843f
00000170: 77b5 813f 1145 803f a1fb 823f a832 833f
00000180: 4858 813f 9d5a 823f d1a1 803f a94b 843f
00000190: f06d 7f3f 5641 7f3f 0029 813f 7115 833f
000001a0: 42c2 823f 341b 843f 4208 803f 477c 843f
000001b0: 621d 833f 4115 843f 4ab9 813f 7846 843f
000001c0: b908 7d3f fdb2 823f 5f05 853f 54e6 853f
000001d0: 5d51 863f 9292 7c3f f2b6 7e3f 2fef 7e3f
000001e0: 2e4e 7e3f 84f7 7a3f 3e3e 833f a16a 7c3f
000001f0: d39a 803f e273 803f 340e 833f 049c 833f
00000200: 44c9 7d3f b776 803f 5b90 7c3f eca9 7c3f
00000210: 949e 7f3f cbcc 813f 673c 813f ccf2 823f
00000220: 3e54 833f 4803 7b3f 85d2 813f 3da8 7b3f
00000230: 9c51 843f 6f27 813f a09d 7f3f a679 803f
00000240: bdea 853f 2f7d 803f cc32 813f 3ada 823f
00000250: 288a 823f 66bc 813f 2e71 843f 1b7b 7d3f
00000260: 6b94 813f a894 7d3f 8996 833f 8e6b 7d3f
00000270: 1f88 7f3f f93b 823f b46a 7b3f 6331 813f
00000280: 8a03 7d3f dd3b 833f bf63 7c3f 78f5 803f
00000290: 83b9 813f 9843 7f3f 8e88 8a3f d445 7c3f
000002a0: d2ca 823f f05e 803f 6244 853f 5728 7d3f
000002b0: 7e74 803f 5e82 813f 0e4b 823f 6c95 813f
000002c0: 3835 7c3f 6a9f 823f 8b56 7d3f 8510 813f
000002d0: afc6 813f 4c1d 823f 8bef 813f d897 7c3f
000002e0: 5037 833f fa5c 823f de64 7e3f 14b3 7d3f
000002f0: 81cc 813f 9211 803f b3c3 813f 8a24 7f3f
00000300: a246 803f f8f3 813f cd07 813f 204e 833f
00000310: 5925 883f 0337 813f 1ddd 853f 6b82 813f
00000320: 4845 803f 2a9e 823f 94f3 833f eaa3 7c3f
00000330: 9731 833f 02e4 7d3f 490c 7b3f bf4d 7f3f
00000340: 9521 7e3f 1abe 823f b356 853f 8c39 803f
00000350: 6ac2 813f e2c1 7f3f 824f 843f 4614 803f
00000360: 2155 823f 47f0 823f 0b58 823f efa5 7e3f
00000370: 8084 833f e560 7b3f 03af 7e3f ee1e 823f
00000380: 5a23 823f 0e4a 7e3f 9f0e 813f 81f9 7f3f
00000390: ce21 813f bd00 873f 4f45 7f3f d1d2 833f
000003a0: 55b5 873f b3f8 7b3f 7650 813f b7a8 833f
000003b0: 65a2 863f cde2 843f 1f45 803f 4d80 783f
000003c0: bc7d 7a3f fb23 7a3f 4a75 813f 7741 863f
000003d0: 5efa 7e3f cfd0 7b3f eac0 7c3f 53b8 7e3f
000003e0: b3cd 833f a458 813f 35a2 7f3f b87d 823f
000003f0: 1f0d 803f b069 803f 5e45 853f 2437 883f
0.9940806 0.999711 0.98154545 0.9679453 0.9880226 1.0116818 1.0190015 0.99491525
0.9995244 1.017636 0.9848179 0.9804941 0.9960588 1.0114406 1.0425127 1.0042433
1.0164945 1.0060248 0.993957 1.0062581 0.9864854 0.9893328 1.0614185 1.0154363
1.0190595 1.0169853 1.0391505 1.0079626 1.030598 1.0343231 1.0397546 1.000186
1.0278217 0.99246114 0.99199206 1.0164623 1.0457766 1.0218273 0.9980061 1.0161774
1.0122185 1.0328904 1.0131578 1.0411973 0.998498 1.0160104 1.0009464 0.9875519
1.0536377 1.0008234 0.9799319 0.9940172 0.9856319 1.0177914 0.9945344 0.99803185
1.0058094 1.0144881 1.0020665 1.0491046 0.9934416 1.0110146 1.0399911 1.0349264
0.9713482 1.0074264 0.98478365 1.0226257 0.9985966 1.0893245 0.99733764 0.97362447
1.0313793 1.0315633 1.0082387 1.001625 1.0079348 1.0380106 1.021193 1.0190167
1.0177207 0.99210674 1.0018132 0.9882357 1.0072236 1.005678 1.0117093 1.0344515
1.0332519 1.0038365 1.0192244 1.0368919 1.0133504 1.0021077 1.0233041 1.0249834
1.0105066 1.0183903 1.0049382 1.033559 0.99777126 0.9970907 1.0090637 1.0240918
1.0215533 1.0320802 1.000252 1.0350426 1.0243342 1.0318986 1.0134671 1.0334005
0.98841435 1.0210873 1.0392264 1.0460916 1.049358 0.9866115 0.994979 0.99583715
0.9933804 0.9803393 1.025337 0.986002 1.0047249 1.0035365 1.023871 1.0281987
0.9913523 1.0036229 0.9865777 0.9869678 0.99851346 1.0140623 1.0096558 1.0230346
1.0260084 0.9805188 1.014237 0.98303586 1.0337405 1.0090159 0.9984989 1.0037124
1.0462261 1.0038203 1.0093627 1.0222847 1.0198412 1.013562 1.034704 0.9901597
1.0123419 0.99054956 1.0280315 0.9899224 0.9981708 1.0174552 0.9820969 1.0093197
0.98833525 1.0252644 0.985897 1.0074911 1.0134739 0.99712515 1.0822923 0.9854405
1.0218146 1.0028973 1.0411494 0.9888968 1.003555 1.011791 1.0179155 1.0123725
0.98518705 1.0204899 0.9896018 1.0083166 1.0138758 1.0165191 1.0151228 0.98669195
1.0251255 1.0184624 0.9937266 0.99101377 1.0140535 1.0005362 1.0137848 0.9966513
1.0021555 1.0152578 1.0080506 1.0258217 1.0636398 1.0094913 1.0458103 1.0117925
1.0021143 1.0204518 1.0308709 0.98687613 1.0249509 0.9917604 0.9806562 0.99728006
0.9926999 1.0214264 1.0417084 1.0017562 1.0137455 0.99905217 1.0336764 1.0006187
1.0182229 1.0229577 1.0183119 0.99471945 1.0274811 0.98194724 0.99485797 1.0165689
1.0167038 0.9933175 1.0082587 0.9999009 1.0088441 1.05471 0.9971513 1.0298711
1.0602213 0.9842636 1.010268 1.0285863 1.0518309 1.0381714 1.0021094 0.9707077
0.97848105 0.9771115 1.0113919 1.0488728 0.9960078 0.9836549 0.98731863 0.99500006
1.029715 1.0105176 0.99856883 1.0194616 1.0004004 1.0032253 1.0411794 1.0641828

BN1.bias f4 [256]
00000000: 469f 343d b227 39bd ca9c 02bc 4760 be3d
00000010: 8f69 4b3d f9ed 85bd d688 58bc edb0 29bd
00000020: 0e26 f9bb 0e22 2bbd 36c2 023d e91f 99bc
00000030: 4a17 f43c 5028 b2bd f93a bcbd 4b96 a3bc
00000040: 927f 1cbc 6e50 9d3b b814 07bd 89b9 87bc
00000050: 6b63 6c3c f1a7 e53c 3655 0cbe 1c8c dbbc
00000060: 73a2 a93c dd56 44bd 7e90 99bc 5345 9a3b
00000070: 2367 1ebd 6997 a0bd 21a7 c2bd 8d05 16bc
00000080: 1e28 86bd b0d2 a03d fa89 95bd 6d47 c93c
00000090: 9360 acbc 6db8 0cbd ced5 b8bc 814c 89bc
000000a0: 95b9 13bc bdab f0bd f3cc 8ebd 5c3d cebd
000000b0: 7319 e93b cd6f f5bb 4858 dbbd 2da2 8abc
000000c0: b3f2 5dbd f76f 22bd 64df 7c3d 69b2 293b
000000d0: 01b2 563d 1021 95bd 1bb0 5f3d c8dc ddbc
000000e0: 2381 09bd 575d 79bc 66f7 833c 03db b8bd
000000f0: b26a 9f3c 90b4 4dbd e765 18bd 4827 90bd
00000100: 899a 1e3c 016b 28bb 517c 693c 7d33 3fbd
00000110: f285 b63b f3b2 e1bc 1171 753d 99dd 3e3d
00000120: 40f3 f1bc f2b0 253b 02bc 8cbb a424 e03b
00000130: 5920 32bd e249 f5bd dba3 aabd e901 2bbd
00000140: e5dd e9bc d1d5 583d 201d 33bd 9f63 6dbd
00000150: 9193 1bbb 95d7 8e3d 5cf5 2cbc 0899 95bc
00000160: 4860 4abd 4a29 eebc b60a 86bb 15f0 d5bd
00000170: b772 2dbd 1c48 95bd 7183 31bd 41fc 2fbe
00000180: ca0a 593d 14bc 6ebc 70f6 563d 237d 50be
00000190: 9e6c abbd 2c54 fc3c 8b87 9dbd ac49 50bd
000001a0: f042 31bd e140 53bd b8c4 8dbc 078b 8abc
000001b0: 0d43 01bd 700b abbd 3143 6fbd a0eb d9bd
000001c0: 68c4 62bd 5266 333c 0c66 10bd 5b62 c9bd
000001d0: 7265 5fbc 4422 533b 655b 97bd fafa ee3d
000001e0: 1246 7d3d 8db2 81bc f1c4 eabd 068e 3b3c
000001f0: bd2f 0c3c 7d66 043d ffff 58bd cf89 cdbd
00000200: 41e9 05bc 8580 0bbd 7891 e8ba f889 513d
00000210: 8e6d 0a3d 9e93 89bd 702c 7f3b abc4 89bd
00000220: 84f9 6cbd 1f62 f1bc b078 a7bd ebf7 263d
00000230: 7a55 cabd 31f1 9b3c aad3 1fbd 98d5 bdbd
00000240: a604 85bc f8d2 1abd a357 753a 0025 87bd
00000250: 1c14 8cbd 1553 cdbc 0cc8 9dbd 0313 bfbc
00000260: 2f92 a03b dc75 fa3c 6e45 bbbd c711 8abb
00000270: 599c 32bc 1b3c 15bd 7879 f9bc 8fa0 7ebd
00000280: f06e 24bd 8863 68bd afe9 283d 17a5 f33c
00000290: 4a84 5fbd 0894 ccbd 798f e2bd 7f2c 13bd
000002a0: 5aba ef3c ae6c 75bd 7bde 223d 24fa 57bc
000002b0: a3b6 febc ab25 5ebd c6d3 1ebd 92ed b03c
000002c0: b5e2 c23c ec64 08be a56b 133d 89a3 013d
000002d0: a194 83bb 6e38 07bd c8fa bfbd 8db0 9a3d
000002e0: 9d86 d5bb d990 08bd c5ea c03b b8f9 2f3c
000002f0: a7ce 3cbd 31aa 8b3c 085a e33c 8956 f3bc
00000300: 4fc0 44bd 7c34 913c 5100 2abb e08d 23bd
00000310: 9827 cbbd 524b 40be a8c9 0cbe 42a5 05bd
00000320: e1a7 793c 4e8c 16be 9788 75bd 14d9 8e3c
00000330: 482f 9bbd 3918 90bc 82da 483c 4520 c0bc
00000340: adb0 11bc d704 993c 24ff c6bd 2d98 c6bc
00000350: 7989 85bd 62b3 57bd 0cfe e4bd 7f7a 62bc
00000360: 9b4c 14bd 1b6e 92bd 915d cdbd 48d3 d53c
00000370: d66d 4fbd 761b abbc 8d71 373d 363e cdbd
00000380: 98b9 b2bd f1a4 083d a9a4 44bd 8941 8fbc
00000390: 1dee bcbc 067e aabd 30c5 9fbd 4038 6cbd
000003a0: d8a6 8eba 618e 663d 22a0 5cbc dfc8 94bd
000003b0: 5b83 80bc 3c23 43bd c498 2abd 4ff4 993c
000003c0: 1cb4 713d 81dc 363d 3bda d6bd 1b28 8cbc
000003d0: 80e6 16bd b2c1 3ebd c42e 0cbd fec9 79bd
000003e0: a3de ecbd aff9 bdbd cd88 963c 1b94 593b
000003f0: 6972 8dbd 05b7 78bd 2c02 99bd 1ba7 3cbd
0.044097207 -0.045203872 -0.007971952 0.09295707 0.049661215 -0.0653953 -0.013216218 -0.041428495
-0.0076034134 -0.041780524 0.031923495 -0.018691974 0.029796261 -0.08699095 -0.09190936 -0.019969126
-0.0095518995 0.0048008477 -0.032978743 -0.016567962 0.014428 0.028034182 -0.1370438 -0.026800208
0.020707345 -0.0479344 -0.018745657 0.004707971 -0.038672578 -0.07841379 -0.095045336 -0.009156597
-0.065506205 0.078526855 -0.073017076 0.024570191 -0.021042144 -0.03435557 -0.022562888 -0.016760113
-0.009016414 -0.117515065 -0.06972685 -0.10070297 0.0071136295 -0.0074901343 -0.10710198 -0.016923035
-0.054186534 -0.03965756 0.06173648 0.0025893694 0.05241585 -0.07281697 0.054611307 -0.027082816
-0.03357042 -0.015220008 0.01610918 -0.09026148 0.019460056 -0.050221026 -0.037206557 -0.07038742
0.009680399 -0.0025698545 0.014250831 -0.046679962 0.0055701667 -0.02755115 0.05992228 0.04659805
-0.029534936 0.002528247 -0.004294873 0.0068403054 -0.04348788 -0.11976983 -0.08332034 -0.04174987
-0.02854819 0.052938286 -0.043728948 -0.057956334 -0.002373908 0.06974713 -0.010556545 -0.018261448
-0.049408227 -0.029072423 -0.0040906323 -0.10446183 -0.04234573 -0.072891444 -0.043338243 -0.17186071
0.052988805 -0.0145712085 0.052481115 -0.20360236 -0.083703265 0.030801855 -0.076918684 -0.05085151
-0.043276727 -0.051575545 -0.017305717 -0.016911997 -0.031558085 -0.08351791 -0.058413688 -0.10640645
-0.05536309 0.010949688 -0.03525357 -0.09833213 -0.013635026 0.0032216469 -0.07390479 0.11668964
0.061834402 -0.01583221 -0.11463345 0.011447435 0.008556304 0.032324303 -0.052978512 -0.100360505
-0.008173288 -0.034058113 -0.0017743548 0.051156968 0.033795886 -0.06717609 0.00389364 -0.067269646
-0.057855144 -0.029465733 -0.08177316 0.040763777 -0.098795846 0.019035907 -0.039020218 -0.092692554
-0.016237568 -0.03779885 0.0009359067 -0.06598854 -0.06839773 -0.02506403 -0.077041715 -0.023324495
0.004900239 0.030573778 -0.09144102 -0.004213545 -0.010901534 -0.036434274 -0.030453429 -0.06216484
-0.04014486 -0.056735545 0.041238483 0.029741807 -0.05456952 -0.09989172 -0.110625215 -0.035931107
0.029263664 -0.0599181 0.039762955 -0.013182197 -0.031092947 -0.05423514 -0.03877618 0.021597657
0.023789743 -0.13319749 0.03599133 0.0316501 -0.0040155207 -0.0330128 -0.093740046 0.07553206
-0.0065162913 -0.033341262 0.0058873617 0.01074069 -0.046095517 0.017048927 0.027752891 -0.02970435
-0.048034962 0.017725222 -0.002594013 -0.039930224 -0.09919661 -0.18778732 -0.13748801 -0.032628305
0.015237779 -0.1470196 -0.059944715 0.017437495 -0.075773776 -0.017589675 0.012259128 -0.023452887
-0.00889222 0.018679066 -0.09716633 -0.024242485 -0.065203615 -0.052661307 -0.11181268 -0.013823151
-0.03620587 -0.07149907 -0.10027612 0.026101723 -0.050641857 -0.020887118 0.044786025 -0.100216314
-0.087268054 0.033360425 -0.048008595 -0.017487304 -0.02306276 -0.08324818 -0.078012824 -0.05767083
-0.0010883464 0.056288127 -0.013465913 -0.072648756 -0.015687635 -0.047641024 -0.041649595 0.018793253
0.059009656 0.044643883 -0.10490843 -0.017108968 -0.036840916 -0.04657144 -0.034224287 -0.06098365
-0.11565902 -0.09276139 0.018375779 0.003319985 -0.06906588 -0.060721416 -0.074711174 -0.0460578

BN1.running_mean f4 [256]
00000000: ceba 0cc1 f73c 8640 1efa b940 2418 0341
00000010: 86a1 cdc0 2757 f440 05ab c241 881c 5b41
00000020: b65f 0b41 3abf 59c0 4032 9740 660b 9d41
00000030: 7e85 0841 1864 97c0 624a 40c0 655c 823f
00000040: f68a 7541 782a 41c1 11c8 4641 53da 5041
00000050: 94b4 38c0 dcae 5c41 a8e3 0540 89c0 9e40
00000060: 88ae 01c0 7031 0c3e 581e 05c1 a12a b640
00000070: c2c1 79c0 fc1e 69bf 7ab5 c240 1ed1 9ec0
00000080: 64c2 ed40 4ead 67bf b568 b740 3c07 05c1
00000090: 40da 01c1 60c8 5d40 34eb 3e40 7534 5ec0
000000a0: 76c1 5141 d313 8241 13b5 af40 d963 f63f
000000b0: c020 ebc0 2acf 4f40 dd88 1e41 eb70 a03f
000000c0: 8b84 fac0 6434 acc0 8d83 cec0 14b8 efc0
000000d0: 8108 9740 3f15 5ec1 0c4a 6840 96e9 2540
000000e0: a812 acbf 5df5 b040 e0ef 0bc1 2246 c040
000000f0: 0889 ed3f ff7a 82c1 a7d4 0c40 7390 8fc0
00000100: 21dc d2bf 9e93 c3bf 7925 6041 1200 9240
00000110: 63bf 24c1 0b68 e53e 2a5e 20c0 a309 dfc0
00000120: 090d eebf d2e7 3341 eff6 55c1 369c ec40
00000130: e52c 0141 963b eac0 c6bf fa40 2ae7 88c0
00000140: a5ad a13f b57f 3c3e 6027 cd40 0f5b 3c41
00000150: 0393 92c0 df8b 8dbc 8350 26c1 cc99 4a40
00000160: 1e40 64bf 9ffb 4840 f37b 9340 5578 1b41
00000170: b2d7 cc3f b4ca 08c1 81b0 3dbd 7f3b 8340
00000180: f60c 9840 0e21 80bf b1b3 3dc1 51f1 e6c0
00000190: 254b bb40 666b 40c0 959f a740 9f83 9740
000001a0: eab7 8041 6e37 7dbf 9d33 ebc0 2426 e0c0
000001b0: c538 c8bf 27f7 fc40 31ce 3bc1 2120 fec0
000001c0: 44a4 0a41 b270 63c1 ab81 0440 36e3 0741
000001d0: 132e 1dc1 eb91 4cc1 6cd4 bb3f 4dc3 1ac1
000001e0: d2d2 0dc1 27d6 78c1 04c2 a540 88f2 bfc0
000001f0: a3b5 50bd 6d92 d7c0 993a b7c0 51ad 1fbf
00000200: 7d47 a4c0 8b42 24c1 5ebf c43f 7575 32c1
00000210: bb7b 33bf 272f 0cc0 faf7 8a3f 82b7 2b41
00000220: 109b 27be 6317 75bf 6535 2840 63e3 6f41
00000230: a568 b0c0 98c3 08c1 a2f5 be40 2f78 1a41
00000240: fdaf e53e 02f7 823e bb85 24c1 4ee8 c13f
00000250: 30d4 35c0 96e7 c4be b9f3 8bbf ed9a 1dc0
00000260: 2987 ecc0 6bbd f440 dc95 c6bf a8f4 d6c0
00000270: 2a39 59c0 3ec7 85c1 3e8d 48c1 e84b 1141
00000280: ddb9 3ac0 dacc 2dbf 9163 29c1 ac07 0e41
00000290: dbd9 44c1 f800 2ac1 6c60 6abf 7f3d 8e41
000002a0: 3c47 92c1 f253 2ec0 ea62 a43e 7765 3e41
000002b0: 4082 7741 eca3 933f 2027 67bf be47 81c0
000002c0: 3893 11c0 7cf4 2c41 38d2 db40 e99a 77c1
000002d0: b274 03c1 0a11 76bf 3230 3841 e9df 6841
000002e0: c0ed a53f f03e 22c1 7260 e140 213f 9340
000002f0: 8261 4fbe 0ac1 7540 34c0 e340 023a 8cc0
00000300: d156 13c1 d52c 8840 4079 ce3f ee3a 10c1
00000310: 2450 843f 8efe 32c1 1a74 8941 5448 85c0
00000320: ca0a 42c1 76f1 14c1 2573 ab3f bae2 87c0
00000330: 7749 0fc1 4f5c 4e41 8f36 6241 51ad 33c1
00000340: 66b5 9840 f7e3 1cbf af72 37c1 c9dd 5a40
00000350: 705c 9540 23a7 e6c0 6c01 a1bf 28b5 983f
00000360: 9aef 3b40 48e6 57c0 ba20 353f 9761 60c0
00000370: 8d8c cac0 550d 5cc1 ac65 8cc0 bcf5 173f
00000380: 794a 75c0 8329 473f c153 bcbf b2ae 26c1
00000390: 7561 8140 9acb 08c1 9a1b be40 e5fd 193f
000003a0: 1224 6540 4d33 46c1 15d5 783f 7c23 c33e
000003b0: 336c 0cc1 81c9 5440 5182 3ac0 43bc a541
000003c0: 8dc4 17c0 9d93 c340 fe22 4ec0 8a32 be40
000003d0: 9cb3 6e40 ffd8 523f ad47 fdc0 693a a3c0
000003e0: 9635 a5c1 c4e7 8d40 8109 9141 dae6 afc0
000003f0: 3085 05c1 020b dec0 2ecb cd40 e4e9 cdc0
-8.795607 4.194942 5.811782 8.193394 -6.425967 7.6356387 24.333506 13.694466
8.710867 -3.4022965 4.724884 19.630566 8.532591 -4.7309685 -3.00454 1.0184447
15.346426 -12.072868 12.423844 13.053302 -2.8860216 13.79269 2.09202 4.961003
-2.0262775 0.13690734 -8.319908 5.6927037 -3.902451 -0.91062903 6.084653 -4.963027
7.4299793 -0.90498817 5.7315316 -8.314266 -8.115784 3.465355 2.9831057 -3.4719517
13.109732 16.25968 5.490854 1.9249221 -7.347748 3.2470193 9.908414 1.253446
-7.8286796 -5.3813953 -6.4535584 -7.4912205 4.719788 -13.880187 3.6295195 2.592382
-1.3443193 5.5299516 -8.746063 6.008561 1.8557444 -16.310057 2.2004793 -4.486383
-1.6473428 -1.5279424 14.009149 4.5625086 -10.296725 0.4480594 -2.5057473 -6.9699264
-1.8597728 11.244097 -13.3727865 7.3940687 8.073461 -7.3197737 7.83591 -4.2782183
1.2631117 0.18408091 6.4110565 11.772231 -4.580446 -0.01727861 -10.394656 3.165637
-0.89160335 3.1403577 4.6088805 9.716878 1.6003325 -8.549488 -0.046310905 4.1010127
4.751582 -1.0010087 -11.85637 -7.2169576 5.852923 -3.006555 5.23823 4.734817
16.089802 -0.98912704 -7.3500504 -7.004656 -1.5642325 7.90517 -11.73784 -7.941422
8.665104 -14.2150135 2.0704143 8.492971 -9.823749 -12.7856245 1.4674201 -9.672681
-8.86397 -15.552283 5.1799335 -5.998356 -0.050954472 -6.7366242 -5.725903 -0.62373835
-5.1337266 -10.266246 1.5370901 -11.153676 -0.7011067 -2.190378 1.0856926 10.732302
-0.16367745 -0.9573881 2.628259 14.993014 -5.512774 -8.547752 5.9674845 9.654342
0.4486083 0.25579077 -10.282649 1.5149019 -2.841076 -0.38457936 -1.0933753 -2.462581
-7.391499 7.6481223 -1.5514483 -6.7173653 -3.394114 -16.722286 -12.534483 9.081032
-2.9175942 -0.67890704 -10.586808 8.876873 -12.303187 -10.6252365 -0.9155338 17.780027
-18.284782 -2.7238736 0.32106715 11.899772 15.469299 1.15344 -0.90294075 -4.0400076
-2.2746105 10.809689 6.8694115 -15.47532 -8.21599 -0.9611975 11.511766 14.554666
1.296318 -10.140366 7.043023 4.601456 -0.2025204 3.8399072 7.1172123 -4.382081
-9.208695 4.2554727 1.6130753 -9.014387 1.0336957 -11.187147 17.18169 -4.165079
-12.127634 -9.30895 1.3394514 -4.2464266 -8.955436 12.897536 14.13832 -11.229814
4.7721434 -0.61285347 -11.465499 3.4197867 4.667534 -7.2079024 -1.2578559 1.1930285
2.936499 -3.3734303 0.7075306 -3.5059564 -6.329657 -13.753255 -4.387411 0.59359336
-3.8326705 0.77797717 -1.471306 -10.41765 4.0431466 -8.549707 5.9408693 0.6015304
3.5803266 -12.387525 0.9720014 0.3811301 -8.776416 3.3247988 -2.914204 20.716925
-2.3713715 6.111769 -3.2208858 5.9436693 3.7297125 0.8236236 -7.9149995 -5.10088
-20.651165 4.4345417 18.12964 -5.49693 -8.3450165 -6.9388437 6.431052 -6.434801

BN1.running_var f4 [256]
00000000: 3b88 5942 4c14 3042 702f 0243 75f7 bb42
00000010: d9d7 1b43 a5d1 4743 685d 1543 2557 c542
00000020: b752 0843 0ca2 ff42 e30d 2343 4cf5 3943
00000030: e2c8 b242 476b b542 6f13 6542 8677 1c43
00000040: 790d de42 6e34 b342 7885 7142 5e0c 0d43
00000050: 762d e342 e589 3442 ab92 cd41 ffa1 7e42
00000060: 6d9b 3842 c0e3 c842 e5f1 6342 802c 9642
00000070: 02d5 4642 96e7 5143 8515 8242 d953 fa42
00000080: 7b8b ba42 8bbf b742 f10c d242 1b27 3242
00000090: 78e8 4f42 5431 bd42 4e0f 0243 6871 4442
000000a0: 2e46 7e43 e39a 7042 799a 7d42 bfaa 9442
000000b0: 5cc4 8243 07ab df42 0d4e b142 0897 2042
000000c0: b138 c442 8988 8e42 3ea2 e842 1b16 b442
000000d0: b325 8642 fc0b e942 3727 7442 007f ca42
000000e0: e006 9542 188d c542 cdcc 8042 d7ff d441
000000f0: 1452 3842 d8bb af42 a226 8c42 1643 bc42
00000100: fa6b 2243 763a 5442 313c 9c42 eb39 a442
00000110: af0f 1643 e340 8942 12b5 e542 812e 5742
00000120: 0c2d 8942 8b8f 7642 c8af c442 3492 2542
00000130: 4e56 9c42 76e9 3742 b557 ba42 c5a3 1e42
00000140: 2064 1142 53bb aa42 e1d4 8442 ba39 8443
00000150: 561d 7f42 55fd 1842 9faa f542 c057 4242
00000160: ae36 6c42 3822 e542 18d2 cd42 1d6b 5f42
00000170: 50be 7442 a338 6942 3f59 9842 8528 8342
00000180: 733a c342 484e 4042 8590 ac42 e915 ee42
00000190: 6d42 f142 cde7 0e43 ef5a 3342 b546 3b43
000001a0: c92c 8542 458d 3242 fde0 4742 3d27 9542
000001b0: 89f3 7b42 f0ef b642 17b2 0743 9410 ab42
000001c0: f84e 7342 4108 9842 408b 8842 c6cf 3742
000001d0: 557f 3742 3df6 b042 a6ef 9f42 5eed 6242
000001e0: a289 c742 a8dd ee42 bcba ad42 8c24 1243
000001f0: cb90 9942 75ef 1d43 68fa 0e42 d34a 6f42
00000200: 1cc6 fe42 d749 8a42 bfc1 a242 baf1 db42
00000210: 0459 5943 9b61 9042 6a5a 1543 2c92 9842
00000220: 871a b542 ecb9 7042 e4a8 9f42 d916 f442
00000230: f5c6 3542 7e15 8242 27cb 5542 1f2f 0a43
00000240: 9d87 8541 a5e2 ce42 0c68 a242 67e7 1243
00000250: 506d 5742 78aa 8242 5ac0 9242 08ab 2643
00000260: 7b55 2442 062a 1d43 aa5b 1142 9b29 7b42
00000270: 6c0b 5942 bb3a b142 a06c a942 0e67 e642
00000280: 3ba2 e141 744f f642 93fb bd42 2972 1a43
00000290: 1666 9442 ef43 e842 6b2c 2042 0a4b 9a42
000002a0: 3993 0443 9b5b 7c42 834f f241 c252 cb42
000002b0: 0f1e 9e42 3b5b b342 9f44 7542 095e 3042
000002c0: 2918 9342 5ed2 5742 1bfc 0f43 f556 1943
000002d0: 0df6 4d42 132d 2342 fac1 9c42 3eb5 7442
000002e0: 361a 2142 81eb a342 037e c242 7f46 0c42
000002f0: 0bed 3442 7866 7e42 cc52 9e42 718f 9242
00000300: cae2 1643 bd20 8342 4390 a742 6f18 1343
00000310: 5931 2d42 5e03 8642 12c6 0243 71e4 3642
00000320: 49e4 a442 d2f4 2343 e61d 3d42 e2b5 a142
00000330: 9abb d842 f308 e342 61a0 d942 6460 5c42
00000340: 3cf1 9142 52b0 b442 7f4e 6442 d79b b142
00000350: 927e d742 9f8d 8642 1c5f 3342 bc50 a042
00000360: 6dd1 ab42 9eaf e142 e8bf 3342 8c43 9442
00000370: d199 8142 09e9 c142 6787 6e43 fb11 3842
00000380: ebde 0743 d76b 7642 9faf 7a42 91a5 e242
00000390: 8ae5 3443 0a8c 9d42 6180 2943 1d60 4b42
000003a0: e9ad 7c42 b66c 8142 a302 8542 f546 8742
000003b0: 86e3 bc42 af3b 2342 db71 a042 09bd 0843
000003c0: 573d 8542 0219 2843 25d3 c942 9a04 3f42
000003d0: 3e09 fb42 e27e ad42 0233 dc42 663b 2d43
000003e0: 2bad 3f43 e98c 0d43 4ff2 fd42 8d6c 3b42
000003f0: d883 b442 5fd0 c242 a42f 2f42 b72b e242
54.383038 44.01982 130.1853 93.983315 155.84315 199.81892 149.36487 98.670204
136.3231 127.8165 163.05424 185.95819 89.39235 90.709526 57.26898 156.46689
111.02631 89.6024 60.38034 141.04831 113.58879 45.134663 25.696615 63.6582
46.151783 100.444824 56.986225 75.086914 49.708015 209.90463 65.04203 125.163765
93.27242 91.87411 105.025276 44.53819 51.97702 94.596344 130.05978 49.11075
254.27414 60.151257 63.400852 74.33349 261.53406 111.83404 88.65244 40.14749
98.110725 71.26667 116.31688 90.043175 67.07363 116.52341 61.038296 101.24805
74.51343 98.77557 64.4 26.624922 46.080154 87.86688 70.075455 94.13103
162.42178 53.05709 78.11756 82.11312 150.06126 68.62673 114.85365 53.795414
68.58798 61.64018 98.34332 41.392776 78.168564 45.97799 93.1713 39.65993
36.34778 85.36587 66.41578 264.451 63.77865 38.247395 122.833244 48.585693
59.0534 114.56683 102.91034 55.854603 61.185852 58.30531 76.17431 65.57914
97.61416 48.076447 86.282265 119.04279 120.62974 142.90547 44.838802 187.2762
66.58747 44.63796 49.969715 74.57664 62.987827 91.46863 135.69566 85.53238
60.827118 76.01612 68.27197 45.952904 45.874348 88.480934 79.96806 56.731804
99.768814 119.43292 86.864716 146.14276 76.7828 157.93538 35.744537 59.82307
127.38693 69.14422 81.37841 109.97212 217.34772 72.190636 149.35318 76.28549
90.55181 60.181564 79.829865 122.044624 45.444294 65.04198 53.44839 138.18407
16.691217 103.442665 81.20322 146.90392 53.85675 65.33295 73.37569 166.66809
41.083477 157.16415 36.339516 62.79063 54.261154 88.61471 84.71216 115.20128
28.204214 123.15518 94.991356 154.44594 74.19939 116.13268 40.043377 77.14656
132.57509 63.08946 30.288824 101.66164 79.05871 89.678185 61.317013 44.09183
73.54719 53.955437 143.98479 153.33968 51.490284 40.794018 78.37886 61.176994
40.275597 81.95997 97.24612 35.068844 45.231487 63.600067 79.16171 73.28016
150.8859 65.56394 83.78176 147.09544 43.29819 67.00658 130.77371 45.723087
82.44587 163.95633 47.279198 80.85524 108.36641 113.51748 108.81324 55.09413
72.97116 90.344376 57.076656 88.804375 107.74721 67.2766 44.84288 80.157684
85.909035 112.843 44.93741 74.13193 64.80042 96.95515 238.52892 46.01756
135.87077 61.605312 62.671505 113.32337 180.89664 78.77351 169.50148 50.84386
63.169834 64.712326 66.50515 67.63859 94.44438 40.808285 80.222374 136.73842
66.619804 168.09769 100.91239 47.754494 125.51805 86.74782 110.099625 173.23203
191.67644 141.55043 126.97326 46.856007 90.25751 97.406975 43.796524 113.08538

L2.weight f4 [128, 256]
00000000: 5d46 b03c 9b0a fcbc c67b 323c 8f5a b73b
00000010: 736c 96bc f7ae 403d fc73 8abb 4fc3 cf3c
00000020: 6189 22bd 19be 4bbc 737d 3bbd 2022 78bd
00000030: 0e2d 323d 8c1b 523d 47b1 c53c 1b0b af3c
00000040: d5b4 1d3d d948 76ba 97f4 f63c 1770 2c3c
00000050: 2197 813c 85ba 00bc f808 693b b345 243d
00000060: f16d 893c d650 4bbb b80b 623d e328 1bbd
00000070: 6064 1fbd a83d 04bd 6f89 39bc f36c 993c
00000080: c813 243d 19b0 263d 612e bfbb 1c76 7a3d
00000090: 6678 463d f6be 283c b032 953c 8f37 89bc
000000a0: 6d70 8c3d 1d33 11ba 162f a33b be0e 8e3c
000000b0: 48f2 0bbc 583c 923c 8052 68bd 66a3 613a
000000c0: efe5 003d 0855 03bd 786a a13a ba6c 10bd
000000d0: 5cde 77bd b062 453d a2cb 053d 8036 913d
000000e0: 8ed2 203c ab0b 54bc c981 4c3d fad2 fd3c
000000f0: 2a80 333c ec1a 2abd bd09 833d 8bdb 063d
00000100: 6c6d 8d3c 165e 913d 5af9 163d 43d6 4c3d
00000110: a908 47bd e9ff b83d 29ed 1fbd 7e41 033d
00000120: 8627 70bd ce43 29bd 09ae 353b b93d c6bc
00000130: 183a 8a3d 9a79 8d3d d08c 7abc 3a23 71bd
00000140: 3f2e 3f3d ff1d e5bc d563 4d3d 56ce 51bc
00000150: 8780 de3b 42f7 f03c 1d9b d2bb 93ad 3c3c
00000160: 4ca0 24bc ccd6 4c3d c3b8 823c 0cb2 63bd
00000170: 9f1d c6bc 95e3 63bd f462 3c3d e496 b53c
00000180: 41ee 0b3c 180d 263c 4578 0fbd 9b0e 73bc
00000190: 1ea7 673d 383f 4bbd b275 60bd 2b98 843d
000001a0: 35dd c6bb 556a 803d a3d4 0e3c 323e 9c3c
000001b0: 0802 ab3c 62fb 65bd 6e2e 843d 77b3 6d3d
000001c0: 34b9 243c d313 37bd 2472 87bd f35b 83bd
000001d0: 8433 6e3d 6202 5ebd 17a0 86bb 9f80 943c
000001e0: dfe0 0fbd 106d 41bd 5699 653d 54d3 f93c
000001f0: ad16 5cbd 740c d63c a1f3 053d 9bec bcbb
00000200: d305 22bd 63bb 0e3d d9fb b2bb cdc9 0dbd
00000210: a40d 053c 85ae 87bc 0dc4 e63c f2e9 c4bc
00000220: 2c18 98bc a576 aeba 15c3 433d 369a 003d
00000230: bf28 6e3b dd41 28bd 2f39 d23c d6cd 35bd
00000240: ff26 61bd f73b 433c 5d7c a2bc ca57 373d
00000250: 651c b93b 1f3a 043b 05a5 e0ba 543b 19bd
00000260: fa8b f7bc ee4c 643d d366 6bbc 5ca5 0cbd
00000270: 4e0e 413d 639b fc3b 39d4 abbb 3657 bd3c
00000280: d0e0 8cbb b616 40bc e181 de3c 3802 3d3c
00000290: 84a6 3f3d 7eb6 70bc e4f1 113d dbee 233c
000002a0: 004d 13bd 6726 df3c c16a f83c f87f d5ba
000002b0: b14e e73c 365a 883b b48e 52bd 8178 46bd
000002c0: 809f b33c 85d7 153d 85c3 67bd b8a8 5dbd
000002d0: 4e81 c33c 741e 0cbd 00c8 aebc b047 8cbc
000002e0: eacb 823d 041b c2bb 5f95 5d3d 04b6 b0bc
000002f0: 4e82 7fbd 9d3a 933d 0457 61bc c32b 4dbc
00000300: f7bf 28bd f14c 423d bb09 28bb e438 903d
00000310: 8b29 e33c 2441 49bd 0c90 acbb 4eda 883d
00000320: 7942 283c 2e3d 4cbc 0735 8c3a 73ba 4fbd
00000330: 0402 103b 5636 babc 4a98 0fbc ed06 2bbd
00000340: dbe0 05bd 0df6 3dbd ed8d d83c ae50 683d
00000350: 349a 383c 6eba 4d3d f228 9e3c 2d83 3a3d
00000360: 7d55 853d 152f 99bc 1256 6c3d 4d30 3f3c
00000370: 9b41 243d 503e ccbc e649 35bd a6dc 57bc
00000380: 5a54 17bc b6c3 a13c e861 cb3b 2251 123d
00000390: 4780 9a3d f519 3e3d e188 dfbc 8f4f fbbc
000003a0: 3da5 d0bb 124c f6bb cc2b ab3c 4919 6c3d
000003b0: b215 033c dfc2 04bd 31b2 29bd b585 6e3d
000003c0: ffc9 633d 3735 533c f9cb 7ebd 75f8 073d
000003d0: c52d c0bb 2a48 61bd 6b95 a33c 44f9 703c
000003e0: 44d4 2d3d 5ae7 8a3c e3d3 84bc 6ee6 673d
000003f0: 372f 86bd 6647 903d e36e fbbb 390f 4f3d
0.021517927 -0.030766776 0.010893768 0.005595512 -0.01836226 0.04704186 -0.004225252 0.025361685
-0.039681796 -0.0124354595 -0.045773935 -0.06057942 0.0435 0.051295802 0.024132384 0.0213676
0.038502533 -0.00093950104 0.030145926 0.010524771 0.015819134 -0.00785697 0.0035558324 0.040105533
0.016776057 -0.0031023524 0.055186957 -0.03788079 -0.038914084 -0.032285362 -0.011324271 0.018728709
0.040057927 0.040695284 -0.005834386 0.061147794 0.048454665 0.010299435 0.018212646 -0.016750125
0.06857381 -0.00055389275 0.0049799783 0.017341014 -0.008541651 0.01785104 -0.056719303 0.0008607417
0.03146928 -0.032063514 0.0012315055 -0.03525994 -0.060514793 0.04818982 0.032664903 0.07090473
0.009815825 -0.012942235 0.04992846 0.03098439 0.01095585 -0.04152958 0.06398342 0.032924216
0.01726409 0.070980236 0.036858894 0.050009023 -0.048592243 0.09033186 -0.039044533 0.03204488
-0.058631442 -0.04132443 0.0027722141 -0.024199354 0.06749362 0.06907959 -0.015292361 -0.058871485
0.046674963 -0.027968405 0.050144035 -0.012805542 0.006790224 0.029414777 -0.0064271824 0.011515993
-0.010047983 0.050009534 0.015957242 -0.05558972 -0.024184046 -0.05563696 0.045992807 0.022166677
0.008540691 0.010134958 -0.035026807 -0.014835025 0.05655586 -0.049620837 -0.054799743 0.06474336
-0.0060688504 0.06270281 0.008717689 0.019072626 0.020874992 -0.05614794 0.06454168 0.05803248
0.0100539215 -0.04469664 -0.066135675 -0.06414022 0.058154598 -0.05420149 -0.0041084397 0.018127738
-0.035126563 -0.04722315 0.056054436 0.030496277 -0.053732563 0.026128985 0.032703046 -0.0057655103
-0.039556336 0.034846675 -0.0054621515 -0.03461628 0.008120928 -0.01656271 0.028169656 -0.024037335
-0.018566214 -0.0013310505 0.047793467 0.031397067 0.0036340205 -0.041078437 0.025662033 -0.044385754
-0.05496883 0.011916152 -0.019834692 0.044761457 0.005649137 0.0020176244 -0.0017139023 -0.037410095
-0.030218113 0.05573743 -0.014367777 -0.034337386 0.047132783 0.007708953 -0.005243805 0.023112874
-0.0042992607 -0.011724165 0.02716154 0.0115361735 0.04678966 -0.014691947 0.035631076 0.010005678
-0.035962105 0.027239991 0.030324342 -0.0016288748 0.028235765 0.0041611446 -0.051405624 -0.048454765
0.021926641 0.03658249 -0.056582946 -0.05411598 0.023865368 -0.03420873 -0.021335602 -0.017124027
0.0638655 -0.0059236307 0.05409753 -0.021571167 -0.062380128 0.07188914 -0.013753656 -0.012522641
-0.041198697 0.04743666 -0.0025640565 0.07042101 0.02772977 -0.04913439 -0.005266195 0.06682263
0.010269755 -0.012465758 0.0010696956 -0.05071492 0.0021973858 -0.022730988 -0.008764336 -0.04175465
-0.032685142 -0.04637723 0.026434863 0.056717567 0.011267234 0.05022662 0.019306634 0.045535255
0.06510446 -0.018699208 0.05769927 0.011669231 0.04010163 -0.024932057 -0.04425993 -0.013175165
-0.00923642 0.019746643 0.0062067397 0.035721906 0.07543998 0.046411473 -0.027286949 -0.030677585
-0.006367354 -0.0075163925 0.020894907 0.0576413 0.008000778 -0.032412406 -0.041429702 0.05823298
0.05561256 0.012891105 -0.062206242 0.03319593 -0.005864831 -0.05500046 0.019968709 0.014707867
0.04243876 0.01695602 -0.016214317 0.05661624 -0.06551974 0.07044868 -0.007673131 0.050551627

L2.bias f4 [128]
00000000: c75f 80bb ae7f 2abd 1112 e0bb c604 10bd
00000010: ac06 c53c bc23 13bd e6a6 17bd e89b 45bd
00000020: 669d bebc 7bcb 65bc 0504 343c facf 933c
00000030: c966 c8bc bac6 49bd a7d3 6e3d c760 1d3d
00000040: 1d7b c0bc e9b2 873b 0354 4cbd 0421 4bbd
00000050: 8910 633d 10fb cc3c 288e 6c3c 9dd9 41bd
00000060: 3f22 58bd a949 29bd 1c6c 17bd 395f a33c
00000070: f91a b33b 4d43 f23c 5163 af3c dfdf 27bc
00000080: 7a3b a83a 8d29 043d 18f1 92bb fe1a c93b
00000090: 422a c13b 2e29 2bbc 9a60 a4bc 628d a33c
000000a0: 02fc 5a3d e521 4dbd ea82 8ebb 5df7 e2bc
000000b0: 4d60 04bc 5e89 ba3c b52e 61bd 7fc5 ef3c
000000c0: 2a9d bb3c 297b fbbc 52e2 14bd ce25 b4bc
000000d0: 9e0f 2cbb 6f45 10bd 3108 653d a9d4 85bb
000000e0: cc1c cdbc e611 43bd 714a c33c 837c 09bd
000000f0: 5e5e aa3c 2a4c 37bc 91be e0bc 6723 af3c
00000100: ffa9 7abd 373e 1f3d 1632 49bb 9ef7 d33b
00000110: 6362 113d 1705 a3bc 284a cb3c c9bd e939
00000120: 4ce4 93bc 0aaa 3c3d 58c2 f23b 448f 293d
00000130: 58bd 91bc 93d8 fc3c 4c39 f03c 62fe 123d
00000140: fc97 053d 7165 103d b872 27ba f8d5 ab3b
00000150: 19ec 4bbd 23f1 333d 57ff 913c bbe8 87bc
00000160: c875 4fbd a420 d7bc 90b5 8fbb 2413 f23c
00000170: dab1 4dbb ec71 be3c 8b44 433c a4a5 743d
00000180: a5aa 683d 9f95 293d 322c 7ebd 56b2 c2bc
00000190: 13ab d63c c584 263d b01f 273d b4e9 bbbc
000001a0: 3849 ff3b 4ff3 413c a5a2 dd3c f132 40bd
000001b0: afa5 6bbd 523d 6a3d fef0 303c 8291 fd3c
000001c0: aae5 43bd 6e9c 1dbc d17b c83c 1438 55bd
000001d0: 3dbb 28bd 1869 bebb 33d9 9ebc 1d0f 673d
000001e0: 7f55 55bd 8a0f 44bd c258 a9bc 9f14 90bc
000001f0: 6404 72bd e01b 1ebb a0bb ba39 41e9 263d
-0.0039176675 -0.04162567 -0.006838091 -0.035160802 0.024051033 -0.03592275 -0.0370244 -0.048244387
-0.023268413 -0.014025564 0.010987286 0.018043507 -0.024463074 -0.049261786 0.058307316 0.038422372
-0.023496205 0.004141201 -0.049884807 -0.049592033 0.05543569 0.02502206 0.01443819 -0.047326673
-0.052767035 -0.041330013 -0.036968336 0.019942867 0.005465862 0.029573107 0.021409662 -0.010246246
0.0012835108 0.03226619 -0.004484307 0.006137251 0.00589493 -0.01044683 -0.020065594 0.019964878
0.05346299 -0.050081152 -0.0043491023 -0.027705843 -0.0080796005 0.02277058 -0.054976184 0.029268978
0.02290209 -0.030698376 -0.03634865 -0.021990683 -0.0026254426 -0.035222467 0.055916015 -0.004084189
-0.025038145 -0.04762449 0.023839207 -0.03356601 0.02079695 -0.0111875925 -0.02743462 0.021379186
-0.061197277 0.038877692 -0.003070002 0.0064687273 0.03549422 -0.019899888 0.024815634 0.00044582624
-0.018053196 0.0460606 0.0074084215 0.041396394 -0.017790481 0.03086499 0.029324196 0.03588713
0.032615647 0.035252992 -0.0006387639 0.005244013 -0.049785707 0.043931138 0.01782195 -0.016590467
-0.050649434 -0.026260681 -0.0043856576 0.029550143 -0.0031386525 0.023247682 0.011918197 0.05972828
0.056803364 0.041402455 -0.062053867 -0.023766678 0.026204621 0.040653963 0.040801704 -0.022938587
0.007790711 0.011837794 0.027055094 -0.04692358 -0.057531055 0.057187386 0.0107996445 0.030953173
-0.047826447 -0.009619815 0.024473103 -0.052055433 -0.04119419 -0.005810868 -0.019390678 0.056410898
-0.05208349 -0.04786638 -0.020672206 -0.017587958 -0.05908622 -0.0024125502 0.00035616476 0.040749792

BN2.weight f4 [128]
00000000: f57b 823f 7563 7e3f 0e36 803f 5938 823f
00000010: ce8b 823f 2315 833f 1685 7e3f a314 873f
00000020: 1e2a 813f 270b 833f 529a 753f 8fb1 7f3f
00000030: 1adb 813f 299d 7b3f 9085 813f eae7 793f
00000040: 9f27 823f baaa 843f 4fa0 843f 2475 7d3f
00000050: 9c31 803f e0ff 803f 86f7 7d3f 7030 843f
00000060: 454c 7c3f 1af3 823f 0d8a 813f c73f 823f
00000070: 97c8 7f3f cb46 853f 0be8 823f e141 893f
00000080: 0a1b 773f f538 863f 0c72 7c3f 1df9 823f
00000090: 15cb 803f 151a 823f 623a 7f3f 1787 7e3f
000000a0: 0bb7 813f 0c5f 763f 3380 853f 655b 823f
000000b0: 2d11 7f3f 762d 803f 32d1 853f 9f90 813f
000000c0: bf16 873f e523 813f 1e1d 7e3f 2dfd 823f
000000d0: 1e92 823f 0a30 813f cad1 793f 4f5d 7e3f
000000e0: 332b 803f 9cb4 833f 6850 8d3f e452 803f
000000f0: bab6 813f 8a2d 8b3f 00a1 7c3f d2b6 7e3f
00000100: 9999 813f 1653 873f d4d9 783f 2c62 803f
00000110: 88fd 763f a90a 823f 79d9 7a3f 92d4 863f
00000120: 1e26 833f 5e07 7a3f 4c01 863f e084 833f
00000130: f7bc 7f3f 6213 863f bee1 863f 8e1f 813f
00000140: 422e 7e3f 748a 803f 0e72 873f 57e9 833f
00000150: 288f 7b3f a473 883f 9446 853f c2d4 7d3f
00000160: f2ea 803f 3bac 823f 3fa8 843f d004 873f
00000170: 3877 833f 285d 843f 41a7 813f bf62 7f3f
00000180: a786 843f 81c9 7c3f 50b8 873f ed66 7b3f
00000190: c10d 843f d5c0 803f 1f2d 833f 053f 793f
000001a0: 4d13 803f 7b68 823f ccdc 7f3f 967b 803f
000001b0: e9a3 7b3f 63e7 803f 004b 823f 110d 763f
000001c0: 1564 833f f809 813f 9774 803f 1768 833f
000001d0: 71c3 7d3f a30e 833f 6871 833f 634a 803f
000001e0: c643 823f af8a 7a3f 2a63 7e3f 3013 7b3f
000001f0: c8ff 7c3f 767e 803f 51e5 823f 6e18 813f
1.0194079 0.9937051 1.0016496 1.0173446 1.0198915 1.0240825 0.99421823 1.0553173
1.0090978 1.0237778 0.959386 0.9988031 1.014499 0.9828668 1.0118885 0.976195
1.0168341 1.0364602 1.0361422 0.9900687 1.001514 1.0078087 0.99205816 1.0327282
0.9855388 1.0230439 1.0120255 1.0175713 0.9991545 1.0412229 1.0227064 1.072323
0.96525633 1.0486132 0.9861152 1.0232273 1.0061976 1.016421 0.9969846 0.9942488
1.0133985 0.9623878 1.0429748 1.0184141 0.99635583 1.0013874 1.0454466 1.012226
1.0553817 1.0089079 0.9926318 1.0233513 1.0200841 1.0092785 0.9758574 0.9936113
1.0013183 1.0289493 1.1040163 1.0025296 1.0133889 1.0873272 0.98683167 0.9949771
1.0124999 1.0572231 0.9720738 1.002996 0.9648061 1.0159503 0.97988087 1.0533621
1.0246007 0.9766749 1.0469146 1.0274925 0.9989771 1.0474665 1.0537641 1.0087755
0.99289334 1.0042253 1.0581682 1.0305585 0.98265314 1.0660291 1.0412164 0.9915277
1.00717 1.020881 1.0363845 1.0548344 1.0270758 1.0340929 1.0129167 0.9976005
1.0353593 0.9874497 1.0603123 0.9820393 1.0316697 1.0058848 1.0248145 0.97361785
1.000589 1.0188135 0.99946284 1.0037715 0.9829698 1.0070614 1.0179138 0.9611369
1.0264918 1.0081167 1.003558 1.0266141 0.99126345 1.0238842 1.0268984 1.0022701
1.0176933 0.97867864 0.9937006 0.9807615 0.9882779 1.0038593 1.0226232 1.008558
