Trained_Models/BotDetection_v4_MLP___May-10-2024/BotDetection_v4_MLP_epoch10_val_loss_0.478007.pth (torch, 942401 bytes, 45 tensors)

L1.weight f4 [256, 133]
000000 2d fa 1e 3c 26 2c 5e 3d ce f4 bd 3d f8 ff 93 bd
       0.009703201 0.054241322 0.092752084 -0.072265565
000010 8e 0a a7 3c 41 2b 91 3c 7c d2 d9 3d 51 8e ac bd
       0.020390775 0.01772082 0.1063585 -0.08425582
000020 8e 8c 35 3c be 5f 6f bd c7 c5 12 3d 54 91 30 3d
       0.011080874 -0.058440916 0.035833146 0.043107346
000030 b3 16 55 bd 2e 18 51 bd f7 ee 06 be a5 eb 62 3d
       -0.0520236 -0.05104845 -0.13177095 0.05540051
000040 bc c2 83 3d c4 88 17 bd 20 96 01 bc b4 d9 82 bd
       0.06433627 -0.036995664 -0.007909328 -0.0638918
000050 74 b3 62 bd ff d0 c3 b9 80 ae 81 bd 28 db bd 3a
       -0.05534692 -0.00037349013 -0.06332111 0.0014484869
000060 64 fa 8f 3d a6 af ac bd f5 1c ef bb dd bc 20 bd
       0.0703018 -0.0843194 -0.007297153 -0.039242614
000070 06 2d ae 3c e0 a0 d8 3b 26 e1 1f bd 61 31 21 bd
       0.021261703 0.0066109747 -0.039033078 -0.039353732
000080 bc 27 9c bd 21 d2 4a bc 9e 94 31 bd a4 7f a8 3d
       -0.07624766 -0.0123792 -0.043354623 0.082274705
000090 62 c4 c8 3b c6 43 a7 3d b9 0c 4e bd aa d3 90 3c
       0.0061269263 0.08167224 -0.050305102 0.017679054
0000a0 c5 cc b1 3d 31 b7 0e 3d 61 62 59 3c 5c 4f a4 ba
       0.08681635 0.034842674 0.013268084 -0.0012535858
0000b0 6c fe 2f 3d d8 58 a3 3d 9d 07 a0 3a 1d 2a 75 3d
       0.042967245 0.0797593 0.00122093 0.059854615
0000c0 d4 ac 3c bd 59 ac 79 3d 36 07 58 3d 87 4a 93 3d
       -0.04606326 0.06095538 0.052741252 0.07191949
0000d0 8c 18 7f 3d d3 e4 c3 3d cb 71 9c bb 99 e1 94 3b
       0.06227927 0.09565129 -0.0047743074 0.004543495
0000e0 ff e6 4e bc bc ec 2b 3c 98 90 aa bd 70 fc 87 bc
       -0.012628316 0.010493454 -0.0832836 -0.016599864
0000f0 15 c9 ef bc 53 ab 02 bd a9 ba b3 bd 40 45 dd bc
       -0.029270688 -0.03190167 -0.08775837 -0.02701056
000100 0f c6 09 3d d9 2f bb bd 59 d1 d4 3b ca b9 c8 3d
       0.03363615 -0.091399856 0.0064946827 0.098010615
000110 ba 60 ac bc ef b6 37 bd 15 78 83 3d 9d 40 15 3d
       -0.021042217 -0.044852193 0.06419388 0.036438573
000120 87 70 8c 3d d4 3a f6 bc b7 67 56 bd 86 15 11 bd
       0.068574004 -0.030057348 -0.052345004 -0.035420917
000130 60 46 94 bd 8c 43 16 bc 41 12 94 bc 41 2c 2a 3d
       -0.072399855 -0.009171378 -0.01807511 0.04154611
000140 04 9a 2f 3d 23 0c 86 bd f1 3d 12 bc 47 b8 a8 bc
       0.04287149 -0.06545284 -0.008925901 -0.020595683
000150 21 41 b0 3c 05 ff 36 3d a9 0a ac bd 51 07 ae bc
       0.02151543 0.0446768 -0.08400471 -0.021243723
000160 1b a2 25 3c e1 43 76 3d 13 70 fa bc 35 d0 01 3e
       0.01010945 0.060123328 -0.03057102 0.12677081
000170 fd 77 8f bd 61 7a 9e 3d ac c7 58 bc dc 50 6f 3d
       -0.07005308 0.07738186 -0.013231199 0.058426723
000180 65 1c a2 3d 83 c3 3a bd 56 31 15 bd 1b 5c 26 3d
       0.07915572 -0.04559661 -0.036424004 0.040615182
000190 0e 18 c9 bc 6d 2d 12 3b dc cd 3c 3d e0 fd 62 bd
       -0.024547603 0.0022304908 0.04609476 -0.055417895
0001a0 a3 d4 67 bd 82 ea 75 3d 14 bb 29 3d 3f 8a 9f 3b
       -0.05659927 0.060038097 0.041438177 0.004868775
0001b0 89 89 2e bd 85 6b a6 bd ed 8c 23 3d 80 21 66 bd
       -0.042611632 -0.081259765 0.03992932 -0.05618429
0001c0 f1 ec 7f bd 99 4f 72 bb b4 d3 72 3c dd 8f ed bc
       -0.062481824 -0.0036973713 0.014820982 -0.028999263
0001d0 17 ad 8b bb 66 5c b8 3d e3 bd a6 3d 7b 34 8f 3d
       -0.0042625773 0.090019986 0.08141687 0.06992432
0001e0 b1 07 96 bc 87 b1 84 3d 9b 9c ac 3c 93 30 d3 3d
       -0.018314214 0.06479173 0.021070769 0.10311999
0001f0 8d 57 ec bb 94 82 e7 bc 60 bc 79 3d 17 b8 88 3d
       -0.0072125853 -0.028260507 0.060970664 0.06675737
000200 2f e4 4f bd 50 53 99 bc 8e 49 e8 3c 00 36 60 3d
       -0.050754722 -0.018716484 0.028355386 0.054739
000210 37 45 84 bd 98 0d 1d bc b6 b9 84 3b 72 a6 74 3b
       -0.06458514 -0.0095857605 0.004050459 0.0037330654
000220 27 4e 56 3d 8f 07 d3 bc a3 de 64 ba 71 0c 86 bd
       0.052320626 -0.02576044 -0.0008730685 -0.06545342
000230 54 df 00 bd 1c 84 61 3d 5a 92 97 ba 04 5f 5a bc
       -0.031462982 0.05505763 -0.0011564002 -0.013328318
000240 01 be 09 3c 36 2b 6f bd 09 68 de 3c bf 37 e0 3c
       0.008407117 -0.05839082 0.027149217 0.027370332
000250 50 f9 45 3c bc 50 37 bd c4 6f 74 bc eb 54 c6 bc
       0.0120833665 -0.04475473 -0.014919225 -0.024210414
000260 3e ad 77 3d 05 56 ca bc 6d e9 f5 3c d9 0d 58 bd
       0.06046795 -0.02469922 0.030018533 -0.05274758
000270 ef 0f ff bc 69 72 6f bd a2 92 3b bc 6b 40 b6 bd
       -0.031135527 -0.05845872 -0.011448534 -0.088990055
000280 3a 96 46 3d df 88 9e bd a0 90 66 bd 62 1c ea 3c
       0.04848311 -0.0774095 -0.05629027 0.028577987
000290 bb dd 1b bd 1e 4f 82 3d 29 32 82 3d b0 68 e4 3b
       -0.038053256 0.06362747 0.063572235 0.0069704875
0002a0 30 63 a7 bc d9 85 ab 3d 9f ea 2c 3d 89 3c ff 3d
       -0.020433038 0.08375139 0.04221594 0.12462718
0002b0 79 d2 98 3d 47 42 aa bc aa fa 8f bd 21 e5 b9 3c
       0.074620195 -0.020783557 -0.07030232 0.022692265
0002c0 d6 92 34 3d 29 46 cb 3d 51 38 3b bd b1 df 30 3d
       0.044085346 0.09925491 -0.045708004 0.04318208
0002d0 82 19 49 3d 0c e6 54 3d ee d4 26 3d 38 c2 7a bc
       0.04909659 0.051977202 0.04073041 -0.015305094
0002e0 22 e6 2d 3d 46 b7 b0 3c f1 d9 05 3d 55 f2 27 3d
       0.0424558 0.021571767 0.03267855 0.04100259
0002f0 83 ab 88 3c 58 c4 0b 3c 6c 86 50 3c 1d 52 89 3d
       0.016683346 0.008530699 0.012727361 0.06705115
000300 64 8f d5 3b 22 f2 97 3d 84 bc 68 3d 7a 98 75 3d
       0.0065173376 0.0741923 0.056820408 0.059959866
000310 33 56 95 bd 3b b9 3a 3d 28 8d 71 3d 8e e6 65 3b
       -0.07291832 0.045586806 0.058972508 0.0035080048
000320 f9 0d 82 3b 7e ea 05 bc 57 89 02 bd 8b 10 14 bd
       0.003968951 -0.008173583 -0.03186926 -0.03614859
000330 17 db bb 3d 08 96 eb bc de be 7c bd c8 84 94 bc
       0.091726474 -0.028758064 -0.061705463 -0.018129721
000340 32 c2 87 3c bf 86 94 3d 3c 10 53 bd b2 b2 ac bb
       0.016572092 0.07252263 -0.051529154 -0.0052703256
000350 c6 67 bd bc 83 81 01 3d 8e cf 82 bd 02 70 a5 bd
       -0.023120772 0.031617653 -0.06387244 -0.080780044
000360 23 9b a4 bd 5f 26 99 3d 58 97 4b bd c1 d5 84 3d
       -0.080374025 0.07478022 -0.04970488 0.06486083
000370 05 45 85 bc 4e 99 67 3d 00 62 a8 bd 5d 0d d9 3c
       -0.016268263 0.056542687 -0.08221817 0.02649563
000380 42 7a 46 bd 6b 90 09 bc f5 5c 30 bd 95 10 39 3c
       -0.048456438 -0.008396248 -0.0430574 0.011295457
000390 37 c8 b2 bd a4 20 22 bd 6a d8 6e 3c 04 f6 0e bd
       -0.08729594 -0.03958191 0.014577964 -0.034902588
0003a0 b7 a2 09 3d 06 ee a9 3d 17 af 92 3d ef 8e d7 3d
       0.033602443 0.082973525 0.07162302 0.10525309
0003b0 f2 27 53 3d 2b e6 14 3d 52 2b 9f 3d 4c 2c 91 3d
       0.051551767 0.036352318 0.077719346 0.07088527
0003c0 6f 40 8b bc b3 77 e1 3b 97 bc 8d 3c 34 ac 06 bd
       -0.016998498 0.0068807243 0.01730184 -0.03287907
0003d0 76 8b 0b bd 52 25 5a 3d 54 ac 86 bd 71 f6 d1 3c
       -0.034068547 0.053258248 -0.06575838 0.025630208
0003e0 97 75 96 bd be 07 3f 3d 84 20 ae 3d 1a 09 b2 3d
       -0.07346647 0.046638243 0.085022956 0.08693142
0003f0 ce 82 92 bd c8 f7 8f bd 24 8f 63 bd d7 c3 7f bd
       -0.07153855 -0.070296824 -0.05555643 -0.062442627

L1.bias f4 [256]
000000 33 e8 a6 bd 19 88 97 bc 57 06 7b 3d 22 55 8a bc
       -0.08149757 -0.018497514 0.061285343 -0.016886298
000010 f1 52 b2 bc f2 09 7a bd 4b ec 05 3d cd c6 2a 3d
       -0.021768065 -0.06104464 0.03269605 0.041693497
000020 64 db 56 bd 8b af 9d bd 88 d1 bd bc 44 21 78 3d
       -0.05245532 -0.07699498 -0.023171201 0.0605786
000030 81 d9 83 bd d1 80 12 bd 39 46 ae bd d2 75 21 bc
       -0.0643797 -0.03576738 -0.08509488 -0.009854751
000040 95 ff 97 3c 8b 4b 10 3d f5 71 29 bd 93 a0 a9 3d
       0.018554488 0.035228293 -0.041368444 0.0828258
000050 68 9d ef 3b 23 8a 7d bd 8c a4 8e 3c 53 7e 02 3d
       0.0073124655 -0.061899316 0.017412446 0.031858753
000060 f0 2a 65 3d 92 96 7b 3d 4a e1 b4 bc 0d 7b 8e bc
       0.05594915 0.061422892 -0.022080082 -0.01739266
000070 0a db 31 bd 4b f2 10 3d ec 67 87 bd dd e8 bd bc
       -0.043421783 0.03538732 -0.066116184 -0.023182327
000080 99 1c 65 bc 3b 70 91 bd 22 47 09 3d 85 29 a1 3c
       -0.013983869 -0.071014844 0.033515103 0.019673118
000090 e4 1e 97 3d 39 fb 5b bd 9c cc 9f 3d b3 8c 15 3d
       0.07378939 -0.05370638 0.07802698 0.036511134
0000a0 9e ab db bc 75 54 87 bd fc a7 a7 bd ff e5 01 3d
       -0.026815232 -0.06607906 -0.08186337 0.031713482
0000b0 69 e3 2c bd 25 0b cd bc d4 30 0a bd 55 66 85 bc
       -0.042209063 -0.025029728 -0.033737972 -0.016284147
0000c0 d1 2f f3 3b 4f 92 98 3d 74 bd 67 3d da f4 83 3d
       0.0074214716 0.07449781 0.05657716 0.06443186
0000d0 df 5c 9e 3b e5 2b da bc 3c 3d 23 bd 2b 76 4c 3d
       0.0048328484 -0.026632259 -0.03985332 0.04991738
0000e0 be d7 ef bb 49 7f 0a 3d f1 f1 9e bd 2d c7 32 3d
       -0.0073194196 0.033812795 -0.077609904 0.04364698
0000f0 39 a9 39 bd c1 f9 19 bc 4a a6 8e 3d 2c 53 58 3d
       -0.0453274 -0.009397925 0.06965311 0.052813694
000100 66 89 4d bd d7 97 92 3d 4d c0 8f bd 9b 4f 22 3d
       -0.05017986 0.071578674 -0.070191 0.0396267
000110 f4 74 65 3c cc 6e a3 3d 18 bc 0f 3c 79 b9 99 bc
       0.014004935 0.07980117 0.008772872 -0.018765198
000120 2e 3b 97 3d cb 89 52 bd 63 d8 75 3d 87 b6 05 bd
       0.073843345 -0.05140094 0.060020816 -0.032644775
000130 a3 66 3f bc 35 57 19 bd b8 4a 68 3d d7 c6 5e bd
       -0.011682185 -0.037436683 0.056711882 -0.054388847
000140 12 a7 c9 bc 08 d8 c8 3b d9 a6 9d 3d 88 8f 41 bc
       -0.024615798 0.0061292686 0.07697839 -0.011814006
000150 af f7 17 bd 1e fe 21 bc 23 50 a0 3c 73 8d 1c bd
       -0.037101444 -0.009887246 0.019569462 -0.038220834
000160 67 3b b0 3d 94 80 0f 3d ea a3 fb bc e0 7f 4f 3d
       0.0860508 0.03503473 -0.030717809 0.05065906
000170 bb 8f ce bc 70 83 9b 3c c5 bc 78 bc 40 2d 8a bd
       -0.02521502 0.018983573 -0.015181725 -0.06746912
000180 39 1c 94 bd 35 89 9a bd ce fd 44 bd fb 8d af bb
       -0.072319455 -0.075457014 -0.04809361 -0.0053575016
000190 91 bd 38 3c c7 eb 69 3c 69 61 1f 3d 2c 69 af 3b
       0.011275665 0.014277405 0.038911257 0.0053531136
0001a0 75 be ac 3d 8d c3 a5 bc 02 3e 95 3c 76 e6 91 3c
       0.08434764 -0.020234847 0.018218044 0.017810088
0001b0 11 ed 2e 3d 81 b2 8d 3d dd 18 05 3d 57 af 30 3d
       0.042706553 0.069188125 0.032494415 0.043135967
0001c0 7b 3d 9d 3d 38 97 2b 3d ee 4e a1 3d 4a 67 34 3d
       0.07677742 0.04189226 0.07876383 0.044043817
0001d0 d6 5e 2b 3d 72 89 31 bc ae a8 5c bd b3 79 9d 3d
       0.04183849 -0.010835992 -0.053871803 0.07689228
0001e0 46 e6 36 3d 8a 5b d4 3c 8b 9e 0f 3d c4 56 c4 bc
       0.0446532 0.025922555 0.035063308 -0.023967154
0001f0 b8 4e 27 bc 49 ab 8d 3d 86 08 b9 3c e0 fe ab bd
       -0.010211639 0.06917436 0.022587072 -0.08398223
000200 4c 9d 8f 3d a1 cf d2 3c be dd 2d bd a0 d6 1e bd
       0.07012424 0.02573377 -0.042447798 -0.0387789
000210 1d 3b 84 bd ed 19 a6 3d aa 33 27 bd d3 ce 1f bd
       -0.064565875 0.08110414 -0.040820755 -0.039015602
000220 0c b0 e3 3c 6c ae 0d bd 52 6c 3a 3d a3 32 f9 bc
       0.027793907 -0.03459017 0.04551346 -0.030419653
000230 24 9e a9 bc 55 b9 db bc 76 50 a1 3b 1a f4 31 3d
       -0.02070529 -0.026821772 0.004922922 0.043445684
000240 d8 39 5e bc fb 74 8b 3d c4 08 af bd 9f d2 87 bd
       -0.013563596 0.06809422 -0.08546594 -0.0663197
000250 2c d8 c7 3c 26 71 d5 bb d3 58 57 bc e0 c3 cb 3c
       0.024395071 -0.0065137325 -0.013143736 0.024873674
000260 0f d3 90 bd ec 2d 16 bc b5 dd 7b bd e9 09 9e 3d
       -0.07071506 -0.009166222 -0.061490733 0.07716734
000270 32 a5 9a 3c 55 20 53 3d a2 f5 63 bd e6 ef a9 bc
       0.0188776 0.051544506 -0.055654176 -0.020744275
000280 17 6f 3e 3d dc f5 95 3d 9b 3d 94 bd c1 2e c0 bc
       0.046492662 0.073222846 -0.07238313 -0.023459794
000290 d2 08 7f bc 13 62 a4 3d 56 dd 5b bd 11 15 03 3d
       -0.015566068 0.08026519 -0.05367788 0.032002512
0002a0 27 c6 81 3d 92 48 86 bd 26 14 a7 3d bd 5a ae bd
       0.06336623 -0.065568104 0.0815814 -0.08513401
0002b0 f7 7f 82 bd 5d a3 cd bc 91 7b 8d 3b 1a 9a 4a 3b
       -0.063720636 -0.025102312 0.004317709 0.0030914606
0002c0 90 11 84 3d 6f b7 98 3d c1 0b c1 bc e6 02 a5 3c
       0.06448662 0.07456862 -0.023565175 0.020142984
0002d0 1b 3c f9 bc c3 0e c9 3c 92 95 e3 ba 30 8e 25 3d
       -0.030424168 0.024543172 -0.0017363301 0.040418804
0002e0 20 14 c6 3a 67 f9 db bc 74 bd 17 3d 22 13 80 3d
       0.0015112199 -0.026852323 0.03704591 0.06253649
0002f0 a0 bc 25 bd 8e 78 bd 3c 74 85 ca 38 e9 fb cc bc
       -0.04046309 0.023128774 9.656968e-05 -0.025022464
000300 1e 52 17 3d 47 65 4a 3d 5d 69 1f 3d 1c 1f 97 bd
       0.036943547 0.04941299 0.03891884 -0.073789805
000310 5b d1 00 bd 35 73 92 3d 4c 1d 4b 3d b0 e8 47 3d
       -0.031449657 0.0715088 0.049588487 0.048805892
000320 03 e5 56 bd 45 d2 fe 3c 41 d6 32 bc d6 74 09 bd
       -0.052464496 0.031106124 -0.01091534 -0.03355869
000330 f9 a4 53 3d a1 83 aa 3d 5c cf 1e 3d aa da 81 3d
       0.051671002 0.083258875 0.038771972 0.06340535
000340 11 03 4b bd bd b4 2e 3d ab f5 a3 bd 03 da aa bc
       -0.04956347 0.042652834 -0.08005842 -0.02085591
000350 42 1f aa bc 10 e8 91 bd 07 91 de bc 70 05 86 3d
       -0.020766858 -0.071243405 -0.027168764 0.06544006
000360 6c 63 2e bd b7 1a 99 3d 6f 1b 30 3d 51 35 0f bd
       -0.042575285 0.074757986 0.042994913 -0.034962956
000370 23 ce 47 3d 20 04 a5 bd 9d 91 14 3d b2 47 28 bd
       0.04878057 -0.080574274 0.03627168 -0.041084
000380 c7 31 8c bd 5b b2 ae 3d 52 44 5b bb d4 59 5a bd
       -0.06845432 0.08530112 -0.003345747 -0.053308323
000390 11 60 af 3d 48 f0 b1 3c fd a5 56 bc 1d 34 06 bd
       0.08563245 0.02172102 -0.013101098 -0.032764543
0003a0 83 33 a0 3d 66 0a 45 3d dd 30 a0 3d e2 47 01 3d
       0.07822325 0.04810562 0.0782182 0.031562693
0003b0 09 a8 8b 3d b8 c4 61 ba c8 85 9e 3c 3d d9 b2 3c
       0.068191595 -0.0008612382 0.019350901 0.021832103
0003c0 c7 d2 a7 3d a6 10 85 3d 9c 45 54 3d 65 e1 aa bd
       0.081944995 0.06497316 0.051824197 -0.08343772
0003d0 15 f6 81 3d 2f d4 41 3d ea 97 9d bc d7 70 82 3c
       0.063457645 0.047321495 -0.019237477 0.015922947
0003e0 e5 64 ae bd 8a 1c 46 bd 6a 0c 89 3d d0 87 a3 bd
       -0.08515338 -0.04836706 0.06691821 -0.079848886
0003f0 03 b9 fb 39 fc 6b 7b 3c be 66 84 bb 51 2b 4f bd
       0.00048012295 0.01534557 -0.004040568 -0.05057842

BN1.weight f4 [256]
000000 bc ba 7e 3f d0 b3 7c 3f fe 65 7e 3f 58 09 7d 3f
       0.99503684 0.9871187 0.9937438 0.9884238
000010 36 58 7e 3f e4 ab 80 3f ce 0d 81 3f 8b cf 7e 3f
       0.9935335 1.0052457 1.0082338 0.99535435
000020 41 6c 80 3f cd 95 7d 3f bf f3 7e 3f 21 38 7e 3f
       1.0033036 0.990567 0.9959068 0.99304396
000030 2a 3c 7f 3f de 8b 7d 3f 3e 43 81 3f 5b 4c 81 3f
       0.9970118 0.99041545 1.0098646 1.0101427
000040 57 89 80 3f ae d4 7e 3f 5d 74 7e 3f 18 3a 80 3f
       1.0041913 0.99543273 0.99396306 1.0017729
000050 a8 1c 80 3f 3f f9 7c 3f 76 1f 82 3f 14 d9 81 3f
       1.0008745 0.9881782 1.0165851 1.0144372
000060 7a f5 81 3f 34 0c 81 3f cb b4 7f 3f 70 04 7f 3f
       1.0153039 1.0081849 0.99885243 0.99616146
000070 dc 17 82 3f 83 df 80 3f 83 9a 81 3f cb cd 7f 3f
       1.0163531 1.006821 1.0125278 0.9992339
000080 f4 27 82 3f 0c b3 7a 3f 4a 1d 7c 3f 33 9f 7f 3f
       1.0168443 0.97929454 0.9848219 0.99852294
000090 e3 84 80 3f 30 7b 82 3f 2e 40 80 3f da ef 7f 3f
       1.0040554 1.0193844 1.0019586 0.9997536
0000a0 c7 71 81 3f cd a4 7f 3f dc 0b 81 3f 4d de 81 3f
       1.0112847 0.9986084 1.0081744 1.0145966
0000b0 fc 32 80 3f e9 2a 81 3f 66 c1 80 3f 1d 20 7f 3f
       1.0015559 1.009122 1.005902 0.99658376
0000c0 6c e9 80 3f fa d9 7d 3f a5 94 7c 3f 8c a8 7e 3f
       1.0071235 0.9916073 0.98664314 0.9947593
0000d0 2c 81 7a 3f 9d 94 80 3f 4a ac 7f 3f 5c 6e 80 3f
       0.9785335 1.0045353 0.9987227 1.0033679
0000e0 ed 33 80 3f 3c 15 81 3f 3a 0c 80 3f f9 a9 81 3f
       1.0015846 1.0084605 1.0003731 1.0129997
0000f0 f4 cf 7f 3f 5b 46 80 3f 7b e0 80 3f c5 fe 81 3f
       0.99926686 1.0021471 1.0068506 1.0155874
000100 88 80 7d 3f 3d fa 7d 3f 9f 11 80 3f fa aa 80 3f
       0.9902425 0.9920996 1.0005378 1.0052178
000110 f7 e3 80 3f e3 0d 80 3f 8b 25 81 3f 54 c1 7d 3f
       1.0069569 1.0004238 1.0089582 0.9912312
000120 ee 8a 81 3f 83 9f 82 3f 3d 1a 81 3f bb ae 80 3f
       1.0120523 1.0204929 1.0086132 1.0053324
000130 bc 08 7f 3f 25 a5 81 3f 36 66 81 3f a8 a4 7e 3f
       0.996227 1.0128523 1.0109317 0.99469995
000140 fc c0 80 3f a7 8d 7f 3f 8e 39 7f 3f b0 13 80 3f
       1.0058894 0.9982552 0.99697196 1.0006008
000150 22 f8 7f 3f c2 6b 80 3f 54 cc 80 3f 6e 7b 7e 3f
       0.99987996 1.0032885 1.0062356 0.9940709
000160 cd 0a 82 3f ed 4f 80 3f ea 61 81 3f 5f 3b 81 3f
       1.0159546 1.0024391 1.0108006 1.0096244
000170 d3 d3 7f 3f 74 e0 80 3f a4 d0 80 3f 44 5a 81 3f
       0.99932593 1.0068498 1.0063672 1.0105672
000180 70 e9 7f 3f c2 a4 7f 3f 54 11 81 3f 24 71 80 3f
       0.9996557 0.99860775 1.0083413 1.0034528
000190 62 ac 7e 3f 3a 84 7f 3f d5 28 80 3f 46 88 81 3f
       0.99481785 0.99811137 1.0012461 1.0119712
0001a0 a8 54 81 3f 67 f4 81 3f e6 34 7e 3f 71 7c 80 3f
       1.010396 1.0152711 0.99299467 1.0037977
0001b0 2d 25 80 3f c4 0e 82 3f c5 ed 7f 3f b3 31 81 3f
       1.0011345 1.0160756 0.9997218 1.0093292
0001c0 d6 bf 7f 3f 00 86 81 3f 8b 69 7e 3f 52 de 81 3f
       0.99902093 1.0119019 0.99379796 1.0145972
0001d0 4d 86 81 3f b1 65 81 3f 15 a1 7e 3f 5b 93 7e 3f
       1.011911 1.0109159 0.9946454 0.99443597
0001e0 73 62 80 3f 0b 72 7b 3f 96 f3 81 3f 78 28 80 3f
       1.0030044 0.9822089 1.0152462 1.001235
0001f0 cf 57 80 3f b4 fd 7e 3f 6e c6 7e 3f 36 32 81 3f
       1.0026797 0.9960587 0.9952153 1.0093448
000200 95 e6 7e 3f 4b 85 7f 3f 08 25 7e 3f 75 39 80 3f
       0.9957059 0.99812764 0.99275255 1.0017534
000210 22 b8 80 3f 49 b3 80 3f 26 e2 80 3f 47 09 82 3f
       1.0056193 1.0054713 1.0069015 1.0159081
000220 30 eb 81 3f 90 97 7e 3f 60 03 80 3f ac 23 7e 3f
       1.0149899 0.99450016 1.000103 0.9927318
000230 b6 dc 80 3f 60 f9 7d 3f f5 1a 81 3f 3f 4e 80 3f
       1.0067356 0.9920864 1.0086352 1.0023879
000240 9b a3 81 3f a1 f9 80 3f 73 54 80 3f 25 2e 82 3f
       1.0128053 1.0076181 1.0025772 1.0170332
000250 d5 27 80 3f f9 79 80 3f 5c 57 81 3f 7e 04 7f 3f
       1.0012156 1.0037223 1.0104785 0.9961623
000260 3d f2 7e 3f 8f 20 7d 3f 1c ae 80 3f a9 81 7e 3f
       0.99588376 0.98877805 1.0053134 0.99416596
000270 f1 be 7f 3f c2 53 81 3f a2 f9 7d 3f 43 0d 80 3f
       0.9990073 1.0103686 0.99209034 1.0004047
000280 f8 4c 7e 3f 1c b8 81 3f 88 80 7e 3f e5 55 81 3f
       0.99336195 1.0134311 0.99414873 1.0104338
000290 09 16 81 3f 1a 3c 7e 3f e4 99 81 3f 8e 63 7c 3f
       1.008485 0.9931046 1.0125089 0.9858941
0002a0 5f 69 81 3f db ff 7f 3f e2 7d 80 3f 01 5a 7d 3f
       1.0110282 0.9999978 1.0038416 0.9896546
0002b0 fb 5d 80 3f ad 9d 80 3f 05 da 7d 3f 7f 6b 7f 3f
       1.002868 1.0048119 0.99160796 0.997734
0002c0 a5 c7 7f 3f 0f 32 7f 3f d7 22 7f 3f e4 0b 81 3f
       0.9991401 0.9968576 0.99662536 1.0081754
0002d0 3e e7 80 3f c7 3f 80 3f 7e e1 80 3f fe cb 7e 3f
       1.007057 1.0019463 1.0068815 0.9953002
0002e0 f6 e3 7e 3f 3d 74 81 3f e8 00 80 3f bb f0 7d 3f
       0.9956659 1.0113598 1.0000277 0.9919545
0002f0 1d 6e 81 3f 09 98 81 3f 63 7b 7d 3f b2 5f 80 3f
       1.0111729 1.0124522 0.990164 1.0029204
000300 4b 01 80 3f 0e e7 80 3f 5c 92 7f 3f 71 d6 81 3f
       1.0000395 1.0070512 0.998327 1.0143567
000310 a9 28 82 3f 8c bc 80 3f e2 b5 80 3f 7c 72 80 3f
       1.0168658 1.005754 1.0055506 1.0034938
000320 62 d4 80 3f 3c 6f 7f 3f 90 27 80 3f ce f9 7d 3f
       1.0064814 0.99779105 1.0012074 0.99209297
000330 ca 6f 81 3f 34 25 7e 3f da 0a 80 3f 95 6c 7e 3f
       1.011224 0.9927552 1.0003312 0.99384433
000340 37 be 7e 3f f1 12 80 3f 72 4c 82 3f dc 74 80 3f
       0.99508995 1.000578 1.0179579 1.0035663
000350 ca 5f 7e 3f 7f 35 80 3f 2f d7 81 3f 99 46 7e 3f
       0.9936491 1.0016326 1.0143794 0.99326473
000360 6b 3c 80 3f d7 7b 80 3f 12 04 80 3f 41 6c 7d 3f
       1.0018438 1.0037793 1.0001242 0.9899331
000370 d3 a5 82 3f fb e7 7d 3f d6 43 80 3f 80 b9 7f 3f
       1.0206856 0.991821 1.0020702 0.99892426
000380 df 56 80 3f e0 20 7f 3f 60 ff 7e 3f a3 4a 7d 3f
       1.0026511 0.9965954 0.9960842 0.9894201
000390 66 59 81 3f 2f ae 81 3f 9b 22 80 3f d6 53 80 3f
       1.0105407 1.0131282 1.0010561 1.0025585
0003a0 04 20 84 3f 84 2a 7f 3f 4c dd 7d 3f 55 ed 7e 3f
       1.032227 0.9967425 0.991658 0.9958089
0003b0 e7 2f 83 3f 93 7c 80 3f c2 f0 7e 3f 58 aa 7a 3f
       1.0248994 1.0038017 0.9958612 0.97916174
0003c0 7e 71 7d 3f 4c fc 7e 3f ff a5 80 3f bc d0 81 3f
       0.990013 0.99603724 1.0050658 1.0141826
0003d0 b9 35 7f 3f 35 83 7e 3f 65 9e 7e 3f 6d 90 80 3f
       0.9969135 0.99418956 0.9946044 1.0044075
0003e0 3a da 80 3f 3e 9c 81 3f e6 73 7f 3f 99 bd 7f 3f
       1.0066597 1.0125806 0.9978622 0.9989868
0003f0 bf 4a 7f 3f 6d da 7f 3f 75 14 81 3f b7 86 81 3f
       0.9972343 0.99942666 1.0084368 1.0119237

BN1.bias f4 [256]
000000 e8 76 d9 3c cf f0 d7 ba 5f 8b 1e bb b6 ed 51 3d
       0.026545957 -0.0016474965 -0.0024191958 0.05125209
000010 3e 13 9d 3c 1b a7 c7 bc e6 e7 b0 3b ea 34 fe bc
       0.019174214 -0.024371674 0.005398738 -0.03103109
000020 75 d8 c4 bc 48 0e 1c 3c 22 41 84 3c 38 84 56 3c
       -0.024028996 0.009524889 0.016144339 0.013093047
000030 19 66 a4 3c 8f 2f b8 bc 02 f6 a8 bc 4b 3a 64 bc
       0.020068215 -0.022483615 -0.020625118 -0.013929914
000040 cf 91 14 bc 94 d8 38 bc a6 5d 80 3c 70 ee 3f ba
       -0.009067967 -0.011282105 0.015669655 -0.0007321602
000050 2c 52 e4 3b 12 4a a3 3c 38 21 84 bc d5 cf 77 bc
       0.0069678035 0.01993278 -0.016129121 -0.015125235
000060 f0 29 06 bc b3 f8 8e bc a5 93 bd bc 42 17 38 3c
       -0.00818871 -0.017452573 -0.023141691 0.011236014
000070 ef 57 64 bc cf ec a0 bc 2f 7a a7 bc 50 db 20 bb
       -0.013936981 -0.01964417 -0.020444004 -0.0024544783
000080 ca 65 e6 bc d8 26 e4 3c b6 e1 21 3c 95 88 04 3c
       -0.028124709 0.027850553 0.009880474 0.008089204
000090 9c 15 9a bc b2 55 d4 bc 3a e0 98 bc 3d ff d8 bc
       -0.018809132 -0.025919769 -0.018661607 -0.026488895
0000a0 e7 63 09 bd e3 b4 2a bc 05 17 95 bc 09 86 da bc
       -0.03354254 -0.010419103 -0.018199453 -0.026675241
0000b0 fd f1 44 3b ce 15 5a bc a7 9e 2f bd f1 cc 87 ba
       0.0030051463 -0.013310863 -0.042875912 -0.001036076
0000c0 81 3d 9c bc d5 73 8d 3b 8e d5 27 3c fb 47 17 3d
       -0.019072296 0.004316787 0.0102437865 0.03693388
0000d0 df 25 3e 3d 1d 88 91 bc df 0c d3 3a 2d 36 83 bc
       0.046422835 -0.0177651 0.0016101858 -0.016017044
0000e0 60 39 4f bc f3 ec 1f bc f7 e0 a6 3a f7 65 33 bc
       -0.012647957 -0.009761083 0.001273184 -0.010949603
0000f0 57 d4 12 3c 59 b2 4d bc b5 f7 07 bb 6b 10 be bc
       0.008961759 -0.012554728 -0.002074701 -0.023201188
000100 38 69 20 3b 67 bf 22 3c 35 b3 a0 3c 0d a5 5b bc
       0.0024476778 0.009933329 0.019616703 -0.01340605
000110 f2 d5 ce bb ff 9a d8 3a ce 6d 9f 3c de 5a ee 3c
       -0.0063121254 0.0016525685 0.019461539 0.029096063
000120 a9 dd 92 bc 8f 5c 85 3b 20 e2 8d bb b3 5b 86 3a
       -0.017927961 0.0040698717 -0.0043299347 0.0010250717
000130 d0 75 0e ba 03 36 c6 bc ba ef fb bc 6f 57 d6 ba
       -0.00054344255 -0.024195677 -0.030753959 -0.0016352962
000140 d3 e8 0b bc 5e 2c 4f 3c 1d 2a a7 bb fc ef c8 bc
       -0.008539396 0.012644855 -0.005101456 -0.024528496
000150 cf 08 d6 bc 8a 72 b7 3c b3 b5 30 bb c9 92 21 3c
       -0.026127247 0.022393484 -0.002696377 0.009861656
000160 60 4b af bc 85 f8 0e 3b 76 59 85 bc 40 7f 88 bc
       -0.021398246 0.002181561 -0.01627801 -0.01666224
000170 6b e4 13 3c 11 68 a3 bc 92 5d 51 3c 25 3a 34 bd
       0.009026627 -0.019947084 0.012778657 -0.044000763
000180 04 63 23 3c 78 ee 98 bc 4d 8d c1 bb d0 e1 47 bd
       0.009972338 -0.018668398 -0.005906737 -0.048799336
000190 58 94 89 3b 68 d8 c2 3b 9f 22 25 bd 1b 3a fb bc
       0.004198592 0.005946208 -0.04031622 -0.030667355
0001a0 5f fb ea bb 8b 2b 6a bc ac 12 80 3b 33 9b b2 3b
       -0.007171079 -0.014292608 0.003908476 0.00545063
0001b0 03 44 1d bb c9 0c ca bc 37 31 d9 bb 14 c0 70 bc
       -0.0023996837 -0.0246643 -0.0066281813 -0.0146942325
0001c0 5d f8 a4 3a 53 ff ec bb 04 4c 86 bb 43 a3 f5 bc
       0.0012586225 -0.0072325855 -0.0040984172 -0.029985076
0001d0 66 6f 98 bb 67 22 cd bc 23 9e 80 bc 40 5a 50 3c
       -0.0046519516 -0.025040818 -0.015700405 0.01271683
0001e0 ed fb 9b 3b 07 66 07 3b 01 7c c3 bc a6 08 c4 3b
       0.0047602565 0.0020660178 -0.02386284 0.0059824763
0001f0 4c 96 9b bc 4b 3f 04 3d 05 26 cc 3b 9e 90 fc bc
       -0.018992566 0.032286923 0.006230118 -0.030830678
000200 66 0f 5f 3c 28 de 8a 3c 17 df 0b 38 0c ef 38 3c
       0.013614511 0.016951635 3.334795e-05 0.011287462
000210 1c 68 90 3c bc 93 64 ba e3 75 ba bc 37 f8 31 bd
       0.017627768 -0.0008719524 -0.02276129 -0.043449607
000220 ab c0 25 bd 54 bb 83 bb eb 1b 78 bb 8e cd 8c 3b
       -0.040466946 -0.004020134 -0.0037858437 0.004296965
000230 67 3e fe bb 61 3d 85 3c e7 37 c7 bc df b7 0f bd
       -0.007758904 0.01626462 -0.024318649 -0.035087463
000240 6b 69 9d 3c f0 0c 0f bd 50 b3 f1 3b 50 93 0f bd
       0.019215306 -0.034924448 0.007376112 -0.035052598
000250 f5 8e ac bc 7f 51 77 bb 83 6d 1d bc 83 e1 d2 ba
       -0.021064261 -0.0037737784 -0.009608629 -0.0016088936
000260 b6 df 30 bc 24 03 bb 3c bd 56 8c ba 7b 65 67 3b
       -0.010795524 0.022828646 -0.0010707002 0.003530829
000270 03 92 0a bb b7 9a 1f bc bc 3f 71 bc d6 f9 2e bc
       -0.0021144159 -0.009741477 -0.014724668 -0.010679683
000280 2c ca 99 bb 03 31 10 bd be 1a b0 3c 94 bd 92 bc
       -0.00469329 -0.03520299 0.021497127 -0.017912664
000290 10 45 9e bc 25 93 f7 3b 9d b0 a9 bc 76 15 cf bb
       -0.019320041 0.007555383 -0.020714099 -0.006319697
0002a0 6b 39 ed bb 42 68 00 bb 67 8b ac 3c 43 8b 07 3b
       -0.007239511 -0.0019593392 0.021062566 0.0020682372
0002b0 03 a1 95 bc 93 b3 b0 bc 3e 55 75 3c 9f 5d 0f 3d
       -0.018265253 -0.021570003 0.014973937 0.035001393
0002c0 c7 aa 09 3c 8b 95 b4 bc 34 14 a9 bc 75 31 43 bc
       0.008402533 -0.022043964 -0.020639516 -0.011913647
0002d0 a9 d3 9a bb 4e a4 19 3c ec 64 c2 bc 06 ad f2 3c
       -0.004724939 0.009377552 -0.023729764 0.02962352
0002e0 1a f5 cd 3b ca c5 c5 bc a4 ea 4f bb 6e 5e 42 3c
       0.006285322 -0.024142165 -0.003172555 0.011863334
0002f0 dc 80 b1 bc 7d dd 84 bc 76 fe 4e 3c 96 1b f4 3b
       -0.02166789 -0.016218895 0.01263391 0.0074495776
000300 f9 c2 02 bc 7a 87 54 3c 42 ea 36 3c 70 0d a9 bc
       -0.007981055 0.012971753 0.01116425 -0.02063629
000310 41 37 f0 bc 1d ca 1c bd 1d 6a 34 bd 76 41 53 bc
       -0.029323222 -0.038278688 -0.04404651 -0.012894025
000320 8a a2 14 bc c7 50 93 3b 60 bd b5 bc 91 76 04 39
       -0.009071955 0.0044957134 -0.022185028 0.0001263267
000330 e0 56 b1 bc fe 01 80 ba a1 08 d5 3b 74 3e 6b 3b
       -0.02164787 -0.0009766219 0.006501273 0.003589538
000340 2a cf d2 3b df 18 af 3b d4 10 37 bd 6c 28 31 bc
       0.0064333873 0.005343541 -0.044693783 -0.01081286
000350 b6 2b 3a bc a8 f5 a8 bc 44 3c af bc 9d ad 18 bc
       -0.011362961 -0.02062495 -0.021391042 -0.009318736
000360 24 51 19 bc fe 12 aa bc fe 3b d1 bc 46 0e a9 3c
       -0.009357724 -0.02076101 -0.025541302 0.020636689
000370 4b 3b a0 bc 0d 6f 62 ba 0c 99 24 ba aa 20 b5 bc
       -0.019559523 -0.00086377637 -0.0006278909 -0.022110302
000380 ce 2c b2 bc 7f d4 02 3d 7b ac c4 3a 97 24 75 3c
       -0.02174988 0.031940933 0.0015005016 0.014962337
000390 b9 50 2b bc 42 39 5b bd 6f 92 98 bc ce e1 13 bc
       -0.0104562575 -0.053521402 -0.018624512 -0.009026004
0003a0 0e 3d d3 bc 12 9c 80 bc 1c 1e a3 3b f6 ea 86 bc
       -0.02578595 -0.01569942 0.0049779546 -0.01646946
0003b0 55 f2 84 bc 31 d2 56 bc 7c 69 20 bc 17 5c b6 bb
       -0.016228834 -0.013111637 -0.009790774 -0.005565177
0003c0 9e 67 51 3c 6c 7a de 3b 77 df 99 bc ca 37 56 bc
       0.012781052 0.006789496 -0.018783314 -0.013074825
0003d0 1a 72 e0 3b e7 ec a0 bb ce be cb bc f8 e0 7a bb
       0.0068495395 -0.0049110535 -0.024871256 -0.0038281064
0003e0 33 15 00 bd ed 2e 8d bc e0 a3 d8 3c d4 1c db bb
       -0.031270217 -0.01723429 0.02644533 -0.006686786
0003f0 c9 99 8a bc 96 7e bf bb 49 7d d3 ba ff 64 30 bb
       -0.016919034 -0.0058439476 -0.001613536 -0.0026915667

BN1.running_mean f4 [256]
000000 9d 1a 3a c1 c9 26 9c 40 a6 62 c6 40 96 f5 cf 40
       -11.631497 4.8797345 6.199542 6.4987288
000010 91 8d 14 c1 72 72 0c 41 2e 09 c3 41 19 2c 27 41
       -9.284562 8.777941 24.379482 10.448266
000020 21 14 0a 41 9b 05 a2 bf 6c fb 8a 40 8e c5 90 41
       8.629914 -1.2657961 4.343191 18.096462
000030 fe 54 07 41 4e 5a 97 c0 d7 4d bb be 3f 7b 2c 40
       8.45825 -4.7297735 -0.36582825 2.6950223
000040 40 f2 6b 41 c4 90 34 c1 3a 66 24 41 aa 3a 3f 41
       14.746643 -11.285343 10.274958 11.951822
000050 80 fe 24 c0 6b 30 34 41 44 94 4d 40 c4 6f e4 40
       -2.5780334 11.261821 3.2121744 7.1386433
000060 32 ec 03 c0 8b 3f 82 3f 77 5c a2 c0 0f 17 e7 40
       -2.0612912 1.0175642 -5.073787 7.221565
000070 4d a3 87 c0 33 0c 72 3f af 36 8b 40 8c e6 bc c0
       -4.238684 0.94549865 4.3504252 -5.903143
000080 c9 b9 fa 40 5e 3e cb be d0 f5 2c 41 8b 00 46 c1
       7.835179 -0.3969602 10.810013 -12.375133
000090 16 02 1f c1 19 c4 58 40 f4 6f 8c be 1d 47 7a c0
       -9.938009 3.3869689 -0.27429163 -3.9105904
0000a0 23 8b 34 41 9b 56 75 41 57 a3 b5 40 18 59 7c 40
       11.283969 15.333644 5.676189 3.9429379
0000b0 bf 74 d8 c0 0f 02 97 3f bf 6b 45 41 68 7b ad 3f
       -6.764251 1.1797503 12.338805 1.3553286
0000c0 28 45 1f c1 ec a9 cf c0 43 30 e4 c0 76 cb cc c0
       -9.954384 -6.4894924 -7.1308913 -6.3998365
0000d0 16 95 e1 40 31 7d 85 c1 f4 0e 7d 40 4e 36 83 40
       7.049449 -16.686129 3.9540377 4.100379
0000e0 4c 02 6e c0 6f 7a 08 41 8f a8 1e c1 d4 c4 e2 40
       -3.7188902 8.529891 -9.916152 7.086527
0000f0 69 40 6e 40 2f 18 77 c1 06 07 d0 3f c8 10 35 c0
       3.7226813 -15.443404 1.6252143 -2.8291492
000100 9d b6 9b 3e 17 f9 2e c0 89 94 49 41 07 64 c4 40
       0.3041276 -2.7339532 12.598763 6.1372104
000110 8a 93 48 c1 83 c6 b6 3f 77 1d 07 c0 c2 f8 20 c1
       -12.53602 1.4279331 -2.1111734 -10.060732
000120 c0 e5 62 c0 7b 25 16 41 02 0f 57 c1 65 a3 15 41
       -3.5452728 9.3841505 -13.441164 9.352391
000130 44 88 06 41 ec ed 90 c0 75 31 fb 40 98 a0 8b c0
       8.408268 -4.529043 7.849787 -4.3633537
000140 dc 88 78 40 10 19 3f 3f 63 21 d5 40 6f 78 fa 40
       3.8833532 0.7464762 6.6603255 7.8272014
000150 5a f9 77 c0 e0 d5 46 bf f7 4b 3b c1 da 94 f7 3f
       -3.8745942 -0.776701 -11.706046 1.9342301
000160 a6 0d 1d c0 82 84 93 40 9b 95 82 40 b7 2e 43 41
       -2.453958 4.6099253 4.0807624 12.198905
000170 ed 51 89 3f c1 a6 e0 c0 06 cd 54 bf 02 e4 d2 40
       1.0728127 -7.0203557 -0.8312534 6.590333
000180 b2 01 9d 40 dd d4 2f 3e 6d 17 38 c1 82 68 bb c0
       4.906457 0.17171045 -11.505719 -5.8565073
000190 17 e6 cf 40 b6 17 83 3e 61 40 92 40 4a 67 69 40
       6.496837 0.25604028 4.5703588 3.6469293
0001a0 da c5 7f 41 1a 3f 74 bf 8d 4e e9 c0 a3 ba b2 c0
       15.985804 -0.95408785 -7.2908387 -5.585283
0001b0 d5 9c 27 be a6 94 0d 41 68 9e 35 c1 92 5b cb c0
       -0.1636842 8.848791 -11.351173 -6.354928
0001c0 12 b7 02 41 83 65 82 c1 dd fa 8e 40 b5 fa 06 41
       8.169695 -16.299566 4.468123 8.436208
0001d0 8c e5 1b c1 08 d0 50 c1 94 38 24 40 e1 b6 3b c1
       -9.743542 -13.050789 2.5659533 -11.732148
0001e0 f8 9e fc c0 5d f0 70 c1 11 9f 45 40 ed 06 a4 c0
       -7.8944054 -15.058682 3.0878336 -5.1258454
0001f0 a4 d3 50 40 fb d5 fe c0 72 8d cc c0 bf 8f ef 3f
       3.2629175 -7.9636207 -6.3922663 1.8715743
000200 3c 46 de c0 d5 3b 3e c1 fd 8a f5 bf 7b bf 4a c1
       -6.9460735 -11.889607 -1.9183041 -12.671748
000210 05 45 66 40 93 19 f7 bf 44 b6 a5 3f 65 97 13 41
       3.5979626 -1.930468 1.2946248 9.224462
000220 96 1f 0e 3f 8c b4 98 be 41 ab cd 40 44 4e 6a 41
       0.55516946 -0.29825246 6.427155 14.644108
000230 4e 4b e2 c0 3a 36 27 c1 e2 b9 98 40 11 20 28 41
       -7.0716925 -10.450739 4.772691 10.507829
000240 e6 27 81 be 8b 82 ff 3f e4 ee 11 c1 42 79 09 3f
       -0.25225753 1.9961714 -9.120823 0.5370065
000250 26 ef d0 be 21 c7 f3 40 db 6f e2 bf 0d a4 5b c0
       -0.40807456 7.6180577 -1.7690386 -3.4318879
000260 b1 fd 12 c1 0f 8e 27 41 57 6e 97 bf 24 66 0d c1
       -9.186936 10.472182 -1.1830548 -8.837437
000270 93 21 49 c0 80 0a 75 c1 67 02 48 c1 52 47 39 41
       -3.1426742 -15.315063 -12.5005865 11.579912
000280 e9 fa f8 bf 2b 03 53 3e 39 ff 1b c1 ec d5 35 41
       -1.9451572 0.20606677 -9.74981 11.364727
000290 42 49 45 c1 74 7e df c0 8f fd d4 3f 79 64 7c 41
       -12.330385 -6.984186 1.663988 15.774529
0002a0 cd 47 94 c1 4a ed 86 c0 ac f1 96 bf 2f df 3e 41
       -18.535059 -4.216466 -1.1792502 11.929488
0002b0 cc fe 71 41 0f 7a 21 40 e7 4d 41 bf 58 58 df c0
       15.124706 2.5230749 -0.75509495 -6.979534
0002c0 85 a5 03 bf d8 1a 10 41 a9 bd 08 40 05 bf 8f c1
       -0.5142444 9.006554 2.136576 -17.968271
0002d0 99 2f 1f c1 c3 92 7c bf 3c 6b 3f 41 c2 a8 66 41
       -9.9491205 -0.9866144 11.96368 14.416201
0002e0 82 cf c4 40 9e 6a ec c0 17 89 2a 41 d9 fa cf 40
       6.1503305 -7.388015 10.658469 6.499371
0002f0 b4 62 0e 40 e0 aa 3f 40 44 d8 e0 40 78 e0 e4 c0
       2.2247744 2.9948044 7.0263996 -7.152401
000300 53 d8 02 c1 58 6d ed 3f df 0f 36 40 ab 54 01 c1
       -8.177814 1.8548994 2.8447187 -8.083171
000310 99 c2 72 3f ba 77 24 c1 d8 0c 98 41 af 78 49 c0
       0.9482818 -10.27923 19.006271 -3.147991
000320 63 f6 5c c1 a4 f1 2b c1 8c 76 d4 40 c5 23 ea c0
       -13.810153 -10.746494 6.639471 -7.3168664
000330 64 f6 02 c1 df 57 6b 41 5f e5 4f 41 02 87 53 c1
       -8.185154 14.708953 12.993499 -13.220461
000340 4a 67 b7 40 49 a7 7b 3f 06 90 24 c1 18 c0 57 40
       5.7313585 0.9830213 -10.285162 3.3710995
000350 59 eb 48 40 ae d6 a8 c0 57 4c 84 bf de b4 85 40
       3.1393645 -5.276206 -1.0335797 4.1783285
000360 c2 d6 67 40 83 f1 0f c0 62 f1 2e 3f b5 e3 38 c0
       3.6224828 -2.2491157 0.6833707 -2.8888981
000370 61 fb b0 c0 6b b9 53 c1 22 c8 ad bf 62 8c 18 40
       -5.530686 -13.232768 -1.3576701 2.3835683
000380 bf c9 b5 c0 14 4a 1e 40 39 70 85 c0 de d7 27 c1
       -5.680877 2.4732714 -4.169949 -10.490202
000390 8f e3 70 3e 9b e3 06 c1 3d ce de 40 d6 21 42 40
       0.23524307 -8.430568 6.9626756 3.0333152
0003a0 57 c5 50 40 ff 4e 6f c1 9d 32 8a 3e 10 1f 54 40
       3.2620447 -14.956786 0.2699174 3.314396
0003b0 74 d3 ea c0 b7 70 87 40 91 f9 5f c0 11 6f ac 41
       -7.338312 4.232509 -3.4996073 21.554232
0003c0 a4 a5 0f c0 28 e1 01 41 e3 03 5b bf ab 2f 06 41
       -2.244485 8.11747 -0.85552806 8.386638
0003d0 91 e8 92 40 a9 10 ca 3e 49 1f 10 c1 b5 4e 6a c0
       4.5908895 0.39465836 -9.007638 -3.661054
0003e0 ac c8 8f c1 44 04 ed 40 d0 7a 81 41 dc 47 bc c0
       -17.972984 7.4067707 16.184967 -5.883772
0003f0 bd 2d 28 c1 12 e0 8e c0 e3 fc 15 41 f2 9e 03 c1
       -10.511167 -4.4648523 9.37424 -8.226305

BN1.running_var f4 [256]
000000 56 b1 8e 42 eb 8d 3b 42 41 c9 08 43 11 3b b7 42
       71.34636 46.88859 136.78615 91.615364
000010 e4 07 2a 43 52 4c 3d 43 ee 39 0a 43 e8 d9 d4 42
       170.03082 189.29813 138.22629 106.4256
000020 ae 7f 0c 43 0a 33 0a 43 c4 31 19 43 d2 2c 44 43
       140.49875 138.19937 153.1944 196.17508
000030 e2 51 a6 42 c6 3d da 42 9a 7d 8c 42 a4 c6 14 43
       83.15993 109.12065 70.245316 148.77594
000040 18 90 02 43 ba dc b1 42 67 2a 6d 42 fa c6 08 43
       130.56287 88.93111 59.29141 136.77725
000050 37 00 d8 42 9c 69 21 42 da ec df 41 c1 3a 8d 42
       108.00042 40.353134 27.99065 70.61475
000060 45 f4 44 42 86 92 d3 42 3c 18 52 42 fb 5f 6b 42
       49.238544 105.78618 52.523666 58.84373
000070 f8 e1 5a 42 13 3c 4e 43 68 2f 7e 42 0b 7a f5 42
       54.720673 206.23466 63.546295 122.738365
000080 e4 08 a8 42 bb 89 cf 42 07 c0 09 43 42 ff 86 42
       84.017365 103.769005 137.7501 67.49855
000090 f2 7c 7f 42 c2 71 b6 42 16 7d 1a 43 f5 ba 2c 42
       63.872017 91.22218 154.48862 43.182575
0000a0 6e 65 5d 43 e9 bc 89 42 eb 98 9e 42 00 4b a1 42
       221.39621 68.868965 79.29867 80.646484
0000b0 46 60 70 43 72 3a 13 43 53 5f 9e 42 89 2c 16 42
       240.37607 147.2283 79.18618 37.54349
0000c0 7a 79 03 43 14 7f a9 42 77 f3 07 43 8b 2e cc 42
       131.47452 84.7482 135.95103 102.090904
0000d0 8a 28 61 42 fd cd 14 43 e8 46 85 42 c0 cf c6 42
       56.28959 148.80464 66.63849 99.40576
0000e0 5d d0 8f 42 26 fc c4 42 7c 72 6b 42 1d ec bd 41
       71.90696 98.49248 58.8618 23.74029
0000f0 d9 bb 6e 42 e8 db a7 42 20 2e 72 42 87 28 93 42
       59.683445 83.929504 60.545044 73.579155
000100 51 d8 48 43 c0 d7 58 42 8a 4d b8 42 97 04 98 42
       200.84499 54.210693 92.15144 76.008965
000110 e2 1c fe 42 4d e6 0e 43 05 de e0 42 a6 dd a6 42
       127.05641 142.89961 112.43363 83.43291
000120 f2 18 a2 42 d8 d3 6b 42 a0 6e d0 42 48 e9 34 42
       81.04872 58.95688 104.216064 45.227814
000130 f6 7e 8e 42 7a b5 34 42 2b be b8 42 a6 30 2c 42
       71.24797 45.177223 92.37142 43.04751
000140 a6 1c 0b 42 6d 7a b2 42 31 8d 8b 42 a9 7f 87 43
       34.777977 89.23911 69.775764 270.99734
000150 31 4b 8b 42 66 4c 29 42 57 e2 09 43 4b 95 4b 42
       69.64686 42.324608 137.88414 50.895794
000160 97 2e 69 42 df 65 cf 42 c0 4a d3 42 d2 30 40 42
       58.295498 103.69897 105.645996 48.047676
000170 4c 1b 55 42 44 9d 9f 42 9c 56 c5 42 c4 33 6b 42
       53.276657 79.80716 98.66916 58.800552
000180 9a de fb 42 34 24 25 42 39 d5 a2 42 12 0a e9 42
       125.93477 41.285355 81.41645 116.51967
000190 81 70 20 43 cc fd 0a 43 48 4d 06 42 df d2 40 43
       160.43947 138.9914 33.57547 192.82372
0001a0 bd 5e a1 42 ae b5 3b 42 ab 76 5b 42 ff a9 ab 42
       80.685036 46.92742 54.865887 85.83202
0001b0 0a 04 89 42 d2 93 b5 42 7e d3 14 43 c2 1b cf 42
       68.50789 90.78871 148.82614 103.554214
0001c0 54 f5 4e 42 fc 8f ba 42 5d 5c 91 42 77 63 28 42
       51.73958 93.28122 72.6804 42.097134
0001d0 69 73 46 42 a7 aa a9 42 5f ba a7 42 2c b7 51 42
       49.612705 84.833305 83.864006 52.42888
0001e0 09 6b e7 42 d9 00 d2 42 1d f7 c4 42 98 f1 2a 43
       115.70905 105.001656 98.48264 170.94373
0001f0 d9 37 84 42 78 fa 17 43 69 70 36 42 77 23 68 42
       66.10908 151.9784 45.609776 58.034634
000200 9d 5d 06 43 2f 1d 9a 42 76 73 c7 42 91 a7 eb 42
       134.36568 77.057 99.72551 117.82728
000210 97 d6 64 43 f7 30 57 42 e8 40 0b 43 3c 13 9f 42
       228.83824 53.797817 139.25354 79.53757
000220 0d 08 bf 42 70 54 76 42 3b f3 94 42 f7 2f f4 42
       95.515724 61.58246 74.47506 122.09368
000230 e8 5e 20 42 e2 2e a8 42 7e fc 53 42 f9 4c fd 42
       40.09268 84.09157 52.996574 126.65034
000240 b3 47 a7 41 72 e3 bf 42 28 59 91 42 03 61 06 43
       20.91001 95.94423 72.67413 134.37895
000250 9e 0c 65 42 d8 b6 b1 42 69 1d 8f 42 ec 7a 34 43
       57.26232 88.85712 71.55744 180.48016
000260 63 de 39 42 c5 5a 2e 43 39 b8 17 42 d9 12 71 42
       46.467175 174.35457 37.929905 60.268406
000270 96 36 69 42 bf 67 a7 42 f9 14 b3 42 7b 2c 4f 43
       58.303307 83.70263 89.54096 207.17375
000280 2d 59 1b 42 c5 b1 f1 42 a1 fa ca 42 54 3a 1a 43
       38.837086 120.847206 101.48951 154.22784
000290 63 b9 81 42 10 41 f5 42 b6 96 3c 42 e4 4b a0 42
       64.86208 122.627075 47.14718 80.148224
0002a0 37 b3 03 43 50 41 8b 42 07 50 55 42 e9 03 e2 42
       131.70006 69.62756 53.32815 113.00764
0002b0 9a a4 95 42 8b a4 b3 42 a4 72 8f 42 fb a1 24 42
       74.82149 89.82137 71.72391 41.158184
0002c0 82 6b 95 42 e2 fe b4 42 fa 8a 1a 43 12 75 31 43
       74.70998 90.49782 154.54288 177.4573
0002d0 18 e2 93 42 6c c7 3c 42 fd 41 82 42 b0 00 81 42
       73.94159 47.194748 65.12888 64.50134
0002e0 79 9a 54 42 0f 4f 98 42 8e e2 d9 42 93 ae 16 42
       53.150852 76.15441 108.94249 37.670483
0002f0 96 62 35 42 43 fb 6d 42 bb f6 c2 42 d9 42 72 42
       45.346275 59.495373 97.481895 60.56528
000300 d1 8d 49 43 2e bc f7 42 26 27 c7 42 aa 2a 0e 43
       201.55397 123.86754 99.57646 142.16666
000310 a2 79 3c 42 04 c0 81 42 0c b8 f4 42 28 89 72 42
       47.118782 64.87503 122.35947 60.63394
000320 85 19 a9 42 d8 20 21 43 6d 7b 92 42 a7 93 bf 42
       84.54984 161.1283 73.241066 95.78838
000330 e5 b9 e0 42 fd 84 13 43 eb a6 d7 42 78 5e 79 42
       112.363075 147.51949 107.82601 62.342255
000340 fb 21 c4 42 96 b1 96 42 36 7b 78 42 b6 f0 af 42
       98.06637 75.34685 62.120323 87.97014
000350 42 de 0a 43 55 19 61 42 c8 59 3d 42 e1 7c b0 42
       138.8682 56.27474 47.337677 88.243904
000360 13 86 c1 42 0f 0a 06 43 0c 53 07 42 be ff 8a 42
       96.76186 134.03929 33.8311 69.4995
000370 96 07 b7 42 71 06 b2 42 d4 4c 61 43 de fd 40 42
       91.51482 89.01258 225.30011 48.247917
000380 f9 13 03 43 2d 4a 61 42 62 bf a3 42 53 fa ea 42
       131.07802 56.322437 81.873795 117.488914
000390 8c 1b 33 43 0e 04 95 42 25 d8 4f 43 8a 7d 65 42
       179.1076 74.50792 207.84431 57.372597
0003a0 28 0f 71 42 bc 31 a8 42 06 56 d9 42 ea 71 8c 42
       60.2648 84.09714 108.668015 70.22249
0003b0 a8 4c 92 42 3a 90 13 42 40 3a b8 42 ad 76 11 43
       73.14972 36.890846 92.11377 145.46358
0003c0 df cc 5b 42 3a d4 31 43 46 52 cb 42 4f 37 45 42
       54.95007 177.82901 101.66069 49.304012
0003d0 6f 81 d2 42 c3 9c a1 42 cb d4 c9 42 fd a7 35 43
       105.2528 80.806175 100.91561 181.6562
0003e0 c3 51 50 43 a7 5c 25 43 c1 e8 0a 43 36 ff 99 42
       208.31938 165.36192 138.9092 76.99846
0003f0 78 0d b9 42 d2 18 d3 42 e8 71 27 42 3f 41 37 43
       92.526306 105.54848 41.861237 183.25487

L2.weight f4 [128, 256]
000000 17 f0 c4 3c 93 4d f8 bc 87 98 95 3c 4b c1 92 3b
       0.024040265 -0.030310428 0.018261207 0.0044786087
000010 6a 1a e5 bc fb c4 21 3d a5 e5 0d 3b a2 81 d1 3c
       -0.027966697 0.039494496 0.0021651771 0.025574509
000020 85 03 24 bd 52 c0 18 bc f9 ae 3f bd 42 be 6e bd
       -0.04004242 -0.0093231965 -0.046797726 -0.058286913
000030 17 6a 39 3d cb 03 4d 3d 41 e4 93 3c 3a 81 8e 3c
       0.04526719 0.050052445 0.018053176 0.017395604
000040 5d 26 e9 3c 6b 46 ec ba fa 0c e2 3c d6 8b af 3b
       0.028460676 -0.0018026357 0.027594078 0.005357246
000050 a1 90 b8 3b 11 2f 99 bc a9 1f 9a 3c 63 3c 1c 3d
       0.0056324755 -0.0186992 0.018813925 0.038143527
000060 5c 50 7c 3c 59 7b dc bb 32 f2 3e 3d 85 7b 00 bd
       0.015400019 -0.0067285714 0.046617694 -0.031367797
000070 a1 3b 0a bd 20 02 0a bd f2 9e 83 bb 04 95 e2 3c
       -0.033748273 -0.033693433 -0.0040167505 0.027658947
000080 ba 17 03 3d e2 b0 4c 3d b6 c0 f3 bb ba d8 55 3d
       0.03200505 0.049973376 -0.0074387444 0.05220864
000090 f8 6b 09 3d ea 89 10 3b 32 21 88 3c 3c 08 f5 bc
       0.033550233 0.002205486 0.016617391 -0.029911153
0000a0 a6 0c 84 3d 42 ba b8 3b 3e 28 86 3b 8e e3 77 3b
       0.06447725 0.005637438 0.0040941527 0.0037824842
0000b0 32 81 83 bc d7 dd e8 3c 90 0e 4c bd fd a9 b0 3b
       -0.016052816 0.028426094 -0.049818575 0.005391358
0000c0 d2 e5 c2 3c 7d 20 12 bd 62 12 cd bb 0e f1 f2 bc
       0.023791227 -0.035675514 -0.006258295 -0.02965596
0000d0 ee 45 34 bd b8 62 4c 3d 5b 45 12 3d 0d 79 86 3d
       -0.044012003 0.049898833 0.035710674 0.06566057
0000e0 f4 62 87 3b c3 f4 66 bc e1 bd 39 3d bb 5a 9f 3c
       0.004131669 -0.014096442 0.0453471 0.019452443
0000f0 a4 ed 29 3c d1 e5 3e bd 7f cf 61 3d 87 d2 0a 3d
       0.010371599 -0.04660589 0.055129524 0.03389218
000100 23 6d 85 3c 7f d2 8f 3d c2 0a 30 3d 86 0a 28 3d
       0.016287392 0.07022571 0.04297901 0.04102566
000110 42 0c 3c bd ff e8 8b 3d b5 28 34 bd d6 fe 0c 3d
       -0.045910127 0.0683155 -0.043984134 0.034422718
000120 cc 2b 24 bd c6 7f 09 bd f1 84 df 3b 41 f9 c3 bc
       -0.04008083 -0.03356912 0.006821268 -0.023922564
000130 0a 68 81 3d 95 6a 68 3d 92 b0 9a bc 6d 41 75 bd
       0.06318672 0.05674227 -0.018883023 -0.059876848
000140 70 b4 4a 3d b7 86 c4 bc bf d7 60 3d ff 84 9e bb
       0.049488485 -0.023990018 0.05489325 -0.0048376317
000150 85 6c 91 bb 88 80 e1 3c f7 b0 2e bc 62 42 0a 3c
       -0.0044379854 0.027527109 -0.010662309 0.008438678
000160 4a 1a b3 bc 75 1d 4e 3d 7d 4d 71 3c 74 be 62 bd
       -0.021863122 0.05032106 0.014727947 -0.05535741
000170 bd ff c3 bc 75 f5 71 bd 05 1d 15 3d 92 49 dd 3b
       -0.023925656 -0.059071977 0.03640463 0.006753155
000180 95 1b a9 3b 08 5d 30 b8 38 6d 4e bd 44 97 3b bc
       0.0051607587 -4.2048312e-05 -0.050397128 -0.011449639
000190 30 54 47 3d ee 6e 61 bd 61 d1 31 bd b8 8a 66 3d
       0.04866427 -0.05503743 -0.04341257 0.056284636
0001a0 a8 b2 dc bb c0 23 79 3d b1 d2 1c 3c 98 9e fe 3b
       -0.0067351647 0.06082511 0.009571717 0.0077703707
0001b0 7f 9f ba 3c 4e c4 5b bd b9 7c 67 3d 09 87 5c 3d
       0.022781132 -0.053654008 0.05651543 0.053839717
0001c0 3f 4a 56 3c 9f 77 2c bd c1 13 72 bd da 08 68 bd
       0.013079225 -0.042106267 -0.05910087 -0.056649067
0001d0 e1 a9 5e 3d 98 71 3a bd 8d b8 48 bc 41 c7 9c 3c
       0.054361228 -0.045518488 -0.012251032 0.01913798
0001e0 dd 2c 2d bd d8 c9 1e bd e3 85 7f 3d 83 f0 00 3d
       -0.042279113 -0.038766712 0.062383544 0.03147937
0001f0 19 bf 59 bd 22 45 df 3c 4e fa a2 3c e6 68 41 bb
       -0.05316076 0.027254645 0.019894745 -0.0029511987
000200 19 7b 3d bd 4e 69 00 3d dc 34 f6 bb b8 20 1f bd
       -0.046259973 0.031350426 -0.0075136255 -0.038849562
000210 5e 9d 06 3c c8 7e 8d bc 11 b3 c5 3c 64 5c b0 bc
       0.00821623 -0.017272368 0.024133237 -0.02152843
000220 ef 30 9f bc 8e 2a bf bb ae d5 37 3d 6f 12 ff 3c
       -0.019432513 -0.0058339303 0.044881515 0.03113672
000230 3d 2f 15 3c 46 6e 2f bd 69 87 b0 3c a1 7a 68 bd
       0.009105501 -0.042829774 0.021548944 -0.056757573
000240 dd 82 42 bd 23 7c 9a 3c 79 1d c9 bc 5f ca 1b 3d
       -0.047488082 0.018858021 -0.024550186 0.038034793
000250 4c 05 7b 3c 4e 09 33 bb dc 4c 1c b9 74 1c 13 bd
       0.015321087 -0.0027318778 -0.00014905952 -0.035915807
000260 7d 9e 03 bd 44 3a 5f 3d 55 56 5f bc f9 38 19 bd
       -0.032133568 0.054498926 -0.013631423 -0.03740785
000270 70 a1 45 3d 28 6b 98 bb 89 01 4a 3b 3f fb b6 3c
       0.048249662 -0.004651446 0.003082367 0.0223366
000280 ce 90 48 bb c9 1c 2f bc c9 24 ea 3c df 2f 15 3c
       -0.0030603888 -0.010688015 0.028581994 0.009105652
000290 0e 87 31 3d 5e a8 31 bc 3a a6 42 3d 36 1c 1a 3c
       0.04334169 -0.0108433645 0.047521807 0.00940614
0002a0 76 86 4d bd b9 3b 9f 3c 57 25 b7 3c da 27 5f bc
       -0.05017706 0.019437658 0.022356672 -0.013620341
0002b0 f2 05 86 3c fc 87 00 3b 9d 4c 55 bd 0e 02 56 bd
       0.016360257 0.0019612303 -0.052075017 -0.052248053
0002c0 40 6e a6 3c 39 c8 1d 3d fc 57 80 bd c3 01 65 bd
       0.020316243 0.038521025 -0.06266782 -0.055909883
0002d0 de 01 71 3c c1 f1 29 bd a5 71 d6 bc ea af 08 bc
       0.014709918 -0.04149032 -0.026177237 -0.008342722
0002e0 a5 55 70 3d c9 63 2f bc 82 0a 2a 3d 2c 0e 5b bc
       0.058675427 -0.010704943 0.041513927 -0.013370078
0002f0 21 cd 67 bd 27 e7 86 3d 1c 0a 8e bc f7 51 b0 bb
       -0.05659211 0.065870576 -0.017338805 -0.0053808647
000300 b7 cb 00 bd 0b 1e 4e 3d 98 f1 21 bb 5c bf 88 3d
       -0.031444278 0.05032162 -0.0024710651 0.06677124
000310 b0 9d bb 3c 53 13 65 bd 8b d1 ab 3b 5d 72 69 3d
       0.02290234 -0.055926632 0.0052434853 0.05699383
000320 bc 96 d6 3b 1e 86 8a bc 2f e5 8c ba 54 5c 50 bd
       0.0065487307 -0.016909655 -0.0010749454 -0.0508693
000330 fc de 14 bc 42 7a eb bc 50 e1 24 bc d9 aa 38 bd
       -0.009086367 -0.02874482 -0.010063484 -0.045084808
000340 cd 1d 22 bd ff 85 25 bd 4c 8f e3 3c 39 bc 64 3d
       -0.0395792 -0.04041099 0.02777829 0.055843566
000350 3b 70 40 3c 45 08 2d 3d 57 53 0a 3c 81 c4 3b 3d
       0.011745508 0.042244215 0.008442721 0.045841698
000360 ab c7 75 3d ae 2c d5 bc 52 b9 68 3d f5 77 9c 3c
       0.06000487 -0.026022281 0.05681736 0.019100169
000370 b1 23 0e 3d cf f7 f5 bc 85 f3 36 bd f9 66 9b bc
       0.034702007 -0.03002539 -0.044665832 -0.01897
000380 b1 ad fd bb 9b 37 c4 3c 9b d3 06 3c 89 e5 2e 3d
       -0.007741653 0.023952296 0.008229162 0.04269937
000390 c1 9e 84 3d ca 98 c1 3c ad e4 df bc 9e cc 23 bd
       0.064755924 0.023632426 -0.02733072 -0.03999006
0003a0 c8 f8 71 bc c5 f3 18 bc 79 31 32 3c 89 c7 3e 3d
       -0.014768787 -0.009335463 0.010876053 0.04657701
0003b0 a2 88 24 bb be c0 0f bd 24 a2 39 bd ad a9 5d 3d
       -0.0025105854 -0.035095923 -0.045320645 0.054116894
0003c0 70 cc 3d 3d 68 d4 31 3c 5e 93 6c bd 2f 5f e0 3c
       0.046337545 0.010853864 -0.057757728 0.027389137
0003d0 ba 90 5e bc be 10 4d bd 6d 81 fe 3b 34 42 0c 3c
       -0.01358431 -0.050064795 0.0077668936 0.008560706
0003e0 f0 88 04 3d cb 62 8b 3c fe b0 46 bc 05 a9 3c 3d
       0.032357156 0.017014882 -0.012127159 0.046059627
0003f0 0a dd 45 bd c1 6f 83 3d b4 44 ac b9 de a5 1d 3d
       -0.048306502 0.064178 -0.00032857584 0.03848826
