Trained_Models/BotDetection_v4_MLP___May-10-2024/BotDetection_v4_MLP_epoch86_val_loss_0.482021.pth (torch, 963729 bytes, 45 tensors)

L1.weight f4 [256, 133]
0	0x3c015b01	0.007895232
1	0x3d6e3f22	0.058165677
2	0x3daf2208	0.08551413
3	0xbe410ccb	-0.18852536
4	0x3cc949db	0.02457135
5	0x3d32e0c1	0.043671373
6	0x3e4a197a	0.19736281
7	0xbd123048	-0.035690576
8	0x3c34de8e	0.011039389
9	0x3d46cb5b	0.04853378
10	0xbd9f2120	-0.0776999
11	0x3cca7ce8	0.024717763
12	0xbd5516b3	-0.0520236
13	0xbd605fc5	-0.054778833
14	0xbe077a87	-0.13230334
15	0x3dbdbbd5	0.09264342
16	0xbc89a9fa	-0.016804684
17	0xbd3427d9	-0.043983314
18	0xbae7802b	-0.0017662098
19	0xbd545ebf	-0.05184817
20	0xbcef79af	-0.029232828
21	0xbc3dba41	-0.011580051
22	0xbd48ed68	-0.049054533
23	0xbd17f385	-0.037097473
24	0x3d8f12d7	0.06986015
25	0xbddf3909	-0.108995505
26	0x3cf960c8	0.030441657
27	0xbde0c82b	-0.10975679
28	0x3cca22ae	0.02467474
29	0x3de2cb4c	0.11073932
30	0xb7c3315a	-2.3268793e-05
31	0xbd1ed80c	-0.038780257
32	0xbdb6c4ae	-0.089242324
33	0xbca978ec	-0.020687543
34	0xbd64e6d2	-0.05588419
35	0x3da5014f	0.0805689
36	0x3dd933e5	0.10605601
37	0x3d907e23	0.07055309
38	0xbda63aa6	-0.08116655
39	0xbd7f8fda	-0.062393047
40	0x3e55a279	0.2086276
41	0xbc4e43fb	-0.01258945
42	0xbd16e261	-0.036836985
43	0xbb36bed7	-0.0027884746
44	0xbcac55fd	-0.021037096
45	0x3db90060	0.09033275
46	0x3bc5a2a3	0.0060313507
47	0x3d8f5529	0.06998665
48	0xbd0ea848	-0.034828454
49	0x3da1e75f	0.07905459
50	0x3d3d6c39	0.046245787
51	0x3c16d20f	0.009205355
52	0x3d81ab78	0.06331533
53	0x3dd4f615	0.10398499
54	0xbce5398b	-0.02798154
55	0x3b244dbe	0.0025070752
56	0xbd372d13	-0.04472072
57	0x3d5913ed	0.05299752
58	0xbe4a5705	-0.19759758
59	0xbd11d638	-0.035604686
60	0xbe379f82	-0.17931941
61	0x3c5f49dc	0.013628449
62	0xbe2ca6db	-0.16860525
63	0xbd588ad8	-0.052866787
64	0x3e12cae5	0.1433521
65	0xbdfd34dd	-0.123635985
66	0xbda3e489	-0.08002574
67	0x3e0b3ac1	0.13596632
68	0xbcb4700a	-0.02202608
69	0xbd56ad97	-0.052411642
70	0x3d631ce2	0.055447467
71	0x3de15698	0.110028446
72	0x3dcc9499	0.0998928
73	0x3d886456	0.066597626
74	0xbd4cd3c7	-0.050006654
75	0xbcdc8a16	-0.026921313
76	0xbd9f3dd5	-0.077754654
77	0x3bc7110d	0.0060750307
78	0xbc84eae1	-0.01622528
79	0x3cb724c8	0.022356406
80	0xbc0080c3	-0.007843199
81	0xbd1a195f	-0.037621852
82	0xbd9b8841	-0.07594348
83	0xbd032d2d	-0.032025505
84	0x3d79c9c5	0.060983438
85	0xbd559094	-0.052139834
86	0xbe3e361c	-0.18575329
87	0xbdd9eab3	-0.106404684
88	0x3d08c0aa	0.033386864
89	0xbce6001f	-0.02807623
90	0x3c73b37b	0.014874334
91	0x3e26c4b6	0.16285977
92	0xbdc6b58e	-0.097025976
93	0xbafc89da	-0.0019267157
94	0xbd09c560	-0.033635497
95	0x3d46569f	0.048422452
96	0x3d167183	0.036729347
97	0xbdb2c098	-0.087281406
98	0xbd2f19f6	-0.042749368
99	0x3ca3a2de	0.019975122
100	0x3d05a000	0.03262329
101	0xbdf250b1	-0.11831797
102	0x3e0507ec	0.12991303
103	0xbe2d81a5	-0.16943987
104	0xbd7b217d	-0.061311234
105	0x3d9a588d	0.07536421
106	0x3d89315d	0.066988684
107	0xbd33e525	-0.0439197
108	0xbd2fdcc1	-0.042935137
109	0xbd80fc0e	-0.062980756
110	0x3d3ef2b6	0.046618186
111	0xbdd627ee	-0.10456835
112	0xbd41b5af	-0.047292408
113	0xbca78446	-0.020448815
114	0x3ca389c2	0.019963149
115	0xbcb15740	-0.02164805
116	0x3cac589b	0.021038344
117	0x3dd425ad	0.103587486
118	0x3d98f044	0.07467702
119	0x3dab1868	0.083542645
120	0xbdc654ea	-0.09684165
121	0x3d4ef699	0.050528143
122	0x3c14301e	0.009044675
123	0x3e547c56	0.20750555
124	0xbe02a658	-0.12758768
125	0xbc1fca20	-0.00975278
126	0x3d321459	0.043476436
127	0x3d9f169d	0.07767985
128	0xbd97fd4d	-0.0742136
129	0x3c348cba	0.01101988
130	0x3d89c922	0.06727816
131	0x3d3cda9d	0.046106923
132	0xbd61eab5	-0.055155475
133	0x3bbd62f2	0.0057796175
134	0x3d257945	0.040398855
135	0xbc76f027	-0.015071905
136	0x3dc4cdbd	0.09609554
137	0xbd166c68	-0.036724478
138	0x3d96cbb2	0.073630705
139	0xbd9668e4	-0.07344225
140	0xbd0b42ea	-0.03399936
141	0x3d5bdcd3	0.05367739
142	0xbd2e868e	-0.04260879
143	0x3c3b0632	0.011415051
144	0xbbd73f2f	-0.0065688114
145	0xbd6f2b36	-0.05839082
146	0x3d841975	0.06450168
147	0x3d9981de	0.07495473
148	0x3c592dcd	0.013255549
149	0xbd8f838d	-0.07007513
150	0xbbfdeef1	-0.0077494313
151	0xbc935974	-0.01798699
152	0x3d50ead9	0.05100522
153	0xbcd91fc1	-0.0265044
154	0x3a98357d	0.001161262
155	0xbd848c26	-0.06472044
156	0xbde42e53	-0.11141648
157	0xbdd22de3	-0.102626584
158	0xbd0c1f5f	-0.034209605
159	0xbd9a520a	-0.07535179
160	0xbc429f07	-0.011878735
161	0xbda0329f	-0.07822155
162	0x3d557adc	0.05211912
163	0xbc44a1a7	-0.012001432
164	0xbcea2265	-0.028580854
165	0x3d8eb249	0.06967599
166	0x3d865b0e	0.06560336
167	0xbd6e643d	-0.058201063
168	0xbcaf3ba9	-0.021390753
169	0x3dfadabd	0.12248752
170	0x3d88ecd0	0.066857934
171	0x3e1ea6f3	0.15493374
172	0x3da50e37	0.08059352
173	0x3d72ef67	0.059310343
174	0xbd14984a	-0.036278047
175	0x3ca4a30e	0.020097282
176	0x3cd76f3c	0.026298158
177	0x3e190631	0.14943768
178	0xbd18f1ea	-0.037340082
179	0x3cc3c01f	0.023895321
180	0x3d608fd0	0.05482465
181	0x3d7a435f	0.061099406
182	0x3cea223f	0.028580783
183	0xbdadc651	-0.084850915
184	0xbd9205fa	-0.07130046
185	0x3d8a996d	0.06767545
186	0x3e1687a6	0.14700183
187	0xbd866efa	-0.06564136
188	0xbd79264a	-0.06082753
189	0xbab4e5ce	-0.0013801397
190	0x3d8d399d	0.068957545
191	0x3db2f4f3	0.087381266
192	0xbdaa9016	-0.083282635
193	0x3dade55d	0.08491013
194	0x3d780ec7	0.060560968
195	0x3c962d26	0.018332075
196	0xbddc7f33	-0.10766449
197	0x3bd97ce0	0.0066372007
198	0x3d13f366	0.036120795
199	0xbd65607c	-0.056000218
200	0xbc8994d7	-0.016794605
201	0xbc827900	-0.015926838
202	0xbcd403a4	-0.025880642
203	0xbc9f4c97	-0.0194457
204	0x3df24a40	0.11830568
205	0x3cce2c42	0.025167588
206	0xbd1b2c7d	-0.037884224
207	0xbc59b33a	-0.01328736
208	0x3bd794ac	0.0065790024
209	0x3daa6157	0.08319347
210	0xbd4b310c	-0.04960732
211	0xbc2350df	-0.009968012
212	0xbcd01a0b	-0.025403043
213	0xbd2cc790	-0.042182505
214	0xbbe0e503	-0.006863238
215	0xbdcfb806	-0.101425216
216	0xbdc94e9a	-0.09829445
217	0x3dafb4c1	0.08579398
218	0xbd104637	-0.035223212
219	0x3d6d11f6	0.057878457
220	0xbd595e57	-0.053068485
221	0x3c74d108	0.014942415
222	0xbe3738fa	-0.17892829
223	0x3df9c53b	0.12195822
224	0xbe339604	-0.17537695
225	0xbd5bc211	-0.053651873
226	0xbdf873d0	-0.121314645
227	0x3d454360	0.048159957
228	0xb9e6fc93	-0.000440572
229	0xbce23dd7	-0.027617378
230	0xbd72b222	-0.059251912
231	0xbd783741	-0.06059957
232	0x3d35e949	0.04441193
233	0x3e1dd360	0.15412664
234	0x3c6e3966	0.014540052
235	0x3d574296	0.052553736
236	0xbc96a30e	-0.018388297
237	0x3d1515f7	0.0363979
238	0x3dc1d2e2	0.09464051
239	0x3d4dd011	0.050247256
240	0xbdea9569	-0.11454279
241	0x3bf09e58	0.007343095
242	0x3b9674e6	0.004591572
243	0xbd01a91e	-0.031655423
244	0xbd67b9dc	-0.056573734
245	0x3d3d779a	0.04625664
246	0xbd88cd2d	-0.06679759
247	0x3cc69013	0.024238622
248	0x3c451c4b	0.012030671
249	0x3d4b4a36	0.04963132
250	0x3da5f89b	0.08104058
251	0x3db9837d	0.090582825
252	0xbd46a6b7	-0.048498835
253	0xbe2160ef	-0.15759633
254	0xbda5467f	-0.08070087
255	0xbda40c96	-0.08010213

L1.bias f4 [256]
0	0xbda6e2f4	-0.081487566
1	0xbc97487f	-0.018467186
2	0x3d7b10b0	0.06129521
3	0xbc8a7ede	-0.016906198
4	0xbcb23421	-0.021753373
5	0xbd79e639	-0.061010573
6	0x3d05d354	0.03267224
7	0x3d2acc02	0.041698463
8	0xbd56cb8c	-0.05244021
9	0xbd9dae0a	-0.07699211
10	0xbcbd7683	-0.0231278
11	0x3d7801ea	0.0605487
12	0xbd83d948	-0.064379275
13	0xbd12a963	-0.03580607
14	0xbdae41c6	-0.08508639
15	0xbc210f84	-0.009830359
16	0x3c975a83	0.018475777
17	0x3d1051b3	0.035234164
18	0xbd294892	-0.041328974
19	0x3da9a0f1	0.0828265
20	0x3bef4856	0.0073023243
21	0xbd7d7080	-0.061874866
22	0x3c8ea6d3	0.017413532
23	0x3d02af79	0.031905625
24	0x3d64c83d	0.055855025
25	0x3d7bbd6e	0.06145995
26	0xbcb54c79	-0.022131192
27	0xbc8e830e	-0.017396476
28	0xbd337ef3	-0.04382224
29	0x3d10e9b2	0.03537912
30	0xbd87813f	-0.066164486
31	0xbcbdf2d2	-0.023187075
32	0xbc654917	-0.013994477
33	0xbd915b34	-0.07097474
34	0x3d095149	0.033524785
35	0x3ca1873b	0.019717803
36	0x3d96fb5e	0.07372163
37	0xbd5baef2	-0.053633638
38	0x3d9fd0d3	0.07803502
39	0x3d15ad20	0.036542058
40	0xbcda1b44	-0.02662433
41	0xbd874f29	-0.066068955
42	0xbda7a9ce	-0.081866845
43	0x3d01ef2c	0.031722233
44	0xbd2cea0d	-0.042215396
45	0xbccd32ac	-0.025048576
46	0xbd0a8e06	-0.03382685
47	0xbc85500e	-0.016273525
48	0x3bf2ac13	0.0074057668
49	0x3d988462	0.07447125
50	0x3d67ae78	0.05656287
51	0x3d83fa0d	0.06444178
52	0x3b9c29b9	0.004765716
53	0xbcdb5e5b	-0.02677839
54	0xbd23304c	-0.03984098
55	0x3d4cf416	0.050037466
56	0xbbf014bf	-0.007326692
57	0x3d0b2838	0.033973902
58	0xbd9ee29d	-0.07758067
59	0x3d31948f	0.043354567
60	0xbd39a8b9	-0.045326922
61	0xbc198d56	-0.009372076
62	0x3d8eaf28	0.06967002
63	0x3d585396	0.05281409
64	0xbd4d7c98	-0.05016765
65	0x3d92888f	0.07154953
66	0xbd8fb842	-0.07017566
67	0x3d22407d	0.039612282
68	0x3c62e937	0.013849548
69	0x3da36ac2	0.07979347
70	0x3c0e347d	0.008679506
71	0xbc999cc7	-0.018751515
72	0x3d97245e	0.07379983
73	0xbd51b2ed	-0.051196028
74	0x3d75cc3d	0.06000923
75	0xbd05b341	-0.032641653
76	0xbc3fb939	-0.011701875
77	0xbd1918d1	-0.037377182
78	0x3d688c48	0.056774408
79	0xbd5ed0aa	-0.054398216
80	0xbcc8d55b	-0.024515798
81	0x3bc57157	0.006025474
82	0x3d9da21a	0.07696934
83	0xbc41fd3a	-0.011840159
84	0xbd1808ae	-0.037117653
85	0xbc230218	-0.00994923
86	0x3ca055f1	0.01957223
87	0xbd1c91d4	-0.03822501
88	0x3db092c6	0.08621745
89	0x3d0fca6d	0.035105158
90	0xbcfc0520	-0.030764163
91	0x3d4fd917	0.050744142
92	0xbcce252c	-0.02516421
93	0x3c9b96e7	0.018992854
94	0xbc78b3cb	-0.015179585
95	0xbd8a5554	-0.06754556
96	0xbd941a27	-0.07231551
97	0xbd9a989b	-0.075486384
98	0xbd455ddb	-0.04818521
99	0xbbaec257	-0.0053332257
100	0x3c38eb0e	0.01128651
101	0x3c6b76ff	0.014371633
102	0x3d201a12	0.039087363
103	0x3bb3b07a	0.005483684
104	0x3dacce63	0.08437803
105	0xbca6a9ce	-0.020344641
106	0x3c954172	0.018219683
107	0x3c921a60	0.017834842
108	0x3d2ead3f	0.04264569
109	0x3d8db343	0.06918957
110	0x3d051179	0.032487366
111	0x3d30d080	0.04316759
112	0x3d9d43a6	0.076789185
113	0x3d2b5979	0.041833375
114	0x3da13fdc	0.07873508
115	0x3d3448cc	0.044014737
116	0x3d2b5736	0.041831218
117	0xbc317e2c	-0.010833304
118	0xbd5cb2da	-0.053881504
119	0x3d9d7851	0.07688964
120	0x3d36e8db	0.044655662
121	0x3cd42dfe	0.025900837
122	0x3d104f87	0.035232093
123	0xbcc42146	-0.023941647
124	0xbc27ec90	-0.010249272
125	0x3d8da8b5	0.06916944
126	0x3cba7611	0.022761377
127	0xbdabb68c	-0.083844274
128	0x3d8f97f4	0.07011405
129	0x3cd2ef8f	0.025748996
130	0xbd2dcf2c	-0.042433903
131	0xbd1edd2c	-0.038785145
132	0xbd843a4b	-0.06456431
133	0x3da5ce28	0.08095962
134	0xbd26ccf0	-0.040722787
135	0xbd1f55a0	-0.038900018
136	0x3ce3aca4	0.027792282
137	0xbd0df214	-0.03465469
138	0x3d3a8301	0.04553509
139	0xbcf9114b	-0.030403754
140	0xbca8093c	-0.020512216
141	0xbcdbb727	-0.026820732
142	0x3ba1af35	0.0049342164
143	0x3d321742	0.04347921
144	0xbc5e94b6	-0.01358526
145	0x3d8b60ce	0.068055734
146	0xbdaf7ebd	-0.08569095
147	0xbd87c158	-0.06628674
148	0x3cc7e755	0.0244023
149	0xbbd5b89a	-0.0065222504
150	0xbc56a24a	-0.013100216
151	0x3ccbb5da	0.024866987
152	0xbd912eb0	-0.07088983
153	0xbc16c2a2	-0.0092016775
154	0xbd7cbe6c	-0.061705038
155	0x3d9e1765	0.07719306
156	0x3c9ab822	0.01888663
157	0x3d539a2a	0.051660694
158	0xbd63e001	-0.05563355
159	0xbca9e78b	-0.020740291
160	0x3d3e7227	0.046495583
161	0x3d95f48a	0.07322033
162	0xbd9436aa	-0.07236989
163	0xbcc07c01	-0.02349663
164	0xbc801fdd	-0.015640194
165	0x3da4646e	0.08026968
166	0xbd5c0128	-0.05371204
167	0x3d031d91	0.03201062
168	0x3d81f889	0.063462324
169	0xbd8649a3	-0.06557014
170	0x3da7109a	0.08157463
171	0xbdae53ae	-0.085120544
172	0xbd822869	-0.06355364
173	0xbccdae1d	-0.025107438
174	0x3b8d498f	0.0043117474
175	0x3b4c189f	0.0031142605
176	0x3d841769	0.06449778
177	0x3d98aefd	0.07455251
178	0xbcc07494	-0.023493089
179	0x3ca4953e	0.020090695
180	0xbcf8e8de	-0.030384477
181	0x3cca7cf9	0.024717795
182	0xbadd2bcb	-0.0016874013
183	0x3d25a462	0.04043997
184	0x3abc5f6f	0.0014371703
185	0xbcdc54d0	-0.02689591
186	0x3d17c4a2	0.037052758
187	0x3d8026cb	0.06257399
188	0xbd256451	-0.040378872
189	0x3cbce3eb	0.023057899
190	0x39216f22	0.00015395557
191	0xbcccd5fd	-0.025004381
192	0x3d174c6d	0.03693812
193	0x3d4a4273	0.049379777
194	0x3d1f6d7d	0.038922776
195	0xbd96d17e	-0.07364176
196	0xbd0074e3	-0.03136147
197	0x3d92c263	0.071659826
198	0x3d4b112d	0.049576927
199	0x3d47bbca	0.048763074
200	0xbd577202	-0.05259896
201	0x3cfe9cb6	0.031080585
202	0xbc330756	-0.010927042
203	0xbd097039	-0.03355429
204	0x3d530590	0.051518977
205	0x3daa86fd	0.08326528
206	0x3d1ebcba	0.038754202
207	0x3d81d6a2	0.06339766
208	0xbd4af936	-0.049554072
209	0x3d2e8453	0.042606663
210	0xbda3efd0	-0.08004725
211	0xbcaaf40b	-0.020868322
212	0xbcaa2a0b	-0.020772
213	0xbd91e0e2	-0.07122971
214	0xbcde1ced	-0.027113402
215	0x3d860842	0.06544544
216	0xbd2e1738	-0.042502612
217	0x3d991ae5	0.07475833
218	0x3d30d2f6	0.043169938
219	0xbd0eee6b	-0.03489534
220	0x3d472145	0.048615713
221	0xbda51163	-0.08059957
222	0x3d148ab0	0.036265075
223	0xbd293a98	-0.041315645
224	0xbd8bf306	-0.068334624
225	0x3daeca0f	0.08534633
226	0xbb5c36db	-0.0033602032
227	0xbd5a63a8	-0.053317696
228	0x3daf72f5	0.08566848
229	0x3cb0e6ac	0.021594368
230	0xbc569617	-0.013097308
231	0xbd05dfc6	-0.03268411
232	0x3d9f7a4c	0.07786998
233	0x3d45199d	0.04812013
234	0x3da02fea	0.07821639
235	0x3d015731	0.031577293
236	0x3d8be390	0.068305135
237	0xba5fac59	-0.00085324567
238	0x3c9e921d	0.019356782
239	0x3cb2e8a3	0.021839445
240	0x3da7c6ef	0.081922404
241	0x3d850605	0.06495289
242	0x3d54806c	0.051880285
243	0xbdaafcfe	-0.08349036
244	0x3d81ee0d	0.06344233
245	0x3d41d6d0	0.047324
246	0xbc9d9e93	-0.019240653
247	0x3c825f8d	0.015914703
248	0xbdae6426	-0.085151955
249	0xbd461be5	-0.048366446
250	0x3d8907e2	0.06690957
251	0xbda39553	-0.07987466
252	0x3a096ac8	0.0005242047
253	0x3c7be1da	0.015373671
254	0xbb84f8f8	-0.0040579997
255	0xbd4f3794	-0.050590113

BN1.weight f4 [256]
0	0x3f7ed877	0.9954905
1	0x3f800a9f	1.0003241
2	0x3f7b288c	0.98108745
3	0x3f776a89	0.96646935
4	0x3f7cff69	0.98827225
5	0x3f81851d	1.0118748
6	0x3f825fc5	1.0185477
7	0x3f7ec2ab	0.9951579
8	0x3f7fba00	0.9989319
9	0x3f826d28	1.0189562
10	0x3f7c1855	0.9847463
11	0x3f7bb8bd	0.98328763
12	0x3f7f6293	0.9975979
13	0x3f81bcd8	1.0135756
14	0x3f85acfc	1.0443416
15	0x3f8050e5	1.0024687
16	0x3f820c68	1.0160036
17	0x3f80c5fa	1.0060418
18	0x3f7f3747	0.9969372
19	0x3f80e579	1.007003
20	0x3f7c0a5f	0.98453325
21	0x3f7e0464	0.9922545
22	0x3f87d0bd	1.0610577
23	0x3f81cf34	1.0141358
24	0x3f8250e6	1.0180938
25	0x3f8233d3	1.0172065
26	0x3f853834	1.0407777
27	0x3f80ffa9	1.0078021
28	0x3f83c780	1.0295258
29	0x3f84b602	1.0368044
30	0x3f8550e1	1.0415307
31	0x3f7ffc1f	0.9999408
32	0x3f8373c3	1.0269703
33	0x3f7e53ec	0.99346805
34	0x3f7e0d7d	0.9923933
35	0x3f824ca9	1.0179645
36	0x3f85f749	1.046609
37	0x3f82bc84	1.021378
38	0x3f7faf85	0.99877197
39	0x3f8256fc	1.0182796
40	0x3f818fd9	1.0122024
41	0x3f846302	1.0342715
42	0x3f81a35a	1.0127976
43	0x3f8547e3	1.0412563
44	0x3f7fb0cd	0.9987915
45	0x3f8202bd	1.0157086
46	0x3f8027f1	1.0012189
47	0x3f7d0fb7	0.98852104
48	0x3f86c1f0	1.0527935
49	0x3f8057f2	1.0026839
50	0x3f7af09c	0.9802339
51	0x3f7e6508	0.9937291
52	0x3f7cd26e	0.9875859
53	0x3f826d2c	1.0189567
54	0x3f7e8a47	0.99429744
55	0x3f7f5272	0.99735177
56	0x3f80c028	1.0058641
57	0x3f81bd6c	1.0135932
58	0x3f80634c	1.0030303
59	0x3f864d6c	1.0492377
60	0x3f7e5d61	0.99361235
61	0x3f817b79	1.0115806
62	0x3f852d01	1.0404359
63	0x3f8489fc	1.035461
64	0x3f7895a4	0.97103333
65	0x3f813e43	1.0097126
66	0x3f7c6b3f	0.98601145
67	0x3f82f567	1.0231141
68	0x3f7f85c0	0.9981346
69	0x3f8c035a	1.0938523
70	0x3f7f0f7d	0.9963301
71	0x3f7936b7	0.97349113
72	0x3f844578	1.03337
73	0x3f83d55f	1.0299491
74	0x3f811d9a	1.0087159
75	0x3f805d2f	1.0028437
76	0x3f812e9c	1.0092349
77	0x3f84ea45	1.0383993
78	0x3f82ae8e	1.020952
79	0x3f82a8bc	1.0207744
80	0x3f827830	1.0192928
81	0x3f7dcee0	0.9914379
82	0x3f8058b8	1.0027075
83	0x3f7cf1b5	0.98806316
84	0x3f80e5c1	1.0070115
85	0x3f80b411	1.0054952
86	0x3f818e32	1.012152
87	0x3f847011	1.03467
88	0x3f842ae3	1.0325588
89	0x3f80696e	1.0032175
90	0x3f826b4d	1.0188996
91	0x3f84a848	1.0363855
92	0x3f81add8	1.0131178
93	0x3f805450	1.002573
94	0x3f835535	1.0260378
95	0x3f834a2c	1.025701
96	0x3f813b98	1.0096312
97	0x3f827927	1.0193223
98	0x3f8087f4	1.004149
99	0x3f846906	1.0344551
100	0x3f7f3d7c	0.9970319
101	0x3f7f26d2	0.9966861
102	0x3f812370	1.008894
103	0x3f83001b	1.0234407
104	0x3f82e2d2	1.022547
105	0x3f84111f	1.0317725
106	0x3f80605a	1.0029404
107	0x3f8493f8	1.0357656
108	0x3f831361	1.0240289
109	0x3f83ef4d	1.0307404
110	0x3f820d6a	1.0160344
111	0x3f849ec7	1.0360955
112	0x3f7cb202	0.9870912
113	0x3f82a9bc	1.0208049
114	0x3f851e7a	1.0399926
115	0x3f85df94	1.0458856
116	0x3f863f99	1.0488158
117	0x3f7c8bb6	0.9865068
118	0x3f7e867f	0.99423975
119	0x3f7f3270	0.99686337
120	0x3f7e308b	0.9929282
121	0x3f7b1b52	0.9808856
122	0x3f8320bb	1.0244364
123	0x3f7bed03	0.98408526
124	0x3f80aaed	1.0052162
125	0x3f80ace5	1.0052763
126	0x3f833127	1.0249375
127	0x3f838e02	1.0277712
128	0x3f7dea44	0.99185586
129	0x3f808224	1.0039716
130	0x3f7caf48	0.9870496
131	0x3f7c794a	0.9862257
132	0x3f7f69d2	0.99770844
133	0x3f81ca80	1.0139923
134	0x3f8132c3	1.0093616
135	0x3f82d2c9	1.0220577
136	0x3f834d14	1.0257897
137	0x3f7aef03	0.9802095
138	0x3f81ed42	1.015053
139	0x3f7bc82a	0.983523
140	0x3f842b74	1.0325761
141	0x3f813d20	1.0096779
142	0x3f7fac91	0.9987269
143	0x3f808495	1.0040461
144	0x3f85fd93	1.046801
145	0x3f8065e8	1.0031099
146	0x3f8123c8	1.0089045
147	0x3f82baa2	1.0213206
148	0x3f827f01	1.0195009
149	0x3f81d146	1.014199
150	0x3f847998	1.0349607
151	0x3f7d8552	0.99031556
152	0x3f818e2b	1.0121511
153	0x3f7db631	0.9910613
154	0x3f839923	1.0281109
155	0x3f7db285	0.99100524
156	0x3f7f6acb	0.9977233
157	0x3f8220fe	1.0166318
158	0x3f7b8517	0.98249954
159	0x3f81443a	1.0098946
160	0x3f7dc792	0.99132645
161	0x3f8344d7	1.0255383
162	0x3f7c758a	0.9861685
163	0x3f80e262	1.0069087
164	0x3f81c79a	1.0139039
165	0x3f7f8c1c	0.99823165
166	0x3f8a7fb4	1.0820222
167	0x3f7cc2d7	0.987348
168	0x3f82c829	1.0217334
169	0x3f80813d	1.003944
170	0x3f8568a8	1.0422564
171	0x3f7d16f1	0.9886313
172	0x3f8053b4	1.0025544
173	0x3f81a87e	1.0129545
174	0x3f828cc0	1.0199203
175	0x3f81dabf	1.0144881
176	0x3f7c81fd	0.98635846
177	0x3f830266	1.0235107
178	0x3f7cffd1	0.98827845
179	0x3f80e2ed	1.0069252
180	0x3f81ecf5	1.0150439
181	0x3f82267c	1.0167994
182	0x3f81da8a	1.0144818
183	0x3f7cb4ba	0.98713267
184	0x3f83587b	1.0261377
185	0x3f826486	1.0186927
186	0x3f7e2f59	0.99290997
187	0x3f7db796	0.99108255
188	0x3f81b3cf	1.0132998
189	0x3f7fe62f	0.9996061
190	0x3f81b346	1.0132835
191	0x3f7f156b	0.99642056
192	0x3f8021dc	1.0010333
193	0x3f81f598	1.0153074
194	0x3f814134	1.0098023
195	0x3f834c4e	1.0257661
196	0x3f8827ab	1.0637106
197	0x3f811cb6	1.0086887
198	0x3f85cc0c	1.0452895
199	0x3f817e82	1.0116732
200	0x3f803310	1.0015583
201	0x3f82a37a	1.0206139
202	0x3f8416d6	1.0319469
203	0x3f7d4355	0.98930866
204	0x3f832feb	1.0248998
205	0x3f7e2052	0.99268067
206	0x3f7b2346	0.981007
207	0x3f7fcb7f	0.99919885
208	0x3f7e34bb	0.9929921
209	0x3f82b3d0	1.0211124
210	0x3f858561	1.0431329
211	0x3f80395a	1.0017502
212	0x3f81ea73	1.0149673
213	0x3f7fa593	0.9986202
214	0x3f844041	1.0332109
215	0x3f8059a7	1.002736
216	0x3f826a1c	1.0188632
217	0x3f833213	1.0249656
218	0x3f825a83	1.0183872
219	0x3f7ee0cb	0.99561757
220	0x3f835707	1.0260934
221	0x3f7b9703	0.982773
222	0x3f7ea70c	0.99473643
223	0x3f82375e	1.0173147
224	0x3f820a3c	1.0159373
225	0x3f7e4d7c	0.9933698
226	0x3f812493	1.0089287
227	0x3f80081d	1.0002476
228	0x3f810cdc	1.0082049
229	0x3f87055a	1.0548508
230	0x3f7f8046	0.99805105
231	0x3f83c076	1.029311
232	0x3f879dec	1.0595069
233	0x3f7c7125	0.98610145
234	0x3f81d5b1	1.0143338
235	0x3f83e883	1.0305332
236	0x3f868bea	1.0511448
237	0x3f84f390	1.0386829
238	0x3f8036b6	1.0016696
239	0x3f79018c	0.97267985
240	0x3f7a987b	0.97888917
241	0x3f79e557	0.9761557
242	0x3f81a5bd	1.0128704
243	0x3f863ca1	1.0487252
244	0x3f7f21b0	0.9966078
245	0x3f7bce9f	0.98362154
246	0x3f7ce84f	0.98791975
247	0x3f7ef2b6	0.995891
248	0x3f83dc37	1.0301579
249	0x3f815993	1.0105461
250	0x3f7fee48	0.99972963
251	0x3f82dbb4	1.0223298
252	0x3f802554	1.0011392
253	0x3f806746	1.0031517
254	0x3f8536bf	1.0407332
255	0x3f88597b	1.0652307

BN1.bias f4 [256]
0	0x3d38f000	0.045150757
1	0xbd300fe0	-0.04298389
2	0xbbe58ed3	-0.0070055514
3	0x3dc21da5	0.094783105
4	0x3d473104	0.04863073
5	0xbd891a9e	-0.0669453
6	0xbc562681	-0.0130707035
7	0xbd193ec5	-0.037413377
8	0xbbbfaaa6	-0.0058492003
9	0xbd369c30	-0.044582546
10	0x3d0907fe	0.033454888
11	0xbcc3c628	-0.0238982
12	0x3cfaaec7	0.030600918
13	0xbdb2f4b5	-0.087380804
14	0xbdcc644f	-0.0998007
15	0xbc9674f3	-0.018366313
16	0xbc0168a5	-0.007898484
17	0x3c1bb901	0.009504558
18	0xbd18b290	-0.037279665
19	0xbc879f1f	-0.016555367
20	0x3c55605f	0.013023465
21	0x3ce9b75e	0.02852982
22	0xbe1087e3	-0.14114337
23	0xbcde0103	-0.027100092
24	0x3cb1635c	0.021653824
25	0xbd43c06b	-0.047790926
26	0xbc843cfc	-0.01614236
27	0x3b746dbe	0.0037296857
28	0xbd0dfabf	-0.03466296
29	0xbda68947	-0.08131652
30	0xbdc11396	-0.09427564
31	0xbc281bc8	-0.01026053
32	0xbd8409f5	-0.06447212
33	0x3da46c2d	0.080284454
34	0xbda51891	-0.08061326
35	0x3cbbcdf6	0.022925358
36	0xbc9b27e5	-0.018939922
37	0xbd0e03ad	-0.034671474
38	0xbcc3ba7d	-0.023892635
39	0xbc94d96f	-0.018170087
40	0xbbbeea05	-0.005826237
41	0xbdfb329c	-0.12265512
42	0xbd901028	-0.070343316
43	0xbdd2b8bb	-0.10289141
44	0x3bd745a2	0.00656958
45	0xbbdaed17	-0.0066810953
46	0xbddd8d5a	-0.10817976
47	0xbc92e0c1	-0.017929437
48	0xbd5a89e1	-0.053354148
49	0xbd27cf0d	-0.040968943
50	0x3d87bfd8	0.06628388
51	0xbac2d359	-0.0014864012
52	0x3d5918a5	0.05300202
53	0xbd9a7436	-0.07541697
54	0x3d655fd5	0.055999596
55	0xbcd966a4	-0.0265382
56	0xbd05d4d6	-0.03267368
57	0xbc5b71bb	-0.013393815
58	0x3c81903c	0.015815847
59	0xbdbbdd54	-0.09173074
60	0x3c95f4dc	0.018305235
61	0xbd4ff782	-0.05077315
62	0xbd1d5569	-0.03841153
63	0xbd953e05	-0.0728722
64	0x3c6f15d5	0.0145926075
65	0xbb96ff2f	-0.004608057
66	0x3c4396ca	0.011937806
67	0xbd44dbf8	-0.04806134
68	0x3bd1d865	0.00640397
69	0xbcd47a1a	-0.025937129
70	0x3d8019f6	0.06254952
71	0x3d3f15b4	0.046651557
72	0xbcfd65e5	-0.030932376
73	0x3b867036	0.004102732
74	0xbb657486	-0.003501208
75	0x3c2a1de2	0.010383101
76	0xbd366192	-0.044526644
77	0xbdfa2658	-0.12214345
78	0xbdacf71e	-0.08445571
79	0xbd30b3eb	-0.043140333
80	0xbd056c0c	-0.032573745
81	0x3d58a1e3	0.052888762
82	0xbd415454	-0.047199562
83	0xbd709754	-0.058738068
84	0xba8af12c	-0.0010600439
85	0x3d91d66d	0.071209766
86	0xbc75c49c	-0.015000489
87	0xbc9c702f	-0.019096462
88	0xbd42220a	-0.047395743
89	0xbcec8ff4	-0.028877236
90	0xb8ffacfb	-0.00012191568
91	0xbddb5994	-0.10710445
92	0xbd33b40d	-0.04387288
93	0xbd97b61d	-0.07407782
94	0xbd3f1e39	-0.046659682
95	0xbe3122ff	-0.17298506
96	0x3d6e7f58	0.058226913
97	0xbc7e285f	-0.015512555
98	0x3d67c7ef	0.056587156
99	0xbe550b83	-0.20805173
100	0xbdadc315	-0.084844746
101	0x3d066d9b	0.03281937
102	0xbd9794ad	-0.074014045
103	0xbd51f7e6	-0.051261805
104	0xbd446d1f	-0.04795563
105	0xbd4cd7a7	-0.05001035
106	0xbc6b5669	-0.0143638635
107	0xbca3999a	-0.019970704
108	0xbd04024a	-0.032228746
109	0xbda7176a	-0.08158763
110	0xbd80f6be	-0.06297062
111	0xbde8fdb8	-0.11376518
112	0xbd6da36f	-0.05801719
113	0x3c39655c	0.01131567
114	0xbd08b750	-0.033377945
115	0xbdc633f6	-0.096778795
116	0xbc109d92	-0.00882663
117	0x3bb45113	0.005502829
118	0xbd97b0e6	-0.074067876
119	0x3deb6e0c	0.11495599
120	0x3d846334	0.06464234
121	0xbc44ccd1	-0.012011723
122	0xbde95749	-0.113936014
123	0x3c78cb68	0.015185215
124	0x3c555330	0.013020322
125	0x3cfe008e	0.031006124
126	0xbd5b3939	-0.05352137
127	0xbdcbd592	-0.09952845
128	0xbc4cd748	-0.012502499
129	0xbd193f93	-0.037414145
130	0xbaa9d0bc	-0.0012955884
131	0x3d52dfe7	0.05148306
132	0x3d15bf14	0.03655918
133	0xbd8a1b90	-0.067435384
134	0x3bbdd6d8	0.0057934336
135	0xbd86e74a	-0.06587084
136	0xbd5e4cd2	-0.05427248
137	0xbcff13d7	-0.03113739
138	0xbdac895b	-0.08424636
139	0x3d2f0e98	0.042738527
140	0xbdcc2efd	-0.099699
141	0x3ca754ee	0.02042624
142	0xbd1fa2e8	-0.03897372
143	0xbdb9f664	-0.090801984
144	0xbc8fa786	-0.017535936
145	0xbd14e38d	-0.03634982
146	0x3b9f3d3c	0.0048595946
147	0xbd8488c7	-0.06471401
148	0xbd8f0aca	-0.0698448
149	0xbce8a453	-0.028398668
150	0xbd9e1389	-0.0771857
151	0xbcbb2393	-0.022844112
152	0x3c2a6dea	0.010402182
153	0x3cf00fed	0.029304469
154	0xbdbd5c2e	-0.092460975
155	0xbb9c2efc	-0.004766343
156	0xbc37ce56	-0.011218628
157	0xbd131091	-0.03590447
158	0xbce5232c	-0.027970873
159	0xbd85f0c0	-0.0654006
160	0xbd3a32d2	-0.045458622
161	0xbd64b4b8	-0.05583641
162	0x3d2f085d	0.042732585
163	0x3d056332	0.032565303
164	0xbd5dc78b	-0.054145377
165	0xbdd74b34	-0.10512391
166	0xbde58d95	-0.11208645
167	0xbd1a0e58	-0.037611336
168	0x3cff696c	0.031178199
169	0xbd8161aa	-0.06317456
170	0x3d25b8c8	0.040459424
171	0xbc202bd3	-0.0097760735
172	0xbcf81e41	-0.030287864
173	0xbd74fb43	-0.059809934
174	0xbd23c54d	-0.039983083
175	0x3c81b92a	0.015835363
176	0x3cb715a0	0.022349179
177	0xbe0d1502	-0.13777545
178	0x3d3a8c7e	0.04554414
179	0x3d124d71	0.035718385
180	0xbbe2be59	-0.006919664
181	0xbd0d3ec1	-0.034483675
182	0xbdba0577	-0.090830736
183	0x3d984943	0.074358486
184	0xbb7bae0f	-0.0038403308
185	0xbd056a23	-0.032571923
186	0x3b51f85c	0.0032038903
187	0x3c25f600	0.010129452
188	0xbd3714d5	-0.0446976
189	0x3c932e10	0.0179663
190	0x3d029cb9	0.031887744
191	0xbcf9f071	-0.03051016
192	0xbd3c8570	-0.046025693
193	0x3c920b1e	0.017827567
194	0xba96734a	-0.0011478451
195	0xbd2387d9	-0.039924476
196	0xbdcf6961	-0.10127521
197	0xbe43c182	-0.19116786
198	0xbe0ab9e0	-0.13547468
199	0xbd00541e	-0.03133022
200	0x3c8f16a9	0.01746686
201	0xbe1d20d1	-0.1534455
202	0xbd7a0be5	-0.0610465
203	0x3c85ea2c	0.016347013
204	0xbd9a37d4	-0.075301796
205	0xbc92aeba	-0.017905582
206	0x3c172370	0.009224758
207	0xbcc93416	-0.02456097
208	0xbc1ab9bc	-0.009443697
209	0x3cadc20e	0.021210697
210	0xbdc28744	-0.09498456
211	0xbcbd18f9	-0.023083197
212	0xbd8468df	-0.06465315
213	0xbd53982f	-0.051658805
214	0xbde451fc	-0.1114845
215	0xbc8735bc	-0.016505115
216	0xbd19d4c5	-0.03755643
217	0xbd9c3658	-0.07627553
218	0xbdcf6da2	-0.10128333
219	0x3cca4668	0.024691775
220	0xbd4ebb4e	-0.050471596
221	0xbcad81ba	-0.021180023
222	0x3d47c850	0.048775017
223	0xbddb16ae	-0.10697685
224	0xbdaf1014	-0.085479885
225	0x3d06d049	0.03291348
226	0xbd43fb4e	-0.047847085
227	0xbc836aa3	-0.01604206
228	0xbcb5ff4c	-0.022216462
229	0xbda31391	-0.07962716
230	0xbdaee0f9	-0.08539004
231	0xbd67442c	-0.0564615
232	0x3b4f5333	0.0031635284
233	0x3d645e80	0.055754185
234	0xbc9f3c57	-0.019437952
235	0xbd945681	-0.07243062
236	0xbc5392ad	-0.012913388
237	0xbd4007f9	-0.046882603
238	0xbd3267b4	-0.04355593
239	0x3c9a8571	0.018862458
240	0x3d7349c5	0.059396524
241	0x3d3b2713	0.04569156
242	0xbde71651	-0.112835534
243	0xbc51d0d1	-0.012806133
244	0xbd209665	-0.039205927
245	0xbd457941	-0.04821134
246	0xbd0cee20	-0.03440678
247	0xbd8472f1	-0.06467236
248	0xbdf51ff1	-0.11968983
249	0xbdbe7900	-0.09300423
250	0x3c8a92cc	0.016915701
251	0x3aece730	0.001807427
252	0xbd94f6e8	-0.07273656
253	0xbd7a6a48	-0.061136514
254	0xbd9ab279	-0.07553572
255	0xbd347e65	-0.04406585

BN1.running_mean f4 [256]
0	0xc10d63d6	-8.836874
1	0x4076bb80	3.855194
2	0x40b7a699	5.7390866
3	0x41082fef	8.511703
4	0xc0c7c3c6	-6.242648
5	0x40f05db9	7.5114408
6	0x41c26b2e	24.302334
7	0x41596b04	13.588627
8	0x41085ee7	8.5231695
9	0xc05449a6	-3.3169951
10	0x40968fa2	4.7050333
11	0x419c2ede	19.522884
12	0x41052898	8.322411
13	0xc096e49c	-4.7154064
14	0xc03a4ed9	-2.9110625
15	0x3f7ba832	0.9830352
16	0x4176dd5f	15.429046
17	0xc13f9254	-11.973225
18	0x4143fc9e	12.249174
19	0x414dfaa8	12.873695
20	0xc02da3d8	-2.7131252
21	0x415dadc8	13.854927
22	0x4005730c	2.085147
23	0x40a16eb4	5.0447636
24	0xc004c200	-2.0743408
25	0x3ccce0cf	0.02500954
26	0xc1044406	-8.266607
27	0x40b90e3a	5.7829866
28	0xc0769c02	-3.853272
29	0xbf238c29	-0.6388574
30	0x40c51fa2	6.1601114
31	0xc09e9d34	-4.95669
32	0x40f28822	7.579118
33	0xbf6fd704	-0.9368746
34	0x40c3d852	6.1201563
35	0xc10723e7	-8.446265
36	0xc0fff0b0	-7.998131
37	0x405962b0	3.3966484
38	0x4033cc64	2.80935
39	0xc06151f1	-3.5206263
40	0x4150b2c7	13.043647
41	0x4180062e	16.003017
42	0x40b25f0f	5.574104
43	0x4001e227	2.0294282
44	0xc0f4a9c7	-7.645725
45	0x4051d4fe	3.278625
46	0x411e1e14	9.882343
47	0x3fbc258a	1.4698956
48	0xc0f8d22e	-7.7756567
49	0xc0ad0561	-5.4069066
50	0xc0cd12cc	-6.4085445
51	0xc0f3cb96	-7.618602
52	0x40964156	4.6954756
53	0xc15d3873	-13.826282
54	0x40603566	3.5032592
55	0x401bdabd	2.4352257
56	0xbf98334d	-1.1890656
57	0x40af0b86	5.4701567
58	0xc109207b	-8.57043
59	0x40c11c20	6.034683
60	0x3fdfff99	1.7499877
61	0xc183367d	-16.401606
62	0x401ae676	2.4203162
63	0xc08fe73b	-4.4969764
64	0xbfc96a16	-1.57355
65	0xbfc270e3	-1.51907
66	0x416152c0	14.082703
67	0x40975be7	4.7299685
68	0xc1243e40	-10.265198
69	0x3edb4cb4	0.42831957
70	0xc01a7f75	-2.4140294
71	0xc0e12709	-7.036015
72	0xbfe5ca3c	-1.7952342
73	0x41357344	11.340641
74	0xc156f621	-13.43509
75	0x40f3b645	7.6159997
76	0x4103b457	8.231528
77	0xc0ec5e46	-7.386508
78	0x40f76a3e	7.731719
79	0xc08c9ef7	-4.394405
80	0x3fa30880	1.2736969
81	0x3ec3d1c3	0.38245973
82	0x40d0e6a3	6.528154
83	0x41376f00	11.4646
84	0xc0951acb	-4.6595206
85	0xbd380dce	-0.04493504
86	0xc128efd9	-10.558557
87	0x404893f6	3.1340308
88	0xbf88265f	-1.063671
89	0x4037b54c	2.8704405
90	0x40922163	4.5665755
91	0x41198da9	9.597085
92	0x3fc7741b	1.5582308
93	0xc10a2294	-8.633442
94	0x3cea0873	0.028568482
95	0x40840f64	4.1268787
96	0x4099c578	4.805355
97	0xbf9759a1	-1.1824228
98	0xc13d0321	-11.813264
99	0xc0efa745	-7.4891686
100	0x40b96c3b	5.7944617
101	0xc049a5ed	-3.1507523
102	0x40a2bd98	5.085644
103	0x4094abe1	4.6459813
104	0x4180f512	16.119663
105	0xbf618e6c	-0.88107944
106	0xc0e9a6a8	-7.301594
107	0xc0d91485	-6.783755
108	0xbfd0d3d3	-1.6314644
109	0x40fb320a	7.8498583
110	0xc13c5479	-11.770623
111	0xc0fcbb1b	-7.89784
112	0x410d08fb	8.8146925
113	0xc1667257	-14.402915
114	0x400605a9	2.0940955
115	0x4107a35f	8.4773855
116	0xc11c852c	-9.782513
117	0xc1501951	-13.006181
118	0x3fbf2562	1.4933283
119	0xc11bc441	-9.735414
120	0xc10c21ba	-8.758234
121	0xc178bae1	-15.545625
122	0x409dc136	4.9298353
123	0xc0c1bf1f	-6.05458
124	0xbdb664fc	-0.0890598
125	0xc0e165a4	-7.0436573
126	0xc0b88d92	-5.7672815
127	0xbeef52cf	-0.46742865
128	0xc0ab5ff6	-5.355464
129	0xc1223d20	-10.139923
130	0x3fe12fee	1.7592752
131	0xc13504f3	-11.313708
132	0xbee92a35	-0.45540014
133	0xc00db846	-2.2143722
134	0x3f934db0	1.1508083
135	0x4129fddd	10.624478
136	0xbe580980	-0.21097374
137	0xbf7088a3	-0.9395849
138	0x402788e3	2.61773
139	0x416b8671	14.720323
140	0xc0b00590	-5.500679
141	0xc1080641	-8.501527
142	0x40c60080	6.187561
143	0x41155a05	9.334477
144	0x3e9c75bd	0.30558577
145	0x3ea1be9a	0.3159073
146	0xc128444b	-10.516673
147	0x3fcdd760	1.6081352
148	0xc0394e2b	-2.895396
149	0xbeecac97	-0.46225426
150	0xbf84df09	-1.0380565
151	0xc0257f71	-2.5859034
152	0xc0e72c3c	-7.2241497
153	0x40ed15e5	7.4089227
154	0xbfcc24b4	-1.5948701
155	0xc0ce7ee7	-6.452991
156	0xc05a9670	-3.415432
157	0xc1856201	-16.672853
158	0xc149bef0	-12.609116
159	0x41144982	9.267946
160	0xc0330594	-2.7972155
161	0xbf01a0bb	-0.5063588
162	0xc1291cf4	-10.569569
163	0x410d72dc	8.840542
164	0xc14304d4	-12.188679
165	0xc12e0659	-10.87655
166	0xbf5bff2e	-0.8593625
167	0x418ee731	17.862886
168	0xc191e82b	-18.238363
169	0xc02ac477	-2.6682413
170	0x3e6972f2	0.22797754
171	0x413c23ff	11.758788
172	0x4179bed4	15.609089
173	0x3f8f665c	1.1203113
174	0xbf4f9a5e	-0.8109492
175	0xc0802937	-4.005031
176	0xc020dc13	-2.5134323
177	0x412f633b	10.961726
178	0x40dfa00a	6.988286
179	0xc177c846	-15.486395
180	0xc1037d05	-8.218022
181	0xbf7dd5d5	-0.99154407
182	0x413775ee	11.466291
183	0x4168087f	14.502074
184	0x3f9e6930	1.2375851
185	0xc1225d44	-10.14777
186	0x40de5785	6.9481835
187	0x4094f7ce	4.6552496
188	0xbea1ffc8	-0.31640458
189	0x4081766a	4.045705
190	0x40e4ac4b	7.146032
191	0xc081ff36	-4.0624037
192	0xc114f1f3	-9.30907
193	0x4088e003	4.277345
194	0x3fc8461d	1.5646397
195	0xc1105ab2	-9.022142
196	0x3f967dd9	1.1757156
197	0xc1317d8a	-11.093149
198	0x41893640	17.15149
199	0xc08e1f3d	-4.4413133
200	0xc141cd3a	-12.112604
201	0xc114d85c	-9.302822
202	0x3fba5495	1.4557062
203	0xc081f5f0	-4.0612717
204	0xc10fdbcc	-8.991161
205	0x414eef06	12.933355
206	0x4161e0a5	14.117345
207	0xc1309c7f	-11.038207
208	0x4092aac8	4.5833473
209	0xbf0de0c0	-0.55421066
210	0xc135f7d3	-11.373004
211	0x4063c8ae	3.5591235
212	0x409c1344	4.8773518
213	0xc0e41e7b	-7.1287208
214	0xbfa43da5	-1.2831312
215	0x3f9c7f4b	1.2226347
216	0x403de941	2.9673617
217	0xc0554a5a	-3.332663
218	0x3f5c7b41	0.8612557
219	0xc066d358	-3.6066494
220	0xc0cb5f48	-6.355381
221	0xc15d59b6	-13.834402
222	0xc08e76a2	-4.4519815
223	0x3f4e7d68	0.80660105
224	0xc06e3629	-3.7220557
225	0x3f3e1ed3	0.74265784
226	0xbfab43bf	-1.338005
227	0xc1295fc3	-10.585879
228	0x407f6d37	3.991041
229	0xc1080a6f	-8.502547
230	0x40bf0329	5.9691358
231	0x3ef895ad	0.48551694
232	0x406c2238	3.6895885
233	0xc1428243	-12.156802
234	0x3f6a07ad	0.9141796
235	0x3ef4e75f	0.47832772
236	0xc10c79cc	-8.779736
237	0x405509d3	3.3287246
238	0xc02dd473	-2.7160919
239	0x41a35d7e	20.42065
240	0xc010b4f9	-2.2610457
241	0x40bd969b	5.9246345
242	0xc053f229	-3.3116553
243	0x40bf718c	5.9826107
244	0x4065b6a6	3.589273
245	0x3f5792e5	0.8420852
246	0xc1028139	-8.1565485
247	0xc0adb170	-5.42791
248	0xc1a57d1a	-20.686085
249	0x408f14c3	4.4712844
250	0x4190fdaa	18.12386
251	0xc0b95b6b	-5.7924094
252	0xc1038aa4	-8.221348
253	0xc0dd44ed	-6.914664
254	0x40cde717	6.434459
255	0xc0d094c8	-6.518162

BN1.running_var f4 [256]
0	0x425bc1b9	54.939182
1	0x422e9cfb	43.6533
2	0x4306e441	134.89162
3	0x42c7f1f5	99.97257
4	0x431cb524	156.70758
5	0x434b29a4	203.16266
6	0x43178b86	151.54501
7	0x42c3135d	97.53782
8	0x430d645f	141.39207
9	0x42f721b5	123.565834
10	0x4326448d	166.26778
11	0x43386181	184.38087
12	0x42c3089d	97.51682
13	0x42b2596f	89.174675
14	0x42671edf	57.780148
15	0x43231953	163.09892
16	0x42e368c5	113.70463
17	0x42b15604	88.668
18	0x42706bf9	60.105442
19	0x430f9de6	143.61679
20	0x42e88a2d	116.269875
21	0x423879b7	46.118862
22	0x41ceb53f	25.8385
23	0x4283b582	65.85451
24	0x423a606c	46.594162
25	0x42cb4f1f	101.65453
26	0x4263d1cf	56.95489
27	0x429b3b27	77.61553
28	0x4247ff51	49.999332
29	0x434e9f2a	206.62173
30	0x42875c89	67.68073
31	0x43013104	129.19147
32	0x42c186bf	96.763176
33	0x42b99afb	92.8027
34	0x42d388dc	105.7673
35	0x423bdeca	46.967567
36	0x42533f40	52.811768
37	0x42bd60de	94.68919
38	0x430533bb	133.20207
39	0x424c6e16	51.107506
40	0x437e746a	254.45474
41	0x4270742e	60.113457
42	0x42831c90	65.555786
43	0x42970597	75.51092
44	0x4389108c	274.12927
45	0x42d9ec04	108.96097
46	0x42b5b7b8	90.858826
47	0x42218146	40.376244
48	0x42c37fa6	97.74931
49	0x4295ff95	74.99918
50	0x42e9106a	116.53206
51	0x42b0ab60	88.33472
52	0x4288b7d0	68.35901
53	0x42e5ca2d	114.894875
54	0x4284a272	66.317276
55	0x42cd700a	102.71883
56	0x429fe56a	79.948074
57	0x42ca48d0	101.14221
58	0x428216ab	65.04427
59	0x41d5dda6	26.733227
60	0x423a6ac0	46.604248
61	0x42b4d81e	90.422104
62	0x428e6075	71.18839
63	0x42c91509	100.541084
64	0x43243c19	164.23476
65	0x42579d90	53.90387
66	0x429886ff	76.263664
67	0x42a69af7	83.302666
68	0x4315e31b	149.88713
69	0x4283af60	65.84253
70	0x42e9d466	116.91484
71	0x424c25aa	51.03678
72	0x4286fe38	67.49652
73	0x4280ff56	64.4987
74	0x42ca1464	101.039825
75	0x422b3311	42.79987
76	0x42a1d810	80.922
77	0x423d1ae9	47.27628
78	0x42bd19c5	94.55033
79	0x422005b6	40.005577
80	0x421a5c6b	38.590252
81	0x42b0874b	88.264244
82	0x4288510d	68.1583
83	0x43839d84	263.2306
84	0x42811397	64.53826
85	0x421ed242	39.70533
86	0x42f9c41c	124.883026
87	0x424c36a2	51.053352
88	0x426bf947	58.993435
89	0x42f40a72	122.0204
90	0x42d01cd1	104.05628
91	0x425f3250	55.799133
92	0x427e7a91	63.619694
93	0x42676f13	57.85847
94	0x42955297	74.66131
95	0x42870616	67.51189
96	0x42c52f6c	98.59262
97	0x424dfb7c	51.49559
98	0x42b03f37	88.12347
99	0x42ef6918	119.70526
100	0x42f332af	121.59899
101	0x43131ade	147.10495
102	0x4238f79c	46.241806
103	0x433be4cb	187.89372
104	0x428716c2	67.54445
105	0x4231d618	44.459076
106	0x42502938	52.040253
107	0x42958c04	74.77347
108	0x42808e3a	64.27779
109	0x42b925b6	92.573654
110	0x430d391f	141.22313
111	0x42aca823	86.32839
112	0x427b4e9c	62.826767
113	0x429ddc9d	78.930885
114	0x428a924d	69.28574
115	0x4236d096	45.703697
116	0x424174be	48.364006
117	0x42b2c694	89.38785
118	0x42a6239e	83.069565
119	0x426d6820	59.351685
120	0x42c63109	99.09577
121	0x42eec90a	119.392654
122	0x42ac1e74	86.05948
123	0x4314baac	148.72919
124	0x42a6962c	83.293304
125	0x4323c313	163.76201
126	0x421172bb	36.36204
127	0x42731287	60.768093
128	0x43007a27	128.47716
129	0x428d3237	70.598076
130	0x429fe472	79.94618
131	0x42dcb239	110.34809
132	0x435a6cdf	218.42528
133	0x4291acc9	72.83747
134	0x43155140	149.31738
135	0x429f1e46	79.55913
136	0x42bc6a96	94.208176
137	0x4277231d	61.78429
138	0x42a3b2f4	81.84952
139	0x42f84a2f	124.14489
140	0x423829e0	46.040894
141	0x428a4a9a	69.145706
142	0x425cb24e	55.174126
143	0x43095018	137.31287
144	0x41867685	16.80787
145	0x42cea844	103.32864
146	0x42abc45f	85.88354
147	0x4314659a	148.39688
148	0x425a203a	54.53147
149	0x428385d2	65.76137
150	0x42981fe7	76.06231
151	0x4327d324	167.82477
152	0x4224e819	41.226658
153	0x431fb523	159.70757
154	0x421019ed	36.02532
155	0x42799832	62.39863
156	0x425d0900	55.25879
157	0x42b74c9a	91.64961
158	0x42aad597	85.41717
159	0x42ee4ef0	119.154175
160	0x41deac97	27.834272
161	0x42f6123d	123.03562
162	0x42c0bd56	96.3698
163	0x4320cf04	160.80865
164	0x4295ff4d	74.998634
165	0x42e2f7b3	113.48379
166	0x42209a2b	40.150555
167	0x429edcc1	79.43116
168	0x430654d8	134.33142
169	0x428221f8	65.066345
170	0x41f79c85	30.951426
171	0x42d377cb	105.73397
172	0x42a3545b	81.66476
173	0x42b66896	91.20427
174	0x42788f68	62.140045
175	0x422e791c	43.61827
176	0x42922b48	73.08453
177	0x4255921a	53.392677
178	0x4311dbd6	145.85873
179	0x43198d8d	153.55293
180	0x424f1578	51.770966
181	0x4227ad75	41.91939
182	0x42a27c17	81.24236
183	0x42716549	60.34891
184	0x42248fd9	41.140476
185	0x42a228d9	81.07978
186	0x42c47f9e	98.24925
187	0x4213efe8	36.984283
188	0x4238c54a	46.192665
189	0x42815420	64.66431
190	0x42a007c9	80.015205
191	0x429c938e	78.28819
192	0x4315ec20	149.92236
193	0x4284b461	66.3523
194	0x42af1978	87.54974
195	0x431bd66b	155.83757
196	0x422abb76	42.683067
197	0x4287d8de	67.92357
198	0x43045215	132.32063
199	0x4241c2b2	48.440132
200	0x42a65f40	83.186035
201	0x432863e7	168.39024
202	0x4239fd9b	46.49766
203	0x42a92d63	84.588646
204	0x42ddb668	110.85626
205	0x42e535dd	114.6052
206	0x42d98758	108.76434
207	0x425a124f	54.51788
208	0x4293ea1e	73.95726
209	0x42b60f63	91.03005
210	0x426e66bc	59.600327
211	0x42b507a5	90.51493
212	0x42d61ec4	107.06009
213	0x4286953a	67.29146
214	0x4239ac34	46.418167
215	0x429af453	77.477196
216	0x42ab2223	85.56667
217	0x42dfec8e	111.96202
218	0x4233969b	44.897076
219	0x42997864	76.73514
220	0x4280bbbd	64.36668
221	0x42c2ffde	97.49974
222	0x43715177	241.31822
223	0x423f1903	47.774426
224	0x430781dc	135.50726
225	0x4276da5f	61.713253
226	0x4280f7da	64.484085
227	0x42eadaa5	117.42704
228	0x433642b7	182.2606
229	0x429da96c	78.8309
230	0x4325f4cb	165.95622
231	0x424d92b6	51.393272
232	0x4281cbe1	64.8982
233	0x4282b37b	65.35055
234	0x42851a71	66.55164
235	0x4287bed6	67.87273
236	0x42bf662c	95.699554
237	0x42254dde	41.326042
238	0x42a111fd	80.53513
239	0x430f3c68	143.23596
240	0x4284b94c	66.36191
241	0x43291c76	169.11118
242	0x42ca54e8	101.16583
243	0x4240d399	48.20664
244	0x4306c774	134.77911
245	0x42ae975c	87.29562
246	0x42e6bf45	115.37357
247	0x43328b6d	178.54463
248	0x43414ac7	193.2921
249	0x43128054	146.50128
250	0x43012494	129.14288
251	0x423c4d60	47.07556
252	0x42b49761	90.29566
253	0x42c129ba	96.5815
254	0x4235883d	45.383045
255	0x42ea7bf1	117.24207

L2.weight f4 [128, 256]
0	0x3cb63e39	0.022246467
1	0xbd067690	-0.032827914
2	0x3c237fee	0.009979231
3	0x3bbc0644	0.0057380516
4	0xbc9408ef	-0.018070666
5	0x3d3ef621	0.046621446
6	0xbb968553	-0.00459353
7	0x3ccd85ff	0.025088308
8	0xbd20ecd0	-0.039288342
9	0xbc51d314	-0.012806673
10	0xbd3c4bbe	-0.04597067
11	0xbd7bcfb7	-0.06147739
12	0x3d3327d8	0.04373917
13	0x3d51b26f	0.05119556
14	0x3cc654ca	0.024210352
15	0x3cae5eba	0.021285404
16	0x3d1e9487	0.038715865
17	0xbaab207f	-0.0013055949
18	0x3cf74561	0.03018445
19	0x3c26a1ce	0.010170413
20	0x3c869c0e	0.016431835
21	0xbbfb482d	-0.007668516
22	0x3b765ad7	0.0037590766
23	0x3d1a3c30	0.037655056
24	0x3c8d2115	0.017227689
25	0xbb7ce5b4	-0.0038589062
26	0x3d61e602	0.055150993
27	0xbd1fc93a	-0.039010264
28	0xbd1ee504	-0.038792625
29	0xbd074613	-0.033025812
30	0xbc467869	-0.012113669
31	0x3c976c46	0.018484246
32	0x3d222391	0.0395847
33	0x3d22ff80	0.039794445
34	0xbbcc2d9c	-0.006231023
35	0x3d796338	0.060885638
36	0x3d488c23	0.04896177
37	0x3c1d4e1b	0.009601141
38	0x3c891b14	0.016736545
39	0xbc88d8d9	-0.016704964
40	0x3d8c5011	0.06851209
41	0xbaba0f0e	-0.001419516
42	0x3bad1890	0.005282469
43	0x3c90dc91	0.0176833
44	0xbc0e281d	-0.008676556
45	0x3c948f67	0.018134786
46	0xbd689a83	-0.05678798
47	0x3a3c744d	0.0007188961
48	0x3d01ab50	0.031657517
49	0xbd04ca04	-0.03241922
50	0x3a275ac2	0.00063840684
51	0xbd106cea	-0.03526012
52	0xbd7a4450	-0.061100304
53	0x3d439a1b	0.04775439
54	0x3d066b4b	0.032817166
55	0x3d906a78	0.07051557
56	0x3c23d67b	0.009999867
57	0xbc623882	-0.013807418
58	0x3d4e6b75	0.050395448
59	0x3d01988b	0.031639617
60	0x3c275033	0.010211992
61	0xbd2b13bf	-0.04176688
62	0x3d833d4c	0.06408176
63	0x3d065a7e	0.032801144
64	0x3c8c16b8	0.017100677
65	0x3d92b97e	0.07164286
66	0x3d153029	0.036422882
67	0x3d4a19bd	0.049340952
68	0xbd464899	-0.04840908
69	0x3dbb8ac7	0.09157329
70	0xbd2273d2	-0.039661236
71	0x3d048a54	0.032358482
72	0xbd7695a6	-0.06020131
73	0xbd28a2f7	-0.04117104
74	0x3b1455a0	0.0022634044
75	0xbcbf8b31	-0.023381801
76	0x3d8a97f6	0.067672655
77	0x3d8e5e98	0.06951636
78	0xbc753251	-0.01496561
79	0xbd73cb82	-0.059520252
80	0x3d406786	0.046973728
81	0xbce346a7	-0.02774365
82	0x3d4ababe	0.049494497
83	0xbc4f8483	-0.012665871
84	0x3bf7b323	0.0075591966
85	0x3cf96c35	0.030447105
86	0xbbee144b	-0.0072656027
87	0x3c3a51c8	0.011372037
88	0xbc2ade79	-0.010429018
89	0x3d48e662	0.049047835
90	0x3c860318	0.016358897
91	0xbd627d8f	-0.055295523
92	0xbcc2165b	-0.0236923
93	0xbd64391a	-0.05571852
94	0x3d3d5c2c	0.04623048
95	0x3cb61230	0.02222547
96	0x3c14d046	0.009082859
97	0x3c29f8a3	0.010374221
98	0xbd0ec4ea	-0.03485576
99	0xbc7b405b	-0.015335168
100	0x3d68a746	0.05680015
101	0xbd4b4144	-0.04962279
102	0xbd5e3968	-0.054253966
103	0x3d829cff	0.06377601
104	0xbbc93962	-0.006140874
105	0x3d7ceaf6	0.061747514
106	0x3c09ddce	0.008414699
107	0x3c9eae1b	0.01937013
108	0x3ca96ccb	0.02068176
109	0xbd621590	-0.055196345
110	0x3d83c9ff	0.06435012
111	0x3d6da7c1	0.05802131
112	0x3c1deaa1	0.009638459
113	0xbd384703	-0.044989597
114	0xbd870119	-0.06592006
115	0xbd82750a	-0.0636998
116	0x3d6f087e	0.05835771
117	0xbd60bc11	-0.054866854
118	0xbb9a96b8	-0.004717674
119	0x3c9574d1	0.018244179
120	0xbd0f2c72	-0.034954496
121	0xbd435163	-0.04768504
122	0x3d63fabc	0.05565904
123	0x3cfa33bb	0.030542245
124	0xbd5dfc33	-0.054195594
125	0x3cd70b17	0.026250405
126	0x3d0bd8c0	0.034142256
127	0xbbb08641	-0.005387098
128	0xbd1fede1	-0.03904522
129	0x3d0e6cb7	0.034771647
130	0xbbc6a83f	-0.006062537
131	0xbd0af6dd	-0.033926833
132	0x3c047db5	0.0080866115
133	0xbc850467	-0.01623745
134	0x3ce5adf8	0.028037056
135	0xbcca89bd	-0.024723882
136	0xbc9cb4a1	-0.0191291
137	0xbaa406b3	-0.0012514204
138	0x3d4166b8	0.0472171
139	0x3cfd9577	0.03095506
140	0x3b989eb3	0.0046575903
141	0xbd278364	-0.04089679
142	0x3cd0107d	0.025398487
143	0xbd344142	-0.044007547
144	0xbd5aab1e	-0.053385846
145	0x3c27ca52	0.010241108
146	0xbc9f4f11	-0.019446881
147	0x3d32e9d3	0.043680023
148	0x3b93505c	0.0044956636
149	0x3adfef5b	0.0017084883
150	0xbb214ac7	-0.002461122
151	0xbd1938e7	-0.037407782
152	0xbcf5d6a5	-0.030009577
153	0x3d5d8f8b	0.05409197
154	0xbc635820	-0.013875991
155	0xbd0ccc0f	-0.034374293
156	0x3d3fa620	0.04678929
157	0x3bf26b75	0.007398064
158	0xbbbe6360	-0.0058101863
159	0x3cbc1cea	0.022963006
160	0xbbc2e106	-0.005947235
161	0xbc419c22	-0.01181701
162	0x3cde5f09	0.027144926
163	0x3c3996ef	0.011327489
164	0x3d3f8498	0.04675731
165	0xbc7f1d81	-0.015570999
166	0x3d15feaf	0.03661984
167	0x3c1a187b	0.009405251
168	0xbd148294	-0.03625734
169	0x3cda923e	0.026681062
170	0x3cf6b201	0.030114176
171	0xbb0fdae1	-0.002195053
172	0x3ce21e11	0.027602227
173	0x3b44b6f0	0.0030016266
174	0xbd546e6c	-0.05186312
175	0xbd43a8da	-0.04776845
176	0x3cb64008	0.02224733
177	0x3d187af7	0.037226643
178	0xbd68aae2	-0.05680359
179	0xbd5bf241	-0.05369783
180	0x3cc8bf44	0.024505265
181	0xbd0b4448	-0.034000665
182	0xbcb4d3c1	-0.022073628
183	0xbc9081ec	-0.017640077
184	0x3d821323	0.06351306
185	0xbbc4add5	-0.0060021677
186	0x3d5fb8cb	0.05461959
187	0xbcbb4223	-0.022858685
188	0xbd7d8fd7	-0.061904754
189	0x3d91467a	0.070935205
190	0xbc6a35f3	-0.014295089
191	0xbc4b2da7	-0.012401021
192	0xbd26adbe	-0.040693037
193	0x3d3ffa9f	0.04686987
194	0xbb606d7c	-0.0034244945
195	0x3d8fd8f3	0.07023802
196	0x3cdae371	0.02671978
197	0xbd4bb3af	-0.049731907
198	0xbbb28d64	-0.005448984
199	0x3d8b10e1	0.06790329
200	0x3c258f93	0.010105032
201	0xbc49feaa	-0.012328783
202	0xb9aadbfa	-0.00032588822
203	0xbd50774f	-0.05089503
204	0x3afeb881	0.0019433649
205	0xbcb53e5d	-0.022124464
206	0xbc141ecd	-0.009040547
207	0xbd27ff78	-0.04101512
208	0xbd07ece7	-0.033184912
209	0xbd3f6348	-0.04672554
210	0x3cd67a33	0.026181316
211	0x3d6aca25	0.057321686
212	0x3c34c788	0.0110339
213	0x3d4e75b1	0.050405208
214	0x3c9e3ca8	0.019316033
215	0x3d3680ed	0.044556547
216	0x3d846f07	0.06466489
217	0xbca7673e	-0.020434972
218	0x3d671d1d	0.05642425
219	0x3c45d4b8	0.012074642
220	0x3d23e218	0.04001054
221	0xbccd2428	-0.025041655
222	0xbd35ac5c	-0.044353828
223	0xbc560ae0	-0.013064116
224	0xbc11dfd3	-0.0089034615
225	0x3ca92e7e	0.020652052
226	0x3bbeaa1b	0.005818618
227	0x3d11bcb7	0.035580363
228	0x3d993f32	0.07482757
229	0x3d40fb8b	0.04711489
230	0xbce07ec3	-0.027404195
231	0xbcfcb56b	-0.030848226
232	0xbbf5d288	-0.007501904
233	0xbc03d9d2	-0.008047538
234	0x3caa113b	0.02076017
235	0x3d6cce6a	0.05781404
236	0x3be88cad	0.007096848
237	0xbd02c796	-0.03192862
238	0xbd2a81c5	-0.041627664
239	0x3d6f7c18	0.058467954
240	0x3d673e59	0.056455944
241	0x3c56a96e	0.013101919
242	0xbd8102ff	-0.062993996
243	0x3d0b85b4	0.034063056
244	0xbbb3bf94	-0.0054854844
245	0xbd62cf36	-0.055373393
246	0x3ca4737c	0.020074598
247	0x3c74cb89	0.014941105
248	0x3d2d85e9	0.042364035
249	0x3c86e47d	0.016466374
250	0xbc847011	-0.016166719
251	0x3d6b6902	0.05747319
252	0xbd87fba4	-0.066397935
253	0x3d90ac39	0.07064099
254	0xbbf88bd2	-0.0075850273
255	0x3d52246a	0.05130426

L2.bias f4 [128]
0	0xbb824cdc	-0.0039764475
1	0xbd2a66e9	-0.04160205
2	0xbbe025a6	-0.0068404255
3	0xbd0ffaa1	-0.035151128
4	0x3cc46502	0.023973946
5	0xbd12faf9	-0.035883877
6	0xbd17c8ea	-0.03705684
7	0xbd45fb83	-0.048335563
8	0xbcbfce7f	-0.023413895
9	0xbc658c70	-0.014010534
10	0x3c343ae0	0.011000365
11	0x3c937ea1	0.018004717
12	0xbcc7c89d	-0.024387652
13	0xbd49b46a	-0.049244322
14	0x3d6f0fbe	0.058364622
15	0x3d1da5c8	0.03848818
16	0xbcc07f70	-0.023498267
17	0x3b8b5585	0.004252138
18	0xbd4c7574	-0.0499167
19	0xbd4b293f	-0.049599882
20	0x3d631831	0.055442993
21	0x3ccdd799	0.025127219
22	0x3c6ce56e	0.014458997
23	0xbd41af3f	-0.04728627
24	0xbd582a20	-0.05277455
25	0xbd2912eb	-0.041277807
26	0xbd179edd	-0.03701674
27	0x3ca3c5c4	0.019991763
28	0x3bb1e83a	0.005429295
29	0x3cf20fec	0.029548608
30	0x3caf987a	0.021435011
31	0xbc2b0418	-0.010437988
32	0x3aa7a3cd	0.0012789905
33	0x3d0407e1	0.032234076
34	0xbb9221c7	-0.004459593
35	0x3bcc9f2e	0.0062445616
36	0x3bbf9225	0.005846279
37	0xbc2b0f89	-0.010440716
38	0xbca47837	-0.020076854
39	0x3ca3a6f9	0.01997708
40	0x3d5b1f18	0.05349645
41	0xbd4d3394	-0.050098017
42	0xbb8eea18	-0.0043614022
43	0xbce2071a	-0.027591277
44	0xbc03127d	-0.008000013
45	0x3cbbac3a	0.022909272
46	0xbd5fa17b	-0.05459736
47	0x3cef9892	0.029247556
48	0x3cbda929	0.02315195
49	0xbcfb969b	-0.030711463
50	0xbd14ba6d	-0.036310602
51	0xbcb3dc37	-0.021955593
52	0xbb2a6723	-0.0026001416
53	0xbd1047f9	-0.03522489
54	0x3d651c6e	0.055935316
55	0xbb85d87b	-0.0040846444
56	0xbccdca59	-0.025120901
57	0xbd444cfd	-0.047924984
58	0x3ccb5816	0.024822276
59	0xbd099918	-0.033593267
60	0x3caa1c48	0.020765439
61	0xbc3066dd	-0.010766712
62	0xbce0d274	-0.027444102
63	0x3caf61b1	0.021408888
64	0xbd7a92c0	-0.061175108
65	0x3d1f606d	0.03891032
66	0xbb490f30	-0.0030679218
67	0x3bd65c7c	0.0065417867
68	0x3d115c15	0.035488207
69	0xbca403be	-0.020021316
70	0x3ccb7519	0.02483611
71	0x3a50aa50	0.0007959949
72	0xbc93693c	-0.017994516
73	0x3d3ca8b5	0.04605933
74	0x3bf1ea46	0.007382664
75	0x3d297744	0.041373506
76	0xbc91c980	-0.017796278
77	0x3cfbdf5c	0.030746154
78	0x3cf129ce	0.02943888
79	0x3d130358	0.03589186
80	0x3d05b462	0.03264273
81	0x3d10698b	0.035256904
82	0xb9ebeab7	-0.0004499757
83	0x3bac3b17	0.0052560675
84	0xbd4bf2b4	-0.049792007
85	0x3d3320f8	0.043732613
86	0x3c91d7ca	0.017803092
87	0xbc884649	-0.016635077
88	0xbd4f302f	-0.05058306
89	0xbcd754e7	-0.026285602
90	0xbb8c57e8	-0.00428294
91	0x3cf3f1cf	0.02977839
92	0xbb4a2a0d	-0.0030847818
93	0x3cbdb2d0	0.023156554
94	0x3c437b8d	0.011931312
95	0x3d74831b	0.059695344
96	0x3d69290a	0.056923904
97	0x3d29b614	0.04143341
98	0xbd7dc3e0	-0.06195438
99	0xbcc2f06d	-0.023796285
100	0x3cd6adbe	0.026205894
101	0x3d268091	0.040649954
102	0x3d26abb5	0.040691096
103	0xbcbbf7cf	-0.022945313
104	0x3bfe3590	0.00775785
105	0x3c45ddbf	0.012076794
106	0x3cdd9751	0.027049692
107	0xbd4020a5	-0.046906132
108	0xbd6bc994	-0.057565287
109	0x3d6a438b	0.05719332
110	0x3c31294d	0.0108130695
111	0x3cfd7fa7	0.030944658
112	0xbd431efe	-0.04763698
113	0xbc1ae506	-0.0094540175
114	0x3cc9558c	0.024576925
115	0xbd553de2	-0.05206097
116	0xbd289d4e	-0.041165642
117	0xbbbccdce	-0.0057618385
118	0xbc9fa441	-0.019487502
119	0x3d66d2f4	0.056353524
120	0xbd553fde	-0.05206286
121	0xbd44216a	-0.04788343
122	0xbca9364a	-0.02065577
123	0xbc903dff	-0.017607687
124	0xbd71ecf1	-0.059063856
125	0xbb1f287a	-0.00242856
126	0x39b7c988	0.00035054632
127	0x3d26e818	0.040748686
