Trained_Models/BotDetection_v4_MLP___May-10-2024/BotDetection_v4_MLP_epoch60_val_loss_0.477711.pth (torch, 956421 bytes, 45 tensors)

L1.weight f4 [256, 133]
00000000: d72a 053c 4271 6e3d a6dc b13d 1298 37be
00000010: 1250 cb3c 1313 3e3d 4cb2 473e bb5f 2fbd
00000020: ad65 2c3c 92b1 1c3d 7742 9cbd abf8 e63c
00000030: b316 55bd b4bd 52bd 8614 0cbe 6c2d b23d
00000040: a3c3 10bc 7b48 32bd 8b61 baba bee2 53bd
00000050: 277c fabc 2a11 2abc 1186 50bd 0fdf 08bd
00000060: fd93 853d f5a6 debd f061 fb3c c1c7 d6bd
00000070: eece c83c 9375 d23d 214e bc39 578d 23bd
00000080: 6393 b7bd 487d b1bc 2079 81bd 671a a53d
00000090: f9ba d03d ccb8 9e3d d519 94bd 748e 40bd
000000a0: b382 563e 3a17 4cbc aa0d 15bd 2704 0e3c
000000b0: 1a9a 64bc 7623 bb3d 0675 dc3b 54b9 8d3d
000000c0: f803 0ebd 6920 a33d 8a0e 433d f12c 333c
000000d0: 4397 863d 076b d33d 5960 ccbc c466 113c
000000e0: ce42 32bd 1226 5c3d ef01 3cbe 3c55 edbc
000000f0: 6b4b 34be 2d68 863c 1376 24be e630 50bd
00000100: 5e2a 0b3e 6a10 01be c32f a2bd a515 0a3e
00000110: 87a3 bebc 3309 55bd 7757 643d 60aa db3d
00000120: 420d d33d ce1a 833d edf1 49bd 6cf4 debc
00000130: c8de a2bd 22f5 5f3c 4682 84bc f72d aa3c
00000140: 44dc 76bb 23fc 19bd ee4e 9ebd 082a 04bd
00000150: 7830 653d 08e9 44bd de47 3bbe 50e2 d2bd
00000160: a0ec e43c cace b6bc 0724 ad3b 43cf 213e
00000170: 5c60 c1bd af7b cb3a fcd2 11bd ced6 223d
00000180: 57ba 213d 7eec b6bd 9d6c 3abd b95e cc3c
00000190: 57d0 073d 8e10 e4bd 3cd9 023e cbad 2abe
000001a0: 0551 77bd b3ed 983d a80c 8a3d 8c52 4bbd
000001b0: e60e 2cbd 7e8a 82bd 81b0 373d 6a6e d2bd
000001c0: 8283 42bd f5c3 99bc 6563 a03c f68c f7bc
000001d0: 52ba 9f3c a891 d73d 371b 993d a5fd a63d
000001e0: 0896 c3bd b753 543d 34d6 403c 0705 503e
000001f0: 3bc8 ffbd c656 3cbc 918d 433d e0f2 a13d
00000200: 03b2 9bbd a28b 903b 6d06 993d 8f32 5b3d
00000210: 7ec6 77bd e14e e33b eb74 263d d002 76bc
00000220: ec68 ca3d 0c64 15bd 4489 883d def8 8cbd
00000230: 7ced 13bd 6fac 5d3d af8f 2fbd 37b2 a63b
00000240: 69b5 d6bb 362b 6fbd 2892 803d 50c7 883d
00000250: 77d0 523c 0c61 84bd c374 d9bb a1f5 8fbc
00000260: ffc9 543d 1400 d6bc 0290 943b 2c45 88bd
00000270: 5c85 ddbd 1bb7 d0bd 6342 03bd 7e19 a1bd
00000280: faee 9fbb 6180 9ebd e67f 383d e7bd 20bc
00000290: a2ee fbbc 3cb0 8e3d 6c9e 873d 2843 83bd
000002a0: cb4a b4bc 8b68 ff3d bb75 933d 5121 293e
000002b0: 8e6a b83d 9fe4 863d 2f06 1cbd ca03 8d3c
000002c0: 40be 283d 2b43 1e3e c69a 15bd fc5a d73c
000002d0: e776 613d e13e 773d 7ab3 ec3c d635 a5bd
000002e0: 4769 96bd c954 853d da8b 113e 6aca 6dbd
000002f0: af93 5bbd 4484 703b 2ca8 8c3d 66ff b23d
00000300: d22c 9bbd 91c3 a33d 6aa3 873d aa36 c13c
00000310: e548 dfbd a777 863b f679 123d fb84 5dbd
00000320: 3592 8abc cbb7 8abc 8019 d0bc 44ae 96bc
00000330: 0d79 f53d d97e d63c 2a17 11bd eb35 55bc
00000340: f0ae f53b 9a5f a93d d2a8 2bbd a6dc 19bc
00000350: 484c dcbc 6154 10bd 10d0 3ebc 6659 cbbd
00000360: 3f6a cfbd 276e af3d 5236 19bd 3698 643d
00000370: c784 56bd 1db6 913c 15ad 2fbe 3636 e83d
00000380: b85a 30be 9e90 4bbd 6c5b e6bd fce3 363d
00000390: 0b7f 71bc 6487 cfbc e02d 70bd 2ed0 7cbd
000003a0: 408c 4a3d a021 1c3e 9dc3 a83c e56e 793d
000003b0: ae82 66bc a719 1e3d 6f8a bf3d 9062 4f3d
000003c0: 5b84 e2bd b936 053c 7471 bb3b 3187 04bd
000003d0: fa9b 6bbd e51b 403d 1c09 85bd 388d cc3c
000003e0: 787d 2e3a 967a 4a3d 5b5e aa3d 6f1d bd3d
000003f0: 91af 49bd 8662 1cbe dc57 9fbd 410a 9ebd
0.00812789 0.05821348 0.086846635 -0.17929104 0.024818454 0.04640491 0.19501609 -0.042815905
0.010522288 0.03825528 -0.07629865 0.028194746 -0.0520236 -0.051450446 -0.13679704 0.0870007
-0.008835706 -0.043526154 -0.0014219744 -0.05172991 -0.030576779 -0.010380069 -0.050909106 -0.03341585
0.06522367 -0.10871688 0.030686349 -0.10487319 0.024512734 0.10276332 0.00035916365 -0.039929714
-0.08963659 -0.021666184 -0.06321931 0.080616765 0.10191912 0.07750091 -0.072314896 -0.047010854
0.20948295 -0.0124567095 -0.036389984 0.008667982 -0.013952756 0.09137623 0.0067278175 0.06920114
-0.034671754 0.07965166 0.047621287 0.010936008 0.0657182 0.10323148 -0.024948286 0.008874599
-0.04352074 0.053747244 -0.18360113 -0.028971307 -0.17606895 0.016407097 -0.16060667 -0.050827883
0.1359038 -0.12603918 -0.07919266 0.13484819 -0.023271335 -0.052010726 0.055747475 0.10725856
0.10305263 0.06401597 -0.049302984 -0.027216159 -0.079526484 0.013669284 -0.0161754 0.02077387
-0.003766791 -0.037593972 -0.077298984 -0.032266647 0.055954427 -0.0480738 -0.18289134 -0.10297072
0.027944863 -0.022315402 0.005283836 0.1580172 -0.09442207 0.0015524531 -0.0356016 0.039755635
0.03948435 -0.08931826 -0.045513738 0.024947511 0.033157673 -0.1113597 0.12778181 -0.1666786
-0.06038 0.074672125 0.06740695 -0.04963927 -0.042006396 -0.063740715 0.04484606 -0.10274966
-0.047488697 -0.018770197 0.019578645 -0.030218583 0.019498024 0.105258286 0.07475894 0.081538476
-0.095501006 0.05183765 0.01176982 0.20314418 -0.12489363 -0.011495298 0.04774243 0.07907653
-0.076023124 0.004411177 0.07471929 0.053515013 -0.06049203 0.0069368933 0.040638845 -0.015015319
0.098832935 -0.036472365 0.06666806 -0.06883405 -0.036115155 0.054119524 -0.042861637 0.005087163
-0.0065523875 -0.05839082 0.06277877 0.06678641 0.012867085 -0.06463823 -0.0066362335 -0.01757318
0.05195045 -0.026123084 0.0045337686 -0.066538185 -0.10816452 -0.101911746 -0.032045733 -0.078661904
-0.004880783 -0.0773933 0.04504385 -0.009810901 -0.030753437 0.06967208 0.066220134 -0.064092934
-0.02200832 0.12471112 0.0720019 0.16516615 0.09004699 0.06586575 -0.038091835 0.01721372
0.04119706 0.1545531 -0.036524557 0.026288502 0.055045035 0.0603627 0.028894175 -0.08066909
-0.07344299 0.06510312 0.14213505 -0.058054365 -0.05360764 0.003669993 0.06868014 0.0874012
-0.07576908 0.07996286 0.06622966 0.023585636 -0.109025754 0.004103619 0.035760842 -0.0540819
-0.01691542 -0.016933342 -0.025402784 -0.018393643 0.11985979 0.026183533 -0.03542248 -0.013013343
0.007497661 0.08270188 -0.041909046 -0.009390986 -0.026891842 -0.03523672 -0.011646286 -0.09929161
-0.10127687 0.08565932 -0.03740532 0.055809222 -0.05237272 0.017787034 -0.1715587 0.11338465
-0.17222106 -0.049698465 -0.11247906 0.044651017 -0.014739762 -0.025333114 -0.0586375 -0.061721973
0.04945016 0.15247202 0.020601088 0.060896773 -0.014069242 0.038598683 0.09352576 0.050631106
-0.11060401 0.008130723 0.005720312 -0.03235549 -0.057521798 0.046901602 -0.06495878 0.024969682
0.00066562695 0.049433313 0.08318778 0.0923413 -0.0492397 -0.15271959 -0.0778043 -0.077167995

L1.bias f4 [256]
00000000: b1e3 a6bd 994a 97bc be0e 7b3d 837a 8abc
00000010: 5b3a b2bc 5ae0 79bd 0dd8 053d 04cb 2a3d
00000020: 26c9 56bd 74af 9dbd 377b bdbc f5fb 773d
00000030: c2d8 83bd d3ae 12bd b140 aebd 180c 21bc
00000040: 7164 973c bf54 103d c746 29bd 2aa0 a93d
00000050: 75a1 ef3b 5b76 7dbd ce9c 8e3c c1a9 023d
00000060: 64ce 643d 2ebf 7b3d d236 b5bc 8997 8ebc
00000070: 0089 33bd 90eb 103d 367e 87bd 30f4 bdbc
00000080: 33b7 65bc 7f51 91bd a757 093d ef80 a13c
00000090: c1fb 963d 7fa2 5bbd b8d0 9f3d 28b2 153d
000000a0: 5837 dabc ec4e 87bd 9ba7 a7bd f6fa 013d
000000b0: 54db 2cbd 2530 cdbc f588 0abd cc5f 85bc
000000c0: 31c3 f23b a684 983d ceab 673d f5f7 833d
000000d0: 0c72 9c3b 3a32 dbbc 332b 23bd 27ed 4c3d
000000e0: 1bf6 efbb 3a21 0b3d 1cf0 9ebd 8ea2 313d
000000f0: 19a6 39bd 20a4 19bc 6daa 8e3d 6d55 583d
00000100: ad7c 4dbd 1f89 923d cfb8 8fbd 224c 223d
00000110: 820d 633c a869 a33d 9352 0e3c 8199 99bc
00000120: 5a25 973d b9b3 51bd 52d3 753d 67b6 05bd
00000130: 7bb3 3fbc 4339 19bd 598a 683d 3fc9 5ebd
00000140: 0ee5 c8bc 4571 c53b 9a9e 9d3d fe00 42bc
00000150: 5102 18bd a2c0 22bc 3e5a a03c 0d95 1cbd
00000160: b088 b03d 0cce 0f3d 4afb fbbc f5ca 4f3d
00000170: 3435 cebc e591 9b3c 29a8 78bc dd55 8abd
00000180: 4513 94bd 8c94 9abd a76f 45bd 79dc aebb
00000190: 5ff2 383c f44d 6b3c d1f5 1f3d 5c85 b33b
000001a0: 97c9 ac3d 3fb0 a6bc b23e 953c 6403 923c
000001b0: 489b 2e3d 61b0 8d3d 4a10 053d 40d1 303d
000001c0: e043 9d3d ed6e 2b3d 773e a13d 6850 343d
000001d0: 1853 2b3d 1e82 31bc bcaf 5cbd 7273 9d3d
000001e0: 51e6 363d 5939 d43c e545 103d 7221 c4bc
000001f0: 6dfb 27bc 56a7 8d3d 6ca0 ba3c 43c3 abbd
00000200: f196 8f3d 21f0 d23c b0cd 2dbd 59e6 1ebd
00000210: 713b 84bd 09d4 a53d e4c6 26bd af58 1fbd
00000220: dead e33c b3ee 0dbd 7d85 3a3d 4c15 f9bc
00000230: 9d5e a8bc 4bb2 dbbc 1281 a13b b019 323d
00000240: 668d 5ebc de5f 8b3d 6f7d afbd 06c2 87bd
00000250: daf3 c73c 75b9 d5bb 1da3 56bc 91b4 cb3c
00000260: 6d23 91bd 10c9 16bc 7eae 7cbd 0f18 9e3d
00000270: 58ba 9a3c e76f 533d 9adf 63bd 23e1 a9bc
00000280: d06b 3e3d c9f6 953d 4a36 94bd 286e c0bc
00000290: 8e0f 80bc dc67 a43d 2cf6 5bbd 5a17 033d
000002a0: 6ef3 813d 7f48 86bd 4310 a73d 0655 aebd
000002b0: 7a28 82bd a7b8 cdbc 8175 8d3b cc05 4c3b
000002c0: 1717 843d 88b1 983d 068b c0bc 2587 a43c
000002d0: 64ec f8bc f684 ca3c 7d2a dcba a2a8 253d
000002e0: 0511 bb3a 9e58 dcbc f6c4 173d 1220 803d
000002f0: f668 25bd 83d8 bc3c 6a6b 2139 1d12 cdbc
00000300: 674d 173d e93e 4a3d 1b6d 1f3d 80d3 96bd
00000310: 2f85 00bd 7ec4 923d fb22 4b3d 94b6 473d
00000320: 616f 57bd f0b1 fe3c 71c6 32bc 7371 09bd
00000330: 5014 533d ca85 aa3d 54b9 1e3d e7d2 813d
00000340: c3f8 4abd 6393 2e3d 9bf0 a3bd 41ef aabc
00000350: 602f aabc 3ce2 91bd cc1e debc 6e07 863d
00000360: 2801 2ebd 101c 993d 57d4 303d 7cd7 0ebd
00000370: 7d19 473d bf0f a5bd d287 143d 9936 29bd
00000380: 8ff8 8bbd bdc9 ae3d 45fa 5bbb fc5d 5abd
00000390: 736f af3d b1f1 b03c a68e 56bc 84e6 05bd
000003a0: 6971 9f3d 2d17 453d 9630 a03d 7159 013d
000003b0: 08e2 8b3d 5f0e 5bba d88d 9e3c 66ef b23c
000003c0: c2c9 a73d a506 853d e982 543d fe00 abbd
000003d0: 50ed 813d 09d8 413d 349b 9dbc 9164 823c
000003e0: aa6f aebd a91c 46bd e607 893d ca94 a3bd
000003f0: 40e7 093a 02fb 7b3c e467 83bb 0436 4fbd
-0.081488974 -0.018468188 0.061293356 -0.016904121 -0.021756342 -0.061004974 0.032676745 0.041697517
-0.052437924 -0.07699481 -0.023130042 0.06054302 -0.06437828 -0.035811257 -0.08508433 -0.0098295435
0.018480511 0.03523707 -0.041327264 0.08282502 0.0073129483 -0.06188045 0.017408755 0.03190017
0.055860892 0.06146162 -0.022120867 -0.017406242 -0.043831825 0.0353809 -0.0661587 -0.023187727
-0.014020729 -0.07095622 0.033530857 0.0197148 0.07372237 -0.053621765 0.07803482 0.036546856
-0.026637718 -0.0660685 -0.08186265 0.031733476 -0.042201355 -0.025047371 -0.03382202 -0.016281031
0.0074085225 0.07447176 0.05656033 0.064437784 0.0047743376 -0.026757348 -0.03983612 0.050030854
-0.007323039 0.033967234 -0.07760641 0.043367915 -0.04532442 -0.009377509 0.069661 0.052815843
-0.05016773 0.0715506 -0.07017671 0.039623387 0.013858201 0.07979137 0.008686679 -0.018749954
0.07380171 -0.051196788 0.060015984 -0.032644656 -0.011700506 -0.037408125 0.056772564 -0.054391142
-0.024523284 0.0060254657 0.076962665 -0.011841057 -0.037111584 -0.009933623 0.01957428 -0.038228083
0.08619821 0.03510861 -0.030759472 0.050730664 -0.025171854 0.018990466 -0.015176811 -0.06754658
-0.07230238 -0.07547864 -0.048202183 -0.005336341 0.0112882545 0.014361847 0.03905279 0.005478544
0.08436888 -0.020347713 0.018218372 0.017823882 0.042628556 0.06918407 0.032486238 0.043168306
0.07678962 0.041853834 0.07873242 0.044021994 0.04182729 -0.010834245 -0.05387853 0.07688035
0.04465324 0.025906252 0.035222907 -0.02394173 -0.010252816 0.069166824 0.022781573 -0.083868526
0.07011212 0.025749268 -0.042432487 -0.038793895 -0.0645665 0.08097083 -0.04071702 -0.038902935
0.027792867 -0.03465147 0.04553746 -0.030405663 -0.020552928 -0.026818415 0.0049287165 0.04348153
-0.013583517 0.068053946 -0.085688464 -0.06628804 0.02440827 -0.0065223523 -0.013100413 0.024866374
-0.07086835 -0.0092032105 -0.061689846 0.077194326 0.018887684 0.05162039 -0.055633165 -0.020737236
0.046489537 0.07322461 -0.07236917 -0.023490027 -0.015632417 0.08027622 -0.053701565 0.03200469
0.06345259 -0.06556796 0.081573986 -0.08512311 -0.063553765 -0.025112463 0.004316986 0.0031131385
0.064497165 0.074557364 -0.023503792 0.020083973 -0.030386157 0.024721604 -0.001679733 0.040444024
0.001427204 -0.026897725 0.03705307 0.06256117 -0.0403833 0.02305246 0.00015394171 -0.025033051
0.03693905 0.049376402 0.03892241 -0.07364559 -0.031377014 0.07166384 0.049593907 0.048758104
-0.052596454 0.031090707 -0.01091157 -0.03355546 0.051533043 0.083262995 0.03875096 0.063390546
-0.049553644 0.042621028 -0.08004876 -0.020866038 -0.020774543 -0.07123229 -0.027114294 0.06544386
-0.04248157 0.074760556 0.043171253 -0.03487347 0.048608292 -0.08059644 0.03626234 -0.041311834
-0.06834518 0.08534572 -0.003356592 -0.053312287 0.08566179 0.021599622 -0.0130955335 -0.03269054
0.07785303 0.048117805 0.07821767 0.03157944 0.068302214 -0.00083563285 0.019354746 0.02184267
0.08192779 0.06495408 0.05188266 -0.083497986 0.06344092 0.047325168 -0.019239046 0.015917094
-0.08517392 -0.048367176 0.0669096 -0.07987364 0.0005260594 0.015379669 -0.0040101875 -0.050588623

BN1.weight f4 [256]
00000000: 707a 7e3f e5dd 7f3f ea48 7b3f 9ee8 773f
00000010: 1df0 7c3f 3b7e 813f b071 823f f79c 7e3f
00000020: b7ec 7f3f 0136 823f ba20 7c3f a8f8 7a3f
00000030: 6cf0 7e3f 5169 813f 7865 853f 2793 803f
00000040: 6420 823f ddbd 803f 9651 7e3f edca 803f
00000050: 619d 7c3f c428 7d3f bad9 873f 50fe 813f
00000060: ee73 823f fd2c 823f daf7 843f 1f07 813f
00000070: 68f3 833f 9c55 843f b208 853f 9805 803f
00000080: 3298 833f c0fb 7d3f 49e3 7d3f 310f 823f
00000090: 1cd3 853f 06cf 823f 3173 7f3f 3c04 823f
000000a0: c092 813f 4229 843f 39ae 813f 9545 853f
000000b0: f0a0 7f3f 000f 823f d91e 803f e9c0 7c3f
000000c0: 54dc 863f 7208 803f 17d8 7a3f 6c7b 7e3f
000000d0: f534 7c3f 8340 823f d39a 7e3f a284 7f3f
000000e0: b7bf 803f 17e0 813f 0942 803f 8b48 863f
000000f0: 6e4f 7e3f 1267 813f 0917 853f 9b7b 843f
00000100: c1a0 783f 9ee6 803f 3407 7c3f 4ee5 823f
00000110: 59ad 7f3f 7e58 8b3f 7161 7f3f 4c48 793f
00000120: 18f5 833f 4613 843f d90a 813f 1c2d 803f
00000130: 8f01 813f a0dc 843f aab9 823f 2063 823f
00000140: da3d 823f 8003 7e3f 8c32 803f ecfb 7c3f
00000150: beef 803f e6bc 803f a37e 813f dc6c 843f
00000160: 2445 843f 817f 803f f87b 823f 22ba 843f
00000170: 0bb5 813f bb41 803f 61eb 823f 602b 833f
00000180: ff5c 813f b152 823f 0ca8 803f 3841 843f
00000190: 907c 7f3f 574b 7f3f 952d 813f 9816 833f
000001a0: 17bb 823f ca1c 843f 29ee 7f3f 3877 843f
000001b0: 011e 833f 731b 843f a5b1 813f 6b35 843f
000001c0: 4d23 7d3f a4b5 823f b1fb 843f 23e4 853f
000001d0: 0e54 863f 8395 7c3f 41c1 7e3f 24da 7e3f
000001e0: de3e 7e3f e3e5 7a3f 4646 833f 6c85 7c3f
000001f0: 9d94 803f 6962 803f 170b 833f c598 833f
00000200: 66be 7d3f c171 803f 118e 7c3f 50b3 7c3f
00000210: 04a5 7f3f 8ec9 813f ff41 813f d4f9 823f
00000220: c655 833f b000 7b3f 6cc7 813f e7b1 7b3f
00000230: 8756 843f 7c27 813f 76a8 7f3f 7a75 803f
00000240: 22e8 853f d280 803f 7a33 813f 68e0 823f
00000250: 258e 823f b3bb 813f 7f6c 843f 0d71 7d3f
00000260: e690 813f 3186 7d3f bb95 833f 1a66 7d3f
00000270: d384 7f3f 0f44 823f 8e65 7b3f 1e2e 813f
00000280: 63e1 7c3f cc33 833f 5e5f 7c3f dcf9 803f
00000290: 9ab7 813f 0631 7f3f 9981 8a3f e330 7c3f
000002a0: d2cd 823f c34c 803f a238 853f 0c28 7d3f
000002b0: db7a 803f 8f75 813f df44 823f 6a91 813f
000002c0: 2428 7c3f 908f 823f fe65 7d3f e219 813f
000002d0: afc0 813f ec19 823f 17f6 813f 9b95 7c3f
000002e0: b42f 833f 5b5f 823f ae73 7e3f cfc9 7d3f
000002f0: d1d5 813f c019 803f fbb6 813f 912c 7f3f
00000300: 164b 803f 75f2 813f e3f1 803f d44e 833f
00000310: 9326 883f 4e40 813f 90df 853f 757e 813f
00000320: 0a50 803f ad9c 823f 7aec 833f cb82 7c3f
00000330: c530 833f 1dda 7d3f fa0a 7b3f 1e26 7f3f
00000340: e61f 7e3f 25bb 823f 5141 853f 8039 803f
00000350: 18b7 813f abce 7f3f 4256 843f 7b09 803f
00000360: ed52 823f a5e9 823f 9b55 823f 759e 7e3f
00000370: e28c 833f c85d 7b3f 50a3 7e3f 5f1b 823f
00000380: 582a 823f 0646 7e3f a30d 813f b6db 7f3f
00000390: 3d23 813f 4a04 873f b133 7f3f 5fd6 833f
000003a0: aabc 873f f7d7 7b3f ee36 813f 739d 833f
000003b0: 73a5 863f 8bda 843f 4149 803f c36a 783f
000003c0: b177 7a3f b22d 7a3f 1c66 813f 4641 863f
000003d0: 1ef3 7e3f e0d9 7b3f 63be 7c3f 03ba 7e3f
000003e0: 9acc 833f c45e 813f 738f 7f3f 5a63 823f
000003f0: 800d 803f 5865 803f 7646 853f 8a2f 883f
0.99405575 0.9994796 0.98158133 0.9683932 0.98803884 1.0116647 1.0190945 0.9945826
0.99970573 1.0172731 0.98487437 0.9803567 0.99585605 1.0110265 1.0421591 1.0044907
1.0166135 1.0057942 0.9934324 1.0061928 0.9867764 0.9889033 1.061332 1.0155735
1.0191629 1.0169979 1.0388138 1.0080298 1.0308657 1.0338626 1.0393279 1.0001707
1.0280821 0.99212265 0.99174935 1.0160886 1.045505 1.0219429 0.99785143 1.0157542
1.012291 1.0325091 1.0131294 1.041186 0.99854946 1.0160828 1.0009414 0.9873186
1.0535989 1.0002577 0.97985977 0.99407077 0.98518306 1.0175937 0.99454993 0.99811757
1.0058507 1.0146512 1.0020152 1.0490888 0.9933995 1.010958 1.0397655 1.0350221
0.9712029 1.0070379 0.9844849 1.0226228 0.9987388 1.0886381 0.9975806 0.9737594
1.0309172 1.0318382 1.0081435 1.0013766 1.0078601 1.037983 1.021291 1.01865
1.0175126 0.9922409 1.0015426 0.988219 1.0073164 1.0057647 1.0116771 1.0345721
1.03336 1.0038911 1.0194082 1.0369303 1.0133375 1.0020059 1.0228082 1.0247612
1.0106505 1.0181485 1.0051284 1.0332403 0.9979944 0.99724334 1.0092036 1.024127
1.0213345 1.0321286 0.9997278 1.0348883 1.0243531 1.0320877 1.0132338 1.0328802
0.9888199 1.0211682 1.038931 1.0460247 1.0494401 0.98665637 0.9951363 0.99551606
0.9931468 0.9800703 1.0255821 0.98641086 1.0045353 1.0030032 1.0237759 1.0280997
0.9911865 1.0034715 0.98654276 0.9871111 0.9986117 1.0139635 1.0098265 1.0232491
1.0260551 0.98047924 1.0138984 0.9831833 1.0338906 1.0090175 0.99866426 1.0035851
1.0461466 1.0039313 1.0093834 1.0224733 1.0199629 1.0135406 1.034561 0.99000627
1.0122344 0.99032885 1.0280069 0.9898392 0.9981205 1.017702 0.98201835 1.0092199
0.9878141 1.0250182 0.9858302 1.0076251 1.0134156 0.9968418 1.08208 0.98512095
1.0219061 1.0023426 1.0407908 0.9888923 1.0037493 1.0114001 1.0177268 1.0122502
0.9849875 1.0200062 0.9898375 1.0086024 1.0136927 1.0164161 1.0153226 0.9866578
1.0248933 1.018535 0.99395263 0.9913606 1.0143377 1.0007858 1.0133966 0.9967738
1.0022914 1.0152117 1.0073818 1.0258431 1.0636772 1.0097749 1.0458851 1.0116717
1.0024426 1.0204064 1.0306542 0.98637074 1.0249258 0.9916094 0.98063624 0.9966754
0.99267423 1.0213362 1.0410558 1.0017548 1.0134001 0.99924725 1.0338824 1.0002893
1.0181557 1.0227553 1.0182375 0.99460536 1.0277369 0.98189974 0.99467945 1.0164603
1.0169172 0.993256 1.0082287 0.9994463 1.0088879 1.0548184 0.9968825 1.0299796
1.0604451 0.9837641 1.0094888 1.0282425 1.0519241 1.0379194 1.0022355 0.97037905
0.97838885 0.97725976 1.0109286 1.048867 0.9958972 0.98379326 0.9872801 0.9950258
1.0296814 1.0107045 0.9982826 1.018657 1.000412 1.0030928 1.0412128 1.0639508

BN1.bias f4 [256]
00000000: 31a5 343d 64d4 39bd b266 09bc 4122 be3d
00000010: f755 4c3d 5597 85bd bce7 59bc d654 2dbd
00000020: 9df8 04bc 7f25 28bd eea8 013d 6e35 90bc
00000030: 3330 f43c 3bd9 b1bd 9dd9 b8bd b876 a5bc
00000040: b67a 24bc 851a 813b 1bed 03bd 5ad0 85bc
00000050: 5b94 6e3c 8cf0 e33c 0e83 0bbe a667 dbbc
00000060: 0f76 a63c e0fd 43bd a75e 9dbc a2d3 a93b
00000070: 802d 20bd b818 a0bd cc75 c2bd a593 14bc
00000080: c9ed 86bd f6ca a03d c393 92bd 7436 ce3c
00000090: ccff afbc a48c 0dbd 234a b8bc 3bb3 89bc
000000a0: bf10 1bbc 0de1 edbd 6463 8ebd 9751 cdbd
000000b0: 9764 f53b 0ff7 ffbb 3b21 dbbd 455e 87bc
000000c0: 6c91 5fbd 765a 21bd 6006 7a3d 7c6a 6a3b
000000d0: fc27 563d d78b 93bd 49ba 5d3d 1dc0 debc
000000e0: f3e2 09bd 4987 7dbc e90e 823c 9bca b7bd
000000f0: fc08 a33c 85a1 4dbd dd41 17bd 7871 8fbd
00000100: a768 123c d621 1abb 6aa6 683c 4a12 3dbd
00000110: 4263 ad3b af72 e1bc c894 713d b25e 3f3d
00000120: 949c eebc fd4c 163b 3e42 87bb a10d c53b
00000130: a073 30bd 65bc f4bd 9d1c aabd e6df 27bd
00000140: f839 e7bc 3751 583d 080e 32bd 094b 6dbd
00000150: b7cf 35bb 0308 8e3d bf20 22bc f6a6 94bc
00000160: 0934 4dbd 9069 ecbc 2c48 9dbb 3fe7 d4bd
00000170: 6c28 2dbd 535f 95bd 10e7 2ebd 28c8 2fbe
00000180: 06c6 543d 2cad 6cbc 950d 543d aa77 4fbe
00000190: 372e abbd d179 fa3c ddac 9ebd 0e54 50bd
000001a0: 67d3 2ebd 76e3 53bd 366b 91bc 8ee8 89bc
000001b0: a04b ffbc b90f acbd f3e0 6bbd d53b d6bd
000001c0: edc7 61bd f9a9 313c 9e27 12bd a88f c9bd
000001d0: f722 71bc 4009 243b ccab 96bd 393f f03d
000001e0: 18e6 7b3d d526 89bc 77c2 eabd a0c3 313c
000001f0: a9bf f63b 4ac6 053d 41fd 58bd 9fba cdbd
00000200: aa49 edbb 3b77 08bd 8dc1 f7ba 781e 513d
00000210: c3e4 093d 2717 89bd 32b7 613b 0a8b 8abd
00000220: 44ed 6dbd 2f3b ecbc 9905 a6bd 5a68 263d
00000230: 6698 c9bd 7401 9a3c 0d7c 1fbd dc4e bebd
00000240: 5fb1 82bc cf99 1cbd 269f 0739 1e55 87bd
00000250: b873 8bbd c7aa c9bc 02ca 9ebd a467 bebc
00000260: ab08 823b 4204 fe3c 51ff b9bd 6d4a 80bb
00000270: 3427 33bc 9d72 16bd e3d3 fabc 55cf 7cbd
00000280: 10a0 1fbd f1f9 69bd 9953 283d 4508 ef3c
00000290: d56d 5fbd e97b cabd f7a3 e1bd 2089 11bd
000002a0: 7ac3 eb3c 6078 72bd 720c 223d 8bc3 5bbc
000002b0: 7404 ffbc 90c9 58bd 50bb 1bbd 3c6c b83c
000002c0: 06af c33c 7640 07be f04a 0b3d 8081 fb3c
000002d0: 6348 66bb 492c 06bd 514e c1bd df1a 9b3d
000002e0: 24d1 dfbb 7b80 08bd 6a7e be3b 45b9 303c
000002f0: f429 3ebd b69d 873c 0e9b db3c 2a2f f4bc
00000300: 1e84 46bd 8e8b 923c 8ba4 3bbb e2b6 23bd
00000310: a45f cabd 099f 3fbe ac06 0dbe 28b8 06bd
00000320: 8336 6f3c c62c 15be 1ca5 74bd f569 8d3c
00000330: 1f1b 9cbd 8d0f 90bc ff6c 503c 8420 bebc
00000340: 525e 0ebc 679b 963c 99bf c7bd fec0 c4bc
00000350: 8f36 85bd a124 58bd 5477 e4bd c0ea 5dbc
00000360: 92bb 13bd e0cb 8fbd fcb5 ccbd 4df0 d63c
00000370: 8464 50bd dc96 a8bc f4f2 343d 0b91 cabd
00000380: 1b90 b3bd 2f3c 093d 12bb 45bd 1bd6 91bc
00000390: c89f bebc ded5 abbd 11d3 9cbd 755c 6cbd
000003a0: 7461 deba ea88 653d 9285 4cbc bb78 94bd
000003b0: 3062 85bc 047f 43bd 6b5c 2abd 864c 983c
000003c0: 2848 713d 709f 363d 46e0 d3bd 14a7 94bc
000003d0: e66d 15bd f3f7 3cbd 2e8f 0cbd 78c9 76bd
000003e0: 9541 ebbd 1ced bdbd 7dd1 9a3c 389e 693b
000003f0: 79ce 8bbd 2c58 77bd 09e2 98bd 9bd6 3dbd
0.04410285 -0.045368567 -0.008386301 0.09283877 0.04988667 -0.06523005 -0.013299879 -0.042317234
-0.008115915 -0.041051384 0.031655245 -0.017603602 0.02980814 -0.086840115 -0.090258814 -0.020198211
-0.010039022 0.003939929 -0.032208543 -0.016334701 0.014561738 0.027824663 -0.13624212 -0.026782822
0.020319967 -0.047849536 -0.019210173 0.0051826993 -0.039105892 -0.07817215 -0.09495124 -0.009068404
-0.06588323 0.07851212 -0.071570896 0.02517245 -0.021484278 -0.034557953 -0.022496289 -0.016809097
-0.009464442 -0.11615191 -0.06952551 -0.10025328 0.007488798 -0.007811434 -0.106996976 -0.016524443
-0.054582044 -0.03939291 0.061041236 0.0035769036 0.052284226 -0.07204407 0.054132733 -0.027191216
-0.0336637 -0.015474149 0.01587625 -0.08974191 0.019901745 -0.050202865 -0.036928046 -0.07004064
0.008936084 -0.0023518703 0.014199832 -0.04616002 0.0052913735 -0.027520506 0.05897978 0.046721168
-0.029127397 0.0022934072 -0.0041277697 0.0060135876 -0.04307902 -0.11949996 -0.08306239 -0.04098501
-0.028225884 0.052811828 -0.043470412 -0.057932887 -0.0027742216 0.06935122 -0.009895503 -0.01814602
-0.050098453 -0.02885893 -0.0047998633 -0.10395669 -0.042274877 -0.07293572 -0.042700827 -0.17166197
0.051946662 -0.014445584 0.051770765 -0.20260492 -0.08358424 0.030575665 -0.07747815 -0.05086141
-0.042682078 -0.051730596 -0.017751317 -0.016834524 -0.03116399 -0.08401436 -0.057587575 -0.10460631
-0.055122305 0.010843747 -0.035682313 -0.098418534 -0.014717809 0.0025029927 -0.073569864 0.11730809
0.06149873 -0.01674215 -0.114628725 0.010849863 0.007530172 0.032659806 -0.052975897 -0.10045361
-0.0072414475 -0.033316832 -0.0018902287 0.051054448 0.03366543 -0.06693869 0.0034441468 -0.06764801
-0.058087602 -0.028836815 -0.081065364 0.04062686 -0.09843521 0.018799521 -0.038936663 -0.09292385
-0.015953718 -0.03823262 0.0001293389 -0.06608032 -0.06809181 -0.024617566 -0.07753374 -0.02324278
0.0039683185 0.03100789 -0.09081901 -0.0039151222 -0.01093464 -0.036730397 -0.030618614 -0.061721165
-0.038971007 -0.05712313 0.04109535 0.029178748 -0.054548103 -0.09886915 -0.11017602 -0.035531163
0.028779734 -0.05919683 0.03956265 -0.01341332 -0.031130053 -0.0529266 -0.038020432 0.022512548
0.023887169 -0.13208184 0.034007013 0.030701399 -0.003513836 -0.032757077 -0.09438766 0.07573485
-0.0068303514 -0.033325654 0.0058134096 0.010786359 -0.04642673 0.016554695 0.026807334 -0.029807646
-0.04846584 0.01788881 -0.002863201 -0.039969333 -0.09881523 -0.18713011 -0.13772076 -0.03289047
0.014600399 -0.14567861 -0.059727773 0.017262438 -0.076223604 -0.01758554 0.012721299 -0.023208864
-0.00868948 0.018384648 -0.09753341 -0.024017807 -0.06504547 -0.052769307 -0.111555725 -0.013544738
-0.036067553 -0.07021308 -0.09995648 0.026237631 -0.05087711 -0.020579748 0.04417701 -0.09890946
-0.0876772 0.03350466 -0.048274107 -0.017802289 -0.023269549 -0.08390401 -0.07657445 -0.05770536
-0.0016966299 0.056038775 -0.0124830175 -0.0724959 -0.016282171 -0.047728553 -0.041592043 0.018591177
0.058906704 0.044585645 -0.10345511 -0.018146075 -0.03648176 -0.0461349 -0.034316234 -0.06025073
-0.11487118 -0.09273741 0.01889872 0.0035647284 -0.06826491 -0.06038682 -0.07464988 -0.04634724

BN1.running_mean f4 [256]
00000000: 8150 0dc1 bc6e 8840 237d bc40 1730 0441
00000010: 877e d1c0 5042 f740 bebe c241 b237 5c41
00000020: 4b5b 0a41 2002 5bc0 c0a9 9a40 72a1 9d41
00000030: d990 0741 dada 97c0 f12b 4ac0 b29a 683f
00000040: 4ee6 7541 85b3 41c1 130a 4841 5839 5041
00000050: 1600 39c0 73cc 5c41 9f32 0740 7e87 a040
00000060: 4c6b ffbf 1a92 d23d ec78 05c1 3814 b640
00000070: a249 7bc0 ff33 6cbf a218 c140 d986 9ec0
00000080: 9f45 ef40 2249 62bf 36cc b240 8b0f 05c1
00000090: 19d4 02c1 a664 6140 30d0 4740 ce59 5fc0
000000a0: dfd8 5041 d546 8241 eb1d b040 1df7 f13f
000000b0: f698 ecc0 0f14 5340 06e0 1f41 972a 9c3f
000000c0: 2cc0 fcc0 26ab aec0 8117 d1c0 e2ad f0c0
000000d0: 967f 9640 45d9 5dc1 e7c6 6440 3be8 2440
000000e0: 9e8a b8bf 7809 b340 ae5c 0cc1 328f c040
000000f0: ff22 f13f ba85 82c1 53cc 0b40 6c12 92c0
00000100: f5f3 debf 151a c4bf 92ce 5f41 2a81 8e40
00000110: 45a6 23c1 6065 c53e 9c80 1dc0 99d1 dec0
00000120: bc44 ecbf 3a0c 3441 7624 56c1 2fd4 e840
00000130: 3628 0041 bacc e9c0 6b31 fb40 1162 89c0
00000140: a961 963f e642 f53d 8fbb ce40 c54b 3e41
00000150: 9a42 93c0 3406 a0bc 8060 28c1 4f75 4a40
00000160: c04f 5cbf 3c9c 4340 c4cb 9240 6421 1c41
00000170: ff0c c43f 6e37 08c1 7357 14be fba4 8440
00000180: 781e 9a40 84a6 79bf a2d4 3dc1 6173 e7c0
00000190: c239 bc40 6a8b 42c0 bef9 a740 7676 9840
000001a0: c85b 8041 e02e 7ebf 5037 eec0 def3 dfc0
000001b0: a081 c6bf 51b9 fd40 9296 3dc1 dd4f fdc0
000001c0: 4b54 0b41 2b2e 63c1 2b6e 0540 9fca 0741
000001d0: 3c5b 1ec1 e1cd 4bc1 9e09 bb3f cac4 1ac1
000001e0: 5914 0fc1 623a 78c1 be0d a640 9965 bbc0
000001f0: 9ad6 acbd a6ce d8c0 7988 b6c0 d593 1abf
00000200: 866a a6c0 a883 25c1 bfa8 b83f 8a0f 32c1
00000210: c6e0 2bbf a294 0fc0 dbe4 833f ded3 2c41
00000220: bc7d 7dbe 143b 84bf abdd 2740 fa07 7141
00000230: ff2e b1c0 c9ef 09c1 d6f3 bc40 f2ef 1b41
00000240: 65c5 f03e 1080 4c3e e450 25c1 4b85 be3f
00000250: 5103 36c0 8e89 b1be eae7 96bf a24f 1cc0
00000260: 5f53 eec0 0d13 f440 f8be ccbf e84b d8c0
00000270: 5e66 58c0 9143 86c1 eee0 48c1 35a7 1041
00000280: 09b8 39c0 4108 28bf 8fdb 29c1 191b 0d41
00000290: 4fd3 44c1 8b0c 28c1 93d4 74bf 7b46 8e41
000002a0: 376f 92c1 b226 2ec0 980c 803e 85ec 3d41
000002b0: f15b 7741 a7f2 983f 891d 7abf b5bf 82c0
000002c0: 0b8f 0cc0 1676 2c41 840a dc40 779a 76c1
000002d0: 3aab 02c1 fe30 80bf 1028 3941 72b9 6841
000002e0: 0293 ab3f 00c7 21c1 fb61 e240 2b29 9340
000002f0: a047 63be c2af 7440 446e e440 395b 8bc0
00000300: f31f 13c1 ca58 8540 7935 d43f 4c25 0ec1
00000310: 1c9a 823f ae77 32c1 58b2 8941 5f48 84c0
00000320: 7301 42c1 e59f 15c1 28b1 a93f f019 89c0
00000330: adf9 0fc1 d18d 4f41 be9b 6241 ffb6 34c1
00000340: 52df 9a40 f6cd 31bf 0935 38c1 cd52 5c40
00000350: b920 9340 3635 e7c0 1a8c 9bbf bd99 993f
00000360: 8234 3740 8160 53c0 1881 2f3f ec37 64c0
00000370: c209 c9c0 182b 5cc1 fad2 88c0 8147 103f
00000380: 893f 74c0 fdc6 453f ce70 babf 07d3 26c1
00000390: 5e5c 8340 55bc 08c1 b4b3 bb40 dcc2 153f
000003a0: 5867 6140 8106 47c1 4528 783f 5f4b a13e
000003b0: 818c 0cc1 567e 5240 6607 3cc0 1960 a541
000003c0: 1ff7 19c0 140c c440 a8d0 52c0 afc5 be40
000003d0: 1b5e 6c40 b56e 513f 3424 00c1 675e a0c0
000003e0: f2ca a5c1 2572 9040 f7a2 9141 b6db aec0
000003f0: 0f8d 05c1 5a7c dfc0 c74b cf40 d936 cec0
-8.832154 4.2635174 5.8902755 8.261741 -6.546695 7.726845 24.343136 13.7635975
8.647288 -3.4220047 4.8332214 19.70383 8.472863 -4.7454653 -3.158932 0.90861046
15.368727 -12.106328 12.50246 13.014 -2.8906302 13.799914 2.1124647 5.0165396
-1.995462 0.10281773 -8.342022 5.689968 -3.9263692 -0.9226684 6.034257 -4.953961
7.4772487 -0.8839284 5.587428 -8.316295 -8.176782 3.521768 3.1220818 -3.4898562
13.052947 16.284586 5.503652 1.8903538 -7.393672 3.2980993 9.992193 1.2200497
-7.8984585 -5.458392 -6.534119 -7.521226 4.7030745 -13.865544 3.57464 2.5766742
-1.4417303 5.594906 -8.772627 6.01748 1.8838805 -16.315296 2.184346 -4.564749
-1.74182 -1.532046 13.987932 4.453267 -10.228093 0.38553905 -2.4609747 -6.9630857
-1.8458476 11.252985 -13.383902 7.2759013 8.009817 -7.306241 7.8497825 -4.293221
1.1748554 0.119756505 6.4603953 11.893498 -4.60188 -0.019534208 -10.52356 3.16341
-0.8605919 3.0564108 4.5873737 9.758152 1.5316466 -8.513533 -0.14486484 4.145139
4.8162193 -0.9751971 -11.864412 -7.2328343 5.8820505 -3.0397592 5.249236 4.7644606
16.044815 -0.99290276 -7.444252 -6.998519 -1.5508308 7.9288716 -11.84926 -7.915999
8.708079 -14.198771 2.084849 8.486968 -9.897274 -12.737763 1.461231 -9.673044
-8.942468 -15.514254 5.1891775 -5.856152 -0.084393695 -6.7752256 -5.7041593 -0.60381824
-5.2005033 -10.344643 1.4426497 -11.128794 -0.6713985 -2.2434468 1.0304216 10.801725
-0.24754995 -1.0330529 2.6229045 15.064447 -5.536987 -8.621041 5.904765 9.74608
0.470256 0.19970727 -10.332249 1.4884428 -2.8439524 -0.34675258 -1.1789525 -2.4423604
-7.447677 7.6273255 -1.5995779 -6.759266 -3.381248 -16.782991 -12.554914 9.040822
-2.9018576 -0.65637594 -10.616103 8.819116 -12.301589 -10.503062 -0.9563686 17.784414
-18.304304 -2.7211118 0.25009608 11.870244 15.459947 1.1949052 -0.9770132 -4.0859017
-2.1962306 10.77883 6.8762836 -15.412711 -8.166803 -1.0014951 11.572281 14.545275
1.3404238 -10.111084 7.0744605 4.5987754 -0.22195292 3.8232274 7.13846 -4.3548856
-9.1953 4.1670885 1.6578819 -8.884106 1.020328 -11.154219 17.212082 -4.1338344
-12.125354 -9.351537 1.3257189 -4.284416 -8.998456 12.972123 14.163023 -11.294677
4.839761 -0.69454896 -11.512948 3.4425538 4.5977445 -7.2252455 -1.2152131 1.2000042
2.8625798 -3.3027651 0.68556356 -3.5659132 -6.282441 -13.760521 -4.275754 0.56359106
-3.8163779 0.7725676 -1.4565675 -10.42652 4.1050253 -8.5459795 5.8656864 0.58500457
3.5219326 -12.439088 0.96936446 0.31502816 -8.784303 3.288961 -2.9379516 20.671923
-2.405708 6.1264744 -3.2939854 5.9616313 3.6932437 0.8180955 -8.008839 -5.0115237
-20.724094 4.5139337 18.204573 -5.46432 -8.346938 -6.9839296 6.478 -6.4441953

BN1.running_var f4 [256]
00000000: ae70 5c42 9bf4 3042 2800 0643 2992 c142
00000010: 8ce6 1d43 4f40 4843 bbda 1643 6add ca42
00000020: 1df5 0943 b9c5 0443 64ff 2343 554b 3b43
00000030: cc6a be42 b057 b542 a09b 6d42 7c71 2143
00000040: 7457 e242 91da b442 c758 7742 57b8 0e43
00000050: 04e2 e142 2896 3842 a784 d041 a7b9 8242
00000060: cf25 3a42 d1f5 ca42 b97f 6742 f2fb 9842
00000070: e1c7 4a42 7067 4f43 40ed 8442 2b54 f942
00000080: a1fd be42 250b bd42 cb44 d742 fcc4 3842
00000090: 4f01 5942 725b bf42 d54a 0243 f6b6 4842
000000a0: 9967 7d43 2def 7142 7e99 8642 471e 9842
000000b0: 78c4 8543 7be1 df42 b6b9 b542 4149 2042
000000c0: 3f15 ca42 a8ac 9242 344b ef42 3532 b442
000000d0: ad64 8742 6687 e942 e60f 8042 b0f6 cc42
000000e0: 8b7e 9942 895d cb42 76f9 8442 f703 d741
000000f0: fb73 4342 5048 b342 e3e9 8f42 8a2d c542
00000100: a335 2343 b110 5742 c6d9 9c42 a5f8 a542
00000110: d609 1543 c3f7 8c42 5a68 e942 bdb5 5942
00000120: 21a2 8a42 d1b2 7942 3d45 c542 d125 2a42
00000130: 8416 9d42 6104 3a42 98bd bc42 e455 2342
00000140: 197c 1942 e5e7 b142 6819 8542 84a8 8543
00000150: bb68 8042 322a 1e42 1950 fb42 deb5 3c42
00000160: e648 6f42 c4bc ea42 88c7 d142 49fe 5e42
00000170: a290 7c42 2b11 6d42 4c3c a042 ecc5 8342
00000180: bf9c c542 2da5 4142 5025 b142 3f09 f042
00000190: f710 f042 2731 1143 d0fc 3242 d240 3b43
000001a0: 5be5 8642 afab 3442 c938 4f42 f588 9942
000001b0: 0af8 8042 484b ba42 4ae6 0d43 60f6 af42
000001c0: 261e 7642 eebb 9d42 117c 8a42 0edd 3842
000001d0: c59e 3e42 a9cd af42 4dec a542 970f 6b42
000001e0: 03b2 cb42 bffc ef42 ecfa ad42 3d5a 1543
000001f0: b2f5 9f42 cecd 2243 ebd2 1042 41d3 6f42
00000200: 0ba9 0043 60b5 8c42 5f5b a642 14e3 dc42
00000210: 5d0a 5b43 b579 8e42 a552 1443 84d2 9a42
00000220: 46a8 b842 ab65 7042 99c0 a042 9c2e f742
00000230: ea7b 3642 e0d2 8842 66b3 5c42 ca2f 0b43
00000240: d78b 8641 1749 cf42 3b97 a742 abc5 1243
00000250: 16fe 5b42 776b 8242 ca3e 9742 b36b 2643
00000260: 2215 2642 ff8f 1e43 d76c 1442 81ec 8042
00000270: c96c 5742 faed b642 1530 a942 7220 e842
00000280: ea91 e141 242a f942 1d92 bd42 337b 1d43
00000290: 21ad 9442 a68f e942 5453 2242 d269 9e42
000002a0: ed66 0643 5ecc 8442 4098 fb41 b396 d142
000002b0: b3f2 a142 18f7 b542 e9ed 7942 fe64 3342
000002c0: c81b 9842 fd20 5c42 72c1 0f43 ce01 1843
000002d0: c191 4d42 e786 2842 d6c8 9d42 ecc9 7242
000002e0: 0464 2142 14e4 a242 2f1c c242 0dbe 1042
000002f0: b9ad 3442 a40d 8042 95e0 a042 b822 9942
00000300: ed2d 1643 502d 8542 dac8 aa42 0556 1643
00000310: bb54 3042 bceb 8942 e057 0343 ddf7 4042
00000320: 414a a542 a7f2 2943 a4e1 3b42 3d92 a942
00000330: 0ce6 dc42 06dd ec42 e98f db42 ae9a 6442
00000340: 4c1c 9442 0219 b742 7cc3 6942 ee39 b442
00000350: 978c d542 9215 8742 da28 3542 2929 a142
00000360: 00af ac42 2342 df42 8dda 3342 9196 9442
00000370: 39c3 8142 6982 c542 425e 7043 a9d7 3a42
00000380: 5f25 0843 feb6 7742 d634 8042 92d1 e842
00000390: 4d4c 3443 cdc0 a042 d84d 2943 aa4c 4e42
000003a0: 7e66 7d42 7114 8942 760e 8842 a339 8a42
000003b0: 0fb0 bf42 57e5 2342 c07d a142 325e 0d43
000003c0: 9254 8842 83da 2843 adb1 cf42 1a8d 4142
000003d0: 89ac 0543 e5f2 b142 562f e542 6f4d 3143
000003e0: 3de4 4243 c9f5 0f43 eabd 0243 f5a8 4042
000003f0: 92ac b542 8fed c342 c28e 3342 5512 e842
55.11004 44.238873 134.00061 96.78547 157.90057 200.2512 150.85442 101.43245
137.95747 132.77235 163.99762 187.29427 95.20859 90.671265 59.401978 161.4433
113.17081 90.42689 61.836697 142.72008 112.94144 46.146637 26.064772 65.3626
46.536922 101.48011 57.87473 76.49208 50.695194 207.40405 66.46338 124.66439
95.49537 94.52177 107.63436 46.192368 54.251278 95.678604 130.29231 50.178673
253.40468 60.48357 67.29979 76.059135 267.5349 111.94039 90.86272 40.071537
101.0415 73.33722 119.64688 90.09806 67.69663 116.76445 64.03105 102.48181
76.747154 101.682686 66.48723 26.876936 48.863262 89.641235 71.95681 98.58894
163.20952 53.7663 78.42534 82.985634 149.03842 70.48391 116.70381 54.42748
69.31666 62.424625 98.63523 42.53693 78.543976 46.504276 94.3703 40.833878
38.37119 88.95292 66.54962 267.31653 64.20455 39.541206 125.65644 47.177605
59.82119 117.36868 104.88971 55.748325 63.141243 59.266766 80.11777 65.886566
98.806145 48.411304 88.572876 120.01806 120.033134 145.192 44.746887 187.2532
67.44796 45.16766 51.805454 76.767494 64.48445 93.14703 141.89957 87.9812
61.52944 78.86705 69.24232 46.215874 47.65505 87.90168 82.961525 58.765224
101.84768 119.993645 86.99008 149.3525 79.97987 162.80392 36.205975 59.956303
128.66032 70.35425 83.17846 110.44351 219.04048 71.23771 148.32283 77.41116
92.32866 60.099285 80.37617 123.591034 45.62101 68.411865 55.175194 139.18668
16.818281 103.64275 83.79537 146.77214 54.99813 65.20989 75.622635 166.4207
41.520638 158.56248 37.10629 64.46192 53.856236 91.4648 84.59391 116.06337
28.196247 124.582306 94.78538 157.48125 74.33814 116.78056 40.581375 79.20668
134.40205 66.399155 31.44934 104.794334 80.97402 90.982605 62.482334 44.848625
76.05426 55.032215 143.75565 152.00705 51.392338 42.13174 78.89226 60.69719
40.34767 81.445465 97.055046 36.185596 45.16965 64.02664 80.43864 76.56781
150.1794 66.5885 85.39229 150.33601 44.082745 68.96042 131.34326 48.242054
82.64503 169.94786 46.970352 84.78562 110.44931 118.43169 109.781075 57.151054
74.05527 91.54884 58.440903 90.113144 106.77459 67.54213 45.289894 80.58039
86.3418 111.62917 44.96343 74.294075 64.881294 98.75471 240.3682 46.710606
136.14598 61.928703 64.103195 116.40932 180.29805 80.376564 169.30408 51.574867
63.35009 68.539925 68.028244 69.11257 95.843864 40.973965 80.745605 141.36795
68.16518 168.85356 103.84702 48.387794 133.67397 88.9744 114.59245 177.30247
194.89156 143.9601 130.74185 48.164997 90.83705 97.96398 44.889412 116.035805

L2.weight f4 [128, 256]
00000000: 315e af3c bf22 f9bc cf5d 343c ef26 b33b
00000010: e89c 96bc 9e31 413d 9a0f 8abb f777 cf3c
00000020: a5f2 22bd e817 49bc 93df 3bbd 559d 77bd
00000030: 6b97 313d 0126 523d 75dd c43c 9cf2 ae3c
00000040: 1aad 1d3d 309a 3dba 8446 f63c 625d 2c3c
00000050: e393 813c c86f 04bc fdbd 5e3b ea8e 253d
00000060: a9ae 883c 47e0 3fbb 5a56 623d 278a 1abd
00000070: 3794 1fbd e0fb 03bd 8716 35bc d735 993c
00000080: 57e5 243d 5352 273d 1d95 bbbb 3b16 7b3d
00000090: e128 463d f8ad 2a3c 3726 963c 0253 89bc
000000a0: 2788 8c3d 744c e8b9 982d a23b 232c 8d3c
000000b0: f121 0dbc 0f67 913c 085c 68bd d294 483a
000000c0: fdd8 003d 4341 02bd 260d b43a c84c 10bd
000000d0: 58fd 77bd 4b97 453d 05f0 053d de26 913d
000000e0: 3c28 203c 4a18 53bc d8b7 4c3d fefe fb3c
000000f0: 6516 343c e7d6 29bd 820a 833d 966a 063d
00000100: 6e6e 8e3c 8312 913d c5c6 163d a81f 4d3d
00000110: 6361 47bd 36a0 b83d 28e5 1fbd e4d6 023d
00000120: aca2 6fbd 7c9f 29bd ed92 393b b6a3 c7bc
00000130: 3f4c 8a3d cd4e 8d3d 2274 7bbc bd54 70bd
00000140: 410b 3f3d 8188 e5bc ac7a 4d3d f3d4 52bc
00000150: 2203 d83b 2e1a ef3c a725 cabb c9ad 3b3c
00000160: cfb6 22bc 8c6a 4d3d a265 823c 4df7 63bd
00000170: 2fcc c6bc 53ce 63bd 7ef9 3b3d 9a45 b53c
00000180: 3517 083c a9d8 243c 4ff1 0fbd 6500 70bc
00000190: 3d75 673d 0c56 4bbd 88c1 60bd 94c8 843d
000001a0: c2b2 c5bb 01d0 803d 3537 123c 4e9f 9c3c
000001b0: abd0 aa3c a0bb 66bd 5b23 843d d81c 6e3d
000001c0: f0d3 233c e199 36bd e98f 87bd 046b 83bd
000001d0: d5a1 6e3d 9ba5 5dbd fe92 83bb 3b85 953c
000001e0: a4ee 0fbd 44fb 40bd 9197 653d b000 fa3c
000001f0: 3c35 5bbd cd37 d53c 0853 053d 4893 babb
00000200: 4f05 22bd 0bca 0e3d d49a b4bb 954f 0ebd
00000210: ffa6 063c 3aa7 87bc 3867 e73c 5cf8 c3bc
00000220: f21a 96bc 3b43 a7ba b765 443d 6859 003d
00000230: c532 6a3b 5959 28bd 1294 d23c 40e2 35bd
00000240: e614 62bd 7958 493c c3ca a2bc 572b 383d
00000250: 4780 be3b 21fe 0f3b 7ae3 bbba c58e 19bd
00000260: c4c5 f6bc 3233 653d cff5 6bbc 798f 0cbd
00000270: 5b0f 413d 94d0 fe3b 003c a6bb 06e6 bd3c
00000280: 87ef 81bb ab02 3ebc 15dd de3c f1d9 3e3c
00000290: 3894 3f3d 01fa 6ebc f0a5 113d bb69 253c
000002a0: 0ecb 12bd 2257 e03c 76c5 f83c 2588 c6ba
000002b0: 38e3 e73c 11c8 903b 7599 51bd 8dc2 46bd
000002c0: 6ada b33c f39d 153d 8938 68bd 862b 5ebd
000002d0: 3933 c33c 13da 0cbd d248 aebc bb09 8bbc
000002e0: b805 833d 2379 bdbb 75c6 5c3d b12e afbc
000002f0: 3b93 7fbd 4394 933d 9019 60bc 32e5 4dbc
00000300: 81b4 28bd 4def 423d 4924 1ebb aa42 903d
00000310: 06f3 e43c e487 48bd 2b8b aabb b66e 883d
00000320: 6157 2a3c 72ae 4dbc 99e0 a13a 8b05 50bd
00000330: 0c02 0f3b d87c babc 603d 0ebc 5f61 2bbd
00000340: 1e0f 06bd 662e 3dbd 3248 da3c 7fdd 673d
00000350: 0d74 3a3c 40cd 4d3d bd83 9d3c 90c8 3a3d
00000360: 8b77 853d 02fe 96bc 4f29 6d3d 5913 403c
00000370: 3013 243d 8b52 ccbc 6350 35bd 989a 56bc
00000380: 7a4b 18bc 8f4d a13c 8d92 cf3b a6c4 123d
00000390: 57a4 9a3d ea62 3d3d 72eb debc c358 fbbc
000003a0: 28df c9bb 7996 f0bb 5962 ac3c 34a8 6b3d
000003b0: 61f9 043c 52f3 04bd fea9 29bd d685 6e3d
000003c0: 2a48 633d efd1 523c a693 7dbd df7d 073d
000003d0: 55e8 c4bb 610d 61bd 57ee a23c a905 6f3c
000003e0: 140f 2e3d 9996 8c3c 396b 85bc 52e6 663d
000003f0: b3a1 85bd e964 903d 8e63 fabb ec68 4e3d
0.021407219 -0.030412076 0.011008694 0.0054672877 -0.018385366 0.04716646 -0.0042132856 0.025325758
-0.039782185 -0.012273766 -0.045867514 -0.060452778 0.043357294 0.051305775 0.02403138 0.02135592
0.03849516 -0.00072327536 0.030062921 0.010520311 0.015817588 -0.008083291 0.0033987754 0.040419497
0.016684847 -0.0029277967 0.055258133 -0.03772941 -0.038959708 -0.03222263 -0.011052734 0.01870243
0.040257778 0.040849995 -0.005724563 0.061300498 0.04837883 0.010417454 0.01832877 -0.016763214
0.068619065 -0.0004430745 0.004949283 0.01723296 -0.008614049 0.017749337 -0.056728393 0.00076515705
0.031456936 -0.03180052 0.0013736829 -0.035229474 -0.06054434 0.048239987 0.032699604 0.070874915
0.009775218 -0.012884209 0.049980015 0.030761238 0.010991667 -0.041464712 0.063984886 0.032816492
0.017386641 0.07083609 0.036810655 0.050079018 -0.04867686 0.09014933 -0.0390369 0.031943217
-0.058504745 -0.04141186 0.0028316334 -0.024370056 0.06752824 0.06899796 -0.015347512 -0.058674563
0.046641592 -0.028019192 0.050165817 -0.012868154 0.0065921703 0.029187288 -0.0061690393 0.011455008
-0.00993128 0.05015044 0.015917603 -0.055655766 -0.024267284 -0.055616688 0.04589223 0.022127915
0.008306314 0.010061421 -0.03514224 -0.014648532 0.05650829 -0.049642608 -0.054872066 0.0648357
-0.0060332725 0.062896736 0.008924295 0.019118931 0.020851454 -0.056331277 0.06452056 0.058132976
0.00999926 -0.044580344 -0.066192456 -0.06416896 0.058259804 -0.05411301 -0.0040153256 0.018252006
-0.035139695 -0.047114626 0.056052748 0.030517906 -0.053517565 0.026027584 0.032549888 -0.005693827
-0.039555844 0.034860652 -0.005511621 -0.034743864 0.008218526 -0.016559232 0.02824746 -0.023922138
-0.018323395 -0.0012761125 0.047948565 0.031335264 0.0035735827 -0.041100834 0.025705371 -0.044405222
-0.05519571 0.01228916 -0.019872075 0.044963207 0.0058136317 0.002197154 -0.0014334761 -0.03748967
-0.030123599 0.055957027 -0.014401867 -0.034316514 0.047133785 0.0077763293 -0.0050730705 0.023180973
-0.0039653215 -0.011597316 0.02720503 0.011648641 0.04677221 -0.014585973 0.03555864 0.010096009
-0.03583818 0.027385298 0.030367594 -0.0015146775 0.028306589 0.004418381 -0.05117174 -0.04852538
0.021954734 0.036527585 -0.05669454 -0.054240726 0.023828136 -0.03438766 -0.021274958 -0.016972413
0.06397575 -0.005782263 0.0539002 -0.021384569 -0.06239627 0.07206013 -0.01367797 -0.012566851
-0.041187767 0.047591496 -0.0024130514 0.07043965 0.027947914 -0.04895772 -0.0052045784 0.066617414
0.010396809 -0.012553798 0.001235026 -0.050786536 0.0021821288 -0.022764608 -0.008681625 -0.041840907
-0.03272926 -0.046186827 0.026645754 0.05660772 0.011380208 0.05024457 0.019227857 0.045601428
0.06516942 -0.018431667 0.057900723 0.011723363 0.04005736 -0.024941703 -0.044266116 -0.013098381
-0.009295339 0.019690303 0.006334609 0.03583207 0.075508766 0.04623691 -0.027211878 -0.030681973
-0.0061606355 -0.0073421565 0.02104299 0.057533458 0.008116097 -0.03245861 -0.041421883 0.058233105
0.055488743 0.012867435 -0.061908387 0.033079024 -0.0060091414 -0.0549444 0.01988904 0.014588752
0.04249485 0.017161654 -0.01628648 0.056371994 -0.06524982 0.07050497 -0.0076412624 0.05039303

L2.bias f4 [128]
00000000: 72a0 81bb 0b86 2abd 82f6 dfbb cc0e 10bd
00000010: 6cd1 c43c d222 13bd b6ab 17bd cf8f 45bd
00000020: 1d67 bebc caeb 65bc 5025 343c 5ec5 933c
00000030: d772 c8bc 16c6 49bd 6bbf 6e3d df5b 1d3d
00000040: 3877 c0bc 3b52 873b 2d10 4cbd f410 4bbd
00000050: a207 633d 3ede cc3c 66cc 6c3c f5d9 41bd
00000060: b815 58bd 7b33 29bd 9060 17bd 15ba a23c
00000070: e95e b33b c806 f23c 523e af3c 9534 2abc
00000080: 34df a63a 2d0c 043d 22e9 92bb 4737 c83b
00000090: c022 c13b f02a 2bbc 9659 a4bc 6c8c a33c
000000a0: 3721 5b3d af1e 4dbd 53c5 8ebb aa20 e3bc
000000b0: ff82 04bc 8c31 ba3c 9099 61bd 4bc0 ef3c
000000c0: 102b bb3c be8e fbbc 89eb 14bd bb26 b4bc
000000d0: 9b05 2fbb d054 10bd 9200 653d aee3 85bb
000000e0: 2959 cdbc f91d 43bd 0ce9 c43c 8479 09bd
000000f0: 916c aa3c 707d 38bc 5dc4 e0bc d62c af3c
00000100: 09af 7abd 753e 1f3d aa76 48bb 8b12 d23b
00000110: 9f58 113d 18ae a2bc 953f cb3c 360b c639
00000120: 87b2 93bc f6ab 3c3d 962f f13b 1997 293d
00000130: d7da 91bc 07fe fc3c 0ddc ef3c 4e01 133d
00000140: 2f9a 053d 1464 103d 8b69 0dba 9ebe ab3b
00000150: a8f6 4bbd e767 343d 747d 923c c3e2 87bc
00000160: 9ba0 4fbd b820 d7bc b327 90bb 18e4 f23c
00000170: 498c 4ebb a6cd bd3c df70 433c 75b9 743d
00000180: 469a 683d e097 293d d158 7ebd 24b7 c2bc
00000190: 3db5 d63c d866 263d fef8 263d 95e8 bbbc
000001a0: 2700 ff3b 0a48 433c f9a7 dd3c 633a 40bd
000001b0: 35a5 6bbd 3737 6a3d 95d0 303c 4495 fd3c
000001c0: fde6 43bd 7fd4 1dbc ad6b c83c 1f38 55bd
000001d0: 5eb5 28bd 9630 bebb faae 9ebc 3508 673d
000001e0: 413d 55bd 0b0f 44bd 5550 a9bc 1834 90bc
000001f0: 400e 72bd caef 1dbb b6c5 b539 10e6 263d
-0.003955894 -0.04163174 -0.006834806 -0.03517036 0.024025641 -0.03592188 -0.03702899 -0.04823285
-0.023242528 -0.014033267 0.010995224 0.018038448 -0.024468822 -0.049261175 0.05828802 0.038417693
-0.023494348 0.0041296757 -0.049820114 -0.049576715 0.0554272 0.025008317 0.014453029 -0.047327
-0.052755088 -0.04130886 -0.036957324 0.019864121 0.0054739607 0.02954425 0.021392021 -0.010388513
0.0012731315 0.032238174 -0.004483358 0.006110105 0.005894035 -0.010447249 -0.02006225 0.01996442
0.053498473 -0.05007809 -0.004357019 -0.027725536 -0.0080878725 0.022728704 -0.05507809 0.029266497
0.022847682 -0.030707713 -0.036357436 -0.021991124 -0.0026706222 -0.035237134 0.055908747 -0.0040859794
-0.025066929 -0.047636006 0.024036907 -0.033563152 0.020803722 -0.011260375 -0.027437383 0.021383684
-0.061202083 0.038877923 -0.0030588307 0.006410902 0.035484906 -0.019858405 0.024810592 0.00037773856
-0.018029464 0.046062432 0.007360409 0.041403864 -0.017804546 0.030882848 0.029279733 0.035889916
0.032617744 0.035251692 -0.000539445 0.005241229 -0.049795777 0.0440444 0.017882086 -0.01658762
-0.050690275 -0.026260719 -0.0043992638 0.02964978 -0.0031516722 0.02316935 0.011928766 0.059747178
0.05678775 0.041404605 -0.06209642 -0.023768969 0.026209468 0.040625423 0.0407648 -0.022938052
0.0077820006 0.011919031 0.027057635 -0.046930682 -0.0575306 0.057181563 0.010791917 0.030954964
-0.04782771 -0.009633183 0.024465406 -0.052055474 -0.04118859 -0.0058041317 -0.019370545 0.05640431
-0.05206037 -0.04786591 -0.020668188 -0.017602965 -0.05909562 -0.0024099224 0.00034670316 0.04074675

BN2.weight f4 [128]
00000000: af73 823f a171 7e3f a62b 803f b632 823f
00000010: a484 823f 1413 833f 0077 7e3f e814 873f
00000020: 5e31 813f eef5 823f 97cc 753f 4bbc 7f3f
00000030: 60e2 813f c185 7b3f 2d82 813f 3fea 793f
00000040: 8427 823f d7a1 843f 859d 843f b188 7d3f
00000050: 0b38 803f 4c00 813f 3703 7e3f f934 843f
00000060: 7d36 7c3f 12f7 823f 9386 813f 8f39 823f
00000070: a4bf 7f3f a342 853f 67f0 823f ab40 893f
00000080: 0122 773f 2b2f 863f 699b 7c3f a0ff 823f
00000090: 4ad3 803f 841f 823f cb3f 7f3f 7c91 7e3f
000000a0: 7cb3 813f c854 763f 8d7b 853f 1e5d 823f
000000b0: c116 7f3f c13b 803f 26cc 853f ed8d 813f
000000c0: e214 873f d222 813f 842a 7e3f 05ff 823f
000000d0: ed92 823f e832 813f e2ea 793f ff4e 7e3f
000000e0: 4027 803f b5b5 833f 7937 8d3f 7469 803f
000000f0: 43b4 813f 422d 8b3f a2a7 7c3f 5db5 7e3f
00000100: 158c 813f af50 873f 22e4 783f 3164 803f
00000110: 34fd 763f d209 823f 5cd6 7a3f 2ed0 863f
00000120: 222c 833f f60b 7a3f 0ef8 853f b58f 833f
00000130: 30a1 7f3f 9212 863f c1e5 863f b319 813f
00000140: 3a3a 7e3f 0791 803f 4672 873f 5fe5 833f
00000150: c18b 7b3f 9d6a 883f 723f 853f 4ad9 7d3f
00000160: 5ce3 803f 8dae 823f 51a2 843f 36fd 863f
00000170: ba6c 833f ab5b 843f 63c0 813f fa6c 7f3f
00000180: 5a85 843f b3c3 7c3f e3b8 873f 395c 7b3f
00000190: ab18 843f 2fbf 803f a133 833f b63e 793f
000001a0: af17 803f be60 823f 7bf5 7f3f 4e79 803f
000001b0: 7ba4 7b3f 0be5 803f 3f64 823f 0721 763f
000001c0: 5459 833f d90f 813f 516a 803f c864 833f
000001d0: 9ccf 7d3f c504 833f 8963 833f 2149 803f
000001e0: 8042 823f 1790 7a3f cf5c 7e3f 7701 7b3f
000001f0: f802 7d3f 1568 803f 7fd1 823f 8d1d 813f
1.0191554 0.99392134 1.001332 1.0171726 1.0196729 1.0240197 0.9940033 1.0553255
1.0093191 1.0231302 0.96015304 0.9989669 1.0147209 0.9825097 1.0117851 0.97623056
1.0168309 1.036189 1.0360571 0.990367 1.0017103 1.0078216 0.99223655 1.0328666
0.9852064 1.023165 1.0119194 1.0173815 0.99901795 1.0410961 1.0229615 1.072286
0.9653626 1.0483145 0.9867464 1.023426 1.006448 1.0165868 0.99706715 0.9944074
1.0132899 0.96223116 1.042833 1.0184667 0.99644095 1.0018235 1.0452926 1.0121437
1.0553248 1.0088751 0.99283624 1.0234076 1.0201088 1.009366 0.9762403 0.9933929
1.0011978 1.0289828 1.1032554 1.0032182 1.0133137 1.0873187 0.9869329 0.9949549
1.0120875 1.0571498 0.97223103 1.0030576 0.9648011 1.0159247 0.97983336 1.0532281
1.0247843 0.976745 1.0466325 1.0278231 0.9985533 1.0474417 1.0538865 1.0085968
0.99307597 1.0044259 1.0581748 1.0304374 0.9826012 1.0657536 1.0409987 0.9915968
1.0069385 1.0209519 1.0362035 1.0546024 1.0267556 1.0340475 1.0136837 0.9977566
1.0353196 0.98736113 1.0603298 0.98187596 1.0320028 1.0058345 1.0250131 0.97361314
1.0007228 1.0185773 0.9998395 1.0037019 0.9829785 1.0069898 1.0186843 0.96144146
1.0261636 1.0082961 1.0032445 1.0265131 0.9914491 1.023583 1.0264751 1.0022317
1.0176544 0.97876114 0.99360365 0.9804911 0.98832655 1.0031763 1.0220183 1.0087143
