Trained_Models/BotDetection_v4_MLP___May-10-2024/BotDetection_v4_MLP_epoch23_val_loss_0.485084.pth (torch, 946074 bytes, 45 tensors)

L1.weight f4 [256, 133]
000000 6d 28 18 3c 5e 5a 6c 3d 80 fa bd 3d 34 75 df bd
       0.009286982 0.05770337 0.09276295 -0.109110266
000010 98 4d d2 3c b6 ad e1 3c 97 bb 11 3e f9 fa 99 bd
       0.025671765 0.027548652 0.14231716 -0.07518572
000020 74 a9 42 3c 0b ec 14 bd 85 e0 c9 bc 47 67 3d 3d
       0.011881221 -0.03635792 -0.024643192 0.04624107
000030 b3 16 55 bd a8 f0 48 bd 0e 90 18 be b6 fa 61 3d
       -0.0520236 -0.049057633 -0.14898703 0.055170737
000040 20 cd 3c 3d 8b 22 1f bd a2 bf 8d bb 0a 51 78 bd
       0.04609406 -0.038851302 -0.004325823 -0.06062416
000050 20 49 4b bd 3f a6 cb bb 20 93 5d bd 77 0e 93 3b
       -0.049630284 -0.0062148864 -0.054095387 0.0044878083
000060 d0 a1 74 3d 67 a4 b1 bd 89 e7 20 3c 62 7f 5d bd
       0.05972463 -0.086739354 0.009820827 -0.05407656
000070 ae a0 bd 3c da 86 41 3d ec d5 0b bc 73 4c 21 bd
       0.023147907 0.047247745 -0.00853489 -0.03937955
000080 2a fb ac bd 88 74 84 bc 76 d9 75 bd 62 37 a6 3d
       -0.08446343 -0.016168848 -0.06002184 0.08116032
000090 e0 f2 2c 3d db 14 d0 3d 25 0c f7 bc dd 2e ec 3c
       0.04222381 0.10160228 -0.030157158 0.02883094
0000a0 ae 83 13 3e 50 a2 7a 3c 72 6c 64 3b f9 9c 29 3d
       0.144057 0.015297487 0.0034854678 0.041409466
0000b0 f2 3e 20 3d 0e a1 ac 3d 4b 55 a1 3b c1 3f 84 3d
       0.03912253 0.08429156 0.004923498 0.064574726
0000c0 81 dd 33 bd a0 5e 8a 3d 60 9f 42 3d 40 01 09 3d
       -0.043912414 0.067563295 0.047515273 0.033448458
0000d0 02 5f 99 3d 49 f3 d4 3d ac 13 ac bc da a1 03 3d
       0.074888244 0.103979655 -0.021005474 0.032136776
0000e0 37 82 84 bc 64 d1 21 3d fe 1b c3 bd 01 32 a7 ba
       -0.016175373 0.03950633 -0.095268235 -0.0012755991
0000f0 40 b3 a6 bd 88 58 4c ba 9e 9f e3 bd d3 e5 01 bd
       -0.08139658 -0.00077951746 -0.11114429 -0.031713318
000100 95 03 5c 3d 6b 0a f9 bd 8f c1 04 bd 3e 26 e4 3d
       0.053714354 -0.1216019 -0.032411154 0.111401066
000110 60 76 c8 bc e7 95 42 bd 62 92 83 3d ad 5a 79 3d
       -0.024470508 -0.04750624 0.06424405 0.06087749
000120 c3 0c ac 3d f2 47 e5 3b 1c c4 42 bd 0f 33 02 bd
       0.084008716 0.006997102 -0.047550306 -0.031786975
000130 a6 e0 a2 bd ac 69 ec 3c 8a 5f a4 bc 79 cb 10 3d
       -0.079530045 0.028858982 -0.020065088 0.035350297
000140 8e ad 31 3d b4 ef 66 bd ab 54 fb bc ac 6b bd bc
       0.043378405 -0.056380942 -0.030680021 -0.023122631
000150 5f 8a 11 3d 1c a0 25 3c 05 f6 f1 bd d0 a8 44 bd
       0.03553235 0.010108974 -0.118145026 -0.048012555
000160 09 82 85 b8 b8 10 c9 3c e8 5e 80 bc 87 8b 05 3e
       -6.366155e-05 0.024544105 -0.015670255 0.13041507
000170 1e 03 96 bd 92 c3 5e 3d 42 02 bf bc cc f0 19 3d
       -0.07324813 0.05438573 -0.023316506 0.037583157
000180 bf 5b 94 3d 09 b8 71 bd a1 5f 2f bd 4f f0 22 3d
       0.07244062 -0.0590134 -0.04281581 0.039779957
000190 65 e4 72 3b 3a c4 1f bd 50 61 b7 3d 7f c4 ae bd
       0.0037062403 -0.039005496 0.08954108 -0.085335724
0001a0 2b de 6a bd 28 4c 86 3d 13 93 4f 3d 22 14 d4 bc
       -0.057340782 0.065574944 0.05067737 -0.025888506
0001b0 e0 7d 24 bd ef 97 9a bd 23 26 1b 3d 34 ba 8e bd
       -0.040159106 -0.0754851 0.037878167 -0.06969109
0001c0 78 c4 72 bd 8a 59 88 bb b0 41 8d 3c 69 7e 2f bd
       -0.0592694 -0.0041610645 0.017243236 -0.042845163
0001d0 da cd 9c 3a 46 65 c3 3d ae d0 a1 3d 86 3d b4 3d
       0.0011963204 0.09540801 0.079011306 0.08800797
0001e0 24 0b 5f bd b2 7a 6c 3d 4f 6d b8 3c d5 e8 08 3e
       -0.054453984 0.0577342 0.02251306 0.13370068
0001f0 a1 65 7f bd fb 0e 9d bc 2e 6d 7f 3d 16 19 99 3d
       -0.06235278 -0.019172182 0.06235998 0.07475488
000200 c0 cc 91 bd bf 08 c6 bb 5d 90 8f 3d 9b b3 9a 3d
       -0.07119131 -0.006043523 0.07009957 0.07553788
000210 0e 1e c8 bd 2d 32 3b b9 61 91 a9 3c ee e6 a5 ba
       -0.097713575 -0.00017852402 0.020699205 -0.0012657323
000220 c3 39 9e 3d 12 80 fe bc 82 cb fe 3a 38 f9 63 bd
       0.07725861 -0.031066928 0.0019439312 -0.055657595
000230 9d b6 1a bd 0c 73 5e 3d 0d cd 81 bc 38 65 d4 bc
       -0.03777181 0.054308936 -0.015844846 -0.025927171
000240 0b 4d 9f 3b 36 2b 6f bd 76 5b 03 3d e0 16 bf 3c
       0.004861479 -0.05839082 0.032069646 0.023326337
000250 1f c8 09 3c bf 48 21 bd 14 a0 10 bc e0 91 bb bc
       0.008409529 -0.039376017 -0.008827228 -0.022896707
000260 c4 9f 6c 3d d7 e4 cd bc bb 2f bd 3c b2 20 87 bd
       0.057769552 -0.025133533 0.023094049 -0.06598033
000270 56 3d 3b bd f2 c1 8e bd 57 f8 97 bc d0 c4 a9 bd
       -0.04571279 -0.06970586 -0.018551035 -0.08289492
000280 23 d6 1d 3d 14 4b 9c bd e0 76 d3 bc f7 27 af 3c
       0.038534295 -0.076315075 -0.02581352 0.021381361
000290 09 dd 20 bd ff ff 87 3d db f6 87 3d 1b 06 a0 bc
       -0.039273296 0.06640624 0.06638881 -0.019534161
0002a0 cd 05 a8 bc 7f 9b d0 3d ac b4 81 3d 67 4f 22 3e
       -0.020510579 0.101859085 0.063332886 0.15850602
0002b0 4e 0a cf 3d ab 77 ad 3c 0c 2f 7e bd be b1 ba 3c
       0.10109387 0.021175226 -0.062056586 0.022789832
0002c0 f2 b6 8d 3d 48 79 03 3e c6 4e 2c bd 19 9b 1d 3d
       0.0691966 0.12839234 -0.04206731 0.03847799
0002d0 0c 56 54 3d ba 4c 65 3d 29 48 0a 3d f9 c8 1f bd
       0.051839873 0.055981375 0.033760224 -0.03901002
0002e0 75 0c 36 3b d2 0e ef 3c 75 e7 96 3d f4 63 3c 3c
       0.002777842 0.029181872 0.07368366 0.01149844
0002f0 c9 6e f9 3b 0b a6 40 3c cd 32 1c 3d 14 6e 9a 3d
       0.0076120836 0.011758338 0.038134385 0.07540527
000300 dd de 4d bc 17 42 97 3d c0 d8 99 3d 3b 4a 70 3d
       -0.012565342 0.073856525 0.07512045 0.05866454
000310 fa f5 aa bd 4b 6e c5 3c 31 66 4d 3d d7 7e 03 bc
       -0.083476976 0.024100443 0.050146285 -0.008025846
000320 3a be 80 bb 59 17 6a bc ef 9b df bc bc 4c cb bc
       -0.003928927 -0.014287793 -0.027296035 -0.024816863
000330 f4 56 dc 3d f7 f9 13 bc 20 df 63 bd 22 f2 80 bc
       0.107587725 -0.009031764 -0.05563271 -0.015740458
000340 be bb 67 3c 4f 6b 9b 3d c2 a0 33 bd 94 47 03 bc
       0.014143882 0.07588827 -0.043854482 -0.008012671
000350 02 12 fa bc 80 cb d8 3c 2b 97 75 bd 48 73 b6 bd
       -0.030526165 0.026464224 -0.059958618 -0.08908707
000360 15 45 b8 bd db eb 96 3d 07 79 40 bd 67 fe 7a 3d
       -0.08997551 0.073692046 -0.04699042 0.061277773
000370 07 05 e3 bc 0a 92 44 3d 7f 22 dc bd 98 6c 38 3d
       -0.027712358 0.047990836 -0.10748767 0.045025438
000380 99 d5 aa bd 30 bd 87 bc 1b be 44 bd 3d 96 8a 3c
       -0.08341522 -0.016569704 -0.04803286 0.016917342
000390 2a 6a b5 bd de bd b4 bc 4d c0 35 bc ab 42 33 bd
       -0.0885814 -0.022063192 -0.011093211 -0.04376475
0003a0 79 cc 08 3d 6d 43 d4 3d 31 b8 75 3d 8d 9b e1 3d
       0.033398125 0.10364423 0.05999011 0.11015997
0003b0 53 d4 29 3d b1 21 29 3d b0 9b a8 3d d2 a0 80 3d
       0.041462254 0.041291896 0.0823282 0.06280674
0003c0 01 1c 29 bd 00 1b c6 3b 4e e6 59 3c cb 7b 0f bd
       -0.041286472 0.006045699 0.013299538 -0.035030168
0003d0 25 fe 1f bd b5 24 50 3d 26 f1 7f bd 0f 7e e9 3c
       -0.03906073 0.050816257 -0.062485836 0.028502492
0003e0 36 2d 91 bd d3 dc 42 3d 56 e5 b2 3d 49 61 bf 3d
       -0.070887014 0.047573876 0.087351486 0.093447275
0003f0 df 6f 81 bd dd 08 bd bd 52 42 80 bd e2 d9 88 bd
       -0.06320166 -0.09230206 -0.062626496 -0.06682183

L1.bias f4 [256]
000000 97 ed a6 bd 63 6f 97 bc 5e 1c 7b 3d 79 5e 8a bc
       -0.081507854 -0.01848573 0.06130635 -0.016890751
000010 d0 44 b2 bc 16 eb 79 bd 8d 90 05 3d 95 c0 2a 3d
       -0.021761328 -0.06101521 0.032608557 0.041687567
000020 d9 d1 56 bd 8f ad 9d bd 16 eb bd bc 3c 20 78 3d
       -0.05244622 -0.07699119 -0.023183387 0.060577616
000030 e5 d9 83 bd b2 76 12 bd 81 4a ae bd 59 5e 21 bc
       -0.064380445 -0.035757728 -0.08510304 -0.009849154
000040 b8 db 97 3c b3 4e 10 3d 3d 66 29 bd 6a 9a a9 3d
       0.018537387 0.035231303 -0.041357268 0.08281405
000050 1a 1e ef 3b f6 7c 7d bd c5 95 8e 3c f6 5f 02 3d
       0.0072972896 -0.06188675 0.0174054 0.031829797
000060 a4 f4 64 3d 53 83 7b 3d 2d dd b4 bc 60 62 8e bc
       0.05589737 0.061404537 -0.022078121 -0.017380893
000070 bd 88 31 bd 5f f2 10 3d b0 73 87 bd 62 10 be bc
       -0.043343294 0.035387393 -0.066138625 -0.023201171
000080 93 38 65 bc e6 6a 91 bd 10 48 09 3d 24 6e a1 3c
       -0.013990539 -0.071004674 0.03351599 0.01970584
000090 55 1e 97 3d 66 1a 5c bd 7c ce 9f 3d ae 9c 15 3d
       0.07378832 -0.053736113 0.07803056 0.036526375
0000a0 94 ce db bc 5f 44 87 bd a7 a8 a7 bd 4d e0 01 3d
       -0.026831903 -0.066048376 -0.08186465 0.03170805
0000b0 22 e2 2c bd de 07 cd bc 59 84 0a bd 2e 64 85 bc
       -0.042207845 -0.025028165 -0.033817623 -0.016283121
0000c0 9e 4d f3 3b 02 91 98 3d cb b8 67 3d a4 f4 83 3d
       0.007425024 0.07449533 0.056572717 0.06443146
0000d0 95 10 9f 3b a5 60 da bc 53 4f 23 bd b3 84 4c 3d
       0.0048542717 -0.026657412 -0.03987057 0.04993124
0000e0 1d 30 f0 bb ab b0 0a 3d 3e e4 9e bd a6 04 33 3d
       -0.0073299543 0.03385989 -0.077583775 0.043705605
0000f0 a3 9e 39 bd 65 ad 19 bc 7b a2 8e 3d c3 69 58 3d
       -0.045317303 -0.009379719 0.069645844 0.052835237
000100 86 7c 4d bd 23 92 92 3d 31 c4 8f bd 5c 50 22 3d
       -0.050167583 0.071567796 -0.070198424 0.039627418
000110 31 4f 65 3c 7f 6c a3 3d 46 d0 0e 3c 04 ae 99 bc
       0.0139959315 0.07979678 0.008716648 -0.018759735
000120 a0 3b 97 3d 4d 3c 52 bd b4 e1 75 3d 38 bf 05 bd
       0.073844194 -0.05132704 0.0600297 -0.032653064
000130 86 77 3f bc fd 47 19 bd 1e 56 68 3d 48 ce 5e bd
       -0.011686211 -0.03742217 0.056722753 -0.054395944
000140 3d a9 c9 bc f0 ec c7 3b 9b ae 9d 3d 44 e1 41 bc
       -0.024616832 0.006101243 0.07699319 -0.011833493
000150 60 fc 17 bd 2b f3 21 bc f8 58 a0 3c 06 8f 1c bd
       -0.037105918 -0.009884636 0.019573674 -0.038222335
000160 73 3d b0 3d d0 64 0f 3d 85 a0 fb bc 26 8a 4f 3d
       0.086054705 0.03500825 -0.03071619 0.050668858
000170 3b 5e ce bc 62 8e 9b 3c ad c0 78 bc 13 28 8a bd
       -0.025191417 0.018988792 -0.015182656 -0.06745925
000180 7d 16 94 bd 9f 9b 9a bd 29 0a 45 bd 1e 41 af bb
       -0.07230852 -0.075492136 -0.048105393 -0.0053483387
000190 27 b7 38 3c 81 81 6a 3c 77 56 1f 3d e1 c5 af 3b
       0.011274136 0.014313103 0.03890082 0.005364165
0001a0 b7 c6 ac 3d d2 31 a6 bc f3 43 95 3c d8 e8 91 3c
       0.08436339 -0.020287428 0.018220877 0.017811224
0001b0 f2 cf 2e 3d a5 ba 8d 3d 0d 1a 05 3d 26 af 30 3d
       0.04267878 0.06920365 0.032495547 0.043135785
0001c0 54 33 9d 3d a3 af 2b 3d a4 48 a1 3d b0 a0 34 3d
       0.07675806 0.041915547 0.07875183 0.044098556
0001d0 1f 44 2b 3d c1 4f 31 bc db a2 5c bd be 96 9d 3d
       0.041813012 -0.0108222375 -0.05386625 0.076947674
0001e0 b0 e6 36 3d cc 57 d4 3c 2f a1 0f 3d fc 4a c4 bc
       0.044653594 0.025920771 0.035065826 -0.023961537
0001f0 7f c9 27 bc 40 aa 8d 3d ad 3e b9 3c 4d 00 ac bd
       -0.0102409115 0.06917238 0.022612894 -0.08398495
000200 16 9c 8f 3d ed d3 d2 3c 44 e1 2d bd aa b2 1e bd
       0.07012193 0.02573582 -0.04245116 -0.038744606
000210 9c 3b 84 bd 44 10 a6 3d 3d ff 26 bd ab c5 1f bd
       -0.06456682 0.08108571 -0.040770758 -0.03900687
000220 a0 2b e3 3c 5f b3 0d bd 71 7d 3a 3d be 3c f9 bc
       0.027730763 -0.03459489 0.045529786 -0.030424472
000230 fb 03 aa bc a5 a2 db bc b5 1b a1 3b e1 ff 31 3d
       -0.020753851 -0.026810953 0.004916633 0.043456916
000240 6a 47 5e bc b0 5b 8b 3d d7 2d af bd 8c cc 87 bd
       -0.013566831 0.068045974 -0.08553665 -0.06630811
000250 c0 f2 c7 3c 5e bf d5 bb 21 5f 57 bc 0c 80 cb 3c
       0.024407744 -0.006523057 -0.013145239 0.024841331
000260 e5 da 90 bd 87 46 16 bc a6 fa 7b bd 92 0c 9e 3d
       -0.07073001 -0.0091720885 -0.061518334 0.07717241
000270 53 a0 9a 3c 38 48 53 3d 22 e8 63 bd 1a df a9 bc
       0.018875277 0.051582545 -0.0556413 -0.020736266
000280 2e 74 3e 3d 0e f7 95 3d bf 3c 94 bd 8f 2d c0 bc
       0.046497516 0.073225126 -0.07238149 -0.023459224
000290 bc a5 7e bc 89 67 a4 3d c8 d5 5b bd 75 0f 03 3d
       -0.015542444 0.0802756 -0.053670675 0.031997163
0002a0 08 d2 81 3d ae 47 86 bd 09 0e a7 3d 0d 5e ae bd
       0.063388884 -0.065566406 0.08156974 -0.085140325
0002b0 24 58 82 bd 8a 91 cd bc 62 bf 8d 3b f2 43 4c 3b
       -0.06364468 -0.025093812 0.004325793 0.0031168428
0002c0 4c 0e 84 3d 5f b6 98 3d cc 16 c1 bc ea f2 a4 3c
       0.064480394 0.074566595 -0.02357044 0.020135362
0002d0 0c 1f f9 bc e3 55 c9 3c 7c 0f eb ba a7 91 25 3d
       -0.030410312 0.024577087 -0.0017933692 0.040422108
0002e0 f2 bf c7 3a 98 5b dc bc 5a c1 17 3d e3 15 80 3d
       0.0015239699 -0.026899144 0.03704963 0.062541746
0002f0 f6 6f 25 bd 09 68 bd 3c e6 d4 d8 38 a4 c9 cc bc
       -0.040389977 0.023120897 0.00010339338 -0.024998493
000300 ae 51 17 3d 83 5e 4a 3d fb 69 1f 3d d4 18 97 bd
       0.03694313 0.04940654 0.03891943 -0.073777825
000310 2f 99 00 bd b8 a4 92 3d 5e 25 4b 3d c4 e1 47 3d
       -0.031396087 0.07160324 0.049596183 0.04879929
000320 04 fe 56 bd 11 c8 fe 3c 04 90 32 bc fd 6f 09 bd
       -0.052488342 0.031101258 -0.010898594 -0.033554066
000330 fa 64 53 3d 03 85 aa 3d af c2 1e 3d 5d dc 81 3d
       0.05160997 0.08326151 0.038759883 0.06340859
000340 ee 01 4b bd 94 8f 2e 3d 7a f7 a3 bd 9a d3 aa bc
       -0.049562387 0.042617396 -0.08006187 -0.020852853
000350 c2 13 aa bc 13 fe 91 bd c5 7a de bc 50 02 86 3d
       -0.020761374 -0.07128539 -0.02715815 0.0654341
000360 2d 3f 2e bd 47 1e 99 3d f1 10 30 3d c5 01 0f bd
       -0.042540718 0.07476478 0.042984907 -0.034913797
000370 de b5 47 3d d0 03 a5 bd 08 96 14 3d 97 af 28 bd
       0.048757426 -0.08057368 0.036275893 -0.04118308
000380 f7 2d 8c bd 5b a8 ae 3d 42 3a 5b bb 23 57 5a bd
       -0.068447046 0.08528205 -0.0033451472 -0.053305756
000390 a9 59 af 3d 94 d8 b1 3c 2e c2 56 bc ec 27 06 bd
       0.08562023 0.021709718 -0.0131078195 -0.032752916
0003a0 a0 fd 9f 3d 9c 0e 45 3d f2 2f a0 3d 74 48 01 3d
       0.07812047 0.048109636 0.07821645 0.031563237
0003b0 c2 96 8b 3d a1 73 57 ba 30 67 9e 3c 81 d1 b2 3c
       0.06815864 -0.0008218829 0.019336313 0.021828415
0003c0 ac cd a7 3d b2 0f 85 3d ae 35 54 3d 4c c9 aa bd
       0.08193526 0.06497134 0.051809005 -0.083391756
0003d0 54 f1 81 3d 1f db 41 3d 3f 95 9d bc 58 6c 82 3c
       0.06344858 0.04732811 -0.019236205 0.015920803
0003e0 b8 4f ae bd 64 1c 46 bd e3 11 89 3d 5f 8f a3 bd
       -0.08511299 -0.04836692 0.06692865 -0.0798633
0003f0 c1 93 07 3a cc c0 7b 3c 56 ab 86 bb 40 24 4f bd
       0.00051718584 0.015365791 -0.0041097803 -0.05057168

BN1.weight f4 [256]
000000 dc 88 7e 3f 93 f4 7d 3f dd 77 7d 3f 6e 7e 7b 3f
       0.9942758 0.99201316 0.9901102 0.9823979
000010 d4 bf 7d 3f e9 0a 81 3f a8 dc 81 3f 70 16 7f 3f
       0.9912083 1.0081455 1.0145464 0.9964361
000020 2c 6a 80 3f b6 9e 7f 3f a4 94 7d 3f fb e5 7b 3f
       1.0032401 0.9985155 0.9905493 0.983978
000030 99 28 7e 3f fb 62 7e 3f bd cb 81 3f 48 2a 81 3f
       0.992807 0.9936978 1.0140301 1.0091028
000040 82 54 81 3f 7e 83 7f 3f f0 80 7d 3f 3c 74 80 3f
       1.0103915 0.99810016 0.9902487 1.0035472
000050 83 5e 7f 3f 7d 94 7c 3f 7f ce 84 3f 1f 40 82 3f
       0.9975359 0.98664075 1.0375518 1.0175818
000060 48 92 82 3f 01 57 81 3f dc 12 81 3f 49 55 80 3f
       1.0200891 1.0104676 1.008388 1.0026027
000070 24 6d 83 3f 89 a6 81 3f e8 cb 82 3f 9d 03 80 3f
       1.0267682 1.0128947 1.0218477 1.0001103
000080 46 3a 83 3f 1b 06 7b 3f 4b 1c 7b 3f 98 70 80 3f
       1.0252159 0.9805619 0.98090047 1.0034361
000090 fd 0f 82 3f fe ea 82 3f 13 2d 80 3f 65 46 80 3f
       1.0161129 1.0227964 1.0013756 1.0021483
0000a0 da 82 81 3f 7c 72 81 3f 04 56 81 3f 6a 97 83 3f
       1.0118058 1.0113063 1.0104375 1.0280583
0000b0 6f d4 7f 3f 92 c3 81 3f a5 64 80 3f bc 9f 7d 3f
       0.9993352 1.0137808 1.0030714 0.9907186
0000c0 82 31 83 3f ef bd 7c 3f d0 11 7c 3f 24 f7 7d 3f
       1.0249484 0.98727316 0.9846468 0.9920523
0000d0 ec d1 79 3f f4 36 81 3f 61 ce 7f 3f 7e 48 80 3f
       0.9758594 1.0094895 0.99924284 1.0022123
0000e0 6b 87 80 3f 4d a2 81 3f 6d 2e 80 3f 49 9c 83 3f
       1.0041326 1.0127655 1.0014168 1.028207
0000f0 4f 41 7f 3f a5 78 80 3f 3c 80 82 3f 0a b1 83 3f
       0.9970903 1.0036818 1.0195384 1.0288403
000100 75 3c 7b 3f 7a 38 7e 3f 0b 81 7d 3f 7a 64 81 3f
       0.98139125 0.99304926 0.9902503 1.0108788
000110 0b a1 80 3f f7 4e 83 3f 20 ac 80 3f f1 7e 7b 3f
       1.0049146 1.0258473 1.0052528 0.9824057
000120 a6 ec 81 3f f7 17 84 3f fb b5 80 3f 43 5c 7f 3f
       1.0150344 1.0319813 1.0055536 0.99750155
000130 48 f4 7f 3f 28 f2 82 3f 77 3a 82 3f dd 78 7f 3f
       0.9998212 1.023015 1.0174092 0.997938
000140 4f 40 81 3f 3a 73 7e 3f 4a 8f 7f 3f f6 24 7f 3f
       1.009775 0.9939457 0.99828017 0.9966577
000150 3b 28 80 3f 51 63 80 3f 87 ab 80 3f b8 67 81 3f
       1.0012277 1.0030309 1.0052346 1.0109777
000160 1c 19 83 3f 84 41 80 3f 5b cc 81 3f 02 21 83 3f
       1.0242038 1.0019994 1.0140489 1.0244448
000170 81 88 80 3f dc 7c 80 3f 25 d4 81 3f b2 c6 81 3f
       1.0041658 1.0038104 1.0142866 1.0138762
000180 1c 56 80 3f 2e 70 80 3f d8 00 81 3f fc e0 81 3f
       1.0026278 1.0034235 1.0078382 1.0146785
000190 d9 40 7f 3f 6d ea 7f 3f a5 88 80 3f 84 89 82 3f
       0.99708325 0.9996708 1.0041701 1.0198216
0001a0 a1 b9 81 3f 59 d4 82 3f 99 81 7c 3f ea 9e 81 3f
       1.0134774 1.0221053 0.9863525 1.0126622
0001b0 d2 62 81 3f 5e 43 83 3f b9 1f 80 3f f7 a0 81 3f
       1.0108283 1.0254934 1.0009681 1.0127248
0001c0 f8 a0 7e 3f 66 6d 82 3f 20 2d 81 3f 06 ae 83 3f
       0.9946437 1.0189636 1.0091896 1.0287483
0001d0 d2 23 84 3f 19 52 80 3f 8c 8c 7e 3f 74 06 7e 3f
       1.0323431 1.0025054 0.9943321 0.99228597
0001e0 61 06 80 3f f5 12 79 3f 71 c8 82 3f 45 54 7f 3f
       1.0001947 0.9729455 1.021742 0.9973796
0001f0 24 3b 80 3f f5 4c 7e 3f 3a af 80 3f 36 7c 82 3f
       1.0018048 0.9933618 1.0053475 1.0194156
000200 cc ba 7e 3f 49 6d 7f 3f e6 99 7d 3f a1 fb 7e 3f
       0.9950378 0.9977613 0.99062955 0.99602705
000210 97 6c 80 3f 54 2b 81 3f da 19 81 3f b7 f4 82 3f
       1.0033139 1.0091348 1.0086014 1.0230931
000220 21 8d 82 3f 90 36 7d 3f 04 53 80 3f a2 fc 7c 3f
       1.0199319 0.9891138 1.0025334 0.9882299
000230 9d bb 82 3f 8a 91 7f 3f a6 b4 80 3f e7 6b 80 3f
       1.0213505 0.9983145 1.005513 1.0032929
000240 be 72 82 3f 76 f5 80 3f ab c8 80 3f 77 da 82 3f
       1.0191267 1.0074909 1.0061239 1.022292
000250 cf 40 81 3f a6 9a 80 3f d7 84 82 3f e0 a3 7d 3f
       1.0097903 1.0047195 1.019679 0.9907818
000260 77 09 80 3f 3e 5f 7c 3f 19 86 81 3f ed 90 7d 3f
       1.0002888 0.9858283 1.0119048 0.99049264
000270 18 3f 7f 3f 49 e5 81 3f 9e 92 7c 3f 37 05 80 3f
       0.9970565 1.0148097 0.9866122 1.0001591
000280 67 23 7d 3f d1 28 82 3f b5 21 7d 3f 5e 71 81 3f
       0.98882145 1.0168706 0.9887956 1.0112722
000290 7f 4a 81 3f 36 cb 7e 3f d7 7a 85 3f 29 18 7b 3f
       1.0100859 0.99528825 1.0428113 0.9808374
0002a0 ed f3 81 3f 5a 95 7f 3f 47 65 82 3f 9e 2f 7c 3f
       1.0152565 0.9983727 1.0187157 0.9851016
0002b0 46 9b 80 3f c8 3a 80 3f c2 3f 7f 3f 78 99 7f 3f
       1.0047386 1.0017939 0.9970666 0.9984355
0002c0 aa 6d 7e 3f ab b2 7f 3f b6 a4 7e 3f ca 99 81 3f
       0.99386084 0.99882 0.9947008 1.0125058
0002d0 52 67 81 3f 57 e3 80 3f 2e 7b 81 3f da 91 7d 3f
       1.0109656 1.0069379 1.0115716 0.99050677
0002e0 f6 3b 80 3f b5 1a 82 3f 90 13 80 3f 67 13 7d 3f
       1.0018299 1.01644 1.000597 0.9885773
0002f0 7c c2 81 3f 3e 3d 81 3f 16 2d 7f 3f e9 f6 7f 3f
       1.0137477 1.0096815 0.9967817 0.9998613
000300 9a 57 80 3f 11 ab 80 3f 78 14 80 3f 61 7b 82 3f
       1.0026734 1.0052205 1.0006247 1.0193902
000310 3d 10 85 3f 57 3b 81 3f 67 f3 82 3f 43 aa 80 3f
       1.039558 1.0096234 1.023053 1.005196
000320 d8 96 80 3f dc ca 80 3f 4a f1 80 3f fd 8a 7c 3f
       1.0046034 1.0061908 1.0073636 0.9864958
000330 14 2f 82 3f d9 7c 7d 3f 7f 22 7e 3f 72 8f 7c 3f
       1.0170617 0.9901863 0.99271387 0.9865638
000340 25 94 7e 3f 68 4d 81 3f 7e 94 83 3f 7b ba 80 3f
       0.994448 1.0101748 1.0279691 1.0056909
000350 dc 98 7f 3f 33 47 80 3f ac f8 82 3f 7e b7 7e 3f
       0.9984262 1.0021728 1.0232139 0.99498737
000360 e8 3c 81 3f 0e 15 81 3f b9 2d 81 3f 09 26 7d 3f
       1.0096712 1.008455 1.0092078 0.9888616
000370 27 b0 83 3f 0e 74 7b 3f 65 12 7f 3f 4b 17 80 3f
       1.0288132 0.9822396 0.9963744 1.0007108
000380 60 15 81 3f 6d 5e 7e 3f da 69 7f 3f 51 8b 7e 3f
       1.0084648 0.9936283 0.9977089 0.9943133
000390 24 7f 81 3f bc 0e 84 3f 4f 94 7f 3f d7 e9 81 3f
       1.0116925 1.0316997 0.99835676 1.0149487
0003a0 db 16 86 3f 52 6f 7d 3f 95 f0 7d 3f 65 5a 80 3f
       1.0475725 0.98997986 0.99195224 1.0027586
0003b0 2b ef 84 3f 47 dd 82 3f fa 9f 7f 3f 1f f8 76 3f
       1.0385488 1.0223778 0.9985348 0.9647235
0003c0 ad cf 7b 3f 1e a8 7d 3f 6e 66 80 3f 99 8b 83 3f
       0.98363763 0.9908465 1.0031259 1.0276977
0003d0 2e b0 7d 3f 09 6f 7d 3f 8b 55 7e 3f f1 b3 7f 3f
       0.99096954 0.9899755 0.9934928 0.99883944
0003e0 07 d3 81 3f 65 84 81 3f bd f2 7e 3f 7f bc 7e 3f
       1.0142525 1.0118529 0.9958914 0.9950637
0003f0 72 38 7f 3f fe 31 80 3f e9 2d 83 3f f5 30 84 3f
       0.99695504 1.0015256 1.0248386 1.032744

BN1.bias f4 [256]
000000 8c 98 d4 3c 72 f9 ee bc 04 95 de bb 97 f5 90 3d
       0.025951646 -0.02917168 -0.0067926664 0.070780925
000010 65 c8 1a 3d 99 fa 39 bd 15 83 ad ba e9 cb 2d bd
       0.037788767 -0.045405004 -0.0013237918 -0.042430792
000020 69 2a bb bc e7 ca a1 3c ae ef de 3c 59 0d 6b 3c
       -0.022847371 0.019750072 0.027213898 0.014346444
000030 4c 88 d2 3c 25 13 4f bd 33 45 18 bd 6d a9 7d bc
       0.025699757 -0.050555367 -0.03717537 -0.015482289
000040 15 a6 5c bc 20 cd 8a bc 02 cf ad 3b 37 d5 fe bb
       -0.013467331 -0.016943514 0.0053042183 -0.007776882
000050 15 ff 46 3c 1d b7 ca 3c 3e bd 64 bd 52 91 e1 bc
       0.012145777 0.024745518 -0.055844538 -0.027535114
000060 b2 2c e4 ba 6a 37 e6 bc 3b 8b df bc 4c 0d 13 3c
       -0.001740834 -0.028102595 -0.02728807 0.008975338
000070 a4 2d 12 bd 68 b0 1d bd 3c c2 58 bd f4 b8 69 bb
       -0.035688058 -0.038498312 -0.05291961 -0.003566322
000080 48 0f 33 bd a1 86 55 3d 11 07 34 3c 4d 01 cb 3c
       -0.043715745 0.052130345 0.010988013 0.024780894
000090 35 95 c4 bc d7 ce f6 bc 17 96 b0 bc f9 f4 c0 bc
       -0.023996929 -0.030127926 -0.021555943 -0.023554312
0000a0 32 2a 0d bd 63 8b 15 bd 14 28 24 bd 80 b8 69 bd
       -0.03446407 -0.036509883 -0.040077284 -0.05706072
0000b0 10 57 eb 3b a0 41 42 bc bb 43 94 bd 69 2b 81 bb
       0.0071820095 -0.0118564665 -0.07239481 -0.0039419425
0000c0 2a e7 23 bd 5a 08 95 bc 6a 3d 99 3c 53 7b 34 3d
       -0.040015377 -0.018192459 0.018706042 0.044062924
0000d0 13 e9 57 3d dd 6b 3a bd 70 a6 18 3c 66 29 c8 bc
       0.05271251 -0.045513023 0.009317026 -0.024433803
0000e0 01 3b 02 bd 74 f8 b9 bc 76 bb 0a 3c 22 87 32 bd
       -0.03179455 -0.02270148 0.008467546 -0.043585904
0000f0 8a 97 aa 3c 8c 2f b8 bc ef c0 7e bc 6f 9b 18 bd
       0.020824213 -0.02248361 -0.015548929 -0.037257608
000100 97 9f 47 3b f8 5e 39 3c 50 d5 05 3d f7 c4 03 bd
       0.0030460113 0.011314146 0.032674134 -0.032170262
000110 f8 db a1 39 79 88 f5 bb f2 7a 1d 3d 78 43 2d 3d
       0.00030872202 -0.0074930754 0.038447328 0.04230067
000120 34 90 8d bc 6d 03 bb 38 ac f3 f2 3b 18 4d c2 3b
       -0.017280675 8.917493e-05 0.007414302 0.0059296004
000130 a4 bc a4 bc 8a af 6f bd 47 ea 76 bd 69 bd c9 bb
       -0.020109482 -0.058517016 -0.060282018 -0.0061566127
000140 db cf 88 bc c1 24 ab 3c 68 dc ca bc 7d 11 3e bd
       -0.016700676 0.020891549 -0.024763301 -0.046403397
000150 50 81 a3 bc d4 99 4a 3d 31 f8 b3 3b d1 2a f7 3a
       -0.019959122 0.04946311 0.005492233 0.0018857365
000160 d6 22 20 bd 23 34 93 bb 9d 5b e8 bc 0c ec 49 bd
       -0.039095722 -0.004492299 -0.028363997 -0.049297377
000170 3b c4 4b bc c2 2d 11 bd 98 92 5d 3a 18 66 e0 bd
       -0.012436922 -0.03544403 0.0008452325 -0.10956973
000180 09 6b a5 3c 70 9e 8c bc 89 6e b7 3c 8a 95 f0 bd
       0.02019264 -0.017165393 0.022391574 -0.11747272
000190 cc dc d2 bc 59 97 85 3c 7e 91 96 bd a7 c8 34 bd
       -0.02574005 0.01630752 -0.07351969 -0.04413667
0001a0 a2 ad 37 bc 1f 59 14 bd e2 79 a8 bb 33 a2 88 3b
       -0.011210831 -0.036217805 -0.0051414827 0.0041697263
0001b0 3b f8 23 bc e0 6d 39 bd 5a a0 a7 bc f0 5d 0a bd
       -0.010007913 -0.0452708 -0.020462204 -0.033780992
0001c0 60 f0 84 bc 9e 3d 13 bb 4e a0 90 bc 81 98 86 bd
       -0.016227901 -0.0022467147 -0.017654564 -0.065720566
0001d0 e3 6b 50 bc b7 8f 98 bc a8 fe 2e bd 74 bf 96 3d
       -0.012721035 -0.018623216 -0.042723328 0.073607355
0001e0 f3 dd 92 3c 18 c5 6a bb 88 8c 88 bd 76 3b ac 3b
       0.0179281 -0.0035823043 -0.06667429 0.0052561117
0001f0 3d 89 24 bc 62 d3 29 3d 81 b1 aa bc b9 11 8e bd
       -0.010042486 0.041461356 -0.020836594 -0.06936974
000200 fd 53 49 3c a0 2b a0 3b f2 08 37 b9 8a 14 24 3d
       0.012288091 0.004888013 -0.00017455572 0.04005865
000210 1c 02 e6 3c 0c c2 a4 bc e3 77 22 bc 3d 79 8e bd
       0.028077178 -0.02011206 -0.0099162785 -0.06956718
000220 1e 31 71 bd d6 73 ff b9 a0 d2 d1 bc e7 4d 8e 3c
       -0.058884732 -0.00048723695 -0.02561313 0.017371131
000230 40 8a 5f bd 0d 69 53 3c e8 14 10 bd 60 14 8c bd
       -0.054575205 0.012903464 -0.035176188 -0.06839824
000240 ee 93 41 3a 69 d3 2c bd a2 8a f8 b9 6d 42 64 bd
       0.0007384409 -0.042193804 -0.00047405536 -0.05572741
000250 ae 66 0c bd 43 83 ce 3b 0d 20 28 bd 03 8c 0b bc
       -0.03427761 0.0063022687 -0.04104619 -0.008517268
000260 e6 c0 e2 bc 42 1b 1c 3d 0b c3 eb bc 43 7c ce 3b
       -0.027679872 0.038111933 -0.028779527 0.0063014342
000270 a8 25 a6 bb eb 57 48 bc 39 1f b6 bc 7f 3d af bc
       -0.005070407 -0.0122279925 -0.022231685 -0.021391628
000280 65 24 50 bb f3 1d 42 bd 85 dc 0b 3d c3 cf 9a bb
       -0.0031759974 -0.047391843 0.03414585 -0.004724474
000290 bb 95 20 bd 2a 4d e3 bc 4c 63 45 bd 8a 27 13 bc
       -0.039205294 -0.027746756 -0.0481904 -0.008981595
0002a0 8a 48 b3 b9 f4 d2 71 bc db 2c ac 3c a4 60 a2 bb
       -0.00034195586 -0.014759768 0.021017483 -0.004955368
0002b0 1a 8e d7 bc 5c 0c ad bc a9 b9 45 3c e3 e0 2e 3d
       -0.026312876 -0.021124057 0.012068191 0.042694937
0002c0 64 a4 a8 3c 13 14 7a bd 93 12 36 bc 69 55 11 3b
       0.0205862 -0.0610543 -0.011112827 0.0022176153
0002d0 68 dc d0 ba 62 83 81 bc f7 98 82 bd 6b 4a 73 3d
       -0.0015934827 -0.015809719 -0.06376832 0.059397142
0002e0 3c 0a 59 38 b5 77 07 bd 75 dd 5e 3b 2f 34 1b 3b
       5.1746363e-05 -0.033073146 0.003400651 0.0023682227
0002f0 61 06 f6 bc 9a 22 33 bb 85 ee 25 3c 9f b2 d3 ba
       -0.030032339 -0.0027333857 0.010127668 -0.0016151256
000300 c8 87 be bc 13 fb 53 3c bf ab c4 3b 27 b9 c9 bc
       -0.023258105 0.012938279 0.006001919 -0.02462442
000310 e7 b2 51 bd 6c ae c5 bd 0c 74 c7 bd ee 77 ac bc
       -0.051196005 -0.09652409 -0.09738931 -0.02105328
000320 c7 05 18 ba 24 4a 2b bd 5a ce 37 bd 3e 72 1e 3c
       -0.0005799201 -0.041818753 -0.044874527 0.009670792
000330 1c c1 32 bd e7 34 89 bc 20 26 9c 3c 65 b7 e8 bb
       -0.043641195 -0.016748859 0.019061148 -0.0071019405
000340 1e c4 54 ba 81 bf 0d 3c 22 07 98 bd 39 e3 be bc
       -0.0008116382 0.008651615 -0.074232355 -0.023301708
000350 5d b4 e5 bc 8b 37 0b bd b7 9b 62 bd 9c 62 17 bc
       -0.028040105 -0.033988517 -0.055324282 -0.009239819
000360 3c 50 a9 bc 46 aa 08 bd f2 e8 64 bd 32 7c c9 3c
       -0.020668142 -0.03336551 -0.055886216 0.024595354
000370 25 9e 1f bd 31 70 0b bc 5f 0a 48 3c 8d 9f 29 bd
       -0.038969178 -0.008510635 0.012209504 -0.041411925
000380 0e 2b 42 bd a0 72 25 3d e3 d9 c0 bc 13 90 58 3b
       -0.04740434 0.040392518 -0.023541396 0.003304486
000390 1f 38 8c bc 6b 24 9a bd 91 3a fe bc 17 1a d4 bc
       -0.017116604 -0.075264774 -0.031033786 -0.025891347
0003a0 ca a8 ed bc 0b 2a 06 3c 0b e1 4e 3c 04 28 1a bd
       -0.029011149 0.008188735 0.012626897 -0.037635818
0003b0 0c 32 c0 bc 4d fd 19 bd 22 5b 95 bc f2 5e 16 bb
       -0.023461364 -0.037595082 -0.018231932 -0.0022944775
0003c0 2b 2e 0d 3d 54 0c 6b 3c ca 97 e7 bc 5d 9b e1 bc
       0.034467857 0.014346201 -0.02827062 -0.027539903
0003d0 a7 16 ea bb 3e 88 79 bb 9b eb 0c bd b6 58 4f bc
       -0.0071438137 -0.0038075591 -0.03440438 -0.012655428
0003e0 3e f9 7f bd b8 3e 45 bd 54 8e eb 3c c9 f3 34 bc
       -0.062493555 -0.048155516 0.02875439 -0.011044451
0003f0 ff 47 21 bd b5 ce cd bc 16 07 f9 bc e1 fa b6 bc
       -0.0393753 -0.02512298 -0.030398887 -0.022336425

BN1.running_mean f4 [256]
000000 12 03 2f c1 c3 9a 9b 40 23 be c8 40 e5 31 da 40
       -10.93825 4.862642 6.27321 6.8185906
000010 16 1a 09 c1 0e 02 09 41 0a 62 c1 41 35 35 46 41
       -8.568869 8.563002 24.17287 12.38799
000020 13 9c 0f 41 4f d3 0c c0 8d 1b 9f 40 d7 3d 96 41
       8.975604 -2.2003973 4.972113 18.780195
000030 07 8e 09 41 a7 dd a0 c0 14 dc 6f bf 3a a6 08 40
       8.597175 -5.027057 -0.9369519 2.1351457
000040 3d a3 6f 41 3e 08 34 c1 e4 65 38 41 60 ba 47 41
       14.977353 -11.252012 11.524876 12.483002
000050 a5 4a 27 c0 68 65 3b 41 60 d8 2a 40 08 e0 b9 40
       -2.613931 11.712257 2.6694565 5.8085976
000060 27 14 d3 bf 66 27 08 3f e4 4f d0 c0 6e 85 cf 40
       -1.6490525 0.5318512 -6.5097523 6.485038
000070 6b f7 8e c0 6f 52 ae bf 8b 10 9f 40 15 a6 a4 c0
       -4.4677024 -1.3618907 4.9707694 -5.1452737
000080 3d d0 f1 40 b0 56 74 be 94 fc fe 40 5b ca 17 c1
       7.5566697 -0.23861194 7.9683323 -9.486903
000090 0a 05 1f c1 28 2f 6e 40 35 8f bf 3f e4 62 84 c0
       -9.93873 3.7216282 1.4965578 -4.1370716
0000a0 9f 88 42 41 4a 25 7d 41 6f e0 c2 40 31 d0 f7 3f
       12.158355 15.821604 6.0898967 1.936041
0000b0 e0 61 ed c0 80 b2 04 40 58 4f 3d 41 21 ce ad 3f
       -7.4181976 2.0733948 11.831871 1.357853
0000c0 06 65 23 c1 ce 14 d5 c0 b7 9c ea c0 bb 96 e2 c0
       -10.212164 -6.6587896 -7.33163 -7.0808997
0000d0 ae ca c9 40 87 ea 79 c1 42 f8 81 40 41 dc 7d 40
       6.305991 -15.619758 4.061555 3.9665682
0000e0 23 95 41 c0 f0 f7 e7 40 4d 0b 1b c1 0a 33 d2 40
       -3.0247276 7.249016 -9.690259 6.5687304
0000f0 cf 40 3d 40 a4 47 7c c1 05 a0 32 40 66 92 8e c0
       2.9570806 -15.76749 2.7910168 -4.455371
000100 5e da 63 bf a8 5f 04 c0 75 1b 5a 41 55 dd 9a 40
       -0.89005077 -2.0683384 13.631703 4.839518
000110 a0 2d 39 c1 2c 55 9e 3f 6a b6 06 c0 d3 5a 08 c1
       -11.573639 1.2369742 -2.1048837 -8.522174
000120 53 47 1c c0 9f b3 1d 41 24 51 56 c1 e2 df 09 41
       -2.4418533 9.856353 -13.39481 8.617159
000130 44 7e 01 41 7f 80 b8 c0 45 ae fc 40 be 2e 94 c0
       8.093327 -5.7656856 7.896273 -4.630706
000140 69 a9 22 40 bc 0c 19 bf a2 98 bb 40 d6 b1 2b 41
       2.54159 -0.59785056 5.862382 10.730917
000150 5b 2d 8a c0 7c d3 14 be 10 2f 38 c1 ec dc 39 40
       -4.3180366 -0.145338 -11.51149 2.904109
000160 5c f9 6b bf 88 1e 89 40 fd b8 88 40 f5 ee 32 41
       -0.9217737 4.284977 4.2725816 11.183339
000170 67 c8 92 3f 0d ae ea c0 1e 9a b1 be f7 01 af 40
       1.1467408 -7.3337464 -0.34687895 5.46899
000180 d5 ce 97 40 4f 08 ec 3a b1 27 3e c1 3d be c0 c0
       4.743998 0.0018007847 -11.88469 -6.0232224
000190 84 c7 ca 40 db 1a d6 bf 7b 7f a7 40 95 ec 8e 40
       6.336855 -1.6726946 5.2343116 4.4663796
0001a0 7c 60 83 41 a6 4f 9e bf 8a d0 04 c1 52 c2 db c0
       16.422112 -1.2368057 -8.300913 -6.8674707
0001b0 03 95 8a bf b9 62 11 41 12 10 48 c1 95 6c d4 c0
       -1.0826725 9.086602 -12.503923 -6.6382546
0001c0 b5 19 05 41 ee 83 74 c1 85 c3 54 40 fd 85 02 41
       8.318776 -15.282209 3.3244336 8.157712
0001d0 a0 b5 1f c1 fc 96 51 c1 5f 3a 05 40 0d 11 26 c1
       -9.981842 -13.099361 2.0816877 -10.379163
0001e0 44 99 0d c1 1f fe 78 c1 8c 63 9e 40 89 75 a0 c0
       -8.849918 -15.562041 4.9496517 -5.0143476
0001f0 c8 3e b5 3f 04 68 e0 c0 ce 4a af c0 18 6f dd be
       1.4159784 -7.012697 -5.4778814 -0.4324882
000200 f9 f3 b7 c0 6c 68 38 c1 61 02 ce bf e7 21 39 c1
       -5.748532 -11.525494 -1.6094476 -11.570777
000210 76 be 8f 3f 1b 33 ca bf cd 22 ce 3e 2c 10 25 41
       1.1229999 -1.5796846 0.40260926 10.316448
000220 74 4b b3 be ca 99 5b bf e0 01 78 40 7e 32 75 41
       -0.35018504 -0.8578154 3.8751144 15.324827
000230 71 1a ca c0 27 ca 2a c1 48 0a 99 40 d5 0e 32 41
       -6.3157277 -10.674354 4.782505 11.128621
000240 0a c5 22 3f 08 70 35 3f a3 86 19 c1 b9 48 40 3f
       0.6358191 0.7087407 -9.59537 0.75110966
000250 c3 20 01 c0 13 b0 47 40 2f 54 c0 bf 1f 1f 45 c0
       -2.0176246 3.1201217 -1.5025691 -3.0800245
000260 fd 00 06 c1 3d a4 20 41 dd a9 ae bf 36 1c 03 c1
       -8.375241 10.040097 -1.3645588 -8.194387
000270 a1 aa 53 c0 7d 17 7f c1 9f 0a 48 c1 f5 55 33 41
       -3.3072894 -15.943234 -12.502593 11.208486
000280 ce 93 0b c0 b0 27 ed be 53 94 2a c1 f3 a8 27 41
       -2.1808963 -0.46319342 -10.661212 10.478747
000290 86 43 4c c1 9c ed 0b c1 19 a7 f2 bd c5 15 87 41
       -12.766485 -8.74551 -0.118482776 16.88563
0002a0 88 b1 93 c1 60 1d 1a c0 c2 b0 82 bf 0f a3 49 41
       -18.461685 -2.408043 -1.0210192 12.602309
0002b0 2f 8a 72 41 ea 5e 07 40 24 0c 76 bf 30 f3 aa c0
       15.158736 2.115168 -0.96112275 -5.342186
0002c0 4d 47 6b bf 09 e1 17 41 41 55 94 40 97 bb 87 c1
       -0.9190567 9.49244 4.635407 -16.966597
0002d0 1a 1c 1c c1 f4 64 b0 bf 45 2d 45 41 ef 37 74 41
       -9.756861 -1.3780808 12.323552 15.263656
0002e0 03 0d 8a 40 61 0e 0b c1 5e c5 0d 41 a9 b6 b0 40
       4.3140883 -8.69101 8.860685 5.5222974
0002f0 10 48 cd 3f f9 98 43 40 4b fd d9 40 9b 86 c2 c0
       1.6037617 3.0562117 6.8121696 -6.0789313
000300 ba 2e 0d c1 6e 97 45 40 6f 90 54 40 db 5b fd c0
       -8.823908 3.0873675 3.3213155 -7.917463
000310 39 8b 81 3f 94 05 28 c1 55 25 94 41 20 84 5e c0
       1.0120612 -10.501362 18.518229 -3.4768143
000320 bd 6e 50 c1 9a 66 1e c1 8d ad 48 40 0c fd d3 c0
       -13.027036 -9.900049 3.1355927 -6.6246395
000330 44 cc 0b c1 46 c5 62 41 c3 1c 58 41 57 bf 4e c1
       -8.73737 14.173162 13.507022 -12.921714
000340 66 10 9d 40 e3 1b 4e be 7d 37 36 c1 f6 55 53 40
       4.908252 -0.20127825 -11.388547 3.3021216
000350 01 67 40 40 07 f2 cc c0 82 6d 3a bf d1 29 23 40
       3.0062869 -6.4045444 -0.72823346 2.5494273
000360 4c cd 47 40 5e c2 1d c0 34 11 8d 3e 7f 13 5a c0
       3.1219053 -2.4649882 0.27552187 -3.40744
000370 38 ab ae c0 0e c7 63 c1 4a 77 13 c0 f4 63 5c 3f
       -5.4584007 -14.236097 -2.3041558 0.86090016
000380 01 cc aa c0 04 a3 d5 3f ac a7 4b c0 90 fd 26 c1
       -5.337403 1.6690373 -3.1821089 -10.436905
000390 2d ae 18 40 22 4f 07 c1 7c ec df 40 dc 6c 09 40
       2.3856308 -8.45682 6.9976177 2.1472692
0003a0 99 6e 3c 40 69 67 6f c1 6d 94 08 3f 75 3c 6b 3f
       2.9442503 -14.962747 0.5335148 0.91889125
0003b0 87 cf fe c0 28 e8 6a 40 30 de 77 c0 04 5a ad 41
       -7.962833 3.6704197 -3.8729362 21.668953
0003c0 8d fc 21 c0 e7 d8 eb 40 1a 61 0b c0 9d d9 f1 40
       -2.5310395 7.3702273 -2.1778016 7.557814
0003d0 f5 dc 98 40 09 7a 80 3f 59 30 09 c1 8b 46 86 c0
       4.7769723 1.0037242 -8.574304 -4.196111
0003e0 ee 83 99 c1 7f 73 d1 40 6e eb 8a 41 3f 7e aa c0
       -19.189419 6.5453486 17.364956 -5.327911
0003f0 d6 ba 19 c1 38 51 b5 c0 20 1d fb 40 d6 8f f7 c0
       -9.608114 -5.6661644 7.8473053 -7.736308

BN1.running_var f4 [256]
000000 e5 be 86 42 4b 6b 32 42 46 7f 0d 43 12 90 c4 42
       67.37284 44.60478 141.49716 98.28139
000010 1e c5 29 43 93 ab 44 43 3c 76 0e 43 9b 17 d1 42
       169.76999 196.67021 142.46185 104.546104
000020 4d c4 0c 43 3c db 01 43 3a c6 1e 43 0c a8 4a 43
       140.7668 129.85638 158.77432 202.65643
000030 90 ea b0 42 99 f9 d0 42 eb ce 8c 42 f3 dc 1c 43
       88.45813 104.487495 70.40414 156.86308
000040 ae b7 f0 42 ea 8b ae 42 a2 d9 78 42 38 6c 0b 43
       120.35875 87.27327 62.212532 139.42273
000050 7c 0c dc 42 85 3c 24 42 a4 77 da 41 cb 15 8b 42
       110.02438 41.0591 27.308418 69.542564
000060 73 37 38 42 44 21 d1 42 bd 56 5e 42 ea b2 7f 42
       46.05415 104.56497 55.584705 63.92472
000070 f9 03 59 42 aa 5f 58 43 33 86 7a 42 50 f0 ef 42
       54.25388 216.37369 62.631054 119.96936
000080 04 e2 ad 42 d0 0f c0 42 ee a6 00 43 82 7b 59 42
       86.94144 96.03088 128.65207 54.370613
000090 3d c0 77 42 07 19 b6 42 00 be 0c 43 2d 8e 3b 42
       61.937733 91.04888 140.74219 46.888844
0000a0 e6 59 6c 43 92 92 80 42 41 9c 94 42 74 ca 9d 42
       236.35117 64.28627 74.30518 78.89542
0000b0 ff 19 7e 43 41 04 0b 43 43 57 b0 42 0a e4 18 42
       254.10155 139.01662 88.17043 38.222694
0000c0 aa 73 02 43 c4 eb a4 42 cf d0 08 43 e6 c0 c2 42
       130.45181 82.46048 136.81566 97.376755
0000d0 81 6d 74 42 a1 c0 ff 42 62 e9 82 42 d8 6d c9 42
       61.106937 127.87623 65.455826 100.71454
0000e0 45 29 90 42 d2 92 cc 42 77 ae 71 42 d5 f5 c0 41
       72.080605 102.28676 60.420376 24.120035
0000f0 7a 6e 64 42 c8 dd a7 42 00 3c 82 42 48 9d ae 42
       57.107887 83.93317 65.11719 87.30719
000100 10 19 42 43 85 57 50 42 fe 67 a7 42 94 fb 99 42
       194.0979 52.08547 83.70311 76.99136
000110 13 35 08 43 41 ef e7 42 2f b7 e0 42 3c 9e 99 42
       136.20732 115.96729 112.35778 76.80905
000120 34 f7 96 42 25 c1 65 42 c5 e3 c3 42 9d 57 2f 42
       75.48282 57.438618 97.94486 43.83556
000130 cb 39 92 42 42 86 27 42 3e d0 b7 42 31 5b 2a 42
       73.11288 41.88111 91.90672 42.589054
000140 c5 97 0c 42 d4 4a b6 42 63 72 87 42 9d b4 8b 43
       35.148212 91.14615 67.72341 279.41104
000150 9e 09 85 42 ab 7f 20 42 59 43 0a 43 0a 5d 35 42
       66.51878 40.124676 138.26308 45.34086
000160 c2 af 68 42 9b 07 de 42 38 f5 dc 42 cc 4e 43 42
       58.17164 111.014854 110.47894 48.82695
000170 21 10 6a 42 96 e6 89 42 bc 97 ab 42 c0 18 81 42
       58.51575 68.95036 85.79636 64.54834
000180 08 c3 e0 42 5e 72 27 42 d7 0c a6 42 bc a2 ee 42
       112.38092 41.861687 83.02508 119.31784
000190 5e 6f 07 43 55 91 0b 43 d5 25 0d 42 f7 b1 3a 43
       135.43503 139.5677 35.286945 186.69518
0001a0 2c d6 93 42 df 0d 44 42 b8 cb 7b 42 d8 23 9d 42
       73.918304 49.013546 62.948944 78.57001
0001b0 28 19 6e 42 e9 cd b3 42 6a 30 16 43 d3 58 c8 42
       59.524567 89.90217 150.18912 100.173485
0001c0 52 2c 5e 42 d4 c8 a9 42 ec 9e 8b 42 76 5e 2e 42
       55.54328 84.89224 69.810394 43.592247
0001d0 1e 2f 38 42 ed 46 a7 42 92 b1 b5 42 0e 0e 61 42
       46.046013 83.63853 90.84682 56.263725
0001e0 61 5e e5 42 a9 62 e3 42 bb b9 ba 42 6c 74 21 43
       114.68433 113.692696 93.362755 161.45477
0001f0 46 49 8f 42 7d c0 20 43 a4 a9 13 42 e2 85 6c 42
       71.64311 160.7519 36.915665 59.130745
000200 6b 0a 01 43 68 4f 98 42 38 8a c6 42 6a a8 d5 42
       129.0407 76.15509 99.26996 106.82893
000210 c5 47 69 43 d5 db 75 42 c9 ee 11 43 54 86 92 42
       233.28035 61.46468 145.93275 73.26236
000220 b0 0f ba 42 03 15 6b 42 c5 65 91 42 50 2d f7 42
       93.03064 58.77052 72.69877 123.5885
000230 5f 70 18 42 d0 61 9e 42 f5 da 53 42 ac 65 09 43
       38.109737 79.19104 52.963825 137.39716
000240 d0 4e a6 41 be 17 d0 42 62 59 9c 42 5d 2c 0b 43
       20.788483 104.04637 78.174576 139.1733
000250 f3 84 4f 42 32 f0 9c 42 12 4d 8f 42 9b 40 2f 43
       51.879833 78.46913 71.65053 175.25237
000260 a6 96 2c 42 80 32 29 43 59 04 14 42 dc 82 6c 42
       43.147118 169.19727 37.004246 59.127792
000270 87 2d 57 42 8c dc ab 42 fe da af 42 67 06 2b 43
       53.79446 85.930756 87.92772 171.02501
000280 f8 b6 09 42 e9 24 f5 42 72 f0 d2 42 cc 67 15 43
       34.42868 122.57209 105.46962 149.40546
000290 24 5d 89 42 6a 28 f4 42 98 62 1f 42 7f 45 a4 42
       68.681915 122.07893 39.846283 82.135735
0002a0 43 26 04 43 9f 5a 88 42 1c e4 25 42 4e 00 d3 42
       132.14946 68.176994 41.472763 105.500595
0002b0 f4 56 99 42 b3 92 c2 42 de 02 8e 42 2c ee 13 42
       76.66983 97.28652 71.0056 36.98259
0002c0 62 6a 9b 42 92 8c 98 42 a8 fd 18 43 98 5f 21 43
       77.70778 76.27455 152.99084 161.37341
0002d0 40 e1 69 42 49 3e 30 42 1a 8b 8e 42 2f 42 72 42
       58.46997 44.060825 71.27168 60.564632
0002e0 18 9d 39 42 ab 06 a7 42 f1 1b ce 42 a4 e8 0d 42
       46.40341 83.51302 103.05457 35.47719
0002f0 74 38 2f 42 a7 ed 74 42 7d a1 ac 42 f2 bc 84 42
       43.80513 61.232082 86.31541 66.36903
000300 6d cc 2d 43 1c a5 c0 42 6e e6 bb 42 63 fb 10 43
       173.79854 96.32248 93.95006 144.98198
000310 58 07 38 42 2d 38 81 42 9c 22 f3 42 73 fe 58 42
       46.00717 64.60972 121.5676 54.248486
000320 0c 52 a6 42 7c 56 21 43 58 9b 5b 42 ab 83 bd 42
       83.16025 161.33783 54.901703 94.757164
000330 96 34 e0 42 e1 db 0a 43 85 f8 d7 42 f9 fb 74 42
       112.10271 138.8589 107.98539 61.246067
000340 d2 3f a7 42 11 b4 a6 42 85 0b 78 42 70 8e b6 42
       83.62465 83.35169 62.01125 91.2782
000350 a1 f9 ef 42 91 a3 79 42 90 ec 37 42 18 db af 42
       119.98756 62.409733 45.981018 87.92792
000360 da b7 bb 42 88 c3 f6 42 c4 2b 13 42 4d 0f 8b 42
       93.859085 123.3819 36.79274 69.529884
000370 95 99 a2 42 17 ec c1 42 22 47 67 43 1b 0c 3d 42
       81.299965 96.96111 231.27786 47.26182
000380 ab 4d 03 43 c9 68 64 42 c2 87 98 42 8a f5 e0 42
       131.30339 57.10233 76.26515 112.47957
000390 e6 4a 2c 43 9b 0e 9d 42 ca 96 48 43 19 17 49 42
       172.29257 78.52853 200.58902 50.272556
0003a0 1d c6 6a 42 97 90 9c 42 b8 52 b7 42 cd 23 97 42
       58.69347 78.2824 91.66156 75.56992
0003b0 d0 26 a5 42 99 e4 15 42 a1 1e af 42 ee ae 13 43
       82.575806 37.47324 87.55982 147.68332
0003c0 ad 44 65 42 68 76 2c 43 7b 81 d7 42 ac 5f 3c 42
       57.317066 172.46252 107.75289 47.09343
0003d0 12 10 ef 42 17 3e a3 42 27 6d ca 42 09 57 32 43
       119.53139 81.62127 101.21319 178.33998
0003e0 21 cd 46 43 b0 66 16 43 83 f8 08 43 5f a2 8d 42
       198.80128 150.40112 136.97075 70.81713
0003f0 9e 38 c4 42 e8 8a c3 42 39 22 28 42 5d db 0d 43
       98.11058 97.7713 42.03342 141.85689

L2.weight f4 [128, 256]
000000 fd 08 a2 3c c4 d4 df bc 28 00 81 3c 24 16 9e 3b
       0.019779677 -0.027323134 0.015747145 0.0048244167
000010 96 c0 d8 bc 9d 43 36 3d a2 e5 b1 39 e2 74 d2 3c
       -0.02645902 0.044498075 0.0003393116 0.0256905
000020 1f ff 29 bd 90 dd 1d bc 37 91 3d bd e5 6a 67 bd
       -0.041503068 -0.009635344 -0.046281066 -0.056498427
000030 17 33 34 3d f2 44 4f 3d 03 f6 a9 3c ea 18 8e 3c
       0.043994036 0.05060286 0.02074719 0.017345864
000040 3a ca 05 3d e1 eb a2 3a 73 28 ec 3c 5a fe bd 3b
       0.03266356 0.0012429917 0.028827881 0.0057981433
000050 d7 1d 33 3c f4 0c 48 bc e3 71 2d 3c 75 14 36 3d
       0.010932407 -0.0122101195 0.010586235 0.044453103
000060 a4 0a 76 3c 33 b3 d5 bb a2 41 4d 3d 4b b8 05 bd
       0.015017185 -0.0065216064 0.05011142 -0.03264646
000070 44 70 18 bd eb 1d 03 bd 7c 04 dd bb 8b c3 b3 3c
       -0.03721644 -0.032010954 -0.0067449193 0.021943828
000080 03 ce 14 3d b6 9d 37 3d 98 f4 ba bb b0 cf 60 3d
       0.03632928 0.04482814 -0.0057054274 0.054885566
000090 f5 5d 1f 3d bb b0 93 3b 6b a7 9f 3c 74 78 bb bc
       0.038907964 0.004507152 0.01948901 -0.022884585
0000a0 96 10 88 3d b4 0b ad 3b 8a c1 9c 3b e6 68 32 3c
       0.066437885 0.005280936 0.004783814 0.010889268
0000b0 99 ae 5d bc ff 99 b2 3c d2 a7 5b bd 85 f9 1a 3b
       -0.013530397 0.021801947 -0.053626843 0.002364726
0000c0 90 0f e3 3c e7 c3 0c bd 01 87 89 bb bf dd 09 bd
       0.027717382 -0.034366515 -0.004197002 -0.03365874
0000d0 bb 2e 4c bd 2c fd 48 3d 38 b7 06 3d ca 5d 8e 3d
       -0.049849253 0.04906957 0.032889575 0.069514826
0000e0 65 7c fb 3b 6e f2 43 bc 74 9d 44 3d 20 24 c5 3c
       0.007674741 -0.011959655 0.04800172 0.024065077
0000f0 6f 1f 34 3c 55 ec 37 bd 7e d2 64 3d bd 09 00 3d
       0.0109938225 -0.04490312 0.055864803 0.031259287
000100 41 16 8a 3c 05 0b 92 3d 81 ec 2b 3d e3 9e 3b 3d
       0.016856315 0.07131008 0.041973595 0.045805823
000110 71 e6 3e bd 33 be 9a 3d ba 7c 24 bd 06 27 02 3d
       -0.046606485 0.07555809 -0.04015801 0.031775497
000120 e5 93 2e bd 6b b3 1d bd a5 63 16 3c 32 40 e0 bc
       -0.042621512 -0.038501184 0.009179031 -0.02737436
000130 d0 97 85 3d bc 8f 74 3d 6c 74 9a bc 75 21 6d bd
       0.065230966 0.05970739 -0.018854342 -0.057893235
000140 7e 19 4d 3d 92 2c cd bc 42 7b 5e 3d 6c 78 22 bc
       0.05007314 -0.025045667 0.054316767 -0.009916406
000150 8e cc 8f ba 4c 6b c0 3c c5 8d 1a bc bc b2 27 3c
       -0.0010970996 0.023488663 -0.009433215 0.010235485
000160 97 8c 82 bc d2 59 52 3d 77 f8 60 3c c2 ed 71 bd
       -0.01593618 0.05135519 0.013731114 -0.059064634
000170 01 65 b3 bc 8e 14 74 bd d8 6f 2e 3d cf c3 65 3c
       -0.021898748 -0.059589915 0.04258713 0.014023735
000180 1b 74 bf 3b 24 e5 2f 3b 7c d2 35 bd 70 ca 4d bc
       0.0058426983 0.002683946 -0.044390187 -0.012560472
000190 9b 42 56 3d 42 ca 5b bd 49 bf 53 bd b3 24 7e 3d
       0.052309614 -0.053659685 -0.051696096 0.062046718
0001a0 23 54 8d bb f2 a4 84 3d 30 7f 13 3c c1 01 45 3c
       -0.0043130084 0.06476773 0.009002492 0.012024344
0001b0 6d f8 c0 3c 4f f6 5b bd 6a 8d 78 3d 26 9f 61 3d
       0.023555959 -0.053701695 0.060681738 0.055083416
0001c0 00 d6 3c 3c 57 e2 35 bd 82 e8 7f bd 2a b1 7e bd
       0.011525631 -0.044405308 -0.062477596 -0.062180676
0001d0 b1 bb 68 3d 04 62 44 bd 1c 3d 0f bc 38 44 8f 3c
       0.05681962 -0.047945037 -0.008742597 0.017488584
0001e0 37 2f 23 bd ee f1 28 bd b0 77 80 3d c1 63 f0 3c
       -0.03983995 -0.041246347 0.062728286 0.029344441
0001f0 d6 00 56 bd db 7f cf 3c 74 56 c4 3c f0 9d 0f bb
       -0.05224689 0.02532952 0.023967005 -0.0021914206
000200 8e 3c 34 bd 4a 7d 07 3d b2 59 b1 bb b0 23 25 bd
       -0.044003062 0.03307847 -0.005412304 -0.040317237
000210 5f c9 06 3c fb 23 94 bc f3 e4 d5 3c 9c d9 9e bc
       0.008226722 -0.018083563 0.026110148 -0.019390874
000220 59 04 96 bc ac ca 61 bb e8 e6 3f 3d e2 93 06 3d
       -0.01831262 -0.0034453077 0.04685107 0.032855876
000230 62 34 78 3b 3f 54 33 bd e0 97 c1 3c 1b 8f 4c bd
       0.003787302 -0.043781515 0.02363199 -0.049941164
000240 eb 38 57 bd 83 d9 8d 3c 30 2d c4 bc f9 52 22 3d
       -0.052544516 0.017315632 -0.023947328 0.03962991
000250 22 f3 5c 3c 9d 34 6a ba fe 5f 74 3a 10 03 17 bd
       0.013485702 -0.00089342316 0.0009322165 -0.036868155
000260 bc 2d 03 bd f4 2a 6b 3d 4e cf 8e bc d3 09 14 bd
       -0.032026038 0.05741401 -0.017432835 -0.03614218
000270 85 36 3e 3d 65 d9 48 3b 9d c5 18 3b 18 07 bb 3c
       0.046438713 0.0030647155 0.0023311146 0.022830531
000280 47 0d a0 ba 18 85 23 bc 75 5b d6 3c 53 87 1e 3c
       -0.0012210988 -0.0099804625 0.026166657 0.0096758185
000290 fc db 36 3d d5 88 51 bc e5 05 20 3d 52 18 24 3c
       0.044643387 -0.012788971 0.03906812 0.010015564
0002a0 b0 f4 27 bd a2 94 be 3c 0f f1 e1 3c e0 3d ce bb
       -0.041004837 0.023264233 0.027580766 -0.006293997
0002b0 e2 a1 cf 3c b0 8a 97 3b 01 d5 53 bd a0 f6 52 bd
       0.025345746 0.004624687 -0.05171681 -0.05150473
0002c0 46 ff 93 3c b4 22 0f 3d 1e 8f 72 bd 21 c6 62 bd
       0.01806606 0.034945205 -0.05921852 -0.05536473
0002d0 17 30 9c 3c fe 87 22 bd d4 31 ab bc 7c a3 30 bc
       0.0190659 -0.039680474 -0.020897783 -0.010781165
0002e0 45 ad 72 3d 66 f7 04 bc be bc 42 3d 76 ac 75 bc
       0.059247274 -0.008115625 0.04754328 -0.014994731
0002f0 c6 9f 79 bd f6 45 8c 3d 03 f4 60 bc ca af 36 bc
       -0.060943387 0.068492815 -0.013730052 -0.01115031
000300 4c 3c 24 bd 85 e4 47 3d f3 61 9e ba 83 6b 8c 3d
       -0.040096566 0.048801918 -0.0012083635 0.06856444
000310 6b c1 df 3c e5 fc 58 bd 7f 7a 07 3a 51 f7 68 3d
       0.027313909 -0.052975554 0.00051680946 0.056876484
000320 9c ad d7 3b 89 b4 7b bc 92 7e 6b 3b 09 8d 56 bd
       0.006581975 -0.015362867 0.0035933596 -0.052380595
000330 76 8f 84 bb e8 42 d9 bc d9 0f 24 bc 25 d7 3f bd
       -0.004045422 -0.026521161 -0.010013544 -0.046836037
000340 78 73 0d bd fc e2 34 bd 5f 5a cf 3c dd 2c 62 3d
       -0.034533948 -0.04416178 0.025311647 0.055218566
000350 f5 b4 30 3c 74 25 38 3d f9 9c 66 3c 90 fd 3d 3d
       0.010785331 0.044957593 0.014075511 0.046384394
000360 44 78 83 3d f6 55 a7 bc b6 28 70 3d 48 53 64 3c
       0.06419423 -0.020426732 0.058632575 0.013935871
000370 12 c4 1b 3d 65 5a eb bc 1e fc 32 bd 94 34 92 bc
       0.038028784 -0.028729627 -0.04369747 -0.017847337
000380 5d 31 eb bb 41 bc b6 3c d7 43 10 3c 8c f9 28 3d
       -0.0071775154 0.022306563 0.008805237 0.04125361
000390 ea 28 8f 3d b7 ca 06 3d 21 ae dc bc 36 fa 0f bd
       0.069902256 0.032908168 -0.0269385 -0.03515073
0003a0 29 72 0e bc df 67 03 bc 96 11 84 3c 81 cd 48 3d
       -0.00869421 -0.00802037 0.016121667 0.04902411
0003b0 60 f5 71 3b e0 bd 10 bd b3 4f 35 bd 32 76 6b 3d
       0.0036919937 -0.03533733 -0.04426546 0.057485767
0003c0 45 13 3c 3d de bb 4a 3c 14 47 70 bd 94 97 f3 3c
       0.045916814 0.012373893 -0.058661535 0.029735364
0003d0 80 4e 44 bc c8 15 5e bd f1 00 5b 3c 69 25 58 3c
       -0.0119816065 -0.05421999 0.013366924 0.013192513
0003e0 c2 44 12 3d d0 69 8c 3c 81 e1 80 bc 81 13 47 3d
       0.035710104 0.0171403 -0.015732529 0.048602585
0003f0 0e ea 58 bd 31 7f 89 3d 77 a7 2a bb e2 8d 28 3d
       -0.052957587 0.06713713 -0.0026039758 0.041150935
