Trained_Models/BotDetection_v4_MLP___May-10-2024/BotDetection_v4_MLP_epoch85_val_loss_0.481164.pth (torch, 963411 bytes, 45 tensors)

L1.weight f4 [256, 133]
00000000: 9cf1 013c ba88 6e3d ed26 af3d 95af 40be
00000010: 6d3e c83c 5fb6 333d 3ce9 493e ddc9 12bd
00000020: f646 313c 818c 453d f355 9fbd bd2f ca3c
00000030: b316 55bd 8846 60bd 61a4 07be b3cb bd3d
00000040: 12ab 87bc 1e54 34bd 5bfb dbba 2fef 53bd
00000050: d3f0 edbc 356f 38bc 9271 48bd 66bb 17bd
00000060: 3079 8e3d 2150 dfbd fb06 f83c 8454 e0bd
00000070: ed63 cb3c b611 e23d 6060 f238 671c 1fbd
00000080: 7fd3 b6bd 5f35 aabc e5e8 65bd 40b7 a43d
00000090: bf06 d93d 903f 913d de20 a6bd 60e4 7dbd
000000a0: 4f97 553e d69f 50bc 5b70 17bd dc3f 1ebb
000000b0: c5d5 aabc 64dc b83d e272 c53b ad28 8f3d
000000c0: 8620 0ebd 4636 a23d f589 3e3d 5891 183c
000000d0: c7be 813d 4adb d43d 322f e4bc a23e 3a3b
000000e0: 36e6 36bd bfc7 583d 47dc 49be d38d 10bd
000000f0: d986 37be 485c 623c b837 2cbe 4826 59bd
00000100: f38a 123e c5f8 fdbd b921 a4bd ff18 0b3e
00000110: 869b b4bc 55d9 56bd d882 633d ac6c e13d
00000120: 0f02 cd3d 2959 883d 1dc9 4cbd fd4e dbbc
00000130: 84a0 9fbd 40b7 cf3b 114d 85bc e015 b63c
00000140: 28f3 fcbb 2f45 1abd b880 9bbd 5060 03bd
00000150: 12ce 793d fc6f 55bd fa50 3ebe 0ac0 d9bd
00000160: 7ef9 063d 3784 e4bc d8ad 6b3c 9d79 263e
00000170: edad c6bd 983d f9ba 494a 0abd 97ab 443d
00000180: 6cbf 163d 9ed9 b2bd b89d 2fbd 7bd1 a23c
00000190: 3ff5 043d f1f8 f1bd e40d 053e d762 2dbe
000001a0: 2e4d 7bbd 820e 9a3d 2128 893d b047 35bd
000001b0: 296c 2fbd 041f 81bd 6bd4 3e3d 1e0c d6bd
000001c0: 2c59 41bd e375 a7bc 4720 a33c b635 b5bc
000001d0: cfd5 ad3c 0c84 d43d 551b 993d 2fd3 aa3d
000001e0: 3e23 c6bd 6351 503d 68c2 173c ce76 543e
000001f0: 1869 02be 16e1 1dbc 6048 333d 3e6e 9f3d
00000200: 49f1 97bd 2da4 2e3c 2e4c 8a3d 2c85 3e3d
00000210: a965 62bd b14f c03b ccc3 253d 32a4 77bc
00000220: a719 c53d ac5a 16bd 276d 963d 4a3b 96bd
00000230: 4c5b 0bbd 806d 5b3d 5347 2fbd 25f4 353c
00000240: 186c dbbb 362b 6fbd c7be 833d f73f 993d
00000250: ebbd 573c 1b10 8fbd 24d1 fbbb 5bc7 92bc
00000260: 7a3e 513d 22a3 d8bc 2283 b63a 1687 84bd
00000270: e7ea e3bd 4c5b d2bd 23f5 0bbd 7d9a 9abd
00000280: dd59 3cbc 9f2d a0bd ca15 543d 437d 40bc
00000290: f893 ebbc 74a5 8e3d 5635 863d b76e 6fbd
000002a0: a6ab b0bc 1e48 fb3d 3183 893d d801 1f3e
000002b0: 1fad a53d fb25 743d 010e 15bd 46c1 a23c
000002c0: 57d3 db3c 4538 193e 80ae 18bd 0b47 c53c
000002d0: 1ca9 603d 219b 7a3d 3522 eb3c 6529 adbd
000002e0: e30b 92bd c95a 8a3d a256 163e 49c7 85bd
000002f0: c5e7 77bd 56b1 abba 6239 8d3d f6a9 b23d
00000300: edda a9bd f078 ad3d 811d 793d 5dfb 973c
00000310: 3028 ddbd eb85 d73b b903 133d 9af7 65bd
00000320: f5ce 8abc 832d 83bc 732e d4bc bd2b 9ebc
00000330: 288c f23d 3ae3 ce3c 64ed 1abd 22fb 58bc
00000340: fd72 d73b 2214 aa3d 6c77 4abd b591 21bc
00000350: 3497 d1bc f466 2cbd 909e e7bb 48e8 cfbd
00000360: f57b c9bd 4e78 af3d 13f7 10bd 7385 6c3d
00000370: e830 59bd 437e 773c 7314 37be 503d f93d
00000380: 928d 33be e1c6 5bbd 39ed f7bd ad52 443d
00000390: 3cb0 73ba 8961 e1bc bd80 72bd fd66 78bd
000003a0: 0bfc 353d ce9b 1d3e ac21 713c 79a0 583d
000003b0: 456b 95bc 9067 153d b4d1 c13d 1981 4d3d
000003c0: 6d8d eabd 5669 f33b 6d2a 9b3b d305 02bd
000003d0: 52dd 67bd 81be 3d3d 2aa2 88bd 5696 c63c
000003e0: b982 3e3c 5f70 4b3d b264 a63d cdd2 b93d
000003f0: 05f9 46bd 0334 21be 28d8 a4bd 88aa a3bd
0.007931139 0.05823586 0.085523464 -0.18816979 0.02444383 0.043875095 0.19717878 -0.035837043
0.010820141 0.048229698 -0.077800654 0.024680967 -0.0520236 -0.054754764 -0.132463 0.09267368
-0.016561065 -0.044025533 -0.0016783284 -0.051741775 -0.029045498 -0.011256983 -0.048936434 -0.03704395
0.069567084 -0.10903955 0.030276766 -0.1095362 0.024827922 0.11038534 0.000115574105 -0.038845446
-0.089270584 -0.020777402 -0.05613031 0.08042765 0.1059699 0.07092202 -0.08111738 -0.061985373
0.20858501 -0.01273342 -0.036972385 -0.002414695 -0.020853886 0.09026411 0.006025658 0.0699018
-0.034698986 0.07920508 0.046518285 0.009311996 0.06335216 0.103933886 -0.027854536 0.002841868
-0.04465314 0.052924868 -0.19712935 -0.035291504 -0.17922534 0.013815947 -0.1681813 -0.053015023
0.14310817 -0.12400965 -0.080142446 0.13583754 -0.022046816 -0.052453358 0.055544704 0.11007056
0.10010158 0.06657631 -0.049996484 -0.026771063 -0.07794288 0.006338984 -0.0162721 0.022227228
-0.007719416 -0.037663635 -0.075929105 -0.032074273 0.06098754 -0.05210875 -0.18585578 -0.10632332
0.032952778 -0.027895076 0.014384709 0.1625733 -0.097011425 -0.0019015549 -0.03376225 0.048015203
0.036803648 -0.087329134 -0.04287502 0.019875279 0.032460447 -0.1181506 0.1299358 -0.16932236
-0.0613529 0.075222984 0.06697107 -0.04425782 -0.04282776 -0.06304744 0.046589296 -0.1045153
-0.04720418 -0.020441955 0.019912852 -0.022120338 0.021220116 0.103767484 0.07475916 0.08341061
-0.09674691 0.050858866 0.009262659 0.20748445 -0.12735403 -0.009636184 0.043770194 0.07784699
-0.07419068 0.01065926 0.06752811 0.04651372 -0.055272732 0.005868875 0.04046993 -0.015114831
0.096240334 -0.036707565 0.07345038 -0.07335527 -0.034022614 0.053571224 -0.04279263 0.011105572
-0.0066962354 -0.05839082 0.06432872 0.074829035 0.013167839 -0.06985494 -0.0076848436 -0.017917326
0.051084973 -0.026444975 0.0013924579 -0.06471078 -0.111287884 -0.1027132 -0.034169327 -0.075489976
-0.011496034 -0.078212015 0.051778592 -0.011748615 -0.02875708 0.069651514 0.06553142 -0.058455195
-0.021566223 0.12269615 0.06714476 0.15528047 0.08089661 0.059606533 -0.03639031 0.01986755
0.026834173 0.14962871 -0.03727579 0.024081727 0.054848775 0.0611831 0.028702835 -0.08455161
-0.071311735 0.06755597 0.14681485 -0.06532151 -0.060523767 -0.0013099115 0.068957105 0.08723824
-0.0829371 0.084703326 0.060819153 0.018552477 -0.10798681 0.0065772436 0.035892222 -0.056144334
-0.016944388 -0.016012913 -0.025901055 -0.019307965 0.11843139 0.025254834 -0.03782405 -0.0132434685
0.006574987 0.08304621 -0.049430296 -0.009861399 -0.025584795 -0.04209037 -0.0070684627 -0.10151726
-0.09838096 0.08567868 -0.03539188 0.057744455 -0.053025156 0.015105787 -0.17878895 0.121698976
-0.17534474 -0.053656463 -0.121057935 0.04793041 -0.00092959753 -0.027512329 -0.059204806 -0.060645092
0.04442982 0.15391466 0.014717501 0.052887414 -0.018239627 0.036475718 0.09463826 0.050171945
-0.11452756 0.0074283285 0.004735282 -0.031743836 -0.056607552 0.046324257 -0.06671555 0.024241608
0.011627846 0.049667712 0.08124675 0.0907341 -0.048577327 -0.15742497 -0.08049041 -0.07991511

L1.bias f4 [256]
00000000: 0be3 a6bd 8551 97bc 6510 7b3d a77f 8abc
00000010: 2034 b2bc ede3 79bd bdd2 053d 90cb 2a3d
00000020: eecb 56bd 13ae 9dbd 1577 bdbc 3501 783d
00000030: 3ad9 83bd 88a7 12bd 3c41 aebd dd0f 21bc
00000040: e95d 973c a250 103d f24a 29bd efa0 a93d
00000050: ce4d ef3b 1471 7dbd 4da5 8e3c f8b0 023d
00000060: 98c7 643d d2be 7b3d ea47 b5bc 9985 8ebc
00000070: ec83 33bd 11ea 103d ba80 87bd f2f2 bdbc
00000080: 5535 65bc cd5a 91bd 7851 093d 188f a13c
00000090: 54fb 963d 23ab 5bbd d2d0 9f3d 3fad 153d
000000a0: a11a dabc d84e 87bd 0faa a7bd d5f3 013d
000000b0: 5ae9 2cbd fc32 cdbc 628d 0abd 674f 85bc
000000c0: 49ac f23b ec83 983d 3aae 673d f0f9 833d
000000d0: b26b 9c3b e95b dbbc fb2f 23bd 04f5 4c3d
000000e0: 0001 f0bb 4625 0b3d c4e2 9ebd c098 313d
000000f0: 11a8 39bd 9791 19bc acae 8e3d 7953 583d
00000100: a87c 4dbd ec88 923d 68b8 8fbd 2e44 223d
00000110: 6df6 623c d46a a33d af36 0e3c 329c 99bc
00000120: 6423 973d 80b2 51bd 62cd 753d 39b3 05bd
00000130: 10ba 3fbc 9419 19bd 448c 683d 78d1 5ebd
00000140: 11d6 c8bc 5b71 c53b 6ca0 9d3d b5fd 41bc
00000150: d003 18bd 6e07 23bc de55 a03c fe91 1cbd
00000160: b194 b03d f2cb 0f3d ad05 fcbc 0ad9 4f3d
00000170: df2a cebc ac95 9b3c 02b4 78bc a955 8abd
00000180: d219 94bd 2899 9abd 055d 45bd b1b7 aebb
00000190: 4cef 383c 0f6f 6b3c 5b19 203d 37a1 b33b
000001a0: 12ce ac3d f4ad a6bc 2541 953c b119 923c
000001b0: 13ad 2e3d 2ab3 8d3d 9511 053d 0fd1 303d
000001c0: 3343 9d3d 365e 2b3d 5c40 a13d ae4b 343d
000001d0: f156 2b3d e77c 31bc 38b2 5cbd 257a 9d3d
000001e0: d0e9 363d fa2e d43c d94f 103d 9021 c4bc
000001f0: 5cea 27bc 9da8 8d3d 2a73 ba3c d3b4 abbd
00000200: c997 8f3d caed d23c e4ce 2dbd eddc 1ebd
00000210: 6d3a 84bd dece a53d d2cb 26bd 8553 1fbd
00000220: 7bb6 e33c f3f1 0dbd 4081 3a3d a012 f9bc
00000230: ac0a a8bc 74b5 dbbc 4b98 a13b ff17 323d
00000240: 8b94 5ebc d160 8b3d 757f afbd 2bc1 87bd
00000250: 46e9 c73c 29b5 d5bb c8a9 56bc c8b6 cb3c
00000260: 062f 91bd b7c1 16bc 0fc1 7cbd 9817 9e3d
00000270: 36b9 9a3c ff98 533d 17e0 63bd 60e6 a9bc
00000280: 6073 3e3d 75f4 953d a636 94bd 127d c0bc
00000290: 6d10 80bc 8f64 a43d 46fd 5bbd 361d 033d
000002a0: b9f7 813d 5049 86bd d010 a73d d153 aebd
000002b0: 7a28 82bd 73ae cdbc 964b 8d3b dd12 4c3b
000002c0: 5917 843d 38af 983d 7b76 c0bc bc91 a43c
000002d0: 50e9 f8bc bc7f ca3c b03a ddba c7a4 253d
000002e0: 7756 bc3a 3950 dcbc d2c4 173d 0727 803d
000002f0: e864 25bd 1ee1 bc3c ec78 2139 6fd8 ccbc
00000300: 384c 173d 7a42 4a3d c26d 1f3d 9cd0 96bd
00000310: e16c 00bd cfc2 923d e312 4b3d 60bb 473d
00000320: e772 57bd dd9d fe3c b111 33bc 4570 09bd
00000330: c906 533d 5786 aa3d f0bc 1e3d 42d6 813d
00000340: aef8 4abd ff83 2e3d ccef a3bd b3f4 aabc
00000350: b32d aabc dbe1 91bd 011e debc 5a08 863d
00000360: c514 2ebd b11a 993d cbd4 303d 3cee 0ebd
00000370: 071f 473d dd11 a5bd 5a8a 143d 863a 29bd
00000380: 6bf3 8bbd 24cb ae3d c731 5cbb b762 5abd
00000390: ae72 af3d 45e6 b03c ab95 56bc f8dd 05bd
000003a0: 7c78 9f3d 4819 453d d02f a03d c556 013d
000003b0: 5ae1 8b3d d46e 5fba 788f 9e3c 57e8 b23c
000003c0: 50c6 a73d 0406 853d 9a80 543d 89fc aabd
000003d0: 40ee 813d 01d7 413d 809d 9dbc a25f 823c
000003e0: 5265 aebd c51b 46bd 5a07 893d 9d95 a3bd
000003f0: f55d 093a 7ddf 7b3c 0712 85bb bc36 4fbd
-0.08148774 -0.018471489 0.061294932 -0.016906573 -0.02175337 -0.061008383 0.03267168 0.04169804
-0.052440576 -0.07699218 -0.023128072 0.060548026 -0.06437917 -0.0358043 -0.08508536 -0.009830442
0.018477397 0.035233147 -0.04133124 0.08282649 0.007302976 -0.061875418 0.017412806 0.03190705
0.05585441 0.061461277 -0.022129018 -0.017397689 -0.043826982 0.035379473 -0.066163495 -0.023187134
-0.013989766 -0.07097397 0.03352496 0.019721553 0.07372156 -0.053630006 0.07803501 0.036542173
-0.026624026 -0.06606835 -0.08186733 0.031726677 -0.04221473 -0.025048725 -0.03382624 -0.016273214
0.007405792 0.07447037 0.05656264 0.06444156 0.0047735805 -0.026777225 -0.03984068 0.050038353
-0.007324338 0.033971094 -0.07758096 0.043358564 -0.045326296 -0.00937309 0.0696691 0.05281398
-0.05016771 0.07155022 -0.070175946 0.039615802 0.013852698 0.0797936 0.00868003 -0.018751238
0.07379797 -0.05119562 0.06001032 -0.032641623 -0.011702076 -0.03737791 0.056774393 -0.054398984
-0.024516137 0.006025476 0.07696614 -0.011840274 -0.03711301 -0.009950502 0.019572195 -0.038225166
0.08622111 0.035106607 -0.030764425 0.050744094 -0.025166927 0.018992268 -0.015179636 -0.0675462
-0.07231487 -0.075487435 -0.048184413 -0.0053319563 0.011287522 0.01436974 0.03908668 0.005481865
0.08437742 -0.02034662 0.01821954 0.017834516 0.042645525 0.069189385 0.03248747 0.043168124
0.07678833 0.041837893 0.07873604 0.044017486 0.04183096 -0.010833002 -0.0538809 0.07689313
0.044656575 0.025901306 0.0352324 -0.023941785 -0.010248747 0.06916926 0.022759993 -0.08384099
0.070113726 0.025748152 -0.042433634 -0.03878491 -0.06456456 0.080960974 -0.040721722 -0.03889801
0.027796974 -0.03465457 0.04553342 -0.030404389 -0.020512901 -0.026819922 0.004931485 0.043479916
-0.01358522 0.06805576 -0.085692324 -0.06628641 0.024403226 -0.00652184 -0.013102002 0.02486743
-0.07089047 -0.009201459 -0.061707553 0.07719344 0.018887144 0.05165958 -0.05563363 -0.020739734
0.04649675 0.07322017 -0.07236986 -0.023497138 -0.015632832 0.080269925 -0.053708337 0.03201028
0.063460775 -0.06556952 0.081575036 -0.085120805 -0.063553765 -0.025107598 0.004311989 0.0031139173
0.06449766 0.07455295 -0.023493996 0.020089023 -0.03038469 0.024719112 -0.0016878452 0.040440347
0.001436903 -0.026893722 0.037052937 0.06257444 -0.040379435 0.023056563 0.00015399203 -0.025005547
0.036937922 0.049379803 0.038923033 -0.07364008 -0.031353835 0.07166063 0.04957856 0.04876268
-0.052599814 0.031081134 -0.010929511 -0.033554334 0.051520143 0.083264045 0.038754404 0.063396946
-0.049553566 0.04260635 -0.08004722 -0.020868635 -0.020773744 -0.07123157 -0.027113916 0.06544562
-0.042500276 0.07475794 0.043171685 -0.034895167 0.048613574 -0.08060048 0.036264755 -0.041315578
-0.06833538 0.0853484 -0.0033599006 -0.053316798 0.08566795 0.021594176 -0.013097207 -0.03268239
0.077866524 0.048119813 0.078216195 0.03157689 0.06830092 -0.00085232896 0.01935552 0.021839304
0.08192122 0.06495288 0.051880457 -0.083489485 0.06344271 0.047324184 -0.01924014 0.015914742
-0.08515419 -0.048366327 0.06690855 -0.07987521 0.0005240136 0.015373108 -0.004060987 -0.05058931

BN1.weight f4 [256]
00000000: 40cd 7e3f 5009 803f 4d28 7b3f 7d6e 773f
00000010: 56fb 7c3f 2e83 813f b75f 823f 31bc 7e3f
00000020: 95bb 7f3f 016b 823f 2615 7c3f 5db2 7b3f
00000030: c267 7f3f 07b6 813f dda9 853f b855 803f
00000040: 820b 823f d8c3 803f 9435 7f3f 65e4 803f
00000050: 9706 7c3f 70fe 7d3f 33d3 873f 49d0 813f
00000060: 9851 823f d133 823f f436 853f 1902 813f
00000070: 1ec9 833f 69b0 843f 5d4d 853f ca01 803f
00000080: ae73 833f 0f54 7e3f 7710 7e3f 8547 823f
00000090: cafa 853f 93bb 823f a1ab 7f3f 1355 823f
000000a0: ed8e 813f e260 843f 28a4 813f 7b48 853f
000000b0: 83ae 7f3f 8703 823f 7925 803f f709 7d3f
000000c0: 26c4 863f 0e59 803f 96e4 7a3f ea65 7e3f
000000d0: 50cc 7c3f 106a 823f 038b 7e3f 9b57 7f3f
000000e0: 7abe 803f 2cc0 813f de60 803f a44c 863f
000000f0: 6a59 7e3f c67a 813f d42e 853f 2884 843f
00000100: fe8e 783f 6537 813f cf68 7c3f cbf5 823f
00000110: fe88 7f3f 78fa 8b3f 3617 7f3f 9835 793f
00000120: 9a44 843f 29d7 833f 261c 813f d75a 803f
00000130: 622c 813f a6ec 843f fbad 823f cda8 823f
00000140: 0a77 823f e7d0 7d3f 1b56 803f 8def 7c3f
00000150: 80e6 803f f0b3 803f ff8c 813f 2275 843f
00000160: 152d 843f d16b 803f 716c 823f 14a7 843f
00000170: 13ab 813f 5757 803f 5851 833f c549 833f
00000180: e33c 813f 317b 823f bd89 803f cd66 843f
00000190: 393b 7f3f 9d2a 7f3f c422 813f aa00 833f
000001a0: 6bde 823f b610 843f f363 803f 9c98 843f
000001b0: ae13 833f 17ed 833f 290a 823f 3e96 843f
000001c0: d0b7 7c3f 32a8 823f a91b 853f 3ce2 853f
000001d0: f442 863f 2987 7c3f cb87 7e3f 2b2e 7f3f
000001e0: 4831 7e3f 8218 7b3f a920 833f 49f0 7b3f
000001f0: 21aa 803f a7a9 803f 8f2f 833f 758d 833f
00000200: aae9 7d3f d37d 803f 1dab 7c3f cd78 7c3f
00000210: 7c6e 7f3f 0fcd 813f c632 813f a0d3 823f
00000220: 5f4c 833f 68ee 7a3f feed 813f bdc7 7b3f
00000230: 732d 843f 3b3c 813f 34ae 7f3f b382 803f
00000240: 34fc 853f be68 803f 1822 813f 76be 823f
00000250: 1f7c 823f 0cd2 813f e279 843f 3c86 7d3f
00000260: b48e 813f 65b2 7d3f 199a 833f eaa7 7d3f
00000270: ac6a 7f3f 0024 823f de87 7b3f 0947 813f
00000280: cec2 7d3f 1d45 833f 136e 7c3f 3de2 803f
00000290: d9ca 813f 8180 7f3f 8180 8a3f 36b6 7c3f
000002a0: 43c8 823f bd81 803f 1d6a 853f ad16 7d3f
000002b0: ab55 803f b8a7 813f 108c 823f 6dd9 813f
000002c0: 8382 7c3f 45ff 823f 0709 7d3f 46e6 803f
000002d0: 37eb 813f 3e25 823f 26da 813f 39af 7c3f
000002e0: fa58 833f 2264 823f 5034 7e3f 92b8 7d3f
000002f0: dab5 813f aeec 7f3f 18b6 813f aa19 7f3f
00000300: 281c 803f dff6 813f 7d3d 813f 4b4e 833f
00000310: ec2a 883f 731f 813f 4ed0 853f 7b7e 813f
00000320: c334 803f eb9e 823f af15 843f 6b3e 7d3f
00000330: 6f32 833f aa17 7e3f 461c 7b3f fac6 7f3f
00000340: 2034 7e3f c2b5 823f 9f84 853f aa39 803f
00000350: 3fec 813f 17a8 7f3f 523f 843f 0257 803f
00000360: fd67 823f 4c2b 833f 425c 823f 5fea 7e3f
00000370: e95a 833f 688e 7b3f 11a3 7e3f 2d36 823f
00000380: 3e0b 823f 5050 7e3f 0e22 813f 1208 803f
00000390: f20c 813f 4006 873f 2f83 7f3f 91c1 833f
000003a0: 1ca4 873f 6d64 7c3f 64d1 813f fee3 833f
000003b0: 298c 863f 43f2 843f d036 803f cbfc 783f
000003c0: 5c96 7a3f 66e4 793f 3ba2 813f ab38 863f
000003d0: dc1c 7f3f b6cc 7b3f ebdc 7c3f 95ea 7e3f
000003e0: 33dc 833f 8159 813f e4e2 7f3f 95da 823f
000003f0: 6923 803f f767 803f 8d39 853f 2858 883f
0.99531937 1.0002842 0.9810837 0.96652967 0.9882101 1.0118158 1.018546 0.9950591
0.998956 1.0188905 0.9846977 0.98319036 0.99767697 1.0133675 1.0442463 1.0026159
1.0159762 1.0059767 0.9969113 1.00697 0.98447555 0.99216366 1.0611328 1.0141689
1.018115 1.0172063 1.0407395 1.0078765 1.0295751 1.0366336 1.0414234 1.0000546
1.0269678 0.99347013 0.99243873 1.0178076 1.046716 1.0213493 0.9987126 1.0182213
1.0121742 1.0342066 1.0128222 1.0412744 0.9987566 1.0157326 1.0011436 0.9884333
1.052861 1.0027177 0.98005044 0.9937426 0.98749256 1.0188618 0.99430865 0.9974305
1.0058129 1.0136771 1.0029562 1.0492139 0.99355185 1.0115592 1.0404916 1.0352831
0.9709319 1.009503 0.98597425 1.023126 0.9981841 1.0935812 0.9964479 0.973474
1.0333436 1.0300037 1.0086715 1.0027722 1.009167 1.0384719 1.0209345 1.0207764
1.0192578 0.99146885 1.0026277 0.98803025 1.0070343 1.0054913 1.0121154 1.0348246
1.0326258 1.0032903 1.0189344 1.0363488 1.0130333 1.0026654 1.0259199 1.0256888
1.0096706 1.0193845 1.0042034 1.0343872 0.9969974 0.996744 1.0088735 1.0234578
1.0224127 1.03176 1.0030502 1.0359073 1.0240381 1.0306729 1.0159351 1.035835
0.98717976 1.0207579 1.0399066 1.0459666 1.0489182 0.9864374 0.99425954 0.9967982
0.9929395 0.9808427 1.0244342 0.9841352 1.0051919 1.0051774 1.0248889 1.0277544
0.9918467 1.0038399 0.986986 0.9862183 0.9977796 1.0140704 1.009362 1.0220833
1.0257682 0.9802003 1.0150754 0.9835165 1.032637 1.0096506 0.9987519 1.0039886
1.0467591 1.0031965 1.008853 1.0214374 1.0194129 1.0142226 1.0349696 0.9903295
1.0121675 0.99100333 1.0281402 0.9908434 0.99772143 1.0167236 0.9825419 1.0099803
0.99125373 1.0255467 0.9860546 1.0069042 1.0140029 0.99805456 1.0820466 0.9871553
1.0217365 1.0039593 1.0423008 0.98862725 1.0026144 1.0129309 1.0198994 1.0144478
0.98636645 1.0234152 0.988419 1.0070274 1.0149907 1.0167615 1.0144699 0.9870487
1.0261528 1.0186808 0.9929857 0.99109757 1.0133622 0.9997052 1.0133696 0.99648535
1.0008593 1.0153464 1.009689 1.0258268 1.0638099 1.0087723 1.0454195 1.0116724
1.0016102 1.0204748 1.0319117 0.9892337 1.0249766 0.9925486 0.98090017 0.9991299
0.99298286 1.0211718 1.0431098 1.0017598 1.0150222 0.9986586 1.0331824 1.0026553
1.0187985 1.0247588 1.0184405 0.9957637 1.0262119 0.9826417 0.9946757 1.0172783
1.0159681 0.993413 1.0088518 1.0002463 1.0082076 1.0548782 0.99809545 1.0293447
1.0596957 0.9859074 1.0142026 1.0303953 1.0511523 1.0386432 1.0016727 0.9726073
0.9788568 0.97614133 1.0127634 1.0486044 0.9965341 0.9835924 0.98774594 0.99576694
1.0301574 1.010544 0.9995558 1.0222956 1.0010806 1.0031728 1.0408188 1.0651903

BN1.bias f4 [256]
00000000: 1a19 393d 1960 30bd dac7 e5bb e1de c13d
00000010: b514 473d ddf9 88bd f30d 56bc 7491 19bd
00000020: 6a5a c5bb 6ec9 36bd 52bc 083d 8d0f c2bc
00000030: 8bdd fa3c d9d5 b2bd 1b84 cbbd 9ec9 97bc
00000040: e031 05bc 6521 193c 9dad 17bd 8c14 88bc
00000050: 8ad9 573c 3e05 ea3c 445a 10be 9380 ddbc
00000060: b9bc b03c 328c 43bd 00e0 85bc f589 743b
00000070: a2d6 0ebd e271 a6bd c5fc c0bd cb98 27bc
00000080: dd4d 84bd 4430 a43d f274 a4bd fc6a bc3c
00000090: 4099 9bbc 63f4 0dbd 8e75 c2bc 9caa 94bc
000000a0: eb5f c5bb 9dbd fabd a601 90bd 3984 d2bd
000000b0: d7d8 d43b b12b d9bb d375 ddbd 5808 93bc
000000c0: 1848 5abd dec7 27bd 7105 873d 0476 a4ba
000000d0: a2bf 583d d426 9abd 851a 653d b86e d9bc
000000e0: 0a62 06bd 0477 5dbc 7fb8 813c 41f7 bbbd
000000f0: 2f08 963c 99bd 4fbd 1ee4 1cbd 501d 95bd
00000100: 8727 6b3c 9bdf 98bb 1bec 433c 7325 45bd
00000110: 6ebd d03b 4b01 d6bc f811 803d 6769 3f3d
00000120: 1f88 fdbc a8ea 863b 6892 65bb 5069 263c
00000130: a921 36bd c605 fabd f0ea acbd 55eb 2fbd
00000140: ea9d 04bd 117a 583d 76f1 40bd f983 70bd
00000150: 3886 8fba 1bc2 913d 8206 73bc 3e2c 9bbc
00000160: 8c49 42bd 6fd8 ebbc fa7e abb9 9439 dbbd
00000170: 716d 33bd 9263 97bd 5bd7 3ebd f6ff 30be
00000180: b833 6d3d f8fa 7dbc 8422 673d 0def 54be
00000190: 34ed adbd 72bb 053d 0fb9 97bd e647 52bd
000001a0: 1654 43bd b550 4dbd fc50 6bbc 608b a2bc
000001b0: 2a4a 04bd d155 a7bd fa8e 80bd 0543 e8bd
000001c0: b1cb 6cbd 0178 3a3c 1558 09bd 0028 c6bd
000001d0: 4703 15bc 785c ae3b a9c3 97bd 90c5 eb3d
000001e0: 781c 843d bc17 48bc 0678 e9bd 7841 763c
000001f0: ee97 503c 65af fe3c 0bfe 5bbd 31e0 cbbd
00000200: 18e4 49bc ddb0 18bd d401 a7ba 0cd3 523d
00000210: 1f02 153d 1a0d 8abd 6955 b93b 692f 87bd
00000220: 9767 5fbd 1c84 febc cc18 acbd 66ca 2e3d
00000230: cf07 ccbd 1929 a63c 3d73 1fbd c962 babd
00000240: 2583 8fbc d4ed 14bd c5e5 973b dba8 84bd
00000250: 7d0d 8fbd 6091 e6bc ec33 9ebd cb89 bbbc
00000260: 8c1d 273c cb18 f03c e54a bdbd 21b7 9bbb
00000270: 630c 37bc 5002 13bd de1e e6bc fb9d 85bd
00000280: 2558 39bd 67e5 64bd cec9 2e3d 23e5 043d
00000290: 1917 5ebd b0bb d6bd b47a e5bd f6b0 19bd
000002a0: a6d6 fe3c c210 81bd 27e7 253d 5f5a 24bc
000002b0: 881e f8bc ccb0 73bd fbe2 23bd dba7 833c
000002c0: e8af b73c 1cd9 0cbe ba18 383d 3b84 113d
000002d0: c89b debb 513c 0dbd e558 babd 8769 983d
000002e0: 7cff 83bb 7ec9 05bd cff2 5a3b 8eff 263c
000002f0: c3be 37bd 9876 923c ee50 023d 607d f9bc
00000300: 4134 3dbd 90fc 913c e0a2 a6ba c0c6 23bd
00000310: f209 cfbd fca5 43be 2dc1 0abe d624 00bd
00000320: d69e 8e3c b9e2 1cbe c0fb 79bd c5a5 853c
00000330: b122 9abd b54d 92bc e8ba 153c 8d58 c8bc
00000340: 480c 1abc 8b59 ac3c 9274 c2bd e934 bebc
00000350: 9b1d 84bd 3909 54bd 3e9c e4bd 07cb 85bc
00000360: f53b 19bd bbab 9bbd 7e24 cfbd c331 cb3c
00000370: 5e7e 4ebd d815 aebc bc0e 473d ab82 dabd
00000380: d654 afbd 50da 063d c6f5 43bd ea97 84bc
00000390: 4ba2 b6bc f359 a3bd b6dd adbd 6108 67bd
000003a0: b34c 3f3b 43df 643d 91fd 9cbc 0f7b 94bd
000003b0: e5a6 54bc b641 40bd 58fd 31bd 5eb6 993c
000003c0: 4544 733d c0f4 3a3d ab50 e6bd edf1 55bc
000003d0: 11d6 1fbd 79ce 44bd 5ea9 0cbd a403 84bd
000003e0: acea f4bd 2618 bebd fe4e 8b3c 149e ed3a
000003f0: ebcf 94bd 4673 79bd 50b2 9abd bfca 34bd
0.045189954 -0.043060396 -0.0070123496 0.09466339 0.048603732 -0.06688283 -0.013064849 -0.03749223
-0.006022741 -0.044625692 0.03338272 -0.023689056 0.030623218 -0.087321945 -0.099373065 -0.018528756
-0.008129567 0.009346341 -0.037030805 -0.01661136 0.013174424 0.028566953 -0.14096934 -0.027038848
0.021574365 -0.047741123 -0.016342163 0.0037313674 -0.03487266 -0.0812719 -0.09423212 -0.0102293
-0.06460164 0.080170184 -0.08030118 0.023000233 -0.018993974 -0.034656893 -0.023737695 -0.01814776
-0.006023397 -0.12243197 -0.070315644 -0.10279126 0.006495576 -0.006627523 -0.10813489 -0.017948315
-0.05329141 -0.040962093 0.06592835 -0.0012547378 0.05291713 -0.07526937 0.055933494 -0.026542053
-0.03280834 -0.013517145 0.015835045 -0.09178019 0.01831445 -0.050717924 -0.038303487 -0.072809815
0.014352686 -0.0046653277 0.011958147 -0.048131417 0.006370238 -0.026123663 0.06253427 0.04673138
-0.030948697 0.0041173287 -0.0035029892 0.010156944 -0.044465695 -0.122081324 -0.08443248 -0.04294904
-0.03237716 0.052850787 -0.047105275 -0.05871961 -0.0010950034 0.07117101 -0.014833095 -0.018941995
-0.04743342 -0.028789727 -0.00032710267 -0.107043415 -0.043805543 -0.073920384 -0.046592098 -0.17285141
0.05791065 -0.01550173 0.0564294 -0.20794316 -0.084925085 0.032649465 -0.07408344 -0.0513381
-0.047687612 -0.050125796 -0.01436257 -0.01984185 -0.03229729 -0.08170665 -0.062772706 -0.11340908
-0.057811443 0.01138115 -0.033531267 -0.09675598 -0.00909502 0.0053210817 -0.07410366 0.115122914
0.064507425 -0.01221269 -0.11399846 0.015030257 0.012731535 0.031089494 -0.05370907 -0.099548705
-0.012322448 -0.037278045 -0.0012741634 0.0514708 0.036378976 -0.0674078 0.0056559336 -0.0660084
-0.05454215 -0.031068854 -0.08403167 0.04267349 -0.09962427 0.020283269 -0.03892826 -0.09100873
-0.01751859 -0.036359623 0.004635545 -0.06477519 -0.069849946 -0.028145492 -0.07724747 -0.022892853
0.010199916 0.029308697 -0.092428006 -0.0047520553 -0.011172387 -0.035890877 -0.02809089 -0.06524273
-0.045250077 -0.055882838 0.042672925 0.032445084 -0.054221246 -0.10485017 -0.112050444 -0.03752228
0.031108212 -0.063020244 0.040503647 -0.010031312 -0.030287996 -0.05949478 -0.040011387 0.01607125
0.022422746 -0.13754696 0.044945456 0.035526495 -0.006793473 -0.03448135 -0.090989865 0.07442003
-0.004028259 -0.03266286 0.0033408885 0.010192765 -0.04485966 0.017878816 0.03181546 -0.030455291
-0.04619241 0.017820626 -0.0012713335 -0.039984465 -0.10109319 -0.19106287 -0.13550253 -0.03128513
0.017409723 -0.15320863 -0.061031103 0.016314397 -0.07526148 -0.01785932 0.0091388 -0.024456287
-0.009402342 0.021038791 -0.0949489 -0.023218589 -0.06450959 -0.051766608 -0.11162613 -0.016332163
-0.037410695 -0.07601114 -0.10114382 0.024804002 -0.050413482 -0.02125065 0.048598036 -0.10669454
-0.08561103 0.032923043 -0.04784181 -0.01618572 -0.022294184 -0.07976141 -0.08489554 -0.056404475
0.0029190003 0.05587698 -0.019163879 -0.07250034 -0.012979244 -0.046937667 -0.043454498 0.018763717
0.05939128 0.045643568 -0.11245855 -0.013058168 -0.03902251 -0.04804847 -0.03434121 -0.06446007
-0.119588226 -0.0928195 0.01700544 0.0018128776 -0.0726622 -0.06090095 -0.07553542 -0.044138666

BN1.running_mean f4 [256]
00000000: 6ce1 0bc1 7740 7740 fb70 b840 9de1 0741
00000010: 4bc8 c7c0 2c1c ec40 5154 c241 fe7c 5941
00000020: 3c53 0941 8bae 55c0 96e5 9740 e65e 9c41
00000030: 249f 0641 d0ad 96c0 e0be 3ac0 2580 883f
00000040: a589 7541 e30d 41c1 b759 4441 8cc2 4e41
00000050: 0777 2ec0 7651 5d41 3e50 0740 6efc 9e40
00000060: c660 03c0 3c75 953c 727e 05c1 9a8a b940
00000070: e706 75c0 028a 1cbf 1cb8 c240 2b1b 9cc0
00000080: 96e1 ed40 c20b 67bf 5076 c240 f5f5 06c1
00000090: 9d55 fec0 bb1a 5b40 3169 3240 969d 60c0
000000a0: ac97 4f41 ce7e 8041 4c34 b140 9026 0640
000000b0: d7b4 efc0 f45f 5a40 7de4 1d41 1b60 c03f
000000c0: daba f9c0 a02e acc0 af80 ccc0 9d61 f4c0
000000d0: df3f 9740 6403 5dc1 b5a8 5f40 a0e1 1e40
000000e0: caad 93bf b6cf ae40 dd99 09c1 17fa c140
000000f0: 158d de3f e3a8 82c1 4c98 1c40 4c6d 8fc0
00000100: 6a11 d6bf 7f7d babf 8e8f 6241 1449 9740
00000110: 0f8c 23c1 525f f93e 2d7b 1ec0 f3ee dec0
00000120: f0f6 e0bf 0d7d 3541 1331 56c1 09db f440
00000130: 638e 0241 f9ad ecc0 0a0a f740 219a 8cc0
00000140: d2db a23f 8dcc cb3e 0a53 d240 e030 3741
00000150: 0e80 94c0 6bb4 5d3d 6bd6 28c1 0d01 4a40
00000160: 718e 89bf b9a9 3a40 1b0e 9140 ee6b 1941
00000170: e006 c93f aa36 09c1 adba b93d cde7 8140
00000180: 67dc 9940 2f03 91bf 2f22 3cc1 7048 f0c0
00000190: e3e1 b840 a6ad 44c0 a0bc a340 705a 9440
000001a0: 3a69 8141 100c 6ebf 1298 e9c0 e858 ddc0
000001b0: bf59 ccbf f20d fe40 8bab 3ac1 0c2e fec0
000001c0: d946 0c41 e60d 66c1 a271 0d40 01fe 0741
000001d0: a4a9 1bc1 c1e9 4ec1 1621 bc3f 3353 1bc1
000001e0: 9739 0dc1 3616 79c1 7228 a040 42bc c3c0
000001f0: 47c4 42bd f001 dcc0 a8b7 b7c0 1a51 00bf
00000200: a358 abc0 284d 22c1 bdd9 ed3f 3c35 34c1
00000210: ecad 12bf e593 10c0 4b9a 913f 0b18 2a41
00000220: fa60 5fbe ed78 7bbf 4d41 2140 d6bc 6c41
00000230: 520f b2c0 1fda 06c1 37e7 c640 1475 1441
00000240: 97b4 a43e c7a8 703e 1c38 27c1 41df ce3f
00000250: de3f 3bc0 2607 fcbe c8cf 8abf 5def 1ac0
00000260: e45e e8c0 4bbe ee40 d9c1 cdbf abfb cec0
00000270: da61 5ac0 9c4d 85c1 bc80 49c1 8ab5 1241
00000280: cee1 35c0 b43d 20bf 3239 29c1 ae80 0d41
00000290: befd 42c1 d199 2dc1 bc06 5dbf f368 8e41
000002a0: 211f 92c1 fa65 2ec0 81ee 853e 54f9 3b41
000002b0: 8061 7841 2bfa 833f 13eb 49bf e8c4 80c0
000002c0: c158 23c0 ad0f 2f41 a108 df40 c6e5 76c1
000002d0: 5ad5 03c1 66ac 7bbf 7ffc 3641 b071 6841
000002e0: 0946 973f b848 23c1 8d7f de40 b21f 9440
000002f0: f9c2 97be 8a0a 7d40 92dd e140 eef9 81c0
00000300: 5350 15c1 2cb9 8840 7b8e c03f 2be7 10c1
00000310: 68e4 933f df2a 33c1 ce44 8941 b315 8cc0
00000320: ae08 42c1 8097 13c1 5e6d b93f ea54 7fc0
00000330: 077c 0ec1 9510 4e41 ed0a 6141 48b8 30c1
00000340: d334 9340 11a1 19bf 19e3 35c1 c899 6240
00000350: 0695 9a40 9d34 e5c0 ed02 a3bf c83d 9d3f
00000360: b409 4040 e24a 58c0 0487 513f 598d 67c0
00000370: dfb6 cac0 975a 5cc1 1b8c 8ec0 ad91 463f
00000380: 6e54 6cc0 aba1 393f c61c afbf 3438 29c1
00000390: 9e45 7f40 a060 07c1 fac7 ba40 3f67 023f
000003a0: ab16 6940 482f 43c1 57a3 6f3f 3667 083f
000003b0: 0835 0cc1 d02a 5640 7182 29c0 8b75 a341
000003c0: 0b5c 14c0 46f7 bc40 ff72 54c0 50ba c040
000003d0: f2e1 6e40 9171 5a3f 8fd9 00c1 84bf aac0
000003e0: 144b a5c1 71c3 8c40 a8e4 9041 73df b7c0
000003f0: 4049 04c1 daf4 e0c0 16e1 ce40 2915 cdc0
-8.742535 3.8633096 5.7637916 8.492581 -6.2432 7.378439 24.29117 13.593016
8.582821 -3.3387783 4.7467756 19.546337 8.413853 -4.7087173 -2.9179 1.0664107
15.346105 -12.06589 12.271903 12.922497 -2.7260149 13.832388 2.1142726 4.968314
-2.0527816 0.018244378 -8.34337 5.798169 -3.8285463 -0.61148083 6.0849743 -4.8783164
7.4337873 -0.90252316 6.0769424 -8.435048 -7.947951 3.4235065 2.7876704 -3.5096183
12.974529 16.061916 5.537634 2.0961037 -7.490825 3.4121065 9.868283 1.5029329
-7.804059 -5.3806915 -6.3907084 -7.6369157 4.726547 -13.813328 3.494672 2.482521
-1.1537411 5.4628553 -8.600064 6.0617785 1.7386805 -16.332464 2.4467955 -4.482092
-1.6724064 -1.4569548 14.160048 4.7276707 -10.221694 0.48705536 -2.476268 -6.9666686
-1.7575359 11.34303 -13.386981 7.6517377 8.159762 -7.396237 7.7199755 -4.3938146
1.2723334 0.39804497 6.5726366 11.449432 -4.6406317 0.054127138 -10.552348 3.1563141
-1.0746595 2.916609 4.532972 9.58885 1.5705223 -8.575846 0.09068809 4.059546
4.8081546 -1.1329097 -11.758346 -7.5088425 5.777574 -3.0730987 5.1167755 4.6360397
16.17638 -0.92987156 -7.2998133 -6.917103 -1.5964888 7.9392023 -11.666881 -7.943121
8.767297 -14.378393 2.2100606 8.499513 -9.728916 -12.932069 1.4697597 -9.707812
-8.82656 -15.567923 5.004937 -6.1167307 -0.047550466 -6.8752365 -5.741169 -0.5012375
-5.35457 -10.143837 1.8582073 -11.262997 -0.57296634 -2.2590268 1.1375211 10.63087
-0.21814337 -0.98231393 2.5196106 14.796103 -5.56437 -8.428252 6.2157245 9.278584
0.3216903 0.23501883 -10.451199 1.6161882 -2.9257731 -0.49224204 -1.084466 -2.4208596
-7.2615833 7.460729 -1.6074783 -6.468221 -3.4122224 -16.662895 -12.593929 9.169321
-2.841907 -0.6259415 -10.576464 8.843916 -12.186949 -10.850053 -0.863384 17.801245
-18.2652 -2.7249742 0.26158527 11.748371 15.523804 1.031072 -0.7887432 -4.0240364
-2.552292 10.941327 6.9698033 -15.431097 -8.239588 -0.98309934 11.436645 14.527756
1.1818248 -10.205254 6.95307 4.628869 -0.2964094 3.9537683 7.058297 -4.061759
-9.33211 4.272604 1.5043482 -9.0564375 1.1554079 -11.197967 17.158596 -4.377649
-12.127119 -9.224487 1.4486501 -3.9895577 -8.90528 12.879048 14.065167 -11.044991
4.6001983 -0.6001139 -11.367944 3.540636 4.8306913 -7.1626725 -1.2735268 1.2284479
3.0005922 -3.3795705 0.8184664 -3.6180022 -6.334823 -13.772117 -4.4546027 0.77566034
-3.6926532 0.7251231 -1.3680656 -10.576221 3.988624 -8.46109 5.836911 0.5093879
3.6420085 -12.199043 0.9360861 0.5328249 -8.762947 3.346363 -2.6485865 20.432394
-2.3181179 5.9051847 -3.3195188 6.022743 3.7325406 0.8532954 -8.053115 -5.3358784
-20.66166 4.3988576 18.111649 -5.7460265 -8.267883 -7.029889 6.4649763 -6.408833

BN1.running_var f4 [256]
00000000: 1b61 5742 da4c 3042 859b 0243 4e27 be42
00000010: 6eeb 1943 d7ba 4743 38ad 1443 b68c c342
00000020: 76a7 0843 8e6d fa42 c769 2143 6751 3843
00000030: bbb6 b542 6d67 b242 0f2b 6242 e46b 1e43
00000040: e398 df42 5b04 b142 6fd6 6b42 b507 0c43
00000050: 0352 e542 1dde 3242 d1d6 ca41 7655 7e42
00000060: 69f8 3842 2dc7 ca42 64d4 6442 024f 9a42
00000070: 2caa 4542 2cdd 4c43 8784 8242 c1fa fc42
00000080: cc4b be42 59f0 b742 59d9 cb42 eeb1 3642
00000090: f331 4d42 474f bd42 4154 0243 1597 4042
000000a0: 282b 7c43 6a3d 6e42 99ef 8042 d693 9742
000000b0: 4e57 8443 d5bf d542 a26a b042 1f95 1e42
000000c0: 1268 c442 ec04 8e42 1947 e542 3255 b242
000000d0: 330c 8642 2beb e442 f881 7b42 6835 cb42
000000e0: 01c2 9442 dd33 c742 6036 7d42 bb1a d441
000000f0: e8a6 3342 2acf ae42 ce57 8942 5b1a bd42
00000100: de35 1e43 78b1 5042 4f85 9842 ed58 a542
00000110: 781c 1543 6ab2 8042 e57f e742 4698 4b42
00000120: 78de 8542 1c49 7542 3aeb c442 6e47 2342
00000130: f24b 9f42 d46e 3342 18fd bc42 e0fc 2142
00000140: 0140 1342 7310 a842 c8a1 8542 ece7 8143
00000150: 677c 7e42 4b10 1d42 e82c f242 f208 4a42
00000160: 9bd9 6942 d3dd e742 0db0 cd42 928d 5f42
00000170: 9d78 7742 4263 6742 857a 9242 c815 8442
00000180: 3f6b c442 f438 4342 99b0 ad42 96f9 ee42
00000190: e5ad f042 92b7 0e43 94db 3642 d69f 3b43
000001a0: 8eaa 8442 6151 3142 3b6a 4c42 d065 9542
000001b0: 7be7 7e42 e196 b742 8944 0643 867a ab42
000001c0: 5543 7642 afc9 9542 2cf1 8942 2612 3442
000001d0: 4004 3542 5080 af42 d02c a542 2b88 6842
000001e0: 3b9a c642 80ae ea42 1d01 aa42 256d 1243
000001f0: e42b 9d42 46e5 1d43 8016 0e42 efda 6c42
00000200: 5369 fd42 312d 8942 da06 9f42 a7f5 d742
00000210: d80d 5643 fb30 9142 4ade 1443 75c6 9b42
00000220: f394 b542 08bd 6f42 5687 a142 ddb9 f242
00000230: 2110 3a42 14b8 8342 6dee 5942 2fc2 0843
00000240: 3bd2 8341 98f6 cb42 48c4 a242 4316 1443
00000250: b028 5542 d11c 8142 b293 9142 b2d4 2543
00000260: b5b4 2342 009d 1a43 b83f 1042 f471 7e42
00000270: 6372 5b42 0c70 ae42 f2fc a742 7350 e342
00000280: b769 d841 ff6f f542 909b bf42 61ae 1c43
00000290: 2072 9442 aaff e142 4b1d 2042 5391 9842
000002a0: 6dc6 0443 831b 8142 1a50 f241 de96 ce42
000002b0: 032c a042 10fe b142 c733 7142 4b8e 2d42
000002c0: b3e9 9142 f413 5642 2284 0e43 2a01 1643
000002d0: 78df 4b42 0a0d 2142 18dd 9b42 5fa6 7042
000002e0: a882 2342 62c4 9f42 0c10 c242 b2d6 0942
000002f0: e383 3542 1300 7f42 1954 9d42 1bc7 9442
00000300: 6df8 1443 b3bd 8242 f04d ab42 790b 1643
00000310: 6661 2d42 0013 8942 8260 0243 2510 3942
00000320: aa83 a442 43cc 2543 7338 3b42 8d8b a242
00000330: f9bc da42 7a67 e442 b857 d742 c2a3 5542
00000340: 772d 9242 9ea9 b342 9871 6642 0a70 b542
00000350: 1def d342 7812 8642 226a 3142 fbc0 9942
00000360: 3f94 a542 9896 dc42 994e 3342 5502 9242
00000370: 09b5 7f42 5346 c242 136b 6b43 4f7c 3942
00000380: a2b1 0643 541a 7542 3d17 7c42 ea19 e442
00000390: 26e2 3443 5bb4 9d42 ae56 2543 54b4 4a42
000003a0: 59ec 7d42 daeb 8242 dbbb 7d42 30b6 8642
000003b0: 1f92 bc42 8367 2542 6ac4 9d42 bedb 0743
000003c0: 1a23 8642 3c6d 2943 6d0a c442 ffa1 3f42
000003d0: aebc fd42 13d8 ae42 8905 de42 b9b4 2e43
000003e0: 669b 3e43 bf2d 0f43 ee31 f942 3618 3942
000003f0: adf5 af42 ff6a bf42 7dad 2f42 b6af e242
53.84483 44.07505 130.6075 95.07677 153.91965 199.72984 148.67664 97.774826
136.65414 125.213974 161.4132 184.31798 90.856895 89.202 56.54205 158.42145
111.79861 88.50851 58.959408 140.0301 114.66018 44.716908 25.35489 63.583458
46.242588 101.389015 57.207413 77.15431 49.416183 204.86395 65.25884 126.48975
95.14804 91.96943 101.92451 45.67376 51.29878 94.65484 130.32912 48.14754
252.16858 59.559975 64.467964 75.78874 264.68207 106.87467 88.20827 39.645626
98.20326 71.00961 114.63886 89.1664 67.02383 114.45931 62.876923 101.60431
74.378914 99.601295 63.3031 26.513052 44.912994 87.40462 68.67149 94.551476
158.21042 52.17331 76.26037 82.67368 149.1112 64.348465 115.749794 50.898705
66.93451 61.321396 98.45943 40.819756 79.64833 44.85823 94.49432 40.49695
36.812504 84.03213 66.81598 259.8119 63.621487 39.26591 121.08771 50.508736
58.462505 115.93325 102.84385 55.888252 61.867786 57.84693 73.239296 66.04254
98.209465 48.80562 86.84492 119.48747 120.33964 142.71707 45.71443 187.62436
66.333115 44.32947 51.10374 74.69885 63.726055 91.794685 134.26772 85.7393
61.565754 74.89391 68.97104 45.017723 45.25415 87.75061 82.587524 58.132977
99.30123 117.34082 85.002174 146.42635 78.585724 157.8956 35.521973 59.213802
126.70571 68.588264 79.51338 107.97979 214.05408 72.595665 148.86832 77.88761
90.79092 59.9346 80.76433 121.363014 46.51575 65.85953 54.482838 136.75853
16.477652 101.98163 81.38336 148.08696 53.289734 64.55628 72.78847 165.83084
40.92647 154.61328 36.062225 63.611282 54.861706 87.21884 83.99403 113.65713
27.051619 122.71874 95.80383 156.68117 74.2229 112.999344 40.028606 76.28384
132.7751 64.553734 30.289112 103.29466 80.08596 88.996216 60.300564 43.388958
72.95644 53.519485 142.51614 150.00455 50.96823 40.262733 77.93182 60.16247
40.877594 79.88356 97.03134 34.459663 45.378796 63.750072 78.66425 74.38888
148.97041 65.37051 85.65222 150.04482 43.345116 68.53711 130.37698 46.265766
82.25716 165.7979 46.805126 81.27256 109.36909 114.2021 107.671326 53.40992
73.0888 89.83128 57.61093 90.71883 105.96702 67.03607 44.353645 76.876915
82.78954 110.29413 44.826756 73.004555 63.926792 97.13735 235.41826 46.371395
134.69388 61.27571 63.022694 114.05061 180.88339 78.85226 165.3386 50.6761
63.48081 65.46065 63.433453 67.355835 94.28539 41.351086 78.88362 135.85837
67.06856 169.4267 98.02036 47.9082 126.868515 87.42202 111.01081 174.70595
190.60703 143.1787 124.59752 46.273643 87.979836 95.70898 43.919422 113.343185

L2.weight f4 [128, 256]
00000000: dc11 b63c 4dfe 05bd f8db 233c 319f b93b
00000010: 2657 93bc 47d9 3e3d 2a12 95bb a378 cd3c
00000020: 641d 21bd 5b40 53bc 121d 3cbd 49dc 7bbd
00000030: a7c4 323d 2e0c 523d 32e4 c63c 0f80 af3c
00000040: 9d31 1e3d 96fd a1ba e3eb f63c 8be8 263c
00000050: 666e 863c 22a2 fabb 4388 773b 72a6 1a3d
00000060: e151 8c3c 054c 79bb d4cd 613d 60be 1fbd
00000070: be11 1fbd dacb 06bd d689 45bc df13 983c
00000080: 0ce9 213d 3b09 233d 5197 cdbb 5095 793d
00000090: c096 483d a074 1d3c 9c33 8a3c df16 89bc
000000a0: dc38 8c3d e427 c1ba 69c1 ab3b f6a6 903c
000000b0: ee86 0dbc 3cc1 943c b5c0 68bd 9728 4e3a
000000c0: 04ab 013d 85de 04bd 8347 603a 0696 10bd
000000d0: 40ed 79bd beda 433d 0e6f 063d 9592 903d
000000e0: b543 243c baaf 61bc 753a 4e3d e1a9 013d
000000f0: 7f88 293c 2d0d 2bbd d502 833d b63f 073d
00000100: a822 8c3c 8e9a 923d 704e 153d 5402 4a3d
00000110: 8745 46bd 936c bb3d b0f8 21bd ddc5 043d
00000120: 0a8e 76bd 8497 28bd 102d 173b 4288 bfbc
00000130: c1ac 8a3d 286d 8e3d 778d 75bc 1026 74bd
00000140: 38a3 403d c281 e2bc 1bbb 4a3d e249 50bc
00000150: c7e4 f73b 00f6 f83c 0174 ebbb 5854 3a3c
00000160: d275 2abc 4141 493d 7bc9 853c 1d53 62bd
00000170: ae59 c1bc 89d4 63bd 4c8c 3d3d b9f0 b53c
00000180: c543 143c d8e0 2a3c d29f 0ebd 61fa 7abc
00000190: e25c 683d 225c 4bbd 8d53 5ebd 06b7 823d
000001a0: ad3d cbbb 9004 7d3d 54d4 093c 69d5 9e3c
000001b0: 3886 a93c 8cc5 62bd 31f5 833d 4135 6d3d
000001c0: 3752 1e3c 7d23 38bd f327 87bd 7fa8 82bd
000001d0: b2e4 6e3d 8a77 60bd 1c1d 99bb 6816 953c
000001e0: 47ef 0ebd 6d30 43bd b003 643d 1f60 f93c
000001f0: 53e7 5dbd e891 d73c e852 0b3d 457c b0bb
00000200: a11c 20bd 2403 0f3d 26f8 c5bb f90a 0bbd
00000210: 66c3 043c 239a 85bc fa46 e53c 2639 cabc
00000220: b23d 9dbc 87e8 abba c24d 413d bcc0 fd3c
00000230: 3598 953b c460 27bd 26b3 cf3c 8abe 34bd
00000240: a81b 5bbd a151 2a3c f7de 9ebc 35a1 333d
00000250: 3f2f 9a3b 3f72 d63a 067f 21bb f111 19bd
00000260: 7443 f6bc a099 5d3d ad37 64bc 0b8d 0cbd
00000270: 0a97 3f3d 1f6a f43b 5677 bbbb fdde bb3c
00000280: 2ef6 bfbb a07b 42bc 8974 de3c 2ce8 383c
00000290: d5e2 3f3d 6a00 7dbc 66cf 153d eea3 193c
000002a0: cc95 14bd 9771 da3c fbc5 f63c d617 17bb
000002b0: 6cd8 e13c c475 433b a747 54bd de79 43bd
000002c0: d271 b63c 8d27 183d 5455 68bd eec7 5bbd
000002d0: f32f c83c 7705 0bbd 96df b4bc a5d9 90bc
000002e0: b232 823d 50f4 c5bb b19c 5f3d 7725 bbbc
000002f0: 5181 7dbd 0b8c 913d a98c 69bc 1740 4abc
00000300: fa3c 26bd 16c1 3f3d b25b 5abb 53ec 8f3d
00000310: 5d21 dc3c 5876 4bbd f6e0 b5bb e0f3 8a3d
00000320: 39c6 263c 1c69 48bc 361b 7ab9 6466 50bd
00000330: ea59 053b 4f22 b6bc aad0 14bc 962c 28bd
00000340: 0823 08bd 4692 3fbd 9d89 d63c 1292 6a3d
00000350: 2564 333c 2766 4e3d b4d4 9d3c 11e7 363d
00000360: 9a7b 843d ca1c a6bc b574 673d 87a3 473c
00000370: 203e 243d 82bd ccbc 7784 35bd ccff 55bc
00000380: 58c0 11bc 29fd a73c 57cd bf3b 4ffa 113d
00000390: 0e4a 993d 6aea 403d 4eef e0bc 3e2e fcbc
000003a0: e255 eebb f02e 02bc df40 a93c a831 6d3d
000003b0: a06a e83b 98a3 02bd 3983 2abd 5649 6f3d
000003c0: 3b04 673d 7f25 563c 85e5 80bd 1bad 0a3d
000003d0: 776b b5bb 15bd 62bd 862a a53c 1de2 743c
000003e0: b49f 2d3d aad8 863c 8250 84bc af6a 6b3d
000003f0: 4fc8 87bd faa9 903d ecb0 fabb 5533 523d
0.022225313 -0.032713223 0.010001175 0.005664729 -0.017985892 0.04659393 -0.0045492845 0.025081938
-0.03933467 -0.0128937615 -0.04592616 -0.061489377 0.043644574 0.051281147 0.024278734 0.021423368
0.038621534 -0.00123589 0.030141776 0.0101872785 0.016410064 -0.0076487223 0.0037770427 0.03775639
0.017128887 -0.0038039696 0.055127934 -0.038999915 -0.03883528 -0.03290925 -0.012056788 0.018564163
0.03952889 0.039803725 -0.006274142 0.06093341 0.04897189 0.009610325 0.016870312 -0.016734539
0.068467826 -0.001473662 0.005241562 0.017657738 -0.008638127 0.018158548 -0.056824405 0.0007864325
0.031657234 -0.032438774 0.0008555578 -0.035299323 -0.061017275 0.04781603 0.032820754 0.07059208
0.010025908 -0.013774807 0.050348718 0.03165615 0.010347485 -0.041760612 0.063970245 0.033019744
0.01710637 0.07158385 0.036451757 0.049318627 -0.04840615 0.09151568 -0.039543808 0.03241526
-0.060194053 -0.04116012 0.002306763 -0.023380402 0.067712314 0.06954414 -0.014987341 -0.05960661
0.047030658 -0.027649764 0.049494844 -0.012712928 0.007565114 0.03039074 -0.0071854596 0.011372648
-0.010404067 0.049134497 0.016331425 -0.055255044 -0.023602333 -0.05562261 0.046276376 0.022209512
0.009049361 0.0104295835 -0.034820385 -0.015318484 0.056729205 -0.04964841 -0.0542789 0.06382565
-0.0062024207 0.06177193 0.008412439 0.019388871 0.020693883 -0.055364177 0.06443251 0.057912115
0.009663156 -0.04495572 -0.065994166 -0.06379794 0.05832357 -0.0548015 -0.0046726596 0.01819916
-0.03489616 -0.047653604 0.05566758 0.030441342 -0.054175686 0.02631469 0.034014612 -0.005385908
-0.039089803 0.034915105 -0.0060415445 -0.03394601 0.008103227 -0.01630885 0.027987946 -0.024685454
-0.019194458 -0.0013115563 0.047193296 0.030975692 0.0045652636 -0.040863767 0.02535398 -0.044127025
-0.053493172 0.010395438 -0.019393427 0.04385491 0.004705339 0.0016360952 -0.0024642362 -0.037370626
-0.030061461 0.054101586 -0.01392929 -0.034314197 0.0467749 0.0074589397 -0.005721013 0.022933478
-0.0058582043 -0.011870295 0.027155178 0.011285823 0.046847183 -0.015441993 0.036574744 0.009377463
-0.03627567 0.026665492 0.030123701 -0.0023054979 0.027569018 0.0029824832 -0.051826145 -0.047723643
0.02227107 0.037147094 -0.056722 -0.053657465 0.024436926 -0.03394076 -0.02207927 -0.017681906
0.063573256 -0.006041087 0.054592792 -0.022845013 -0.061890904 0.07106789 -0.014254727 -0.012344382
-0.040585496 0.046815 -0.0033318815 0.07027497 0.026871378 -0.04967341 -0.005550499 0.06784797
0.010179096 -0.012232091 -0.00023851995 -0.050878897 0.0020347782 -0.022233156 -0.0090829525 -0.041058145
-0.033236533 -0.046770357 0.026188666 0.05726821 0.010949169 0.05039039 0.019266464 0.044653956
0.064688876 -0.0202774 0.056507785 0.012184984 0.04009831 -0.024992708 -0.04431578 -0.013061475
-0.008895956 0.020506458 0.005853336 0.035639104 0.07484828 0.047098555 -0.02745786 -0.030783769
-0.0072734216 -0.007945761 0.020660816 0.057908684 0.007092789 -0.031894296 -0.04162905 0.058419548
0.05640052 0.013070463 -0.062937774 0.033856492 -0.0055364924 -0.055356104 0.020161878 0.014946488
0.042388633 0.016460735 -0.01615167 0.05747479 -0.06630003 0.070636705 -0.0076504853 0.051318485

L2.bias f4 [128]
00000000: ed5c 82bb 2366 2abd 8322 e0bb d0f0 0fbd
00000010: fc4d c43c 82fd 12bd 33c2 17bd cc01 46bd
00000020: cc9e bfbc 5e53 65bc df34 343c e272 933c
00000030: 27dc c7bc f2b7 49bd 2709 6f3d 069d 1d3d
00000040: 8db5 c0bc acfe 8a3b 4d67 4cbd 4b2e 4bbd
00000050: 5d15 633d 75c9 cd3c 8dcd 6c3c aeb6 41bd
00000060: c526 58bd eb18 29bd 529d 17bd cd77 a33c
00000070: 4bf5 b03b e8ca f13c 5297 af3c 8d0d 29bc
00000080: 4332 a73a 46ff 033d e40a 92bb 9afd cb3b
00000090: 0d30 bf3b 621d 2bbc 1572 a4bc 22a0 a33c
000000a0: e811 5b3d ad31 4dbd 52e9 8ebb 5d2b e2bc
000000b0: 882f 03bc cbb1 bb3c 2fc5 5fbd f69d ef3c
000000c0: 4154 bd3c b790 fbbc e1c5 14bd a4d8 b3bc
000000d0: 6079 2abb 313d 10bd b61f 653d f2bd 85bb
000000e0: abce cdbc 4a01 44bd 0b62 cb3c d39c 09bd
000000f0: fbed a93c 8626 31bc f4cb e0bc e356 af3c
00000100: 1e97 7abd 2d61 1f3d 16f3 49bb fbd5 d53b
00000110: 1f5a 113d b8e7 a3bc 177a cb3c 2cd4 413a
00000120: 7d58 93bc eca5 3c3d 799d f03b e774 293d
00000130: 98be 91bc e5be fb3c 1432 f13c 0f04 133d
00000140: f1b3 053d 826a 103d c2c4 f9b9 c744 ac3b
00000150: 8def 4bbd 8f11 333d 4f7b 913c 5943 88bc
00000160: 5e06 4fbd c246 d7bc 6114 8cbb 3bf3 f33c
00000170: 1f23 4bbb 4a66 bd3c 396c 433c 1e89 743d
00000180: fefa 683d 2bb4 293d 40c6 7dbd 63ee c2bc
00000190: 23b0 d63c 5083 263d 93b8 263d e5f7 bbbc
000001a0: 8d85 fe3b a8a5 453c 0697 dd3c 8821 40bd
000001b0: b9c8 6bbd 2241 6a3d 2f43 313c 3f81 fd3c
000001c0: b933 43bd 6868 1bbc c350 c93c 753f 55bd
000001d0: e99a 28bd 43dc bcbb 6a80 9fbc 69dc 663d
000001e0: 2d59 55bd ee21 44bd 6333 a9bc 6e42 90bc
000001f0: ebef 71bd 88fa 1ebb f42d b639 13eb 263d
-0.003978363 -0.04160131 -0.0068400516 -0.035141766 0.023962967 -0.035886295 -0.037050437 -0.048341557
-0.02339115 -0.013996927 0.010998934 0.017999116 -0.024396969 -0.04924769 0.058358338 0.038479827
-0.02352407 0.004241785 -0.049903203 -0.049604695 0.055440295 0.025120476 0.014453304 -0.047293358
-0.05277135 -0.04128353 -0.037015267 0.019954586 0.005400335 0.029515699 0.02143446 -0.010318172
0.0012756068 0.03222587 -0.0044568647 0.0062253 0.0058345855 -0.010444017 -0.02007393 0.019973818
0.053483874 -0.050096203 -0.00436131 -0.027608568 -0.008006938 0.022911927 -0.05463141 0.029250126
0.023111464 -0.030708654 -0.036321525 -0.021953888 -0.0026012287 -0.035214607 0.055938445 -0.004081481
-0.025122961 -0.04785279 0.024827024 -0.033596825 0.02074336 -0.010812407 -0.027441002 0.021403736
-0.061179273 0.038911033 -0.0030815057 0.0065257526 0.035486337 -0.020007953 0.02483849 0.0007393982
-0.01798653 0.046056673 0.007342991 0.041371252 -0.017791077 0.030730674 0.029442824 0.035892542
0.03264231 0.035257824 -0.00047639577 0.0052572223 -0.049789 0.043717917 0.017758993 -0.016633676
-0.05054318 -0.026278857 -0.0042748903 0.029779067 -0.0030996276 0.023120064 0.011927658 0.059701078
0.05687999 0.041431587 -0.061956644 -0.023795312 0.026207035 0.040652573 0.040703367 -0.022945354
0.0077673853 0.012063421 0.027049553 -0.046906978 -0.05756447 0.05719102 0.0108192405 0.030945418
-0.04765675 -0.009485342 0.024574643 -0.05206247 -0.04116336 -0.005763562 -0.019470412 0.056362543
-0.052086998 -0.04788392 -0.020654386 -0.017609801 -0.059066694 -0.0024258215 0.00034747983 0.040751528

BN2.weight f4 [128]
00000000: fd84 823f 4f37 7e3f 3da0 803f 594c 823f
00000010: 5fb4 823f 291b 833f 75b7 7e3f 4b1b 873f
00000020: 780c 813f 7259 833f 64cf 743f 45ad 7f3f
00000030: ccc5 813f 451b 7c3f 8889 813f 02b8 793f
00000040: 1920 823f e9bf 843f 4ba9 843f c82e 7d3f
00000050: ab26 803f 1509 813f 1dc1 7d3f 3d3a 843f
00000060: b482 7c3f 03ed 823f d396 813f 4964 823f
00000070: 61ec 7f3f f660 853f 2dd1 823f 4041 893f
00000080: 0adc 763f 1c63 863f 3fcb 7b3f f5fc 823f
00000090: 55b5 803f 7800 823f eec1 7e3f d67a 7e3f
000000a0: 2fc4 813f f047 763f 82c5 853f 584b 823f
000000b0: d4ef 7e3f 2cd3 7f3f 27f2 853f 9083 813f
000000c0: 331e 873f f827 813f ea1b 7e3f 35ef 823f
000000d0: c38f 823f 9f24 813f 9699 793f c95e 7e3f
000000e0: 9635 803f 59c3 833f 5d99 8d3f 4a07 803f
000000f0: 68b3 813f 132f 8b3f dfa2 7c3f d0a0 7e3f
00000100: 0ae1 813f 417a 873f 00c0 783f cd4f 803f
00000110: 8d2c 773f c8f0 813f 59e4 7a3f 8de4 863f
00000120: a51b 833f ace0 793f ae14 863f b149 833f
00000130: da40 803f d816 863f 25cd 863f 974e 813f
00000140: 8518 7e3f 3773 803f 6383 873f c5f7 833f
00000150: 03ad 7b3f c293 883f 655d 853f aac7 7d3f
00000160: a5fc 803f 60a9 823f 9ebe 843f e61a 873f
00000170: 23af 833f fd70 843f b740 813f e334 7f3f
00000180: af8a 843f b006 7d3f 6bc0 873f cca3 7b3f
00000190: 33fb 833f abc0 803f 931d 833f 4822 793f
000001a0: 03e6 7f3f 446c 823f 4478 7f3f 6b5c 803f
000001b0: db77 7b3f 4e01 813f f21f 823f c201 763f
000001c0: 7182 833f 2df9 803f b6a1 803f 2e6a 833f
000001d0: c2ae 7d3f 2e5a 833f 35aa 833f 8163 803f
000001e0: c550 823f 1199 7a3f 7e7e 7e3f 716e 7b3f
000001f0: f82e 7d3f 54d4 803f 1513 833f 4914 813f
1.0196835 0.99303144 1.0048901 1.017955 1.0211295 1.0242664 0.99498683 1.0555204
1.008193 1.0261672 0.9562895 0.99873763 1.0138488 0.9847911 1.0120096 0.975464
1.0166045 1.0371066 1.0364164 0.9889951 1.00118 1.0080897 0.9912279 1.0330273
0.9863694 1.022858 1.0124153 1.0186855 0.9997006 1.0420215 1.0220085 1.0723038
0.964295 1.0498996 0.98357004 1.0233446 1.0055338 1.0156393 0.99514663 0.9940618
1.0137995 0.9620352 1.04509 1.0179243 0.995847 0.999316 1.0464524 1.0118275
1.0556091 1.0090322 0.99261343 1.022925 1.0200123 1.0089301 0.9749998 0.9936338
1.0016353 1.029399 1.1062428 1.0002224 1.0132875 1.0873741 0.9868602 0.9946413
1.0146801 1.0584184 0.9716797 1.0024353 0.96552354 1.0151606 0.9800468 1.0538498
1.0242811 0.9760845 1.0475061 1.0256864 1.0019791 1.0475721 1.0531355 1.0102109
0.99256164 1.0035161 1.0586971 1.0309988 0.9831087 1.0670092 1.0419127 0.9913279
1.0077101 1.0207939 1.0370672 1.0555084 1.0287822 1.0346981 1.0097874 0.99690074
1.0354823 0.9883833 1.0605596 0.9829681 1.0311035 1.0058798 1.02434 0.97317934
0.99960345 1.018929 0.99792886 1.0028204 0.9822976 1.0078523 1.0165999 0.9609643
1.0274183 1.0076042 1.004935 1.0266778 0.99094784 1.0261896 1.0286318 1.0030366
1.0180899 0.9788981 0.9941176 0.98215395 0.98899794 1.0064797 1.0240198 1.0084316
