Trained_Models/BotDetection_v4_MLP___May-10-2024/BotDetection_v4_MLP_epoch45_val_loss_0.484853.pth (torch, 952227 bytes, 45 tensors)

L1.weight f4 [256, 133]
0	0x3c23cf89	0.009998211
1	0x3d710594	0.05884321
2	0x3db66e8e	0.089078054
3	0xbe2981e7	-0.1655346
4	0x3cdb63be	0.02678096
5	0x3d3b38e4	0.045708552
6	0x3e40f35a	0.18842831
7	0xbd4bd9e3	-0.04976834
8	0x3c378858	0.0112019405
9	0x3cc32205	0.023819933
10	0xbd92b70e	-0.07163821
11	0x3cfc82d9	0.030824112
12	0xbd5516b3	-0.0520236
13	0xbd49df58	-0.049285263
14	0xbe10cb59	-0.14140071
15	0x3d9c2da3	0.07625892
16	0x3b95365e	0.0045536
17	0xbd2fbd7b	-0.042905312
18	0xbb127ad2	-0.0022351039
19	0xbd59d93b	-0.053185683
20	0xbd044a26	-0.032297276
21	0xbc3f2a35	-0.011667778
22	0xbd52e5c9	-0.05148867
23	0xbcd1beca	-0.02560367
24	0x3d79157b	0.0608115
25	0xbdd934f6	-0.106058046
26	0x3cde7160	0.02715367
27	0xbdbddb02	-0.09270288
28	0x3ccf36e2	0.025294725
29	0x3dbd3999	0.092395015
30	0x3b2bdc4d	0.0026223839
31	0xbd222930	-0.03959006
32	0xbdb66454	-0.08905855
33	0xbca5a726	-0.020221304
34	0xbd8e86ed	-0.06959329
35	0x3da76206	0.08172993
36	0x3dbe8dae	0.09304367
37	0x3db137ae	0.08653198
38	0xbd84aa2f	-0.064777724
39	0xbcd9b932	-0.026577566
40	0x3e4d7418	0.20063818
41	0xbc2d5273	-0.010578739
42	0xbd047571	-0.032338563
43	0x3c946474	0.018114306
44	0xbb057848	-0.0020365883
45	0x3db4e6bb	0.08833071
46	0x3bb97d5c	0.005660696
47	0x3d8ac551	0.06775916
48	0xbd174cae	-0.03693836
49	0x3d9c0873	0.07618799
50	0x3d41edb9	0.04734585
51	0x3c6272ee	0.013821347
52	0x3d8a136c	0.06741986
53	0x3dcfcff9	0.101470895
54	0xbcc75a60	-0.024335086
55	0x3c88cd38	0.016699418
56	0xbd2b0be1	-0.041759375
57	0x3d5c5ed3	0.05380137
58	0xbe267575	-0.16255744
59	0xbc96c6e3	-0.018405383
60	0xbe271017	-0.16314732
61	0x3c910343	0.01770175
62	0xbe19d6a4	-0.15023285
63	0xbd47f506	-0.048817657
64	0x3df73768	0.12071115
65	0xbdfd35ea	-0.12363799
66	0xbd900c38	-0.070335805
67	0x3e06b2b8	0.13154113
68	0xbcc79af0	-0.024365872
69	0xbd50d935	-0.050988395
70	0x3d624d19	0.055249307
71	0x3dc79230	0.0974468
72	0x3dc963dd	0.098335005
73	0x3d682c06	0.05668261
74	0xbd421d02	-0.047390945
75	0xbcdf10cf	-0.027229695
76	0xbda3c2fd	-0.079961754
77	0x3c9c4a2c	0.019078337
78	0xbc9f858e	-0.019472864
79	0x3cc8430a	0.02444603
80	0x3b9c2c7f	0.0047660465
81	0xbd1dd40c	-0.0385323
82	0xbd8bb59c	-0.068217486
83	0xbcf9940f	-0.030466108
84	0x3d5395ef	0.05165666
85	0xbd274b2f	-0.040843185
86	0xbe349836	-0.17636189
87	0xbdb62d85	-0.08895401
88	0x3cb4bfdd	0.022064144
89	0xbcada7e5	-0.021198222
90	0xbaf8b9fc	-0.0018976326
91	0x3e1462fc	0.14490885
92	0xbdb89f30	-0.090147376
93	0x3c447ace	0.01199217
94	0xbd12cabe	-0.03583788
95	0x3d1f3937	0.038872924
96	0x3d3ad57c	0.04561375
97	0xbdaeeaec	-0.085409015
98	0xbd488562	-0.04895533
99	0x3cee18e6	0.029064607
100	0x3d0a09a4	0.0337006
101	0xbdcbbb35	-0.09947816
102	0x3dfd6606	0.12372975
103	0xbe1b3c77	-0.15159784
104	0xbd75cb70	-0.060008466
105	0x3d91c47e	0.07117556
106	0x3d85e4cd	0.06537781
107	0xbd4e3047	-0.05033901
108	0xbd2cf6a7	-0.042227414
109	0xbd88b09f	-0.06674313
110	0x3d328f69	0.043593798
111	0xbdc053cc	-0.09390983
112	0xbd49e1d6	-0.04928764
113	0xbc8ba7b8	-0.017047748
114	0x3c9ed3b3	0.019388055
115	0xbd158802	-0.03650666
116	0x3c92a5fd	0.017901415
117	0x3dd295db	0.10282489
118	0x3d95c7b0	0.07313478
119	0x3da3b0a0	0.07992673
120	0xbdbee954	-0.093218476
121	0x3d507552	0.050893135
122	0x3c56cf5a	0.01311096
123	0x3e40efc8	0.1884147
124	0xbdf12c5b	-0.11776038
125	0xbc55fd07	-0.013060815
126	0x3d48461d	0.04889499
127	0x3da2f0f3	0.07956114
128	0xbda3fbf9	-0.08007044
129	0x3aa62703	0.0012676421
130	0x3da5539d	0.080725886
131	0x3d872a3e	0.06599854
132	0xbda30fe4	-0.07962015
133	0x3c0905bd	0.0083631845
134	0x3d1bda7c	0.03805016
135	0xbc641b17	-0.013922474
136	0x3dcc36dd	0.09971402
137	0xbd152d48	-0.036420137
138	0x3d4f4f02	0.050612457
139	0xbd877f1c	-0.06616041
140	0xbd1ff194	-0.039048746
141	0x3d5df4ca	0.054188527
142	0xbd20ebdc	-0.039287433
143	0xbb3bd932	-0.0028663394
144	0xbbb17639	-0.0054157046
145	0xbd6f2b36	-0.05839082
146	0x3d6633b3	0.056201648
147	0x3d6e748b	0.058216613
148	0x3c34af12	0.011028068
149	0xbd69fcf5	-0.057126004
150	0xbbe4dbe4	-0.006984221
151	0xbc973f66	-0.018462848
152	0x3d58101b	0.052749734
153	0xbcceadb4	-0.025229312
154	0x3c122444	0.008919779
155	0xbd8de99b	-0.06929322
156	0xbdc7d60f	-0.09757625
157	0xbdc4bf20	-0.09606767
158	0xbce937b4	-0.028468944
159	0xbda788a9	-0.08180363
160	0x3b9b3617	0.0047366726
161	0xbd9dcf1b	-0.07705518
162	0x3cfcf17a	0.030876864
163	0xbb24cb42	-0.0025145565
164	0xbd009b3a	-0.031398036
165	0x3d8d4a65	0.06898955
166	0x3d88279c	0.0664818
167	0xbd7eb658	-0.062185615
168	0xbcba5d41	-0.022749545
169	0x3dfb01c5	0.12256197
170	0x3d922ec1	0.07137824
171	0x3e2c075e	0.16799685
172	0x3dcb08db	0.099137984
173	0x3d814859	0.06312627
174	0xbd35503a	-0.044265963
175	0x3c85774a	0.016292233
176	0x3d4ab95f	0.04949319
177	0x3e1de14f	0.1541798
178	0xbd1ce164	-0.038300887
179	0x3cea7a06	0.028622638
180	0x3d62c26d	0.0553612
181	0x3d78943f	0.060688253
182	0x3cf51ad3	0.029920017
183	0xbd99f265	-0.07516936
184	0xbd867b8b	-0.06566533
185	0x3d67d0b8	0.056595534
186	0x3e061d5b	0.13097136
187	0xbd2e4044	-0.042541757
188	0xbd19ccc2	-0.037548788
189	0x3bc946d9	0.006142479
190	0x3d837f72	0.06420793
191	0x3db0244e	0.086006746
192	0xbd7ed702	-0.062216766
193	0x3d99f92d	0.0751823
194	0x3d9416a8	0.07230884
195	0x3ceea230	0.029130071
196	0xbddc3a0b	-0.10753258
197	0x3bb31f08	0.0054663457
198	0x3d33bd9a	0.04388199
199	0xbd47092e	-0.04859274
200	0xbc823d0a	-0.015898246
201	0xbc8c521f	-0.017129002
202	0xbcd2bea3	-0.025725668
203	0xbc87f2d8	-0.01659529
204	0x3df4354f	0.1192423
205	0x3caf0772	0.021365855
206	0xbd0fd03d	-0.0351107
207	0xbc69a6db	-0.014260973
208	0x3c1140d4	0.008865554
209	0x3da62cf2	0.081140414
210	0xbd22b9b7	-0.039727893
211	0xbc15fb52	-0.009154158
212	0xbcdea3f5	-0.02717779
213	0xbcc53747	-0.02407421
214	0xbc9c433b	-0.019075027
215	0xbdcb20ab	-0.0991834
216	0xbdd03e22	-0.10168101
217	0x3da7b05c	0.08187935
218	0xbd237e5d	-0.03991543
219	0x3d59f4c0	0.053211927
220	0xbd387721	-0.045035485
221	0x3cb195fe	0.021677967
222	0xbe227622	-0.15865377
223	0x3dc75037	0.09732097
224	0xbe21c937	-0.15799414
225	0xbd2eafaa	-0.042647995
226	0xbdc747f9	-0.097305246
227	0x3d2123fc	0.039340958
228	0xbd030b33	-0.031993102
229	0xbca647b0	-0.020297855
230	0xbd58b5a3	-0.052907597
231	0xbd7794f6	-0.060444795
232	0x3d385412	0.04500205
233	0x3e0faede	0.1403155
234	0x3cfc880d	0.030826593
235	0x3d93ea11	0.07222379
236	0xbae1b1ca	-0.0017219123
237	0x3d20225e	0.039095275
238	0x3db9538a	0.09049137
239	0x3d53e59d	0.05173265
240	0xbdc42f22	-0.09579302
241	0x3bfe8b91	0.0077681025
242	0x3bdd8371	0.006760054
243	0xbd06cb9e	-0.03290903
244	0xbd6169fb	-0.05503271
245	0x3d41be02	0.047300346
246	0xbd819e17	-0.06328981
247	0x3cd278d3	0.02569238
248	0xbc6666f3	-0.014062631
249	0x3d4c474f	0.049872693
250	0x3daee55c	0.085398406
251	0x3dc2c9bb	0.09511133
252	0xbd5990d6	-0.053116642
253	0xbe11efb9	-0.14251603
254	0xbd97ab92	-0.07405771
255	0xbd99d506	-0.07511334

L1.bias f4 [256]
0	0xbda6e2a8	-0.081487
1	0xbc973eb0	-0.018462509
2	0x3d7b08e1	0.061287764
3	0xbc8a725b	-0.016900232
4	0xbcb222e9	-0.021745162
5	0xbd79e07e	-0.061005108
6	0x3d05e040	0.032684565
7	0x3d2acd47	0.041699674
8	0xbd56d49f	-0.052448865
9	0xbd9dada8	-0.07699138
10	0xbcbd6a44	-0.02312196
11	0x3d7801f3	0.060548734
12	0xbd83e0c6	-0.064393565
13	0xbd1280b2	-0.035767265
14	0xbdae41b7	-0.08508628
15	0xbc21720b	-0.00985385
16	0x3c979a52	0.018506203
17	0x3d104bf2	0.035228677
18	0xbd2941eb	-0.04132263
19	0x3da99d37	0.082819395
20	0x3bef73cb	0.007307505
21	0xbd7d7e54	-0.061888054
22	0x3c8e8bf2	0.017400716
23	0x3d029fc6	0.031890653
24	0x3d64cfb8	0.05586216
25	0x3d7bb70a	0.061453857
26	0xbcb514cd	-0.022104645
27	0xbc8e879a	-0.017398644
28	0xbd32cc19	-0.043651674
29	0x3d10e545	0.0353749
30	0xbd87945d	-0.06620095
31	0xbcbde9aa	-0.023182709
32	0xbc659462	-0.014012428
33	0xbd91557f	-0.07096385
34	0x3d095522	0.033528455
35	0x3ca19c5a	0.019727875
36	0x3d97057d	0.07374094
37	0xbd5b8392	-0.053592272
38	0x3d9fd016	0.07803361
39	0x3d15b8e3	0.036553275
40	0xbcda9d5a	-0.02668636
41	0xbd874e50	-0.06606734
42	0xbda7a9cf	-0.08186685
43	0x3d01fb70	0.03173393
44	0xbd2cf53c	-0.04222606
45	0xbccd29a5	-0.025044272
46	0xbd0a8205	-0.033815403
47	0xbc8555d3	-0.016276276
48	0x3bf2fc3a	0.0074153217
49	0x3d988a67	0.07448273
50	0x3d67ac78	0.056560963
51	0x3d83f4d6	0.06443183
52	0x3b9d394e	0.004798091
53	0xbcdb2a38	-0.02675353
54	0xbd233ffb	-0.03985594
55	0x3d4ce458	0.050022453
56	0xbbef7afe	-0.007308363
57	0x3d0b41b5	0.03399821
58	0xbd9ee8b5	-0.07759229
59	0x3d320ffa	0.043472268
60	0xbd39a287	-0.045321014
61	0xbc198b4c	-0.00937159
62	0x3d8eaa46	0.06966071
63	0x3d586829	0.05283371
64	0xbd4d7b3c	-0.050166354
65	0x3d9287f0	0.07154834
66	0xbd8fb1cd	-0.07016335
67	0x3d224dad	0.03962486
68	0x3c63d7f0	0.013906464
69	0x3da36b10	0.07979405
70	0x3c0e9827	0.008703268
71	0xbc999522	-0.01874787
72	0x3d97297e	0.07380961
73	0xbd518bde	-0.05115878
74	0x3d75d51d	0.060017694
75	0xbd05bf79	-0.032653306
76	0xbc3fb660	-0.011701196
77	0xbd1991b7	-0.03749248
78	0x3d6897d3	0.056785416
79	0xbd5ec984	-0.0543914
80	0xbcc8f450	-0.02453056
81	0x3bc662f5	0.006054277
82	0x3d9d9d52	0.07696022
83	0xbc41e37b	-0.011834021
84	0xbd183d76	-0.03716799
85	0xbc23642e	-0.009972615
86	0x3ca054e5	0.01957173
87	0xbd1c904b	-0.038223546
88	0x3db08a80	0.08620167
89	0x3d0fbbd8	0.03509125
90	0xbcfbda63	-0.030743783
91	0x3d4f8d50	0.050671875
92	0xbcce87be	-0.025211211
93	0x3c9b7507	0.018976701
94	0xbc78abce	-0.01517768
95	0xbd8a3fe0	-0.067504644
96	0xbd941972	-0.07231416
97	0xbd9a9eb4	-0.075498015
98	0xbd4509ff	-0.048105236
99	0xbbaed894	-0.0053358767
100	0x3c38ec0e	0.011286749
101	0x3c6b307c	0.014354821
102	0x3d200229	0.03906456
103	0x3bb488bf	0.0055094655
104	0x3dacbf72	0.08434953
105	0xbca6ae7f	-0.020346878
106	0x3c95453a	0.018221486
107	0x3c91d559	0.017801927
108	0x3d2ea9d8	0.042642444
109	0x3d8dc2ca	0.06921919
110	0x3d0517d6	0.032493435
111	0x3d30c4c4	0.0431564
112	0x3d9d36ec	0.07676491
113	0x3d2b4682	0.04181529
114	0x3da13c29	0.07872803
115	0x3d348f0a	0.044081725
116	0x3d2b68ea	0.0418481
117	0xbc316b4d	-0.010828805
118	0xbd5ca944	-0.05387236
119	0x3d9d740c	0.0768815
120	0x3d36ddc1	0.044645075
121	0x3cd452b1	0.025918337
122	0x3d101f41	0.035186056
123	0xbcc43224	-0.02394969
124	0xbc27f43e	-0.010251103
125	0x3d8da27f	0.06915759
126	0x3cb9e1e4	0.02269072
127	0xbdabf743	-0.08396771
128	0x3d8f931d	0.070104815
129	0x3cd2d514	0.02573637
130	0xbd2dcf07	-0.042433765
131	0xbd1ed0e9	-0.03877345
132	0xbd843c0d	-0.06456766
133	0x3da5db5b	0.08098479
134	0xbd26d7c3	-0.04073311
135	0xbd1f6c8a	-0.03892187
136	0x3ce3c0ba	0.02780186
137	0xbd0dedbc	-0.03465055
138	0x3d3a84e3	0.045536887
139	0xbcf92d28	-0.03041704
140	0xbca888cf	-0.020573048
141	0xbcdbca20	-0.02682978
142	0x3ba1247f	0.0049176808
143	0x3d321d81	0.04348517
144	0xbc5ec225	-0.013596092
145	0x3d8b639f	0.068061106
146	0xbdaf6812	-0.08564772
147	0xbd87cb94	-0.06630626
148	0x3cc7e18f	0.024399547
149	0xbbd58455	-0.0065160193
150	0xbc56b52d	-0.013104719
151	0x3ccbb4d7	0.024866505
152	0xbd9106e0	-0.070813894
153	0xbc16c2b0	-0.009201691
154	0xbd7c9a07	-0.06167033
155	0x3d9e174e	0.07719289
156	0x3c9ab069	0.018882947
157	0x3d535fd7	0.051605072
158	0xbd63d7da	-0.055625774
159	0xbca9f5e9	-0.020747142
160	0x3d3e665d	0.04648434
161	0x3d95f85c	0.073227614
162	0xbd943331	-0.072363265
163	0xbcc06ba2	-0.023488823
164	0xbc801b58	-0.015638039
165	0x3da465b0	0.08027208
166	0xbd5bfa8a	-0.05370573
167	0x3d032161	0.032014254
168	0x3d81e5d3	0.063426636
169	0xbd864888	-0.06556803
170	0x3da711a5	0.08157662
171	0xbdae568b	-0.085126005
172	0xbd822e8f	-0.063565366
173	0xbccdab23	-0.025106018
174	0x3b8d8868	0.0043192394
175	0x3b4be691	0.003111277
176	0x3d8416b5	0.064496435
177	0x3d98ad29	0.07454903
178	0xbcc0aef9	-0.023520933
179	0x3ca4a3a2	0.020097557
180	0xbcf8fc44	-0.030393727
181	0x3cc9ecb2	0.024648998
182	0xbae2a749	-0.0017292287
183	0x3d2592f1	0.040423337
184	0x3ac11dd2	0.0014733619
185	0xbcdc505d	-0.026893789
186	0x3d17c16b	0.037049692
187	0x3d801c83	0.06255438
188	0xbd2541e1	-0.04034603
189	0x3cbd33a4	0.023095913
190	0x38f72836	0.00011785368
191	0xbccce83a	-0.025013078
192	0x3d174def	0.036939558
193	0x3d4a3e4a	0.04937581
194	0x3d1f6300	0.038912773
195	0xbd96cc15	-0.07363144
196	0xbd010798	-0.031501383
197	0x3d92c0a0	0.071656466
198	0x3d4b6b73	0.04966302
199	0x3d47ba77	0.04876181
200	0xbd5763f1	-0.052585546
201	0x3cfea319	0.03108363
202	0xbc32614e	-0.010887457
203	0xbd0972f5	-0.033556897
204	0x3d534dd8	0.05158791
205	0x3daa8270	0.0832566
206	0x3d1ed15c	0.03877388
207	0x3d81d6fd	0.06339834
208	0xbd4af862	-0.049553283
209	0x3d2ecdb4	0.042676643
210	0xbda3f090	-0.08004868
211	0xbcaafb16	-0.02087168
212	0xbcaa1fb6	-0.020767074
213	0xbd91dff8	-0.07122797
214	0xbcde508a	-0.027138013
215	0x3d860658	0.06544179
216	0xbd2e3a13	-0.042535853
217	0x3d9922e2	0.074773565
218	0x3d308cd4	0.043103054
219	0xbd0ed55c	-0.034871444
220	0x3d4740d2	0.0486458
221	0xbda50e25	-0.080593385
222	0x3d149528	0.03627506
223	0xbd28f711	-0.041251246
224	0xbd8bf94b	-0.06834658
225	0x3daec5e2	0.08533837
226	0xbb5bfbfd	-0.0033566945
227	0xbd5a55a5	-0.053304333
228	0x3daf61bc	0.08563563
229	0x3cb12f01	0.021628859
230	0xbc56a29e	-0.013100294
231	0xbd061247	-0.032732274
232	0x3d9fbec7	0.0780006
233	0x3d4511d5	0.04811271
234	0x3da0323e	0.07822083
235	0x3d015038	0.031570643
236	0x3d8be06e	0.06829916
237	0xba5d37ad	-0.00084387773
238	0x3c9e73e6	0.019342374
239	0x3cb2f77d	0.021846527
240	0x3da7d6d4	0.08195272
241	0x3d85084d	0.06495724
242	0x3d5483a8	0.05188337
243	0xbdaaebcd	-0.08345757
244	0x3d81edb2	0.06344165
245	0x3d41da4c	0.047327325
246	0xbc9d9641	-0.019236686
247	0x3c8273b8	0.01592432
248	0xbdae519b	-0.08511659
249	0xbd4617f6	-0.048362695
250	0x3d8910b8	0.06692642
251	0xbda39a24	-0.07988384
252	0x3a0aeb6f	0.00052993646
253	0x3c7c3f3f	0.015395938
254	0xbb805287	-0.003916088
255	0xbd4f2ea5	-0.050581593

BN1.weight f4 [256]
0	0x3f7e58df	0.99354357
1	0x3f7f95e4	0.9983809
2	0x3f7bbe7d	0.9833754
3	0x3f78e5b8	0.97225523
4	0x3f7d2617	0.98886245
5	0x3f816f7a	1.0112145
6	0x3f8267d0	1.0187931
7	0x3f7e96cc	0.9944885
8	0x3f800bb8	1.0003576
9	0x3f81e15f	1.0146903
10	0x3f7c57f1	0.9857169
11	0x3f7aa807	0.9791264
12	0x3f7ed934	0.99550176
13	0x3f80ef25	1.0072981
14	0x3f848e38	1.0355902
15	0x3f80d47a	1.0064843
16	0x3f8210ba	1.0161355
17	0x3f809074	1.0044084
18	0x3f7dc1ea	0.99124014
19	0x3f80aec6	1.0053337
20	0x3f7d3bba	0.9891926
21	0x3f7cabb9	0.9869953
22	0x3f878f47	1.05906
23	0x3f8217e6	1.0163543
24	0x3f828a34	1.0198426
25	0x3f82236e	1.0167062
26	0x3f845555	1.0338541
27	0x3f810ac2	1.0081408
28	0x3f83e7ae	1.0305078
29	0x3f83c5c5	1.029473
30	0x3f849725	1.0358626
31	0x3f80085c	1.0002551
32	0x3f83ab1e	1.0286596
33	0x3f7dd891	0.9915858
34	0x3f7d47f6	0.9893793
35	0x3f81b08b	1.0132002
36	0x3f854b96	1.0413692
37	0x3f82def8	1.0224295
38	0x3f7fa4cd	0.9986084
39	0x3f819fda	1.0126908
40	0x3f8198c6	1.0124748
41	0x3f83adb3	1.0287384
42	0x3f81827a	1.0117943
43	0x3f853201	1.0405885
44	0x3f7f8d9d	0.9982546
45	0x3f81fe83	1.0155796
46	0x3f803489	1.0016032
47	0x3f7cddbb	0.98775834
48	0x3f8694a9	1.0514117
49	0x3f7f3ca8	0.9970193
50	0x3f7b1759	0.980825
51	0x3f7e3fdd	0.993162
52	0x3f7ba89e	0.98304164
53	0x3f82055f	1.0157889
54	0x3f7f0e8e	0.99631584
55	0x3f7feaa3	0.999674
56	0x3f80a3d7	1.005
57	0x3f81f0ce	1.0151613
58	0x3f803aad	1.0017906
59	0x3f860734	1.0470948
60	0x3f7dcef2	0.991439
61	0x3f8124df	1.0089377
62	0x3f84dd83	1.03801
63	0x3f8453d0	1.0338078
64	0x3f79406d	0.9736393
65	0x3f80c8d6	1.006129
66	0x3f7bf25e	0.984167
67	0x3f82b183	1.0210422
68	0x3f7ffdbd	0.9999655
69	0x3f89e521	1.077305
70	0x3f7fc554	0.99910474
71	0x3f7983aa	0.9746653
72	0x3f83820b	1.0274061
73	0x3f842812	1.0324728
74	0x3f80e0fe	1.0068662
75	0x3f802445	1.0011069
76	0x3f80a635	1.0050722
77	0x3f847da0	1.0350838
78	0x3f82c302	1.0215762
79	0x3f81ef89	1.0151225
80	0x3f81f8f6	1.0154102
81	0x3f7e5615	0.993501
82	0x3f801c35	1.0008608
83	0x3f7d60b5	0.9897569
84	0x3f80e4de	1.0069845
85	0x3f80a7a2	1.0051157
86	0x3f8166c0	1.0109482
87	0x3f84279c	1.0324588
88	0x3f8415c8	1.0319147
89	0x3f809889	1.004655
90	0x3f826a62	1.0188715
91	0x3f8479d5	1.034968
92	0x3f8194af	1.01235
93	0x3f802a3c	1.0012889
94	0x3f827b89	1.019395
95	0x3f82fda7	1.0233659
96	0x3f8140e6	1.009793
97	0x3f81f780	1.0153656
98	0x3f80bf01	1.005829
99	0x3f83d616	1.0299709
100	0x3f7f578a	0.9974295
101	0x3f7f92fe	0.9983367
102	0x3f811f45	1.0087668
103	0x3f831930	1.0242062
104	0x3f82a694	1.0207086
105	0x3f83f439	1.0308906
106	0x3f7dedbe	0.9919089
107	0x3f843d58	1.0331221
108	0x3f830963	1.023724
109	0x3f844014	1.0332055
110	0x3f813f15	1.0097376
111	0x3f83d36b	1.0298895
112	0x3f7d939f	0.99053377
113	0x3f82ba42	1.0213091
114	0x3f84a128	1.0361681
115	0x3f8592a0	1.0435371
116	0x3f85efdf	1.0463828
117	0x3f7d43bc	0.9893148
118	0x3f7eceaa	0.99534094
119	0x3f7e8ecc	0.9943664
120	0x3f7e4947	0.9933056
121	0x3f7a94ca	0.97883284
122	0x3f8341f7	1.0254506
123	0x3f7d4282	0.9892961
124	0x3f8077b2	1.0036528
125	0x3f8031c7	1.0015191
126	0x3f82a4c3	1.0206531
127	0x3f837602	1.0270388
128	0x3f7dd1fa	0.99148524
129	0x3f8071f2	1.0034773
130	0x3f7ccbdb	0.9874856
131	0x3f7d006b	0.9882876
132	0x3f7fdfb4	0.9995072
133	0x3f81b6bc	1.0133891
134	0x3f814ab0	1.0100918
135	0x3f831d96	1.0243404
136	0x3f834b6b	1.0257391
137	0x3f7b6098	0.98194265
138	0x3f815f22	1.0107157
139	0x3f7bbf4c	0.9833877
140	0x3f8428aa	1.032491
141	0x3f80bbf2	1.0057356
142	0x3f800158	1.000041
143	0x3f808748	1.0041285
144	0x3f8530e0	1.040554
145	0x3f80aa43	1.005196
146	0x3f81260f	1.008974
147	0x3f82ec09	1.0228282
148	0x3f822064	1.0166135
149	0x3f81b346	1.0132835
150	0x3f841d7e	1.03215
151	0x3f7d82bc	0.9902761
152	0x3f81587b	1.0105127
153	0x3f7d7e47	0.9902081
154	0x3f835141	1.0259172
155	0x3f7d6efa	0.9899746
156	0x3f7f376b	0.99693936
157	0x3f8245f7	1.0177602
158	0x3f7ba15b	0.98293084
159	0x3f80e4f0	1.0069866
160	0x3f7ca64b	0.9869124
161	0x3f82fd57	1.0233563
162	0x3f7c7e88	0.9863057
163	0x3f812324	1.0088849
164	0x3f81a244	1.0127645
165	0x3f7ef29d	0.9958895
166	0x3f89e900	1.0774231
167	0x3f7bda6e	0.9838017
168	0x3f82b1e6	1.021054
169	0x3f7efaa2	0.99601185
170	0x3f84974d	1.0358673
171	0x3f7cc852	0.98743165
172	0x3f80960b	1.004579
173	0x3f812095	1.0088068
174	0x3f81aa94	1.0130181
175	0x3f80f1b0	1.0073757
176	0x3f7c7863	0.98621196
177	0x3f81e20d	1.014711
178	0x3f7d7a6b	0.9901492
179	0x3f814a47	1.0100793
180	0x3f81b70f	1.013399
181	0x3f81f7b2	1.0153716
182	0x3f820098	1.0156431
183	0x3f7cc0c6	0.9873165
184	0x3f82ccea	1.0218785
185	0x3f825f4c	1.0185332
186	0x3f7ed38e	0.99541557
187	0x3f7cf3bf	0.9880943
188	0x3f81e676	1.0148456
189	0x3f80486f	1.0022105
190	0x3f815b7f	1.0106047
191	0x3f7f3edb	0.99705285
192	0x3f800ef3	1.0004562
193	0x3f81b3c8	1.013299
194	0x3f80afb1	1.0053617
195	0x3f833ec8	1.0253534
196	0x3f87c1bc	1.0605998
197	0x3f81464f	1.0099581
198	0x3f8584e3	1.0431179
199	0x3f8178f4	1.0115037
200	0x3f804494	1.0020928
201	0x3f824607	1.0177621
202	0x3f834d17	1.0257901
203	0x3f7bb81c	0.98327804
204	0x3f83097f	1.0237273
205	0x3f7db413	0.99102896
206	0x3f7b920e	0.98269737
207	0x3f7e00a6	0.9921974
208	0x3f7e3535	0.9929994
209	0x3f8274c3	1.0191883
210	0x3f853708	1.0407419
211	0x3f80432d	1.00205
212	0x3f81612f	1.0107783
213	0x3f800a3f	1.0003127
214	0x3f843063	1.0327266
215	0x3f7fb882	0.9989091
216	0x3f8207b4	1.0158601
217	0x3f827790	1.0192738
218	0x3f8227ff	1.0168456
219	0x3f7e3cc6	0.9931148
220	0x3f83a33e	1.0284193
221	0x3f7b6ac4	0.98209786
222	0x3f7e69a0	0.9937992
223	0x3f81b149	1.0132228
224	0x3f820896	1.015887
225	0x3f7e32da	0.99296343
226	0x3f80891e	1.0041845
227	0x3f7fb495	0.9988492
228	0x3f81335f	1.0093802
229	0x3f86b3d3	1.0523628
230	0x3f7ecbe0	0.9952984
231	0x3f839c35	1.0282046
232	0x3f87a367	1.0596741
233	0x3f7b1f7e	0.9809493
234	0x3f804a5e	1.0022695
235	0x3f82fadc	1.0232806
236	0x3f8684dc	1.0509295
237	0x3f84811a	1.0351899
238	0x3f8028eb	1.0012487
239	0x3f77e36f	0.9683141
240	0x3f7a8f4d	0.9787491
241	0x3f7ae261	0.98001677
242	0x3f80ec6d	1.0072151
243	0x3f861657	1.0475568
244	0x3f7e87b5	0.9942582
245	0x3f7be9cb	0.98403615
246	0x3f7ca72d	0.9869259
247	0x3f7f2eda	0.99680865
248	0x3f837928	1.0271349
249	0x3f818836	1.0119693
250	0x3f7f675b	0.9976708
251	0x3f81d767	1.014386
252	0x3f7fb045	0.9987834
253	0x3f805d04	1.0028386
254	0x3f850e20	1.0394936
255	0x3f8761f6	1.057677

BN1.bias f4 [256]
0	0x3d23a3bc	0.03995107
1	0xbd3586fb	-0.04431818
2	0xbc14868f	-0.009065284
3	0x3db71307	0.08939176
4	0x3d49ba4b	0.04924993
5	0xbd7d4966	-0.061837576
6	0xbc35bee9	-0.01109288
7	0xbd36e510	-0.044652045
8	0xbc40cd16	-0.011767646
9	0xbcea45c6	-0.028597724
10	0x3cfa2c7a	0.030538786
11	0xbbe503cf	-0.0069889794
12	0x3ce36b24	0.02776105
13	0xbda98662	-0.082775846
14	0xbd9b81df	-0.0759313
15	0xbcb23c15	-0.021757165
16	0xbc278855	-0.010225375
17	0xba0b44e5	-0.0005312695
18	0xbccf4938	-0.025303468
19	0xbc822d1c	-0.01589065
20	0x3c8a1d65	0.01685972
21	0x3cd51608	0.026011482
22	0xbdfb0242	-0.1225629
23	0xbce00b52	-0.027349148
24	0x3c7459ac	0.014913958
25	0xbd3dad61	-0.046307925
26	0xbcbc0b5e	-0.022954639
27	0x3bdbf0cf	0.006712056
28	0xbd2c6a29	-0.04209343
29	0xbd941b8c	-0.07231817
30	0xbdb93a1e	-0.09044288
31	0xbc01d1c2	-0.007923545
32	0xbd860ff4	-0.065460116
33	0x3d9ce811	0.07661451
34	0xbd50b69f	-0.05095541
35	0x3cf05aa2	0.029340092
36	0xbcb603b3	-0.02221856
37	0xbd0de151	-0.034638707
38	0xbcb3bcb1	-0.021940561
39	0xbc88daed	-0.016705954
40	0xbc71dc75	-0.014762034
41	0xbdcf3734	-0.10117951
42	0xbd82987e	-0.06376742
43	0xbdc4a93b	-0.09602591
44	0x3c10e9c8	0.0088448
45	0xbbcfaaf1	-0.0063375165
46	0xbdd183c9	-0.10230214
47	0xbc836265	-0.01603813
48	0xbd5ee535	-0.054417808
49	0xbd1786c4	-0.036993757
50	0x3d61f568	0.05516568
51	0x3c40636b	0.011742453
52	0x3d54daf9	0.05196664
53	0xbd89c634	-0.06727257
54	0x3d346ef5	0.04405113
55	0xbceb0b63	-0.028691953
56	0xbd08bc6a	-0.03338281
57	0xbc9543f0	-0.018220872
58	0x3c78d62b	0.01518778
59	0xbdaf2882	-0.08552648
60	0x3c99f29d	0.018792445
61	0xbd40900d	-0.047012378
62	0xbd0a0928	-0.03370014
63	0xbd861ad5	-0.065480866
64	0x3bf6ac71	0.007527881
65	0x3a833497	0.001001018
66	0x3c832a11	0.01601127
67	0xbd354874	-0.04425855
68	0x3b402387	0.002931805
69	0xbcc24ecc	-0.023719214
70	0x3d5e716a	0.05430738
71	0x3d3c18a0	0.04592192
72	0xbcd5fb2d	-0.026120747
73	0x3aed68da	0.0018112913
74	0x3a33b9a2	0.00068559696
75	0x3bda413b	0.006660608
76	0xbd1a3d26	-0.037655972
77	0xbde758a5	-0.112962045
78	0xbd9a38b6	-0.07530348
79	0xbd08559c	-0.03328477
80	0xbccc41f3	-0.02493379
81	0x3d3f80c9	0.04675368
82	0xbd1efca3	-0.038815152
83	0xbd68ea48	-0.056864053
84	0xbb87dd1f	-0.0041462327
85	0x3d7a0fe9	0.06105033
86	0xbafc17b6	-0.0019233141
87	0xbc6c9225	-0.01443914
88	0xbd49c188	-0.04925683
89	0xbcdbac81	-0.026815655
90	0xbc1a31c0	-0.009411275
91	0xbdc4e0ed	-0.09613214
92	0xbd260555	-0.04053243
93	0xbd895405	-0.067054786
94	0xbd0fb2be	-0.03508257
95	0xbe25430c	-0.16138858
96	0x3d2fbd46	0.042905115
97	0xbc45b727	-0.012067593
98	0x3d3ca44e	0.04605513
99	0xbe444781	-0.19167902
100	0xbd9d952b	-0.07694467
101	0x3cd701c1	0.026245954
102	0xbd9f5844	-0.07780507
103	0xbd4fe7cb	-0.050758164
104	0xbd0eeeaf	-0.034895595
105	0xbd4fecce	-0.050762944
106	0xbc81a782	-0.015826944
107	0xbc020723	-0.007936272
108	0xbcdee5cb	-0.027209183
109	0xbda867f4	-0.082229525
110	0xbd528564	-0.051396742
111	0xbdb3df27	-0.08782797
112	0xbd40f2a0	-0.047106385
113	0x3c174033	0.009231615
114	0xbd0d7b74	-0.034541562
115	0xbdc2d9e1	-0.09514213
116	0xbca11815	-0.019664804
117	0xba84b688	-0.0010125199
118	0xbd8e5ff3	-0.069518946
119	0x3dec7c8e	0.115471944
120	0x3d5f0c78	0.05445525
121	0xbc8c5274	-0.01712916
122	0xbddf446e	-0.10901724
123	0x3c2e077c	0.010621902
124	0x3af3a8a7	0.0018589691
125	0x3d179060	0.03700292
126	0xbd4da1cb	-0.050203126
127	0xbdcac4a6	-0.09900789
128	0xbb1e4dbc	-0.002415522
129	0xbcd08f8d	-0.025459075
130	0xbaa7775c	-0.0012776661
131	0x3d4adca5	0.04952683
132	0x3d0858d8	0.033287853
133	0xbd79987b	-0.060936432
134	0x3b04c92f	0.0020261516
135	0xbd8d0245	-0.068851985
136	0xbd73cd38	-0.059521884
137	0xbcc8e209	-0.024521844
138	0xbd97446c	-0.07386097
139	0x3d1cd04d	0.03828459
140	0xbdc15a70	-0.09441078
141	0x3c93b2b5	0.01802955
142	0xbd32b3fc	-0.043628678
143	0xbdbe6114	-0.0929586
144	0xbc3ae80a	-0.0114078615
145	0xbd29331b	-0.041308504
146	0x39acd8c4	0.000329679
147	0xbd877ce2	-0.066156164
148	0xbd6ecf5e	-0.05830323
149	0xbc9cc00b	-0.019134542
150	0xbd910722	-0.070814386
151	0xbcafe752	-0.021472607
152	0x3b07620c	0.0020657806
153	0x3d03d503	0.032185566
154	0xbdaf49b3	-0.08558979
155	0xbae28dd8	-0.0017284704
156	0xbc2e00dd	-0.010620323
157	0xbd144f5c	-0.036208495
158	0xbcf22eae	-0.029563274
159	0xbd5997ee	-0.053123407
160	0xbcf81764	-0.030284591
161	0xbd6ef95f	-0.058343288
162	0x3d28b6e4	0.041190043
163	0x3cc201cc	0.023682497
164	0xbd57a2fd	-0.052645672
165	0xbdb19d08	-0.086725295
166	0xbdd4ac78	-0.10384458
167	0xbcf715f8	-0.030161843
168	0x3cc8adad	0.024496878
169	0xbd53ec95	-0.051739294
170	0x3d14499e	0.03620302
171	0xbc2932cd	-0.010327053
172	0xbcf28f6f	-0.02960941
173	0xbd376465	-0.044773478
174	0xbcdaace9	-0.026693778
175	0x3d099792	0.033591814
176	0x3cd28ecd	0.025702858
177	0xbdf4ee31	-0.11959494
178	0x3cae6a06	0.02129079
179	0x3cd27c4a	0.025694031
180	0xba5d544a	-0.0008443041
181	0xbcfbae68	-0.030722812
182	0xbdc549cc	-0.09633216
183	0x3d983cbb	0.074334584
184	0xbc1e70c4	-0.00967044
185	0xbd09645b	-0.033542972
186	0x3bec6c26	0.0072150407
187	0x3c1ab686	0.009442931
188	0xbd358523	-0.044316422
189	0x3c58ea75	0.013239493
190	0x3cc74eb0	0.024329513
191	0xbcd1bd3a	-0.025602926
192	0xbd38a01e	-0.045074575
193	0x3cc67593	0.024225986
194	0xbb281916	-0.0025649718
195	0xbd27e30f	-0.040988024
196	0xbdbfb6de	-0.09361051
197	0xbe3460c1	-0.17615034
198	0xbe09b574	-0.13448125
199	0xbd0b61c9	-0.034028802
200	0x3c52869b	0.012849475
201	0xbe02b6ec	-0.12765092
202	0xbd5ab116	-0.05339154
203	0x3cb1bc00	0.02169609
204	0xbd97d90f	-0.074144475
205	0xbc6fcd35	-0.0146363275
206	0x3c83223a	0.016007531
207	0xbca2f520	-0.019892275
208	0xbbbda680	-0.0057876706
209	0x3c932910	0.017963916
210	0xbdc5e8ee	-0.096635684
211	0xbcc6e42b	-0.02427872
212	0xbd754314	-0.059878424
213	0xbd569857	-0.052391376
214	0xbddbc6e5	-0.107312955
215	0xbc3f30b0	-0.011669323
216	0xbced8e37	-0.028998477
217	0xbd7407e3	-0.059577834
218	0xbdbf7e37	-0.093502454
219	0x3ce18efe	0.027534004
220	0xbd4fa408	-0.05069354
221	0xbc8e0e50	-0.01734081
222	0x3d21bbf0	0.03948587
223	0xbdb434e8	-0.087991536
224	0xbdafa454	-0.08576265
225	0x3d187f08	0.03723052
226	0xbd422a3f	-0.04740357
227	0xbc9bc599	-0.01901512
228	0xbcbd1cd4	-0.023085035
229	0xbdacdfd2	-0.08441128
230	0xbd81b50a	-0.063333586
231	0xbd61951b	-0.05507384
232	0xbbfca6dc	-0.007710321
233	0x3d4f9fd3	0.05068953
234	0xbbc199a8	-0.00590821
235	0xbd81a8bf	-0.06331014
236	0xbc956267	-0.018235398
237	0xbd42aa92	-0.04752595
238	0xbd16be57	-0.036802616
239	0x3c784eae	0.015155477
240	0x3d666b1f	0.056254502
241	0x3d27f73a	0.041007258
242	0xbdb20b96	-0.08693616
243	0xbcc10963	-0.023564046
244	0xbcf87d56	-0.030333202
245	0xbd1776bf	-0.03697848
246	0xbd1581c3	-0.036500704
247	0xbd3e5478	-0.046467274
248	0xbdda26a0	-0.106518984
249	0xbdb14f8a	-0.08657749
250	0x3cbd576a	0.023112971
251	0x3bce7980	0.006301105
252	0xbd783f3b	-0.060607176
253	0xbd671816	-0.056419455
254	0xbd8c686f	-0.068558566
255	0xbd322f00	-0.043501854

BN1.running_mean f4 [256]
0	0xc1143be4	-9.264622
1	0x408c7c8d	4.390204
2	0x40c214f4	6.0650578
3	0x40f81e0f	7.7536693
4	0xc0dd5352	-6.916421
5	0x41022610	8.134293
6	0x41c2461c	24.284233
7	0x415fd379	13.989129
8	0x410bd447	8.739326
9	0xc0476f8d	-3.1161835
10	0x409c21f3	4.879144
11	0x419e07bf	19.753782
12	0x41079ecd	8.47627
13	0xc0940367	-4.6254153
14	0xc0574ce9	-3.3640692
15	0x3fac683d	1.3469311
16	0x4176a94e	15.416334
17	0xc1412afb	-12.072993
18	0x4147a76f	12.478377
19	0x414d1fef	12.820296
20	0xc0336a33	-2.803357
21	0x415a4aa9	13.643228
22	0x400aff4b	2.1718318
23	0x40a316de	5.0965414
24	0xc001ce34	-2.0282106
25	0x3e713610	0.2355578
26	0xc1023857	-8.138755
27	0x40b34e85	5.603335
28	0xc0836289	-4.105778
29	0xbfb88945	-1.4416891
30	0x40b9c58d	5.805365
31	0xc0a1edaf	-5.060264
32	0x40ee3849	7.4443707
33	0xbf5e0b56	-0.8673605
34	0x40b70d7c	5.720396
35	0xc1048e1d	-8.284696
36	0xc108a074	-8.539173
37	0x405aad52	3.4168286
38	0x403e4b0d	2.9733307
39	0xc05f5c96	-3.490026
40	0x415154b8	13.083183
41	0x41825e30	16.29599
42	0x40ade8c8	5.4346657
43	0x3feaa440	1.8331375
44	0xc0ee1dd4	-7.441141
45	0x405376e9	3.3041327
46	0x41245a19	10.2719965
47	0x3f9d9dc0	1.2313766
48	0xc0fbda96	-7.870433
49	0xc0bb797c	-5.8585796
50	0xc0d14d83	-6.540712
51	0xc0f507d0	-7.6572037
52	0x409f8dbe	4.9860525
53	0xc164ab5b	-14.291835
54	0x4073b8fc	3.8081656
55	0x4040c4ee	3.0120196
56	0xbff0b61f	-1.8805579
57	0x40b95d4a	5.792638
58	0xc11096b2	-9.036791
59	0x40c054a3	6.0103316
60	0x4002148d	2.0325043
61	0xc1822b15	-16.271036
62	0x400ba572	2.181973
63	0xc097f09d	-4.7481217
64	0xbfd03137	-1.6265019
65	0xbfdb8d20	-1.7152443
66	0x415f3e27	13.952674
67	0x408a83df	4.3285975
68	0xc1288f60	-10.535004
69	0x3f1de064	0.6167052
70	0xc01f7bf3	-2.4919403
71	0xc0eb12ae	-7.34603
72	0xbff9497f	-1.9475554
73	0x413095f8	11.036613
74	0xc155fc73	-13.374133
75	0x40ebe460	7.371628
76	0x410047f6	8.017569
77	0xc0e26834	-7.07522
78	0x40fd96a1	7.9246373
79	0xc081ccdd	-4.0562577
80	0x3fb77404	1.433228
81	0x3e1927dd	0.14956613
82	0x40c77ed2	6.234231
83	0x413eecff	11.93286
84	0xc0949137	-4.6427264
85	0x3d3c039c	0.04590188
86	0xc1292b6f	-10.573104
87	0x4054afed	3.3232377
88	0xbf67033f	-0.9023933
89	0x4055ad30	3.3386955
90	0x408d6794	4.418894
91	0x411f8a56	9.971273
92	0x3fcae8b7	1.5852269
93	0xc1068711	-8.407975
94	0xbca2c883	-0.019871002
95	0x4087257b	4.2233253
96	0x408f82c4	4.4847126
97	0xbf4fa747	-0.8111462
98	0xc13dd568	-11.864601
99	0xc0d54acb	-6.66538
100	0x40b8b4ec	5.772085
101	0xc033746e	-2.8039813
102	0x40a8eaac	5.2786465
103	0x4094e221	4.6526036
104	0x4181194e	16.137356
105	0xbf8f2552	-1.1183264
106	0xc0f536a6	-7.662921
107	0xc0e1af4a	-7.0526476
108	0xbfcba8ab	-1.5910848
109	0x4102c21f	8.172393
110	0xc14695e5	-12.411595
111	0xc0f08133	-7.5157714
112	0x410a6b03	8.651126
113	0xc167764c	-14.466381
114	0x400575fd	2.0853264
115	0x41056ca1	8.339021
116	0xc1208c0c	-10.034191
117	0xc14ec38e	-12.922743
118	0x3fc8a5ab	1.5675558
119	0xc11bf23b	-9.746638
120	0xc10d612e	-8.8362255
121	0xc17743eb	-15.454082
122	0x40adc27b	5.4299903
123	0xc0b89e51	-5.7693257
124	0x3e40e586	0.18837556
125	0xc0daea26	-6.8410826
126	0xc0b58a40	-5.673126
127	0xbf280ff5	-0.6564935
128	0xc099c572	-4.805352
129	0xc12b57b1	-10.708909
130	0x3f1ad2cd	0.60477906
131	0xc12f4dc4	-10.956486
132	0xbea1b0c8	-0.31580186
133	0xc00c41e5	-2.191522
134	0x3f60a21e	0.8774737
135	0x412d2e2a	10.8237705
136	0xbdcb1fed	-0.09918199
137	0xbf7e7733	-0.99400634
138	0x404540e0	3.0820847
139	0x416f36c6	14.950872
140	0xc0b2990a	-5.5811815
141	0xc11055d7	-9.020957
142	0x40bc0683	5.875795
143	0x4123c420	10.235382
144	0x3eb423ad	0.35183468
145	0x3e94b444	0.29043782
146	0xc1251513	-10.317645
147	0x3fa03db9	1.2518836
148	0xc030e832	-2.764172
149	0x3e4b97c4	0.19882113
150	0xbfa7e932	-1.311804
151	0xc030406f	-2.7539327
152	0xc0f84fd6	-7.7597456
153	0x41049d24	8.288364
154	0xbfce1720	-1.6100807
155	0xc0d6081a	-6.688489
156	0xc0513707	-3.2689836
157	0xc1860656	-16.753094
158	0xc1472d57	-12.448569
159	0x4115bcd2	9.358599
160	0xc04d7ba4	-3.2106714
161	0xbeb0a5d0	-0.34501505
162	0xc128ef62	-10.558443
163	0x4110242f	9.008834
164	0xc146c627	-12.423377
165	0xc124c63b	-10.298396
166	0xbee7cb4b	-0.45272288
167	0x418c029f	17.50128
168	0xc19253a2	-18.290836
169	0xc0184bbc	-2.3796225
170	0xbde9a316	-0.11408059
171	0x4143b70b	12.232188
172	0x41741cce	15.257032
173	0x3f96719d	1.1753422
174	0xbf9a945e	-1.2076528
175	0xc07c10d0	-3.9385262
176	0xbfd9d6c4	-1.7018666
177	0x41246356	10.274252
178	0x40ceef2b	6.4666953
179	0xc179cc02	-15.612307
180	0xc1047cc7	-8.280463
181	0xbf5ee46f	-0.8706731
182	0x413ea5c8	11.915474
183	0x416cb000	14.792969
184	0x3ff2a154	1.8955483
185	0xc11dec2b	-9.870158
186	0x40e8f6bf	7.2801204
187	0x408f6ad3	4.48179
188	0x3eabff22	0.33593088
189	0x40617c07	3.523195
190	0x40ed0e23	7.4079757
191	0xc09e3e12	-4.945077
192	0xc115bb5a	-9.35824
193	0x40851341	4.1586003
194	0x3fe0cad0	1.7561893
195	0xc10c8898	-8.783348
196	0x3f97beb1	1.1855069
197	0xc1314064	-11.07822
198	0x4189fa92	17.247349
199	0xc087ab20	-4.2396393
200	0xc1447758	-12.279137
201	0xc11a4dfe	-9.644041
202	0x3fe63049	1.7983485
203	0xc09ea434	-4.9575443
204	0xc110ba54	-9.04549
205	0x41579fbb	13.476497
206	0x415ec029	13.921914
207	0xc13c6937	-11.775687
208	0x409af3d5	4.8422647
209	0xbf555369	-0.833304
210	0xc136ab35	-11.416799
211	0x4055b513	3.339177
212	0x408ac8b2	4.336999
213	0xc0e5a633	-7.176538
214	0xbf9575c7	-1.1676568
215	0x3fd5157f	1.6647185
216	0x403b6c21	2.9284747
217	0xc05e2188	-3.4707966
218	0x3ed693e4	0.41909707
219	0xc062960d	-3.5404084
220	0xc0c6376d	-6.194266
221	0xc15d6686	-13.83753
222	0xc07beda8	-3.9363804
223	0x3f12552b	0.57161206
224	0xc08422ed	-4.1292634
225	0x3f59d841	0.850956
226	0xbfd95821	-1.698002
227	0xc124639a	-10.274317
228	0x40835ba4	4.1049366
229	0xc10742d6	-8.453817
230	0x40bedef9	5.9647183
231	0x3f590d98	0.8478637
232	0x40585618	3.3802547
233	0xc1559043	-13.34772
234	0x3fc2c6df	1.5216941
235	0x3c3c651c	0.011498716
236	0xc10bf156	-8.74642
237	0x4057c05c	3.3711157
238	0xc056a9d7	-3.3541162
239	0x41a8cb46	21.099255
240	0xc0153564	-2.3313837
241	0x40d0401b	6.5078254
242	0xc044c901	-3.0747683
243	0x40c52e7a	6.1619234
244	0x40862c89	4.1929364
245	0x3f4adbea	0.7924181
246	0xc100a9dc	-8.04147
247	0xc09b7079	-4.8574796
248	0xc1a4f480	-20.619385
249	0x4096508d	4.697333
250	0x41908729	18.065996
251	0xc0a85bb2	-5.2611933
252	0xc10b3c31	-8.702195
253	0xc0d21f00	-6.566284
254	0x40d13e15	6.5388284
255	0xc0d3dcdb	-6.62071

BN1.running_var f4 [256]
0	0x4265db38	57.46408
1	0x422b7e81	42.87354
2	0x43068bf9	134.54677
3	0x42bdb432	94.851944
4	0x4320d625	160.8365
5	0x43476eb7	199.43248
6	0x4314b08c	148.68964
7	0x42c8962f	100.29333
8	0x43084c5f	136.29832
9	0x4301a00a	129.62515
10	0x4325e7c9	165.90541
11	0x433e0e3f	190.05565
12	0x42b68336	91.25627
13	0x42b9c67e	92.88768
14	0x42764e4d	61.576466
15	0x431c8752	156.5286
16	0x42df868d	111.762794
17	0x42b3ae76	89.840744
18	0x4278488b	62.070843
19	0x430de54d	141.8957
20	0x42dff3e6	111.976364
21	0x4233b713	44.928783
22	0x41d10782	26.128666
23	0x428139f1	64.61317
24	0x42385354	46.081375
25	0x42c61f93	99.06167
26	0x42631362	56.76893
27	0x4294bb2c	74.36557
28	0x4248890b	50.13383
29	0x4353f379	211.95107
30	0x428298e3	65.29861
31	0x42f5c8cf	122.892204
32	0x42b58407	90.757866
33	0x42b814e8	92.04083
34	0x42dfd9b9	111.92524
35	0x42382b94	46.042557
36	0x4253d80f	52.960995
37	0x42bb5e12	93.68373
38	0x4302d7b3	130.84258
39	0x42439ec7	48.905056
40	0x437c3774	252.21661
41	0x426d4ae4	59.323135
42	0x428406ad	66.01304
43	0x4295996c	74.79965
44	0x43835a0e	262.70355
45	0x42e9ec0c	116.96103
46	0x42b3c293	89.88003
47	0x42203a7b	40.05711
48	0x42c90d10	100.52551
49	0x42968bf6	75.27336
50	0x42eecb27	119.39678
51	0x42b6db18	91.42792
52	0x42844bbe	66.147934
53	0x42ec82f7	118.25579
54	0x427aa483	62.660656
55	0x42cb3494	101.60269
56	0x429495f9	74.292915
57	0x42c861e5	100.1912
58	0x427d08aa	63.25846
59	0x41ccf95b	25.621756
60	0x42478b73	49.88618
61	0x42aefc59	87.49287
62	0x428cb5f9	70.355415
63	0x42bb64ae	93.69664
64	0x432a344a	170.20425
65	0x42523263	52.549206
66	0x429bb794	77.85855
67	0x42a4fe7a	82.497025
68	0x43135b73	147.35722
69	0x429c7d90	78.24524
70	0x42e6042f	115.00817
71	0x4268e7b6	58.22628
72	0x428f3f4e	71.62364
73	0x427739e8	61.80655
74	0x42c19172	96.78407
75	0x422a9bf9	42.652317
76	0x42986e08	76.214905
77	0x4233845d	44.87926
78	0x42b852f3	92.16201
79	0x421f0538	39.755096
80	0x4211f681	36.490726
81	0x42aed7de	87.421616
82	0x42844d18	66.15057
83	0x4385164d	266.17422
84	0x42815783	64.67092
85	0x421970f7	38.360317
86	0x4300ad3f	128.67674
87	0x423af4fc	46.739243
88	0x426aca4d	58.69756
89	0x42e47f62	114.248795
90	0x42d2aceb	105.33773
91	0x425a1e52	54.52961
92	0x42703e1d	60.060658
93	0x426858a6	58.08657
94	0x42a1e3a3	80.9446
95	0x4282091e	65.01781
96	0x42c402fa	98.00581
97	0x423c27e8	47.03897
98	0x42a91f2a	84.56087
99	0x42e8acea	116.33772
100	0x42f23c31	121.11756
101	0x430f2fdc	143.18695
102	0x42282256	42.03353
103	0x433b24d6	187.14389
104	0x4287f0d0	67.97034
105	0x4232a999	44.665623
106	0x424fda9d	51.96349
107	0x4295704b	74.71932
108	0x42791853	62.273754
109	0x42b6b12f	91.34606
110	0x430f5f04	143.37115
111	0x42ae2cc6	87.08745
112	0x42710b13	60.260815
113	0x429d3278	78.59857
114	0x42885e19	68.183784
115	0x42390388	46.25345
116	0x4239bdea	46.435463
117	0x42ae588b	87.172935
118	0x42a21e98	81.05975
119	0x4265b57e	57.42724
120	0x42cf6683	103.70022
121	0x42ef1367	119.537895
122	0x42b0b2d5	88.34928
123	0x4313723b	147.44621
124	0x4298ade4	76.33963
125	0x431f573e	159.34079
126	0x4213c56c	36.942795
127	0x426cd575	59.208454
128	0x43007d16	128.48862
129	0x428dbba8	70.866516
130	0x42a8973c	84.29538
131	0x42d62bc9	107.08552
132	0x435ec509	222.76967
133	0x428a3d0e	69.11925
134	0x4315fc8b	149.9865
135	0x4296e4c8	75.44684
136	0x42b48ae7	90.27129
137	0x4273ec98	60.98105
138	0x429c6a3e	78.207504
139	0x42f15a5d	120.67649
140	0x422d3b05	43.307636
141	0x42854cd5	66.65006
142	0x4258f27f	54.236813
143	0x430b1e9c	139.11957
144	0x4186318b	16.77419
145	0x42d142db	104.63058
146	0x42a3c128	81.87726
147	0x4310e60c	144.89862
148	0x425c610c	55.094772
149	0x42868cc7	67.274956
150	0x4298d320	76.41235
151	0x4327f42b	167.95378
152	0x422a888d	42.63335
153	0x431c8d4e	156.55197
154	0x4213b027	36.922024
155	0x427728ea	61.789955
156	0x42568475	53.629353
157	0x42b15cb9	88.6811
158	0x42ab1f5b	85.56124
159	0x42f25f75	121.18644
160	0x41e61e70	28.764862
161	0x42f425fc	122.07419
162	0x42beff44	95.498566
163	0x431c51c2	156.31937
164	0x4294574b	74.170494
165	0x42ec8c3f	118.27392
166	0x4223ec24	40.980606
167	0x4296589c	75.173065
168	0x4303d550	131.83325
169	0x427b686c	62.851974
170	0x420313d9	32.769382
171	0x42ca78b3	101.23574
172	0x429aed18	77.46307
173	0x42b55bfe	90.67967
174	0x4280065d	64.01243
175	0x422846bb	42.069073
176	0x4298dead	76.43491
177	0x4255b9ef	53.431576
178	0x430fd31e	143.82468
179	0x43160932	150.03592
180	0x42534f07	52.827175
181	0x4221c24b	40.43974
182	0x429e35cf	79.105095
183	0x4274745f	61.113644
184	0x421ff695	39.990803
185	0x42a59dce	82.80821
186	0x42c71cb1	99.55604
187	0x420d1c22	35.277473
188	0x4230e411	44.22272
189	0x42795b1e	62.33898
190	0x42a4d097	82.4074
191	0x42908783	72.26467
192	0x4317f400	151.95312
193	0x4285a6a3	66.82546
194	0x42aa1dfa	85.05855
195	0x4312ebc2	146.92093
196	0x422f095e	43.759148
197	0x4281dd96	64.932785
198	0x43002004	128.12506
199	0x424433ee	49.050713
200	0x42a38f0d	81.779396
201	0x43219cd4	161.61261
202	0x423d5714	47.335037
203	0x42a54459	82.63349
204	0x42dba6bd	109.82566
205	0x42e75929	115.67414
206	0x42d8c874	108.39151
207	0x42639b1e	56.90148
208	0x4294532f	74.16247
209	0x42b40d99	90.02656
210	0x42672193	57.782787
211	0x42b4aa09	90.3321
212	0x42d9ad96	108.839035
213	0x4284c3ec	66.38266
214	0x4239a9f1	46.41596
215	0x42a44dfe	82.15233
216	0x42ae9320	87.28735
217	0x42e0a068	112.31329
218	0x422fbd23	43.934704
219	0x42934b9c	73.647675
220	0x4284fcab	66.49349
221	0x42be4955	95.14323
222	0x4370ea84	240.91608
223	0x42394e67	46.326565
224	0x43060e29	134.05531
225	0x426fa84c	59.914352
226	0x4284350a	66.10359
227	0x42e3ce29	113.90266
228	0x4331d9a3	177.85014
229	0x429bc4be	77.88426
230	0x432f2de7	175.1793
231	0x424b815c	50.876328
232	0x427807a1	62.00745
233	0x428a66b7	69.200615
234	0x428ea19b	71.315636
235	0x428910db	68.53292
236	0x42baf960	93.48706
237	0x421e9565	39.645893
238	0x42a25655	81.16862
239	0x430ed57e	142.83395
240	0x42830a5b	65.520226
241	0x43288829	168.53188
242	0x42d21b11	105.052864
243	0x423d30c3	47.29762
244	0x42fe77e0	127.23413
245	0x42a923bd	84.5698
246	0x42d3d4d1	105.91566
247	0x432cae34	172.68048
248	0x43440a18	196.03943
249	0x431284a2	146.5181
250	0x43021825	130.09431
251	0x424a9144	50.64186
252	0x42bc5512	94.16615
253	0x42c6ff38	99.498474
254	0x422caaec	43.166916
255	0x42ea7a09	117.23835

L2.weight f4 [128, 256]
0	0x3caac460	0.020845592
1	0xbcedc935	-0.029026607
2	0x3c494a02	0.012285711
3	0x3bb1a94d	0.0054217936
4	0xbc9d7230	-0.019219488
5	0x3d4050c8	0.04695204
6	0xbb6ab5b2	-0.0035813865
7	0x3ccee3d2	0.025255118
8	0xbd251bdf	-0.040309783
9	0xbc385227	-0.011250055
10	0xbd3a4624	-0.045477048
11	0xbd73a867	-0.059486773
12	0x3d2d9f05	0.04238798
13	0x3d52f6f5	0.051505048
14	0x3cc21d0e	0.023695495
15	0x3ca7d01e	0.02048498
16	0x3d1a737c	0.03770779
17	0xb9c0dc76	-0.0003678535
18	0x3cf802ae	0.030274715
19	0x3c274f95	0.010211845
20	0x3c8545e5	0.01626868
21	0xbc13cb03	-0.00902057
22	0x3b7bba6b	0.0038410674
23	0x3d2dc4cb	0.042424005
24	0x3c842733	0.016131973
25	0xbb5437be	-0.0032381858
26	0x3d625270	0.0552544
27	0xbd16996f	-0.03676742
28	0xbd1a5f81	-0.037688736
29	0xbd0312c8	-0.032000333
30	0xbc21cd5a	-0.00987562
31	0x3ca03234	0.019555189
32	0x3d26cec0	0.040724516
33	0x3d2c073e	0.041999094
34	0xbbbba656	-0.005726616
35	0x3d7ad406	0.061237358
36	0x3d41fc16	0.04735955
37	0x3c3702e1	0.01117012
38	0x3c9f9a73	0.019482827
39	0xbc909b86	-0.017652284
40	0x3d8baed7	0.068204574
41	0x3a392cc3	0.000706386
42	0x3bbefba6	0.0058283387
43	0x3c8302d8	0.015992567
44	0xbc189d04	-0.009314779
45	0x3c96a7a2	0.01839048
46	0xbd645ed1	-0.055754486
47	0x3a8a56bc	0.0010554413
48	0x3cfe1f59	0.031020807
49	0xbd029810	-0.0318833
50	0x3a904000	0.0011005402
51	0xbd0f5173	-0.034989785
52	0xbd750396	-0.059817873
53	0x3d47412b	0.048646133
54	0x3d07175e	0.03298127
55	0x3d919444	0.071083575
56	0x3c1c5913	0.009542721
57	0xbc41dae1	-0.01183197
58	0x3d4bcc03	0.049755108
59	0x3cf3e25d	0.029771024
60	0x3c3b8a79	0.011446589
61	0xbd2bd2b1	-0.041948978
62	0x3d80e77c	0.06294152
63	0x3d03fb7b	0.032222252
64	0x3c8f45da	0.017489363
65	0x3d8fd6b3	0.070233725
66	0x3d1939cd	0.03740864
67	0x3d4f4ebe	0.050612204
68	0xbd48230c	-0.04886155
69	0x3db2b95e	0.08726762
70	0xbd1ea7f9	-0.03873441
71	0x3cff25a1	0.031145873
72	0xbd6401a6	-0.055665635
73	0xbd263c07	-0.04058459
74	0x3b71c299	0.003688967
75	0xbccf1d43	-0.025282508
76	0x3d89c632	0.06727256
77	0x3d8948cf	0.0670334
78	0xbc809db8	-0.015700206
79	0xbd6bcb87	-0.057567146
80	0x3d3cd2b4	0.04609938
81	0xbce516c4	-0.027964957
82	0x3d501658	0.05080256
83	0xbc4f087b	-0.012636299
84	0x3ba36a1e	0.0049870154
85	0x3ce8b9bb	0.028408876
86	0xbbc1f02d	-0.0059185238
87	0x3c3d6e30	0.011561915
88	0xbc301220	-0.010746509
89	0x3d4ee29e	0.050509088
90	0x3c73b494	0.014874596
91	0xbd65a8be	-0.05606913
92	0xbcc8314b	-0.024437567
93	0xbd64e1c3	-0.055879366
94	0x3d380e19	0.04493532
95	0x3cb78038	0.022400007
96	0x3be2990f	0.0069152187
97	0x3c0cb9d7	0.00858923
98	0xbd16c185	-0.03680565
99	0xbc5872d9	-0.013210976
100	0x3d61c810	0.055122435
101	0xbd4a34da	-0.04936681
102	0xbd6286d1	-0.055304352
103	0x3d87122b	0.06595262
104	0xbbadb368	-0.005300928
105	0x3d809af2	0.062795535
106	0x3c1250f9	0.008930438
107	0x3c9ae6f4	0.018908955
108	0x3cac9fcf	0.021072296
109	0xbd6560cf	-0.056000527
110	0x3d829f41	0.063780315
111	0x3d7219f9	0.0591068
112	0x3c1bbc20	0.009505302
113	0xbd364288	-0.044497043
114	0xbd85f575	-0.06540958
115	0xbd821f73	-0.06353655
116	0x3d6bc865	0.057564158
117	0xbd59707a	-0.05308578
118	0xbb871411	-0.004122265
119	0x3c966155	0.018356958
120	0xbd14d935	-0.036339957
121	0xbd3e33f9	-0.046436284
122	0x3d6658f8	0.05623719
123	0x3cfe18e9	0.031017737
124	0xbd58d025	-0.052932877
125	0x3cd04c68	0.025427058
126	0x3cfdeee8	0.030997708
127	0xbba31207	-0.0049765143
128	0xbd24583e	-0.040123217
129	0x3d0c7926	0.034295224
130	0xbbabf7a4	-0.005248027
131	0xbd10e64b	-0.035375874
132	0x3c13e6c2	0.009027185
133	0xbc8cc013	-0.017181432
134	0x3ce3e23e	0.027817842
135	0xbcb69003	-0.022285467
136	0xbc905af0	-0.017621487
137	0xbae71a2d	-0.0017631702
138	0x3d45c787	0.048285987
139	0x3d02b830	0.031913936
140	0x3b5ad250	0.0033389516
141	0xbd2ad2da	-0.04170499
142	0x3cd4186f	0.025890557
143	0xbd38e5c5	-0.045141
144	0xbd6199e6	-0.05507841
145	0x3c6002ad	0.013672513
146	0xbca5c53e	-0.020235654
147	0x3d3898a9	0.045067463
148	0x3c00fa50	0.007872179
149	0x3b1bc91c	0.0023770994
150	0xb9734e77	-0.00023203516
151	0xbd18f402	-0.03734208
152	0xbcf9f6fb	-0.030513277
153	0x3d687a7c	0.056757435
154	0xbc7828ad	-0.015146417
155	0xbd0e3be9	-0.034725104
156	0x3d426aaf	0.047465023
157	0x3be8418b	0.0070878915
158	0xbb602793	-0.0034203276
159	0x3cbfd577	0.023417218
160	0xbb2e2842	-0.0026574288
161	0xbc420f0e	-0.01184441
162	0x3cdf3080	0.027244806
163	0x3c3abfcf	0.01139827
164	0x3d3fcaa6	0.04682412
165	0xbc60aaf5	-0.013712634
166	0x3d11adde	0.035566203
167	0x3c360289	0.011109003
168	0xbd138910	-0.036019385
169	0x3ce3356b	0.027735433
170	0x3cf75e7a	0.030196417
171	0xbaa53ed0	-0.001260722
172	0x3ceaaaf3	0.028645968
173	0x3bacd6a8	0.0052746125
174	0xbd4cf2db	-0.050036293
175	0xbd49626a	-0.04916612
176	0x3cb3797b	0.021908512
177	0x3d1504b6	0.036381446
178	0xbd6d1c4e	-0.05788832
179	0xbd614456	-0.05499681
180	0x3cb85a2b	0.022503933
181	0xbd10bd83	-0.035336982
182	0xbcad4dc9	-0.021155255
183	0xbc833ad7	-0.016019268
184	0x3d81a316	0.06329934
185	0xbbbbe581	-0.005734146
186	0x3d57cc65	0.05268516
187	0xbca977dc	-0.020687036
188	0xbd7d925d	-0.06190716
189	0x3d946e1b	0.072475635
190	0xbc64027a	-0.013916606
191	0xbc4581b9	-0.012054854
192	0xbd254925	-0.04035296
193	0x3d43c125	0.04779162
194	0xbaec0f73	-0.0018009975
195	0x3d916193	0.07098689
196	0x3ce599ae	0.028027382
197	0xbd4906e9	-0.049078856
198	0xbb6b3b53	-0.0035893514
199	0x3d847f0e	0.06469546
200	0x3c1d40e4	0.009597991
201	0xbc537b6d	-0.012907845
202	0x3b5dc69c	0.0033840304
203	0xbd532827	-0.051551964
204	0x3ad03587	0.0015885093
205	0xbcba940b	-0.02277567
206	0xbc0712be	-0.008244215
207	0xbd2fd6ad	-0.04292934
208	0xbd044dce	-0.032300763
209	0xbd3a2555	-0.04544576
210	0x3ce021cb	0.027359864
211	0x3d6a771a	0.05724249
212	0x3c3dd053	0.011585313
213	0x3d4b8044	0.04968287
214	0x3c959b66	0.018262576
215	0x3d3c0e39	0.045912
216	0x3d86f1dd	0.065891005
217	0xbc8ddd73	-0.01731751
218	0x3d70a606	0.058752082
219	0x3c41667c	0.011804219
220	0x3d2503c0	0.04028678
221	0xbcd153a4	-0.025552578
222	0xbd32febe	-0.043699972
223	0xbc6c6df5	-0.014430513
224	0xbc27bc96	-0.0102378335
225	0x3c9dc637	0.019259555
226	0x3bf0cd09	0.007348661
227	0x3d131bf8	0.035915345
228	0x3d9a5ba0	0.07537007
229	0x3d34b062	0.044113524
230	0xbcde63c3	-0.02714718
231	0xbd00e54c	-0.031468675
232	0xbba61d60	-0.0050694197
233	0xbbe9c917	-0.0071345675
234	0x3ca7a478	0.020464167
235	0x3d651ce9	0.055935774
236	0x3bfd6bd3	0.007733801
237	0xbd08a33d	-0.0333588
238	0xbd29fcea	-0.041500963
239	0x3d6f304a	0.05839566
240	0x3d5aac99	0.05338726
241	0x3c4fd858	0.012685858
242	0xbd7af98d	-0.061273146
243	0x3d07e86c	0.03318064
244	0xbbf3efe1	-0.0074443673
245	0xbd5e8fcd	-0.054336358
246	0x3c9984ac	0.01874002
247	0x3c77016a	0.015076021
248	0x3d2996f2	0.04140372
249	0x3c9343ca	0.01797666
250	0xbc82eb54	-0.015981354
251	0x3d5d5378	0.05403468
252	0xbd8110c5	-0.06302027
253	0x3d8e01a0	0.06933904
254	0xbbd84884	-0.0066004414
255	0x3d46433a	0.048403956

L2.bias f4 [128]
0	0xbb6e9497	-0.0036404484
1	0xbd2ab1fb	-0.04167364
2	0xbbdedffb	-0.006801603
3	0xbd0fe2f3	-0.035128545
4	0x3cc3e7f4	0.023914315
5	0xbd12bd3c	-0.035825
6	0xbd17a399	-0.037021253
7	0xbd46af29	-0.04850689
8	0xbcbdc7f7	-0.02316664
9	0xbc63d632	-0.013906049
10	0x3c34a94f	0.011026694
11	0x3c93cbf3	0.018041587
12	0xbcc84d7f	-0.024451016
13	0xbd49c2c8	-0.049258024
14	0x3d6e2109	0.058136974
15	0x3d1d0063	0.038330447
16	0xbcbeaa32	-0.023274515
17	0x3b80451a	0.0039144875
18	0xbd4b1200	-0.049577713
19	0xbd4bc933	-0.049752425
20	0x3d62cf30	0.05537337
21	0x3ccd04d1	0.02502671
22	0x3c6e4b57	0.01454433
23	0xbd4115cc	-0.047139928
24	0xbd578ad8	-0.052622646
25	0xbd2a331d	-0.04155265
26	0xbd1714e4	-0.036885157
27	0x3ca0f4a2	0.0196479
28	0x3bc07c2d	0.005874178
29	0x3cf863bb	0.030320993
30	0x3caf3dc2	0.021391753
31	0xbc209b04	-0.009802584
32	0x3aa36e32	0.0012468754
33	0x3d0361de	0.032075755
34	0xbb97a773	-0.004628116
35	0x3bcca204	0.0062448997
36	0x3bb74a39	0.005593565
37	0xbc2bc234	-0.010483313
38	0xbca39559	-0.019968675
39	0x3ca37729	0.01995428
40	0x3d5bd99e	0.053674333
41	0xbd4d1a5b	-0.050073963
42	0xbb8bf4d7	-0.0042711305
43	0xbce22e41	-0.027609946
44	0xbc047789	-0.00808514
45	0x3cba0ef0	0.0227122
46	0xbd61aafd	-0.055094708
47	0x3cef88ee	0.029240098
48	0x3cbbe53e	0.02293646
49	0xbcfbbcbd	-0.030729646
50	0xbd14b07f	-0.036301132
51	0xbcb4098d	-0.02197721
52	0xbb2d998d	-0.0026489228
53	0xbd10bd7a	-0.03533695
54	0x3d64f45d	0.055897105
55	0xbb820d76	-0.00396889
56	0xbcccf8b4	-0.025020935
57	0xbd4331e4	-0.047655
58	0x3cc40c57	0.023931665
59	0xbd09a2c1	-0.03360248
60	0x3cabfd3b	0.020994773
61	0xbc2e5c6d	-0.010642153
62	0xbce05fdc	-0.02738946
63	0x3cae4d33	0.021277046
64	0xbd7ad023	-0.06123365
65	0x3d1f2345	0.038851995
66	0xbb451ff9	-0.0030078872
67	0x3bd873cb	0.0066056005
68	0x3d1172b3	0.035509776
69	0xbca292bc	-0.019845359
70	0x3ccb2ead	0.02480253
71	0xb92cd5d9	-0.00016482863
72	0xbc959b25	-0.018262455
73	0x3d3cb42d	0.046070267
74	0x3bcc118c	0.0062276777
75	0x3d29b5f0	0.041433275
76	0xbc91953f	-0.017771361
77	0x3cf8389f	0.030300437
78	0x3cef3116	0.02919821
79	0x3d135f4f	0.035979565
80	0x3d059e43	0.032621633
81	0x3d0fdfa6	0.035125397
82	0xb9cced9f	-0.00039086954
83	0x3baf61ae	0.0053522205
84	0xbd4c1c08	-0.04983142
85	0x3d3606fd	0.04444026
86	0x3c967f8c	0.018371366
87	0xbc87efa1	-0.016593756
88	0xbd5092ff	-0.050921436
89	0xbcd7c800	-0.026340485
90	0xbb8d8beb	-0.004319658
91	0x3cf93914	0.030422725
92	0xbb485869	-0.0030570275
93	0x3cc090a3	0.023506468
94	0x3c428d5e	0.011874525
95	0x3d75be5a	0.059995987
96	0x3d6b6d37	0.057477202
97	0x3d299b6c	0.041407987
98	0xbd7d4d85	-0.061841507
99	0xbcc292f5	-0.023751715
100	0x3cd6e54f	0.02623239
101	0x3d268594	0.040654734
102	0x3d270db7	0.040784564
103	0xbcbca63f	-0.023028491
104	0x3c00e315	0.007866641
105	0x3c35895d	0.011080113
106	0x3cde07bf	0.027103303
107	0xbd40453c	-0.046941027
108	0xbd6b7a68	-0.057489783
109	0x3d6a18e3	0.05715264
110	0x3c30c170	0.010788307
111	0x3cfe4ab4	0.03104148
112	0xbd444e63	-0.047926318
113	0xbc16ef93	-0.009212392
114	0x3cc7baba	0.02438103
115	0xbd551db4	-0.05203028
116	0xbd289f14	-0.041167334
117	0xbbba645f	-0.0056882347
118	0xbc9e215c	-0.019303016
119	0x3d663038	0.05619833
120	0xbd55f4e0	-0.052235484
121	0xbd440dd2	-0.047864743
122	0xbcabad8d	-0.020956779
123	0xbc8fd1e3	-0.017556136
124	0xbd71e59a	-0.059056856
125	0xbb1f25c0	-0.0024283975
126	0x398d17f6	0.00026911468
127	0x3d270e20	0.040784955
