Trained_Models/BotDetection_v4_MLP___May-10-2024/BotDetection_v4_MLP_epoch00_val_loss_0.517943.pth (torch, 939551 bytes, 45 tensors)

L1.weight f4 [256, 133]
00000000: 612a 7d3c c27d 6a3d 3962 a43d 1af0 06bd
00000010: 36d6 0a3c adb3 c73c 74df 913d 451b b0bd
00000020: 480e 0a3c c6e7 8abd 5a2a 963d f051 133d
00000030: b316 55bd 1e79 7dbd a9d9 bebd 1494 873d
00000040: 94b5 663d 8dd0 2bbd da5c 21bc e99c 64bd
00000050: 43e3 57bd 65f0 fab9 1a00 96bd 5d83 253c
00000060: d129 613d 29ac 9cbd 992e 9dbc ed96 49bb
00000070: 09e8 b03c e50e 18bc a17c 8dbd 7e65 fabc
00000080: 6d9b abbd 9f9d 33bc da04 00bd 4f11 a73d
00000090: 1d56 acbb f695 563d b704 a2bd f927 3ebc
000000a0: 5142 843d 2f37 4e3d a509 be3c ef59 43bd
000000b0: 9eea 323d fcbc a93d 0b48 eaba ff13 533d
000000c0: 0249 5ebd 8067 233d 8a68 553c 91ff 923d
000000d0: 8825 493d 1185 aa3d 0650 5cbc 577c 10ba
000000e0: 297c d3bb 427c 11bc 16f7 8fbd 0f0c 5cbd
000000f0: cf5d b9bc 412a 66bd ca05 a1bd 4e91 1abd
00000100: d5de 213c 96d6 b1bd 5b6a c03c c09c b63d
00000110: fc14 cdbc abcd 3abd b840 823d c595 263c
00000120: a693 2d3d e4a0 77bd de2c 6fbd f2ce 0ebd
00000130: 6a9e 92bd 85ea cdbc 2f25 8cbc 1275 093d
00000140: a3d8 a23c a888 93bd ee66 f33b 082b f7bc
00000150: c4de d53c 2bb6 753d 56ae 53bd f2cc 60bc
00000160: 48e3 8f3c 9b48 663d 2655 27bd 4fe9 a83d
00000170: caa6 9abd 4775 963d 508b 4e3b b2f8 8d3d
00000180: 4b79 ab3d c313 12bd 3a75 29bd 904d 513d
00000190: 0b0b 65bd a44f bb3b 7f45 2e3c 246b 85bd
000001a0: 0720 80bd 6773 853d 3ede f33c beab 4d3b
000001b0: 3422 40bd 51ad a8bd fbfb 1b3d 5189 64bd
000001c0: abc4 5dbd 5eb0 31bc fe3f 543c a058 3cbc
000001d0: 9f5e ff39 cebc a33d 144a a33d 5731 793d
000001e0: 8ab4 f3b9 e0ac 893d 495d 7837 c5e6 953d
000001f0: e227 213d daee 16bd f491 6a3c 18f3 2e3d
00000200: 4356 28bd 3907 8cbc 0e6d 69bc 242e ba3c
00000210: b176 0cbd ba45 79bc 7294 96bb 2d0c e33a
00000220: d7e7 a53c 2c8c b9bc 3add 883c b273 a5bd
00000230: c3cf b1bc 42dd 7a3d dd79 1b3c 88db 75bb
00000240: b628 abbb 362b 6fbd 77ae 263c f33e 6b3d
00000250: 2811 ab3c 2e3f 89bd 5131 f9bc 5d71 f1bc
00000260: 4628 803d 7a26 ccbc cb26 fe3c b538 09bd
00000270: cdbf debb bb9d 98bd 091c 03bc 26c4 a5bd
00000280: db86 493d 1d2a 9fbd 70a8 96bd 195a d03c
00000290: 7639 7fbc ab3c 733d 7da7 603d 2fc1 553c
000002a0: 082d acbc 8ea5 853d c80f 833c 4719 aa3d
000002b0: f58a 043d 8efe 85bd 3ff4 8dbd 6c13 fe3c
000002c0: 1f8c 8abb 115d 9e3d 43dc 4ebd 48be 2b3d
000002d0: cb57 4f3d 888b 653d 7ae1 033d 539d 20bd
000002e0: 5fff 953d e073 a23c c453 02bc 4aba 763d
000002f0: 02c5 2d3b a6b4 c8bb d094 05bc 762e 6c3d
00000300: 5d06 d1bb 03ec 913d f996 053d b1e6 423d
00000310: ace3 82bd 5896 533d ba92 823d 5735 063c
00000320: 934c 0c3c da6a dbbb 5f3f 17bd dea0 22bd
00000330: b740 9e3d 6c8b 34bd 5b5c 83bd 3be7 a7bc
00000340: 373b 9b3c 0d66 913d ffd4 88bd 84fe 9fbb
00000350: d772 53bc bb5e 623c fae5 76bd 9787 9bbd
00000360: afbb 82bd 3682 a63d 68cb 26bd ec7d 8a3d
00000370: 3432 c0bb 4669 803d 2fdc 7cbd 2134 ee3c
00000380: f145 c9bc 7d15 9dbc b757 4cbd c6eb ee3c
00000390: b836 67bd 8600 6abd 2d66 ee3c c7eb 08bd
000003a0: 2cbd 9f3c 3433 633d 66ed a73d aac7 b03d
000003b0: 564c 5d3d 3b4c 8d3c 618e a03d cd30 993d
000003c0: 2690 213b 8a37 9ebb be10 aa3c 9b89 06bd
000003d0: a1e0 8cbc 0a9c 643d fc6e 8abd 6664 bc3c
000003e0: 8807 3abd bcba 4d3d aef2 a23d c90e aa3d
000003f0: 0239 9ebd e780 52bd bcf4 53bd b3dc a3bd
0.015451998 0.05724884 0.08026547 -0.032943822 0.008473923 0.024377668 0.071226984 -0.08598951
0.0084262565 -0.067824885 0.07332297 0.035966814 -0.0520236 -0.061883084 -0.09318859 0.066200405
0.05632551 -0.041946936 -0.009848798 -0.055813704 -0.052706968 -0.00047862824 -0.07324238 0.01010212
0.05497152 -0.076500244 -0.019187259 -0.0030760125 0.021595018 -0.009280895 -0.06908537 -0.030565973
-0.083792545 -0.010962873 -0.031254627 0.08157598 -0.005259289 0.052389108 -0.079110555 -0.01160621
0.06457961 0.050345596 0.023197958 -0.04769319 0.04368078 0.08287999 -0.0017874254 0.05153274
-0.054268844 0.039893627 0.013025412 0.07177652 0.04910806 0.08326162 -0.013446813 -0.0005511692
-0.00645401 -0.008879723 -0.0702955 -0.053722437 -0.02262774 -0.05619264 -0.07862432 -0.03773623
0.009879787 -0.08683507 0.023488214 0.089166164 -0.02503442 -0.045606297 0.0636 0.010167544
0.042377137 -0.06045617 -0.058392398 -0.034865327 -0.07159121 -0.025136242 -0.017107574 0.033558913
0.019878691 -0.072037995 0.0074280417 -0.030171886 0.0261072 0.059988182 -0.05167993 -0.013720738
0.01756443 0.056221586 -0.04085269 0.08247625 -0.07551344 0.07346588 0.0031516142 0.069322005
0.08372744 -0.035663377 -0.04137156 0.05109936 -0.055918735 0.005716281 0.010636686 -0.06514576
-0.06256109 0.06516152 0.02976906 0.0031382884 -0.04690762 -0.082361825 0.038082104 -0.055795018
-0.054142635 -0.010845272 0.01295471 -0.011495739 0.00048707888 0.07994996 0.07973114 0.06083807
-0.00046483084 0.067224264 1.4803672e-05 0.073194064 0.039344676 -0.03684888 0.0143170245 0.0427123
-0.04109789 -0.017093288 -0.014247192 0.02272708 -0.03429288 -0.015214378 -0.004595333 0.0017322354
0.020252151 -0.022649847 0.016707052 -0.08078708 -0.021705514 0.061246164 0.009489504 -0.0037514884
-0.005223359 -0.05839082 0.010173432 0.05743308 0.020882204 -0.06701504 -0.030419024 -0.029473001
0.062576815 -0.02492069 0.031024357 -0.033501346 -0.006797767 -0.0745196 -0.00800229 -0.08094053
0.049200874 -0.07771704 -0.07356346 0.025433587 -0.015577665 0.05938403 0.05484723 0.013046547
-0.021017566 0.06525718 0.015998736 0.083056025 0.032359082 -0.06542693 -0.06931352 0.03101512
-0.0042281295 0.07732595 -0.050503027 0.041929513 0.050620835 0.05604127 0.032197453 -0.039212536
0.07324099 0.019830644 -0.007954542 0.060236253 0.002651513 -0.0061250506 -0.008153155 0.057661496
-0.0063789324 0.07125094 0.032614682 0.047583286 -0.06391081 0.05165705 0.06375642 0.008191428
0.008563179 -0.0066960873 -0.03692567 -0.039704196 0.07727187 -0.044078276 -0.064141 -0.020496001
0.018949134 0.07099543 -0.06681251 -0.0048826355 -0.012905798 0.013816531 -0.060277916 -0.07594221
-0.06383454 0.081303045 -0.040721327 0.06762299 -0.0058653597 0.06270079 -0.06173342 0.029077591
-0.024569483 -0.019175285 -0.04988834 0.02916516 -0.05644867 -0.057129405 0.029101456 -0.03342798
0.019499384 0.055468753 0.08199577 0.08631833 0.054027878 0.017248264 0.078396566 0.07480011
0.002465257 -0.004828398 0.020759936 -0.032846075 -0.017196955 0.055812873 -0.0675945 0.022997092
-0.04541734 0.050226912 0.07956444 0.08303601 -0.07725717 -0.051392462 -0.05174707 -0.080010794

L1.bias f4 [256]
00000000: 93e8 a6bd 059b 97bc 0903 7b3d 675b 8abc
00000010: 0948 b2bc 6111 7abd dbdc 053d fcc4 2a3d
00000020: c3e1 56bd 35af 9dbd daf7 bdbc ff20 783d
00000030: 1dde 83bd fa80 12bd 5e46 aebd 3552 21bc
00000040: 52f8 973c e74c 103d f76b 29bd 7c9e a93d
00000050: ae92 ef3b f17f 7dbd 8d8c 8e3c e44d 023d
00000060: c127 653d 5d94 7b3d 7be8 b4bc 297b 8ebc
00000070: 7de1 31bd 0df4 103d a768 87bd 14ee bdbc
00000080: f722 65bc 786d 91bd 1149 093d 652d a13c
00000090: 0d1e 973d 72e4 5bbd 50cb 9f3d ea8f 153d
000000a0: ad12 dcbc 3356 87bd 9397 a7bd 39e5 013d
000000b0: 32d5 2cbd 5c15 cdbc 1e14 0abd f72c 85bc
000000c0: ad30 f33b a58f 983d 35bd 673d b1f2 833d
000000d0: af84 9e3b 0d42 dabc ef46 23bd 898a 4c3d
000000e0: 8664 efbb 5e74 0a3d 99f5 9ebd d793 323d
000000f0: 9da9 39bd 5233 1abc 5ba9 8e3d e24f 583d
00000100: 747e 4dbd 5e94 923d eec3 8fbd 453c 223d
00000110: 5fa2 653c 796c a33d bc56 103c cfad 99bc
00000120: a937 973d d8d4 52bd b4d8 753d cab8 05bd
00000130: f120 3fbc fb90 19bd 0347 683d 19c8 5ebd
00000140: d48d c9bc 6963 c93b d1aa 9d3d f98b 41bc
00000150: 91f4 17bd 27d0 21bc 7a3e a03c 3c93 1cbd
00000160: c729 b03d 8e76 0f3d 9fac fbbc 5271 4f3d
00000170: dcd1 cebc e590 9b3c 98be 78bc 042c 8abd
00000180: db20 94bd b083 9abd 5e03 45bd 7676 afbb
00000190: 13c5 383c 2613 6a3c 2546 1f3d bf48 af3b
000001a0: 99b9 ac3d 22d2 a5bc 4f46 953c 3fe8 913c
000001b0: 69e3 2e3d 319d 8d3d 5320 053d 03ab 303d
000001c0: 1637 9d3d 6fb6 2b3d 784e a13d 3875 343d
000001d0: 2364 2b3d 454c 31bc 5fb5 5cbd e372 9d3d
000001e0: dee3 363d db61 d43c 8a91 0f3d 9364 c4bc
000001f0: 9773 27bc 25aa 8d3d 0200 b93c 0d20 acbd
00000200: b9a1 8f3d 25bc d23c 45e0 2dbd cdd4 1ebd
00000210: 423c 84bd 3b15 a63d 844a 27bd fea8 1fbd
00000220: 19d5 e33c 9fad 0dbd 3272 3a3d 6032 f9bc
00000230: e9db a9bc c1c6 dbbc b5fc a03b 6d02 323d
00000240: 3e23 5ebc e95d 8b3d 0c0f afbd dacf 87bd
00000250: 47c8 c73c b35e d5bb 3662 57bc 9fa7 cb3c
00000260: add7 90bd 8a28 16bc deda 7bbd 4f0a 9e3d
00000270: 83a4 9a3c 032f 533d add2 63bd bcea a9bc
00000280: c26a 3e3d f9ed 953d 0535 94bd e41b c0bc
00000290: 0be4 7dbc 0361 a43d 7ee1 5bbd 7515 033d
000002a0: 8fc5 813d eb4b 86bd 9b13 a73d 915b aebd
000002b0: 7f77 82bd 15a0 cdbc 36a5 8d3b 9951 4a3b
000002c0: f50d 843d 30bb 983d 3821 c1bc 0a21 a53c
000002d0: 293b f9bc b11a c93c ba31 e0ba 4f8b 253d
000002e0: 7ba8 c63a d060 dcbc e8be 173d 1513 803d
000002f0: 34a3 25bd d09a bd3c 5586 c738 4bb6 ccbc
00000300: 8d53 173d b55f 4a3d 9174 1f3d 7220 97bd
00000310: 0db8 00bd 566f 923d af1a 4b3d 5eee 473d
00000320: 21d3 56bd 46f0 fe3c 2abb 32bc 8074 09bd
00000330: 49ab 533d bd88 aa3d b2c4 1e3d 09dd 813d
00000340: bafd 4abd 0dc0 2e3d fbf5 a3bd 3fd1 aabc
00000350: 861c aabc a80c 92bd 72a9 debc ec02 863d
00000360: 4e88 2ebd 6618 993d 030f 303d 9c33 0fbd
00000370: 68cf 473d 7eff a4bd 0a94 143d 8b26 28bd
00000380: 1834 8cbd 1da8 ae3d f7f0 5abb 0f62 5abd
00000390: 675b af3d 1ff8 b13c 23ae 56bc a73b 06bd
000003a0: 3f27 a03d 6312 453d 8830 a03d 984a 013d
000003b0: 69b2 8b3d 99e5 60ba f99d 9e3c c9df b23c
000003c0: 1ed0 a73d d517 853d e23d 543d f6e7 aabd
000003d0: 14f2 813d f5d0 413d ed9b 9dbc 8b5f 823c
000003e0: 6f6c aebd d31a 46bd b007 893d e48f a3bd
000003f0: 222c fe39 d516 7b3c ebf0 84bb 732e 4fbd
-0.08149829 -0.018506536 0.06128219 -0.016889287 -0.021762865 -0.06105173 0.032681327 0.041691765
-0.052461397 -0.07699434 -0.023189474 0.060578343 -0.06438849 -0.035767533 -0.08509515 -0.00984626
0.018551026 0.03522959 -0.04136273 0.082821816 0.0073111868 -0.061889593 0.017401004 0.031812564
0.055946115 0.061420787 -0.022083512 -0.017392712 -0.043427933 0.035388995 -0.06611758 -0.023184814
-0.013985387 -0.07100958 0.033516947 0.019674966 0.073787786 -0.05368466 0.07802451 0.0365142
-0.026864374 -0.06608238 -0.08183207 0.031712744 -0.042195506 -0.025034599 -0.03371059 -0.016256792
0.007421574 0.07449273 0.056576926 0.06442774 0.0048375945 -0.026642824 -0.03986257 0.049936805
-0.0073056845 0.033802383 -0.07761688 0.043598022 -0.04532777 -0.00941165 0.06965896 0.052810557
-0.050169423 0.07157205 -0.070197925 0.03960826 0.014015763 0.07979674 0.008809742 -0.018759636
0.07383663 -0.051472515 0.060021117 -0.03264693 -0.011665569 -0.03749178 0.056708347 -0.054390047
-0.024603762 0.006145884 0.07698596 -0.011813157 -0.03709847 -0.009876288 0.019561041 -0.03822635
0.086017184 0.035025172 -0.03072196 0.05064518 -0.025246553 0.01898999 -0.01518216 -0.067466766
-0.07232829 -0.07544649 -0.048098914 -0.005354698 0.011277455 0.014286792 0.038885254 0.005349248
0.084338374 -0.0202418 0.018222002 0.017810939 0.042697344 0.069147475 0.03250153 0.04313184
0.076765224 0.04192203 0.07876295 0.0440571 0.041843545 -0.010821407 -0.053883906 0.076879285
0.044650905 0.025925567 0.035050906 -0.023973739 -0.01022043 0.06917218 0.022583012 -0.08404551
0.07013268 0.02572448 -0.04245021 -0.03877716 -0.06456806 0.08109518 -0.040842548 -0.038979523
0.027811574 -0.034589406 0.04551906 -0.030419528 -0.020734744 -0.026828172 0.0049129375 0.043459345
-0.013558207 0.06805021 -0.08547792 -0.066314414 0.024387492 -0.006511533 -0.013145974 0.024860201
-0.07072387 -0.009164939 -0.061488025 0.0771681 0.018877273 0.051558506 -0.055620838 -0.020741813
0.04648853 0.0732078 -0.07236675 -0.0234508 -0.015496264 0.08026316 -0.053681843 0.032002885
0.063365094 -0.06557449 0.08158036 -0.08513559 -0.06370448 -0.025100747 0.004322673 0.003087139
0.064479746 0.07457578 -0.02357541 0.020157356 -0.030423718 0.02454886 -0.0017104663 0.04041606
0.0015156412 -0.026901633 0.037047297 0.062536396 -0.040438846 0.02314511 9.514081e-05 -0.024989268
0.036944915 0.04940768 0.038929526 -0.07379235 -0.031425525 0.07150142 0.049585994 0.04881131
-0.052447442 0.03112043 -0.010908881 -0.03355837 0.051677022 0.08326862 0.038761802 0.06340987
-0.04955838 0.042663623 -0.080059014 -0.02085173 -0.020765554 -0.0713132 -0.027180407 0.06543526
-0.04261046 0.07475357 0.042983066 -0.034961328 0.048781782 -0.08056544 0.036273994 -0.041052382
-0.068458736 0.08528159 -0.0033407786 -0.053316172 0.085623555 0.021724759 -0.013103041 -0.032771733
0.078199856 0.048113238 0.078217566 0.03156528 0.068211384 -0.00085791346 0.019362437 0.021835225
0.08193992 0.06498686 0.05181683 -0.08345024 0.06345001 0.047318418 -0.01923939 0.015914699
-0.08516776 -0.048365425 0.066909194 -0.07986429 0.00048479537 0.015325268 -0.00405704 -0.050581407

BN1.weight f4 [256]
00000000: 177d 803f a57f 7e3f 84ea 7e3f 8cd5 7f3f
00000010: b712 7f3f cd65 803f a26f 7f3f b43f 7f3f
00000020: 7d9f 7f3f f1e2 7f3f 3c6b 803f 5237 803f
00000030: 1970 803f cd80 7f3f 6d8b 803f ffaf 803f
00000040: d95a 7f3f 867b 803f a769 803f b9d0 7f3f
00000050: e4eb 7f3f 9b77 803f f120 803f 71af 803f
00000060: 33ab 803f d9b0 803f 8025 7f3f 3643 803f
00000070: 3ce5 7f3f 3e6a 803f 7a91 803f 3c22 803f
00000080: f7ea 7e3f e88c 7f3f b88d 7e3f c2d0 7f3f
00000090: 1e82 7f3f 87e3 7f3f 5cdc 7e3f d615 7f3f
000000a0: a671 803f fc16 803f fc30 803f 5507 803f
000000b0: f9a7 7f3f 0790 803f abbf 803f d49c 7f3f
000000c0: 59c4 803f 3230 7f3f 09b6 7e3f d4a7 7e3f
000000d0: 777b 7e3f b047 803f a1d6 7e3f 3259 803f
000000e0: 6f0c 7f3f 783a 7f3f b697 803f 7082 803f
000000f0: dc18 803f 4efa 7f3f b1f9 7f3f f6c2 7f3f
00000100: 66ed 7f3f ebff 7e3f e79b 803f eef0 7f3f
00000110: 5a87 7f3f cfaa 7f3f 9fba 803f a070 803f
00000120: 5ab9 803f dad6 7e3f 9592 803f be30 803f
00000130: ab12 7f3f 8123 803f f6bc 803f 8b31 7f3f
00000140: 3e53 7f3f c163 803f 723b 7f3f e2f2 7f3f
00000150: a4e2 7f3f 030a 803f 5182 803f 5037 7f3f
00000160: 02a5 803f 94c3 7f3f 96b8 803f 4e2d 7f3f
00000170: b5fa 7e3f 519c 803f 664c 803f 0d66 803f
00000180: d101 803f 07e8 7e3f 6c41 803f 6319 7f3f
00000190: e54a 7f3f 2ec6 7e3f fd32 803f 3a35 7f3f
000001a0: 06b0 803f 7eba 803f 7119 7f3f e890 803f
000001b0: 04b5 7f3f ba83 803f 0337 803f ab98 803f
000001c0: 6dee 7f3f 863e 803f b972 7f3f 4c50 803f
000001d0: a466 803f 44bc 803f f70d 7f3f b721 7f3f
000001e0: 8e56 803f a48b 7e3f 19a0 7f3f fd5d 803f
000001f0: 1499 7f3f 3b30 803f b710 7f3f 8956 7f3f
00000200: dbce 7e3f 900b 7f3f 3566 803f 0782 803f
00000210: 8779 803f c210 803f 93d5 7f3f 50f9 7f3f
00000220: 52ce 803f b6a8 7f3f 23cb 7f3f 9215 7f3f
00000230: 7b76 803f f89a 7e3f 0765 803f 527d 803f
00000240: 3786 803f 50bd 803f ce03 803f cb99 803f
00000250: 5f94 7e3f 2e85 803f 3baa 803f aa36 803f
00000260: 10e4 7e3f 5813 7f3f 5798 803f 33ed 7e3f
00000270: 139e 803f fb32 803f 09a1 7e3f f927 803f
00000280: cf00 7f3f 4c92 803f e57b 803f 3cf0 803f
00000290: fe9a 803f 6bff 7f3f 9527 7f3f f5ed 7e3f
000002a0: 0684 803f ad1a 803f 2a7d 803f 2fa6 7e3f
000002b0: 9de1 7e3f 7596 803f af9b 7e3f 9244 803f
000002c0: 08d2 7f3f 822d 7f3f 3c9d 7f3f 9b05 803f
000002d0: 5e4c 803f c05f 803f d24c 7f3f 2277 803f
000002e0: 5802 803f af7f 803f 1561 803f e2d8 7f3f
000002f0: ac9c 7f3f 380e 803f f1a8 7e3f dd8d 803f
00000300: 9fa1 803f e71e 803f 1817 7f3f 507e 803f
00000310: 78d7 7f3f 9077 803f d28b 7f3f 1432 803f
00000320: 6284 803f 04b2 7f3f 53d1 7e3f 8a60 7f3f
00000330: 20ae 803f d191 7e3f 309c 803f 370b 7f3f
00000340: 886f 803f 91f7 7f3f 72fb 803f bf3f 803f
00000350: f75d 7f3f 2e69 7f3f 4f03 7f3f a2af 7e3f
00000360: c240 7f3f e064 803f 920c 7f3f 0de5 7e3f
00000370: 6bc4 803f 7423 803f 5632 7f3f c8c6 7e3f
00000380: 5e10 7f3f d7fa 7f3f ea6f 7f3f 3677 7e3f
00000390: ad9b 803f 5e1a 7f3f b469 803f 1eee 7f3f
000003a0: 590d 813f 4f4c 803f de4a 7e3f 7230 803f
000003b0: d7b4 803f b278 7f3f 1ef4 7e3f 14a9 7e3f
000003c0: 79de 7f3f cf1c 803f 9f92 803f 5ad6 7f3f
000003d0: a758 803f 6c43 7f3f 72d8 7e3f b244 803f
000003e0: 8e7f 803f b68a 803f a0d9 7f3f de4d 7f3f
000003f0: dca5 7e3f d2ec 7e3f d9ab 803f 484a 7f3f
1.0038174 0.9941352 0.9957659 0.9993522 0.9963793 1.0031067 0.99779713 0.9970658
0.99852735 0.9995566 1.0032725 1.0016882 1.003421 0.9980591 1.0042549 1.005371
0.99748 1.0037696 1.0032243 0.9992786 0.99969316 1.0036501 1.0010053 1.005354
1.0052246 1.005397 0.99666595 1.0020511 0.9995916 1.0032423 1.0044396 1.0010448
0.9957728 0.9982438 0.99434996 0.99927914 0.9980792 0.99956554 0.9955499 0.99642694
1.0034683 1.0007014 1.0014949 1.0002238 0.9986568 1.0043954 1.0058492 0.99848676
1.005992 0.99682915 0.99496514 0.99474835 0.9940714 1.0021877 0.9954625 1.002722
0.9962835 0.9969859 1.0046299 1.0039806 1.0007586 0.9999131 0.99990374 0.9990686
0.99971616 0.9960925 1.0047578 0.99977005 0.99815905 0.9987001 1.0056952 1.003437
1.0056565 0.9954659 1.0044733 1.0014875 0.9963786 1.0010835 1.0057666 0.9968497
0.9973639 1.0030442 0.9970008 0.99979985 0.999552 1.0003055 1.003977 0.99693775
1.0050356 0.99907804 1.0056331 0.99678504 0.996013 1.0047704 1.0023315 1.0031143
1.0000554 0.99572796 1.0019965 0.9964811 0.99723655 0.9952115 1.001556 0.9969059
1.0053718 1.0056913 0.99648196 1.0044222 0.9988558 1.00402 1.0016788 1.004659
0.99973184 1.0019081 0.9978443 1.0024505 1.0031323 1.0057454 0.99630684 0.9966082
1.0026414 0.99431825 0.99853665 1.0028683 0.99842954 1.0014719 0.9963488 0.9974142
0.99534386 0.9962702 1.0031191 1.0039681 1.0037087 1.0005114 0.99935263 0.99989796
1.0062964 0.9986681 0.9991934 0.9964229 1.0036157 0.99455214 1.0030831 1.0038245
1.0040959 1.0057774 1.0001161 1.0046934 0.99445146 1.0040643 1.005195 1.0016682
0.99566746 0.9963889 1.004649 0.9958069 1.004824 1.0015558 0.9946447 1.0012199
0.9961061 1.0044646 1.003781 1.0073314 1.00473 0.9999911 0.9966977 0.99581844
1.004029 1.0008141 1.0038197 0.99472326 0.9956301 1.0045916 0.99456304 1.0020926
0.9992986 0.99678814 0.99849296 1.0001711 1.0023305 1.002922 0.99726593 1.0036356
1.0000715 1.0038966 1.0029627 0.9994031 0.9984844 1.0004339 0.99476534 1.0043293
1.0049323 1.0009431 0.99644613 1.0038548 0.99938154 1.0036488 0.99822724 1.0015283
1.00404 0.99881005 0.99538153 0.9975668 1.0053139 0.9944125 1.0047665 0.9962649
1.0034037 0.9998713 1.0076735 1.0019454 0.99752754 0.99769866 0.99614424 0.99486744
0.9970819 1.0030785 0.99628556 0.99568254 1.0059942 1.001082 0.9968618 0.99522066
0.9963435 0.99992126 0.9978014 0.9940065 1.0047508 0.9964961 1.0032258 0.99972713
1.0082198 1.0023288 0.9933299 1.0014784 1.0055188 0.9979354 0.99591243 0.9947674
0.9994884 1.0008792 1.0044745 0.9993645 1.0027055 0.9971225 0.9954902 1.0020964
1.0038927 1.0042331 0.99941444 0.9972819 0.9947183 0.9958011 1.0052444 0.9972272

BN1.bias f4 [256]
00000000: 4c98 f23b 4c87 f53b ec19 c03b 6817 023c
00000010: becb ea3b 5bd0 5e3b 13d1 863a 91e0 d3bb
00000020: 28a5 c7bb 8e71 8b39 eabd b0ba 815e c73b
00000030: 11bd 4d3b ffe3 1c39 db52 6fba 6b0d 1539
00000040: 6aea cfbb ac04 9abb 3ba6 ed3b d7b2 a13b
00000050: 06df 613b 63e8 bb3a 34e7 713b 9f7e b5bb
00000060: 06d0 2fba 1074 6fbb 8b43 92bb e020 bb3b
00000070: 58ed 6a3a b67a 533b 9b9a ca3b ee83 82bb
00000080: b019 adbb 8e1f e43b 35cc 903b 6bc4 a8bb
00000090: 0f2f 9bba ad33 4dbb fe1d de39 e6f2 993a
000000a0: 948b eabb 65bb 9abb 4d63 a2ba 9675 5ebb
000000b0: e0d7 4d3b f1de 37bb 6810 bdbb 9122 363b
000000c0: 4396 c3bb c224 b23b eacb bf3b 5560 98bb
000000d0: c7d9 8b3b a400 81bb 176f 053b 0c5d a5bb
000000e0: e424 c73b abf5 c23b 40e3 43bb c0c8 ad3b
000000f0: 676f c33a fe6b a6bb c309 893b e571 e33a
00000100: a18f 0cbb 9b81 8f39 ec3b ae3b 6ff8 b6ba
00000110: cb12 be39 fb78 4f3a ddcf ba38 bd3f fc3b
00000120: a064 d6bb 2591 953b 02bb d2bb 6ebd 82bb
00000130: b950 ac3b 586e c3bb 4e8a 0fbb 3eb1 babb
00000140: ae6e 98bb f575 a3ba fb24 8bba 799f bdbb
00000150: 5be5 363b 0c2b c13b c8b1 aabb 76b9 0aba
00000160: bc16 babb 3b29 c5bb 0b29 513b d4c4 c23b
00000170: cddd 1e3a ceb0 3f3b 2860 c23b ba54 e33a
00000180: fadb c93b a1a3 413a 015a c1bb ccbf 96bb
00000190: fd3a da3b 2bfd a839 3ac6 993a bcf6 7eba
000001a0: 8a22 b9bb cf08 24bb ba87 5f3b 5495 143b
000001b0: 6e54 e3ba d5dd 95bb 369b 51b9 ab74 47ba
000001c0: 9628 c93b 4892 b9bb ad52 cb3b 6ac6 b33b
000001d0: 9c31 adbb 439c b8bb c6b3 9bb8 37e3 503a
000001e0: dfcc 94bb 4122 e23a 966a fd3b 5274 9b3b
000001f0: 75bd b4bb 80b3 dc3b 5799 de3b 5663 c63b
00000200: 9da1 2abb 1f51 c53b 7ca8 213b 6c8f bb35
00000210: abc4 383b 7bf6 c8bb e225 06bc d644 d1bb
00000220: 137f 04bc ad70 bbbb b18d 2ebb 74d1 c23b
00000230: b65a bb3b b501 b53b ad20 d8bb 6668 c6bb
00000240: 8d14 fe3b cd4f 8ebb 6179 c03a 2c39 213a
00000250: 89a6 6fba 37ab aabb 843b 443b 6571 4f3b
00000260: 33d1 c0ba a70c c73b de33 383a 8f0e feba
00000270: f0d5 54bb 76cc d3bb b628 773b 3031 273a
00000280: 5983 dd3a 229c 97bb 3766 a7ba 7c69 b5bb
00000290: 8e8c d23a 98b9 b43b 4fbc 82bb 2af9 8fbb
000002a0: 8502 4abb 531c 3dbb 6111 c83b d972 063a
000002b0: 4a76 41bb a01a 85bb c29a d33b 47dd f73b
000002c0: e7a9 51bb daae ceb9 de0a 80bb 7b0b 723a
000002d0: 2f2c b0bb d8d2 a43b 5b7b ba3b de16 6c3b
000002e0: a9bb 1039 015a 21bb df7e 89bb 8c3c d03b
000002f0: 9acb c3bb 2f7f c139 a855 943b f2da b0bb
00000300: 848f 5cbb a4c6 be3b b44f 42b9 5809 e0bb
00000310: d71e 4f3a 2736 aabb 73e1 413a 51bc c4bb
00000320: 70ad dbba 1c64 e13b 65db 233b 9b81 21bb
00000330: 147e e1bb 61b9 a33b 5dcd 9abb 4ee0 a13b
00000340: ec49 c63b ca89 e1ba 9e17 ebbb 050c 32bb
00000350: e233 06bb 4cff d6bb 6344 13bb 40bc 173a
00000360: bffc dd3b 22f7 a9bb 2311 8bbb 731b acba
00000370: 292c bc3a 3b7d af3a 1b4e 86bb f80e e9bb
00000380: 6a18 70bb e3d3 073c b624 df3b fbb7 cd3b
00000390: ba60 003b 0573 313b 9178 6f3b 8991 66bb
000003a0: d09c 8fbb 5bfc 08bc 5f5c b33a 278d 4dbb
000003b0: 24d4 5c3a a92b d73b bb05 80b9 91aa 86bb
000003c0: e050 00bb fb05 95bb 2e86 9fbb 8bf9 6b3b
000003d0: f34d 50ba f440 b9ba c1d2 32bb 7fdf bc39
000003e0: 436d d3bb 7768 64bb daf9 e33b 4de1 6fbb
000003f0: 06ec b63b 6658 03bb b684 be3b 1c1a 1b3b
0.007403409 0.0074929353 0.005862465 0.007940151 0.0071654012 0.0033998701 0.0010285698 -0.0064659794
-0.006092686 0.0002659675 -0.0013484333 0.006084264 0.003139321 0.00014962254 -0.0009129473 0.00014214746
-0.006345083 -0.004700264 0.007252482 0.0049346494 0.0034465208 0.0014336224 0.003691149 -0.005538776
-0.0006706718 -0.0036537685 -0.004463618 0.005710706 0.00089617586 0.0032269186 0.006182981 -0.0039830124
-0.005282603 0.0069617694 0.0044188746 -0.005150368 -0.0011839586 -0.0031311319 0.00042365486 0.0011745363
-0.0071577523 -0.004722046 -0.0012389213 -0.0033944598 0.003140919 -0.0028056467 -0.005769778 0.00277916
-0.0059688403 0.005436511 0.005853166 -0.0046501555 0.0042679044 -0.003936844 0.0020360404 -0.0050464924
0.0060773958 0.005949696 -0.002989009 0.0053034723 0.001491052 -0.0050787916 0.004182072 0.0017352669
-0.0021447914 0.0002737165 0.005317202 -0.0013959537 0.00036253626 0.0007914451 8.907889e-05 0.007698028
-0.006542757 0.0045644217 -0.0064309845 -0.003989867 0.0052586463 -0.0059640817 -0.0021902504 -0.0056973984
-0.004651866 -0.0012471067 -0.001061588 -0.005786833 0.0027907703 0.005895024 -0.0052091815 -0.0005291918
-0.0056789797 -0.006016878 0.0031915333 0.005943874 0.00060602726 0.002924967 0.005931873 0.0017343976
0.0061602565 0.00073867483 -0.005900622 -0.0046005007 0.006659864 0.00032232082 0.001173205 -0.00097260973
-0.0056498693 -0.0025029664 0.0034108 0.0022672014 -0.0017343888 -0.0045735636 -0.00019989614 -0.00076086324
0.0061388714 -0.00566319 0.006204924 0.0054862993 -0.005285455 -0.005633862 -7.4244614e-05 0.0007968428
-0.004541024 0.001725264 0.0077336533 0.004744091 -0.005515749 0.0067352653 0.006793182 0.0060543222
-0.002603627 0.0060216333 0.0024667075 1.3974327e-06 0.0028193395 -0.0061328984 -0.008187743 -0.0063863797
-0.0080869375 -0.005720219 -0.0026634748 0.005945379 0.0057176007 0.005523885 -0.006595692 -0.0060549257
0.0077539147 -0.004343009 0.0014684611 0.0006150182 -0.0009141942 -0.0052083987 0.00299427 0.0031653282
-0.0014710784 0.0060745063 0.0007026772 -0.0019383001 -0.003247615 -0.0064635826 0.0037713475 0.0006377874
0.0016900107 -0.004626767 -0.0012771551 -0.0055362564 0.0016063617 0.0055152886 -0.0039897333 -0.0043937163
-0.0030824256 -0.0028855994 0.0061055874 0.0005128808 -0.0029519969 -0.004062012 0.0064576576 0.00756422
-0.0031992139 -0.00039421656 -0.0039075455 0.0009233278 -0.005376361 0.0050300173 0.0056909746 0.0036024372
0.00013802819 -0.0024620297 -0.0041960324 0.006354874 -0.005975199 0.00036906588 0.0045268126 -0.005397194
-0.0033654878 0.0058220197 -0.00018530973 -0.0068370514 0.0007901019 -0.0051944437 0.000739596 -0.0060038944
-0.0016760062 0.006878389 0.0025002596 -0.0024643901 -0.0068814848 0.004996464 -0.0047241882 0.0049400693
0.0060512926 -0.0017207202 -0.0071744462 -0.0027167809 -0.0020477702 -0.0065611955 -0.0022471182 0.00057882443
0.0067745144 -0.005186931 -0.004243986 -0.0013130739 0.0014356422 0.0013388762 -0.0040986664 -0.00711238
-0.0036635646 0.008290264 0.006809796 0.0062780357 0.0019588904 0.0027076614 0.003654037 -0.003518196
-0.004382707 -0.0083609475 0.0013684145 -0.003136465 0.00084239454 0.006566484 -0.00024418332 -0.0041096886
-0.0019579455 -0.004547832 -0.0048682904 0.0036006893 -0.00079461857 -0.0014133737 -0.0027286264 0.00036024672
-0.006452234 -0.0034852305 0.006957275 -0.0036602796 0.0055823354 -0.0020041703 0.00581416 0.0023666685

BN1.running_mean f4 [256]
00000000: 54b2 1dc1 09c8 4b40 b713 b440 d76e a640
00000010: 5a48 05c1 4361 ed40 c789 a241 5411 f440
00000020: 7803 df40 2b7b 0f3f ae09 4c40 66d2 6441
00000030: 15cd f340 1645 63c0 475f 663e 4b31 0440
00000040: 94a4 4f41 270d 0dc1 a0df e740 da07 1841
00000050: fd81 49c0 7911 1c41 e3e5 5d40 d2a3 0241
00000060: cc8b fabf 6be4 5d3f 09f1 7dc0 37b0 b240
00000070: cee1 11c0 d7b9 0940 8601 8e40 c317 bec0
00000080: c89b e640 a828 c9bd b591 2241 b6f3 43c1
00000090: ca38 f0c0 e21e 1040 8696 97be 1251 59c0
000000a0: 086f 1941 66ba 4841 740e 9340 e0cc a240
000000b0: 8d14 bbc0 290d f43f 208a 3141 9df1 8f3f
000000c0: 8942 e1c0 944c dfc0 6a7f c2c0 1305 9fc0
000000d0: 1d75 af40 db66 62c1 0cb3 5f40 5be3 4b40
000000e0: c200 d7bf 944d 0c41 5988 0cc1 9633 df40
000000f0: e139 fd3f ab68 52c1 14b6 d83f 03e3 7fbf
00000100: 9733 51bf 4e74 ccbf 1cbe 2841 d938 a840
00000110: b24c 2ac1 bdc9 0940 1180 07c0 f549 13c1
00000120: 4e48 46c0 5219 f940 a8e9 2bc1 984d 1941
00000130: db89 f040 a755 6ac0 a1fe f240 3a89 1ec0
00000140: 3aef 6240 bae9 ac3f 446a c740 2b70 9140
00000150: 6fe3 0dc0 2d82 b73e dea1 24c1 93b4 e33f
00000160: df01 40c0 9b84 6b40 c40f 0c40 a0b7 3141
00000170: 3b6b 2f40 c696 dbc0 428d 24bf 9ed7 df40
00000180: 3b7f 5d40 a739 023e b209 0bc1 e1d2 61c0
00000190: 09e3 5d40 85d6 ab3f 3717 1f40 2a8e 1740
000001a0: 27a5 5841 65ce ae3e d7c2 cfc0 7622 9ac0
000001b0: 40e3 fa3e 47ed fa40 948e 13c1 f82a adc0
000001c0: 85de f040 3102 73c1 5ee4 7040 1e80 e740
000001d0: f7f9 04c1 4816 2dc1 cc12 9a3f 301c 31c1
000001e0: 2195 b7c0 075e 50c1 4305 5e3f 513d 85c0
000001f0: 509e 6440 37c7 f0c0 fd51 cac0 3aea 4140
00000200: 2030 c8c0 df72 41c1 f6ca 6dbf 528e 1ec1
00000210: 9229 c340 42d0 bfbf 9751 c23f fea1 e740
00000220: 4dc4 623f cc53 80bd 2dab dc40 e296 3c41
00000230: faf1 dbc0 a4d4 e6c0 caa6 9340 e6c7 0d41
00000240: 62cf db3f 0335 e03f ed08 ddc0 d479 16be
00000250: d1a1 0fbf d430 2541 e805 9a3f 8ebf 5fc0
00000260: 8bb3 0bc1 ca88 1441 80e8 cbbf 94f6 07c1
00000270: 907f 03c0 0e49 4bc1 e996 33c1 f21a 1e41
00000280: fd0e f6bf 08ca 3d3e 3037 e3c0 7e4e 2d41
00000290: ce38 22c1 9e3f a0c0 0d88 1e40 03c9 4b41
000002a0: 2add 84c1 577d 87c0 5c02 e1bf a772 2041
000002b0: 4cd0 4741 72a7 f63e 3d20 34bf e3a3 dbc0
000002c0: f2d8 aebe b5f5 cf40 42e9 903f 4e75 7fc1
000002d0: 8775 e6c0 4067 9cbf 4b66 2841 a5f2 3c41
000002e0: 007c a440 4caa b0c0 1150 2341 6826 a440
000002f0: 2b17 f73f 8a5a 5040 92b2 9a40 ce1e eec0
00000300: 6124 efc0 0b89 063f 8320 3240 1e0c e8c0
00000310: f244 663f 5524 08c1 b96d 5e41 7885 f9bf
00000320: 527e 3ec1 112d 2bc1 15d0 c140 0697 afc0
00000330: e1aa d9c0 9098 5441 a323 3541 b220 35c1
00000340: 20f4 a340 fc5e 663f 334c 0fc1 c5f2 6340
00000350: 5de6 3e40 2b2a 7fc0 5702 cbbf ad87 9040
00000360: 470b 8140 eab9 16c0 cb7c 56bf 1131 21c0
00000370: d778 a8c0 f39c 26c1 b251 a2bf 51b3 1f40
00000380: 05db 61c0 dddb 0c40 8ce5 2fc0 ab3e 18c1
00000390: ec1f 72bf 97a3 ddc0 893c b940 6eca 5840
000003a0: de04 7a40 7f14 45c1 be27 7ebf a240 7440
000003b0: 18d5 c5c0 0a64 6d40 7a50 21c0 0b6b 9141
000003c0: 4104 ccbf ce13 d940 52c3 83bf e21c ec40
000003d0: 6217 7340 3dec 193f beed 02c1 d94f 35c0
000003e0: 75d6 6ac1 834b de40 2a91 4241 e551 adc0
000003f0: 3bb5 06c1 ab9c 62c0 92e9 0441 eb52 14c1
-9.856037 3.1840842 5.6274066 5.2010303 -8.330164 7.418123 20.317274 7.6271152
6.9691734 0.56047314 3.1880908 14.301367 7.6187844 -3.5510917 0.22497283 2.0655086
12.97768 -8.815711 7.246048 9.501917 -3.1485589 9.754266 3.4671562 8.164995
-1.9573913 0.86676663 -3.9678366 5.5840106 -2.279407 2.1519678 4.437686 -5.9404006
7.2065163 -0.09822208 10.160573 -12.247 -7.5069323 2.251885 -0.29607028 -3.3955731
9.589607 12.545507 4.5955143 5.087509 -5.8462586 1.9066516 11.096222 1.124561
-7.039372 -6.978098 -6.0780535 -4.9693694 5.483046 -14.150111 3.4953032 3.1857517
-1.6797106 8.76894 -8.783288 6.975047 1.9783288 -13.150554 1.6930566 -0.9995577
-0.81719345 -1.5972993 10.546413 5.2569394 -10.643724 2.1529381 -2.1171916 -9.205556
-3.0981631 7.784341 -10.744545 9.581444 7.516828 -3.6614778 7.5935826 -2.4771256
3.5458512 1.3508828 6.231722 4.5449424 -2.2170064 0.35841504 -10.289518 1.7789482
-3.0001142 3.6799686 2.1884623 11.10733 2.7409198 -6.862155 -0.6427804 6.9950705
3.4608905 0.12717305 -8.689867 -3.528496 3.4669821 1.3424841 2.485792 2.368052
13.54032 0.34141842 -6.492534 -4.8167067 0.49001503 7.8414645 -9.222309 -5.411495
7.527163 -15.188035 3.7639384 7.2343893 -8.311027 -10.81794 1.2036986 -11.069382
-5.736954 -13.022956 0.8672678 -4.163735 3.5721626 -7.524318 -6.3225083 3.029921
-6.2558746 -12.090545 -0.9288782 -9.909746 6.0988245 -1.498543 1.5181149 7.2385244
0.8858078 -0.06265983 6.8958955 11.786837 -6.873288 -7.213457 4.61411 8.861303
1.7172663 1.7516178 -6.9073396 -0.14694911 -0.5610629 10.324421 1.2033052 -3.4960666
-8.731334 9.283396 -1.5930328 -8.4977 -2.0546608 -12.705336 -11.224343 9.881578
-1.9223324 0.185341 -7.1004868 10.831663 -10.138868 -5.007766 2.4770539 12.736575
-16.60799 -4.2340503 -1.7578845 10.027991 12.488354 0.48174626 -0.7036169 -6.8637557
-0.3414989 6.4987435 1.1321185 -15.966139 -7.2018466 -1.2219009 10.524974 11.809239
5.1401367 -5.520788 10.207047 5.1296883 1.9303945 3.255526 4.834298 -7.4412603
-7.473191 0.5255286 2.7832344 -7.251479 0.8994895 -8.50887 13.901788 -1.9493856
-11.90584 -10.698503 6.0566506 -5.4871855 -6.8021092 13.287247 11.3212 -11.320482
5.1235504 0.89988685 -8.956103 3.5616925 2.9828103 -3.9869487 -1.5860089 4.516562
4.0326266 -2.3550973 -0.8378417 -2.5186198 -5.264751 -10.413318 -1.2681181 2.4953196
-3.528993 2.2009194 -2.7483854 -9.5153 -0.9457996 -6.9262195 5.7886395 3.3873553
3.906547 -12.317504 -0.9927939 3.8164449 -6.1822624 3.709231 -2.520537 18.177267
-1.5938798 6.7836676 -1.0293982 7.3785257 3.7983022 0.60126096 -8.183043 -2.8329985
-14.677358 6.9467177 12.16044 -5.416247 -8.419246 -3.5408123 8.307024 -9.270244

BN1.running_var f4 [256]
00000000: 06fb 4a42 02e9 2a42 cfc5 d042 03e4 7d42
00000010: 3a0f 0843 f69d 2043 7463 f142 f09c b642
00000020: 5e6b 0143 81fe e342 654d 0243 3548 2143
00000030: e087 7242 6268 c742 8d44 4942 ccd0 0343
00000040: 48d0 f642 3138 a542 7348 4242 5526 fb42
00000050: ad0a b842 3a47 1442 b58c b941 ddf6 6f42
00000060: ec39 3d42 3287 c242 1c41 4a42 b6bf 3c42
00000070: 2b19 5042 a2d6 0d43 fff5 6242 2912 d742
00000080: cc4c af42 b887 a342 7ea3 f942 9689 8b42
00000090: ea6e 3742 698b b642 fbff fd42 bef9 f941
000000a0: 5e83 2c43 b528 8342 c4c6 8b42 9b33 8642
000000b0: 8bd7 6743 9021 f742 56e3 8442 00fe fc41
000000c0: 9837 c942 76f4 9242 0a51 df42 18e3 e742
000000d0: ae67 4942 f98a e942 1e0b 8142 8391 9942
000000e0: a5e6 6342 55e7 b642 f28c 5042 37b9 b041
000000f0: b0c7 4242 c609 9342 9daf 3c42 5b28 5542
00000100: 4317 2143 261e 1f42 8167 9e42 b4ca 8242
00000110: 457e cf42 dcbb db42 fb9b cf42 1489 6642
00000120: 9919 8b42 a8b0 6542 cb6d b142 7554 3342
00000130: 291d 8742 6598 3342 6f13 b542 af05 1942
00000140: cc4e e941 af1f b942 b73a 6942 cc32 6543
00000150: 4d38 4e42 ec35 2242 5e23 f442 6b4d 2d42
00000160: 8b79 4c42 dff0 ba42 3a7e ac42 5b04 2e42
00000170: 491b 2c42 b921 9442 5301 c442 0ac8 6542
00000180: a931 da42 febf 0842 874a 8e42 5c82 a842
00000190: 85eb 1043 c33a f042 aa5f fc41 b17c 2a43
000001a0: 6537 8942 1693 1642 9013 5542 5f22 9042
000001b0: cc5e 8c42 c9d2 a442 4854 e942 8728 cd42
000001c0: c880 2f42 ff36 c342 7b37 7d42 2586 0f42
000001d0: 98cf 3442 235b 7e42 34c5 9142 2382 3e42
000001e0: b747 d042 5f02 9f42 9a76 a942 1556 2943
000001f0: 9349 5a42 332f e042 2f67 2c42 0f0b 3442
00000200: 80b6 d842 27ca 9842 f553 7742 d9ce c142
00000210: 95a4 3b43 1747 1e42 21de df42 3b61 a942
00000220: c6fe bb42 7a3a 4842 dc8a 8f42 3c37 d042
00000230: 1f6b f141 1d14 5f42 1da8 3242 75ae c942
00000240: 2c0a dd41 10e0 8a42 bb6d 7542 61e7 f342
00000250: 01e0 4942 605a ab42 4bfd 4742 80a8 1c43
00000260: fe98 3b42 18b1 1c43 15b7 0142 815a 5442
00000270: d07f 4342 e10d 8742 6d82 8942 173a 3f43
00000280: 22cb 0242 ddc8 d542 bb00 9d42 0080 0643
00000290: 544b 4e42 d21e c442 6538 3d42 4c3c 8642
000002a0: c23e ee42 6bc4 5842 7270 4642 f122 bc42
000002b0: d905 9342 ac07 8742 e966 8142 f2b9 2842
000002c0: 6ec4 8742 b6f8 9a42 1d08 f842 5a87 0843
000002d0: fd26 8842 6050 3b42 331f 5842 6edf 8642
000002e0: f258 7f42 74fd 8242 2039 e642 2c79 0842
000002f0: bd87 3f42 b74c 5742 6d24 a242 c76f 7e42
00000300: 79a2 2f43 ec37 f242 3b24 b842 f846 f042
00000310: 8fe7 1642 10b3 6b42 9ed7 d542 dc6e 6a42
00000320: 9c7b 9142 f35a 0543 35e3 ab42 1b63 9c42
00000330: ba6f d142 3fa2 0c43 7017 cd42 3f6c 4c42
00000340: 9c6b aa42 e267 7042 e0b1 4642 838e 9b42
00000350: 4835 f042 6ee4 6642 a6bb 2042 a787 8742
00000360: 2b73 9242 fd83 f142 1d2e dc41 e900 8342
00000370: 3000 b242 ae3b 8142 25d3 3243 e896 1c42
00000380: 9c71 f142 d105 3a42 e773 9d42 5e53 c642
00000390: bfc0 2243 d6bb 7542 b9da 2b43 a082 4642
000003a0: 2804 7542 abc4 8a42 5211 dd42 cc4c 4342
000003b0: d412 6142 8794 0542 c70f 8242 7360 e442
000003c0: 62ee 3a42 8799 1443 5b56 b242 6b13 4642
000003d0: 9f9b b242 4180 8842 3e2a a642 df41 1a43
000003e0: 148a 4d43 9968 2643 1060 db42 980e 7742
000003f0: f493 9a42 8f35 c342 0407 0a42 c158 3543
50.74514 42.727547 104.386345 63.472668 136.05948 160.61703 120.694244 91.30652
129.4194 113.99708 130.30232 161.28206 60.63269 99.70387 50.316944 131.81561
123.4068 82.60975 48.57075 125.57487 92.02085 37.069557 23.193705 59.991077
47.306564 97.26405 50.563583 47.187218 52.02458 141.83841 56.74023 107.53547
87.649994 81.765076 124.81932 69.76872 45.858315 91.272285 126.99996 31.246944
172.51315 65.579506 69.888214 67.10079 231.84196 123.56555 66.444016 31.624023
100.60858 73.47746 111.65828 115.94354 50.35125 116.77143 64.52171 76.7842
56.97524 91.45182 52.13764 22.090437 48.695007 73.51909 47.171497 53.28941
161.09087 39.77944 79.202156 65.395905 103.74662 109.86691 103.80465 57.633865
69.549995 57.422516 88.71444 44.832478 67.55695 44.898823 90.53796 38.25555
29.163475 92.56188 58.30734 229.19843 51.55498 40.552658 122.06908 43.325603
51.118694 93.47045 86.24654 43.504253 43.026646 74.065865 98.00259 57.44535
109.09699 34.187492 71.14556 84.25461 144.92 120.11477 31.546711 170.48708
68.60819 37.64364 53.269104 72.06713 70.18515 82.41169 116.66461 102.579155
43.875763 97.607414 63.30418 35.881 45.20273 63.589 72.88516 47.627087
104.14007 79.50463 84.73164 169.33626 54.57185 112.092186 43.100765 45.0108
108.356445 76.39483 61.83199 96.904 187.6429 39.569424 111.933846 84.6899
93.997604 50.057106 71.77121 104.10788 30.177305 55.76964 44.664173 100.84074
27.629967 69.43762 61.35716 121.95191 50.468754 85.67651 49.997356 156.6582
46.899406 156.69177 32.42879 53.088383 48.874817 67.52711 68.75474 191.22691
32.69837 106.89231 78.50143 134.5 51.573563 98.060196 47.305073 67.11777
119.122574 54.191814 49.60981 94.068245 73.51142 67.514984 64.701 42.181587
67.88365 77.48576 124.01585 136.52872 68.07615 46.82849 54.030468 67.436386
63.83686 65.495026 115.11157 34.118332 47.882557 53.824917 81.071144 63.609158
175.63466 121.10922 92.07076 120.13861 37.72613 58.924866 106.92113 58.60826
72.741425 133.35527 85.94376 78.193565 104.718216 140.63377 102.54578 51.10571
85.210175 60.101448 49.673706 77.77834 120.104065 57.723076 40.18325 67.764946
73.22494 120.75779 27.522516 65.50178 89.00037 64.61656 178.82478 39.14737
120.72189 46.50568 78.72637 99.16283 162.75291 61.433434 171.85439 49.627563
61.25406 69.38412 110.53383 48.824997 56.268387 33.395046 65.030815 114.18838
46.732796 148.59972 89.16866 49.518963 89.30395 68.250496 83.082504 154.25731
205.53937 166.40858 109.68762 61.76425 77.28897 97.60461 34.50685 181.3467

L2.weight f4 [128, 256]
00000000: 9fa0 e23c 1f45 03bd 0a08 833c 8324 4a3b
00000010: 3a71 e0bc fab5 103d 34d2 b13b 99e8 da3c
00000020: 473c 22bd b68d 1bbb da16 3dbd 02a5 81bd
00000030: 509a 393d f65d 443d 49fd 813c 10c3 b43c
00000040: dc46 c03c 3152 c0bb 2126 eb3c 6f8d 2b3c
00000050: 6a40 403a 8401 b6bc ac37 f43c 10d9 023d
00000060: 63d3 753c 6837 01bb b5bc 3a3d b8f7 fdbc
00000070: 150e ecbc 3c98 1abd 449a 3abb 5ade fc3c
00000080: 78c2 ea3c 967e 553d b2e0 04bc 999e 563d
00000090: 5a8c 043d ef20 9c38 b3de 813c 0075 efbc
000000a0: 9385 7a3d 4fa0 523c 651d 6e3b eb92 9d39
000000b0: 5d66 40bc 6224 043d 86d2 45bd 6cd1 6e3b
000000c0: c3f7 b73c 4218 13bd da1a adbb fdda c0bc
000000d0: a74a 33bd 5a1b 583d 46fa 133d d5d2 7e3d
000000e0: 6696 9d3b 80b8 2fbc 4a7e 313d 9370 863c
000000f0: 4af3 3d3c 5b2c 37bd 6a1d 763d 359f 183d
00000100: def1 833c 655c 823d 61e0 3d3d 8e6c 163d
00000110: 3777 4abd 755a 7b3d 422a 43bd a489 093d
00000120: 646c 11bd 732b edbc f4c5 853b 43d7 d3bc
00000130: fe36 6a3d 28a4 5c3d 4975 afbc 681a 6fbd
00000140: e980 373d ea21 cebc 1d60 643d 8ed9 0fbb
00000150: eb0b bfbb 2e27 023d 193f 28bc ffc6 e13b
00000160: 1015 c2bc f64c 453d 54b7 283c 0157 49bd
00000170: 4687 ddbc 10cc 6abd ed5c d73c 6e6c 81b9
00000180: 9f1c a53b 1285 0f3a 2934 4cbd 1d29 1ebc
00000190: e6c8 383d 445b 59bd 408a 1dbd 7fa7 463d
000001a0: a09c 4ebc f404 623d f3c1 0e3c 6408 e63b
000001b0: 7179 a73c 56b1 6ebd 972b 5e3d 221d 5f3d
000001c0: 4569 563c 393b 00bd fd08 73bd 8114 44bd
000001d0: 71f0 563d 7d9a 2abd 737d 45bc 3776 c53c
000001e0: 9fe3 36bd b4d6 0fbd 3dc5 6a3d 6662 063d
000001f0: 8ce3 62bd bf9f e93c c37f 9b3c 72e2 20bc
00000200: 1860 48bd de31 053d 3bec 4ebb f0c2 16bd
00000210: a44b c53b 74a7 4dbc 50c6 b13c 7cea d8bc
00000220: 2441 89bc 4dcd 3dbb f233 373d d913 073d
00000230: 64b3 793c a13f 23bd 2fa2 a63c 207e 81bd
00000240: 6be4 2dbd 59e3 ab3c cadf b6bc b626 1a3d
00000250: e553 9e3c 8970 01bb cadd 6cbb 3d91 06bd
00000260: f615 d4bc 6cdd 683d f9b7 0dbc 4d1a 23bd
00000270: 31ce 613d 056e 22bc 3724 753b 5be0 993c
00000280: 5df5 83bb 219f 4fbc 84de 083d 1b33 143c
00000290: fdd9 2f3d a0cd 25bc 0277 5f3d 62a3 493c
000002a0: 7054 61bd 715c a43c dbbf 363c 35da 85bc
000002b0: 947a 623c 7030 493b a087 57bd e2b0 6cbd
000002c0: bc67 8e3c 24b5 283d 8e9a 82bd aa78 64bd
000002d0: 4991 4a3c e4ac 2fbd d2a1 06bd d5bb 1dbc
000002e0: 28c4 803d c0be 28bc 4b0d 203d 8df2 79bc
000002f0: 23c0 64bd 0301 823d 46b2 c9bc dcc6 87bb
00000300: 3c7e eabc 65a8 5e3d ca86 1fba 6003 713d
00000310: 62d0 953c 577c 5ebd 0ac3 2f3c 59c2 763d
00000320: 796b 903b 60eb 8abc 2989 4abb 0355 47bd
00000330: 9e1f 47bc 79b2 08bd 9eaf 31bc 033a 33bd
00000340: f8d2 19bd 7d9f 21bd 8e16 f73c ec30 5d3d
00000350: 3e6a 803c 3386 253d 66bf d53b c0ec 363d
00000360: d4f2 583d be17 fabc 81ac 653d 0ce8 7e3c
00000370: f863 e63c c1a3 d9bc 2f20 3dbd a4fd 66bc
00000380: b73f 49bc 7d52 c73c 15b0 523b 65cc 253d
00000390: d0a5 763d f25f 863c c3eb f1bc cf3f 36bd
000003a0: 9f32 a3bc 8ea5 0cbc 360f 073c b4eb 463d
000003b0: 36bc 15bc 9428 1cbd 4ca7 3abd 4482 513d
000003c0: af9f 453d d8d6 1d3c b641 65bd 1719 c83c
000003d0: 8e49 4bbc fd78 45bd df99 a93b b78d d83b
000003e0: bcb6 053d f4c3 843c c58f 34bc 3274 463d
000003f0: 63f1 3fbd 667c 853d c12c bbbb e1f0 0a3d
0.02766448 -0.03204834 0.015995044 0.0030844517 -0.02739774 0.035329796 0.0054266695 0.02672224
-0.039608266 -0.002373559 -0.04616437 -0.06330301 0.04531318 0.04794117 0.015867846 0.02206567
0.023471288 -0.005869173 0.028704705 0.010470732 0.0007333817 -0.02221752 0.029811703 0.03194529
0.015004012 -0.0019716863 0.04559012 -0.03100191 -0.028815309 -0.03774284 -0.0028473297 0.030867744
0.028657183 0.052122675 -0.008110212 0.052397344 0.032360412 7.444794e-05 0.015853262 -0.029230595
0.061162543 0.012855603 0.0036333438 0.00030054836 -0.011743155 0.03226126 -0.048296474 0.0036440743
0.02245701 -0.035911806 -0.005282742 -0.023541922 -0.043772366 0.05276046 0.03612735 0.062212784
0.0048091887 -0.010725141 0.04333333 0.016411101 0.011593649 -0.044720035 0.060086645 0.037261207
0.016106542 0.06365279 0.046356563 0.03672462 -0.0494301 0.061365563 -0.047647722 0.03357853
-0.03550376 -0.028951382 0.0040824357 -0.02585948 0.05718135 0.05386749 -0.02141823 -0.058374792
0.044800673 -0.025162656 0.055755723 -0.002194974 -0.005830278 0.031775646 -0.01026895 0.0068901773
-0.023691684 0.0481691 0.010297615 -0.04915524 -0.027042042 -0.057323515 0.026289428 -0.00024685584
0.0050388123 0.0005474846 -0.04985443 -0.009653357 0.045113467 -0.053065553 -0.038461924 0.04849958
-0.0126105845 0.055180505 0.008713233 0.007020043 0.02044365 -0.05827459 0.05424079 0.054471143
0.013086622 -0.03130648 -0.059334744 -0.047871117 0.052475397 -0.041651238 -0.012053835 0.02410422
-0.04465067 -0.035116866 0.057317007 0.032808684 -0.055392787 0.028518556 0.01898182 -0.009819614
-0.048919767 0.03251826 -0.003157391 -0.036807 0.00602098 -0.012552131 0.021701008 -0.026478998
-0.016754694 -0.002896148 0.044727273 0.032977913 0.015240524 -0.039855603 0.020341007 -0.063228846
-0.042454164 0.020982431 -0.022323508 0.037634574 0.019327113 -0.0019750914 -0.0036142939 -0.032853354
-0.025889378 0.05685179 -0.0086498195 -0.039820004 0.05512828 -0.009913926 0.003740562 0.018783739
-0.0040270523 -0.012672217 0.033415332 0.009045388 0.0429325 -0.010119826 0.054556854 0.01230702
-0.055012167 0.02006361 0.01115414 -0.0163394 0.01382317 0.0030699037 -0.052619576 -0.057785876
0.017383449 0.041188374 -0.06377135 -0.055779137 0.01236374 -0.04288949 -0.032869168 -0.009627302
0.06287414 -0.010299385 0.039075177 -0.0152555825 -0.0558473 0.06347849 -0.02462114 -0.004143579
-0.028624646 0.054359812 -0.0006085454 0.05884111 0.018287841 -0.0543178 0.010727653 0.060243938
0.004407343 -0.016957939 -0.0030904508 -0.048665058 -0.012153534 -0.03337333 -0.010845093 -0.043756496
-0.03755471 -0.03945874 0.030162122 0.054001734 0.01567566 0.040411185 0.0065230606 0.044659376
0.052965954 -0.0305289 0.056072716 0.015558254 0.02812384 -0.026567342 -0.04617327 -0.014098559
-0.012283257 0.024331326 0.003214841 0.04047813 0.060216725 0.016403172 -0.029531365 -0.044494446
-0.019921599 -0.008584393 0.008243373 0.048564628 -0.009139111 -0.038124636 -0.045569703 0.05114962
0.04824799 0.009633742 -0.05597087 0.024426026 -0.0124076735 -0.048211087 0.0051758136 0.0066086906
0.032644972 0.016206719 -0.011020605 0.048450656 -0.046861064 0.06517868 -0.005712122 0.033921126

L2.bias f4 [128]
00000000: 5c13 5abb d41b 2bbd 87b9 e2bb 4d63 10bd
00000010: c01c c43c a5c7 12bd e40d 18bd 4de5 43bd
00000020: a9a1 b8bc 938a 64bc 8d74 343c 87e2 943c
00000030: 9deb c2bc dac8 49bd 3508 703d b3c5 1b3d
00000040: f841 c2bc d6ef 9b3b d643 48bd 432f 4abd
00000050: ccc0 633d 5b06 c23c ef89 6e3c 5b28 41bd
00000060: ab1d 56bd 041e 29bd 3e1a 15bd 8b47 963c
00000070: 4ce3 de3b 01d7 003d c6ab b53c fd7b c7bb
00000080: 64c8 ab3a a3b2 053d 1526 a2bb adba c33b
00000090: fcfc bf3b 5318 31bc b796 a4bc d9c4 a23c
000000a0: 2799 5b3d 7530 4dbd ba88 8cbb 0c4f e9bc
000000b0: 3a1a 00bc 35dd b43c 5ed2 60bd cdda ef3c
000000c0: 1d4c bb3c 3c3c fcbc c9ad 14bd e7d3 afbc
000000d0: 5ed1 90bb 0543 11bd 1368 643d e503 7fbb
000000e0: cd7a d7bc a9d3 44bd 9208 d83c 35a4 09bd
000000f0: ea75 ab3c b988 5fbc dfb2 debc b876 b03c
00000100: ad6e 7abd ca42 1f3d 218d 3bbb bf84 e03b
00000110: f4d4 123d 1d6c abbc 1157 ca3c ce15 c139
00000120: 9a9c 8fbc 1614 3d3d 538c 1b3c d0e2 2a3d
00000130: f3bc 90bc e199 f63c 8b9f e93c 6a6e 133d
00000140: 9867 053d 0e84 103d 6fbe d73a 9c8f b03b
00000150: e01d 4cbd 720c 3d3d f131 963c cfb5 85bc
00000160: 8f2f 52bd 0ce2 ddbc 6b95 b0bb 8775 fb3c
00000170: 08ab 38bb b1e5 c93c e99d 493c a320 793d
00000180: 42f0 6a3d 063a 293d 76ea 78bd 616f c1bc
00000190: a447 d63c 2c6e 263d ec5c 2c3d 4a4f bebc
000001a0: abdf f63b 1881 2a3c abd1 dc3c e11b 41bd
000001b0: 2ef3 6cbd 4400 6a3d bd53 2d3c 88a5 ff3c
000001c0: b23b 45bd 3ed2 d5bb de23 c93c 4f0c 55bd
000001d0: 999b 28bd 2dad b1bb 055e a3bc 291b 663d
000001e0: 9356 55bd baa1 43bd 81a4 adbc b46f 90bc
000001f0: dafe 71bd f609 1bbb 765a d839 1fd6 263d
-0.00332757 -0.041774586 -0.0069190892 -0.03525095 0.02393949 -0.035834927 -0.037122622 -0.0478261
-0.022538023 -0.013949054 0.011014116 0.018174423 -0.02379399 -0.049263813 0.058601577 0.038030338
-0.023713097 0.0047588153 -0.04889282 -0.04936148 0.055603787 0.023684671 0.014559253 -0.047157627
-0.052274387 -0.04128839 -0.03640198 0.018344661 0.0068019982 0.031455044 0.022176635 -0.0060877786
0.0013105986 0.032641064 -0.0049483874 0.005973181 0.0058590155 -0.010809022 -0.020091398 0.019869255
0.053612854 -0.05009504 -0.00428876 -0.028480075 -0.007818753 0.022078136 -0.05488812 0.029279137
0.022863442 -0.03079044 -0.036298547 -0.021463348 -0.0044194898 -0.035464305 0.055763315 -0.0038912233
-0.026303673 -0.048053417 0.026371274 -0.033603866 0.02093025 -0.013643437 -0.027184902 0.021540985
-0.061140705 0.038882054 -0.0028618055 0.006851762 0.03584762 -0.020925576 0.02469972 0.00036828074
-0.017530728 0.046161734 0.009493905 0.04172021 -0.017668223 0.030102672 0.028518459 0.03599397
0.032569498 0.035282187 0.0016459952 0.0053882133 -0.04983318 0.046154447 0.01833436 -0.016322045
-0.051314887 -0.027085327 -0.0053889058 0.03069569 -0.0028178114 0.024645658 0.012305715 0.06082214
0.057358034 0.0413151 -0.060770474 -0.02361268 0.026157208 0.04063241 0.042080805 -0.023231167
0.0075339875 0.010406755 0.026955446 -0.047145728 -0.0578491 0.05712916 0.010579047 0.031206861
-0.048152633 -0.006525307 0.024553236 -0.05201369 -0.041164014 -0.0054222555 -0.019942293 0.056178246
-0.052084517 -0.047761656 -0.021196606 -0.01763139 -0.059080936 -0.002365706 0.0004126613 0.040731546

BN2.weight f4 [128]
00000000: 592a 7f3f ef68 803f eae6 7e3f b36a 803f
00000010: 8e60 803f 3044 7f3f 8c38 7f3f a9a3 803f
00000020: 9c96 803f ebe2 7e3f 4a65 7f3f 14dd 803f
00000030: bd80 803f d6fd 7e3f 6698 7f3f 4c0b 803f
00000040: 8841 803f 5e32 803f 941b 803f ec20 7f3f
00000050: 8eb6 803f 891b 7f3f b057 7f3f 7a94 803f
00000060: 8eb9 7e3f fc83 803f c11e 7f3f 68af 7f3f
00000070: 7e38 7f3f c162 803f ae36 803f 8dbb 803f
00000080: 649f 7e3f e08d 803f 511d 803f a55b 7f3f
00000090: 9574 803f a24a 803f d3cc 7f3f a39c 7f3f
000000a0: 8d67 803f d1fd 7e3f f569 7f3f 95e8 7f3f
000000b0: 3f90 7f3f f299 7f3f 7d07 803f 6d39 803f
000000c0: 8fa5 803f ed88 803f 4d4e 803f 735d 803f
000000d0: 9dbe 7f3f 7333 7f3f 9f0b 7f3f 42c3 803f
000000e0: ce29 803f 787b 803f a236 803f f62d 803f
000000f0: d567 803f cd57 7f3f 53a7 7f3f 631d 7f3f
00000100: 061a 7f3f 09d0 7f3f f3a0 7e3f 39c9 7f3f
00000110: 6997 7f3f 1403 803f fb92 7e3f 7055 803f
00000120: 7ce1 7e3f 22d5 7e3f 80ab 803f c6cd 7f3f
00000130: f96a 7f3f 9727 803f 3260 7f3f e157 7f3f
00000140: 6b70 7f3f 49a2 7e3f dcb1 803f d15d 803f
00000150: 7be7 7e3f c368 803f 82f4 7f3f ff41 803f
00000160: 9569 7f3f a273 803f 121a 7f3f 5cdd 803f
00000170: a68f 7f3f 549c 803f 137a 803f 364a 7f3f
00000180: 2daf 803f f542 7f3f 40c6 803f a843 803f
00000190: 622c 803f b7f3 7f3f d29a 7f3f c4a6 7f3f
000001a0: 9049 803f 5e90 7f3f 9c49 7e3f bb8d 803f
000001b0: 23b3 7e3f 23ec 7f3f 9dde 7e3f 6d8c 7e3f
000001c0: 6050 803f dbd6 7e3f 3e5d 803f 8760 803f
000001d0: 341f 803f ee2a 803f 792f 803f f517 7f3f
000001e0: e57f 803f bab3 803f d06d 7e3f da33 803f
000001f0: 7106 7f3f 053d 803f be64 803f 375f 803f
0.9967399 1.0032023 0.99571097 1.0032562 1.0029466 0.9971342 0.9969566 1.0049945
1.0045962 0.99565 0.9976393 1.0067468 1.0039288 0.9960607 0.99841917 1.0003448
1.0019999 1.0015371 1.0008416 0.9965961 1.0055711 0.9965139 0.99743176 1.0045311
0.99501884 1.0040278 0.996563 0.99877024 0.99695575 1.0030137 1.0016687 1.0057236
0.9946196 1.0043297 1.0008947 0.99749213 1.0035578 1.0022776 0.9992191 0.99848384
1.0031601 0.99606043 0.9977105 0.99964267 0.9982948 0.99844277 1.0002285 1.0017525
1.0050524 1.0041786 1.0023896 1.0028518 0.9990023 0.9968788 0.9962711 1.0059588
1.0012758 1.003768 1.0016673 1.0014026 1.0031687 0.9974335 0.9986469 0.99654216
0.99649084 0.9992681 0.9946434 0.99916416 0.9984041 1.0000939 0.99443024 1.0026073
0.9956281 0.99543965 1.0052338 0.9992336 0.997726 1.0012082 0.9975616 0.9974347
0.9978091 0.9946638 1.0054278 1.002863 0.9957196 1.0031971 0.99982464 1.002014
0.9977048 1.0035288 0.99649155 1.0067554 0.99828565 1.0047708 1.0037254 0.9972261
1.005346 0.99711543 1.0060501 1.0020647 1.0013545 0.99981254 0.9984561 0.9986384
1.002245 0.9982966 0.9933107 1.0043253 0.9949209 0.9996969 0.9955843 0.9943302
1.0024529 0.99546593 1.0028455 1.0029458 1.0009522 1.0013101 1.0014488 0.9964593
1.003903 1.0054848 0.9938631 1.0015824 0.99619204 1.0018622 1.0030744 1.0029057
