Trained_Models/BotDetection_v4_MLP___May-10-2024/BotDetection_v4_MLP_epoch94_val_loss_0.482608.pth (torch, 965953 bytes, 45 tensors)

L1.weight f4 [256, 133]
0.008059851 0.058220454 0.085139774 -0.1911262 0.024438214 0.042295344 0.19758603 -0.03343593
0.011046761 0.05123348 -0.077899314 0.023444664 -0.0520236 -0.05551845 -0.13126183 0.0939374
-0.019696223 -0.04413885 -0.002266899 -0.0515214 -0.028778708 -0.011783706 -0.049040094 -0.03874187
0.071692005 -0.109293476 0.03018849 -0.11077196 0.024746938 0.11310449 -3.664084e-05 -0.038162936
-0.08903597 -0.020639047 -0.05395475 0.0801454 0.107397735 0.068869725 -0.08385975 -0.06684536
0.20777318 -0.012908491 -0.037292108 -0.005679713 -0.023519106 0.08975272 0.0056473827 0.07015519
-0.034977976 0.07868787 0.045695215 0.008355347 0.062412906 0.10400356 -0.028939597 0.0004600616
-0.044389497 0.052679323 -0.2018669 -0.03725251 -0.17995866 0.012774874 -0.17064576 -0.05386109
0.14536798 -0.12320464 -0.07995264 0.13602228 -0.02189394 -0.05256057 0.05564364 0.11098771
0.09874897 0.06654619 -0.05020249 -0.02687679 -0.07759622 0.0048319134 -0.016347274 0.02255335
-0.008744862 -0.038040433 -0.07543692 -0.032372605 0.06205688 -0.053346373 -0.1861581 -0.10724555
0.036698774 -0.030789176 0.018199986 0.16459592 -0.09784751 -0.0031636169 -0.033635072 0.050877634
0.035581008 -0.08676677 -0.04160643 0.019486148 0.03238832 -0.12054281 0.13063288 -0.16991383
-0.06164431 0.07518649 0.06680271 -0.0424144 -0.04357227 -0.06304042 0.04688237 -0.10532709
-0.04688536 -0.020888507 0.01997209 -0.019019531 0.021548098 0.103071235 0.07489141 0.08388641
-0.09738042 0.050306115 0.008298907 0.20867577 -0.12877555 -0.009792215 0.042126387 0.07710711
-0.07403517 0.012469177 0.06410784 0.043749306 -0.053328935 0.005316792 0.040179934 -0.015300275
0.09528799 -0.037062924 0.075646676 -0.07515751 -0.03364964 0.05347991 -0.042420007 0.013094268
-0.0064072204 -0.05839082 0.064975485 0.076977625 0.013393712 -0.0719422 -0.008135354 -0.018082084
0.050922573 -0.02666464 0.00024061241 -0.06440984 -0.11293514 -0.10261619 -0.0350159 -0.07456355
-0.01379637 -0.078337386 0.054287314 -0.012293302 -0.027669668 0.06966248 0.065226324 -0.056075107
-0.021561418 0.121857494 0.06548073 0.15270072 0.078157775 0.057362568 -0.03589952 0.020490907
0.02244765 0.14783448 -0.03753431 0.023249172 0.054781485 0.061224982 0.028948624 -0.08523225
-0.06998177 0.06814409 0.14872777 -0.06780352 -0.06261973 -0.0019758176 0.06872626 0.086967126
-0.08536346 0.08689436 0.058865406 0.01717354 -0.10754431 0.0075118 0.036682118 -0.05640577
-0.01696921 -0.015855996 -0.026292944 -0.019921176 0.11781801 0.025109947 -0.03904759 -0.013697351
0.006514549 0.08315615 -0.051212963 -0.010103201 -0.024921635 -0.04386862 -0.005620071 -0.10215959
-0.09723692 0.08602387 -0.03471784 0.058530502 -0.0532096 0.014504969 -0.1811851 0.12454077
-0.17587182 -0.054454383 -0.12367864 0.048919737 0.003305838 -0.028653082 -0.059262875 -0.060151637
0.044480518 0.15409765 0.012874947 0.05046769 -0.019196095 0.035809733 0.09477523 0.05003942
-0.115568124 0.0071946084 0.00425003 -0.031896673 -0.0562894 0.046228647 -0.06726597 0.023886971
0.01490997 0.049573552 0.08063673 0.08995464 -0.048266523 -0.1591657 -0.081513114 -0.08042836
00000000: 770d 043c 9278 6e3d c35d ae3d 96b6 43be
00000010: a632 c83c e23d 2d3d fe53 4a3e 1df4 08bd
00000020: 79fd 343c 33da 513d ad89 9fbd 060f c03c
00000030: b316 55bd 5067 63bd 8069 06be 4062 c03d
00000040: f959 a1bc f0ca 34bd 4190 14bb 1b08 53bd
00000050: 53c1 ebbc 7210 41bc 44de 48bd ccaf 1ebd
00000060: 42d3 923d 42d5 dfbd da4d f73c 69dc e2bd
00000070: 17ba ca3c 54a3 e73d cdae 19b8 bd50 1cbd
00000080: 7e58 b6bd 3813 a9bc a8ff 5cbd 4523 a43d
00000090: 58f3 db3d 920b 8d3d a9be abbd 38e6 88bd
000000a0: 7ec2 543e 237e 53bc 9cbf 18bd e31c babb
000000b0: 24ab c0bc 46d0 b73d ae0d b93b 86ad 8f3d
000000c0: 1145 0fbd 1b27 a13d e82a 3b3d dee4 083c
000000d0: ada4 7f3d d2ff d43d bc12 edbc 6c34 f139
000000e0: c3d1 35bd 46c6 573d 32b6 4ebe 1796 18bd
000000f0: 1547 38be b54d 513c c3bd 2ebe 729d 5cbd
00000100: 58db 143e b752 fcbd 36be a3bd 6d49 0b3e
00000110: ec5a b3bc c149 57bd 96ea 633d 864d e33d
00000120: e63c ca3d 5e49 883d 20a1 4dbd b72c dcbc
00000130: c4ea 9ebd 0755 9e3b b8ea 85bc cec1 b83c
00000140: 9c46 0fbc 49d0 1bbd ac7e 9abd 2399 04bd
00000150: 5b2f 7e3d ba81 5abd 3ba0 3ebe 8ea3 dbbd
00000160: 7451 163d 9539 fcbc 2318 953c d58b 283e
00000170: 4664 c8bd af54 4fbb eec4 09bd 1165 503d
00000180: 64bd 113d c7b2 b1bd 816b 2abd 6aa1 9f3c
00000190: 9da9 043d 26df f6bd a0c4 053e e4fd 2dbe
000001a0: be7e 7cbd 60fb 993d dccf 883d b9ba 2dbd
000001b0: d678 32bd 561b 81bd ba07 403d bbb5 d7bd
000001c0: dd0a 40bd 601e abbc 829c a33c d9ce 9bbc
000001d0: a385 b03c 0317 d33d ab60 993d a3cc ab3d
000001e0: 636f c7bd c90d 4e3d 24f8 073c 1aaf 553e
000001f0: bddd 03be 876f 20bc b88c 2c3d 55ea 9d3d
00000200: c09f 97bd 854b 4c3c f94a 833d 7932 333d
00000210: 716f 5abd 7c38 ae3b b793 243d 01ae 7abc
00000220: 5a26 c33d 4bcf 17bd a5ec 9a3d 2eec 99bd
00000230: 34d4 09bd c00d 5b3d 9ac0 2dbd 5789 563c
00000240: a9f3 d1bb 362b 6fbd de11 853d 72a6 9d3d
00000250: 4d71 5b3c 6f56 93bd 264a 05bc e120 94bc
00000260: 3094 503d ce6f dabc e74c 7c39 4ee9 83bd
00000270: 8a4a e7bd 7028 d2bd d56c 0fbd c6b4 98bd
00000280: 2b0a 62bc 5a6f a0bd 605c 5e3d d969 49bc
00000290: 80ab e2bc 34ab 8e3d 6195 853d 03af 65bd
000002a0: 92a1 b0bc 6c90 f93d c31a 863d 945d 1c3e
000002b0: 2f11 a03d 03f5 6a3d 600b 13bd 8cdc a73c
000002c0: 22e4 b73c ec61 173e 94bd 19bd 0c75 be3c
000002d0: 8d62 603d 0cc7 7a3d aa25 ed3c 3f8e aebd
000002e0: 9a52 8fbd 218f 8b3d 184c 183e 92dc 8abd
000002f0: c63e 80bd b87c 01bb 5ac0 8c3d d21b b23d
00000300: 0ad3 aebd acf5 b13d da1c 713d 86af 8c3c
00000310: 3140 dcbd 8c25 f63b fd3f 163d bd09 67bd
00000320: 0303 8bbc 6fe4 81bc 4d64 d7bc bc31 a3bc
00000330: 924a f13d 60b3 cd3c 5ef0 1fbd db6a 60bc
00000340: ff77 d53b c64d aa3d afc4 51bd e587 25bc
00000350: 7528 ccbc 95af 33bd 9328 b8bb 0c39 d1bd
00000360: 2624 c7bd 482d b03d 4b34 0ebd aebd 6f3d
00000370: 4ff2 59bd 40a6 6d3c 9688 39be 3b0f ff3d
00000380: be17 34be 8f0b 5fbd 3a4b fdbd 1060 483d
00000390: c2a6 583b deb9 eabc a1bd 72bd 9061 76bd
000003a0: 3431 363d c6cb 1d3e 71f1 523c 35b7 4e3d
000003b0: 2141 9dbc 3aad 123d 8419 c23d 23f6 4c3d
000003c0: fbae ecbd c0c0 eb3b d643 8b3b 16a6 02bd
000003d0: b78f 66bd 405a 3d3d bec2 89bd 9cae c33c
000003e0: f248 743c a30d 4b3d df24 a53d 233a b83d
000003f0: 1eb3 45bd 55fc 22be 59f0 a6bd a0b7 a4bd

L1.bias f4 [256]
-0.08148722 -0.01847857 0.06129861 -0.016905457 -0.021753252 -0.06100861 0.032678854 0.04169913
-0.052440163 -0.076994754 -0.023126483 0.06055003 -0.064385824 -0.035792794 -0.08508216 -0.009828827
0.01846189 0.03522101 -0.04131986 0.08282495 0.0073046973 -0.061875433 0.017416695 0.031905044
0.0558501 0.061462283 -0.022117728 -0.01740142 -0.043822497 0.035378445 -0.06617179 -0.02318791
-0.013998135 -0.07097576 0.033528607 0.0197198 0.07372207 -0.053648576 0.07803314 0.036538277
-0.026629271 -0.066067755 -0.08186789 0.031731017 -0.042220965 -0.025049083 -0.033827372 -0.01627153
0.0074068517 0.074472226 0.056562502 0.06444187 0.004761038 -0.026770493 -0.03983285 0.050037365
-0.0073245405 0.033974763 -0.0775799 0.043351885 -0.045323938 -0.009371909 0.06967158 0.052809272
-0.050167218 0.07155042 -0.07017851 0.03960501 0.013853533 0.07979346 0.008681235 -0.018752161
0.0737996 -0.051180903 0.060009383 -0.032640114 -0.011700734 -0.03738933 0.056775462 -0.054408997
-0.024507724 0.006029718 0.07696842 -0.011840744 -0.037108626 -0.009942111 0.019572325 -0.038224973
0.08622355 0.035095606 -0.030764844 0.05073728 -0.02515266 0.018987458 -0.015181767 -0.06754595
-0.07231865 -0.07549039 -0.048193403 -0.005328688 0.011284364 0.014376766 0.03909086 0.0054844464
0.08437913 -0.020336209 0.018220378 0.017838448 0.042651113 0.06919197 0.032488093 0.0431639
0.07678854 0.04182755 0.07874602 0.043997005 0.041832827 -0.0108350525 -0.053884946 0.07689627
0.044657633 0.025907643 0.035235427 -0.023942327 -0.010251166 0.06917305 0.022764815 -0.08383863
0.07011608 0.025746744 -0.042435564 -0.038771812 -0.06456466 0.08096342 -0.040714383 -0.038895007
0.027783018 -0.034654733 0.04553755 -0.030404694 -0.020525806 -0.02681872 0.0049337074 0.043478128
-0.013585535 0.06805652 -0.08569648 -0.06628451 0.024400577 -0.0065194736 -0.0130943265 0.024869781
-0.07088577 -0.0092021385 -0.061719414 0.07719239 0.01888484 0.05166153 -0.055633064 -0.020739935
0.046492487 0.07321728 -0.072372146 -0.023491597 -0.0156467 0.08027081 -0.05371618 0.03201053
0.06346397 -0.06557101 0.08157483 -0.08511778 -0.06354973 -0.025106091 0.00431162 0.0031104526
0.06449798 0.074553885 -0.02350046 0.020082774 -0.030384937 0.024713097 -0.0016863178 0.0404397
0.0014359165 -0.02689959 0.03705162 0.06257193 -0.040381372 0.023062792 0.00015035388 -0.02501398
0.036939483 0.049375474 0.038922988 -0.073627956 -0.03134845 0.07166227 0.049587797 0.048763044
-0.05260179 0.031074408 -0.010929633 -0.033554334 0.05151822 0.08326849 0.03875672 0.06339884
-0.049554408 0.042610273 -0.08004508 -0.020871377 -0.020767592 -0.07122171 -0.027113577 0.065447606
-0.0425096 0.07475694 0.043179717 -0.03488567 0.048609503 -0.080599725 0.036265817 -0.041313827
-0.06833416 0.08533655 -0.0033595518 -0.05331927 0.08566168 0.021595627 -0.013098964 -0.032697614
0.07787583 0.04812225 0.07821823 0.031577263 0.06829719 -0.00086664275 0.019357603 0.021839663
0.08191965 0.06495153 0.05187999 -0.083496295 0.063442186 0.04732282 -0.019240417 0.015914604
-0.085153334 -0.048366133 0.06690607 -0.07987292 0.00052661536 0.015363295 -0.004070103 -0.050590586
00000000: c6e2 a6bd 5f60 97bc 4014 7b3d 507d 8abc
00000010: e033 b2bc 2ae4 79bd 43da 053d b5cc 2a3d
00000020: 7fcb 56bd 6daf 9dbd c073 bdbc 4f03 783d
00000030: b7dc 83bd 779b 12bd 8e3f aebd 1709 21bc
00000040: 643d 973c e843 103d 033f 29bd 21a0 a93d
00000050: 3e5c ef3b 1871 7dbd 75ad 8e3c ddae 023d
00000060: 13c3 643d e0bf 7b3d 3d30 b5bc 6c8d 8ebc
00000070: 387f 33bd fde8 103d 1385 87bd 92f4 bdbc
00000080: 6f58 65bc bd5b 91bd 4b55 093d 6b8b a13c
00000090: 99fb 963d 9cbe 5bbd d7cf 9f3d 29a9 153d
000000a0: a125 dabc 884e 87bd 5aaa a7bd 62f8 013d
000000b0: e4ef 2cbd bc33 cdbc 928e 0abd df4b 85bc
000000c0: 2db5 f23b e584 983d 15ae 673d 19fa 833d
000000d0: 7b02 9c3b cb4d dbbc c527 23bd fbf3 4c3d
000000e0: b302 f0bb 1f29 0b3d 36e2 9ebd bf91 313d
000000f0: 98a5 39bd a38c 19bc f9af 8e3d 894e 583d
00000100: 247c 4dbd 0789 923d c0b9 8fbd dd38 223d
00000110: eef9 623c c16a a33d bd3b 0e3c 229e 99bc
00000120: 3f24 973d 11a3 51bd 66cc 753d a4b1 05bd
00000130: 6fb4 3fbc 8e25 19bd 638d 683d f8db 5ebd
00000140: 6cc4 c8bc f194 c53b 9ea1 9d3d aeff 41bc
00000150: 37ff 17bd 3ce4 22bc 2456 a03c ca91 1cbd
00000160: f995 b03d 69c0 0f3d 8e06 fcbc e5d1 4f3d
00000170: f40c cebc 968b 9b3c f2bc 78bc 8855 8abd
00000180: cd1b 94bd b59a 9abd 7266 45bd 469c aebb
00000190: 0ee2 383c 878c 6b3c bd1d 203d dfb6 b33b
000001a0: f7ce ac3d 1f98 a6bc e742 953c f021 923c
000001b0: efb2 2e3d 85b4 8d3d 3c12 053d a1cc 303d
000001c0: 4f43 9d3d 5d53 2b3d 9845 a13d 3436 343d
000001d0: e658 2b3d 8185 31bc 76b6 5cbd cb7b 9d3d
000001e0: ecea 363d 443c d43c 0653 103d b322 c4bc
000001f0: 82f4 27bc 9aaa 8d3d 477d ba3c 96b3 abbd
00000200: 0599 8f3d d6ea d23c ead0 2dbd 31cf 1ebd
00000210: 7a3a 84bd 26d0 a53d 20c4 26bd 5f50 1fbd
00000220: 3699 e33c 1ff2 0dbd 9585 3a3d 4413 f9bc
00000230: bc25 a8bc efb2 dbbc f0aa a13b 1f16 323d
00000240: dd95 5ebc 3761 8b3d a381 afbd 2cc0 87bd
00000250: b8e3 c73c 4fa1 d5bb 9689 56bc b6bb cb3c
00000260: 8f2c 91bd 91c4 16bc 7fcd 7cbd 0b17 9e3d
00000270: 61b4 9a3c 0a9b 533d 7fdf 63bd cce6 a9bc
00000280: e86e 3e3d f1f2 953d d937 94bd 7371 c0bc
00000290: 822d 80bc 0665 a43d 7f05 5cbd 791d 033d
000002a0: 66f9 813d 184a 86bd b410 a73d 3b52 aebd
000002b0: 5c26 82bd 4aab cdbc 7d48 8d3b bcd8 4b3b
000002c0: 8417 843d b5af 983d 0984 c0bc a184 a43c
000002d0: d5e9 f8bc 1f73 ca3c 7007 ddba 19a4 253d
000002e0: 5d35 bc3a 875c dcbc 71c3 173d b625 803d
000002f0: f066 25bd 2eee bc3c 50a8 1d39 1eea ccbc
00000300: db4d 173d f03d 4a3d b66d 1f3d 41ca 96bd
00000310: 3b67 00bd abc3 923d 931c 4b3d c2bb 473d
00000320: f974 57bd c28f fe3c 3412 33bc 4570 09bd
00000330: c504 533d ac88 aa3d 5ebf 1e3d 40d7 813d
00000340: 90f9 4abd 1c88 2e3d adee a3bd 73fa aabc
00000350: cc20 aabc b0dc 91bd 4b1d debc 6509 863d
00000360: 8c1e 2ebd 2b1a 993d 37dd 303d 47e4 0ebd
00000370: c21a 473d 7811 a5bd 778b 143d b038 29bd
00000380: c8f2 8bbd eec4 ae3d ed2b 5cbb 4f65 5abd
00000390: 646f af3d 50e9 b03c 099d 56bc efed 05bd
000003a0: 5d7d 9f3d d61b 453d e130 a03d 2957 013d
000003b0: 66df 8b3d 692f 63ba d693 9e3c 18e9 b23c
000003c0: 7dc5 a73d 4f05 853d 1d80 543d 1b00 abbd
000003d0: faed 813d 93d5 413d 149e 9dbc 585f 823c
000003e0: df64 aebd 911b 46bd 0d06 893d 6a94 a3bd
000003f0: 8f0c 0a3a 54b6 7b3c 805e 85bb 1338 4fbd

BN1.weight f4 [256]
0.9959258 1.0003309 0.9809057 0.9660615 0.9883368 1.0118448 1.0182599 0.9950335
0.9988231 1.0194476 0.9847619 0.9843567 0.9981562 1.0140206 1.0448177 1.0018618
1.0157037 1.0059385 0.9980406 1.0071163 0.9838361 0.9933327 1.0607095 1.0136759
1.0178319 1.017304 1.0412807 1.007698 1.0291194 1.0373788 1.042254 0.99997336
1.02657 0.9937221 0.99269193 1.0183916 1.0469208 1.0214102 0.9990822 1.0190463
1.0121142 1.0343767 1.0125104 1.041237 0.9988897 1.015731 1.0011805 0.98884773
1.0525246 1.0035019 0.9806519 0.99346507 0.98799324 1.0192462 0.99435127 0.9972447
1.0059676 1.0133486 1.0031245 1.0493134 0.9936427 1.011959 1.0407815 1.0356365
0.9709187 1.0106591 0.98632675 1.0232075 0.9980978 1.0955547 0.9960613 0.9735709
1.0338478 1.0293691 1.008741 1.0031136 1.0097687 1.0385301 1.0208788 1.0212328
1.0199275 0.9915431 1.0028752 0.9881236 1.0069433 1.0052522 1.0123044 1.0348234
1.0322073 1.0031083 1.0188272 1.0361439 1.0130066 1.0028095 1.0271399 1.0260482
1.0092299 1.0197078 1.0039963 1.0348543 0.9967323 0.9965358 1.0088724 1.0232124
1.0228107 1.0315005 1.0038879 1.0361289 1.0236477 1.03023 1.0168182 1.0369672
0.98671883 1.0206603 1.0401328 1.0458899 1.0487 0.98648626 0.994003 0.9973057
0.99267405 0.98096246 1.0242374 0.9835273 1.0052286 1.0055692 1.0253493 1.0275452
0.99208957 1.003948 0.987257 0.9860238 0.99746084 1.014032 1.0091826 1.0217656
1.0256188 0.9798521 1.0152371 0.98373324 1.0322287 1.0100107 0.99887 1.0040901
1.0474021 1.002878 1.008668 1.0212057 1.0191896 1.0144596 1.0351223 0.9902723
1.0120431 0.99120235 1.0280386 0.9912587 0.9976389 1.0164617 0.982478 1.0101583
0.9923317 1.0258659 0.98614645 1.0066711 1.0142114 0.9985546 1.0818046 0.987678
1.02173 1.0041877 1.0426235 0.988689 1.002223 1.0134164 1.0208843 1.0156257
0.98684764 1.0242745 0.9878772 1.0065988 1.0154619 1.0167338 1.0141723 0.9871138
1.0263574 1.0186976 0.9929742 0.9913592 1.0131032 0.99941784 1.0132204 0.99633557
1.0001072 1.0154741 1.0102623 1.0257883 1.0637994 1.0084407 1.0450932 1.0117425
1.0016055 1.0206304 1.0323619 0.990228 1.0250415 0.9927849 0.98096657 0.9996847
0.99335647 1.0209523 1.0434955 1.001728 1.0152504 0.9984797 1.0331022 1.003864
1.018913 1.0254064 1.018345 0.9960847 1.0257503 0.9829347 0.9946251 1.0174667
1.0156415 0.99351645 1.0088603 1.0001761 1.00804 1.0550536 0.99818254 1.0292064
1.0594549 0.98646635 1.0159023 1.0312316 1.0510653 1.0387658 1.0017635 0.9732917
0.97901577 0.9757524 1.0132859 1.048547 0.9970255 0.98348445 0.9881957 0.9965507
1.0303606 1.0106889 0.99995834 1.0230238 1.0015378 1.0030769 1.0407137 1.065393
00000000: fef4 7e3f d80a 803f a31c 7b3f ce4f 773f
00000010: a403 7d3f 2184 813f 5756 823f 84ba 7e3f
00000020: dfb2 7f3f 427d 823f 5b19 7c3f cdfe 7b3f
00000030: 2a87 7f3f 6dcb 813f 96bc 853f 023d 803f
00000040: 9402 823f 98c2 803f 977f 7f3f 30e9 803f
00000050: afdc 7b3f 0d4b 7e3f 54c5 873f 22c0 813f
00000060: 5148 823f 0437 823f b048 853f 40fc 803f
00000070: 2fba 833f d4c8 843f 9468 853f 41fe 7f3f
00000080: a566 833f 9264 7e3f 0f21 7e3f a85a 823f
00000090: 8001 863f 92bd 823f dac3 7f3f 1c70 823f
000000a0: f58c 813f 7566 843f f199 813f 4147 853f
000000b0: 3cb7 7f3f 7903 823f af26 803f 2025 7d3f
000000c0: 20b9 863f c072 803f 010c 7b3f ba53 7e3f
000000d0: 20ed 7c3f a976 823f ce8d 7e3f 6e4b 7f3f
000000e0: 8cc3 803f 68b5 813f 6266 803f e74f 863f
000000f0: 5e5f 7e3f df87 813f 5438 853f bd8f 843f
00000100: 218e 783f 475d 813f e97f 7c3f 77f8 823f
00000110: 5683 7f3f 233b 8c3f e0fd 7e3f f13b 793f
00000120: 2055 843f 5ec2 833f 6d1e 813f 0766 803f
00000130: 1a40 813f 8eee 843f 28ac 823f c2b7 823f
00000140: fc8c 823f c5d5 7d3f 375e 803f abf5 7c3f
00000150: 85e3 803f 1bac 803f 3193 813f 1875 843f
00000160: 5e1f 843f da65 803f ee68 823f 5da0 843f
00000170: 33aa 813f 105c 803f 5279 833f 8c55 833f
00000180: 722e 813f c985 823f f382 803f 1b76 843f
00000190: d929 7f3f f81c 7f3f bb22 813f a0f8 823f
000001a0: 76eb 823f 3508 843f 667f 803f df9f 843f
000001b0: e306 833f 94de 833f 1927 823f 57bb 843f
000001c0: 9b99 7c3f ffa4 823f 1223 853f b8df 853f
000001d0: cd3b 863f 5d8a 7c3f fb76 7e3f 6d4f 7f3f
000001e0: e31f 7e3f 5b20 7b3f 361a 833f 72c8 7b3f
000001f0: 55ab 803f 7eb6 803f a53e 833f 9a86 833f
00000200: 95f9 7d3f 5e81 803f e0bc 7c3f 0e6c 7c3f
00000210: 9859 7f3f cdcb 813f e52c 813f 37c9 823f
00000220: 7a47 833f 96d7 7a3f 4af3 813f f1d5 7b3f
00000230: 1220 843f 0848 813f f2b5 7f3f 0686 803f
00000240: 4611 863f 4e5e 803f 081c 813f deb6 823f
00000250: ce74 823f d0d9 813f e37e 843f 7c82 7d3f
00000260: a18a 813f 70bf 7d3f c596 833f 21c3 7d3f
00000270: 4365 7f3f 6b1b 823f ae83 7b3f de4c 813f
00000280: 7309 7e3f 934f 833f 1874 7c3f 99da 803f
00000290: aed1 813f 46a1 7f3f 9378 8a3f 77d8 7c3f
000002a0: 0cc8 823f 3989 803f b074 853f b91a 7d3f
000002b0: d848 803f a1b7 813f 56ac 823f 0600 823f
000002c0: 0ca2 7c3f 6d1b 833f 85e5 7c3f 3bd8 803f
000002d0: a8fa 813f 5524 823f 66d0 813f 7db3 7c3f
000002e0: ae5f 833f af64 823f 8f33 7e3f b7c9 7d3f
000002f0: 5ead 813f d9d9 7f3f 35b1 813f d90f 7f3f
00000300: 8303 803f 0efb 813f 4650 813f 084d 833f
00000310: 942a 883f 9614 813f 9dc5 853f c780 813f
00000320: 9c34 803f 04a4 823f 6f24 843f 957f 7d3f
00000330: 8f34 833f 2727 7e3f a020 7b3f 56eb 7f3f
00000340: 9c4c 7e3f 91ae 823f 4391 853f a038 803f
00000350: baf3 813f 5e9c 7f3f b13c 843f 9e7e 803f
00000360: be6b 823f 8440 833f 2159 823f 68ff 7e3f
00000370: c94b 833f 9ca1 7b3f c09f 7e3f 593c 823f
00000380: 8a00 823f 1857 7e3f 5622 813f c505 803f
00000390: 7407 813f ff0b 873f e488 7f3f 09bd 833f
000003a0: 389c 873f 0f89 7c3f 1609 823f 66ff 833f
000003b0: 4f89 863f 47f6 843f c939 803f a529 793f
000003c0: c7a0 7a3f e9ca 793f 5ab3 813f ca36 863f
000003d0: 103d 7f3f a3c5 7b3f 65fa 7c3f f21d 7f3f
000003e0: dbe2 833f 415e 813f 45fd 7f3f 72f2 823f
000003f0: 6432 803f d364 803f 1b36 853f cc5e 883f

BN1.bias f4 [256]
0.04515587 -0.042087816 -0.006624613 0.09521319 0.04819228 -0.06788854 -0.01262531 -0.036194783
-0.0053369226 -0.045561146 0.03381111 -0.02594521 0.031056972 -0.087481424 -0.10219626 -0.017623262
-0.007396567 0.011047739 -0.038700663 -0.01626953 0.012810224 0.028734732 -0.14224999 -0.027152829
0.021829752 -0.047509972 -0.0151082715 0.0032375713 -0.03306386 -0.08184571 -0.09345019 -0.0104864985
-0.06421125 0.08116905 -0.08284738 0.021814939 -0.018604144 -0.034793936 -0.024160929 -0.019116264
-0.0048331334 -0.124424435 -0.07048889 -0.103467286 0.0066917986 -0.006749155 -0.10843071 -0.018321812
-0.053317048 -0.041766174 0.06769013 -0.0026168153 0.053242028 -0.07623363 0.056100555 -0.026242942
-0.032101218 -0.01286708 0.01552511 -0.09228609 0.017896542 -0.05117928 -0.039083615 -0.07363918
0.01657427 -0.005142341 0.010830572 -0.048496865 0.0065898504 -0.025285197 0.063599706 0.04737609
-0.031504687 0.0045232275 -0.0033659465 0.0113857975 -0.044914972 -0.12305638 -0.08466286 -0.043878578
-0.034001414 0.052278303 -0.04844705 -0.059597883 -0.0004759979 0.07228005 -0.016556647 -0.0192643
-0.04691616 -0.028786087 0.0009855379 -0.10760675 -0.04438212 -0.07443322 -0.047607157 -0.1732341
0.059881438 -0.01558152 0.05796056 -0.2093401 -0.08551861 0.033245973 -0.073130324 -0.051282555
-0.049535874 -0.049140386 -0.012664427 -0.021488048 -0.03230775 -0.08134189 -0.06451577 -0.11603242
-0.0593881 0.011412149 -0.03247843 -0.09628927 -0.006928315 0.006913613 -0.07379136 0.11419502
0.065587625 -0.010779827 -0.11333117 0.01673669 0.014965493 0.030344717 -0.054057874 -0.098957196
-0.013956225 -0.03862933 -0.0013951444 0.05173261 0.037491933 -0.06716062 0.0064625805 -0.065203495
-0.053319063 -0.031537596 -0.08473863 0.043135576 -0.09969399 0.020990325 -0.03904236 -0.090592265
-0.018466761 -0.035621785 0.006239621 -0.06442651 -0.07009711 -0.029329613 -0.07743521 -0.0228932
0.012245913 0.02859341 -0.09238494 -0.004815458 -0.011362937 -0.03560465 -0.026691915 -0.066109784
-0.047326267 -0.055172272 0.043268505 0.03366783 -0.053946424 -0.10687435 -0.11260318 -0.03779197
0.03159854 -0.06427568 0.040477794 -0.00842803 -0.02972648 -0.06132279 -0.039730918 0.01335493
0.021741198 -0.13899522 0.048749898 0.03685841 -0.007995944 -0.034651604 -0.089808516 0.0739981
-0.0028219773 -0.032693714 0.0016802865 0.00979598 -0.04380729 0.01795221 0.032780513 -0.030834232
-0.045386422 0.017845606 -0.00043116568 -0.039798673 -0.10219025 -0.19208895 -0.13453281 -0.030489646
0.018251373 -0.15550332 -0.06144951 0.015443131 -0.07488192 -0.018128688 0.007987431 -0.02498237
-0.010631232 0.02197756 -0.09419038 -0.023055581 -0.0641749 -0.05187202 -0.111524895 -0.017751575
-0.03807871 -0.07764235 -0.10139655 0.0235663 -0.050374985 -0.021151256 0.050241992 -0.10913648
-0.08489497 0.032931253 -0.047946334 -0.015521885 -0.022031907 -0.078820094 -0.08793232 -0.056110095
0.0046390346 0.055388503 -0.021321941 -0.07168079 -0.012289011 -0.046773218 -0.044327334 0.018928371
0.059785668 0.046402 -0.11567798 -0.011710971 -0.040156923 -0.04836368 -0.035065256 -0.06551362
-0.120763116 -0.09349238 0.016751204 0.0011156423 -0.07392186 -0.06065979 -0.07558262 -0.043398753
00000000: 5df5 383d 4664 2cbd 4813 d9bb 22ff c23d
00000010: 4565 453d 2609 8bbd 63da 4ebc fb40 14bd
00000020: 5ae1 aebb 539e 3abd 857d 0a3d 0d8b d4bc
00000030: 316b fe3c 7629 b3bd 464c d1bd a95e 90bc
00000040: e75e f2bb 9301 353c 9684 1ebd ad47 85bc
00000050: f9e1 513c 1a65 eb3c fba9 11be 9c6f debc
00000060: 4fd4 b23c d199 42bd af88 77bc 6f2d 543b
00000070: f86d 07bd b99e a7bd d062 bfbd 90cf 2bbc
00000080: 3081 83bd f53b a63d e3ab a9bd 3eb5 b23c
00000090: b867 98bc 1684 0ebd 24ed c5bc b699 9cbc
000000a0: 435f 9ebb 3dd2 febd 7b5c 90bd a8e6 d3bd
000000b0: e046 db3b 0428 ddbb ec10 debd a017 96bc
000000c0: fa62 5abd 0213 2bbd 1fa1 8a3d e07e 2bbb
000000d0: 5014 5a3d 6120 9cbd b2c9 653d 70fb d6bc
000000e0: 917c 03bd 72d0 52bc 085d 7e3c 7d00 bdbd
000000f0: c59b 923c 5da1 51bd 2416 20bd 23d0 96bd
00000100: c3c6 873c 1581 a8bb b672 313c a6a4 46bd
00000110: acef d73b e722 cfbc 9040 823d 6e0d 423d
00000120: 0f0b 01bd 9537 943b 3697 5cbb 7f8b 3a3c
00000130: c3f8 37bd fc04 fcbd b963 adbd 06ba 33bd
00000140: 1145 0bbd c621 563d 6a70 46bd e91c 74bd
00000150: 5b8f f9b9 9007 943d cea1 87bc 2ad0 9dbc
00000160: 292b 40bd cdd0 ebbc 2a2d 813a ee60 dcbd
00000170: 07ca 35bd 7270 98bd b9ff 42bd 4864 31be
00000180: 3d46 753d a249 7fbc 0d68 6d3d 405d 56be
00000190: 6224 afbd ee2c 083d 5ac5 95bd a80d 52bd
000001a0: 21e6 4abd 6e47 49bd 757e 4fbc b407 b0bc
000001b0: 2255 04bd 9496 a6bd d820 84bd 68a2 edbd
000001c0: f040 73bd 06fa 3a3c 1a08 05bd 4f33 c5bd
000001d0: eb06 e3bb 978b e23b ed1f 97bd 14df e93d
000001e0: ce52 863d df9d 30bc 2c1a e8bd 621b 893c
000001f0: d431 753c 7c95 f83c ca6b 5dbd 12aa cabd
00000200: a6a8 64bc ca39 1ebd 47dd b6ba 93e5 533d
00000210: 2491 193d 828b 89bd 0ec4 d33b 6989 85bd
00000220: 1765 5abd 912d 01bd 728b adbd eeae 303d
00000230: 5d2c ccbd e7f3 ab3c e2ea 1fbd 7088 b9bd
00000240: 9b47 97bc 26e8 11bd bc75 cc3b 0cf2 83bd
00000250: 138f 8fbd a844 f0bc 5a96 9ebd 858a bbbc
00000260: 15a3 483c ba3c ea3c 5134 bdbd fdca 9dbb
00000270: 9d2b 3abc 2ed6 11bd 01a9 dabc 9164 87bd
00000280: 30d9 41bd 52fc 61bd 513a 313d 47e7 093d
00000290: edf6 5cbd f0e0 dabd 7f9c e6bd c1cb 1abd
000002a0: 786d 013d f8a2 83bd 0bcc 253d b815 0abc
000002b0: f284 f3bc 9b2d 7bbd e3bc 22bd a3ce 5a3c
000002c0: 991a b23c c354 0ebe f9ad 473d d8f8 163d
000002d0: 6b01 03bc d7ee 0dbd 87ed b7bd 518c 973d
000002e0: ecf0 38bb d8e9 05bd 0f3d dc3a 517f 203c
000002f0: 466f 33bd 8310 933c dc44 063d 1298 fcbc
00000300: 1de7 39bd f330 923c 140e e2b9 ef03 23bd
00000310: 1f49 d1bd f7b2 44be f8c2 09be 6cc5 f9bc
00000320: e783 953c 433c 1fbe 7bb2 7bbd 3005 7d3c
00000330: b15b 99bd 9d82 94bc b7dd 023c d4a7 ccbc
00000340: 9e2e 2ebc 490a b43c e3e6 c0bd 0fdf bcbc
00000350: 216e 83bd c177 54bd 2a67 e4bd c06b 91bc
00000360: 6cf8 1bbd f402 9fbd ffa8 cfbd 1d0e c13c
00000370: 0056 4ebd 6645 adbc 8cca 4d3d f282 dfbd
00000380: 6add adbd ece2 063d 6063 44bd 814f 7ebc
00000390: 427c b4bc 6e6c a1bd dc15 b4bd b3d3 65bd
000003a0: 0b03 983b 0edf 623d 5aab aebc 61cd 92bd
000003b0: d957 49bc 4695 3fbd 9490 35bd ac0f 9b3c
000003c0: d1e1 743d 0610 3e3d 94e8 ecbd 5fdf 3fbc
000003d0: 967b 24bd fe18 46bd 96a0 0fbd 012c 86bd
000003e0: a752 f7bd ef78 bfbd d239 893c be3a 923a
000003f0: 5864 97bd 6676 78bd 10cb 9abd e4c2 31bd

BN1.running_mean f4 [256]
-8.778449 3.7382033 5.6038136 8.562059 -6.2072225 7.228387 24.289267 13.643251
8.659822 -3.4350698 4.7125044 19.548796 8.392528 -4.747067 -2.7990558 1.0806801
15.381859 -12.0301485 12.189475 12.898611 -2.6708612 13.802417 2.1409981 4.930027
-2.136518 0.014213108 -8.348938 5.8663607 -3.7902777 -0.5992328 6.0899324 -4.864127
7.4597273 -0.8527681 6.2055693 -8.518758 -7.92747 3.4320533 2.6442783 -3.464333
12.962924 15.94029 5.485379 2.064338 -7.5319486 3.3691678 9.8160715 1.6020133
-7.9055924 -5.378918 -6.2199893 -7.618583 4.7257714 -13.793185 3.5552404 2.3673704
-1.0333543 5.5115275 -8.515642 6.0241275 1.6686248 -16.343336 2.4615011 -4.3614855
-1.5712566 -1.5273473 14.195241 4.775625 -10.149107 0.4538416 -2.4947855 -6.95408
-1.7487677 11.348144 -13.383193 7.781897 8.256235 -7.387842 7.716558 -4.4380555
1.334527 0.5859496 6.5914044 11.345342 -4.6066365 0.0181938 -10.526361 3.1332054
-1.0835093 2.9033678 4.627704 9.529311 1.5890999 -8.553606 0.21868908 4.0540285
4.875208 -1.145119 -11.699616 -7.5999365 5.7721734 -3.1266253 5.0893035 4.568645
16.163595 -0.96240073 -7.256124 -6.9069104 -1.7088734 7.8307524 -11.63065 -7.947912
8.810857 -14.419555 2.1106777 8.4802 -9.675639 -12.939623 1.4830233 -9.7470255
-8.7466545 -15.527631 4.970913 -6.0105453 -0.113626964 -6.860758 -5.7529063 -0.5185493
-5.4109077 -10.033598 1.9069135 -11.3487 -0.36914635 -2.2425544 1.1295571 10.537542
-0.26836547 -0.9408607 2.4285784 14.712427 -5.534566 -8.309221 6.2685566 9.097184
0.21296942 0.21915545 -10.4166565 1.7038465 -2.919118 -0.52654564 -1.0360831 -2.4163082
-7.10712 7.349209 -1.6454723 -6.467983 -3.4197404 -16.613739 -12.59503 9.233408
-2.7838533 -0.74859023 -10.457957 8.813024 -12.137788 -10.868376 -0.7611265 17.751535
-18.279945 -2.725966 0.2716296 11.70019 15.518223 1.0348061 -0.7249778 -4.0107865
-2.542277 10.925584 7.05628 -15.388254 -8.256932 -1.0341265 11.41922 14.4647665
1.1317635 -10.213121 6.8936825 4.517823 -0.36149204 4.0696855 7.025256 -3.9551075
-9.259592 4.3235874 1.5016197 -9.191059 1.2027456 -11.202089 17.122385 -4.506418
-12.091434 -9.10996 1.5108056 -3.815918 -8.833467 12.82976 14.126357 -10.982817
4.500851 -0.6227825 -11.345152 3.569657 4.9560614 -7.2010937 -1.2868509 1.1810715
2.996673 -3.4074652 0.8630663 -3.532768 -6.335248 -13.743244 -4.4178925 0.8530442
-3.6183546 0.68255985 -1.3423353 -10.604269 3.883484 -8.432851 5.845477 0.456912
3.7639716 -12.140425 0.8519579 0.58627445 -8.800405 3.3740788 -2.62426 20.364012
-2.3342855 5.837778 -3.336413 6.015465 3.7269757 0.9466596 -8.086334 -5.346065
-20.620949 4.439569 18.08126 -5.758368 -8.200649 -7.034728 6.4111037 -6.465995
00000000: 8774 0cc1 b93e 6f40 7152 b340 32fe 0841
00000010: 91a1 c6c0 f24e e740 6b50 c241 c24a 5a41
00000020: a28e 0a41 2fd8 5bc0 d6cc 9640 ef63 9c41
00000030: cb47 0641 f9e7 97c0 bb23 33c0 ba53 8a3f
00000040: 181c 7641 7d7b 40c1 1708 4341 b660 4e41
00000050: 64ef 2ac0 b3d6 5c41 1d06 0940 c8c2 9d40
00000060: b6bc 08c0 19de 683c 4095 05c1 3ab9 bb40
00000070: e993 72c0 5267 19bf bae0 c240 eea6 9bc0
00000080: 16b6 ee40 034f 5abf 0694 c640 d54c 08c1
00000090: d6ad fdc0 c3a6 5b40 db3b 2940 a2b7 5dc0
000000a0: 2368 4f41 6e0b 7f41 3a88 af40 1d1e 0440
000000b0: b905 f1c0 72a0 5740 a10e 1d41 c60e cd3f
000000c0: 9dfa fcc0 1920 acc0 270a c7c0 6fcb f3c0
000000d0: 8539 9740 e3b0 5cc1 0f89 6340 ff82 1740
000000e0: f444 84bf 6f5e b040 1240 08c1 a7c5 c040
000000f0: 7f95 d53f 27bf 82c1 3c89 1d40 4a91 8bc0
00000100: f01e c9bf 1e80 c3bf b51f 6341 ecd1 9840
00000110: be62 22c1 ed5d e83e 91aa 1fc0 d387 dec0
00000120: 9fd7 dfbf ff91 3541 8f21 56c1 4d05 f940
00000130: 8a19 0441 3469 ecc0 0bee f640 8d04 8ec0
00000140: c8d1 aa3f cb00 163f c9ec d240 8586 3541
00000150: 9169 93c0 2a0b 953c fa6b 28c1 7086 4840
00000160: 6fb0 8abf c7d0 3940 2716 9440 0f78 1841
00000170: a067 cb3f 92db 08c1 08f0 5f3e 9aba 8140
00000180: b401 9c40 4293 92bf a131 3bc1 ae32 f3c0
00000190: a5b5 b840 a11a 48c0 93db a240 5732 9240
000001a0: 0b4f 8141 e55f 76bf 2b32 e8c0 6905 ddc0
000001b0: 5dbc dabf 8695 fa40 2417 3ac1 4c55 fec0
000001c0: 45f9 0c41 7fb6 66c1 5815 0740 e6ae 0741
000001d0: 6bcf 1ac1 b208 4fc1 b5d3 bd3f d1f3 1bc1
000001e0: 4cf2 0bc1 2d71 78c1 b811 9f40 6356 c0c0
000001f0: 41b5 e8bd 548b dbc0 cf17 b8c0 a6bf 04bf
00000200: 2826 adc0 9e89 20c1 be15 f43f 4694 35c1
00000210: c000 bdbe 0386 0fc0 5495 903f c699 2841
00000220: 3367 89be 3fdc 70bf d46d 1b40 1a66 6b41
00000230: 2a1b b1c0 92f2 04c1 0498 c840 118e 1141
00000240: a814 5a3e 496a 603e a0aa 26c1 a417 da3f
00000250: d4d2 3ac0 b2cb 06bf 5f9e 84bf cba4 1ac0
00000260: 876d e3c0 b82c eb40 d69e d2bf b7f9 cec0
00000270: 07dd 5ac0 f0e8 84c1 3e85 49c1 0abc 1341
00000280: a72a 32c0 9ca3 3fbf cb53 27c1 2502 0d41
00000290: 6134 42c1 dee4 2dc1 30d9 42bf 2503 8e41
000002a0: 543d 92c1 3a76 2ec0 0913 8b3e fa33 3b41
000002b0: a44a 7841 8774 843f 2598 39bf 5d58 80c0
000002c0: abb4 22c0 31cf 2e41 0ccd e140 4a36 76c1
000002d0: 651c 04c1 425e 84bf 20b5 3641 af6f 6741
000002e0: a0dd 903f f268 23c1 0c99 dc40 0292 9040
000002f0: 7c15 b9be dd3a 8240 e6ce e040 7b20 7dc0
00000300: 4a27 14c1 d45a 8a40 1335 c03f 940e 13c1
00000310: 91f3 993f c23b 33c1 a5fa 8841 9434 90c0
00000320: 8376 41c1 65c2 11c1 1462 c13f 0038 74c0
00000330: e155 0dc1 b246 4d41 8f05 6241 9eb9 2fc1
00000340: f906 9040 ad6e 1fbf be85 35c1 4375 6440
00000350: 0e98 9e40 5c6f e6c0 88b7 a4bf 5a2d 973f
00000360: 7ec9 3f40 e913 5ac0 eaf1 5c3f df18 62c0
00000370: 5aba cac0 54e4 5bc1 605f 8dc0 1b61 5a3f
00000380: 1f93 67c0 3ebc 2e3f a5d1 abbf 16ab 29c1
00000390: 008b 7840 f5ec 06c1 260e bb40 5ff0 e93e
000003a0: e9e4 7040 2e3f 42c1 ea19 5a3f 1516 163f
000003b0: 75ce 0cc1 e8f0 5740 e0f3 27c0 7fe9 a241
000003c0: ef64 15c0 14cf ba40 ca87 55c0 b07e c040
000003d0: c586 6e40 4958 723f a061 01c1 f712 abc0
000003e0: b4f7 a4c1 f310 8e40 6ca6 9041 8d44 b8c0
000003f0: dc35 03c1 7e1c e1c0 c327 cd40 6ee9 cec0

BN1.running_var f4 [256]
53.87539 43.986504 129.00105 93.783356 152.08603 197.2217 151.03949 96.84728
137.35558 125.80541 162.66487 183.75438 89.26499 87.96752 54.986008 154.24782
110.93552 88.47101 59.01423 139.29259 114.79188 45.252357 25.547121 63.277824
46.37818 99.703354 58.024857 76.51994 49.480602 204.13866 66.29189 128.99034
94.84542 92.134285 100.23072 45.404343 50.44888 94.74997 129.43233 47.63103
251.38062 59.667492 62.92248 75.197975 260.63876 106.253685 85.955795 39.495583
99.42238 69.937996 112.48854 89.534355 67.30806 113.382484 61.988853 100.04565
73.178215 98.37389 64.23933 26.750677 44.697 88.10281 67.648735 92.01176
157.63484 52.3888 77.08557 81.868004 150.08998 63.959133 116.46967 50.136585
66.48104 61.05689 97.90005 41.945286 80.54415 46.502045 94.80764 40.559032
36.139133 80.71828 67.12142 256.51465 63.440464 39.09049 119.48241 51.61368
58.353695 113.25702 102.98123 56.452583 60.0307 59.57114 70.01868 66.680504
98.28809 49.16768 86.38861 120.90186 119.74399 141.54993 46.100014 185.61926
67.391525 44.979206 50.73872 75.15084 64.523125 91.65043 130.55031 84.30055
62.48527 75.0427 69.11071 45.11902 45.23751 88.35448 81.684364 58.141045
97.51644 116.45503 85.18165 144.79192 77.18109 153.86948 35.520557 58.623093
126.69904 66.941864 79.37276 108.63027 214.12975 73.080414 147.59724 77.30218
91.34897 61.874584 80.29551 122.21735 46.646313 65.470795 53.40602 135.04622
16.783014 100.88725 80.54251 147.43895 53.221825 64.43485 71.13172 166.00633
40.17295 152.62177 35.89079 63.71233 54.730095 87.33896 83.47476 113.81389
27.605406 124.778496 96.20456 154.05385 74.63485 112.45618 39.879284 75.40586
133.67627 63.464436 30.086788 102.79306 80.77114 89.16927 60.06665 44.557835
72.36349 53.430477 144.98228 151.28484 51.45455 40.702827 77.9382 60.29398
40.85499 80.12937 96.59762 34.736237 45.81606 65.05131 78.75658 74.623375
149.71436 63.971424 85.705894 147.89888 42.867367 68.94981 129.38704 46.96223
82.25414 163.23483 47.325996 79.0776 108.07421 112.96618 108.05952 52.549175
72.722725 89.47694 57.920864 90.96144 104.97027 68.29792 44.28836 76.668335
82.92668 110.259636 45.630947 72.87926 62.967197 96.43433 235.1157 46.456577
133.2897 61.769566 62.100063 113.76316 181.13327 78.56387 165.8524 51.07834
64.13403 65.278114 63.689114 65.33535 94.77753 41.126595 78.90715 135.72089
67.87604 167.582 96.46091 47.6761 123.69343 87.97069 109.227684 173.13112
187.921 141.24352 124.25597 45.385525 87.46683 96.858154 43.92485 113.29597
00000000: 6680 5742 2ef2 2f42 4500 0143 1491 bb42
00000010: 0616 1843 c138 4543 1c0a 1743 cfb1 c142
00000020: 075b 0943 5f9c fb42 35aa 2243 1fc1 3743
00000030: ad87 b242 5fef af42 acf1 5b42 713f 1a43
00000040: fcde dd42 28f1 b042 920e 6c42 e74a 0b43
00000050: 7195 e542 6a02 3542 8160 cc41 7e1c 7d42
00000060: 4283 3942 1e68 c742 7419 6842 360a 9942
00000070: 23ec 4542 7f23 4c43 7395 8442 87fd 0043
00000080: dbb0 bd42 c144 b842 2176 c842 0c9e 3542
00000090: a7cb 4942 fc7f bd42 ad6e 0143 2d86 3e42
000000a0: 7061 7b43 83ab 6e42 9fb0 7b42 5d65 9642
000000b0: c351 8243 e381 d442 5ee9 ab42 7afb 1d42
000000c0: 42d8 c642 41e0 8b42 22fa e042 9711 b342
000000d0: ba9d 8642 d5c3 e242 96f4 7742 5f17 c842
000000e0: 3f5b 9242 6fbf c442 897a 8042 6301 d641
000000f0: bac9 3242 a434 b042 274c 8742 0506 b842
00000100: 85a2 1d43 228e 5142 d02b 9a42 6bbc a342
00000110: 0917 1643 27d6 7f42 79f0 e842 dd8b 4842
00000120: 4bf6 8442 413a 7442 d3cc c342 f9c7 2742
00000130: 9b16 a142 1802 3a42 839d bd42 733c 2242
00000140: 798e 1042 c26f a142 2b3e 8642 e041 8043
00000150: 09c3 7d42 a95c 1c42 fef6 ee42 6974 4e42
00000160: 2f6a 6942 9883 e242 64f6 cd42 72cf 6142
00000170: 701f 7042 d948 6e42 9009 8c42 6b5c 8542
00000180: 8193 c442 b4ab 4442 f8c6 ac42 c1cd f142
00000190: ec7c ef42 c88c 0d43 6a66 3842 889e 3943
000001a0: 76c8 8642 b5ea 3342 73f4 4a42 3b4d 9642
000001b0: d70b 8142 054d b742 e18c 0243 e299 a842
000001c0: ebf0 7942 dd15 9642 af38 8a42 e079 3442
000001d0: 36f3 3442 7eb5 b042 655e a342 6e90 6842
000001e0: 6b08 c342 fae8 e842 015d aa42 bbca 1043
000001f0: b85c 9a42 96de 1943 0d15 0e42 0c7e 6a42
00000200: e965 fd42 3ce2 8542 dabe 9e42 b342 d942
00000210: 3721 5643 2c29 9242 e598 1343 b79a 9a42
00000220: acb2 b642 937f 7742 4d97 a042 486f f442
00000230: d395 3a42 0cf1 8242 c49f 5542 d50b 0743
00000240: 9d43 8641 46c6 c942 c415 a142 5f70 1343
00000250: 26e3 5442 a5de 8042 7143 8e42 9f01 2643
00000260: 1ab1 2042 2c9f 1843 2b90 0f42 6dd9 7e42
00000270: 9eeb 5a42 8cad ae42 14f3 a642 b6a0 e342
00000280: dfd7 dc41 978e f942 bc68 c042 c90d 1a43
00000290: 0b45 9542 90e9 e042 6384 1f42 cdcf 9642
000002a0: 20ad 0543 95db 7d42 beb1 f041 0c96 cd42
000002b0: d38a a142 ab56 b242 4044 7042 393b 3242
000002c0: 1bba 9042 cfb8 5542 77fb 1043 eb48 1743
000002d0: 76d1 4d42 b2cf 2242 5ce0 9b42 092d 7142
000002e0: 826b 2342 3d42 a042 fb31 c142 e8f1 0a42
000002f0: a543 3742 451a 8242 5e83 9d42 2b3f 9542
00000300: e0b6 1543 bde2 7f42 6b69 ab42 1de6 1343
00000310: 2f78 2b42 4de6 8942 1563 0143 53d9 3b42
00000320: 1f82 a442 1e3c 2343 d24d 3d42 bb27 9e42
00000330: ff25 d842 afee e142 791e d842 5b32 5242
00000340: 0972 9142 31f4 b242 f7ae 6742 42ec b542
00000350: c7f0 d142 8998 8842 4827 3142 3056 9942
00000360: 76da a542 ef84 dc42 1786 3642 2ec2 9142
00000370: 69de 7b42 61de c042 9f1d 6b43 89d3 3942
00000380: 2a4a 0543 0914 7742 7766 7842 bd86 e342
00000390: 1e22 3543 b420 9d42 37da 2543 3850 4c42
000003a0: a044 8042 658e 8242 a7c1 7e42 b3ab 8242
000003b0: 188e bd42 a281 2442 76d0 9d42 8cb8 0743
000003c0: 88c0 8742 fe94 2743 fceb c042 54b4 3e42
000003d0: 0963 f742 fef0 af42 9374 da42 9121 2d43
000003e0: c7eb 3b43 573e 0d43 0e83 f842 c78a 3542
000003f0: 04ef ae42 60b7 c142 0cb3 2f42 8997 e242

L2.weight f4 [128, 256]
0.02256294 -0.03352171 0.009739983 0.005660623 -0.017827695 0.046325978 -0.0047763344 0.024937661
-0.039303586 -0.012869906 -0.04608195 -0.06194469 0.043731578 0.051383413 0.024293618 0.021392703
0.03860037 -0.0014411485 0.030028796 0.010099744 0.016570818 -0.0076866164 0.003873507 0.036777582
0.017445985 -0.0039891126 0.05508464 -0.039327223 -0.03886226 -0.033109855 -0.012500856 0.01859738
0.039285276 0.039569043 -0.0064420803 0.060805615 0.04928409 0.009489367 0.016251743 -0.016828148
0.068367966 -0.0018073991 0.0053410465 0.017879555 -0.0086093685 0.018337332 -0.05681995 0.00070073886
0.03186164 -0.032503296 0.0004790268 -0.035329603 -0.06124872 0.047676805 0.032837927 0.07050637
0.009865191 -0.014184785 0.050493173 0.031856205 0.009884723 -0.04174263 0.064125404 0.03274854
0.016951319 0.071874425 0.03627722 0.049135037 -0.048259202 0.092068225 -0.0399513 0.03263521
-0.06081301 -0.04108786 0.0021285366 -0.023078946 0.067614086 0.06959951 -0.014900848 -0.059858292
0.047048975 -0.02752944 0.04926195 -0.012800763 0.0078109987 0.030904654 -0.0074123447 0.011360266
-0.010693287 0.048836883 0.016441384 -0.055185996 -0.02354337 -0.055680867 0.046513826 0.022109099
0.009118403 0.0104417 -0.034741703 -0.015570045 0.05669366 -0.049432125 -0.054124035 0.063492775
-0.00626588 0.061427377 0.008439522 0.019359542 0.020711724 -0.0550151 0.06435731 0.058025286
0.009418032 -0.04505136 -0.06577756 -0.06358681 0.058483895 -0.05498418 -0.0048764767 0.01825836
-0.034934103 -0.04780126 0.05552372 0.03050355 -0.054374613 0.02642495 0.034559473 -0.00523867
-0.0389576 0.03482784 -0.0063219294 -0.033575382 0.00795687 -0.016230242 0.027877264 -0.025007848
-0.019280722 -0.0013106784 0.04687442 0.030754153 0.0049586627 -0.040698875 0.025133114 -0.04403726
-0.052877113 0.009700332 -0.019340737 0.043621108 0.004019729 0.0015785956 -0.0027534608 -0.03728915
-0.029953862 0.053496316 -0.013550744 -0.034327373 0.046752922 0.0073843254 -0.0059766034 0.022823012
-0.006630603 -0.0118767405 0.027118424 0.01120109 0.046868123 -0.015782954 0.037000593 0.009093709
-0.036336377 0.026482249 0.030054994 -0.002454875 0.02725847 0.0024302946 -0.052057162 -0.047507536
0.022264691 0.037335873 -0.056861136 -0.053498894 0.024753155 -0.033929773 -0.02239498 -0.017879453
0.06334258 -0.0061040586 0.05467529 -0.02326735 -0.061713424 0.07061395 -0.014547551 -0.012285583
-0.04037622 0.046537027 -0.0038895826 0.07021587 0.026379706 -0.04993047 -0.0054879854 0.068465054
0.01025668 -0.012265462 -0.0009647025 -0.050844934 0.002041584 -0.022038 -0.009268421 -0.04076668
-0.033437397 -0.046791457 0.026187811 0.05740766 0.0108832205 0.050430093 0.019175835 0.044433944
0.06456854 -0.020978542 0.055880696 0.012212649 0.03999723 -0.024906704 -0.04440468 -0.013226113
-0.008838284 0.02094654 0.0057357573 0.035586882 0.07474955 0.047389325 -0.027567169 -0.03077329
-0.0077973907 -0.0082009975 0.02052343 0.058034934 0.006897443 -0.031902812 -0.04153682 0.058454156
0.056707576 0.013051523 -0.06319712 0.034271892 -0.0052768113 -0.05553855 0.020257253 0.015011359
0.04250154 0.016241295 -0.016196886 0.057814416 -0.06666442 0.07062028 -0.007674742 0.05177037
00000000: ead5 b83c 104e 09bd 7394 1f3c bf7c b93b
00000010: 630b 92bc 4fc0 3d3d cc82 9cbb 114a cc3c
00000020: ccfc 20bd 4cdc 52bc 6dc0 3cbd b7b9 7dbd
00000030: e21f 333d 6a77 523d 6903 c73c c03f af3c
00000040: 6c1b 1e3d ebe4 bcba f3fe f53c 6679 253c
00000050: 86bf 873c 03e0 fbbb aada 7d3b 17a4 163d
00000060: e2ea 8e3c 1ab7 82bb 6ea0 613d 9515 21bd
00000070: 082e 1fbd 339e 07bd 64d0 4cbc 8859 983c
00000080: 99e9 203d 2613 223d 1618 d3bb 4f0f 793d
00000090: 1dde 493d 4a79 1b3c 6022 853c 2fdb 89bc
000000a0: 8104 8c3d 40e6 ecba f203 af3b 2578 923c
000000b0: 4f0e 0dbc 2c38 963c 09bc 68bd cab1 373a
000000c0: 5a81 023d 2d22 05bd e425 fb39 c6b5 10bd
000000d0: f0df 7abd c148 433d 1081 063d a565 903d
000000e0: 9ca1 213c 4d67 68bc eed1 4e3d a77b 023d
000000f0: 89f3 213c 52fa 2abd 2e54 833d 5523 063d
00000100: 7edd 8a3c e632 933d 6c97 143d d241 493d
00000110: 71ab 45bd 448e bc3d f9a3 23bd 7fac 053d
00000120: 1017 79bd be4b 28bd eb7e 0b3b 0f10 bdbc
00000130: 4179 8a3d 308a 8e3d b022 74bc f82d 75bd
00000140: 6db6 403d 6c85 e1bc e6c6 493d 4bba 51bc
00000150: 68f3 ff3b c22b fd3c 41e3 f2bb 6920 3a3c
00000160: e532 2fbc 2f09 483d 15b0 863c b60a 62bd
00000170: 07de c0bc 9f11 64bd 4885 3e3d 241e b53c
00000180: 5b65 153c aa13 2b3c 514d 0ebd 8119 7fbc
00000190: 9c37 683d 5779 4abd 2ab1 5dbd 8008 823d
000001a0: 0352 cdbb 469b 7b3d ec45 0a3c e797 9e3c
000001b0: a2ab a93c 8357 61bd c4cd 833d ecab 6d3d
000001c0: 174e 1a3c c687 38bd 63b6 86bd cd39 82bd
000001d0: cf8c 6f3d 1737 61bd daca 9fbb 8e92 953c
000001e0: 1017 0fbd 41cb 43bd d76c 633d 95e2 f93c
000001f0: eab7 5ebd 2379 d83c 3c8e 0d3d 26a9 abbb
00000200: 0192 1fbd a3a7 0e3d 3028 cfbb 5786 09bd
00000210: 885d 023c 49f5 84bc dc5e e43c 42dd ccbc
00000220: 9bf2 9dbc 12cb abba 64ff 3f3d 22f0 fb3c
00000230: 477c a23b ddb3 26bd f6e3 cd3c 6a60 34bd
00000240: ac95 58bd 24ee 1e3c 7770 9ebc 0cac 323d
00000250: eeb7 833b e1e8 ce3a 6873 34bb 82bc 18bd
00000260: cd61 f5bc f41e 5b3d f103 5ebc dc9a 0cbd
00000270: fe7f 3f3d 36f8 f13b 62d7 c3bb 53f7 ba3c
00000280: 8845 d9bb a996 42bc 7527 de3c c784 373c
00000290: caf8 3f3d 414b 81bc ef8d 173d c8fd 143c
000002a0: 74d5 14bd 4df1 d83c e435 f63c f8e1 20bb
000002b0: 284d df3c 9445 1f3b e439 55bd 4397 42bd
000002c0: 7164 b63c 80ed 183d 39e7 68bd a821 5bbd
000002d0: 21c7 ca3c f2f9 0abd ad75 b7bc ee77 92bc
000002e0: c1b9 813d 8e04 c8bb 32f3 5f3d 2b9b bebc
000002f0: 37c7 7cbd 0c9e 903d da58 6ebc 7849 49bc
00000300: 8961 25bd 9c9d 3e3d 5ee8 7ebb 57cd 8f3d
00000310: 411a d83c e483 4cbd 8fd4 b3bb 6837 8c3d
00000320: a20b 283c 14f5 48bc 17e4 7cba c742 50bd
00000330: 19cc 053b 0989 b4bc 93da 17bc f6fa 26bd
00000340: a7f5 08bd 66a8 3fbd d287 d63c 4b24 6b3d
00000350: 894f 323c c98f 4e3d a416 9d3c 5e00 363d
00000360: 833c 843d 31db abbc 28e3 643d 9017 483c
00000370: 23d4 233d 2509 ccbc afe1 35bd 57b2 58bc
00000380: 73ce 10bc 1498 ab3c 05f3 bb3b 8dc3 113d
00000390: 4b16 993d 4f1b 423d 8bd4 e1bc 4418 fcbc
000003a0: 4181 ffbb 7a5d 06bc c120 a83c 0ab6 6d3d
000003b0: f203 e23b 86ac 02bd 8322 2abd a06d 6f3d
000003c0: 3446 683d 0ed6 553c 7e6d 81bd af60 0c3d
000003d0: 1ae9 acbb 647c 63bd 8af2 a53c 34f2 753c
000003e0: 1816 2e3d 770c 853c 55af 84bc cfce 6c3d
000003f0: 5b87 88bd 5ea1 903d 677c fbbb 2b0d 543d

L2.bias f4 [128]
-0.004064422 -0.041604232 -0.006830451 -0.035200123 0.023990579 -0.03590163 -0.037052922 -0.04843821
-0.023418965 -0.0140105365 0.010995267 0.01799109 -0.024320712 -0.049239244 0.058438037 0.03851031
-0.023556003 0.0042875996 -0.050022047 -0.0496188 0.05545237 0.02518784 0.01444978 -0.047272895
-0.052782573 -0.041222814 -0.03700991 0.020164024 0.0054698572 0.02951168 0.021482427 -0.010256623
0.0012882467 0.032120593 -0.0044672005 0.0062631867 0.0058462205 -0.010435052 -0.02008423 0.019988982
0.05356654 -0.050090156 -0.004353426 -0.02751912 -0.008038936 0.022911048 -0.05441432 0.029244771
0.023073344 -0.030717878 -0.036273245 -0.021995373 -0.002643824 -0.035185967 0.05593009 -0.0040735807
-0.025121365 -0.047885306 0.024913298 -0.033584166 0.02079925 -0.010925536 -0.027457934 0.0213937
-0.06119461 0.03895715 -0.0030550358 0.0065179844 0.03547604 -0.020040661 0.024845243 0.00096133136
-0.018061254 0.046053853 0.007712984 0.041365936 -0.017824724 0.030801022 0.029416515 0.035893433
0.03263985 0.03524514 -0.00035168172 0.0052718814 -0.049788598 0.04383051 0.017801398 -0.016612291
-0.050518658 -0.026272194 -0.0042742016 0.029695174 -0.003021891 0.023117505 0.011921998 0.05967016
0.057000555 0.041434567 -0.062146265 -0.023776941 0.026203493 0.04065906 0.04067759 -0.02294979
0.0077277008 0.011974308 0.02704871 -0.046879444 -0.057564046 0.057191186 0.010810737 0.030956652
-0.047642346 -0.009457887 0.02459191 -0.052057736 -0.041220877 -0.00574584 -0.019453732 0.056349013
-0.05216023 -0.047880843 -0.020675201 -0.017598828 -0.059072834 -0.0024418647 0.00032756972 0.04072292
00000000: d82e 85bb 3369 2abd fad1 dfbb 012e 10bd
00000010: e487 c43c 960d 13bd cec4 17bd 2567 46bd
00000020: 21d9 bfbc 738c 65bc 7e25 343c 0d62 933c
00000030: 3b3c c7bc 17af 49bd b95c 6f3d fdbc 1d3d
00000040: 85f8 c0bc fe7e 8c3b ebe3 4cbd 153d 4bbd
00000050: 0622 633d bb56 ce3c c5be 6c3c 39a1 41bd
00000060: 8a32 58bd 41d9 28bd b497 17bd 062f a53c
00000070: 7d3c b33b 7bc2 f13c eafb af3c 650b 28bc
00000080: 63da a83a e290 033d 9861 92bb 6b3b cd3b
00000090: a791 bf3b c8f7 2abc af87 a4bc efbf a33c
000000a0: 9768 5b3d 562b 4dbd 2fa7 8ebb c76f e1bc
000000b0: beb5 03bc f3af bb3c 8de1 5ebd bb92 ef3c
000000c0: 4f04 bd3c 0fa4 fbbc 4193 14bd a42f b4bc
000000d0: 0244 2dbb 291f 10bd f316 653d ac7b 85bb
000000e0: 52cb cdbc 6223 44bd f916 cc3c 8d8f 09bd
000000f0: 3063 aa3c 0501 33bc 76ef e0bc d741 af3c
00000100: 33a7 7abd 8891 1f3d ff36 48bb d194 d53b
00000110: 534f 113d 502c a4bc 4088 cb3c db01 7c3a
00000120: 32f5 93bc f7a2 3c3d 33bd fc3b 546f 293d
00000130: 2805 92bc 6d52 fc3c e7fa f03c fe04 133d
00000140: 5db1 053d 355d 103d ec61 b8b9 bfbf ac3b
00000150: 21ef 4bbd 9f87 333d 3dd4 913c 8016 88bc
00000160: a7ec 4ebd c938 d7bc 9a0e 8cbb 4b43 f33c
00000170: eb0a 46bb ec60 bd3c 7c54 433c b368 743d
00000180: 6a79 693d 4bb7 293d 158d 7ebd dcc7 c2bc
00000190: b5a8 d63c 1d8a 263d 8b9d 263d 3301 bcbc
000001a0: a738 fd3b e32f 443c 4295 dd3c a904 40bd
000001b0: 47c8 6bbd 4e41 6a3d 841f 313c ce98 fd3c
000001c0: 9f24 43bd 41f5 1abc f974 c93c 7e3a 55bd
000001d0: 39d7 28bd 9947 bcbb 6f5d 9fbc 39ce 663d
000001e0: f7a5 55bd b41e 44bd 0a5f a9bc 6b2b 90bc
000001f0: 5bf6 71bd b107 20bb aabd ab39 14cd 263d

BN2.weight f4 [128]
1.0198386 0.99296844 1.0064731 1.0181233 1.0217104 1.0240775 0.9952039 1.0554492
1.0079359 1.0273741 0.95514935 0.99859077 1.0135524 0.9854536 1.0122144 0.9749577
1.0164986 1.0373428 1.036628 0.98856497 1.0015135 1.0082707 0.9908485 1.0330977
0.98667467 1.0228356 1.0123698 1.0190482 0.9997986 1.0422288 1.0217936 1.0722992
0.9640373 1.050493 0.9825995 1.0234869 1.0052481 1.0153345 0.994975 0.9939758
1.0139716 0.9618254 1.0463141 1.0177456 0.99574775 0.99859065 1.0468396 1.0116566
1.0557756 1.0088884 0.99278224 1.0226547 1.0198686 1.0086751 0.9751103 0.99360406
1.0017934 1.0295684 1.1070495 0.9994198 1.013393 1.0872114 0.987011 0.9944793
1.0155774 1.0587714 0.97152716 1.0021809 0.96581143 1.0148321 0.9802643 1.0540425
1.0241828 0.9756844 1.0477083 1.025123 1.003516 1.0475152 1.0528612 1.0103544
0.9926152 1.0035521 1.058959 1.0311351 0.98338294 1.0672413 1.0421371 0.9913502
1.0078472 1.0208018 1.0371103 1.0555153 1.0295432 1.0350472 1.0090032 0.99662304
1.0356171 0.9886623 1.060542 0.9832955 1.0309186 1.0058031 1.0242596 0.97304326
0.9992614 1.0191126 0.9974267 1.0022279 0.9823107 1.007821 1.0160377 0.96120846
1.0277126 1.0073484 1.0054159 1.0268067 0.9909497 1.0274037 1.0291828 1.0032058
1.0183295 0.9787902 0.9943179 0.9827531 0.9893021 1.0076098 1.0242825 1.008737
00000000: 128a 823f 2e33 7e3f 1cd4 803f dd51 823f
00000010: 68c7 823f f914 833f afc5 7e3f f618 873f
00000020: 0b04 813f ff80 833f ab84 743f a5a3 7f3f
00000030: 16bc 813f b046 7c3f 3e90 813f d496 793f
00000040: a01c 823f a6c7 843f 3ab0 843f 9812 7d3f
00000050: 9831 803f 040f 813f 3fa8 7d3f 8c3c 843f
00000060: b696 7c3f 47ec 823f 5595 813f 2c70 823f
00000070: cdf2 7f3f c167 853f 22ca 823f 1a41 893f
00000080: 26cb 763f 8e76 863f a48b 7b3f 9e01 833f
00000090: f8ab 803f 7bf6 813f aeb6 7e3f 3375 7e3f
000000a0: d2c9 813f 303a 763f 9fed 853f 7d45 823f
000000b0: 53e9 7e3f a3a3 7f3f d7fe 853f f77d 813f
000000c0: a823 873f 4123 813f fa26 7e3f 59e6 823f
000000d0: 0e8b 823f 441c 813f d4a0 793f d65c 7e3f
000000e0: c43a 803f e6c8 833f ccb3 8d3f fad9 7f3f
000000f0: ddb6 813f be29 8b3f c1ac 7c3f 3296 7e3f
00000100: 71fe 813f d285 873f 01b6 783f 7747 803f
00000110: 6b3f 773f 05e6 813f 9af2 7a3f ddea 863f
00000120: 6c18 833f 74c6 793f 4e1b 863f 3b37 833f
00000130: 3673 803f fa14 863f 28c4 863f 4b53 813f
00000140: 081c 7e3f 6574 803f f88b 873f 3cfc 833f
00000150: fcbe 7b3f 5d9b 883f c064 853f 20c9 7d3f
00000160: 2301 813f a2a9 823f 08c0 843f 201b 873f
00000170: 12c8 833f 6d7c 843f 0427 813f b022 7f3f
00000180: 1a8f 843f f918 7d3f d7bf 873f 41b9 7b3f
00000190: 24f5 833f 28be 803f f01a 833f 5d19 793f
000001a0: 98cf 7f3f 4872 823f 5b57 7f3f 0149 803f
000001b0: b778 7b3f 4700 813f 860d 823f c211 763f
000001c0: 168c 833f cbf0 803f 78b1 803f 676e 833f
000001d0: e1ae 7d3f f781 833f 43bc 833f 0c69 803f
000001e0: 9f58 823f ff91 7a3f 9e8b 7e3f b595 7b3f
000001f0: e742 7d3f 5cf9 803f b01b 833f 4b1e 813f
