Trained_Models/BotDetection_v4_MLP___May-10-2024/BotDetection_v4_MLP_epoch12_val_loss_0.481493.pth (torch, 942971 bytes, 45 tensors)

L1.weight f4 [256, 133]
000000 c8 81 1d 3c a7 49 61 3d 37 68 c0 3d 9c de a4 bd
       0.009613462 0.05500188 0.093948774 -0.08050272
000010 c8 61 bd 3c d2 32 8f 3c c9 9f e8 3d 57 d5 a6 bd
       0.023117915 0.017480288 0.113586016 -0.0814616
000020 cd 79 61 3c 43 40 66 bd 4b c9 b7 3c 93 23 2f 3d
       0.01376195 -0.05621363 0.022434851 0.042758536
000030 b3 16 55 bd 6b 53 5a bd 45 86 0b be 62 e4 5b 3d
       -0.0520236 -0.05330221 -0.13625439 0.0536846
000040 b7 d8 7c 3d d4 3f 1a bd 90 c7 04 bc 24 b5 81 bd
       0.061730113 -0.037658527 -0.00810422 -0.06333378
000050 e3 7f 5c bd 4a 58 6e ba 3b 32 6f bd 3c fa 8b 3b
       -0.0538329 -0.00090921356 -0.058397513 0.0042717736
000060 5e df 87 3d 15 1c ad bd 74 44 d3 bb b3 64 31 bd
       0.06634401 -0.08452622 -0.006447369 -0.043308925
000070 e5 18 b2 3c 10 51 83 3c 36 6c 05 bd 59 54 2c bd
       0.021740386 0.016029865 -0.0325739 -0.042072628
000080 90 97 9f bd 22 2f 4b bc 35 6c 47 bd 33 a6 a9 3d
       -0.0779258 -0.012401374 -0.04868718 0.08283653
000090 6c 6d 6d 3c 2e ba ab 3d 21 ba 32 bd 8e fa b2 3c
       0.01449142 0.0838512 -0.043634538 0.02184799
0000a0 9d ad c5 3d 37 a3 08 3d 1b 3a 46 3c b3 74 2d 3c
       0.09652255 0.03335878 0.012098814 0.010586905
0000b0 2d 93 34 3d 3f b4 a1 3d 5f 5e 9b 3a ca 49 78 3d
       0.04408567 0.07895707 0.0011853686 0.060617246
0000c0 8c 2f 3b bd 37 cd 7e 3d ce d6 65 3d fd 61 84 3d
       -0.04569964 0.062207427 0.056113057 0.06464002
0000d0 c9 bf 83 3d f5 b1 c3 3d 75 6d fe bb bf f7 0b 3c
       0.064330645 0.09555427 -0.007764513 0.008542954
0000e0 d4 e4 64 bc 88 bb 8a 3c 38 46 ac bd fc a0 33 bc
       -0.0139705725 0.016935125 -0.08411831 -0.010963675
0000f0 1e d8 16 bd 49 55 da bc 97 7b b8 bd 67 3d c6 bc
       -0.0368272 -0.026651995 -0.09007948 -0.0241992
000100 a5 40 12 3d 90 b9 c3 bd e1 3a 91 39 9e 7b cb 3d
       0.03570618 -0.095568776 0.00027700423 0.099356875
000110 23 cc ae bc b9 db 3c bd cc 0e 81 3d e4 ba 22 3d
       -0.021337574 -0.04610798 0.063016504 0.039729014
000120 73 04 98 3d 08 0b c3 bc 14 7b 4d bd f3 29 0e bd
       0.074227236 -0.023808971 -0.050166205 -0.034707975
000130 91 98 96 bd 07 d1 30 ba e4 1b 99 bc f1 2a 28 3d
       -0.073533185 -0.00067450147 -0.018690057 0.041056577
000140 aa d3 41 3d e0 b3 83 bd 83 25 62 bc 56 72 ab bc
       0.047321 -0.06430793 -0.013802889 -0.020928543
000150 e1 b9 a9 3c c5 90 17 3d e3 51 ba bd 46 27 cb bc
       0.020718517 0.037003297 -0.0909765 -0.024799
000160 9b 51 be 3b 6c 28 5f 3d d4 6a f6 bc 3a ab 01 3e
       0.005808068 0.05448191 -0.030080236 0.12662974
000170 05 ca 8d bd 93 bc 99 3d c0 20 6b bc e9 ab 57 3d
       -0.06923298 0.07506671 -0.01435107 0.05265418
000180 02 88 a4 3d 71 f4 45 bd 20 94 21 bd 47 09 30 3d
       0.08033754 -0.04832882 -0.039447904 0.042977598
000190 ff 35 8e bc 0b cf 08 bb 87 39 64 3d 5e 89 6d bd
       -0.017359732 -0.002087536 0.055718925 -0.05799233
0001a0 45 82 6a bd d5 71 73 3d 75 45 2e 3d b5 21 95 3a
       -0.05725314 0.05943473 0.042546708 0.0011377843
0001b0 b0 65 30 bd 5e d7 a5 bd 39 f7 23 3d 15 24 73 bd
       -0.043065727 -0.08097719 0.04003069 -0.059360582
0001c0 4d 6e 7e bd 4e 56 65 bb c9 1e 6e 3c 88 db 0b bd
       -0.06211691 -0.0034994069 0.014533707 -0.03414491
0001d0 e0 97 30 bb 0c 4c b9 3d 8e de a2 3d 63 0c 9d 3d
       -0.0026945993 0.09047708 0.07952605 0.07668378
0001e0 aa 95 d0 bc 75 99 82 3d 7e 99 ba 3c 5e c9 dc 3d
       -0.02546199 0.06376926 0.022778269 0.10780595
0001f0 da 2c 8f bc b1 a6 c1 bc 8a 06 87 3d b0 d0 91 3d
       -0.017477442 -0.023639055 0.06593044 0.07119882
000200 3a 0d 57 bd b3 4f 75 bc f9 5e 1d 3d cc fb 76 3d
       -0.05250285 -0.014972615 0.03842065 0.060298726
000210 e2 c7 93 bd 97 df f1 bb fe 23 e9 3b 4a a9 7a 3b
       -0.07215859 -0.0073813903 0.0071148863 0.0038247877
000220 dd 44 61 3d f5 1e e0 bc c0 85 87 ba 26 3b 80 bd
       0.054997314 -0.027358511 -0.0010339543 -0.06261282
000230 4b 74 06 bd ad 73 60 3d 1e 0a 8f bb f8 f6 8c bc
       -0.03282575 0.054797817 -0.0043652197 -0.017207608
000240 ed 26 f5 3b 36 2b 6f bd e4 a1 d7 3c d7 6e d7 3c
       0.007481447 -0.05839082 0.026322313 0.02629797
000250 d3 b8 5f 3c b9 ca 32 bd e8 59 65 bc 3e 10 c6 bc
       0.013654905 -0.043650363 -0.013998486 -0.024177667
000260 44 fd 73 3d b3 cf cb bc c8 3c ee 3c a1 97 60 bd
       0.059567705 -0.024879312 0.029081717 -0.054832105
000270 e2 88 05 bd f2 d4 76 bd 45 0d 3c bc 04 0e b4 bd
       -0.032601245 -0.060261674 -0.011477773 -0.08791736
000280 0c 5f 3e 3d e6 98 9e bd 9d 75 51 bd ac 03 e7 3c
       0.046477363 -0.07744007 -0.051137555 0.028199993
000290 fa 5f 21 bd c1 a4 83 3d 3a 7e 84 3d 7b 51 49 3b
       -0.03939817 0.06427909 0.06469388 0.0030718732
0002a0 70 46 a2 bc 81 aa b4 3d 97 c0 3a 3d 9f 9d 05 3e
       -0.019808978 0.088215835 0.045593824 0.13048409
0002b0 67 8e a5 3d 28 ae 4f bc b7 fd 8b bd 7c 9f bf 3c
       0.08083802 -0.012675799 -0.06835502 0.023391478
0002c0 d4 e0 4d 3d 53 d0 d5 3d 23 00 38 bd c8 7a 2e 3d
       0.05026324 0.10440125 -0.044922005 0.042597562
0002d0 a7 37 4c 3d 4a c8 59 3d d8 26 22 3d ad 39 90 bc
       0.04985776 0.053169526 0.039587826 -0.017605627
0002e0 8f 42 14 3d 77 12 a7 3c 3d ad 1c 3d 12 4a 15 3d
       0.036196288 0.020394547 0.03825115 0.036447592
0002f0 42 77 83 3c 71 d5 0a 3c dc 82 92 3c 58 b3 86 3d
       0.016048077 0.00847374 0.017884664 0.06577176
000300 ff 81 a0 3b 23 ad 97 3d 9e 91 6f 3d d5 ac 7e 3d
       0.0048983092 0.0740607 0.05848848 0.062176544
000310 7f 8c 96 bd aa 18 2c 3d 40 91 70 3d fc ba 21 3b
       -0.07351016 0.04201571 0.05873227 0.0024678102
000320 de 2c 16 3b d4 3e 1b bc 93 5b ff bc b3 3a 0c bd
       0.0022914927 -0.009475429 -0.031171596 -0.034235667
000330 16 37 c0 3d b6 2b d6 bc d8 6d 7c bd bb 68 90 bc
       0.09385507 -0.02614389 -0.061628193 -0.017628064
000340 48 fa 80 3c c3 3a 96 3d e5 15 51 bd 40 86 c2 bb
       0.015744343 0.07335427 -0.05104627 -0.005936414
000350 f6 0e b3 bc 09 a9 09 3d 8a 24 7f bd a4 4d a0 bd
       -0.02185772 0.03360847 -0.062290706 -0.07827309
000360 98 5d a7 bd 13 f8 9d 3d a0 5c 57 bd 7f 3d 7e 3d
       -0.081721485 0.07713332 -0.05257857 0.062070366
000370 4b 2c 98 bc b8 ac 60 3d f4 90 af bd 33 fb e3 3c
       -0.018575808 0.054852217 -0.085725695 0.027829742
000380 9f a0 5c bd c9 f9 08 bc f8 1c 30 bd 7f 06 42 3c
       -0.053864118 -0.008360335 -0.042996377 0.011842369
000390 2e 28 b8 bd 2c f9 12 bd f0 52 3d 3c 47 f6 15 bd
       -0.08992039 -0.03588216 0.011555418 -0.03661182
0003a0 e0 57 09 3d 3b cd b0 3d 38 5d 90 3d 76 9a df 3d
       0.03353107 0.086328946 0.0704903 0.10918133
0003b0 26 50 54 3d 4d a3 17 3d 01 1a a1 3d fd d4 8d 3d
       0.051834248 0.03702097 0.07866288 0.0692539
0003c0 eb af a0 bc 26 80 d0 3b c4 3f 8a 3c 7a ea 07 bd
       -0.019615134 0.0063629327 0.016876109 -0.0331826
0003d0 f4 22 13 bd 07 58 56 3d 8d 9d 84 bd e4 01 d6 3c
       -0.035922006 0.052330043 -0.06475363 0.026123948
0003e0 86 82 9b bd 57 7d 3f 3d e6 f3 af 3d 03 74 b3 3d
       -0.07593255 0.046750393 0.08591442 0.08762362
0003f0 56 fc 8e bd d0 15 99 bd 63 ea 67 bd 64 d8 80 bd
       -0.06981723 -0.074748635 -0.056620013 -0.06291273

L1.bias f4 [256]
000000 a1 e8 a6 bd db 95 97 bc 94 06 7b 3d a2 51 8a bc
       -0.08149839 -0.018504074 0.06128557 -0.016884629
000010 3c 5a b2 bc e5 06 7a bd bb ec 05 3d 98 c3 2a 3d
       -0.021771543 -0.06104173 0.032696467 0.04169044
000020 f2 d5 56 bd e6 af 9d bd e9 b8 bd bc 0d 25 78 3d
       -0.052450128 -0.076995656 -0.023159461 0.06058221
000030 e6 d5 83 bd 60 81 12 bd ad 47 ae bd 54 84 21 bc
       -0.06437282 -0.035767913 -0.08509765 -0.00985821
000040 4a f7 97 3c 0e 43 10 3d de 70 29 bd 33 a3 a9 3d
       0.018550534 0.0352202 -0.041367404 0.08283081
000050 9b 76 ef 3b f9 82 7d bd 10 ac 8e 3c 9b 82 02 3d
       0.00730784 -0.061892483 0.01741603 0.031862836
000060 ea 1e 65 3d 86 88 7b 3d f6 df b4 bc 9b 69 8e bc
       0.055937685 0.061409496 -0.02207945 -0.017384341
000070 c4 d0 31 bd 32 f3 10 3d 49 69 87 bd 9c f6 bd bc
       -0.043411985 0.03538818 -0.066118784 -0.023188882
000080 5c da 64 bc 05 6f 91 bd 90 47 09 3d 0b 24 a1 3c
       -0.013968077 -0.071012534 0.033515513 0.019670507
000090 e5 1d 97 3d 76 10 5c bd 0d cd 9f 3d c6 7d 15 3d
       0.07378749 -0.053726636 0.07802782 0.0364969
0000a0 c4 b4 db bc 45 52 87 bd 6f a7 a7 bd 61 ed 01 3d
       -0.026819594 -0.066074885 -0.08186232 0.031720523
0000b0 30 ec 2c bd 4d 0b cd bc 95 45 0a bd f4 60 85 bc
       -0.042217433 -0.025029803 -0.033757765 -0.016281582
0000c0 8b 40 f3 3b b7 92 98 3d 25 be 67 3d 1b f4 83 3d
       0.0074234656 0.07449859 0.05657782 0.06443044
0000d0 53 b4 9e 3b a7 2e da bc 90 42 23 bd e2 7e 4c 3d
       0.0048432737 -0.026633574 -0.0398584 0.049925692
0000e0 33 9c ee bb 2b 7f 0a 3d 20 f0 9e bd 84 a2 32 3d
       -0.007281804 0.033812683 -0.07760644 0.04361202
0000f0 73 a9 39 bd 67 e8 19 bc bd a5 8e 3d cd 4f 58 3d
       -0.045327615 -0.009393788 0.06965206 0.05281048
000100 e7 86 4d bd b4 96 92 3d 0e c2 8f bd 21 48 22 3d
       -0.05017748 0.071576506 -0.07019435 0.03961957
000110 f6 70 65 3c 89 6e a3 3d 2d 75 0f 3c f9 b6 99 bc
       0.014003983 0.07980067 0.008755964 -0.018764006
000120 57 3b 97 3d f0 77 52 bd 48 d8 75 3d af b8 05 bd
       0.07384365 -0.051383913 0.060020715 -0.03264683
000130 34 6a 3f bc 5a 6f 19 bd 4b 4d 68 3d 30 cb 5e bd
       -0.011683036 -0.03745971 0.056714337 -0.054392993
000140 13 91 c9 bc bf 9f c8 3b bd a4 9d 3d c9 a4 41 bc
       -0.02460531 0.006122559 0.07697437 -0.011819073
000150 0c f0 17 bd f8 1c 22 bc 4d 58 a0 3c 27 94 1c bd
       -0.03709416 -0.009894602 0.019573355 -0.038227227
000160 13 43 b0 3d 73 6d 0f 3d 3b a6 fb bc 75 7b 4f 3d
       0.086065434 0.03501649 -0.030718913 0.050654847
000170 0a a1 ce bc 4d 85 9b 3c ee ba 78 bc 34 2b 8a bd
       -0.025223274 0.018984461 -0.015181286 -0.067465216
000180 9a 1e 94 bd 4d 8c 9a bd 2c ef 44 bd b3 a0 af bb
       -0.07232399 -0.075462915 -0.048079655 -0.005359733
000190 f9 b2 38 3c 11 1e 6a 3c 1b 5f 1f 3d 51 66 af 3b
       0.011273139 0.014289395 0.03890906 0.0053527732
0001a0 59 bf ac 3d 35 14 a6 bc d1 39 95 3c b9 d9 91 3c
       0.08434934 -0.020273307 0.018216046 0.017804014
0001b0 bb e8 2e 3d f7 ae 8d 3d 91 1a 05 3d 24 ac 30 3d
       0.042702418 0.069181375 0.03249604 0.043132916
0001c0 6d 3a 9d 3d fb 93 2b 3d 29 51 a1 3d 25 78 34 3d
       0.076771595 0.041889172 0.07876808 0.04405989
0001d0 47 5e 2b 3d 7b 64 31 bc d9 b0 5c bd 70 77 9d 3d
       0.041837957 -0.010827179 -0.053879593 0.076887965
0001e0 9a e6 36 3d 6f 59 d4 3c 80 b8 0f 3d e0 5e c4 bc
       0.044653513 0.025921552 0.035088062 -0.023971021
0001f0 97 4f 27 bc bc a9 8d 3d d3 ff b8 3c d8 f4 ab bd
       -0.010211847 0.0691714 0.022582924 -0.083963096
000200 7b 9c 8f 3d 25 de d2 3c 43 df 2d bd 78 d3 1e bd
       0.07012268 0.025740692 -0.042449247 -0.03877589
000210 c6 3b 84 bd ca 19 a6 3d 05 2e 27 bd 61 de 1f bd
       -0.064567134 0.081103876 -0.040815372 -0.039030436
000220 2b 83 e3 3c a3 a7 0d bd 3f 6d 3a 3d 41 2d f9 bc
       0.027772507 -0.0345837 0.04551434 -0.030417087
000230 ea b2 a9 bc 44 ab db bc 2d 60 a1 3b 74 f2 31 3d
       -0.020715196 -0.026815064 0.004924795 0.043444112
000240 bf 51 5e bc 57 6a 8b 3d 3a 09 af bd 71 c8 87 bd
       -0.0135692945 0.06807392 -0.08546682 -0.06630028
000250 f2 dc c7 3c 4d 64 d5 bb 6f 4e 57 bc 4b ba cb 3c
       0.024397347 -0.006512201 -0.013141259 0.024869105
000260 bb d9 90 bd e1 29 16 bc 03 d8 7b bd 18 0b 9e 3d
       -0.07072779 -0.009165258 -0.0614853 0.0771696
000270 cc a7 9a 3c f4 02 53 3d 71 02 64 bd 08 ee a9 bc
       0.01887884 0.05151649 -0.05566639 -0.020743385
000280 09 6d 3e 3d 2a f7 95 3d f9 3a 94 bd 15 1f c0 bc
       0.046490703 0.073225334 -0.07237811 -0.023452321
000290 b3 94 7f bc 83 63 a4 3d 94 e0 5b bd 81 13 03 3d
       -0.0155994175 0.08026793 -0.05368097 0.032001022
0002a0 57 c8 81 3d 0b 48 86 bd 72 11 a7 3d fe 59 ae bd
       0.0633704 -0.0655671 0.08157624 -0.085132584
0002b0 2e 77 82 bd 53 a5 cd bc da 6e 8d 3b 80 55 4a 3b
       -0.06370388 -0.025103247 0.004316193 0.0030873716
0002c0 33 0e 84 3d ee bb 98 3d e7 04 c1 bc e8 02 a5 3c
       0.06448021 0.0745772 -0.023561908 0.020142987
0002d0 14 3f f9 bc e7 0a c9 3c d2 98 e4 ba a0 8d 25 3d
       -0.030425586 0.024541331 -0.0017440564 0.040418267
0002e0 7f 5a c6 3a 50 fe db bc a9 bd 17 3d 9f 12 80 3d
       0.0015133171 -0.026854664 0.03704611 0.06253552
0002f0 fd b2 25 bd 49 7c bd 3c 02 7a d1 38 02 10 cd bc
       -0.0404539 0.023130553 9.988622e-05 -0.025032047
000300 0e 53 17 3d c3 63 4a 3d eb 6b 1f 3d cd 14 97 bd
       0.03694444 0.049411546 0.038921278 -0.07377014
000310 7e c7 00 bd 85 6e 92 3d 71 26 4b 3d 85 e6 47 3d
       -0.03144025 0.07149986 0.049597207 0.048803825
000320 95 f4 56 bd 2b c9 fe 3c 24 e2 32 bc 6f 73 09 bd
       -0.052479345 0.031101784 -0.010918174 -0.03355735
000330 36 92 53 3d 71 84 aa 3d a2 c1 1e 3d 89 d9 81 3d
       0.05165311 0.083260424 0.03875888 0.0634032
000340 70 03 4b bd 02 a9 2e 3d 7a f7 a3 bd 22 df aa bc
       -0.049563825 0.042641647 -0.08006187 -0.020858351
000350 a5 1f aa bc 9e eb 91 bd 67 8c de bc 6b 00 86 3d
       -0.020767042 -0.071250185 -0.027166558 0.065430485
000360 81 5c 2e bd 18 1b 99 3d de 29 30 3d ab 38 0f bd
       -0.042568687 0.07475871 0.043008678 -0.034966152
000370 ed d1 47 3d ee 03 a5 bd b9 92 14 3d cc 4f 28 bd
       0.048784185 -0.0805739 0.036272738 -0.041091725
000380 26 34 8c bd cb ac ae 3d 62 37 5b bb fb 5a 5a bd
       -0.06845884 0.085290514 -0.0033449759 -0.053309422
000390 84 64 af 3d 55 ed b1 3c 8f ba 56 bc 1b 38 06 bd
       0.08564094 0.021719614 -0.0131060025 -0.03276835
0003a0 7d 16 a0 3d 31 0c 45 3d c1 30 a0 3d b4 49 01 3d
       0.07816789 0.04810733 0.07821799 0.03156443
0003b0 3a a2 8b 3d 4c 14 5d ba ba 87 9e 3c dc d5 b2 3c
       0.06818052 -0.00084335054 0.019351829 0.021830492
0003c0 2c d2 a7 3d 3b 10 85 3d 22 42 54 3d 72 e0 aa bd
       0.08194384 0.06497236 0.05182088 -0.08343591
0003d0 91 f8 81 3d 4f d4 41 3d 12 9d 9d bc a0 71 82 3c
       0.063462384 0.047321614 -0.019239936 0.015923321
0003e0 db 67 ae bd 14 1d 46 bd 10 0c 89 3d 53 87 a3 bd
       -0.085159026 -0.048367575 0.06691754 -0.079847954
0003f0 ae bc ff 39 1e c0 7b 3c 8e ce 84 bb a4 2a 4f bd
       0.00048777967 0.0153656285 -0.0040529436 -0.050577775

BN1.weight f4 [256]
000000 53 4b 7e 3f 8e e3 7c 3f 26 48 7e 3f 58 b8 7c 3f
       0.99333686 0.9878472 0.9932884 0.98718786
000010 f3 57 7e 3f 03 a7 80 3f 4f 3f 81 3f 33 b6 7e 3f
       0.9935295 1.0050968 1.0097445 0.99496764
000020 29 64 80 3f e1 08 7e 3f 8d af 7e 3f 28 dc 7d 3f
       1.0030566 0.992323 0.9948662 0.99164057
000030 40 ec 7e 3f e9 ca 7d 3f 5b 38 81 3f fd 4a 81 3f
       0.9957924 0.9913774 1.0095323 1.010101
000040 c8 aa 80 3f 15 c0 7e 3f 24 42 7e 3f 79 42 80 3f
       1.0052118 0.99511844 0.9931967 1.0020286
000050 ff 22 80 3f c2 19 7d 3f 9d bc 82 3f dc fc 81 3f
       1.001068 0.9886743 1.021381 1.0155292
000060 48 1b 82 3f 80 0f 81 3f 94 18 80 3f 30 4b 7f 3f
       1.0164576 1.0082855 1.0007501 0.997241
000070 0f 69 82 3f 5d fd 80 3f e6 e7 81 3f 39 9c 7f 3f
       1.0188311 1.007732 1.0148895 0.9984775
000080 73 6d 82 3f 4d 8b 7a 3f cc d0 7b 3f 32 c5 7f 3f
       1.0189651 0.97868806 0.98365474 0.9991027
000090 40 d4 80 3f 78 76 82 3f 36 50 80 3f d5 f3 7f 3f
       1.0064774 1.0192404 1.0024478 0.99981433
0000a0 6f 73 81 3f 0d 30 80 3f ed 22 81 3f 08 25 82 3f
       1.0113353 1.0014664 1.0088784 1.0167551
0000b0 f0 23 80 3f 73 76 81 3f 60 be 80 3f 23 b1 7e 3f
       1.0010967 1.0114273 1.0058098 0.9948904
0000c0 10 34 81 3f de 94 7d 3f eb 8b 7c 3f f8 75 7e 3f
       1.0094013 0.9905528 0.98651 0.99398756
0000d0 67 77 7a 3f 61 9a 80 3f 0f a2 7f 3f d2 5b 80 3f
       0.97838444 1.0047113 0.99856657 1.0028021
0000e0 92 57 80 3f 81 2c 81 3f 18 10 80 3f bb f8 81 3f
       1.0026724 1.0091707 1.0004911 1.0154032
0000f0 5c 80 7f 3f 1f 44 80 3f 36 35 81 3f d6 6c 82 3f
       0.99805236 1.0020789 1.0094364 1.0189464
000100 a3 17 7d 3f 71 d4 7d 3f 45 00 80 3f 40 e2 80 3f
       0.9886419 0.99152285 1.0000082 1.0069046
000110 9c d3 80 3f 14 c6 80 3f e4 f2 80 3f fa 72 7d 3f
       1.0064578 1.0060449 1.0074124 0.99003565
000120 28 a7 81 3f 86 fa 82 3f ee 0d 81 3f 53 3c 80 3f
       1.0129137 1.0232704 1.0082376 1.001841
000130 18 2e 7f 3f 5f c1 81 3f 81 7a 81 3f 5f 70 7e 3f
       0.9967971 1.0137137 1.011551 0.99390215
000140 06 f7 80 3f b5 45 7f 3f b9 3a 7f 3f 1c e9 7f 3f
       1.0075386 0.9971574 0.9969898 0.9996507
000150 2a d5 7f 3f 0a 91 80 3f 5f b6 80 3f 2d fb 7e 3f
       0.9993464 1.0044262 1.0055655 0.99602014
000160 6e 31 82 3f c8 3d 80 3f e6 64 81 3f bd a4 81 3f
       1.0171335 1.0018854 1.0108917 1.0128399
000170 96 f4 7f 3f 17 cf 80 3f 34 03 81 3f 8a 50 81 3f
       0.99982584 1.0063199 1.0079103 1.0102704
000180 97 d8 7f 3f 88 b3 7f 3f ce 1c 81 3f ec c7 80 3f
       0.99939865 0.9988332 1.0086915 1.0061011
000190 19 8c 7e 3f 72 c8 7f 3f 77 26 80 3f ac be 81 3f
       0.9943252 0.9991523 1.0011739 1.0136313
0001a0 5c 52 81 3f a7 eb 81 3f 43 fd 7d 3f ff 9b 80 3f
       1.0103259 1.015004 0.9921457 1.0047606
0001b0 5f 68 80 3f 92 15 82 3f 2f b0 7f 3f 67 4a 81 3f
       1.0031852 1.0162833 0.9987821 1.0100831
0001c0 7e 7c 7f 3f 42 a3 81 3f b0 05 7f 3f dc 4f 82 3f
       0.99799335 1.0127947 0.99618053 1.0180621
0001d0 a4 f8 81 3f fb 3f 81 3f c4 aa 7e 3f b9 48 7e 3f
       1.0154004 1.009765 0.9947932 0.99329716
0001e0 0c 5c 80 3f aa fe 7a 3f 45 19 82 3f 11 1a 80 3f
       1.002809 0.98044837 1.0163962 1.0007955
0001f0 6f 4a 80 3f 0d dc 7e 3f 88 14 7f 3f a0 74 81 3f
       1.0022715 0.9955452 0.99640703 1.0113716
000200 0e ee 7e 3f 1c 67 7f 3f 28 0b 7e 3f 18 09 80 3f
       0.9958199 0.9976671 0.99235773 1.0002775
000210 ba a2 80 3f 43 db 80 3f 8c e2 80 3f a4 3d 82 3f
       1.004966 1.0066913 1.0069137 1.0175061
000220 20 04 82 3f 4a 5e 7e 3f cb 14 80 3f a4 d7 7d 3f
       1.0157509 0.99362624 1.0006346 0.99157166
000230 7c 4f 81 3f 4c 27 7e 3f 3d 16 81 3f f4 47 80 3f
       1.0102382 0.9927871 1.0084912 1.0021958
000240 59 c1 81 3f f0 fc 80 3f cd 6f 80 3f 44 3d 82 3f
       1.013713 1.007719 1.0034119 1.0174947
000250 11 73 80 3f 1b 6b 80 3f af 85 81 3f e5 c7 7e 3f
       1.0035115 1.0032686 1.0118922 0.99523765
000260 e1 1d 7f 3f 2a e2 7c 3f 9b d0 80 3f 4c 61 7e 3f
       0.99654967 0.987826 1.0063661 0.99367213
000270 6c 8a 7f 3f 4b 68 81 3f 45 b4 7d 3f 82 33 80 3f
       0.9982059 1.0109953 0.99103194 1.0015719
000280 15 e7 7d 3f b2 d6 81 3f e4 2a 7e 3f 6d 4f 81 3f
       0.9918073 1.0143645 0.99284196 1.0102364
000290 9f 0d 81 3f b0 4a 7e 3f 39 2f 82 3f 37 07 7c 3f
       1.0082282 0.99332714 1.0170661 0.9844851
0002a0 5d 78 81 3f 75 b5 7f 3f c3 b1 80 3f d3 25 7d 3f
       1.0114857 0.99886256 1.0054249 0.9888584
0002b0 d0 73 80 3f d6 7b 80 3f a1 40 7e 3f 50 3f 7f 3f
       1.0035343 1.0037792 0.99317366 0.9970598
0002c0 ec 89 7f 3f 2f 34 7f 3f 56 fa 7e 3f 4e 21 81 3f
       0.9981983 0.99689 0.9960073 1.0088289
0002d0 30 01 81 3f 7c 5c 80 3f 04 d4 80 3f 63 43 7e 3f
       1.0078487 1.0028224 1.0064702 0.99321574
0002e0 56 fc 7e 3f f0 93 81 3f 3d 39 80 3f fe d3 7d 3f
       0.99603784 1.0123272 1.0017468 0.991516
0002f0 c2 73 81 3f 80 68 81 3f 95 4a 7e 3f 46 3d 80 3f
       1.0113451 1.0110016 0.99332553 1.0018699
000300 04 22 80 3f e6 db 80 3f d1 f2 7f 3f 7c f4 81 3f
       1.0010381 1.0067108 0.99979883 1.0152736
000310 37 8a 82 3f 91 df 80 3f 21 30 81 3f 33 8a 80 3f
       1.019843 1.0068227 1.0092813 1.0042175
000320 7c ba 80 3f 42 e1 7f 3f bd 35 80 3f 40 de 7d 3f
       1.005691 0.9995309 1.00164 0.9916725
000330 77 73 81 3f df 0c 7e 3f d5 ac 7f 3f 2b 4b 7e 3f
       1.0113362 0.9923839 0.99873096 0.9933345
000340 11 73 7e 3f d2 58 80 3f 6f 7d 82 3f 63 68 80 3f
       0.9939433 1.0027106 1.0194529 1.0031856
000350 89 6b 7e 3f e7 27 80 3f 56 eb 81 3f c9 46 7e 3f
       0.99382836 1.0012177 1.0149944 0.9932676
000360 e9 78 80 3f c4 c3 80 3f 1c 24 80 3f 16 41 7d 3f
       1.0036899 1.0059743 1.001102 0.9892744
000370 00 f8 82 3f fc 76 7d 3f d1 26 80 3f 70 b7 7f 3f
       1.0231934 0.9900968 1.0011846 0.9988928
000380 de 56 80 3f 5e fb 7e 3f e0 2e 7f 3f 4b a0 7d 3f
       1.002651 0.99602306 0.996809 0.9907271
000390 9f 62 81 3f eb 12 82 3f d9 1f 80 3f e8 83 80 3f
       1.0108222 1.0162023 1.0009719 1.0040255
0003a0 34 55 84 3f f8 c4 7e 3f 19 f9 7d 3f 5e b2 7f 3f
       1.0338502 0.995193 0.9920822 0.9988154
0003b0 cc 7b 83 3f a4 3a 81 3f 60 fa 7e 3f d8 29 7a 3f
       1.0272155 1.0096021 0.9960079 0.977201
0003c0 01 06 7d 3f 5a db 7e 3f 82 9b 80 3f b4 09 82 3f
       0.98837286 0.99553454 1.0047457 1.0159211
0003d0 d0 be 7e 3f e7 83 7e 3f bd ad 7e 3f 16 82 80 3f
       0.99509907 0.99420017 0.99483854 1.0039699
0003e0 3e f8 80 3f ff c9 81 3f f1 53 7f 3f b7 3c 7f 3f
       1.0075758 1.0139769 0.9973746 0.9970202
0003f0 a5 4e 7f 3f f5 0e 80 3f 76 91 81 3f 4f 2a 82 3f
       0.9972938 1.0004565 1.0122516 1.0169162

BN1.bias f4 [256]
000000 7f c3 e5 3c b6 7d 07 bc 56 01 29 bb 72 8f 64 3d
       0.028047321 -0.008269718 -0.002578815 0.055800863
000010 54 d5 be 3c 80 8f f6 bc 6e 9c ae 3b 43 73 04 bd
       0.023295082 -0.030097723 0.0053287065 -0.032336485
000020 74 8b cb bc 5e 57 48 3c 25 0b a3 3c d8 7f 4f 3c
       -0.02484677 0.012227861 0.019902775 0.012664758
000030 1e d1 aa 3c f1 d6 ef bc 9a 37 b7 bc f1 6a 5e bc
       0.020851668 -0.029277297 -0.02236538 -0.0135753015
000040 39 97 2a bc 39 3e 7d bc 45 16 76 3c 40 d4 35 bb
       -0.010412031 -0.01545673 0.015019958 -0.002774492
000050 57 12 1e 3c 68 cb a7 3c 43 bd ac bc c8 1f 87 bc
       0.009647927 0.020482734 -0.02108634 -0.016494647
000060 9c ba 00 bc 2c 76 82 bc 62 34 c2 bc 85 19 27 3c
       -0.007856991 -0.01592549 -0.023706619 0.010198955
000070 71 57 b1 bc db 13 b5 bc bd 20 de bc 96 3d d2 ba
       -0.02164814 -0.022104194 -0.02711522 -0.0016040083
000080 6f 6a fd bc cb cd fe 3c 25 4c 36 3c 8d 3f ea 3b
       -0.03093454 0.03110399 0.011126553 0.007148689
000090 da 77 a7 bc c4 5c ca bc 3b d3 9c bc e9 9a d7 bc
       -0.020442892 -0.024702437 -0.019143691 -0.026318984
0000a0 63 c7 0f bd b3 7a 43 bc 37 71 c8 bc 1d 07 fe bc
       -0.03510226 -0.011931109 -0.024468048 -0.031009251
0000b0 e5 8b 91 3b f1 fa 5b bc 98 dc 49 bd 6f 90 32 ba
       0.0044417256 -0.013426528 -0.04928264 -0.00068116834
0000c0 2f 1a b7 bc 6f 12 20 39 d4 15 16 3c 4a 56 24 3d
       -0.022351352 0.00015265656 0.009160478 0.040121354
0000d0 73 74 45 3d 8b cd b2 bc af 07 17 3b fa 58 86 bc
       0.048206758 -0.021826526 0.0023045351 -0.01639985
0000e0 4f a5 99 bc d0 17 7d bc 06 39 86 3b 62 4b 7d bc
       -0.018755583 -0.015447572 0.004096153 -0.015459867
0000f0 44 63 38 3c e9 14 49 bc ca 71 d1 bb 5f d4 e4 bc
       0.0112541355 -0.012273052 -0.0063917385 -0.027933298
000100 29 57 52 3b 1f f2 1f 3c 3a ef be 3c 18 4c 94 bc
       0.0032095409 0.009762316 0.023307431 -0.01810269
000110 28 a3 04 bb 33 86 be 39 b2 be c9 3c 22 00 01 3d
       -0.002023885 0.0003633961 0.024627063 0.031494267
000120 ff bc 83 bc a1 d1 5e 3b d3 9c 4a bb fd 3c 19 3b
       -0.016081331 0.003399946 -0.0030916228 0.00233823
000130 d0 06 86 bb e1 ca ed bc 4d 25 19 bd f0 37 c2 ba
       -0.0040901676 -0.029027404 -0.03738909 -0.0014817696
000140 88 69 08 bc b9 3b 8b 3c e0 1c dd bb ce a4 e2 bc
       -0.008325942 0.016996251 -0.006747827 -0.027666476
000150 eb bd d7 bc b6 41 e2 3c 79 66 32 b6 c2 7c 2f 3c
       -0.026335677 0.027619224 -2.6583714e-06 0.010710897
000160 3f 78 b5 bc dc 28 37 3b ee 25 99 bc 85 79 bf bc
       -0.022152064 0.0027947938 -0.018694844 -0.023373375
000170 39 e8 94 3b f5 48 b9 bc 54 f6 3b 3c 1c 3b 67 bd
       0.0045442847 -0.022617796 0.011472303 -0.056452855
000180 3a a5 41 3c 1b db a4 bc 6c 15 27 3a eb 52 83 bd
       0.011819178 -0.020124009 0.00063737365 -0.064123
000190 d3 72 87 3a ef 70 00 3c 4f 5e 36 bd f0 f5 04 bd
       0.0010333903 0.0078394255 -0.044523533 -0.032461107
0001a0 78 10 e6 bb 8b 1d 83 bc a9 90 a8 3b bc 99 ff 3b
       -0.007021006 -0.016005298 0.005144198 0.007800309
0001b0 f6 cd 27 bb 58 bf cd bc 4b cf 1c bc 9e 78 85 bc
       -0.002560494 -0.025115654 -0.009570907 -0.016292866
0001c0 bd a7 b8 ba 24 b3 ad bb e0 0d e8 bb 1e 6d 1c bd
       -0.0014088076 -0.0053008962 -0.007081732 -0.03819
0001d0 fb bb 7f bb 0a 20 bb bc 07 30 a9 bc fe 30 a1 3c
       -0.0039021957 -0.022842426 -0.020652784 0.019676682
0001e0 54 df 11 3c 8e 90 7d 3b cd 19 04 bd 98 87 c7 3b
       0.008903343 0.0038690898 -0.032251168 0.006089162
0001f0 9a 47 8d bc 32 ef 0b 3d db 94 10 3b 4c 13 2a bd
       -0.017246056 0.03416366 0.002206138 -0.04152231
000200 1f 3c 68 3c bc 1a 6e 3c 92 ef 3e b9 86 da 95 3c
       0.01417449 0.014532741 -0.00018209059 0.018292677
000210 d8 1e b7 3c 0b 19 0e bb 49 79 9b bc ec 67 47 bd
       0.022353575 -0.0021682407 -0.018978732 -0.048683092
000220 96 d9 35 bd 2b f9 cd ba bc f0 13 bc 4a b7 b8 3b
       -0.04439696 -0.0015714517 -0.0090295635 0.005637084
000230 49 45 85 bc 9c 4f 7d 3c ce c3 cc bc 2a 97 2a bd
       -0.01626839 0.015460875 -0.02499571 -0.041648068
000240 76 85 84 3c cd 7b 1a bd b4 b3 9d 3b f8 e5 1d bd
       0.01617692 -0.037715722 0.004812682 -0.038549393
000250 3e 72 bb bc 0e bf 72 bb d9 de 70 bc 25 c7 55 bb
       -0.022881623 -0.0037040147 -0.0147015685 -0.003261992
000260 db 54 88 bc 0d ac d4 3c eb 33 8b bb 57 bb 8f 3b
       -0.016642025 0.025960946 -0.0042481325 0.0043863463
000270 a8 e7 ca ba 8f 55 17 bc 2e bb 6f bc 36 68 25 bc
       -0.0015480416 -0.009236707 -0.014632029 -0.010095647
000280 c7 63 9e ba f2 93 18 bd 70 72 c4 3c 68 df 83 bc
       -0.0012084179 -0.037250467 0.02398035 -0.01609774
000290 51 7e b9 bc d4 97 36 3b 28 86 c7 bc 91 60 db bb
       -0.02264324 0.0027861493 -0.024355963 -0.006694861
0002a0 3a ef 91 bb e0 55 40 bb 6b df a7 3c 47 0d 8e 3a
       -0.004453567 -0.002934806 0.020492276 0.0010837697
0002b0 60 92 b1 bc fb 9d b3 bc 6c 13 7c 3c 9f b1 13 3d
       -0.021676242 -0.021925917 0.01538549 0.036058065
0002c0 05 c4 54 3c 5c ce ec bc 93 2a 98 bc 7c 96 1c bc
       0.012986188 -0.028906994 -0.018574988 -0.009557363
0002d0 71 a2 45 bb 28 fb a5 3b 75 a4 03 bd 0b bd 12 3d
       -0.0030156637 0.0050653405 -0.03213926 0.035824817
0002e0 71 bb dd 3b 35 ea e2 bc 1d d7 18 bb 05 2a 2f 3c
       0.0067667295 -0.02769957 -0.0023321577 0.010691171
0002f0 35 16 af bc 04 50 54 bc 0a 3e 68 3c ec 99 19 3c
       -0.021372894 -0.01295853 0.0141749475 0.009375077
000300 d1 64 15 bc b7 a6 53 3c 02 fd 1a 3c c4 bf a2 bc
       -0.009118275 0.012918166 0.009459736 -0.019866832
000310 31 0f 05 bd d2 8d 3f bd 53 b9 66 bd 9c b9 4c bc
       -0.03248519 -0.04676611 -0.056329083 -0.012495425
000320 58 0a f4 bb 89 93 51 bb 57 25 e0 bc eb 88 0d 3b
       -0.007447522 -0.0031978807 -0.027361555 0.0021596502
000330 dd 28 ce bc 4b f0 4a bb de 12 37 3c 87 ee 9a ba
       -0.02516597 -0.003096598 0.011173932 -0.0011820354
000340 33 4a b8 3b ce 9c c7 3b 8c ea 47 bd 45 76 2a bc
       0.0056240796 0.0060916906 -0.048807666 -0.010404174
000350 29 c4 3f bc 6f e3 ba bc f6 df ce bc 4c 19 23 bc
       -0.011704483 -0.022813527 -0.025253277 -0.009954762
000360 43 f8 4e bc 9c b1 b8 bc 9c eb f0 bc 12 d6 ce 3c
       -0.012632432 -0.022545628 -0.029409222 0.025248561
000370 88 1e af bc de 6b 33 bb 2b 4e 1e 3b 9a 65 c5 bc
       -0.021376863 -0.0027377526 0.0024155478 -0.024096299
000380 de e8 db bc fd e6 e0 3c b8 0d de ba 84 67 59 3c
       -0.026844438 0.027453894 -0.0016941344 0.013269309
000390 1a 0e 59 bc 57 56 6e bd 2b 85 b3 bc dc d6 1b bc
       -0.013247991 -0.05818781 -0.021914085 -0.009511676
0003a0 bd 21 e2 bc 99 bc 4e bc 99 2b 0f 3c 10 38 b1 bc
       -0.027603978 -0.012618207 0.008738422 -0.021633178
0003b0 e8 14 a8 bc d3 09 9b bc 28 10 42 bc 87 89 a2 bb
       -0.020517781 -0.018925583 -0.011844672 -0.004960242
0003c0 8c b6 90 3c b1 81 d5 3b d1 03 a6 bc 88 fa 54 bc
       0.01766517 0.0065157046 -0.020265492 -0.012999184
0003d0 66 74 d4 3b 08 d3 06 bb df 71 dd bc f5 a7 8c bb
       0.0064836023 -0.0020572562 -0.027031837 -0.004292483
0003e0 15 93 10 bd f0 da b6 bc a3 1a e3 3c 84 0d 31 bc
       -0.03529652 -0.022321194 0.027722662 -0.010806445
0003f0 d8 5f b5 bc 54 9c 12 bc 6a 2f f1 bb dc 48 b8 bb
       -0.022140428 -0.008948404 -0.0073603885 -0.00562392

BN1.running_mean f4 [256]
000000 fa e1 38 c1 1a e5 9a 40 ef a9 c7 40 bd 62 ce 40
       -11.55517 4.8404665 6.239494 6.449553
000010 53 a6 11 c1 46 b6 0d 41 92 90 c2 41 da 26 2f 41
       -9.1031065 8.857 24.320591 10.946985
000020 24 77 09 41 37 a6 a6 bf a6 aa 8f 40 74 36 90 41
       8.591587 -1.3019475 4.489581 18.026588
000030 07 e3 06 41 c7 4b 99 c0 2f 8f b6 be 24 2f 25 40
       8.430427 -4.7905 -0.35656115 2.5810022
000040 2c 04 6c 41 6c a9 33 c1 e0 79 27 41 e1 7c 41 41
       14.751019 -11.228863 10.467255 12.092988
000050 d0 ae 21 c0 c1 0b 33 41 c0 ef 38 40 88 e7 de 40
       -2.5262947 11.19037 2.8896332 6.965763
000060 4d d5 f0 bf 7e ab 79 3f fe 66 ab c0 c4 fe e2 40
       -1.8815094 0.975273 -5.3563223 7.0935993
000070 2a a9 8c c0 b8 b7 24 3f c1 4f 8e 40 35 65 ba c0
       -4.39565 0.6434283 4.4472356 -5.8248544
000080 da 33 f7 40 98 2c 11 bf 50 a5 27 41 06 43 39 c1
       7.7250795 -0.5670867 10.4778595 -11.578863
000090 ec d1 1d c1 34 b9 5c 40 bf 4d 52 3e 25 11 79 c0
       -9.86375 3.448804 0.2053747 -3.8916714
0000a0 58 4f 37 41 98 a0 74 41 6c 8c b9 40 44 2e 5e 40
       11.456871 15.289207 5.7983913 3.4715738
0000b0 7b ff d9 c0 b7 0e b8 3f 3e b3 44 41 35 63 9f 3f
       -6.8124366 1.4379491 12.29376 1.245215
0000c0 c0 56 22 c1 01 d6 c5 c0 5e 38 e4 c0 36 d3 d6 c0
       -10.146179 -6.1823735 -7.1318808 -6.7132826
0000d0 b5 09 dd 40 6b e5 84 c1 5d c6 81 40 08 2a 87 40
       6.907435 -16.61202 4.0554643 4.223881
0000e0 61 f0 63 c0 ae 86 02 41 81 b6 1c c1 0a 7b de 40
       -3.5615466 8.157881 -9.794557 6.9525194
0000f0 e9 f6 5b 40 80 5f 78 c1 fb 99 f4 3f bf ab 46 c0
       3.4369452 -15.523315 1.9109491 -3.1042325
000100 fd 01 90 3e bf a4 1c c0 03 fb 4c 41 1e 7a ba 40
       0.28126517 -2.4475553 12.811282 5.827407
000110 4a 9e 44 c1 cb 8b c0 3f c3 d9 fb bf 6d 92 1b c1
       -12.288645 1.5042661 -1.9675831 -9.7232485
000120 d5 0c 5d c0 a1 21 17 41 45 49 53 c1 93 3c 13 41
       -3.4539082 9.44571 -13.205388 9.202289
000130 d7 37 04 41 d0 a1 97 c0 b8 84 fa 40 2b 7b 8f c0
       8.263633 -4.7385025 7.828701 -4.483785
000140 f9 a9 6d 40 95 99 ad 3e 29 47 ce 40 f0 50 05 41
       3.7134993 0.33906236 6.4461865 8.33226
000150 28 a4 7b c0 cf 2e 39 bf 29 e7 3b c1 64 47 09 40
       -3.9318943 -0.7233705 -11.743936 2.1449823
000160 aa b8 fd bf c9 de 91 40 d1 d7 7d 40 87 7c 3e 41
       -1.982198 4.5584455 3.9662974 11.905402
000170 c5 ab 8c 3f 0d 91 e1 c0 d5 51 73 bf 05 2c cc 40
       1.098992 -7.0489564 -0.9504674 6.3803735
000180 35 06 9c 40 55 b4 74 3d a7 16 3a c1 a9 88 bf c0
       4.8757577 0.05974229 -11.63053 -5.985432
000190 c0 f4 cb 40 fc 80 1c 3d d5 08 94 40 6a 90 7f 40
       6.3736267 0.038208947 4.626078 3.9931893
0001a0 ff 5e 81 41 d5 b5 80 bf c7 25 ed c0 4b 7b b5 c0
       16.171385 -1.0055491 -7.4108615 -5.6713004
0001b0 73 63 00 bf 8b 53 11 41 fb 10 38 c1 f8 d1 ca c0
       -0.5015175 9.082896 -11.504146 -6.338131
0001c0 99 a8 00 41 b6 0e 80 c1 54 27 83 40 5a 82 04 41
       8.041162 -16.007183 4.098551 8.281824
0001d0 4b 7b 1a c1 b9 21 52 c1 b7 4d 23 40 29 c3 38 c1
       -9.655101 -13.133233 2.5516183 -11.5476465
0001e0 de ab 00 c1 7a bf 6e c1 49 3e 5b 40 40 e9 a6 c0
       -8.04196 -14.921747 3.4256766 -5.215973
0001f0 eb f7 3c 40 53 2a fb c0 13 6b c2 c0 cf 7c c9 3f
       2.9526317 -7.8489165 -6.0755706 1.5741214
000200 d4 b3 d4 c0 00 18 3b c1 4b e4 fe bf 5f 44 48 c1
       -6.6469517 -11.693359 -1.991342 -12.516692
000210 8e f5 3d 40 d7 e6 f8 bf d4 ba 9e 3f 76 42 19 41
       2.9681125 -1.9445447 1.2400765 9.578726
000220 50 ad 6e 3e 36 45 98 be 29 3a be 40 3c 66 6c 41
       0.23308301 -0.29740304 5.9445996 14.77496
000230 b3 cb dc c0 50 c7 28 c1 eb 57 96 40 13 6b 2a 41
       -6.8998656 -10.54866 4.698232 10.651141
000240 55 de 02 be 09 7d f7 3f 98 32 14 c1 b2 b4 47 3f
       -0.12780125 1.9335033 -9.262352 0.78010094
000250 fd 15 1e bf 0d 73 d9 40 18 72 d7 bf cc d6 55 c0
       -0.617523 6.7952943 -1.6831694 -3.3412352
000260 a8 8f 0f c1 4a de 27 41 37 01 8b bf 34 e0 0a c1
       -8.972572 10.49177 -1.0859746 -8.679737
000270 64 9b 49 c0 f6 db 75 c1 7d da 48 c1 a5 71 36 41
       -3.1501093 -15.366201 -12.553342 11.402745
000280 86 2e 00 c0 31 ed 1e 3e 55 93 1e c1 9f 1c 36 41
       -2.0028396 0.15520169 -9.91097 11.381988
000290 56 71 48 c1 15 03 ec c0 87 c1 7b 3f cf 67 80 41
       -12.52767 -7.375376 0.98342174 16.050688
0002a0 df 1a 94 c1 f7 2a 75 c0 e1 10 96 bf 01 bd 3d 41
       -18.51312 -3.8307474 -1.1723901 11.858644
0002b0 1e 2b 71 41 9e 7f 1d 40 79 f5 4d bf 06 af d7 c0
       15.073027 2.4609141 -0.80452687 -6.740115
0002c0 86 d3 57 bf 20 d9 12 41 c2 cf 27 40 91 5b 8d c1
       -0.84307134 9.178009 2.6220555 -17.66971
0002d0 a1 5f 1e c1 cd 72 89 bf 21 80 3e 41 9a 00 69 41
       -9.898347 -1.073816 11.906281 14.562647
0002e0 79 f9 c5 40 85 3b f0 c0 aa 30 24 41 28 06 cb 40
       6.186703 -7.5072656 10.261881 6.3445015
0002f0 11 f7 08 40 fe c6 41 40 5c cc dd 40 f0 a7 dd c0
       2.1400797 3.0277705 6.931196 -6.92675
000300 69 de 03 c1 eb 96 de 3f 67 57 3a 40 14 9e f9 c0
       -8.241799 1.7389807 2.9115846 -7.8005466
000310 78 dd 82 3f 46 fb 23 c1 8c c2 97 41 61 4b 4e c0
       1.0223837 -10.248846 18.969994 -3.2233508
000320 0d 74 5c c1 f3 d7 27 c1 81 3b c1 40 2b ad e4 c0
       -13.778333 -10.490222 6.0385137 -7.1461387
000330 31 48 05 c1 3e a9 6a 41 2d a7 51 41 93 51 53 c1
       -8.330125 14.666319 13.103314 -13.207416
000340 5f 47 ad 40 c2 69 19 3f 61 cb 27 c1 4e ef 4b 40
       5.4149623 0.59927 -10.487153 3.186481
000350 43 f4 49 40 94 a8 af c0 03 d6 88 bf 0b b6 76 40
       3.1555336 -5.4893284 -1.0690311 3.854861
000360 24 b3 61 40 9c 6b 0c c0 01 2d 16 3f 22 71 3e c0
       3.5265589 -2.194068 0.5866242 -2.975655
000370 19 4a a8 c0 41 32 5a c1 91 3a c4 bf a0 34 15 40
       -5.259045 -13.637269 -1.5330373 2.331337
000380 ab cb b4 c0 e4 d0 19 40 c6 d3 85 c0 4c 04 25 c1
       -5.649862 2.4033747 -4.1821012 -10.313549
000390 4d 65 4c 3f c4 09 06 c1 f0 33 df 40 af 6b 3e 40
       0.7984207 -8.377384 6.97509 2.9753225
0003a0 b4 4b 4c 40 2e 3a 6f c1 fe d9 41 3e 24 d0 2e 40
       3.1921206 -14.951704 0.18930814 2.731454
0003b0 83 29 ee c0 b6 5c 7e 40 54 97 61 c0 06 74 ad 41
       -7.4425673 3.9744086 -3.5248613 21.681652
0003c0 48 bb 0f c0 29 5f 01 41 50 08 63 bf dd d1 05 41
       -2.2458057 8.085732 -0.8868456 8.363736
0003d0 84 57 8f 40 41 fd c4 3e 4c 37 0c c1 ca 52 76 c0
       4.479433 0.38474467 -8.7635 -3.848803
0003e0 99 07 91 c1 29 9d ef 40 9c 2e 84 41 e1 73 bf c0
       -18.12871 7.4879346 16.522758 -5.9828954
0003f0 d2 bf 24 c1 e7 6c 94 c0 ae 1b 12 41 ca e1 fe c0
       -10.296831 -4.6382937 9.131758 -7.965062

BN1.running_var f4 [256]
000000 68 e1 90 42 d3 40 39 42 73 cf 09 43 f7 c8 b8 42
       72.44025 46.313305 137.81035 92.39251
000010 92 cf 2a 43 26 a9 3f 43 e4 0b 0b 43 03 97 d1 42
       170.81082 191.66074 139.04645 104.794945
000020 65 a2 0c 43 09 93 05 43 a9 d5 19 43 cd a6 45 43
       140.63435 133.57436 153.83461 197.65157
000030 03 c9 a5 42 3e 25 d6 42 b0 26 8c 42 c9 15 17 43
       82.8926 107.07274 70.07556 151.0851
000040 60 19 fe 42 37 3a b0 42 89 cb 6d 42 12 84 08 43
       127.04956 88.1137 59.448765 136.5159
000050 1f a5 d9 42 77 aa 1c 42 f4 8a de 41 06 d9 8b 42
       108.8225 39.16647 27.817848 69.923874
000060 f6 a9 40 42 29 b5 d3 42 a8 3c 56 42 07 1c 6c 42
       48.165977 105.85383 53.559235 59.02737
000070 17 7a 56 42 bf 76 51 43 41 df 7c 42 37 fd f2 42
       53.61923 209.46385 63.21802 121.49456
000080 54 c9 a4 42 4f 49 c8 42 2f 43 08 43 4d 41 81 42
       82.39322 100.14318 136.26244 64.62754
000090 71 21 80 42 70 6d b6 42 58 9d 14 43 e7 10 2e 42
       64.065315 91.213745 148.61462 43.516506
0000a0 ce dc 5f 43 39 65 88 42 fe 07 9b 42 17 b3 a0 42
       223.86252 68.1977 77.51561 80.349785
0000b0 9d 3b 6f 43 f2 9f 12 43 36 a5 a1 42 e4 c0 13 42
       239.23286 146.62479 80.82268 36.93837
0000c0 17 e8 06 43 dc a4 ab 42 26 ad 09 43 16 0e cc 42
       134.9066 85.82199 137.67636 102.02751
0000d0 03 e2 62 42 82 7f 13 43 f4 79 84 42 b5 b4 c6 42
       56.720715 147.49808 66.23819 99.35294
0000e0 4b 31 8e 42 db ec c2 42 e2 ff 67 42 18 d4 b9 41
       71.096275 97.46261 57.999886 23.228561
0000f0 3d 4c 5f 42 bb 97 a6 42 78 82 74 42 52 e7 95 42
       55.82445 83.29635 61.12741 74.9518
000100 d5 8c 4c 43 b5 09 56 42 9d 74 b5 42 d1 15 96 42
       204.55013 53.50948 90.72776 75.04261
000110 37 8e 01 43 ff 09 09 43 eb 7c dd 42 3f 0c a5 42
       129.55553 137.03905 110.74398 82.52392
000120 5a 18 9f 42 95 cd 63 42 97 7d cb 42 06 ed 30 42
       79.54756 56.950764 101.74529 44.23147
000130 81 3c 8e 42 4a a8 2f 42 32 88 b7 42 49 37 2d 42
       71.11817 43.914345 91.76601 43.30399
000140 d4 fd 06 42 18 2f af 42 81 30 8c 42 fb fa 86 43
       33.74788 87.59198 70.094734 269.9608
000150 65 bb 88 42 3b ec 21 42 e7 84 0b 43 9e fb 48 42
       68.366005 40.480694 139.51915 50.24572
000160 9d 82 66 42 03 46 d1 42 63 8a d9 42 a2 a6 3d 42
       57.627552 104.63674 108.77029 47.412727
000170 ea f9 57 42 67 b3 99 42 13 9c c0 42 47 c4 71 42
       53.994057 76.850395 96.30483 60.441677
000180 f4 a3 f7 42 8a b6 25 42 52 ef a0 42 fe 5d eb 42
       123.82022 41.42826 80.46742 117.68358
000190 ba 2c 1a 43 47 56 09 43 fc c7 03 42 14 e8 3c 43
       154.17471 137.33702 32.945297 188.90656
0001a0 20 3e 9e 42 e6 58 3b 42 f1 80 66 42 f9 95 a6 42
       79.12134 46.836815 57.62592 83.292915
0001b0 0e fa 83 42 76 dd b1 42 34 14 14 43 64 f3 ca 42
       65.98839 88.93254 148.07892 101.47537
0001c0 f6 ba 52 42 4b d1 b5 42 ec d9 8f 42 da d3 26 42
       52.68258 90.908775 71.92563 41.706886
0001d0 01 ac 3e 42 e3 0a ab 42 76 c0 aa 42 b9 11 54 42
       47.667973 85.52126 85.3759 53.017307
0001e0 5e 73 e6 42 fa 95 d8 42 50 5e c2 42 14 b2 28 43
       115.22533 108.29292 97.184204 168.69562
0001f0 c3 49 87 42 ee db 16 43 fc f1 26 42 6b 90 6a 42
       67.644066 150.8591 41.736313 58.641033
000200 36 ca 04 43 44 62 95 42 fb db ca 42 18 e5 eb 42
       132.78989 74.691925 101.42965 117.94745
000210 8f 19 6a 43 a2 b0 5b 42 cf 9d 0b 43 63 fc 9d 42
       234.09984 54.922493 139.61644 78.99294
000220 f2 b5 bf 42 7c e4 72 42 5d 39 97 42 86 65 ef 42
       95.85536 60.72313 75.61204 119.69829
000230 b1 8d 1d 42 e3 83 a2 42 36 8f 50 42 10 21 00 43
       39.38837 81.25759 52.139854 128.12915
000240 1a 9c a7 41 d8 8d c7 42 ce c0 92 42 6d e7 06 43
       20.951221 99.77704 73.37657 134.904
000250 19 1c 5f 42 6e 87 ad 42 bc 9d 8e 42 27 42 31 43
       55.77744 86.76451 71.308075 177.2584
000260 79 51 33 42 62 64 2f 43 01 09 14 42 de 85 70 42
       44.829563 175.39212 37.008793 60.13073
000270 ab 53 63 42 56 27 a5 42 8d a4 b4 42 13 bf 46 43
       56.831707 82.57683 90.32139 198.74638
000280 72 40 18 42 3c 36 ee 42 8a 08 cc 42 6d f5 19 43
       38.062935 119.10593 102.01668 153.9587
000290 67 46 82 42 13 2b f1 42 70 6f 37 42 4b 89 a0 42
       65.137505 120.58413 45.858826 80.26815
0002a0 aa 42 03 43 23 a5 89 42 61 76 46 42 ab 04 e1 42
       131.2604 68.82253 49.615604 112.50912
0002b0 d3 d1 95 42 17 c8 b5 42 3e 46 8e 42 c0 b1 19 42
       74.90981 90.8908 71.13719 38.423584
0002c0 94 b4 92 42 76 a4 b2 42 45 32 19 43 82 f9 2f 43
       73.35269 89.32121 153.19637 175.97464
0002d0 37 41 8a 42 d0 3c 35 42 24 eb 81 42 6d 2c 76 42
       69.12737 45.309387 64.95926 61.543385
0002e0 10 e0 57 42 f8 6e 9c 42 12 24 d2 42 b4 67 13 42
       53.96881 78.216736 105.07045 36.851273
0002f0 de af 31 42 01 28 6d 42 32 c8 bb 42 af 7f 72 42
       44.421745 59.289066 93.89101 60.62469
000300 3d 97 45 43 ce 63 f3 42 31 cf c2 42 6f 40 0d 43
       197.59077 121.69493 97.40467 141.2517
000310 9f b1 3c 42 36 80 80 42 cc cb f4 42 38 12 6d 42
       47.17346 64.25041 122.39804 59.26779
000320 df 21 a6 42 28 bd 1f 43 f6 f9 8e 42 cd 7e bb 42
       83.066154 159.73889 71.488205 93.74766
000330 36 66 dd 42 82 51 12 43 a5 f7 d7 42 dc 5d 79 42
       110.69963 146.31839 107.98368 62.34166
000340 aa 3a bf 42 d8 e7 9d 42 93 d7 7a 42 cb c7 b1 42
       95.61458 78.95282 62.71052 88.89022
000350 d8 b4 05 43 86 47 60 42 6d a5 3a 42 52 fa b0 42
       133.70642 56.069847 46.66155 88.48891
000360 e9 51 be 42 45 93 02 43 6f 1e 07 42 f5 ed 8a 42
       95.15998 130.57527 33.77972 69.46476
000370 c4 49 b1 42 f7 33 b7 42 c9 a3 61 43 c8 7a 3b 42
       88.64407 91.601494 225.63979 46.869904
000380 45 72 02 43 e0 63 66 42 7f 6e a1 42 bc 77 e5 42
       130.44637 57.597534 80.71581 114.73386
000390 a4 be 2f 43 6a b9 95 42 67 b6 4e 43 b3 7c 5c 42
       175.74469 74.86214 206.71251 55.121777
0003a0 c6 e5 6c 42 a6 0c a2 42 32 5c cc 42 7a a3 93 42
       59.22439 81.024704 102.18007 73.81929
0003b0 0c 86 93 42 5d 30 10 42 43 35 b6 42 2b 7b 13 43
       73.76181 36.04723 91.10403 147.48112
0003c0 d3 f7 60 42 4c 48 32 43 2b 8b cc 42 c9 63 3e 42
       56.242016 178.28241 102.27181 47.597446
0003d0 51 cd d8 42 3e 68 a0 42 1f 4f c9 42 79 9d 34 43
       108.40101 80.2036 100.65453 180.61513
0003e0 06 9f 4d 43 11 37 21 43 09 b3 07 43 57 e2 99 42
       205.62119 161.2151 135.69936 76.94207
0003f0 c1 f5 be 42 d6 b6 ce 42 83 6b 26 42 4a a7 2f 43
       95.47999 103.3571 41.604992 175.65347

L2.weight f4 [128, 256]
000000 37 0a b9 3c 20 97 f5 bc 9b 46 97 3c db ae 95 3b
       0.022587879 -0.029979289 0.018466284 0.0045679635
000010 c2 f3 e7 bc b4 7f 24 3d 3b cf e8 3a af 32 cf 3c
       -0.028314475 0.04016085 0.0017761955 0.025292723
000020 cf 49 28 bd f1 56 0b bc ab ed 3d bd d3 c0 6b bd
       -0.041086014 -0.008504615 -0.046369236 -0.05755694
000030 d9 bd 36 3d 66 05 50 3d 0d 50 95 3c 03 d0 8c 3c
       0.044614647 0.0507864 0.018226648 0.017189031
000040 04 37 ea 3c 01 3e 85 ba a1 e4 e4 3c 1e ff 8f 3b
       0.028590687 -0.0010165573 0.02794105 0.004394426
000050 3b fb d8 3b 10 d8 87 bc 06 d0 8d 3c 4a 46 24 3d
       0.006621746 -0.016582519 0.017311107 0.040106095
000060 2a 1b 7d 3c e7 8d ef bb b0 35 40 3d 87 80 01 bd
       0.015448371 -0.0073106172 0.0469262 -0.031616714
000070 a9 0f 0e bd 71 f4 07 bd 69 f6 a5 bb df 35 d7 3c
       -0.034682903 -0.033192102 -0.005064775 0.026270805
000080 68 8c 03 3d 09 ea 45 3d d6 79 eb bb b0 0c 56 3d
       0.032116324 0.048318896 -0.007186155 0.052258193
000090 96 f6 0a 3d a0 3a 97 3a 8d a9 90 3c 6d f8 f3 bc
       0.03392657 0.0011537857 0.017658973 -0.029781545
0000a0 c9 c9 83 3d 5b e0 bd 3b b2 8c bc 3b 5c 52 b1 3b
       0.06434972 0.0057945675 0.005754077 0.0054114293
0000b0 90 4e 80 bc 17 a3 df 3c 4b 94 4e bd 77 a4 93 3b
       -0.015662462 0.027299447 -0.050434392 0.0045056897
0000c0 4b a7 ce 3c 83 6a 13 bd 1a d3 cf bb 63 37 00 bd
       0.025226256 -0.03599025 -0.006342304 -0.03130282
0000d0 70 32 36 bd a7 02 4d 3d 6c c1 0c 3d 64 ba 88 3d
       -0.044481695 0.050051358 0.03436415 0.06676176
0000e0 07 da 9c 3b 4f 28 60 bc 7a 5c 3c 3d 10 9c b1 3c
       0.004786733 -0.013681485 0.04598663 0.021680862
0000f0 02 1f 2b 3c 34 d8 40 bd 68 5e 60 3d 30 d9 04 3d
       0.010444405 -0.047081187 0.054777533 0.03243369
000100 0b 42 7f 3c 23 8c 92 3d 16 83 30 3d ad 39 2c 3d
       0.015579711 0.07155635 0.043093763 0.04204719
000110 c8 ce 3c bd e5 69 8e 3d c8 f4 32 bd 39 16 0b 3d
       -0.04609564 0.069537915 -0.043690473 0.03395674
000120 2f a4 20 bd d8 08 0c bd 6c 4c 05 3c f6 f3 d0 bc
       -0.039219078 -0.03418812 0.008135896 -0.025506955
000130 27 d9 81 3d 60 4b 66 3d 02 e6 9f bc 60 d1 74 bd
       0.06340247 0.056224227 -0.019518856 -0.059769988
000140 cc 3a 4c 3d e0 0f c5 bc 41 02 62 3d 6d 35 d8 bb
       0.04986076 -0.024055421 0.05517793 -0.0065981657
000150 4d d5 8a bb 2b 67 d6 3c e6 a8 37 bc 66 1f 0b 3c
       -0.004236853 0.026172241 -0.011209702 0.008491373
000160 30 92 af bc 77 fc 4d 3d b9 ec 67 3c 59 30 68 bd
       -0.021432012 0.050289597 0.01415556 -0.056686733
000170 6a 91 ba bc e4 42 75 bd 55 67 1f 3d e8 61 00 3c
       -0.022774417 -0.059878245 0.038916904 0.007835843
000180 b9 87 a6 3b 4b de a2 b9 6f 52 4b bd 47 dd 45 bc
       0.0050820974 -0.0003106467 -0.04963916 -0.012076682
000190 1a 32 49 3d 12 50 5f bd e9 e5 3a bd 7c 44 6c 3d
       0.049120046 -0.05451972 -0.045629416 0.0576825
0001a0 88 68 b3 bb 62 2f 77 3d 4b f2 0d 3c a2 75 06 3c
       -0.0054751076 0.060347922 0.008663724 0.008206757
0001b0 65 15 c9 3c 86 4a 59 bd 6b f6 6a 3d ba a8 5a 3d
       0.024546335 -0.053049587 0.05736391 0.053383566
0001c0 11 77 54 3c 3f a7 30 bd 53 97 73 bd 98 9b 6c bd
       0.012967841 -0.04312825 -0.059470486 -0.057765573
0001d0 07 ab 60 3d 36 08 3c bd 59 8c 3c bc 1b f6 95 3c
       0.054850604 -0.045906268 -0.011508071 0.018305829
0001e0 26 7c 2b bd 2c 5e 24 bd 84 23 81 3d 81 47 f9 3c
       -0.041866444 -0.04012887 0.06305602 0.030429604
0001f0 fd 9d 5c bd fe 94 d9 3c cd a2 a4 3c 2d 7f fa ba
       -0.053861607 0.026560303 0.02009716 -0.0019111388
000200 2f c9 3c bd 6e ac 04 3d f3 66 dd bb d2 a6 21 bd
       -0.0460903 0.032391004 -0.0067566573 -0.039465733
000210 aa 16 ff 3b 51 3b 95 bc 19 f9 c2 3c 61 89 a9 bc
       0.007784684 -0.01821676 0.02380042 -0.02069539
000220 3e 36 a2 bc ab b9 b3 bb 51 4d 37 3d 97 18 01 3d
       -0.019801255 -0.00548478 0.04475147 0.03151759
000230 0a fb ef 3b 8e f3 31 bd 2c 99 b0 3c d1 f3 62 bd
       0.0073236274 -0.043445162 0.021557413 -0.055408303
000240 e3 d9 42 bd 47 01 96 3c 56 97 ce bc a4 c2 15 3d
       -0.047571074 0.018311156 -0.025218647 0.036562577
000250 55 8f 77 3c e1 66 42 bb f5 cc c1 b9 17 b3 11 bd
       0.015109857 -0.0029663371 -0.00036964534 -0.035571184
000260 af da 07 bd df e9 5f 3d 74 81 7a bc 32 f4 13 bd
       -0.033167537 0.054666396 -0.015289653 -0.036121555
000270 ff 87 42 3d 9e be 2a bb 9a af 50 3b 22 86 b4 3c
       0.047492977 -0.0026053558 0.0031842948 0.022036616
000280 4c b5 4d bb e6 68 25 bc a7 8d dd 3c 8d 93 08 3c
       -0.003138858 -0.0100958105 0.027045084 0.00833596
000290 c4 a7 31 3d 52 dc 3d bc 1a 99 38 3d dc c0 15 3c
       0.043372884 -0.011588173 0.045067884 0.00914022
0002a0 f0 03 48 bd 8e 96 a0 3c e5 f1 c4 3c cc 18 51 bc
       -0.04883188 0.01960304 0.024041126 -0.01276226
0002b0 c4 13 95 3c d1 eb f4 3a b3 3e 5a bd 7c 08 52 bd
       0.018197902 0.0018686001 -0.05328245 -0.051277623
0002c0 2f 20 99 3c 88 77 19 3d 9f 07 7e bd b4 be 63 bd
       0.018692104 0.03746751 -0.062018987 -0.05560179
0002d0 c3 78 7f 3c ee 13 25 bd f7 da ce bc 51 83 17 bc
       0.015592757 -0.04030221 -0.025250895 -0.009247617
0002e0 5a ff 6c 3d 1d 33 34 bc 58 90 2f 3d ce cb 52 bc
       0.05786071 -0.0109985145 0.042862266 -0.012865974
0002f0 64 69 6d bd a0 a3 85 3d 29 36 87 bc 03 f0 f2 bb
       -0.057961836 0.065253496 -0.016505318 -0.0074138655
000300 de 6f 0e bd 7e 2f 4b 3d ab b9 1d bb e8 10 8a 3d
       -0.034774654 0.04960584 -0.0024066966 0.06741506
000310 63 15 c0 3c f2 d5 63 bd 3e c9 8b 3b a5 4c 68 3d
       0.023447698 -0.055623956 0.0042659333 0.05671372
000320 78 68 bf 3b a6 4e 89 bc 08 c5 37 38 80 9e 51 bd
       0.005841311 -0.016761135 4.38141e-05 -0.051176548
000330 2a 59 0a bc 3b 1d e5 bc 0c c0 32 bc 7c fd 3a bd
       -0.00844411 -0.02796804 -0.010910045 -0.045651898
000340 7e 47 1b bd 78 e3 2a bd f5 4f d7 3c 7f 2c 65 3d
       -0.037909977 -0.041720837 0.026283244 0.055950638
000350 72 d1 32 3c fb eb 2d 3d 45 c9 0b 3c a7 39 3c 3d
       0.0109141935 0.042461377 0.008531873 0.04595342
000360 a5 1a 7b 3d 97 73 cb bc 86 d1 66 3d dd be 8e 3c
       0.061304707 -0.024835391 0.05635216 0.017424995
000370 3a b7 11 3d 1d bb f6 bc 55 f1 35 bd 00 5e 9e bc
       0.03557513 -0.03011852 -0.044419605 -0.019331932
000380 55 eb e9 bb 98 e9 c8 3c 9d a1 10 3c 88 57 2f 3d
       -0.0071386495 0.024525449 0.008827594 0.042808086
000390 36 cf 86 3d 54 c8 d1 3c f5 1c e1 bc 3b 63 1d bd
       0.06582491 0.02560822 -0.027479628 -0.03842471
0003a0 42 4d 6d bc c3 39 0f bc a8 83 41 3c c1 3a 3e 3d
       -0.014483752 -0.008741799 0.011811174 0.04644275
0003b0 a8 c1 e1 ba 56 f2 12 bd ae 6e 3a bd 52 51 60 3d
       -0.0017223852 -0.03587564 -0.04551571 0.054765053
0003c0 03 52 3b 3d 12 21 39 3c 26 8f 6e bd aa 32 e6 3c
       0.04573251 0.0112993885 -0.058241986 0.02810033
0003d0 0a b9 65 bc 52 46 54 bd ac 22 13 3c 68 1b 1e 3c
       -0.0140211675 -0.051824875 0.008980434 0.009650089
0003e0 bf ae 05 3d 2d c2 88 3c 09 10 5b bc b8 03 3f 3d
       0.032637354 0.016694153 -0.013370522 0.046634406
0003f0 28 21 47 bd 9a b5 83 3d fb 68 09 b9 ac 73 1f 3d
       -0.048615605 0.06431122 -0.00013104446 0.038928673
