Trained_Models/BotDetection_v4_MLP___May-10-2024/BotDetection_v4_MLP_epoch28_val_loss_0.473302.pth (torch, 947467 bytes, 45 tensors)

L1.weight f4 [256, 133]
0.009600781 0.05778812 0.0901361 -0.12230313 0.027250575 0.033681568 0.1525256 -0.07157904
0.011716192 -0.023325222 -0.037300464 0.04422766 -0.0520236 -0.051471088 -0.14720826 0.05802837
0.04098861 -0.038277384 -0.003430531 -0.060272638 -0.046238884 -0.007181722 -0.049535695 -0.0007022075
0.054618295 -0.090053454 0.01431367 -0.06076087 0.022564033 0.056141715 -0.003970545 -0.039238364
-0.088584036 -0.019157149 -0.06496507 0.07996094 0.055975538 0.102195114 -0.03526823 0.022540709
0.15924282 0.009034056 -0.0049835294 0.041000523 0.031690028 0.0846434 0.005172365 0.064887166
-0.043031614 0.07010988 0.04596965 0.023763197 0.072887614 0.10288168 -0.025840998 0.034177255
-0.018139966 0.046538617 -0.106400356 -0.0057074022 -0.102916874 0.0025308672 -0.12111613 -0.036882985
0.063776396 -0.1279689 -0.039688434 0.11550688 -0.026459616 -0.04978332 0.06049174 0.06850756
0.08955899 0.023912791 -0.047542017 -0.03085902 -0.08206096 0.036342323 -0.019881709 0.032643393
0.038711596 -0.0528343 -0.044440612 -0.02165063 0.03330645 -0.0015052813 -0.13042547 -0.05394739
0.0017623606 0.009535363 -0.01139514 0.12665243 -0.078588694 0.04360342 -0.02504127 0.034306098
0.06485792 -0.0611527 -0.042156074 0.044146005 0.014442128 -0.055072833 0.09977414 -0.10045864
-0.056655828 0.06632382 0.053988755 -0.036038224 -0.04012781 -0.07383105 0.03711316 -0.074976295
-0.058688607 -0.006712728 0.016802883 -0.043882146 0.0046618194 0.09560597 0.074957564 0.08318368
-0.068515964 0.056626074 0.020604974 0.14422964 -0.076939456 -0.0137182325 0.058303375 0.077057
-0.07223108 -0.004587912 0.077922024 0.080257155 -0.103589855 0.0023646129 0.025649145 -0.005621006
0.08508927 -0.03222856 0.010874562 -0.055895664 -0.04136118 0.054020412 -0.020746054 -0.025017373
0.0020558457 -0.05839082 0.034790907 0.029526759 0.007922614 -0.039176133 -0.007961311 -0.020930206
0.056456216 -0.025258543 0.020581579 -0.06787437 -0.053878672 -0.079413265 -0.020583773 -0.08239465
0.032231584 -0.07725581 -0.014754793 0.015714243 -0.036591385 0.06686969 0.06485396 -0.03214604
-0.021377705 0.10524881 0.06680048 0.16408964 0.106945924 0.033821497 -0.056550153 0.020485744
0.069310635 0.13615394 -0.040386323 0.036087792 0.05383809 0.05790526 0.030982263 -0.05009383
-0.013465058 0.03470402 0.08662558 -0.0010919685 -0.0008216963 0.008782005 0.045521274 0.07789003
-0.026040036 0.07149988 0.07795366 0.053871233 -0.0902516 0.01778432 0.047389746 -0.01509665
-0.0065522445 -0.016223537 -0.028240751 -0.022997167 0.111079715 0.00019092321 -0.04701977 -0.015533894
0.012051359 0.07716145 -0.044475194 -0.0071555558 -0.030841816 0.018354733 -0.05214675 -0.094584286
-0.0916466 0.07436399 -0.04699761 0.061407164 -0.030318264 0.039145276 -0.11829254 0.056546893
-0.09918192 -0.024203844 -0.05584054 0.023808783 -0.07913663 -0.020847363 -0.020978374 -0.04885182
0.03139753 0.10994321 0.051316023 0.10466472 0.031026196 0.041249074 0.085163 0.0601949
-0.050887786 0.007050593 0.011663322 -0.03482499 -0.04278827 0.049819127 -0.061200567 0.026430836
-0.060065925 0.048244566 0.08677325 0.09370564 -0.0630631 -0.10323306 -0.064694956 -0.069837414
00000000: 984c 1d3c 3cb3 6c3d 4799 b83d 107a fabd
00000010: 993c df3c aff5 093d ac2f 1c3e 0898 92bd
00000020: 45f5 3f3c 8914 bfbc 5fc8 18bd 1028 353d
00000030: b316 55bd 59d3 52bd c3bd 16be 28af 6d3d
00000040: ace3 273d bfc8 1cbd c2d2 60bb 71e0 76bd
00000050: fc64 3dbd a754 ebbb f1e5 4abd 5914 38ba
00000060: 6fb7 5f3d f26d b8bd e283 6a3c 64e0 78bd
00000070: 35d8 b83c dbf4 653d 581b 82bb 68b8 20bd
00000080: 8c6b b5bd 74ef 9cbc 680c 85bd 90c2 a33d
00000090: 9b46 653d ac4b d13d 6b75 10bd 4ba7 b83c
000000a0: 8d10 233e 9403 143c e04c a3bb 2af0 273d
000000b0: 67cd 013d 8559 ad3d f17c a93b 90e3 843d
000000c0: eb41 30bd c595 8f3d ac4a 3c3d 09ab c23c
000000d0: 1a46 953d a1b3 d23d 80b0 d3bc 73fd 0b3d
000000e0: 449a 94bc 479f 3e3d 6ee8 d9bd 2905 bbbb
000000f0: 15c6 d2bd e8dc 253b bc0b f8bd 9d12 17bd
00000100: 339d 823d 480a 03be 5790 22bd df8e ec3d
00000110: d6c1 d8bc 98e9 4bbd 30c6 773d b14d 8c3d
00000120: b46a b73d c2e4 c33c 6bbb 42bd 0ecc fcbc
00000130: 940f a8bd b0db 143d f7de a2bc 14b5 053d
00000140: 0d90 1e3d c768 58bd 5c07 36bd a95c b1bc
00000150: 586c 083d dc4c c5ba 418e 05be f0f7 5cbd
00000160: 02ff e63a 363a 1c3c aeb2 3abc 2db1 013e
00000170: 1cf3 a0bd 8099 323d 5923 cdbc 8d84 0c3d
00000180: 3bd4 843d 417b 7abd d9ab 2cbd 71d2 343d
00000190: ad9e 6c3c 0d94 61bd 6256 cc3d 42bd cdbd
000001a0: f10f 68bd c8d4 873d 5023 5d3d d19c 13bd
000001b0: 0f5d 24bd bc34 97bd f803 183d 2c8d 99bd
000001c0: 7763 70bd 72f6 dbbb 33a6 893c c4bd 33bd
000001d0: 2dc2 983b 10cd c33d 5a83 993d 355c aa3d
000001e0: 1952 8cbd bef0 673d c3cb a83c efb0 133e
000001f0: 6f92 9dbd 70c2 60bc 85cf 6e3d 0fd0 9d3d
00000200: e3ed 93bd 3256 96bb 9595 9f3d dd5d a43d
00000210: eb26 d4bd 9ff7 1a3b 281e d23c 6a30 b8bb
00000220: 4843 ae3d 1802 04bd 382b 323c daf2 64bd
00000230: 576a 29bd 8244 5d3d a1f3 a9bc 3cf1 ccbc
00000240: 5ebb 063b 362b 6fbd e980 0e3d 1ae2 f13c
00000250: dacd 013c 2777 20bd 2970 02bc d375 abbc
00000260: a23e 673d 01eb cebc b39a a83c b801 8bbd
00000270: e2af 5cbd 6ca3 a2bd 4d9f a8bc 87be a8bd
00000280: 4405 043d 4b38 9ebd 16be 71bc 28bb 803c
00000290: d9e0 15bd faf2 883d 27d2 843d 91ab 03bd
000002a0: 4c20 afbc b08c d73d b1ce 883d 1d07 283e
000002b0: 7706 db3d 6988 0a3d 22a1 67bd b8d1 a73c
000002c0: bcf2 8d3d f06b 0b3e 216c 25bd cbd0 133d
000002d0: 5485 5c3d 112e 6d3d 84ce fd3c 302f 4dbd
000002e0: 8c9c 5cbc cd25 0e3d c168 b13d 6220 8fba
000002f0: 1b67 57ba 66e2 0f3c 8474 3a3d cf84 9f3d
00000300: ea51 d5bc 876e 923d 2ba6 9f3d 15a8 5c3d
00000310: d5d5 b8bd 6cb0 913c c01b 423d f157 77bc
00000320: 36b4 d6bb 39e7 84bc 2659 e7bc 8e64 bcbc
00000330: c37d e33d 8f32 4839 cd97 40bd e081 7ebc
00000340: 1073 453c d306 9e3d 9f2b 36bd 2779 eabb
00000350: faa7 fcbc aa5c 963c d597 55bd 68b5 c1bd
00000360: 36b1 bbbd 264c 983d 9180 40bd 1486 7b3d
00000370: 025e f8bc cc56 203d 5c43 f2bd b79d 673d
00000380: e41f cbbd 2447 c6bc 0db9 64bd a30a c33c
00000390: 6312 a2bd 17c8 aabc d7da abbc d918 48bd
000003a0: b29a 003d e829 e13d c030 523d 755a d63d
000003b0: a62a fe3c caf4 283d f069 ae3d ed8e 763d
000003c0: b66f 50bd a908 e73b 8517 3f3c a6a4 0ebd
000003d0: c142 2fbd 240f 4c3d 72ad 7abd 7b85 d83c
000003e0: b007 76bd 189c 453d 2cb6 b13d bee8 bf3d
000003f0: 3a27 81bd db6b d3bd ca7e 84bd eb06 8fbd

L1.bias f4 [256]
-0.0815105 -0.018497812 0.06129148 -0.016891228 -0.021764822 -0.060972802 0.032651506 0.041687213
-0.052429274 -0.07698314 -0.023161992 0.06057351 -0.06438224 -0.035747435 -0.08509903 -0.009870462
0.018541012 0.03524635 -0.041334134 0.0828226 0.007304007 -0.06188264 0.01740194 0.03185682
0.055881526 0.061399084 -0.022088975 -0.017384399 -0.04330264 0.03538897 -0.06614528 -0.023204217
-0.014057578 -0.07099837 0.03351958 0.019732298 0.073790275 -0.05369341 0.0780343 0.036505718
-0.026796367 -0.066036135 -0.08186334 0.031699657 -0.04222958 -0.025033172 -0.033838794 -0.016294068
0.007420028 0.07450185 0.056569725 0.064429104 0.0048667253 -0.026681459 -0.039861117 0.049935587
-0.007390179 0.033899833 -0.077565014 0.043755583 -0.045322884 -0.009361108 0.06964773 0.052839633
-0.050165404 0.07157132 -0.07019453 0.039655466 0.013997166 0.07979106 0.008696697 -0.018754913
0.07384967 -0.051282965 0.060020786 -0.0326474 -0.011690278 -0.037455183 0.05674659 -0.054375496
-0.02460137 0.0061128587 0.077005625 -0.011829294 -0.037115864 -0.009870788 0.01957222 -0.038215794
0.086091146 0.035056178 -0.030719914 0.050587825 -0.025135871 0.01899148 -0.015178716 -0.06748193
-0.0723005 -0.07546725 -0.048101187 -0.005356619 0.011273652 0.014333917 0.038859952 0.0053845434
0.08437625 -0.02031044 0.018219614 0.017793776 0.04269451 0.069220416 0.032495007 0.043140747
0.07675401 0.04190503 0.07873698 0.04406194 0.041802835 -0.010824458 -0.053864293 0.07700168
0.044649445 0.025917051 0.03504988 -0.023969486 -0.010251769 0.06916187 0.02264456 -0.08394136
0.07011886 0.025753507 -0.042440753 -0.03877721 -0.06457129 0.0810417 -0.04076477 -0.03899011
0.027733037 -0.03459227 0.045504477 -0.030428138 -0.020749439 -0.026824875 0.0049272724 0.043447834
-0.013584501 0.068100825 -0.08557147 -0.066302985 0.024403904 -0.0065208664 -0.013131148 0.02484549
-0.07072727 -0.009174694 -0.06148803 0.07718477 0.018877262 0.05160284 -0.0556325 -0.020731961
0.046484116 0.07322574 -0.0723806 -0.023455918 -0.015537043 0.08027022 -0.05366119 0.03200831
0.0633859 -0.06557087 0.08157014 -0.08514096 -0.06363734 -0.025091607 0.0043207495 0.0031135054
0.06448278 0.074555896 -0.023559732 0.020147758 -0.030423356 0.024609521 -0.0017862406 0.040445
0.0015337311 -0.026916353 0.037047762 0.06254917 -0.04040858 0.023131976 0.00011472147 -0.025019879
0.036941875 0.049401544 0.03891557 -0.07373721 -0.031429518 0.07162399 0.049610827 0.048798166
-0.052519027 0.031093 -0.010902622 -0.033554908 0.05164457 0.083263986 0.038772315 0.06340358
-0.049558353 0.042680055 -0.08006798 -0.020867486 -0.020765122 -0.07129203 -0.027166598 0.06541982
-0.042551592 0.07476456 0.0430231 -0.03490102 0.04870884 -0.08056684 0.03627166 -0.041214503
-0.068415664 0.08526358 -0.0033556237 -0.05331216 0.08564044 0.021680674 -0.013108765 -0.032783274
0.077980176 0.04811341 0.07821876 0.03156164 0.06819969 -0.0008377468 0.019322045 0.02183748
0.08194304 0.064971924 0.051811732 -0.083411634 0.063448116 0.047321778 -0.019236049 0.015919207
-0.08507974 -0.048368193 0.066938944 -0.07986901 0.0005152945 0.015420394 -0.0041101957 -0.05057724
00000000: faee a6bd b988 97bc c60c 7b3d 795f 8abc
00000010: 244c b2bc 9ebe 79bd 96bd 053d 36c0 2a3d
00000020: 14c0 56bd 56a9 9dbd 38be bdbc ee1b 783d
00000030: d6da 83bd e76b 12bd 6648 aebd b8b7 21bc
00000040: 52e3 973c 7a5e 103d fb4d 29bd e59e a93d
00000050: 7456 ef3b a778 7dbd 838e 8e3c 4c7c 023d
00000060: 07e4 643d 9b7d 7b3d f0f3 b4bc ba69 8ebc
00000070: 1c5e 31bd 06f4 103d 2d77 87bd c516 bebc
00000080: c151 66bc 9867 91bd d44b 093d a1a5 a13c
00000090: 5b1f 973d 9fed 5bbd 72d0 9f3d 0587 153d
000000a0: 0e84 dbbc f43d 87bd f8a7 a7bd 80d7 013d
000000b0: edf8 2cbd 5e12 cdbc 8c9a 0abd 237b 85bc
000000c0: b523 f33b 6d94 983d a8b5 673d 68f3 833d
000000d0: 0d79 9f3b 1393 dabc 6945 23bd 4289 4c3d
000000e0: 5129 f2bb 8dda 0a3d 68da 9ebd 0e39 333d
000000f0: 7da4 39bd 555f 19bc 78a3 8e3d 5f6e 583d
00000100: 3d7a 4dbd fc93 923d 26c2 8fbd c56d 223d
00000110: 5f54 653c 7f69 a33d 977c 0e3c e7a3 99bc
00000120: 7f3e 973d 160e 52bd 5bd8 753d 48b9 05bd
00000130: 9488 3fbc 9b6a 19bd 1d6f 683d d7b8 5ebd
00000140: d088 c9bc 604e c83b 20b5 9d3d a8cf 41bc
00000150: ce06 18bd 16b9 21bc ec55 a03c 2a88 1cbd
00000160: 8e50 b03d 1197 0f3d 54a8 fbbc 2e35 4f3d
00000170: bee9 cdbc 0594 9b3c 26b0 78bc f733 8abd
00000180: 4912 94bd 938e 9abd c005 45bd 9486 afbb
00000190: 20b5 383c ced8 6a3c 9d2b 1f3d d370 b03b
000001a0: 75cd ac3d 1462 a6bc 4d41 953c 41c4 913c
000001b0: 70e0 2e3d 6fc3 8d3d 7c19 053d 5ab4 303d
000001c0: 3531 9d3d 9ca4 2b3d db40 a13d 4b7a 343d
000001d0: 7339 2b3d 1159 31bc cea0 5cbd 0fb3 9d3d
000001e0: 56e2 363d ff4f d43c 7790 0f3d a85b c4bc
000001f0: 09f7 27bc bda4 8d3d 1681 b93c 73e9 abbd
00000200: 7a9a 8f3d 05f9 d23c 5bd6 2dbd dad4 1ebd
00000210: f43d 84bd 31f9 a53d f6f8 26bd 18b4 1fbd
00000220: 6530 e33c a0b0 0dbd e762 3a3d 6e44 f9bc
00000230: bafa a9bc d7bf dbbc f574 a13b 5bf6 313d
00000240: 8791 5ebc 7278 8b3d 1840 afbd dcc9 87bd
00000250: b2ea c73c feac d5bb 0724 57bc c588 cb3c
00000260: 75d9 90bd 7551 16bc dfda 7bbd 0c13 9e3d
00000270: 7da4 9a3c 805d 533d e8de 63bd 13d6 a9bc
00000280: 2166 3e3d 60f7 953d 483c 94bd a026 c0bc
00000290: 158f 7ebc b764 a43d d6cb 5bbd 251b 033d
000002a0: 77d0 813d 054a 86bd 3f0e a73d 625e aebd
000002b0: 4b54 82bd ea8c cdbc 1395 8d3b f40b 4c3b
000002c0: 8c0f 843d c3b0 983d 5700 c1bc e90c a53c
000002d0: 673a f9bc e899 c93c 4a20 eaba a8a9 253d
000002e0: 7a07 c93a af7f dcbc 65bf 173d c719 803d
000002f0: 7883 25bd 457f bd3c 9f96 f038 7df6 ccbc
00000300: 5d50 173d 4659 4a3d ef65 1f3d 8903 97bd
00000310: 3dbc 00bd 99af 923d b934 4b3d 96e0 473d
00000320: 311e 57bd bfb6 fe3c e9a0 32bc df70 09bd
00000330: 4289 533d 4f86 aa3d b8cf 1e3d bcd9 813d
00000340: b3fd 4abd 48d1 2e3d aefa a3bd 4af2 aabc
00000350: 9e1b aabc 8e01 92bd 7c8c debc d4fa 853d
00000360: 944a 2ebd 291e 993d fd38 303d 5ff4 0ebd
00000370: ec82 473d 3a00 a5bd 9891 143d 8ad0 28bd
00000380: 831d 8cbd ac9e ae3d 06ea 5bbb da5d 5abd
00000390: 4164 af3d ab9b b13c 25c6 56bc c147 06bd
000003a0: 12b4 9f3d 9112 453d 2831 a03d c746 013d
000003b0: 47ac 8b3d 3c9c 5bba 4449 9e3c 84e4 b23c
000003c0: c1d1 a73d 0010 853d 8a38 543d b8d3 aabd
000003d0: 16f1 813d 7bd4 413d eb94 9dbc ff68 823c
000003e0: 493e aebd ba1d 46bd 4917 893d 5d92 a3bd
000003f0: d414 073a d2a5 7c3c d2ae 86bb 142a 4fbd

BN1.weight f4 [256]
0.99286246 0.99458903 0.98862827 0.9804805 0.99068373 1.008753 1.0163579 0.9961784
1.0033454 1.0014753 0.9889143 0.9814383 0.99296707 0.99607 1.0162297 1.0081733
1.0122617 1.0006143 0.98875463 1.00463 0.9957718 0.9880423 1.0421848 1.0169564
1.0197023 1.0118576 1.0128213 1.005423 1.0286146 1.0164058 1.02528 1.0004423
1.0269804 0.98280644 0.98047704 1.0047414 1.0225712 1.0224531 1.0001695 1.0039163
1.01226 1.0158186 1.0101199 1.0308684 0.9987992 1.013645 1.002496 0.98899215
1.0342332 0.98710585 0.98207074 0.9920886 0.97677666 1.0108308 0.99935377 1.00187
1.0037302 1.014294 1.0013833 1.0339457 0.9944495 1.0049453 1.0255271 1.0296646
0.9800015 0.99611443 0.98788047 1.0135382 1.0032374 1.0361934 1.0039928 0.9809306
1.0161705 1.0320134 1.0063673 0.9973984 1.0007985 1.0253489 1.0197337 1.001297
1.0118618 0.9935459 0.99866414 0.99559236 1.0033903 1.0029572 1.0053831 1.0147793
1.0266712 1.0033424 1.0157732 1.0287429 1.0050997 1.0023328 1.0171039 1.0164003
1.00393 1.005904 1.0073439 1.01935 0.99747634 0.9990323 1.0055588 1.0207593
1.0150504 1.0238549 0.9863415 1.0168412 1.0139515 1.0272299 1.0028902 1.0143349
0.99432796 1.0199099 1.0173829 1.0334084 1.0359666 1.0005565 0.99420416 0.99259514
0.9977901 0.97497606 1.0233 0.99498117 1.0027561 0.995338 1.0100521 1.0220258
0.99365515 0.9973296 0.9885029 0.99427634 1.0024705 1.0097703 1.0088475 1.0241512
1.0211387 0.9863156 1.005188 0.98578703 1.0257858 0.99885774 1.0043725 1.0034437
1.024893 1.0075334 1.0069709 1.0222368 1.0118951 1.0065677 1.0230782 0.989958
1.0021372 0.9872722 1.0153629 0.9899909 0.99645895 1.0159047 0.9863326 1.0014307
0.9856157 1.0188804 0.9874872 1.0110242 1.010759 0.99487007 1.0525088 0.98280704
1.0168899 0.9990544 1.0249568 0.9871258 1.0057306 1.0058447 1.0006723 0.99810416
0.9901192 1.0019 0.9931461 1.0124975 1.0113537 1.0089105 1.0126832 0.9894376
1.0076011 1.0173881 1.001963 0.9887606 1.01439 1.0070487 1.0000725 0.99889475
1.0039682 1.0046679 1.0019591 1.0203867 1.0438327 1.0089623 1.0292498 1.0052522
1.0044262 1.0100706 1.0098776 0.9849622 1.0182959 0.99083066 0.9913923 0.9878126
0.9944216 1.0136844 1.0316514 1.0049872 1.0010004 1.0014614 1.0268267 0.9947653
1.0107846 1.0100398 1.0115097 0.9898205 1.0292473 0.9810826 0.9960693 1.0035362
1.0102737 0.99304533 0.99901927 0.9958612 1.010929 1.0365872 0.99728376 1.019247
1.0514537 0.9889372 0.9936868 1.0076509 1.0413139 1.0261015 0.9993832 0.96325535
0.98209757 0.9884989 1.0017419 1.0322708 0.9915853 0.98955226 0.9932914 0.99897575
1.0171521 1.0106587 0.9945625 0.9973066 0.99751 1.0015118 1.0300604 1.0386124
00000000: 3c2c 7e3f 639d 7e3f be16 7d3f c500 7b3f
00000010: 739d 7d3f d11e 813f 0418 823f 8c05 7f3f
00000020: 9f6d 803f 5830 803f 7d29 7d3f 8a3f 7b3f
00000030: 1733 7e3f 72fe 7e3f d113 823f d30b 813f
00000040: cb91 813f 2114 803f 061f 7d3f b797 803f
00000050: e7ea 7e3f 57f0 7c3f 5066 853f a12b 823f
00000060: 9b85 823f 8d84 813f 21a4 813f b3b1 803f
00000070: a5a9 833f 9619 823f 603c 833f 7e0e 803f
00000080: 1874 833f 3499 7b3f 8b00 7b3f 5e9b 803f
00000090: 9de3 823f bedf 823f 8e05 803f 5480 803f
000000a0: bc91 813f 5806 823f 9c4b 813f 7ff3 833f
000000b0: 4eb1 7f3f 1fbf 813f ca51 803f 972e 7d3f
000000c0: c161 843f f8b2 7c3f fd68 7b3f 85f9 7d3f
000000d0: 090e 7a3f e762 813f a6d5 7f3f 473d 803f
000000e0: 3b7a 803f 63d4 813f 542d 803f 5558 843f
000000f0: 3e94 7e3f 0ca2 803f 7944 833f 0dcc 833f
00000100: 61e1 7a3f 5b01 7f3f bce5 7c3f 9fbb 813f
00000110: 156a 803f fca1 843f d682 803f 451e 7b3f
00000120: e011 823f 0419 843f a5d0 803f 8055 7f3f
00000130: 2a1a 803f a23e 833f a286 823f 802a 803f
00000140: b084 813f 0659 7e3f 74a8 7f3f 24df 7e3f
00000150: 186f 803f e760 803f 65b0 803f 4ae4 813f
00000160: f669 833f 866d 803f db04 823f d9ad 833f
00000170: 1ba7 803f 714c 803f 7630 823f 6819 823f
00000180: c780 803f 76c1 803f a5f0 803f 107a 823f
00000190: 9c5a 7f3f 95c0 7f3f 27b6 803f 3ea8 823f
000001a0: 2ced 813f ad0d 833f e080 7c3f da27 823f
000001b0: 2ac9 813f 457c 833f b55e 803f bad5 813f
000001c0: 478c 7e3f 688c 823f 9a39 823f ba46 843f
000001d0: 8e9a 843f 3c12 803f 2a84 7e3f b71a 7e3f
000001e0: 2c6f 7f3f 0898 793f 7ffb 823f 16b7 7e3f
000001f0: 505a 803f 79ce 7e3f 6349 813f bed1 823f
00000200: 2f60 7e3f fe50 7f3f 870e 7d3f e588 7e3f
00000210: f450 803f 2740 813f ea21 813f 6317 833f
00000220: acb4 823f 2e7f 7c3f 00aa 803f 8a5c 7c3f
00000230: f34c 833f 24b5 7f3f 478f 803f d870 803f
00000240: b22f 833f dbf6 803f 6ce4 803f a8d8 823f
00000250: c785 813f 36d7 803f 3af4 823f e36d 7d3f
00000260: 0846 803f dfbd 7c3f 69f7 813f 0b70 7d3f
00000270: ef17 7f3f 2a09 823f 4b80 7c3f e22e 803f
00000280: 4f51 7c3f ac6a 823f f6cb 7c3f 3e69 813f
00000290: 8d60 813f ceaf 7e3f 9cb8 863f 3e99 7b3f
000002a0: 7329 823f 07c2 7f3f c931 833f 47b4 7c3f
000002b0: c8bb 803f 85bf 803f 0816 803f c183 7f3f
000002c0: 7478 7d3f 423e 803f d33e 7e3f 8599 813f
000002d0: 0a74 813f fb23 813f 9a9f 813f c84b 7d3f
000002e0: 13f9 803f c639 823f 5340 803f 6a1f 7d3f
000002f0: 88d7 813f f9e6 803f 6002 803f 91b7 7f3f
00000300: 0882 803f f598 803f 3240 803f 089c 823f
00000310: 4f9c 853f ad25 813f 75be 833f 1bac 803f
00000320: 0a91 803f fe49 813f ab43 813f 7c26 7c3f
00000330: 8557 823f 14a7 7d3f e3cb 7d3f 49e1 7c3f
00000340: 6a92 7e3f 69c0 813f 270d 843f 6ca3 803f
00000350: c820 803f e32f 803f 0f6f 833f f0a8 7e3f
00000360: 6461 813f fc48 813f 2679 813f e064 7d3f
00000370: 60be 833f 3b28 7b3f 66fe 7e3f e073 803f
00000380: a650 813f 3838 7e3f babf 7f3f c2f0 7e3f
00000390: 1f66 813f e4ae 843f fd4d 7f3f b076 823f
000003a0: 0996 863f fd2a 7d3f 4262 7e3f b4fa 803f
000003b0: c649 853f 4b57 833f 94d7 7f3f e797 763f
000003c0: bf6a 7b3f 440e 7d3f 1439 803f 7321 843f
000003d0: 89d8 7d3f 4c53 7d3f 5848 7e3f e0bc 7f3f
000003e0: 0a32 823f 445d 813f a69b 7e3f 7c4f 7f3f
000003f0: d15c 7f3f 8a31 803f 05d9 833f 40f1 843f

BN1.bias f4 [256]
0.029818505 -0.036416907 -0.010242224 0.076537706 0.0406178 -0.04912243 -0.007805807 -0.042144433
-0.019479727 0.01557911 0.030282443 0.011422045 0.025023215 -0.056843728 -0.044858873 -0.014083158
-0.008647969 -0.012272672 0.00042226372 -0.009229524 0.015097241 0.02082585 -0.07129729 -0.028884327
0.002154306 -0.033154454 -0.029752104 0.008724392 -0.040757257 -0.044944175 -0.062209632 -0.004236854
-0.051500686 0.059024483 0.0018792379 0.028495941 -0.023448883 -0.030451592 -0.020634029 -0.022559447
-0.03209252 -0.05154709 -0.049098197 -0.065674186 0.008375107 -0.008816526 -0.080491126 -0.0055109593
-0.04776453 -0.025395362 0.025680674 0.037145063 0.051061887 -0.052859996 0.0154052945 -0.026210936
-0.034392215 -0.023869207 0.011182038 -0.053446192 0.020904265 -0.02669701 -0.016902003 -0.042537075
0.0022736387 0.012311975 0.031683553 -0.034749907 0.0013214936 -0.01312747 0.04061168 0.04382514
-0.020308446 3.271546e-05 0.005607463 0.009922217 -0.02471487 -0.07020914 -0.065723926 -0.014517741
-0.017676912 0.024040624 -0.028740546 -0.049695127 -0.015012208 0.05348231 0.0053598997 -0.00283025
-0.043919157 -0.011882467 -0.026481485 -0.06137053 -0.017837664 -0.041709695 -0.0067784647 -0.12618893
0.02531794 -0.015122392 0.032272607 -0.13778795 -0.040025607 0.019406741 -0.077277616 -0.046587594
-0.014452659 -0.041638795 -0.010489252 0.0044322456 -0.014675656 -0.055675555 -0.024996797 -0.044538062
-0.021090763 -0.0009903527 -0.023347551 -0.075395495 -0.0154137295 -0.015077981 -0.050907608 0.0891663
0.023415055 -0.009069164 -0.07777636 0.0072188717 -0.007724667 0.039393738 -0.030253982 -0.07848921
0.0074428087 -0.000500912 0.0018453748 0.04321336 0.023474352 -0.031241247 -0.0073118284 -0.07269892
-0.061233982 -0.0057781716 -0.03709946 0.022723043 -0.07021848 0.014022564 -0.045712933 -0.0741746
-0.0018630044 -0.042369008 -0.0023582573 -0.058753733 -0.03659721 0.0017787598 -0.05168899 -0.012154438
-0.02603698 0.040680006 -0.044515554 0.0073304162 -0.0079128845 -0.016685031 -0.023868823 -0.024905132
-0.0029570954 -0.051938556 0.036574308 0.00044576317 -0.043890238 -0.04344495 -0.06453036 -0.013738755
0.007099383 -0.02339393 0.024560597 -0.0074834367 -0.027584229 -0.025354851 0.008890165 0.043953817
0.023914477 -0.07564045 -0.002910106 0.007933437 -0.0003826857 -0.020339 -0.07498196 0.06588665
-0.0067004464 -0.03479232 0.006183125 -0.001462408 -0.038763974 0.0027484798 0.010243609 -0.009562704
-0.029154316 0.012971742 0.0036523005 -0.027369995 -0.06056223 -0.11900328 -0.109976515 -0.02477887
0.004513483 -0.06250683 -0.046443176 0.015930617 -0.05256955 -0.020286832 0.02133589 -0.010191995
-0.004993336 0.009354581 -0.081514984 -0.026683727 -0.037559684 -0.038449943 -0.07069673 -0.009216362
-0.020686358 -0.03916598 -0.06842222 0.025881676 -0.040250275 -0.0077219186 0.022833463 -0.049209014
-0.05621818 0.04525612 -0.031842984 -0.0045751636 -0.019674579 -0.079323195 -0.032550305 -0.03314953
-0.023884691 0.01715706 0.013733784 -0.042839132 -0.025310421 -0.041605234 -0.021386012 -0.0010979681
0.042215776 0.017293615 -0.037325636 -0.029174661 -0.012958812 -0.010020728 -0.034069747 -0.01811562
-0.071717456 -0.05831466 0.028346764 -0.008205289 -0.045744114 -0.03534574 -0.038494837 -0.030933548
00000000: f045 f43c e529 15bd 00cf 27bc cdbf 9c3d
00000010: da5e 263d 9a34 49bd dbc7 ffbb a49f 2cbd
00000020: f393 9fbc 863f 7f3c e312 f83c 8723 3b3c
00000030: 7cfd cc3c f8d4 68bd f0bd 37bd 0cbd 66bc
00000040: 36b0 0dbc 5113 49bc 4763 dd39 6e37 17bc
00000050: 6b5a 773c f99a aa3c 5004 92bd d39e ecbc
00000060: 422f 0d3b f7cc 07bd afba f3bc c1f0 0e3c
00000070: 15f1 26bd 6217 38bd 87cf 7ebd 4fd5 8abb
00000080: 62f2 52bd a8c3 713d c350 f63a 5270 e93c
00000090: df17 c0bc 9e75 f9bc b208 a9bc 97ce b8bc
000000a0: 7273 03bd 0b23 53bd 311b 49bd 3080 86bd
000000b0: bf37 093c 3173 10bc 88d8 a4bd 4795 b4bb
000000c0: bda4 43bd ef09 d0bc 4760 d23c 6c25 183d
000000d0: 4526 513d b983 58bd 7d66 7c3c 51b8 d6bc
000000e0: dade 0cbd 5b89 c3bc de34 373c 65ea 5abd
000000f0: 6c3f ab3c b0b3 dabc 1276 8abc 5b3b 2ebd
00000100: 5401 153b 2ab8 493c 9dc6 013d eb55 0ebd
00000110: f835 ad3a 9a14 57bc 6f58 263d fd81 333d
00000120: e65d a6bc f537 0938 cfbe b73b cb90 223c
00000130: d776 cabc cfc9 8fbd 449a 86bd d2db 6dbc
00000140: 2ccf 90bc d8f0 c43c 4b71 ebbc 1e8d 4bbd
00000150: c4f5 75bc 4410 5b3d 19a2 af3b b77b 39bb
00000160: 93e4 33bd aeae 42bc b3ef d8bc aa5f 7bbd
00000170: 4b20 92bc c9d7 2abd e21d debb ac37 01be
00000180: 9267 cf3c e9c3 77bc 4830 043d 4918 0dbe
00000190: e4f1 23bd e3fa 9e3c ba43 9ebd a2d2 3ebd
000001a0: d8ca 6cbc 718d 2abd 1ddb 2bbc 5f3c 913b
000001b0: 2a72 70bc 0d0c 64bd 15c6 ccbc 8b6d 36bd
000001c0: 89c6 acbc b9ce 81ba 5d43 bfbc f468 9abd
000001d0: de89 7cbc a309 77bc 7f84 50bd d29c b63d
000001e0: eed0 bf3c d596 14bc 3649 9fbd 498c ec3b
000001f0: 341f fdbb 545b 213d 33d7 f7bc f3be a0bd
00000200: cee2 f33b a34f 03ba 81e0 f13a 7e00 313d
00000210: 494d c03c a5ed ffbc 1098 efbb 2ce3 94bd
00000220: 7cd0 7abd d156 bdbb 9af5 17bd ad25 ba3c
00000230: b5ce 8fbd e5be 653c 7c3d 3bbd dae8 97bd
00000240: 0e30 f4ba 208b 2dbd fe8c 1abb c1a7 70bd
00000250: f5e6 15bd 4625 e93a d6b7 53bd 6823 47bc
00000260: 814b d5bc 14a0 263d f155 36bd fd33 f03b
00000270: 0ba5 01bc 0caf 88bc 8d88 c3bc d905 ccbc
00000280: d4cb 41bb 86bd 54bd f1ce 153d 52b5 e939
00000290: 40c6 33bd 55f3 31bd 7e28 84bd 8418 61bc
000002a0: f1a1 e83b a1a4 bfbc 4e33 c93c 9e37 f5bb
000002b0: 52f8 e1bc fab4 cfbc 0ea8 113c eb08 343d
000002c0: 4be8 c33c 61e9 9abd 7ab7 3ebb 3ffb 013c
000002d0: 35a3 c8b9 f99d a6bc 2490 99bd 94ef 863d
000002e0: 6b8f dbbb 6482 0ebd d09b ca3b 45ae bfba
000002f0: f9c6 1ebd d71f 343b cfd4 273c e3ac 1cbc
00000300: 08d5 eebc 6e87 543c 6f5b 6f3b 0a37 e0bc
00000310: 1a10 78bd feb7 f3bd 5e3b e1bd 0ffd cabc
00000320: d7e5 933b 9503 80bd 333b 3ebd ed80 823c
00000330: 2b53 57bd 9230 a6bc 9bc8 ae3c 53fc 26bc
00000340: 239f a3bb f543 193c 54f1 a6bd d597 dabc
00000350: 2fd8 19bd b07d 1dbd 72c9 90bd 3900 17bc
00000360: 7076 a9bc 826c 20bd f320 8cbd cf05 d43c
00000370: 79dd 24bd 2608 fdbb 3e0d bb3c 648f 49bd
00000380: 0945 66bd 7b5e 393d ca6d 02bd 41eb 95bb
00000390: 952c a1bc 3374 a2bd 7853 05bd cdc7 07bd
000003a0: d4a9 c3bc f68c 8c3c aa03 613c 1678 2fbd
000003b0: cd57 cfbc 406a 2abd b831 afbc b2e9 8fba
000003c0: 73ea 2c3d 57ab 8d3c c4e2 18bd b3ff eebc
000003d0: 3251 54bc fb2d 24bc b88c 0bbd 3567 94bc
000003e0: 9ae0 92bd 5adb 6ebd 7937 e83c 7a6f 06bc
000003f0: 2e5e 3bbd b2c6 10bd c3ac 1dbd 5a68 fdbc

BN1.running_mean f4 [256]
-10.973404 4.839754 6.2633476 7.135692 -8.299826 8.710982 24.26514 12.584636
8.803975 -2.543284 4.9136863 19.092995 8.709504 -5.023068 -1.1836774 1.8345993
15.12022 -11.38127 11.813695 12.588497 -2.4567475 12.336755 2.3702667 5.6445765
-1.6768818 0.43908733 -7.201054 6.2794156 -4.3896685 -1.549801 5.301716 -5.4153357
7.4497538 -0.4786904 7.253783 -8.740274 -9.803569 3.5937943 2.1409535 -3.8948686
12.6128 16.080368 5.8758054 1.7419859 -7.4568157 2.2307813 11.483286 0.9837378
-10.126364 -6.822433 -7.1593986 -6.9472423 6.052787 -15.289853 3.9357316 3.5829198
-2.8017988 6.8258944 -9.609125 6.42753 2.2848322 -15.801319 2.6122391 -4.753462
-0.84778595 -1.7420056 13.731448 4.5684004 -11.51202 0.72738904 -2.22534 -7.966848
-2.2111907 10.152621 -13.470365 8.30319 8.11509 -6.237311 7.833689 -4.434741
2.2366314 -0.40231156 5.964993 11.216672 -4.506578 -0.27599478 -11.236562 2.8756216
-0.94119555 4.260159 4.1018357 10.767837 1.110711 -7.795577 -0.3023146 5.0945263
4.750058 -0.07627754 -11.712859 -6.0053425 6.008737 -2.0060742 5.3439956 4.340262
16.3749 -1.3902531 -8.427555 -6.8223763 -1.3145705 8.944602 -12.42778 -6.8383374
8.281657 -15.019179 2.9720516 8.268088 -9.985393 -13.0746765 2.3627188 -9.901223
-8.841609 -15.38845 5.165711 -5.1502314 1.2399065 -7.082945 -5.501693 -0.67297125
-5.318927 -11.419981 -0.69297564 -11.320537 0.7071814 -1.7179369 0.4434478 10.560424
-0.1890226 -1.0270715 3.9885278 15.4521055 -5.9899025 -10.300657 5.10371 11.090829
0.36404422 0.49424282 -9.775177 0.7373648 -2.3172402 2.3596761 -1.4111505 -3.110186
-8.048428 9.9492235 -1.4738245 -7.7652698 -3.23161 -16.192736 -12.756992 11.051046
-2.6507795 -0.4994625 -10.757987 10.206125 -12.685892 -9.26195 -0.3067692 17.021355
-18.360353 -2.2692432 -0.46586293 13.0144005 15.285014 2.3257427 -1.0736128 -5.047163
-1.0340694 9.445967 5.1098385 -16.737183 -9.538895 -1.1254846 12.338857 15.286345
3.6892357 -9.027611 8.278527 5.212966 1.3122456 3.1541398 6.796058 -5.9187064
-8.971861 3.564013 2.8717768 -7.9827757 1.0683342 -10.619567 18.285233 -3.7342834
-12.92443 -10.150697 2.3718588 -5.8477306 -8.9771185 13.700248 13.604401 -12.748287
4.739524 -0.32345083 -11.340312 3.0205984 3.413551 -6.740592 -0.9072855 2.1120353
3.14716 -2.9164438 0.43471935 -3.6609237 -5.7563996 -14.150683 -3.1270876 0.5288676
-5.270781 1.1878057 -3.1873033 -10.509023 3.0359147 -8.548299 6.7286844 1.5208378
2.9984415 -14.675445 0.7589208 0.64122695 -8.029291 3.590516 -3.894028 21.67719
-2.6599426 6.8865137 -2.5050616 7.17268 4.5096593 1.1164256 -8.452546 -4.647519
-19.63932 5.9332 17.53198 -5.064848 -9.442527 -5.8297343 7.369666 -7.6243243
00000000: 1093 2fc1 44df 9a40 586d c840 9757 e440
00000010: 16cc 04c1 2f60 0b41 021f c241 ab5a 4941
00000020: 15dd 0c41 2ac5 22c0 eb3c 9d40 74be 9841
00000030: 215a 0b41 f9bc a0c0 be82 97bf 26d4 ea3f
00000040: 6cec 7141 af19 36c1 e504 3d41 7c6a 4941
00000050: 5a3b 1dc0 5963 4541 73b2 1740 5fa0 b440
00000060: 10a4 d6bf 0ed0 e03e 096f e6c0 f9f0 c840
00000070: 2a78 8cc0 e15f c6bf a8a7 a940 6e4a adc0
00000080: 6264 ee40 e816 f5be fe1e e840 2ad8 0bc1
00000090: 6bdb 1cc1 ba00 6640 6205 0940 8745 79c0
000000a0: 07ce 4941 98a4 8041 9906 bc40 65f9 de3f
000000b0: 3c9e eec0 1fc5 0e40 8abb 3741 3ed6 7b3f
000000c0: 9605 22c1 5f51 dac0 cb19 e5c0 cf4f dec0
000000d0: 6eb0 c140 3da3 74c1 07e3 7b40 8f4e 6540
000000e0: ac50 33c0 ba6d da40 fabe 19c1 53ae cd40
000000f0: b13a 1240 34d2 7cc1 ed2e 2740 5c1c 98c0
00000100: 8008 59bf 0afa debf 03b4 5b41 5630 9240
00000110: 3c31 38c1 2b36 3a3f f86b 0ec0 6bf0 fec0
00000120: 2684 0dc0 2371 2241 9d86 57c1 ded9 0441
00000130: 69d7 0141 0d98 c7c0 95ad fa40 66e9 8dc0
00000140: f824 0f40 c8fb cdbe 39e1 be40 7d77 3341
00000150: e335 90c0 304f 8dbe f5c8 33c1 2f0a 3840
00000160: 31f2 70bf 3953 8840 3d42 8340 0f49 2c41
00000170: c72b 8e3f 5e75 f9c0 fbc8 9abe 5c06 a340
00000180: 7a00 9840 6637 9cbd df67 3bc1 c42b c0c0
00000190: 9347 c040 8563 00c0 0302 ab40 6de3 8a40
000001a0: ccff 8241 d0f3 b1bf 44d7 06c1 e850 dac0
000001b0: d943 a8bf 171d 0f41 30d8 46c1 a9d3 dac0
000001c0: ab81 0441 8f4e 70c1 1836 3e40 174a 0441
000001d0: 2bc4 1fc1 e031 51c1 c936 1740 696b 1ec1
000001e0: 3b77 0dc1 1737 76c1 814d a540 b2ce a4c0
000001f0: 42b5 9e3f 7ca7 e2c0 de0d b0c0 d847 2cbf
00000200: a634 aac0 3eb8 36c1 da66 31bf eb20 35c1
00000210: d709 353f 5be5 dbbf 970b e33e 7ff7 2841
00000220: 248f 41be 1477 83bf 0a44 7f40 d33b 7741
00000230: 48ad bfc0 7ecf 24c1 9851 a340 0974 3141
00000240: 0164 ba3e 650d fd3e 2067 1cc1 f1c3 3c3f
00000250: aa4d 14c0 ef04 1740 94a0 b4bf 4a0d 47c0
00000260: 5cc6 00c1 0530 1f41 48a6 bcbf 177d f8c0
00000270: b3d2 4ec0 b98a 81c1 a41c 4cc1 16d1 3041
00000280: 5fa6 29c0 8cb9 ffbe b720 2cc1 4a4c 2341
00000290: 6af9 4ac1 f230 14c1 da10 9dbe bc2b 8841
000002a0: 01e2 92c1 483b 11c0 9685 eebe fc3a 5041
000002b0: 6b8f 7441 f8d8 1440 256c 89bf 5c82 a1c0
000002c0: 635c 84bf ae22 1741 cc83 a340 c0e5 85c1
000002d0: 509f 18c1 e10f 90bf f56b 4541 de94 7441
000002e0: 701c 6c40 1871 10c1 d974 0441 9ed0 a640
000002f0: aaf7 a73f 6ddd 4940 4f79 d940 0b66 bdc0
00000300: be8c 0fc1 ca18 6440 31cb 3740 e672 ffc0
00000310: 2dbf 883f bfe9 29c1 2848 9241 80fe 6ec0
00000320: 77ca 4ec1 4169 22c1 89cc 1740 9c20 bbc0
00000330: 47a2 0fc1 3734 5b41 a0ab 5941 fcf8 4bc1
00000340: 2eaa 9740 599b a5be eb71 35c1 7c51 4140
00000350: 9f77 5a40 eeb2 d7c0 dd43 68bf 962b 0740
00000360: 126b 4940 04a7 3ac0 8993 de3e 934c 6ac0
00000370: 6d34 b8c0 3369 62c1 3422 48c0 de63 073f
00000380: 3daa a8c0 040a 983f c7fc 4bc0 f524 28c1
00000390: 6d4c 4240 d5c5 08c1 6251 d740 d0aa c23f
000003a0: 77e6 3f40 9fce 6ac1 a248 423f 7327 243f
000003b0: fa77 00c1 04cb 6540 c137 79c0 e36a ad41
000003c0: 803c 2ac0 525e dc40 ee52 20c0 9886 e540
000003d0: 214f 9040 09e7 8e3f a13d 07c1 7ab8 94c0
000003e0: 541d 9dc1 c6dc bd40 7f41 8c41 3c13 a2c0
000003f0: 9714 17c1 2f8d bac0 4ed4 eb40 77fa f3c0

BN1.running_var f4 [256]
65.72947 44.222385 139.19266 97.42646 171.54422 197.58272 144.77576 102.29542
136.51459 134.63184 162.19536 204.42424 88.28296 103.19731 65.839905 156.37169
114.75898 88.89026 61.842216 139.6191 112.44237 40.94886 26.986845 67.81923
45.638 102.095795 53.62602 65.2946 52.80755 216.00706 63.34742 120.2164
88.20529 93.41926 121.32404 49.404896 57.18665 92.65895 135.3063 47.59071
241.01266 62.537968 71.681366 78.10288 254.57915 130.1617 87.860985 39.14815
124.89304 83.25829 129.5636 97.184525 62.738846 123.55018 64.277306 100.811615
70.46255 101.93194 62.856483 24.652184 56.35203 84.1779 67.18482 89.204865
187.9151 53.06059 80.1564 77.98621 140.56914 108.96666 114.02469 69.14325
76.9597 57.584164 99.36412 42.833893 75.02882 42.206615 92.247635 41.44223
34.793724 88.652084 67.18251 279.99875 66.45875 40.034897 133.69771 46.11948
59.826912 108.584076 108.7617 50.98797 58.597782 65.96462 83.89225 64.12301
109.31605 42.10529 81.64093 121.243774 130.76903 143.31865 36.90747 189.32512
71.28571 48.734505 63.56874 77.73748 60.726093 91.54496 145.00476 96.68722
56.85651 83.10909 69.73025 44.577488 45.574146 84.77164 88.93142 53.612125
112.71701 114.84641 92.03982 156.89728 71.519646 158.1758 37.020386 57.899437
131.98917 73.40591 94.08234 107.72449 229.83676 64.76933 146.58282 74.18842
91.57043 58.603607 73.74342 121.83873 38.841087 76.131714 54.585064 137.26384
19.433144 104.12596 76.949905 144.76907 51.657692 78.12352 71.64363 174.67899
44.132866 164.665 36.53593 60.14612 52.520817 85.71548 88.96366 157.70662
32.1089 122.71894 102.16086 150.95154 68.771164 121.61136 39.14285 80.329254
129.51942 67.54209 36.949776 105.74528 76.67239 95.95003 69.19284 38.53273
79.55937 69.101234 151.1138 156.69756 56.355392 44.193027 74.26844 61.69526
46.844677 83.69454 101.67304 34.4016 44.164394 62.421055 85.42401 67.65903
168.62553 85.12847 92.67439 144.0013 45.049953 64.64581 122.69123 54.918556
81.814835 160.00139 51.92058 92.69673 110.71007 129.94215 107.13848 60.613956
80.462326 83.67507 59.082867 88.71927 118.50973 65.75125 44.637478 89.20944
92.836334 120.32903 38.781784 70.85286 78.755035 95.344536 237.09644 47.591434
132.98792 57.405926 72.30473 112.10241 173.54262 76.8031 194.27098 50.386097
59.028713 75.75547 87.488976 72.19458 84.679665 37.900856 84.881424 149.8573
62.77402 171.80585 107.50722 46.89079 119.70333 82.082596 97.83102 179.64961
199.25963 152.89691 134.1316 63.99944 100.386894 96.491776 41.513775 135.44997
00000000: 7d75 8342 b9e3 3042 5231 0b43 59da c242
00000010: 528b 2b43 2d95 4543 98c6 1043 4197 cc42
00000020: bc83 0843 c0a1 0643 0332 2243 9b6c 4c43
00000030: e090 b042 0665 ce42 08ae 8342 275f 1c43
00000040: 9984 e542 d0c7 b142 6e5e 7742 7d9e 0b43
00000050: 7ee2 e042 a2cb 2342 0fe5 d741 72a3 8742
00000060: 508d 3642 0c31 cc42 0b81 5642 d696 8242
00000070: ee3a 5342 cf01 5843 c263 7d42 cc6e f042
00000080: 1c69 b042 a9d6 ba42 e9a5 f242 9d9e 4542
00000090: 21bf 6442 6251 b942 6a4e 0743 e35c 3e42
000000a0: 3e03 7143 e126 7a42 dc5c 8f42 ad34 9c42
000000b0: 4394 7e43 6529 0243 d3b8 af42 b597 1c42
000000c0: 3dc9 f942 3f84 a642 4890 0143 7a5e c242
000000d0: 94f4 7a42 b119 f742 fb8d 8042 8c9f c942
000000e0: d3ec 8c42 27dd cb42 0a6d 7b42 ac37 c541
000000f0: 7b68 6142 165b a842 a15e 8642 e468 b242
00000100: 44ea 3b43 0b3e 5442 1450 a042 f1f8 9b42
00000110: b391 0c43 eeee d942 a40c e442 5849 8a42
00000120: 5eeb 9942 2f56 6642 6eba c642 e855 2b42
00000130: c10e 9642 93d3 2842 ca7e b842 d8c4 2542
00000140: c62c 0b42 de4d b142 725d 8642 d7ff 8b43
00000150: e1ea 8442 bc23 2042 9db2 0543 597a 3842
00000160: c24e 6f42 0c2b d942 fe85 d942 aef3 4b42
00000170: 2164 6a42 e3ed 8342 d5c8 a742 fb3e 8042
00000180: d1a1 da42 d16b 2842 2848 a342 d07c f242
00000190: dfc4 0243 9351 0f43 40a1 1342 3b53 3d43
000001a0: 4992 8e42 22f0 4242 6446 7e42 9779 9b42
000001b0: 85e7 7242 0517 b742 3801 1143 db5f c142
000001c0: 116d 6342 db37 a642 e375 8b42 594f 3242
000001d0: ed4b 3642 148b a942 e3dc b142 d172 5642
000001e0: 1c6f e142 5db1 e542 6314 b842 b4e5 1c43
000001f0: 0f0a 8f42 012d 1e43 e014 1442 0699 6742
00000200: 3afd 0343 d3cf 9242 282a bc42 f072 d742
00000210: 36d6 6543 e689 8142 3495 1243 7960 9442
00000220: 0f24 b742 186a 6a42 a27c 9342 6ead f342
00000230: 465d 1b42 7043 9842 1b57 5a42 8b43 0943
00000240: 1477 9b41 7e40 d042 5ae6 9942 e2c4 1043
00000250: 7aa1 4e42 3e3f 9c42 8a49 8f42 d2ad 2e43
00000260: 0e88 3042 3daa 2443 cb24 1242 a095 7042
00000270: 5115 5242 536e ab42 65ed b142 e5b4 1d43
00000280: 836f 0042 1970 f542 5c52 cc42 98f3 1643
00000290: d68a 8942 0439 f342 4792 1c42 94a8 a042
000002a0: f984 0143 8d15 8742 92cc 1342 957d d342
000002b0: 4458 9942 6ae6 bf42 bc62 8a42 8421 1a42
000002c0: 661e 9f42 d533 8a42 221d 1743 93b2 1c43
000002d0: ec6b 6142 a9c5 3042 7189 9442 f2c7 7642
000002e0: f360 3b42 9b63 a742 9958 cb42 3d9b 0942
000002f0: 57a8 3042 29af 7942 18d9 aa42 6c51 8742
00000300: 23a0 2843 c741 aa42 4a59 b942 5500 1043
00000310: 2733 3442 a84a 8142 e961 f542 9aac 5b42
00000320: 32a1 a342 5b00 2043 adae 4f42 ba64 b942
00000330: 8e6b dd42 31f1 0143 e746 d642 b174 7242
00000340: b6ec a042 a359 a742 db54 6c42 4470 b142
00000350: fb04 ed42 a480 8342 c78c 3242 3c6b b242
00000360: 34ac b942 77a8 f042 8c20 1b42 aab4 8d42
00000370: 9482 9d42 67b0 be42 b018 6d43 a15d 3e42
00000380: e8fc 0443 ab9f 6542 069c 9042 6f34 e042
00000390: e98a 2d43 309b 9942 5f45 4243 5d8b 4942
000003a0: 671d 6c42 cd82 9742 5bfa ae42 a063 9042
000003b0: fd5b a942 7a9a 1742 4ac3 a942 78db 1543
000003c0: 9918 7b42 4cce 2b43 b203 d742 2b90 3b42
000003d0: 1b68 ef42 4a2a a442 7ba9 c342 4da6 3343
000003e0: 7742 4743 9ce5 1843 b121 0643 6dff 7f42
000003f0: 17c6 c842 cafb c042 1b0e 2642 3173 0743

L2.weight f4 [128, 256]
0.019368315 -0.028259624 0.014160232 0.0044905795 -0.025332943 0.045453634 -0.0019677165 0.024937402
-0.041278858 -0.009421145 -0.046563204 -0.05728972 0.043628085 0.050676215 0.021631252 0.018245
0.034183215 0.0017014035 0.029173745 0.0049657514 0.012340173 -0.011046357 0.008777237 0.04458147
0.014787803 -0.0056292657 0.051984742 -0.034567352 -0.0379395 -0.032456852 -0.007602147 0.020357415
0.0376944 0.04286212 -0.0049584825 0.057346877 0.040591046 0.004488456 0.019089809 -0.021331647
0.06711869 0.0039857337 0.0051398156 0.012821142 -0.012216284 0.020278584 -0.05381306 0.0009282234
0.029521238 -0.033337668 -0.0032161074 -0.033963207 -0.05179295 0.048943922 0.032977123 0.070089854
0.009409412 -0.012055324 0.048997164 0.024636444 0.010064186 -0.043906093 0.05701501 0.030700095
0.01719959 0.071307994 0.040490605 0.046175465 -0.047338653 0.07790837 -0.039361592 0.030932223
-0.043724358 -0.038975302 0.008808033 -0.027813213 0.06620128 0.060516138 -0.018283678 -0.05629328
0.0498245 -0.02578656 0.052697685 -0.011118772 0.001420563 0.022703784 -0.008803114 0.010716084
-0.015071942 0.051465467 0.01311608 -0.059866372 -0.022681601 -0.059852917 0.043408856 0.016089
0.0058536674 0.003347949 -0.041426726 -0.01272201 0.053135093 -0.052442238 -0.053181995 0.06310367
-0.0048663677 0.06468463 0.009593088 0.014246396 0.023926804 -0.054576874 0.06173802 0.055566642
0.010398161 -0.044167235 -0.06404849 -0.06310322 0.05749079 -0.04912842 -0.008255021 0.017336804
-0.037683554 -0.041177303 0.062350903 0.029146397 -0.05270262 0.024588944 0.025826871 -0.0022649236
-0.042448826 0.03426311 -0.005060256 -0.039624043 0.00830498 -0.017460471 0.026758643 -0.02007509
-0.018443452 -0.002300861 0.04788171 0.032089453 0.0033220842 -0.04273027 0.02357191 -0.048040528
-0.052175492 0.016570771 -0.023074498 0.039310906 0.012663166 -0.00021013053 0.0002023713 -0.03742117
-0.030987697 0.05755145 -0.017875234 -0.034440696 0.046570364 0.005178185 0.0019912934 0.023159858
-0.0009396539 -0.009887347 0.02660204 0.00995453 0.044828083 -0.013841304 0.038335238 0.010002341
-0.03853691 0.02503359 0.029549751 -0.004532617 0.026553836 0.005051666 -0.05189557 -0.050855074
0.017721025 0.03471137 -0.05905602 -0.05550963 0.022110395 -0.037386943 -0.020334272 -0.012693507
0.05997685 -0.007131035 0.049728878 -0.015897838 -0.061705988 0.0680331 -0.013555464 -0.012489982
-0.041350454 0.049389105 -0.0011503552 0.0685704 0.026221305 -0.052200895 -0.0012813999 0.05964162
0.0063637504 -0.014931999 0.0047551687 -0.051821154 -0.0030125116 -0.025550473 -0.01008932 -0.04588286
-0.033358503 -0.04496805 0.025897754 0.055082504 0.010925881 0.04671747 0.01583669 0.04584249
0.06546874 -0.019880036 0.05844998 0.012422068 0.03830309 -0.028643735 -0.044012297 -0.017032906
-0.008265264 0.022680871 0.008455435 0.041172072 0.07025835 0.037089076 -0.026662974 -0.033770394
-0.008510232 -0.00825657 0.017638339 0.050408173 0.0053426907 -0.03579837 -0.043924224 0.057476033
0.048167117 0.013141537 -0.05871231 0.029402582 -0.010747018 -0.055570945 0.015224487 0.014692583
0.037849564 0.017142257 -0.016772706 0.050745506 -0.05417895 0.06814726 -0.004443678 0.042295776
00000000: 4daa 9e3c ba80 e7bc 5100 683c b625 933b
00000010: 0887 cfbc 972d 3a3d cef4 00bb 8649 cc3c
00000020: 0514 29bd 255b 1abc 0fb9 3ebd a0a8 6abd
00000030: 5db3 323d dd91 4f3d 0634 b13c 8a76 953c
00000040: b303 0c3d a101 df3a c7fd ee3c beb7 a23b
00000050: 702e 4a3c c8fb 34bc 66ce 0f3c 0f9b 363d
00000060: 8b48 723c b475 b8bb f4ed 543d 7f96 0dbd
00000070: 7366 1bbd 7af1 04bd 6e1b f9bb 98c4 a63c
00000080: 7165 1a3d 3190 2f3d c47a a2bb 8fe4 6a3d
00000090: cc42 263d e613 933b 3b62 9c3c b5bf aebc
000000a0: 8675 893d c29a 823b e66b a83b c40f 523c
000000b0: cf26 48bc 461f a63c 156b 5cbd 0554 733a
000000c0: 86d6 f13c 148d 08bd 54c5 52bb 011d 0bbd
000000d0: d824 54bd 6c79 483d 0513 073d 458b 8f3d
000000e0: ef29 1a3c b283 45bc 40b1 483d 5ed2 c93c
000000f0: 41e4 243c e0d6 33bd 9288 693d c47e fb3c
00000100: 28e6 8c3c ed09 923d 7ad9 253d 7c22 3d3d
00000110: 2de6 41bd 6c8e 9f3d 9f39 21bd 9365 fd3c
00000120: 5018 33bd 91a4 1fbd 914f 103c 89d8 e3bc
00000130: 8994 873d c5df 773d a7c7 95bc c893 66bd
00000140: c614 4c3d 563e d3bc 87d9 573d 832b 36bc
00000150: 2f32 ba3a 49fd b93c f03a 10bc 8492 2f3c
00000160: 4ef0 76bc 74cd 523d d4e4 563c 7136 75bd
00000170: c4ce b9bc 5528 75bd 7ccd 313d 14cd 833c
00000180: 1fd0 bf3b 4369 5b3b 12af 29bd fa6f 50bc
00000190: 2fa4 593d accd 56bd 5dd5 59bd 7f3c 813d
000001a0: 0d76 9fbb 6079 843d 542c 1d3c b769 693c
000001b0: 2502 c43c 008c 5fbd 02e1 7c3d d999 633d
000001c0: 0c5d 2a3c b4e8 34bd db2b 83bd 433c 81bd
000001d0: 767b 6b3d e23a 49bd 1140 07bc ea05 8e3c
000001e0: 125a 1abd 88a9 28bd a963 7f3d 6dc4 ee3c
000001f0: b4de 57bd c16e c93c e092 d33c 1d6f 14bb
00000200: d2de 2dbd 7a57 0c3d 81d0 a5bb d24c 22bd
00000210: 9c11 083c 4309 8fbc f134 db3c 8474 a4bc
00000220: b916 97bc 0bca 16bb 9d1f 443d 3b70 033d
00000230: 53b7 593b f005 2fbd e119 c13c 25c6 44bd
00000240: f8b5 55bd 6dbf 873c bb06 bdbc 7904 213d
00000250: 2b79 4f3c 7c56 5cb9 a233 5439 f146 19bd
00000260: e9d9 fdbc 12bb 6b3d 156f 92bc b011 0dbd
00000270: 91c0 3e3d c4ad a93b 5c80 023b beb9 bd3c
00000280: 1b53 76ba 8afe 21bc 85ec d93c 5318 233c
00000290: a79d 373d a3c6 62bc 6905 1d3d dce0 233c
000002a0: e1d8 1dbd 3e13 cd3c 5212 f23c 5986 94bb
000002b0: 6e87 d93c 7288 a53b 7390 54bd 694d 50bd
000002c0: af2b 913c 822d 0e3d bae4 71bd 115e 63bd
000002d0: dc20 b53c 0d23 19bd 0f94 a6bc 6df8 4fbc
000002e0: 49aa 753d 75ab e9bb 82b0 4b3d 2f3c 82bc
000002f0: 6bbf 7cbd f054 8b3d bd17 5ebc c8a2 4cbc
00000300: 185f 29bd 3b4c 4a3d 84c7 96ba a36e 8c3d
00000310: 10ce d63c 9bd0 55bd a5f4 a7ba c54a 743d
00000320: 0287 d03b 58a5 74bc 3fd1 9b3b 6b42 54bd
00000330: 8f6d 45bb 3a4f d1bc ad4d 25bc aaef 3bbd
00000340: eda2 08bd 6b30 38bd 8727 d43c 319e 613d
00000350: 7702 333c d15a 3f3d f2bb 813c 56c5 3b3d
00000360: 7a14 863d 75db a2bc 3f69 6f3d ee85 4b3c
00000370: b3e3 1c3d 44a6 eabc 3d46 34bd 9888 8bbc
00000380: 086b 07bc 3ccd b93c aa88 0a3c 0ca4 283d
00000390: 9ce3 8f3d b7ea 173d 4f6c dabc d352 0abd
000003a0: 806e 0bbc 9146 07bc 477e 903c cd78 4e3d
000003b0: bd11 af3b 50a1 12bd e3e9 33bd fd6b 6b3d
000003c0: e24a 453d 9a4f 573c 527c 70bd afdd f03c
000003d0: 4314 30bc 5c9e 63bd 2070 793c 29b9 703c
000003e0: 2508 1b3d eb6d 8c3c ea66 89bc 85da 4f3d
000003f0: bfea 5dbd ca90 8b3d 469c 91bb 563e 2d3d

L2.bias f4 [128]
-0.003662528 -0.041514736 -0.0069293827 -0.03497337 0.024139753 -0.035603583 -0.03702534 -0.04776
-0.022804905 -0.013701984 0.010983596 0.018121239 -0.02394018 -0.049184788 0.05877146 0.038220774
-0.023800408 0.0042915824 -0.048933234 -0.049589913 0.05556026 0.023800513 0.014563618 -0.047155738
-0.052487515 -0.040815707 -0.03644407 0.019074325 0.00687987 0.030860173 0.02197565 -0.0068764044
0.0014220398 0.0321642 -0.0048370874 0.005883079 0.005599054 -0.010716959 -0.02006984 0.019992601
0.053413972 -0.050144482 -0.0043216455 -0.02862211 -0.007972194 0.022625618 -0.055507854 0.029181857
0.022856139 -0.03075097 -0.036398932 -0.021467334 -0.0034866508 -0.035635244 0.055787295 -0.0039369217
-0.025665073 -0.04739441 0.024552578 -0.033484522 0.020937176 -0.01008014 -0.027325915 0.021494895
-0.061252512 0.03890751 -0.0028797921 0.0069324425 0.035740204 -0.02071128 0.024702799 -0.0009389228
-0.01770965 0.046052173 0.0067685065 0.041783545 -0.017704425 0.030145725 0.028465558 0.036009893
0.032598797 0.035215206 0.0013327776 0.005335918 -0.04982002 0.045206 0.018601 -0.016396275
-0.050954077 -0.026634326 -0.0050713685 0.030909812 -0.0028380388 0.024138816 0.011971127 0.060457196
0.057688847 0.041362375 -0.06210555 -0.023577185 0.02629485 0.040837914 0.041078255 -0.023130193
0.0077925725 0.010322748 0.027111588 -0.047035664 -0.057839964 0.057232656 0.010667537 0.03104428
-0.047856316 -0.0070431144 0.024204642 -0.05196773 -0.041161776 -0.005618995 -0.020261861 0.056089845
-0.052065548 -0.04781793 -0.021156404 -0.017631223 -0.0591841 -0.0024276953 0.00030619075 0.040608477
00000000: 0607 70bb 5b0b 2abd e00f e3bb 3d40 0fbd
00000010: bbc0 c53c 10d5 11bd e2a7 17bd fd9f 43bd
00000020: 5ad1 babc 497e 60bc 8af4 333c fe72 943c
00000030: 321e c4bc fd75 49bd 58ba 703d 638d 1c3d
00000040: 13f9 c2bc 67a0 8c3b 376e 48bd cb1e 4bbd
00000050: 2893 633d 4bf9 c23c 3e9c 6e3c 6026 41bd
00000060: 26fd 56bd 5f2e 27bd 6146 15bd c241 9c3c
00000070: 8870 e13b 79ce fc3c 4706 b43c 7653 e1bb
00000080: bd63 ba3a 9cbe 033d 6e80 9ebb d8c6 c03b
00000090: 4578 b73b 2f96 2fbc 8169 a4bc 86c7 a33c
000000a0: 9cc8 5a3d 4d64 4dbd 979c 8dbb ea78 eabc
000000b0: ce9d 02bc 5c59 b93c 345c 63bd ca0e ef3c
000000c0: cc3c bb3c 75e9 fbbc 0c17 15bd 43dc afbc
000000d0: 4b80 64bb 43f6 11bd 3881 643d 4b01 81bb
000000e0: 8f3f d2bc a420 42bd 7d22 c93c 1127 09bd
000000f0: 7184 ab3c 2c27 25bc 99da dfbc 1016 b03c
00000100: eae3 7abd 7b5d 1f3d e5ba 3cbb 8b29 e33b
00000110: 5264 123d b4aa a9bc 865d ca3c 0b22 76ba
00000120: d413 91bc 34a1 3c3d 59ca dd3b 3925 2b3d
00000130: df08 91bc 2bf4 f63c 9a30 e93c 1c7f 133d
00000140: 5186 053d d23d 103d 98b0 ae3a edd8 ae3b
00000150: 1410 4cbd ed29 393d 2061 983c 7b51 86bc
00000160: 39b5 50bd 3b30 dabc b92d a6bb 9336 fd3c
00000170: 64fe 39bb c4be c53c 8c22 443c f7a1 773d
00000180: 244b 6c3d 986b 293d 6462 7ebd f124 c1bc
00000190: 4c68 d73c a845 273d ac41 283d 887b bdbc
000001a0: d658 ff3b be20 293c 1f19 de3c 78a8 40bd
000001b0: 99e9 6cbd ca6c 6a3d e5c6 2e3c 9350 fe3c
000001c0: fc04 44bd edc9 e6bb d048 c63c 1ddc 54bd
000001d0: 4099 28bd 8c1f b8bb 34fc a5bc 77be 653d
000001e0: af42 55bd bcdc 43bd 3250 adbc 5b6f 90bc
000001f0: 076b 72bd f819 1fbb 3a88 a039 1355 263d

BN2.weight f4 [128]
1.0137997 0.99611884 0.99237967 1.0084109 1.0137266 1.0177698 0.99017084 1.041711
1.0068178 1.0046424 0.97491175 1.0058341 1.0114712 0.9869161 1.0059103 0.9848555
1.0147285 1.0256101 1.0255681 0.99624014 1.001096 1.0063176 0.99310625 1.0277172
0.9836345 1.020147 0.9969371 1.0072052 0.9946864 1.0290073 1.0138341 1.0601256
0.976719 1.0366 0.99697685 1.0142525 1.0023534 1.0109962 1.0000893 0.9962376
1.003636 0.9728999 1.0099984 1.0119195 0.9980062 1.0053971 1.0322156 1.0133777
1.0437031 1.0019072 0.9947212 1.0200291 1.0124528 1.0029542 0.98478174 0.9933663
0.9953356 1.0212958 1.0640849 1.0004909 1.012356 1.059729 0.9912187 0.9897873
0.99536914 1.0413197 0.9810071 1.0030859 0.97449154 1.0047815 0.98459905 1.0371745
1.0112338 0.9860727 1.0325279 1.020947 0.99778026 1.0326779 1.041968 1.0075456
0.9972555 1.0037076 1.0382313 1.01992 0.9840278 1.0477995 1.0279045 0.9930986
1.0008609 1.014805 1.0217797 1.0423839 1.0094446 1.028327 1.0212269 0.99912405
1.0303965 0.98715055 1.0453432 0.9789465 1.0219634 1.0041816 1.0147406 0.9800394
1.0033549 1.0077678 0.9971863 1.0041412 0.9852267 1.00434 1.0060258 0.97779745
1.0183572 1.0091285 0.9984283 1.0199476 0.99447286 1.0128603 1.0132023 0.99957573
1.0127032 0.988868 0.9930181 0.986797 0.983963 0.991439 1.0184907 1.0012313
00000000: 30c4 813f a501 7f3f 980c 7e3f 9c13 813f
00000010: cbc1 813f 4846 823f d67b 7d3f c956 853f
00000020: 68df 803f 1f98 803f d193 793f 2cbf 803f
00000030: e377 813f 89a6 7c3f abc1 803f 7d1f 7c3f
00000040: a0e2 813f 3147 833f d145 833f 9809 7f3f
00000050: ea23 803f 04cf 803f 363c 7e3f 3d8c 833f
00000060: 78cf 7b3f 2d94 823f 4537 7f3f 1aec 803f
00000070: c5a3 7e3f 83b6 833f 51c5 813f 32b2 873f
00000080: 420a 7a3f 4faf 843f e039 7f3f 07d3 813f
00000090: 1e4d 803f 5368 813f ed02 803f 6d09 7f3f
000000a0: 2577 803f f80f 793f a147 813f 9486 813f
000000b0: 567d 7f3f dab0 803f a41f 843f 5cb6 813f
000000c0: 1098 853f 7f3e 803f 0ca6 7e3f 5090 823f
000000d0: 0e98 813f ce60 803f a81a 7c3f 414d 7e3f
000000e0: 50ce 7e3f d2b9 823f ef33 883f 1610 803f
000000f0: e294 813f 33a5 873f 82c0 7d3f b362 7d3f
00000100: 83d0 7e3f f749 853f 4823 7b3f 1e65 803f
00000110: 4778 793f ae9c 803f af0e 7c3f 22c2 843f
00000120: 1c70 813f 436f 7c3f e029 843f 64ae 823f
00000130: 876e 7f3f ca2e 843f 355f 853f 41f7 803f
00000140: 234c 7f3f 7e79 803f c3e4 843f bd8c 823f
00000150: 3fe9 7b3f 4b1e 863f 6092 833f b63b 7e3f
00000160: 361c 803f 21e5 813f adc9 823f d66c 853f
00000170: 7b35 813f 38a0 833f 90b7 823f 98c6 7f3f
00000180: 08e4 833f e6b5 7c3f cecd 853f 3d9c 7a3f
00000190: b2cf 823f 0689 803f 05e3 813f dde3 7a3f
000001a0: ef6d 803f 89fe 803f 9a47 7f3f b387 803f
000001b0: d137 7c3f 378e 803f 74c5 803f ef50 7a3f
000001c0: 8759 823f 1f2b 813f ff98 7f3f a58d 823f
000001d0: c695 7e3f 68a5 813f 9db0 813f 32e4 7f3f
000001e0: 42a0 813f 7426 7d3f 6f36 7e3f ba9e 7c3f
000001f0: 00e5 7b3f f2ce 7d3f e75d 823f 5928 803f
