Trained_Models/BotDetection_v4_MLP___May-10-2024/BotDetection_v4_MLP_epoch43_val_loss_0.476890.pth (torch, 951655 bytes, 45 tensors)

L1.weight f4 [256, 133]
0	0x3c0f41e7	0.00874374
1	0x3d6bfeb9	0.05761597
2	0x3db3dd11	0.087823994
3	0xbe26810e	-0.16260168
4	0x3ce0fdab	0.027464708
5	0x3d3579d1	0.044305626
6	0x3e3a972b	0.18221729
7	0xbd54f474	-0.05199094
8	0x3c413143	0.01179153
9	0x3c8a31eb	0.016869506
10	0xbd8c1941	-0.06840754
11	0x3d08f644	0.033437982
12	0xbd5516b3	-0.0520236
13	0xbd4aa777	-0.049476113
14	0xbe11a3f6	-0.14222702
15	0x3d9f04ad	0.07764564
16	0x3bf3b77d	0.007437645
17	0xbd22a903	-0.039711963
18	0xba968850	-0.0011484716
19	0xbd64fa68	-0.05590287
20	0xbd0e0e36	-0.03468152
21	0xbc250d91	-0.010074035
22	0xbd40ff56	-0.047118507
23	0xbcbbf281	-0.022942783
24	0x3d6d29af	0.05790108
25	0xbdd9bcbb	-0.106317006
26	0x3cd4f73b	0.025996795
27	0xbdb79419	-0.08963794
28	0x3cbe25a4	0.023211308
29	0x3db428e2	0.0879686
30	0x3a781143	0.00094630214
31	0xbd301eeb	-0.042998236
32	0xbdb97355	-0.09055201
33	0xbcac8f12	-0.021064315
34	0xbd934a8a	-0.071919516
35	0x3da7d49f	0.08194851
36	0x3db32c24	0.087486535
37	0x3db71db6	0.08941214
38	0xbd7e642a	-0.062107243
39	0xbca94530	-0.020662874
40	0x3e4aaaf3	0.19791774
41	0xbbed05a1	-0.007233337
42	0xbcf12c96	-0.029440206
43	0x3ca787d9	0.02045052
44	0x3b84efef	0.0040569226
45	0x3db6eb3d	0.08931587
46	0x3bbbeaa4	0.0057347585
47	0x3d8775f4	0.06614295
48	0xbd17baac	-0.03704326
49	0x3da17216	0.07883088
50	0x3d49b271	0.04924244
51	0x3c58c18c	0.013229739
52	0x3d935a31	0.07194937
53	0x3dcae3ff	0.09906768
54	0xbccda1fd	-0.025101656
55	0x3c840267	0.016114427
56	0xbd2b5b28	-0.04183498
57	0x3d58d425	0.05293669
58	0xbe1f921b	-0.15583079
59	0xbc8f8cd1	-0.017523201
60	0xbe20bfb3	-0.15698127
61	0x3c94f34c	0.01818242
62	0xbe1676ed	-0.14693804
63	0xbd43551e	-0.047688596
64	0x3de952cc	0.113927454
65	0xbdf6d424	-0.12052181
66	0xbd8d5e14	-0.069027096
67	0x3e06ad4d	0.13152047
68	0xbcd3991e	-0.025829848
69	0xbd5bb5ed	-0.053640295
70	0x3d5a0868	0.053230673
71	0x3dbe9ff4	0.093078524
72	0x3dc72dc3	0.09725525
73	0x3d59b61e	0.053152196
74	0xbd45507d	-0.048172463
75	0xbce96a8b	-0.028493186
76	0xbda401cd	-0.08008156
77	0x3ca8341f	0.020532666
78	0xbc940b06	-0.018071663
79	0x3d08b5d8	0.033376545
80	0x3c006e6a	0.007838825
81	0xbd122b33	-0.03568573
82	0xbd8684e8	-0.065683186
83	0xbcb9dc47	-0.022688044
84	0x3d5899b3	0.052880954
85	0xbd153f0e	-0.036437087
86	0xbe2f4301	-0.17115404
87	0xbdaa91e6	-0.08328609
88	0x3ca69518	0.020334765
89	0xbc931f2c	-0.0179592
90	0xbb64129d	-0.0034801133
91	0x3e0fdf5f	0.14050053
92	0xbdb829d1	-0.08992351
93	0x3c7ce4fe	0.015435455
94	0xbd0d39f8	-0.03447911
95	0x3d103228	0.035204083
96	0x3d3ff74c	0.0468667
97	0xbda9f5ea	-0.082988575
98	0xbd439789	-0.047751937
99	0x3ce4c56c	0.02792617
100	0x3ce6d713	0.028178727
101	0xbdc42bf3	-0.09578695
102	0x3df4f226	0.11960249
103	0xbe15e8b8	-0.14639556
104	0xbd6903af	-0.05688828
105	0x3d93cb80	0.07216549
106	0x3d860754	0.065443665
107	0xbd47e351	-0.04880077
108	0xbd26fff2	-0.040771432
109	0xbd8a78fa	-0.06761356
110	0x3d2b0489	0.041752372
111	0xbdbdb270	-0.0926255
112	0xbd5678e6	-0.05236139
113	0xbc8c6b1b	-0.017140916
114	0x3c881931	0.016613575
115	0xbd1eb5bf	-0.038747545
116	0x3c8028b1	0.015644403
117	0x3dd1c406	0.10242467
118	0x3d8f4f95	0.06997601
119	0x3da53a51	0.080677636
120	0xbdbbbbbc	-0.09166667
121	0x3d57a2af	0.05264538
122	0x3c89c267	0.016816331
123	0x3e3abb79	0.18235578
124	0xbdea3197	-0.1143524
125	0xbc16d568	-0.009206153
126	0x3d53936f	0.051654276
127	0x3da42565	0.08014945
128	0xbda23070	-0.07919395
129	0xb9c548c6	-0.00037628989
130	0x3da7582d	0.08171115
131	0x3d8aaeb2	0.06771602
132	0xbdada3a6	-0.08478479
133	0x3bfb806a	0.0076752203
134	0x3d1c53e1	0.03816593
135	0xbc4e39c4	-0.012587015
136	0x3dca3044	0.09872487
137	0xbd133665	-0.035940547
138	0x3d344796	0.044013582
139	0xbd87420d	-0.06604395
140	0xbd16906e	-0.036758833
141	0x3d5c210d	0.053742457
142	0xbd164751	-0.036689106
143	0xbbdec5de	-0.00679849
144	0xbbaa48d3	-0.0051966696
145	0xbd6f2b36	-0.05839082
146	0x3d5a2184	0.05325462
147	0x3d54fe63	0.052000415
148	0x3c7a7a24	0.01528791
149	0xbd61c583	-0.055120002
150	0xbbe8b275	-0.007101352
151	0xbc96b16b	-0.018395146
152	0x3d5d2a7d	0.053995598
153	0xbccbc5ca	-0.024874587
154	0x3c4355d9	0.011922323
155	0xbd8ae1e0	-0.067813635
156	0xbdbdb9f6	-0.09263985
157	0xbdc0e241	-0.094181545
158	0xbce88190	-0.028382093
159	0xbda4733d	-0.080297925
160	0x3c082950	0.008310631
161	0xbd9c78dc	-0.076402396
162	0x3cd33357	0.025781317
163	0x39b15ded	0.0003383005
164	0xbcf1d961	-0.0295226
165	0x3d8caae0	0.06868529
166	0x3d8998db	0.06718608
167	0xbd7bdb17	-0.061488237
168	0xbcb69141	-0.02228606
169	0x3df54fdc	0.119781226
170	0x3d92649c	0.07148096
171	0x3e2b7f50	0.16747785
172	0x3dd121b3	0.10211506
173	0x3d78fcf0	0.060788095
174	0xbd36621b	-0.044527154
175	0x3c7fb2b1	0.015606568
176	0x3d5c4d5e	0.05378472
177	0x3e1d07a7	0.1533495
178	0xbd1d3185	-0.038377304
179	0x3ce67a9a	0.028134633
180	0x3d607c91	0.054806296
181	0x3d779127	0.060441162
182	0x3cf4f215	0.02990059
183	0xbd94a3d6	-0.07257812
184	0xbd758f73	-0.059951257
185	0x3d66e2ee	0.05636876
186	0x3dfe9bcc	0.1243206
187	0xbd1968f5	-0.03745361
188	0xbd06a65c	-0.032873496
189	0x3b6823f1	0.0035421813
190	0x3d7f8ec0	0.062391996
191	0x3dac09a5	0.08400277
192	0xbd728c4c	-0.05921583
193	0x3d974b0b	0.0738736
194	0x3d984b8f	0.07436287
195	0x3d047df5	0.032346684
196	0xbdda86b9	-0.106702276
197	0x3be9b80f	0.007132537
198	0x3d4c0bc0	0.049815893
199	0xbd3fd702	-0.046835907
200	0xbc6e6df7	-0.014552585
201	0xbc8a68f5	-0.01689575
202	0xbce3981c	-0.027782492
203	0xbc97dd0c	-0.01853802
204	0x3df23495	0.118264355
205	0x3c99a638	0.018756017
206	0xbd0e12b1	-0.034685794
207	0xbc5f326c	-0.013622861
208	0x3c1eb5f3	0.009686935
209	0x3da52eb2	0.08065547
210	0xbd2e8f28	-0.042616993
211	0xbc1a7287	-0.0094267195
212	0xbcb5fd42	-0.02221549
213	0xbc955636	-0.018229585
214	0xbc9d10b6	-0.019173007
215	0xbdc509ce	-0.09621011
216	0xbdca21f8	-0.0986976
217	0x3dad81a2	0.08471991
218	0xbd266a48	-0.0406287
219	0x3d5f6b6e	0.054545812
220	0xbd2cdecb	-0.04220466
221	0x3cc1fd63	0.023680395
222	0xbe1e06d7	-0.15432297
223	0x3dc04e51	0.09389938
224	0xbe1d44ab	-0.15358226
225	0xbd1c7c92	-0.038204737
226	0xbdbb6d99	-0.091517635
227	0x3d1b14e3	0.037861716
228	0xbd204b42	-0.03913427
229	0xbca21249	-0.01978411
230	0xbd48e150	-0.049043
231	0xbd6e5a1f	-0.058191415
232	0x3d28bc83	0.041195404
233	0x3e054308	0.13013852
234	0x3d0da228	0.034578472
235	0x3d9d5476	0.07682125
236	0x3b10ee1e	0.0022114585
237	0x3d2126fc	0.03934382
238	0x3db86c50	0.09005034
239	0x3d593202	0.053026207
240	0xbdb7b0ce	-0.0896927
241	0x3c01e853	0.007928926
242	0x3bc78671	0.0060890247
243	0xbd06fd51	-0.032956425
244	0xbd5f0fde	-0.05445849
245	0x3d463216	0.04838761
246	0xbd81bd3d	-0.063349225
247	0x3cc58f79	0.024116265
248	0xbca1f2ab	-0.019769033
249	0x3d4d66a5	0.050146718
250	0x3dadc385	0.08484558
251	0x3dbfd052	0.09365906
252	0xbd5dc192	-0.05413968
253	0xbe0d0c58	-0.1377424
254	0xbd9256bc	-0.071454495
255	0xbd974ac9	-0.07387311

L1.bias f4 [256]
0	0xbda6e202	-0.08148576
1	0xbc9746f1	-0.018466445
2	0x3d7b1643	0.061300527
3	0xbc8a6e15	-0.016898194
4	0xbcb226a7	-0.021746946
5	0xbd79e9c0	-0.061013937
6	0x3d05e63e	0.03269028
7	0x3d2ac9ff	0.041696545
8	0xbd56c18d	-0.05243068
9	0xbd9daa24	-0.076984674
10	0xbcbd6c4d	-0.02312293
11	0x3d78062c	0.06055276
12	0xbd83e6ff	-0.064405434
13	0xbd1275ed	-0.035756994
14	0xbdae4595	-0.085093655
15	0xbc218a3e	-0.00985962
16	0x3c97ff84	0.018554457
17	0x3d1046e4	0.035223857
18	0xbd294065	-0.041321177
19	0x3da99ac6	0.08281474
20	0x3bef35a1	0.0073000942
21	0xbd7d8774	-0.061896756
22	0x3c8e8a38	0.017399892
23	0x3d029fe0	0.03189075
24	0x3d64db71	0.055873338
25	0x3d7bacac	0.06144397
26	0xbcb52847	-0.022113932
27	0xbc8e8697	-0.017398162
28	0xbd327e3f	-0.04357743
29	0x3d10e9d8	0.03537926
30	0xbd87aaf4	-0.066244036
31	0xbcbe0145	-0.023193965
32	0xbc64deab	-0.013969104
33	0xbd914fe4	-0.07095316
34	0x3d0952b4	0.033526137
35	0x3ca1c21c	0.019745879
36	0x3d970ba9	0.07375271
37	0xbd5b8a9a	-0.053598978
38	0x3d9fcfd9	0.07803316
39	0x3d15a582	0.036534794
40	0xbcdaccac	-0.026708923
41	0xbd875181	-0.066073425
42	0xbda7a7f4	-0.081863314
43	0x3d01d1af	0.03169411
44	0xbd2ced00	-0.04221821
45	0xbccd2548	-0.025042191
46	0xbd0a8fc8	-0.033828527
47	0xbc854365	-0.016267488
48	0x3bf30683	0.0074165477
49	0x3d988aee	0.07448374
50	0x3d67aef2	0.056563325
51	0x3d83f48e	0.064431295
52	0x3b9d6912	0.004803785
53	0xbcdb249f	-0.02675086
54	0xbd2353d8	-0.03987488
55	0x3d4ce476	0.050022565
56	0xbbef521b	-0.007303489
57	0x3d0b4a48	0.034006387
58	0xbd9ee373	-0.07758226
59	0x3d326244	0.043550745
60	0xbd399f1e	-0.04531776
61	0xbc19447a	-0.009354705
62	0x3d8eac63	0.06966474
63	0x3d587203	0.052843105
64	0xbd4d7ba1	-0.05016673
65	0x3d9286fb	0.07154652
66	0xbd8fb09e	-0.07016109
67	0x3d2267d7	0.03964981
68	0x3c6438e1	0.013929577
69	0x3da36bcf	0.07979547
70	0x3c0ec2d6	0.008713445
71	0xbc999e36	-0.018752199
72	0x3d973378	0.07382864
73	0xbd516fc2	-0.05113197
74	0x3d75db42	0.060023554
75	0xbd05c160	-0.03265512
76	0xbc3fb9d7	-0.0117020225
77	0xbd19c37d	-0.037539948
78	0x3d689800	0.056785583
79	0xbd5eccfd	-0.05439471
80	0xbcc8b863	-0.024501985
81	0x3bc67bee	0.006057254
82	0x3d9d9659	0.07694692
83	0xbc41dd80	-0.011832595
84	0xbd1842d5	-0.03717311
85	0xbc233e0c	-0.009963524
86	0x3ca051ca	0.01957025
87	0xbd1c88eb	-0.038216513
88	0x3db074b1	0.08616007
89	0x3d0fbe6a	0.035093702
90	0xbcfbc7b1	-0.030734869
91	0x3d4f7129	0.050645027
92	0xbcce1568	-0.025156692
93	0x3c9b69cf	0.018971352
94	0xbc78a432	-0.015175866
95	0xbd8a471d	-0.06751845
96	0xbd9415e0	-0.07230735
97	0xbd9a8bc8	-0.075461924
98	0xbd44ee20	-0.048078656
99	0xbbaf436b	-0.005348613
100	0x3c390d67	0.011294699
101	0x3c6b3b3f	0.014357387
102	0x3d1fdae8	0.039027125
103	0x3bb2f9a1	0.005461887
104	0x3dacc454	0.08435884
105	0xbca69d2b	-0.020338615
106	0x3c954518	0.018221423
107	0x3c91e0b6	0.017807346
108	0x3d2ea302	0.042635925
109	0x3d8dcf80	0.06924343
110	0x3d05187c	0.032494053
111	0x3d30ba3d	0.04314636
112	0x3d9d3342	0.07675792
113	0x3d2b64d3	0.0418442
114	0x3da144d0	0.07874453
115	0x3d34690e	0.0440455
116	0x3d2b66fb	0.041846257
117	0xbc315d77	-0.010825506
118	0xbd5c9d4c	-0.053860947
119	0x3d9d7619	0.07688541
120	0x3d36e31a	0.044650175
121	0x3cd433f1	0.025903674
122	0x3d0ff386	0.03514435
123	0xbcc42f59	-0.023948358
124	0xbc283000	-0.01026535
125	0x3d8da0a9	0.06915409
126	0x3cba0d21	0.022711338
127	0xbdabec20	-0.08394647
128	0x3d8f9005	0.070098914
129	0x3cd2cae2	0.025731508
130	0xbd2dd07c	-0.042435154
131	0xbd1ed480	-0.038776875
132	0xbd843daa	-0.06457074
133	0x3da5e6d4	0.081006676
134	0xbd26b9f3	-0.04070468
135	0xbd1f93eb	-0.038959425
136	0x3ce3da1e	0.027813967
137	0xbd0deae1	-0.034647826
138	0x3d3a7fc6	0.04553201
139	0xbcf93766	-0.030421924
140	0xbca94929	-0.020664768
141	0xbcdbc767	-0.02682848
142	0x3ba15f60	0.0049246997
143	0x3d320b69	0.043467913
144	0xbc5edacb	-0.013601969
145	0x3d8b6b19	0.06807537
146	0xbdaf644f	-0.08564054
147	0xbd87d9a5	-0.06633309
148	0x3cc7d62a	0.024394114
149	0xbbd59ae0	-0.0065187067
150	0xbc567002	-0.013088228
151	0x3ccbb25b	0.02486532
152	0xbd90f3c5	-0.07077745
153	0xbc16aa3b	-0.00919586
154	0xbd7cbf48	-0.061705858
155	0x3d9e16b2	0.077191725
156	0x3c9aaecb	0.018882176
157	0x3d537238	0.0516226
158	0xbd63d846	-0.055626176
159	0xbca9e367	-0.020738317
160	0x3d3e6275	0.046480615
161	0x3d95f9dd	0.07323048
162	0xbd9434de	-0.07236646
163	0xbcc081e9	-0.023499446
164	0xbc7f23a0	-0.0155724585
165	0x3da464b5	0.08027021
166	0xbd5bfbbc	-0.05370687
167	0x3d031ece	0.0320118
168	0x3d81e8c3	0.06343224
169	0xbd8648c1	-0.065568455
170	0x3da70dfd	0.08156965
171	0xbdae54f1	-0.08512295
172	0xbd8232dd	-0.06357358
173	0xbccd99da	-0.025097776
174	0x3b8d90d9	0.0043202457
175	0x3b4c11b7	0.0031138489
176	0x3d8415ac	0.06449446
177	0x3d98a9bf	0.074542515
178	0xbcc09181	-0.023506882
179	0x3ca49bb1	0.02009377
180	0xbcf8f052	-0.030388031
181	0x3cca105f	0.02466601
182	0xbae9446f	-0.0017796884
183	0x3d25999c	0.040429696
184	0x3ac18652	0.0014764762
185	0xbcdc809d	-0.026916796
186	0x3d17c414	0.03705223
187	0x3d80111e	0.06253265
188	0xbd255f17	-0.040373888
189	0x3cbd4616	0.023104709
190	0x38f93434	0.00011882969
191	0xbccc82b1	-0.024964662
192	0x3d174e51	0.036939923
193	0x3d4a50a8	0.049393326
194	0x3d1f5f7f	0.03890943
195	0xbd96d0ae	-0.07364021
196	0xbd00e5a6	-0.03146901
197	0x3d92b9d5	0.07164351
198	0x3d4b61d3	0.04965384
199	0x3d47c1a4	0.048768654
200	0xbd57540a	-0.05257038
201	0x3cfea918	0.03108649
202	0xbc32254d	-0.010873151
203	0xbd097228	-0.033556134
204	0x3d537292	0.051622935
205	0x3daa8324	0.08325794
206	0x3d1eceb8	0.03877136
207	0x3d81d4dc	0.06339428
208	0xbd4af1ef	-0.049547132
209	0x3d2ea16f	0.042634424
210	0xbda3f29e	-0.0800526
211	0xbcab0dec	-0.020880662
212	0xbcaa21a7	-0.020768
213	0xbd91d88e	-0.07121383
214	0xbcde6a2d	-0.027150238
215	0x3d860409	0.065437384
216	0xbd2e577b	-0.042563897
217	0x3d9923e9	0.074775524
218	0x3d309d0b	0.043118518
219	0xbd0ed339	-0.034869406
220	0x3d47495f	0.048653957
221	0xbda50972	-0.08058442
222	0x3d1495f0	0.036275804
223	0xbd28f3ad	-0.041248012
224	0xbd8c001e	-0.0683596
225	0x3daece31	0.08535422
226	0xbb5c3390	-0.003360007
227	0xbd5a55cd	-0.053304482
228	0x3daf65fb	0.08564373
229	0x3cb11b50	0.021619469
230	0xbc56a8f3	-0.013101804
231	0xbd061d95	-0.032743055
232	0x3d9fa8a3	0.07795837
233	0x3d450c04	0.048107162
234	0x3da032c9	0.078221865
235	0x3d0150ab	0.03157107
236	0x3d8be111	0.068300374
237	0xba615e4a	-0.0008597119
238	0x3c9e56c4	0.019328482
239	0x3cb304c6	0.021852862
240	0x3da7d577	0.08195012
241	0x3d850a07	0.06496053
242	0x3d54731b	0.051867586
243	0xbdaaea5a	-0.0834548
244	0x3d81edd7	0.063441925
245	0x3d41e0de	0.04733359
246	0xbc9d96b3	-0.019236898
247	0x3c8270fe	0.01592302
248	0xbdae3e99	-0.08508033
249	0xbd4619ef	-0.048364576
250	0x3d891258	0.06692952
251	0xbda398dc	-0.0798814
252	0x3a0b831e	0.0005321967
253	0x3c7c3008	0.015392311
254	0xbb805f8a	-0.003917639
255	0xbd4f2eb7	-0.05058166

BN1.weight f4 [256]
0	0x3f7e06e5	0.9922927
1	0x3f7f7aab	0.9979655
2	0x3f7bf761	0.98424345
3	0x3f7900c1	0.97266775
4	0x3f7d1b98	0.9887023
5	0x3f815ea8	1.0107012
6	0x3f8256d1	1.0182744
7	0x3f7e9ebd	0.99460965
8	0x3f800f0c	1.0004592
9	0x3f819104	1.012238
10	0x3f7c67e3	0.9859602
11	0x3f7a87e5	0.9786361
12	0x3f7eb08d	0.99488145
13	0x3f80ace8	1.0052767
14	0x3f842472	1.0323622
15	0x3f80cfbb	1.0063394
16	0x3f820233	1.0156921
17	0x3f80913a	1.004432
18	0x3f7d4f6b	0.9894931
19	0x3f80b0e9	1.0053989
20	0x3f7d8b2f	0.990405
21	0x3f7ca5bf	0.9869041
22	0x3f876b42	1.0579607
23	0x3f822b13	1.0169395
24	0x3f8291ff	1.0200804
25	0x3f820fa6	1.0161026
26	0x3f83f745	1.0309836
27	0x3f80f33c	1.0074229
28	0x3f83f03c	1.0307689
29	0x3f83a1a2	1.0283701
30	0x3f845a8f	1.0340136
31	0x3f800672	1.0001967
32	0x3f83ad50	1.0287266
33	0x3f7d2f67	0.98900455
34	0x3f7ccdc9	0.98751503
35	0x3f818f69	1.012189
36	0x3f84d0df	1.0376242
37	0x3f82db8a	1.0223248
38	0x3f7fc95a	0.99916613
39	0x3f8190b3	1.0122284
40	0x3f819536	1.012366
41	0x3f839163	1.0278744
42	0x3f818955	1.0120035
43	0x3f851dd1	1.0399724
44	0x3f7f7e33	0.9980194
45	0x3f81efec	1.0151343
46	0x3f8031d2	1.0015204
47	0x3f7cef1e	0.98802364
48	0x3f8664f4	1.0499558
49	0x3f7e856b	0.9942233
50	0x3f7a95e2	0.97884953
51	0x3f7e2c91	0.9928675
52	0x3f7b56df	0.9817943
53	0x3f81f8c5	1.0154043
54	0x3f7f098b	0.99623936
55	0x3f7fe0a3	0.99952143
56	0x3f8077c4	1.003655
57	0x3f81e95e	1.0149343
58	0x3f80397b	1.0017542
59	0x3f85c783	1.0451511
60	0x3f7e09b2	0.99233544
61	0x3f811768	1.0085268
62	0x3f84accd	1.0365235
63	0x3f844080	1.0332184
64	0x3f792ea3	0.97336787
65	0x3f80930d	1.0044876
66	0x3f7c17fa	0.98474085
67	0x3f829878	1.020278
68	0x3f7fe9f7	0.9996638
69	0x3f89290f	1.0715655
70	0x3f7fec80	0.99970245
71	0x3f79840b	0.97467107
72	0x3f836d40	1.0267715
73	0x3f841e71	1.032179
74	0x3f80fd85	1.0077368
75	0x3f7ff158	0.99977636
76	0x3f80ad86	1.0052955
77	0x3f8469ad	1.034475
78	0x3f82bd31	1.0213987
79	0x3f81bb71	1.0135328
80	0x3f81f94b	1.0154203
81	0x3f7e9bb7	0.9945635
82	0x3f801c32	1.0008605
83	0x3f7d91c9	0.99050575
84	0x3f80e841	1.0070878
85	0x3f80881c	1.0041537
86	0x3f814911	1.0100423
87	0x3f83c288	1.0293741
88	0x3f841991	1.0320302
89	0x3f808b1f	1.0042456
90	0x3f82438c	1.0176864
91	0x3f846249	1.0342494
92	0x3f817752	1.0114539
93	0x3f8037d0	1.0017033
94	0x3f82863a	1.0197213
95	0x3f82ce4b	1.0219206
96	0x3f812fca	1.0092709
97	0x3f81e26b	1.0147222
98	0x3f80cda0	1.0062752
99	0x3f83af27	1.0287827
100	0x3f7f8512	0.99812424
101	0x3f7f902c	0.99829364
102	0x3f8113d2	1.0084174
103	0x3f83191e	1.024204
104	0x3f8286a4	1.0197339
105	0x3f83d731	1.0300046
106	0x3f7d9215	0.9905103
107	0x3f83f28d	1.0308396
108	0x3f83053b	1.0235971
109	0x3f841f3a	1.032203
110	0x3f80ec37	1.0072087
111	0x3f83899c	1.027637
112	0x3f7da0f5	0.99073726
113	0x3f82ad4f	1.020914
114	0x3f846aca	1.034509
115	0x3f857589	1.0426494
116	0x3f85c264	1.0449948
117	0x3f7ddcb2	0.9916488
118	0x3f7ecc67	0.99530643
119	0x3f7ea0fa	0.9946438
120	0x3f7e6ccc	0.9938476
121	0x3f7a8c9f	0.9787082
122	0x3f833df7	1.0253285
123	0x3f7d82df	0.9902782
124	0x3f80709a	1.0034363
125	0x3f800f52	1.0004675
126	0x3f828eec	1.0199866
127	0x3f83727f	1.0269316
128	0x3f7db787	0.99108166
129	0x3f803d86	1.0018775
130	0x3f7cd6e5	0.98765403
131	0x3f7d151e	0.9886035
132	0x3f801c1d	1.000858
133	0x3f81aa54	1.0130105
134	0x3f813cc1	1.0096666
135	0x3f8323c0	1.0245285
136	0x3f8337bf	1.0251387
137	0x3f7b786a	0.9823061
138	0x3f814a53	1.0100807
139	0x3f7b8fb6	0.9826616
140	0x3f842e9d	1.0326725
141	0x3f80b96f	1.005659
142	0x3f800ee5	1.0004545
143	0x3f807c2e	1.0037897
144	0x3f852c37	1.0404118
145	0x3f80bc80	1.0057526
146	0x3f810cc0	1.0082016
147	0x3f82f0b2	1.0229704
148	0x3f82216e	1.0166452
149	0x3f81945c	1.0123401
150	0x3f840003	1.0312504
151	0x3f7d6e71	0.98996645
152	0x3f813a94	1.0096002
153	0x3f7d83ff	0.99029535
154	0x3f8315ae	1.0240991
155	0x3f7dc9ca	0.9913603
156	0x3f7f33ec	0.996886
157	0x3f825181	1.0181123
158	0x3f7bc02a	0.98340094
159	0x3f80e107	1.0068673
160	0x3f7c95da	0.98666155
161	0x3f831f82	1.024399
162	0x3f7c698c	0.9859855
163	0x3f8124fb	1.008941
164	0x3f81940d	1.0123307
165	0x3f7ec9cb	0.9952666
166	0x3f89b51b	1.0758394
167	0x3f7c575a	0.9857079
168	0x3f82c112	1.021517
169	0x3f7f8c4a	0.9982344
170	0x3f8453a6	1.0338027
171	0x3f7cf25c	0.9880731
172	0x3f809444	1.0045247
173	0x3f8140c2	1.0097888
174	0x3f81708b	1.011247
175	0x3f80b50b	1.005525
176	0x3f7c551b	0.9856736
177	0x3f81d0ce	1.0141847
178	0x3f7da46d	0.9907902
179	0x3f814fb0	1.0102444
180	0x3f819968	1.0124941
181	0x3f81c43b	1.013801
182	0x3f8209cd	1.0159241
183	0x3f7cb660	0.9871578
184	0x3f829a51	1.0203344
185	0x3f82570d	1.0182816
186	0x3f7f55b3	0.9974014
187	0x3f7cb979	0.9872051
188	0x3f81cedd	1.0141255
189	0x3f805b23	1.0027813
190	0x3f810ade	1.0081441
191	0x3f7f4388	0.9971242
192	0x3f803bba	1.0018227
193	0x3f8195b2	1.0123808
194	0x3f808876	1.0041645
195	0x3f833760	1.0251274
196	0x3f878087	1.0586098
197	0x3f813473	1.0094131
198	0x3f856561	1.0421563
199	0x3f8139d5	1.0095774
200	0x3f8049ba	1.00225
201	0x3f823c2e	1.0174615
202	0x3f830ed4	1.02389
203	0x3f7b6c0c	0.9821174
204	0x3f82fbc7	1.0233086
205	0x3f7dbcfa	0.9911648
206	0x3f7bc5c7	0.9834866
207	0x3f7dbeb5	0.9911912
208	0x3f7e4b31	0.99333483
209	0x3f827a5d	1.0193592
210	0x3f85208a	1.0400555
211	0x3f806cd1	1.0033208
212	0x3f813ca3	1.009663
213	0x3f7ff4fe	0.99983203
214	0x3f8418e8	1.0320101
215	0x3f7f89ee	0.9981984
216	0x3f81fa4e	1.0154512
217	0x3f824cb8	1.0179663
218	0x3f821608	1.0162973
219	0x3f7e2dff	0.99288934
220	0x3f83aa7e	1.0286405
221	0x3f7b261a	0.98105013
222	0x3f7ea040	0.9946327
223	0x3f81af3e	1.0131605
224	0x3f81f99d	1.0154301
225	0x3f7e2810	0.9927988
226	0x3f807886	1.0036781
227	0x3f7fb4fa	0.99885523
228	0x3f815a02	1.0105593
229	0x3f867e98	1.0507383
230	0x3f7f0608	0.9961858
231	0x3f8396d1	1.02804
232	0x3f877ab4	1.0584321
233	0x3f7b7a41	0.9823342
234	0x3f802403	1.001099
235	0x3f82cba6	1.0218399
236	0x3f8664be	1.0499494
237	0x3f846e32	1.0346129
238	0x3f803a90	1.0017872
239	0x3f77ead1	0.96842676
240	0x3f7a6094	0.97803617
241	0x3f7b3e73	0.98142165
242	0x3f80cbfa	1.0062249
243	0x3f85bcbf	1.0448226
244	0x3f7e829a	0.9941803
245	0x3f7c2e72	0.9850837
246	0x3f7d2e9c	0.98899245
247	0x3f7f062a	0.9961878
248	0x3f834ec5	1.0258414
249	0x3f816cd1	1.0111333
250	0x3f7f2872	0.9967109
251	0x3f8179f4	1.0115342
252	0x3f7faff0	0.99877834
253	0x3f805d4d	1.0028473
254	0x3f84de7e	1.0380399
255	0x3f873ede	1.056606

BN1.bias f4 [256]
0	0x3d225557	0.039632168
1	0xbd316292	-0.043306895
2	0xbc374ce0	-0.011187762
3	0x3db620cf	0.088929765
4	0x3d497e66	0.04919281
5	0xbd7019aa	-0.058618225
6	0xbc2c5481	-0.010518194
7	0xbd3db87a	-0.04631851
8	0xbc5dce8c	-0.013538014
9	0xbcc04007	-0.02346803
10	0x3cf91829	0.030407028
11	0xbb859070	-0.004076056
12	0x3cdede63	0.027205652
13	0xbda59204	-0.08084491
14	0xbd90d909	-0.07072646
15	0xbca5d151	-0.020241411
16	0xbc175bb8	-0.009238176
17	0xbb2614d7	-0.0025342011
18	0xbca92073	-0.020645356
19	0xbc680121	-0.014160425
20	0x3c98f673	0.018672204
21	0x3ccb5f1c	0.024825625
22	0xbded90ec	-0.11599907
23	0xbce0caa3	-0.027440375
24	0x3c5ee3c4	0.013604108
25	0xbd3d3f40	-0.046202898
26	0xbcc7bb7a	-0.024381388
27	0x3c0bd066	0.008533573
28	0xbd2a7468	-0.04161492
29	0xbd8f78cc	-0.07005462
30	0xbdb4eb55	-0.088339485
31	0xbbd26bbd	-0.006421535
32	0xbd857ede	-0.065183386
33	0x3d9af2fa	0.07565875
34	0xbd35c2a0	-0.044375062
35	0x3cf0772e	0.029353704
36	0xbcba258e	-0.022722986
37	0xbd0c540c	-0.03425984
38	0xbca769d4	-0.020436205
39	0xbc87bda3	-0.016569918
40	0xbc88640c	-0.016649269
41	0xbdc7ce6a	-0.09756167
42	0xbd77cdb2	-0.0604989
43	0xbdbfd837	-0.093674116
44	0x3c2a8519	0.0104077095
45	0xbbc62194	-0.0060464833
46	0xbdcdd531	-0.10050429
47	0xbc7d4205	-0.015457635
48	0xbd5d4b21	-0.054026727
49	0xbd133b72	-0.035945363
50	0x3d578498	0.052616686
51	0x3c784ff4	0.015155781
52	0x3d50e68f	0.051001128
53	0xbd873fb2	-0.06603946
54	0x3d2a8639	0.04163191
55	0xbcec95e8	-0.028880075
56	0xbd052821	-0.032508973
57	0xbc9d314a	-0.019188542
58	0x3c537894	0.012907166
59	0xbda84a34	-0.08217278
60	0x3c8c6b84	0.017141111
61	0xbd397340	-0.045275927
62	0xbd03d5ce	-0.032186322
63	0xbd7e3465	-0.062061686
64	0x3c07b8c5	0.008283799
65	0x3b34db4e	0.0027596536
66	0x3c8d80e6	0.017273378
67	0xbd2fd944	-0.04293181
68	0x3b2c691f	0.0026307774
69	0xbcbbfac0	-0.022946715
70	0x3d5bf1bd	0.053697336
71	0x3d4029fa	0.046915032
72	0xbcd98fc1	-0.026557805
73	0x3b1f1b5e	0.0024277787
74	0x3a6b1c65	0.00089687697
75	0x3c0c49ea	0.008562544
76	0xbd14e6bb	-0.036352854
77	0xbddeb649	-0.10874612
78	0xbd9b6f16	-0.07589547
79	0xbd01b136	-0.031663142
80	0xbcc6b29f	-0.024255095
81	0x3d2cdd69	0.04220334
82	0xbd17d032	-0.037063785
83	0xbd648218	-0.05578813
84	0xbb9c1136	-0.004762794
85	0x3d77b3f5	0.060474355
86	0x3adcc1d0	0.0016842429
87	0xbc54a12b	-0.012977879
88	0xbd4a7767	-0.049430277
89	0xbcd966af	-0.026538221
90	0xbc47dd2a	-0.012198726
91	0xbdbfea64	-0.09370878
92	0xbd1a4c93	-0.037670683
93	0xbd84bafc	-0.06480977
94	0xbcfac678	-0.030612215
95	0xbe22e26e	-0.15906689
96	0x3d2e414c	0.04254274
97	0xbc51d85e	-0.012807934
98	0x3d39b351	0.045337025
99	0xbe3f0f07	-0.18658076
100	0xbd955c4a	-0.07292993
101	0x3cdf88ff	0.027287005
102	0xbda1ce75	-0.07900707
103	0xbd4d95b5	-0.0501916
104	0xbd06dd9d	-0.03292619
105	0xbd4b909f	-0.04969847
106	0xbc7b7f94	-0.015350241
107	0xbb93be65	-0.004508781
108	0xbcd14c32	-0.025549028
109	0xbda2d0d4	-0.07949987
110	0xbd4cfa98	-0.050043672
111	0xbdadeff0	-0.0849303
112	0xbd369281	-0.04457331
113	0x3be718cc	0.0070525166
114	0xbd10642e	-0.03525179
115	0xbdbfd3f7	-0.09366601
116	0xbca46ed9	-0.020072388
117	0xbb5c2e86	-0.0033597066
118	0xbd8ae3ed	-0.06781755
119	0x3de74057	0.11291569
120	0x3d4f53a9	0.050616894
121	0xbc7f5ada	-0.015585626
122	0xbdd72e2f	-0.10506856
123	0x3c4232d3	0.011852938
124	0xbac18935	-0.0014765622
125	0x3d1719bf	0.036889788
126	0xbd4475d2	-0.047963925
127	0xbdc7ee09	-0.097621985
128	0xba912914	-0.0011074864
129	0xbcaee54f	-0.021349577
130	0xb966a2a6	-0.000219951
131	0x3d4a0e01	0.04932976
132	0x3d04cc06	0.032421134
133	0xbd786cb0	-0.060650527
134	0x3a944ad4	0.0011313804
135	0xbd91a5c2	-0.07111694
136	0xbd727554	-0.059193924
137	0xbcb1bbe8	-0.021696046
138	0xbd8e0d29	-0.06936104
139	0x3d131172	0.03590531
140	0xbdbf859c	-0.09351656
141	0x3c9cc913	0.019138848
142	0xbd2c42b8	-0.042055815
143	0xbdb81fbf	-0.0899043
144	0xbc35aee4	-0.01108906
145	0xbd28d3ad	-0.041217495
146	0x38e55b8c	0.00010936623
147	0xbd83f070	-0.06442344
148	0xbd604740	-0.05475545
149	0xbc8ed00d	-0.01743319
150	0xbd90577f	-0.070479386
151	0xbcac36a7	-0.021022154
152	0xbaee9328	-0.0018201815
153	0x3d09c76c	0.03363745
154	0xbdaacb19	-0.08339519
155	0xb988255e	-0.00025967782
156	0xbc21638e	-0.009850396
157	0xbd145b94	-0.03622015
158	0xbcf411fa	-0.029793728
159	0xbd4b974e	-0.049704842
160	0xbcae5876	-0.021282416
161	0xbd73b4b6	-0.05949851
162	0x3d2d798e	0.04235225
163	0x3cacb9be	0.021084663
164	0xbd56f4c2	-0.052479513
165	0xbda910db	-0.08255168
166	0xbdcdbb83	-0.10045531
167	0xbce73c95	-0.02822713
168	0x3cc16df7	0.023612006
169	0xbd41ea4a	-0.047342576
170	0x3d0ec9a3	0.034860265
171	0xbc2a8975	-0.010408749
172	0xbce95e22	-0.028487269
173	0xbd26554b	-0.040608685
174	0xbcb4e666	-0.022082519
175	0x3d1637ac	0.036674187
176	0x3cce95e8	0.025217965
177	0xbdea629d	-0.1144459
178	0x3c992f4f	0.018699316
179	0x3cc516f1	0.02405879
180	0x3a85a96c	0.0010197586
181	0xbcf126dd	-0.029437477
182	0xbdc1ae44	-0.09457067
183	0x3d988335	0.07446901
184	0xbc464665	-0.012101744
185	0xbd0f4556	-0.034978233
186	0x3b9d1191	0.004793354
187	0x3c065d45	0.008200948
188	0xbd28ba7d	-0.041193474
189	0x3c560d64	0.013064716
190	0x3cc2e9e2	0.023793165
191	0xbcbb6af0	-0.02287814
192	0xbd26a851	-0.040687863
193	0x3cc2b9d2	0.023770247
194	0xbb5a7247	-0.0033332275
195	0xbd2297cf	-0.039695557
196	0xbdba105b	-0.09085151
197	0xbe2df81c	-0.16989177
198	0xbe088e02	-0.13335422
199	0xbd0fe71d	-0.035132516
200	0x3c450c74	0.012026895
201	0xbdf478d3	-0.11937108
202	0xbd54086f	-0.051765855
203	0x3cbaaacc	0.02278652
204	0xbd94e3f8	-0.07270044
205	0xbc7deee5	-0.015498851
206	0x3c97e409	0.018541353
207	0xbc965e12	-0.018355403
208	0xbbc9a57e	-0.0061537614
209	0x3c7cadae	0.015422268
210	0xbdc1182f	-0.09428441
211	0xbcd20539	-0.025637256
212	0xbd6e5bba	-0.058192946
213	0xbd52bfd0	-0.051452458
214	0xbdd4d70b	-0.10392579
215	0xbc3a02a9	-0.011353173
216	0xbcd6509f	-0.02616149
217	0xbd6ca2fe	-0.05777263
218	0xbdbb0f08	-0.09133726
219	0x3ce4740a	0.027887363
220	0xbd4e4366	-0.050357245
221	0xbc6ea535	-0.014565756
222	0x3d1f474f	0.038886365
223	0xbda6dee1	-0.081479795
224	0xbdab11cd	-0.083530046
225	0x3d1cb64a	0.038259782
226	0xbd3d23d5	-0.04617675
227	0xbc931cdd	-0.017958099
228	0xbcbaeb97	-0.022817416
229	0xbdacbce0	-0.084344625
230	0xbd6fea71	-0.05857319
231	0xbd5c1185	-0.053727645
232	0xbc16c0b5	-0.009201218
233	0x3d4b295f	0.0496
234	0xbae014d8	-0.0017096056
235	0xbd80da0f	-0.062915914
236	0xbca005d6	-0.019534033
237	0xbd4112eb	-0.047137182
238	0xbd0c8347	-0.034304883
239	0x3c517af2	0.01278566
240	0x3d640041	0.055664305
241	0x3d19b46c	0.03752558
242	0xbda5d26b	-0.08096775
243	0xbccbaf22	-0.024863783
244	0xbcf17f48	-0.029479638
245	0xbd06927c	-0.032854542
246	0xbd0e1852	-0.034691162
247	0xbd3a649d	-0.04550611
248	0xbdd288d8	-0.10280007
249	0xbdad5c49	-0.084648676
250	0x3ccdc86f	0.025119988
251	0x3b8448e8	0.0040370114
252	0xbd6c0e15	-0.057630617
253	0xbd5d0968	-0.05396405
254	0xbd8469c3	-0.06465485
255	0xbd30a9b2	-0.043130584

BN1.running_mean f4 [256]
0	0xc1195a5d	-9.584561
1	0x409335ed	4.6003327
2	0x40c5eb59	6.184979
3	0x40f66d52	7.700845
4	0xc0dce4d0	-6.902931
5	0x4102e09d	8.179837
6	0x41c222d0	24.266998
7	0x415ba7ec	13.728497
8	0x410b8804	8.720707
9	0xc04b7dd5	-3.1795552
10	0x409e5c84	4.9487934
11	0x419d9a7b	19.70043
12	0x41084abd	8.518247
13	0xc0906a36	-4.512965
14	0xc03dec7f	-2.9675596
15	0x3fa8a459	1.3175155
16	0x4175995e	15.349943
17	0xc141e1f9	-12.117669
18	0x4145552d	12.333295
19	0x414dc140	12.85968
20	0xc032bfde	-2.7929606
21	0x4155330c	13.324963
22	0x40161d49	2.3455374
23	0x40a6cd4a	5.2125597
24	0xc000c81a	-2.0122132
25	0x3e8ccdf2	0.27500874
26	0xc101325e	-8.074797
27	0x40b8099a	5.751172
28	0xc083939d	-4.111769
29	0xbfd88068	-1.6914186
30	0x40b4048e	5.625556
31	0xc0a00aa5	-5.0012994
32	0x40efc09b	7.4922614
33	0xbf574827	-0.8409447
34	0x40c0cbce	6.0248785
35	0xc10353fe	-8.208006
36	0xc10aebf7	-8.682609
37	0x4066eb72	3.6081204
38	0x40324200	2.7852783
39	0xc05a6b21	-3.4127886
40	0x4150a0da	13.03927
41	0x41828841	16.31653
42	0x40b43140	5.631012
43	0x3fefba27	1.8728684
44	0xc0e72ef8	-7.2244835
45	0x40584cad	3.37968
46	0x4125e9d5	10.369588
47	0x3f9537ca	1.165765
48	0xc0ff7086	-7.982486
49	0xc0bc4b16	-5.884166
50	0xc0ceaa42	-6.4582834
51	0xc0f5cc6c	-7.681204
52	0x40a029e6	5.0051146
53	0xc164d8ca	-14.302927
54	0x407739c6	3.8629012
55	0x404557a4	3.0834742
56	0xc001523a	-2.0206437
57	0x40bee8d2	5.9659204
58	0xc11164ee	-9.087141
59	0x40c10114	6.0313816
60	0x4002eef9	2.0458357
61	0xc1810ef7	-16.132307
62	0x400e0ec0	2.2196503
63	0xc0955f23	-4.6678634
64	0xbfd8ab0f	-1.6927203
65	0xbfc7b6f2	-1.5602705
66	0x41618473	14.094836
67	0x408c97a3	4.3935103
68	0xc12955cd	-10.583447
69	0x3ef31772	0.47478825
70	0xc022d39e	-2.544166
71	0xc0e9c425	-7.3051934
72	0xc0034cea	-2.0515695
73	0x412e1540	10.880188
74	0xc1575644	-13.458561
75	0x40ee54c1	7.447846
76	0x40fdc0f4	7.929804
77	0xc0e12f37	-7.0370135
78	0x40fa0dcf	7.8141856
79	0xc08510ff	-4.1583247
80	0x3fbf69b5	1.4954134
81	0xb9f2edc4	-0.00046334986
82	0x40ca1ce6	6.3160276
83	0x413c8f38	11.7849655
84	0xc091e4d8	-4.559185
85	0x3d5a738a	0.053332843
86	0xc126ddcc	-10.42915
87	0x4051b76c	3.2768202
88	0xbf5f46f8	-0.87217665
89	0x4060d6c8	3.5131092
90	0x408d2107	4.4102817
91	0x4120231d	10.008573
92	0x3fbf0af4	1.4925218
93	0xc1069337	-8.410941
94	0x3c39c6c5	0.011338894
95	0x4089ea14	4.309824
96	0x408f0520	4.4693756
97	0xbf43f181	-0.7654038
98	0xc13e93cb	-11.911082
99	0xc0ce7355	-6.4515786
100	0x40b8134f	5.752357
101	0xc02a5fc1	-2.6620944
102	0x40a7b654	5.241007
103	0x409a278a	4.8173265
104	0x41825b07	16.294447
105	0xbf923e44	-1.1425252
106	0xc0f47120	-7.638809
107	0xc0e067b1	-7.0126576
108	0xbfcdd732	-1.6081297
109	0x4104c457	8.297935
110	0xc14663ee	-12.399397
111	0xc0eed4ed	-7.463492
112	0x410aeb0f	8.682387
113	0xc167be34	-14.483936
114	0x400a9c1f	2.1657789
115	0x41066c6d	8.401471
116	0xc1208a25	-10.033727
117	0xc14f60a9	-12.961099
118	0x3fe47adf	1.7849997
119	0xc11b132d	-9.692182
120	0xc10fc784	-8.98621
121	0xc178b3b8	-15.543877
122	0x40ad078c	5.4071712
123	0xc0b86c0c	-5.7631893
124	0x3ede5aee	0.4342875
125	0xc0d9a992	-6.8019495
126	0xc0b134c4	-5.537691
127	0xbf2e13de	-0.67999065
128	0xc09816ed	-4.7527986
129	0xc12be8a5	-10.744298
130	0x3e5b3463	0.21406703
131	0xc12faa9c	-10.979153
132	0xbeba0204	-0.36329663
133	0xc002d2af	-2.044109
134	0x3f40086d	0.75012857
135	0x412c5219	10.770043
136	0xbd0fe452	-0.035129853
137	0xbf8da4ac	-1.1065879
138	0x404ecb6f	3.2311666
139	0x41733edd	15.2028475
140	0xc0b18cd6	-5.548442
141	0xc112f9e1	-9.186006
142	0x40b4f3ed	5.654776
143	0x41239d6f	10.225936
144	0x3ef0da14	0.4704138
145	0x3e99dd7c	0.30051792
146	0xc1255f30	-10.335739
147	0x3f98fa1c	1.1951327
148	0xc03a3d34	-2.9099855
149	0x3eece2db	0.46266827
150	0xbf8a30f5	-1.079619
151	0xc02e4e86	-2.7235427
152	0xc0f97c8b	-7.796453
153	0x410b0145	8.68781
154	0xbfd7cbd3	-1.6859077
155	0xc0d9ad40	-6.8023987
156	0xc056aafb	-3.3541858
157	0xc18576eb	-16.683065
158	0xc14970be	-12.590025
159	0x41147a95	9.279927
160	0xc050de70	-3.2635765
161	0xbeb2c92e	-0.34919113
162	0xc12a292e	-10.635054
163	0x4111e410	9.118179
164	0xc1463994	-12.389057
165	0xc122d024	-10.175816
166	0xbef60c88	-0.48056436
167	0x418c71d1	17.555574
168	0xc1917a71	-18.184786
169	0xbffa3d10	-1.9549885
170	0xbe4534b5	-0.19258387
171	0x41493592	12.575579
172	0x41741863	15.255954
173	0x3fcd7835	1.6052309
174	0xbf9bfdc1	-1.2186815
175	0xc07f1c13	-3.9860885
176	0xbfe1cd4c	-1.7640777
177	0x412320d3	10.195514
178	0x40c9ceff	6.306518
179	0xc17a9902	-15.662355
180	0xc1077a03	-8.467288
181	0xbf728c6f	-0.94745535
182	0x413ebe68	11.921486
183	0x416cea8b	14.807261
184	0x40037efa	2.054625
185	0xc11c8f20	-9.784943
186	0x40ea4b5a	7.321698
187	0x4090e281	4.5276494
188	0x3ec637ae	0.38714355
189	0x406269d2	3.5377088
190	0x40ee57f5	7.448237
191	0xc0a3a9e4	-5.1144886
192	0xc1162542	-9.384096
193	0x408aa897	4.33308
194	0x3fdc0fee	1.7192361
195	0xc10c05aa	-8.751383
196	0x3f9b0bc2	1.2112963
197	0xc12f783c	-10.966854
198	0x418a92b0	17.321625
199	0xc08320e1	-4.0977635
200	0xc145278e	-12.322157
201	0xc11d35ad	-9.825604
202	0x3fdc1513	1.7193931
203	0xc09fc33a	-4.9925814
204	0xc10fc58c	-8.985729
205	0x4158f197	13.558982
206	0x415e5a38	13.897026
207	0xc13d3915	-11.826436
208	0x4099eccc	4.810156
209	0xbf46673a	-0.7750126
210	0xc135d3b3	-11.364184
211	0x405b7fb8	3.4296703
212	0x408771ea	4.2326555
213	0xc0e3d2e9	-7.119496
214	0xbf846b20	-1.0345192
215	0x3ff1ce16	1.8891017
216	0x403e0df0	2.9696007
217	0xc05f4a70	-3.4889183
218	0x3eb08ef0	0.34484053
219	0xc065169a	-3.5795045
220	0xc0c3afa0	-6.1151886
221	0xc15c149e	-13.7550335
222	0xc07e1c52	-3.9704785
223	0x3f0e69e1	0.5563031
224	0xc086ad51	-4.208657
225	0x3f6b7af7	0.91984504
226	0xbfcea9f1	-1.6145612
227	0xc123fc51	-10.249101
228	0x40864afb	4.196653
229	0xc1085d48	-8.522774
230	0x40c1ccea	6.056264
231	0x3f439ac5	0.76408035
232	0x4050ff94	3.2655993
233	0xc154aea1	-13.292634
234	0x3ff2865c	1.8947253
235	0x3e1bc4d9	0.1521181
236	0xc10960ff	-8.586181
237	0x4056e872	3.3579373
238	0xc057f633	-3.3744018
239	0x41ab15b1	21.385592
240	0xc0187563	-2.3821647
241	0x40cfee29	6.4978223
242	0xc038675b	-2.8813083
243	0x40ca9326	6.3304625
244	0x4087ecf3	4.2476745
245	0x3f6461ff	0.8921203
246	0xc0fa91b9	-7.8302884
247	0xc09c33d8	-4.8813286
248	0xc1a3f1c2	-20.493046
249	0x4098fc31	4.780785
250	0x418fde54	17.983559
251	0xc09bad0c	-4.864874
252	0xc10cb719	-8.794702
253	0xc0d0390f	-6.506965
254	0x40d37d78	6.609066
255	0xc0d39c41	-6.612824

BN1.running_var f4 [256]
0	0x426e32cc	59.549606
1	0x422ec791	43.69489
2	0x4305815f	133.50536
3	0x42bac67b	93.38766
4	0x432082a6	160.51035
5	0x434457d0	196.34302
6	0x43157464	149.45465
7	0x42ca3af0	101.11511
8	0x43089759	136.5912
9	0x430715d3	135.08525
10	0x4323141d	163.07857
11	0x4342aaa8	194.66663
12	0x42b304cd	89.50938
13	0x42b9bef9	92.87299
14	0x4272d25b	60.705425
15	0x431de514	157.89484
16	0x42dffe8d	111.99717
17	0x42b5c29d	90.880104
18	0x42778d84	61.8882
19	0x430e3a5a	142.22794
20	0x42e0a7b1	112.32752
21	0x423048fd	44.071278
22	0x41cfad4f	25.959623
23	0x42826d1e	65.21312
24	0x4239f801	46.49219
25	0x42c922df	100.56811
26	0x42693527	58.301907
27	0x428f9fd7	71.81219
28	0x42497d25	50.37221
29	0x4353c2f3	211.76152
30	0x4281f0f5	64.97062
31	0x42f1684c	120.703705
32	0x42ba063b	93.01217
33	0x42b678fc	91.2363
34	0x42dd2023	110.56277
35	0x4234bc7c	45.184067
36	0x4259368a	54.30326
37	0x42bb3ce3	93.61892
38	0x43024a58	130.2904
39	0x423f4d3d	47.825428
40	0x43786548	248.39563
41	0x4271c73e	60.444572
42	0x428817bb	68.04635
43	0x4296f0e2	75.470474
44	0x4381b4e5	259.41324
45	0x42ef09c0	119.51904
46	0x42b201c0	89.00342
47	0x421fa708	39.913116
48	0x42cb45ea	101.63655
49	0x4294b7bd	74.358864
50	0x42f51072	122.53212
51	0x42bbd619	93.91816
52	0x4283d97d	65.92478
53	0x42e7b6a7	115.85674
54	0x42780942	62.00904
55	0x42cbf493	101.977684
56	0x42919240	72.785645
57	0x42c91c56	100.55534
58	0x427e35ab	63.55241
59	0x41cbdb0e	25.48196
60	0x4249d255	50.455402
61	0x42ad7ebb	86.74752
62	0x428be971	69.95594
63	0x42b8d91d	92.42405
64	0x43274fec	167.3122
65	0x424cda3f	51.21313
66	0x429cbbf0	78.367065
67	0x42a19f96	80.81169
68	0x431536c7	149.21397
69	0x42a6bc90	83.368286
70	0x42e4ffdd	114.49973
71	0x42705cab	60.090496
72	0x428fb62a	71.85579
73	0x42726b39	60.60471
74	0x42c1eb2c	96.95932
75	0x4229514c	42.32939
76	0x4295b460	74.852295
77	0x42338a41	44.885014
78	0x42b83383	92.10061
79	0x42211e50	40.279602
80	0x420f5a2c	35.83806
81	0x42ab96dd	85.794655
82	0x42815ae6	64.677536
83	0x4386f6fb	269.92953
84	0x42808a6a	64.27034
85	0x421ced20	39.231567
86	0x43012653	129.1497
87	0x423a2e3f	46.545162
88	0x426d5068	59.32852
89	0x42e36160	113.690186
90	0x42d60c5a	107.024124
91	0x425a4f6d	54.577564
92	0x426d8a48	59.38504
93	0x4270a233	60.158398
94	0x42a465b8	82.19867
95	0x4280e904	64.45511
96	0x42c77e05	99.74613
97	0x4239ce00	46.45117
98	0x42a96e52	84.71547
99	0x42eb2b74	117.58487
100	0x42f37e95	121.74723
101	0x430f0a03	143.03911
102	0x4225d083	41.453625
103	0x433aab78	186.6698
104	0x42887931	68.2367
105	0x4238d5fa	46.20896
106	0x42532bba	52.7927
107	0x429a8943	77.26809
108	0x4278b31e	62.17492
109	0x42b98007	92.75005
110	0x430ee7e2	142.90579
111	0x42ae7fe7	87.24981
112	0x426fae7f	59.920406
113	0x429a761c	77.23068
114	0x428a5fe7	69.18731
115	0x42397cc3	46.371838
116	0x423810ea	46.016518
117	0x42ae9283	87.286156
118	0x42a597e3	82.79665
119	0x4263533b	56.83128
120	0x42d14a56	104.64519
121	0x42ef3c8a	119.61824
122	0x42b3241a	89.57051
123	0x4313c74e	147.77853
124	0x4292c543	73.38528
125	0x431f6fa5	159.43611
126	0x42105ebd	36.092518
127	0x426c6533	59.098827
128	0x43002cea	128.17545
129	0x428f35d0	71.6051
130	0x42b1ed0e	88.963
131	0x42d55a8c	106.67685
132	0x4360e925	224.91072
133	0x42871f10	67.56067
134	0x43137fd8	147.49939
135	0x4295e4c7	74.94683
136	0x42b39218	89.78534
137	0x426fd498	59.95761
138	0x429d30b8	78.59515
139	0x42f08f27	120.279594
140	0x422b07d7	42.757656
141	0x42882eca	68.091385
142	0x42550c52	53.26203
143	0x430c4cfe	140.30075
144	0x41881447	17.009901
145	0x42d3c866	105.8914
146	0x42a41814	82.04703
147	0x43138d33	147.55156
148	0x42591376	54.269005
149	0x42883eae	68.12242
150	0x42933a43	73.61379
151	0x4327b85e	167.72018
152	0x4229ae81	42.420414
153	0x431ecfe3	158.81206
154	0x42143e44	37.060806
155	0x427a0c67	62.51211
156	0x4258aa66	54.166405
157	0x42adf19a	86.97188
158	0x42ab36b1	85.60682
159	0x42f0f0df	120.47045
160	0x41df2e24	27.89753
161	0x42f7678c	123.70224
162	0x42c3889b	97.76681
163	0x431a9b39	154.60634
164	0x429124d4	72.57193
165	0x42ec849b	118.258995
166	0x4222c5e7	40.693264
167	0x429acfb1	77.40565
168	0x4302d847	130.84483
169	0x427a2148	62.5325
170	0x4206d8d4	33.711746
171	0x42ce44f5	103.13468
172	0x429e8653	79.26235
173	0x42b83453	92.102196
174	0x4285578a	66.670975
175	0x422bddcd	42.966602
176	0x429791b9	75.784615
177	0x4260fb89	56.24564
178	0x430f64f2	143.39432
179	0x431680b2	150.50272
180	0x4259156f	54.27093
181	0x422525aa	41.28678
182	0x429db04a	78.844315
183	0x4271cfe2	60.45301
184	0x42261d1e	41.528435
185	0x42a4d57a	82.41695
186	0x42c82f83	100.0928
187	0x420def57	35.48373
188	0x422f9110	43.891663
189	0x427afca7	62.74673
190	0x42a65368	83.1629
191	0x428c776c	70.233246
192	0x431fb5af	159.7097
193	0x4287506e	67.65709
194	0x42a9a17b	84.81539
195	0x4311dbbb	145.85832
196	0x42321b29	44.526524
197	0x42849551	66.29163
198	0x4300efe7	128.93712
199	0x4246e832	49.726753
200	0x42a34019	81.62519
201	0x43227198	162.44373
202	0x423be4a3	46.973278
203	0x42a66d27	83.21319
204	0x42dd2812	110.57826
205	0x42ee59f1	119.17567
206	0x42d90fee	108.53111
207	0x426a6cf7	58.60641
208	0x42954b2f	74.64684
209	0x42b13447	88.602104
210	0x4265a521	57.41126
211	0x42b65eb6	91.18498
212	0x42d6dc1a	107.429886
213	0x428432a8	66.09894
214	0x4236b226	45.673973
215	0x42a88c2b	84.273766
216	0x42b1da6c	88.926605
217	0x42e24517	113.13494
218	0x422fdb1b	43.96397
219	0x4291eb0e	72.95909
220	0x42867b72	67.241104
221	0x42bf1061	95.53199
222	0x4372e8f7	242.91002
223	0x4238a6e0	46.162964
224	0x43079a58	135.6029
225	0x4272395c	60.556015
226	0x42855fe9	66.687325
227	0x42e18342	112.75636
228	0x433158af	177.34642
229	0x429ef5d9	79.48017
230	0x432ff721	175.96535
231	0x424b1b5d	50.776722
232	0x4279d5c1	62.458744
233	0x428cc933	70.39297
234	0x4290868f	72.26281
235	0x428b62dc	69.693085
236	0x42b96e5a	92.71553
237	0x421e010a	39.501015
238	0x42a27586	81.22954
239	0x430e62a4	142.38531
240	0x4285bc77	66.868095
241	0x4328bc86	168.73642
242	0x42cdca68	102.895325
243	0x423bae58	46.920258
244	0x42f93c0d	124.61729
245	0x42abdb9c	85.928925
246	0x42d2df19	105.43574
247	0x43311c4b	177.11052
248	0x4345b011	197.68776
249	0x4313d6d9	147.83925
250	0x4301ca04	129.78912
251	0x424e5af0	51.588806
252	0x42c0f71c	96.482635
253	0x42c54e6c	98.65317
254	0x422ba44c	42.910446
255	0x42ed75a0	118.72974

L2.weight f4 [128, 256]
0	0x3ca5729b	0.02019625
1	0xbceaaec0	-0.02864778
2	0x3c40932d	0.011753839
3	0x3bb6718c	0.005567735
4	0xbca1ee36	-0.019766908
5	0x3d4148d8	0.04718861
6	0xbb2c9b55	-0.0026337702
7	0x3cd2e306	0.025743019
8	0xbd23e5f8	-0.040014237
9	0xbc3320bc	-0.010933097
10	0xbd3b5a89	-0.045740638
11	0xbd704057	-0.05865511
12	0x3d322376	0.04349085
13	0x3d4f4377	0.05060145
14	0x3cb723d2	0.022355948
15	0x3ca0d067	0.019630624
16	0x3d1b5120	0.037919164
17	0x3a578e84	0.00082228356
18	0x3cfa13e9	0.030527072
19	0x3c269cda	0.010169232
20	0x3c840e77	0.016120179
21	0xbc17720f	-0.009243502
22	0x3b94f2ee	0.004545561
23	0x3d2eb20f	0.04265028
24	0x3c7babe5	0.015360807
25	0xbb861cf2	-0.004092806
26	0x3d5f8420	0.054569364
27	0xbd160fdc	-0.03663622
28	0xbd183dea	-0.03716842
29	0xbd04fd9f	-0.032468434
30	0xbc11856d	-0.008881909
31	0x3c9b6150	0.0189673
32	0x3d26e631	0.04074687
33	0x3d2f1d12	0.042752333
34	0xbbad4f9d	-0.0052890317
35	0x3d78182c	0.060569927
36	0x3d3d7421	0.046253327
37	0x3c2de195	0.010612865
38	0x3c9b8f3d	0.0189892
39	0xbc89a0e9	-0.01680036
40	0x3d8be64c	0.06831035
41	0x3aee4c25	0.0018180652
42	0x3bb38ab1	0.00547918
43	0x3c865381	0.01639724
44	0xbc248a79	-0.01004278
45	0x3c94e8e1	0.018177452
46	0xbd6602a4	-0.056154862
47	0x3a8f56b6	0.0010935876
48	0x3cf80092	0.03027371
49	0xbcffa2c0	-0.031205535
50	0x39bb8c7f	0.00035772097
51	0xbd0cb3e1	-0.034351233
52	0xbd6fcb18	-0.058543295
53	0x3d4621ca	0.048372068
54	0x3d077746	0.033072732
55	0x3d8ee9a4	0.06978157
56	0x3c310cec	0.0108063035
57	0xbc42fbd3	-0.01190086
58	0x3d4c89a9	0.04993597
59	0x3cf0e6b5	0.029406885
60	0x3c3108a9	0.010805287
61	0xbd2ce567	-0.042210963
62	0x3d7fad06	0.062420867
63	0x3d05b085	0.032639045
64	0x3c927b6d	0.01788112
65	0x3d900666	0.070324704
66	0x3d1b9432	0.037983127
67	0x3d4b1404	0.049579635
68	0xbd494bdc	-0.04914461
69	0x3db05752	0.08610405
70	0xbd1df306	-0.038561843
71	0x3cfe483f	0.031040309
72	0xbd6161f3	-0.055025052
73	0xbd260b21	-0.040537957
74	0x3b70f59d	0.003676749
75	0xbccf1ee8	-0.025283292
76	0x3d8a8880	0.067643166
77	0x3d88465b	0.06654044
78	0xbc83295b	-0.01601093
79	0xbd699aba	-0.057032324
80	0x3d412816	0.04715737
81	0xbce162c5	-0.027512917
82	0x3d50248a	0.050816096
83	0xbc44c17f	-0.012009024
84	0x3ba1cec3	0.004937978
85	0x3ce2b93f	0.027676223
86	0xbbd9f9e6	-0.0066521047
87	0x3c369bc8	0.01114554
88	0xbc1dd10b	-0.009632359
89	0x3d4de763	0.050269496
90	0x3c76b694	0.015058178
91	0xbd667616	-0.05626496
92	0xbcc3e8fc	-0.023914807
93	0xbd66e6ba	-0.05637238
94	0x3d360c6a	0.044445433
95	0x3cab14ba	0.020883907
96	0x3bf760d1	0.007549383
97	0x3c0f04a1	0.008729131
98	0xbd177bc9	-0.036983285
99	0xbc57aa28	-0.013163127
100	0x3d65095c	0.05591713
101	0xbd4e4f65	-0.050368685
102	0xbd601271	-0.054705087
103	0x3d8543e0	0.06507087
104	0xbbbb1ee2	-0.0057104686
105	0x3d8215d3	0.06351819
106	0x3c156894	0.009119172
107	0x3c969e1d	0.018385941
108	0x3cad62c2	0.021165255
109	0xbd64593c	-0.055749163
110	0x3d8221b2	0.06354083
111	0x3d6f9999	0.05849609
112	0x3c2770a6	0.010219729
113	0xbd3694b7	-0.04457542
114	0xbd849ecf	-0.06475603
115	0xbd81d427	-0.06339293
116	0x3d6d95ba	0.05800412
117	0xbd5a7aaa	-0.053339638
118	0xbbafd938	-0.0053664707
119	0x3c9557ef	0.018230407
120	0xbd1595f8	-0.036519974
121	0xbd3d3bc0	-0.04619956
122	0x3d690e0c	0.05689816
123	0x3cff176c	0.031139098
124	0xbd55f139	-0.052232
125	0x3ccf2d45	0.02529014
126	0x3d00b163	0.03141917
127	0xbba29a76	-0.004962261
128	0xbd232d14	-0.03983791
129	0x3d0d1ca2	0.034451135
130	0xbbba6166	-0.0056878803
131	0xbd13b779	-0.036063645
132	0x3c15051b	0.0090954555
133	0xbc8a9d63	-0.016920751
134	0x3ce8097b	0.028324833
135	0xbcb5ccab	-0.02219232
136	0xbc91f62c	-0.01781758
137	0xbaf70c68	-0.0018848302
138	0x3d462b37	0.048381057
139	0x3d0183ca	0.031619824
140	0x3b778965	0.0037771103
141	0xbd2d97d1	-0.04238111
142	0x3cd77bf1	0.026304217
143	0xbd382616	-0.044958197
144	0xbd60b99f	-0.054864522
145	0x3c6ae6c5	0.014337246
146	0xbca2721e	-0.019829806
147	0x3d355fa1	0.044280652
148	0x3bfd5bac	0.0077318754
149	0x3b1d2390	0.0023977496
150	0x39ae61b4	0.0003326066
151	0xbd1ab034	-0.037765697
152	0xbcf34458	-0.029695675
153	0x3d6a5804	0.057212844
154	0xbc7120ee	-0.014717324
155	0xbd0f761e	-0.035024755
156	0x3d406ebb	0.0469806
157	0x3bd5663e	0.0065124324
158	0xbb5306b2	-0.0032200036
159	0x3cbf9a08	0.023388878
160	0xbb2c1f9a	-0.0026263953
161	0xbc43ec9e	-0.011958269
162	0x3cdc4c04	0.026891716
163	0x3c429421	0.011876137
164	0x3d3cf568	0.046132475
165	0xbc61abcc	-0.01377387
166	0x3d118c56	0.035534225
167	0x3c377d60	0.011199325
168	0xbd165077	-0.03669783
169	0x3cd9099f	0.026493846
170	0x3ceef5fa	0.029170025
171	0xba9921a0	-0.0011682995
172	0x3cee9034	0.029121496
173	0x3bb192d6	0.0054191155
174	0xbd4c028d	-0.04980712
175	0xbd48ed9c	-0.049054727
176	0x3cb5d117	0.022194428
177	0x3d1738fe	0.036919586
178	0xbd6c8311	-0.057742182
179	0xbd62c49b	-0.05536328
180	0x3cc03ff9	0.023468005
181	0xbd0f0c0a	-0.03492359
182	0xbca85652	-0.020548973
183	0xbc79893d	-0.015230474
184	0x3d814aef	0.063131206
185	0xbbc25e0c	-0.0059316214
186	0x3d56b102	0.0524149
187	0xbca46bf1	-0.020071002
188	0xbd80025f	-0.06250452
189	0x3d93a1f3	0.07208624
190	0xbc601121	-0.013675959
191	0xbc530b64	-0.012881134
192	0xbd24d871	-0.040245477
193	0x3d4472f8	0.047961205
194	0xba7fbe6e	-0.0009755854
195	0x3d90a3f1	0.07062519
196	0x3ce3c637	0.027804477
197	0xbd4d09e1	-0.05005825
198	0xbb4d9bdc	-0.0031373417
199	0x3d82b3e5	0.063819684
200	0x3c153323	0.00910643
201	0xbc54312f	-0.012951179
202	0x3b1f9868	0.0024352316
203	0xbd5460cd	-0.05185013
204	0x39acbde4	0.00032947876
205	0xbcbfa47d	-0.023393864
206	0xbc0485e1	-0.00808856
207	0xbd32cbb7	-0.04365131
208	0xbd055e57	-0.032560673
209	0xbd39587d	-0.045250405
210	0x3cdbe99b	0.02684479
211	0x3d693fe3	0.056945693
212	0x3c431fbe	0.011909423
213	0x3d48f177	0.049058404
214	0x3c9d9401	0.019235613
215	0x3d3a1872	0.04543347
216	0x3d858a66	0.06520538
217	0xbc913d14	-0.01772932
218	0x3d72b420	0.05925381
219	0x3c4eb3ec	0.012616139
220	0x3d22ac69	0.039715204
221	0xbcd4b7f5	-0.025966624
222	0xbd330c3a	-0.043712832
223	0xbc629f25	-0.013831888
224	0xbc1b6fc7	-0.009487099
225	0x3ca5cea7	0.020240141
226	0x3be6ff64	0.007049488
227	0x3d1661ca	0.036714353
228	0x3d990d82	0.074732795
229	0x3d3082e9	0.043093596
230	0xbcdcd0aa	-0.026954968
231	0xbd0433a1	-0.0322758
232	0xbbc7e357	-0.006100099
233	0xbc02f8e1	-0.007993908
234	0x3ca8518e	0.0205467
235	0x3d621c13	0.055202555
236	0x3bef771c	0.0073079
237	0xbd042b55	-0.032267887
238	0xbd2d4f67	-0.042312052
239	0x3d721e5c	0.059110984
240	0x3d587150	0.05284244
241	0x3c5d3916	0.01350238
242	0xbd7957c8	-0.06087473
243	0x3d06a962	0.03287638
244	0xbbe5035a	-0.006988925
245	0xbd5d803b	-0.05407737
246	0x3c92c053	0.017913973
247	0x3c6cc4da	0.01445123
248	0x3d25daf6	0.04049202
249	0x3c97052e	0.018435087
250	0xbc7f079e	-0.015565781
251	0x3d60c423	0.05487455
252	0xbd804e77	-0.06264966
253	0x3d8ed8e3	0.069749616
254	0xbbbec6d7	-0.0058220434
255	0x3d43f359	0.047839496

L2.bias f4 [128]
0	0xbb6732f8	-0.0035278182
1	0xbd2a833e	-0.04162907
2	0xbbdf0c9d	-0.0068069235
3	0xbd103782	-0.035209186
4	0x3cc59b1a	0.02412181
5	0xbd127042	-0.03575159
6	0xbd17aeb3	-0.03703184
7	0xbd4594ed	-0.04823773
8	0xbcbeeb2a	-0.023305494
9	0xbc644b62	-0.013933988
10	0x3c353b6b	0.01106153
11	0x3c93bb3d	0.018033618
12	0xbcc643ad	-0.024202192
13	0xbd49c3ef	-0.049259122
14	0x3d6f0ea3	0.058363568
15	0x3d1cbdc6	0.03826692
16	0xbcbe2ead	-0.023215616
17	0x3b7d339c	0.0038635498
18	0xbd4a4780	-0.049384594
19	0xbd4bfbff	-0.04980087
20	0x3d62e70d	0.05539613
21	0x3cca42b9	0.024690019
22	0x3c6e3d61	0.014541001
23	0xbd407b25	-0.04699244
24	0xbd57803b	-0.052612524
25	0xbd2a51d3	-0.04158194
26	0xbd16deed	-0.036833692
27	0x3ca015e4	0.019541688
28	0x3bc07497	0.0058732736
29	0x3cfa0e4b	0.030524394
30	0x3cb04bf3	0.02152059
31	0xbc27e3f3	-0.010247218
32	0x3aab96f1	0.0013091249
33	0x3d030a94	0.03199251
34	0xbb98df90	-0.0046653226
35	0x3bc37e83	0.005966009
36	0x3bb95d73	0.005656892
37	0xbc2b5f19	-0.010459685
38	0xbca3ddc8	-0.020003214
39	0x3ca39ece	0.019973185
40	0x3d5bee86	0.05369427
41	0xbd4d0fed	-0.050064016
42	0xbb8c1dbb	-0.004276005
43	0xbce2ebbb	-0.027700296
44	0xbc029e45	-0.007972305
45	0x3cb9bf95	0.022674361
46	0xbd62fec4	-0.055418745
47	0x3cef5bf7	0.029218657
48	0x3cbb5141	0.022865893
49	0xbcfbe051	-0.03074661
50	0xbd14f78c	-0.03636889
51	0xbcb44441	-0.022005202
52	0xbb381d07	-0.0028093474
53	0xbd10af5c	-0.035323486
54	0x3d65106b	0.05592386
55	0xbb818639	-0.003952768
56	0xbccc79f9	-0.024960505
57	0xbd42f7bd	-0.047599543
58	0x3cc37d77	0.023863537
59	0xbd09a0ae	-0.0336005
60	0x3cab1566	0.020884227
61	0xbc24d11b	-0.01005962
62	0xbce05a0c	-0.027386688
63	0x3caea2d3	0.021317875
64	0xbd7ae1a6	-0.06125035
65	0x3d1f406c	0.038879797
66	0xbb3dd4ac	-0.0028965874
67	0x3bde7a5f	0.00678949
68	0x3d11e84e	0.035621934
69	0xbca3daad	-0.020001734
70	0x3ccb16b7	0.024791105
71	0x38ade080	8.291099e-05
72	0xbc93bbc0	-0.018033862
73	0x3d3ca372	0.04605431
74	0x3bbe4847	0.005806956
75	0x3d29aa77	0.041422334
76	0xbc91285d	-0.017719442
77	0x3cf8d130	0.030373186
78	0x3cede1a3	0.029038256
79	0x3d13769e	0.036001794
80	0x3d05a3fa	0.032627083
81	0x3d0fdae1	0.03512085
82	0x39d7d80e	0.0004116897
83	0x3bb0df96	0.0053977473
84	0xbd4bed4c	-0.04978685
85	0x3d354c55	0.04426225
86	0x3c956050	0.018234402
87	0xbc87b1aa	-0.016564209
88	0xbd509291	-0.050921027
89	0xbcd83d99	-0.02639656
90	0xbb902905	-0.004399421
91	0x3cf7d4d6	0.030252855
92	0xbb3be10c	-0.0028668074
93	0x3cbc6685	0.022998104
94	0x3c422ccc	0.011851501
95	0x3d76e18a	0.060273685
96	0x3d6bc1b0	0.05755776
97	0x3d296df9	0.041364644
98	0xbd7c15ad	-0.06154411
99	0xbcc1ece5	-0.02367253
100	0x3cd6c8fa	0.02621888
101	0x3d26c45c	0.040714607
102	0x3d27d7a3	0.04097713
103	0xbcbca55d	-0.02302807
104	0x3c01c09a	0.007919455
105	0x3c31a299	0.010841989
106	0x3cde18dc	0.027111463
107	0xbd403562	-0.04692591
108	0xbd6b4dfb	-0.057447415
109	0x3d6a0b54	0.05713971
110	0x3c3007e9	0.010744073
111	0x3cfdd3eb	0.03098484
112	0xbd4486a7	-0.047979977
113	0xbc143f54	-0.009048302
114	0x3cc81b41	0.024427058
115	0xbd54f4fd	-0.05199145
116	0xbd2857c1	-0.041099314
117	0xbbba047f	-0.0056768055
118	0xbc9ea272	-0.01936457
119	0x3d6584f7	0.05603501
120	0xbd55b6ae	-0.05217617
121	0xbd4418d3	-0.047875237
122	0xbcad13c7	-0.021127595
123	0xbc901225	-0.017586777
124	0xbd71ea84	-0.059061542
125	0xbb1ff304	-0.0024406323
126	0x3983d2eb	0.00025143413
127	0x3d26df8c	0.040740535
