Trained_Models/BotDetection_v4_MLP___May-10-2024/BotDetection_v4_MLP_epoch88_val_loss_0.480766.pth (torch, 964237 bytes, 45 tensors)

L1.weight f4 [256, 133]
0	0x3c0209eb	0.007936935
1	0x3d6e5489	0.058186088
2	0x3dae9e0d	0.085262395
3	0xbe41aa89	-0.1891271
4	0x3cc7ffef	0.02441403
5	0x3d31b3dd	0.04338442
6	0x3e4a2458	0.19740427
7	0xbd1006ee	-0.03516286
8	0x3c35eb3b	0.011103447
9	0x3d4a634e	0.04941111
10	0xbd9f57b5	-0.07780401
11	0x3cc89561	0.024485292
12	0xbd5516b3	-0.0520236
13	0xbd611657	-0.054952946
14	0xbe073522	-0.13203862
15	0x3dbf09fd	0.09328077
16	0xbc8fa234	-0.0175334
17	0xbd34957e	-0.04408788
18	0xbb030aa1	-0.001999535
19	0xbd5445a3	-0.051824223
20	0xbcef6d0a	-0.029226799
21	0xbc419b45	-0.011816804
22	0xbd49a49f	-0.04922926
23	0xbd1a08a8	-0.03760591
24	0x3d8fe1c7	0.070254855
25	0xbddee7a1	-0.108840235
26	0x3cf86d76	0.030325633
27	0xbde16e96	-0.11007421
28	0x3ccb2a64	0.024800487
29	0x3de3d128	0.11123878
30	0xb87c3068	-6.0126564e-05
31	0xbd1e3f4e	-0.03863459
32	0xbdb6aa53	-0.089192055
33	0xbca91370	-0.020639151
34	0xbd6319fc	-0.055444703
35	0x3da4694a	0.08027895
36	0x3dd9afc8	0.10629231
37	0x3d8f8a82	0.0700884
38	0xbda7f47f	-0.08200931
39	0xbd81c88c	-0.063370794
40	0x3e556fe6	0.20843467
41	0xbc4fdc33	-0.012686777
42	0xbd17a04d	-0.03701811
43	0xbb6bc3c0	-0.003597483
44	0xbcafc62b	-0.021456799
45	0x3db8bb4c	0.09020099
46	0x3bc26e8e	0.0059335893
47	0x3d8f473b	0.06996008
48	0xbd0f41d7	-0.0349749
49	0x3da1da1b	0.079029284
50	0x3d3d2efa	0.04618738
51	0x3c15fb8d	0.009154213
52	0x3d809b25	0.062795915
53	0x3dd4f622	0.103985086
54	0xbce65c55	-0.0281202
55	0x3b070f02	0.002060831
56	0xbd374060	-0.044739127
57	0x3d587ef2	0.05285544
58	0xbe4b96a1	-0.19881679
59	0xbd130d3f	-0.035901304
60	0xbe37bd4b	-0.17943303
61	0x3c5ac05c	0.013351526
62	0xbe2d4266	-0.1691986
63	0xbd59ac5c	-0.05314289
64	0x3e135e4b	0.14391439
65	0xbdfcc02f	-0.123413436
66	0xbda3ed1c	-0.080042094
67	0x3e0b3c62	0.13597253
68	0xbcb3e06d	-0.0219576
69	0xbd56db87	-0.05245545
70	0x3d62fe20	0.055418134
71	0x3de1b74a	0.11021288
72	0x3dcc1b75	0.099661745
73	0x3d883ffd	0.0665283
74	0xbd4d684f	-0.050148305
75	0xbcdb5389	-0.026773231
76	0xbd9f3bcf	-0.077750795
77	0x3bb81f5f	0.005618974
78	0xbc864a08	-0.016392723
79	0x3cba13c1	0.022714498
80	0xbc05b1af	-0.008160039
81	0xbd194e4e	-0.037428193
82	0xbd9ae5f6	-0.07563393
83	0xbd034b59	-0.03205428
84	0x3d7be1eb	0.06149475
85	0xbd56ca47	-0.052439
86	0xbe3e79e3	-0.18601184
87	0xbdda71bf	-0.106662266
88	0x3d0c080b	0.034187358
89	0xbceb1d12	-0.028700385
90	0x3c8177ae	0.015804138
91	0x3e271700	0.16317368
92	0xbdc6ec85	-0.09713081
93	0xbb13647c	-0.0022490313
94	0xbd0a089a	-0.03369961
95	0x3d4941d7	0.049135055
96	0x3d158e92	0.03651292
97	0xbdb2c4cf	-0.087289445
98	0xbd2e185b	-0.042503696
99	0x3ca2cf81	0.019874336
100	0x3d05b629	0.032644425
101	0xbdf38bbb	-0.11891886
102	0x3e0516f9	0.12997045
103	0xbe2db53c	-0.16963667
104	0xbd7bb39e	-0.061450593
105	0x3d9a38eb	0.075303875
106	0x3d892568	0.06696588
107	0xbd32bbc7	-0.04363611
108	0xbd30fad2	-0.04320795
109	0xbd80f7d6	-0.06297271
110	0x3d3f5e70	0.046720922
111	0xbdd66e2d	-0.10470233
112	0xbd417ee9	-0.04724017
113	0xbca923e7	-0.020647002
114	0x3ca37c52	0.019956741
115	0xbcacae75	-0.021079281
116	0x3cac7fda	0.021057058
117	0x3dd3bb17	0.10338419
118	0x3d98d418	0.07462329
119	0x3dab5446	0.08365683
120	0xbdc67b31	-0.09691466
121	0x3d4e03d9	0.05029664
122	0x3c0f48c0	0.008745372
123	0x3e54cc74	0.20781118
124	0xbe02fd93	-0.12792043
125	0xbc22e980	-0.009943366
126	0x3d30f0f4	0.04319854
127	0x3d9f035e	0.07764314
128	0xbd97f67d	-0.07420061
129	0x3c3b69f6	0.011438837
130	0x3d8847e6	0.066543385
131	0x3d398184	0.04528953
132	0xbd611670	-0.05495304
133	0x3bb8ee06	0.005643609
134	0x3d253ba3	0.040340077
135	0xbc7a346c	-0.015271287
136	0x3dc46b47	0.09590774
137	0xbd16b374	-0.036792234
138	0x3d976a27	0.07393294
139	0xbd975f41	-0.07391215
140	0xbd0b862f	-0.034063514
141	0x3d5beb91	0.05369145
142	0xbd2e025f	-0.04248273
143	0x3c44148f	0.011967792
144	0xbbd621ea	-0.0065348046
145	0xbd6f2b36	-0.05839082
146	0x3d8438dc	0.064561576
147	0x3d9a81d1	0.07544292
148	0x3c584230	0.013199374
149	0xbd909b8c	-0.07060918
150	0xbbfdf37c	-0.007749973
151	0xbc93ee45	-0.018057952
152	0x3d5128db	0.051064353
153	0xbcd9f070	-0.026603907
154	0x3a613eff	0.0008592456
155	0xbd843b3c	-0.064566106
156	0xbde54e95	-0.11196629
157	0xbdd22455	-0.10260836
158	0xbd0c9487	-0.034321334
159	0xbd99b782	-0.075057045
160	0xbc4b7aae	-0.012419386
161	0xbda0250b	-0.078195654
162	0x3d577b52	0.05260784
163	0xbc441bcc	-0.011969518
164	0xbce8d467	-0.028421594
165	0x3d8e967a	0.06962295
166	0x3d85f910	0.065416455
167	0xbd6c7159	-0.057725284
168	0xbcafe77d	-0.021472687
169	0x3dfa3390	0.12216866
170	0x3d8868d0	0.066606164
171	0x3e1dfe2a	0.15428987
172	0x3da40096	0.08007924
173	0x3d71d878	0.05904433
174	0xbd14b826	-0.03630843
175	0x3ca47b51	0.020078333
176	0x3ccf218b	0.02528455
177	0x3e18a46e	0.14906475
178	0xbd19892e	-0.03748434
179	0x3cc25133	0.02372036
180	0x3d6043a7	0.05475202
181	0x3d7ad0b6	0.0612342
182	0x3ced185c	0.02894228
183	0xbdadc28f	-0.08484375
184	0xbd90eb89	-0.07076175
185	0x3d8a4c32	0.06752814
186	0x3e16fe96	0.14745554
187	0xbd87609f	-0.06610226
188	0xbd7acfc1	-0.061233286
189	0xbac018d0	-0.0014655832
190	0x3d8d2859	0.06892461
191	0x3db21818	0.08696002
192	0xbdab7de2	-0.083736196
193	0x3daefa35	0.08543817
194	0x3d763f24	0.06011881
195	0x3c93bc59	0.018034147
196	0xbddc644a	-0.10761316
197	0x3be40c47	0.0069594714
198	0x3d16c1ba	0.036805846
199	0xbd66992d	-0.056298424
200	0xbc8a1a7a	-0.016858328
201	0xbc82fccf	-0.01598969
202	0xbcd5c95b	-0.02609699
203	0xbca080d6	-0.019592684
204	0x3df20c88	0.118187964
205	0x3cced5c7	0.025248421
206	0xbd1c28dd	-0.038124908
207	0xbc5bfe03	-0.01342726
208	0x3bd9d168	0.0066472776
209	0x3daa52db	0.08316585
210	0xbd4c78a2	-0.049919732
211	0xbc2497a0	-0.010045916
212	0xbccdd74f	-0.025127081
213	0xbd2f753a	-0.042836405
214	0xbbd56015	-0.006511698
215	0xbdcfd665	-0.101483144
216	0xbdc8b585	-0.09800247
217	0x3daf9af0	0.08574474
218	0xbd10025c	-0.0351585
219	0x3d6d5298	0.057940096
220	0xbd5a077c	-0.053229794
221	0x3c722125	0.01477841
222	0xbe37c283	-0.17945294
223	0x3dfb5955	0.12272898
224	0xbe33e346	-0.17567167
225	0xbd5d33c1	-0.054004434
226	0xbdf9d9d5	-0.12199751
227	0x3d4617a5	0.048362393
228	0x3a1cbb8a	0.0005978873
229	0xbce45f38	-0.027877435
230	0xbd72ca80	-0.05927515
231	0xbd77fc0e	-0.060543112
232	0x3d36e3cb	0.044650834
233	0x3e1dd524	0.15413338
234	0x3c6636f3	0.014051187
235	0x3d5459c9	0.05184344
236	0xbc994a30	-0.018712133
237	0x3d14d877	0.03633925
238	0x3dc1a3fc	0.09455106
239	0x3d4db864	0.050224677
240	0xbdeb7bca	-0.1149822
241	0x3bedec80	0.007260859
242	0x3b933fb6	0.004493679
243	0xbd026004	-0.03182985
244	0xbd66cd80	-0.056348324
245	0x3d3dc0eb	0.04632656
246	0xbd892a47	-0.06697517
247	0x3cc5061b	0.024050763
248	0x3c4f840d	0.012665761
249	0x3d4af928	0.04955402
250	0x3da5fe98	0.081052005
251	0x3db91eda	0.090390876
252	0xbd45c9f2	-0.048288293
253	0xbe21ba08	-0.15793622
254	0xbda5c9b4	-0.080951124
255	0xbda407ee	-0.08009325

L1.bias f4 [256]
0	0xbda6e23b	-0.08148619
1	0xbc97440a	-0.01846506
2	0x3d7b10f5	0.06129547
3	0xbc8a7fc1	-0.016906621
4	0xbcb233db	-0.021753242
5	0xbd79e375	-0.061007936
6	0x3d05d2eb	0.03267185
7	0x3d2acc4b	0.041698735
8	0xbd56ce6c	-0.052442953
9	0xbd9dada3	-0.07699134
10	0xbcbd7447	-0.023126734
11	0x3d780297	0.060549345
12	0xbd83d9e5	-0.064380445
13	0xbd12a480	-0.03580141
14	0xbdae4209	-0.08508689
15	0xbc210cce	-0.009829713
16	0x3c975307	0.018472208
17	0x3d104bb5	0.03522845
18	0xbd294698	-0.04132709
19	0x3da9a06d	0.08282552
20	0x3bef4c07	0.0073027643
21	0xbd7d706a	-0.061874785
22	0x3c8ea5a8	0.017412975
23	0x3d02b009	0.03190616
24	0x3d64c50d	0.055851985
25	0x3d7bbf72	0.061461873
26	0xbcb548f6	-0.022129517
27	0xbc8e837f	-0.017396687
28	0xbd337a52	-0.043817826
29	0x3d10e9af	0.035379108
30	0xbd878111	-0.06616414
31	0xbcbdf317	-0.023187203
32	0xbc654ea3	-0.013995799
33	0xbd915c8c	-0.0709773
34	0x3d095392	0.033526964
35	0x3ca18324	0.019715853
36	0x3d96fad8	0.073720634
37	0xbd5bb75a	-0.053641655
38	0x3d9fd0d4	0.07803503
39	0x3d15ad7b	0.036542397
40	0xbcda1efa	-0.026626099
41	0xbd874f0f	-0.06606876
42	0xbda7a98d	-0.08186636
43	0x3d01ead3	0.031718086
44	0xbd2cea4b	-0.042215627
45	0xbccd3308	-0.025048748
46	0xbd0a8ce7	-0.03382578
47	0xbc8550ea	-0.016273934
48	0x3bf2b0b1	0.007406317
49	0x3d9883cc	0.07447013
50	0x3d67ae3c	0.056562647
51	0x3d83fabb	0.064443074
52	0x3b9bee2b	0.0047586164
53	0xbcdb5f39	-0.026778804
54	0xbd232f63	-0.039840113
55	0x3d4cf43f	0.05003762
56	0xbbf00180	-0.0073243976
57	0x3d0b2cb1	0.033978168
58	0xbd9ee211	-0.077579625
59	0x3d31996b	0.0433592
60	0xbd39a8be	-0.04532694
61	0xbc198c2b	-0.009371798
62	0x3d8eaf86	0.06967072
63	0x3d5851e6	0.05281248
64	0xbd4d7c5a	-0.05016742
65	0x3d92882b	0.07154878
66	0xbd8fb8f1	-0.07017697
67	0x3d223c9f	0.039608594
68	0x3c62e922	0.0138495285
69	0x3da36a4d	0.0797926
70	0x3c0e37bb	0.008680279
71	0xbc999d5e	-0.018751796
72	0x3d9723d0	0.073798776
73	0xbd51c198	-0.051210016
74	0x3d75c955	0.06000646
75	0xbd05b36f	-0.032641824
76	0xbc3fb9aa	-0.011701981
77	0xbd191c14	-0.037380293
78	0x3d688ce8	0.056775004
79	0xbd5ed682	-0.05440379
80	0xbcc8d2cd	-0.02451458
81	0x3bc55cf6	0.0060230447
82	0x3d9da294	0.07697025
83	0xbc41fc34	-0.011839915
84	0xbd180905	-0.037117977
85	0xbc22f5be	-0.009946285
86	0x3ca05713	0.01957277
87	0xbd1c91b2	-0.038224883
88	0x3db09251	0.08621658
89	0x3d0fc6f7	0.035101857
90	0xbcfc06a8	-0.030764893
91	0x3d4fd70d	0.050742198
92	0xbcce068b	-0.025149604
93	0x3c9b983d	0.018993491
94	0xbc78b75c	-0.015180435
95	0xbd8a552d	-0.06754527
96	0xbd9419fd	-0.07231519
97	0xbd9a9814	-0.07548538
98	0xbd456396	-0.048190676
99	0xbbae973d	-0.0053280876
100	0x3c38ef2c	0.011287492
101	0x3c6b87bd	0.014375624
102	0x3d201996	0.0390869
103	0x3bb3d44a	0.0054879533
104	0x3daccef6	0.08437912
105	0xbca69f59	-0.020339655
106	0x3c95402d	0.018219078
107	0x3c9220a3	0.017837828
108	0x3d2eb028	0.042648464
109	0x3d8db35b	0.06918975
110	0x3d0511b3	0.032487582
111	0x3d30d04d	0.0431674
112	0x3d9d4441	0.07679034
113	0x3d2b53dd	0.041828025
114	0x3da13ff5	0.07873527
115	0x3d344368	0.044009596
116	0x3d2b5b5a	0.041835167
117	0xbc318237	-0.010834268
118	0xbd5cb41b	-0.0538827
119	0x3d9d7805	0.076889075
120	0x3d36e995	0.044656355
121	0x3cd42d40	0.025900483
122	0x3d105251	0.035234753
123	0xbcc4222c	-0.023942076
124	0xbc27eb7b	-0.010249014
125	0x3d8da941	0.06917048
126	0x3cba6fad	0.02275833
127	0xbdabb5ee	-0.0838431
128	0x3d8f9890	0.07011521
129	0x3cd2ee23	0.025748318
130	0xbd2dcf2a	-0.042433895
131	0xbd1edae7	-0.03878298
132	0xbd843a4d	-0.064564325
133	0x3da5cd9a	0.08095856
134	0xbd26ce8f	-0.040724333
135	0xbd1f561a	-0.038900472
136	0x3ce3a0e1	0.027786674
137	0xbd0df223	-0.034654748
138	0x3d3a8278	0.04553458
139	0xbcf9121d	-0.030404145
140	0xbca81104	-0.020515926
141	0xbcdbb498	-0.026819512
142	0x3ba1aee7	0.00493418
143	0x3d321539	0.04347727
144	0xbc5e8bb5	-0.013583113
145	0x3d8b5fc3	0.068053745
146	0xbdaf7e31	-0.08568991
147	0xbd87bf47	-0.0662828
148	0x3cc7e6d6	0.024402063
149	0xbbd5bc52	-0.0065226937
150	0xbc56968a	-0.013097415
151	0x3ccbb682	0.0248673
152	0xbd912b44	-0.070883304
153	0xbc16c2c5	-0.00920171
154	0xbd7cb98d	-0.061700393
155	0x3d9e16fb	0.07719227
156	0x3c9ab60d	0.018885637
157	0x3d539f46	0.051665567
158	0xbd63dfd6	-0.05563339
159	0xbca9e8ba	-0.020740855
160	0x3d3e721a	0.046495534
161	0x3d95f46e	0.07322012
162	0xbd9436da	-0.072370246
163	0xbcc076fa	-0.023494232
164	0xbc8010e1	-0.015633048
165	0x3da463df	0.080268614
166	0xbd5c05b9	-0.053716395
167	0x3d031dca	0.03201083
168	0x3d81f726	0.06345968
169	0xbd864a1d	-0.06557105
170	0x3da710a2	0.08157469
171	0xbdae5313	-0.08511939
172	0xbd82289d	-0.063554026
173	0xbccdab60	-0.025106132
174	0x3b8d32fd	0.004309057
175	0x3b4c1175	0.0031138335
176	0x3d841746	0.064497516
177	0x3d98aeb6	0.074551985
178	0xbcc072b0	-0.023492187
179	0x3ca49112	0.020088706
180	0xbcf8e914	-0.030384578
181	0x3cca762f	0.024714557
182	0xbadcc81c	-0.0016844305
183	0x3d25a62c	0.040441677
184	0x3abbec75	0.0014337437
185	0xbcdc5aaf	-0.02689871
186	0x3d17c4ae	0.037052803
187	0x3d80270a	0.06257446
188	0xbd25623a	-0.04037688
189	0x3cbce8b2	0.023060177
190	0x391eadae	0.00015132755
191	0xbcccd813	-0.025005376
192	0x3d174cf5	0.036938626
193	0x3d4a438e	0.04938083
194	0x3d1f6f2b	0.038924377
195	0xbd96d19d	-0.07364199
196	0xbd007d49	-0.03136948
197	0x3d92c0d3	0.071656846
198	0x3d4b1676	0.049581967
199	0x3d47bbfc	0.04876326
200	0xbd5771e9	-0.052598868
201	0x3cfe97ea	0.031078298
202	0xbc330cc3	-0.010928336
203	0xbd097067	-0.03355446
204	0x3d530a46	0.05152347
205	0x3daa8859	0.083267875
206	0x3d1ebd62	0.03875483
207	0x3d81d8b6	0.063401625
208	0xbd4afa9f	-0.049555417
209	0x3d2e809c	0.04260312
210	0xbda3f006	-0.08004765
211	0xbcaaf3fb	-0.020868292
212	0xbcaa26ae	-0.020770397
213	0xbd91e121	-0.07123018
214	0xbcde20a2	-0.02711517
215	0x3d8608d7	0.06544655
216	0xbd2e2439	-0.042515013
217	0x3d991b31	0.074758895
218	0x3d30d22d	0.04316919
219	0xbd0eed74	-0.03489442
220	0x3d4721f5	0.04861637
221	0xbda511bf	-0.080600254
222	0x3d148ad2	0.036265202
223	0xbd293814	-0.041313246
224	0xbd8bf1c7	-0.06833225
225	0x3daec6cf	0.085340135
226	0xbb5c2fdf	-0.003359787
227	0xbd5a64cb	-0.05331878
228	0x3daf724d	0.08566723
229	0x3cb0e8ea	0.021595437
230	0xbc56977f	-0.013097643
231	0xbd05e727	-0.032691147
232	0x3d9f7f2b	0.07787927
233	0x3d451a36	0.0481207
234	0x3da02fa0	0.07821584
235	0x3d015759	0.03157744
236	0x3d8be2e7	0.068303876
237	0xba60ae43	-0.0008570889
238	0x3c9e9114	0.019356288
239	0x3cb2e96c	0.02183982
240	0x3da7c8b1	0.08192576
241	0x3d850601	0.06495286
242	0x3d548228	0.05188194
243	0xbdaafd89	-0.08349139
244	0x3d81edee	0.063442096
245	0x3d41d69f	0.04732382
246	0xbc9d9f28	-0.01924093
247	0x3c8260ac	0.015915237
248	0xbdae6585	-0.08515457
249	0xbd461c5a	-0.048366882
250	0x3d89071f	0.06690811
251	0xbda39529	-0.079874344
252	0x3a09847f	0.0005245879
253	0x3c7bd8ed	0.015371543
254	0xbb8510a1	-0.00406082
255	0xbd4f37e4	-0.05059041

BN1.weight f4 [256]
0	0x3f7edff4	0.99560475
1	0x3f800dfc	1.0004268
2	0x3f7b2520	0.98103523
3	0x3f77578f	0.9661798
4	0x3f7cfe51	0.98825556
5	0x3f81865d	1.011913
6	0x3f825c5f	1.018444
7	0x3f7ec6d3	0.9952213
8	0x3f7fb642	0.9988748
9	0x3f8273b0	1.0191555
10	0x3f7c1a88	0.98477983
11	0x3f7bc5cd	0.98348695
12	0x3f7f691a	0.9976975
13	0x3f81c147	1.0137109
14	0x3f85b0d6	1.0444591
15	0x3f804825	1.0022017
16	0x3f820ae2	1.0159571
17	0x3f80c3af	1.0059718
18	0x3f7f4a2a	0.9972254
19	0x3f80e6ad	1.0070397
20	0x3f7c010f	0.98439115
21	0x3f7e099f	0.9923343
22	0x3f87cdce	1.0609682
23	0x3f81c9e8	1.0139742
24	0x3f824f05	1.0180365
25	0x3f823513	1.0172447
26	0x3f853885	1.0407873
27	0x3f80ff15	1.0077845
28	0x3f83c3bc	1.0294108
29	0x3f84bb1b	1.03696
30	0x3f8556f1	1.0417157
31	0x3f7ffa6e	0.999915
32	0x3f837197	1.026904
33	0x3f7e5010	0.99340916
34	0x3f7e1583	0.99251574
35	0x3f825167	1.0181092
36	0x3f85fb0c	1.0467238
37	0x3f82bee2	1.0214503
38	0x3f7fac37	0.99872154
39	0x3f825e09	1.0184947
40	0x3f818f31	1.0121824
41	0x3f8465d4	1.0343575
42	0x3f819e20	1.0126381
43	0x3f854724	1.0412335
44	0x3f7fb21f	0.99881166
45	0x3f8203dd	1.0157429
46	0x3f8024c9	1.0011226
47	0x3f7d181a	0.988649
48	0x3f86c443	1.0528644
49	0x3f805f25	1.0029036
50	0x3f7afe88	0.98044634
51	0x3f7e5fdc	0.9936502
52	0x3f7cdc86	0.9877399
53	0x3f8270b2	1.0190642
54	0x3f7e8dde	0.9943522
55	0x3f7f4e1f	0.9972858
56	0x3f80c064	1.0058713
57	0x3f81bb98	1.0135374
58	0x3f806351	1.0030309
59	0x3f8650f9	1.0493461
60	0x3f7e5903	0.9935457
61	0x3f817ca7	1.0116166
62	0x3f852c05	1.0404059
63	0x3f848918	1.0354338
64	0x3f7893a3	0.97100276
65	0x3f81494a	1.0100491
66	0x3f7c78d0	0.98621845
67	0x3f82f3bf	1.0230635
68	0x3f7f887c	0.99817634
69	0x3f8c1171	1.0942823
70	0x3f7f0e88	0.9963155
71	0x3f793369	0.9734407
72	0x3f844a99	1.0335265
73	0x3f83cf33	1.0297607
74	0x3f811eb6	1.0087497
75	0x3f805eef	1.0028971
76	0x3f81345d	1.0094105
77	0x3f84ee91	1.0385305
78	0x3f82aca8	1.020894
79	0x3f82ac40	1.0208817
80	0x3f827d9d	1.0194584
81	0x3f7dd2f3	0.9915001
82	0x3f80595c	1.002727
83	0x3f7cf350	0.98808765
84	0x3f80e7da	1.0070755
85	0x3f80afc4	1.005364
86	0x3f818f1d	1.01218
87	0x3f8476f7	1.0348805
88	0x3f842ab4	1.0325532
89	0x3f8068d6	1.0031993
90	0x3f826a5d	1.018871
91	0x3f84a761	1.036358
92	0x3f81acaf	1.0130824
93	0x3f805658	1.002635
94	0x3f83627d	1.0264431
95	0x3f834d70	1.0258007
96	0x3f813bce	1.0096376
97	0x3f827e7f	1.0194854
98	0x3f8087aa	1.0041401
99	0x3f846a1d	1.0344883
100	0x3f7f355c	0.99690795
101	0x3f7f2584	0.9966662
102	0x3f812453	1.008921
103	0x3f82fc52	1.0233252
104	0x3f82e565	1.0226256
105	0x3f840f32	1.0317137
106	0x3f806433	1.0030578
107	0x3f8498d8	1.0359144
108	0x3f830d80	1.0238495
109	0x3f83e8e6	1.030545
110	0x3f82130d	1.0162064
111	0x3f84ac57	1.0365094
112	0x3f7ca8d9	0.9869514
113	0x3f82a55c	1.0206714
114	0x3f8522f5	1.0401293
115	0x3f85e081	1.0459138
116	0x3f863e58	1.0487776
117	0x3f7c82a1	0.98636824
118	0x3f7e811a	0.99415743
119	0x3f7f3018	0.9968276
120	0x3f7e2f47	0.9929089
121	0x3f7b1b82	0.9808885
122	0x3f831eee	1.0243814
123	0x3f7be8af	0.9840192
124	0x3f80ad23	1.0052837
125	0x3f80ab4d	1.0052277
126	0x3f8335f5	1.0250841
127	0x3f838bed	1.0277077
128	0x3f7dee72	0.99191964
129	0x3f808118	1.0039396
130	0x3f7cadaa	0.9870249
131	0x3f7c739e	0.9861392
132	0x3f7f6853	0.9976856
133	0x3f81c9d1	1.0139714
134	0x3f813190	1.009325
135	0x3f82ce8e	1.0219285
136	0x3f834beb	1.0257543
137	0x3f7ae939	0.9801212
138	0x3f81ef06	1.0151069
139	0x3f7bce81	0.98361975
140	0x3f84267a	1.0324242
141	0x3f81406e	1.0097787
142	0x3f7fac5f	0.9987239
143	0x3f80865b	1.0041002
144	0x3f860197	1.0469235
145	0x3f80622b	1.0029958
146	0x3f811ef5	1.0087572
147	0x3f82b9de	1.0212972
148	0x3f827ed7	1.0194958
149	0x3f81d31a	1.0142548
150	0x3f8479c6	1.0349662
151	0x3f7d86f7	0.99034065
152	0x3f8188d2	1.0119879
153	0x3f7db4b5	0.9910386
154	0x3f83964c	1.0280242
155	0x3f7db9d4	0.99111676
156	0x3f7f68d6	0.9976934
157	0x3f821fa9	1.0165912
158	0x3f7b7cdf	0.98237413
159	0x3f81458e	1.0099351
160	0x3f7dd46b	0.9915225
161	0x3f83494f	1.0256747
162	0x3f7c7406	0.9861454
163	0x3f80dee9	1.0068027
164	0x3f81cab5	1.0139986
165	0x3f7f8d0e	0.9982461
166	0x3f8a7a7f	1.0818633
167	0x3f7cd39a	0.9876038
168	0x3f82cbe3	1.0218471
169	0x3f807fc4	1.0038991
170	0x3f856f6e	1.0424631
171	0x3f7d207a	0.9887768
172	0x3f805063	1.0024532
173	0x3f81a950	1.0129795
174	0x3f829442	1.0201495
175	0x3f81df0d	1.0146195
176	0x3f7c8aca	0.98649275
177	0x3f830a01	1.0237428
178	0x3f7cf703	0.9881441
179	0x3f80df34	1.0068116
180	0x3f81f59e	1.0153081
181	0x3f822823	1.0168499
182	0x3f81da50	1.0144749
183	0x3f7cb7bd	0.9871786
184	0x3f83602a	1.0263722
185	0x3f8266f2	1.0187666
186	0x3f7e34f6	0.9929956
187	0x3f7dbb50	0.9911394
188	0x3f81b2ed	1.0132729
189	0x3f7fe72d	0.9996212
190	0x3f81b20d	1.0132462
191	0x3f7f1955	0.9964803
192	0x3f80192e	1.0007684
193	0x3f81f6ea	1.0153477
194	0x3f8145c8	1.009942
195	0x3f834d30	1.0257931
196	0x3f882891	1.063738
197	0x3f811c63	1.0086788
198	0x3f85c918	1.0451994
199	0x3f817e31	1.0116636
200	0x3f8035d3	1.0016426
201	0x3f82a2bc	1.0205913
202	0x3f841735	1.0319582
203	0x3f7d5400	0.989563
204	0x3f8332d4	1.0249887
205	0x3f7e25e2	0.99276555
206	0x3f7b23c2	0.9810144
207	0x3f7fca67	0.99918216
208	0x3f7e41e7	0.9931931
209	0x3f82b06e	1.0210092
210	0x3f858b4f	1.0433139
211	0x3f8039bc	1.0017619
212	0x3f81eaf6	1.0149829
213	0x3f7fa40b	0.99859685
214	0x3f844116	1.0332363
215	0x3f806256	1.003001
216	0x3f826aee	1.0188882
217	0x3f83338f	1.025011
218	0x3f825a46	1.0183799
219	0x3f7eeec3	0.9958307
220	0x3f835506	1.0260322
221	0x3f7b8f74	0.9826577
222	0x3f7ea1ac	0.9946544
223	0x3f8236d8	1.0172987
224	0x3f82079f	1.0158576
225	0x3f7e4e83	0.9933855
226	0x3f81227f	1.0088652
227	0x3f80071f	1.0002173
228	0x3f810bda	1.0081742
229	0x3f8708da	1.0549576
230	0x3f7f8563	0.99812907
231	0x3f83bf62	1.029278
232	0x3f879ef3	1.0595382
233	0x3f7c64c7	0.98591274
234	0x3f81e42a	1.0147755
235	0x3f83f0d0	1.0307865
236	0x3f868be2	1.0511439
237	0x3f84f451	1.038706
238	0x3f803768	1.0016909
239	0x3f790793	0.9727718
240	0x3f7a92a6	0.9788002
241	0x3f79e22d	0.9761074
242	0x3f81a8cd	1.0129639
243	0x3f863c45	1.0487143
244	0x3f7f2ca7	0.9967751
245	0x3f7bcf00	0.9836273
246	0x3f7cf3b4	0.9880936
247	0x3f7efd9f	0.99605745
248	0x3f83deb1	1.0302335
249	0x3f81557a	1.010421
250	0x3f7ff338	0.999805
251	0x3f82dd15	1.0223719
252	0x3f802910	1.0012531
253	0x3f806641	1.0031205
254	0x3f853766	1.0407531
255	0x3f885a78	1.0652609

BN1.bias f4 [256]
0	0x3d3910ac	0.045181915
1	0xbd2f18f2	-0.0427484
2	0xbbe15944	-0.0068770964
3	0x3dc271f3	0.0949439
4	0x3d473a6a	0.048639692
5	0xbd89e888	-0.06733805
6	0xbc53de32	-0.012931393
7	0xbd185a50	-0.037195504
8	0xbbc047ed	-0.005867949
9	0xbd379bec	-0.044826433
10	0x3d0928c1	0.03348613
11	0xbcc76cc6	-0.02434386
12	0x3cfc4db2	0.030798767
13	0xbdb2e935	-0.08735887
14	0xbdcd4fe5	-0.10025004
15	0xbc942db0	-0.018088192
16	0xbbffd371	-0.007807188
17	0x3c220aeb	0.009890298
18	0xbd1a1d2e	-0.037625484
19	0xbc86643d	-0.01640522
20	0x3c55e200	0.013054371
21	0x3cea1699	0.028575229
22	0xbe10d78b	-0.14144723
23	0xbcdf1d40	-0.027235627
24	0x3cb17172	0.02166054
25	0xbd433a58	-0.047663063
26	0xbc826bc7	-0.015920533
27	0x3b6a6298	0.0035764333
28	0xbd0caa00	-0.034341812
29	0xbda6d51f	-0.081461184
30	0xbdc0b953	-0.09410348
31	0xbc2905c7	-0.010316319
32	0xbd84134c	-0.06448993
33	0x3da4765e	0.08030389
34	0xbda5db82	-0.080985084
35	0x3cba1004	0.022712715
36	0xbc99e6da	-0.018786836
37	0xbd0e1ae1	-0.034693602
38	0xbcc3d180	-0.023903608
39	0xbc966ea7	-0.01836331
40	0xbbbc29db	-0.0057422942
41	0xbdfbacc3	-0.12288811
42	0xbd902701	-0.070386894
43	0xbdd30e71	-0.10305489
44	0x3bd7874b	0.0065774075
45	0xbbd95472	-0.006632381
46	0xbddde42c	-0.10834536
47	0xbc94a8c1	-0.018146874
48	0xbd5aa98a	-0.05338434
49	0xbd288060	-0.041138053
50	0x3d8847ab	0.066542946
51	0xbae59561	-0.0017515832
52	0x3d5a7dec	0.053342745
53	0xbd9adb02	-0.07561304
54	0x3d655011	0.05598456
55	0xbcd8a46c	-0.02644559
56	0xbd050c23	-0.032482278
57	0xbc57b229	-0.013165035
58	0x3c810de8	0.015753701
59	0xbdbbdc9e	-0.09172939
60	0x3c93b988	0.018032804
61	0xbd506fbb	-0.050887804
62	0xbd1de519	-0.038548563
63	0xbd9592c4	-0.07303384
64	0x3c74aed4	0.01493426
65	0xbb970d6a	-0.0046097534
66	0x3c406264	0.011742208
67	0xbd451076	-0.0481114
68	0x3bd2f025	0.006437319
69	0xbcd308dc	-0.02576106
70	0x3d809f84	0.06280425
71	0x3d3ffb0b	0.046870273
72	0xbcfeaabf	-0.031087277
73	0x3b8a5b72	0.004222327
74	0xbb5f47b2	-0.0034069833
75	0x3c263246	0.010143822
76	0xbd368f0b	-0.04457001
77	0xbdfacac8	-0.12245709
78	0xbdad24e1	-0.084543
79	0xbd30e5ef	-0.04318803
80	0xbd069243	-0.03285433
81	0x3d57e389	0.05270723
82	0xbd42ae36	-0.04752942
83	0xbd713b1a	-0.058894254
84	0xba86b2c0	-0.001027666
85	0x3d922cdb	0.07137462
86	0xbc7ae138	-0.015312485
87	0xbc9c723d	-0.019097442
88	0xbd4195bf	-0.04726195
89	0xbcec3635	-0.028834442
90	0x395ae83a	0.00020876611
91	0xbddbac94	-0.10726276
92	0xbd3454d0	-0.044026196
93	0xbd980f52	-0.07424797
94	0xbd3fae49	-0.04679707
95	0xbe312742	-0.17300132
96	0x3d6fa5f5	0.05850788
97	0xbc7ec28d	-0.015549314
98	0x3d691374	0.056903318
99	0xbe554759	-0.20827998
100	0xbdadd6b6	-0.084882185
101	0x3d06f95a	0.032952644
102	0xbd973a96	-0.07384221
103	0xbd523521	-0.0513202
104	0xbd463bc5	-0.048396844
105	0xbd4c2acb	-0.049845498
106	0xbc6373c2	-0.013882579
107	0xbca87849	-0.020565169
108	0xbd040396	-0.032229982
109	0xbda768d3	-0.081742905
110	0xbd81f063	-0.06344678
111	0xbde9f73c	-0.11424109
112	0xbd700156	-0.058595024
113	0x3c3d317c	0.0115474425
114	0xbd079b6a	-0.0331072
115	0xbdc59a4a	-0.09648569
116	0xbc09f718	-0.008420728
117	0x3bc60c3b	0.0060439385
118	0xbd977e6c	-0.0739716
119	0x3dead2d6	0.11465995
120	0x3d84904e	0.064728364
121	0xbc3e15c2	-0.011601867
122	0xbde9255c	-0.11384079
123	0x3c7dee88	0.015498765
124	0x3c5b0fe6	0.01337049
125	0x3cfcc058	0.030853435
126	0xbd5b96d5	-0.05361064
127	0xbdcb8429	-0.09937317
128	0xbc535bf9	-0.012900346
129	0xbd1a7070	-0.037704885
130	0xba9cf8ac	-0.0011975965
131	0x3d536efb	0.05161951
132	0x3d167d9e	0.03674089
133	0xbd8a2c87	-0.06746774
134	0x3bc1eb68	0.005917955
135	0xbd86adc5	-0.06576113
136	0xbd5c8f9b	-0.05384789
137	0xbcff7e4d	-0.031188155
138	0xbdacc913	-0.08436789
139	0x3d2fc25c	0.042909965
140	0xbdcc73a3	-0.099829935
141	0x3ca6c348	0.02035679
142	0xbd1f9acf	-0.038965996
143	0xbdb9d987	-0.09074693
144	0xbc91d291	-0.017800601
145	0xbd13c7d0	-0.036079228
146	0x3ba54c12	0.0050444687
147	0xbd8499d0	-0.0647465
148	0xbd8f0352	-0.06983055
149	0xbce9d6d7	-0.028544826
150	0xbd9e3cf6	-0.07726471
151	0xbcbb905f	-0.02289599
152	0x3c3151b9	0.010822707
153	0x3cef67ef	0.029224364
154	0xbdbd59bd	-0.09245632
155	0xbb9ec8d3	-0.0048457175
156	0xbc3825ff	-0.011239528
157	0xbd12cceb	-0.035839956
158	0xbce2fd00	-0.02770853
159	0xbd865d82	-0.06560804
160	0xbd3b78b5	-0.045769412
161	0xbd63d6d7	-0.05562481
162	0x3d3023f2	0.04300303
163	0x3d06b142	0.03288389
164	0xbd5dcde3	-0.054151427
165	0xbdd817c6	-0.105514094
166	0xbde5d255	-0.11221758
167	0xbd183bcc	-0.0371664
168	0x3d0031c1	0.03129745
169	0xbd81fe97	-0.06347387
170	0x3d25a2cb	0.040438455
171	0xbc16251b	-0.00916412
172	0xbcf5a45e	-0.029985603
173	0xbd764ef8	-0.060133904
174	0xbd2241b9	-0.03961346
175	0x3c790b71	0.015200482
176	0x3cb67c3b	0.022276035
177	0xbe0d5a68	-0.13804018
178	0x3d3da31f	0.046298143
179	0x3d13e721	0.036109094
180	0xbbedac19	-0.0072531817
181	0xbd0d5379	-0.034503434
182	0xbdb99da4	-0.09063271
183	0x3d97b977	0.074084215
184	0xbb701a49	-0.003663676
185	0xbd05cae4	-0.032664195
186	0x3b35cf25	0.0027741876
187	0x3c25c785	0.01011837
188	0xbd346d40	-0.0440495
189	0x3c91ed2b	0.017813286
190	0x3d03424c	0.032045648
191	0xbcf9d472	-0.03049681
192	0xbd3b9e74	-0.04580541
193	0x3c9304a1	0.017946543
194	0xba6d0c12	-0.0009042631
195	0xbd23e469	-0.04001275
196	0xbdcf9b21	-0.1013701
197	0xbe440dce	-0.19145891
198	0xbe0a5b2d	-0.13511343
199	0xbcffcf6b	-0.031226834
200	0x3c911bf0	0.017713517
201	0xbe1d9a3f	-0.15390871
202	0xbd79e1e4	-0.06100644
203	0x3c83129d	0.016000086
204	0xbd9a04bc	-0.07520434
205	0xbc92e68d	-0.0179322
206	0x3c116404	0.008873943
207	0xbcca8043	-0.024719363
208	0xbc20c66f	-0.009812935
209	0x3cafcdf1	0.021460505
210	0xbdc1b4fc	-0.09458348
211	0xbcbc0a40	-0.022954106
212	0xbd846a84	-0.06465629
213	0xbd544bcc	-0.051830098
214	0xbde47b56	-0.11156337
215	0xbc8b001b	-0.016967824
216	0xbd1a4fdd	-0.03767382
217	0xbd9cf3a7	-0.076636605
218	0xbdcefa49	-0.10106332
219	0x3cc907cb	0.024539849
220	0xbd4ee6a3	-0.05051292
221	0xbcaeb52c	-0.021326624
222	0x3d48dfa9	0.049041424
223	0xbddc249c	-0.1074917
224	0xbdaead85	-0.0852919
225	0x3d06fd20	0.032956243
226	0xbd443569	-0.0479025
227	0xbc81ada2	-0.015829865
228	0xbcb6198e	-0.022228982
229	0xbda29027	-0.07937651
230	0xbdb05295	-0.08609501
231	0xbd66928c	-0.0562921
232	0x3b640eb0	0.0034798793
233	0x3d640003	0.055664074
234	0xbca2d589	-0.019877212
235	0xbd942084	-0.07232764
236	0xbc4f582a	-0.012655297
237	0xbd400439	-0.046879027
238	0xbd337610	-0.043813765
239	0x3c9a9b51	0.018872889
240	0x3d73463d	0.059393156
241	0x3d3b9ec5	0.04580571
242	0xbde808e1	-0.113298185
243	0xbc4b6b4c	-0.012415718
244	0xbd215db0	-0.039395988
245	0xbd465802	-0.048423775
246	0xbd0d3e48	-0.034483224
247	0xbd849f7b	-0.06475731
248	0xbdf5c130	-0.11999738
249	0xbdbebae7	-0.093129925
250	0x3c8a9a2e	0.016919222
251	0x3ad0d2e2	0.0015931989
252	0xbd9592bc	-0.07303378
253	0xbd799858	-0.060936302
254	0xbd9ae754	-0.075636536
255	0xbd33fe3b	-0.043943625

BN1.running_mean f4 [256]
0	0xc10d0452	-8.813555
1	0x40745ded	3.8182328
2	0x40b3d3d8	5.61961
3	0x4108c3b8	8.547783
4	0xc0c8c160	-6.2736053
5	0x40ec76ef	7.3895183
6	0x41c31b81	24.38843
7	0x415aecb3	13.682788
8	0x410a0e40	8.628479
9	0xc05b2541	-3.4241488
10	0x409919b7	4.784389
11	0x419d621d	19.672907
12	0x4107454b	8.454417
13	0xc0983271	-4.7561574
14	0xc03cb48b	-2.9485195
15	0x3f71adea	0.94405997
16	0x4177f3d1	15.4970255
17	0xc13ff887	-11.998176
18	0x41454b63	12.330905
19	0x414f340c	12.950207
20	0xc02bec16	-2.6862845
21	0x415e99b7	13.912528
22	0x40073e82	2.1131902
23	0x409ea1d9	4.957257
24	0xc00652fa	-2.0988145
25	0xbd80fae9	-0.06297857
26	0xc105e5b5	-8.368581
27	0x40ba12e9	5.8148084
28	0xc074d4b6	-3.8254828
29	0xbf1bb30d	-0.60820085
30	0x40c3f8fc	6.1241436
31	0xc09e79a3	-4.952348
32	0x40f07d2a	7.515279
33	0xbf62e958	-0.88637304
34	0x40c1fa01	6.061768
35	0xc10857a8	-8.5214
36	0xc0ff1a4c	-7.97196
37	0x40599e22	3.4002767
38	0x402ba18a	2.6817346
39	0xc061d46a	-3.5285897
40	0x414fdeba	12.991877
41	0x4180355f	16.02606
42	0x40b025e7	5.5046268
43	0x4002b070	2.042019
44	0xc0f3cfde	-7.6191244
45	0x4054df07	3.3261125
46	0x411d5d16	9.835226
47	0x3fcb656e	1.5890329
48	0xc0fd6663	-7.9187484
49	0xc0adfe98	-5.4373283
50	0xc0cbe313	-6.371469
51	0xc0f5b3e4	-7.6782093
52	0x4097ebfe	4.7475576
53	0xc15d5851	-13.834062
54	0x4061126f	3.51675
55	0x4018a15b	2.3848484
56	0xbf8ccfb7	-1.100089
57	0x40afde8f	5.495918
58	0xc109067b	-8.564082
59	0x40c1ed58	6.0602226
60	0x3fe26f8e	1.7690294
61	0xc1835435	-16.416117
62	0x401b0f6a	2.4228158
63	0xc08e31e1	-4.4435887
64	0xbfce0440	-1.6095047
65	0xbfbff9b3	-1.4998077
66	0x41633ebe	14.202818
67	0x4098012b	4.7501426
68	0xc12269f8	-10.150871
69	0x3ec3da8e	0.38252681
70	0xc01d8280	-2.46109
71	0xc0dfcbdd	-6.9936357
72	0xbfe13a99	-1.7596008
73	0x4135ec76	11.37023
74	0xc1568a5d	-13.40878
75	0x40f4d63f	7.651153
76	0x4105584c	8.334057
77	0xc0ecc733	-7.3993163
78	0x40f73893	7.725656
79	0xc08dead5	-4.434916
80	0x3fa709b5	1.3049837
81	0x3edef50c	0.4354633
82	0x40d2afa2	6.5839396
83	0x413951cd	11.582471
84	0xc0944eb2	-4.6346064
85	0x3ce5288b	0.027973434
86	0xc12a8c86	-10.6593075
87	0x404c8660	3.1957016
88	0xbf85594f	-1.041788
89	0x403680cf	2.8516119
90	0x4094d897	4.651439
91	0x4119f189	9.621469
92	0x3fcdcc89	1.6078044
93	0xc109be5b	-8.6089735
94	0x3d8444fc	0.0645847
95	0x40829b69	4.081471
96	0x409eb0c7	4.9590793
97	0xbf9253d9	-1.1431838
98	0xc13c718b	-11.77772
99	0xc0f38ced	-7.610953
100	0x40bcade4	5.896227
101	0xc04ca866	-3.1977782
102	0x40a3cf33	5.119043
103	0x4091440b	4.539556
104	0x41816e68	16.17891
105	0xbf6c8e96	-0.9240507
106	0xc0ebf1f3	-7.373285
107	0xc0dcf59f	-6.904983
108	0xbfd5194c	-1.6648345
109	0x40fe7d91	7.952828
110	0xc13bffa7	-11.749915
111	0xc0ff7f2a	-7.984273
112	0x410e18ae	8.881025
113	0xc166ee7e	-14.433226
114	0x400b0bc5	2.1725934
115	0x4107ccda	8.487513
116	0xc11c67c9	-9.775338
117	0xc14f12de	-12.942106
118	0x3fb28593	1.3947014
119	0xc11c5ff3	-9.773425
120	0xc10cad65	-8.792333
121	0xc178f074	-15.558704
122	0x40a07cc2	5.015229
123	0xc0c161ca	-6.043187
124	0xbd90a7aa	-0.070632294
125	0xc0ddf824	-6.9365406
126	0xc0b7a8d1	-5.7393575
127	0xbee59160	-0.44837475
128	0xc0addc09	-5.4331098
129	0xc121d27a	-10.113886
130	0x3fe0f792	1.7575552
131	0xc1355712	-11.333757
132	0xbef044b6	-0.46927422
133	0xc00f9122	-2.2432332
134	0x3f8f9039	1.1215888
135	0x4129dfd6	10.617147
136	0xbe991286	-0.29896945
137	0xbf76f126	-0.96461713
138	0x40205895	2.5054066
139	0x416c5ba2	14.772371
140	0xc0b15d3a	-5.54263
141	0xc107403b	-8.453181
142	0x40c8ca30	6.274681
143	0x411494bf	9.286315
144	0x3e858ed3	0.2608553
145	0x3e388e81	0.18023111
146	0xc127ff31	-10.499803
147	0x3fc83c52	1.5643408
148	0xc03af88a	-2.9214196
149	0xbf109124	-0.56471467
150	0xbf890ef4	-1.0707688
151	0xc0206872	-2.5063748
152	0xc0e6bc65	-7.2104974
153	0x40ed3ed9	7.413922
154	0xbfcfad83	-1.6224827
155	0xc0cf2a4c	-6.473913
156	0xc05da3ca	-3.463122
157	0xc185ea9b	-16.739553
158	0xc14912a0	-12.567047
159	0x41147a94	9.279926
160	0xc035809a	-2.8359742
161	0xbf1c0429	-0.6094385
162	0xc12988f8	-10.59594
163	0x410d107a	8.816523
164	0xc14389e2	-12.221163
165	0xc12e35d3	-10.888141
166	0xbf4f4034	-0.8095734
167	0x418edb05	17.856943
168	0xc19307d4	-18.378822
169	0xc029f745	-2.6557171
170	0x3e840564	0.25785363
171	0x413c8b1d	11.783963
172	0x41794045	15.578191
173	0x3f91f079	1.1401511
174	0xbf56284e	-0.8365525
175	0xc07e516c	-3.9737196
176	0xc0200d74	-2.500821
177	0x412fe791	10.994035
178	0x40e20ea3	7.0642867
179	0xc176940c	-15.411144
180	0xc103a9f3	-8.2289915
181	0xbf7fa7be	-0.9986533
182	0x413819b1	11.506272
183	0x41680a9d	14.502591
184	0x3f952334	1.1651368
185	0xc1241595	-10.255269
186	0x40df09a8	6.9699287
187	0x4093ac9f	4.614822
188	0xbebbd53c	-0.36686122
189	0x4080d8c7	4.026462
190	0x40e32420	7.09816
191	0xc080a8cf	-4.0206065
192	0xc1159bb6	-9.350515
193	0x408a3484	4.3189106
194	0x3fcbe288	1.5928507
195	0xc1119dec	-9.101055
196	0x3f947aab	1.1599935
197	0xc133d0c1	-11.238465
198	0x41890f54	17.132484
199	0xc090a76d	-4.5204377
200	0xc142fcd4	-12.186726
201	0xc112bd9c	-9.171291
202	0x3fbf0f25	1.4926497
203	0xc07ddf16	-3.966741
204	0xc110063f	-9.001525
205	0x414ea2c8	12.9147415
206	0x41624e52	14.144121
207	0xc1312bab	-11.073161
208	0x40936886	4.606509
209	0xbf22e814	-0.63635373
210	0xc1373f3f	-11.452941
211	0x406529e9	3.580683
212	0x409c26ca	4.879735
213	0xc0e67cf2	-7.202752
214	0xbf9d12fb	-1.2271417
215	0x3f918f51	1.1371862
216	0x403db5cc	2.964221
217	0xc0573e6b	-3.3631847
218	0x3f54f89e	0.8319186
219	0xc066af01	-3.6044314
220	0xc0ca7a7c	-6.3274517
221	0xc15d460a	-13.829599
222	0xc08b4bf7	-4.353023
223	0x3f4fedc8	0.812222
224	0xc0652e91	-3.5809672
225	0x3f36143a	0.71124613
226	0xbfad29a8	-1.3528337
227	0xc128e2ca	-10.555368
228	0x407a853e	3.9143825
229	0xc107f2c5	-8.49677
230	0x40bdac78	5.9273033
231	0x3ee0eb54	0.4392954
232	0x406b5eae	3.6776538
233	0xc143639b	-12.211818
234	0x3f6aa6a5	0.9166053
235	0x3f11261a	0.56698763
236	0xc10d6478	-8.8370285
237	0x405b1028	3.422861
238	0xc02d9a71	-2.7125514
239	0x41a3be88	20.468033
240	0xc017be09	-2.3709738
241	0x40c00416	6.000499
242	0xc058d8ca	-3.3882318
243	0x40c10e39	6.032986
244	0x406e988b	3.7280605
245	0x3f6a1edd	0.91453344
246	0xc103828b	-8.219371
247	0xc0a81308	-5.252323
248	0xc1a674a4	-20.806953
249	0x408cf4c2	4.4048777
250	0x4191b8bb	18.2152
251	0xc0b6b985	-5.7101464
252	0xc1042e37	-8.261283
253	0xc0dfd41b	-6.994642
254	0x40cf0227	6.4690127
255	0xc0d1e69d	-6.559401

BN1.running_var f4 [256]
0	0x425bf31a	54.987404
1	0x422ffd3b	43.997295
2	0x43048d35	132.55159
3	0x42c0aa93	96.33315
4	0x431ac580	154.77148
5	0x434a72c8	202.44836
6	0x4315cfe7	149.81212
7	0x42c3802a	97.75032
8	0x430a1b0a	138.10562
9	0x42f9df32	124.93593
10	0x43233f26	163.24667
11	0x43385f57	184.37242
12	0x42b98a09	92.7696
13	0x42b3532e	89.66246
14	0x42642a22	57.041145
15	0x43201bc3	160.10844
16	0x42e3295b	113.58077
17	0x42b22399	89.06953
18	0x426c5f51	59.093082
19	0x430cb4d0	140.7063
20	0x42e49c03	114.30471
21	0x4235e0b4	45.469437
22	0x41cdfa08	25.747086
23	0x427f8a91	63.88532
24	0x423a813c	46.626205
25	0x42cb3e27	101.62139
26	0x4265a501	57.411137
27	0x4299cd3c	76.90085
28	0x42471b0e	49.77642
29	0x434e0170	206.00562
30	0x42848939	66.26801
31	0x4301ccc8	129.79993
32	0x42bfa44f	95.820915
33	0x42b659af	91.17516
34	0x42d0a197	104.315605
35	0x423ae3ff	46.722652
36	0x424f04ac	51.754562
37	0x42bc33d9	94.101265
38	0x4301f10d	129.9416
39	0x42439037	48.890835
40	0x437e80a9	254.50258
41	0x426e0b7c	59.511215
42	0x42838f0d	65.779396
43	0x4296cc0d	75.39854
44	0x4385f1a6	267.88788
45	0x42daad63	109.338646
46	0x42b0b8a6	88.36064
47	0x4220ec61	40.23084
48	0x42c56464	98.696075
49	0x429198a2	72.79811
50	0x42e6a5ad	115.323586
51	0x42b41be3	90.05447
52	0x428623a5	67.06962
53	0x42e42291	114.06751
54	0x427c9d80	63.15381
55	0x42cc6889	102.20417
56	0x4298db8a	76.42879
57	0x42c6a4ee	99.32213
58	0x427f446f	63.81683
59	0x41da6a4a	27.301899
60	0x4235b8c5	45.43044
61	0x42b1d2d9	88.91181
62	0x4289c220	68.87915
63	0x42c112e8	96.53693
64	0x4320c3dd	160.76509
65	0x4253ac57	52.9183
66	0x42986f4c	76.21738
67	0x42a3d95f	81.92455
68	0x4315ced9	149.808
69	0x42833586	65.60454
70	0x42e88f5b	116.27999
71	0x424bfb4f	50.99542
72	0x4286d21f	67.41039
73	0x4279d30e	62.45611
74	0x42c5a702	98.82619
75	0x42270913	41.75886
76	0x42a0a649	80.324776
77	0x4237c553	45.9427
78	0x42bd8b3f	94.771965
79	0x42218073	40.37544
80	0x42148ae6	37.135643
81	0x42a99288	84.786194
82	0x4286dba7	67.42901
83	0x4382bfc7	261.49826
84	0x427f5601	63.83399
85	0x422253a3	40.581676
86	0x42f4d3a3	122.41335
87	0x424cbaa2	51.18226
88	0x426c07f2	59.00776
89	0x42eae397	117.44451
90	0x42ceb012	103.34389
91	0x42615050	56.32843
92	0x42791749	62.27274
93	0x426a5789	58.585484
94	0x4291d50b	72.9161
95	0x4286a39b	67.31954
96	0x42c4a8a3	98.32937
97	0x42489603	50.146496
98	0x42af1603	87.54299
99	0x42f0ecb2	120.462296
100	0x42f40ccb	122.02499
101	0x431030bb	144.19035
102	0x423736be	45.80346
103	0x433c0932	188.03592
104	0x428540f4	66.62686
105	0x42343a4f	45.056942
106	0x424acb1f	50.69836
107	0x42963e9e	75.1223
108	0x427da066	63.40664
109	0x42b8b8e4	92.361115
110	0x4307ec9e	135.92429
111	0x42ab7be7	85.742
112	0x427b2fd9	62.796726
113	0x42981ae4	76.05252
114	0x428ab3a7	69.35088
115	0x42359d99	45.403904
116	0x423b269a	46.787697
117	0x42b0a61f	88.324455
118	0x42a608b0	83.01697
119	0x426d1d45	59.278584
120	0x42c512a6	98.53642
121	0x42ea0639	117.01215
122	0x42aa8e62	85.27809
123	0x431322be	147.13571
124	0x429fb976	79.86223
125	0x431fa685	159.65047
126	0x4211ce8a	36.4517
127	0x426e1953	59.52473
128	0x42ff41b6	127.62834
129	0x4288d453	68.414696
130	0x42a1a2de	80.8181
131	0x42daee4e	109.46544
132	0x4357426c	215.25946
133	0x4294029e	74.00511
134	0x43161c89	150.11147
135	0x429ae4eb	77.447105
136	0x42b8df01	92.435555
137	0x42758e64	61.389053
138	0x42a3061b	81.511925
139	0x42f4e6b5	122.4506
140	0x423b4f8e	46.82769
141	0x4285fca1	66.993416
142	0x425b036a	54.753334
143	0x430990dd	137.56587
144	0x418737b5	16.9022
145	0x42cca774	102.32706
146	0x42a614ee	83.04088
147	0x43146dce	148.42892
148	0x42572c42	53.79322
149	0x428407b0	66.015015
150	0x42930037	73.50042
151	0x4328ff19	168.99648
152	0x4222765f	40.615597
153	0x431bb7e2	155.71829
154	0x420fe2d4	35.97151
155	0x427c5864	63.08632
156	0x425b292b	54.790203
157	0x42b0d85f	88.4226
158	0x42a7b6d6	83.8571
159	0x42e8a424	116.32059
160	0x41dcbc3e	27.591915
161	0x42f6b1b1	123.34705
162	0x42c260be	97.18895
163	0x431d84e0	157.51904
164	0x4295a4c2	74.82179
165	0x42e2c0ca	113.37654
166	0x4221ac6c	40.41838
167	0x429978de	76.73607
168	0x4307013f	135.00487
169	0x42833d97	65.62029
170	0x41f8cec6	31.100964
171	0x42cdd710	102.920044
172	0x42a230e9	81.09553
173	0x42b6ea51	91.45765
174	0x4272188e	60.52398
175	0x422f34b9	43.801487
176	0x4290fc5d	72.4929
177	0x425640c9	53.563267
178	0x43112449	145.14174
179	0x4317b70f	151.71507
180	0x424caea9	51.170567
181	0x4223d07b	40.953594
182	0x429e811a	79.25215
183	0x42717401	60.363285
184	0x42235ad4	40.8387
185	0x42a23a54	81.11392
186	0x42c1cc49	96.898994
187	0x420e8826	35.632957
188	0x42382940	46.040283
189	0x42816963	64.70583
190	0x42a08686	80.26274
191	0x4298040e	76.00792
192	0x43148303	148.51176
193	0x428392a2	65.78639
194	0x42acf261	86.4734
195	0x431718ec	151.09735
196	0x422d8db2	43.388374
197	0x4287fd33	67.99453
198	0x430214cb	130.08122
199	0x423d1129	47.266758
200	0x42a48a75	82.270424
201	0x43274bfc	167.29681
202	0x423a25a3	46.536755
203	0x42a2648b	81.19637
204	0x42dd1e27	110.55889
205	0x42e5c071	114.87586
206	0x42d795c7	107.792534
207	0x4257bdaf	53.935238
208	0x4291e1bb	72.94088
209	0x42b66edf	91.216545
210	0x4269cdf6	58.451134
211	0x42b6696d	91.20591
212	0x42d62340	107.06885
213	0x4287c436	67.883224
214	0x4234a38f	45.159725
215	0x429ae917	77.45525
216	0x42a90ce7	84.5252
217	0x42ddba27	110.86358
218	0x4235c3fe	45.4414
219	0x42938c04	73.77347
220	0x42804ce9	64.150215
221	0x42c2d5de	97.41771
222	0x436ca78d	236.6545
223	0x423923d3	46.284985
224	0x43073696	135.21323
225	0x4277cf72	61.952583
226	0x427e714c	63.61064
227	0x42e5a3c1	114.81983
228	0x4335314e	181.1926
229	0x429f7700	79.73242
230	0x43271a03	167.10161
231	0x424e51f6	51.58004
232	0x427f671b	63.85069
233	0x428342cc	65.63046
234	0x42823132	65.096085
235	0x428695da	67.29268
236	0x42bdd4a5	94.91532
237	0x422544e6	41.317284
238	0x429fd02e	79.9066
239	0x43099c3d	137.6103
240	0x428630f1	67.09559
241	0x432977ab	169.46745
242	0x42c4f569	98.47932
243	0x423ff22e	47.986504
244	0x4301188c	129.09589
245	0x42ae57fa	87.17183
246	0x42e0f9c4	112.48782
247	0x432e5119	174.31679
248	0x433ed05a	190.81387
249	0x431033ca	144.2023
250	0x42fd55ef	126.66784
251	0x423849bf	46.072018
252	0x42b09222	88.285416
253	0x42c359d4	97.675446
254	0x42336b47	44.854763
255	0x42e8591a	116.17403

L2.weight f4 [128, 256]
0	0x3cb6b6da	0.022303987
1	0xbd072ad9	-0.032999847
2	0x3c22345e	0.009900181
3	0x3bbb351c	0.0057131182
4	0xbc93a2e1	-0.018022003
5	0x3d3ea689	0.04654554
6	0xbb97de20	-0.0046346337
7	0x3ccd0be6	0.025030088
8	0xbd20f93c	-0.03930019
9	0xbc525ebd	-0.01283997
10	0xbd3c8431	-0.046024505
11	0xbd7c3a91	-0.06157929
12	0x3d32e5bb	0.04367612
13	0x3d51e917	0.051247682
14	0x3cc6cf53	0.024268782
15	0x3cadbfc9	0.021209614
16	0x3d1e761c	0.038686857
17	0xbaa6cf4f	-0.0012726578
18	0x3cf68eae	0.030097332
19	0x3c263cd7	0.010146341
20	0x3c881ac4	0.016614325
21	0xbbfd01a4	-0.007721143
22	0x3b719a9b	0.0036865834
23	0x3d19549e	0.037434213
24	0x3c8db84e	0.017299797
25	0xbb829748	-0.0039853193
26	0x3d6208b0	0.055184066
27	0xbd204d4d	-0.03913622
28	0xbd1e5b79	-0.038661454
29	0xbd076944	-0.033059373
30	0xbc47d389	-0.01219643
31	0x3c97c103	0.018524652
32	0x3d22124b	0.039568227
33	0x3d230be2	0.039806254
34	0xbbcfda8c	-0.0063431915
35	0x3d7953a1	0.06087077
36	0x3d48e63a	0.049047686
37	0x3c1e7f35	0.009673883
38	0x3c88318a	0.016625185
39	0xbc88f445	-0.01671804
40	0x3d8c3602	0.06846239
41	0xbac75027	-0.0015206382
42	0x3bad8f4a	0.0052966224
43	0x3c90caa7	0.017674757
44	0xbc0e8bcd	-0.008700323
45	0x3c94a06a	0.018142898
46	0xbd68bf58	-0.056823105
47	0x3a31ab2e	0.0006777522
48	0x3d01ad2a	0.031659283
49	0xbd04c416	-0.032413565
50	0x3a23dc2f	0.00062507665
51	0xbd10612b	-0.035248917
52	0xbd7af8c4	-0.061272398
53	0x3d4379dd	0.04772364
54	0x3d0680b9	0.032837603
55	0x3d904a96	0.07045476
56	0x3c234565	0.009965275
57	0xbc63ec7d	-0.013911364
58	0x3d4e5f96	0.050384127
59	0x3d01d222	0.03169454
60	0x3c262443	0.010140481
61	0xbd2ae243	-0.041719686
62	0x3d833338	0.064062536
63	0x3d066b9d	0.03281747
64	0x3c8c06ea	0.01709314
65	0x3d92b093	0.07162585
66	0x3d14ee8d	0.036360312
67	0x3d4a257a	0.049352147
68	0xbd45d6cd	-0.048300553
69	0x3dbbc90a	0.091692045
70	0xbd22a2a1	-0.039705876
71	0x3d04c67c	0.032415852
72	0xbd773ec0	-0.060362577
73	0xbd288b3c	-0.04114841
74	0x3b12d2aa	0.0022403398
75	0xbcbf1920	-0.02332741
76	0x3d8a8a29	0.06764633
77	0x3d8e7826	0.0695651
78	0xbc74d7e3	-0.0149440495
79	0xbd740db6	-0.05958339
80	0x3d40707c	0.046982273
81	0xbce31516	-0.027720015
82	0x3d4a5174	0.049394086
83	0xbc501217	-0.012699625
84	0x3bfa40e5	0.0076371306
85	0x3cfa38ea	0.030544717
86	0xbbee10fc	-0.0072652083
87	0x3c394bc9	0.0113095725
88	0xbc2aeb3c	-0.010432061
89	0x3d488dd2	0.048963375
90	0x3c8694ef	0.016428439
91	0xbd6264f8	-0.055272073
92	0xbcc1fa6d	-0.023678983
93	0xbd642284	-0.05569698
94	0x3d3d7975	0.04625841
95	0x3cb68dc0	0.022284389
96	0x3c159f57	0.009132228
97	0x3c2b2308	0.010445364
98	0xbd0ec35f	-0.03485429
99	0xbc7b8ba1	-0.015353114
100	0x3d687ad6	0.05675777
101	0xbd4b23d1	-0.049594704
102	0xbd5e4ce1	-0.054272536
103	0x3d826a52	0.06367935
104	0xbbca7b64	-0.00617926
105	0x3d7c7c22	0.06164182
106	0x3c0a2692	0.008432047
107	0x3c9f2e45	0.019431243
108	0x3ca90c47	0.020635737
109	0xbd6207cd	-0.05518322
110	0x3d83c4c7	0.06434017
111	0x3d6e2dd7	0.058149185
112	0x3c1cd4d7	0.009572229
113	0xbd384bf8	-0.044994324
114	0xbd86f14d	-0.06588993
115	0xbd826c35	-0.06368295
116	0x3d6f2912	0.058388777
117	0xbd60bf53	-0.05486996
118	0xbb9f1d4d	-0.004855788
119	0x3c959ada	0.018262316
120	0xbd0f38de	-0.034966342
121	0xbd435edf	-0.047697898
122	0x3d637efa	0.055541016
123	0x3cfb28e0	0.03065914
124	0xbd5e1b22	-0.054225095
125	0x3cd774a6	0.02630074
126	0x3d0c764e	0.03429251
127	0xbbaf389f	-0.005347326
128	0xbd1fc1da	-0.03900323
129	0x3d0e7da1	0.034787778
130	0xbbca76ae	-0.0061786985
131	0xbd0a9dd5	-0.033841927
132	0x3c0541cc	0.008133363
133	0xbc84e54f	-0.016222624
134	0x3ce557c2	0.027995948
135	0xbccb6974	-0.024830557
136	0xbc9ce165	-0.019150445
137	0xbaa235db	-0.0012375669
138	0x3d410245	0.047121305
139	0x3cfcc1f4	0.030854203
140	0x3b9e9e33	0.004840636
141	0xbd276edd	-0.04087721
142	0x3ccfdc85	0.025373707
143	0xbd343d29	-0.04400364
144	0xbd5a7454	-0.053333595
145	0x3c258ec9	0.010104843
146	0xbc9ea31d	-0.019364888
147	0x3d32eacc	0.04368095
148	0x3b8ed184	0.0043584723
149	0x3ae4c5ce	0.001745397
150	0xbb212e19	-0.0024594127
151	0xbd192a25	-0.037393708
152	0xbcf4e9bd	-0.029896611
153	0x3d5c5af9	0.053797696
154	0xbc60f928	-0.0137312785
155	0xbd0d135e	-0.034442298
156	0x3d3fa120	0.04678452
157	0x3bf1a82a	0.007374783
158	0xbbbdf55c	-0.0057970714
159	0x3cbc0231	0.022950264
160	0xbbc5507d	-0.006021558
161	0xbc42a9d9	-0.011881315
162	0x3cde6482	0.027147535
163	0x3c38d5f6	0.011281481
164	0x3d3fbe2d	0.046812225
165	0xbc7f5b56	-0.015585741
166	0x3d16221d	0.036653627
167	0x3c18bd95	0.009322544
168	0xbd145860	-0.036217093
169	0x3cda2db1	0.026633115
170	0x3cf6a6e9	0.030108886
171	0xbb135bec	-0.002248521
172	0x3ce19980	0.027539015
173	0x3b3dfc71	0.0028989578
174	0xbd547062	-0.05186499
175	0xbd43a42b	-0.047763985
176	0x3cb7362f	0.022364704
177	0x3d18b4de	0.037281863
178	0xbd68d181	-0.056840423
179	0xbd5bc5c0	-0.053655386
180	0x3cc9629b	0.024583152
181	0xbd0b9c22	-0.034084447
182	0xbcb58389	-0.022157447
183	0xbc910424	-0.01770217
184	0x3d81fb61	0.06346775
185	0xbbc462ab	-0.0059932075
186	0x3d5f81bb	0.05456708
187	0xbcbcd413	-0.023050344
188	0xbd7d753b	-0.061879378
189	0x3d91401e	0.070923075
190	0xbc6b3ac2	-0.014357271
191	0xbc4a179f	-0.012334733
192	0xbd260972	-0.04053635
193	0x3d3f5a9b	0.046717267
194	0xbb64e9a1	-0.0034929293
195	0x3d8ff121	0.070284136
196	0x3cda4c87	0.02664782
197	0xbd4bc29b	-0.049746137
198	0xbbb24203	-0.005439998
199	0x3d8b4452	0.068001404
200	0x3c2700f3	0.010193097
201	0xbc49b160	-0.012310356
202	0xb9d966b3	-0.00041465982
203	0xbd50b26c	-0.050951406
204	0x3b042e43	0.0020169176
205	0xbcb4f53e	-0.022089597
206	0xbc146fc3	-0.009059849
207	0xbd27ac7c	-0.04093598
208	0xbd0860cd	-0.03329544
209	0xbd3f4c41	-0.04670358
210	0x3cd6bf6f	0.02621433
211	0x3d6b4777	0.0574412
212	0x3c3497b8	0.011022501
213	0x3d4e7122	0.05040086
214	0x3c9e44b8	0.019319877
215	0x3d364ee6	0.044508837
216	0x3d8440eb	0.064576946
217	0xbca80e41	-0.02051461
218	0x3d66f0be	0.056381933
219	0x3c4772c8	0.012173362
220	0x3d2436c9	0.04009131
221	0xbccc9659	-0.024974035
222	0xbd356251	-0.044283215
223	0xbc572076	-0.013130298
224	0xbc1185ce	-0.008881999
225	0x3ca9bc56	0.020719688
226	0x3bbe7279	0.005811986
227	0x3d118807	0.035530116
228	0x3d9939d0	0.0748173
229	0x3d4124b5	0.047154147
230	0xbce0c08e	-0.027435567
231	0xbcfcdc58	-0.030866787
232	0xbbf67a93	-0.007521936
233	0xbc043de7	-0.008071399
234	0x3ca96f92	0.020683084
235	0x3d6cbc64	0.05779685
236	0x3be72ced	0.007054916
237	0xbd02c312	-0.031924315
238	0xbd2a88a1	-0.041634206
239	0x3d6f77e6	0.058463953
240	0x3d6712bd	0.056414355
241	0x3c563d42	0.013076128
242	0xbd813247	-0.06308418
243	0x3d0bc94a	0.03412751
244	0xbbb4bb41	-0.0055154865
245	0xbd62b2c9	-0.055346284
246	0x3ca48dec	0.020087205
247	0x3c7609d1	0.015016989
248	0x3d2d8d1c	0.0423709
249	0x3c86cb7f	0.016454456
250	0xbc848ea2	-0.016181294
251	0x3d6be8b2	0.057594962
252	0xbd881286	-0.06644158
253	0x3d90b74e	0.070662126
254	0xbbfbbdf8	-0.007682558
255	0x3d529597	0.05141219

L2.bias f4 [128]
0	0xbb82c8b1	-0.0039912094
1	0xbd2a73d1	-0.041614357
2	0xbbe0169d	-0.006838633
3	0xbd10156a	-0.035176672
4	0x3cc49e0c	0.024001144
5	0xbd12ff48	-0.035887986
6	0xbd17c2d6	-0.037051044
7	0xbd460592	-0.048345156
8	0xbcbf931c	-0.023385577
9	0xbc65094c	-0.013979267
10	0x3c34493d	0.0110037895
11	0x3c937eee	0.01800486
12	0xbcc7a0c7	-0.024368657
13	0xbd49b395	-0.04924353
14	0x3d6f16ed	0.058371473
15	0x3d1db0f8	0.03849885
16	0xbcc079e2	-0.023495618
17	0x3b8ba70a	0.004261856
18	0xbd4c916f	-0.049943384
19	0xbd4b3ec4	-0.049620405
20	0x3d631ab0	0.055445373
21	0x3ccdfe25	0.0251456
22	0x3c6cfd74	0.014464725
23	0xbd41a941	-0.047280554
24	0xbd583114	-0.05278118
25	0xbd29028c	-0.041262195
26	0xbd17ac7c	-0.03702973
27	0x3ca3d26e	0.019997802
28	0x3bb2d301	0.0054572825
29	0x3cf1e148	0.029526368
30	0x3caf973f	0.021434424
31	0xbc2d0d6e	-0.010562284
32	0x3aa72e9c	0.001275498
33	0x3d03e82a	0.03220383
34	0xbb921f3f	-0.004459291
35	0x3bcd4ec7	0.0062654945
36	0x3bbffcf4	0.005859012
37	0xbc2b131e	-0.01044157
38	0xbca475bf	-0.020075677
39	0x3ca3a6d0	0.019977003
40	0x3d5b5ecb	0.0535572
41	0xbd4d32f1	-0.05009741
42	0xbb8eed6e	-0.0043618
43	0xbce1f574	-0.027582861
44	0xbc03444c	-0.008011889
45	0x3cbb7be7	0.02288623
46	0xbd5f96b7	-0.054587092
47	0x3cefa57d	0.029253716
48	0x3cbdc31f	0.02316433
49	0xbcfba08c	-0.030716203
50	0xbd14a943	-0.036294233
51	0xbcb3d609	-0.021952646
52	0xbb2b58ee	-0.0026145536
53	0xbd1053c8	-0.03523615
54	0x3d651a98	0.055933565
55	0xbb859896	-0.0040770276
56	0xbcce03f5	-0.025148371
57	0xbd447040	-0.047958612
58	0x3ccb9832	0.024852846
59	0xbd099d0e	-0.033597045
60	0x3caa3a9b	0.020779898
61	0xbc317746	-0.01083166
62	0xbce0df87	-0.027450336
63	0x3caf7398	0.021417424
64	0xbd7a98f7	-0.061181035
65	0x3d1f68a1	0.03891814
66	0xbb48cd6b	-0.0030640017
67	0x3bd565f1	0.0065123965
68	0x3d115aa1	0.03548682
69	0xbca3cc21	-0.019994797
70	0x3ccb800e	0.024841335
71	0x3a628d65	0.0008642285
72	0xbc938eb9	-0.018012391
73	0x3d3cabaa	0.04606215
74	0x3bf3175c	0.007418556
75	0x3d297693	0.041372847
76	0xbc91d2e3	-0.017800754
77	0x3cfbef28	0.030753687
78	0x3cf0f2cc	0.02941265
79	0x3d1306c3	0.03589512
80	0x3d05ba3d	0.032648314
81	0x3d106603	0.035253536
82	0xb9f334ce	-0.00046387914
83	0x3bac8cbc	0.0052658003
84	0xbd4bf2e9	-0.049792204
85	0x3d32e838	0.043678492
86	0x3c92009b	0.017822554
87	0xbc884647	-0.016635073
88	0xbd4f30e9	-0.050583754
89	0xbcd71fcb	-0.026260277
90	0xbb8c77e1	-0.0042867516
91	0x3cf3d229	0.029763298
92	0xbb489bb3	-0.0030610382
93	0x3cbddbe6	0.023176145
94	0x3c438366	0.011933183
95	0x3d74804c	0.059692666
96	0x3d6958af	0.05696934
97	0x3d29b677	0.041433778
98	0xbd7ddd1c	-0.061978444
99	0xbcc2d0bb	-0.023781171
100	0x3cd69d72	0.026198123
101	0x3d2670cd	0.04063492
102	0x3d26d3b2	0.040729232
103	0xbcbbf765	-0.022945115
104	0x3bfd7879	0.0077353087
105	0x3c4578fb	0.01205277
106	0x3cdd9bd2	0.02705184
107	0xbd402717	-0.04691228
108	0xbd6bc643	-0.057562124
109	0x3d6a4246	0.05719211
110	0x3c30ff5c	0.01080307
111	0x3cfd87ca	0.030948538
112	0xbd42fa0c	-0.047601745
113	0xbc1b300d	-0.009471905
114	0x3cc96511	0.024584325
115	0xbd553f42	-0.05206228
116	0xbd288e9f	-0.04115164
117	0xbbbca990	-0.005757518
118	0xbc9f9648	-0.01948084
119	0x3d66d4a4	0.056355134
120	0xbd5567c5	-0.052100915
121	0xbd441eca	-0.047880925
122	0xbca96d7f	-0.020682095
123	0xbc903ef3	-0.017608142
124	0xbd71fe00	-0.059080124
125	0xbb1f6857	-0.0024323666
126	0x39ad8f75	0.00033104015
127	0x3d26ea7f	0.040750977
